trained_model/BiSegNet(ReagentV1)_no_train.pt (torch, 707587 bytes, 141 tensors)

weight f4 [16, 1, 3, 3]
000000 70 9e 5d bc 06 7d 24 be 4c ab 74 3d b0 db 0b bd
       -0.013526544 -0.16063318 0.059733674 -0.034145057
000010 8c 93 55 3d a7 a9 17 3e 55 9a 49 3e ba 08 c3 3d
       0.052142665 0.14810811 0.19687779 0.09523149
000020 6e 1a df bd 18 a7 3f bd a2 e5 da 3d 74 36 61 bd
       -0.10893713 -0.046790212 0.1068833 -0.05498357
000030 14 12 f7 bd b8 21 a6 bd ee eb fc 3d 6b ac 14 be
       -0.12063995 -0.081119 0.123496875 -0.14518897
000040 c1 d4 0e 3e 5e fa be bd 87 cb 06 3e 27 c4 cb bd
       0.13948347 -0.093250975 0.13163577 -0.099495225
000050 2a ca 8a 3d d0 77 bc 3c 86 c1 d8 3d 80 11 0a bb
       0.06776841 0.02300635 0.10583787 -0.002106756
000060 8c 20 6f 3d f6 4f d1 bd f0 82 78 3c 1f 15 d5 bd
       0.05838065 -0.102203295 0.015167937 -0.10404419
000070 ce 71 2f be c8 ce ff bc c0 c1 c5 bc 6e 7e 91 bd
       -0.17133257 -0.03122653 -0.024140239 -0.07104193
000080 99 e7 31 3e 16 e6 cf bd ea ed d5 3d c0 1b 8a 3c
       0.17373504 -0.10151307 0.10445769 0.016858935
000090 00 ff 3d ba c0 05 ab 3b 20 0a 9d 3b 85 51 27 3e
       -0.0007247776 0.0052191913 0.0047924668 0.16339691
0000a0 8f d6 2d be d0 d3 31 be 38 23 3b 3d 02 8d 90 bd
       -0.16976379 -0.17365956 0.045687884 -0.07058145
0000b0 58 0b f7 bc 04 0b 70 3d f2 13 a4 3d cd ff 49 3e
       -0.030156776 0.058604255 0.08011617 0.19726487
0000c0 de 7d ff 3d b1 95 16 3e d7 eb 16 be 01 06 03 3e
       0.12475179 0.1470554 -0.14738403 0.12795259
0000d0 d2 7f ae 3d 1d 9a 1c be 4e cb 87 3d c1 4d 21 3e
       0.085204735 -0.15293165 0.06630574 0.15752317
0000e0 80 37 11 bc db 4f 21 3e 10 06 c5 bc 84 a5 13 3d
       -0.00886333 0.15753119 -0.024050742 0.03604652
0000f0 c4 5f 28 bd 50 f9 8e bc 3e 7e bf 3d 1b 65 3a 3e
       -0.041106954 -0.017452866 0.09350251 0.18202631
000100 90 ff 14 bc 22 07 a9 3d c4 37 6e 3d 38 a5 4a be
       -0.009094134 0.082533136 0.05815865 -0.19789588
000110 7f 4a ef bd c0 52 ad 3b 6f f2 20 3e 71 12 23 3e
       -0.11684131 0.0052894056 0.15717481 0.15925004
000120 6b 55 26 be 74 c9 be bd ac e9 02 be c8 bc 44 be
       -0.16243522 -0.09315768 -0.12784451 -0.1921264
000130 f9 87 2a 3e d1 48 39 3e 84 e9 38 3d f5 a6 e8 bd
       0.16653432 0.18094184 0.045144573 -0.113599695
000140 78 31 d7 bd e1 cd 3e 3e 04 31 0d 3d 28 2b bc 3c
       -0.10507482 0.18633224 0.034470573 0.022969797
000150 37 1c f7 bd 16 7c a9 3d 5b 38 18 3e 93 76 fa bd
       -0.120659284 0.08275621 0.14865248 -0.122296475
000160 34 8d 21 be db af 0c be e8 72 62 bd 6a 17 8b bd
       -0.15776521 -0.13738959 -0.055285364 -0.06791575
000170 90 5e 1f 3c dc b5 15 bd e4 0e 3a 3d 4c cc 7e bd
       0.009727135 -0.036550388 0.045424357 -0.06220655
000180 5e b1 48 be 22 4a f9 3d bc ef 13 bd 52 70 8c bd
       -0.1959891 0.12172343 -0.0361173 -0.06857361
000190 15 43 f4 bd 4e 1f 95 3d 75 eb 2e be 0d c6 08 3e
       -0.119268574 0.072813615 -0.17082007 0.133568
0001a0 05 bb 25 3e e0 14 dd 3b 3e bf b8 3d a8 7e 1f bd
       0.16184624 0.0067468733 0.090208516 -0.03893915
0001b0 50 28 48 bd e5 ee 3d be d8 73 dc bc 26 f7 9d bd
       -0.04886657 -0.18548162 -0.026910707 -0.077131554
0001c0 4d ab 02 3e cc de 3e be 60 47 2a be 18 da e6 bc
       0.12760659 -0.18639678 -0.1662879 -0.028180167
0001d0 5c 50 6f bd 1f b9 13 3e 8e b1 8f 3d b0 2e ba 3c
       -0.058426246 0.14426087 0.07016288 0.02272734
0001e0 57 34 1e 3e 13 d6 1b 3e 00 f2 ac ba 0a f2 88 3d
       0.15449654 0.15218382 -0.001319468 0.0668679
0001f0 5e 0c 85 3d 32 7f b2 3d dc 44 f6 bd 85 5d 31 3e
       0.064964995 0.08715667 -0.12024853 0.17320831
000200 5a a4 cc 3d ee f1 04 be 3e f7 bd 3d 5e 63 c7 3d
       0.09992285 -0.12982914 0.09275673 0.0973575
000210 e4 a9 5a 3d 3c 76 78 3d 54 0e 0d 3d f8 c6 20 3d
       0.053384677 0.060659632 0.034437492 0.03925225
000220 40 08 f7 bd 20 a6 c1 3b 70 94 7f 3c 41 9b a9 bd
       -0.120621204 0.005909696 0.015599355 -0.082815655
000230 40 15 16 be e1 ba 16 3e 4e 12 b4 3d 81 84 33 be
       -0.14656544 0.14719726 0.08792554 -0.17531015

weight f4 [16]
000000 00 00 80 3f 00 00 80 3f 00 00 80 3f 00 00 80 3f
       1.0 1.0 1.0 1.0
000010 00 00 80 3f 00 00 80 3f 00 00 80 3f 00 00 80 3f
       1.0 1.0 1.0 1.0
000020 00 00 80 3f 00 00 80 3f 00 00 80 3f 00 00 80 3f
       1.0 1.0 1.0 1.0
000030 00 00 80 3f 00 00 80 3f 00 00 80 3f 00 00 80 3f
       1.0 1.0 1.0 1.0

bias f4 [16]
000000 00 00 00 00 00 00 00 00 00 00 00 00 00 00 00 00
       0.0 0.0 0.0 0.0
000010 00 00 00 00 00 00 00 00 00 00 00 00 00 00 00 00
       0.0 0.0 0.0 0.0
000020 00 00 00 00 00 00 00 00 00 00 00 00 00 00 00 00
       0.0 0.0 0.0 0.0
000030 00 00 00 00 00 00 00 00 00 00 00 00 00 00 00 00
       0.0 0.0 0.0 0.0

running_mean f4 [16]
000000 47 cd 3e 3c d7 ae 09 bc 87 72 1f 3c 9a c6 26 bc
       0.011645622 -0.0084035015 0.009731895 -0.010179186
000010 97 f5 3a bc f2 9a d2 3c b3 f8 a9 3c 3b 05 81 3c
       -0.011411092 0.02570865 0.020748472 0.015749564
000020 4e 99 a1 bc a5 89 4e bb ea ed 5e bc fa 29 69 3b
       -0.019726422 -0.0031515148 -0.013606528 0.0035577998
000030 62 af 03 bd 22 74 1a 3d 57 89 94 3c c6 73 3d bc
       -0.03214968 0.03770841 0.018131895 -0.011563247

running_var f4 [16]
000000 6f a4 66 3f 26 9f 66 3f 35 86 66 3f 78 9d 66 3f
       0.90094656 0.9008659 0.90048534 0.9008403
000010 03 9a 66 3f 0d bd 66 3f 3d 8b 66 3f a4 b7 66 3f
       0.90078753 0.9013222 0.9005621 0.90123963
000020 2e c8 66 3f 3a b2 66 3f 07 8e 66 3f 73 a1 66 3f
       0.901492 0.901157 0.90060467 0.900901
000030 4c ae 66 3f 7f 99 66 3f 64 9b 66 3f 08 a0 66 3f
       0.90109706 0.90077966 0.9008086 0.9008794

weight f4 [16, 16, 1, 1]
000000 39 a7 c6 be ba 2c 07 be d0 e7 dc 3c bc 9d d0 3d
       -0.38799456 -0.13200656 0.026966006 0.101863354
000010 cc 07 ba 3d 5c a3 8c be a0 cc f1 bd dc 4e f5 3d
       0.090835184 -0.27468383 -0.11806607 0.11977932
000020 64 82 b4 be b2 49 17 3e e2 ce 07 3e 22 9a 37 be
       -0.3525573 0.14774206 0.13262513 -0.17929891
000030 31 fa 87 3e da 2c 3a 3e 76 39 31 be f0 79 88 3c
       0.26558068 0.18181172 -0.17307076 0.016659707
000040 f1 d4 c5 be 00 c0 b2 3c 86 4b 3e be 92 0f 6a 3e
       -0.38639024 0.021820068 -0.18583497 0.22857502
000050 4b d2 bc 3e c8 07 57 bd 8f ae b9 3e 57 1e db be
       0.3687919 -0.052497655 0.3626599 -0.42796585
000060 98 f5 53 be 90 00 f9 bc bd 6d cf 3e 79 22 a7 3e
       -0.20699155 -0.030395776 0.4051341 0.32643488
000070 05 1a 80 3e 3e 32 1e be e1 e4 b2 3e cc ed 93 bd
       0.2501985 -0.15448853 0.34940246 -0.072230905
000080 46 5d 84 be ae 25 00 3e bd 05 52 be 54 d7 e2 3d
       -0.25852412 0.12514374 -0.20510001 0.11076227
000090 6c 7e a6 3d 68 00 01 bd 59 b8 b2 3e 72 63 66 3e
       0.08129582 -0.031494528 0.3490627 0.22498873
0000a0 da fc 0b be 7a 75 96 be f5 c0 ae be d2 dc 0d 3e
       -0.13670674 -0.29386503 -0.3413159 0.13853768
0000b0 60 0e e0 3c 81 d6 91 3e 6b 56 6f be 28 5b 7f be
       0.027350605 0.28483966 -0.2337281 -0.24937117
0000c0 70 7c 1f bd bb 9e 93 3e 10 05 fb bd 80 ba 72 3d
       -0.038937032 0.2883204 -0.12256825 0.05925989
0000d0 68 85 47 be e8 b0 23 bd 16 a1 a3 be 22 af 3e be
       -0.19484484 -0.039963633 -0.31958836 -0.18621495
0000e0 40 7e b6 bb e9 38 b0 3e cf 03 ac be 06 d8 a1 be
       -0.0055692494 0.3441842 -0.33596656 -0.31610125
0000f0 86 71 7a 3e 87 d7 a9 be 25 56 8f be 51 39 b9 3e
       0.24457368 -0.33172247 -0.2799541 0.3617654
000100 56 90 34 3e fb 3b c1 3e fa 1a bc be c5 e4 4d be
       0.17633185 0.37741074 -0.3673933 -0.201068
000110 dc 0b 90 be 5c 28 91 bd d1 9e 63 be e0 ef d5 bd
       -0.28134048 -0.07087776 -0.22228552 -0.10446143
000120 b7 2d 89 be d9 88 99 3e a4 2b 21 be 09 2e d4 3e
       -0.2679269 0.2998722 -0.15739304 0.41441372
000130 e8 e0 61 be ec ca eb bd 23 48 b1 3e ae d7 65 3e
       -0.22058451 -0.11513314 0.34625348 0.22445557
000140 9d b9 54 be 81 47 84 3e 60 89 88 3d 82 c7 79 3e
       -0.20773931 0.25835803 0.06666827 0.24392512
000150 7e 30 c0 be a7 95 aa 3e 46 bb 52 3e db 39 ad 3e
       -0.37536997 0.333173 0.20579252 0.33833203
000160 8b ec 8d 3e 09 77 78 be 7a 8e 49 3e 3c b4 b9 3d
       0.2771953 -0.24264158 0.19683257 0.0906758
000170 69 a6 73 be a6 18 27 3e 6a d0 14 be 00 8c 37 ba
       -0.23793949 0.16317996 -0.14532629 -0.00070017576
000180 bc 0b e4 3d 9d d0 bf be b8 0e 80 bd ae 8b 41 be
       0.11135051 -0.37463847 -0.062528074 -0.1890094
000190 96 c3 45 be dd 0b 8f be 20 be a8 bd ac 41 ed 3d
       -0.19312891 -0.27938738 -0.082393885 0.115847915
0001a0 e6 6e 1c be 40 48 38 bc 63 ce a6 3e 84 fc ae bd
       -0.1527668 -0.0112476945 0.32579336 -0.08544257
0001b0 9c c7 8f 3d 30 e6 23 bd 40 44 13 3c 3a 8d 81 be
       0.07020494 -0.040014446 0.00898844 -0.2530306
0001c0 37 5c 91 3e 1c 39 96 bd ad df 9a 3e d0 b4 5d bd
       0.28390667 -0.073351115 0.30248776 -0.054127514
0001d0 5f 98 ac 3e 9b 26 bb 3e 14 f2 18 be 6a 33 10 be
       0.3371 0.3655289 -0.14936095 -0.14082113
0001e0 f0 7b 64 3d da f5 34 3e 10 52 a7 bc 2d 06 84 be
       0.05578226 0.1767191 -0.020424873 -0.25785962
0001f0 0e e0 b6 be 62 aa 00 3e 52 73 1b 3e 37 6b 8a 3e
       -0.35717815 0.12564996 0.1518071 0.27034923
000200 90 b0 ba 3c b4 ec b3 bd 68 15 87 be e7 6a a8 3e
       0.02278927 -0.08785382 -0.2638352 0.3289406
000210 64 1d 86 3d 7e 86 80 be 36 49 3b be 00 6d f2 bd
       0.065485746 -0.2510261 -0.18289647 -0.11837196
000220 0a 69 7d 3e 53 f3 a7 3e b7 72 da 3e 44 66 e9 bd
       0.247471 0.3280283 0.42665645 -0.11396459
000230 87 8a 95 3e 25 50 a0 be 5e 33 80 be 4a 7d 7f 3e
       0.2920725 -0.31311145 -0.2503919 0.24950138
000240 54 e7 eb 3d 90 ec fe bd 30 ff 18 bd 00 72 f7 bd
       0.11518732 -0.124474645 -0.03735274 -0.12082291
000250 84 96 8a be f0 1d 78 bd e6 cd 0d 3e 98 ed 00 bd
       -0.2706796 -0.060575426 0.13848075 -0.031476587
000260 00 65 54 be 41 a5 bc 3e d7 d7 51 be b9 16 8d 3e
       -0.20741653 0.3684483 -0.20492493 0.275564
000270 d0 af db bc d4 5f 9a 3d 95 df 7b be 47 50 51 be
       -0.026817232 0.07537809 -0.24597009 -0.2044078
000280 fe 61 32 3e a4 7c c9 be c0 20 40 be d8 5a 74 3d
       0.17420194 -0.39352906 -0.18762493 0.059656948
000290 c7 7f 8e 3e 59 3f c6 be 19 ba d0 3e f0 3d 86 bd
       0.2783186 -0.38720205 0.4076698 -0.065547824
0002a0 70 78 42 3d 13 46 97 3e 36 f7 49 3e 31 22 cc be
       0.04747814 0.2954565 0.1972321 -0.39869836
0002b0 78 6d 18 bd 43 12 68 be e0 cb ca bd 25 62 a5 3e
       -0.037213773 -0.22663216 -0.09902167 0.3230144
0002c0 38 23 3f be e1 4a 56 be ec 57 a8 3d 37 c4 8b 3e
       -0.18665779 -0.20927002 0.08219895 0.27298138
0002d0 00 cc 71 ba 80 ff 88 be 4a 57 73 be 18 6b a4 be
       -0.0009223819 -0.2675743 -0.23763767 -0.32112956
0002e0 81 8f 89 3e 23 25 d1 3e 4e d9 09 be d0 86 e6 bd
       0.26867297 0.40848646 -0.13461801 -0.11256182
0002f0 60 be 4e 3d e8 40 ab bd ac 1a 24 be 2e de 77 be
       0.050474524 -0.08361989 -0.160258 -0.24205849
000300 07 72 c8 be af 0d b9 3e 29 3e 66 be 58 e3 06 3d
       -0.39149496 0.36143252 -0.2248465 0.032931656
000310 c6 dc 10 3e af ed a2 3e 38 c4 16 be a0 37 26 3d
       0.14146718 0.31821963 -0.14723289 0.040580392
000320 3b e6 d5 be 76 a4 3c 3e e8 d3 85 3d 90 e9 c8 bc
       -0.41777214 0.18422112 0.065345585 -0.024525434
000330 3a c9 09 be ac e2 da 3d d3 64 90 3e 5e c1 71 be
       -0.13455668 0.106877655 0.28201923 -0.2360892
000340 ef 47 ae 3e 2e e2 6e be 18 cf 76 bd 7e aa 04 3e
       0.34039256 -0.23328468 -0.060256094 0.12955663
000350 6d e0 d8 be 38 0b 3c bd d0 c7 23 3d 8c 17 aa be
       -0.42358723 -0.045909137 0.039985478 -0.3322109
000360 ed ce b0 be 5c 2c e1 3d 68 d7 c3 be f8 fe e7 bd
       -0.34532872 0.10994789 -0.3825028 -0.11327928
000370 50 79 22 bd d6 04 35 3e 12 71 15 3e bc d7 be be
       -0.039666474 0.17677626 0.14593914 -0.37273967
000380 a2 d7 1e 3e 34 9f 87 be c0 62 48 3d 73 f7 9a 3e
       0.15511945 -0.2648865 0.0489223 0.30266914
000390 d1 cd c0 be 35 fb aa 3e d8 25 37 be 69 12 80 3e
       -0.37657025 0.3339478 -0.1788553 0.25014046
0003a0 79 c1 c8 be cc 9d d1 be a8 b7 d0 bd ee ea 1f 3e
       -0.39210108 -0.40940702 -0.1019128 0.15616962
0003b0 00 7f 93 3a 3e 42 47 3e 45 12 d8 3e 3a f9 49 3e
       0.0011253059 0.19458863 0.4220144 0.19723979
0003c0 c0 c4 f6 bb 82 ee 2e 3e 3e 35 37 3e 59 53 c4 3e
       -0.0075307786 0.17083171 0.17891404 0.3834484
0003d0 16 62 48 3e 8a 86 da be f0 41 ab bd 61 d0 af 3e
       0.19568667 -0.4268077 -0.08362186 0.34338668
0003e0 5f 32 d4 be 5e 60 a2 be e2 55 08 3e 1a db 32 3e
       -0.4144468 -0.31714147 0.13314012 0.17466393
0003f0 1e ab 7f 3e 16 3f 43 3e e0 d7 f5 3c 00 50 2a bb
       0.2496762 0.19067034 0.030010164 -0.0025987625

weight f4 [16]
000000 00 00 80 3f 00 00 80 3f 00 00 80 3f 00 00 80 3f
       1.0 1.0 1.0 1.0
000010 00 00 80 3f 00 00 80 3f 00 00 80 3f 00 00 80 3f
       1.0 1.0 1.0 1.0
000020 00 00 80 3f 00 00 80 3f 00 00 80 3f 00 00 80 3f
       1.0 1.0 1.0 1.0
000030 00 00 80 3f 00 00 80 3f 00 00 80 3f 00 00 80 3f
       1.0 1.0 1.0 1.0

bias f4 [16]
000000 00 00 00 00 00 00 00 00 00 00 00 00 00 00 00 00
       0.0 0.0 0.0 0.0
000010 00 00 00 00 00 00 00 00 00 00 00 00 00 00 00 00
       0.0 0.0 0.0 0.0
000020 00 00 00 00 00 00 00 00 00 00 00 00 00 00 00 00
       0.0 0.0 0.0 0.0
000030 00 00 00 00 00 00 00 00 00 00 00 00 00 00 00 00
       0.0 0.0 0.0 0.0

running_mean f4 [16]
000000 91 8e af bc 0a 03 05 3d b3 21 87 bc 6c 5d 11 bd
       -0.021430286 0.0324736 -0.016495561 -0.035489485
000010 18 22 e5 bb 4b a9 1e 3d af 2f 33 bd 34 5b 27 3d
       -0.0069925897 0.03873567 -0.043746646 0.040858462
000020 ea cd 7c 3c 9f ce b9 bc 3a fb 4b b9 4c 5f 10 bd
       0.015429953 -0.022681532 -0.00019453178 -0.035247132
000030 15 b9 ee ba 7d 75 68 bd d2 3e 5d 3c 47 35 04 3d
       -0.0018213118 -0.05675267 0.013503747 0.03227737

running_var f4 [16]
000000 26 5b 6e 3f 2a 4e 71 3f f3 30 6f 3f d3 f7 6e 3f
       0.9310783 0.94259894 0.93434066 0.933469
000010 d4 e3 72 3f 64 d0 6b 3f f0 51 69 3f 78 53 70 3f
       0.9487889 0.92114854 0.9114065 0.93877363
000020 85 59 76 3f cf b0 6a 3f d9 74 6d 3f cf df 6f 3f
       0.96230346 0.9167604 0.9275642 0.9370088
000030 04 d7 6e 3f e9 d5 6e 3f 0e 1b 71 3f 94 93 6e 3f
       0.9329684 0.9329515 0.9418191 0.93193936

weight f4 [16, 1, 3, 3]
000000 69 ef 3d be 67 cd 23 3e 83 f1 10 3e 81 1d 43 3e
       -0.18548359 0.15996324 0.1415463 0.19054224
000010 80 66 0a be fe 9e f6 3d c3 c9 29 be 0f 39 34 3e
       -0.13515663 0.12042044 -0.16580872 0.17599891
000020 e8 e5 a6 bd 70 5d c7 bd 72 4b b2 3d 00 74 00 bc
       -0.0814932 -0.09734619 0.08705796 -0.007840157
000030 e0 de 21 3c 66 09 ec 3d f0 22 1a 3c 8e 57 f4 3d
       0.009879798 0.1152523 0.009407744 0.11930762
000040 32 da 40 be f9 17 29 3e e2 af 0d be 40 26 c3 3b
       -0.18833235 0.16513051 -0.13836625 0.0059554875
000050 ef fe 0e 3e 8e 9d 97 3d 73 0f e2 bd 17 4f fe bd
       0.13964437 0.07403098 -0.11038103 -0.12417429
000060 72 cd e2 bd 3f eb 35 3e 46 80 00 be 2b e5 18 be
       -0.11074342 0.1776552 -0.12548932 -0.1493117
000070 a3 b9 2b 3e ed ca 39 3e e6 13 87 3d 7b 41 20 3e
       0.16770034 0.18143816 0.06595592 0.15649979
000080 02 bc 8d 3d 0d f6 48 3e 83 b3 18 be be 18 e6 3d
       0.06920625 0.19625111 -0.14912228 0.11235188
000090 2a 37 f0 3d cc c3 01 3d 90 25 17 3c ec 33 2e be
       0.11729272 0.031680867 0.009225264 -0.17011994
0000a0 c1 46 09 3e d0 4d 93 3c 26 9e cb 3d 81 a8 a6 bd
       0.13405897 0.01798144 0.09942274 -0.08137608
0000b0 bc 1c 39 bd 4a 6a bc 3d d3 59 0d 3e d8 9f 41 3d
       -0.04519342 0.091999605 0.13803796 0.04727158
0000c0 c8 c4 48 3d 20 95 77 bd 60 e3 09 bc e5 26 02 3e
       0.04901579 -0.06044495 -0.008416027 0.1271015
0000d0 d8 d9 f6 bc 10 f4 93 3c 96 95 ba 3d 63 47 33 3e
       -0.030133173 0.018060714 0.091105625 0.175077
0000e0 d6 22 e4 3d 44 eb 2d be a6 e7 2d be 9a fc 81 bd
       0.11139457 -0.16984278 -0.16982898 -0.06347008
0000f0 96 21 c6 3d 49 76 01 3e e4 d9 05 be 6a d3 86 bd
       0.09674375 0.12642778 -0.130714 -0.06583293
000100 94 ee 3b bd 04 cc 25 3d d1 b0 49 3e 97 8d f3 bd
       -0.045881823 0.040477768 0.19696356 -0.118922405
000110 97 bb 33 3e b6 1e 01 be 1c 87 71 3d 03 39 2e 3e
       0.17552029 -0.12609372 0.05896674 0.17013936
000120 5c 90 56 3d 39 87 1e 3e 3b 2b e0 bd 88 06 99 bd
       0.052383766 0.15481271 -0.109457456 -0.07471949
000130 36 fd 2a be c0 bd c6 bb 78 8d 24 be fc 4f 5a bd
       -0.16698155 -0.0060651004 -0.16069591 -0.053298935
000140 5f 74 bd bd 67 55 07 3e 70 c4 af bd 4e bf cd 3d
       -0.09250712 0.13216172 -0.08582389 0.10046254
000150 38 f2 f1 bd 0c 56 5b bd a8 0c ec 3c 2d ca 0d 3e
       -0.11813778 -0.053548858 0.028814629 0.13846655
000160 27 08 18 3e 02 82 1d be db 96 3d 3e cb e1 30 3e
       0.1484686 -0.15381625 0.18514578 0.17273633
000170 20 31 9a bc 66 45 ac 3d e8 ad 00 3d 7f f1 49 3e
       -0.018822253 0.08411674 0.03141585 0.1972103
000180 0e 40 e7 3d 85 14 2d 3e a6 96 3b be 61 10 2c 3e
       0.11291514 0.16902359 -0.18319187 0.16803123
000190 83 73 34 be 10 67 08 be e1 db 44 be 3c 9e 2b bd
       -0.17622189 -0.13320565 -0.19224502 -0.04189895
0001a0 36 5b ff bd 83 0b 1b be 41 e5 27 3e 26 25 8b bd
       -0.12468569 -0.1514111 0.16396047 -0.06794195
0001b0 94 58 28 be 74 36 16 3d f0 7c 6a bd 40 98 26 bc
       -0.1644004 0.036673024 -0.057248056 -0.010168135
0001c0 c5 fd 00 3e 66 fa cb bd 4e 49 ab 3d 1c 9c 52 3d
       0.12596805 -0.09959869 0.08363591 0.05141841
0001d0 fb 8d 2e 3e f3 0d 39 be 4f 27 37 3e 1a da e0 3d
       0.17046349 -0.18071727 0.17886089 0.109790996
0001e0 c0 68 c5 bb c4 cd 0a 3d a2 47 b5 3d 87 0c ae bd
       -0.00602445 0.03388764 0.088515535 -0.08498483
0001f0 71 46 d0 bd ae d6 f9 3d b7 83 2b 3e 42 3e cc 3d
       -0.10169686 0.1219915 0.16749464 0.09972812
000200 b8 d7 c7 3c ba 5b df 3d 7c 8f 61 3d d2 af e4 bd
       0.024394855 0.10906167 0.055068478 -0.111663476
000210 54 64 5b 3d 1c 83 1b 3d a8 34 8e 3c 13 da 02 3e
       0.053562477 0.037966833 0.017359093 0.12778501
000220 46 d9 cb 3d c5 fa 03 3e 50 ba 10 bc ca 0c b5 3d
       0.09953551 0.1288863 -0.008833483 0.0884033
000230 ef fb d0 bd 79 3a 97 bd 78 c7 04 3d 18 d0 cb bd
       -0.102043025 -0.073842 0.03241679 -0.099518

weight f4 [16]
000000 00 00 80 3f 00 00 80 3f 00 00 80 3f 00 00 80 3f
       1.0 1.0 1.0 1.0
000010 00 00 80 3f 00 00 80 3f 00 00 80 3f 00 00 80 3f
       1.0 1.0 1.0 1.0
000020 00 00 80 3f 00 00 80 3f 00 00 80 3f 00 00 80 3f
       1.0 1.0 1.0 1.0
000030 00 00 80 3f 00 00 80 3f 00 00 80 3f 00 00 80 3f
       1.0 1.0 1.0 1.0

bias f4 [16]
000000 00 00 00 00 00 00 00 00 00 00 00 00 00 00 00 00
       0.0 0.0 0.0 0.0
000010 00 00 00 00 00 00 00 00 00 00 00 00 00 00 00 00
       0.0 0.0 0.0 0.0
000020 00 00 00 00 00 00 00 00 00 00 00 00 00 00 00 00
       0.0 0.0 0.0 0.0
000030 00 00 00 00 00 00 00 00 00 00 00 00 00 00 00 00
       0.0 0.0 0.0 0.0

running_mean f4 [16]
000000 d6 e3 0c 3c 68 a9 ff 3b 12 1a 08 bc c7 76 d3 3c
       0.008599242 0.007802177 -0.008306997 0.025813473
000010 ea 88 93 3b ff 7d 6b 3c 37 85 28 3b 13 4a 38 3c
       0.0045024054 0.0143733015 0.0025714168 0.011248129
000020 64 de 8d bc da 52 af 3b 03 f7 f5 3c 94 26 b3 bc
       -0.017317958 0.005350453 0.03002501 -0.021868981
000030 23 a5 af 3b b8 1e d5 3b 28 f5 91 3c 08 8c 00 3c
       0.005360262 0.006503906 0.017817095 0.007845886

running_var f4 [16]
000000 c5 2c 68 3f 73 2f 67 3f e2 dd 67 3f 61 e3 67 3f
       0.9069331 0.90306777 0.9057294 0.9058133
000010 16 4f 67 3f 68 e8 66 3f e2 9f 67 3f 86 0f 68 3f
       0.9035505 0.90198374 0.90478337 0.90648687
000020 82 76 67 3f 38 89 67 3f de e3 67 3f 6b 2a 68 3f
       0.90415204 0.90443754 0.9058207 0.90689725
000030 ed 19 67 3f e1 36 67 3f d4 22 67 3f bd 0d 67 3f
       0.90273935 0.90318114 0.9028752 0.9025534

weight f4 [16, 16, 1, 1]
000000 ad a7 d6 3e f9 47 99 3e 39 1b ac 3e 0b 73 da 3e
       0.419248 0.29937723 0.3361452 0.42665896
000010 5e e3 68 be 16 d3 60 be eb f4 ad 3e 0b ca b4 3e
       -0.22742984 -0.21955523 0.3397592 0.35310397
000020 7d 27 ae 3e 2b 1a b9 3e 8e 78 69 3e 72 93 13 3e
       0.34014502 0.36152777 0.22799894 0.14411715
000030 21 c8 d7 3e b2 a1 1e 3e 70 95 8f be 5a 98 73 be
       0.42144874 0.1549137 -0.280437 -0.23788586
000040 6c 6c b7 3d 19 85 91 3e bd 04 ce 3e 6d 1b 9b be
       0.08956227 0.28421858 0.4023799 -0.30294362
000050 cb 9a a7 3e 40 38 17 3c 46 8b 68 be 35 32 99 3e
       0.32735285 0.00922972 -0.22709379 0.29921117
000060 50 c9 dc bd 59 5b 95 3e 70 51 9c 3c 96 93 08 3e
       -0.10780585 0.29171255 0.019081801 0.1333755
000070 8c 6c 4c be a8 4e f9 bd 80 a0 64 bd 8e 8a b6 be
       -0.19963282 -0.121732056 -0.055817127 -0.35652584
000080 a8 19 c9 be 2b f7 47 be b6 40 1f be 48 67 36 bd
       -0.39277387 -0.19527881 -0.15552029 -0.04453209
000090 88 92 b0 be 0a 1d 99 be 1e 45 03 be b6 21 93 be
       -0.34486794 -0.29904968 -0.12819335 -0.28736657
0000a0 a7 c0 82 3e 60 65 c5 be 20 d0 aa bc c2 85 30 be
       0.25537607 -0.38553905 -0.020851195 -0.17238525
0000b0 c0 78 0d 3d 4e 33 7a be 8e 46 20 be f7 1c bc be
       0.034538984 -0.24433634 -0.15651914 -0.36740848
0000c0 91 0d 51 be a5 f8 c4 be 08 d2 7f 3d 78 02 0b be
       -0.20415331 -0.3847095 0.06245616 -0.1357516
0000d0 36 c1 1a 3e d2 fa 17 3e 3c 2d 81 be 8b df 91 be
       0.15112767 0.14841774 -0.25229824 -0.28490862
0000e0 69 cf b8 3e 02 33 00 be 9f 6b cb be 52 bd 60 3e
       0.3609574 -0.12519458 -0.39730546 0.2194722
0000f0 85 b0 c4 3e ea 50 4d 3e 5a 5d 38 be 35 81 b9 be
       0.38415924 0.20050398 -0.18004361 -0.3623139
000100 a4 18 ff bd 3e b5 3a 3e 61 9b ac 3e 14 6f a0 3d
       -0.12455872 0.18233201 0.33712295 0.078336865
000110 35 3c 82 3e cf 3f c0 3e 06 66 67 3e 63 21 67 be
       0.2543656 0.37548682 0.22597513 -0.2257133
000120 06 7f 3b 3e 5a 46 b5 be 82 b8 59 3e 58 83 72 bd
       0.18310174 -0.35405236 0.2126179 -0.05920729
000130 0a 6f 1f 3e fd 96 d1 3e 74 a3 94 3d b0 39 a1 be
       0.15569702 0.40935507 0.07257739 -0.31489325
000140 a8 c9 71 3d fb f7 c2 be ab 24 9c 3e 24 28 9f bd
       0.059030205 -0.3807982 0.30496725 -0.07771328
000150 ce 14 45 3e 5b be b2 3e 35 3f a9 3e e3 c0 c8 3e
       0.19246218 0.34910855 0.33056036 0.3920966
000160 e0 ba 2b be e3 71 d9 be 3f 18 d2 3e 38 4e 0d bd
       -0.16770506 -0.424697 0.41034123 -0.034498423
000170 1a 34 7a 3e f1 28 5e be b2 44 58 3e 5d 67 92 3e
       0.24433938 -0.21695305 0.21119955 0.28594485
000180 f9 c1 a1 3e 48 6e d4 be 88 06 8f bd 1c 1c d3 3d
       0.31593302 -0.41490388 -0.069836676 0.10308096
000190 3e f7 88 be 14 ad c4 3d c2 6e 45 be 6b c1 b5 3e
       -0.2675113 0.096033245 -0.19280532 0.3549913
0001a0 fb b3 9d 3e 69 e4 a9 be 9c 53 b3 3d 4c d1 cb 3d
       0.30801377 -0.33182076 0.087561816 0.099520296
0001b0 ed 61 c3 be 60 3f 18 be de f3 02 3e d3 a5 da be
       -0.3816065 -0.14867926 0.1278834 -0.4270464
0001c0 b2 c9 37 be bf ac da 3e 5e 61 2b 3e 21 bb c1 be
       -0.17948034 0.4270992 0.16736361 -0.3783808
0001d0 f9 77 d0 3e 8e c9 91 be 5c bd 8f be 4c db 6c be
       0.40716532 -0.28474087 -0.28074157 -0.2313053
0001e0 b8 b3 10 be 4e 8d 07 3e fa 4e 2a be 88 13 81 bd
       -0.14131057 0.13237497 -0.1663169 -0.063025534
0001f0 f5 de d1 be f2 12 c0 be fc fd ee 3d 39 e5 93 3e
       -0.40990415 -0.37514454 0.116695374 0.2888582
000200 1e ff 0d 3e f4 54 a7 be 7e 5e 21 3e f1 5e ae be
       0.1386685 -0.32682002 0.15758702 -0.3405681
000210 49 d0 c9 3e a0 d2 08 3c 5a 84 3d 3e 6e 88 1a be
       0.3941672 0.008350998 0.1850752 -0.15091106
000220 84 18 d6 3d bc cc fc 3d d7 ba 63 be c3 26 a6 3e
       0.10453895 0.123437375 -0.22239242 0.32451448
000230 5d 35 9a 3e 90 66 8d bc 50 ca f0 bd af f0 a7 3e
       0.30118838 -0.01726082 -0.11757338 0.32800815
000240 3c f0 cd 3d c6 9b 5e be 4c 41 0a be e3 bb 83 3e
       0.10055587 -0.2173911 -0.13501471 0.25729284
000250 18 52 6c bd b3 83 ba 3e 0c a3 f0 3d 79 34 cb 3e
       -0.05769548 0.36428604 0.11749849 0.3968847
000260 10 2a 17 3d 60 1b ab bd d9 5b da be 59 cb c4 3e
       0.03690535 -0.08354831 -0.426482 0.38436392
000270 80 c8 84 be 0a 06 73 3e f0 42 ed bd 00 de fb bd
       -0.2593422 0.23732772 -0.11585033 -0.122982025
000280 9a 36 22 3e cc b8 88 3d 6e 0e a4 be 16 ec 3a be
       0.15841141 0.06675872 -0.3204226 -0.18254122
000290 97 b8 c0 3e db 12 94 3e 60 c8 cd bd c6 90 8e be
       0.3764083 0.28920636 -0.10047984 -0.27844828
0002a0 ea 60 45 3e 72 7d 2b 3e c0 83 65 3c 56 aa 41 3e
       0.19275251 0.16747072 0.014008462 0.18912634
0002b0 9e 0c 11 3e e2 3c 2e 3e 80 76 c4 be 65 33 85 3e
       0.1416497 0.17015412 -0.38371658 0.26015773
0002c0 6c 1f e1 3d 63 7e 9f 3e c0 7a e2 3c c1 82 ae 3e
       0.10992321 0.31151113 0.027646422 0.34084132
0002d0 8a ae 1e 3e 34 89 c1 bd 8f 15 b3 be a6 2d 69 3e
       0.15496269 -0.094499975 -0.34977385 0.2277132
0002e0 80 f8 fb bd 32 5d 1d 3e 5a a1 79 be 4b ca bc be
       -0.12303257 0.15367582 -0.24377957 -0.36873087
0002f0 74 ac f3 bd b8 17 8b be 8a 55 50 3e dd d5 8e 3e
       -0.11898127 -0.27166533 0.2034513 0.2789754
000300 f0 da b5 bc 68 90 25 3d ac 23 9d be 6c ef d8 3d
       -0.022199124 0.04042092 -0.30691278 0.10592541
000310 92 14 6a 3e cf 8e d9 3e 9e 6d 0b be fc d7 83 bd
       0.2285941 0.42491767 -0.13616034 -0.0643768
000320 da 99 28 3e fa 4a 0e be 2c d4 95 3d 3e 23 91 be
       0.1646494 -0.13895789 0.07315859 -0.283472
000330 a6 a7 78 3e cc cd ce be 02 8c 65 3e 99 3f c4 3e
       0.24282703 -0.40391386 0.2241669 0.3832977
000340 a0 80 b8 bd 35 89 aa 3e d6 ed 67 be f3 d0 91 3e
       -0.09008908 0.33307806 -0.22649321 0.28479728
000350 d8 92 54 be d6 86 7f be 75 25 67 be 60 01 28 bd
       -0.20759141 -0.2495378 -0.22572882 -0.041016936
000360 90 12 6f bd f4 c9 25 be 00 98 07 3c f4 b4 8d be
       -0.058367312 -0.1619032 0.008275986 -0.2767712
000370 20 7c bd be dd 19 46 be 4b 34 bb 3e d8 1b 86 bd
       -0.37008762 -0.19345804 0.36563334 -0.065482795
000380 40 c5 1a bc 80 4a ab be b4 c4 cd be 36 2a ba be
       -0.009446442 -0.33455276 -0.40189135 -0.3636033
000390 8d 80 92 3e 60 57 ed bc f8 e6 8b be 98 25 fa bd
       0.286137 -0.028972328 -0.27324653 -0.12214202
0003a0 3c d0 c8 be 02 03 29 be b7 68 9c 3e 3d 83 8c 3e
       -0.3922137 -0.16505054 0.3054864 0.27443877
0003b0 70 6b 92 be 88 15 50 be 40 ea e7 3c a2 50 03 3e
       -0.28597593 -0.20320714 0.028309941 0.12823728
0003c0 4b a8 c0 3e 06 19 0b 3e c2 51 64 be 1a 67 01 3e
       0.37628397 0.13583764 -0.22296813 0.12636986
0003d0 4b 2b 43 be 48 df af be 25 1c c4 3e e6 39 46 3e
       -0.19059484 -0.34350038 0.38302723 0.19358024
0003e0 71 0b aa be 86 b3 61 be 04 a6 f8 3d 9e f4 bc be
       -0.33211854 -0.22041139 0.1214104 -0.36905378
0003f0 96 6c 0b 3e f4 0f a1 3d e0 50 7a 3c 30 a7 e6 bd
       0.13615641 0.07864371 0.015278071 -0.11262357

weight f4 [16]
000000 00 00 80 3f 00 00 80 3f 00 00 80 3f 00 00 80 3f
       1.0 1.0 1.0 1.0
000010 00 00 80 3f 00 00 80 3f 00 00 80 3f 00 00 80 3f
       1.0 1.0 1.0 1.0
000020 00 00 80 3f 00 00 80 3f 00 00 80 3f 00 00 80 3f
       1.0 1.0 1.0 1.0
000030 00 00 80 3f 00 00 80 3f 00 00 80 3f 00 00 80 3f
       1.0 1.0 1.0 1.0

bias f4 [16]
000000 00 00 00 00 00 00 00 00 00 00 00 00 00 00 00 00
       0.0 0.0 0.0 0.0
000010 00 00 00 00 00 00 00 00 00 00 00 00 00 00 00 00
       0.0 0.0 0.0 0.0
000020 00 00 00 00 00 00 00 00 00 00 00 00 00 00 00 00
       0.0 0.0 0.0 0.0
000030 00 00 00 00 00 00 00 00 00 00 00 00 00 00 00 00
       0.0 0.0 0.0 0.0

running_mean f4 [16]
000000 4a d1 e5 3d e1 79 94 3c 77 b2 e9 bd 7f 6e 03 bd
       0.11221559 0.018124523 -0.114109926 -0.0320878
000010 48 56 60 3d cd 06 6f 3d b3 2e e6 bc f3 09 20 bd
       0.054769784 0.058356095 -0.02809844 -0.03907199
000020 c8 09 0d 3d 9e ea 9c 3c 50 4a f2 3c d9 b3 18 3c
       0.034433156 0.019154843 0.02957645 0.009320223
000030 87 28 ac 3c a6 40 3b bd 03 ab 78 bd 0f e3 07 bc
       0.021015419 -0.04571595 -0.060709964 -0.008293881

running_var f4 [16]
000000 bd 1d 74 3f e4 88 70 3f 52 90 70 3f a1 7a 70 3f
       0.95357877 0.9395888 0.93970215 0.93937117
000010 37 44 6f 3f 3e 30 72 3f 5c 1f 6f 3f 70 e8 70 3f
       0.9346346 0.9460486 0.93407226 0.9410467
000020 63 cc 6f 3f 26 d3 6e 3f 46 ea 6e 3f 66 2b 6e 3f
       0.93671244 0.93290937 0.9332622 0.9303497
000030 a6 34 6f 3f c7 d1 6e 3f 11 f6 6d 3f a3 c3 6f 3f
       0.9343971 0.93288845 0.9295359 0.9365789

weight f4 [96, 16, 1, 1]
000000 92 f8 91 bd 92 88 04 be 32 73 a0 bd 67 19 3c be
       -0.07127489 -0.12942722 -0.07834472 -0.18369065
000010 30 e9 c7 3d 54 b2 d0 bd 3c 9e d3 bd 00 7a 60 3e
       0.09761274 -0.101902634 -0.10332915 0.2192154
000020 7c a2 8c bd 94 e3 3e 3e 0e a0 1d 3e f0 da 99 3c
       -0.06866929 0.18641502 0.15393087 0.018781155
000030 58 49 0c be dc 13 3c be d4 ce 60 3e 7e f7 3b 3e
       -0.13699853 -0.18366951 0.21953899 0.1835613
000040 44 9b e2 bd 42 32 3d 3e 70 60 f4 3c b8 4e 38 bd
       -0.11064771 0.18476203 0.029831141 -0.044996947
000050 68 59 18 3e a2 67 87 bd 10 6d 99 3c 94 f3 ba bd
       0.14877856 -0.06611563 0.018728763 -0.0912849
000060 18 2d 69 3e 0c 9b b0 3d 88 71 f5 3d 6d 90 0b be
       0.22771108 0.08623323 0.11984545 -0.13629313
000070 90 bc e5 3c 1c bb 29 3e 58 35 37 3d 6f 96 16 be
       0.028044015 0.16575283 0.044728607 -0.14705823
000080 c8 15 43 3e 8a 82 41 be 1c ef 71 bd 1e db 93 bd
       0.19051278 -0.18897453 -0.059065923 -0.07219528
000090 08 cb 37 3e 74 29 01 3e 40 0f 5a be 91 2f 58 be
       0.17948544 0.1261347 -0.2129488 -0.21111895
0000a0 c4 b2 04 be b2 6c 13 be 44 4c af 3d 64 f7 05 be
       -0.12958819 -0.14396933 0.085594684 -0.13082653
0000b0 e4 49 61 3e 59 2d 2e be 9b 39 18 be 14 0d cc 3d
       0.22000843 -0.17009486 -0.14865725 0.09963432
0000c0 dc 32 a8 3d 78 84 03 be c4 0e 02 3e 35 7c 22 be
       0.08212826 -0.12843502 0.12700945 -0.15867694
0000d0 a8 e1 12 bd c2 5a e5 bd e0 65 a4 3c 44 bd 88 3d
       -0.035859734 -0.11198951 0.020068109 0.066767246
0000e0 06 5c d6 bd b4 93 f2 bd 0c 52 fa 3d 76 36 42 3e
       -0.10466771 -0.118445784 0.122226804 0.18966088
0000f0 b0 71 69 3c 9a 01 16 be 38 93 38 be e0 e4 44 3c
       0.014248297 -0.14649048 -0.1802491 0.012017459
000100 36 db 3f be 8a f8 0e 3e 77 84 0a be 2b 3a 2b be
       -0.18735966 0.13961998 -0.13527094 -0.16721408
000110 54 47 66 be a3 ba 07 be 8a a0 66 be 9c ed d5 3d
       -0.22488147 -0.1325479 -0.22522178 0.10445711
000120 c6 e1 5e be 38 36 5e 3d b8 ff 86 3c c0 95 b4 3c
       -0.21765813 0.054250926 0.016479358 0.022044063
000130 d0 f6 55 3e e3 19 3a be ad c2 23 be 68 10 be bc
       0.20894933 -0.18173937 -0.15992232 -0.023201182
000140 fe b1 9f bd f8 03 d7 3d 85 9f 60 be f2 6b ed bd
       -0.07797621 0.10498804 -0.21935852 -0.115928546
000150 c2 3c 8f bd 4e 51 02 be 70 d3 20 3d 64 57 9f bd
       -0.069940105 -0.12726328 0.039264143 -0.0778034
000160 d8 71 22 be 08 46 5b 3e ed 10 2b be 60 cd 05 bc
       -0.1586374 0.21413434 -0.16705675 -0.008166641
000170 a2 01 3f be 48 74 97 3d c8 5e be bc 96 c3 65 3e
       -0.18652967 0.07395226 -0.023238555 0.22437891
000180 a6 82 55 3e a8 b6 7c bd 60 8c 4f bc c0 a4 a2 bd
       0.2085062 -0.061697632 -0.012667745 -0.0794158
000190 c2 9d 57 be c2 e7 a2 bd d6 0b 44 3e d2 d0 19 3e
       -0.21056274 -0.079543605 0.1914514 0.15021065
0001a0 26 e1 28 3e a0 d6 3b bc 00 14 88 bc 30 d8 86 3d
       0.16492137 -0.011464745 -0.0166111 0.06584203
0001b0 f4 c2 d1 bd 08 97 4f bd a0 40 c1 3c 50 ed 9e 3c
       -0.102422625 -0.050681144 0.023590386 0.019400269
0001c0 66 f0 a3 bd 38 75 12 3d d0 bd 90 bc e8 5b 7b bd
       -0.08004837 0.03575632 -0.017668635 -0.061366946
0001d0 94 8a 78 bd d4 e1 fd 3d 60 65 0c 3c 40 43 2a 3d
       -0.060679033 0.12396589 0.008569092 0.04156804
0001e0 82 41 61 3e ac 9b 66 bd ec b2 b4 3d 00 77 23 3b
       0.21997645 -0.056300804 0.08823189 0.0024942756
0001f0 c0 7d 1a bb 4d 2d 5f be 58 0d 4a 3e 04 08 48 be
       -0.0023573488 -0.21794625 0.19731653 -0.19534308
000200 20 e0 51 bc ec a1 19 3e f4 1d cf bd 28 82 ed 3d
       -0.012809783 0.15003175 -0.10113135 0.11597091
000210 88 cd ca 3d 90 7e 61 3d 0c 1c ea 3d dd dd 5d be
       0.09902483 0.05505234 0.11431131 -0.21666665
000220 52 71 1c 3e 98 a7 e2 3d 56 56 51 3e f8 7d 1c bd
       0.15277603 0.11067122 0.20443091 -0.03820607
000230 9c 47 75 bd 34 16 53 bd 98 10 27 3d 44 30 da 3d
       -0.059882745 -0.051534846 0.04078731 0.10653737
000240 92 b6 20 3e 46 d0 11 be 28 5d 3a bd 81 27 60 be
       0.15694645 -0.14239606 -0.045498997 -0.2189007
000250 96 3c 41 be 44 ea 57 be 64 63 d0 3d 64 1e 68 3e
       -0.18870768 -0.21085459 0.10175207 0.22667843
000260 b2 8b 27 3e 9c b6 cf 3d c0 9e c0 bc 2b 64 3e be
       0.16361883 0.10142252 -0.023513198 -0.18592899
000270 50 a6 68 be b1 32 60 be 30 c4 5b 3d 60 66 42 3d
       -0.22719693 -0.21894337 0.053653896 0.047460914
000280 74 94 26 bd 0e e4 b6 bd 7f e1 69 be 70 06 7d bc
       -0.04066892 -0.08930217 -0.22839926 -0.015443429
000290 4c e1 5d be c0 c1 ef bb a4 61 50 bd c7 8f 4e be
       -0.21667975 -0.007316798 -0.050874367 -0.20172034
0002a0 10 33 ae 3d 08 d6 e3 bd 50 05 10 3d 6c b0 a0 3d
       0.08505833 -0.111248076 0.035161316 0.0784615
0002b0 5a 6d b0 bd ae 5a 32 be e0 9e d1 bd 98 91 54 3e
       -0.08614607 -0.17417404 -0.10235381 0.20758665
0002c0 79 06 51 be cf 54 eb bd 50 15 6d 3c 48 0b f8 bc
       -0.20412625 -0.11490785 0.014470413 -0.030278817
0002d0 36 4e 36 be 14 f7 c5 3d 0e ab 82 bd c7 77 5b be
       -0.17803273 0.09666267 -0.06380282 -0.2143241
0002e0 b0 6b 09 3c 78 c7 29 3d 02 b8 1d 3e 7d 3b 57 be
       0.008387491 0.041449994 0.15402225 -0.21018787
0002f0 54 e4 47 bd fa 99 5c be b8 b4 32 3d fe 9e 28 be
       -0.048801735 -0.21543112 0.043629378 -0.164669
000300 50 72 9c bd 0a 97 46 be 40 f8 48 3d 6c 34 c9 bd
       -0.07638991 -0.19393554 0.049064875 -0.09824452
000310 29 55 61 be b4 10 34 3e 34 e9 77 bd 46 8d 09 3e
       -0.22005142 0.17584497 -0.060525134 0.13432798
000320 7a 32 06 3e 90 84 67 3e 0c 22 6c 3e 76 7b 65 3e
       0.13105193 0.22609162 0.23059863 0.22410378
000330 80 a3 e1 3c c0 30 e5 bb d2 50 a2 bd 80 5e 4f 3e
       0.027543783 -0.006994337 -0.079255715 0.20250893
000340 61 44 36 be 78 30 f9 bc f0 b1 e6 bc 00 97 91 bb
       -0.17799522 -0.03041862 -0.02816102 -0.0044430494
000350 8a 5a 48 3e 60 5e 1a bd d6 a1 0f be 60 9a 24 3c
       0.19565788 -0.03768766 -0.1402658 0.0100465715
000360 e2 09 20 3e 28 96 a4 bd 4c b2 08 bd 68 00 05 be
       0.1562877 -0.080364525 -0.033373162 -0.12988436
000370 2c c9 5a be 5a 5b 53 be dd 90 6b be 78 f0 42 3d
       -0.21365803 -0.20640317 -0.2300448 0.04759261
000380 8c db c4 3d c0 e5 48 3d 8c 0f 4d 3e ed 3f 4a be
       0.09612188 0.04904723 0.20025462 -0.19750948
000390 20 0f e3 3c 18 dd d9 bd b2 89 19 be a0 32 28 3e
       0.027717173 -0.106378734 -0.14993933 0.16425562
0003a0 a4 09 1e bd 10 e8 25 3d 48 cb 38 3d a2 b1 41 be
       -0.038583413 0.040504515 0.04511574 -0.18915418
0003b0 e4 33 0d bd 8a 69 6a be 56 01 d0 bd fc 6c ba bd
       -0.034473315 -0.22891822 -0.10156505 -0.09102818
0003c0 2e f9 15 3e e6 af f6 bd 8a bb 11 be a8 3f b9 3d
       0.14645836 -0.12045269 -0.14231697 0.090453446
0003d0 8c 26 f7 bd 60 85 b6 bd 24 92 c2 3d 7b e5 3e be
       -0.12067899 -0.08912158 0.0950053 -0.18642227
0003e0 a3 26 30 be 54 38 e4 3d 80 b8 2c 3d 98 c1 f0 3d
       -0.17202239 0.11143556 0.04216814 0.11755675
0003f0 28 bc 00 3e f0 10 69 3c 54 39 17 3e 60 1e db 3d
       0.12571776 0.01422523 0.14767963 0.10699153

weight f4 [96]
000000 00 00 80 3f 00 00 80 3f 00 00 80 3f 00 00 80 3f
       1.0 1.0 1.0 1.0
000010 00 00 80 3f 00 00 80 3f 00 00 80 3f 00 00 80 3f
       1.0 1.0 1.0 1.0
000020 00 00 80 3f 00 00 80 3f 00 00 80 3f 00 00 80 3f
       1.0 1.0 1.0 1.0
000030 00 00 80 3f 00 00 80 3f 00 00 80 3f 00 00 80 3f
       1.0 1.0 1.0 1.0
000040 00 00 80 3f 00 00 80 3f 00 00 80 3f 00 00 80 3f
       1.0 1.0 1.0 1.0
000050 00 00 80 3f 00 00 80 3f 00 00 80 3f 00 00 80 3f
       1.0 1.0 1.0 1.0
000060 00 00 80 3f 00 00 80 3f 00 00 80 3f 00 00 80 3f
       1.0 1.0 1.0 1.0
000070 00 00 80 3f 00 00 80 3f 00 00 80 3f 00 00 80 3f
       1.0 1.0 1.0 1.0
000080 00 00 80 3f 00 00 80 3f 00 00 80 3f 00 00 80 3f
       1.0 1.0 1.0 1.0
000090 00 00 80 3f 00 00 80 3f 00 00 80 3f 00 00 80 3f
       1.0 1.0 1.0 1.0
0000a0 00 00 80 3f 00 00 80 3f 00 00 80 3f 00 00 80 3f
       1.0 1.0 1.0 1.0
0000b0 00 00 80 3f 00 00 80 3f 00 00 80 3f 00 00 80 3f
       1.0 1.0 1.0 1.0
0000c0 00 00 80 3f 00 00 80 3f 00 00 80 3f 00 00 80 3f
       1.0 1.0 1.0 1.0
0000d0 00 00 80 3f 00 00 80 3f 00 00 80 3f 00 00 80 3f
       1.0 1.0 1.0 1.0
0000e0 00 00 80 3f 00 00 80 3f 00 00 80 3f 00 00 80 3f
       1.0 1.0 1.0 1.0
0000f0 00 00 80 3f 00 00 80 3f 00 00 80 3f 00 00 80 3f
       1.0 1.0 1.0 1.0
000100 00 00 80 3f 00 00 80 3f 00 00 80 3f 00 00 80 3f
       1.0 1.0 1.0 1.0
000110 00 00 80 3f 00 00 80 3f 00 00 80 3f 00 00 80 3f
       1.0 1.0 1.0 1.0
000120 00 00 80 3f 00 00 80 3f 00 00 80 3f 00 00 80 3f
       1.0 1.0 1.0 1.0
000130 00 00 80 3f 00 00 80 3f 00 00 80 3f 00 00 80 3f
       1.0 1.0 1.0 1.0
000140 00 00 80 3f 00 00 80 3f 00 00 80 3f 00 00 80 3f
       1.0 1.0 1.0 1.0
000150 00 00 80 3f 00 00 80 3f 00 00 80 3f 00 00 80 3f
       1.0 1.0 1.0 1.0
000160 00 00 80 3f 00 00 80 3f 00 00 80 3f 00 00 80 3f
       1.0 1.0 1.0 1.0
000170 00 00 80 3f 00 00 80 3f 00 00 80 3f 00 00 80 3f
       1.0 1.0 1.0 1.0

bias f4 [96]
000000 00 00 00 00 00 00 00 00 00 00 00 00 00 00 00 00
       0.0 0.0 0.0 0.0
000010 00 00 00 00 00 00 00 00 00 00 00 00 00 00 00 00
       0.0 0.0 0.0 0.0
000020 00 00 00 00 00 00 00 00 00 00 00 00 00 00 00 00
       0.0 0.0 0.0 0.0
000030 00 00 00 00 00 00 00 00 00 00 00 00 00 00 00 00
       0.0 0.0 0.0 0.0
000040 00 00 00 00 00 00 00 00 00 00 00 00 00 00 00 00
       0.0 0.0 0.0 0.0
000050 00 00 00 00 00 00 00 00 00 00 00 00 00 00 00 00
       0.0 0.0 0.0 0.0
000060 00 00 00 00 00 00 00 00 00 00 00 00 00 00 00 00
       0.0 0.0 0.0 0.0
000070 00 00 00 00 00 00 00 00 00 00 00 00 00 00 00 00
       0.0 0.0 0.0 0.0
000080 00 00 00 00 00 00 00 00 00 00 00 00 00 00 00 00
       0.0 0.0 0.0 0.0
000090 00 00 00 00 00 00 00 00 00 00 00 00 00 00 00 00
       0.0 0.0 0.0 0.0
0000a0 00 00 00 00 00 00 00 00 00 00 00 00 00 00 00 00
       0.0 0.0 0.0 0.0
0000b0 00 00 00 00 00 00 00 00 00 00 00 00 00 00 00 00
       0.0 0.0 0.0 0.0
0000c0 00 00 00 00 00 00 00 00 00 00 00 00 00 00 00 00
       0.0 0.0 0.0 0.0
0000d0 00 00 00 00 00 00 00 00 00 00 00 00 00 00 00 00
       0.0 0.0 0.0 0.0
0000e0 00 00 00 00 00 00 00 00 00 00 00 00 00 00 00 00
       0.0 0.0 0.0 0.0
0000f0 00 00 00 00 00 00 00 00 00 00 00 00 00 00 00 00
       0.0 0.0 0.0 0.0
000100 00 00 00 00 00 00 00 00 00 00 00 00 00 00 00 00
       0.0 0.0 0.0 0.0
000110 00 00 00 00 00 00 00 00 00 00 00 00 00 00 00 00
       0.0 0.0 0.0 0.0
000120 00 00 00 00 00 00 00 00 00 00 00 00 00 00 00 00
       0.0 0.0 0.0 0.0
000130 00 00 00 00 00 00 00 00 00 00 00 00 00 00 00 00
       0.0 0.0 0.0 0.0
000140 00 00 00 00 00 00 00 00 00 00 00 00 00 00 00 00
       0.0 0.0 0.0 0.0
000150 00 00 00 00 00 00 00 00 00 00 00 00 00 00 00 00
       0.0 0.0 0.0 0.0
000160 00 00 00 00 00 00 00 00 00 00 00 00 00 00 00 00
       0.0 0.0 0.0 0.0
000170 00 00 00 00 00 00 00 00 00 00 00 00 00 00 00 00
       0.0 0.0 0.0 0.0

running_mean f4 [96]
000000 7a 0c 7e 3a 2d 45 97 3c 59 2d ba bc 4a 5e 65 bc
       0.000969119 0.018465603 -0.022726702 -0.013999531
000010 64 3f 37 bd 40 78 be bc d6 78 03 3c cf 47 8d 3a
       -0.04473819 -0.023250699 0.008024415 0.0010778847
000020 8a 76 dd 3c e3 3c c9 bc 7b 76 17 bd 95 fb 32 bd
       0.027034063 -0.024565166 -0.036978226 -0.04369696
000030 cf b3 db 3c 8f 0b 15 bd 01 b9 a9 bc b8 99 de 3b
       0.026819138 -0.036387976 -0.0207181 0.006793227
000040 8d a0 bb bb c5 a3 ba bc 07 eb ab 3c 69 90 8c bc
       -0.0057259263 -0.02278317 0.020986093 -0.017158704
000050 0a 6b d1 3b ff 83 a5 3b 6f ad 81 3b 58 dd db 3c
       0.006390934 0.0050511356 0.0039574425 0.026838943
000060 e7 73 85 bc ee 34 3d bd 9e 14 8c bc 2a 05 04 bd
       -0.016290618 -0.046193056 -0.017099675 -0.032231487
000070 e8 bf 62 bc d2 91 0b 3c 4e 70 80 3b 4a c5 e9 bb
       -0.013839699 0.008518653 0.0039196378 -0.0071341144
000080 22 6a cd bc 8b 17 d3 ba 95 11 a1 3c a3 6e a0 3c
       -0.025075022 -0.0016105039 0.019661704 0.019584006
000090 db c9 c6 38 3a 15 59 bb 8f ce 05 bc 8b c9 6a bc
       9.478974e-05 -0.0033124224 -0.008166923 -0.014330278
0000a0 08 62 0e 3b 4d 77 82 bb c7 40 29 bc 5f 67 fd bc
       0.0021725912 -0.003981507 -0.0103303855 -0.03093308
0000b0 12 2e a8 bc 05 f5 5a 3d 66 e0 35 3c 9a 6a 7e 3c
       -0.02052978 0.053456325 0.011100864 0.0155283455
0000c0 ff 41 66 bb 5b 2e b3 3b a0 c7 2d 3c 88 39 53 bb
       -0.0035134552 0.0054681725 0.010606676 -0.0032230336
0000d0 32 1a 15 3c c6 e3 ca 3c 5a f0 72 bc 6d 56 77 bc
       0.009100484 0.024766814 -0.014827812 -0.015096289
0000e0 6a 95 f6 bb 2d e2 98 3c 1f 96 d3 3c 14 97 bf bb
       -0.0075251358 0.018662537 0.02582842 -0.0058468673
0000f0 80 71 b9 3b e3 10 71 bc 1a 09 9b 3b 7f 42 1c 3d
       0.005659282 -0.014713499 0.0047313096 0.038149353
000100 e3 93 39 3c ab 0a e7 3c 7a 7d 57 3d 6f 79 3d bd
       0.011326763 0.02820333 0.0526099 -0.046258386
000110 c7 aa b4 bc b6 75 09 3c 32 be 0d bc fe a2 98 bc
       -0.02205409 0.008389881 -0.008651303 -0.018632408
000120 77 dc 3c 3d 4a 57 f8 bb 4c 31 b0 3c 38 57 3a bd
       0.04610869 -0.007578765 0.021507882 -0.045493335
000130 e2 7e 54 3c 8e b9 0b bc 0b 10 05 3d e5 62 09 bc
       0.012969704 -0.008528126 0.032486003 -0.008385395
000140 9b 3a 9b bc e3 4d d6 3b 65 35 73 3b 77 94 28 3c
       -0.018948844 0.0065400465 0.0037110683 0.010289303
000150 28 d4 ad 3c 04 bf ad 3c 65 c0 13 3c fd 2f 71 bc
       0.021219328 0.021209247 0.009018038 -0.014720914
000160 7b ff 05 bc e5 ac f9 ba 43 20 0b 3d 68 73 e0 bc
       -0.008178587 -0.0019048719 0.033966314 -0.02739878
000170 df ed 8f 3c b9 de b1 3b e9 2d 49 3c ff 61 ab bc
       0.01756948 0.005428162 0.012279012 -0.020920752

running_var f4 [96]
000000 32 22 6d 3f 3b 69 6c 3f e6 7d 79 3f 27 12 6c 3f
       0.926303 0.9234807 0.9745773 0.922152
000010 cb 6c 72 3f 33 29 72 3f 8a 0b 6d 3f 36 94 75 3f
       0.94697255 0.94594115 0.9259573 0.95929277
000020 18 8a 71 3f e0 3a 72 3f 24 37 6e 3f 1c 4d 73 3f
       0.9435134 0.94621086 0.9305289 0.95039535
000030 a0 12 70 3f 5a 7b 71 3f 24 61 6c 3f f3 ac 6c 3f
       0.9377842 0.94328845 0.92335725 0.924514
000040 08 13 6e 3f 70 e4 72 3f a0 f8 6f 3f bc 9b 70 3f
       0.9299779 0.9487982 0.93738747 0.9398763
000050 38 10 6f 3f 08 91 73 3f 7c 53 6c 3f 7c 5c 6e 3f
       0.9338412 0.95143175 0.9231489 0.9310987
000060 22 ab 6f 3f 77 3b 73 3f 68 f8 70 3f 58 c0 75 3f
       0.936205 0.9501261 0.9412904 0.9599662
000070 a9 ea 70 3f 9d 7a 6d 3f 8b 0e 6e 3f 08 0d 71 3f
       0.94108063 0.9276522 0.9299094 0.9416051
000080 e6 8b 78 3f df 3b 6f 3f e2 54 6f 3f ee 6c 7b 3f
       0.9708847 0.9345073 0.93488896 0.9821309
000090 24 b3 71 3f d1 53 6b 3f ab 53 6e 3f 25 b1 6b 3f
       0.9441397 0.9192477 0.9309642 0.92067176
0000a0 1c c9 6d 3f e8 4e 6d 3f 9b ba 76 3f ae b6 70 3f
       0.92884994 0.92698526 0.9637849 0.9402875
0000b0 9d e7 6d 3f de d8 6c 3f 3c 9f 6c 3f 03 f9 6e 3f
       0.9293154 0.92518413 0.9243047 0.9334871
0000c0 af 67 69 3f f7 db 6d 3f 18 c3 72 3f 6f bf 6c 3f
       0.91173834 0.92913765 0.9482894 0.92479604
0000d0 c7 d0 6f 3f 6f 5d 6f 3f 70 cf 6e 3f 7e a0 6b 3f
       0.93677944 0.93501943 0.93285275 0.92041767
0000e0 f0 ae 70 3f f1 bf 6d 3f b8 ac 6c 3f 9f 88 6b 3f
       0.94016933 0.92871004 0.9245105 0.9200534
0000f0 e0 8b 70 3f 29 ab 71 3f fc f1 6c 3f 3f e5 6d 3f
       0.9396343 0.94401795 0.9255674 0.92927927
000100 4b 44 72 3f 9c e3 6c 3f 03 42 6f 3f eb 0c 70 3f
       0.94635457 0.92534804 0.934601 0.9376971
000110 b0 03 75 3f 7d 92 75 3f 55 2c 6e 3f 6d 2c 73 3f
       0.9570875 0.9592665 0.93036395 0.94989663
000120 d5 d9 6d 3f 8f 93 6c 3f 0a 67 74 3f 07 aa 6d 3f
       0.9291051 0.92412657 0.95469725 0.92837566
000130 d5 97 6c 3f 0f 0c 70 3f 13 50 72 3f d3 9c 6c 3f
       0.9241918 0.937684 0.94653434 0.92426795
000140 fa 2e 74 3f 1e 88 6d 3f 8d a9 6a 3f 04 66 7c 3f
       0.9538418 0.92785823 0.91664964 0.98593163
000150 30 e6 71 3f a0 6a 6e 3f 47 82 6d 3f 9d 10 76 3f
       0.94491863 0.93131447 0.9277691 0.961191
000160 6f 1e 6d 3f d1 7a 6e 3f 94 77 6f 3f 16 fd 71 3f
       0.9262456 0.9315615 0.93541837 0.94526803
000170 da 0b 6d 3f 91 c3 6c 3f 75 9b 70 3f f6 80 6d 3f
       0.9259621 0.9248591 0.9398721 0.92774904
