trained_model/BiSegNet(Reagent_GhostV2)_top.pt (torch, 983478 bytes, 306 tensors)

weight f4 [16, 1, 3, 3]
00000000: 1e10 41be dadd aabe ba08 42bd 08d3 b2bd
00000010: 9e34 6dbd 1d45 b4bd 9943 d43d 7b9a 703d
00000020: 9840 45be 0a00 293d ee52 07be 44e0 d13d
00000030: d0ed 533d 6ae3 b4be 0051 97be 3934 863e
00000040: 968d ba3d 5bcd 27be e0ad f63d 5e65 0bbe
00000050: 273f 7d3d 6e6f 853d 5cd6 e73d 5402 5e3e
00000060: b2c8 b4bd 0308 6a3e a5b8 a73d eb99 7b3e
00000070: d8b0 ef3d 07e0 653e acaf ddbd b9c2 69be
00000080: 0f91 6abe 45b2 9ebe 2917 2abe 5300 313e
00000090: 6b33 38be 6d24 83be c7b8 48bb 4dc9 df3c
000000a0: de01 37be 2290 8ebd 06f9 d2bd 31a7 de3d
000000b0: 7baa 813d 83a7 6f3d ce0d 50bd 2b0e 5cbe
000000c0: 3d54 853e b8cc cd3d 1cfe fa3d 5812 3b3e
000000d0: 9b02 25be 601d ffbd 56ac bf3d 37ec 99be
000000e0: ce2f 2abe 37b2 3dbe 014b c6bd e598 b4bb
000000f0: 7a97 ac3d 75e1 43be 6dcb 88be 2728 9dbe
00000100: 0ddd 10be e1c0 a1bd 2099 6a3d 78ca 513e
00000110: 9464 3ebe 046e 133f 9e0f 823e 207b 54bd
00000120: f91e 953c 32e5 90be bde8 dfbe 5ce9 a13e
00000130: f3da 3ebe 6ffc 74be 9788 063e 5274 863e
00000140: 96be ac3e 2c58 8dbe e56b 173d 314d adbd
00000150: 60cf 803d 19ae 643e 2c06 ddbd 43e4 bc3e
00000160: 102e 9f3e 93bc c03c 5cd9 803d 1a18 9abd
00000170: cb77 fc3b d878 993e 3b4a ca3c 1476 50be
00000180: 162c 783e d258 c23b 6a71 cebe 694f e23c
00000190: 20a6 5cbd fddb 873e 8da4 943d 35de 05be
000001a0: 6760 2e3d 8a5d 7eba cfc5 f13d ddb5 743e
000001b0: e719 72be 2fe4 a9be 01e2 56be e9c7 203d
000001c0: ca19 0f3e 612f dabd 93dd 4fbb b06f 23be
000001d0: d560 d9b9 09c3 f3bd 9182 533e 546c a0bc
000001e0: 070f bfbc 69e9 843d 0ef6 913e cfff 5abe
000001f0: 81b2 843e cd39 b7ba 85f1 fc3d ba78 bfbc
00000200: 87f1 c83d 3566 a9be efbd 63be e3ff 9abc
00000210: 1f8d 6dbe 9ed5 aa3c 8839 b0bd 45b4 c83e
00000220: 8c1d 053d 7af2 ee3b 9f1f f53e 11d1 173e
00000230: 1f54 d23c 2aea 32bc f162 043e 3cf6 0ebe
-0.18853804 -0.33372384 -0.047371604 -0.08731657 -0.057911508 -0.08802245 0.10364456 0.058741074
-0.19262922 0.041259803 -0.13215229 0.102478534 0.051740468 -0.35329753 -0.29553986 0.26211718
0.091090366 -0.1638693 0.12044883 -0.13612887 0.061827805 0.06515394 0.11320183 0.21680576
-0.08827342 0.22854619 0.08189515 0.24570434 0.11703652 0.22448741 -0.108245224 -0.22828187
-0.22906898 -0.30995384 -0.16610397 0.1728528 -0.17988364 -0.25613728 -0.0030627714 0.027317667
-0.17871806 -0.06961085 -0.10301404 0.10871733 0.06331345 0.05850936 -0.050794415 -0.2148978
0.2604083 0.10048813 0.12255499 0.18268716 -0.16114275 -0.12456775 0.09359042 -0.3006303
-0.16619799 -0.18525015 -0.096822746 -0.0055113905 0.08427329 -0.19128974 -0.26717702 -0.30694696
-0.14146824 -0.07898117 0.057274938 0.20487392 -0.18593055 0.57589746 0.2540254 -0.051875234
0.018203245 -0.28299862 -0.43732253 0.31623352 -0.1863821 -0.23924421 0.13138042 0.2626062
0.33739156 -0.27606332 0.03696813 -0.08461989 0.06289554 0.22332038 -0.10792193 0.368929
0.3108983 0.02352742 0.06291458 -0.07524128 0.00770471 0.2997501 0.024693599 -0.20357543
0.24235567 0.0059309984 -0.40320903 0.027625756 -0.053869367 0.26535025 0.07257948 -0.13073047
0.042572405 -0.00097032695 0.11805307 0.238975 -0.23642693 -0.33181903 -0.20984651 0.03925315
0.13974681 -0.10653568 -0.0031717762 -0.15960574 -0.0004146161 -0.119024344 0.20655276 -0.019582905
-0.023322595 0.06489832 0.28508037 -0.21386646 0.25917438 -0.0013979018 0.12350754 -0.023372997
0.09811693 -0.3308579 -0.22240423 -0.018920844 -0.23198365 0.020853814 -0.08604723 0.39200035
0.03249888 0.007292089 0.47875687 0.14825846 0.025674878 -0.010920087 0.12928368 -0.13961118

weight f4 [16]
00000000: de0f 343f 71bf 8a3f 6fbd 633f 77e3 7d3f
00000010: 4853 823f f6c5 8d3f 8248 863f 6b6c 963f
00000020: 1f2b 663f 79ae 913f 95d2 763f 40fd 4e3f
00000030: d8b3 633f 3977 6e3f c367 5a3f f9a4 8a3f
0.7033671 1.0839673 0.8896093 0.9917521 1.0181665 1.1076038 1.0490878 1.1751837
0.8990955 1.138137 0.9641507 0.8085518 0.88946295 0.9315067 0.8531458 1.0831596

bias f4 [16]
00000000: 4562 b3bd 20a3 d3bd 6032 1a3d 3374 b3bd
00000010: 867f 973b 8d16 37bd baed 0fbc 8d35 d13e
00000020: c9d6 e63e 5064 4bbc be3b c13e b04c 49be
00000030: 7d69 46bd 0bc0 543e 968a 2cbe 727a f63d
-0.08758978 -0.10333848 0.037645698 -0.087623976 0.0046233563 -0.04469924 -0.008784706 0.40861169
0.45085743 -0.012414053 0.37740892 -0.1965816 -0.048440445 0.20776384 -0.16849741 0.12035073

running_mean f4 [16]
00000000: 595f 23c3 8b53 9cc2 f084 0243 4487 5fc2
00000010: 598f e7c2 feba 0742 6e74 4bc3 8382 8142
00000020: 5ddc 74c1 7f4c dc42 283e 00c1 40b9 e342
00000030: 3c3b 2ac3 17f8 ac42 e208 04c3 1b56 5043
-163.37245 -78.16317 130.51929 -55.882095 -115.779976 33.93261 -203.4548 64.754906
-15.3038 110.14941 -8.015175 113.86182 -170.23138 86.48455 -132.0347 208.33635

running_var f4 [16]
00000000: e674 3544 953e 3f43 fcc7 c743 172c 4b43
00000010: 32fd c543 bbd5 a442 5ae8 7244 1088 9243
00000020: 0f77 a143 e9a6 b543 4b28 8042 0b27 9643
00000030: 5b92 4c44 cf01 4743 ef2e e543 7ce5 9844
725.82654 191.24446 399.56238 203.17223 395.9781 82.41744 971.6305 293.063
322.93015 363.304 64.0787 300.30502 818.2868 199.00706 458.36667 1223.1714

weight f4 [48, 16, 1, 1]
00000000: 92e0 2f3d d9e7 a03e df3b a53e 58b1 2e3e
00000010: 4e4c ea3c 6fea 243e 61d5 193e 3f0f 7b3e
00000020: afc3 3f3c 4388 51be e470 b23e f3f0 36be
00000030: bf3a 423d 840f 9cbd 7177 67bd ee96 c93d
00000040: d3fd 933e b7bd a0be f8a0 b53e 0381 13be
00000050: 6d14 7ebe 31c9 863e 2abb 70be 6cc5 95bd
00000060: bd7d 0e3e 5e45 ee3d 6ed4 573d 4751 a83e
00000070: cfd5 d03d c12b 4f3e 1bd6 003e e325 af3e
00000080: d1e0 863b 01f9 89be a568 713e f3ef ce3e
00000090: b0ff a2be b013 083e c278 94bd b71e 293e
000000a0: e54b 973e a68e 763d 0186 da3d c733 a63d
000000b0: ef58 57be ec92 dc3e 2ef4 5bbc d205 9abe
000000c0: 2969 ab3e 19bd e73b c9d1 963c ed55 643d
000000d0: 2d6b 88bc b1f8 13be be79 5f3c bf65 cd3d
000000e0: 854a 09be ef91 333e 0e99 3d3e 962f 5cbd
000000f0: 132e 9a3e 8632 f6bb c857 9a3d a8c0 033a
00000100: db4b 9b3d 70ce 2c3d ec46 913d 4f1a adbe
00000110: e860 89be 6449 133e bdb6 0ebe 0304 4b3e
00000120: e912 8f3e 9355 173e 9de3 463e 26a2 283c
00000130: c9bc 9bbe 85c5 24be 6d8c 57be cf73 f63d
00000140: 2327 4f3c 5a3b 3c3e 5a7d 88be bfe0 703e
00000150: d145 ddbd b6b8 ad3e b1ae 97be 2fbd 5e3e
00000160: 8b1a d5bd 1d73 413d 9755 16be 434b 5b3e
00000170: b97b abbe 2578 fbbd 3a88 7d3d 40f7 8e3e
00000180: 8144 babc 6d2f 243e 73d8 09be e9cf 133d
00000190: cd6c fbbb e661 d63e 8419 293e 4938 7c3e
000001a0: 395b 0e3e 6b7a 063e e520 4e3e 1ac4 25be
000001b0: ef43 73bd eb53 f73e 4cfd 143e 57b1 6a3e
000001c0: 5db5 abbd 10b7 b53b 8309 a7be 4ffe 56be
000001d0: 5937 b7be 51ec e2bd 7030 97be 8d1c 92be
000001e0: dba0 97bd 6cbc acbe 3060 163e 3e42 2a3e
000001f0: a39a 53bd 47a6 b3bd 543e b5bd 3080 17be
00000200: b93e 873d 08a9 6e3b f755 8a3e 2ce4 673e
00000210: 24d3 013e 1f16 8c3e 2b58 b0bd 8572 ef3d
00000220: 4527 57be 2954 833e fe40 183f 3634 5f3e
00000230: 606c bf3c f6e8 ec3e f061 d63c adda 983e
00000240: cc79 28be fbba b13d 47aa a5bd 3240 bd3e
00000250: 303e afbb 20a3 e93e dd36 acbe 0fad b23e
00000260: 5521 f43e 1e93 9d3d d46f 813e 05de 85bd
00000270: f86f 5a3e 1508 7b3e 3bc0 21be 1ddb 0b3e
00000280: 47d6 25bd db7e 533c e5b7 1ebe 47ff 02bf
00000290: d4de 453e 4609 69be 4c69 003d 660b 8e3e
000002a0: 3031 983e d59d 843e d065 0ebe 80b6 adbb
000002b0: fb29 423d be71 16be 6e88 66be 6915 1ebe
000002c0: 1c97 833e 37f3 8fbe 53cf bf3e aae0 03bc
000002d0: f958 103e 7110 683e 489b e4bd 1de6 92bc
000002e0: 0c7f 45be a506 5a3d 0d16 82be a32a 7cbd
000002f0: 6690 16be 723a fe3b 54bb 91be 0f67 9b3e
00000300: 8570 183e 4596 bbbd 7a8d 513e 608c 2b3f
00000310: d984 553b fa5c ad3e 4c87 a2be 2d13 f33e
00000320: 19ff dfbe 824d 1f3e b8ac 293e 0a38 a1bd
00000330: 1804 8dbc b91c e53d 8321 bc3e d053 033e
00000340: 8cc4 38be ec68 09be b57f ac3e 071e 1cbe
00000350: 5efd 71be c90f 89be 7514 2cbd 7cea 3f3e
00000360: db62 f0bd b276 9cbb 25ff bbbe c39b e13d
00000370: 9396 3abc 5182 db3e b5bb 8cbe 245c 0dbd
00000380: 1b20 803e 0cbe 83bb a5aa 8d3e 2ac5 063e
00000390: 7f32 1bbd eabd 213e e21a fd3d 740d 013e
000003a0: 0d2f 0a3e 974d 603c fb57 403e b7f1 993e
000003b0: 981f a03b 5e70 143f e650 dc3d 19bf a2bd
000003c0: 411b fd3d 36d3 423d 94bc fa3d 1d2e 3abe
000003d0: 2c5d a2be 3848 d3bc 6195 7cbe 2673 43be
000003e0: fb9e 50be f89f 38be a823 68be 1b80 55be
000003f0: bbe5 1b3d cb07 48be f96e 50be 5139 1a3e
0.042938776 0.31426886 0.3227224 0.17059839 0.028600838 0.16105054 0.15022804 0.24517535
0.011704369 -0.20462136 0.34851754 -0.17865352 0.047419306 -0.07620147 -0.056510393 0.09843241
0.2890459 -0.3139474 0.35474372 -0.14404683 -0.2481248 0.26325372 -0.23508897 -0.07313046
0.13915153 0.116343245 0.052692823 0.3287451 0.10197031 0.20231535 0.12581675 0.34208593
0.0041161557 -0.26947787 0.23575075 0.40417442 -0.318357 0.1328876 -0.07249595 0.16515623
0.2955009 0.060194634 0.106700905 0.081153445 -0.21030019 0.43080842 -0.013424916 -0.30082566
0.33478668 0.0070721027 0.01841058 0.055746008 -0.016652668 -0.14450337 0.013639865 0.10029172
-0.13407333 0.17536138 0.18515417 -0.05375632 0.30113277 -0.007513347 0.07536274 0.00050259614
0.07582828 0.04218906 0.070936054 -0.33809134 -0.26831746 0.14383465 -0.13936897 0.19825749
0.27944115 0.14778738 0.19422765 0.010292565 -0.3041747 -0.16090973 -0.21049662 0.120338075
0.012643608 0.18382016 -0.26658136 0.23523234 -0.10804332 0.33929986 -0.29625466 0.21751855
-0.10405453 0.04722892 -0.14681087 0.21415429 -0.3349283 -0.12278775 0.061897494 0.27923012
-0.022737743 0.16033716 -0.13461475 0.03608695 -0.007672882 0.41871566 0.1651364 0.24630846
0.13901986 0.13132636 0.20129736 -0.16188088 -0.05939096 0.48306212 0.1454975 0.22919212
-0.08384202 0.0055455044 -0.32624444 -0.20995449 -0.35784414 -0.1108023 -0.29529142 -0.28537408
-0.074037276 -0.33737504 0.1468513 0.16626832 -0.051661145 -0.08771949 -0.08849779 -0.14794993
0.0660376 0.0036416668 0.2701871 0.22645634 0.126782 0.27360627 -0.08610567 0.11691765
-0.21011074 0.25650147 0.5947417 0.2179726 0.023367107 0.46271485 0.026169747 0.29854336
-0.16452712 0.08678242 -0.080891185 0.3696304 -0.0053479895 0.45632267 -0.33635607 0.34897658
0.4768168 0.07694076 0.2528063 -0.065364875 0.21331775 0.24514802 -0.15795986 0.13657804
-0.040487554 0.012908663 -0.15499838 -0.5117077 0.19323283 -0.22757444 0.03135042 0.2774307
0.29725027 0.25901666 -0.13906026 -0.0053012967 0.047403317 -0.14691827 -0.22512981 -0.15437855
0.25701225 -0.28115246 0.37462863 -0.00804917 0.1409644 0.22662522 -0.1116243 -0.017931992
-0.19286746 0.053228993 -0.25407448 -0.0615641 -0.14703521 0.007758432 -0.28463233 0.30352065
0.14886673 -0.09159521 0.20464125 0.6701107 0.0032580404 0.33859998 -0.31743848 0.47475567
-0.43749312 0.1555691 0.16569793 -0.07872017 -0.017213866 0.11187119 0.36744317 0.1282494
-0.18043727 -0.13418931 0.33691183 -0.1524583 -0.23631808 -0.26769856 -0.042011697 0.18741792
-0.11737605 -0.004774892 -0.36718097 0.11016037 -0.011388439 0.4287286 -0.2748696 -0.0345117
0.25024495 -0.004020458 0.27669254 0.1316115 -0.037889954 0.15795103 0.12358643 0.12602788
0.13494511 0.013690374 0.18783562 0.30067226 0.004886579 0.5798396 0.10757618 -0.07946605
0.12358714 0.047564708 0.12243 -0.18181653 -0.3171171 -0.025791273 -0.24666359 -0.19086894
-0.20373146 -0.18029773 -0.22669852 -0.2084965 0.038060885 -0.19534223 -0.20354833 0.15060927

weight f4 [48]
00000000: b203 863f 73a7 843f 4100 533f 40cb 273f
00000010: 1537 8d3f 895a f33e 3225 943f d739 7d3f
00000020: c0e9 203f eb84 903f 6c39 8b3f 849b 6c3f
00000030: 3029 773f 46ff 5f3f 2231 b13f 5a64 9e3f
00000040: 5556 823f 204e 753f d5e4 4e3f 4c48 903f
00000050: a497 8f3f bc8a 7a3f fb3d 813f e358 ce3f
00000060: d7e9 8d3f 496a 9b3f 3443 823f c2e1 703f
00000070: 2273 793f c08f 3b3f a37f 913f 3c2e 873f
00000080: 9033 773f 3bb3 8f3f 9ff3 bc3f e197 b13f
00000090: 699d 3b3f ce31 883f 3a9f 753f 5921 6c3f
000000a0: 9ff8 973f 682c 893f e219 723e bfdb d13e
000000b0: b991 823f 9158 7f3f 353b 953f 7f26 463f
1.0469878 1.0363601 0.8242226 0.6554451 1.1032435 0.4753001 1.1573851 0.9891638
0.62856674 1.1290563 1.0876899 0.924248 0.9654722 0.8749889 1.3843119 1.2374375
1.0182596 0.95822334 0.8081792 1.1272063 1.1218152 0.9786794 1.009704 1.6120876
1.1086987 1.2141811 1.0176759 0.9409448 0.97441304 0.7326622 1.1367077 1.0560985
0.96563053 1.1226572 1.4761847 1.3874475 0.73287064 1.0640199 0.95946085 0.92238384
1.1872748 1.0716677 0.23642686 0.40987965 1.0200721 0.99744517 1.1658694 0.7740249

bias f4 [48]
00000000: eddd 9bbd 6c5c 5c3c 6851 10be 196f 50be
00000010: 2d27 d4bb a7f7 86be b2df 22bc 1821 403d
00000020: 3572 cf3e e166 ddbc 5050 323e 624b babd
00000030: 03ce 903e 0a30 39be 6dac 813d f315 0d3d
00000040: af93 84bd 491f c7bd 9566 dbbd 0530 533e
00000050: 6f10 92bd 772b 93bd 8448 06be 7bd0 05be
00000060: 43d9 3d3d 3a80 d23c 3ef0 6d3e c66b 3e3d
00000070: 7ff1 c0bd 2e92 28be 13b5 40bd b263 a8bc
00000080: cdcc a93d fa80 b73d f304 6c3d 7fcb 2abd
00000090: fead 823e 5dbb fabd 94da 0bbf dc09 aabd
000000a0: 789c 713d c76f 153d 885a e4be fc60 8cbe
000000b0: 61b2 013e 5d7f 533d b28e 443b f10d f7be
-0.07610688 0.0134497695 -0.14093554 -0.2035488 -0.0064743967 -0.2636082 -0.009941028 0.04690656
0.4051682 -0.027026596 0.1741345 -0.090964094 0.28282174 -0.18084732 0.06331716 0.03444476
-0.06473481 -0.09722764 -0.10712925 0.20623787 -0.07132041 -0.07186025 -0.131136 -0.1306781
0.046349775 0.025695909 0.23236176 0.0464895 -0.09421062 -0.16462013 -0.047047686 -0.02055535
0.08291016 0.08960147 0.057621907 -0.041697975 0.2552337 -0.12242768 -0.546304 -0.08302662
0.05898711 0.036483552 -0.4460032 -0.27417743 0.12665702 0.051635135 0.002999228 -0.48252824

running_mean f4 [48]
00000000: 3da8 043f c253 ac3e da03 a23e 1b9e 743e
00000010: 665c 1d3e 3e55 003a 8932 3f3f 2fab 2cbf
00000020: 490a 513f 107d 433f 8840 583d ce90 5cbd
00000030: 996f f03e 6fc6 f3bd 6b93 2e3f d19b 10bf
00000040: feba 5b3e 0de6 3fbd 8170 303f fbfd c63e
00000050: 4a99 8ebf b800 2f3e 2c84 54bf 7f4e bc3e
00000060: 1fd4 debe fbc1 e3be b1fa 343c 50bf c63d
00000070: 9e71 763f 102f 67bf 6f56 7bbe 4608 0abe
00000080: ac76 06be 9586 a4bd a1de 2b3e 5e5d 223e
00000090: 48f2 54be bc3e 39be c426 4ebf 6b83 ccbb
000000a0: 0c86 9bbe d0a2 f4be 72f3 c2be 6700 1ebf
000000b0: 0e11 d2bd 8f58 c8be 4610 7f3e 538e 0fbf
0.5181921 0.33657652 0.31643564 0.23888437 0.15367278 0.00048955146 0.74686486 -0.67448705
0.8165632 0.76362705 0.052795917 -0.053849034 0.46960142 -0.119030826 0.6819369 -0.56487757
0.2145805 -0.046850253 0.6892167 0.38865647 -1.114053 0.17090118 -0.8301418 0.36778638
-0.4352121 -0.44483933 0.011046098 0.09704459 0.96267116 -0.90306187 -0.2454469 -0.13479719
-0.13131207 -0.08033482 0.16784145 0.1585593 -0.20795548 -0.18090338 -0.805279 -0.006241252
-0.30375707 -0.47780466 -0.3807636 -0.61719364 -0.10257159 -0.39130065 0.24908552 -0.56076545

running_var f4 [48]
00000000: 1d89 eb3e ec57 bc3e 5bac 6e3e a8f6 733e
00000010: 903c 1f3f ba41 193e 06d3 a13e 8986 593f
00000020: 4283 863e 1d24 a93e 3626 f23e b7c1 c13e
00000030: f973 ca3e c204 633f 2e7d 8a3e bcfb 193f
00000040: 5227 a23e 280f 4d3f a6aa db3e 6338 023f
00000050: 6411 9140 a887 b73e ea43 133f 1696 603e
00000060: 44d3 d03f b866 013f 5165 6c3e 40e3 b53e
00000070: 7e1e 123f 511c 5c3f d050 173f 598f 463e
00000080: ba86 0d3e 8d32 e03e 1ded 853e 81bc 103f
00000090: e447 0f3f 795d 393e b88f 0540 d5e3 c33f
000000a0: 05f3 4e3f 83b1 0d3f 3a1e 743e e042 513f
000000b0: dced af3d 9dcb 253f 1d5f 2d3e 1cc9 613f
0.46003047 0.3678583 0.23307936 0.2382456 0.62201786 0.14966479 0.3160631 0.8497091
0.26272017 0.33035365 0.47294778 0.37843105 0.39541605 0.88679135 0.2704863 0.6014974
0.31670624 0.8010125 0.42903632 0.5086729 4.533373 0.35845685 0.57525504 0.21932253
1.6314473 0.5054736 0.23085524 0.3552494 0.5707778 0.8598071 0.59107685 0.1939062
0.13820925 0.43788567 0.26157466 0.56537634 0.5596907 0.18102063 2.086897 1.5303904
0.8083957 0.55348986 0.23839656 0.8174267 0.0859029 0.64763814 0.16930814 0.88197494

weight f4 [48, 1, 3, 3]
00000000: b52a ea3d 9440 bd3d 23f8 1b3d c605 023d
00000010: c7c6 233e 327f 213d 9ac9 a5bc 09c3 1d3d
00000020: 9df8 713e d94c 033e e19c 68bd 9131 c73d
00000030: d0c8 0d3e f0c6 823d 8e21 3d3e 7ea2 b23c
00000040: 2bfb 67bd 6e33 c93d 5f90 903d efb7 29bd
00000050: 2114 bcbd 586f aabd 6097 62bc 24a2 d4bd
00000060: 8d1a c93d 6fee cdbd a5be 9c3c 8d73 5e3d
00000070: d683 ab3d a483 163e d983 893d e511 8dbc
00000080: 5c32 2c3e 59c7 063e fba2 463e 76e9 80bd
00000090: 5f06 3a3e e9ff 173d 8ff4 373d 1dcd d03d
000000a0: 3ff4 b0bd 3041 373e c4f5 063e a23b 013e
000000b0: 1c42 14be badf f83c 45d8 82bd 5a06 8fbb
000000c0: 1b33 9b3d 03db ea3d 3a73 95bb 5389 173e
000000d0: e1d6 553e a6cc 853d 09fd 033e 78a5 743c
000000e0: 7458 74bd 1fcf 0b3e 9ad8 75bd 9518 533b
000000f0: 4b0e db3d 9036 ae3d f10e a0b9 6f04 5abe
00000100: 1d30 013e c778 1cbd 42e8 08be 7008 293f
00000110: 0c67 e73c 31fa f43d 1566 e83e 5eac 88bc
00000120: 63d6 02bd b0b3 99be 2afa 523e 9b06 20be
00000130: 1703 843d f04f f3be 715b 773d ecd2 14be
00000140: 2510 33be 0843 523e 78f2 c13d 0e33 55bb
00000150: 82e3 b13c dc2c 803c e52f 27be 1f75 dd3d
00000160: 1dbf 013c 6ee1 85be 422a 103e 45cb ba3d
00000170: 019c 8a3d d456 66be 99ae c4bd 9081 5cbc
00000180: 2aca fcbd a21f 2abe 66a0 f73d f788 edbd
00000190: 12c1 e23c f34e 623c f3f5 2b3d 3879 8abd
000001a0: 24d3 9cbd b814 47bc c98f e0bd bba6 a43d
000001b0: baff 0c3e 3a08 73be 7ceb 71bd 3d68 7bbd
000001c0: 5fb1 92be 7e1b 2abf fbda 62bc c802 c53d
000001d0: 9d00 ef3c 2316 dcbb 10b2 f03c 2f25 03be
000001e0: 3d3d 533e 448b 17be 6629 65bd c0e3 45be
000001f0: 659e 55bc ef8b afbc be30 12be 2b28 623c
00000200: 96ec d3be 0f4d 03be 56fe a43d 0f26 ccbd
00000210: 2bae 863d 373f 363d 0031 ab3c 7588 96bc
00000220: aa5d bbbd 48ff fe3d 677e 73bd b35b 60bd
00000230: c9fb 893e 4b9b 9bbe f1df 86bd ca66 033e
00000240: 7bfd 44bd 2a7d 71bc 2130 4fbe cf3c 463d
00000250: baf6 ce3d 25cd d83c 88a4 0d3c 88b1 adbd
00000260: 4d53 fbbd 88c6 30bd 3291 da3c 49cb 0bbe
00000270: fbca afbd 2936 f63c 9ea3 7cbe c938 2e3d
00000280: 7177 c73b f93a 8c3d 718e 2b3e acac a33d
00000290: b789 693e 137d ab3c 4bf1 c63d 178f 923e
000002a0: 86a2 2e3e bfea b33d d785 883e 5b54 02be
000002b0: f8f6 ad3d 2e75 023e aba6 64be dc11 f63d
000002c0: fa7c a73c 2406 38bd 92bb 293e 6e12 e83c
000002d0: 017d bebd ccd7 3dbd b520 53bd 2f48 803c
000002e0: 5f91 febd 7a29 993d 4c69 123d 61a0 5bbe
000002f0: fc8b 3abd b943 44be f945 0d3d 0086 35bc
00000300: ca6f 483d 2a1f b5bd dc61 8ebd 6f7c cabd
00000310: 4d41 92be 066a f7bd 68e3 bfbd 6d8c 063d
00000320: 55f6 e4bc 91b5 cb3e 97c2 833d 776a b8bd
00000330: fbb6 09be 8878 953d bf18 cf3d 7102 fcbd
00000340: 852f efbc 028a 84be 2cbb 2f3c 8c0f 21be
00000350: 6414 b33d b934 bf3d 87b9 843d ba43 723e
00000360: 1404 123c 5050 3bbd faa1 86bd 985c acbd
00000370: 0797 11be 5de2 b9ba 75a5 ff3c 0107 4abe
00000380: 209d a4bd 8368 3b3d 460c 4cbe 4926 1cbe
00000390: 25e0 06bd 8ff0 04be dcf6 d5be 190e 9bbd
000003a0: c85b b63d 33b2 68bd 6065 2e3d e556 d2bb
000003b0: a76f eb3c 0ade 3c3e 9552 babd 9d05 943c
000003c0: efab 933e a383 eb3d fef2 86bd e113 bdbd
000003d0: 41a4 863d b620 40bd a683 4c3e 44c2 013d
000003e0: 6d47 0c3e f64b 373d 9e23 e33d 756b 1a3e
000003f0: 13e3 45bd 1706 4a3e f79e 243e 3cfc 3e3d
0.11433927 0.09240833 0.03807844 0.031743787 0.15993796 0.039427944 -0.020237733 0.03851608
0.23629995 0.12822284 -0.056790236 0.09726251 0.13846135 0.063856006 0.18469831 0.021805998
-0.056636017 0.098242626 0.070587866 -0.04143518 -0.09183527 -0.083220184 -0.013830036 -0.10382488
0.09819517 -0.10055243 0.019133875 0.054309417 0.08374755 0.14698654 0.06714601 -0.017220447
0.16816086 0.13161983 0.1939811 -0.06294529 0.18166493 0.03710929 0.044910964 0.10195372
-0.08640336 0.17895961 0.1317969 0.12620404 -0.14478344 0.030380119 -0.063889064 -0.004364771
0.07578107 0.114675544 -0.004560855 0.14798479 0.20882751 0.06533174 0.12889494 0.014932029
-0.059654668 0.13653229 -0.06002102 0.0032210697 0.106960855 0.08506501 -0.0003052871 -0.21290754
0.1261601 -0.03820112 -0.1336985 0.660285 0.028247379 0.11961783 0.45390382 -0.016683754
-0.031942736 -0.30019903 0.20603243 -0.1562752 0.06445902 -0.47521925 0.06038994 -0.14533585
-0.17486627 0.20533383 0.09470075 -0.0032531652 0.02171493 0.01564639 -0.16326864 0.10813355
0.0079191 -0.26148552 0.1407862 0.09120802 0.06768037 -0.2249406 -0.09603614 -0.0134586245
-0.12343247 -0.1661363 0.120911404 -0.115983896 0.027679954 0.013812768 0.041982602 -0.06761402
-0.076574594 -0.012150936 -0.10964925 0.08039614 0.13769427 -0.23733607 -0.059062466 -0.061378706
-0.28650948 -0.664482 -0.013846154 0.09619671 0.029175097 -0.006716506 0.029381782 -0.12807153
0.2062883 -0.1479922 -0.055947684 -0.19325161 -0.0130382525 -0.02142903 -0.14276406 0.013803522
-0.41391438 -0.12822364 0.08056323 -0.099681966 0.06576189 0.04449388 0.020897388 -0.018375615
-0.091487244 0.12451035 -0.05944672 -0.05477495 0.2694991 -0.30391917 -0.06585682 0.1283218
-0.0480933 -0.014739314 -0.20233203 0.048397835 0.10105653 0.026465008 0.008645184 -0.08481127
-0.12271748 -0.043158084 0.026680563 -0.13651766 -0.08583637 0.030055122 -0.2467179 0.042534623
0.0060872366 0.06847186 0.16753556 0.07991919 0.2280644 0.020933663 0.09713992 0.28624794
0.17054185 0.08785009 0.26664612 -0.12727492 0.08494371 0.12740013 -0.22329204 0.12015125
0.020445336 -0.04492773 0.16575459 0.0283291 -0.09301186 -0.046348378 -0.051544864 0.01565942
-0.12430071 0.07478614 0.03574495 -0.21447898 -0.045543656 -0.19166459 0.03449056 -0.011079311
0.048934735 -0.08843835 -0.06952259 -0.09887015 -0.28565446 -0.12080769 -0.09369546 0.032848764
-0.027949492 0.39786962 0.064335994 -0.090046816 -0.13448708 0.0729838 0.10112142 -0.12305153
-0.029197464 -0.25886542 0.010725778 -0.15728587 0.087441236 0.09336228 0.06480699 0.23658648
0.008912105 -0.04573089 -0.06573863 -0.08416098 -0.14217769 -0.0014181841 0.031206826 -0.19729234
-0.08037782 0.045753967 -0.19926557 -0.1524898 -0.032928605 -0.12982391 -0.417899 -0.07571048
0.08904225 -0.05681057 0.042577147 -0.00641905 0.028739763 0.18444076 -0.090977825 0.018069083
0.28842112 0.11499717 -0.06589316 -0.09232307 0.06574298 -0.046906196 0.19972095 0.031679407
0.13699122 0.044750176 0.11090778 0.15080054 -0.048312258 0.19728886 0.16076265 0.04662727

weight f4 [48]
00000000: 47b4 803f bb68 7e3f 23ba 7f3f 0670 783f
00000010: 4d76 7d3f ecf4 7f3f 8e51 7e3f fe77 5d3f
00000020: f2b1 7f3f 17e4 783f b714 813f 285a 803f
00000030: 9ee4 863f ab9c 803f 066c 843f 9466 7e3f
00000040: b162 803f b07b 773f 4fe9 823f f4b6 823f
00000050: 50cb 7a3f 74ba 763f ff6b 823f 6df0 7b3f
00000060: 3f21 7d3f f61b 7a3f a0ad 803f 238b 883f
00000070: c713 373f 2384 803f 8c50 803f 1c69 813f
00000080: 3982 7d3f f348 7e3f ee67 813f 5ce1 7f3f
00000090: cb1c 873f a1c3 7e3f 0c9a 823f 732c 823f
000000a0: bfd3 743f 4101 7d3f cf25 803f 9116 813f
000000b0: 1b97 803f 235c 803f 390b 813f f16d 813f
1.0055016 0.99378556 0.998934 0.97045934 0.9900864 0.99983096 0.9934319 0.8651122
0.998809 0.9722304 1.0084447 1.0027514 1.0538518 1.0047811 1.0345466 0.9937527
1.0030118 0.9667311 1.022745 1.0212083 0.9796648 0.96378255 1.0189208 0.98413736
0.98878855 0.97698915 1.0052986 1.0667461 0.7151455 1.0040325 1.0024581 1.0110202
0.9902683 0.9933006 1.0109842 0.99953246 1.0555662 0.99517256 1.0203261 1.0169815
0.956356 0.9883004 1.0011538 1.0085012 1.0046114 1.0028118 1.008155 1.0111676

bias f4 [48]
00000000: cc05 16bd 786b f3bc 23ac 463c badf 0bbc
00000010: 9faf a4bd 1e20 50bc 7561 0abc ccb0 56bd
00000020: 63ad 263d 81b9 993c de12 00bd ec5c 14bc
00000030: a04b 1fbe 1fbc be3c 02b4 ed3b 1f68 db3b
00000040: c500 603a 4ab4 eabc e12c 053d 4171 04bd
00000050: 97a7 883c bc01 14bd ade0 123e 12cc 453c
00000060: d2ed 043b b3f7 36bb 7b9c 29bc 8c39 5b3d
00000070: 2003 95b8 dcf8 763d 795d 48bb 53e6 c23c
00000080: 22d2 f13b 7901 3a3d 0e52 063b a1f8 b23c
00000090: 867a 873b f13b 053d c393 eebc 8843 01bd
000000a0: b952 68b9 0a8c 9738 a3b4 3abd e593 903d
000000b0: 1a56 44bd 664a 573c 99eb 52bc fbfb c1bb
-0.036626622 -0.029714331 0.0121260015 -0.008537227 -0.080413096 -0.01270297 -0.008446087 -0.0524147
0.0406927 0.018765213 -0.031267993 -0.009055357 -0.15556192 0.023283063 0.0072541246 0.006695762
0.00085450365 -0.028650422 0.032513503 -0.03233457 0.016681476 -0.036134467 0.1434352 0.01207258
0.0020283354 -0.0027918636 -0.010352249 0.053521678 -7.105456e-05 0.060295925 -0.0030573292 0.023791468
0.007379786 0.04541156 0.0020495686 0.021847071 0.004134479 0.032527868 -0.029123193 -0.031558543
-0.00022156061 7.2263254e-05 -0.045582425 0.07059459 -0.047933675 0.013140297 -0.012873554 -0.005919931

running_mean f4 [48]
00000000: 9fdf b1bd a370 ab3c 4465 163d b605 36be
00000010: ac59 b83c 7ea9 07be 901b bdbc 3c94 b83d
00000020: 266f bfbe 4435 423c ee37 8dbb 22c5 5f3c
00000030: fc18 8dbe e415 253d febc f4bb 84f6 a5bc
00000040: 3a5f cbbb 5336 dd3c 20bf 40be 1635 553c
00000050: 233c 313b 337a c63d b109 1dbd 3784 0fbd
00000060: b58a 5abd 3a23 873a 0e38 c73d 0645 ea3c
00000070: 2989 47bd 7a78 b03b fc00 1a3b 74fb 0a3d
00000080: 338b 85bb b72a 96bc 1176 80bd f204 7b3d
00000090: 28f1 8bbe 74b7 6fbb bb9f f9be d459 aabd
000000a0: 01de c0bc f283 68ba 9037 c6be 4471 9fbe
000000b0: 0030 a9bd 2add d5bc 5b0b f83a 95d9 8e3d
-0.086852305 0.020927733 0.03671767 -0.17775616 0.022503696 -0.1324825 -0.023084432 0.090126485
-0.37389487 0.01185352 -0.004309646 0.01365784 -0.27558124 0.04030408 -0.0074688187 -0.02025915
-0.0062064203 0.027003443 -0.18822908 0.013013145 0.00270439 0.096912764 -0.03833932 -0.0350382
-0.053354938 0.0010310181 0.097274885 0.028597366 -0.04871479 0.0053854557 0.0023499122 0.03393121
-0.0040754317 -0.018330915 -0.062725194 0.061284013 -0.27332425 -0.0036577852 -0.48754677 -0.083179146
-0.02354336 -0.0008869759 -0.38714266 -0.31141102 -0.082611084 -0.026106436 0.0018924283 0.06975094

running_var f4 [48]
00000000: a7e3 923e 1425 a13e dbf4 123d 2ed2 073e
00000010: cf87 503e 1f9f 463d f585 b43d 85ac 263f
00000020: 9406 803e 7ab2 163e b9fe 3e3e 6254 e23c
00000030: 3c53 6b3f ffb2 413d 6aa4 013f 59a1 9a3d
00000040: d1ed 923d ade7 cd3d 8667 093f 38b8 3e3d
00000050: 6380 ef3d 2633 843e 682d 0f3e c6e5 063f
00000060: 0d32 6e3e 12f4 693f 7377 3e3e 2d63 3f3e
00000070: 6e1e 7e3e e4c8 9d3c 8e42 473e 28bc 153e
00000080: c218 013d 776f 2b3e e1f3 4f3e 3565 4b3f
00000090: 84c8 473e 07b7 953c acdc f43e 396f 7a3e
000000a0: d251 3e3f e403 c83d 97b3 d63c 1616 7f3e
000000b0: 100a 9d3e 517e 183e fcb2 6e3e f196 9f3d
0.2868931 0.314736 0.035878044 0.13263771 0.20364307 0.048491593 0.08814613 0.65106994
0.2500502 0.14716521 0.18651856 0.027628127 0.9192388 0.047289845 0.506415 0.07550306
0.07174266 0.10053954 0.5367359 0.046562403 0.1169441 0.25820273 0.13982165 0.52694356
0.2326128 0.91388047 0.18600254 0.18690176 0.24816296 0.019260831 0.19458982 0.14622557
0.03151775 0.16741739 0.20307876 0.79451305 0.19510084 0.01827575 0.4782461 0.2445649
0.743436 0.09766367 0.026208682 0.24910769 0.3067174 0.14891936 0.23310465 0.07792462

weight f4 [96]
00000000: 7e92 263f 726f 953f 3acb 9e3f a6ad 963f
00000010: 631a 7e3f 7911 983f 2829 8f3f 5651 8e3f
00000020: cca2 8e3f e26a 133f 52e3 983f 8ac9 8a3f
00000030: f8fc 723f 1b04 a33f 8105 993f 49a0 8a3f
00000040: a1a2 8c3f f359 973f 8c23 7d3f 260f 5e3f
00000050: e0a4 953f e19b 723f 5057 a43f 7eca 723f
00000060: f9d8 a03f d0c1 943f 1ffb 893f 3031 523f
00000070: 4d8f 913f 07b0 d33f b575 963f 4d58 743f
00000080: 5dd4 823f 8f15 883f 3944 873f 4370 953f
00000090: 19bb 6e3f 47ac 8b3f 0d74 a83f 8926 053f
000000a0: bf32 be3f 2927 893f 64cc 9f3f bb22 a13f
000000b0: 7666 3e3f edf6 5c3f 5cee 843f 8164 a13f
000000c0: 245d 923f 4d5b 8a3f 0a83 763f 3831 7b3f
000000d0: 414e 4f3f 8f7d 5c3f 23c4 593f 5ca3 233f
000000e0: 28ec 433f f2db 1d3f e336 ba3f aaad 943f
000000f0: c894 723f e94c 903f 3c5f 9b3f 281e 503f
00000100: 9a49 673f ab68 883f 1f4d ad3f d995 853f
00000110: 3afb 943f d91c 923f 851d 713f b9f9 333f
00000120: 2c8b 223f 6e3e 1e3f 7816 823f 990d 823f
00000130: 849b 84be 9071 8e3f 067b 933f d839 733f
00000140: 4b1a 903f 9f23 843f 6423 9d3f 9266 823f
00000150: 88f8 8b3f b74f e13e 8048 ad3f 6925 853f
00000160: c80b ac3f d73e 873f 4eec 9e3f 69f5 b93f
00000170: 0a19 8d3f 4fb3 893f bd7c 853f 42ad a13f
0.6506728 1.1674635 1.240577 1.1771743 0.9925901 1.1880332 1.1184435 1.1118572
1.1143432 0.57584965 1.1944373 1.0842755 0.9491725 1.2735628 1.1954805 1.0830165
1.098713 1.1824325 0.98882365 0.86741865 1.1690941 0.947691 1.2839146 0.9484023
1.2566215 1.1621647 1.0779761 0.82106304 1.1371857 1.6538094 1.1754671 0.95447236
1.0221058 1.0631579 1.0567695 1.1674885 0.9325424 1.091195 1.3160416 0.52011925
1.4859236 1.0715076 1.248425 1.2588724 0.74375093 0.8631428 1.0385242 1.2608796
1.1434674 1.0809113 0.962937 0.98121977 0.8097878 0.8612909 0.85064906 0.6392114
0.7653222 0.61663735 1.4548 1.1615498 0.9475827 1.1273471 1.2138438 0.81296015
0.9034668 1.0656942 1.353916 1.0436355 1.1639168 1.1415054 0.9418567 0.7030292
0.6349361 0.6181401 1.0163107 1.01604 -0.258999 1.1128407 1.1521919 0.9501014
1.1258024 1.0323371 1.2276425 1.0187552 1.0935221 0.4400613 1.353775 1.0402042
1.3441095 1.0566052 1.2415864 1.4528018 1.1023266 1.0757846 1.0428692 1.2630999

bias f4 [96]
00000000: 388a a7be 5959 80b7 deb5 01bd a2dc f4bb
00000010: 3615 163e e556 bcbc 65f7 f5bd 9ca3 2abe
00000020: 7269 4abd cc4e 92be d335 c13c 726b a1bd
00000030: e5b5 233e 6896 113d f187 0fbd 9f42 693d
00000040: 0b2c 0ebd 54a1 3c3d c1ef 7d3b b7c9 e3bd
00000050: 5a7f 413e 0ca3 e13d 392a 123e 300c b4bd
00000060: 52e2 c9ba 9e53 c1bc fac7 d23d fd37 35be
00000070: af40 433d 28a0 193c 85c9 8c3d 2656 3dbe
00000080: 31d4 d83c 5087 b83c 327e 3dbd f2b3 2a3d
00000090: 28d3 243e 44c7 593d ef96 e43d e6f2 d7be
000000a0: aa75 0e3c 2aa5 673d 1404 0f3d e5a5 dc3c
000000b0: 3a15 4a3e b265 74be a8e6 f03a d66c e43d
000000c0: 4d0a ce3d 79ad 1cbd 4074 3b3d 4984 1d3e
000000d0: c246 46be 11ad c4bd b8cb fa3d d135 333e
000000e0: 9d2f b4be 70b0 98be 2e85 613d e383 08bd
000000f0: ff75 7f3e fd66 013e 39d2 093d 2503 15be
00000100: a3d0 573e df20 b53b 63e7 27be d131 c3bd
00000110: 3706 d73d 06d0 c93c 14d9 823e 7bd5 bf3e
00000120: 80ce 883e 03b0 7dbe c3d5 1cbe 9a37 163d
00000130: 8dbd 40bf e771 ad3b cbe9 f3bc d00b 493e
00000140: fc54 34bc 3a02 01be ac62 3d3d 7f6f 1f3e
00000150: e2b6 513d aa94 6cbe 03e5 8abe 7a28 b6bb
00000160: e133 8a3d 1e80 ef3c 5765 973c f205 843d
00000170: b988 a73c 7e01 4cbc 1065 bc3b 9772 e0bd
-0.3272264 -1.5300395e-05 -0.031667583 -0.0074725905 0.14656529 -0.022990653 -0.120100774 -0.16663975
-0.049416967 -0.28575742 0.023585236 -0.07881822 0.15987356 0.03554383 -0.035041753 0.0569483
-0.03470997 0.046052292 0.003874764 -0.111224584 0.18896237 0.11017427 0.14273919 -0.08791387
-0.0015402532 -0.023599442 0.10292049 -0.17697139 0.04766911 0.009376563 0.06874374 -0.18489894
0.026468368 0.02252546 -0.046262927 0.041675515 0.16096175 0.05316855 0.11161601 -0.42177504
0.0086950455 0.056553997 0.034916 0.026934573 0.1973466 -0.23866919 0.0018379288 0.11153571
0.100605585 -0.038251374 0.04576516 0.15382494 -0.1936293 -0.09603322 0.122458875 0.17500998
-0.35192576 -0.2982211 0.05505865 -0.033328902 0.24947356 0.12636943 0.03364775 -0.14551981
0.21075682 0.0055276 -0.16396861 -0.09530986 0.10499232 0.024635326 0.25556242 0.3746756
0.26720047 -0.24774174 -0.15315919 0.03667412 -0.7528923 0.0052931192 -0.029774567 0.19633412
-0.01100659 -0.12598506 0.04623668 0.15569876 0.0511998 -0.23103586 -0.27127847 -0.0055590244
0.06748176 0.029235896 0.01848094 0.064464465 0.020450937 -0.012451528 0.0057493523 -0.10959356

running_mean f4 [96]
00000000: f0dd 9bbd 585c 5c3c 6851 10be 196f 50be
00000010: 4327 d4bb a2f7 86be ffdf 22bc 2421 403d
00000020: 3172 cf3e 0a67 ddbc 4c50 323e 5f4b babd
00000030: 00ce 903e 0730 39be 5bac 813d ff15 0d3d
00000040: b293 84bd 461f c7bd 9766 dbbd 0230 533e
00000050: 6910 92bd 772b 93bd 7f48 06be 7ed0 05be
00000060: 45d9 3d3d 5180 d23c 3bf0 6d3e c16b 3e3d
00000070: 86f1 c0bd 2b92 28be 0db5 40bd a763 a8bc
00000080: cecc a93d f980 b73d e504 6c3d 81cb 2abd
00000090: ffad 823e 57bb fabd 92da 0bbf da09 aabd
000000a0: 779c 713d cd6f 153d 895a e4be f760 8cbe
000000b0: 61b2 013e 637f 533d 188e 443b eb0d f7be
000000c0: c705 16bd 786b f3bc 10ac 463c a5df 0bbc
000000d0: 9daf a4bd f81f 50bc 7361 0abc cbb0 56bd
000000e0: 6ead 263d 7fb9 993c dd12 00bd ee5c 14bc
000000f0: 9d4b 1fbe 16bc be3c ffb3 ed3b 2168 db3b
00000100: d900 603a 4ab4 eabc e42c 053d 4171 04bd
00000110: 95a7 883c bc01 14bd ace0 123e 13cc 453c
00000120: faed 043b b1f7 36bb 859c 29bc 8739 5b3d
00000130: ca02 95b8 d8f8 763d 7b5d 48bb 4de6 c23c
00000140: 25d2 f13b 7701 3a3d 2e52 063b 9ef8 b23c
00000150: df7a 873b f13b 053d a993 eebc 8543 01bd
00000160: 2752 68b9 678b 9738 85b4 3abd e793 903d
00000170: 1656 44bd 694a 573c 97eb 52bc 10fc c1bb
-0.076106906 0.013449751 -0.14093554 -0.2035488 -0.006474407 -0.26360804 -0.0099411 0.046906605
0.4051681 -0.027026672 0.17413443 -0.09096407 0.28282166 -0.18084727 0.06331702 0.034444805
-0.06473483 -0.09722762 -0.10712927 0.20623782 -0.07132036 -0.07186025 -0.13113593 -0.13067815
0.046349782 0.025695952 0.23236172 0.04648948 -0.09421067 -0.16462009 -0.047047663 -0.02055533
0.082910165 0.089601465 0.057621855 -0.041697983 0.25523373 -0.122427635 -0.54630387 -0.0830266
0.058987107 0.036483575 -0.44600323 -0.27417728 0.12665702 0.051635157 0.002999192 -0.48252806
-0.036626603 -0.029714331 0.012125984 -0.008537208 -0.08041308 -0.012702934 -0.008446085 -0.052414697
0.04069274 0.01876521 -0.03126799 -0.009055359 -0.15556188 0.023283046 0.007254123 0.0066957627
0.0008545048 -0.028650422 0.032513514 -0.03233457 0.016681472 -0.036134467 0.14343518 0.012072581
0.0020283447 -0.0027918632 -0.010352259 0.05352166 -7.105393e-05 0.06029591 -0.0030573297 0.023791457
0.0073797875 0.045411553 0.002049576 0.021847066 0.0041345204 0.032527868 -0.029123144 -0.031558532
-0.00022155848 7.226207e-05 -0.045582313 0.0705946 -0.04793366 0.013140299 -0.012873552 -0.005919941

running_var f4 [96]
00000000: 164f 8c3f 6579 893f ade7 2d3f 77f3 db3e
00000010: f4ca 9b3f 4051 673e d274 ab3f de7a 7a3f
00000020: 4448 ca3e 752a a33f 256e 973f d5ad 5a3f
00000030: 2f9f 6e3f 5bfe 433f df47 f53f 68ff c33f
00000040: a6b6 843f 1c0e 6b3f 3a34 273f 2ba2 a23f
00000050: 9815 a13f bd31 753f 967e 823f 5051 2640
00000060: c056 9d3f fbb2 bc3f 4e8f 843f a9a6 623f
00000070: 4f10 733f 0b6b 093f 1f63 a53f d7c1 8e3f
00000080: 54b0 6e3f aa52 a13f 7f75 0b40 dd65 f63f
00000090: d97e 093f 00e8 903f 1aaa 6b3f 59cd 593f
000000a0: 156e b43f 9500 933f b5f2 643d 2d08 2c3e
000000b0: ce2c 853f ccb0 7e3f 71f9 ad3f 475f 193f
000000c0: 8368 813f 2fd2 7c3f 5e62 7f3f cf14 713f
000000d0: 20f0 7a3f 96dc 7f3f d49e 7c3f d497 3f3f
000000e0: a061 7f3f bcf6 713f 1c2a 823f c0a8 803f
000000f0: 0128 8e3f 3433 813f 98fe 883f 59c7 7c3f
00000100: 36c1 803f 0e3a 6f3f 0fe3 853f 5975 853f
00000110: 94ac 753f bec8 6d3f 6be1 843f 5ff0 773f
00000120: 3848 7a3f 2e5a 743f 835a 813f 67a6 913f
00000130: 0fec 023f c2f7 803f b99f 803f 07d4 823f
00000140: 6cf6 7a3f 3791 7c3f 49d2 823f 29c2 7f3f
00000150: 079d 8e3f 1065 7d3f 0b41 853f 1761 843f
00000160: bf23 6a3f 2805 7a3f 403f 803f 4a2e 823f
00000170: f42d 813f 71b6 803f 5217 823f c9db 823f
1.0961635 1.0740172 0.67931634 0.42959186 1.2171311 0.22589588 1.3395026 0.9784373
0.3950826 1.2747332 1.1830488 0.85421497 0.93211645 0.7655999 1.9162558 1.5312319
1.036824 0.91818404 0.65314066 1.270574 1.2584715 0.9577902 1.0194881 2.598713
1.2292099 1.474212 1.0356233 0.88535553 0.9494676 0.5367896 1.2920874 1.1152905
0.93237805 1.2603352 2.1790464 1.9249836 0.5370918 1.1320801 0.9205643 0.8507896
1.4096094 1.1484553 0.055895526 0.16799994 1.0404298 0.9948852 1.3591748 0.59911007
1.011002 0.98758215 0.9975947 0.94172376 0.9802265 0.9994596 0.9867985 0.74841046
0.9975834 0.9451711 1.0169101 1.0051498 1.1105958 1.0093751 1.0702696 0.9874168
1.0058963 0.9344796 1.0459918 1.0426437 0.9596646 0.92884433 1.0381292 0.9685115
0.9776645 0.95450103 1.0105747 1.1378907 0.51141447 1.007561 1.0048743 1.0220956
0.9803226 0.9865908 1.0220424 0.9990564 1.1141671 0.98982334 1.0410475 1.034213
0.91460794 0.9766412 1.0019302 1.0170376 1.0092149 1.0055677 1.0163367 1.0223323

weight f4 [96, 1, 3, 3]
00000000: 42df dd3d a0fb 0d3e 3298 f0bc f5a7 063e
00000010: 01ad 0c3e 7e3e 103e 74d6 213e 04f8 b93d
00000020: aa68 b33c cbc8 d1bc e677 27bd 067a 783d
00000030: 72a7 e03c ee3a 683d d31e 733d 6ca7 f83c
00000040: f252 2f3e f36e 523d 204a 0abe dd20 e3bd
00000050: 2977 923d 3feb 32be 56c2 073e 3786 46bd
00000060: ddc0 4d3e bf28 1a3e 2587 5dbd 026e bd3c
00000070: 9afd 6bbd 1bf9 00be 8bca 003e 57b5 193e
00000080: 2eac ad3c dbe7 a33b a4f3 813d 6355 653d
00000090: 340e 41be e210 3abe 5931 1fbe ad5c 873d
000000a0: 6eff e5bc 736a 54be 14cc f7bd 8f9c 493d
000000b0: 2cb1 b4bc 542c 46be 8966 2dbe a133 1c3e
000000c0: 544b 0bbe 417c 94bd 5c50 b1bd 547b 6ebb
000000d0: b394 823d 6c6f 8c3d d4aa 02bb 4794 e73d
000000e0: 3f81 aa3c dc61 3f3e 200f 253e 49c0 323d
000000f0: 2362 073d 2814 0ebe 49ee 0fbe bdfd cb3d
00000100: 0bd8 313d 8e9f b23d 3bc4 5a3e eeff 47bd
00000110: 2805 583d ff11 903e df08 723d b838 14bc
00000120: 076f bfbc ec9a a8bd 25b0 dfbb fe7c f53d
00000130: b2e8 283e 82a5 b03a a3c9 01bd 28fa 2b3e
00000140: 9d1c bc3d 7ca7 ee3d 3d4a 8f3d 523d 15bd
00000150: 4b31 133e c812 903e 5765 fa3c 51b7 3c3e
00000160: be60 aa3c 78cb 31bd c83c 8fbd 7ae4 dd3c
00000170: ca07 30be 48cd 213c ce0a f93c 1cfe b3bd
00000180: 3f29 c73d 6635 6a3e 6df3 ce3d 7d14 4a3d
00000190: 91ca e43d 653d b33d 1e76 44bd 6954 993d
000001a0: 8b57 133d c3e7 33bd abf5 babc 7e07 233e
000001b0: 3a24 f8bd c7a5 1bbe e754 1fbe 2adb 39bd
000001c0: 23b1 22bd 4a37 bebc 1a94 9bbc 1c7c be3d
000001d0: 09f2 5a3d 4132 903d eada 85bd 02f4 0d3e
000001e0: bb8d 04be e679 303e 9570 2a3e 58d9 7fbd
000001f0: 9c0a 233e 7397 723e b638 f2bc 26ce 96bd
00000200: f53b 2ebe 32a4 b2bc bb4b 50bc 6828 92bc
00000210: a06d 06be 1676 d9bd c87f b2bd 9629 323d
00000220: f0f9 1e3e 80bc 143e 05e4 243d 3076 14bc
00000230: 8758 c53d 39ef 46bd f33d f03a e418 ab3d
00000240: bb01 213d 7582 3e3d 909b 4aba df50 8a3d
00000250: 3443 df3d 432f 1a3e 32d4 f8bd 6e80 b03d
00000260: 2a21 4b3e ffef 693d c755 f5bc 5219 42be
00000270: 4867 54bd 3e10 edbd c533 80be 2c50 5fbe
00000280: 72de 3ebe 7582 f5bd 4cb9 93bd 7f31 0a3d
00000290: 0004 66bd 813a dcbb ed64 023e 8f8d db3d
000002a0: 92f2 4c3c 3cd2 cc3d bc3b d73d 1a6b fa3d
000002b0: 8c7f 413d 1036 bc3c ce87 2f3d 1283 023e
000002c0: 5bc3 33be 97c2 8d3e acad 4f3e 2c83 843c
000002d0: b696 b6bd bc7d 433e 4580 e13e c255 18be
000002e0: 6712 f0bd 4c0a 173f 3f50 87bd 26f4 3ebd
000002f0: e282 353d 3f71 38ba 279d ac3d a218 71bd
00000300: 0433 3dbe 7dfa 0fbe 04b9 f6bd 1d64 8dbd
00000310: 95df 03be 9eef 0ebe 019a 5e3e 501d cb3e
00000320: 5a3b b83d df18 55bc deac ac3e 842e 19bd
00000330: 0e2b 7dbe 7b69 62be 18bd e6bd 9cbd 21bc
00000340: d551 8f3c b207 9abd e84d 01be 60f9 98ba
00000350: d241 99bd 1d03 b0bd 9240 65be c7ee dbbd
00000360: 7fdc 55bb e12f e5bd 5da6 1fbe 8e59 9c3c
00000370: 81bf f5bc 6ee4 643e 2600 c2bd 644a 25be
00000380: 2580 823e 1938 1e3e 9c92 8e3d 14a0 a63c
00000390: 5691 c9bd 2a64 813d 4394 bc3c 2f39 9abd
000003a0: 9491 553d 8d14 17bd f85c 68bd beba 0bbd
000003b0: b7e2 be3e a6f5 17be d6a6 3b3c 49fe 243e
000003c0: 98cb a6bc 378a cdbd 3056 47be 484e c2bc
000003d0: ebdf 82bc 72d3 f2bb 60c2 683d fc9d 3cbd
000003e0: 2c9c a03d 4099 863e f3b8 963d 6f67 e8bc
000003f0: 7664 d23c 7db2 61bb 2a0c 84bd a305 61be
0.10833599 0.13865519 -0.029369447 0.13150008 0.13737871 0.14086339 0.15804464 0.09080508
0.021900494 -0.02560844 -0.04088583 0.060663246 0.027423594 0.056696825 0.05935557 0.03035327
0.17121485 0.05137534 -0.13504839 -0.110902525 0.07151634 -0.17472552 0.13257727 -0.04846784
0.20093103 0.15054606 -0.054083962 0.023123745 -0.0576149 -0.12595026 0.12577264 0.15010582
0.021200266 0.0050020046 0.06345299 0.055989634 -0.18853074 -0.18170503 -0.15546168 0.066094734
-0.0280759 -0.20743732 -0.12099472 0.04922157 -0.022057138 -0.19352847 -0.16933645 0.1525407
-0.13602954 -0.07250262 -0.086579055 -0.0036389427 0.063760184 0.068571895 -0.0019938247 0.113075785
0.020813582 0.18689674 0.16119051 0.04364041 0.033052575 -0.13874876 -0.14055742 0.09960506
0.043418925 0.08721839 0.21363918 -0.048828058 0.052739292 0.2813873 0.05909049 -0.009046726
-0.023368372 -0.08232674 -0.006826418 0.11986731 0.16495016 0.001347706 -0.031686436 0.16794646
0.09185145 0.11653039 0.06996582 -0.036435433 0.14374273 0.2813933 0.0305659 0.18429305
0.020798083 -0.043406934 -0.06994015 0.027086485 -0.17190471 0.009875603 0.03040066 -0.08788702
0.09724664 0.22871932 0.101050235 0.049335945 0.11171449 0.087519445 -0.047964208 0.07486803
0.03597216 -0.043922197 -0.022822222 0.15920827 -0.12116285 -0.15199958 -0.15559731 -0.045375027
-0.039719712 -0.023219723 -0.018991519 0.09301016 0.05345348 0.07040835 -0.06535895 0.13862613
-0.12944691 0.17234 0.16644509 -0.062463135 0.15922016 0.23690586 -0.029568058 -0.073635384
-0.1701506 -0.02180681 -0.012713368 -0.017841533 -0.13127756 -0.10618226 -0.087157786 0.04349669
0.15525031 0.14525032 0.04025652 -0.009061381 0.09636026 -0.048567984 0.0018329009 0.08354357
0.03930829 0.046511132 -0.0007728869 0.06753706 0.1090149 0.15057091 -0.12149848 0.08618246
0.1983687 0.057113644 -0.029948128 -0.18954971 -0.05185631 -0.115753636 -0.25039497 -0.21807927
-0.18639544 -0.11987773 -0.07213077 0.03373861 -0.05615616 -0.0067208414 0.12733813 0.107203595
0.012509005 0.100010365 0.1050944 0.12227459 0.04724078 0.022974998 0.042854123 0.12745312
-0.17554991 0.27687523 0.20281094 0.016175829 -0.089154646 0.19090933 0.44043174 -0.14876464
-0.1172226 0.59000087 -0.066071026 -0.046619557 0.044314273 -0.0007035918 0.08428412 -0.058861382
-0.18476492 -0.14060397 -0.12047008 -0.06903861 -0.12878259 -0.13958594 0.21738435 0.396708
0.089956954 -0.013006418 0.33725637 -0.037397876 -0.24723455 -0.2211055 -0.112665355 -0.009871867
0.017495075 -0.07520999 -0.12627375 -0.0011670999 -0.07483257 -0.08594344 -0.22387913 -0.107389025
-0.0032632647 -0.11190773 -0.15590806 0.019085672 -0.029998543 0.22352764 -0.094726846 -0.16141659
0.25488392 0.15451087 0.06961557 0.020340003 -0.09842174 0.06317933 0.023019915 -0.07530438
0.052140787 -0.036884833 -0.056729287 -0.034113638 0.37282345 -0.14839801 0.011453351 0.16112627
-0.020360753 -0.10036128 -0.19466472 -0.023718968 -0.015975913 -0.00741046 0.056825995 -0.046049103
0.078422874 0.26288795 0.07359495 -0.028369633 0.02568267 -0.0034438663 -0.064476326 -0.21974806

weight f4 [96]
00000000: 58b4 5c3f 7256 7b3f 0007 7c3f 920e 663f
00000010: 3429 573f c422 813f cbb2 6f3f 7c17 953f
00000020: 39ec 2a3f af1c 5e3f 61ad 5c3f 4a0c 833f
00000030: 38f8 7f3f d7f9 813f 5ab1 813f 8bbe 863f
00000040: 48c5 7f3f cd65 803f acd8 663f fba2 893f
00000050: 2e94 7b3f 212c 6d3f af53 8a3f a506 4c3f
00000060: a95a 913f 8ca3 713f 83f0 7b3f ab3c 833f
00000070: abf1 723f 5895 a63f d714 6a3f 5103 743f
00000080: f0e8 773f f536 6b3f 6850 5a3f 4aaf 833f
00000090: 8902 8b3f 1061 753f 878b 6c3f f018 803f
000000a0: 0a1c 893f 005e 713f 394a 9c3f 9dfb 7c3f
000000b0: b428 683f bb91 793f 98da 703f aa80 743f
000000c0: ef5c 9a3f 0ca8 803f 37a6 693f 32d8 7f3f
000000d0: 0724 733f ef11 6e3f 969f 773f 9fe4 823f
000000e0: 53a2 6f3f a77d 893f eaf9 8a3f c10c 7c3f
000000f0: 806a 9d3f c4c1 9d3f d392 893f d6ec 593f
00000100: 087f 6b3f d61b 753f 6b7f 703f b583 603f
00000110: e001 613f 37f0 743f cc42 a83f caeb 783f
00000120: 1093 7e3f e5af 643f 9b04 5b3f cb89 793f
00000130: 10ed 7d3f 5e9d 653f 795a 763f 3b59 7b3f
00000140: 8a93 7f3f c0b8 833f c404 823f ee86 7a3f
00000150: 0b9b 483f 2214 723f ad05 803f e370 633f
00000160: ee4c 7f3f 3180 833f e340 683f 20f5 9a3f
00000170: 8f6c 633f 261f 703f fd2d 783f b049 be3f
0.8621268 0.9817878 0.9844818 0.8986598 0.84047246 1.0088735 0.9363219 1.1647792
0.667667 0.8676252 0.86202055 1.0238125 0.99988127 1.015437 1.0132248 1.0526899
0.999104 1.0031067 0.90174365 1.0752863 0.9827298 0.9264546 1.0806788 0.7969764
1.1355792 0.9439018 0.98413867 1.0252889 0.94900006 1.3014326 0.9143805 0.9531756
0.9683981 0.9188073 0.8527894 1.0287869 1.0860149 0.9585123 0.924004 1.000761
1.0711682 0.9428406 1.2210151 0.9882143 0.9068711 0.9748799 0.9408355 0.95508826
1.2059611 1.0051284 0.9126925 0.9993926 0.9497685 0.92996114 0.96727884 1.022602
0.9360706 1.0741471 1.0857518 0.9845696 1.2298126 1.2324758 1.0747932 0.8512701
0.9199071 0.957456 0.93944424 0.8770097 0.87893486 0.9567904 1.3145385 0.97234786
0.9944315 0.89330894 0.855539 0.9747588 0.99189854 0.8969325 0.962318 0.9818303
0.998345 1.0290756 1.0157704 0.97862136 0.78361577 0.9456197 1.0001732 0.88844126
0.9972676 1.0273496 0.9072401 1.2106056 0.8883752 0.9379753 0.9694517 1.4866238

bias f4 [96]
00000000: 3a29 18be 9ad2 36bd c4eb 75bd c0ed e5bc
00000010: 83d1 27be b410 14bd 192e 4bbe 5c5b 133e
00000020: 08f5 e5bd 7ff3 673d cdf5 2fbe b687 0c3c
00000030: ab09 65bd 5a03 2f3e e0ff ea3c d972 813e
00000040: 6bce 43bd 2a3f 10bd d2e7 913d 02a6 0e3e
00000050: e7ea 663e c7fe 413c 4a19 fe3e 3866 01be
00000060: be25 03be 75e9 5a3c 8ec2 803c 2585 d7bd
00000070: bcf4 d3bc 13f5 563e 1aa3 4e3e 6f04 1abe
00000080: 663e dcbd 60fa 55bd 1506 07bd 6298 763d
00000090: 0aab 213d 7fbb 07be 1862 6d3f 2588 0cbe
000000a0: 6fdc 8f3e 0cd8 a73c 0cf4 7e3e 41d6 21bc
000000b0: 21ff ce39 124d bfbe 7c70 b4bc e61f 103f
000000c0: 0941 1dbd f95a 49bd 7f0e a9bd ac50 16bd
000000d0: be9a d3bb 9eb1 67bd a879 003d 9283 cd3e
000000e0: f75c e0bd e02a 413e eed8 403d 5f40 f93b
000000f0: fc06 893e 8ea9 c33d 547b 873e eb6b ed3b
00000100: 53ee 313e f398 b6bc e074 6c3e e040 babd
00000110: 7dba 423e 131d 843d e1ae 053d 221e 3f3e
00000120: f06c d33d ecdb f8bd f3be 68bb d93d 1d3c
00000130: c4be 2bbe 4add 3abe 3986 033d 81c3 09bd
00000140: 8719 e2bd 9e9d d83d ba49 95bc 6733 d33b
00000150: 287a 043e 4084 88bd 1810 97bd 86b0 933c
00000160: f56b f53d 36c0 c63d 4eb0 ec3c b677 fabd
00000170: 27f9 a1bd 02ea 9fbd 9925 9bbb 1087 173f
-0.14859477 -0.04463444 -0.060039297 -0.02806747 -0.16388516 -0.03614874 -0.19841804 0.1439032
-0.112283766 0.0566287 -0.1718361 0.008577278 -0.055917423 0.17091122 0.028686464 0.25282934
-0.047804277 -0.035216488 0.07124294 0.13930514 0.22550546 0.011840529 0.4962867 -0.1263665
-0.12807366 0.013361325 0.01571777 -0.10523442 -0.025873534 0.20991926 0.20179406 -0.15040754
-0.10754089 -0.05224073 -0.032964785 0.060203917 0.039469756 -0.13255118 0.92727804 -0.1372381
0.28097865 0.020488761 0.24897784 -0.009877742 0.00039481468 -0.37363487 -0.022026293 0.56298673
-0.0383921 -0.049159024 -0.08254718 -0.03669803 -0.0064576557 -0.056565873 0.03136602 0.40139443
-0.10955232 0.18864012 0.04708188 0.0076065506 0.2676314 0.09553824 0.2646128 0.007245531
0.1737607 -0.022289729 0.2309146 -0.09094405 0.19016452 0.06450858 0.03263748 0.18663839
0.103235126 -0.12151322 -0.0035514205 0.009597265 -0.1677199 -0.18248478 0.032110427 -0.033633713
-0.11040025 0.10576938 -0.018223632 0.0064453366 0.12937224 -0.0666585 -0.073761165 0.018028509
0.11983482 0.0970463 0.028892662 -0.12229864 -0.0790885 -0.07808305 -0.0047347066 0.59190464

running_mean f4 [96]
00000000: f44c a43d c1ab 1b3e 2c75 513c b832 8d3d
00000010: 20c7 8fbe 1289 f8bd 5361 b53d 647a e93d
00000020: 8a9e 1d3e bee6 393d 3f26 4d3b ab83 d93d
00000030: f6c6 dcbd 3d31 813e 3d7b 2ebe 0a46 1a3e
00000040: 5972 3a3e 23f3 b3be 9eea 513d 74e0 ae3d
00000050: 8bc8 ae3e 4d4a 22be 44ad 1a3e 9b39 79bd
00000060: 05b4 90bc a4ee 423d 87ba 16bc e87f 693c
00000070: f6df 82be e716 873e 2ff7 1c3e 05b0 9cbb
00000080: ef2b 77bd 98ba 003e aee2 183e 8272 23be
00000090: cca8 4cbe 1400 7c3e 3df8 b33d 375e 0bbd
000000a0: ad22 5dbe 2156 0f3e e738 00be 7ba5 9a3d
000000b0: e89f 4fbe 0174 52bc c5e9 0fbd c7d4 d63d
000000c0: 8fa8 cebd 6de7 873d 3fa3 00bd 6da8 db3d
000000d0: 956b 1ebc b9f9 adbd 49f8 bbbd 65cd ce3d
000000e0: a439 b33d d841 cdbc 1e20 39be 1d43 fdbd
000000f0: 217b c03d 58ff a9bd 86f2 363d 72b4 e3bc
00000100: b125 3cbe 5150 0d3d cb77 1cbe 6791 473b
00000110: 73c5 833e 1cf6 0abe b4e8 0bbe 35e6 94be
00000120: adf8 c8bd 11ba 523d 5937 41bd 83f7 e63c
00000130: 0400 0000 7239 44bd afc3 0abc 6195 30be
00000140: 5fa9 62be b8d1 06bd 26b6 99ba d1b6 c5bd
00000150: 9274 b03e f18b 2abb c0e3 563d a87d 1a3e
00000160: 6cb2 e93e b22a 833d 5050 88be c4ac d43d
00000170: 5f31 5b3e dd02 d2bd e7c6 473b 786f 6ebe
0.0802249 0.15202238 0.012784284 0.068944395 -0.28081608 -0.12135519 0.08856454 0.11400297
0.15392509 0.04538607 0.0031303314 0.10620817 -0.10780136 0.25232878 -0.17039199 0.1506578
0.18207683 -0.35146436 0.05124914 0.08538905 0.34137377 -0.15848656 0.15105158 -0.060845952
-0.017663965 0.047590867 -0.009199745 0.014251687 -0.25561494 0.2638466 0.15328668 -0.0047817254
-0.060344633 0.1257118 0.14930221 -0.1596165 -0.19986266 0.24609405 0.08787582 -0.034025397
-0.21595259 0.139977 -0.12521707 0.07551094 -0.20275843 -0.01284504 -0.03513505 0.10489803
-0.10090744 0.06635938 -0.031405684 0.10725484 -0.009669204 -0.084948964 -0.09178216 0.1009777
0.087512285 -0.02505581 -0.18078658 -0.123663165 0.09398485 -0.08300656 0.044664882 -0.027796004
-0.18373753 0.034500424 -0.15280072 0.0030451657 0.2573658 -0.13570446 -0.13662988 -0.29081884
-0.09813056 0.051446978 -0.047171924 0.028194195 6e-45 -0.047906347 -0.008469506 -0.17244484
-0.22134922 -0.032914847 -0.0011727258 -0.0965401 0.34463936 -0.0026023353 0.052463293 0.15086997
0.45643938 0.06404628 -0.26623774 0.10384515 0.21405552 -0.102544524 0.0030483545 -0.2328471
