trained_model/BiSegNet(ReagentV2)_top.pt (torch, 395148 bytes, 152 tensors)

weight f4 [8, 1, 3, 3]
000000 19 2c 82 3c 10 ac 39 be b8 d2 21 be 9c 7d 6c 3e
       0.015890168 -0.18132043 -0.15803039 0.23094791
000010 cc 88 0e 3e 80 67 32 be e7 e3 83 be 50 c5 a8 be
       0.13919371 -0.17422295 -0.25759813 -0.32963037
000020 86 ba 8b 3e b4 87 da 3d 97 66 dc bd b9 1d 9d be
       0.27290744 0.106704146 -0.10761755 -0.3068674
000030 ae b2 bb bc 17 e7 7e 3d bb 19 0b 3e 46 97 91 3e
       -0.02291235 0.062232103 0.13584034 0.28435725
000040 03 f5 a1 3e 5a 01 96 bb 9d 0c 85 3e 88 4b 90 3e
       0.31632242 -0.004577798 0.25986186 0.28182626
000050 b1 16 7e 3e 13 d1 74 bd 28 ed dc 3d ac 55 33 be
       0.24813344 -0.0597697 0.107874215 -0.1751315
000060 74 7f 1f be 77 10 b7 bd 2f a6 22 3d 58 f5 52 be
       -0.15575963 -0.08938687 0.039709266 -0.20601404
000070 06 f2 2e be a4 41 9e 3e 2b 6a 0d bd e8 ca f2 3d
       -0.17084512 0.30909455 -0.034525078 0.118551075
000080 85 24 0e 3e 6e 8c 18 3e 5a 2c 98 3e 06 7e 7d 3e
       0.13881119 0.1489732 0.29721338 0.24755105
000090 d2 37 29 3e 06 49 a7 3e dc eb 78 be f1 ab 7d 3e
       0.165252 0.326729 -0.24308723 0.24772622
0000a0 50 95 df 3d f4 1f 72 3c b4 56 49 3e b1 ed 7b 3e
       0.10917151 0.014778126 0.19661981 0.24602391
0000b0 3e 14 2c 3e 3f d6 a8 3c 02 c4 12 3e ea b5 a1 3e
       0.16804597 0.020609973 0.14332584 0.31584102
0000c0 1d 54 1e be 23 c5 26 be 9f 9f 30 3e 7f 79 ab 3d
       -0.15461774 -0.16286139 0.1724839 0.08372783
0000d0 86 f4 3e 3e db 22 cf 3e c4 e9 80 be a1 2a e2 3d
       0.18647966 0.4045628 -0.2517835 0.11043287
0000e0 08 65 69 be e9 e1 b8 3d 01 19 8a be db 6b b6 bd
       -0.22792447 0.09027464 -0.269722 -0.089072905
0000f0 39 52 88 3e 65 c9 55 bc f6 0e 30 be fb 44 82 be
       0.2662523 -0.0130485045 -0.17193207 -0.25443253
000100 54 a6 be bd 3f 8e 6e be 15 7f cb 3d 85 30 94 3d
       -0.09309068 -0.2329645 0.09936348 0.07235817
000110 eb f3 31 3e 42 26 c2 be e4 ef d0 bd 84 59 96 be
       0.17378204 -0.37919813 -0.102020055 -0.2936517

weight f4 [8]
000000 7d 60 80 3f 9e bd 7b 3f 32 3a 8f 3f f6 cf 8e 3f
       1.0029446 0.9833621 1.1189635 1.1157215
000010 d4 96 75 3f da 08 73 3f df 88 80 3f bd f4 72 3f
       0.9593327 0.9493538 1.004177 0.9490469

bias f4 [8]
000000 ae ed 15 bd 02 47 8f 3c ac fe 0e 3e 11 33 27 3d
       -0.036603622 0.017489914 0.13964337 0.040820185
000010 79 0a d4 bd 0d 95 24 bc 9b e7 0e bc dc c1 e2 3c
       -0.1035356 -0.010045302 -0.008722211 0.02768033

running_mean f4 [8]
000000 b1 42 9f c2 77 4c a8 42 b9 e8 a3 42 15 93 19 43
       -79.63026 84.149345 81.95454 153.57454
000010 8b 70 5e 43 03 57 36 43 18 99 c8 c2 f5 4d 36 c3
       222.43962 182.33989 -100.29901 -182.30452

running_var f4 [8]
000000 25 42 35 44 8e c0 5b 44 72 a6 6d 44 91 9b 26 45
       725.0335 879.00867 950.6007 2665.723
000010 8f b6 ae 45 c8 75 6a 45 de 70 95 44 85 69 68 45
       5590.82 3751.3613 1195.5271 3718.595

weight f4 [24, 8, 1, 1]
000000 21 f9 00 bc f6 7f 9e be 6e 9c cd be 13 c1 94 3e
       -0.007871897 -0.30957 -0.4015841 0.29053554
000010 90 4e 05 3e 74 fb 6d 3d 2e 7c d5 be 19 e9 86 3e
       0.1301825 0.058101133 -0.41696304 0.26349714
000020 7e 55 3a 3e 32 08 0e be e7 c0 3c be 95 a7 05 bf
       0.18196675 -0.13870314 -0.18432961 -0.52208835
000030 fc 8d 9e be ad 81 ac be 4e 62 6c 3d 75 bf 09 3e
       -0.309677 -0.33692685 0.05771094 0.13451941
000040 90 89 06 3e 30 d2 de be 5c b6 45 be 4c 14 86 3d
       0.13138413 -0.43519735 -0.19307846 0.0654684
000050 9c f0 61 3d a9 04 a6 3e d5 f4 2d bd 23 28 10 3e
       0.055161104 0.3242543 -0.04246982 0.14077811
000060 79 fb 34 be 7f 0b e2 3d 16 94 3e 3e 95 da c2 bd
       -0.17674054 0.11037349 0.18611178 -0.095143475
000070 8a 42 a4 be db 71 9f 3e c3 42 e0 3b 5b dc 21 3f
       -0.32082015 0.31141552 0.006843896 0.6322686
000080 aa bb 03 3e a3 93 79 be 39 ea a7 3e 1f d1 9d bd
       0.12864557 -0.24372725 0.32795885 -0.07705902
000090 f6 1b 37 bd 04 fb 94 3d bd a1 8b be b9 bd 9b 3e
       -0.0447044 0.0727444 -0.27271834 0.30418184
0000a0 22 58 f9 3d c7 dd 73 3d 2b 0b 57 3e af 17 80 be
       0.12175013 0.059537675 0.21000354 -0.2501807
0000b0 66 5a f7 bd 56 10 d4 bd e6 a6 83 be 50 a1 a4 3c
       -0.12077789 -0.10354678 -0.2571327 0.020096451
0000c0 5a b5 f2 bd 47 95 32 be db 27 4a be 52 cb b6 be
       -0.11850996 -0.17439757 -0.19741766 -0.35701996
0000d0 fc 92 85 3d e1 23 5f 3e a3 b7 38 be e2 78 15 be
       0.06522176 0.2179103 -0.18038802 -0.14596894
0000e0 dc c8 d8 3d 5c bf 74 be 1a c6 65 be f2 da a5 3e
       0.10585186 -0.23901123 -0.22438851 0.32393605
0000f0 18 a8 0e 3b 01 9f ce be b2 ac 97 3e 6d 16 1c 3f
       0.0021767672 -0.40355685 0.29623944 0.6097172
000100 28 9c dd 3e ec 01 92 be ac 40 8b 3e 98 9f 2b 3e
       0.432832 -0.2851709 0.27197778 0.16760099
000110 02 bd 0e 3d d2 4e eb 3e 55 db a4 3d 8c 14 e4 bc
       0.03484822 0.45958573 0.08049647 -0.027841829
000120 d1 78 d0 be 61 b4 18 bd 14 f5 f9 3e eb 0a 7e 3e
       -0.40717176 -0.037281398 0.48819792 0.24808852
000130 c6 b5 39 be c9 1a 7b be bd c6 dc 3e d9 68 ab be
       -0.18135747 -0.24521936 0.43120375 -0.3347843
000140 7d da 19 bf 8b e5 d7 be 71 9b 53 be bc 87 bb 3d
       -0.6009901 -0.42167315 -0.20664765 0.09156749
000150 b3 1c c7 be 79 5c c4 3e c8 c4 d0 bd 96 15 9d be
       -0.38889083 0.383518 -0.10193783 -0.3068053
000160 6d 66 30 be a7 4c 3e bd a2 de 81 3d 6c 20 ab 3e
       -0.17226572 -0.04645982 0.06341292 0.33423173
000170 ca cc 59 3e 8c f0 b5 3d 2a 99 cd be 86 f3 17 be
       0.21269527 0.08883771 -0.40155917 -0.1483899
000180 bf 4c 04 be 7c f5 c2 3c 46 46 8f be 4b f3 8f 3e
       -0.12919901 0.023798697 -0.27983302 0.28115305
000190 3f 39 f2 3e ec a8 8b bc fd e0 8f 3d 78 81 81 be
       0.473093 -0.017048322 0.07025335 -0.2529409
0001a0 2d c1 22 be 9b ee a8 3e f3 27 0f bd 86 2f d8 3e
       -0.15894003 0.32994542 -0.034950208 0.42223758
0001b0 34 09 59 3c 24 eb 88 bd 87 74 d6 be 34 a7 2d 3e
       0.013246823 -0.066854745 -0.41885778 0.16958314
0001c0 34 a3 8f 3c 26 09 3e be 26 e0 71 bd f3 f3 6c be
       0.017533876 -0.18558177 -0.059051655 -0.23139934
0001d0 df 37 fc 3d 35 47 b9 3d 9d 4f c9 3d 3c 86 13 3f
       0.12315344 0.09046785 0.09829638 0.576267
0001e0 53 a2 8e 3e 88 ab 5a 3e aa 4c 2a bd 63 bd 7c 3d
       0.2785822 0.21354496 -0.04157702 0.06170405
0001f0 0f a0 74 be d8 03 a9 3e 8a 3a 5b 3e 1d f4 a5 be
       -0.23889183 0.33010745 0.2140905 -0.32412806
000200 75 ec cb 3e 62 29 b6 be 81 43 b4 be e1 4a 36 3e
       0.3982884 -0.35578448 -0.3520775 0.17802002
000210 5c 6f 26 3e 14 5c 97 be d5 28 8e be d1 67 86 be
       0.16253418 -0.29562438 -0.27765527 -0.2625108
000220 b0 7e 1f 3e 8d f3 ee be 80 22 4e 3e aa 10 9c 3e
       0.15575671 -0.4667019 0.20130348 0.30481464
000230 3b 68 b3 be f9 b4 71 3e 8a d5 9e 3d 2d 61 16 be
       -0.3504046 0.23604192 0.07755573 -0.14685507
000240 b7 27 42 be 32 dd e7 be ac 23 ef be 86 15 2a 3e
       -0.18960463 -0.45285946 -0.46706903 0.16609773
000250 9b 62 c2 be b5 cf cc bd ce ba 99 3e fd c7 d2 be
       -0.37965855 -0.100005545 0.30025333 -0.41168204
000260 ac 68 24 be 7d 3d b0 3e 33 40 de 3e 5b 36 fd be
       -0.16055554 0.34421912 0.43408355 -0.49455532
000270 65 f8 b8 3b 08 c9 e2 be d7 65 c0 bd 12 82 1b 3e
       0.0056448453 -0.44294 -0.093944244 0.15186337
000280 bf 99 f1 3d 93 de 64 3d e7 8e f1 be 93 72 11 3f
       0.11796903 0.055876326 -0.47179338 0.5681545
000290 4e 1e 6c be 89 a4 e3 bd 21 69 a4 3d 81 bc 46 3e
       -0.23058435 -0.11115367 0.08027864 0.19407846
0002a0 88 a0 a2 be fe 4c 35 ba e4 d8 d0 be e7 5c 79 3e
       -0.317631 -0.0006916075 -0.40790474 0.24351846
0002b0 2b 7c 11 3e 40 be 2c 3e 54 3c a7 3e da 4a 10 bd
       0.14207523 0.1686945 0.32663214 -0.035227634
0002c0 8b 9d 56 be aa 42 48 3d 73 d8 54 be e8 ec e9 3d
       -0.20958535 0.0488917 -0.20785694 0.114221394
0002d0 c5 94 b4 be 20 cd e6 3e 66 c0 84 be a3 f9 f9 3d
       -0.35269752 0.45078373 -0.25928038 0.122058176
0002e0 c4 e6 52 3e f7 6e 73 3e 21 17 12 bf 24 24 e4 3e
       0.20595843 0.23772798 -0.5706654 0.44558823
0002f0 69 6b 89 bd f3 89 a1 be 62 59 32 bd a1 a6 f9 bc
       -0.0670994 -0.3155056 -0.043542273 -0.030474963

weight f4 [24]
000000 22 ba 7b 3f 28 43 bc 3f bd d8 a5 3f e2 1d 4c 3f
       0.9833089 1.4707994 1.2956768 0.797331
000010 2e f0 8e 3f 0c 23 94 3f 6e 30 8f 3f 70 5e c5 3f
       1.1167047 1.1573195 1.1186655 1.5419445
000020 5a 5b 57 3f c2 21 9d 3f d5 30 91 3f 08 f9 8c 3f
       0.84123766 1.2275927 1.1343027 1.1013498
000030 5f d5 86 3f db 23 73 3f 28 e4 7f 3f 33 fc 4a 3f
       1.0533866 0.94976586 0.99957514 0.79291075
000040 2e b1 70 3f ef ee 5a 3f 14 56 b0 3f f4 2b 41 3f
       0.94020355 0.85520834 1.3776269 0.7545769
000050 20 2b be 3f 9d b0 42 3f b7 4c 69 3f 6a 59 9a 3f
       1.4856911 0.7605074 0.9113268 1.2058537

bias f4 [24]
000000 13 ad 93 3d ae 3b 4f 3d 51 74 1b bd f7 b6 30 be
       0.07210746 0.050594024 -0.037952725 -0.17257296
000010 68 10 d6 bc 78 ce 0c 3d 3f 87 87 bc 24 0d 92 bb
       -0.02613087 0.03437659 -0.016543983 -0.004457133
000020 10 8e 25 be 24 35 50 bd 39 79 5c bd 5b be 96 3d
       -0.16167474 -0.05083193 -0.053826544 0.07360526
000030 09 33 8e 3d b3 ab 04 3e 69 d7 b7 bd f5 35 60 be
       0.06943328 0.12956123 -0.08976633 -0.21895583
000040 37 cd f1 3d ea 25 c6 3d 2e 7b f7 3c 9a 89 fc 3c
       0.1180672 0.096752 0.030210104 0.030827332
000050 d9 4d 3d bc 60 ac 03 3e 9f e3 d8 3c d7 8d cf bc
       -0.011554205 0.12858725 0.026475726 -0.02533619

running_mean f4 [24]
000000 28 b7 3a be 35 a5 c5 be c1 b5 b7 bc 27 dc 80 3e
       -0.18233931 -0.38602605 -0.022425534 0.25167963
000010 35 c0 db 3d 44 85 99 bd 9c bf b2 be 54 b1 13 3e
       0.1073002 -0.074961215 -0.3491181 0.14423114
000020 be 3c ce 3e b8 70 d1 3d 76 2e fc be eb 81 40 bc
       0.40280718 0.102265775 -0.49254197 -0.011749725
000030 10 a1 35 bc d4 e7 d4 3d 06 86 c7 3d 0f 8a 31 3e
       -0.011085764 0.1039578 0.0974236 0.17337821
000040 e3 69 9d be 06 5b a9 3d 74 e3 02 bf e7 d3 2c bd
       -0.30744848 0.082693145 -0.51128316 -0.042194273
000050 fb 35 61 3d 5d b7 b9 bc 4c 42 c2 bd 29 9e b3 bd
       0.05498312 -0.022670442 -0.094853014 -0.08770401

running_var f4 [24]
000000 6d 37 b9 3c 80 84 9f 3e 2d 24 4b 3d fd d9 f4 3d
       0.022609437 0.31155777 0.049595047 0.119556405
000010 ba 1f ae 3c b1 09 3b 3c 3c 59 cd 3d 94 18 52 3f
       0.021255363 0.011415885 0.10026786 0.82068753
000020 44 aa ee 3d ac aa f7 3d cc ca 26 3f 99 9d fe 3e
       0.11653569 0.120931 0.65153193 0.49729612
000030 60 65 c3 3d 9f b9 50 3e 2c c4 c2 3e 53 e5 a1 3c
       0.0954082 0.20383309 0.38040292 0.01976267
000040 80 e6 88 3c 87 fe ce 3b 6e ae 62 3d e3 5a 3a 3c
       0.016711473 0.006316963 0.05534213 0.011374208
000050 10 1a 01 3e b2 cb 2c 3c ff df c3 3d 49 1d 08 3d
       0.12607598 0.010546612 0.09564208 0.033231054

weight f4 [24, 1, 3, 3]
000000 ce fe 1e be 57 29 3a 3e d0 f0 36 3e 9e b4 62 be
       -0.15526888 0.18179832 0.178653 -0.22139212
000010 bd f9 51 3d b3 63 36 3d 94 0f 48 be d9 87 d2 ba
       0.05126356 0.044528674 -0.19537193 -0.0016062214
000020 78 5b 9d 3d 39 b7 e2 bd 6f 1e bb 3d fe bc 52 3e
       0.07683462 -0.11070103 0.09136664 0.20579907
000030 9e 5e 5b be 1a 85 18 3e 4e e2 bb 3c 96 e3 ae bd
       -0.21422812 0.14894524 0.022935059 -0.08539502
000040 23 ce 80 bd 91 83 a3 bd f7 ab a8 3e 57 87 cd bd
       -0.062893175 -0.07984079 0.329437 -0.1003558
000050 3c 3c 2a 3e 95 00 44 3e 24 55 56 bd 02 28 d1 3c
       0.1662454 0.19140847 -0.05232729 0.025531773
000060 61 2d 6f 3d ff 95 bc bb 62 c7 a0 bd b3 54 e5 bc
       0.058392886 -0.0057551856 -0.07850529 -0.02799449
000070 e1 8b 4a be 5e 2c 9b 3b 18 6c 2d 3e 88 54 d9 3d
       -0.19779922 0.0047355136 0.16935766 0.10611826
000080 13 97 b8 3d 74 6e 86 3e d5 1f eb bd b2 84 a3 3d
       0.0901319 0.26256144 -0.11480681 0.07984294
000090 bd 1a 87 3e e2 54 0e be 40 1c 6d be 85 6b 36 3c
       0.26387587 -0.13899568 -0.23155308 0.011134033
0000a0 1b e5 d0 3c 22 31 fe bc 92 6f 07 3e 61 ac bd 3d
       0.025499871 -0.031029288 0.13226154 0.09261394
0000b0 d7 bc 34 3d 9c df 68 3e e4 88 9b bc 28 2f 55 be
       0.044125404 0.2274155 -0.018986173 -0.2081877
0000c0 63 6e 3d be 15 79 1f bb 86 84 91 bc 9a 7c 02 be
       -0.1849914 -0.0024333645 -0.017763387 -0.12742844
0000d0 6c df c1 3b 11 2a 6c 3e 73 3c 27 be 3f e4 33 3e
       0.0059165265 0.23062922 -0.16331653 0.17567538
0000e0 56 04 8f bd 11 1a 32 be 39 2c c6 3d 73 66 91 3d
       -0.06983249 -0.17392756 0.096764036 0.07099619
0000f0 be 9b 12 3e bb 58 41 3e 99 49 02 3e 26 04 de bd
       0.14317223 0.18881504 0.12723388 -0.10840635
000100 9d 39 10 bd 18 8d 8a bc fc fc 2c be f3 dc 0b 3d
       -0.035211194 -0.016912982 -0.16893381 0.03414626
000110 bd 30 f5 3d c3 03 88 bd 98 33 8c bc 08 bb 85 3e
       0.11972187 -0.066413425 -0.017114446 0.26119256
000120 c2 8c bc bd 09 8b 3d 3e 60 98 23 be b9 09 95 3c
       -0.09206535 0.18510069 -0.15976095 0.018193113
000130 d2 0a bc 3e 88 91 08 3e 90 70 9e 3d 3a dc b4 3d
       0.36727005 0.13336766 0.07736313 0.088310674
000140 e6 6a 30 bd f4 b7 ef 3c 7f 5c 18 be a0 88 62 be
       -0.043070696 0.02926252 -0.14879034 -0.22122431
000150 5a 51 27 3d 3b 28 23 be d3 b4 37 be e2 61 88 3d
       0.040849067 -0.15933315 -0.17940073 0.06659295
000160 5d e3 56 3d 87 8b a2 be 0d 23 c5 3e 5c 64 94 3d
       0.052462924 -0.31747076 0.38503304 0.072457045
000170 5c 3e 60 be 66 43 d7 bd 74 06 3e 3d 31 c8 e0 3d
       -0.21898788 -0.10510902 0.046392873 0.109756835
000180 80 87 28 3c 83 8f 5e bd 52 e5 2e 3e 23 82 12 be
       0.010286212 -0.054336082 0.17079666 -0.14307456
000190 50 7b f1 bd 95 d1 24 3d 6f 21 38 be e0 3d 9d 3c
       -0.11791098 0.040238936 -0.17981504 0.019194543
0001a0 89 26 60 3e 33 67 1f 3d 69 54 02 be 7b ee 19 3e
       0.218897 0.038916778 -0.12727512 0.1503238
0001b0 e8 c3 a1 3c 24 ed d4 bd 6d ca ae bd d2 c4 e7 3d
       0.019746736 -0.103967935 -0.085347034 0.11316837
0001c0 08 2f 7c 3c 2d 44 7f be d7 32 53 3e 8b 1d e3 3d
       0.0153920725 -0.24928351 0.20624863 0.11089619
0001d0 17 c4 2f be ef ae 03 be d7 d7 5e 3d 94 6e b1 bd
       -0.17164646 -0.128597 0.05440506 -0.08663669
0001e0 93 a2 86 bd 41 ca 61 3e e4 7e 24 be 89 18 55 3c
       -0.06573977 0.2204981 -0.1606403 0.013006338
0001f0 a3 c5 b4 3e 4c 3f f6 bc 86 47 88 3e 8e f2 22 be
       0.35307035 -0.03005948 0.26617068 -0.1591284
000200 4e 27 e6 bc 8f c7 41 3e 93 dd 8a 3d 64 f7 a4 bd
       -0.028094914 0.18923782 0.06780543 -0.080549985
000210 24 1e cb bd aa 73 d0 bd 8c 46 f9 3d 9f 60 0a be
       -0.09917858 -0.10178311 0.12171659 -0.1351342
000220 94 9d 82 be 79 5f a4 bc 01 8f 07 3e c1 9c 28 3e
       -0.25510848 -0.020065056 0.13238145 0.16466047
000230 23 77 e1 3d 0d 63 00 3e ef 8a aa bc 7b d9 78 3e
       0.11009052 0.12537785 -0.020818202 0.24301712
000240 06 84 83 3d 1f 48 32 be d7 e3 cf bd 77 97 5c 3e
       0.06421666 -0.17410325 -0.10150879 0.21542154
000250 2d ee 0d 3e ed 29 37 be 10 06 43 bd 6f d7 37 3d
       0.13860388 -0.17887087 -0.047613204 0.044883188
000260 e7 80 5e 3d 86 d0 d0 bc 0c 43 27 be 10 fe b0 3c
       0.05432215 -0.025490057 -0.1633417 0.021605521
000270 55 c5 73 3e f7 05 00 be 2f 54 10 be c4 52 da 3c
       0.23805745 -0.12502275 -0.14094613 0.026650794
000280 72 29 66 3e d6 ba 0f 3e e2 66 57 3d 71 7e 9a be
       0.22476748 0.14036116 0.05258835 -0.30174592
000290 c8 0a 37 bd 91 03 1d be b1 08 04 be 18 ee 35 be
       -0.044688016 -0.15333392 -0.1289394 -0.17766607
0002a0 86 4a 5b 3e d7 44 10 be 05 03 a8 bc c3 c1 2f be
       0.21415147 -0.1408876 -0.020509252 -0.17163758
0002b0 10 f2 a7 bd 76 65 f0 3c 87 d3 9e 3d a9 dd a4 bd
       -0.08200467 0.029345255 0.077551894 -0.08050091
0002c0 c9 6d 93 3e 52 3e d7 bd 25 60 a5 bd 84 71 2d 3d
       0.28794697 -0.105099335 -0.08074979 0.042344585
0002d0 a9 fb 1e 3e d2 86 9e bd a9 00 21 3e c6 96 f8 bd
       0.15525688 -0.07740559 0.15722908 -0.12138133
0002e0 d1 1c 7b be 5e ce ac 3d 28 1e 33 be 9f d1 0b be
       -0.24522711 0.08437799 -0.17491972 -0.13654183
0002f0 c5 8d 18 3e 17 e7 69 bd 35 a8 6d be f0 54 8c bd
       0.14897831 -0.05710515 -0.23208697 -0.06852138
000300 ff 0f 47 bd f0 aa 07 3e 09 11 d0 3d 92 c2 ce bc
       -0.04859924 0.13248801 0.10159499 -0.025239263
000310 a7 78 16 3e b7 bd 36 3e 7d a5 35 3e 87 6e 57 bd
       0.14694463 0.17845808 0.1773891 -0.05259564
000320 a6 5c f2 bd 20 48 22 3d af ce 30 bc b3 f2 cc 3d
       -0.118340775 0.039619565 -0.010791465 0.10007229
000330 9a 60 c7 bd 4c 1a 53 be 7d b0 7b 3e 9f 8e cb be
       -0.09735222 -0.206155 0.24579044 -0.3975725
000340 6f d6 0b be 26 ed 7d be 9c 4a 92 bd 23 f7 94 3c
       -0.13656019 -0.24797496 -0.07143137 0.01818425
000350 c0 b2 31 be 2f bc cf 3d 0a 17 a5 ba 8a af c5 bd
       -0.17353344 0.10143315 -0.0012595367 -0.09652622

weight f4 [24]
000000 24 0f 67 3f 2d b5 88 3f 6b 4a 81 3f a2 1b 72 3f
       0.9025748 1.068029 1.0100836 0.94573414
000010 b9 04 a2 3f c1 c5 90 3f 17 a5 80 3f fc 96 8f 3f
       1.2657691 1.131035 1.0050381 1.1217952
000020 76 0d 8c 3f c2 09 88 3f 5b b1 80 3f 73 d2 88 3f
       1.0941608 1.0627978 1.0054125 1.0689224
000030 b2 97 8d 3f 3b 69 89 3f 8b 82 7c 3f 2c e6 69 3f
       1.1061919 1.0735239 0.9863669 0.9136684
000040 ca 77 84 3f 08 d7 82 3f 97 8c 85 3f 5b 30 6b 3f
       1.0349057 1.0221872 1.043353 0.9187066
000050 3a 79 8c 3f 56 c5 5e 3f af 0a 41 3f 71 ec a1 3f
       1.0974495 0.8701986 0.75406927 1.2650281

bias f4 [24]
000000 e9 cb 14 3d 7e 70 d5 3e ea a4 e3 bd 3c 3b 34 bd
       0.036327276 0.41687387 -0.11115439 -0.044001803
000010 2d 96 16 3e 83 77 f6 ba d8 88 5d bd f2 9c c9 bc
       0.14705725 -0.0018803928 -0.054085582 -0.02461097
000020 02 67 3c 3d 5d ba 9f 3d 1d 52 bf bd 3b 57 f5 3c
       0.045996673 0.07799218 -0.09341834 0.029948821
000030 be c2 a6 3e 06 3c 46 3d e3 b2 6e 3d 8b c1 88 be
       0.32570451 0.048397087 0.05827607 -0.26710162
000040 90 16 93 bd d6 a7 88 bd 85 dd 27 3e 00 a9 6b be
       -0.07182038 -0.06672637 0.16393097 -0.23013687
000050 30 38 9a 3e 25 0b 7f bd 21 8a 49 bd 7a 91 d2 3d
       0.30120993 -0.062266488 -0.049203996 0.10281654

running_mean f4 [24]
000000 ef 49 2f bc a6 d5 39 bd db 4c 2c 3e 31 65 b1 3d
       -0.0106987795 -0.045369767 0.16826193 0.08661879
000010 ab ee 50 3d 7f ca ea bc 96 d5 04 3e 76 80 ad 3c
       0.05100886 -0.02866101 0.12972102 0.021179419
000020 7d 47 0b 3e 14 f4 99 be 3d 7e 04 3e 8d cb 2d bd
       0.1360149 -0.3006903 0.12938781 -0.04243045
000030 8a 83 6c bd af 8a 8f 3d 59 6a 32 3d 2f b7 a4 3d
       -0.057742633 0.07008874 0.043558452 0.08042752
000040 cd ea 3c 3c b1 09 61 3d 2f 5f c7 be 3c 0c 85 bc
       0.01153059 0.054940883 -0.38939807 -0.016241185
000050 62 ff e4 bd 1b f8 13 3d b5 64 c5 3c 24 82 b9 be
       -0.11181523 0.036125284 0.024095872 -0.36232102

running_var f4 [24]
000000 92 75 6e 3c 52 9c 3e 3d 91 1d 95 3e ba 35 7b 3d
       0.014554398 0.046535797 0.2912412 0.061330535
000010 f0 06 67 3d 13 d9 d4 3b 88 70 6a 3c 73 06 81 3d
       0.0564031 0.006495604 0.014309056 0.06300058
000020 33 b0 18 3e b0 61 20 3d 19 ea 7c 3b 18 c0 7c 3a
       0.14910965 0.039155662 0.0038591682 0.00096416613
000030 e2 62 0c 3b a4 3e 30 3b 3e 03 d7 3c 4c 87 a4 3d
       0.0021421243 0.0026892805 0.026246663 0.08033618
000040 20 52 cb 3b 58 6b d4 3c be 7a a2 3e 3c 8f 42 3c
       0.0062048584 0.025930092 0.3173427 0.01187497
000050 15 94 02 3e bc a2 bc 3c 28 5c b5 39 b2 e5 3a 3f
       0.12751801 0.023026817 0.00034591672 0.7300674

weight f4 [16, 24, 1, 1]
000000 ae 78 ae 3e 62 87 85 be 10 6c 94 3e a9 8d 0f 3e
       0.34076446 -0.2607985 0.28988695 0.14018883
000010 9f 63 b2 3e 16 91 cd 3e c0 4c 31 3e c2 99 6d 3d
       0.3484163 0.40149754 0.17314434 0.058007963
000020 5c b3 68 3e 49 9f c4 bd 64 ad 24 3e 3a c7 33 3e
       0.2272467 -0.09600694 0.16081768 0.17556468
000030 ae 57 89 be c8 42 db be 54 bd d4 bd 9e 5d 62 be
       -0.26824707 -0.42824388 -0.10387674 -0.22106025
000040 75 2c d4 bd da ae de 3e 31 85 4c be d4 3a 08 3d
       -0.10360042 0.43492776 -0.19972683 0.033259228
000050 00 2b 23 3f dc ac ae 3c ae ad ff bd aa a3 42 3c
       0.6373749 0.02132266 -0.12484299 0.011879841
000060 09 65 fc bd bf d6 dc bd 3d 0c d8 3d 19 5c b6 bc
       -0.123239584 -0.10783147 0.10549209 -0.022260712
000070 59 9f c0 3e 9d c5 a6 3c d6 65 b1 3e 21 9f 11 bf
       0.37621573 0.020357901 0.34648007 -0.56883436
000080 90 66 04 3e 2c 26 91 be e0 fd 8e bd 95 84 a8 3e
       0.1292975 -0.28349435 -0.069820166 0.32913652
000090 f6 57 e8 3d 21 cd 82 3e 67 8c 85 be da 89 c2 bd
       0.11344902 0.25547126 -0.2608368 -0.09498949
0000a0 1d d0 92 3e 43 4a 5c 3d e0 49 03 be b9 ec 80 3e
       0.28674403 0.05378176 -0.1282115 0.25180605
0000b0 cd be 5a be 3a dc 86 3e 5c 82 52 be cf 27 99 be
       -0.21361847 0.26339895 -0.2055754 -0.29913184
0000c0 b6 d8 ac bd 40 35 17 be 20 53 96 3e 7f 62 d4 3e
       -0.08439772 -0.14766407 0.29360294 0.41481397
0000d0 8c 4f 10 3e 39 7a b4 3c b1 48 c1 bd f0 b4 38 3d
       0.14092845 0.022030937 -0.09437693 0.04509443
0000e0 5c fa 13 3d 10 f1 e1 3d d6 7d 5c 3d 08 1f 1b 3e
       0.036127433 0.11032307 0.053830944 0.15148556
0000f0 fa c4 0a 3e 6b 2e 9f 3e d7 16 92 bc 08 42 44 3e
       0.13551703 0.31090102 -0.017833157 0.19165814
000100 25 42 28 3c c0 67 9d bd 36 56 96 be 80 00 66 3e
       0.010269676 -0.07685804 -0.2936265 0.22461128
000110 ba 54 89 3e 91 ac d8 3e 92 de e6 3e ef e9 93 be
       0.26822454 0.42319158 0.45091683 -0.28889415
000120 cf 20 84 3d 30 d5 e5 bd ae 8a 2a 3e 42 18 47 be
       0.0645157 -0.11222303 0.16654465 -0.19442847
000130 9e f9 73 3e e1 6d b9 be 33 8b 4a 3e ab 07 c5 bd
       0.2382569 -0.36216643 0.19779663 -0.09620603
000140 6e fc 88 be 6b 15 de 3e e7 a4 6b be d4 56 30 3e
       -0.2675509 0.43375716 -0.23012124 0.17220622
000150 ca 79 54 3d 6e ae 85 be 04 f2 b8 3d 01 43 b7 be
       0.05187396 -0.26109642 0.09030536 -0.35793307
000160 c8 e2 db 3d db 62 1f 3b 5b 97 0f 3f 2e fd 8a be
       0.107366145 0.0024320397 0.56090325 -0.27146286
000170 b2 9c 2a 3e b6 e5 1a 3e 25 86 ff bc c2 cb 32 bf
       0.16661337 0.1512669 -0.031191895 -0.6984216
000180 9b d8 44 3e cf b6 c9 bd 58 e2 be bd c1 71 84 3e
       0.19223253 -0.09849321 -0.093205154 0.25868037
000190 e2 ac 73 3e 42 09 04 bf 72 09 38 be 74 8e 30 bd
       0.23796418 -0.51576626 -0.17972353 -0.043104604
0001a0 74 3c f4 3d 54 f9 c0 be f3 ea 63 3e 20 c5 ef bd
       0.11925593 -0.37690222 0.22257595 -0.117075205
0001b0 bc 9a 4f 3e f7 c3 10 be 44 ae ca be 7d eb 91 3e
       0.2027387 -0.14137255 -0.3958608 0.28499976
0001c0 7c 69 8b be 91 3c 21 3d 8f 8d 49 be fe 48 84 be
       -0.27228916 0.0393644 -0.19682907 -0.2583694
0001d0 35 f9 ab be bd b4 c5 be ed ed a6 3c 18 de e4 3e
       -0.33588567 -0.38614455 0.020377124 0.44700694
0001e0 23 52 94 be c7 27 19 3e e3 7f 34 3e 37 0a 67 bd
       -0.28968915 0.1495658 0.1762691 -0.056406226
0001f0 ce bc f3 3d 79 a8 a9 be d2 ac 85 be e4 84 bc be
       0.11901246 -0.33136347 -0.26108414 -0.36820138
000200 93 ed ac 3e 32 20 2b 3e 26 64 62 be 1a 1d 74 3c
       0.33775005 0.167115 -0.22108516 0.0148995165
000210 2a cc e5 be e7 69 84 be 70 9f cf 3d d6 80 87 be
       -0.44882327 -0.25862047 0.10137832 -0.26465482
000220 a9 09 56 bd 30 d1 55 bd 4f 17 97 3b 0e 42 d1 bd
       -0.052255306 -0.05220145 0.004610933 -0.10217677
000230 3a 7f 08 3e 35 17 7f be 30 4e 23 be 36 ef 70 be
       0.13329783 -0.24911197 -0.15947795 -0.23528752
000240 d9 60 a4 bc 62 ec 4c be 19 6c 46 3d 29 8a 06 be
       -0.020065712 -0.20012048 0.048442934 -0.13138641
000250 4d 98 e0 3e 2f 32 89 be 90 17 ac be f4 3a 15 3e
       0.43866196 -0.267961 -0.33611727 0.1457327
000260 9b d4 a6 3d dd de 91 be 0b a8 6d bd 24 1c dd 3e
       0.0814602 -0.28490344 -0.058021586 0.43185532
000270 b0 ac 18 be 01 1f 99 3e ff 0d 82 be a2 87 33 bd
       -0.14909625 0.29906467 -0.25401303 -0.04383052
000280 2c c3 c4 3d 99 a4 ae 3e 1f 85 4d 3d 0f 1a 5a 3d
       0.096075386 0.34109953 0.050175782 0.053247508
000290 8b 96 3a 3d 3a f7 f3 3e 1e 40 18 3b 6c 41 4e 3d
       0.045553725 0.47649556 0.0023231576 0.05035536
0002a0 73 d6 a0 bd aa f6 43 3e aa 12 87 be 73 c9 ed 3e
       -0.07853403 0.19137064 -0.26381427 0.46442756
0002b0 0e c3 4a 3e 1a a8 81 be 1f 41 bf be 37 18 83 be
       0.1980097 -0.25323564 -0.3735437 -0.25604412
0002c0 8f 4f 96 3e 4c a4 83 3e 9c 90 e3 3e 51 b7 9a bd
       0.29357573 0.25711286 0.44446266 -0.07554496
0002d0 37 b5 8d be f8 a6 91 3b d9 1e 9f be d7 01 c6 3e
       -0.27677318 0.004444953 -0.31078222 0.3867328
0002e0 9f 99 a0 be 1d cb df 3d f9 e0 26 be b3 4c 13 3e
       -0.31367204 0.10927413 -0.16296758 0.14384727
0002f0 2a 97 ba 3e 4e 46 4f be 5e dd 06 3d 80 26 cd be
       0.36443454 -0.20241663 0.032925956 -0.40068436
000300 20 67 8f 3e 16 ce 81 3e 87 8f 8e 3e 8d 2a 0a 3e
       0.28008366 0.25352544 0.27843878 0.13492794
000310 81 7e 75 bd 18 4c 83 be 96 c7 1f 3e 52 b8 ec 3e
       -0.059935097 -0.25643992 0.1560348 0.46234375
000320 6c 6c d8 3e d8 89 4d 3e 0f 11 2c be c1 76 c0 be
       0.4227022 0.20072114 -0.16803382 -0.37590602
000330 f6 74 25 3b c5 4f 55 3d 2e c8 f7 bd c2 1e a9 be
       0.0025246716 0.052078027 -0.12098728 -0.3303128
000340 aa 26 1e 3d e5 dd 0b 3e 1d 15 c9 be 99 1f 17 3c
       0.03861109 0.13658865 -0.3927392 0.009223842
000350 ec ef 3c 3e 6a 35 9a bd 5f f1 8f bc b3 55 01 be
       0.18450898 -0.07529719 -0.01757115 -0.12630348
000360 09 31 00 bf 54 33 2a be 5d 7c 25 3d 4c d9 5c be
       -0.5007482 -0.16621143 0.040401805 -0.21567267
000370 f7 72 f6 bd 71 43 b6 be c5 be ee bd af e3 cf bc
       -0.120336466 -0.3559833 -0.1165748 -0.025377123
000380 a9 03 b0 3d 6e 9b 26 be 73 26 b7 3e 0a a1 61 be
       0.08594448 -0.16270229 0.35771522 -0.22034088
000390 0f 9b f5 3a 10 f8 05 be 04 da f3 3d 7b a2 8b 3e
       0.0018738228 -0.1308291 0.119068176 0.272724
0003a0 50 9c 35 3e b8 94 bc be d9 8a 8b 3e d1 35 80 3e
       0.1773541 -0.36832213 0.2725437 0.2504106
0003b0 11 7d e5 3e a2 d6 59 3d 9c d3 b3 bd 9b e6 86 3e
       0.4482198 0.053183205 -0.08780596 0.26347813
0003c0 cd af 2a 3e 76 70 2b 3e 1b ca 6a 3e 9b 2a 7f be
       0.16668625 0.16742119 0.2292866 -0.24918596
0003d0 43 fe 85 3e d1 e8 c7 3d 21 04 ac be ff d2 1f be
       0.2617055 0.09761203 -0.335969 -0.15607832
0003e0 0d 75 dd bb 06 94 2f 3e af 02 d2 3e c1 ab 2f 3e
       -0.0067583383 0.1714631 0.41017672 0.17155363
0003f0 bd 56 67 be 8f 47 61 3e b0 b3 de 3e 7b ba cf be
       -0.22591682 0.21999954 0.43496466 -0.4057196

weight f4 [16]
000000 36 1c 77 3f 7c f8 62 3f cc 4d 4d 3f 12 4a 73 3f
       0.9652742 0.8866041 0.80196834 0.950349
000010 9e 0c 5f 3f 4f 17 85 3f 9f dd 5a 3f 6d 83 54 3f
       0.8712863 1.0397738 0.85494417 0.8301304
000020 4c 7e 82 3f 2f f5 6c 3f 4c da 6b 3f c9 ad 86 3f
       1.0194793 0.9256162 0.9212997 1.0521785
000030 20 72 8c 3f cd 38 70 3f 76 49 5a 3f 6e 05 89 3f
       1.0972328 0.9383667 0.8526834 1.0704782

bias f4 [16]
000000 fe 4a 00 bc 07 dc 9f 3b 99 38 2b 3b fd 1a c4 3b
       -0.0078303795 0.004878524 0.0026126264 0.0059846626
000010 4b 6f 69 3b 7f 34 e6 bb f9 78 21 bc ab c7 d6 bb
       0.0035619314 -0.007025301 -0.009855502 -0.006554564
000020 51 b1 c9 bc 39 02 2e 3c 28 9a 0e 3c bd c1 ae 3a
       -0.024620684 0.010620647 0.008703746 0.0013332885
000030 9f 5b 17 3c f1 8e 1d bc f1 f0 c8 bc 72 24 99 3b
       0.009238153 -0.009616599 -0.024528952 0.004673534

running_mean f4 [16]
000000 f1 b7 ba 3e 0e b1 c3 bc be 2c 12 3f 80 f5 89 bc
       0.3646846 -0.023888137 0.5709952 -0.016840696
000010 de 5d f0 be 84 47 1d bf a2 5c ad 3d 2d 0e 0c 3c
       -0.46946615 -0.6143725 0.08464934 0.008548302
000020 95 2c 27 3e 7e 6d aa 3d 20 65 bf 3e 87 59 fa be
       0.163256 0.08321665 0.3738184 -0.4889643
000030 da b4 bd 3e 9b d2 11 3d f1 0d 78 be ad 29 2d 3f
       0.3705204 0.03560124 -0.24224068 0.6764172

running_var f4 [16]
000000 a7 08 ae 3f e8 e5 0d 3f d8 55 84 3f c1 99 c0 3e
       1.359639 0.55428934 1.0338697 0.37617305
000010 e7 8f d3 3e 07 d2 fb 3e fe ff 12 3f 2e b4 bb 3e
       0.41320726 0.49183676 0.57421863 0.36660904
000020 7c 85 18 3f 4e 17 45 3f 88 5e 4f 3f 65 cf 9e 3e
       0.5957868 0.76988685 0.8100362 0.31017604
000030 26 f6 31 3f c1 f9 fc 3e fd 12 fc 3e e3 fb 88 3f
       0.6951622 0.49409297 0.49233237 1.070187

weight f4 [48, 16, 1, 1]
000000 84 4b 8a be a6 52 91 3e 39 51 b7 be 05 01 93 3d
       -0.2701074 0.28383368 -0.35804155 0.07177929
000010 96 3c 89 3e 31 50 4f be c0 67 be 3d f7 f2 07 be
       0.26804036 -0.20245434 0.092971325 -0.13276277
000020 c0 c7 1e be f4 d3 ae 3e 8a fc d0 bd c7 82 a0 3e
       -0.15505886 0.34146082 -0.10204418 0.31349775
000030 0b aa c4 bc 85 9f 7d bd 24 72 18 3e 29 25 b0 3d
       -0.024006864 -0.061919708 0.14887291 0.08600838
000040 4e 86 15 3e 1c a0 23 be 67 06 1d bd 16 9b 0a 3e
       0.14602014 -0.15979046 -0.038336184 0.13535723
000050 7f 31 86 be ab e6 30 be 06 cc ba 3e 30 66 11 be
       -0.26209638 -0.17275493 0.36483783 -0.14199138
000060 91 fe 84 3d 4a d6 7e be 6a b9 d4 3d c5 5c a2 be
       0.06493867 -0.24886432 0.103869274 -0.31711403
000070 36 f6 56 3e d1 91 c5 3e b1 72 ec bd 8a 14 ad bd
       0.2099236 0.38587812 -0.11545313 -0.08451183
000080 53 68 bc 3d 24 1a 7f be d8 26 e2 3b 1f 0c 80 3e
       0.09199586 -0.24912316 0.006901603 0.25009248
000090 12 54 3b be ba 66 98 3e 4e 49 3f be 71 50 b0 3e
       -0.18293789 0.29765874 -0.18680307 0.34436372
0000a0 ae e9 5f 3d 36 00 91 be 1f 72 4b bd 65 90 84 be
       0.054666214 -0.28320473 -0.04966938 -0.25891414
0000b0 28 f9 d0 3e a7 8e 60 3e 3b 3f 50 3e ea e3 29 be
       0.4081509 0.21929418 0.2033662 -0.16590849
0000c0 8e 90 78 be 6d 1a 02 bd 36 87 85 3d 88 93 df 3d
       -0.24273893 -0.031763483 0.0651993 0.10916811
0000d0 d0 bb a4 bd a3 d3 91 be 5b 84 59 3e 2a 3c c8 3d
       -0.08043635 -0.28481779 0.21241896 0.097771004
0000e0 7e d1 b3 be 6b f7 91 3e fd 82 22 3e 68 98 e8 3d
       -0.35120767 0.28509077 0.1587028 0.11357194
0000f0 be d4 0c 3e 6b 95 29 3e 98 03 8e be 2c 4c 1f be
       0.1375303 0.16560905 -0.27737117 -0.15556401
000100 36 6f 49 3e c7 77 ba bd 5a b1 34 be e5 12 66 be
       0.1967133 -0.09104877 -0.17645779 -0.22468145
000110 00 44 83 3e c8 23 4e be 45 17 52 3e 04 2e 65 3e
       0.25637817 -0.20130837 0.20516689 0.22380835
000120 09 6e 8c be bc 3f f8 3d 71 4a a1 bd 08 5e 8b 3e
       -0.274277 0.12121531 -0.07875527 0.27220178
000130 bd 81 4e be 31 60 7d be 27 6c a0 bd 14 2c 7f 3e
       -0.20166679 -0.24743725 -0.078331284 0.24919158
000140 2d ed 81 bd bb 20 46 3e b3 1e 61 be 80 a9 89 bd
       -0.06344066 0.19348423 -0.21984367 -0.06721783
000150 56 9e 9f be 6c bb 61 be df 47 ef bd ea 6e ba bd
       -0.31175488 -0.22044152 -0.1168363 -0.091031864
000160 02 69 bd bd 3f d0 68 bd 83 d3 0c be 1f 7a 22 3e
       -0.09248544 -0.056839224 -0.1375256 0.15866898
000170 ff 36 f7 3e e5 fb 33 3d dd 03 6a 3e 51 8e 05 3d
       0.48284146 0.043941397 0.22853036 0.032606427
000180 ae 41 bf bb b8 d5 fa 3e 0f 45 28 be c0 43 75 be
       -0.005836687 0.4899118 -0.16432594 -0.23951626
000190 4d 2f 9b bd 40 af 80 be 36 57 56 be 57 2b f1 bb
       -0.07577381 -0.25133705 -0.20931706 -0.007359903
0001a0 a8 2b cd be 35 34 9f be fa 36 d0 3d c0 dc 64 bc
       -0.4007237 -0.31094518 0.10166736 -0.0139686465
0001b0 3f 68 9e 3e b9 27 76 3e 0b 6e 45 be ae 47 0b 3e
       0.30938908 0.2403859 -0.1928026 0.13601562
0001c0 5e 0a bf bd 2e cc c3 3d 64 ab 92 be a5 c9 c5 3c
       -0.09328149 0.095604286 -0.28646386 0.024144003
0001d0 77 0c 68 3e b7 de c5 3d ea ef 6b be 9d af a1 be
       0.22661005 0.0966162 -0.23040739 -0.31579295
0001e0 4c f7 e9 3b fd f0 4d 3e 1e 1b c2 3d e1 bf a0 be
       0.007140076 0.20111461 0.094778284 -0.31396392
0001f0 a4 df 5d 3e d8 a6 3b 3e 36 29 e9 bd 0e 2f fb bd
       0.21667343 0.18325365 -0.113848135 -0.12264834
000200 df 88 72 3e 07 ad 9f 3e c1 6a 96 be af 2b 83 be
       0.23685025 0.31186697 -0.29378322 -0.25619265
000210 7f e5 f0 bc f2 88 b9 be 9b eb b5 3d 63 51 64 bb
       -0.029406307 -0.36237293 0.08882829 -0.003483855
000220 b5 49 15 be 57 24 48 be 8f 28 6e 3e ad e1 e7 3c
       -0.14578898 -0.19545113 0.2325766 0.028305853
000230 d1 47 20 3e dc 00 1b 3e a1 a2 02 be e3 4d bc 39
       0.15652396 0.15137047 -0.1275735 0.00035916184
000240 7e 9d 77 3d 06 af a2 bc db 43 f0 3a 35 24 31 3e
       0.06045293 -0.019858848 0.0018330769 0.17298968
000250 0b da 8a be b9 56 56 3d 7d b0 0d bd 09 ec 27 be
       -0.2711948 0.0523288 -0.03459214 -0.16398634
000260 68 2d e4 bd 36 67 50 be f8 ac 6f 3d 07 d9 11 3c
       -0.11141473 -0.20351872 0.058514565 0.008901841
000270 d7 9b a6 3e 70 b0 c0 3e 1e 95 c1 bd 8d 69 c8 3e
       0.3254077 0.3763461 -0.0945227 0.3914303
000280 f1 50 1c be a2 53 a9 3e d0 3e 67 3e dc 66 32 be
       -0.15265252 0.3307162 0.22582555 -0.1742205
000290 10 f3 93 3d dc 95 8b bd 1d 96 a8 bc 3b dd a7 3c
       0.07224095 -0.06815693 -0.020579392 0.020491233
0002a0 b1 37 53 be 9c ce 82 3e 90 f3 5c 3e 88 7b a9 be
       -0.20626713 0.25548255 0.21577287 -0.3310206
0002b0 67 ea 7d be 21 8c 6d be fb 11 2a 3e 2b 94 9c 3e
       -0.24796449 -0.23197986 0.16608422 0.30581793
0002c0 1b 3c 5d 3e a2 f7 97 be f6 d4 e1 bd 51 38 15 ba
       0.2160496 -0.29681116 -0.11026947 -0.0005692291
0002d0 cf d6 68 3e a6 a0 4b 3e d1 b5 ef be 65 b4 89 3c
       0.22738193 0.19885501 -0.46818402 0.016809652
0002e0 e3 fe 83 be 4e 88 91 3e bf f4 93 bd 16 3d c8 bd
       -0.257804 0.28424305 -0.07224416 -0.09777276
0002f0 81 e7 04 3c 91 92 d7 bd f0 c7 36 be 8c 4f 8a 3d
       0.008111835 -0.10526002 -0.17849708 0.067534536
000300 2c 36 54 3d e8 3b b4 bd f7 3d 28 3e 62 9f 95 be
       0.051809475 -0.08800489 0.16429888 -0.29223162
000310 4d cd 1d be 2a 37 ae 3e 48 8e 81 3e fe 51 6c bd
       -0.15410347 0.34026462 0.25303864 -0.05769538
000320 35 b6 69 3e 81 ca 46 3e d5 2f 39 3e 93 43 b9 be
       0.22823413 0.19413187 0.18084653 -0.36184368
000330 6c d4 6d bd 0b f4 0d 3e 7a 1d 5e 3e bb ad 3c be
       -0.05806391 0.13862626 0.21690932 -0.18425648
000340 7b 61 29 3d 18 62 28 3d 5a 92 d4 3d 9d a3 59 be
       0.04135273 0.041109174 0.10379477 -0.2125382
000350 61 a9 c0 bd c2 a8 bd 3d c7 2d ed bd a1 a1 80 3e
       -0.094073065 0.092607036 -0.11580997 0.25123313
000360 53 fd ef be 23 68 d5 3d 81 56 a5 be c6 ce b5 be
       -0.4687296 0.10420253 -0.3229256 -0.35509318
000370 08 36 0d be 07 c0 28 3d c7 e3 f2 3d 60 17 bd 3e
       -0.13790143 0.041198757 0.11859851 0.36931896
000380 64 50 49 3e bf 08 af 3e b2 7a 37 3e 02 a8 6e be
       0.19659573 0.3418636 0.17917898 -0.23306277
000390 42 2a 5a 3e 0a 0c 83 3e 0c b2 d9 3c 3a fa 05 3e
       0.21305183 0.25595123 0.026574157 0.13083735
0003a0 60 de f3 3d e8 e7 84 3e 53 65 84 3b c0 9a 86 3e
       0.11907649 0.2595818 0.004040399 0.2628994
0003b0 a0 a0 97 3d b2 d7 5b 3d 17 e5 93 be 0d b6 60 bd
       0.07403684 0.0536725 -0.2888572 -0.054861117
0003c0 b4 33 a0 bd 9e a1 d7 bd 97 fe 20 be a4 0a 0b 3e
       -0.078223616 -0.10528873 -0.15722118 0.13578278
0003d0 30 b4 b0 3d de 39 24 be 3e 10 90 be b5 7c 1b 3e
       0.08628118 -0.160377 -0.28137392 0.1518429
0003e0 dc 1f ad 3e 9c 97 03 3d 44 15 ac be a9 33 a9 be
       0.3381337 0.032127008 -0.33609974 -0.33047226
0003f0 0f fa 8b 3d 29 36 8a be 95 40 2c be d8 3d cc bc
       0.06834804 -0.26994446 -0.16821511 -0.024931833

weight f4 [48]
000000 82 22 6b 3f e4 9c 91 3f 6b b4 09 40 3a aa 76 3f
       0.9184953 1.1376004 2.1516368 0.96353495
000010 74 6c c4 3f 38 00 7b 3f ac 47 83 3f ac c9 68 3f
       1.5345597 0.9804721 1.0256248 0.90932727
000020 05 92 b0 3f 27 42 1c 3f 15 01 5c 3f 41 a9 96 3f
       1.3794562 0.6103844 0.8593915 1.1770402
000030 0f 67 60 3f f5 a5 ab 3f d0 3d 52 3f 9c 6a 57 3f
       0.87657255 1.3410021 0.8212557 0.8414705
000040 98 28 45 3f 6d 23 75 3f 22 84 88 3f 93 1b 8a 3f
       0.77015066 0.9575718 1.0665324 1.0789665
000050 cb 50 d8 3f 14 71 5d 3f 23 25 89 3f 93 34 26 3f
       1.6899656 0.8650067 1.0714458 0.6492397
000060 2c 93 72 3f dd 51 34 3f e9 7d 80 3f 82 42 9b 3f
       0.94755816 0.70437413 1.0038425 1.2129672
000070 f0 60 6d 3f 52 2f 17 3f 80 06 93 3f f4 a8 99 3f
       0.9272604 0.5905658 1.1486359 1.2004685
000080 54 16 b3 3f a3 9d 5d 3f d8 40 5a 3f f0 e2 85 3f
       1.3991189 0.8656866 0.85255194 1.0459881
000090 8b 8c 88 3f 1d 73 5b 3f 9c e3 80 3f 2a 1e 87 3f
       1.066789 0.85722524 1.0069461 1.055608
0000a0 46 2d 87 3f 41 52 89 3f ef a7 85 3f d5 dd 6c 3f
       1.0560691 1.0728227 1.0441874 0.9252599
0000b0 00 d0 9e 3f db 12 3a 3f b9 27 7e 3f f7 69 7e 3f
       1.2407227 0.7268502 0.9927936 0.9938044

bias f4 [48]
000000 12 bf d8 bd a0 55 d7 3d af c7 f9 bb fb f2 b5 3d
       -0.10583319 0.105143785 -0.007622681 0.088842355
000010 1d e8 54 3d 17 82 c7 3d 90 27 91 3d 01 c3 01 3e
       0.051979173 0.097416095 0.07087624 0.12672044
000020 69 bd 33 3e 1e d4 0d bd a8 40 f6 3d b2 b7 08 3d
       0.17552723 -0.03462612 0.12024051 0.03337831
000030 b7 36 33 3e 14 3d 3a 3c ac 54 9a bd 45 ac 94 3d
       0.17501341 0.011367101 -0.07535681 0.0725942
000040 b4 bb 0a 3e 30 56 ab bd 45 9c 09 3e 62 65 8d 3e
       0.13548166 -0.08366048 0.13438518 0.2761641
000050 65 1c aa 3c af 72 22 3e f3 92 3e 3d 2f 84 64 3d
       0.020765493 0.15864061 0.04652686 0.055790123
000060 13 e4 14 be 6b ce 2c 3c 4f 76 0d 3e fb 38 6c be
       -0.14540128 0.010547261 0.13814662 -0.23068611
000070 a4 75 ee 3d 34 39 5d be a6 38 13 3e 26 00 bc 3e
       0.11643532 -0.21603853 0.14377078 0.36718863
000080 dc b5 0d 3d cc aa 0c be da 7d 3e be 01 aa 08 be
       0.034597263 -0.13737029 -0.18602696 -0.13346101
000090 87 bb bf 3b ac ac 0a 3a 4a 49 92 3d a9 71 b4 3d
       0.0058512124 0.00052900123 0.07142885 0.088107415
0000a0 41 5b 78 3e 9d eb 32 3e 1a 92 2e be 40 17 07 3e
       0.2425356 0.17472692 -0.17047921 0.13192463
0000b0 70 e0 f8 bc 07 5f 6f be 0c ab 3e 3e 71 ee 97 bd
       -0.030380458 -0.23376094 0.18619937 -0.07418526

running_mean f4 [48]
000000 f2 57 1a 3c 0f 54 db bb 89 ed 51 bc dc 0c a8 3c
       0.009420382 -0.00669337 -0.01281298 0.020513944
000010 ad 8b d0 3b 2f c6 fb 3a a5 86 8f 3c 78 fd 21 3c
       0.006364307 0.0019208844 0.017520258 0.009887092
000020 b1 1a b9 3b 3f f9 a9 3b 69 b5 1e 3c 6f b2 73 3c
       0.005648934 0.005187183 0.009686806 0.014874085
000030 f0 35 91 bc c6 45 7f 3b 7d 29 8b 3b 0f 31 d0 b9
       -0.017725915 0.00389515 0.004246889 -0.00039709403
000040 f8 09 38 bc 40 39 8e 3b 82 ff e1 3b dc eb f0 3a
       -0.0112328455 0.004340321 0.006896914 0.0018380838
000050 bd 85 9b 3b 38 60 73 bb 1f 5f 10 3a fa a7 2f 3b
       0.0047461675 -0.0037136208 0.0005507338 0.0026803003
000060 d4 cb b4 bc eb c2 0a bb 38 df 66 bc 51 be ad 3b
       -0.02206985 -0.002117331 -0.014091305 0.0053022285
000070 15 75 68 3c c5 6d e9 bb de c8 a8 3b 6d ab 0c 3c
       0.014188071 -0.0071236813 0.0051508984 0.008585793
000080 01 1a 17 3c 81 70 04 bc 02 68 5b 3b 95 5f b4 3b
       0.009222508 -0.008083464 0.0033478742 0.0055045583
000090 28 d7 51 ba 8a 49 05 bc 0b 85 85 3c 22 99 2e bc
       -0.0008004778 -0.008135209 0.016298791 -0.010656627
0000a0 c6 5c 8e bb e3 ec 00 3c 36 4c 7b bc 86 ab 62 bc
       -0.0043445555 0.007868978 -0.015337994 -0.01383484
0000b0 04 3d b2 ba 1c 32 2e bc b4 ba b3 3b 12 5c 0d 3c
       -0.0013598506 -0.010632064 0.005484903 0.008627908

running_var f4 [48]
000000 b7 21 53 3f d0 56 0e 3f 3d 40 b8 3e 98 9a 33 3f
       0.8247332 0.55601215 0.3598651 0.70157766
000010 19 2f cb 3e 0a 6c 9f 3f 7a 2a 50 3f 76 69 3f 3f
       0.3968437 1.2454846 0.81314814 0.74770296
000020 b4 81 f6 3e 55 f4 e2 3e ca 47 6a 3f 1a a6 27 3f
       0.4814583 0.44327036 0.9151579 0.65487826
000030 40 58 11 3f 5d 5f 27 3f 42 3c 7a 3e a3 08 81 3f
       0.56775284 0.6537989 0.24437049 1.0080761
000040 3b 89 f6 3e 55 2c c2 3f 64 b4 48 3f f1 27 c7 3f
       0.48151574 1.5169779 0.78400254 1.5559064
000050 41 16 45 3f 53 f0 82 3f 9b 90 36 3f 2d 5e 9d 3e
       0.7698708 1.0229591 0.713144 0.30735913
000060 5f 2b 88 3f 08 44 3f 3f 75 79 21 40 e0 47 5f 3f
       1.0638236 0.7471318 2.5230381 0.8721905
000070 0d c7 dc 3e 0e 1f f0 3e b2 54 55 3f e8 d2 7a 3f
       0.43120614 0.46898693 0.8333236 0.9797807
000080 f9 75 8c 3f c7 e6 95 3f 73 a5 e3 3f eb 36 f9 3f
       1.0973502 1.1711053 1.7784866 1.9469885
000090 47 2f 0f 3f f0 75 15 3f 98 6a c7 3f b2 5b 80 3f
       0.55931515 0.58383083 1.5579405 1.0027983
0000a0 e1 4e 53 3f 11 7c 95 3e 3b ed a7 3f fe 56 5a 3f
       0.82542235 0.29196218 1.3119272 0.8528899
0000b0 88 fa 29 3f 63 90 d8 3e 22 13 12 3f 87 b5 37 3f
       0.66397905 0.42297658 0.57060444 0.71761364

weight f4 [48, 1, 3, 3]
000000 75 5f 8b 3d 86 de e8 bc b8 98 33 3e eb a5 d7 bd
       0.06805316 -0.02842642 0.17538726 -0.10529693
000010 ff f9 b2 3c a7 b5 95 3d 82 03 f4 3c 5d bd db 3d
       0.021847723 0.07310038 0.029786829 0.107294776
000020 5f 1a b2 be 4a de 27 3e 53 73 8d 3d ac c2 f3 3d
       -0.34785745 0.1639339 0.06906762 0.11902365
000030 c2 04 4c 3e 7e 72 94 3e ac b0 1e 3e 9f 80 51 bd
       0.1992369 0.289936 0.15497082 -0.051148053
000040 35 51 a8 bc 8c 52 4a bd 40 62 f0 3d 93 28 e5 3d
       -0.020546535 -0.04939513 0.1173749 0.111893795
000050 66 30 1c be ce b3 85 be 77 70 31 be 6b 98 24 b9
       -0.15252838 -0.26113743 -0.17328058 -0.00015697039
000060 79 fb 37 be 37 a0 bf 3d c3 2f 1e 3d 2d fd 35 be
       -0.17967023 0.093567304 0.038619768 -0.1777236
000070 4b 05 9d 3c 25 96 ad 3d 2a 47 ac bc e7 08 09 3e
       0.019167563 0.084759034 -0.021030027 0.13382302
000080 07 4e 74 bd 3c 12 59 3e 51 5f 46 3d 5a b3 13 be
       -0.059644725 0.21198362 0.048430745 -0.14423886
000090 4a 8d cc bd 90 b7 64 bd 38 95 16 be 37 c9 c1 3c
       -0.09987886 -0.05583912 -0.1470536 0.023655517
0000a0 f1 b6 16 bc ca de 00 be 62 ae 0f be 4d 9c 25 be
       -0.00919889 -0.12584987 -0.14031366 -0.16172905
0000b0 b8 78 97 be d7 91 b5 3b 89 3a 0c be d8 f7 a8 bd
       -0.2958429 0.005541067 -0.13694204 -0.082503974
0000c0 0a 8b 53 3d 92 3f 46 bd 8b cc a5 3e 12 84 96 3d
       0.05164627 -0.04840047 0.32382616 0.07349409
0000d0 1a 3f 85 3d f3 69 bd 3d e3 f9 df 3d f6 0d b5 3d
       0.06506176 0.09248724 0.10936334 0.088405535
0000e0 ae 59 96 3d aa c0 08 3d fc c8 9b bd 96 7a 25 3e
       0.07341324 0.033386864 -0.07606694 0.16160044
0000f0 4f 3b 37 3e 3d 9e 8e bb 10 8f 58 3e 26 5e 7a bd
       0.17893718 -0.0043523596 0.21148324 -0.061124943
000100 cc 47 5c bd 3d a5 a9 3c cd 14 a3 be 74 22 07 3c
       -0.05377941 0.020708675 -0.31851807 0.00824796
000110 91 1e 69 3e 23 0c 73 bd da 4b a8 3c e9 b4 87 ba
       0.22765566 -0.059337746 0.020543981 -0.0010353598
000120 d5 ee 1c 3e f2 a3 09 bd 7a d2 49 3e 93 10 04 be
       0.15325482 -0.033603616 0.19709197 -0.12896948
000130 d6 b9 34 3e 3f 44 00 be a0 61 79 be dd 1d ce bd
       0.17649016 -0.12526034 -0.24353647 -0.1006429
000140 a9 cc 2b 3c fc 32 26 3e d5 ed df 3c 84 3e 06 3e
       0.0104858065 0.16230386 0.027335087 0.13109785
000150 99 46 4f be bc 7b e9 bd 54 60 71 3d e9 51 a6 bc
       -0.20241775 -0.114005536 0.058929756 -0.02030273
000160 bc 5c 22 3e c6 72 25 be 3f 5f 8f 3c be ef 1b 3e
       0.15855688 -0.16157064 0.017501472 0.15228173
000170 d3 3a 94 3d 35 d5 29 3e 1e b1 36 be 41 63 ba bd
       0.07237782 0.16585238 -0.17841002 -0.091009624
000180 ef db 93 bc 5a 29 2d 3d ae ba a7 be bb ac 91 bd
       -0.018049208 0.042275764 -0.32759613 -0.07113024
000190 6b fb ff 3c 08 32 15 bd c5 bf c2 bc 23 6e 56 3e
       0.031247815 -0.036424667 -0.023773083 0.20940451
0001a0 aa 3b 31 3e 79 d1 98 bb 18 e3 57 3e 9e e8 5d 3e
       0.17307916 -0.004663643 0.21082723 0.21670768
0001b0 12 de 1d 3e cf 7b 5d 3d 4d 20 34 be 08 91 d4 bd
       0.15416744 0.05407315 -0.17590447 -0.10379225
0001c0 bc 17 f7 bd 65 1c 28 3e 1b ea ab bd 98 62 ff 3d
       -0.12065074 0.16417082 -0.083942614 0.12469977
0001d0 87 5c 5a be ae 4c 10 3e 91 c3 82 3d 51 1b 0d 3e
       -0.21324359 0.14091751 0.063849576 0.13779952
0001e0 be 5b 9c 3d 62 b2 a5 bd 4d 40 22 3e 60 e1 90 bd
       0.07634686 -0.080906644 0.15844841 -0.07074237
0001f0 71 4a 64 be 6a 19 39 ba 1e e2 3a 3c 79 d1 08 be
       -0.22294022 -0.0007060977 0.01140645 -0.13361157
000200 c2 82 6d 3e 08 0c 3a be f7 7f 2d 3d be 75 26 3e
       0.23194411 -0.18168652 0.042358365 0.16255853
000210 5f 18 e9 bd b5 8f 0a bd 11 80 0f bb 50 20 47 3d
       -0.113816015 -0.033828456 -0.0021896402 0.0486148
000220 63 21 9a 3d 08 0e 2a 3e 84 3d a0 3d 57 c0 e5 bd
       0.07525899 0.16606915 0.07824233 -0.112183265
000230 c1 2a 79 bd 9d 70 57 3d 11 36 00 3e 48 45 50 3e
       -0.06083179 0.05259763 0.12520625 0.20338929
000240 e2 b2 90 bd a1 27 7a bd 1b 20 b8 3d 5d c0 e9 bd
       -0.07065369 -0.06107295 0.08990499 -0.114136435
000250 1e b0 27 be 2d fb 10 3e 9c 14 16 3e 7d 3b 95 bd
       -0.16375777 0.14158316 0.146563 -0.07286737
000260 19 10 15 3e 0a 4f 10 3d 2d 67 88 3d 23 43 a9 3d
       0.14556922 0.035231628 0.06660304 0.082647584
000270 8f 6b 89 3d 40 0e 8e be 40 28 73 bd 5b c8 0f 3e
       0.06709968 -0.27745247 -0.059364557 0.14041273
000280 69 47 2f bc d4 72 2f 3e 09 1e d7 bd 39 17 05 be
       -0.010698178 0.17133647 -0.105037756 -0.1299714
000290 75 73 68 3d 23 f9 c2 3d e7 4b 21 3e 5d a3 0c bd
       0.056750733 0.09520175 0.1575161 -0.034335483
0002a0 a7 27 68 bc ed ac 25 3e e2 a5 90 3e a0 c5 5d 3d
       -0.01416961 0.16179247 0.2825156 0.054143548
0002b0 b7 af bc 3d ed 81 8a be 50 0e 13 bb ec 74 80 3a
       0.092132024 -0.2705225 -0.002243895 0.000980047
0002c0 b9 b6 2c bc 08 75 10 3e 1d 65 89 be b4 b6 1d 3e
       -0.010541611 0.14107144 -0.26834956 0.15401727
0002d0 4c 8e 00 3e 76 b5 97 3c c7 e7 8e be 13 a6 a3 bb
       0.12554282 0.018519145 -0.27911207 -0.004994163
0002e0 57 49 43 3d cb 8f 82 bd 4e 32 f9 bd 9e 1e 0d be
       0.047677364 -0.063750826 -0.12167798 -0.13781211
0002f0 d7 8e 13 3e 26 d6 10 be 0d 53 c1 3c d0 f9 f9 3d
       0.14409958 -0.14144191 0.023599172 0.12205851
000300 e1 e4 97 3d 16 24 da bd bf 8c b3 3c d3 33 49 3e
       0.07416702 -0.10651414 0.021917699 0.19648676
000310 55 f0 11 3d cc 48 94 be b9 22 79 3e 7c 6c a9 be
       0.03562959 -0.2896179 0.24329652 -0.3309058
000320 ca ff b9 3d 32 f2 62 3c 19 d1 0b bd eb 5b c4 bd
       0.09081991 0.013851689 -0.034134958 -0.095878445
000330 4f 03 0a 3c fa 2e b3 3d c8 cf ab bd 99 80 63 3d
       0.00842364 0.087491944 -0.083892405 0.055542562
000340 0f 26 f9 3d 70 d3 99 3c 15 85 16 be 5d cf 30 3e
       0.12165462 0.01877758 -0.14699204 0.17266603
000350 de 9c 85 3e 2c fc 88 bd a4 a4 00 3e 66 ba 17 3e
       0.26096243 -0.06688723 0.12562805 0.14817199
000360 23 58 7c be 80 dc 19 3d 81 8c eb 3d ac 3a 4f bd
       -0.24642996 0.0375638 0.11501408 -0.050593063
000370 1e 05 9b bd 06 ab f5 3d fd 68 48 be 37 ea 51 bd
       -0.075693354 0.11995511 -0.195713 -0.051248755
000380 1e bd 39 3e 7d ab 2e be 63 ad f9 3c d8 6c a8 3d
       0.18138549 -0.17057605 0.030478185 0.08223885
000390 f7 8a 02 3e b5 2d db 3d dc 05 5c 3e 0f e4 81 3d
       0.12748323 0.10702077 0.2148661 0.06342327
0003a0 53 b8 df bd b7 3f 5c bd b4 42 46 be 95 e5 3e be
       -0.10923829 -0.0537717 -0.19361383 -0.18642266
0003b0 17 c6 67 bd d7 aa 05 3e ea cb bd 3d 9e 8c 14 3e
       -0.056585398 0.13053451 0.09267409 0.14506766
0003c0 28 74 4e bd 3d 73 b0 3d 78 99 03 3e 6d a5 46 bc
       -0.050403744 0.0861573 0.12851512 -0.0121244015
0003d0 ff c7 8e bd 37 d8 f4 3d 5e a1 5c be b3 d5 b1 3c
       -0.0697174 0.11955302 -0.21545932 0.021708345
0003e0 36 60 63 3e ff 4a 6f bd 81 a7 39 3c 19 ed 3d 3d
       0.2220467 -0.05842113 0.01133144 0.046368692
0003f0 74 a7 f5 3c 41 b1 96 3d 15 c2 08 3e 4f 21 9e 3d
       0.029987074 0.07358027 0.13355286 0.07721197

weight f4 [48]
000000 b5 0d 75 3f 95 9c 7e 3f 35 39 94 3f a5 0e 78 3f
       0.9572404 0.99457675 1.1579958 0.96897346
000010 93 fb 93 3f 29 45 6a 3f 5f ee 64 3f d9 43 89 3f
       1.1561149 0.9151178 0.89426225 1.072383
000020 90 5d 83 3f 37 fa 8e 3f 6b 2b 98 3f a0 8d 88 3f
       1.0262928 1.117011 1.188825 1.066822
000030 04 a1 9e 3f 6d a0 94 3f a3 12 4d 3f 6b ec 7a 3f
       1.2392888 1.1611458 0.8010656 0.98016995
000040 b0 ec 97 3f 01 3e 82 3f e7 cf 86 3f db ff 81 3f
       1.1869106 1.0175172 1.0532197 1.0156206
000050 f8 cd 8e 3f ce 47 89 3f d3 b4 76 3f dd 36 60 3f
       1.1156607 1.0725038 0.96369666 0.87583715
000060 3a 94 71 3f 94 13 5a 3f 19 66 81 3f ba 6a b3 3f
       0.943668 0.85186124 1.0109283 1.4016945
000070 0a 93 79 3f 09 13 84 3f aa fe 87 3f 9d f4 9f 3f
       0.9748999 1.0318309 1.0624592 1.2496525
000080 46 3d 8d 3f ee 12 8c 3f 82 e6 6b 3f b1 75 74 3f
       1.1034324 1.0943277 0.921486 0.9549208
000090 2c b7 9e 3f 69 44 8a 3f 2c 07 8b 3f 89 46 79 3f
       1.239965 1.0802127 1.0861564 0.97373253
0000a0 c9 e5 86 3f 8e a4 7a 3f f9 c6 79 3f 1a c8 83 3f
       1.0538875 0.9790734 0.97569233 1.0295441
0000b0 38 85 a1 3f e0 f3 ab 3f c5 d5 83 3f 89 6b a5 3f
       1.261878 1.34338 1.0299612 1.2923442

bias f4 [48]
000000 05 b6 dd bd d0 2e 12 be ab e3 1b 3e 9e ba ad be
       -0.10825733 -0.1427567 0.15223567 -0.3393144
000010 2c 70 70 bc 54 c0 f3 bd c8 74 a0 be f3 25 5c be
       -0.014675181 -0.11901918 -0.31339097 -0.21498851
000020 96 7c 6f bc 66 5b 1c bd d0 9d f2 ba 8d ff 94 3c
       -0.014617106 -0.0381731 -0.0018510167 0.018188262
000030 e3 1b 1d bd 58 eb d6 bc ed b9 12 bd 79 eb 57 3e
       -0.038356673 -0.026235268 -0.035821844 0.2108592
000040 fa 10 4a 3d 14 3a 57 bd 32 13 19 3e 56 08 80 bd
       0.049332596 -0.052545622 0.14948729 -0.0625159
000050 be 7f 68 bb f8 5b 02 3c 24 99 37 3e 21 49 9e 3e
       -0.003547653 0.007956497 0.17929512 0.30915168
000060 ff 28 b7 3c b4 51 9c bd 74 9b d9 bd 69 64 1d be
       0.022358416 -0.07632771 -0.106253535 -0.15370335
000070 19 41 aa bc ba 25 b6 bd 31 82 a8 bd 12 2e 1c be
       -0.020782994 -0.088939145 -0.08227957 -0.1525195
000080 d6 6a a1 3d aa 8e b3 3d 61 e5 c9 bd 09 f7 2f 3e
       0.078817055 0.087674454 -0.09858204 0.1718408
000090 e6 fe d1 3c a0 80 96 bb 6a ce 36 3d d6 f4 8d be
       0.02563424 -0.00459297 0.044630446 -0.27725857
0000a0 c3 03 e6 bd 7d 02 95 3d 7e 9d 34 bd a8 d2 89 3c
       -0.11231186 0.07275865 -0.04409551 0.016824082
0000b0 95 68 7a 3e 63 aa 16 3e bb 02 f0 bd 91 98 3a be
       0.24453957 0.14713435 -0.11719271 -0.18222262
