trained_model/BiSegNet(ReagentV2)_no_train.pt (torch, 398137 bytes, 152 tensors)

weight f4 [8, 1, 3, 3]
000000 f5 bd 43 bd d8 de 2d be 26 00 d4 bd 2c 02 82 3e
       -0.04778858 -0.1697954 -0.10351591 0.25392282
000010 c5 5a b0 3d 99 8e 4b be 23 b4 66 be 20 01 85 be
       0.08611063 -0.19878615 -0.22529654 -0.2597742
000020 7d 88 54 3e 53 b5 b3 3d c1 92 e3 bc b2 00 85 be
       0.20755191 0.08774819 -0.027779939 -0.25977093
000030 a1 68 f5 bd e2 a8 92 3d 2e 54 43 3e 0c 6c 8d 3e
       -0.11982847 0.07161118 0.19075081 0.27621496
000040 3f 71 18 3e 07 62 3f bc 8f 84 f2 3d 42 fa 17 3e
       0.1488695 -0.011681086 0.1184169 0.1484156
000050 2e d8 43 3e 4a aa dc bc a8 9d de 3d 9a 53 15 be
       0.19125435 -0.026936669 0.10869914 -0.14582673
000060 98 5b ce bd 04 f9 97 bd f1 0a 8f 3d fd 73 0f be
       -0.10076064 -0.07420543 0.06984509 -0.1400909
000070 d7 7a 1a be fb 66 70 3e d8 35 53 bd e9 d4 1a 3e
       -0.15085922 0.23476784 -0.05156502 0.15120281
000080 63 f0 79 3d 54 3d 02 3e 30 ec 9c 3e 50 fd 22 3e
       0.061020266 0.12718707 0.30648947 0.15916944
000090 c1 0b 0d 3e a8 6a 3b 3e 6c 9f 46 be b3 05 90 bc
       0.13774015 0.18302405 -0.19396752 -0.017580843
0000a0 20 4a 57 3d b0 38 5a 3d 0a 76 64 3e d2 09 00 3e
       0.052560925 0.053276718 0.22310653 0.12503746
0000b0 2b 80 4b 3e 5c 5c 14 3d 9e 5c 1b 3e 36 5a d7 3d
       0.19873111 0.036220893 0.1517205 0.10515253
0000c0 ee eb 10 be ec 90 95 bd e4 9e 06 3e ec 83 22 3e
       -0.141525 -0.07303032 0.1314655 0.15870637
0000d0 f6 3c 0d 3e 5f 13 57 3e be a3 76 be a1 59 d9 3d
       0.13792786 0.21003483 -0.240859 0.106127985
0000e0 0d 5d 4b be 04 e6 d4 3d e2 28 5b be a5 e3 d5 bd
       -0.19859715 0.103954345 -0.21402314 -0.104438104
0000f0 35 29 47 3e 69 93 88 bc bc e8 f6 bd a1 eb 80 be
       0.19449313 -0.016671853 -0.12056109 -0.2517977
000100 6d 39 b7 bd 35 ee 6e be a3 82 f0 3d 98 e5 d9 bd
       -0.089465 -0.23333056 0.11743667 -0.10639495
000110 65 17 dd 3d b0 5f 94 be 80 b3 22 be 51 47 56 be
       0.10795478 -0.28979254 -0.15888786 -0.20925643

weight f4 [8]
000000 e5 96 7e 3f d9 6d 7d 3f 45 cd 81 3f 09 d2 7d 3f
       0.99448997 0.9899574 1.0140768 0.99148613
000010 48 48 7c 3f 21 ca 77 3f 44 c8 82 3f eb 3b 80 3f
       0.9854779 0.967928 1.0217366 1.0018286

bias f4 [8]
000000 7c 7a 1b bb aa ea 33 3d d1 70 21 3d 2d 55 9e 3c
       -0.002372413 0.043924965 0.03941423 0.019327724
000010 35 06 a7 bc 5d 0c 22 bd 8a 0c 09 3b 00 ba 8d 3c
       -0.020388702 -0.03956257 0.0020912015 0.017300606

running_mean f4 [8]
000000 4b 47 94 c2 9f 15 68 42 80 8a 3b 42 55 f9 e2 42
       -74.139244 58.021114 46.885254 113.48698
000010 79 5d f7 42 ff e9 e8 42 9e b4 9f c2 c3 ee 34 c3
       123.68256 116.45702 -79.85277 -180.93266

running_var f4 [8]
000000 9d a2 2d 44 7e 69 e0 43 c7 10 a6 43 81 ad c8 44
       694.54083 448.82416 332.13107 1605.422
000010 5d 29 ed 44 ce 9e d1 44 18 11 51 44 66 26 7e 45
       1897.2926 1676.9626 836.2671 4066.4

weight f4 [24, 8, 1, 1]
000000 01 7d 34 bd ce b5 b0 be b5 44 a1 be 1b 02 8f 3e
       -0.044064526 -0.34513706 -0.31497732 0.27931294
000010 5f 26 5c 3d 37 70 ad 3b 0b 36 bc be b5 0a 8a 3e
       0.05374753 0.005292918 -0.36759982 0.26961294
000020 d5 85 5d 3e 67 17 e1 bd c8 7a a0 be b9 97 20 be
       0.21633084 -0.10990792 -0.31343675 -0.15682878
000030 9d 1f cf be 66 94 6c be 27 83 0b 3d ae 32 52 3d
       -0.40453807 -0.23103485 0.034060623 0.051317863
000040 e9 b6 c2 3d 7d 6d 82 be b9 00 04 be db b5 3b 3d
       0.095075436 -0.25474158 -0.128909 0.045827728
000050 43 80 38 bd 29 8b 65 3e 3d 79 e3 3d 64 2c 9c 3e
       -0.045044195 0.22416367 0.11107109 0.30502617
000060 51 09 78 3e 56 17 04 3e 96 60 f1 3d bd f4 9e be
       0.24222304 0.12899527 0.117860004 -0.31046095
000070 ac 14 cc be 47 6e 18 3e 76 74 20 bd a7 9c d3 3e
       -0.3985952 0.14885817 -0.039173566 0.41330454
000080 6f d9 ce 3d 59 34 14 be 78 66 72 3e 02 3f 9a bc
       0.10100066 -0.14473094 0.23671901 -0.018828873
000090 87 3c c8 bc 75 df 8c 3d 70 1a 8a be be 6e 8b 3e
       -0.024442924 0.068785585 -0.26973295 0.27232927
0000a0 48 a4 00 3e e4 eb 91 3d fa a9 1e 3e 27 aa 27 be
       0.12562668 0.07125071 0.15494528 -0.16373502
0000b0 54 ef 1f be 76 4d 34 bd 6a 4c 48 be c0 ff 2d 3a
       -0.1561864 -0.044019185 -0.195604 0.0006637536
0000c0 25 50 45 be bf 34 5a be f0 52 5c be 28 33 6a be
       -0.19268854 -0.21309184 -0.21516013 -0.22871077
0000d0 d1 4d e7 3d bd 3b 3b 3e 9b ca c7 bd e3 43 51 bd
       0.11294139 0.18284507 -0.09755441 -0.051090132
0000e0 94 c6 9c 3e 7a 87 1c bd b8 0c 46 be 2f a8 ba 3e
       0.30620253 -0.038215138 -0.1934079 0.3645644
0000f0 d6 87 42 3e 62 ec ec be 2d e1 5c 3e 14 da ef 3e
       0.1899713 -0.46274096 0.21570273 0.46846068
000100 d5 07 bb 3e 90 23 7c be f3 06 98 3e d5 11 09 3e
       0.36529413 -0.24622941 0.29692802 0.13385709
000110 a4 2d 34 3d d1 f1 e5 3e 76 82 50 3c 7c 38 ca 3c
       0.04398884 0.44911054 0.012726417 0.024685137
000120 c8 a9 d5 be 5a 1b b9 3d 2a 75 d3 3e f5 3c 5c 3e
       -0.41731095 0.0903842 0.41300327 0.21507628
000130 1d 75 0c be 9d d1 88 be a4 8a cc 3e e1 54 9f be
       -0.1371655 -0.26722422 0.39949524 -0.31119445
000140 0d c2 dd be 8f f6 d4 be b7 f7 47 be 8f 92 af 3d
       -0.43312111 -0.4159436 -0.1952809 0.08572876
000150 01 5f c2 be 24 4d e1 3e 11 6b 34 bd 23 29 82 be
       -0.37963107 0.44004166 -0.04404742 -0.2542201
000160 03 1e 13 be fe 0b ad bc 38 61 90 3c 0c b4 93 3e
       -0.14366917 -0.021123882 0.017624483 0.28848302
000170 2a a7 2d 3e 61 8a 8c 3d 74 c8 bb be 67 a8 51 be
       0.169583 0.06862331 -0.3667637 -0.20474397
000180 91 54 01 be b0 5c 8c bc 65 77 40 be cd ee 8a 3e
       -0.12629916 -0.01713404 -0.18795545 0.27135316
000190 f1 59 bc 3e 4f 72 df bd e0 41 05 3e 3e 64 55 be
       0.3678737 -0.109104745 0.1301341 -0.2083902
0001a0 10 01 c0 bd 3b fc 90 3e c2 25 d1 bd 72 4d ad 3e
       -0.09375203 0.28317437 -0.1021228 0.3384815
0001b0 cf b8 28 be e3 f8 38 be fe 4f 99 be de f9 10 3e
       -0.16476749 -0.18063693 -0.29943842 0.14157817
0001c0 17 4c 8d bd 84 a6 27 be 35 3e 14 be f4 2c 1f be
       -0.068992786 -0.16372114 -0.14476855 -0.15544492
0001d0 91 7f 46 3c 11 ab 5e bc 4f b0 cb 3d 2d 94 ea 3e
       0.012115375 -0.01359059 0.099457376 0.45816174
0001e0 74 6c 8f 3e 2f 31 15 3e 93 b6 78 be e8 63 28 3e
       0.2801243 0.14569543 -0.24288397 0.16444361
0001f0 e5 86 41 be eb f8 be 3e 0a a3 29 3e 4c 5d 8c be
       -0.18899114 0.37299284 0.165661 -0.2741493
000200 93 01 c5 3e e5 c0 90 be 7e 0f b9 be 5a f0 b9 3d
       0.38477764 -0.28272167 -0.36144632 0.090790465
000210 75 b8 fb 3d e8 04 bf be 80 f5 77 be 4d 26 6f be
       0.12291042 -0.3730843 -0.24214745 -0.23354454
000220 68 a2 0a 3e d2 5b 93 be a1 54 2e 3e 38 ce a9 3e
       0.13538516 -0.2878099 0.17024471 0.33165145
000230 98 96 8f be 40 21 39 3e 70 cd cb 3d 34 19 1d be
       -0.2804458 0.1807909 0.099512935 -0.15341645
000240 6d 94 23 be 67 cb e4 be 5c 35 ee be bf dc 0f 3e
       -0.15974589 -0.44686434 -0.46525085 0.14049052
000250 4e a1 8c be f7 29 89 bd c2 e9 a6 3e b6 d5 bd be
       -0.27466816 -0.06697457 0.32600218 -0.3707711
000260 25 5d 14 be e1 c0 c1 3e fe 25 a8 3e 28 9c e5 be
       -0.14488657 0.37842467 0.32841486 -0.448457
000270 19 89 de bd c5 07 9d be 9b 9d a1 bd 2e 2c 39 3e
       -0.10865993 -0.3066999 -0.07891389 0.1808326
000280 7e 27 41 3e eb f4 07 3e 58 c6 c8 be 03 45 c9 3e
       0.18862721 0.13277023 -0.39213824 0.39310464
000290 dd 3f a4 be 1c b9 13 be 1a 1e 39 3e 81 01 19 3e
       -0.32079974 -0.14426082 0.18077889 0.1494198
0002a0 15 da 93 be 42 53 8c 3d 4d b6 a8 be 89 90 27 3e
       -0.2887732 0.06851818 -0.32951584 0.1636373
0002b0 81 d0 09 3e e0 b6 0a 3e e9 30 b5 3e 3f 69 49 bd
       0.13458444 0.13546324 0.35388878 -0.049172636
0002c0 e1 22 18 be 2e 11 86 bc dc 60 61 be 84 58 22 3d
       -0.14857055 -0.016365614 -0.22009605 0.039635196
0002d0 c1 82 d0 be 84 a7 bd 3e e0 1d 54 be 4d ad 3b 3e
       -0.40724757 0.37041867 -0.20714521 0.18327828
0002e0 58 07 38 3e 94 9f 5f 3e 75 a6 dd be 27 06 d0 3e
       0.17971551 0.21838218 -0.4329106 0.40629694
0002f0 be af 8a bc be 24 cd be 5b c8 bb bc 75 2d 1f bb
       -0.016929504 -0.40067095 -0.022922685 -0.002428857

weight f4 [24]
000000 08 cc 73 3f 3a 33 88 3f e6 e3 76 3f 77 b3 71 3f
       0.952332 1.0640633 0.96441495 0.94414467
000010 82 35 87 3f c9 e0 81 3f c3 06 80 3f 53 d2 77 3f
       1.0563204 1.0146724 1.0002064 0.96805304
000020 6b 45 61 3f 39 0c 7c 3f 10 9d 6d 3f 5a 6d 82 3f
       0.8799655 0.9845615 0.92817783 1.0189621
000030 05 c9 7a 3f 0e 2a 70 3f 21 8d 71 3f 64 53 85 3f
       0.9796298 0.9381417 0.9435597 1.0416074
000040 18 ee 75 3f 08 2f 7d 3f 9c b8 76 3f 8e 64 79 3f
       0.9606643 0.9889989 0.9637544 0.9741906
000050 99 b4 7c 3f 32 38 7d 3f 89 7c 80 3f d2 05 7e 3f
       0.9871307 0.9891387 1.0038005 0.9922763

bias f4 [24]
000000 20 fd 45 3d 6e 59 47 bb 25 c9 34 3d 5b e5 09 bd
       0.048337102 -0.0030418294 0.04413714 -0.033665996
000010 49 0f 65 bd cd 1e b9 3c 21 c1 fe 3b fa 21 29 3d
       -0.05592278 0.022597695 0.0077744876 0.04129217
000020 f3 9e ba bd 48 c7 b8 3c bd ae 3a 3d 1b 73 26 3c
       -0.091123484 0.022555962 0.0455768 0.010159279
000030 d2 9d c1 3c 3c 5a 24 3d 16 ab 04 bd d7 35 3a 3c
       0.023634825 0.040125117 -0.032389723 0.0113653755
000040 0b c5 90 3d c9 88 9b bc a5 86 02 bd e6 14 c9 3c
       0.07068833 -0.018986123 -0.03186669 0.024546098
000050 74 db 90 3b 28 46 0b bc d6 dd 92 3c 16 92 66 3b
       0.004420692 -0.008500613 0.017928045 0.003518229

running_mean f4 [24]
000000 c4 cd 2e be bc 67 97 be 8a 03 d2 3d 56 f2 e1 3d
       -0.17070681 -0.2957133 0.10254581 0.1103255
000010 d3 6b 9a 3d 73 38 73 bd 11 62 83 be 4d ab 97 3e
       0.07540097 -0.059380006 -0.25660756 0.2962288
000020 88 7f b0 3e 44 ac cc 3c 1d b2 d7 be 58 e9 90 bd
       0.344723 0.024984486 -0.42128077 -0.07075757
000030 46 62 fa 3c fd 43 28 bc 7d 4d 3d 3b de 4f 01 3e
       0.030564439 -0.010270116 0.0028885298 0.12628123
000040 57 be 9b be e2 57 85 3d f4 2b e7 be ec 8d 15 bd
       -0.30418655 0.06510903 -0.4515072 -0.0365123
000050 47 57 91 3d a7 f3 4a 3d 90 8c 16 be da 17 4f bc
       0.07096725 0.04954877 -0.14702058 -0.012639964

running_var f4 [24]
000000 b1 a6 e1 3c b3 04 50 3e fa 6b 4e 3e cf ea a1 3e
       0.027545305 0.20314293 0.20158377 0.31624457
000010 8d 77 9e 3c b1 8b 18 3c 62 88 7c 3d 5d 7e 34 3f
       0.019344116 0.009310649 0.061653502 0.70505315
000020 ad 81 b9 3d 87 16 fa 3d 7b b1 a8 3e 2f 38 e4 3e
       0.09057937 0.12211328 0.32947907 0.44574115
000030 18 9f 70 3d 8d a6 83 3d 8e a4 69 3e 47 32 de 3c
       0.058745474 0.064282514 0.22816679 0.027123583
000040 2d f3 fe 3c 6c 67 96 3c f3 b3 5a 3d 9f cb 9e 3c
       0.031121815 0.018359862 0.05339427 0.019384203
000050 63 17 73 3e ea 83 ec 3c 65 33 c7 3c ae 1b 2e 3d
       0.2373939 0.028871495 0.024316499 0.042506866

weight f4 [24, 1, 3, 3]
000000 aa 10 a0 bd 5d 54 d6 3d cd 20 ff 3d 00 30 23 be
       -0.078156784 0.1046531 0.12457428 -0.1593628
000010 55 f6 26 3d 42 65 c7 bc 1c 79 02 be 5f 69 39 bc
       0.040762264 -0.024340276 -0.12741512 -0.011316626
000020 2c 9b a0 3d 5b c3 51 bd 5d 3e 39 3d 53 37 06 3e
       0.07842097 -0.051211696 0.04522549 0.13107042
000030 84 6b 0b be 4d 99 9f 3d 5d cd 40 bb 5d 98 d5 bb
       -0.13615233 0.07792912 -0.002941928 -0.0065184073
000040 18 a9 8d bd b9 20 a5 bd 44 8c 2f 3e d9 f3 18 be
       -0.06917018 -0.08062882 0.17143351 -0.1493677
000050 e8 a5 6b 3d c5 87 d1 3d 72 bc 60 bd 34 cc b1 3b
       0.057531267 0.10230974 -0.054867215 0.0054259542
000060 c2 aa 07 3d 1b cb 8f bb 60 0c 48 bb 68 90 b8 3b
       0.03312183 -0.0043882257 -0.0030524954 0.005632449
000070 83 34 93 bd 17 3d f6 3d 92 4b bd bb 9e 03 c1 3d
       -0.0718775 0.12023371 -0.005776831 0.09424518
000080 d5 e0 27 3d 91 93 11 3e 21 c2 f5 bd 18 71 b5 3d
       0.0409859 0.14216448 -0.11999918 0.088594615
000090 34 59 15 3e 3c 33 5e bd bb b5 e3 bd 4c c9 33 bd
       0.1458481 -0.05424808 -0.11118647 -0.043893144
0000a0 43 b9 ab 3d 21 33 f6 bc 09 aa 7e 3d 62 52 af 3c
       0.08384945 -0.030053677 0.062173877 0.021401588
0000b0 2d 2c 95 3d df e7 18 3e 69 83 0a bd 9b 75 03 be
       0.072838165 0.14932202 -0.03381673 -0.12837832
0000c0 bb 6d 08 be 96 36 29 3d 4a 0b be bc e0 93 ab bd
       -0.13323109 0.041311823 -0.023198742 -0.08377814
0000d0 88 97 26 bc 9d 98 21 3e c5 48 c8 bd ba 13 17 3e
       -0.010167964 0.15780874 -0.09779505 0.14753619
0000e0 99 2e ab bd a3 f7 43 bd fe fb 29 3d db 8f 7f 3d
       -0.08358497 -0.047843587 0.041500084 0.06239305
0000f0 f2 f4 d8 3d 00 87 4b 3c ae 1b 9a 3d 2b be 4c bd
       0.105935946 0.012422323 0.07524811 -0.049986046
000100 50 30 2b 3c 56 21 34 bd bd b6 c6 bd ba ba 10 3d
       0.01044853 -0.043977104 -0.09702823 0.035334326
000110 40 f5 35 3d 1b 2a 18 bc 1a f3 25 bd 16 77 15 3e
       0.04442334 -0.0092873825 -0.040515043 0.14596209
000120 c1 cc c2 3b 4c ef 4f 3d b6 6b 1c be e6 85 09 3b
       0.0059448187 0.05076532 -0.15275463 0.002098435
000130 58 b9 22 3e e5 62 ab 3d ef df 41 3d 07 5e 2e 3d
       0.15891016 0.08368472 0.0473327 0.04257014
000140 db 2f 94 3b d5 47 34 bd 84 62 69 bd 32 d8 ad bd
       0.0045223064 -0.044013817 -0.056978717 -0.084885016
000150 01 b4 af bb 34 1c 79 be b3 f2 9b bd 42 ac 90 3d
       -0.0053620343 -0.24327165 -0.076146506 0.070641056
000160 81 42 fb bd ba aa 1c be d3 20 68 3e 03 36 93 3d
       -0.12268544 -0.15299502 0.22668771 0.07188036
000170 18 ac f0 bd 6c 8d 11 3c 63 e1 c7 3c c4 d5 04 3e
       -0.11751574 0.008883815 0.024399465 0.1297217
000180 44 fd 19 3d bd 32 de bd 9d 26 88 3d 6f dc 8e bd
       0.03759505 -0.10849521 0.0664799 -0.06975638
000190 bc e9 14 be 6a a0 0e 3b 97 36 b8 bd 9a e9 b5 3c
       -0.14542288 0.0021763095 -0.08994787 0.022206116
0001a0 f1 58 ea 3d 03 00 c9 3d a3 e4 df bd c3 e5 a8 3d
       0.114427455 0.09814455 -0.10932281 0.082469486
0001b0 d2 c5 8a 3c db 00 76 bd aa 7a e5 bd 3c e0 bf 3c
       0.016940031 -0.06005941 -0.11205037 0.023422353
0001c0 02 56 6d 3c 35 5a 23 be 3c 28 05 3e f6 49 06 3e
       0.014485838 -0.1595238 0.1300363 0.13114151
0001d0 fd 29 08 be 7a d9 68 bd 6a e7 0d 3e 1d ce aa ba
       -0.13297267 -0.056848027 0.13857809 -0.0013031397
0001e0 b0 5f 62 bd 9d 6d 25 3e 10 64 94 3c d8 f7 09 3c
       -0.055267036 0.16155095 0.01811412 0.008420907
0001f0 64 df 0e 3e 5b 74 8e bb 11 25 0f 3e f0 eb 05 be
       0.13952404 -0.0043473667 0.13978983 -0.13078284
000200 53 f6 51 3d 4f 2b b9 3d 2e 14 24 3d 59 c9 88 bd
       0.051260304 0.090414636 0.040058307 -0.06679029
000210 b7 8d 89 bd e2 75 bd bd 13 ba ae 3d 03 4e 3d be
       -0.06716483 -0.09251 0.085315846 -0.1848679
000220 e2 b5 e6 bd 41 c9 f3 bd b8 64 07 3e 7e a9 0a 3e
       -0.1126516 -0.119036205 0.13222015 0.13541219
000230 45 06 2c 3d 62 2a 71 3d fd e4 98 bd 11 33 0b 3e
       0.041998167 0.05887831 -0.07465551 0.13593699
000240 f7 47 09 3d c8 23 01 be 4a a6 48 bd d6 5e 1d 3e
       0.033515897 -0.12611306 -0.04898671 0.15368208
000250 06 c6 b6 3d e6 09 02 be e4 8f 86 bd 40 c7 d4 3c
       0.08924489 -0.12699088 -0.06570414 0.025973916
000260 e1 44 63 3d 1c d9 82 3c 2f 65 3b bd 55 20 8b 3d
       0.05548561 0.015972666 -0.045750793 0.06793276
000270 b4 58 d6 3d bd 38 d3 bd 9c 19 ed bd 65 22 49 3d
       0.104661375 -0.10313556 -0.1157715 0.049105067
000280 b1 65 ca 3d 57 44 c0 3d 78 68 45 3c 11 dc bf bd
       0.09882677 0.09388035 0.012048833 -0.09368146
000290 f0 90 0f be 95 30 3f bd c2 7d f0 bd 61 5f da bd
       -0.14020133 -0.04667719 -0.117427364 -0.10662723
0002a0 18 d0 15 3e 4d 2f ff bd 93 03 70 bb 65 54 74 bd
       0.14630163 -0.12460194 -0.0036623224 -0.059650797
0002b0 21 8e 05 bd bf d4 a9 bb 6f 52 ca 3d f2 f7 0b bd
       -0.032606248 -0.005182832 0.09879004 -0.034172006
0002c0 fe f6 11 3e b4 e0 d5 bd fe 40 1b bd b0 27 1f bd
       0.14254376 -0.10443249 -0.03790378 -0.03885621
0002d0 9f cb 36 3d 94 62 76 bc 2f 65 c3 3d e1 10 d3 bd
       0.044627782 -0.015038151 0.095407836 -0.10305954
0002e0 32 48 34 be 42 c0 66 3d 13 84 88 bd 7a a9 fb bd
       -0.17605665 0.056335695 -0.06665816 -0.122881845
0002f0 9f 1b f8 3d f0 11 94 bd 68 47 ce bd ef 10 65 bd
       0.12114643 -0.07229984 -0.100722134 -0.055924352
000300 06 5d 8a 3b 1c 2c 4d 3d 11 e8 04 3e 89 82 4c b9
       0.004222515 0.050090894 0.12979151 -0.00019503584
000310 37 69 82 3d d8 8e e3 3d 22 9f 8b 3d 2e 7c 5e bd
       0.063677244 0.1111123 0.068174616 -0.054317646
000320 c7 5a 46 bd d6 75 76 3d 0c 9c 05 bd 0b 59 45 bb
       -0.048426416 0.06017097 -0.03261952 -0.0030112888
000330 67 fc c6 bd f7 5d f8 bd dc 93 09 3e 30 38 5c be
       -0.09716111 -0.12127297 0.1343531 -0.21505809
000340 4a a8 17 be 34 c7 0f be 4e 0e 58 3b e5 14 0c bd
       -0.14810291 -0.14040834 0.003296751 -0.034199614
000350 1f 85 51 3c 8d ce 07 be 48 3b 27 3d aa 76 9f 3a
       0.012788086 -0.13262387 0.04082802 0.0012166102

weight f4 [24]
000000 f3 43 72 3f ec 13 84 3f 4e 91 7e 3f 44 d1 79 3f
       0.9463493 1.031858 0.9944047 0.9758494
000010 c3 52 88 3f cb 47 80 3f 8e fc 7b 3f 1d be 82 3f
       1.0650257 1.002191 0.9843224 1.0214268
000020 52 e5 85 3f 08 36 7d 3f f4 60 80 3f 62 92 80 3f
       1.0460608 0.9891057 1.0029588 1.0044672
000030 b3 5a 89 3f 65 77 78 3f 5c c9 76 3f a3 af 73 3f
       1.0730804 0.9705718 0.96401 0.95189875
000040 c7 6c 81 3f 02 e3 82 3f ca 7a 81 3f 63 99 78 3f
       1.0111321 1.0225527 1.0115597 0.9710905
000050 a6 78 80 3f 31 de 79 3f 6b 63 78 3f 1a 0d 80 3f
       1.0036819 0.9760466 0.970267 1.0003998

bias f4 [24]
000000 e7 ed 9e bd 23 10 21 3d 47 1b 5b bb ba 58 07 bd
       -0.0776022 0.03932203 -0.0033433007 -0.0330436
000010 34 44 c3 bb 4d 5d 45 bd 9d a5 b4 3b 6e d1 42 3d
       -0.005959058 -0.04818468 0.0055129067 0.04756301
000020 f2 fc 17 3c 29 18 94 bb e6 b5 2a 3d 59 38 00 bb
       0.009276615 -0.0045194817 0.041677378 -0.0019564836
000030 6c 63 9c 3d b8 5d 76 bc e5 53 47 bd 97 fd 8c bd
       0.07636151 -0.015036993 -0.048663992 -0.06884306
000040 f9 5c 41 bd 12 73 6a bc e1 37 58 3d 22 2e ef bd
       -0.047207806 -0.014309661 0.052787665 -0.11678721
000050 a9 9b d5 bb 79 1d 17 bc d3 e0 e7 bc 73 44 a5 ba
       -0.0065188003 -0.009223335 -0.028305447 -0.00126089

running_mean f4 [24]
000000 00 09 7e bc 5a 6b 0d bd 59 3b 1d 3d 11 6b a8 3d
       -0.015505075 -0.034526207 0.038386676 0.08223546
000010 87 53 29 3d e1 f6 8f bc d1 28 8f 3d 90 d8 b1 3b
       0.041339424 -0.017573776 0.06990207 0.0054274276
000020 2b 8b 85 3d 97 56 78 be 86 ef ea 3d 27 76 03 bd
       0.06520685 -0.24251781 0.11471467 -0.0320951
000030 66 f7 59 bd 18 42 ef 3d 4d 0d 11 3c cd c6 da 3c
       -0.053214453 0.11682528 0.008853269 0.026706124
000040 3c f7 9f ba 5d 65 28 3d e8 46 35 be cc 17 b5 bc
       -0.0012204419 0.041112293 -0.1770283 -0.022106074
000050 7a a7 71 bd 14 a6 1a 3d f4 c7 03 bd a7 95 35 be
       -0.05899761 0.03775604 -0.032173112 -0.17732869

running_var f4 [24]
000000 dd 03 03 3c 64 14 2f 3c 53 f4 9e 3c 8f dd 34 3d
       0.007996527 0.010686014 0.019403612 0.044156607
000010 cb dc 99 3c 82 7e ac 3b fb af 91 3b 51 eb ca 3b
       0.01878204 0.0052641043 0.0044460273 0.0061926027
000020 93 e3 ee 3c e1 28 ab 3c 91 b6 ba 3b 26 9d 32 3b
       0.02916125 0.020893516 0.005698033 0.0027254312
000030 0e eb a1 3b 8a ca b6 3b 66 d5 9c 3b 8b f8 65 3d
       0.004941351 0.0055783438 0.0047861813 0.056145232
000040 ec 39 93 3b f0 53 8b 3c 0c 43 98 3d 72 b3 ba 3c
       0.004492989 0.017007798 0.07434663 0.022790644
000050 11 48 fb 3c e6 80 c0 3c 89 f0 44 3b dd b8 3c 3e
       0.030674012 0.023498964 0.0030050597 0.18429895

weight f4 [16, 24, 1, 1]
000000 25 78 b6 3e 70 a3 4f be 80 41 9b 3e d6 35 43 3e
       0.35638538 -0.2027719 0.3032341 0.19063506
000010 c2 19 bd 3e 60 31 91 3e 2f 43 97 3e 33 60 a8 bd
       0.36933714 0.28357983 0.29543445 -0.082214735
000020 59 86 53 3e d8 c2 37 3d 3f 86 96 3e b9 a1 b2 3d
       0.20656718 0.04486355 0.29399297 0.087222524
000030 1d fa 85 be 98 de 89 be 1b 00 be 3d c4 00 3c be
       -0.26167384 -0.26927638 0.09277364 -0.18359667
000040 2d 37 3a bd ae 27 93 3e 6c 5f 0b be 42 5d 0b 3d
       -0.045462776 0.2874121 -0.1361062 0.034024484
000050 3c c8 7e 3e 0b 70 9b bc c5 94 80 be 34 62 40 bd
       0.24881071 -0.018974325 -0.25113502 -0.046968654
000060 a3 99 16 bc 44 f6 71 be 62 34 86 bc 1e df 9a bc
       -0.009191903 -0.23629099 -0.0163824 -0.018905219
000070 43 79 b5 3e 19 dc 81 bb 86 46 a3 3e 2a d5 df be
       0.35444078 -0.0039630053 0.31889743 -0.4371732
000080 10 fc 4c 3e 42 4f 86 be 9c 9f 80 be c8 1d 26 3e
       0.20018029 -0.26232344 -0.25121772 0.16222298
000090 d9 a3 f9 3d 55 b6 26 3e 1f 7a 71 be 15 04 df 3c
       0.121894546 0.16280492 -0.23581742 0.027223626
0000a0 0c 0b 92 3e c4 91 3b 3c 68 78 43 bd 43 ed 44 3e
       0.28524053 0.011448327 -0.04772225 0.19231133
0000b0 18 0e f1 bd 5f 9a 29 3e a5 d0 88 be c4 56 88 be
       -0.11770266 0.16562794 -0.26721683 -0.26628697
0000c0 50 85 92 be 45 2a 6c be 8f 9e 6f 3e 11 96 79 3e
       -0.28617334 -0.23063 0.23400329 0.24373652
0000d0 a9 bf 85 3d d3 c3 9b 3d e0 5b 2e bd a0 8f 8c 3d
       0.06530697 0.0760571 -0.042568088 0.06863332
0000e0 49 98 8a 3d d6 3e 0a 3e 45 20 3b bc 2e 56 7f 3e
       0.06767327 0.13500533 -0.011421268 0.24935219
0000f0 b7 0b ba 3d 15 be d9 3b b6 79 04 be 70 0b 29 3e
       0.09084266 0.006644974 -0.12937054 0.1650827
000100 d9 6c 5d bd 5a ab 00 3e 35 50 c0 be 36 6b 33 3e
       -0.054058883 0.12565365 -0.37561193 0.17521366
000110 98 60 55 3d 4e 4a a2 3e b8 84 b9 3e a9 37 6f 3d
       0.052094072 0.31697315 0.3623407 0.05840269
000120 21 1d a5 3d b8 93 29 be b2 af 21 3e 52 b3 76 be
       0.080621965 -0.16560256 0.15789679 -0.24091843
000130 d8 fc 82 3e bf ff a4 be c5 23 58 3e e4 fa 0f be
       0.2558353 -0.3222637 0.21107395 -0.14060551
000140 7b 0d 2e be 41 5b ac 3e e7 9a 6c be 50 9e 74 3e
       -0.1699733 0.3366337 -0.23105966 0.23888516
000150 ec b5 91 3b 8e e3 87 be f1 24 24 3e a7 f3 84 be
       0.0044467356 -0.26540798 0.16029717 -0.25967142
000160 dd d6 1e 3e 25 5b b2 3d 8f 9c d9 3e 4c 01 9d be
       0.15511651 0.08708791 0.42502257 -0.30665052
000170 2e 1e a9 3d e3 f9 5d bc 35 1e 04 3d 48 91 d4 be
       0.082577094 -0.013548347 0.03225537 -0.4151709
000180 b9 69 23 3e bc eb 30 bd ec e5 8c bd 1a eb af 3e
       0.15958299 -0.043193564 -0.068797916 0.34359056
000190 c6 84 7c 3e 30 c5 c3 be b8 b7 35 be 5e d3 88 bb
       0.24660024 -0.3823638 -0.17745864 -0.0041755876
0001a0 23 37 56 bc 6b 85 b8 be 12 0a 7b 3e 93 b2 68 bd
       -0.013074669 -0.3603929 0.2451556 -0.056810927
0001b0 7a 26 24 3e db 48 a6 bd 1a 29 af be 91 26 a0 3e
       0.16030303 -0.08119365 -0.34211046 0.31279424
0001c0 54 9f 85 be 07 85 44 3e 88 54 1b be 54 66 03 be
       -0.2609812 0.19191371 -0.15168965 -0.12832004
0001d0 46 c5 b7 be bd 91 9b be 90 60 74 bd 72 1f 4f 3e
       -0.35892695 -0.30384627 -0.0596624 0.20226839
0001e0 c2 54 6d be 31 5d 10 3e 5e 1c e9 3d 74 d5 73 bb
       -0.23176864 0.1409805 0.11382364 -0.0037206085
0001f0 86 d5 5d 3e df e4 99 be 4b a6 69 be 3c cb a1 be
       0.21663484 -0.30057427 -0.22817342 -0.31600368
000200 37 63 a8 3e 87 e2 0a 3e a8 b4 f9 bd 12 72 f9 bd
       0.32888195 0.13562976 -0.121926606 -0.1217996
000210 7d d8 b7 be 71 9a 14 be 24 f2 0f 3d 09 f4 97 be
       -0.35907355 -0.1451204 0.035143033 -0.29678372
000220 e7 67 b2 bc 34 91 72 3c c5 cb 00 3e cd 65 10 be
       -0.02177806 0.014805127 0.12577732 -0.14101334
000230 81 65 f7 3d 68 ed 14 be 16 4d d6 bd 32 c1 1b be
       0.12079907 -0.14543688 -0.10463922 -0.15210417
000240 71 84 11 3e 66 a1 35 be 3d 14 f4 3c 96 d1 df bd
       0.14210679 -0.1773735 0.029794807 -0.10928647
000250 e0 14 d0 3e 97 3e 2e be 8a 04 91 be 47 73 48 3d
       0.40640926 -0.17016064 -0.28323776 0.048938062
000260 57 60 e6 3d 3d a3 84 be 58 b3 c4 bc c0 fc d6 3e
       0.11248844 -0.2590579 -0.024011299 0.41989708
000270 8c 13 29 be 53 05 5f 3e 2f ec 71 be d0 78 1f be
       -0.16511363 0.21779375 -0.23625253 -0.1557343
000280 99 ea f4 3d 32 f0 a6 3e e3 d9 f7 3c 2e 4c 9e bc
       0.119588085 0.3260513 0.030255264 -0.019323435
000290 2a 4b 02 be 88 57 cc 3e 86 55 8c 3d a7 95 58 3e
       -0.12723985 0.3991053 0.0685225 0.21150838
0002a0 cb b1 0e bd 74 3a c4 3d 7f 63 3f be 0f 42 ad 3e
       -0.034837525 0.095814615 -0.18690298 0.3383946
0002b0 d6 73 64 3e eb 1a a7 be 61 56 c3 be 22 bf 3b be
       0.22309813 -0.32637724 -0.3815184 -0.1833463
0002c0 d8 a3 4f 3e c4 9c 64 3e b0 9a 8e 3e 38 e8 0b be
       0.20277345 0.22325426 0.27852392 -0.13662803
0002d0 48 98 7a be ae 84 cd bd b0 89 87 be 00 ce 89 3e
       -0.24472153 -0.10035072 -0.26472235 0.26914978
0002e0 fd 6b a7 be 3d 81 dc 3d 86 14 8e be 5d 89 6e 3e
       -0.32699576 0.10766838 -0.27750033 0.23294587
0002f0 22 68 a5 3e d5 d8 a4 be 59 08 1e be b6 59 ba be
       0.3230601 -0.3219668 -0.15432872 -0.3639657
000300 9e bc 68 3e 21 f3 9c 3e 09 3a 8c 3e 4a 7e 5a 3e
       0.22728202 0.30654243 0.27388027 0.21337238
000310 37 cc 9e bc 6b 8b 9e be ce aa f9 3d 12 e3 cd 3e
       -0.019384487 -0.30965742 0.121907815 0.40212303
000320 22 d7 c7 3e a7 a5 69 3e 57 51 d3 bd 2d 13 84 be
       0.3903132 0.22817098 -0.10318249 -0.2579588
000330 c0 92 ab bc b3 92 12 3c a9 dc 1d bd c0 6a 76 be
       -0.020944 0.008946109 -0.038540516 -0.2406416
000340 74 6b 99 3c f3 06 9c 3d 79 f6 8f be be e8 70 3c
       0.018727995 0.07618513 -0.2811773 0.014703928
000350 da ab 82 3e 68 c9 05 be d4 a6 4a bd ee 2f 89 be
       0.25521737 -0.13065112 -0.049475506 -0.2679438
000360 ff 02 82 be 01 7a 5d 3c a3 b2 b8 3d 2f fe 63 be
       -0.2539291 0.0135178575 0.09018447 -0.22264932
000370 51 6c fe bd 50 c2 ab be e2 dd 7a bd 44 d1 4a bd
       -0.124230035 -0.33546686 -0.06124676 -0.049515978
000380 12 e3 84 bd 4c b4 b0 bd b2 85 6a 3e 5d e7 a4 be
       -0.06488623 -0.08628139 0.22902563 -0.32207766
000390 cc 7f 7e bd 2f 90 25 be 96 4e 76 3d 5b 98 60 3e
       -0.062133595 -0.16168283 0.06013354 0.21933119
0003a0 e0 ed 13 3e a0 3b c2 be fc 81 89 3e 3c 7c 5e 3e
       0.14446211 -0.37936115 0.26856983 0.21727079
0003b0 ab 38 9b 3e e3 99 7b 3b 99 8a d6 bd 1f 14 d3 3d
       0.30316672 0.0038391284 -0.10475654 0.10306572
0003c0 9a 56 4e 3e 4c 54 8a 3d b8 f6 d1 3d 2d 94 66 be
       0.20150223 0.067543596 0.10252136 -0.22517462
0003d0 19 6e 86 3e a6 f7 d9 3d 6e bf 8f be 55 00 c3 bd
       0.26255873 0.10642938 -0.28075737 -0.09521548
0003e0 3f 71 a9 3c c5 18 b2 3d f1 7f 9a 3e e3 2e 96 3d
       0.020683883 0.08696131 0.30175737 0.07333162
0003f0 80 d1 0e be 34 82 3c 3e 82 01 d4 3e 16 4e c0 be
       -0.13947105 0.18409044 0.414074 -0.37559575

weight f4 [16]
000000 ce 9a 79 3f 83 6c 7d 3f af b8 6e 3f cb ff 81 3f
       0.9750184 0.989937 0.93250555 1.0156187
000010 ef 1c 7f 3f 73 4c 79 3f cb c5 71 3f 11 f0 77 3f
       0.99653524 0.9738228 0.94442433 0.9685069
000020 25 91 80 3f 41 02 80 3f 94 2e 7b 3f 17 90 84 3f
       1.0044295 1.0000688 0.9811795 1.0356473
000030 bd e1 80 3f b3 a7 78 3f 5f 45 75 3f 69 10 80 3f
       1.006889 0.9713089 0.95808977 1.0005008

bias f4 [16]
000000 d5 bb b1 3b 20 f9 8c 3a 2b b7 92 39 b3 cb 2b bb
       0.0054240027 0.0010755397 0.0002798376 -0.0026213943
000010 ba c1 9f 3a 05 06 1c 3b eb cc ca bb 95 1e d7 bb
       0.0012188472 0.00238073 -0.006188979 -0.006564925
000020 34 84 68 ba 45 0d c1 bb 9c 0f de bb 04 4b 8e b9
       -0.00088697975 -0.0058914744 -0.006776763 -0.00027140242
000030 c3 d8 0e 3a 07 e9 23 3a 7f f7 a4 bb 60 90 9f ba
       0.000544917 0.00062526803 -0.0050343866 -0.0012173764

running_mean f4 [16]
000000 24 3d cd 3e e2 3f 7b bd b1 b0 b9 3e bc 30 7f 3d
       0.4008571 -0.06134022 0.36267617 0.062302336
000010 95 77 8a be 8b dd ba be 0b 70 30 3e a1 56 af be
       -0.2704436 -0.3649715 0.17230241 -0.3424578
000020 f6 ad 58 3e 49 7e 5a be f7 b8 fd 3d 01 0a 60 be
       0.21160111 -0.21337236 0.12388795 -0.21878816
000030 91 69 51 3d ba 38 94 bd 69 b0 27 be de 2b fa 3e
       0.051126067 -0.07237382 -0.16375889 0.48861593

running_var f4 [16]
000000 cf f0 b9 3f 29 3e a9 3e 1b 15 54 3f 0b 8d ec 3e
       1.4526614 0.33055237 0.82844704 0.46201357
000010 52 69 a8 3e e4 d1 ed 3e dd a7 08 3f 51 6c b0 3e
       0.32892853 0.46449196 0.5338114 0.3445764
000020 8c 02 48 3f 88 94 4e 3f 8d 52 53 3f c4 46 95 3e
       0.78128886 0.8069539 0.8254784 0.29155552
000030 e8 63 cc 3e e3 47 cb 3e 77 1a df 3e 62 ce 39 3f
       0.39919972 0.39703283 0.4357488 0.7258054

weight f4 [48, 16, 1, 1]
000000 c1 a1 86 be 1f b9 a5 3e 9b a7 83 be 6c 54 c2 3d
       -0.26295283 0.323678 -0.2571381 0.094887584
000010 d9 3e 67 3e d7 46 3f be 81 c9 ae bd 16 c4 d6 bd
       0.22582568 -0.18679367 -0.085345276 -0.10486619
000020 3b 41 11 be 55 be 79 3e 75 77 b3 bd 04 6c 7d 3e
       -0.1418504 0.24389012 -0.08763019 0.24748236
000030 9a 30 b2 bc 2a 06 6a bd 2c 5f 8c 3d 33 0b 56 3d
       -0.02175169 -0.057134785 0.0685409 0.052256774
000040 f1 ca d7 3d 4d fe f1 bd b5 d7 73 3d 76 f8 aa 3c
       0.10536755 -0.11816082 0.059531886 0.020870429
000050 6b 22 74 be c7 e6 3a be e4 61 c7 3e ff 53 b6 bd
       -0.23841254 -0.18252097 0.38941872 -0.0890274
000060 4f 14 e4 bd 49 2d 8d be 1e 41 fb ba e1 74 95 be
       -0.11136686 -0.27573612 -0.0019169187 -0.29190734
000070 59 9f 39 3e 5d f7 69 3e 1d 15 af bd 80 d4 b8 bd
       0.18127193 0.22848268 -0.08548949 -0.09024906
000080 12 9a 84 3c 5a 42 8c be 9a b1 17 3e 88 c5 4e 3e
       0.016186748 -0.27394372 0.14813843 0.2019254
000090 c6 bc 52 be ce b4 91 3e b8 6d 4f be 35 80 23 3e
       -0.20579824 0.28458256 -0.20256698 0.15966876
0000a0 11 1a dd 3c 3e 45 8a be 1d ce b1 bc 61 88 3c be
       0.026989968 -0.27005953 -0.021704728 -0.184114
0000b0 fc a3 88 3e c5 2a ee 3d a7 33 d8 3d 64 c2 43 be
       0.2668761 0.116292514 0.10556727 -0.19117123
0000c0 d2 13 40 be 44 a9 c5 3c 05 b1 87 3d a1 7f 4a 3e
       -0.18757561 0.024128564 0.06625561 0.19775249
0000d0 e0 6b 5e bd a0 b1 85 be fe c5 1b 3e e9 0e 4e 3d
       -0.054302096 -0.2611208 0.15212247 0.05030719
0000e0 dc 22 8e be 94 08 59 3e e0 e6 1f 3e aa c6 7f 3c
       -0.2776097 0.21194679 0.15615416 0.01561133
0000f0 39 8f 90 3d a2 cb 1c 3e cd 1b 6f be 29 3b bf bd
       0.070585676 0.15312055 -0.23350449 -0.09337456
000100 68 04 05 3e b9 0d f4 bc 77 7b 76 be d2 f6 74 be
       0.12989962 -0.0297917 -0.24070536 -0.2392228
000110 0a e4 86 3e 85 17 2e be 13 cd e9 3d d8 84 35 3e
       0.26345855 -0.1700116 0.11416068 0.17726457
000120 d3 ca 51 be 4c 45 49 3c 49 d3 af 3a aa f8 6e 3e
       -0.20487528 0.012284588 0.0013414408 0.23337045
000130 c9 ee 9c bd ee c6 51 be e5 60 f2 3b 7c af 75 3e
       -0.07662732 -0.20486042 0.0073968046 0.23992723
000140 6e 89 c1 bc 7d 0d 6a 3d 16 b0 24 be ef c0 a3 bd
       -0.023625102 0.05714177 -0.16082796 -0.079957835
000150 a3 97 80 be ee 67 a8 be de 39 1a be fe ff 14 3d
       -0.2511569 -0.32891792 -0.15061137 0.036376946
000160 68 01 62 bd 2d 45 d4 bc fd d4 fe bd 32 dc e4 3d
       -0.055177122 -0.025911892 -0.12442968 0.111748114
000170 9b 59 9b 3e 36 ee ba 3c 20 0c 3b 3e 94 50 f9 3d
       0.303418 0.022818666 0.18266344 0.12173572
000180 f8 63 29 bb a2 88 91 3e a7 02 1a be 47 35 6f be
       -0.002584694 0.28424555 -0.15040074 -0.23360167
000190 7e fa 74 bd 57 c6 80 be 27 25 4b be a0 c0 b5 3b
       -0.0598092 -0.2515132 -0.19838391 0.0055466443
0001a0 00 69 8b be 0f 66 99 be fb d0 08 3e 0e f3 4a 3c
       -0.27228546 -0.29960677 0.1336097 0.01238705
0001b0 d6 b3 46 3e e7 ff 85 3e 51 3d 88 be 07 36 88 3e
       0.1940454 0.261718 -0.2660928 0.2660372
0001c0 51 c0 04 be aa 38 01 3e 32 0e 5b be 5d f4 9e bb
       -0.12963988 0.12619272 -0.21392134 -0.0048509077
0001d0 ce 3e 74 3e 67 74 4e 3e df e5 20 bd af cd 93 be
       0.23852083 0.20161591 -0.039281722 -0.28867862
0001e0 5d e7 92 bc c8 a0 dc 3d c8 e8 ad 3d ce ce 53 be
       -0.017932588 0.10772854 0.08491665 -0.20684358
0001f0 7d 01 21 3e 48 45 4e 3e 3e d4 2e bd db 6f 09 be
       0.15723224 0.20143616 -0.04268288 -0.13421576
000200 3f 2e 74 3e 77 5d 4c 3e 74 4b f2 bd b2 0f 1a be
       0.23845766 0.19957529 -0.11830798 -0.1504505
000210 37 a7 41 be 5d 2d 52 be 20 7e db bd b4 80 32 bc
       -0.18911444 -0.20525117 -0.10717416 -0.010894943
000220 8e 60 52 be a9 0d 3f be 48 e6 47 3e dc 15 23 bd
       -0.20544645 -0.18657555 0.19521439 -0.03981577
000230 88 4e 2a 3e 26 79 fc 3d 64 b2 0c be 03 5d 6f 3d
       0.1663152 0.12327795 -0.13739926 0.058438312
000240 f0 44 b0 3d 9b 78 c3 3d 29 d2 80 3d 18 3e c4 3d
       0.08606899 0.09544488 0.06290085 0.09582156
000250 b5 18 94 bd b1 a7 29 3d d7 8a 1c be 96 7f 2d be
       -0.07231275 0.04141969 -0.15287338 -0.16943201
000260 41 06 9a bd 41 06 88 be aa 69 b6 3d 3c f5 2a bc
       -0.07520724 -0.2656727 0.089068726 -0.010434445
000270 f2 4e 2d 3e bd b3 ae 3e 03 54 b0 bd 69 98 63 3e
       0.16924646 0.34121504 -0.08609774 0.22226109
000280 31 9b 66 be 51 ba 8e 3e 2c 88 36 3e 11 e0 2f be
       -0.22520138 0.27876523 0.17825383 -0.17175318
000290 6c cf 48 3d 68 1c bc ba 80 a5 03 3d ef 28 22 3d
       0.049025938 -0.0014351727 0.032140255 0.03958982
0002a0 28 cc 5c be 97 dd 20 3e 0e 01 82 3e c9 21 54 be
       -0.21562254 0.1570953 0.2539143 -0.20716013
0002b0 f4 92 94 bc 1c db 8f be 7e c8 2c 3e 79 32 78 3e
       -0.018136479 -0.28096855 0.16873357 0.24238004
0002c0 50 28 55 3e a1 fd 6c be ff fb a4 bc f9 32 00 bc
       0.20816159 -0.23143627 -0.020139692 -0.007824653
0002d0 8e 88 21 3e dc a5 20 3e a3 1e bf be 52 81 f8 3d
       0.15774748 0.1568827 -0.3732806 0.12134041
0002e0 46 e9 9c be 4d 30 3b 3e b8 10 45 3d 90 93 1e 3c
       -0.30646724 0.18280144 0.048111647 0.009678736
0002f0 4c f5 02 3e 4f b6 bc bc 37 e4 de bd cc 65 be 3d
       0.12788886 -0.02303615 -0.10883372 0.0929676
000300 46 7c 45 3d cc a7 85 bd f3 9a 3a 3e fd 63 85 be
       0.04821422 -0.06526145 0.18223171 -0.26052848
000310 f1 a2 d5 bd 1c 5c 16 3e f1 73 b1 3d 5f 83 77 bd
       -0.10431469 0.14683574 0.08664692 -0.06042802
000320 e8 d3 7d 3e 96 46 6d 3e c7 37 6c 3e fc 35 8f be
       0.24787867 0.23171458 0.23068152 -0.27970874
000330 cc 5b 3d 3c 59 15 60 3e be 04 63 3e f7 0e 0a be
       0.011557531 0.21883143 0.22169778 -0.13482271
000340 37 9f f2 bc b2 6e 25 bb fc 61 20 3e d4 e3 a4 be
       -0.029616935 -0.0025242982 0.15662378 -0.3220507
000350 1b 4e 78 be db c5 0f 3e 43 ba d6 3d 3c 80 6c 3e
       -0.24248545 0.1404032 0.10484745 0.23095793
000360 df e9 8b be 19 ef f6 3d 10 57 7b be d4 52 4a be
       -0.27326867 0.12057323 -0.2454493 -0.19758159
000370 a9 37 3d be 12 1b 1c 3b a4 67 0f 3d a0 4e a6 3e
       -0.18478264 0.0023819846 0.03501095 0.3248186
000380 7e fe 89 3e 76 49 64 3e b7 4b 46 3e e9 cb 2c be
       0.26951975 0.22293648 0.1936482 -0.1687466
000390 60 e2 19 3e f6 9f 6f 3e 4b bb 4a bc 46 cd 38 bd
       0.15027761 0.23400864 -0.012373756 -0.04511764
0003a0 49 95 91 3d 9b a4 32 3e 8e 35 9f bd 99 19 70 3e
       0.07108552 0.17445605 -0.077738866 0.23447265
0003b0 6e 9f 8c 3c 04 8e ae 3d 61 91 42 be a0 19 b3 bd
       0.017165866 0.08523181 -0.1900077 -0.08745122
0003c0 73 ec 2d be 78 68 1b bd 25 99 79 be 08 e9 12 3e
       -0.1698473 -0.037941426 -0.24374826 0.14346707
0003d0 0f 00 9a 3d 0a bf 40 be 02 d9 bb bd af 83 e1 3c
       0.075195424 -0.18822876 -0.0917225 0.027528612
0003e0 94 de a2 3e 23 72 39 3d 1c 52 74 be 3e 7d 91 be
       0.3181044 0.045274865 -0.23859447 -0.28415865
0003f0 6c 5b 73 3d 74 82 6c be 1e d1 6f bb e6 00 fc bc
       0.05941336 -0.23096639 -0.003659315 -0.030762147

weight f4 [48]
000000 29 4e 6d 3f 8b ec 88 3f 95 ab 7c 3f 0a 11 7b 3f
       0.9269739 1.0697187 0.98699313 0.98072875
000010 fd d1 84 3f 8b c9 70 3f 87 d7 85 3f 4c 4d 6b 3f
       1.0376583 0.9405753 1.0456399 0.9191482
000020 c8 97 8c 3f 6e fc 80 3f b9 6d 6c 3f 77 06 60 3f
       1.098382 1.0077035 0.92354923 0.87509865
000030 78 c8 82 3f bf cd 75 3f 0f a6 76 3f e6 95 73 3f
       1.0217428 0.9601707 0.96347135 0.951506
000040 8a 39 8d 3f ad 8d 79 3f 25 86 81 3f b1 3a 7f 3f
       1.1033185 0.97481805 1.0119063 0.9969893
000050 41 c4 7c 3f 3c a4 67 3f bd 33 85 3f 09 0d 7e 3f
       0.9873696 0.90484977 1.0406414 0.9923864
000060 30 67 7f 3f 01 10 6c 3f f1 7f 80 3f 99 27 7f 3f
       0.99766827 0.9221192 1.0039045 0.99669796
000070 3a be 7f 3f 02 8e 76 3f 62 12 75 3f ad dc 8d 3f
       0.9989964 0.96310437 0.95731175 1.108297
000080 af 73 93 3f f1 6e 7d 3f b4 c8 74 3f 02 dc 77 3f
       1.1519679 0.9899741 0.9561875 0.9682008
000090 ae be 77 3f 8d be 82 3f 0e 1b 7e 3f 7e ef 76 3f
       0.9677533 1.0214401 0.9926003 0.96459186
0000a0 13 a6 7f 3f 34 44 79 3f 2b d9 60 3f 2b d8 78 3f
       0.99862784 0.97369695 0.8783137 0.97204846
0000b0 7a 3f 75 3f 53 03 7a 3f fe 0b 82 3f 26 11 6e 3f
       0.9579998 0.9766132 1.015991 0.92994916

bias f4 [48]
000000 c6 e3 5c bd fc 84 8d bd f2 b1 53 38 9f f1 c6 bc
       -0.05392816 -0.069101304 5.0472045e-05 -0.024285136
000010 bf 87 7f bb d8 8e 64 3d 18 b6 3c 3d 72 1c af 3d
       -0.0038990823 0.05580029 0.046072096 0.085503474
000020 c0 ba d3 3d 0d 76 05 bd 7b 9a bb 3d 25 bd b8 3d
       0.10338354 -0.032583285 0.09160324 0.090204515
000030 16 d5 48 3d f5 da 58 bd 4c f5 7b bd cb 5d 62 3d
       0.04903134 -0.05294319 -0.06151323 0.05526523
000040 1d 83 d5 3b bb 0b ca bc 99 ed 76 3d 7d de 62 3d
       0.006515874 -0.024663797 0.060285185 0.055387963
000050 d5 5d e7 3c 54 9b af 3d d2 e8 ae 3c 59 76 72 3d
       0.028242985 0.08574548 0.021351252 0.059194896
000060 0f c3 33 3c 4b b0 b5 bd 8f a2 ec 3c 61 25 db 3c
       0.010971799 -0.08871516 0.028886108 0.026751222
000070 45 f4 96 3c 0d 3f 5d bd fa 15 4d bd d1 91 fb 3d
       0.018427024 -0.054015208 -0.050069787 0.12283672
000080 71 45 13 bb 44 f9 a7 3c b6 c6 1a bc e5 16 4c bd
       -0.002247181 0.020504601 -0.00944679 -0.04982652
000090 65 73 83 3c 2a e5 16 bd 71 6e 9c 3c 0b 1d 01 bd
       0.016046235 -0.03683964 0.019095631 -0.03152184
0000a0 6d 7b 2d bd 1b c8 46 3d 7e a6 ad 3d e4 7d 09 3d
       -0.042354036 0.04853068 0.084790215 0.033567324
0000b0 d0 13 38 3d f7 8f bb bc fe 54 ae 3d 5e 45 b6 bd
       0.04494077 -0.022895796 0.08512305 -0.088999495

running_mean f4 [48]
000000 47 73 cc ba 7e a9 02 3a b8 6b e4 3a 83 c8 85 bb
       -0.001559832 0.0004984363 0.0017427122 -0.0040827408
000010 3f 68 93 ba ff 9e 94 b8 7a 1e 81 3b 08 7f f1 3a
       -0.0011246278 -7.086805e-05 0.0039404007 0.0018424699
000020 ac 34 32 3b cd 5d 85 3b 87 49 98 bb 93 56 23 3b
       0.002719204 0.00407002 -0.004647437 0.0024923428
000030 30 02 46 bb 83 09 78 ba 0e 31 73 3b cd 93 7a b9
       -0.0030213706 -0.00094618666 0.0037108096 -0.00023896918
000040 57 b4 55 3b d0 f4 06 3b c2 92 42 3b f5 70 cc 3a
       0.0032608712 0.0020592697 0.0029689525 0.0015597629
000050 11 75 97 3b 62 d8 40 3b af b1 57 3a f4 e8 bc 3a
       0.0046221097 0.002942585 0.0008228076 0.0014412687
000060 32 5c 84 ba f5 21 1c bb 52 96 a9 b9 29 65 6f 39
       -0.0010098277 -0.002382395 -0.0003234619 0.00022830501
000070 78 fe 69 bb 89 72 05 3b 7a dd 5e 3a 2f 32 25 ba
       -0.0035704654 0.0020362458 0.00085016305 -0.00063017284
000080 36 9d 36 39 e7 82 a8 ba 57 4b 06 bb 80 58 3b 3b
       0.00017415438 -0.0012856395 -0.0020491683 0.0028586686
000090 8d 30 c2 ba 8e 46 00 bb 3a 16 36 bb f8 48 4c 3b
       -0.0014815495 -0.0019573304 -0.0027784244 0.0031171422
0000a0 0a 18 65 3b 80 86 72 ba 9a 6b 9f ba be 11 9f 3a
       0.0034956955 -0.00092516094 -0.0012162805 0.0012136025
0000b0 68 74 e3 39 27 80 ba bb dc 8d aa 3b 69 72 3f 3a
       0.00043383543 -0.0056915465 0.0052048992 0.000730312

running_var f4 [48]
000000 e6 c3 25 3f 01 dc b7 3e 8b 47 71 3e 4e 4c af 3e
       0.6475204 0.35910037 0.23562448 0.34237903
000010 d2 5a 93 3e d2 0a 49 3f 33 88 de 3e c3 70 c5 3e
       0.28780228 0.78532135 0.43463287 0.38562593
000020 01 1f 86 3e 04 58 9d 3e e6 58 e7 3e 29 af bc 3e
       0.2619553 0.30731213 0.45185012 0.36852387
000030 3b 34 71 3e 12 e7 f8 3e 3e c4 02 3e 10 52 af 3e
       0.2355508 0.48613793 0.12770173 0.34242296
000040 44 43 d7 3e 21 57 80 3f 6d 8b 1f 3f e3 cc 20 3f
       0.42043507 1.002659 0.6232212 0.6281263
000050 58 1f c4 3e d8 b8 fe 3e 66 45 9c 3e 24 27 51 3e
       0.38305163 0.497504 0.30521697 0.20425087
000060 f8 ea 4b 3f fb 43 00 3f 36 5e 39 40 bc 41 34 3f
       0.7965541 0.5010373 2.8963752 0.704128
000070 c3 ca cc 3e 15 ab d2 3e 51 2c 23 3f f1 4e d4 3e
       0.39998445 0.4114615 0.63739496 0.41466478
000080 7d 56 4c 3f a8 e7 1a 3f d4 3f 89 3f 75 d4 97 3f
       0.7981947 0.6050973 1.0722604 1.1861712
000090 99 b8 9e 3e 70 15 1f 3f 51 61 6f 3f 6a ea 22 3f
       0.31000212 0.62142086 0.9350787 0.6363894
0000a0 2f 4d da 3e ff b4 0f 3e b8 b9 d6 3f 96 f2 09 3f
       0.4263701 0.14033888 1.6775427 0.5388578
0000b0 2f 06 ed 3e 2c 10 3e 3e 66 07 1a 3f 3c 94 8d 3e
       0.4629378 0.18560857 0.6016754 0.27652156

weight f4 [48, 1, 3, 3]
000000 51 28 29 3c cd 34 2a 3d 84 30 9f 3d db 22 16 bd
       0.010324554 0.04155426 0.077729255 -0.036654335
000010 86 29 87 3b ae 63 72 3c 98 43 ba 3d f4 12 99 3d
       0.004124823 0.014794273 0.09094924 0.07474318
000020 18 eb f5 bd 86 9f 6e 3d 22 0f 5f 3d d4 cf 02 3e
       -0.12007731 0.058257602 0.05445779 0.12774593
000030 ea 7c e3 3d 49 ca 0e 3e 9b 2c fb 3d 45 10 84 bc
       0.1110781 0.13944353 0.12264367 -0.01612104
000040 0c fa e9 3b 38 a1 61 bd 1a 3b db bb 80 96 74 3d
       0.0071404036 -0.05508539 -0.006690395 0.05971384
000050 34 fd c4 bd 37 d0 03 be a3 7c 99 bd bc 72 2d bd
       -0.09618607 -0.12872396 -0.07494476 -0.042345747
000060 af fb a7 bd 9d 7e af bc c8 87 48 3d 20 0b a6 bd
       -0.08202302 -0.021422679 0.048957616 -0.08107591
000070 44 2a 45 3d 76 de 47 bd 14 5c 83 bb c8 5d 88 3d
       0.04813601 -0.04879614 -0.0040087793 0.06658512
000080 41 28 20 bc c1 2b d4 3d 51 bb c9 3c 83 78 9c bd
       -0.009775222 0.10359908 0.024625452 -0.07640173
000090 be 6c ae bd 14 55 24 3d 12 88 14 bd df 98 34 ba
       -0.08516835 0.0401202 -0.03626258 -0.00068892346
0000a0 90 49 ab bc 52 45 84 bd 3c 3c 01 be a6 09 be bd
       -0.0209091 -0.06458534 -0.12620634 -0.09279184
0000b0 d7 df d9 bd 29 2c 5b bc fd 21 87 3b d6 f5 21 3d
       -0.10638397 -0.013377228 0.0041239248 0.039541088
0000c0 35 77 7b 3d be 49 57 3c 0a a5 08 3e f5 4d be 3d
       0.06139298 0.01314014 0.13344207 0.09292213
0000d0 95 98 8f 3c 72 97 45 3c ac ec 83 3d c3 86 c9 3c
       0.017528811 0.012060033 0.06441626 0.024600392
0000e0 c0 16 4d 3d 8a 85 05 3b b9 11 e1 3c 03 cb d7 3c
       0.050070524 0.0020373785 0.027474271 0.02634192
0000f0 8d 44 e2 3d e4 df 0f bd 75 ca 05 3d 96 a2 86 bd
       0.11048231 -0.035125628 0.03266378 -0.065739796
000100 20 bc 5a ba 52 57 48 3c 23 4f 54 be 62 6b 62 39
       -0.0008344073 0.01222785 -0.20733313 0.00021593043
000110 9c 92 f5 3d 6a b4 33 bd 83 15 35 3d 48 ed 7c bd
       0.11990854 -0.043873228 0.04420997 -0.061749727
000120 43 ac 8c 3d c0 f1 71 bd cd 4a d2 3d b1 2a f4 bd
       0.06868794 -0.05906844 0.10268173 -0.11922205
000130 16 d7 c5 3d 29 ed 0f bd ae 19 db bd 09 4d dd bd
       0.09660165 -0.035138283 -0.106982574 -0.10805709
000140 a4 7a 8e 3c 2a 3d 9e 3d d1 6f 43 3d bd da ff 3b
       0.017392464 0.0772651 0.04771406 0.007808058
000150 e8 0f 9d bd af f2 dc bd c2 14 43 3d b1 91 cf 3b
       -0.076690495 -0.10788476 0.047627218 0.0063345064
000160 f6 3f ce 3d 1c 25 b6 bd 49 b8 48 bd c4 9c 99 3d
       0.10070793 -0.08893797 -0.049003873 0.07500604
000170 64 be b2 3d f2 bf 07 3e 2b 42 9d bc e7 af c6 bd
       0.087277204 0.13256815 -0.01919659 -0.097015195
000180 50 2f 32 bc bb bd d6 bc 48 61 1f be 18 d7 87 bd
       -0.010875538 -0.026213517 -0.15564454 -0.06632823
000190 b3 2f d0 bd c4 fe 82 3d eb 15 ad 38 d1 8d eb 3d
       -0.10165348 0.06396249 8.2533654e-05 0.11501659
0001a0 af ee 04 3e 1b d7 fa 3c 33 10 dc 3b 24 fc 9d 3d
       0.12981676 0.030620148 0.0067157983 0.07714108
0001b0 d4 db aa 3d 7a aa 33 3d be f2 c0 bd 17 a2 a4 bd
       0.0834271 0.04386375 -0.094212994 -0.08038729
0001c0 28 63 d8 bd 81 9f 6a 3d ab 38 48 bd f2 31 8a 3d
       -0.105657876 0.05728102 -0.048882168 0.067478076
0001d0 9a 5d 6f bd 4f d8 30 bc 71 ef b6 3d 8b 18 ae 3d
       -0.058438875 -0.0107937595 0.089323886 0.08500775
0001e0 e9 22 a7 3d 34 6f 98 3c 89 0b 5d bc 79 51 92 bd
       0.081609555 0.018607713 -0.01349152 -0.07144446
0001f0 f2 7d 10 bd cf 12 20 3d c2 44 c0 3c d3 49 db bd
       -0.03527636 0.039080437 0.023470286 -0.1070744
000200 ed f4 0c 3e 8c 40 81 bd 03 01 74 3d 72 a6 99 3d
       0.13765307 -0.063111395 0.059571277 0.0750245
000210 ce 0c 8c bd eb 40 88 bd 0c 98 b4 38 b8 5b d0 bb
       -0.0683838 -0.06653007 8.61139e-05 -0.00635859
000220 93 59 70 3d 4a e5 43 3d e3 ac f9 3c bb 11 2e bd
       0.058679175 0.04782609 0.030477947 -0.042497378
000230 cd e3 57 bc 98 a1 86 3d ba b6 86 3c af 4d 0e 3e
       -0.0131768705 0.0657379 0.016444553 0.13896821
000240 6d 01 05 bd b9 4f 8b 3c 0f 6b 6f 3d fd 3d 0f bd
       -0.032472063 0.017005788 0.05845171 -0.034971226
000250 17 0b 96 bd 99 7f ef 3d 6d 6b 25 3d 96 c0 25 bd
       -0.07326334 0.11694259 0.040385652 -0.040466867
000260 ce b7 5f 3d db 7c 27 3d 22 aa 01 3c 05 57 d7 3b
       0.05461865 0.040890556 0.007914098 0.006571653
000270 ff d9 52 bc b8 ac fc bd 78 6e d0 bd 87 a9 99 3d
       -0.012869357 -0.12337631 -0.1017732 0.07503038
000280 d0 25 91 bd ac 1b dc 3d 70 fc 81 3c ba 07 c7 bc
       -0.0708729 0.107474655 0.015867442 -0.024295676
000290 e6 0a 5c 3d b4 58 55 3d a5 64 28 3d 49 ab aa bd
       0.05372133 0.052086547 0.041111607 -0.08333451
0002a0 73 5a 97 3d 0d e9 27 3d e9 1e 1d 3e 43 20 00 bd
       0.07390299 0.04099374 0.15343823 -0.031280767
0002b0 8b f9 39 3c 29 12 f6 bd 6c ad 26 3c db 8b 8c 3d
       0.011351 -0.120151825 0.010173183 0.06862613
0002c0 14 af 33 bd 1b 47 ee 3d 35 df fd bd fa 72 19 3d
       -0.04386814 0.11634656 -0.12396089 0.037463166
0002d0 ef 8e a7 3d 5e 6f ad 3b 83 97 07 be f6 95 81 bc
       0.08181559 0.005292817 -0.13241391 -0.015818577
0002e0 46 a5 a8 3b 04 e5 a5 3c 15 04 73 bd fd 97 ae bd
       0.0051466553 0.020250805 -0.059330065 -0.08525083
0002f0 54 2a 9a 3d a6 00 e0 bd ff e3 38 3d 17 d1 08 3d
       0.07527605 -0.10937624 0.04513931 0.03340253
000300 5b 8e 80 3d 6a 6f a4 bd 1a ef 81 3d 0e f6 d0 3d
       0.06277152 -0.08029063 0.06344433 0.10203181
000310 bc 87 a5 bb 2a 3b 36 be 16 e7 a4 3d 6d f3 00 be
       -0.005051581 -0.17796007 0.08051889 -0.1259286
000320 31 16 3e 3d ce 2e d9 3c b3 a4 9a bd af 32 9d bd
       0.046407882 0.026511576 -0.07550945 -0.07675683
000330 66 74 9d 3c 57 03 1a 3d cc 4f e9 bd 38 fe b2 3c
       0.019220542 0.03760084 -0.11392173 0.021849737
000340 63 bf d8 3c ac 93 2b bd 93 2b fb bc ed d9 fe 3d
       0.026458448 -0.041888878 -0.030660426 0.1244391
000350 3f df 16 3e 2f 0b 34 bc ce 2b 87 3d 2a 66 c2 3d
       0.14733599 -0.0109889945 0.06600152 0.094921425
000360 60 51 c2 bd 7d 25 e3 3c 0f 60 16 3b 22 8c b8 bd
       -0.09488177 0.027727837 0.002294544 -0.09011103
000370 f9 0d b3 bd c7 13 58 3d dc ad b5 bd a8 57 3d 3d
       -0.087428994 0.052753236 -0.08871052 0.046226174
000380 50 dc ec 3d d9 09 a2 bd 64 9b ee 3c 40 4b 3d 3b
       0.11565459 -0.079120345 0.02912683 0.0028883964
000390 63 d7 b7 3c d4 5b 82 3d be a1 0d 3e f9 0c a2 3c
       0.022441572 0.06365171 0.13831231 0.019781576
0003a0 ee cd 61 bb 5d 2b 00 3d b6 65 da bd 0f 70 ce bd
       -0.003445502 0.031291354 -0.10663931 -0.10079967
0003b0 d5 2f d6 bc 4d d8 a3 3d ac 3e a0 3d 46 5c bb 3d
       -0.026145855 0.080002405 0.07824454 0.09148459
0003c0 ef 18 93 bd 46 b3 89 3d f1 0d 02 3c 03 5f 2b ba
       -0.0718249 0.06723647 0.007937894 -0.000653729
0003d0 8e fd b1 bd 03 4b 6f 3d 38 38 d2 bd 4c 3c 72 3c
       -0.0869094 0.058421146 -0.10264629 0.014784884
0003e0 b4 3b 0b 3e da 0e e7 bc 0c 69 00 3c 14 48 14 3d
       0.13596994 -0.028205324 0.007837545 0.03620155
0003f0 8d 4e 09 3d a3 f0 9a bb 35 7a b9 3d 2c 35 8b 3d
       0.033522177 -0.004728393 0.09056512 0.06797251

weight f4 [48]
000000 be 05 78 3f 74 bf 7b 3f 82 76 80 3f 04 90 7c 3f
       0.9688376 0.9833901 1.0036166 0.9865725
000010 5e 01 87 3f a2 1e 77 3f e7 25 73 3f cc 80 81 3f
       1.0547292 0.96531117 0.9497971 1.0117431
000020 e8 bd 78 3f 74 0d 81 3f 26 6e 81 3f fc 2d 7a 3f
       0.97164774 1.008223 1.011174 0.97726417
000030 58 e7 7a 3f 33 c3 81 3f 39 e7 7a 3f 1e 0a 88 3f
       0.9800925 1.0137695 0.9800907 1.0628088
000040 4b 9e 86 3f 2b b7 78 3f c5 c4 83 3f f6 83 74 3f
       1.0517057 0.9715449 1.0294424 0.95513856
000050 b8 7b 7d 3f 75 bd 86 3f 7e 15 82 3f fc 08 82 3f
       0.99016905 1.0526568 1.0162809 1.0158992
000060 82 f7 78 3f 08 31 77 3f 87 a6 83 3f c4 8b 85 3f
       0.97252667 0.9655919 1.0285195 1.0433278
000070 20 60 83 3f 18 8d 86 3f 34 4b 73 3f f9 e1 90 3f
       1.026371 1.0511808 0.95036626 1.1318961
000080 65 d4 7b 3f 09 4d 85 3f 52 3a 73 3f fa cc 7f 3f
       0.98370963 1.0414134 0.95010865 0.99922144
000090 38 3a 89 3f 7a 42 80 3f 20 88 81 3f ff 27 79 3f
       1.0720892 1.0020287 1.0119667 0.97326654
0000a0 f2 92 85 3f ac 6b 7b 3f e6 56 7e 3f 48 11 7f 3f
       1.0435469 0.9821117 0.99351346 0.99635744
0000b0 eb ca 85 3f 68 e5 83 3f e9 3e 79 3f 9d c3 8a 3f
       1.0452551 1.0304384 0.9736162 1.0840946

bias f4 [48]
000000 65 92 d5 bc 84 53 a0 bd 1e 13 7c 3d d3 c3 03 bd
       -0.026070783 -0.07828429 0.06154167 -0.032169174
000010 ed 93 88 3d 38 f1 45 bd e4 e0 17 3c 52 06 aa bc
       0.066688396 -0.048325747 0.009269927 -0.020754967
000020 18 bd 62 bd f6 4b 9a bb c2 92 50 3c aa 71 3a 3c
       -0.055356115 -0.0047087623 0.012730302 0.011379639
000030 c3 3e 85 bd ba d1 da bc 90 b3 d7 3b da 80 86 3d
       -0.065061115 -0.026711334 0.006582685 0.06567545
000040 a9 15 e1 bc 23 ad c2 bc 84 fa 49 3d b8 58 38 bd
       -0.027476149 -0.023764199 0.049311176 -0.045006484
000050 46 24 cc bb 96 9d 7b bd a4 93 64 bc a6 c2 04 3e
       -0.00622991 -0.061429583 -0.013951216 0.12964877
000060 80 7d 40 bd f7 a5 83 bd f7 ac b9 3c 4d 89 d0 bd
       -0.046994686 -0.0642814 0.022665484 -0.10182438
000070 65 1d 24 3d 46 ea d5 3c b3 c2 bb bc 08 14 97 bc
       0.040067095 0.026112687 -0.022919988 -0.018442169
000080 b9 ed 36 bd e2 19 3a 3d f4 18 b8 bc a4 99 4d 3d
       -0.044660304 0.04543484 -0.022472836 0.05019535
000090 7c 18 12 3d cf 4d 73 3c 4d a1 da 3c 62 b0 9c bd
       0.03566788 0.014850094 0.026688242 -0.0765083
0000a0 44 f8 f5 3b b1 27 ba bc 4d 15 27 3d 0c 36 88 bb
       0.007506402 -0.022724004 0.0407918 -0.0041568335
0000b0 1b 83 ae 3c a0 78 e8 bc cf 6b 4a 3d 1b 86 f5 bb
       0.02130275 -0.028377831 0.04941922 -0.0074927933
