trained_model/BiSegNet(ReagentV3)_step.pt (torch, 396437 bytes, 152 tensors)

weight f4 [8, 1, 3, 3]
0	0xbb0c81c6	-0.0021439656
1	0xbe5d20ae	-0.21594498
2	0xbeca03da	-0.39456064
3	0x3e29e606	0.16591653
4	0x3dd1ef72	0.10250749
5	0xbea1188f	-0.3146405
6	0xbe6d6cad	-0.23185988
7	0xbde7d350	-0.113196015
8	0x3e232e2a	0.15935579
9	0x3da24ee1	0.07925201
10	0xbdc7425b	-0.09729453
11	0xbe96a768	-0.29424596
12	0xbe0b0a21	-0.13578083
13	0x3c3fedd8	0.011714421
14	0x3e16cc44	0.14726359
15	0x3e938ba3	0.28817472
16	0x3e3caa29	0.18424286
17	0x3db8a7a4	0.0901635
18	0x3e107147	0.14105712
19	0x3e2d05dc	0.16896766
20	0x3ed6230b	0.4182361
21	0x3aa77a89	0.0012777607
22	0x3d6c7c7a	0.057735898
23	0xbc8b9c9b	-0.017042449
24	0xbc55c1e1	-0.013046713
25	0x3b24c6f2	0.0025142995
26	0x3e037fb5	0.12841685
27	0xbcf2d3a7	-0.02964194
28	0xbe2c0405	-0.16798408
29	0x3e7972b5	0.24360164
30	0x3d4742ea	0.0486478
31	0x3d9a931f	0.07547592
32	0x3e3fdc1a	0.18736306
33	0x3e895680	0.26823807
34	0x3de432f2	0.111425295
35	0x3ec51d00	0.38498688
36	0x3e2d0dd4	0.16899806
37	0x3e87c768	0.26519322
38	0xbce8b67b	-0.028407326
39	0xbe296c77	-0.16545282
40	0xbd83ebfd	-0.064414956
41	0xbc2f6b39	-0.010706716
42	0x3eb03009	0.34411648
43	0x3e1593ff	0.14607237
44	0x3c371301	0.0111739645
45	0x3d0b24d1	0.033970658
46	0x3dfa8670	0.12232673
47	0x3d9bc1c0	0.07605314
48	0xbe0e18bd	-0.13876624
49	0xbd21ae1b	-0.03947268
50	0x3e32777c	0.17428392
51	0x3e986584	0.2976495
52	0x3e484b90	0.19560075
53	0x3e129b7f	0.1431713
54	0xbe768d75	-0.24077399
55	0x3cd11e4c	0.025527142
56	0xbebe1d56	-0.37131757
57	0xbe674d8d	-0.22588177
58	0xbc787359	-0.01516422
59	0xbe68d5ef	-0.22737859
60	0xbcad5dea	-0.021162946
61	0x3e038f76	0.12847695
62	0xbd8d7137	-0.0690636
63	0xbe77570a	-0.24154297
64	0xbd7c4ee9	-0.061598692
65	0xbd54580b	-0.051841777
66	0x3d0ae9ad	0.033914257
67	0x3e2c3027	0.16815244
68	0x3e039785	0.12850769
69	0xbec3d1f4	-0.3824612
70	0xbe6f3512	-0.23360088
71	0xbe8d0419	-0.2754219

weight f4 [8]
0	0x3f8760c6	1.0576408
1	0x3f7332e0	0.94999504
2	0x3f79e485	0.9761432
3	0x3f8124c8	1.008935
4	0x3f83cc8a	1.0296795
5	0x3f804246	1.0020225
6	0x3f815c94	1.0106378
7	0x3f77a438	0.9673495

bias f4 [8]
0	0x3c744756	0.014909586
1	0x3d9fe6db	0.07807704
2	0x3d91c216	0.07117097
3	0xbbb87230	-0.0056288466
4	0x3db77013	0.08956923
5	0x3d0a953b	0.033833724
6	0xbcc2a714	-0.02376131
7	0x3d2b4882	0.041817196

running_mean f4 [8]
0	0xc2603fbb	-56.062237
1	0x4195b89d	18.715143
2	0x426c47e4	59.070206
3	0x42953cf8	74.61908
4	0x423102a4	44.25258
5	0x42653d6e	57.30999
6	0xc28613e5	-67.03886
7	0xc273f82d	-60.99236

running_var f4 [8]
0	0x44d19874	1676.7642
1	0x434672e3	198.44878
2	0x44e8d7f5	1862.7487
3	0x4539a2a2	2970.1646
4	0x448266bc	1043.2104
5	0x44dab733	1749.725
6	0x4515e6f6	2398.435
7	0x44f80084	1984.0161

weight f4 [24, 8, 1, 1]
0	0xbddbbd31	-0.10729445
1	0xbed37e83	-0.41307458
2	0xbe447ee7	-0.19189034
3	0x3ebdc73f	0.37066075
4	0x3dae886e	0.08522116
5	0x3d8de130	0.06927717
6	0xbec7be81	-0.3901253
7	0x3e4d2ff6	0.20037827
8	0x3e9168cd	0.2840027
9	0xbdbff313	-0.093725346
10	0xbe6a1cf0	-0.22862601
11	0xbe02d0cc	-0.12774962
12	0xbec50d04	-0.38486493
13	0xbe83fde7	-0.2577965
14	0x3d97cce8	0.0741213
15	0x3de6d676	0.11271374
16	0xbd519aea	-0.05117313
17	0xbe49dfc0	-0.1971426
18	0xbe19ec80	-0.15031624
19	0x3d70cf70	0.058791578
20	0xbd4abe8c	-0.049498126
21	0x3e5fd1cb	0.21857373
22	0x3ef0090d	0.46881905
23	0x3e891229	0.26771668
24	0x3ebfc1a4	0.37452424
25	0x3dcd1091	0.100129254
26	0x3e48e5f6	0.19618973
27	0xbe994093	-0.2993208
28	0xbec6c1f6	-0.38819855
29	0x3e246c3d	0.16056915
30	0x3de1c33e	0.110235676
31	0x3ea5c7ed	0.32379094
32	0x3ccda29f	0.025101958
33	0xbdd3c573	-0.10340395
34	0x3ebf2111	0.37329915
35	0xbd3647b2	-0.044501968
36	0x3e26eb1b	0.16300623
37	0x3d897ad7	0.06712883
38	0xbeab3459	-0.33438376
39	0x3e62f456	0.2216352
40	0x3e48363e	0.19551942
41	0x3df3a773	0.11897173
42	0x3ccbf632	0.024897669
43	0xbe81e827	-0.2537243
44	0xbe57a557	-0.21059166
45	0xbe3b8208	-0.18311322
46	0xbdf11293	-0.11771121
47	0x3d2b66eb	0.041846197
48	0xbe896979	-0.26838282
49	0xbe10b4c2	-0.14131454
50	0xbe7882c6	-0.24268636
51	0xbe38987f	-0.18026923
52	0x3e25c225	0.16187342
53	0x3e5c38d0	0.21506047
54	0xbe475e73	-0.19469623
55	0xbe61a901	-0.22037126
56	0x3ebd1738	0.36931777
57	0x3cf9fd9e	0.030516442
58	0xbe71f74f	-0.23629497
59	0x3ec713fe	0.3888244
60	0x3e4f6c14	0.20256072
61	0xbeec0cb9	-0.46103457
62	0x3e37d797	0.17953335
63	0x3f4308c6	0.7618526
64	0x3ee22e66	0.44176024
65	0xbe10e1c0	-0.14148617
66	0x3e74d8d6	0.23910841
67	0x3df5dffe	0.12005614
68	0x3cc277db	0.023738792
69	0x3edbd2cc	0.42934263
70	0x3d5fc288	0.05462888
71	0x3dbbb31e	0.09165023
72	0xbef10f04	-0.4708177
73	0x3c55ef74	0.013057578
74	0x3ef378ce	0.47553104
75	0x3e73b291	0.23798586
76	0xbe1e4f55	-0.1545995
77	0xbe6e8b64	-0.23295361
78	0x3e9fd766	0.31219023
79	0xbe9c5d1d	-0.3053979
80	0xbecf7570	-0.40519285
81	0xbef05ce7	-0.4694588
82	0xbe09d787	-0.13461123
83	0x3dd45421	0.10367609
84	0xbee566f6	-0.44805115
85	0x3ed722d2	0.42018753
86	0xbc1b15d4	-0.009465653
87	0xbe65a25d	-0.22425218
88	0xbdeb748a	-0.114968374
89	0xbdd02488	-0.10163218
90	0x3dd2b022	0.10287501
91	0x3e8c0fa6	0.2735569
92	0x3e6d3667	0.23165284
93	0x3db8fe80	0.09032917
94	0xbeb09c5a	-0.34494287
95	0xbe6feea9	-0.23430885
96	0xbe0b7296	-0.1361793
97	0x3ca1f28e	0.01976898
98	0xbe00c83d	-0.12576385
99	0x3eb2bcf7	0.34909794
100	0x3edc5bf0	0.43038893
101	0xbd87be3b	-0.066280805
102	0x3d8c4a71	0.06850136
103	0xbe41500c	-0.18878192
104	0xbdec431f	-0.1153624
105	0x3eac8a99	0.33699492
106	0xbde043d2	-0.10950436
107	0x3eaa1141	0.3321629
108	0xbe3b62e1	-0.18299438
109	0xbe523663	-0.2052856
110	0xbe7dede9	-0.24797787
111	0x3d2fcd9e	0.0429207
112	0x3c4780ae	0.012176676
113	0x3c91fcc6	0.017820727
114	0xbe2dc569	-0.16969837
115	0xbe66c6c4	-0.2253676
116	0xbc5861ca	-0.0132069085
117	0xbd969e08	-0.07354361
118	0x3de01283	0.10941031
119	0x3ef989cb	0.4873794
120	0x3e9e8257	0.30958816
121	0x3e094651	0.1340573
122	0xbeaabd6d	-0.33347645
123	0x3e1f7050	0.15570188
124	0xbe87c8dd	-0.26520434
125	0x3ea54b62	0.32284075
126	0x3e4302f0	0.1904409
127	0xbe669582	-0.2251797
128	0x3ec67769	0.38762978
129	0xbdaa7680	-0.08323383
130	0xbeecb63d	-0.46232787
131	0xbe722244	-0.23645884
132	0xbe7ef9e4	-0.24900013
133	0xbf4a1d37	-0.7895083
134	0xbe543662	-0.2072387
135	0xbdea6169	-0.11444361
136	0x3dce715b	0.100802146
137	0xbe8fd7fc	-0.2809447
138	0x3e57ff59	0.21093501
139	0x3ebd1791	0.36932042
140	0xbe82858f	-0.25492522
141	0x3e5ecd9b	0.2175812
142	0x3da64243	0.08118107
143	0xbe46b5ec	-0.19405335
144	0xbe6564e5	-0.2240177
145	0xbec83880	-0.39105606
146	0xbee757b6	-0.45184106
147	0x3e162177	0.14661203
148	0xbe5f3da9	-0.21800865
149	0xbcd093c7	-0.02546109
150	0x3e8b4756	0.27202863
151	0xbedecd7d	-0.4351615
152	0xbe2a7367	-0.16645585
153	0x3e92ebd1	0.2869554
154	0x3e907d7e	0.28220743
155	0xbee25ba8	-0.44210553
156	0xbe326daf	-0.17424653
157	0xbeb85e8f	-0.36009642
158	0xbdd84203	-0.10559466
159	0x3e437fa7	0.19091664
160	0x3e8eca1b	0.2788857
161	0x3e8f6ccc	0.28012693
162	0xbed77dc0	-0.42088127
163	0x3e9aecc0	0.3025875
164	0xbe73ec7c	-0.2382068
165	0xbe6cae85	-0.23113449
166	0x3e0aa6a2	0.13540128
167	0x3e07a565	0.13246687
168	0xbed2f218	-0.41200328
169	0xbac7fefc	-0.0015258486
170	0xbe3aacd9	-0.18229999
171	0x3e70351e	0.23457763
172	0x3e7e0545	0.24806698
173	0x3e84e243	0.25953874
174	0x3e612ece	0.21990511
175	0xbe3abd52	-0.18236282
176	0xbe3089e2	-0.17240098
177	0xbdaad331	-0.08341063
178	0xbe4f28e3	-0.20230441
179	0xbbda40c2	-0.0066605518
180	0xbedb03ca	-0.42776328
181	0x3eadb777	0.33929035
182	0xbe830441	-0.25589183
183	0x3e34daa4	0.1766153
184	0x3e2d1a1a	0.16904488
185	0x3e7d1e9c	0.24718708
186	0xbeecef2f	-0.46276233
187	0x3ec8b99d	0.39204112
188	0xbd97cb51	-0.074118264
189	0xbeda734e	-0.42666095
190	0xbcdd9b8d	-0.027051711
191	0x3d16bada	0.03679929

weight f4 [24]
0	0x3fab2113	1.3369468
1	0x3f6dad14	0.9284222
2	0x3f8fca1e	1.1233556
3	0x3f83406a	1.0254033
4	0x3f809dfb	1.0048212
5	0x3f3f3bd2	0.74700654
6	0x3f6fce73	0.9367439
7	0x3f84c226	1.0371749
8	0x3f7a0653	0.976659
9	0x3f949ffa	1.1611321
10	0x3f748a0a	0.9552313
11	0x3f8d36c3	1.1032337
12	0x3fa96dcb	1.3236631
13	0x3f766dc3	0.96261233
14	0x3fa0ad33	1.2552856
15	0x3f3ec6b8	0.7452197
16	0x3f3623c1	0.71148306
17	0x3f682c34	0.9069245
18	0x3f30473b	0.6885869
19	0x3f7af5ee	0.9803151
20	0x3f89aa05	1.0755011
21	0x3f64a3c1	0.8931237
22	0x3f7f4922	0.99720967
23	0x3f51687f	0.81800073

bias f4 [24]
0	0x3e05bfa0	0.1306138
1	0x3de2e038	0.110779226
2	0x3cc0b045	0.023521552
3	0xbd46a5d7	-0.048498
4	0x3d745dcc	0.059659764
5	0x3e290930	0.16507411
6	0xbdba625c	-0.09100792
7	0x3d0961db	0.033540588
8	0x3d7edafa	0.06222055
9	0x3d4b1644	0.04958178
10	0x3d7147b7	0.058906283
11	0xbc599a2c	-0.013281386
12	0x3bec2b8d	0.00720734
13	0x3cad2ddc	0.021140032
14	0x3cc0bd6e	0.023527827
15	0xbeeb8911	-0.4600301
16	0x3e35ec11	0.17765833
17	0xbd03b031	-0.03215045
18	0x3e6df97c	0.23239702
19	0x3d533190	0.05156094
20	0x3d49bde4	0.04925336
21	0x3e3a292d	0.1817977
22	0x3d24e1fd	0.04025458
23	0x3e0980de	0.13428065

running_mean f4 [24]
0	0xbe2360af	-0.1595485
1	0xbe8e1690	-0.2775159
2	0x3e623680	0.22091103
3	0x3e7ac152	0.24487808
4	0x3e344e88	0.17608082
5	0xbe239130	-0.15973353
6	0xbebb7b1e	-0.36617368
7	0x3f073af9	0.5282436
8	0x3f0c91d7	0.54910034
9	0xbd934af3	-0.0719203
10	0xbf064ae3	-0.5245802
11	0xbcb5a6d7	-0.022174282
12	0x3e20acfe	0.15690991
13	0xbd92046f	-0.07129752
14	0x3d6672ac	0.056261703
15	0x3de3fa20	0.11131692
16	0xbf4099dd	-0.75234777
17	0x3dc83c2a	0.097771004
18	0xbf175e6c	-0.5912845
19	0xbe588075	-0.21142752
20	0x3db250de	0.087068304
21	0x3d90115c	0.07034561
22	0xbe92d80d	-0.2868046
23	0xbd9c61c2	-0.07635833

running_var f4 [24]
0	0x3c9e5136	0.019325834
1	0x3f4371aa	0.7634531
2	0x3e1e7f94	0.15478355
3	0x3e8ee6a1	0.2791033
4	0x3dddafaa	0.10824521
5	0x3e0eda16	0.1395038
6	0x3dc061e5	0.09393672
7	0x3efd4386	0.4946558
8	0x3e0beb9b	0.13664095
9	0x3e2afb32	0.16697386
10	0x3dc65a0d	0.096851446
11	0x3edf660f	0.43632552
12	0x3e769a64	0.24082333
13	0x3d6a9678	0.057272404
14	0x3e924868	0.28570867
15	0x3ceaa6da	0.028644014
16	0x3fb8be65	1.4433104
17	0x3cf7ca4d	0.030247832
18	0x3e840126	0.25782126
19	0x3d8611c0	0.06546354
20	0x3e500962	0.2031608
21	0x3e852272	0.26002842
22	0x3d336d8e	0.04380565
23	0x3db4ec13	0.0883409

weight f4 [24, 1, 3, 3]
0	0xbcb3ae49	-0.021933692
1	0x3dc613ea	0.09671767
2	0x3e3b187c	0.18271059
3	0xbd7109bb	-0.05884717
4	0xbbaecff5	-0.005334849
5	0x3cc8499a	0.024449158
6	0xbdea7d36	-0.11449663
7	0xbe6a3bfc	-0.22874445
8	0xbdbdd830	-0.0926975
9	0x3da58c9e	0.08083461
10	0x3d9a82a5	0.0754445
11	0x3df76c1e	0.120811686
12	0x3ba1e0bb	0.00494012
13	0x3c63e7f9	0.013910287
14	0xbda5f328	-0.08103019
15	0xb9623b91	-0.0002157523
16	0xbe00e045	-0.12585552
17	0xbe8e2ff3	-0.27770957
18	0x3e7f5204	0.2493363
19	0xbdc1cecd	-0.09463272
20	0x3bd71f02	0.0065649757
21	0x3e03c334	0.12867433
22	0xbcfba0f7	-0.030716402
23	0xbd8181cc	-0.06323585
24	0x3cc00ac8	0.02344264
25	0xbceac316	-0.028657477
26	0xbdc40cd8	-0.09572762
27	0x3c1e36ea	0.009656647
28	0xbe091aab	-0.1338908
29	0x3ddb6f16	0.10714547
30	0xbd8aa3eb	-0.06769546
31	0xbdca9c1a	-0.09893055
32	0x3b53ad44	0.003229932
33	0x3e5dc181	0.21655847
34	0xbda6ceed	-0.08144937
35	0x3e6a0fd5	0.22857602
36	0x3e493f19	0.19652976
37	0xbd01c486	-0.03168156
38	0xbe11e7c5	-0.1424857
39	0x3d53ae86	0.05168011
40	0x3cf9f0b4	0.030510284
41	0xbe1126a3	-0.14174895
42	0x3de9d24d	0.11417065
43	0x3d7d0b08	0.0617781
44	0x3cdfcb1d	0.027318532
45	0x3e17e1a9	0.14832176
46	0x3b8d2400	0.00430727
47	0xbe2e86c0	-0.1704359
48	0xbe361894	-0.17782813
49	0x3d8fdcd6	0.07024543
50	0xbd8c7270	-0.06857765
51	0xbd33626c	-0.043795034
52	0xbddfa6b7	-0.1092047
53	0x3e261f75	0.16222937
54	0xbd5e7729	-0.05431286
55	0x3d6a0ea8	0.057142884
56	0x3dbb9255	0.0915877
57	0x3c874f44	0.016517289
58	0x3d8e0c3b	0.069359265
59	0xbce922aa	-0.028458912
60	0x3ea7af91	0.32751134
61	0x3d6f3803	0.058403026
62	0x3e439b69	0.19102253
63	0xbc76c71b	-0.015062119
64	0xbd25da5e	-0.040491454
65	0xbdc35282	-0.095372215
66	0xbe1131e1	-0.14179184
67	0xbc4e8079	-0.012603872
68	0x3d3ad270	0.045610845
69	0xbd3c397e	-0.045953266
70	0xbcc62754	-0.024188675
71	0x3e4aea56	0.19815955
72	0xbc4185b8	-0.011811666
73	0x3d16d453	0.036823582
74	0xbe068b14	-0.13138992
75	0xbe00d47d	-0.12581058
76	0x3e264d4e	0.16240427
77	0x3dbc5d3e	0.09197472
78	0xbb82098c	-0.003968423
79	0x3df3e0e4	0.11908129
80	0x3e0be068	0.13659823
81	0x3dba49f4	0.09096137
82	0x3d7de558	0.061986297
83	0xbed29cf7	-0.4113538
84	0x3dcd59c2	0.100268856
85	0x3bb6b260	0.005575463
86	0xbe389d62	-0.18028787
87	0x3dbb94d1	0.09159244
88	0x3bfe354b	0.007757818
89	0xbca2e3fd	-0.019884104
90	0x3e064f48	0.13116181
91	0x3da38fd3	0.07986417
92	0xbdcbee78	-0.09957594
93	0x3e97805a	0.29590112
94	0x3eaccc22	0.3374949
95	0x3ca55a9d	0.02018481
96	0x3dabca7a	0.08388229
97	0x3c9247b4	0.017856456
98	0xbdc73f06	-0.09728818
99	0xbe16927c	-0.14704317
100	0xbe1056b9	-0.14095582
101	0x3c386c04	0.011256222
102	0xbd6465d3	-0.05576117
103	0x3c982fda	0.018577505
104	0x3dff80cd	0.12475739
105	0x3e261f59	0.16222896
106	0xbe061692	-0.13094547
107	0x3d0da187	0.034577873
108	0xbc63197a	-0.013861055
109	0xbe09f689	-0.13472952
110	0xbe30c904	-0.17264181
111	0x3cbaf5c0	0.02282226
112	0x3c9a94c5	0.018869767
113	0xbe23c74a	-0.15993991
114	0x3e27ab2c	0.1637389
115	0x3e1e6aac	0.1547038
116	0xbdc7d644	-0.09757665
117	0x3cb11650	0.021617085
118	0x3e4443fc	0.19166559
119	0x3e466259	0.19373454
120	0x3c96a04e	0.018386986
121	0x3ded8af9	0.115987726
122	0x3d9dcf06	0.07705502
123	0xbc5bc4d0	-0.013413623
124	0x3c4481db	0.011993851
125	0xbe246eaa	-0.1605784
126	0x3e2a2477	0.16615473
127	0xbd856ade	-0.06514524
128	0x3dd763c5	0.105170764
129	0x3d965075	0.07339565
130	0x3d5dca80	0.054148197
131	0xbd821862	-0.06352307
132	0xbe18cb1c	-0.1492123
133	0xbe1245b5	-0.14284404
134	0x3c6f10a3	0.014591369
135	0xbe449543	-0.19197564
136	0xbe2858ae	-0.16440079
137	0xbe075fb2	-0.13220099
138	0x3e1af8c4	0.15133959
139	0x3dbe1d64	0.092829496
140	0x3bd6fed9	0.006561142
141	0x3dd0113d	0.10159538
142	0xbc8097a8	-0.015697315
143	0x3e473432	0.19453505
144	0xbc0c4a1f	-0.008562594
145	0xbe206c21	-0.15666248
146	0xbddaab63	-0.10677221
147	0x3e0fd7c8	0.14047158
148	0x3db1cbea	0.08681472
149	0xbe1fc16d	-0.1560113
150	0x3b7bf0da	0.003844312
151	0x3e01a44f	0.12660335
152	0x3d8a9bd9	0.06768007
153	0x3c8d5ac9	0.017255204
154	0xbd9fd2bc	-0.07803866
155	0x3dee78a6	0.116441056
156	0x3dce8bf9	0.100852914
157	0xbc53e834	-0.0129337795
158	0xbd210d7e	-0.039319508
159	0x3d62adae	0.055341415
160	0x3e5f211e	0.21789977
161	0x3e9965b1	0.29960397
162	0xbdc75b45	-0.09734205
163	0xbe23de59	-0.16002788
164	0xbda8e50f	-0.082468145
165	0xbd164655	-0.036688168
166	0xbe03b790	-0.12862992
167	0xbbd25f1b	-0.006420029
168	0x3e809723	0.25115308
169	0x3b839184	0.0040151495
170	0x3d64fe10	0.055906355
171	0xbd92ace6	-0.07161884
172	0xbdd6a157	-0.10479992
173	0xbc35c66d	-0.011094672
174	0x3df331da	0.11874743
175	0x3d2b736a	0.041858114
176	0x3df6730c	0.12033662
177	0xbe5b3f66	-0.21410903
178	0x3d97b67f	0.07407855
179	0xbaf45b46	-0.0018642924
180	0x3d8c7c2b	0.06859621
181	0x3c0d36aa	0.00861899
182	0x3e44a24a	0.19202533
183	0xbdb37f27	-0.08764487
184	0xbe238e85	-0.15972336
185	0x3e04d4e6	0.1297184
186	0xbd92ee56	-0.07174365
187	0xbe0ceb43	-0.1376162
188	0x3dd1618f	0.10223686
189	0xbe0ccbab	-0.13749568
190	0xbda945b4	-0.08265248
191	0xbdce0621	-0.10059763
192	0xbd343a7e	-0.044001095
193	0x3cc650e2	0.02420849
194	0x3e0246c1	0.12722303
195	0x3d240ea8	0.04005304
196	0x3dd3ef8b	0.103484236
197	0x3e3b9d40	0.18321705
198	0x3d26f5ad	0.04076164
199	0xbc5e1d38	-0.013556771
200	0x3d130f40	0.035903215
201	0x3bf64f9f	0.007516816
202	0xbccfd292	-0.025368962
203	0x3da69d7a	0.08135505
204	0xbe1864e9	-0.14882244
205	0xbe893b18	-0.26802897
206	0x3e08e462	0.13368371
207	0xbe328430	-0.17433238
208	0xbeae80d7	-0.34082672
209	0xbd9c285c	-0.076248854
210	0xbcb45b39	-0.022016155
211	0x37ca567d	2.412055e-05
212	0x3d553616	0.052053533
213	0xbdb1a89d	-0.086747386
214	0x3d76f5e6	0.0602931
215	0x3dda40d6	0.10656898

weight f4 [24]
0	0x3f51f2f5	0.8201135
1	0x3f840040	1.0312576
2	0x3f9075ed	1.1285988
3	0x3f86ade1	1.0521814
4	0x3f7c01b7	0.98440117
5	0x3f797471	0.974433
6	0x3f7bde33	0.98385924
7	0x3f75f177	0.9607157
8	0x3f7639c5	0.961819
9	0x3f73cd6c	0.95235324
10	0x3f70a699	0.9400421
11	0x3f7cb570	0.9871435
12	0x3f7a8c62	0.9787046
13	0x3f791fc4	0.97314095
14	0x3f89be35	1.0761172
15	0x3f741f30	0.9536009
16	0x3f643ebb	0.8915822
17	0x3f831c61	1.0243036
18	0x3f5811ee	0.8440236
19	0x3f4d6aa7	0.80240864
20	0x3f9422c2	1.1573107
21	0x3f853ae7	1.04086
22	0x3f57fb63	0.8436796
23	0x3f8859cb	1.0652403

bias f4 [24]
0	0x3e0a0b3e	0.13480851
1	0x3dc72d50	0.097254395
2	0x3e166dc0	0.14690304
3	0x3cd08a9f	0.025456725
4	0x3deefe80	0.11669636
5	0x3d64ce5a	0.055860855
6	0xbd03d26d	-0.0321831
7	0xbcdf8e5b	-0.02728956
8	0xbd372b24	-0.044718876
9	0x3e0a5eb2	0.13512686
10	0xbd2cefb4	-0.042220786
11	0xbd0d42c9	-0.03448752
12	0x3dd9c2e3	0.10632875
13	0x3d91468b	0.07093533
14	0x3dcce509	0.100046225
15	0xbd9a2bb9	-0.07527871
16	0xbd4136b3	-0.047171306
17	0xbc61ba50	-0.0137773305
18	0xbbd54c3a	-0.006509331
19	0xbdabf3ac	-0.08396086
20	0x3d5be254	0.05368264
21	0x3df7556e	0.12076841
22	0xbe10ff27	-0.14159833
23	0x3c652fb1	0.013988421

running_mean f4 [24]
0	0xbe144d1b	-0.14482538
1	0xbdb69de4	-0.08916834
2	0x3d23475d	0.03986298
3	0x3da7743f	0.08176469
4	0x3d8bc0a5	0.068238534
5	0xbda126c8	-0.07868725
6	0x3e7e4cd0	0.24833989
7	0xbd539483	-0.051655304
8	0x3df2451a	0.11829586
9	0xbe0bbf68	-0.13647234
10	0x3eaf431d	0.3423089
11	0xbd5ee791	-0.054420058
12	0xbe01008f	-0.1259787
13	0x3e4288f0	0.1899755
14	0xbc334cf6	-0.010943642
15	0x3c4d05b8	0.0125135705
16	0x3b84eae8	0.0040563233
17	0x3e6a4901	0.22879411
18	0xbdb364e7	-0.0875948
19	0xbcb30df7	-0.021857245
20	0x3c94f9bd	0.01818549
21	0x3d43a869	0.04776803
22	0xbd854891	-0.065079816
23	0xbe444580	-0.19167137

running_var f4 [24]
0	0x3ce99d36	0.028517347
1	0x3c1d0792	0.009584324
2	0x3bf266fa	0.0073975297
3	0x3c7aeca3	0.015315208
4	0x3c81fe6e	0.015868392
5	0x3b8d4fb7	0.0043124813
6	0x3d86b7df	0.065780394
7	0x3bff6c51	0.0077948947
8	0x3d1035aa	0.035207428
9	0x3d0dc2f6	0.034609757
10	0x3e191bd7	0.14952026
11	0x3bf82b88	0.0075735487
12	0x3d5bd357	0.053668346
13	0x3d894026	0.067016885
14	0x3b3f58fc	0.0029197326
15	0x3b9c19e9	0.004763831
16	0x3a6f7e03	0.00091359037
17	0x3e575d2e	0.21031639
18	0x3bba3e80	0.00568372
19	0x3a831dcb	0.0010003386
20	0x3b68967c	0.0035490086
21	0x3c16858c	0.0091871135
22	0x3bd8d542	0.006617219
23	0x3d1daaf7	0.038493123

weight f4 [16, 24, 1, 1]
0	0x3e971898	0.2951095
1	0xbe265c77	-0.1624621
2	0x3eae2fc0	0.34020805
3	0x3e85b6a2	0.261159
4	0x3ea1b142	0.3158055
5	0x3ecdefc3	0.40221986
6	0x3e9a7ced	0.30173436
7	0xbe04bd1c	-0.12962765
8	0x3e44ca78	0.1921786
9	0x3c8e8b77	0.017400486
10	0x3e8f585e	0.27997106
11	0x3e368d6d	0.17827387
12	0xbe8bbbaf	-0.2729163
13	0xbe0b77a0	-0.13619852
14	0x3e99b3af	0.300199
15	0xbe74a90c	-0.23892611
16	0x3b64b91c	0.0034900373
17	0x3e4e49b5	0.20145305
18	0xbdcbb3b9	-0.09946389
19	0x3d38d88e	0.045128398
20	0x3efb1d4c	0.4904579
21	0xbcb6e8ea	-0.022327859
22	0xbd348e26	-0.044080876
23	0xbe44801e	-0.19189498
24	0xbb8e860c	-0.0043494757
25	0xbda34581	-0.07972241
26	0xbe4091a5	-0.18805559
27	0xbc246adc	-0.010035243
28	0x3eec1eef	0.4611735
29	0x3d341fdd	0.0439757
30	0x3ebe2a50	0.37141657
31	0xbed34b49	-0.41268376
32	0x3e6780bc	0.22607702
33	0xbe8335e3	-0.2562705
34	0xbe32f8c3	-0.17477708
35	0x3e62b765	0.22140272
36	0x3e3f1435	0.18660052
37	0x3daa167f	0.08305072
38	0xbe897b3d	-0.26851836
39	0x3d0d69c6	0.0345247
40	0x3e6db36f	0.2321298
41	0x3cf34f06	0.029700767
42	0x3dbf4dcf	0.09341013
43	0x3e27b7a4	0.16378647
44	0xbd86ed55	-0.06588236
45	0x3e62472c	0.22097462
46	0xbe5db5b1	-0.21651341
47	0xbec04257	-0.37550613
48	0xbe8c32b1	-0.27382424
49	0xbdc18d11	-0.094507344
50	0x3e3827f0	0.17983985
51	0x3e5cee4b	0.21575277
52	0xbd9bb9cd	-0.07603798
53	0x3cf21fd2	0.029556189
54	0xbe21338f	-0.15742324
55	0x3d8a8915	0.067644276
56	0xbd2c0dde	-0.042005412
57	0xbdf935d7	-0.12168472
58	0x3d9ce983	0.07661726
59	0x3e851e79	0.2599981
60	0x3d710c13	0.058849405
61	0x3d5e412f	0.054261383
62	0xbcd766a4	-0.02629406
63	0x3e3054b9	0.17219819
64	0x3d53d4e3	0.051716696
65	0xbc8dfe16	-0.017333072
66	0xbebeb96a	-0.37250835
67	0x3e488378	0.19581401
68	0x3e4257fe	0.18978879
69	0x3ef39b80	0.47579575
70	0x3e80a263	0.2512389
71	0xbe11f17b	-0.14252274
72	0x3e0e9cc0	0.13926983
73	0xbeecaccd	-0.46225587
74	0x3e65e15a	0.22449246
75	0xbe55bb8f	-0.20872329
76	0x3e20deab	0.15709941
77	0xbebaf438	-0.3651445
78	0x3e3b08a7	0.1826502
79	0xbe3cf41f	-0.184525
80	0xbe4de4ea	-0.20106855
81	0x3e6759d3	0.22592859
82	0xbea2efeb	-0.31823668
83	0x3dad729a	0.08469124
84	0xbd1d34f8	-0.038380593
85	0xbeab06bf	-0.33403584
86	0x3e829225	0.25502124
87	0xbe822a76	-0.2542302
88	0x3dff4bf7	0.12465661
89	0x3c901615	0.017588655
90	0x3ea5c032	0.32373196
91	0xbe3c45bb	-0.18385975
92	0xbd17ea76	-0.037088834
93	0xbc8dc338	-0.017305002
94	0xbcd2e6f5	-0.025744895
95	0xbee51fd1	-0.44750836
96	0x3e003a86	0.12522325
97	0xbe07432d	-0.1320922
98	0xbde80dff	-0.113307945
99	0x3eb89d3a	0.36057454
100	0x3e90efbf	0.28307912
101	0xbe8128de	-0.25226492
102	0xbe376ebb	-0.17913334
103	0xbd8c2b88	-0.068442404
104	0x3d5017c2	0.050803907
105	0xbedac98d	-0.42731896
106	0x3e4446f8	0.19167697
107	0xbdd745a2	-0.10511328
108	0x3e1f1564	0.15535504
109	0xbd9e6bc1	-0.07735396
110	0xbe6e490a	-0.2327005
111	0x3ea0ad7c	0.31382358
112	0xbe7970bb	-0.2435941
113	0x3eaf9a38	0.34297347
114	0xbe3b08ec	-0.18265122
115	0xbdd19190	-0.10232842
116	0xbec3e0ab	-0.38257346
117	0xbe883db2	-0.2660957
118	0x3d951b7b	0.07280632
119	0x3e5b3636	0.21407399
120	0xbdad811c	-0.08471891
121	0x3dbd1b51	0.09233726
122	0x3e28b2d8	0.16474473
123	0x3af22e20	0.0018476881
124	0x3e862398	0.2619903
125	0xbea84e3e	-0.32872194
126	0xbeb77f68	-0.3583939
127	0xbea37e0f	-0.31932113
128	0x3e89550a	0.26822692
129	0x3df650f5	0.1202716
130	0xbe456cb3	-0.19279747
131	0xbe196173	-0.1497858
132	0xbeb61ac8	-0.35567307
133	0xbdf6d390	-0.12052071
134	0x3e4b4a80	0.19852638
135	0xbe4b9d0d	-0.19884129
136	0x3dbe0753	0.09278741
137	0xbd801749	-0.06254441
138	0xb99e6f8c	-0.00030219217
139	0xbe490518	-0.1963085
140	0x3e833523	0.25626478
141	0xbe2baf10	-0.16766
142	0x3dac92a1	0.08426405
143	0xbe6c24e6	-0.2306095
144	0x3e63f9b8	0.22263229
145	0xbe0a0de4	-0.13481861
146	0x3d547435	0.051868636
147	0xbe07593c	-0.13217634
148	0x3e7d9a30	0.24765849
149	0xbe8581c0	-0.26075554
150	0xbeb51e8a	-0.35374862
151	0x3debfe7f	0.11523151
152	0xbdd7df5c	-0.10540649
153	0xbe9db627	-0.30803034
154	0xbd47ae15	-0.048750002
155	0x3ea09cb1	0.31369546
156	0xbe45891d	-0.19290586
157	0x3ec88efd	0.3917159
158	0xbe696411	-0.22792079
159	0xbe9b25c7	-0.3030226
160	0x3e5e8656	0.21730933
161	0xbc0a5286	-0.008442527
162	0x3d06d70c	0.03291993
163	0xbc9178bb	-0.017757764
164	0xbe17f78a	-0.14840522
165	0x3ef89db1	0.4855781
166	0x3aee6ebc	0.001819096
167	0x3e7ba335	0.24573977
168	0x3b2ca192	0.002634142
169	0x3dcd6a0c	0.100299925
170	0xbe8962a5	-0.26833072
171	0x3e9ae9dd	0.3025655
172	0x3e5d9686	0.21639451
173	0xbeb2c75f	-0.34917733
174	0xbee2ce37	-0.44297954
175	0xbe47da27	-0.19516812
176	0x3e0ded7d	0.13860126
177	0x3eb17c04	0.3466493
178	0x3e60c29e	0.2194924
179	0xbe12c016	-0.14331087
180	0xbe42338d	-0.18964978
181	0xbe711699	-0.23543777
182	0xbecf5889	-0.40497234
183	0x3e097d62	0.13426736
184	0xbe8e96a6	-0.2784931
185	0x3da32d48	0.07967621
186	0xbe74d515	-0.2390941
187	0x3eb83c0a	0.35983306
188	0x3ebf2aad	0.37337247
189	0xbe7ecf7f	-0.24883841
190	0xbe73a9d1	-0.23795249
191	0xbe255ab0	-0.16147876
192	0x3e49a073	0.19690113
193	0x3e92b0a0	0.2865038
194	0x3eb5b374	0.35488474
195	0x3e8a5721	0.270196
196	0x3cf88522	0.03033692
197	0xbeadab5f	-0.33919808
198	0x3d6a37df	0.05718219
199	0x3e6429b7	0.22281538
200	0x3ebc3775	0.3676106
201	0x3e39b478	0.1813525
202	0xbe7c0db5	-0.24614604
203	0xbd9d8f39	-0.07693333
204	0x3e123fb2	0.1428211
205	0x3d47337c	0.048633084
206	0xbde8cf5a	-0.11367674
207	0xbe945c26	-0.28976554
208	0xbd0d1817	-0.034446802
209	0x3de6eeac	0.11275992
210	0xbe832927	-0.25617334
211	0x3df9493b	0.12172171
212	0x3e9c3a80	0.30513382
213	0xbe38a458	-0.18031442
214	0xbe3c5079	-0.18390073
215	0xbeb26d8a	-0.34849197
216	0xbe395f79	-0.18102826
217	0xbdd421f5	-0.10358039
218	0x3c8e5208	0.0173731
219	0xbe4eb80d	-0.20187397
220	0xbe2b03f7	-0.16700731
221	0xbeb2a54d	-0.3489174
222	0xbdfe6b90	-0.1242286
223	0xbdd0475e	-0.10169862
224	0xbe29070e	-0.16506597
225	0xbde4b3fa	-0.1116714
226	0x3e71b9e3	0.23606066
227	0xbe838c3e	-0.25692934
228	0xbdbfd450	-0.09366667
229	0xbe604cf5	-0.21904357
230	0x3e70478a	0.2346479
231	0x3e8d6bb4	0.27621233
232	0x3e82ecb9	0.2557123
233	0xbead49bb	-0.33845314
234	0x3e9d14d1	0.30679944
235	0x3e445e59	0.19176616
236	0x3eb57728	0.35442472
237	0xbb9e0cd3	-0.004823306
238	0x3d2c8e57	0.042127933
239	0x3dab24f8	0.083566606
240	0x3da6187f	0.08110141
241	0x3e714b29	0.23563828
242	0x3deb2018	0.11480731
243	0xbe8a55e6	-0.2701866
244	0x3e1ab94b	0.15109746
245	0x3d72d154	0.059281662
246	0xbe44b9cc	-0.19211501
247	0xbdbf6000	-0.093444824
248	0xbd470a87	-0.048594024
249	0x3e4d1a20	0.20029497
250	0x3ea59546	0.3234045
251	0x3e099e47	0.13439284
252	0xbd9bb586	-0.07602982
253	0x3eae566f	0.3405032
254	0x3ef49745	0.4777166
255	0xbec54acc	-0.38533628

weight f4 [16]
0	0x3f75157d	0.95735914
1	0x3f62a10a	0.88526976
2	0x3f79f8f4	0.976455
3	0x3f7dc65e	0.9913081
4	0x3f72e089	0.94873863
5	0x3f61b9aa	0.88173926
6	0x3f6f9121	0.93580824
7	0x3f83c0e9	1.0293247
8	0x3f6ec4ae	0.9326886
9	0x3f51a4b7	0.8189196
10	0x3f81b737	1.0134038
11	0x3f814537	1.0099248
12	0x3f6ae687	0.91758007
13	0x3f60ba4d	0.8778427
14	0x3f72571f	0.94664186
15	0x3f681c29	0.9066797

bias f4 [16]
0	0xbc5f3d05	-0.013625388
1	0xbc001c8f	-0.007819309
2	0x39da22ec	0.0004160622
3	0x3b7d5f68	0.0038661603
4	0x3baf31dd	0.0053465203
5	0x3c640c4c	0.013918947
6	0xbbaa680d	-0.005200392
7	0x3bb1064c	0.005402362
8	0x3b5ea726	0.003397414
9	0x3bf1fab6	0.0073846234
10	0x3bd71809	0.0065641445
11	0x3c2ed5d1	0.010671095
12	0xbbead551	-0.0071665426
13	0x3ca9749b	0.020685485
14	0x3bd4ad09	0.006490354
15	0x3c2dba20	0.010603458

running_mean f4 [16]
0	0x3f75e632	0.96054375
1	0x3c261e76	0.010139098
2	0x3e83d0c9	0.25745228
3	0xbf157727	-0.5838494
4	0xbe82d81d	-0.25555506
5	0xbf03497a	-0.5128399
6	0x3c5284dd	0.01284906
7	0xbede385b	-0.4340237
8	0x3eb5f021	0.35534766
9	0xbed1ae3d	-0.40953246
10	0x3ec2e3b2	0.38064343
11	0xbdb42de5	-0.08797816
12	0xbc5e1503	-0.013554814
13	0x3e1c2c7c	0.15251344
14	0xbf2ef37e	-0.6834029
15	0x3f3ed421	0.74542433

running_var f4 [16]
0	0x3ef7a130	0.48365164
1	0x3efcbc00	0.49362183
2	0x3e9c8c3e	0.30575746
3	0x3f394658	0.7237296
4	0x3eb51708	0.35369134
5	0x3f00cde3	0.5031416
6	0x3f45952e	0.77180755
7	0x3f1897c6	0.5960659
8	0x3f4cc27a	0.7998425
9	0x3f278cac	0.65449023
10	0x3f3e10ba	0.7424427
11	0x3f12b4b4	0.5730698
12	0x3e7df09c	0.24798816
13	0x3e999fa4	0.3000461
14	0x3ec6da1a	0.38838273
15	0x3ec7b121	0.39002326

weight f4 [48, 16, 1, 1]
0	0xbdf6168b	-0.120160185
1	0x3e5846fe	0.21120831
2	0xbeb72263	-0.35768422
3	0x3e1d8374	0.15382177
4	0x3ea32192	0.3186155
5	0xbdda5493	-0.106606625
6	0xbe1de351	-0.15418746
7	0xbd4b0ae5	-0.049570937
8	0xbe6fe095	-0.23425515
9	0x3e4b5c1b	0.19859354
10	0xbbfead62	-0.0077721337
11	0x3ea02c49	0.31283787
12	0x39ab81b8	0.0003271231
13	0xbe1a48ec	-0.1506688
14	0x3db97819	0.0905611
15	0x3df8f063	0.12155225
16	0x3e252ce3	0.16130404
17	0xbdf56bfb	-0.11983486
18	0xbd0eb791	-0.03484303
19	0x3d37fa23	0.044916283
20	0xbea7431e	-0.32668394
21	0xbdf5ff5d	-0.12011597
22	0x3e88b5f9	0.26701334
23	0xbe31abec	-0.17350739
24	0xbd4c3944	-0.0498593
25	0xbd8930a7	-0.06698733
26	0xbdf87001	-0.12130738
27	0xbec3147a	-0.3810156
28	0x3e8aa378	0.27077842
29	0x3ebbbf3a	0.36669332
30	0xbdc5d17b	-0.09659096
31	0xbc66f36d	-0.014096123
32	0x3d5a1657	0.05324396
33	0xbedd33ed	-0.4320368
34	0x3d85f2b7	0.06540435
35	0x3e851633	0.259935
36	0xbebd7adb	-0.37007794
37	0x3e714af7	0.23563753
38	0xbe06ab63	-0.13151316
39	0x3da2b80a	0.07945259
40	0x3db1e9d1	0.08687175
41	0xbeab99f0	-0.33515882
42	0xbd8e01fd	-0.06933973
43	0xbdd94e88	-0.10610682
44	0x3d190708	0.03736022
45	0x3e4209c7	0.18949042
46	0x3e7ee7e4	0.24893147
47	0xbde9ee8e	-0.11422454
48	0xbe83fa05	-0.25776687
49	0x3d93aed3	0.072110794
50	0xbd6b7f1e	-0.057494275
51	0x3e449cba	0.19200411
52	0xbdd9cd8e	-0.106349096
53	0xbeb0a159	-0.34498098
54	0x3e648a35	0.22318347
55	0x3c46b2e9	0.012127616
56	0xbe809ff2	-0.2512203
57	0x3e730db2	0.23735693
58	0x3e1c6318	0.15272176
59	0x3dc11c65	0.09429244
60	0xbd9ee2a0	-0.07758069
61	0x3e549aa0	0.2076211
62	0xbd04ec96	-0.03245219
63	0xbd651d83	-0.055936348
64	0x3e94ead2	0.29085404
65	0xbe0871a4	-0.133246
66	0xbea44e8c	-0.32091177
67	0xbe7463b6	-0.23866162
68	0x3e4a8ab3	0.19779472
69	0xbdb39542	-0.08768703
70	0x3dad8203	0.084720634
71	0x3dd44404	0.103645355
72	0xbe530fdc	-0.20611519
73	0xbd733058	-0.059372276
74	0xbcfaa88c	-0.030597948
75	0x3e7f8720	0.2495389
76	0x3d3b3d69	0.045712862
77	0xbe0538b4	-0.13009912
78	0x3e1d5ff2	0.15368631
79	0x3e984fb8	0.2974832
80	0x3d09f990	0.033685267
81	0x3db33b85	0.08751587
82	0xbe06c5eb	-0.13161437
83	0xbdeb6543	-0.114939235
84	0xbebcefca	-0.36901695
85	0xbe399cf0	-0.18126273
86	0xbdbd5197	-0.09244078
87	0xbd195e13	-0.03744323
88	0xbd574493	-0.05255563
89	0xbc3835e9	-0.011243322
90	0xbd9e416b	-0.07727321
91	0x3e050f45	0.12994106
92	0x3eae470c	0.3403858
93	0x3e051683	0.12996869
94	0x3e917962	0.2841292
95	0x3d6d6909	0.057961497
96	0xbd8c0698	-0.06837195
97	0x3a5e6d4c	0.00084849144
98	0xbf04d72e	-0.5189084
99	0xbe8b4016	-0.2719733
100	0xbc96dc81	-0.018415691
101	0xbe9125ad	-0.28349057
102	0xbeab2638	-0.33427596
103	0xbc61f9bb	-0.013792451
104	0xbe794993	-0.24344473
105	0xbe6e4bc0	-0.23271084
106	0x3e0af80e	0.13571188
107	0x3e02264b	0.1270992
108	0x3d6408f2	0.055672593
109	0x3de9d515	0.11417595
110	0xbe850af7	-0.25984928
111	0x3e20862b	0.15676181
112	0xbe88557e	-0.26627725
113	0x3d75c3b9	0.06000111
114	0xbe1eaedd	-0.15496393
115	0xbd1f0ac4	-0.038828626
116	0x3eb57c13	0.35446224
117	0x3e88ec6a	0.2674287
118	0x3ca884e3	0.020571178
119	0xbe7ce82b	-0.2469794
120	0xbd3e02c8	-0.04638937
121	0x3c6d06ea	0.0144669805
122	0xbe31a0a0	-0.1734643
123	0xbe420631	-0.18947674
124	0x3dc9f310	0.098608136
125	0x3e410021	0.18847705
126	0xbdb4f1d9	-0.08835191
127	0xbe155dd7	-0.14586578
128	0xbc8a5faa	-0.01689132
129	0x3e6a824c	0.22901267
130	0x3aae0229	0.001327579
131	0xbe913383	-0.28359613
132	0xbe3c0679	-0.18361844
133	0xbe798691	-0.2436774
134	0xbe03c9a3	-0.12869887
135	0x3cb6b884	0.02230478
136	0xbeb12a22	-0.34602457
137	0xbe346635	-0.17617114
138	0x3dfdc9b0	0.123919845
139	0xbdb4da54	-0.08830705
140	0x3e3d4c46	0.18486127
141	0x3d65e9b9	0.0561311
142	0xbe52168c	-0.20516413
143	0x3b97b4fd	0.00462973
144	0xbd9a1f32	-0.07525481
145	0x3de2acd1	0.11068118
146	0x3dbd8065	0.09253005
147	0x3e13acb6	0.14421353
148	0xbdb978fd	-0.0905628
149	0x3e15533a	0.1458253
150	0xbe896cab	-0.2684072
151	0xbd7d2c2d	-0.061809707
152	0xbdc16884	-0.09443763
153	0xbebfb85c	-0.37445343
154	0xbbce3d66	-0.0062939404
155	0x3debc2ce	0.115117654
156	0x3d2e5f8c	0.04257159
157	0x3e8e7f2a	0.27831393
158	0xbb6bd8fe	-0.0035987492
159	0x3e397b17	0.18113361
160	0xbeb00475	-0.343784
161	0x3e831a3e	0.2560596
162	0x3e051390	0.12995744
163	0xbe7fa415	-0.24964936
164	0x3e0a23c1	0.13490202
165	0x3d6ddc0e	0.05807119
166	0x3e2960ef	0.16540883
167	0x3d1a437e	0.03766202
168	0xbe87da71	-0.26533845
169	0x3d8590f2	0.06521787
170	0x3e974223	0.29542646
171	0xbe2cc981	-0.16873743
172	0xbc0ad8fd	-0.008474586
173	0xbe4e0175	-0.20117743
174	0x3e43e916	0.19131884
175	0x3e361f3b	0.17785351
176	0x3e825e91	0.25462773
177	0xbe91be02	-0.28465277
178	0x3d804f4d	0.062651254
179	0xbcf00c79	-0.029302822
180	0x3d9ab8e7	0.075547986
181	0x3e37066e	0.17873546
182	0xbea19bee	-0.31564277
183	0x3e6c49ed	0.23075075
184	0xbe7ed4f2	-0.2488592
185	0x3e467c3e	0.19383332
186	0xbd6be275	-0.057589013
187	0x3a1bee67	0.00059483055
188	0x3c2093c6	0.009800857
189	0x3ca97caa	0.020689327
190	0xbdacd727	-0.084394746
191	0x3e73ced1	0.23809363
192	0x3e46ee79	0.19426908
193	0xbe889885	-0.26678863
194	0x3d516b01	0.051127438
195	0xbec0c99e	-0.37653822
196	0xbe31b685	-0.17354782
197	0x3e3b715c	0.18304962
198	0x3de259e2	0.110523
199	0xbc51ebf4	-0.012812603
200	0x3e7828f9	0.2423438
201	0x3e5942d1	0.21216895
202	0x3d000523	0.0312549
203	0xbcbc22c8	-0.022965804
204	0xbd742405	-0.059604663
205	0x3e8cad51	0.2747598
206	0x3e77707b	0.24164002
207	0xbe2cc3dc	-0.1687159
208	0x3cae51e1	0.021279277
209	0xbdc34560	-0.095347166
210	0x3e4916c7	0.19637595
211	0xbe72c43f	-0.23707674
212	0xbe34e7af	-0.17666505
213	0x3e8e2dda	0.27769357
214	0x3d92b484	0.07163337
215	0x3e64016d	0.22266169
216	0xbe9c8b1e	-0.30574888
217	0x3e4f6d14	0.20256454
218	0xbe787f34	-0.24267274
219	0xbe6e61d6	-0.23279509
220	0xbe819b94	-0.2531401
221	0x3cc6095d	0.024174387
222	0x3da289d5	0.079364456
223	0x3eab2325	0.3342525
224	0x3e29b0df	0.16571377
225	0x3e8fe66e	0.2810549
226	0x3e3f1ea3	0.1866403
227	0xbe5deff6	-0.21673569
228	0xbd9350c7	-0.071931414
229	0x3e5ec4bb	0.21754734
230	0x3e0e089c	0.13870472
231	0x3c555513	0.013020772
232	0xbccbe161	-0.024887742
233	0x3e95f28e	0.29286617
234	0x3d8305e8	0.06397611
235	0x3e739961	0.23788978
236	0xbe05c4c4	-0.13063341
237	0x3e6f0db6	0.23345074
238	0xbdd67ba9	-0.10472805
239	0x3da3e2c9	0.0800224
240	0xbe276590	-0.16347337
241	0x3d9fbe34	0.0779995
242	0xbeb7f5aa	-0.35929614
243	0x3e140cbd	0.14457984
244	0x3d879156	0.066195175
245	0xbe506fd2	-0.20355156
246	0xbe0d17bf	-0.1377859
247	0x3d550bd6	0.05201324
248	0x3e67cc08	0.22636425
249	0x3e7716da	0.24129811
250	0xbe547343	-0.20747094
251	0xbde55c64	-0.11199263
252	0x3e394deb	0.1809613
253	0xbea12cfc	-0.31479633
254	0x3d89ba88	0.06725031
255	0xbdb54847	-0.088516764

weight f4 [48]
0	0x3f84a41c	1.0362582
1	0x3f80c168	1.0059023
2	0x3f95609e	1.167011
3	0x3f5bdb72	0.8588172
4	0x3f895b4f	1.073099
5	0x3f88a196	1.0674312
6	0x3f84410c	1.0332351
7	0x3f4e1d96	0.80513895
8	0x3f2a3743	0.6649057
9	0x3f0259d6	0.5091833
10	0x3f3fdf87	0.7495045
11	0x3f98af76	1.1928546
12	0x3f8b63be	1.0889814
13	0x3f78fce5	0.97260886
14	0x3f80bccc	1.0057616
15	0x3f5ea160	0.8696499
16	0x3f81cfea	1.0141575
17	0x3f6deab0	0.9293623
18	0x3f93fe8d	1.1562058
19	0x3f7df6f0	0.9920492
20	0x3f74ae50	0.9557848
21	0x3f5f7ae5	0.872969
22	0x3f75b151	0.9597369
23	0x3f61e3e4	0.8823836
24	0x3f668e9a	0.9006134
25	0x3fa1aeb4	1.263144
26	0x3f4d5c0d	0.80218583
27	0x3f2388b1	0.6388045
28	0x3f70fe3b	0.94137925
29	0x3f89c548	1.076333
30	0x3f769a74	0.96329427
31	0x3f3ac0e9	0.7295061
32	0x3faef945	1.3669821
33	0x3fabd20f	1.342348
34	0x3f8ace89	1.084428
35	0x3f5f14b9	0.87140995
36	0x3f44e875	0.769172
37	0x3f707e09	0.93942314
38	0x3fa111b9	1.2583534
39	0x3f8838d4	1.0642343
40	0x3fe12074	1.7588029
41	0x3f134ef9	0.5754238
42	0x3f897558	1.0738935
43	0x3f8a271a	1.0793183
44	0x3f3dcf1c	0.7414415
45	0x3f758419	0.9590469
46	0x3f922616	1.1417873
47	0x3f460722	0.77354634

bias f4 [48]
0	0xbd871272	-0.06595315
1	0xbdd7934f	-0.10526144
2	0xbd900949	-0.07033021
3	0x3e0a8159	0.13525905
4	0xbd2e687a	-0.042580105
5	0xbc90226d	-0.01759454
6	0x3d8899b1	0.06669939
7	0x3e480a84	0.19535261
8	0x3de27dcb	0.11059149
9	0x3ea8b36f	0.32949397
10	0x3d3b98e0	0.04580009
11	0x3d14e7e3	0.036353957
12	0x3e25b5f8	0.16182697
13	0xbd9cb20a	-0.07651146
14	0xbe3582e4	-0.17725712
15	0xbe21727c	-0.15766329
16	0x3e19ffa8	0.15038931
17	0x3db10f3f	0.08645486
18	0xbe87cc35	-0.26522985
19	0x3d8518be	0.0649886
20	0x3cace62b	0.021105846
21	0x3dccfad3	0.100087784
22	0x3dbe11ca	0.09280737
23	0x3dfb8886	0.12281899
24	0xbd44e816	-0.048072897
25	0xbe412f94	-0.18865806
26	0xbcaae8c0	-0.020862937
27	0xbdd538b7	-0.10411208
28	0x3bf6a3db	0.0075268573
29	0xbd6bc340	-0.05755925
30	0xbd59ab13	-0.053141665
31	0x3e02823d	0.12744994
32	0xbe348155	-0.17627461
33	0x3bbc331e	0.0057433983
34	0x3cd31c2f	0.025770275
35	0x3e137219	0.14398994
36	0xbe0447e5	-0.1291805
37	0xbde093fc	-0.10965726
38	0x3b86532a	0.0040992694
39	0xbd152662	-0.036413558
40	0x3dfcfa4a	0.12352426
41	0x3db4edb8	0.08834404
42	0x3d38b92a	0.04509846
43	0xbd5a6994	-0.053323343
44	0xbd315b7e	-0.043300144
45	0xbdc521d1	-0.096255906
46	0x3c9c3150	0.019066483
47	0x3e84a649	0.25908116

running_mean f4 [48]
0	0x3b7cc0b5	0.003856701
1	0xbbf5f08a	-0.007505481
2	0x3bd0a027	0.006366748
3	0x3b874160	0.0041276664
4	0xbac5bf58	-0.0015086932
5	0xbb24fac5	-0.0025173884
6	0xba8bb199	-0.0010657787
7	0x3ba07895	0.004897187
8	0xbc29343d	-0.010327396
9	0x3c0fffd4	0.0087890215
10	0x3ab3ee84	0.0013727699
11	0x3be7346e	0.0070558107
12	0x3bf3632d	0.007427594
13	0x3bc9b60a	0.006155734
14	0x3c01601e	0.007896451
15	0xbbff7a04	-0.007796528
16	0x3ababfb2	0.0014247803
17	0x3c01f168	0.007931091
18	0xbc15ce94	-0.00914349
19	0xbc605ba3	-0.013693723
20	0xbb6b6876	-0.0035920418
21	0xbb657793	-0.0035013899
22	0xbba43763	-0.0050114854
23	0xbb726972	-0.003698912
24	0x3cdd2067	0.02699299
25	0xbc0dee40	-0.00866276
26	0x3abff544	0.0014645238
27	0xbad1fdcc	-0.0016021072
28	0x3bc28511	0.005936273
29	0xbc215583	-0.009847048
30	0xbb1ba44f	-0.0023749059
31	0xbc69c3da	-0.014267886
32	0xbbb9b346	-0.005667123
33	0x3bfb8a54	0.007676402
34	0xbbebaf8c	-0.0071925577
35	0xbc5d1e1a	-0.013495946
36	0xbc2d1d20	-0.010566026
37	0x3c072afd	0.008249995
38	0x3afcb990	0.0019281376
39	0x3af1abb3	0.0018438011
40	0xbb8f4d37	-0.0043732184
41	0xbb24b917	-0.0025134736
42	0xbb9bb297	-0.004751514
43	0x3b042172	0.0020161537
44	0xbb263cc7	-0.0025365816
45	0x3aaa97c3	0.0013015199
46	0xbc423207	-0.011852748
47	0xbc04d2b2	-0.008106874

running_var f4 [48]
0	0x3f818a14	1.0120263
1	0x3f149742	0.580433
2	0x3f806041	1.0029374
3	0x3f265c51	0.64984614
4	0x3f3566d6	0.7086004
5	0x3f8518e0	1.0398216
6	0x3f86c5a4	1.0529065
7	0x3e686363	0.22694163
8	0x3f19304f	0.5983934
9	0x3dd4bcbb	0.1038756
10	0x3f4b9475	0.795234
11	0x3f1f889c	0.62317824
12	0x3e9fd9e1	0.31220916
13	0x3eebab78	0.46029258
14	0x3e9af9f1	0.30268815
15	0x3f170d9c	0.5900514
16	0x3effd12e	0.4996428
17	0x3eb84a11	0.35994008
18	0x3f333d72	0.70015633
19	0x3f82a669	1.0207034
20	0x3f044089	0.5166097
21	0x3ee77309	0.45204952
22	0x3ecf6958	0.40510058
23	0x3f3f81a9	0.7480722
24	0x3ef161d4	0.4714495
25	0x3ebccde7	0.3687584
26	0x40012ffb	2.0185535
27	0x3f328054	0.69727063
28	0x3ef56750	0.47930384
29	0x3ec92c79	0.39291742
30	0x3f3a2e31	0.7272673
31	0x3e9701fe	0.29493707
32	0x3e7a7a24	0.24460655
33	0x3f7f1ef4	0.99656606
34	0x3f43df42	0.7651254
35	0x3f33b385	0.701958
36	0x3f5f97ad	0.87340814
37	0x3f4fb1b7	0.81130546
38	0x3f425b42	0.759205
39	0x3f3ebf9c	0.7451112
40	0x3e80ba7e	0.25142282
41	0x3e69a2ef	0.2281606
42	0x3ff18f42	1.8871844
43	0x3f9e739f	1.2379035
44	0x3eeabfe8	0.45849538
45	0x3e735f47	0.23766814
46	0x3f117d30	0.56831646
47	0x3f5cb525	0.86213905

weight f4 [48, 1, 3, 3]
0	0x3e8d7f9f	0.2763643
1	0x3cf291ca	0.029610533
2	0x3e189cdc	0.14903587
3	0xbd7c4033	-0.061584663
4	0x3dfa8615	0.12232605
5	0x3cf5968e	0.029979017
6	0xbd7104c9	-0.058842454
7	0xbc5d6092	-0.013511794
8	0xbd6ae60e	-0.057348303
9	0x3d4cd3c9	0.05000666
10	0xbca1705f	-0.019706903
11	0x3e927049	0.28601292
12	0x3e18b7dc	0.14913887
13	0xbd9cd5cc	-0.07657966
14	0x3e04e653	0.12978487
15	0xbdcc6357	-0.09979885
16	0xbc984bca	-0.018590827
17	0xbd8f96af	-0.070111625
18	0xbd222161	-0.039582614
19	0x3dda7fc1	0.106688984
20	0xbd9c244d	-0.07624111
21	0xbd6a45cd	-0.057195473
22	0x3e00160a	0.12508407
23	0xbdbb849c	-0.091561526
24	0xbd6f974d	-0.0584939
25	0xbe253907	-0.16135035
26	0x3d06f5fd	0.032949436
27	0x3d622387	0.055209663
28	0x3d645b11	0.05575091
29	0xbdbc2bd7	-0.09188049
30	0x3db2a68f	0.08723175
31	0x3dcbbf6d	0.09948621
32	0xbce69f9c	-0.02815228
33	0x3e2d707c	0.1693744
34	0xbdc68d86	-0.09694962
35	0x3df0573a	0.11735387
36	0xbe5570a7	-0.20843755
37	0x3d318a5e	0.043344848
38	0xbda9fd23	-0.08300235
39	0xbbf4243f	-0.00745061
40	0x3e166db5	0.14690287
41	0x3b92992f	0.0044738273
42	0xbc8a89ea	-0.016911466
43	0xbdbe9f41	-0.09307719
44	0xbd13f47f	-0.03612184
45	0xba5f418d	-0.0008516543
46	0xbe0dc049	-0.13842882
47	0x3c846f1b	0.01616626
48	0xbd1692f8	-0.036761254
49	0x3da57b87	0.080802016
50	0x3e25e5ae	0.16200897
51	0x3df5724d	0.11984692
52	0x3d320eb7	0.043471064
53	0x3d64e420	0.05588162
54	0xbde381f5	-0.11108772
55	0xbcbafaa9	-0.022824602
56	0x3da57de2	0.08080651
57	0xbd1ec1a7	-0.0387589
58	0x3bfecbb0	0.0077757463
59	0x3dce9f4e	0.10088979
60	0x3e1f9140	0.15582752
61	0xbd261447	-0.04054668
62	0x3e110481	0.14161874
63	0xbed02804	-0.4065553
64	0xbe217ae4	-0.15769535
65	0xbe4dbc57	-0.20091377
66	0xbdcda0b9	-0.10040421
67	0xbd1373bc	-0.035999045
68	0xbcec3f24	-0.028838702
69	0x3cbdd792	0.023174081
70	0x3d194737	0.03742143
71	0x3d489418	0.04896936
72	0x3e1de38c	0.15418833
73	0xbd792f35	-0.060836036
74	0x3da9ff1e	0.08300613
75	0xbdcc6dcc	-0.099818796
76	0x3dfc5f8b	0.12322911
77	0xbd7e0ccb	-0.06202392
78	0xbe1c23c7	-0.15248023
79	0xbde785e1	-0.11304832
80	0x3cc1559a	0.023600388
81	0x3de6cea8	0.11269885
82	0xbc2f8916	-0.010713836
83	0x3c3bb532	0.011456775
84	0xbddc252e	-0.10749279
85	0xbe073f49	-0.13207735
86	0x3d69b4c3	0.057057153
87	0x3d9b6a4f	0.07588636
88	0x3e07a5d8	0.13246858
89	0xbdd15d34	-0.10222855
90	0xbd8384b8	-0.064217985
91	0x3d0d806a	0.034546293
92	0x3e0232b7	0.12714659
93	0x3d8c2963	0.068438314
94	0xbd1a637c	-0.037692532
95	0xbe0f5699	-0.13997878
96	0xbdc54ceb	-0.096338116
97	0xbd420866	-0.04737129
98	0xbeae9e3b	-0.34105095
99	0xbd0863ef	-0.03329843
100	0xbd81e67f	-0.06342792
101	0x3debaf1c	0.11508009
102	0xbdd922f3	-0.10602369
103	0xbcfeec49	-0.031118529
104	0x3d82a7ef	0.06379687
105	0x3d911f37	0.07086032
106	0x3db7d90d	0.08976946
107	0x3e9013de	0.28140157
108	0x3d3c15dd	0.045919288
109	0x3df6c089	0.12048442
110	0x3b1571c0	0.0022803396
111	0xbe23d13d	-0.15997787
112	0xbdba0d4a	-0.09084566
113	0x3d2c08ff	0.042000767
114	0x3e1268de	0.14297816
115	0xbc136095	-0.008995195
116	0xbe163511	-0.1466868
117	0xbb90d7a3	-0.004420237
118	0x3c61490b	0.013750325
119	0x3cb52188	0.022110716
120	0x3e6643ba	0.22486773
121	0xbcef4f3c	-0.029212587
122	0xbe2660e8	-0.16247904
123	0x3dc16f0d	0.094450094
124	0xbd05fc43	-0.03271128
125	0xbbe9a54b	-0.0071303
126	0x3e05b366	0.13056716
127	0xbd5e8c3d	-0.05433296
128	0x3e1b259f	0.1515107
129	0xbd04a7e0	-0.03238666
130	0xbcfe6599	-0.031054305
131	0xbd03e9ae	-0.032205276
132	0xbdc0d91a	-0.09416409
133	0xbe31ebae	-0.17375061
134	0xbdad0ed2	-0.084500924
135	0x3c3459b4	0.011007715
136	0x3d9f3a2a	0.07774766
137	0x3d84c1b7	0.06482261
138	0x3e2e8dab	0.1704623
139	0x3d955833	0.07292213
140	0x3d9ac310	0.075567365
141	0xbd40ba41	-0.047052626
142	0xbd2d965d	-0.042379726
143	0x3e206da7	0.15666829
144	0xbc5f25b2	-0.013619827
145	0x3d414555	0.04718526
146	0x3e1b2f42	0.15154746
147	0xbe053726	-0.13009319
148	0xbdf37188	-0.11886889
149	0x3dbdb29b	0.09262582
150	0xbd208c86	-0.039196514
151	0xbd126add	-0.035746444
152	0x3d38ad70	0.045087278
153	0x3dc67740	0.09690714
154	0x3cc7cd04	0.024389751
155	0x3c8078cc	0.0156826
156	0x3c306917	0.010767243
157	0xbe499df0	-0.19689155
158	0xbdee7477	-0.11643308
159	0x3c81fe5c	0.015868358
160	0xbd49f8bb	-0.049309473
161	0x3ddfb78b	0.1092368
162	0x3d8d15a4	0.06888893
163	0xbdf42bf6	-0.119224474
164	0x3d060abf	0.032725092
165	0x3dc4a51a	0.09601803
166	0xbd1909b7	-0.03736278
167	0xbe1763e4	-0.14784199
168	0x3bc29285	0.0059378766
169	0xbcd42bed	-0.025899852
170	0x3e2aabaa	0.16667047
171	0xbcd5696f	-0.026051251
172	0xbd86c040	-0.065796375
173	0xbe0ad853	-0.13559084
174	0x3d3f1977	0.046655145
175	0x3de6f6cc	0.112775415
176	0xbd4f6adf	-0.05063903
177	0xbb0ce6f3	-0.002149996
178	0xbe21d3b9	-0.15803422
179	0x3de44bf0	0.111472964
180	0x3e21b09a	0.15790024
181	0x3cf034d4	0.029322065
182	0xbdf49e8d	-0.11944304
183	0xbd8105bc	-0.06299922
184	0xbc39f28b	-0.011349331
185	0x3cfc58f7	0.03080414
186	0xbe24019a	-0.16016236
187	0xbcfc0a96	-0.030766767
188	0x3d47464c	0.048651025
189	0xbe3e106f	-0.18560956
190	0x3d0aa2c4	0.03384663
191	0xbe240ecd	-0.16021271
192	0x3da20f7d	0.079131104
193	0xbd878e43	-0.06618931
194	0x3d55524b	0.052080434
195	0x3e07c46e	0.13258526
196	0x3d79d50a	0.060994186
197	0x3c2f8cbe	0.010714708
198	0xbdbe1c1e	-0.09282707
199	0xbe8d1986	-0.27558535
200	0x3decc6cb	0.11561354
201	0x3d5aabd5	0.053386528
202	0xbdebc192	-0.1151153
203	0xbe39be7e	-0.18139073
204	0x3d3b8926	0.04578509
205	0x3db8e9aa	0.09028943
206	0xbc25d8a5	-0.010122453
207	0x3e0308a3	0.12796263
208	0xbc77f714	-0.015134592
209	0xbe445f23	-0.19176917
210	0x3b89b085	0.004201951
211	0xbd50b3a9	-0.050952587
212	0x3d38447d	0.04498719
213	0x3d8c8a71	0.06862343
214	0x3ddf8758	0.10914487
215	0x3d20a280	0.039217472
216	0xbdfc009c	-0.12304804
217	0x3db24ded	0.087062694
218	0x3d90f2d2	0.07077564
219	0xbe1f6075	-0.15564139
220	0x3b68beee	0.0035514194
221	0x3d2ef9e3	0.04271878
222	0xbe1a00d6	-0.15039381
223	0x3cb1e6e1	0.021716537
224	0x3e176cb4	0.1478756
225	0xbe22c83d	-0.15896697
226	0xbd97013f	-0.073732845
227	0xbdd88604	-0.105724365
228	0x3dbe5a70	0.09294593
229	0x3ab0e03c	0.0013494561
230	0xbc2885e7	-0.010285831
231	0x3d6eb292	0.058275767
232	0x3dabeb10	0.08394444
233	0x3dbdb93a	0.09263845
234	0xbe0ae6f3	-0.13564663
235	0xbe18ba56	-0.14914832
236	0xbdd2ab75	-0.10286609
237	0x3dee45b2	0.11634387
238	0x3dfa7fdc	0.122314185
239	0x3d9f4000	0.07775879
240	0xbdac3165	-0.08407859
241	0x3d668d08	0.05628684
242	0xbd29c627	-0.04144874
243	0xbd113f1c	-0.035460576
244	0xbdca4b79	-0.098776765
245	0x3d8c9622	0.06864573
246	0xbd93f13b	-0.072237454
247	0x3cd11d0b	0.025526544
248	0x3e1a0741	0.1504183
249	0xbe423bbc	-0.189681
250	0x3c860ed7	0.016364498
251	0x3d7f12b8	0.06227371
252	0x3d2b9540	0.041890383
253	0xbd83b798	-0.06431502
254	0x3dd6bf91	0.10485757
255	0x3cbbcb85	0.022924194

weight f4 [48]
0	0x3f84b8ab	1.0368856
1	0x3f91655c	1.1359057
2	0x3f8c838b	1.0977644
3	0x3f76bd80	0.96382904
4	0x3f8e1b0e	1.1102006
5	0x3f760403	0.9609987
6	0x3f76d535	0.9641908
7	0x3f83b305	1.0289007
8	0x3f5faa4c	0.8736923
9	0x3f795cae	0.9740704
10	0x3f8b3767	1.0876282
11	0x3f84e86c	1.038343
12	0x3f7c53f8	0.98565626
13	0x3f72f3f5	0.949035
14	0x3f86bd47	1.0526513
15	0x3f82308b	1.0171064
16	0x3f84db37	1.0379399
17	0x3f7a697f	0.97817224
18	0x3f77cd06	0.96797216
19	0x3f8411d8	1.0317945
20	0x3f7f9528	0.9983697
21	0x3f639011	0.888917
22	0x3f826a7c	1.0188746
23	0x3f6c5200	0.9231262
24	0x3f9634b7	1.1734837
25	0x3f867155	1.0503336
26	0x3f7aeff7	0.9802241
27	0x3f4f5e39	0.8100315
28	0x3f844c64	1.0335813
29	0x3f9124b4	1.1339326
30	0x3f6c0035	0.92187816
31	0x3f7346c9	0.95029885
32	0x3f7a40dd	0.97755224
33	0x3f85751d	1.0426365
34	0x3f7db2a5	0.99100715
35	0x3f77bd16	0.967729
36	0x3f9f3743	1.243874
37	0x3f8a9a6b	1.0828375
38	0x3f864aa3	1.0491527
39	0x3f560894	0.8360684
40	0x3f611c73	0.87934035
41	0x3f87a8a7	1.0598344
42	0x3f6386c0	0.8887749
43	0x3f50fa4c	0.8163192
44	0x3f8a7263	1.0816158
45	0x3f82a3f0	1.020628
46	0x3f719cd0	0.943799
47	0x3f85488b	1.0412763

bias f4 [48]
0	0x3c8ae3aa	0.016954262
1	0x3d81d3af	0.063392036
2	0x3ddbbe28	0.10729629
3	0x3db584fd	0.08863256
4	0x3e2112cb	0.15729825
5	0xbc0d8758	-0.0086382255
6	0x3c7d01b6	0.015442302
7	0xbd811121	-0.06302095
8	0xbe138e04	-0.14409643
9	0xbd3dc46b	-0.046329897
10	0x3dff2f50	0.12460196
11	0x3d117fef	0.035522398
12	0xbe2b1a2a	-0.167092
13	0xbdf845fc	-0.121227235
14	0xbe008ae4	-0.12552983
15	0xbe40fd0f	-0.18846534
16	0xbd2cdc81	-0.042202476
17	0xbd020fd1	-0.031753365
18	0xbd794a05	-0.060861606
19	0xbdcc5f23	-0.099790834
20	0xbe086b9d	-0.13322301
21	0x3e3cd2f7	0.18439852
22	0xbdb7c09b	-0.089722835
23	0xbd2c589c	-0.042076692
24	0xbc916eae	-0.017752972
25	0xbd1cd044	-0.038284555
26	0xbbf52f3f	-0.007482439
27	0xbd50f23c	-0.051012263
28	0x3d0b9ea7	0.03408685
29	0x3e073422	0.13203481
30	0xbd9f94af	-0.07792031
31	0x3daf57a4	0.08561638
32	0xbe010ad1	-0.12601782
33	0xbe0fb6a1	-0.14034511
34	0xbe31e97f	-0.17374228
35	0xbe6098a3	-0.21933226
36	0x3dae1b80	0.08501339
37	0x3d2d3299	0.04228458
38	0xbd4ac65f	-0.049505588
39	0xbe403107	-0.18768702
40	0xbd430499	-0.047611807
41	0x3de4799f	0.1115601
42	0x3bf42a7e	0.0074513545
43	0xbde69f80	-0.11260891
44	0x3cc7d995	0.024395743
45	0xbc2e918e	-0.01065482
46	0xbdd4c91d	-0.10389922
47	0xbdd7698d	-0.10518179

running_mean f4 [48]
0	0x3e1be6d6	0.15224776
1	0x3dd372ed	0.10324655
2	0xbda7fb67	-0.08202248
3	0x3e291969	0.165136
4	0xbdd42e3a	-0.103603795
5	0x3df4d8f8	0.11955446
6	0x3e05a65c	0.13051742
7	0xbeaab604	-0.33341992
8	0xbd1fb198	-0.038987726
9	0x3c77461c	0.015092399
10	0xbe0cdcd7	-0.13756119
11	0x3e2e06af	0.16994737
12	0xbc897d6b	-0.016783437
13	0x3d20b3c7	0.03923395
14	0xbd836002	-0.064147964
15	0x3dd86bf1	0.10567463
16	0xba83b437	-0.0010048215
17	0xbd27f2a0	-0.04100287
18	0x3c141013	0.0090370355
19	0xbd5faf00	-0.054610252
20	0xbd1d8f24	-0.038466588
21	0xbc7bb59b	-0.015363122
22	0xbe286d52	-0.16447952
23	0x3d8745b8	0.06605095
24	0xbc67616f	-0.014122351
25	0xbbbd4d05	-0.0057770037
26	0xbd28a5bc	-0.04117368
27	0xbc3102c5	-0.010803883
28	0x3c87299d	0.016499335
29	0xbe09e60c	-0.13466662
30	0x3dc3d85a	0.0956275
31	0x3c05fa0b	0.008177291
32	0x3df1c8d8	0.11805886
33	0xbdbb9651	-0.0915953
34	0x3e34040d	0.1757967
35	0xbd3f3b8f	-0.04668766
36	0xbd63795a	-0.05553565
37	0xbda72323	-0.08160999
38	0xbde5c7c9	-0.112197466
39	0xbcc8e686	-0.024523985
40	0x3e48f7bd	0.19625755
41	0x3db8863e	0.0900998
42	0x3d602d41	0.054730657
43	0x39cc1af7	0.00038930002
44	0xbd8ebc99	-0.06969566
45	0x3e412154	0.1886037
46	0xbd2a42d7	-0.04156765
47	0xbb41294b	-0.0029474075

running_var f4 [48]
0	0x3d1e1b9e	0.038600557
1	0x3da82e9b	0.08212014
2	0x3c88c0e1	0.016693534
3	0x3c94e72a	0.018176634
4	0x3cc74bb8	0.024328098
5	0x3ccd05aa	0.025027115
6	0x3cb462dd	0.022019798
7	0x3dea3d33	0.11437454
8	0x3bb5bdd9	0.0055463132
9	0x3b762be8	0.0037562791
10	0x3d93599e	0.071948275
11	0x3dbadbad	0.09123931
12	0x3c8ad56e	0.016947474
13	0x3c32f89c	0.010923531
14	0x3d3d3701	0.046195034
15	0x3cb35619	0.02189164
16	0x3c8387cd	0.016055966
17	0x3b84ac40	0.004048854
18	0x3bd8000a	0.0065918015
19	0x3c95b123	0.018272942
20	0x3c7b805f	0.01535043
21	0x3b427a62	0.0029674997
22	0x3d6198d2	0.05507738
23	0x3c0602cc	0.008179378
24	0x3bfa72f4	0.007643098
25	0x3d9cd38d	0.076575376
26	0x3bf5646e	0.007488779
27	0x3b696665	0.003561401
28	0x3c66ca9f	0.014086395
29	0x3d89d063	0.067292
30	0x3d88b2bd	0.066747166
31	0x3b39ba62	0.0028339853
32	0x3dd43af6	0.103628084
33	0x3ca3ba9e	0.019986447
34	0x3dbe83fc	0.09302518
35	0x3cabaa57	0.020955248
36	0x3cf493e8	0.029855683
37	0x3cf40d80	0.029791594
38	0x3d30635f	0.043063518
39	0x3b17499a	0.0023084641
40	0x3da87529	0.082254715
41	0x3d27ca10	0.040964186
42	0x3c0c57a2	0.008565815
43	0x3b71551f	0.0036824418
44	0x3ca1f1fa	0.019768704
45	0x3d43281a	0.047645666
46	0x3bdf4eb1	0.0068148007
47	0x3c53ae65	0.012919997
