trained_model/BiSegNet(ReagentV1)_no_train.pt (torch, 589429 bytes, 141 tensors)

weight f4 [8, 1, 3, 3]
0	0x3ddb372c	0.107038826
1	0x3e7ab3e8	0.24482691
2	0x3dad2dac	0.08455977
3	0xbdcd1fd2	-0.10015835
4	0xbe075a98	-0.13218153
5	0xbe0e9847	-0.13925277
6	0xbe2a6ef4	-0.16643888
7	0x3e786e54	0.24260837
8	0xbe4b0d58	-0.19829309
9	0x3de473d0	0.11154902
10	0x3d82f1b0	0.063937545
11	0xbde71fda	-0.11285372
12	0x3dfb7154	0.12277475
13	0xbbf3af00	-0.007436633
14	0x3e36d6de	0.17855403
15	0xbe4d551a	-0.20051995
16	0xbe282a08	-0.16422284
17	0xbe2f3972	-0.17111757
18	0xbe450cb1	-0.19243123
19	0x3e66f372	0.22553805
20	0xbe7c1a18	-0.24619329
21	0x3e55b4c6	0.20869741
22	0x3e22ff72	0.15917757
23	0xbe547d9c	-0.20751041
24	0xbe3a85d8	-0.1821512
25	0xbe83ccba	-0.2574213
26	0x3e67fad2	0.22654274
27	0xbe5255be	-0.2054052
28	0x3dd53a4c	0.1041151
29	0x3d884094	0.06652942
30	0xbda00e62	-0.07815243
31	0x3e86b1be	0.26307482
32	0xbd2bac3c	-0.041912302
33	0x3e060318	0.13087118
34	0xbdf8a1e4	-0.12140253
35	0xbe2264f0	-0.15858817
36	0xbe6a523d	-0.22882934
37	0xbdbdd08a	-0.09268291
38	0x3db96d98	0.090541065
39	0x3de24b08	0.11049467
40	0x3deacae4	0.114644796
41	0x3e805412	0.2506414
42	0x3c8bb7f0	0.017055482
43	0x3d706c50	0.058697045
44	0x3ca43cc0	0.0200485
45	0xbddc0138	-0.1074242
46	0x3e191dc8	0.14952767
47	0x3dd33ecc	0.10314712
48	0xbe84ffc9	-0.259764
49	0x3cf91fd0	0.030410677
50	0xbe63f751	-0.22262312
51	0xbe5f2849	-0.21792711
52	0x3e42fa92	0.19040897
53	0x3d511e08	0.05105403
54	0xbe4ab800	-0.19796753
55	0xbe56d525	-0.20979746
56	0xbe7516e8	-0.2393452
57	0x3d81a10c	0.063295454
58	0xbe6bba61	-0.23020317
59	0xbce90c78	-0.028448328
60	0xbcd1b3d8	-0.025598451
61	0x3dfb6a84	0.122761756
62	0x3e778804	0.2417298
63	0x3e848d5c	0.258891
64	0x3d68b5b0	0.056813896
65	0x3dde9d2c	0.10869822
66	0xbcf64700	-0.030063152
67	0x3e85c4a8	0.261266
68	0xbd75efac	-0.060043022
69	0x3d92562c	0.07145342
70	0x3e4adda0	0.19811106
71	0x3d880ef8	0.0664348

weight f4 [8]
0	0x3f800000	1.0
1	0x3f800000	1.0
2	0x3f800000	1.0
3	0x3f800000	1.0
4	0x3f800000	1.0
5	0x3f800000	1.0
6	0x3f800000	1.0
7	0x3f800000	1.0

bias f4 [8]
0	0x00000000	0.0
1	0x00000000	0.0
2	0x00000000	0.0
3	0x00000000	0.0
4	0x00000000	0.0
5	0x00000000	0.0
6	0x00000000	0.0
7	0x00000000	0.0

running_mean f4 [8]
0	0xbb3a7e14	-0.0028456496
1	0xbc149a1a	-0.009069944
2	0xbc57f8e5	-0.0131819
3	0xbb006953	-0.0019594028
4	0x3c8bfbb9	0.017087804
5	0xbc61dc4b	-0.013785432
6	0xbccc2d6b	-0.024924
7	0x3d3db597	0.046315756

running_var f4 [8]
0	0x3f66f19a	0.90212405
1	0x3f66c31a	0.9014145
2	0x3f67477f	0.9034347
3	0x3f66cdea	0.9015795
4	0x3f66bdf0	0.9013357
5	0x3f66f502	0.902176
6	0x3f66fbaa	0.9022776
7	0x3f66d76c	0.9017246

weight f4 [48, 8, 1, 1]
0	0x3e7e3568	0.2482506
1	0xbe599e04	-0.21251684
2	0x3d592ce0	0.05302131
3	0xbdb47d9a	-0.08813019
4	0x3d8bb49c	0.06821558
5	0xbe33006b	-0.17480628
6	0xbdc1a8e6	-0.09456043
7	0xbe1da92b	-0.15396564
8	0x3e12f5e4	0.14351612
9	0xbe93d131	-0.28870538
10	0xbe792ace	-0.24332735
11	0x3e33f030	0.17572093
12	0xbd9c77ec	-0.07640061
13	0xbe50ff81	-0.20409967
14	0x3e91204c	0.28344953
15	0xbdb29ada	-0.08720942
16	0x3e2a4600	0.16628265
17	0x3e89c830	0.26910543
18	0x3cb54930	0.022129625
19	0xbe45e7b3	-0.19326667
20	0x3e1e7ee4	0.15478092
21	0x3e7a8cfc	0.24467844
22	0x3d4fd930	0.050744236
23	0x3dfeb950	0.12437689
24	0xbbcb2200	-0.0061991215
25	0x3e933de4	0.28758156
26	0xbe9d1d5b	-0.3068646
27	0x3d09c3b8	0.033633918
28	0x3baa4f80	0.0051974654
29	0x3c4871e0	0.012234181
30	0xbd7e8b68	-0.062144667
31	0xbc8ea620	-0.017413199
32	0xbe8cca9a	-0.27498323
33	0xbd948908	-0.07252699
34	0x3de95064	0.113922864
35	0x3ddb58dc	0.10710308
36	0x3d938d1c	0.07204649
37	0x3de96274	0.113957316
38	0xbe397a95	-0.18113168
39	0x3c8c74f0	0.017145604
40	0xbe18f5a9	-0.14937462
41	0x3bf93a40	0.007605821
42	0xbd204150	-0.039124787
43	0x3e775ec8	0.2415725
44	0x3dcbfaf8	0.09959978
45	0xbe79f2b3	-0.24408989
46	0x3e558a7c	0.20853609
47	0xbe4837ab	-0.19552486
48	0x3e2af102	0.166935
49	0xbde81984	-0.11332992
50	0x3e879054	0.264773
51	0x3cd76d40	0.026297212
52	0x3e451dcc	0.19249648
53	0x3e2a5c4e	0.16636774
54	0x3e2ef9ee	0.17087528
55	0x3e6364d8	0.22206438
56	0xbbef3d80	-0.0073010325
57	0xbe51ed3f	-0.20500658
58	0x3d85b3f0	0.06528461
59	0x3e454710	0.1926539
60	0xbe81004d	-0.25195542
61	0x3d2a7188	0.041612178
62	0xbe9c9b93	-0.30587444
63	0x3d633ab8	0.05547592
64	0x3e6d9b68	0.23203814
65	0x3e65de78	0.22448146
66	0x3e89e576	0.26932877
67	0xbe13e663	-0.14443354
68	0xbe92c192	-0.28663307
69	0x3e2c934a	0.16853061
70	0x3d656648	0.056005746
71	0x3da29534	0.079386145
72	0x3cd720c0	0.026260734
73	0x3baf5440	0.0053506196
74	0xbe50988d	-0.20370694
75	0xbe450506	-0.19240198
76	0xbda6ab2c	-0.08138117
77	0xbd4bf740	-0.049796343
78	0x3ce96e70	0.028495044
79	0xbe81b635	-0.25334325
80	0x3bf9e900	0.0076266527
81	0xbe1d013d	-0.15332504
82	0xbe2355a9	-0.15950646
83	0x3d549728	0.051901966
84	0xbe7fe9e7	-0.2499157
85	0x3e6d1288	0.231516
86	0x3b6d9680	0.0036253035
87	0xbe7f26a0	-0.24917078
88	0x3e644ef4	0.22295743
89	0x3d1a2578	0.03763339
90	0xbd8729d8	-0.06599778
91	0x3e045f0a	0.1292688
92	0xbe4d71f5	-0.20063002
93	0x3e5a2b4c	0.21305579
94	0xbe17f6f8	-0.14840305
95	0xbd77a0d8	-0.060456127
96	0x3d622258	0.055208534
97	0x3e9ebd5c	0.31003845
98	0x3e534db0	0.20635104
99	0xbe56e82a	-0.20987001
100	0xbaf7b800	-0.0018899441
101	0x3e54d55c	0.20784515
102	0xbde4e2ac	-0.11176047
103	0x3e5c0540	0.21486378
104	0xbe0585e4	-0.13039356
105	0x3e23c8a2	0.15994504
106	0xbd823c08	-0.06359106
107	0xbe8ea45f	-0.2785978
108	0x3e1e85b2	0.15480688
109	0x3d75c130	0.05999869
110	0x3ea69f18	0.32543254
111	0x3d302a78	0.04300925
112	0xbd1b1c70	-0.037868917
113	0xbea1de1b	-0.31614766
114	0x3ea06a9a	0.3133133
115	0x3e8812be	0.265768
116	0x3e9649ba	0.29353124
117	0x3e83f274	0.25770915
118	0xbddaee40	-0.10689974
119	0x3e5b7c48	0.21434128
120	0x3e3fa9ac	0.18717068
121	0x3e8d5658	0.27604938
122	0xbe2e3def	-0.17015813
123	0x3d9ac154	0.07556406
124	0xbe83b66a	-0.25725108
125	0x3ea140de	0.31494802
126	0x3e0047d8	0.12527406
127	0x3db26394	0.08710399
128	0x3e8500e2	0.25977236
129	0x3e9a8ff0	0.3018794
130	0xbe43399a	-0.19064942
131	0x3e949360	0.29018688
132	0xbdaea840	-0.08528185
133	0xbdd1bcf4	-0.10241118
134	0xbdede382	-0.11615659
135	0xbe926505	-0.28592697
136	0x3e78b3d4	0.24287349
137	0x3e10a2bc	0.14124578
138	0x3df20da8	0.11819011
139	0x3e6b47c8	0.22976601
140	0x3e8bac9e	0.27280134
141	0x3e1c6df4	0.15276319
142	0xbc96bd30	-0.018400759
143	0x3ea76570	0.32694578
144	0xbe502847	-0.20327865
145	0xbce34130	-0.027741045
146	0x3e3c500c	0.1838991
147	0xbe1c43f1	-0.15260293
148	0x3e56e9ac	0.20987576
149	0x3d7a9120	0.06117356
150	0xbea4a19a	-0.32154542
151	0x3e4483dc	0.19190925
152	0xbe9f9336	-0.31167
153	0xbe86abab	-0.26302847
154	0xbe9e6fe6	-0.30944747
155	0x3e884b68	0.2662003
156	0x3e8d5f30	0.27611685
157	0x3c778100	0.01510644
158	0xbd6f55d0	-0.058431447
159	0x3e6572e0	0.22407103
160	0x3cdd51c0	0.02701652
161	0xbd71f128	-0.059067875
162	0x3d3a4bb0	0.045482337
163	0x3e53667c	0.20644563
164	0x3e93e526	0.28885764
165	0xbe18f359	-0.1493658
166	0x3dc43a84	0.095814735
167	0xbd220578	-0.039555997
168	0xbe906814	-0.28204405
169	0x3deaca98	0.11464423
170	0xbd4ac548	-0.04950455
171	0x3ea3fa10	0.3202672
172	0xbbfc76c0	-0.007704586
173	0xbd84e7b8	-0.06489509
174	0xbe152d0f	-0.1456797
175	0x3cea20c0	0.02858007
176	0x3d87dd5c	0.06634018
177	0xbdddb6e2	-0.10825898
178	0x3ce84c10	0.028356582
179	0xbd2f5d40	-0.04281354
180	0x3d992310	0.07477391
181	0x3e0d029c	0.13770527
182	0x3e91ab1e	0.28450865
183	0xbd90a0ec	-0.070619434
184	0x3d9ad89c	0.07560846
185	0x3e49b8a4	0.19699341
186	0x3c331900	0.010931253
187	0xbdeda48e	-0.11603652
188	0xbea4d506	-0.32193774
189	0xbd7dda08	-0.06197551
190	0xbe8b42ad	-0.27199307
191	0x3e199346	0.14997587
192	0xbea0bb12	-0.31392723
193	0x3e1e61b6	0.15466961
194	0x3e48ffb4	0.19628793
195	0x3c9e1330	0.019296259
196	0x3e928b12	0.28621727
197	0x3e89ca6c	0.26912248
198	0xbe3f352c	-0.18672627
199	0x3d38d0f0	0.045121133
200	0xbe0c333f	-0.13691424
201	0xbe2464a3	-0.16054015
202	0x3e856d2e	0.2605986
203	0xbce220c0	-0.027603507
204	0x3cc92100	0.024551868
205	0xbe6efbf2	-0.23338297
206	0x3e9ef1d6	0.3104388
207	0xbe09109c	-0.13385242
208	0xbe0f2db6	-0.13982281
209	0x3e33aa88	0.17545521
210	0xbd6814b0	-0.056660354
211	0x3e01db70	0.12681365
212	0x3e6a3ec4	0.22875506
213	0xbc86a8b0	-0.016437858
214	0x3e935af4	0.2878033
215	0x3e8bf51c	0.2733544
216	0xbe61c966	-0.22049484
217	0x3ea75680	0.32683182
218	0xbb74eb80	-0.0037371814
219	0x3e238e4c	0.1597225
220	0x3db1fde0	0.08691001
221	0x3b659500	0.0035031438
222	0xbd44c338	-0.048037738
223	0x3e649e08	0.22325909
224	0xbe3269fb	-0.17423241
225	0x3e4ee43c	0.20204252
226	0x3ce12450	0.027483135
227	0x3e4af8b8	0.19821441
228	0x3e9390a0	0.28821278
229	0x3e48e540	0.19618702
230	0x3ea64ed2	0.3248201
231	0x3d325f10	0.04354769
232	0xbe98bfa1	-0.298337
233	0xbe1d6012	-0.15368679
234	0x3e3507dc	0.1767878
235	0x3e550d98	0.20805967
236	0xbe9f8042	-0.3115254
237	0x3e6e0d4c	0.2324726
238	0xbe614fd4	-0.22003108
239	0x3e9ae60a	0.3025363
240	0xbe13dc4f	-0.1443951
241	0xbcbb29f0	-0.022847146
242	0xbe806f22	-0.25084788
243	0x3e1c7f3a	0.15282908
244	0xbe711b82	-0.2354565
245	0x3e4b1ff4	0.19836408
246	0xbe55bd46	-0.20872983
247	0x3df46324	0.11932972
248	0xbe500886	-0.20315751
249	0x3d6a2eb0	0.05717343
250	0x3e2dcc0c	0.16972369
251	0xbd7d2a08	-0.061807662
252	0x3e500540	0.20314503
253	0x3e5a703c	0.21331877
254	0xbe06d9ca	-0.13169017
255	0xbe9f1f36	-0.310785

weight f4 [48]
0	0x3f800000	1.0
1	0x3f800000	1.0
2	0x3f800000	1.0
3	0x3f800000	1.0
4	0x3f800000	1.0
5	0x3f800000	1.0
6	0x3f800000	1.0
7	0x3f800000	1.0
8	0x3f800000	1.0
9	0x3f800000	1.0
10	0x3f800000	1.0
11	0x3f800000	1.0
12	0x3f800000	1.0
13	0x3f800000	1.0
14	0x3f800000	1.0
15	0x3f800000	1.0
16	0x3f800000	1.0
17	0x3f800000	1.0
18	0x3f800000	1.0
19	0x3f800000	1.0
20	0x3f800000	1.0
21	0x3f800000	1.0
22	0x3f800000	1.0
23	0x3f800000	1.0
24	0x3f800000	1.0
25	0x3f800000	1.0
26	0x3f800000	1.0
27	0x3f800000	1.0
28	0x3f800000	1.0
29	0x3f800000	1.0
30	0x3f800000	1.0
31	0x3f800000	1.0
32	0x3f800000	1.0
33	0x3f800000	1.0
34	0x3f800000	1.0
35	0x3f800000	1.0
36	0x3f800000	1.0
37	0x3f800000	1.0
38	0x3f800000	1.0
39	0x3f800000	1.0
40	0x3f800000	1.0
41	0x3f800000	1.0
42	0x3f800000	1.0
43	0x3f800000	1.0
44	0x3f800000	1.0
45	0x3f800000	1.0
46	0x3f800000	1.0
47	0x3f800000	1.0

bias f4 [48]
0	0x00000000	0.0
1	0x00000000	0.0
2	0x00000000	0.0
3	0x00000000	0.0
4	0x00000000	0.0
5	0x00000000	0.0
6	0x00000000	0.0
7	0x00000000	0.0
8	0x00000000	0.0
9	0x00000000	0.0
10	0x00000000	0.0
11	0x00000000	0.0
12	0x00000000	0.0
13	0x00000000	0.0
14	0x00000000	0.0
15	0x00000000	0.0
16	0x00000000	0.0
17	0x00000000	0.0
18	0x00000000	0.0
19	0x00000000	0.0
20	0x00000000	0.0
21	0x00000000	0.0
22	0x00000000	0.0
23	0x00000000	0.0
24	0x00000000	0.0
25	0x00000000	0.0
26	0x00000000	0.0
27	0x00000000	0.0
28	0x00000000	0.0
29	0x00000000	0.0
30	0x00000000	0.0
31	0x00000000	0.0
32	0x00000000	0.0
33	0x00000000	0.0
34	0x00000000	0.0
35	0x00000000	0.0
36	0x00000000	0.0
37	0x00000000	0.0
38	0x00000000	0.0
39	0x00000000	0.0
40	0x00000000	0.0
41	0x00000000	0.0
42	0x00000000	0.0
43	0x00000000	0.0
44	0x00000000	0.0
45	0x00000000	0.0
46	0x00000000	0.0
47	0x00000000	0.0

running_mean f4 [48]
0	0xbc69f41a	-0.01427939
1	0xbc437649	-0.011930057
2	0x3d0a4f54	0.03376706
3	0xbb0a3229	-0.0021087027
4	0xbb8875c1	-0.004164428
5	0xbb37c5bc	-0.0028041443
6	0x3d34d019	0.04414377
7	0xbc891998	-0.016735837
8	0x3cc3f089	0.023918407
9	0xbcede6f7	-0.029040797
10	0xbcab18b5	-0.020885805
11	0x3ba6b81c	0.0050878655
12	0x3cdcb7bb	0.026943078
13	0x3c32737c	0.010891791
14	0x3d121945	0.03566863
15	0x3cd21eaf	0.025649397
16	0x3b3d3ba3	0.0028874658
17	0x3d722b7a	0.059123494
18	0xbb15da04	-0.0022865543
19	0xbbccc2af	-0.006248794
20	0x3c89dbdb	0.016828468
21	0xbb5eb2a5	-0.0033980992
22	0x3c739d08	0.014868982
23	0xbc609252	-0.0137067605
24	0x3c9b9265	0.018990705
25	0xbb81ef73	-0.003965312
26	0x3d1165c5	0.035497446
27	0x3caeb771	0.021327706
28	0x3d36ba5f	0.04461133
29	0xbb2abd71	-0.0026052857
30	0xbc80e82b	-0.015735706
31	0xbb295769	-0.0025839454
32	0x3ade3bc5	0.0016955069
33	0x3c32689b	0.010889198
34	0xbc2d4147	-0.010574645
35	0x3b155a50	0.0022789426
36	0x3c47a42f	0.0121851405
37	0x3cab181d	0.020885522
38	0xbc0248fb	-0.00795197
39	0xbcb028fe	-0.021503922
40	0x3ced4a60	0.028966129
41	0xbc85f084	-0.016350038
42	0xbc80356b	-0.015650472
43	0x3d3b022b	0.045656364
44	0xbc4a4adf	-0.012346952
45	0xbd1018ab	-0.035179775
46	0x3a83b0da	0.0010047213
47	0xbcd92812	-0.026508365

running_var f4 [48]
0	0x3f6706b7	0.9024462
1	0x3f687bbc	0.90813804
2	0x3f68338c	0.90703654
3	0x3f67d652	0.905614
4	0x3f679fbc	0.9047811
5	0x3f694d49	0.9113355
6	0x3f685ea4	0.9076941
7	0x3f68e5a3	0.909754
8	0x3f6a0303	0.91410846
9	0x3f67bc88	0.9052205
10	0x3f682e87	0.90695995
11	0x3f68daa3	0.90958613
12	0x3f68b2c8	0.908978
13	0x3f68ddfb	0.90963715
14	0x3f6b2ebe	0.918682
15	0x3f697143	0.9118845
16	0x3f698750	0.91222095
17	0x3f692852	0.9107715
18	0x3f680dc7	0.9064602
19	0x3f6b3385	0.9187549
20	0x3f6804fa	0.90632594
21	0x3f68b6b7	0.909038
22	0x3f67d107	0.90553325
23	0x3f6969f6	0.9117731
24	0x3f689bac	0.90862536
25	0x3f69ebf7	0.9137568
26	0x3f6814f0	0.9065695
27	0x3f68413d	0.90724546
28	0x3f68c686	0.9092792
29	0x3f6a95b9	0.9163471
30	0x3f6894d7	0.9085211
31	0x3f685e6f	0.90769094
32	0x3f687f03	0.90818805
33	0x3f680168	0.90627146
34	0x3f6871ad	0.90798455
35	0x3f67ac63	0.90497416
36	0x3f6a433e	0.91508853
37	0x3f68b4b5	0.9090074
38	0x3f69b626	0.9129356
39	0x3f67c9b2	0.9054214
40	0x3f6a47cd	0.9151581
41	0x3f692238	0.9106784
42	0x3f6835c4	0.9070704
43	0x3f6ab19e	0.9167727
44	0x3f688ac9	0.9083677
45	0x3f6841ae	0.9072522
46	0x3f68ea9b	0.9098298
47	0x3f694519	0.9112106

weight f4 [48, 1, 3, 3]
0	0x3d7b24d0	0.061314404
1	0xbd9d2dca	-0.07674749
2	0x3dc3ad48	0.09554535
3	0x3cdf6238	0.027268514
4	0xbc1fb238	-0.0097470805
5	0x3d93a3b4	0.07208958
6	0xbde78f90	-0.11306679
7	0x3d8ecc10	0.069725156
8	0x3c335f10	0.010947958
9	0xbdc382bd	-0.09546421
10	0x3dcdce48	0.10049111
11	0xbd85cb96	-0.065329716
12	0xbdc14bc1	-0.09438277
13	0x3d5a0c84	0.053234592
14	0x3d88e2ac	0.06683859
15	0x3c7aa760	0.015298694
16	0x3dbd55a4	0.0924485
17	0xbba6ef50	-0.0050944462
18	0x3c7e4ea0	0.015521675
19	0xbc8ffb48	-0.017575875
20	0x3c4261c0	0.011864126
21	0xbdd7018a	-0.104983404
22	0xbd89e1bf	-0.06732511
23	0xbde65f2c	-0.11248621
24	0x3d3f3e68	0.046690375
25	0xbdad5bd6	-0.08464782
26	0x3db5d7c4	0.08879045
27	0x3c3e8f50	0.011630848
28	0xbd2383e2	-0.039920695
29	0xbd8dcc89	-0.069237776
30	0xbb76c980	-0.0037656724
31	0x3d72acb4	0.059246734
32	0xbca81540	-0.020517945
33	0xbd772072	-0.060333677
34	0x3b8eab10	0.0043538883
35	0x3c93fe00	0.018065453
36	0xbcc7bdb8	-0.024382457
37	0x3d8c1534	0.06839982
38	0xbd28c9ee	-0.0412082
39	0x3dc568b4	0.09639111
40	0x3d7f3d00	0.062314034
41	0xbdd4f9f8	-0.1039924
42	0x3de5da74	0.11223307
43	0x3dec64ac	0.11542639
44	0xbd80035e	-0.06250642
45	0xbd78755d	-0.0606588
46	0x3dd15992	0.10222162
47	0x3dae63f0	0.08515155
48	0x3ca11bc8	0.019666567
49	0xbdc1c804	-0.09461978
50	0xbddd5fb4	-0.108092695
51	0x3d0121f4	0.03152652
52	0x3d98d4ce	0.07462464
53	0xbab6a200	-0.0013933778
54	0x3db88204	0.090091735
55	0x3d6a01ec	0.05713074
56	0x3c405ff0	0.011741623
57	0xbd2625d4	-0.04056342
58	0x3d959aba	0.073049024
59	0xbde44528	-0.11146003
60	0xbd667ed7	-0.056273308
61	0x3da64518	0.08118647
62	0x3cbe2740	0.023212075
63	0x3db6ce38	0.08926052
64	0xbd7a2368	-0.061068922
65	0xbd6e18bd	-0.05812906
66	0xbcbfea54	-0.023427166
67	0xbc0d1b38	-0.0086124465
68	0x3d836b3a	0.06416936
69	0x3dafaa3a	0.0857739
70	0xbdc04a37	-0.09389155
71	0x3dd5a7bc	0.104323834
72	0xbddcae93	-0.10775485
73	0xbd56eaf0	-0.052470148
74	0xbc642fb8	-0.013927393
75	0xbd9c4720	-0.076307535
76	0x3d55443c	0.052067026
77	0x3c81b3b8	0.015832767
78	0x3d73cf84	0.059524074
79	0xbd82fb26	-0.06395559
80	0xbd7cb6c9	-0.061697755
81	0xbd334326	-0.04376521
82	0x3d5c6d14	0.053814963
83	0x3c883110	0.016624957
84	0x3ca14640	0.019686818
85	0xbcc066b8	-0.02348648
86	0x3ddacdb4	0.10683766
87	0xbde0ecb8	-0.109826505
88	0xbd20d2f8	-0.039263695
89	0xbc6c4c88	-0.014422543
90	0xbd05ee96	-0.032698236
91	0xbd342f74	-0.043990567
92	0xbd8acc1a	-0.067772105
93	0x3daa6e02	0.083217636
94	0xbdac442a	-0.08411439
95	0x3d56e290	0.05246216
96	0x3de59a62	0.11211087
97	0x3d71b274	0.059008077
98	0xbc8862a4	-0.016648598
99	0x3ba86850	0.005139388
100	0x3dae0944	0.08497861
101	0xbda65d20	-0.08123231
102	0x3dc1e78a	0.09467991
103	0xbb130fc0	-0.0022439808
104	0xbd8338f0	-0.06407344
105	0x3dbf5328	0.09342033
106	0x3d271364	0.040789977
107	0xbded08f3	-0.115739726
108	0xbd275788	-0.04085496
109	0x3d684b70	0.056712568
110	0x3cc21bb0	0.023694843
111	0xbdb94afa	-0.09047504
112	0xbde798e5	-0.11308459
113	0xbd66ae1c	-0.056318387
114	0x3dc5b4c0	0.09653616
115	0xbba43e70	-0.005012326
116	0xbd7a3796	-0.061088167
117	0x3be1be00	0.006889105
118	0xbd72deaf	-0.0592944
119	0xbd732274	-0.05935903
120	0x3d0c918c	0.03431849
121	0x39ab9300	0.00032725185
122	0x3d8f2880	0.06990147
123	0x3dcea2dc	0.10089657
124	0xbbaad030	-0.005212806
125	0x3d2c4998	0.042062372
126	0x3dc579be	0.09642361
127	0xbc73e868	-0.014886953
128	0xbd4c0c34	-0.049816325
129	0xbb6cec60	-0.0036151633
130	0xbd971e2e	-0.07378803
131	0xbcdeacd0	-0.027182013
132	0xbc8b1730	-0.01697883
133	0xbdaea85c	-0.08528206
134	0xbd98044e	-0.07422696
135	0xbda1b552	-0.07895912
136	0x3ade8380	0.0016976446
137	0x3d34f67c	0.04418038
138	0x3d00a318	0.03140554
139	0xbd94a6b2	-0.07258357
140	0xbbe76e30	-0.007062696
141	0x3d2f4478	0.042789906
142	0xbd2a51ae	-0.041581802
143	0x3c04cca8	0.0081054345
144	0xbdb8a688	-0.09016138
145	0xbdce7813	-0.10081496
146	0x3d9e0570	0.07715881
147	0xbdc886a8	-0.09791309
148	0xbd8cc0d4	-0.068727165
149	0x3d73c848	0.059517175
150	0x3cbd3400	0.023096085
151	0xbd2e5184	-0.042558208
152	0x3cb90cb8	0.022589073
153	0xbd36b9c2	-0.044610746
154	0x3d98668c	0.07441434
155	0xbdddf6f5	-0.10838119
156	0xbd735a7c	-0.059412464
157	0x3ce78538	0.028261766
158	0xbcda2280	-0.026627779
159	0x3c2e1040	0.0106239915
160	0x3dc59b06	0.09648709
161	0xbdaf8013	-0.0856935
162	0x3cbdda58	0.023175403
163	0x3c0ce720	0.008600026
164	0x3de3f3bc	0.11130473
165	0xbd3ca6e6	-0.046057604
166	0x3d462170	0.048371732
167	0x3ca5f120	0.020256579
168	0xbdc9f4c3	-0.09861138
169	0xbc9bebe4	-0.01903338
170	0xbd030312	-0.03198535
171	0xbd0b4a50	-0.034006417
172	0x3d3ca25c	0.046053275
173	0x3da687da	0.081313804
174	0x3d237f88	0.039916545
175	0x3dcb6410	0.09931195
176	0x3d06432c	0.032778904
177	0x3c203270	0.00977765
178	0x3d0d27cc	0.03446178
179	0xbae26dc0	-0.001727514
180	0x3d3fa154	0.046784714
181	0xbc9fb5fc	-0.019495957
182	0xbc4672c8	-0.012112327
183	0x3daa59c6	0.08317904
184	0x3d8fe292	0.07025637
185	0xbdbf309b	-0.09335443
186	0x3c736ee0	0.014857978
187	0xbb5abaa0	-0.0033375397
188	0x3c583470	0.013196096
189	0x3c3190c0	0.010837734
190	0xbcba1d08	-0.022718921
191	0x3d31a950	0.04337436
192	0xbd750e04	-0.05982782
193	0xbda184e0	-0.07886672
194	0x3d6191e0	0.055070758
195	0x3bb51640	0.005526334
196	0xbbff7b80	-0.007796705
197	0x3d9d6700	0.07685661
198	0xbd7d9c01	-0.061916355
199	0x3d81a21e	0.063297495
200	0x3dbf63ce	0.09345208
201	0xbdd6e749	-0.10493333
202	0xbdb11a90	-0.086476445
203	0x3c2dcff0	0.010608658
204	0x3de6bdc4	0.11266664
205	0xbc6d8b80	-0.014498591
206	0xbddd9d50	-0.108210206
207	0xbd406522	-0.046971448
208	0x3d95da5e	0.07317041
209	0x3d1a9e08	0.037748367
210	0x3dcd77b6	0.10032599
211	0x3db29118	0.08719081
212	0x3d79059c	0.060796365
213	0xbde0a58f	-0.10969078
214	0xb9a54500	-0.0003152266
215	0x3ccbb750	0.024867684
216	0x3dc96c0a	0.0983506
217	0x3d3ba41c	0.045810804
218	0xbd47bd4a	-0.048764504
219	0x3d80600e	0.06268321
220	0x3d1a4108	0.037659675
221	0xbd9b708c	-0.07589826
222	0x3d8542f2	0.065069094
223	0x3bec1230	0.0072043166
224	0xbde6c01f	-0.11267113
225	0x3ddb7448	0.10715538
226	0x3dad9b6c	0.0847691
227	0x3da67dd8	0.081294715
228	0x3d16ef74	0.036849454
229	0xbb1530e0	-0.0022764727
230	0xbdb6c21a	-0.08923741
231	0x3c958720	0.01825291
232	0x3d2c82ec	0.042117044
233	0xbd6d722d	-0.057970215
234	0xbdc344d3	-0.095346116
235	0x3d8704d8	0.06592721
236	0xbd26d76c	-0.040732786
237	0xbdb791f1	-0.08963383
238	0xbce8e66c	-0.028430186
239	0x3d9080a8	0.07055789
240	0x3cd43538	0.025904283
241	0x3de79cfc	0.11309239
242	0x3d9efefe	0.0776348
243	0xbdcb5e08	-0.099300444
244	0x3de669c6	0.112506434
245	0x3d837e10	0.06420529
246	0x3d0b46d8	0.03400311
247	0xbda150e4	-0.07876757
248	0x3de4f7ee	0.11180101
249	0xbd5f0f1b	-0.054457765
250	0xbda16c0f	-0.07881939
251	0xbd6da13a	-0.058015086
252	0xbd34c20a	-0.044130363
253	0xbd0d9e0a	-0.034574546
254	0xbd7d67f0	-0.0618667
255	0x3d0dccb0	0.034619033

weight f4 [48]
0	0x3f800000	1.0
1	0x3f800000	1.0
2	0x3f800000	1.0
3	0x3f800000	1.0
4	0x3f800000	1.0
5	0x3f800000	1.0
6	0x3f800000	1.0
7	0x3f800000	1.0
8	0x3f800000	1.0
9	0x3f800000	1.0
10	0x3f800000	1.0
11	0x3f800000	1.0
12	0x3f800000	1.0
13	0x3f800000	1.0
14	0x3f800000	1.0
15	0x3f800000	1.0
16	0x3f800000	1.0
17	0x3f800000	1.0
18	0x3f800000	1.0
19	0x3f800000	1.0
20	0x3f800000	1.0
21	0x3f800000	1.0
22	0x3f800000	1.0
23	0x3f800000	1.0
24	0x3f800000	1.0
25	0x3f800000	1.0
26	0x3f800000	1.0
27	0x3f800000	1.0
28	0x3f800000	1.0
29	0x3f800000	1.0
30	0x3f800000	1.0
31	0x3f800000	1.0
32	0x3f800000	1.0
33	0x3f800000	1.0
34	0x3f800000	1.0
35	0x3f800000	1.0
36	0x3f800000	1.0
37	0x3f800000	1.0
38	0x3f800000	1.0
39	0x3f800000	1.0
40	0x3f800000	1.0
41	0x3f800000	1.0
42	0x3f800000	1.0
43	0x3f800000	1.0
44	0x3f800000	1.0
45	0x3f800000	1.0
46	0x3f800000	1.0
47	0x3f800000	1.0

bias f4 [48]
0	0x00000000	0.0
1	0x00000000	0.0
2	0x00000000	0.0
3	0x00000000	0.0
4	0x00000000	0.0
5	0x00000000	0.0
6	0x00000000	0.0
7	0x00000000	0.0
8	0x00000000	0.0
9	0x00000000	0.0
10	0x00000000	0.0
11	0x00000000	0.0
12	0x00000000	0.0
13	0x00000000	0.0
14	0x00000000	0.0
15	0x00000000	0.0
16	0x00000000	0.0
17	0x00000000	0.0
18	0x00000000	0.0
19	0x00000000	0.0
20	0x00000000	0.0
21	0x00000000	0.0
22	0x00000000	0.0
23	0x00000000	0.0
24	0x00000000	0.0
25	0x00000000	0.0
26	0x00000000	0.0
27	0x00000000	0.0
28	0x00000000	0.0
29	0x00000000	0.0
30	0x00000000	0.0
31	0x00000000	0.0
32	0x00000000	0.0
33	0x00000000	0.0
34	0x00000000	0.0
35	0x00000000	0.0
36	0x00000000	0.0
37	0x00000000	0.0
38	0x00000000	0.0
39	0x00000000	0.0
40	0x00000000	0.0
41	0x00000000	0.0
42	0x00000000	0.0
43	0x00000000	0.0
44	0x00000000	0.0
45	0x00000000	0.0
46	0x00000000	0.0
47	0x00000000	0.0

running_mean f4 [48]
0	0x3bb3b1cd	0.005483842
1	0x3b33e226	0.0027448027
2	0xbc141b2f	-0.009039684
3	0xbb6b92e5	-0.003594571
4	0x3c0e71d7	0.008694134
5	0x3aab9dc8	0.0013093287
6	0x3bac1f4b	0.005252754
7	0x3b816b30	0.0039495453
8	0xbc1fc8f9	-0.009752505
9	0xbaa58665	-0.0012628554
10	0x3b0722cb	0.0020620103
11	0x3b0a8603	0.0021137006
12	0xbbf667f7	-0.007519718
13	0x3ba85651	0.005137243
14	0xbc25d80f	-0.010122313
15	0xbb432ef7	-0.0029782632
16	0xbc0df320	-0.008663923
17	0xbb8b9eca	-0.0042608725
18	0x3a354a91	0.00069157133
19	0x3c48bafb	0.012251611
20	0x3b802bde	0.0039114794
21	0x3a70a83f	0.0009180344
22	0xbb88d9ce	-0.004176355
23	0x3c15bee7	0.009139753
24	0x3b3faa1f	0.0029245687
25	0x3c0056b8	0.007833175
26	0x3b7b051d	0.0038302608
27	0xbae7e293	-0.0017691426
28	0x39c61e7f	0.00037788224
29	0x3c0edabd	0.008719143
30	0xbb809fad	-0.003925285
31	0x3b0ffc81	0.0021970572
32	0x3c2251ff	0.009907245
33	0xbb92796b	-0.0044700406
34	0x3b2fff9b	0.0026855234
35	0x3c3e7e9b	0.011626865
36	0xbc428287	-0.01187194
37	0x3bcb3e9c	0.006202532
38	0xbb5ea50f	-0.0033972894
39	0xbbb097be	-0.005389183
40	0xbc022655	-0.007943709
41	0xbb51577b	-0.0031943012
42	0x3ac29183	0.0014844391
43	0xba48e44e	-0.00076634146
44	0xbb1ff5a0	-0.0024407879
45	0x3b4facd2	0.0031688702
46	0xbbc966cd	-0.006146288
47	0xbb1f1c8f	-0.0024278497

running_var f4 [48]
0	0x3f66ccb6	0.90156114
1	0x3f66b79c	0.90123916
2	0x3f66d8e6	0.9017471
3	0x3f6687f3	0.9005119
4	0x3f66de0e	0.9018258
5	0x3f66cd41	0.9015694
6	0x3f66d4f2	0.9016868
7	0x3f66b697	0.9012236
8	0x3f66b3c9	0.9011808
9	0x3f66966c	0.90073276
10	0x3f66c207	0.9013981
11	0x3f66e91e	0.9019946
12	0x3f66cd6d	0.90157205
13	0x3f66a709	0.90098625
14	0x3f66b433	0.9011871
15	0x3f669506	0.9007114
16	0x3f66cad1	0.90153223
17	0x3f66d7a1	0.90172774
18	0x3f66a55c	0.9009607
19	0x3f669acb	0.90079945
20	0x3f66af33	0.9011108
21	0x3f669406	0.90069616
22	0x3f670ac9	0.9025083
23	0x3f66b230	0.9011564
24	0x3f66cf1e	0.90159786
25	0x3f66d624	0.901705
26	0x3f66daa5	0.90177375
27	0x3f66ee3c	0.90207267
28	0x3f669fe3	0.9008772
29	0x3f66d21d	0.9016436
30	0x3f668acf	0.90055555
31	0x3f66bad4	0.9012883
32	0x3f66b07a	0.9011303
33	0x3f66c866	0.90149534
34	0x3f66f47b	0.902168
35	0x3f669ad3	0.90079993
36	0x3f66ba70	0.9012823
37	0x3f66ae19	0.901094
38	0x3f66b897	0.9012541
39	0x3f66ccb3	0.90156096
40	0x3f66975a	0.90074694
41	0x3f66a3ab	0.9009349
42	0x3f66b974	0.9012673
43	0x3f66a3a2	0.90093434
44	0x3f66d6a1	0.9017125
45	0x3f669c19	0.90081936
46	0x3f66b019	0.90112454
47	0x3f66c15e	0.90138805

weight f4 [16, 48, 1, 1]
0	0xbe816d22	-0.25278574
1	0xbe9ba7db	-0.304015
2	0xbe7d3110	-0.24725747
3	0xbe3de95c	-0.18546051
4	0x3e127e38	0.14305961
5	0x3e1781fa	0.14795676
6	0xbe0931fe	-0.13397977
7	0xbda04a02	-0.07826616
8	0x3e991611	0.29899648
9	0xbd160ab8	-0.036631316
10	0x3d31c970	0.043404996
11	0x3cc96960	0.02458638
12	0x3e6e949e	0.2329888
13	0xbdf31cb6	-0.118707106
14	0xbe63593f	-0.22202013
15	0xbe53a25c	-0.20667404
16	0xbe8eb510	-0.27872515
17	0xbc2ecae0	-0.010668486
18	0xbde6fa66	-0.112782285
19	0x3e12b0f2	0.14325312
20	0xbe432b7a	-0.19059554
21	0x3e89bdaf	0.2690253
22	0xbe831d93	-0.256085
23	0x3dbff908	0.09373671
24	0x3dd49a00	0.10380936
25	0xbdf43012	-0.11923231
26	0x3e1a92e2	0.15095094
27	0xbe1948c3	-0.14969163
28	0x3dca9540	0.098917484
29	0x3dc31f08	0.09527403
30	0x3e66be42	0.22533515
31	0xbe1b16f3	-0.15145473
32	0xbe23ba35	-0.15989001
33	0x3dda4a5c	0.10658714
34	0x3e5dd86e	0.21664593
35	0xbd8502b4	-0.06494656
36	0xbe80dd2f	-0.2516875
37	0x3dda8838	0.10670513
38	0x3e765e66	0.24059448
39	0x3c1cd880	0.009573102
40	0xbdb458bc	-0.08805987
41	0xbe1d1edd	-0.15343805
42	0xbe4e047e	-0.20118901
43	0xbd66982c	-0.056297466
44	0xbe838979	-0.2569082
45	0x3dd7bd18	0.10534114
46	0x3e9ba60f	0.3040013
47	0x3e89437d	0.26809302
48	0xbe5e94ee	-0.217365
49	0xbe507118	-0.20355642
50	0x3e7da786	0.24770936
51	0xbc227680	-0.009915948
52	0x3e901e7b	0.28148255
53	0x3d2d5828	0.0423204
54	0xbe4ad5fd	-0.19808193
55	0x3e258254	0.16162997
56	0x3d5061d8	0.05087456
57	0x3e7431f6	0.23847184
58	0x3e2f13c8	0.1709739
59	0xbe2e774d	-0.17037697
60	0xbe572da8	-0.2101351
61	0x3e8048d9	0.25055578
62	0xbd96ec18	-0.0736925
63	0x3e2afb2e	0.1669738
64	0x3e6fce2a	0.23418489
65	0xbe26ed92	-0.16301563
66	0x3e527696	0.2055305
67	0xbe8913e0	-0.26772976
68	0xbe16c8a4	-0.14724976
69	0x3e731c8e	0.23741361
70	0x3d567de0	0.052366138
71	0xbddac708	-0.106824934
72	0xbe84d432	-0.25943142
73	0xbe63df9b	-0.22253267
74	0xbe0ae5fb	-0.13564293
75	0xbe22dd4b	-0.15904729
76	0x3e1a8c28	0.15092528
77	0xbe0a814e	-0.13525888
78	0x3c91dad0	0.017804533
79	0x3e40c2ec	0.18824357
80	0x3e1a57a2	0.15072492
81	0xbe9a5aad	-0.30147305
82	0x3da90f90	0.082549214
83	0x3dfb5920	0.122728586
84	0xbe6b36dc	-0.22970146
85	0xbd5dcb18	-0.054148763
86	0x3e9a0083	0.30078515
87	0xbd8803c0	-0.0664134
88	0xbd028480	-0.031864643
89	0x3e9b9939	0.30390337
90	0xbe1fc941	-0.15604116
91	0x3e82c365	0.255397
92	0xbe61a48a	-0.22035423
93	0xbe95f5c6	-0.29289073
94	0x3e955c97	0.29172203
95	0xbe69366c	-0.22774667
96	0x3d3ac480	0.045597553
97	0x3e6d859e	0.23195502
98	0xbd913c1a	-0.070915416
99	0x3e0f429a	0.1399025
100	0x3e8d9239	0.27650622
101	0x3d9c9ab8	0.07646698
102	0xbdc1b86e	-0.09459005
103	0x3e1df426	0.15425166
104	0xbe4856b8	-0.1956433
105	0xbe004e5b	-0.1252989
106	0x3d6453b8	0.055743903
107	0xbe17a29b	-0.14808123
108	0xbe8c6258	-0.2741878
109	0x3c555480	0.013020635
110	0xbe220969	-0.15823902
111	0x3e0c953a	0.137288
112	0x3e971bc7	0.2951338
113	0x3e8a5247	0.27015898
114	0xbdb094aa	-0.086221054
115	0x3e1a4432	0.15065077
116	0xbe186177	-0.1488093
117	0xbe649a2e	-0.2232444
118	0xbbfc3b00	-0.007697463
119	0xbe3e1331	-0.18562008
120	0xbe17dfff	-0.14831541
121	0xbd047a08	-0.03234294
122	0xbcf8cdb0	-0.030371517
123	0x3db057c4	0.0861049
124	0xbe11e219	-0.14246406
125	0xbe071d2e	-0.13194725
126	0xbdde91ee	-0.10867678
127	0x3e729246	0.23688611
128	0xbe284f3a	-0.16436473
129	0xbbc46d00	-0.005994439
130	0x3e280d26	0.16411266
131	0xbdb7130c	-0.0893918
132	0x3d850000	0.064941406
133	0x3e2ba8e4	0.16763645
134	0x3e4424fc	0.19154733
135	0xbe5f12ba	-0.21784487
136	0x3e2d15f4	0.16902906
137	0x3e10d940	0.14145374
138	0x3e98bb9f	0.29830644
139	0xbbe639c0	-0.0070259273
140	0xbdc8a540	-0.09797144
141	0xbe0a91cf	-0.13532184
142	0x3e850335	0.2597901
143	0xbe87cc35	-0.26522985
144	0x3e4124ec	0.18861741
145	0xbc545280	-0.012959123
146	0x3e9042a9	0.28175858
147	0x3e388fb6	0.18023571
148	0x3e85c75b	0.2612866
149	0xbe2cd316	-0.16877398
150	0xbe00a3fe	-0.12562558
151	0xbe1a4327	-0.15064679
152	0xbe880f4f	-0.2657418
153	0x3de613b8	0.1123423
154	0xbd2c11c8	-0.042009145
155	0xbd8824ae	-0.06647621
156	0x3e19ba0a	0.15012375
157	0x3df63730	0.12022245
158	0x3e27b780	0.16378593
159	0xbd925a6c	-0.07146153
160	0x3dff7030	0.1247257
161	0x3e999975	0.2999989
162	0xbd992c2a	-0.07479127
163	0x3e82138b	0.25405535
164	0x3e326298	0.17420423
165	0x3e3afcda	0.18260518
166	0xbca59030	-0.020210356
167	0x3d59e4c0	0.05319667
168	0xbe98f423	-0.29873762
169	0xbd859236	-0.06522028
170	0x3e825973	0.2545887
171	0xbe5509ba	-0.20804492
172	0xbcd23bf0	-0.025663346
173	0xbe7c2bb6	-0.2462605
174	0x3e20eeac	0.15716046
175	0xbe15b763	-0.14620738
176	0xbdf81440	-0.121132374
177	0x3e9890d5	0.29797998
178	0xbd1a0a70	-0.03760761
179	0x3e3b5c22	0.18296865
180	0x3e4afbce	0.19822618
181	0x3e65e5c6	0.22450933
182	0x3e214558	0.15749109
183	0xbe547fd7	-0.20751892
184	0x3e93bae7	0.28853533
185	0x3e49d856	0.19711432
186	0xbdf48e88	-0.11941248
187	0x3d281808	0.041038543
188	0xbe8601d3	-0.26173267
189	0xbe9a9d16	-0.30197972
190	0xbe18b9ed	-0.14914675
191	0x3dc79724	0.09745625
192	0xbda52056	-0.08062808
193	0xbdaa2fa0	-0.08309865
194	0x3e7b750e	0.24556372
195	0xbe17e0a8	-0.14831793
196	0x3e024844	0.1272288
197	0xbe9af906	-0.30268115
198	0x3e8aba65	0.27095333
199	0x3e9ae883	0.30255517
200	0xbd014018	-0.031555265
201	0xbe6869f2	-0.22696665
202	0x3dc08e58	0.0940215
203	0xbe5755f6	-0.21028885
204	0x3e53c4f2	0.20680597
205	0xbe6548c3	-0.22391038
206	0xbe39ff62	-0.18163827
207	0x3cff31d0	0.031151682
208	0x3e8ae9f3	0.27131614
209	0x3e0874ea	0.13325849
210	0xbe3ef2c6	-0.18647298
211	0xbe4f20ec	-0.20227402
212	0x3e4101ae	0.18848297
213	0x3e4cb6b2	0.19991568
214	0xbe5b8ff4	-0.21441633
215	0xbe2f0b8d	-0.1709425
216	0xbe1c32b0	-0.15253711
217	0xbe0dd260	-0.13849783
218	0xbdb80174	-0.08984652
219	0x3df3f584	0.11912063
220	0xbe80ac16	-0.2513129
221	0xbd94db98	-0.07268447
222	0x3df3e1dc	0.11908314
223	0xbe3c85b2	-0.18410376
224	0x3dcaa8a4	0.09895447
225	0x3e3ba01a	0.18322793
226	0xbe0e551e	-0.13899657
227	0xbd481430	-0.048847377
228	0xbe47e9cb	-0.19522779
229	0xbe54fe3a	-0.20800105
230	0x3d985b48	0.074392855
231	0xbe6efadc	-0.23337883
232	0x3e964bdf	0.2935476
233	0x3d469540	0.04848218
234	0xbe3b2c40	-0.18278599
235	0x3da79144	0.08182004
236	0xbe61956e	-0.22029659
237	0xbe681c40	-0.22667027
238	0xbe75f355	-0.24018605
239	0xbbb88700	-0.0056313276
240	0x3e819b91	0.25314
241	0x3e10495c	0.14090484
242	0xbe4cf8e5	-0.2001682
243	0x3e848795	0.2588469
244	0xbe88cc8d	-0.2671856
245	0x3dc166e0	0.0944345
246	0x3e4041f8	0.18775165
247	0xbc27be00	-0.010238171
248	0xbe3b8814	-0.18313628
249	0xbe5c924a	-0.2154018
250	0xbe8a5f50	-0.27025843
251	0x3e9ba83d	0.30401793
252	0x3e12ac30	0.14323497
253	0x3e47d32e	0.19514152
254	0xbdcda73a	-0.100416616
255	0x3e05afa8	0.13055289

weight f4 [16]
0	0x3f800000	1.0
1	0x3f800000	1.0
2	0x3f800000	1.0
3	0x3f800000	1.0
4	0x3f800000	1.0
5	0x3f800000	1.0
6	0x3f800000	1.0
7	0x3f800000	1.0
8	0x3f800000	1.0
9	0x3f800000	1.0
10	0x3f800000	1.0
11	0x3f800000	1.0
12	0x3f800000	1.0
13	0x3f800000	1.0
14	0x3f800000	1.0
15	0x3f800000	1.0

bias f4 [16]
0	0x00000000	0.0
1	0x00000000	0.0
2	0x00000000	0.0
3	0x00000000	0.0
4	0x00000000	0.0
5	0x00000000	0.0
6	0x00000000	0.0
7	0x00000000	0.0
8	0x00000000	0.0
9	0x00000000	0.0
10	0x00000000	0.0
11	0x00000000	0.0
12	0x00000000	0.0
13	0x00000000	0.0
14	0x00000000	0.0
15	0x00000000	0.0

running_mean f4 [16]
0	0xbd06ed1c	-0.03294097
1	0xbaff7c4f	-0.0019492003
2	0x3c539c7f	0.01291573
3	0x3d67b45b	0.056568485
4	0xbd8c73db	-0.06858035
5	0xbaa57247	-0.0012622558
6	0xbb133004	-0.002245904
7	0xbd1ac2bf	-0.03778338
8	0x3cad9d32	0.02119312
9	0xbdd414ca	-0.10355528
10	0x3d1224ab	0.0356795
11	0x3e1c31fb	0.15253441
12	0x3c4ccea3	0.012500438
13	0x3bf53cda	0.0074840607
14	0xbcfbc2bd	-0.030732507
15	0x3d27b608	0.040945083

running_var f4 [16]
0	0x3f71a1c5	0.94387466
1	0x3f743ebe	0.95408237
2	0x3f725405	0.94659454
3	0x3f72bdb8	0.9482074
4	0x3f7566c1	0.95859915
5	0x3f779cf9	0.96723896
6	0x3f7842df	0.9697704
7	0x3f75333e	0.95781314
8	0x3f73cf2d	0.95238
9	0x3f739b6e	0.9515904
10	0x3f743306	0.95390356
11	0x3f7965fb	0.97421235
12	0x3f738c29	0.9513574
13	0x3f734717	0.9503035
14	0x3f7663ae	0.9624585
15	0x3f72a667	0.9478516

weight f4 [96, 16, 1, 1]
0	0x3dc80964	0.09767416
1	0xbdd916ee	-0.106000766
2	0x3cf3e760	0.029773414
3	0xbce7a8f8	-0.028278813
4	0x3e175cf4	0.14781553
5	0x3dafa810	0.08576977
6	0xbda3d5ca	-0.079997614
7	0x3e2759f2	0.16342905
8	0x3e4ca346	0.19984159
9	0xbd13db9c	-0.036098108
10	0x3dc7f8e8	0.09764272
11	0xbd15b038	-0.03654501
12	0x3e19346a	0.149614
13	0x3d7e3410	0.06206137
14	0x3cc79300	0.024362087
15	0xbdd14f36	-0.102201864
16	0xbd73fbe8	-0.05956641
17	0x3d876160	0.0661037
18	0x3d55bd28	0.052182347
19	0x3de7052c	0.11280283
20	0xbdba5e82	-0.09100057
21	0xbdb1f112	-0.08688559
22	0x3db14c24	0.08657101
23	0xbe1a2ba8	-0.15055716
24	0xbe55b9a9	-0.20871605
25	0x3d21b570	0.039479673
26	0xbbecfaa0	-0.0072320253
27	0xbdc38ab4	-0.0954794
28	0x3c955af0	0.018231839
29	0x3e66d306	0.22541437
30	0xbd979148	-0.07400757
31	0xbdce7942	-0.10081722
32	0xbde86d4d	-0.113489725
33	0xbdb2ab00	-0.08724022
34	0xbe1d3b9d	-0.15354772
35	0xbe0db792	-0.13839558
36	0xbe6517bb	-0.22372334
37	0xbe06de26	-0.1317068
38	0x3db7f650	0.08982527
39	0xbe2114ac	-0.15730542
40	0xbd3b8420	-0.0457803
41	0x3e2970ec	0.16546983
42	0x3d9610c0	0.073274136
43	0xbe610d2a	-0.21977678
44	0x3c1721b0	0.00922434
45	0x3d3c6b88	0.046000987
46	0xbe03c529	-0.1286818
47	0xbde3b45e	-0.11118387
48	0x3c29bd80	0.010360122
49	0x3df60e78	0.120144784
50	0xbe1209d1	-0.14261557
51	0x3d112910	0.03543955
52	0x3c955358	0.018228218
53	0xbc85e010	-0.016342193
54	0xbd961ac2	-0.073293224
55	0xbe62dfa2	-0.22155622
56	0x3de4bee0	0.11169219
57	0xbd20f624	-0.039297238
58	0xbe40d6f1	-0.18831994
59	0x3e1870ae	0.14886734
60	0x3e42b53a	0.19014445
61	0xbe27ad05	-0.16374595
62	0xbe3688ca	-0.17825618
63	0x3e1e2ecc	0.15447539
64	0xbe0ada5a	-0.13559857
65	0xbe5fb0d3	-0.21844797
66	0xbdfc6ea6	-0.12325792
67	0x3ded6c70	0.115929484
68	0x3d0bf8e8	0.034172922
69	0x3e0a3ef4	0.13500577
70	0x3e51101a	0.20416299
71	0xbe28bfee	-0.16479465
72	0x3e30a3ec	0.17250031
73	0x3ca9ef10	0.020743877
74	0x3b926d40	0.00446859
75	0x3d5467c0	0.051856756
76	0xbdbfcc8a	-0.093651846
77	0x3ddbc6e0	0.10731292
78	0xbd613f50	-0.05499202
79	0xbd8e0f06	-0.06936459
80	0x3dc5151c	0.09623167
81	0x3dfa6e2c	0.12228045
82	0x3c71e920	0.014765054
83	0x3dbc74ec	0.092019886
84	0xbd1fa00c	-0.038970992
85	0xbc4ddc90	-0.012564793
86	0xbe45b60f	-0.19307731
87	0x3e25f2ae	0.16205856
88	0x3e0964a2	0.13417295
89	0x3d836df4	0.06417456
90	0x3c94d3e0	0.018167436
91	0xbdd97426	-0.10617857
92	0x3e0d4c3e	0.13798615
93	0x3e3c1904	0.18368918
94	0xbe4bc333	-0.19898681
95	0x3a236c00	0.000623405
96	0x3e1c646c	0.15272683
97	0x3e243f6c	0.16039819
98	0x3df2dbf4	0.11858359
99	0xbbf3b4c0	-0.0074373186
100	0x3c5f6330	0.013634488
101	0x3e335ea0	0.17516565
102	0xbd911f7c	-0.07086083
103	0xbe3a6152	-0.18201187
104	0xbe2eac01	-0.17057802
105	0x3dda224c	0.10651073
106	0xbe439ce7	-0.19102822
107	0x3dba60a4	0.09100464
108	0xbe152d96	-0.14568171
109	0x3d998a38	0.07497066
110	0x3cc9a480	0.024614573
111	0x3d5b5900	0.053551674
112	0x3c0ad590	0.008473769
113	0x3d384020	0.04498303
114	0x3dfbb168	0.12289697
115	0xbe6612c6	-0.22468099
116	0xbdba6842	-0.09101917
117	0xbe63d704	-0.2224999
118	0x3d8064a8	0.06269199
119	0xbd9afbbe	-0.07567547
120	0xbe158153	-0.14600115
121	0x3e350c2a	0.17680421
122	0x3d59dd90	0.053189814
123	0xbe380b25	-0.17973001
124	0x3e66f390	0.22553849
125	0xbe1cfe98	-0.15331495
126	0xbcc5dc98	-0.024153039
127	0x3d8fed94	0.07027736
128	0xbc329a30	-0.010901019
129	0xbe344026	-0.17602596
130	0xbe29773a	-0.16549388
131	0xbe10fc39	-0.14158715
132	0x3e4557d2	0.19271782
133	0xbdefa731	-0.11701811
134	0xbcac6990	-0.02104643
135	0xbe53a991	-0.20670153
136	0xbd664800	-0.05622101
137	0xbc965540	-0.018351197
138	0xbe0fd3e3	-0.14045672
139	0x3d9ac810	0.0755769
140	0xbe48a4ca	-0.19594112
141	0xbd3ed23c	-0.046587214
142	0xbde03299	-0.10947151
143	0x3e50a4e0	0.20375395
144	0x3e6bb2c0	0.23017406
145	0xbc3da360	-0.011574596
146	0x3db59acc	0.08867416
147	0xbcfa8420	-0.03058058
148	0x3e28baf4	0.16477567
149	0xbe4d048a	-0.20021263
150	0xbdf3f5d4	-0.11912122
151	0x3e22b4c6	0.15889272
152	0xbe4ee035	-0.20202716
153	0x3d2ba6c8	0.041907102
154	0xbe3a13aa	-0.18171564
155	0x3a7f2500	0.00097329915
156	0xbd814618	-0.063121974
157	0x3d53c178	0.051698178
158	0xbe3818e1	-0.1797824
159	0x3d502878	0.050819844
160	0x3d332090	0.043732226
161	0xbe289fa2	-0.16467145
162	0x3e492622	0.19643453
163	0x3e1d893a	0.15384379
164	0xbd8b5cb2	-0.068047896
165	0xbd17876c	-0.036994383
166	0x3e2b983e	0.16757295
167	0x3d554020	0.052063107
168	0xbe1b7f1c	-0.15185207
169	0x3e421492	0.1895316
170	0xbcbaa280	-0.022782564
171	0xbe5a766f	-0.21334241
172	0x3dea7ef8	0.114499986
173	0x3ce8c3e0	0.028413713
174	0x3e06c844	0.13162333
175	0x3d4ed810	0.050499022
176	0xbd1221a4	-0.035676613
177	0x3e49ca7e	0.19706151
178	0xbe326344	-0.1742068
179	0x3e23d786	0.16000184
180	0x3e195b98	0.14976346
181	0xbd5bb5d4	-0.0536402
182	0x3e2f1714	0.17098647
183	0xbc968eb0	-0.018378586
184	0x3df09008	0.11746222
185	0x3e401b08	0.18760312
186	0x3dbed134	0.09317246
187	0x3c347050	0.0110131055
188	0xbe587aaa	-0.21140543
189	0xbd577dcc	-0.052610204
190	0x3ddf4654	0.10902086
191	0xbd81fede	-0.0634744
192	0xbd6908e4	-0.056893244
193	0x3d4f5700	0.05062008
194	0x3ca8c7f0	0.02060315
195	0x3e0c79d6	0.13718352
196	0xbbb8f4c0	-0.005644411
197	0xbccda230	-0.025101751
198	0x3dc45698	0.09586829
199	0xbdd34d10	-0.10317433
200	0x3d73a808	0.05948642
201	0xbbb6cd00	-0.005578637
202	0xbe1aab4b	-0.15104406
203	0xbd4a3ddc	-0.0493754
204	0x3e1bd9aa	0.15219751
205	0x3e5f6dd4	0.2181924
206	0xbda133a0	-0.07871175
207	0xbcf24868	-0.029575542
208	0x3dea6138	0.11444324
209	0xbe3036e9	-0.17208447
210	0x3db816a8	0.08988696
211	0x3e6bbd0a	0.23021331
212	0x3dfc1b88	0.12309939
213	0xbe601ba0	-0.21885538
214	0x3e31ab1c	0.1735043
215	0xbdf7f54f	-0.12107336
216	0x3e5c8e32	0.21538618
217	0x3c998180	0.018738508
218	0x3e07d29e	0.13263938
219	0x3cfd1bb0	0.030896991
220	0xbe532dc3	-0.20622925
221	0x3e3418c0	0.17587566
222	0xbe46ecaf	-0.19426225
223	0x3dafb024	0.08578518
224	0x3dde2844	0.10847524
225	0x3e547e98	0.20751417
226	0xbe338076	-0.17529473
227	0xbdf7625d	-0.12079308
228	0xbe5022d2	-0.20325783
229	0xbe10c770	-0.1413858
230	0xbdfbe155	-0.12298838
231	0x3e2d40d2	0.16919258
232	0x3d9cb1f4	0.07651129
233	0x3e4c135a	0.19929257
234	0xbcafdec0	-0.02146852
235	0xbd758958	-0.059945434
236	0xbd05445c	-0.032535896
237	0xbd957d7c	-0.07299325
238	0x3e3e85ec	0.18605775
239	0xbe68dd29	-0.22740616
240	0x3b292d00	0.0025814176
241	0x3d887c54	0.06664339
242	0xbe1a9cf7	-0.1509894
243	0xbccf0ca8	-0.02527459
244	0x3e5cafba	0.2155141
245	0x3d654210	0.055971205
246	0xbe13cf40	-0.14434528
247	0x3e10e194	0.14148551
248	0xbe327ad6	-0.1742967
249	0xbe491543	-0.19637017
250	0x3c0b7a40	0.008513033
251	0xbd5fb484	-0.054615512
252	0xbe0d9656	-0.1382688
253	0x3deec910	0.116594434
254	0x3e1a17d8	0.15048158
255	0x3d8b4874	0.06800929

weight f4 [96]
0	0x3f800000	1.0
1	0x3f800000	1.0
2	0x3f800000	1.0
3	0x3f800000	1.0
4	0x3f800000	1.0
5	0x3f800000	1.0
6	0x3f800000	1.0
7	0x3f800000	1.0
8	0x3f800000	1.0
9	0x3f800000	1.0
10	0x3f800000	1.0
11	0x3f800000	1.0
12	0x3f800000	1.0
13	0x3f800000	1.0
14	0x3f800000	1.0
15	0x3f800000	1.0
16	0x3f800000	1.0
17	0x3f800000	1.0
18	0x3f800000	1.0
19	0x3f800000	1.0
20	0x3f800000	1.0
21	0x3f800000	1.0
22	0x3f800000	1.0
23	0x3f800000	1.0
24	0x3f800000	1.0
25	0x3f800000	1.0
26	0x3f800000	1.0
27	0x3f800000	1.0
28	0x3f800000	1.0
29	0x3f800000	1.0
30	0x3f800000	1.0
31	0x3f800000	1.0
32	0x3f800000	1.0
33	0x3f800000	1.0
34	0x3f800000	1.0
35	0x3f800000	1.0
36	0x3f800000	1.0
37	0x3f800000	1.0
38	0x3f800000	1.0
39	0x3f800000	1.0
40	0x3f800000	1.0
41	0x3f800000	1.0
42	0x3f800000	1.0
43	0x3f800000	1.0
44	0x3f800000	1.0
45	0x3f800000	1.0
46	0x3f800000	1.0
47	0x3f800000	1.0
48	0x3f800000	1.0
49	0x3f800000	1.0
50	0x3f800000	1.0
51	0x3f800000	1.0
52	0x3f800000	1.0
53	0x3f800000	1.0
54	0x3f800000	1.0
55	0x3f800000	1.0
56	0x3f800000	1.0
57	0x3f800000	1.0
58	0x3f800000	1.0
59	0x3f800000	1.0
60	0x3f800000	1.0
61	0x3f800000	1.0
62	0x3f800000	1.0
63	0x3f800000	1.0
64	0x3f800000	1.0
65	0x3f800000	1.0
66	0x3f800000	1.0
67	0x3f800000	1.0
68	0x3f800000	1.0
69	0x3f800000	1.0
70	0x3f800000	1.0
71	0x3f800000	1.0
72	0x3f800000	1.0
73	0x3f800000	1.0
74	0x3f800000	1.0
75	0x3f800000	1.0
76	0x3f800000	1.0
77	0x3f800000	1.0
78	0x3f800000	1.0
79	0x3f800000	1.0
80	0x3f800000	1.0
81	0x3f800000	1.0
82	0x3f800000	1.0
83	0x3f800000	1.0
84	0x3f800000	1.0
85	0x3f800000	1.0
86	0x3f800000	1.0
87	0x3f800000	1.0
88	0x3f800000	1.0
89	0x3f800000	1.0
90	0x3f800000	1.0
91	0x3f800000	1.0
92	0x3f800000	1.0
93	0x3f800000	1.0
94	0x3f800000	1.0
95	0x3f800000	1.0

bias f4 [96]
0	0x00000000	0.0
1	0x00000000	0.0
2	0x00000000	0.0
3	0x00000000	0.0
4	0x00000000	0.0
5	0x00000000	0.0
6	0x00000000	0.0
7	0x00000000	0.0
8	0x00000000	0.0
9	0x00000000	0.0
10	0x00000000	0.0
11	0x00000000	0.0
12	0x00000000	0.0
13	0x00000000	0.0
14	0x00000000	0.0
15	0x00000000	0.0
16	0x00000000	0.0
17	0x00000000	0.0
18	0x00000000	0.0
19	0x00000000	0.0
20	0x00000000	0.0
21	0x00000000	0.0
22	0x00000000	0.0
23	0x00000000	0.0
24	0x00000000	0.0
25	0x00000000	0.0
26	0x00000000	0.0
27	0x00000000	0.0
28	0x00000000	0.0
29	0x00000000	0.0
30	0x00000000	0.0
31	0x00000000	0.0
32	0x00000000	0.0
33	0x00000000	0.0
34	0x00000000	0.0
35	0x00000000	0.0
36	0x00000000	0.0
37	0x00000000	0.0
38	0x00000000	0.0
39	0x00000000	0.0
40	0x00000000	0.0
41	0x00000000	0.0
42	0x00000000	0.0
43	0x00000000	0.0
44	0x00000000	0.0
45	0x00000000	0.0
46	0x00000000	0.0
47	0x00000000	0.0
48	0x00000000	0.0
49	0x00000000	0.0
50	0x00000000	0.0
51	0x00000000	0.0
52	0x00000000	0.0
53	0x00000000	0.0
54	0x00000000	0.0
55	0x00000000	0.0
56	0x00000000	0.0
57	0x00000000	0.0
58	0x00000000	0.0
59	0x00000000	0.0
60	0x00000000	0.0
61	0x00000000	0.0
62	0x00000000	0.0
63	0x00000000	0.0
64	0x00000000	0.0
65	0x00000000	0.0
66	0x00000000	0.0
67	0x00000000	0.0
68	0x00000000	0.0
69	0x00000000	0.0
70	0x00000000	0.0
71	0x00000000	0.0
72	0x00000000	0.0
73	0x00000000	0.0
74	0x00000000	0.0
75	0x00000000	0.0
76	0x00000000	0.0
77	0x00000000	0.0
78	0x00000000	0.0
79	0x00000000	0.0
80	0x00000000	0.0
81	0x00000000	0.0
82	0x00000000	0.0
83	0x00000000	0.0
84	0x00000000	0.0
85	0x00000000	0.0
86	0x00000000	0.0
87	0x00000000	0.0
88	0x00000000	0.0
89	0x00000000	0.0
90	0x00000000	0.0
91	0x00000000	0.0
92	0x00000000	0.0
93	0x00000000	0.0
94	0x00000000	0.0
95	0x00000000	0.0

running_mean f4 [96]
0	0xb02a243c	-6.189713e-10
1	0x30729bf7	8.8260727e-10
2	0x30845513	9.628444e-10
3	0x2fe2dafb	4.1264756e-10
4	0xafb0716e	-3.209481e-10
5	0x2fb0716e	3.209481e-10
6	0xaf49a634	-1.8339891e-10
7	0x30173ca7	5.501967e-10
8	0xaf0aa244	-1.2608675e-10
9	0xb053e3a5	-7.7084855e-10
10	0x2ffc0fc2	4.584973e-10
11	0xb062dafb	-8.252951e-10
12	0x309a6340	1.1233183e-09
13	0xb0cff367	-1.5130411e-09
14	0xae973ca7	-6.877459e-11
15	0x307c0fc2	9.169946e-10
16	0x30cccccd	1.4901161e-09
17	0xae49a634	-4.5849727e-11
18	0x3049a634	7.3359563e-10
19	0x2fd64098	3.897227e-10
20	0x2fc9a634	3.6679781e-10
21	0xae49a634	-4.5849727e-11
22	0xb0ec4ec5	-1.7193648e-09
23	0x3010ef76	5.272719e-10
24	0xb023d70b	-5.960465e-10
25	0x30c35903	1.4213416e-09
26	0x2f7c0fc2	2.2924865e-10
27	0xafe2dafb	-4.1264756e-10
28	0x30e2dafb	1.6505902e-09
29	0xb049a634	-7.3359563e-10
30	0xadc9a634	-2.2924863e-11
31	0xb0077bab	-4.9288457e-10
32	0xb08c3590	-1.0201564e-09
33	0xb0aa243c	-1.2379426e-09
34	0xb049a634	-7.3359563e-10
35	0xb049a634	-7.3359563e-10
36	0xb095a95b	-1.0889311e-09
37	0x3114160f	2.1549373e-09
38	0xb07c0fc2	-9.169946e-10
39	0xb0dc8dca	-1.6047406e-09
40	0xaf49a634	-1.8339891e-10
41	0xb0b6be9f	-1.3296421e-09
42	0xb00aa244	-5.04347e-10
43	0x308aa244	1.008694e-09
44	0x30173ca7	5.501967e-10
45	0x30812e7a	9.399195e-10
46	0xb01bf68c	-5.6739036e-10
47	0xb03d0bd1	-6.877459e-10
48	0x2f973ca7	2.7509836e-10
49	0xaf8aa244	-2.521735e-10
50	0xafef755f	-4.3557244e-10
51	0xb0aa243c	-1.2379426e-09
52	0x311d89d9	2.2924864e-09
53	0xafd64098	-3.897227e-10
54	0x306f755f	8.711449e-10
55	0xb023d70b	-5.960465e-10
56	0xb0aa243c	-1.2379426e-09
57	0xb0ff365a	-1.856914e-09
58	0xb0a3d70b	-1.192093e-09
59	0x00000000	0.0
60	0xb07c0fc2	-9.169946e-10
61	0xaefc0fc2	-1.14624324e-10
62	0x30aede21	1.2723299e-09
63	0x2fd64098	3.897227e-10
64	0x30a3d70b	1.192093e-09
65	0xb0973ca7	-1.1003934e-09
66	0x2f7c0fc2	2.2924865e-10
67	0xafb0716e	-3.209481e-10
68	0xb0d7d3e3	-1.5703531e-09
69	0xae173ca7	-3.4387295e-11
70	0xb0dbc423	-1.5990093e-09
71	0x2f8aa244	2.521735e-10
72	0x2f973ca7	2.7509836e-10
73	0x304ff367	7.5652057e-10
74	0x3036be9f	6.6482103e-10
75	0xaf30716e	-1.6047405e-10
76	0x30e2dafb	1.6505902e-09
77	0x306f755f	8.711449e-10
78	0xaf973ca7	-2.7509836e-10
79	0xb14ccccd	-2.9802323e-09
80	0x2f7c0fc2	2.2924865e-10
81	0xb0564098	-7.794454e-10
82	0xb0d319ff	-1.5359659e-09
83	0xb0fc0fc2	-1.8339892e-09
84	0xb06c4ec5	-8.596824e-10
85	0x2fb0716e	3.209481e-10
86	0x2fa3d70b	2.9802324e-10
87	0x308aa244	1.008694e-09
88	0x2fef755f	4.3557244e-10
89	0x3082c1c6	9.513819e-10
90	0x3098cff3	1.1118558e-09
91	0x306147af	8.195639e-10
92	0xb0e2dafb	-1.6505902e-09
93	0x2f0aa244	1.2608675e-10
94	0xb06f755f	-8.711449e-10
95	0xb0435903	-7.106708e-10

running_var f4 [96]
0	0x3f6a0029	0.91406494
1	0x3f6af7c4	0.9178431
2	0x3f6b0c70	0.91815853
3	0x3f702b67	0.93816227
4	0x3f6d3293	0.92655295
5	0x3f6b8b15	0.920091
6	0x3f6d1109	0.9260412
7	0x3f6c9d3c	0.9242742
8	0x3f6ebab5	0.9325364
9	0x3f6cbeae	0.92478454
10	0x3f7121b6	0.94192064
11	0x3f6b3d79	0.91890675
12	0x3f6a57a7	0.91539997
13	0x3f6f8329	0.9355951
14	0x3f70e388	0.94097185
15	0x3f69b95c	0.9129846
16	0x3f6b659d	0.91951925
17	0x3f6f0703	0.93370074
18	0x3f6e0122	0.9297048
19	0x3f6b5885	0.91931945
20	0x3f6dc2e9	0.92875534
21	0x3f6dd050	0.92895985
22	0x3f6e3519	0.9304977
23	0x3f6d2a30	0.926425
24	0x3f6f32fb	0.93437165
25	0x3f71e7c7	0.9449429
26	0x3f6d2afb	0.9264371
27	0x3f71493e	0.94252384
28	0x3f7097f5	0.9398187
29	0x3f6bad79	0.92061573
30	0x3f6c16ac	0.92222095
31	0x3f6c398f	0.9227533
32	0x3f6d4a0b	0.92691106
33	0x3f7197b1	0.9437209
34	0x3f700bb3	0.9376785
35	0x3f6b66c9	0.9195371
36	0x3f7635df	0.9617595
37	0x3f6e189f	0.9300632
38	0x3f6c9e85	0.9242938
39	0x3f6d2865	0.9263976
40	0x3f6d924a	0.92801344
41	0x3f6f72ad	0.93534356
42	0x3f6fb270	0.9363165
43	0x3f717a0f	0.9432687
44	0x3f708e7c	0.93967414
45	0x3f6d0a15	0.9259351
46	0x3f6888d3	0.9083378
47	0x3f6ed850	0.93298817
48	0x3f6ba1e9	0.9204393
49	0x3f6ed51e	0.9329394
50	0x3f6cbda8	0.9247689
51	0x3f6a30ee	0.9148091
52	0x3f6f8378	0.9355998
53	0x3f6e8f24	0.93187165
54	0x3f6d149a	0.9260956
55	0x3f6d075c	0.92589355
56	0x3f6ed54a	0.93294203
57	0x3f6e9934	0.9320252
58	0x3f6d3783	0.9266283
59	0x3f6b7b6d	0.9198521
60	0x3f6f448e	0.9346398
61	0x3f6a10a8	0.91431665
62	0x3f704d10	0.9386759
63	0x3f6ef329	0.9333978
64	0x3f7121fd	0.94192487
65	0x3f6b96ef	0.9202718
66	0x3f721fe3	0.94579905
67	0x3f71ec9f	0.9450168
68	0x3f6ad90b	0.9173743
69	0x3f7110dd	0.94166356
70	0x3f6b5624	0.91928315
71	0x3f74447e	0.9541701
72	0x3f6c2395	0.92241794
73	0x3f6d3b6e	0.9266881
74	0x3f6cea6c	0.925452
75	0x3f6bbf66	0.92088926
76	0x3f6a8b99	0.9161926
77	0x3f6a0265	0.91409904
78	0x3f6d11d2	0.92605317
79	0x3f704884	0.9386065
80	0x3f69c8ad	0.9132183
81	0x3f7135dc	0.9422281
82	0x3f6cbaa4	0.9247229
83	0x3f6c134e	0.92216957
84	0x3f6e56ef	0.931014
85	0x3f6d106c	0.9260318
86	0x3f71f535	0.9451478
87	0x3f714734	0.9424927
88	0x3f6c56b4	0.923198
89	0x3f6dd5fe	0.9290465
90	0x3f6f81cc	0.9355743
91	0x3f6a18e5	0.91444236
92	0x3f6a9fe2	0.9165021
93	0x3f6f7d24	0.93550324
94	0x3f6c2f2c	0.9225948
95	0x3f6f5a7d	0.9349745
