trained_model/BiSegNet(ReagentV3)_no_train.pt (torch, 398585 bytes, 152 tensors)

weight f4 [8, 1, 3, 3]
000000 b8 d8 0a bd c8 d0 35 be 66 a5 d5 bd 32 15 89 3e
       -0.033898085 -0.17755425 -0.10431938 0.26773983
000010 78 ce d8 3d 27 26 40 be 84 d5 51 be 03 4f 77 be
       0.10586256 -0.18764554 -0.20491606 -0.24151234
000020 c2 13 68 3e f4 92 d8 3d 20 6c 7f bc d0 81 7d be
       0.22663787 0.10574904 -0.015589744 -0.24756551
000030 de 56 35 be 98 62 4f 3d fc e2 34 3e 80 d1 8a 3e
       -0.17708918 0.050631136 0.17664713 0.2711296
000040 3c 3e 0b 3e 80 dc 10 bb 3c 0a f5 3d 40 2a e8 3d
       0.1359796 -0.0022104084 0.11964843 0.113361835
000050 e0 42 30 3e 38 66 d5 bc e4 c5 f3 3d 3c d2 20 be
       0.17213011 -0.026049718 0.11902979 -0.15705198
000060 b6 c7 c4 bd c4 14 88 bd 34 ba a8 3d 4a 1f ef bd
       -0.09608404 -0.06644586 0.082386404 -0.1167589
000070 86 62 27 be bc d8 87 3e c0 05 ad bb 54 6f e0 3d
       -0.16346177 0.26532543 -0.0052802265 0.10958734
000080 1c a4 9c 3d 68 b9 30 3e 9c 15 85 3e 56 11 0f 3e
       0.07648489 0.17258227 0.2599305 0.13971457
000090 48 1f 2d 3e e2 47 48 3e c4 fe 29 be 08 47 d1 bc
       0.16906464 0.19558671 -0.16601092 -0.025546566
0000a0 c0 c4 bc 3c 28 70 72 3d a4 71 70 3e 0c 1a ce 3d
       0.023043036 0.05918899 0.2348085 0.10063562
0000b0 e6 6f 54 3e 34 2f 81 3d d2 10 3e 3e 20 45 ac 3d
       0.20745811 0.063078314 0.18561104 0.08411622
0000c0 f8 79 3d be 29 99 15 be b0 85 52 3d 9a d3 37 3e
       -0.18503559 -0.14609207 0.051397026 0.17951813
0000d0 58 1b b9 3d 10 fc 90 3d 15 a1 79 be 54 44 fc 3d
       0.090384185 0.07079327 -0.24377854 0.1231772
0000e0 17 24 45 be 8c 96 cb 3d ef 22 5a be 3c a4 e5 bd
       -0.19252048 0.09940824 -0.21302389 -0.11212966
0000f0 e0 c8 31 3e 80 76 c4 bc 7f 23 0d be 8a bc 87 be
       0.17361784 -0.023982286 -0.13783072 -0.2651103
000100 06 f9 17 be eb 85 85 be 92 a0 0f 3e 45 bd 02 be
       -0.14841089 -0.26078734 0.14026096 -0.12767513
000110 6c d2 fa 3d 37 b2 82 be 40 c5 0c be 96 3a 26 be
       0.12247166 -0.25526592 -0.1374712 -0.16233286

weight f4 [8]
000000 00 00 80 3f 00 00 80 3f 00 00 80 3f 00 00 80 3f
       1.0 1.0 1.0 1.0
000010 00 00 80 3f 00 00 80 3f 00 00 80 3f 00 00 80 3f
       1.0 1.0 1.0 1.0

bias f4 [8]
000000 00 00 00 00 00 00 00 00 00 00 00 00 00 00 00 00
       0.0 0.0 0.0 0.0
000010 00 00 00 00 00 00 00 00 00 00 00 00 00 00 00 00
       0.0 0.0 0.0 0.0

running_mean f4 [8]
000000 71 52 8e bc b5 08 73 3c 37 5c 54 3c 1d 1f 17 3d
       -0.017373296 0.014833619 0.012961439 0.036894906
000010 14 bd 22 3d 4a 1b a0 3c 32 cd d7 bc 8a e4 5e bd
       0.0397311 0.019544262 -0.026342962 -0.05441717

running_var f4 [8]
000000 1a 10 67 3f ee e3 66 3f de a6 66 3f 89 eb 66 3f
       0.90258944 0.90191543 0.9009837 0.9020315
000010 b2 d8 66 3f bd b7 66 3f 09 e4 66 3f 9c 18 67 3f
       0.901744 0.9012411 0.90191704 0.90271926

weight f4 [24, 8, 1, 1]
000000 80 55 d5 bc 30 6d c1 be b5 aa 7c be 9d ac b2 3e
       -0.026041746 -0.37778616 -0.24674495 0.34897318
000010 64 52 92 3d 10 b3 2d 3d ae ca ae be b7 4a 8f 3e
       0.07144621 0.042407095 -0.34139007 0.2798669
000020 62 04 5a 3e c0 5f 55 bd 28 b0 b2 be 7a f5 13 be
       0.21290734 -0.052093267 -0.34900022 -0.1444911
000030 f2 f9 ce be 80 54 6d be a8 bd 0a 3d 28 a7 23 3d
       -0.40425068 -0.23176765 0.033872277 0.039954334
000040 be 02 39 3e 6c 84 3b be c0 de d8 bd 74 65 d7 3d
       0.18067452 -0.18312234 -0.10589361 0.105173975
000050 00 28 5f bb 43 44 87 3e 44 9d cb 3d 6f 0a 94 3e
       -0.0034050941 0.26419267 0.099421054 0.2891421
000060 1a d6 64 3e e8 a8 63 3d 52 f0 08 3e 26 65 af be
       0.22347298 0.055581003 0.13372925 -0.34256858
000070 a3 fc dc be b4 e2 ef 3d f6 bc 0d be 4f 49 a9 3e
       -0.43161497 0.11713162 -0.13841614 0.33063743
000080 c4 28 c1 3d 1a 14 0a be af c6 84 3e 80 d2 8d 3b
       0.094316036 -0.1348423 0.25932834 0.004328072
000090 00 a0 4b ba cc c0 c5 3d be 88 8d be e7 2e 84 3e
       -0.00077676773 0.09655914 -0.27643389 0.25817034
0000a0 66 f4 13 3e b4 a4 ab 3d 1a 1c 24 3e 04 ee 15 be
       0.144487 0.08381024 0.16026345 -0.14641577
0000b0 70 18 3b be 60 2f 33 bd b0 9c 2f be 80 8c 2c 3b
       -0.18271041 -0.043746352 -0.17149615 0.0026328862
0000c0 91 97 64 be 28 b5 24 be 5f 5e 67 be 2a de 48 be
       -0.22323443 -0.1608473 -0.22594593 -0.19615999
0000d0 96 f8 12 3e 3e a2 58 3e 6c 05 d3 bd 30 e1 06 bd
       0.1435264 0.2115564 -0.103037685 -0.0329296
0000e0 e5 15 ab 3e e4 ce de 3d ac 15 56 be 01 54 d8 3e
       0.33415142 0.10879305 -0.20906705 0.4225159
0000f0 9e 11 76 3e 52 5d d8 be 0e e1 69 3e 9f db bb 3e
       0.24030158 -0.42258698 0.22839758 0.36690995
000100 b3 32 d3 3e 8e a2 5c be 36 51 7d 3e 34 3f c7 3d
       0.41249618 -0.21546385 0.24738011 0.09728852
000110 c0 70 cf 3b e3 22 d4 3e 50 d7 c5 3c d0 86 5e 3d
       0.0063305795 0.41432866 0.02415052 0.054327786
000120 ac 62 ca be 0c 0a 8b 3d c7 fa db 3e 3a 72 3d 3e
       -0.39528406 0.06789026 0.42964765 0.18500605
000130 62 1a 1b be ea 41 91 be 6f 2c d6 3e e6 78 95 be
       -0.15146783 -0.283706 0.41830775 -0.291938
000140 5b b4 d8 be 84 3d db be 66 81 44 be 2c e6 b1 3d
       -0.423251 -0.4282037 -0.19189987 0.0868648
000150 39 40 c4 be 19 72 dd 3e e0 73 98 bc 24 80 81 be
       -0.38330248 0.43251112 -0.018609941 -0.25293076
000160 f0 9e 08 be f8 39 3f bd 60 f3 c0 3c 39 ee 90 3e
       -0.1334188 -0.046686143 0.02355355 0.2830675
000170 96 c2 22 3e b4 f6 8b 3d dc ae c0 be 4f 83 4c be
       0.15894541 0.06834164 -0.37633407 -0.19971965
000180 08 66 d3 bd 00 0b 0f 3c ec 0a 43 be 29 11 85 3e
       -0.10322195 0.00873065 -0.19047135 0.25989655
000190 0b 02 c6 3e 8c 9b e2 bd e2 01 09 3e cd f4 42 be
       0.38673434 -0.110648245 0.13379624 -0.19038697
0001a0 20 41 6e bd c7 a7 a0 3e 74 20 d4 bd df fb a9 3e
       -0.058167577 0.31378004 -0.103577524 0.33199975
0001b0 64 29 26 be 99 72 42 be 7f a7 79 be 4a 9f 21 3e
       -0.16226727 -0.18989028 -0.24380301 0.1578342
0001c0 ac 30 b9 bd 99 a9 72 be d0 de 1c be 55 ba 40 be
       -0.090424865 -0.23697509 -0.15319371 -0.1882108
0001d0 00 6e b9 bc 18 99 4c bd 94 89 c2 3d 19 d2 d0 3e
       -0.02263546 -0.04995069 0.09498897 0.40785292
0001e0 9f 98 82 3e 54 a4 c2 3d 3a a5 99 be 22 88 1c 3e
       0.25507066 0.09503999 -0.3000887 0.15286306
0001f0 90 8d 70 be 2d 4d ac 3e 5e 4c 26 3e 66 d5 98 be
       -0.23491502 0.3365263 0.1624007 -0.2985031
000200 67 64 cf 3e fd a0 74 be 06 5d bd be b2 85 25 3e
       0.40506288 -0.23889537 -0.36985034 0.16164282
000210 7c 7b fd 3d 22 b0 ca be 46 c8 6f be 66 41 4d be
       0.123770684 -0.39587504 -0.23416242 -0.20044479
000220 64 a6 fc 3d dc e1 86 be f2 8b 33 3e e9 fc b0 3e
       0.12336424 -0.26344192 0.17533854 0.34567955
000230 96 e4 82 be fe d5 4e 3e 2c 20 d5 3d 7a 39 2a be
       -0.25565022 0.20198819 0.10406527 -0.16623488
000240 c6 9a 4a be a7 92 d4 be 78 58 d9 be 4e 68 36 3e
       -0.19785604 -0.41518137 -0.4245031 0.17813227
000250 84 b9 70 be e0 71 79 bc 9b ca 96 3e fb 0c d0 be
       -0.23508269 -0.015224904 0.2945145 -0.40634903
000260 ae 14 1e be 99 f6 d1 3e 1b 96 89 3e 61 54 d0 be
       -0.15437576 0.41008452 0.26872334 -0.40689376
000270 4c 88 b3 bd a2 91 9c be 1c c7 bc bd 12 ea 36 3e
       -0.08766231 -0.3057986 -0.092176646 0.17862728
000280 39 9a 80 3e 6a b7 0f 3e 30 67 c8 be 15 52 cd 3e
       0.25117663 0.1403481 -0.39141226 0.40101686
000290 37 a6 96 be 1e 28 13 be 34 35 e6 3d 42 da 1b 3e
       -0.29423687 -0.14370772 0.112406164 0.15219977
0002a0 6e d9 92 be 94 92 dd 3d 24 c2 98 be 16 62 41 3e
       -0.2868151 0.10818973 -0.29835618 0.18885073
0002b0 ca 76 1e 3e f2 a6 23 3e 69 8d b1 3e f8 1d 6b bd
       0.15475002 0.15981653 0.346782 -0.057401627
0002c0 fe c5 0b be c0 c9 42 3c 91 3f 5b be 40 d0 9f 3c
       -0.13649747 0.011888921 -0.21410967 0.019508481
0002d0 b9 a2 d0 be a3 a3 bd 3e db bd 4b be 5a b7 49 3e
       -0.40749148 0.37038907 -0.19896643 0.1969885
0002e0 a2 d8 39 3e ae 23 71 3e ce 84 d9 be d9 df d0 3e
       0.18149045 0.23548767 -0.42484134 0.40795782
0002f0 80 91 9c bb df 29 cc be 50 fe 09 bd 40 f4 8d bb
       -0.004778087 -0.39875695 -0.033689797 -0.0043320954

weight f4 [24]
000000 00 00 80 3f 00 00 80 3f 00 00 80 3f 00 00 80 3f
       1.0 1.0 1.0 1.0
000010 00 00 80 3f 00 00 80 3f 00 00 80 3f 00 00 80 3f
       1.0 1.0 1.0 1.0
000020 00 00 80 3f 00 00 80 3f 00 00 80 3f 00 00 80 3f
       1.0 1.0 1.0 1.0
000030 00 00 80 3f 00 00 80 3f 00 00 80 3f 00 00 80 3f
       1.0 1.0 1.0 1.0
000040 00 00 80 3f 00 00 80 3f 00 00 80 3f 00 00 80 3f
       1.0 1.0 1.0 1.0
000050 00 00 80 3f 00 00 80 3f 00 00 80 3f 00 00 80 3f
       1.0 1.0 1.0 1.0

bias f4 [24]
000000 00 00 00 00 00 00 00 00 00 00 00 00 00 00 00 00
       0.0 0.0 0.0 0.0
000010 00 00 00 00 00 00 00 00 00 00 00 00 00 00 00 00
       0.0 0.0 0.0 0.0
000020 00 00 00 00 00 00 00 00 00 00 00 00 00 00 00 00
       0.0 0.0 0.0 0.0
000030 00 00 00 00 00 00 00 00 00 00 00 00 00 00 00 00
       0.0 0.0 0.0 0.0
000040 00 00 00 00 00 00 00 00 00 00 00 00 00 00 00 00
       0.0 0.0 0.0 0.0
000050 00 00 00 00 00 00 00 00 00 00 00 00 00 00 00 00
       0.0 0.0 0.0 0.0

running_mean f4 [24]
000000 16 3e 25 bc 9f 46 13 bd 1d d2 d4 3c 55 29 0a bb
       -0.010085603 -0.03595602 0.025979096 -0.0021081765
000010 23 f5 44 3c 7f 52 ca bb c2 91 c1 bc e2 65 30 3d
       0.012021336 -0.006174385 -0.023629073 0.043065913
000020 66 42 2b 3d f5 11 62 ba 6e 5c 42 bd 19 05 13 bc
       0.04181137 -0.00086238916 -0.04745143 -0.008973383
000030 bd 98 00 3c 40 26 f8 3a 37 98 1d bc 42 50 e0 3b
       0.007848916 0.0018932298 -0.00961881 0.006845505
000040 42 cd f6 bc 77 19 2e 3c 99 31 49 bd db 0b f9 bb
       -0.030127171 0.0106261885 -0.049119566 -0.0076002902
000050 df 73 17 3c f2 4b 51 3c 65 de 6b bc 33 77 cf ba
       0.009243934 0.012774454 -0.014396285 -0.0015828371

running_var f4 [24]
000000 16 9a 69 3f 72 e4 6b 3f e9 12 68 3f 6c 72 6b 3f
       0.9125074 0.92145455 0.90653855 0.9197147
000010 c1 76 68 3f 19 c5 67 3f f0 0c 68 3f 3f d8 6c 3f
       0.90806204 0.9053512 0.9064474 0.92517465
000020 2b 92 69 3f 3b 77 6a 3f ea 63 6c 3f 9d c5 6a 3f
       0.9123866 0.9158818 0.92339957 0.91707784
000030 7f 7b 69 3f 7a 28 69 3f 71 3c 6a 3f f0 9e 68 3f
       0.91204065 0.9107739 0.91498476 0.9086752
000040 94 1d 6b 3f 91 d6 69 3f 09 ed 6a 3f 7b c7 69 3f
       0.9184201 0.9134303 0.91767937 0.9132001
000050 ab 9b 6b 3f 4f 5c 6c 3f 2f c3 68 3f d4 4c 6b 3f
       0.92034405 0.9232835 0.90922827 0.91914105

weight f4 [24, 1, 3, 3]
000000 49 14 87 bd 68 8f dd 3d b8 22 fd 3d 02 a8 13 be
       -0.06595666 0.10818368 0.12360138 -0.14419559
000010 3e b2 8b 3d ce aa 62 bd 59 03 cc bd 80 7d 9d 3a
       0.068211064 -0.055338673 -0.09961576 0.0012015551
000020 f2 c2 af 3d 98 81 c5 bc 24 32 3c 3d 30 49 da 3d
       0.08582105 -0.024109647 0.045946255 0.10658491
000030 83 15 d3 bd 30 3d 65 3d 7c 2e 3f bd 20 c5 9f bc
       -0.103068374 0.055966556 -0.04667519 -0.019503176
000040 5c 1d bd bd e4 09 f4 bd c6 76 22 3e 54 57 1d be
       -0.092341155 -0.11915949 0.15865621 -0.15365344
000050 c4 72 6a 3d 24 0a b5 3d ca 4e 73 bd 00 dc d9 b9
       0.057238355 0.08839825 -0.05940131 -0.00041553378
000060 10 ef 45 3c 70 1f ec bc 70 ed ca bc 90 4e 37 3c
       0.012080923 -0.028823584 -0.024771422 0.011188164
000070 50 12 82 bd 8c 64 ec 3d 28 46 bb bc a6 e2 9a 3d
       -0.06351149 0.11542615 -0.022860602 0.07562761
000080 a0 a8 72 3c 68 71 1d 3e a3 18 f7 bd 8c 0d cb 3d
       0.014810711 0.15375292 -0.12065246 0.09914693
000090 06 3c 25 3e b0 84 58 bd d7 b0 9e bd 44 36 48 bd
       0.16136178 -0.052860916 -0.07748573 -0.048879877
0000a0 6e 47 b0 3d c0 ac 44 bb 5c b5 16 3d 80 a4 db bb
       0.08607374 -0.0030010194 0.03679405 -0.0067029595
0000b0 40 bf c4 3d 54 6e db 3d 2e cb 83 bd 13 b4 15 be
       0.096067905 0.10714403 -0.06435238 -0.14619474
0000c0 6f 65 10 be e4 2d 15 3d 2e f9 5b bd 68 4f 47 bd
       -0.14101194 0.036420718 -0.053704433 -0.048659712
0000d0 00 20 d2 b9 a2 e3 26 3e 97 c0 b5 bd e2 8f 14 3e
       -0.00040078163 0.16297773 -0.08874624 0.14508012
0000e0 7b 49 87 bd 28 2a 2d bd 08 63 f3 3c 4a ed 94 3d
       -0.06605812 -0.04227653 0.029710308 0.07271822
0000f0 04 a6 e1 3d ef 3c 98 bd 84 d5 93 3d be 0a 46 bd
       0.11017993 -0.07433497 0.07218459 -0.04835009
000100 00 b4 50 b9 19 81 92 bd 9b 92 b7 bd 3c 9a 13 3d
       -0.00019903481 -0.0715353 -0.0896351 0.03603576
000110 ec 61 03 3d 00 ad be 3a 9e c6 2a bd 72 26 06 3e
       0.032075807 0.0014547408 -0.041693322 0.13100603
000120 f0 f7 10 3d 3c af 26 3d 8a ef 0b be e0 2b 69 3c
       0.0353927 0.04069446 -0.13665596 0.014231652
000130 9a 8e 24 3e 70 ae bf 3d c4 1e 54 3d d0 91 76 3c
       0.16070023 0.09359443 0.051787153 0.015049413
000140 20 04 29 bc fe e4 19 be fe d4 0a be a2 45 91 bd
       -0.010315925 -0.1502876 -0.13557813 -0.070933595
000150 b0 f4 27 bc e6 9c ea bd 8c 41 4c 3d 28 a9 94 3c
       -0.010251209 -0.11455707 0.049867198 0.018147066
000160 c4 96 05 be e4 2b f6 bd 2a 4e 17 3e 84 3c 82 3d
       -0.13045794 -0.1202009 0.14775911 0.06359199
000170 55 9b 06 be 10 df 11 3d c4 25 32 3d d0 9a 23 3e
       -0.13145192 0.03561312 0.043493047 0.15977025
000180 c0 c3 5a 3d 27 0b e5 bd 34 2b 8e 3d a8 22 17 bd
       0.053409338 -0.11183768 0.06941834 -0.036898285
000190 b2 7e 12 be f3 cd ab bd 98 73 cd bc d4 9f 18 3d
       -0.14306143 -0.08388891 -0.025079533 0.0372618
0001a0 8e fa 9f 3d 1c c3 f3 3d 12 6c 03 be a0 cf 00 3d
       0.078114614 0.119024485 -0.12834194 0.031448007
0001b0 40 64 93 bb 5e 32 d0 bd 06 c7 1f be 8c c1 4f bd
       -0.0044980347 -0.10165857 -0.15603265 -0.05072169
0001c0 00 e3 37 ba 52 98 01 be e4 d3 e8 3d 0a ba 1a 3e
       -0.00070147216 -0.12655762 0.1136854 0.15110031
0001d0 2b 36 90 bd 9b 0e b2 bd 50 e5 18 3e a0 86 0b bc
       -0.07041582 -0.08694192 0.14931226 -0.008515984
0001e0 7e ea 4f bd 9c ad 08 3e 98 ad 5d 3d 40 8e e3 3b
       -0.05076074 0.13347477 0.05412063 0.0069444478
0001f0 0c 91 aa 3d e6 ad 2a bd d0 f2 fd 3d e2 dc 07 be
       0.08328447 -0.04166975 0.123998284 -0.13267854
000200 42 ba 83 3d 76 d2 9c 3d b8 56 02 3d e6 4b 98 bd
       0.0643201 0.0765733 0.031820983 -0.074363515
000210 4f fe a0 bd 5d 98 c0 bd 04 7a a9 3d 63 2c 19 be
       -0.078610055 -0.09404061 0.08275226 -0.14958338
000220 26 0c de bd 1a c5 fd bd 4c f0 1d 3e 6c 74 ec 3d
       -0.10842161 -0.1239111 0.15423697 0.11545643
000230 20 2c 15 3c 22 1d 83 3d 0d bb 86 bd d6 7c 26 3e
       0.0091047585 0.06402041 -0.06578646 0.16258559
000240 68 ea bc 3c 0d 30 05 be 28 00 26 bd 54 0d 17 3e
       0.023060992 -0.13006611 -0.040527493 0.14751178
000250 30 be bf 3d 4f e4 ed bd 60 ad 97 bd 40 17 a7 3c
       0.09362447 -0.11615812 -0.074061155 0.020396829
000260 b0 a4 4e 3d 30 82 65 3c d6 f6 29 bd ea c7 90 3d
       0.050450027 0.01400809 -0.041495167 0.070693806
000270 d8 84 b0 3d 60 f8 a7 bd 0c d3 f4 bd b8 f9 48 3d
       0.08619088 -0.08201671 -0.119543165 0.049066275
000280 48 5d f4 3d b0 d9 da 3d 80 84 66 3b 55 d4 fd bd
       0.119318545 0.10686052 0.003517419 -0.12394015
000290 07 ed 9f bd 2c 13 75 bd 35 fb 25 be a9 33 91 bd
       -0.07808881 -0.059832737 -0.16209109 -0.070899315
0002a0 ae e0 0e 3e f3 6f e9 bd d0 28 e0 3c ec 9e 89 bd
       0.13952896 -0.11398306 0.02736321 -0.06719765
0002b0 3a 00 bf bd 18 18 e8 bc 82 90 a3 3d 00 f8 41 bc
       -0.09326215 -0.028331801 0.07986547 -0.011838913
0002c0 ac e6 db 3d ef 6d 0a be b0 ab 9e 3c a8 d0 5c bd
       0.107373565 -0.13518499 0.019368976 -0.053909928
0002d0 d0 a6 54 3d c0 16 4d 3c 2c d3 fc 3d 3b 5e b4 bd
       0.051916897 0.012517631 0.12344965 -0.088070355
0002e0 15 f8 22 be e6 5e 91 3d 2a c9 28 bd 44 91 e2 bd
       -0.15914948 0.070981786 -0.04120747 -0.110628635
0002f0 8e 37 00 3e 3f fa 92 bd ac b5 56 bd 40 8b ca bd
       0.12521192 -0.07176637 -0.05241935 -0.09889841
000300 08 e2 04 3d 72 88 a9 3d de 5c 12 3e dc 5b 06 3d
       0.032442123 0.08277978 0.14293239 0.032802448
000310 d8 32 14 3d 5a 44 81 3d 84 8f 3b 3d 46 41 40 bd
       0.0361813 0.06311865 0.045791164 -0.04693725
000320 88 29 bb bc 40 69 92 3d 20 a4 75 bc 00 24 b2 3b
       -0.022846952 0.07148981 -0.014992744 0.0054364204
000330 05 3b c6 bd ba 2d 21 be 1c d7 f0 3d 18 4d 19 be
       -0.09679226 -0.157401 0.11759779 -0.14970815
000340 82 37 ab bd 86 86 01 be 70 27 94 3c c0 98 dc bc
       -0.08360197 -0.12648973 0.018085212 -0.026928306
000350 38 af 2d 3d 4d 2d 01 be 96 90 8a 3d 5c 7f 50 3d
       0.04240343 -0.12614937 0.06765859 0.05090271

weight f4 [24]
000000 00 00 80 3f 00 00 80 3f 00 00 80 3f 00 00 80 3f
       1.0 1.0 1.0 1.0
000010 00 00 80 3f 00 00 80 3f 00 00 80 3f 00 00 80 3f
       1.0 1.0 1.0 1.0
000020 00 00 80 3f 00 00 80 3f 00 00 80 3f 00 00 80 3f
       1.0 1.0 1.0 1.0
000030 00 00 80 3f 00 00 80 3f 00 00 80 3f 00 00 80 3f
       1.0 1.0 1.0 1.0
000040 00 00 80 3f 00 00 80 3f 00 00 80 3f 00 00 80 3f
       1.0 1.0 1.0 1.0
000050 00 00 80 3f 00 00 80 3f 00 00 80 3f 00 00 80 3f
       1.0 1.0 1.0 1.0

bias f4 [24]
000000 00 00 00 00 00 00 00 00 00 00 00 00 00 00 00 00
       0.0 0.0 0.0 0.0
000010 00 00 00 00 00 00 00 00 00 00 00 00 00 00 00 00
       0.0 0.0 0.0 0.0
000020 00 00 00 00 00 00 00 00 00 00 00 00 00 00 00 00
       0.0 0.0 0.0 0.0
000030 00 00 00 00 00 00 00 00 00 00 00 00 00 00 00 00
       0.0 0.0 0.0 0.0
000040 00 00 00 00 00 00 00 00 00 00 00 00 00 00 00 00
       0.0 0.0 0.0 0.0
000050 00 00 00 00 00 00 00 00 00 00 00 00 00 00 00 00
       0.0 0.0 0.0 0.0

running_mean f4 [24]
000000 d7 1e 96 3a 97 e0 fc bb c7 d5 c0 3a e8 b0 26 3c
       0.0011453283 -0.007717203 0.0014712148 0.010174014
000010 48 33 f8 3b 5f 9b bc bb 3d a6 ca 3b 59 52 00 bb
       0.0075744726 -0.0057558264 0.006184368 -0.0019580333
000020 05 d7 2e 3c 05 d3 d5 bc af ef 58 3c 35 28 c4 bb
       0.010671382 -0.026101599 0.013240739 -0.0059862384
000030 c7 0b 25 bc 46 54 1e 3c 2d e3 db b9 6b e6 15 3b
       -0.010073609 0.009663647 -0.00041940194 0.0022872936
000040 88 15 89 ba 72 bf 03 3c 4b 29 91 bc c7 04 e6 bb
       -0.0010458687 0.00804125 -0.017719885 -0.0070196125
000050 9f c4 81 ba f7 8a db 3b f8 78 84 bb 4f 26 4d bc
       -0.0009900517 0.0066999155 -0.004042741 -0.0125213405

running_var f4 [24]
000000 c1 1d 67 3f ea c0 66 3f cd 10 67 3f 7b ee 66 3f
       0.90279776 0.90138113 0.9026001 0.9020764
000010 0f e0 66 3f 8d 43 67 3f 57 fe 66 3f a6 ad 66 3f
       0.90185636 0.9033745 0.9023184 0.90108716
000020 7e 02 67 3f f5 16 67 3f 7a 28 67 3f 72 d5 66 3f
       0.9023818 0.90269405 0.9029614 0.9016944
000030 95 71 67 3f 7e e9 66 3f f1 f5 66 3f 6e 9e 67 3f
       0.9040769 0.9020003 0.90219027 0.9047612
000040 67 f4 66 3f f3 d3 66 3f 2d 12 67 3f c7 bc 66 3f
       0.9021668 0.9016716 0.9026211 0.901318
000050 57 04 67 3f 19 d9 66 3f 6e d3 66 3f 02 f9 66 3f
       0.90241 0.90175015 0.90166366 0.90223706

weight f4 [16, 24, 1, 1]
000000 b2 55 a7 3e 5a 6d 5b be 0e 8f 8d 3e 6c e1 68 3e
       0.32682568 -0.21428433 0.27648205 0.22742242
000010 c2 29 b4 3e fe 37 a7 3e 24 e5 a5 3e 68 59 e8 bd
       0.3518811 0.32659906 0.32401383 -0.11345178
000020 08 81 56 3e b8 89 d2 3d 8c 0e a2 3e 00 ae f3 3d
       0.20947659 0.10280174 0.31651723 0.11898422
000030 7f b0 49 be 12 12 58 be 10 2e a5 3d a6 bd 59 be
       -0.19696234 -0.21100643 0.08065426 -0.21263751
000040 30 c0 f4 bc 88 c3 4f 3e 5e 3e 0b be d0 f4 39 3d
       -0.029876798 0.20289433 -0.1359801 0.045399487
000050 22 f2 a0 3e c8 44 83 bd 82 8f 5b be 37 e6 1f be
       0.31434733 -0.06409603 -0.21441463 -0.15615164
000060 c0 68 12 bd dc bb 86 be a0 0d 27 bd 00 40 d7 38
       -0.03574443 -0.263152 -0.04078448 0.0001026392
000070 64 19 bb 3e 60 0e b3 3c 18 20 ab 3e f5 d6 c1 be
       0.3654281 0.02185744 0.33422923 -0.37859312
000080 0a 46 86 3e 6c 48 8b be 61 39 7a be 9c c3 0d 3e
       0.2622531 -0.2720369 -0.24435951 0.1384415
000090 90 d2 10 3e 78 25 f8 3d 20 e4 84 be 98 2d 81 3d
       0.14142823 0.121165216 -0.25955296 0.063075244
0000a0 8a 35 98 3e 88 60 67 3d 60 e8 1d bd 0c 7f 23 3e
       0.29728347 0.056488544 -0.03855169 0.15966433
0000b0 18 68 b3 bd 10 32 2c 3e 50 c4 90 be 8c 90 58 be
       -0.08760089 0.16815972 -0.28274775 -0.2114889
0000c0 ad 07 9c be 38 ec 3c be 68 01 63 3e 24 83 63 3e
       -0.30474606 -0.18449485 0.22168505 0.22217995
0000d0 88 41 2a 3d bc 46 c5 3d ac ed d3 bd 08 bd 90 3d
       0.0415664 0.09632632 -0.10348067 0.07067305
0000e0 60 de 77 3c e8 66 a3 3d 60 9b b1 bc 08 d7 45 3e
       0.015128702 0.07978612 -0.021680534 0.19320309
0000f0 90 2a f2 3d 80 65 b1 3b f3 39 0d be ec b6 c3 3d
       0.118245244 0.005413711 -0.13791637 0.09556374
000100 f0 d3 cb bc f8 66 ce 3d 17 1d c1 be c8 20 24 3e
       -0.024881333 0.100782335 -0.37717506 0.1602813
000110 fc db dc 3d 14 fe b4 3e 08 4b c0 3e 80 5d f0 bc
       0.10784146 0.35350096 0.37557244 -0.02934146
000120 fc 22 07 3e d3 bd 52 be d0 ff 23 3e 95 9e 7f be
       0.13196939 -0.20580225 0.16015553 -0.24962838
000130 ac ef 83 3e ac 41 8f be 54 1a 43 3e 43 9f 1e be
       0.25768793 -0.2797979 0.19053012 -0.15490441
000140 43 64 38 be c8 73 8d 3e 5d 08 66 be 9c cf 60 3e
       -0.18006997 0.27627397 -0.22464128 0.21954197
000150 30 05 15 bd 5a a9 90 be 64 2d 1f 3e e9 e9 79 be
       -0.0363819 -0.28254205 0.15544659 -0.24405636
000160 80 58 7c 3e c8 e6 0f 3e a6 c4 b9 3e 63 1e a3 be
       0.24643135 0.1405288 0.36282843 -0.3185912
000170 3c 30 03 3e 80 6d f8 bb 00 c0 20 3a 64 72 c2 be
       0.12811369 -0.007581413 0.0006132126 -0.37977898
000180 6c f5 3d 3e 60 ef 83 bd b8 fb a8 bd f8 d6 b9 3e
       0.18550652 -0.064421415 -0.082511365 0.3629682
000190 7a 8d 87 3e 14 b6 b2 be 3a 06 59 be 00 0c ff 3b
       0.26475126 -0.3490454 -0.21193781 0.007783413
0001a0 40 d8 06 3c e7 d2 b5 be 48 0b 7c 3e 58 62 49 bd
       0.008230269 -0.35512468 0.24613678 -0.049166054
0001b0 9c 47 19 3e 58 db 49 bd e2 96 bf be e0 c9 b8 3e
       0.14968723 -0.049281448 -0.37419802 0.36091518
0001c0 85 4f 64 be d0 c1 57 3e 82 e6 0e be 08 62 82 bd
       -0.2229596 0.21070027 -0.13955119 -0.06366354
0001d0 34 e2 9b be a7 e4 7b be 70 9b 8c bc 4c df 03 3e
       -0.30446017 -0.24598943 -0.017163962 0.1287815
0001e0 ae bf 6a be c0 d5 ca 3d e0 9d e5 3d 60 78 4f 3c
       -0.22924682 0.09904051 0.11211753 0.012662977
0001f0 98 41 66 3e 77 08 a5 be 9a f8 67 be 51 3c b0 be
       0.2248596 -0.3223302 -0.22653428 -0.34421018
000200 5e 6f 90 3e 20 6f 3c 3e 2c 14 d1 bd 44 aa 0a be
       0.28209966 0.18401766 -0.102089256 -0.13541514
000210 7e 2e 98 be d7 2f 15 be 30 81 d0 3c f0 33 a5 be
       -0.2972297 -0.1456903 0.025452226 -0.32266188
000220 c0 63 e1 3b 00 90 e2 ba 24 f3 c6 3d ab f1 14 be
       0.006878346 -0.0017285347 0.09714344 -0.14545314
000230 ac f4 13 3e 22 0b 1e be 74 20 89 bd 1d 4b 6f be
       0.14448804 -0.15433934 -0.06695643 -0.23368497
000240 a0 9c 38 3e 74 3f c5 bd a0 e1 76 3c 0e 3d 42 be
       0.18028498 -0.09631243 0.015068442 -0.18968603
000250 b2 ff b4 3e 47 d0 4b be f5 0c 93 be 60 a2 a2 bc
       0.3535133 -0.1990367 -0.28720823 -0.019852817
000260 48 72 4e 3d bc 95 ac be 68 b5 5d bd 88 37 b1 3e
       0.050401956 -0.33707988 -0.05412808 0.3461268
000270 53 f2 49 be 48 0f 7d 3e 2a 00 7f be 59 51 25 be
       -0.19721346 0.2471286 -0.24902406 -0.16144313
000280 60 af 3a 3e d4 4e 86 3e a0 9f ac 3c 80 5d 2a bb
       0.18230963 0.26232016 0.021072209 -0.0025995672
000290 03 c8 2f be 3c 2c c5 3e f8 07 41 3d 94 3d 93 3e
       -0.17166142 0.3851031 0.04712674 0.28757918
0002a0 00 b2 33 3a c4 b7 a6 3d 12 e5 5a be 06 5f 9a 3e
       0.0006854832 0.08140519 -0.21376446 0.30150622
0002b0 0c d8 4f 3e 2e c0 c5 be 60 15 c5 be f4 38 2f be
       0.20297259 -0.38623184 -0.3849287 -0.1711157
0002c0 58 5a fc 3d 70 b7 71 3e 88 0f 8d 3e 3e d2 46 be
       0.12321919 0.23605132 0.27550912 -0.19416139
0002d0 f1 3d 63 be 40 35 1d be 83 7f a1 be 98 ab 5e 3e
       -0.22191598 -0.15352345 -0.31542596 0.21745145
0002e0 ed d5 9e be c8 35 b0 3d 03 4f 9f be 3c f0 6a 3e
       -0.31022587 0.08604008 -0.3111497 0.22943205
0002f0 fe e5 9e 3e 81 22 a1 be 0e 36 3c be 9e 96 a6 be
       0.31034845 -0.31471637 -0.18379995 -0.32536787
000300 40 c9 79 3e 4a 95 97 3e 18 71 a0 3e 84 f7 51 3e
       0.24393177 0.29606086 0.31336284 0.20504576
000310 30 8c e4 3c dd fc a1 be a8 07 ed 3d 8a 58 c0 3e
       0.027898878 -0.31638232 0.11573726 0.3756755
000320 3c d9 c5 3e 94 b7 5c 3e 8c b8 9a bd 82 65 8b be
       0.386423 0.21554404 -0.07554731 -0.27225882
000330 40 55 b4 bb c0 c7 cc 3c 20 4a 1f bd 11 56 64 be
       -0.0055033267 0.024997592 -0.03888905 -0.22298457
000340 f8 03 13 3d b8 7f f2 3d 59 50 8f be e0 8e 74 3d
       0.035892457 0.11840767 -0.27990988 0.05970657
000350 f0 b3 85 3e 06 e0 26 be 60 92 96 bd 97 2e 97 be
       0.26113844 -0.16296396 -0.073521376 -0.29527733
000360 37 f4 74 be 40 a1 58 3c c8 68 f1 3d a3 7a 68 be
       -0.23921286 0.013222039 0.117875636 -0.22703032
000370 60 38 07 bc a1 ec a9 be 58 fb b6 bd 90 87 18 bd
       -0.008253187 -0.33188346 -0.08934659 -0.037238657
000380 f0 95 98 bd 40 2a 72 bd c4 53 4f 3e f7 77 a8 be
       -0.07450473 -0.059122324 0.20246798 -0.32904026
000390 08 86 6a bd 8a 88 25 be 70 77 d5 3d 70 8c 72 3e
       -0.05725673 -0.16165367 0.104231715 0.23686385
0003a0 08 52 f3 3d 2b 55 c3 be ec d6 9b 3e 38 a8 74 3e
       0.118808806 -0.38150916 0.3043741 0.23892295
0003b0 ba 2a a0 3e a0 86 0b 3c e8 4e 5d bd 10 ca c7 3c
       0.31282598 0.008515984 -0.05403033 0.024388343
0003c0 c4 1f 49 3e a0 b5 a3 3c 40 75 6e 3d 05 70 56 be
       0.19641024 0.019984066 0.058217287 -0.2094117
0003d0 d6 99 9c 3e e0 9f da 3d 8a a0 8c be e0 79 3a bd
       0.30586118 0.10675025 -0.27466232 -0.045526385
0003e0 80 4e 46 bc 88 c9 da 3d 0e ce a0 3e e0 d4 4d 3d
       -0.012103677 0.1068297 0.31407207 0.05025184
0003f0 78 01 c3 bd 18 22 38 3e 4e 1a c4 3e 9f a1 c3 be
       -0.095217645 0.17981756 0.3830132 -0.38209245

weight f4 [16]
000000 00 00 80 3f 00 00 80 3f 00 00 80 3f 00 00 80 3f
       1.0 1.0 1.0 1.0
000010 00 00 80 3f 00 00 80 3f 00 00 80 3f 00 00 80 3f
       1.0 1.0 1.0 1.0
000020 00 00 80 3f 00 00 80 3f 00 00 80 3f 00 00 80 3f
       1.0 1.0 1.0 1.0
000030 00 00 80 3f 00 00 80 3f 00 00 80 3f 00 00 80 3f
       1.0 1.0 1.0 1.0

bias f4 [16]
000000 00 00 00 00 00 00 00 00 00 00 00 00 00 00 00 00
       0.0 0.0 0.0 0.0
000010 00 00 00 00 00 00 00 00 00 00 00 00 00 00 00 00
       0.0 0.0 0.0 0.0
000020 00 00 00 00 00 00 00 00 00 00 00 00 00 00 00 00
       0.0 0.0 0.0 0.0
000030 00 00 00 00 00 00 00 00 00 00 00 00 00 00 00 00
       0.0 0.0 0.0 0.0

running_mean f4 [16]
000000 a6 a9 83 3d 7e c9 3d 3a 2a 7d 28 3d 9e f7 3b bc
       0.06428842 0.00072398025 0.04113499 -0.011472611
000010 b6 9c ba bc 72 3d 76 bd 8a 40 8c 3c 6a 86 5e bd
       -0.022779804 -0.060117193 0.017120618 -0.054327406
000020 c0 d1 10 3d 7a 34 70 bc 20 a0 11 3b c4 4a 9b bc
       0.035356283 -0.014660949 0.0022220686 -0.01895655
000030 f3 1e 0a 37 30 72 de bb e2 90 12 bd 3e f3 92 3d
       8.232647e-06 -0.0067885146 -0.035782702 0.07175301

running_var f4 [16]
000000 ee 22 75 3f 0a 1d 73 3f ec fa 6c 3f 6f 1d 70 3f
       0.95756423 0.94966185 0.92570376 0.9379491
000010 03 18 6f 3f 2a 7b 6e 3f ab 8e 6e 3f d6 65 73 3f
       0.93396014 0.93156683 0.93186444 0.95077264
000020 32 01 71 3f 77 0f 6f 3f e9 c9 70 3f 73 bc 72 3f
       0.9414245 0.9338297 0.9405809 0.948188
000030 29 d5 6f 3f 3f 52 6f 3f 2a 18 71 3f a0 42 70 3f
       0.9368463 0.9348487 0.94177496 0.9385166

weight f4 [48, 16, 1, 1]
000000 f2 9b 87 be b5 c7 8f 3e fb 8f 8a be e0 60 72 3d
       -0.26486164 0.28082052 -0.27062973 0.05917442
000010 56 ec 6d 3e aa f9 3a be 70 db d3 bd 48 8a cc bd
       0.23234686 -0.18259302 -0.10344589 -0.099873126
000020 4d 14 23 be 3e 31 73 3e 8c 35 c6 bd 66 75 77 3e
       -0.15925713 0.23749253 -0.09678182 0.24165878
000030 e8 2f 38 bd 6c d0 89 bd 4c a4 c8 3d ec d6 84 3d
       -0.044967562 -0.067292064 0.09796962 0.064863056
000040 d8 d2 1e 3d 53 52 25 be 00 c6 82 bc 00 64 c1 bc
       0.038775295 -0.16144685 -0.015963554 -0.023607254
000050 53 f9 7b be d6 bc 3c be 8d d7 98 3e b5 cd 20 be
       -0.24606828 -0.1843141 0.29851952 -0.15703471
000060 92 d8 2f be 28 78 8a be c0 07 c3 bc 8f bc 9b be
       -0.17172459 -0.27044797 -0.023807406 -0.30417296
000070 9e fb 4d 3e 72 c8 77 3e 4e 4e c4 bd cb 27 11 be
       0.20115516 0.24197558 -0.09585248 -0.14175336
000080 c0 20 32 3c 91 f6 8b be a8 3d fe 3d ca 43 25 3e
       0.010872066 -0.27336553 0.12414104 0.1613914
000090 1e 26 54 be 8f b6 8d 3e b4 6a 6d be c4 87 3b 3e
       -0.20717666 0.27678344 -0.23185235 0.18313509
0000a0 00 82 6f ba 5e 5f 75 be 50 90 2f bd 5a a0 3e be
       -0.0009136498 -0.23962161 -0.042862236 -0.18615857
0000b0 3d 8f 8c 3e 5c b6 f2 3d 40 80 00 3e 14 d7 60 be
       0.27453032 0.118511885 0.12548923 -0.21957046
0000c0 50 89 3c be 0c a0 83 3d 00 00 5a b6 16 7b 48 3e
       -0.18411756 0.06427011 -3.2484531e-06 0.19578204
0000d0 6c b0 71 bd c5 2f 7d be 0e 9d 40 3e 80 bd a1 3b
       -0.05900614 -0.24725254 0.18809912 0.0049359202
0000e0 09 9a 88 be 32 c5 6a 3e ca 2d 3c 3e 20 51 a6 3c
       -0.2668002 0.22926787 0.18376842 0.020302355
0000f0 38 67 5a 3d 0e d1 38 3e 97 12 10 be 64 f3 6b bd
       0.053321093 0.18048498 -0.14069591 -0.057605162
000100 74 72 0b 3e 20 48 f2 bc 18 ee 6b be 09 00 6d be
       0.13617879 -0.029575408 -0.23040044 -0.23144545
000110 c3 77 88 3e e4 c0 49 be 9c 25 c8 3d b2 19 39 3e
       0.2665387 -0.19702488 0.097727984 0.18076208
000120 64 de 49 be 00 6b 33 3c 32 7c 8e bd 7e 1c 4b 3e
       -0.19713742 0.010950804 -0.06957282 0.19835088
000130 b8 4d 2e bd d0 75 5d be 80 04 08 3b 72 66 7c 3e
       -0.042554587 -0.21626973 0.0020754635 0.24648455
000140 d0 26 d9 3c dc 23 d7 3d b4 39 3f be 10 ce ac bc
       0.026507765 0.105048865 -0.18674356 -0.021094352
000150 43 c0 88 be a2 07 89 be d7 69 36 be c0 c1 96 3b
       -0.26709184 -0.26763636 -0.17813812 0.0046007335
000160 38 68 64 bd 80 90 12 bb ce 06 c9 bd d8 bf 0a 3e
       -0.055763453 -0.002236396 -0.09815751 0.13549745
000170 37 d4 94 3e 24 84 78 bd 9c 48 32 3e 90 a8 e9 3d
       0.29068157 -0.060672894 0.17410511 0.11409104
000180 28 8b 03 bd aa a1 34 3e d0 8f 4c be 18 a3 87 be
       -0.03211513 0.17639795 -0.19976735 -0.26491618
000190 d8 7b 1f bd 48 a4 66 be 3e 5b 80 be 80 88 5b 3c
       -0.038936466 -0.22523606 -0.25069612 0.013399243
0001a0 b0 89 85 be 34 62 96 be b0 21 f7 3d b0 f6 bf 3c
       -0.2608161 -0.29371798 0.12066972 0.02343306
0001b0 5c cf 45 3e 8d 63 85 3e 78 76 91 be aa 54 5d 3e
       0.19317383 0.26052514 -0.28410697 0.21614328
0001c0 8c bd 22 be ac 8f 1d 3e d8 41 18 be 00 38 ef 3a
       -0.15892619 0.15386838 -0.14868867 0.0018250942
0001d0 73 69 85 3e cb 3b 89 3e 70 30 a9 3c ab 06 84 be
       0.26057014 0.2680343 0.02065298 -0.25786337
0001e0 20 73 5c bc 8c 0c 00 3e c8 ce aa 3d 12 83 38 be
       -0.013455182 0.12504786 0.08340222 -0.1801875
0001f0 0a fb 1a 3e b8 b9 07 3e 88 6c 91 bd 5a ac f7 bd
       0.15134826 0.1325444 -0.07100779 -0.1209342
000200 e6 47 59 3e 52 95 34 3e b0 e4 50 bd 0c 20 2e be
       0.21218833 0.17635086 -0.050999343 -0.17004412
000210 0e 6e 6f be 03 17 5d be 08 b1 ba bd 30 17 95 bc
       -0.23381826 -0.2159081 -0.09115797 -0.018199533
000220 30 3a 5e be 54 1d 1a be 96 43 28 3e 20 88 f5 bc
       -0.21701884 -0.1505025 0.16432032 -0.029972136
000230 16 ef 30 3e 88 f0 47 3d ca c1 59 be fc b0 c7 3d
       0.17278704 0.048813373 -0.21265331 0.09750554
000240 a8 9c da 3d 88 83 f8 3d 70 98 b8 3d 18 44 6f 3d
       0.10674411 0.121344626 0.0901345 0.05841455
000250 be 94 c9 bd 40 87 f1 3c 44 7b 40 be b4 13 4a be
       -0.098428234 0.029483438 -0.18797022 -0.19734079
000260 c0 31 e4 bd 56 31 8d be 6c d5 9e 3d a0 d8 ee 3c
       -0.111423016 -0.27576703 0.07755551 0.02915603
000270 d8 7c 0d 3e 3d 63 8d 3e 50 1d cb bd f2 94 54 3e
       0.13817155 0.27614775 -0.099177 0.20759943
000280 7d 60 76 be 3a 97 60 3e 42 01 45 3e 74 28 40 be
       -0.24060245 0.21932688 0.19238761 -0.18765432
000290 c8 07 21 3d 48 8f 17 bd 18 06 0b 3d f0 ed 87 3c
       0.03931406 -0.037001878 0.03394136 0.01659295
0002a0 78 58 84 be 44 c9 08 3e 4e ae 66 3e f3 f1 82 be
       -0.25848746 0.13358027 0.2252743 -0.25575218
0002b0 34 53 8a bd ea 39 70 be 22 22 44 3e 12 c3 62 3e
       -0.06754151 -0.23459592 0.19153646 0.22144726
0002c0 3f 78 80 3e 26 8c 70 be 28 52 3a 3d 10 4e 82 bc
       0.2509174 -0.23490962 0.045488507 -0.015906364
0002d0 60 83 db 3c fe bc 2e 3e b0 99 99 be 1c 7a 27 3e
       0.026796043 0.17064282 -0.30000067 0.16355175
0002e0 23 c1 97 be ca 23 0a 3e 8c 3f 99 3d 8c ea 96 3d
       -0.2963954 0.13490215 0.07482824 0.07368955
0002f0 1c 79 f4 3d 00 83 ed bc 42 d6 00 be 48 38 00 3e
       0.11937162 -0.02899313 -0.12581733 0.1252147
000300 68 9f 33 3d 4a ca 03 be 96 1f 54 3e 66 d7 95 be
       0.043853194 -0.12870136 0.20715174 -0.29265898
000310 a2 eb fc bd b4 84 d6 3d 7c 31 97 3d 60 97 a0 bd
       -0.12349631 0.1047453 0.07382485 -0.078413725
000320 5a 18 79 3e 0a 58 61 3e d6 14 60 3e 8c 69 73 be
       0.24325696 0.2200624 0.21882948 -0.23770732
000330 70 d1 d7 bc 02 b1 71 3e ac de 1c 3e ed a1 12 be
       -0.026344985 0.2360268 0.15319318 -0.14319582
000340 1a f7 8f bd 74 2b 82 bd 00 47 0a 3e c2 6f 89 be
       -0.07029553 -0.06355944 0.13503647 -0.26843077
000350 bd 62 82 be 9e 52 59 3e bc 98 8d 3d a6 a8 57 3e
       -0.25465956 0.21222922 0.069138974 0.21060428
000360 6c 0c 94 be 5c e5 fe 3d 8f 33 7d be 73 a8 59 be
       -0.28915727 0.124460906 -0.247267 -0.21255665
000370 e5 9d 55 be b8 28 13 3d b0 0e 65 3d b9 b5 93 3e
       -0.20861013 0.035927504 0.05592221 0.2884958
000380 6f 0c 91 3e f2 3a 65 3e 3c 96 44 3e 2a 81 45 be
       0.283298 0.22385767 0.19197935 -0.19287553
000390 c8 02 fc 3d 2a 18 6e 3e 80 e2 16 bd f8 46 57 bd
       0.12305218 0.23251405 -0.0368371 -0.052557915
0003a0 c0 db 28 3d 1c 92 41 3e 4c f3 72 bd 06 73 38 3e
       0.041225195 0.18903393 -0.059314057 0.18012628
0003b0 c0 36 16 bc 86 92 07 3e 49 72 46 be 62 3b e9 bd
       -0.009168327 0.13239488 -0.19379534 -0.113882795
0003c0 26 aa 4c be 50 af 14 bd 6a 73 76 be fc 7f 09 3e
       -0.19986781 -0.036300004 -0.24067464 0.13427728
0003d0 1c f6 be 3d 3a cc 78 be bc 41 92 bd 40 0d 1a 3c
       0.093242854 -0.24296656 -0.07141444 0.009402573
0003e0 8f df 91 3e 10 e1 d3 3c 88 ad 97 be 40 89 5e be
       0.28490874 0.025864154 -0.2962458 -0.21732044
0003f0 90 ff 1b 3d e4 43 86 be c0 b4 ab 3b e0 a7 23 3c
       0.03808552 -0.2622367 0.005240053 0.009988755

weight f4 [48]
000000 00 00 80 3f 00 00 80 3f 00 00 80 3f 00 00 80 3f
       1.0 1.0 1.0 1.0
000010 00 00 80 3f 00 00 80 3f 00 00 80 3f 00 00 80 3f
       1.0 1.0 1.0 1.0
000020 00 00 80 3f 00 00 80 3f 00 00 80 3f 00 00 80 3f
       1.0 1.0 1.0 1.0
000030 00 00 80 3f 00 00 80 3f 00 00 80 3f 00 00 80 3f
       1.0 1.0 1.0 1.0
000040 00 00 80 3f 00 00 80 3f 00 00 80 3f 00 00 80 3f
       1.0 1.0 1.0 1.0
000050 00 00 80 3f 00 00 80 3f 00 00 80 3f 00 00 80 3f
       1.0 1.0 1.0 1.0
000060 00 00 80 3f 00 00 80 3f 00 00 80 3f 00 00 80 3f
       1.0 1.0 1.0 1.0
000070 00 00 80 3f 00 00 80 3f 00 00 80 3f 00 00 80 3f
       1.0 1.0 1.0 1.0
000080 00 00 80 3f 00 00 80 3f 00 00 80 3f 00 00 80 3f
       1.0 1.0 1.0 1.0
000090 00 00 80 3f 00 00 80 3f 00 00 80 3f 00 00 80 3f
       1.0 1.0 1.0 1.0
0000a0 00 00 80 3f 00 00 80 3f 00 00 80 3f 00 00 80 3f
       1.0 1.0 1.0 1.0
0000b0 00 00 80 3f 00 00 80 3f 00 00 80 3f 00 00 80 3f
       1.0 1.0 1.0 1.0

bias f4 [48]
000000 00 00 00 00 00 00 00 00 00 00 00 00 00 00 00 00
       0.0 0.0 0.0 0.0
000010 00 00 00 00 00 00 00 00 00 00 00 00 00 00 00 00
       0.0 0.0 0.0 0.0
000020 00 00 00 00 00 00 00 00 00 00 00 00 00 00 00 00
       0.0 0.0 0.0 0.0
000030 00 00 00 00 00 00 00 00 00 00 00 00 00 00 00 00
       0.0 0.0 0.0 0.0
000040 00 00 00 00 00 00 00 00 00 00 00 00 00 00 00 00
       0.0 0.0 0.0 0.0
000050 00 00 00 00 00 00 00 00 00 00 00 00 00 00 00 00
       0.0 0.0 0.0 0.0
000060 00 00 00 00 00 00 00 00 00 00 00 00 00 00 00 00
       0.0 0.0 0.0 0.0
000070 00 00 00 00 00 00 00 00 00 00 00 00 00 00 00 00
       0.0 0.0 0.0 0.0
000080 00 00 00 00 00 00 00 00 00 00 00 00 00 00 00 00
       0.0 0.0 0.0 0.0
000090 00 00 00 00 00 00 00 00 00 00 00 00 00 00 00 00
       0.0 0.0 0.0 0.0
0000a0 00 00 00 00 00 00 00 00 00 00 00 00 00 00 00 00
       0.0 0.0 0.0 0.0
0000b0 00 00 00 00 00 00 00 00 00 00 00 00 00 00 00 00
       0.0 0.0 0.0 0.0

running_mean f4 [48]
000000 df bc 1a 30 77 4c f0 30 80 b6 06 31 d7 ea 98 30
       5.6293276e-10 1.7484031e-09 1.9603306e-09 1.1126201e-09
000010 6f 12 83 b1 83 53 3d b0 6f 12 03 b1 da 87 4f 31
       -3.8146974e-09 -6.8876477e-10 -1.9073487e-09 3.0199687e-09
000020 50 67 b2 b0 da 87 cf b0 da 87 4f b1 20 18 de b0
       -1.2980568e-09 -1.5099844e-09 -3.0199687e-09 -1.6159483e-09
000030 37 17 12 31 96 43 8b b1 77 4c 70 30 92 5a 8a 30
       2.1258992e-09 -4.053116e-09 8.7420154e-10 1.0066563e-09
000040 3f c3 ae 2e 6f 12 03 31 0f 74 da af b7 3f c8 30
       7.9472866e-11 1.9073487e-09 -3.9736434e-10 1.4570024e-09
000050 0f 74 5a b0 73 68 91 31 a3 fe 0d 31 d7 ea 18 30
       -7.9472867e-10 4.23193e-09 2.0662945e-09 5.5631005e-10
000060 b4 a2 11 b0 0f 74 5a 31 77 4c f0 af e8 8e 1c 30
       -5.298191e-10 3.1789147e-09 -4.3710077e-10 5.695555e-10
000070 f5 fd 54 b1 55 76 18 31 b4 a2 91 2f 98 94 77 b0
       -3.0994418e-09 2.2186175e-09 2.6490954e-10 -9.006924e-10
000080 bd 74 93 b1 98 94 f7 30 c9 e3 4b 30 7f 1e 72 31
       -4.2915347e-09 1.8013848e-09 7.417467e-10 3.523297e-09
000090 98 94 f7 b0 e3 59 51 b1 54 50 33 31 02 05 22 31
       -1.8013848e-09 -3.0464598e-09 2.609359e-09 2.357695e-09
0000a0 7f 1e 72 31 73 af 39 30 6f 12 03 b0 7f 6a 3c b1
       3.523297e-09 6.7551936e-10 -4.768372e-10 -2.7418137e-09
0000b0 e3 59 51 b1 fa 32 20 2f 0f 74 5a b0 32 2e 91 b0
       -3.0464598e-09 1.4570026e-10 -7.9472867e-10 -1.0563268e-09

running_var f4 [48]
000000 18 9e 75 3f 53 85 76 3f b2 10 75 3f ee 7f 70 3f
       0.95944357 0.96297187 0.957286 0.93945205
000010 dc 96 73 3f d2 6a 71 3f 69 1a 73 3f cc 66 6b 3f
       0.9515207 0.9430362 0.94962174 0.9195373
000020 1b 15 6e 3f d0 6c 6e 3f b9 35 70 3f 58 89 6f 3f
       0.93000954 0.93134785 0.93831974 0.93568945
000030 65 97 70 3f ca b7 72 3f 04 d7 6c 3f 14 e2 6f 3f
       0.9398101 0.9481169 0.9251559 0.9370434
000040 ff e5 73 3f 38 a8 74 3f b7 08 82 3f 6d 98 74 3f
       0.9527282 0.9556918 1.015891 0.95545083
000050 22 64 70 3f b3 49 72 3f 12 77 72 3f f8 a7 6d 3f
       0.9390279 0.94643706 0.94712937 0.92834425
000060 60 22 78 3f c9 d0 72 3f bf d8 86 3f ef 26 7f 3f
       0.9692745 0.9484983 1.0534896 0.9966878
000070 2e 51 73 3f 26 c4 71 3f 92 93 72 3f 0c ca 7c 3f
       0.95045745 0.94439924 0.94756424 0.987458
000080 fe e8 73 3f a2 50 77 3f fb 96 7b 3f d4 4e 7b 3f
       0.9527739 0.9660741 0.9827725 0.9816716
000090 e7 03 6e 3f a1 be 73 3f b4 aa 76 3f d4 81 75 3f
       0.92974705 0.9521275 0.9635422 0.95901227
0000a0 b4 58 77 3f 63 c1 6f 3f 8c ed 80 3f de e1 72 3f
       0.96619725 0.9365446 1.0072494 0.94875896
0000b0 08 b4 6e 3f 80 41 6c 3f 5b e9 73 3f 71 60 71 3f
       0.93243456 0.92287445 0.9527795 0.9428778

weight f4 [48, 1, 3, 3]
000000 68 eb eb 3c d8 fe 4a 3d 10 30 2b 3d ae 1a 5b bd
       0.028798774 0.049559444 0.041793883 -0.05349224
000010 50 72 ac bb c0 5d e8 3b a8 0d 8d 3d 94 02 d9 3d
       -0.0052626505 0.007091254 0.0688737 0.10596195
000020 67 13 d2 bd 34 78 8b 3d 68 be c6 3d a8 6a de 3d
       -0.10257607 0.06810036 0.09704286 0.10860187
000030 34 b9 ed 3d 2e ec be 3d 9a e4 c5 3d ea 42 22 bd
       0.1160759 0.093223915 0.09662743 -0.039614595
000040 b0 a6 9c 3c c8 14 c6 bd 70 59 09 bd 44 cd 10 3d
       0.019122452 -0.096719325 -0.03353256 0.035352007
000050 fa e1 98 bd 6f 98 e7 bd ac 4c 8a bd 28 d8 80 bd
       -0.074649766 -0.11308371 -0.06752905 -0.062912285
000060 86 6c 44 bd a0 f4 87 bc ae c1 b3 3d c0 af e9 bc
       -0.04795506 -0.016596138 0.08777176 -0.028526187
000070 14 4b 6e 3d 64 a4 80 bd c0 82 de 3c c6 da ca 3d
       0.05817707 -0.06281355 0.027161956 0.09905009
000080 30 ca 4e 3d 68 a6 ae 3d d0 a1 c7 bb 48 a5 5c bd
       0.05048579 0.08527833 -0.0060922876 -0.053868562
000090 ee 51 9f bd 44 51 b5 3d 52 f8 35 bd 20 6a 88 3d
       -0.07779299 0.08853391 -0.04442627 0.06660867
0000a0 88 ae d4 3c 00 82 8c bc fa 63 2c bd 1a 0f 5d bd
       0.02596213 -0.017151833 -0.042087533 -0.05396948
0000b0 ea cf 86 bd 0a 2b 5a bd c8 7e c8 bc d8 cc 43 3d
       -0.06582625 -0.0532637 -0.024474517 0.047802776
0000c0 82 91 ba 3d 64 50 ce bc 9e d8 ce 3d 90 da 48 3d
       0.09109785 -0.025184818 0.1009991 0.049036562
0000d0 70 f3 ac 3c 88 5d 34 bc 14 37 ab 3d 90 6d 8f bc
       0.021112174 -0.011008628 0.08360115 -0.017508298
0000e0 58 90 45 3d dd 58 8e bd 40 b0 6c bb d0 0a a1 3c
       0.04823336 -0.06950543 -0.0036115795 0.019658476
0000f0 26 78 ab 3d 7c 10 bd bc 58 ec 13 bc 06 26 bd bd
       0.08372526 -0.02307915 -0.009028517 -0.09235768
000100 01 34 6d bd 28 6b 67 bd 72 41 e3 bd e0 64 0b 3b
       -0.057910923 -0.056498677 -0.11096467 0.0021269843
000110 24 88 e3 3d 78 57 92 3c b6 0d 82 3d 44 52 d5 bd
       0.11109951 0.017863974 0.063502714 -0.104160815
000120 9a 45 bc 3d 70 4d a9 bd 82 40 a5 3d 79 41 e0 bd
       0.09192963 -0.08266723 0.080689445 -0.10949988
000130 78 1e b7 3d 57 5f 5f bd 94 83 be bd e4 dc a0 bd
       0.08941358 -0.054534283 -0.0930244 -0.078546315
000140 e0 68 03 bb 80 85 b4 3d 70 d1 f5 3c 60 34 64 bb
       -0.0020051524 0.088145256 0.030007094 -0.0034821257
000150 4a eb 9d bd 86 e6 e2 bd dc 56 4c 3d 1c 62 02 3d
       -0.077108935 -0.11079125 0.049887523 0.031831846
000160 94 c1 ac 3d 93 c5 86 bd 0b d8 a3 bd 60 01 75 3d
       0.084353596 -0.06580653 -0.08000191 0.059815764
000170 4e db e4 3d 48 83 e8 3d 60 d8 cf bc 8f 54 b4 bd
       0.111746415 0.11353165 -0.02537173 -0.08805191
000180 04 15 be bd 64 8c 48 bd 07 2a d0 bd 2e 82 42 bd
       -0.09281352 -0.048962012 -0.10164266 -0.04748743
000190 fb ac e0 bd ac c7 c6 3d c0 5d 77 3c ac 95 ca 3d
       -0.109704934 0.09706053 0.015098035 0.09891829
0001a0 0c b0 54 3d 20 4b 54 3d 66 68 45 bd d4 17 1b 3d
       0.051925704 0.051829457 -0.048195265 0.03786452
0001b0 70 85 30 3d c8 e9 9d 3c 9f 09 dd bd f9 4a d8 bd
       0.043096006 0.019276515 -0.10792851 -0.10561175
0001c0 e6 80 d1 bd e2 e8 8a 3d 70 6d a9 bc 9e 92 8c 3d
       -0.102296636 0.067827 -0.020682067 0.068639025
0001d0 34 63 50 bd 0e 86 0f bd 50 79 b1 3d 84 74 58 3d
       -0.050875857 -0.035039954 0.08665717 0.052845493
0001e0 58 5c 99 3d 08 7d 8b 3c 2a b3 41 bd 18 25 89 bd
       0.07488316 0.017027393 -0.047290005 -0.06696528
0001f0 a4 25 e7 bc 38 35 d6 3c a0 fc 01 3d 2a 53 d6 bd
       -0.02821619 0.026148424 0.031735063 -0.10465081
000200 32 db e1 3d fc 82 86 bd a6 dc 8e 3d a0 4b 64 3c
       0.11028136 -0.06567952 0.06975679 0.013934046
000210 44 7f a5 bd 24 33 df bd d4 1f 4b bd 7c 6f b0 bc
       -0.080809146 -0.10898426 -0.0495909 -0.021537535
000220 98 01 e6 3c 50 e5 70 3d 36 9a e5 3d 18 12 a8 3c
       0.028076932 0.05881244 0.11211054 0.02051644
000230 60 04 f3 bb 20 93 22 3d 31 58 8e bd b2 fb 9a 3d
       -0.007416293 0.03969109 -0.06950415 0.07567538
000240 c8 65 73 bc 00 dc 21 3c 2c 02 7f 3d 04 da 3b bd
       -0.0148558095 0.009879112 0.06225793 -0.045862213
000250 2f b1 d6 bd 5e dd 8c 3d 70 cb 9f bc 70 85 b3 bd
       -0.10483014 0.0687816 -0.019506186 -0.087656856
000260 c0 ff 3a 3c 9a 85 8e 3d a0 71 8c 3c 60 49 b4 bb
       0.011413515 0.06959076 0.017144024 -0.005501911
000270 a8 f2 da bc bf 4f e0 bd 25 ef be bd 38 28 7e 3d
       -0.026727036 -0.1095271 -0.09322957 0.062050074
000280 b8 7b 85 bd aa d9 d5 3d 48 80 4d bc 08 7d 93 bd
       -0.06517738 0.10441907 -0.012542792 -0.07201582
000290 90 8d 46 3d 5a 05 98 3d f0 ec e4 3c 62 19 b2 bd
       0.04847485 0.07422896 0.027945012 -0.08696248
0002a0 04 55 03 3d ee bc 16 bd f4 ab d2 3d e8 03 f1 bc
       0.0320635 -0.03680127 0.10286704 -0.029420808
0002b0 40 e7 8b 3c 09 91 e8 bd 00 c0 b0 bb 88 ee d6 3d
       0.017078042 -0.11355788 -0.005393982 0.10494715
0002c0 10 af d8 bc 0c da 9f 3d 44 f3 d0 bd 78 55 df 3c
       -0.026450664 0.07805261 -0.10202649 0.027262434
0002d0 1e f0 90 3d c8 67 9d 3c 5e 39 e1 bd 14 31 09 bd
       0.07077049 0.019214526 -0.1099727 -0.03349407
0002e0 b0 2b 19 3c 34 5a 11 3d e0 96 4e bd 70 e5 ca bd
       0.009348795 0.035486415 -0.050436854 -0.09907043
0002f0 50 33 96 3d 21 bc e9 bd 30 55 a6 3c be 2f a6 bd
       0.07334006 -0.11412836 0.020304292 -0.08114575
000300 9e d1 e7 3d 6f 05 96 bd 96 2a bd 3d 36 cb cc 3d
       0.11319278 -0.07325255 0.09236638 0.09999697
000310 00 7e c0 3b 14 77 41 bd 98 b1 b7 3c e2 80 c1 bd
       0.0058743954 -0.047232702 0.02242355 -0.094484106
000320 a0 c8 2e 3d 70 09 8a 3c 58 63 ad bd de 76 a7 bd
       0.0426718 0.016850203 -0.08466214 -0.08176969
000330 64 e5 93 3d 62 3c b0 3d b9 2e 9c bd 34 9e a5 3d
       0.07221487 0.08605267 -0.07626099 0.080868155
000340 2a 2f c0 3d 2c c1 9e bd fc 24 97 bc aa e7 c0 3d
       0.09383996 -0.07751688 -0.018450253 0.094191864
000350 cc 05 bf 3d b0 83 d3 bc a0 9e 50 3c 20 54 a8 3d
       0.093272775 -0.02581963 0.012733132 0.082191706
000360 6d 1e c3 bd 0a 29 b8 3d c0 7a 27 bb 9b a7 cb bd
       -0.09527288 0.089922026 -0.0025555342 -0.099440776
000370 a0 f0 57 bd 68 82 69 3d 12 73 96 bd ec 46 55 3d
       -0.052719712 0.05700913 -0.07346167 0.05206959
000380 52 85 c7 3d 69 6f d2 bd e8 5b 38 bc 44 db db bc
       0.09742226 -0.10275156 -0.011252381 -0.026837952
000390 60 77 51 3c 30 aa 5f 3d 92 bf a3 3d 58 ea 48 3d
       0.012784809 0.054605663 0.079955235 0.049051613
0003a0 16 3c 4c bd b0 7f 9c bc a1 24 d5 bd 36 4f e3 bd
       -0.04986199 -0.019103855 -0.10407377 -0.11099093
0003b0 f8 be a0 bc b6 b9 bd 3d a8 51 91 3d ca 71 99 3d
       -0.019622311 0.09263937 0.07095653 0.07492407
0003c0 e2 62 92 bd a0 5f 4d 3d 4c 35 c5 bc 84 eb 6a 3d
       -0.07147767 0.050140023 -0.024073265 0.05735351
0003d0 dc 61 b3 bd 70 61 ca 3c 17 4d cc bd e8 cd 0b 3d
       -0.087588996 0.024704665 -0.09975641 0.034131914
0003e0 f4 9a e5 3d d0 fe f2 bc 40 ee 23 bb 9c 34 f5 bc
       0.112111956 -0.02966252 -0.0025013834 -0.029932313
0003f0 60 37 1b 3c 58 f3 29 bd 60 5d 7b 3d a6 06 a9 3d
       0.009473652 -0.041491836 0.061368346 0.08253221

weight f4 [48]
000000 00 00 80 3f 00 00 80 3f 00 00 80 3f 00 00 80 3f
       1.0 1.0 1.0 1.0
000010 00 00 80 3f 00 00 80 3f 00 00 80 3f 00 00 80 3f
       1.0 1.0 1.0 1.0
000020 00 00 80 3f 00 00 80 3f 00 00 80 3f 00 00 80 3f
       1.0 1.0 1.0 1.0
000030 00 00 80 3f 00 00 80 3f 00 00 80 3f 00 00 80 3f
       1.0 1.0 1.0 1.0
000040 00 00 80 3f 00 00 80 3f 00 00 80 3f 00 00 80 3f
       1.0 1.0 1.0 1.0
000050 00 00 80 3f 00 00 80 3f 00 00 80 3f 00 00 80 3f
       1.0 1.0 1.0 1.0
000060 00 00 80 3f 00 00 80 3f 00 00 80 3f 00 00 80 3f
       1.0 1.0 1.0 1.0
000070 00 00 80 3f 00 00 80 3f 00 00 80 3f 00 00 80 3f
       1.0 1.0 1.0 1.0
000080 00 00 80 3f 00 00 80 3f 00 00 80 3f 00 00 80 3f
       1.0 1.0 1.0 1.0
000090 00 00 80 3f 00 00 80 3f 00 00 80 3f 00 00 80 3f
       1.0 1.0 1.0 1.0
0000a0 00 00 80 3f 00 00 80 3f 00 00 80 3f 00 00 80 3f
       1.0 1.0 1.0 1.0
0000b0 00 00 80 3f 00 00 80 3f 00 00 80 3f 00 00 80 3f
       1.0 1.0 1.0 1.0

bias f4 [48]
000000 00 00 00 00 00 00 00 00 00 00 00 00 00 00 00 00
       0.0 0.0 0.0 0.0
000010 00 00 00 00 00 00 00 00 00 00 00 00 00 00 00 00
       0.0 0.0 0.0 0.0
000020 00 00 00 00 00 00 00 00 00 00 00 00 00 00 00 00
       0.0 0.0 0.0 0.0
000030 00 00 00 00 00 00 00 00 00 00 00 00 00 00 00 00
       0.0 0.0 0.0 0.0
000040 00 00 00 00 00 00 00 00 00 00 00 00 00 00 00 00
       0.0 0.0 0.0 0.0
000050 00 00 00 00 00 00 00 00 00 00 00 00 00 00 00 00
       0.0 0.0 0.0 0.0
000060 00 00 00 00 00 00 00 00 00 00 00 00 00 00 00 00
       0.0 0.0 0.0 0.0
000070 00 00 00 00 00 00 00 00 00 00 00 00 00 00 00 00
       0.0 0.0 0.0 0.0
000080 00 00 00 00 00 00 00 00 00 00 00 00 00 00 00 00
       0.0 0.0 0.0 0.0
000090 00 00 00 00 00 00 00 00 00 00 00 00 00 00 00 00
       0.0 0.0 0.0 0.0
0000a0 00 00 00 00 00 00 00 00 00 00 00 00 00 00 00 00
       0.0 0.0 0.0 0.0
0000b0 00 00 00 00 00 00 00 00 00 00 00 00 00 00 00 00
       0.0 0.0 0.0 0.0

running_mean f4 [48]
000000 14 2a b2 3b d3 f8 90 3c 09 b6 3a bc cf 01 d5 3b
       0.005437145 0.017696774 -0.01139594 0.0065004597
000010 5f 92 91 bb 55 8c f1 3b d9 f4 8a 3b f5 48 10 bc
       -0.0044424976 0.007371465 0.004240614 -0.008806457
000020 2d ce c8 bb db 6c 82 3a 0f 82 bb bb 25 4b bb 3b
       -0.0061280937 0.0009950654 -0.0057222913 0.005715745
000030 6f 40 ec bb 05 ca 4e 3b 4b 99 e7 bb aa 12 13 3c
       -0.0072098295 0.0031553518 -0.0070678345 0.008976618
000040 02 d5 98 bb 01 83 00 bb c7 ce 3f 3b 0f 7d fd ba
       -0.0046640644 -0.0019609334 0.0029267536 -0.0019339639
000050 4b 4b 57 bb 48 c4 23 3a e0 38 78 bb 0b d5 57 3c
       -0.0032851275 0.0006247205 -0.0037875697 0.013173352
000060 3a d4 86 ba 12 ad f5 b9 ac fc c5 ba 9d 67 59 ba
       -0.0010286637 -0.0004685899 -0.0015105209 -0.00082933326
000070 1b aa 1a ba 08 51 2c bb 92 7a 59 3c b5 4e 76 bb
       -0.00058999815 -0.0026293416 0.013273852 -0.0037583534
000080 a2 2d 55 3a 3b d5 3b bb a2 d4 e1 3b 0b c7 eb bb
       0.0008132105 -0.002866103 0.006891803 -0.0071953586
000090 67 cf 09 bc a1 70 10 bb 51 0e 9a bc 69 42 0a bc
       -0.008411265 -0.0022039788 -0.018805655 -0.008438685
0000a0 80 6a f4 3a 88 70 3b 3b 9e e4 01 3c 6a 36 0e 3c
       0.0018647462 0.002860101 0.007928042 0.0086799655
0000b0 b8 10 89 bc 30 ca f3 3b bd ab 60 3b 93 53 81 3b
       -0.016731605 0.007439874 0.0034282051 0.0039467304

running_var f4 [48]
000000 ea a9 66 3f cd 08 67 3f 55 c6 66 3f 2b a1 66 3f
       0.9010302 0.90247804 0.9014638 0.9008967
000010 b8 a2 66 3f 7e a7 66 3f 1d 9b 66 3f a5 da 66 3f
       0.9009204 0.9009932 0.90080434 0.90177375
000020 af 31 67 3f 9e ea 66 3f 67 0e 67 3f 22 bc 66 3f
       0.90310186 0.9020175 0.9025635 0.9013082
000030 af e2 66 3f f0 a1 66 3f 24 f1 66 3f 1f a6 66 3f
       0.9018964 0.90090847 0.902117 0.9009723
000040 a8 bb 66 3f 35 b5 66 3f 9e b5 66 3f d8 d0 66 3f
       0.9013009 0.9012025 0.90120876 0.9016242
000050 61 c1 66 3f c4 e5 66 3f 7e e5 66 3f ad e7 66 3f
       0.9013882 0.90194345 0.9019393 0.9019726
000060 af c1 66 3f 69 a5 66 3f f4 e9 66 3f fe b9 66 3f
       0.9013929 0.90096146 0.90200734 0.9012755
000070 25 ce 66 3f 0b b5 66 3f e8 b2 66 3f 6d be 66 3f
       0.901583 0.9012 0.9011674 0.90134317
000080 94 08 67 3f 72 a0 66 3f 9d 0e 67 3f bb c5 66 3f
       0.90247464 0.9008857 0.90256673 0.9014546
000090 1e f1 66 3f 25 96 66 3f ae d6 66 3f 49 ab 66 3f
       0.90211666 0.9007285 0.90171325 0.9010511
0000a0 aa 8e 66 3f dc da 66 3f b5 ec 66 3f de c6 66 3f
       0.9006144 0.901777 0.90204936 0.901472
0000b0 d6 d7 66 3f 7a 9e 66 3f 22 c2 66 3f 83 c5 66 3f
       0.9017309 0.90085566 0.90139973 0.9014513
