trained_model/BiSegNet(ReagentV1)_final.pt (torch, 705732 bytes, 141 tensors)

weight f4 [16, 1, 3, 3]
00000000: 01e3 05bd 27ac 0cbe 9546 6b3d d355 29bd
00000010: 76f2 0a3e 4590 493e 23c0 193e 2603 df3d
00000020: 0cf7 c8bd 5b3e 94bd d839 c63d a961 56bd
00000030: 2ab6 03be 79fd adbd c6f5 053e 991e 29be
00000040: be3a 073e 1389 b4bd c531 493e 4750 d4bd
00000050: 3b34 b73c 8e1b a23d 54d0 e83d c2a2 acbc
00000060: 6fde e93d c7d6 12bd ecdc 873c f098 bdbd
00000070: ac11 3ebe 3ab2 16bd 99eb bcbc 6348 a4bd
00000080: ae57 2f3e 585d cabd 3a13 c03d ac0b 233c
00000090: faff 0e3c 9a5c 283c 65fe 33b9 8b6d 243e
000000a0: b30d 32be 0e3b 2abe ab21 363d 3a88 b9bd
000000b0: 4ee2 55bd 6799 c63d 20af c03d 07b4 253e
000000c0: 5907 013e c748 fb3d 1420 15be f8f3 4c3e
000000d0: f1ad 323e 33f5 acbd d5ff 9d3d fde2 ad3d
000000e0: 1aac f8bc e42d 1b3e 5219 dfbd af88 493c
000000f0: 1907 04bd 2d92 97bc b570 e43d c447 483e
00000100: 1fdc 68bd e522 a23d ceec 293e d43b 1ebe
00000110: 310a bbbd 0e06 113e ad51 0e3e 0179 013e
00000120: 7606 34be 4b38 b6bd 3811 12be 9555 45be
00000130: 9e6c 2d3e 0616 2d3e e20a 263d 22a0 dfbd
00000140: c79b e1bd 23ff 393e 9ce4 123d d6ff c63c
00000150: ec03 0cbe 08df a33d 9a6d 193e a8fd 0abe
00000160: 98bb 21be a1a2 08be dc29 0dbd 5116 85bd
00000170: a0ca 04bc 6c0f 64bd ac84 2d3d 8531 9ebd
00000180: 95a6 4cbe 29c3 ed3d 6d90 52bd 11f6 9fbd
00000190: 764b fbbd d6c8 953d b225 2bbe aad5 093e
000001a0: f676 2b3e f345 883a cdef ae3d 761f e4bc
000001b0: bb73 0bbd d9ef 44be 8f86 08bd bcb8 94bd
000001c0: 858b c33d 6afb 54be 538c 12be d1f4 26bd
000001d0: e3e2 9fbd 7cfc 173e b91f 1d3d 2049 74bb
000001e0: 0283 e83d 6d30 15bc 771c 863b 25ca a23d
000001f0: 67e1 933d a32c 0e3e e0f9 ecbd b63d 3c3e
00000200: 0127 de3d d00c 0abe 37d3 ac3d 4af6 de3d
00000210: 8e62 3f3d 78b6 223d 677c e03c c0ab 2d3d
00000220: 4b4d ebbd fe90 e5bc a623 d43c 9cd6 84bd
00000230: 384d 14be d453 173e 73d8 b03d b083 50be
-0.03268719 -0.13737546 0.05744036 -0.041341614 0.13569054 0.1968394 0.150147 0.108892724
-0.098127455 -0.07238456 0.096790016 -0.05233923 -0.12862459 -0.08495612 0.13082036 -0.16515578
0.13206002 -0.08815207 0.19647892 -0.10366874 0.022363773 0.07915412 0.113678604 -0.021073703
0.11419379 -0.03584936 0.016584836 -0.09257686 -0.18561429 -0.036791064 -0.02306156 -0.08021619
0.17123291 -0.09881085 0.09378667 0.009951513 0.008728022 0.010275984 -0.0001716554 0.16057412
-0.17388038 -0.1662409 0.044465702 -0.09059186 -0.052217774 0.09697228 0.094084024 0.16181956
0.12600459 0.122697406 -0.14563018 0.20014942 0.17449166 -0.084452055 0.07714812 0.0849056
-0.030355502 0.15154225 -0.10893501 0.012300654 -0.03223333 -0.01850232 0.1115431 0.19558626
-0.05685055 0.07916812 0.1659424 -0.1545251 -0.09132803 0.14162466 0.13898344 0.12643816
-0.1758059 -0.08897456 -0.14264381 -0.19270928 0.16935965 0.16902933 0.040537722 -0.10919215
-0.1101604 0.18163733 0.03586255 0.024291914 -0.13673371 0.08001524 0.14983216 -0.13573325
-0.15794218 -0.13343288 -0.03446375 -0.06498397 -0.00810495 -0.05567877 0.042362854 -0.07724289
-0.19985421 0.116094895 -0.051407266 -0.07810605 -0.122702524 0.07313697 -0.16713598 0.13460413
0.16744599 0.0010396823 0.08541832 -0.027847033 -0.034045916 -0.1923212 -0.03333145 -0.07261798
0.095480956 -0.20799032 -0.14311342 -0.04076082 -0.07806947 0.14842409 0.03836033 -0.0037275031
0.11353113 -0.009105784 0.0040927487 0.07948712 0.072207265 0.13884215 -0.115710974 0.18382916
0.10847283 -0.1348145 0.084387235 0.1088682 0.04672485 0.039724797 0.02740307 0.04240012
-0.11489352 -0.02802324 0.025895905 -0.06486246 -0.14482582 0.14778072 0.086350344 -0.20362735

weight f4 [16]
00000000: 3451 813f c1e1 803f 6b2d 813f 5212 813f
00000010: 8d67 7f3f b695 803f 3ba3 7e3f 4113 803f
00000020: ad0a 7c3f a627 7e3f 8c48 7d3f 835c 803f
00000030: a018 823f 22f8 803f 099c 823f ee84 7d3f
1.0102906 1.0068895 1.0091985 1.0083716 0.9976738 1.0045688 0.9946782 1.0005876
0.9845379 0.9927925 0.9893882 1.0028232 1.0163765 1.0075724 1.0203868 0.9903096

bias f4 [16]
00000000: 76b2 92bb ce42 b5bb dddf a13c a0ea 163c
00000010: 7c40 0ebd 17a3 22bc 3d84 d2bb b2e7 283c
00000020: 9efd 3fbb c6cc e83b 87e9 f9bc 9d8d 333d
00000030: 74d1 9dbb a04a 1c3b 0eb7 993b 0662 7c3a
-0.0044768406 -0.0055316454 0.019760067 0.009211212 -0.034729466 -0.009926579 -0.0064244554 0.010309147
-0.0029295455 0.007104489 -0.030506862 0.043836225 -0.0048162285 0.002384819 0.0046910113 0.0009627644

running_mean f4 [16]
00000000: c843 2442 1319 dbc1 b5c1 3542 593a e8c1
00000010: bd8b ffc1 4f81 b342 6c09 ee41 4f97 8242
00000020: a71d 53c2 7cf6 35c1 81d9 1ec2 1605 0241
00000030: 7cb7 a9c2 1a1e 8c42 aa60 2942 dcd3 f1c1
41.066193 -27.387243 45.439167 -29.02849 -31.943232 89.752556 29.7546 65.295525
-52.778957 -11.372677 -39.712406 8.126242 -84.85837 70.05879 42.3444 -30.228447

running_var f4 [16]
00000000: 36c6 3544 8315 b743 e02f 6744 b830 be43
00000010: 9840 f543 e87c 5945 dd1a c343 027c ec44
00000020: 85d0 9944 8aff 7d42 0f82 2e44 53d0 8f42
00000030: b089 4245 f3cf 0445 fc67 5044 cec8 e443
727.09705 366.16806 924.74805 380.3806 490.50464 3479.8066 390.20987 1891.8752
1230.5162 63.49955 698.03217 71.90688 3112.6055 2124.9968 833.62476 457.5688

weight f4 [16, 16, 1, 1]
00000000: e43d afbe dbbc 0abe 22ad 213d 74a5 c93d
00000010: eda3 e13d d5bf 79be c9de 8dbd 759a 163e
00000020: 0c31 afbe 52e2 263e 6e0f 0d3e a22d 54be
00000030: cca7 903e 458a 683e f33c 26be 9512 253d
00000040: 5189 c1be 7c40 de3c 4820 31be f2be 623e
00000050: 991f c43e 79c9 35bd 3e94 be3e 606e d5be
00000060: 84fa 3bbe 6477 083b 6d73 ce3e f4c5 a53e
00000070: b83e 893e c39f 13be 1aa5 bc3e 0130 52bd
00000080: b952 8dbe e949 f63d 659d 57be 435c bc3d
00000090: 2d30 933d 0da7 d5bc 185c ae3e 9bda 593e
000000a0: 61c4 26be cb68 a1be 617e b5be 55ba cb3d
000000b0: f64f eabb bfdc 8d3e fd47 80be 066f 85be
000000c0: 4e21 02bd a06d 903e 80b1 cabd d8b4 303d
000000d0: c104 34be 0e0d b4bc 030a 9bbe bdd2 2cbe
000000e0: 1aaf 80bc 0a0c b53e d8ee aebe 39c0 b6be
000000f0: 7eca 753e 6350 a4be d977 8abe 9fe0 c23e
00000100: 7b20 403e 1e05 d03e 6350 c1be caff 37be
00000110: 777d 8bbe 13f6 9bbd 6c19 69be 394d e1bd
00000120: 8f91 71be 412f 8f3e b2de 06be e324 e83e
00000130: 783d 4abe 187b f6bd e3af af3e 86dc 4f3e
00000140: dacd 2bbe f469 813e 3ce0 ae3d 1737 773e
00000150: aa93 c1be 85ba ac3e 4101 5d3e 938b b63e
00000160: c01c 8c3e 8141 77be 9f93 413e a9d5 b33d
00000170: b129 79be d226 303e f71b 1fbe 5bbb 16bc
00000180: 838a 093e 17da c7be d0f3 c9bc 10d4 5cbe
00000190: ab55 71be 1dbf 7dbe e270 87bd 11a4 a03d
000001a0: cf4a 52be 6d87 7c3c 0244 933e 3bf0 81bd
000001b0: 9726 e43c ecd9 e2bc 6806 143d c851 a1be
000001c0: c4e4 a73e f405 d7bd 5e80 9f3e 9e9d b1bd
000001d0: e7ea 9f3e 28c9 dd3e 72c6 d9bd 3e3e febd
000001e0: 4e85 d23c 4274 213e c6bc 51bd fd1d 3cbe
000001f0: 5e8c c3be 9e2e 413e cd9d 523e dc8d 763e
00000200: ce3a b0bc bcae cfbd e155 78be cea5 9b3e
00000210: 0fb5 8f3d e262 66be 63e3 26be f077 e0bd
00000220: f22e 603e c871 be3e 9137 da3e aced 09be
00000230: 541e 943e adcf 9dbe afc5 83be 6648 813e
00000240: 1737 ba3d a74e edbd 9935 70bd e501 e9bd
00000250: 11cf a6be 06ca 9dbd eb59 033e c98b 31bd
00000260: 4e46 4ebe dda3 bd3e 76f2 48be 8487 8d3e
00000270: 6ef0 20bd 1b5e 833d d25e 74be 9a11 6dbe
00000280: f52c 3c3e 9b47 cdbe 4988 3bbe 6941 2b3d
00000290: 1054 873e 43e8 c0be 8f0e d53e 4667 79bd
000002a0: a576 1c3d e456 a33e ae8e 4a3e 087e c0be
000002b0: adbc 2bbd 71ec 61be 1870 b6bd 54ef 9d3e
000002c0: bace 59be 58b2 57be b609 bd3d 5e86 903e
000002d0: a558 923c da11 80be c858 6bbe bfaf 9bbe
000002e0: 51f4 8e3e 69c4 c93e 4a05 f4bd a476 40be
000002f0: 95f0 953d b80a 99bd cf8e 53be 0554 5ebe
00000300: 736d cdbe ee06 b93e 7d89 6dbe 9f3d 1b3d
00000310: 9d67 083e b74a 9e3e 9511 1cbe 4470 163d
00000320: 7019 d6be 60e5 393e 0876 813d 226b dabc
00000330: d51d 0cbe 1ba8 cb3d e811 8c3e bd29 7dbe
00000340: 425b be3e 8e88 65be a2a0 02bd c88d 443e
00000350: 1aa6 c6be 78ed f8bc a80c bf3d 4d57 8fbe
00000360: 0e5e a2be 6ce5 223e 688b b9be 3d75 f3bc
00000370: 4575 c4ba d1f6 5a3e def8 433e 7946 afbe
00000380: 87c8 183e c612 8cbe b4a8 563d 2e6d 9f3e
00000390: 38f6 ccbe 7def a23e 4090 31be 4f3e 7f3e
000003a0: eb7a c9be 8f5b d7be 77c1 e8bd 8169 183e
000003b0: 3507 9bbc f319 3b3e 746b cb3e 5b36 383e
000003c0: 97ad 76bc 5d93 2b3e d7c5 333e 9564 ca3e
000003d0: 11c4 4d3e 9970 dcbe bf63 b4bd 1bef ad3e
000003e0: 409e d0be e966 9cbe 0eca 0a3e 8217 3d3e
000003f0: 7740 813e 1a83 3d3e c97c 063d 82f5 103c
-0.34226906 -0.13548605 0.039471753 0.09846011 0.110175945 -0.24389584 -0.069272585 0.14707358
-0.34217107 0.16297272 0.13775417 -0.20720533 0.2825302 0.22708996 -0.16234188 0.040300924
-0.37800077 0.027130358 -0.1729747 0.22143152 0.38305357 -0.044381592 0.37222475 -0.41685772
-0.18357283 0.0020823115 0.40322438 0.3237759 0.26805663 -0.14416413 0.36844712 -0.05131531
-0.27602175 0.12025816 -0.21056135 0.09197285 0.07186923 -0.026080633 0.34054637 0.21274798
-0.1628585 -0.31525263 -0.35447982 0.099476494 -0.0071506454 0.27707478 -0.25054923 -0.26061267
-0.031770043 0.28208637 -0.09897137 0.043141216 -0.17579938 -0.021978881 -0.30281076 -0.16877265
-0.015708495 0.35360748 -0.34166598 -0.3569353 0.24003026 -0.3209258 -0.27044562 0.38061997
0.1876239 0.40628904 -0.37756643 -0.1796867 -0.2724416 -0.07615294 -0.22763604 -0.11001057
-0.23590682 0.2796574 -0.13170889 0.45340642 -0.19750011 -0.12035197 0.34313878 0.20298967
-0.16777745 0.25276148 0.08538863 0.24142109 -0.3780797 0.33736053 0.2158251 0.35653362
0.27365685 -0.24146082 0.18903969 0.08780987 -0.2433231 0.17202309 -0.15538011 -0.009199942
0.13431744 -0.39033577 -0.024652392 -0.2156527 -0.23567836 -0.24779935 -0.066133276 0.07843793
-0.2053635 0.015413147 0.28762823 -0.063446485 0.027850432 -0.027691804 0.036138922 -0.31507707
0.32791722 -0.10499182 0.31152624 -0.08672641 0.31233904 0.43317533 -0.106335536 -0.124142155
0.02569833 0.15767005 -0.05120542 -0.18370815 -0.3819303 0.1886544 0.20568009 0.24077553
-0.021512415 -0.1014075 -0.2425151 0.30399936 0.07016956 -0.22498658 -0.16297679 -0.10960376
0.21892908 0.37196183 0.4262052 -0.13469571 0.2892939 -0.30822507 -0.25736758 0.25250548
0.09092539 -0.11587267 -0.058644865 -0.113773145 -0.32579854 -0.077045485 0.1282727 -0.0433462
-0.20144007 0.3703908 -0.19623742 0.27642453 -0.03929179 0.064144336 -0.23864296 -0.23151246
0.18376525 -0.40093693 -0.18313707 0.041810427 0.26431322 -0.37677202 0.4161267 -0.060889505
0.038199086 0.3190223 0.1978099 -0.37596154 -0.041927982 -0.22062851 -0.08908099 0.30846655
-0.21270266 -0.21064126 0.09230368 0.28227514 0.017864535 -0.2501362 -0.22983086 -0.3040752
0.27920774 0.39407662 -0.11915071 -0.18795258 0.07321278 -0.074727476 -0.20659946 -0.21711738
-0.40122566 0.361381 -0.23196979 0.037900563 0.13320775 0.30916378 -0.15241082 0.03672816
-0.41816282 0.18153906 0.06321341 -0.026662413 -0.13683255 0.09944173 0.2735741 -0.24722953
0.37179 -0.22415373 -0.031891473 0.1919471 -0.387986 -0.030386671 0.09328586 -0.27996293
-0.31712383 0.1590783 -0.3623917 -0.02971899 -0.0014988562 0.21383215 0.19137904 -0.34233454
0.14920245 -0.27358073 0.05240698 0.31137985 -0.400316 0.3182334 -0.17340183 0.24926113
-0.3935159 -0.4206204 -0.113650255 0.14883997 -0.018924335 0.18271618 0.39730418 0.17989485
-0.0150560355 0.16755433 0.17555939 0.39529863 0.20094325 -0.43054655 -0.088080876 0.33971485
-0.40745735 -0.30547264 0.1355364 0.18465999 0.25244495 0.18507043 0.03283385 0.008847596

weight f4 [16]
00000000: 3131 833f ee98 813f 5fcb 803f 142a 833f
00000010: 4f1d 823f 598f 823f 5c0f 793f 22c1 783f
00000020: 8c76 843f 36c6 793f e019 813f 0b57 7a3f
00000030: 2547 813f 9161 813f a486 7a3f 3aa6 8d3f
1.0249387 1.0124795 1.0062064 1.0247216 1.0165194 1.0199996 0.9728906 0.971697
1.0348678 0.9756807 1.0086021 0.9778907 1.0099837 1.01079 0.97861695 1.1066353

bias f4 [16]
00000000: 5a33 6abb dc79 43bc 9811 5d3c 7835 44ba
00000010: 80d3 0abd d7d0 d73b 4add 0b3d 7e58 da3c
00000020: 2b8f 3abb 77be f03c 8e51 29bc ed1b e13c
00000030: 9d26 dcbb 5f6c 203c fa3d e23c 76e4 6b3b
-0.0035736174 -0.011930909 0.013492964 -0.0007484774 -0.03389311 0.006586175 0.034146585 0.026653524
-0.0028466682 0.029387696 -0.010334386 0.027479136 -0.0067184702 0.009791463 0.027617443 0.0035994328

running_mean f4 [16]
00000000: 89d6 d6bd cfbe d83e 7102 9fbe a584 b8be
00000010: 8b82 97bd bdb7 f93e ca9c 10bf 9b70 113f
00000020: 3746 303e ae36 b8be 281f c93c b40c cebe
00000030: 17fc 74bd 5f31 b3be c5f1 e03d af18 c93e
-0.10490138 0.42333075 -0.3105655 -0.360387 -0.07397946 0.48772994 -0.5648924 0.5681245
0.17214285 -0.35979217 0.02455099 -0.40244067 -0.059810724 -0.34998605 0.10983614 0.39276645

running_var f4 [16]
00000000: 6a0d 633e 06ed 1a3f 5721 873e 68f5 8a3f
00000010: 515d 8d3e 12e0 103e 10e4 8c3e c1f6 633e
00000020: 5738 2740 58c9 8c3e 0cfc 023f 2c99 343f
00000030: c2c9 013d 0ec0 563f 6f4e a63f 52b6 2b3d
0.22173086 0.6051792 0.26392624 1.0856142 0.27610257 0.14147976 0.27517748 0.22262098
2.6128137 0.27497363 0.51165843 0.7054622 0.031686552 0.838868 1.2992686 0.04192192

weight f4 [16, 1, 3, 3]
00000000: 00bd 51be 7a8c 1b3e d163 353e f02a 2c3e
00000010: 3952 17be a996 013e dcda 25be 203d 333e
00000020: 8980 8bbd 6b1a e3bd 38fc 913d 649c 513c
00000030: 937c 0c3c e028 ce3d b261 123d f199 f33d
00000040: 6ed2 45be 0bfe 303e 4e41 18be 64f4 17bb
00000050: 832d 083e 1e9b 903d 03fb e8bd 8d64 0dbe
00000060: 9020 acbd 0387 3f3e ac09 eabd 49b1 03be
00000070: d58b 183e 8632 3b3e 33d6 933d 25cf 1d3e
00000080: 7010 933d 308a 643e 8e21 03be 763b 073e
00000090: 1ec6 0b3e b369 2a3d 9c45 253c 4ef3 1fbe
000000a0: d241 083e 9a97 8c3c 62c7 ec3d 0994 7abd
000000b0: 3f47 7fbc c306 493d 6818 be3d 5173 133c
000000c0: e55b 723d 7268 8dbd 985c 13bd d405 563e
000000d0: eee2 993c 91c0 783b f1ce b63d 3367 3a3e
000000e0: 7a07 ea3d d123 2cbe 8941 30be 7920 84bd
000000f0: 1f88 d13d cb06 ee3d b06b 08be 7343 c6bd
00000100: db3b 91bc 66cf af3d 4ce8 f93d c67b edbd
00000110: a2c2 3c3e d8d0 4dbe 244e 3e3d 2a6d 163e
00000120: b7e7 c23c ceb2 293e f9e2 d1bd c7f2 afbd
00000130: 20b0 16be 5776 e33c f7f6 4abe 5672 96bd
00000140: 112b 20bd f0f9 203e d1db bdbd d99d 8c3d
00000150: 7c8a 1fbd 9d58 77bd f60f e93c 1467 563e
00000160: 9e1f 243e b7dd 11be 25a8 143e ded5 383e
00000170: a906 5dbd d312 643d 77d3 6c3d 42a5 213e
00000180: a79e 9d3d dd24 0c3e 8e2f 75be d97b 183e
00000190: a229 47be 462d 44be 00bd 25be 2413 17bd
000001a0: e34a 07be e4c7 06be eebf 0b3e 90b7 cebd
000001b0: 94c3 2bbe 8d83 803d 6660 54bd e07e 4cbc
000001c0: 7573 193e fb5c e7bd 5d41 833d 7313 213d
000001d0: 0361 263e 7ef3 35be d0f1 273e 52ba e73d
000001e0: c54f 12bc 056c 733c a88b be3d 3715 c0bd
000001f0: 7024 09be 457b e53d 51fb d13d b49c 0c3d
00000200: 4f24 e6bc d83a 0f3e 34bd ff3c b92f 15be
00000210: 3825 bf3d a9d2 503d 3e30 04bc 1847 fb3d
00000220: 9c12 e83d 45a2 e23d 3f82 cfbb 3235 f13d
00000230: 6ff5 d4bd 8daf 93bd 07c3 8d3d 14f5 c0bd
-0.20482254 0.15190306 0.17713858 0.16813254 -0.14777459 0.12655129 -0.1619677 0.17503786
-0.068116255 -0.11089023 0.07128185 0.012793634 0.008574623 0.1006639 0.0357377 0.11894596
-0.19318554 0.1728441 -0.14868662 -0.002318644 0.13298611 0.07060836 -0.11376002 -0.13807888
-0.08404648 0.18703847 -0.11427626 -0.12860598 0.14897092 0.18280992 0.0721859 0.1541105
0.071808696 0.2231834 -0.12805769 0.13206276 0.13649794 0.04160471 0.010087397 -0.15620157
0.13306358 0.017162133 0.11561467 -0.061176334 -0.015580951 0.049078714 0.09281999 0.008999662
0.05916967 -0.06904687 -0.035976976 0.20900661 0.018784966 0.0037956575 0.0892619 0.1820343
0.11427207 -0.16810538 -0.172125 -0.06451506 0.10231041 0.116223894 -0.1332233 -0.09680834
-0.017728737 0.0858448 0.1220251 -0.115958735 0.18433622 -0.20099199 0.04646124 0.1469008
0.02379213 0.16572115 -0.1024837 -0.08591228 -0.14715624 0.02776639 -0.19820772 -0.073460266
-0.03910357 0.15720344 -0.09270442 0.068660446 -0.03895043 -0.060387243 0.028449994 0.20937759
0.16027686 -0.14244734 0.14517267 0.18050334 -0.05396143 0.055682015 0.057818856 0.15785697
0.07696276 0.13685937 -0.23943922 0.14890994 -0.19449475 -0.19157895 -0.16185379 -0.03688349
-0.13212161 -0.1316219 0.13647434 -0.100936055 -0.16773826 0.06275091 -0.051849745 -0.012481421
0.1498545 -0.112970315 0.064089514 0.03932519 0.16247945 -0.17768666 0.16400838 0.11314835
-0.008930151 0.014857297 0.09303981 -0.093790464 -0.13392806 0.112051524 0.10253013 0.03432913
-0.028093485 0.13987291 0.031218149 -0.14568986 0.09333271 0.05098215 -0.008068142 0.122694194
0.113316745 0.11066107 -0.006332665 0.11777724 -0.10398375 -0.07211218 0.06921964 -0.09421745

weight f4 [16]
00000000: 36ca 803f eec8 823f d80d 803f 6c38 813f
00000010: e72b 823f 9dea 7a3f ecd5 793f cbbc 813f
00000020: 5b4a 793f d058 7e3f 8d4a 803f 48ef 803f
00000030: d998 7f3f fad8 823f 29a0 7b3f 5776 7d3f
1.006171 1.0217569 1.0004225 1.0095344 1.0169648 0.9801424 0.97592044 1.013574
0.9737908 0.9935427 1.0022751 1.0073023 0.998426 1.0222466 0.9829126 0.990087

bias f4 [16]
00000000: 8ddb 04bc 3df2 caba 1c8c b5bb 9b88 7d3b
00000010: 6e6a 803c 172b 7abc 736f 83bc 7ffa 5f3d
00000020: 74ad 96bc 4434 3a3c 71ea fdba 9ede 8a3c
00000030: 3b71 913d 9d50 933c 44e3 e53b 73b2 81bb
-0.008108986 -0.001548357 -0.005540384 0.003868616 0.01567575 -0.0152690625 -0.016044354 0.05468225
-0.018393256 0.011365 -0.0019372237 0.016951855 0.07101675 0.017982775 0.0070156176 -0.0039580404

running_mean f4 [16]
00000000: 5363 d13d 605d b43d f5e5 d4bd ada3 b43e
00000010: 8db7 b23c ee58 233e 2b21 f63c f995 953d
00000020: 88b2 52be ce17 0e3e 9f3f 6b3e 0b7a a0be
00000030: d084 8e3c 4436 2b3d 5ec1 063e 2f79 e63d
0.10224023 0.08806872 -0.10395423 0.35281125 0.02181604 0.15951893 0.030045113 0.07303996
-0.20575917 0.13876268 0.22973488 -0.3134311 0.017397314 0.0417998 0.13159701 0.11253583

running_var f4 [16]
00000000: 6768 873c b917 583c 34f9 f93b 2fe2 383e
00000010: 58a4 2f3c 3bb0 e43c 3cae cf3a 0c14 173c
00000020: ab88 8a3d 4e79 843c 3efd ae3d aeb3 113e
00000030: ab08 1c3d b8cd 9f3b d1fa 803c 098e 573d
0.016529275 0.01318925 0.0076285843 0.18055032 0.010720335 0.027916064 0.0015844773 0.009221088
0.067643486 0.016171124 0.08544396 0.14228699 0.038094204 0.0048768185 0.015744599 0.05262569

weight f4 [16, 16, 1, 1]
00000000: da93 e83e b281 a53e efa0 b03e b437 d93e
00000010: fa87 59be caf0 52be ee57 a33e 2a0d bb3e
00000020: ccde ad3e 5c51 bc3e 8573 683e 841f 013e
00000030: eacd d13e f771 2d3e faf1 8abe 7d74 65be
00000040: 50a7 b93d db7b 953e f86d c93e a134 99be
00000050: 205b a03e 71cc 813c 0225 46be a2ff 993e
00000060: 5cdb dcbd 955b 9c3e 4e64 cc3c af7b 123e
00000070: 66cb 5cbe 22e2 05be a361 56bd b9ff bbbe
00000080: db71 c3be a7ae 46be 2b4a 1dbe 5597 57bd
00000090: 25b6 bebe ce57 95be 68cc e2bd 8417 93be
000000a0: 346a 883e 42fc c3be 5e30 70bc 39f0 27be
000000b0: 7d79 bc3c a966 88be 71a1 0dbe 2a3a bebe
000000c0: 2aa1 69be b717 d3be 9fd7 bd3d b2ee d7bd
000000d0: 39bb 2e3e f12c 0c3e a5f9 82be 6d32 91be
000000e0: dcad ab3e d674 02be 23e9 adbe d036 673e
000000f0: d24c c83e 5e90 7f3e ddbe 33be 0949 afbe
00000100: 2f20 01be 043a 453e b7b3 ae3e 33d2 ae3d
00000110: 6a1f 843e 5d17 b33e b128 643e d0b3 85be
00000120: 7863 263e 5769 b1be 6fac 5a3e 3163 8fbd
00000130: e7a7 163e 103a ce3e bab3 693d 4640 aebe
00000140: 934a 993d 477f c0be 56f8 9a3e b407 99bd
00000150: 5c32 4d3e 2e16 b53e 5322 9a3e f824 c93e
00000160: aef8 34be 9547 cfbe 823f db3e 0fc5 11bd
00000170: c0b5 773e 6cca 43be 7d20 6c3e e7a0 9a3e
00000180: 87fa 983e 8995 d5be 0a64 b9bd 8ed1 bc3d
00000190: b719 a2be 8282 d13d e55e 16be 9024 b93e
000001a0: e72a a13e befa a5be 4468 9d3d 169d cf3d
000001b0: 5e25 cdbe dd07 11be f510 223e e38a c8be
000001c0: fc24 34be efed e03e 9414 2c3e a325 c0be
000001d0: c767 c93e cafa 91be 7316 88be 8fd4 59be
000001e0: 0b09 0fbe 9311 083e 4b8f 1dbe 8d7c 6ebd
000001f0: 4ed9 d2be 84d5 c7be 1fe2 d53d 1cf8 993e
00000200: 252a 193e 4fda a1be 5663 253e 703a b2be
00000210: 0115 ca3e 13d9 9d3c 5a0c 473e 83fd 12be
00000220: 7b17 ec3d 78c5 063e 2b70 70be 24c6 a63e
00000230: d8f0 963e fe6d 3abd 44d8 f1bd 507b a23e
00000240: 55d2 a83d b210 76be 8695 12be 5a5f 7e3e
00000250: 8cc3 9bbd a1a8 bb3e 7ff1 c63d 64e5 cb3e
00000260: a817 063d 2a75 a0bd 1cc8 d5be 796e c03e
00000270: 60a6 87be 5939 913e c865 dabd b808 02be
00000280: 6365 1c3e 5e69 743d 62a6 a4be 061e 3cbe
00000290: 2d3b b93e 5de5 933e ad9a cfbd 41d7 9ebe
000002a0: 7e28 403e a83a 1e3e fc89 3d3c 78cc 483e
000002b0: 6246 223e 508c 253e a27d c3be 24cd 853e
000002c0: 3158 0f3e 3357 9a3e c046 bc3c d579 a63e
000002d0: 0ed7 263e 6b27 babd 10a9 a2be 4df1 713e
000002e0: 6b09 07be 93ff fb3d a0f2 83be 4cb1 c4be
000002f0: 5813 11be c991 84be aec9 6c3e c94a 8c3e
00000300: c51a 93bc 965f 293d cd9e 95be 91be f53d
00000310: 9f6c 6c3e b309 d43e 1bb3 fdbd 920a d0bd
00000320: f5e8 173e e9e4 1bbe dff8 b23d b2cd 97be
00000330: f8d2 723e cb5e e0be 9a22 4d3e b487 bb3e
00000340: 9568 cfbd f7a7 b23e dce0 6bbe 8112 993e
00000350: cab7 51be a70f 6bbe 31c2 64be e80c 7ebd
00000360: 6ba0 31bd e06e 11be ef50 243d 6f2e 89be
00000370: dffd bdbe 62c6 47be f12a b73e 0a91 80bd
00000380: bf8c 14bc 15e0 b4be af69 cebe e697 c6be
00000390: b5f0 8e3e 1996 d6bc e69a 90be 6855 e0bd
000003a0: 6d97 c4be 0030 2cbe 3de1 9a3e 32da 923e
000003b0: 2c59 83be aa45 3dbe 4ccf ed3c 663f e43d
000003c0: f145 bb3e 7fe8 0d3e 3dfa 6cbe a663 f73d
000003d0: c655 4bbe bc97 b8be 43c7 c33e f7a3 543e
000003e0: 5b01 9fbe fc20 49be e5aa 0a3e 96a7 a4be
000003f0: e896 473e b126 d83d d358 873d 6040 b2bd
0.45425302 0.32325512 0.34497783 0.4242531 -0.21243277 -0.20599666 0.31903023 0.3653348
0.33959043 0.36780822 0.22700317 0.12609679 0.40977412 0.16938005 -0.27137738 -0.22407718
0.090651155 0.29196057 0.39341712 -0.29922965 0.31319523 0.015844556 -0.19350055 0.30077845
-0.10784027 0.30538622 0.024950173 0.14304994 -0.21561965 -0.13074544 -0.052339207 -0.36718538
-0.38172802 -0.19402562 -0.15360324 -0.052634556 -0.3724834 -0.29168552 -0.11074144 -0.28728878
0.26643527 -0.38278395 -0.014659969 -0.16400231 0.023007149 -0.26640823 -0.13831116 -0.3715375
-0.22815385 -0.4122903 0.09269642 -0.105435744 0.17063607 0.13689019 -0.2558109 -0.28358784
0.33531082 -0.12739882 -0.33966932 0.22579503 0.3912111 0.24957415 -0.17553277 -0.3423541
-0.12609933 0.19260412 0.34121487 0.08536186 0.25805217 0.34978762 0.22281148 -0.2611375
0.16248882 -0.3465068 0.2135484 -0.07001341 0.14712487 0.40278673 0.057056166 -0.34033412
0.07484927 -0.37597105 0.3026759 -0.074721724 0.20038742 0.35368484 0.30104312 0.39286017
-0.17672989 -0.404843 0.4282189 -0.03558832 0.24190426 -0.19120187 0.23059268 0.30200884
0.29878637 -0.4171565 -0.09052284 0.09219657 -0.31660244 0.102299705 -0.14684637 0.36160707
0.31478044 -0.32417864 0.07685903 0.10137384 -0.4006757 -0.14163156 0.15826781 -0.39168462
-0.17592233 0.4393153 0.16804725 -0.37528715 0.39336988 -0.2851165 -0.26579627 -0.21272491
-0.13968293 0.13287954 -0.15386693 -0.05822425 -0.41181415 -0.39030087 0.1044352 0.30072105
0.14957483 -0.3161187 0.16151175 -0.3481021 0.3946915 0.019268548 0.19438305 -0.1435452
0.11527916 0.13161266 -0.23480289 0.32573044 0.29480624 -0.045515053 -0.118088275 0.31734705
0.08243243 -0.24029806 -0.14314851 0.24841061 -0.07605657 0.3665209 0.097140305 0.3982345
0.032737404 -0.07834847 -0.41754234 0.37584284 -0.26494122 0.28364065 -0.106639445 -0.12698638
0.15273051 0.0596708 -0.3215819 -0.18370828 0.3617796 0.28885928 -0.10136924 -0.310236
0.18765447 0.15452063 0.011568543 0.19609249 0.15847161 0.16166806 -0.38181788 0.26133072
0.13998486 0.30144653 0.022982955 0.32514825 0.16292974 -0.0908955 -0.3176961 0.23627205
-0.13187186 0.12304606 -0.25771046 -0.38416517 -0.14167535 -0.25892475 0.2312381 0.27400807
-0.0179571 0.041350923 -0.29222718 0.11999238 0.2308831 0.4141365 -0.12387677 -0.10158266
0.1483496 -0.15224041 0.08738875 -0.2964912 0.2371329 -0.4382232 0.2003273 0.3662697
-0.10127369 0.34893772 -0.23034996 0.2989693 -0.20480266 -0.2295519 -0.22339703 -0.062024027
-0.043365877 -0.14202452 0.040116247 -0.2679324 -0.3710775 -0.19509271 0.3577495 -0.06277664
-0.00906676 -0.3532721 -0.40315005 -0.38787764 0.2791802 -0.026194619 -0.28243178 -0.1095379
-0.3839678 -0.16815186 0.30249968 0.28682095 -0.2565397 -0.18483606 0.02902951 0.11144905
0.365768 0.13858221 -0.23142333 0.12079553 -0.19856939 -0.36053264 0.38237962 0.20765673
-0.31055722 -0.19641489 0.13541754 -0.32159108 0.1949116 0.10554255 0.06608739 -0.08703685

weight f4 [16]
00000000: 73d0 7f3f a499 7e3f a760 7d3f 8ee2 7e3f
00000010: c50f 7d3f dce1 803f 4e25 7a3f 4266 7c3f
00000020: aafe 813f 9835 813f 76ce 7e3f e094 813f
00000030: 752e 7f3f 06a6 803f 9610 803f 3a7c 7e3f
0.99927443 0.99453187 0.98975605 0.99564445 0.9885219 1.0068927 0.9771317 0.98593533
1.0155842 1.009448 0.99533784 1.0123558 0.9968026 1.0050666 1.0005062 0.99408305

bias f4 [16]
00000000: 4787 3cbc d684 e2bb 6698 693c 8da8 3e3c
00000010: 3280 913b 91da 793c cf4b 53bc c121 49bc
00000020: da06 333a 0fe8 043c dc8c 813c e7a8 3c3c
00000030: c4cf 033c 3793 0bbb 0a7c 15bb fbda 2dbb
-0.011506862 -0.006912808 0.014257526 0.011636865 0.004440331 0.015249864 -0.012896492 -0.012276114
0.0006829329 0.008111968 0.015814237 0.011514879 0.008045141 -0.0021297464 -0.0022809529 -0.0026528228

running_mean f4 [16]
00000000: b6e4 a53f 5e19 a43e 5058 93bf d500 e1be
00000010: cd73 f63e e014 083f 4105 a1bc 7ebe c3be
00000020: a7de 093e 9e4a 933e 2d39 df3d 246b fc3d
00000030: 087a 0c3d 434b 85be e051 2ebf 4cfe f8bc
1.2960422 0.32050604 -1.1511326 -0.43945947 0.48135224 0.5315685 -0.019655826 -0.38231272
0.13463841 0.28767866 0.10899577 0.12325123 0.034296066 -0.26033983 -0.6809368 -0.030394696

running_var f4 [16]
00000000: 611e 003f 80d7 363e 2f2f 5c3f cbfd 2f3f
00000010: 9713 063e 9d6e c13e 80a1 313f d1aa 333e
00000020: ceda 463f 5983 3d3f 48e1 eb3e 7ccf b83e
00000030: edcb 2a3e 9920 363f 51fc d23d cbd1 c23e
0.50046355 0.17855644 0.86009496 0.6874663 0.1309341 0.37779704 0.69387054 0.1754563
0.7767762 0.74028546 0.46070313 0.36095798 0.16679354 0.7114349 0.10302032 0.38050684

weight f4 [96, 16, 1, 1]
00000000: 5f97 abbd 623a ffbd 194d 88bd 7074 33be
00000010: bccd e43d bc74 e2bd fff2 9ebd 1b13 533e
00000020: 6231 cbbd 2dee 3c3e a25d 0c3e 52c1 1b3b
00000030: 9726 1ebe d48b 3ebe 5566 6f3e cd15 2f3e
00000040: 8f43 c1bd d20e 363e 535f 273d c6ad 09bd
00000050: 632b 1f3e f3f0 b4bd 391d f73b 0cfb 86bd
00000060: a821 6f3e 0c80 863d 143c 103e 12c4 0bbe
00000070: 59e8 053d 8569 3d3e 528a 2a3d 5621 14be
00000080: d4e0 0b3e 6621 5cbe 0896 12bd e368 35bd
00000090: ff02 293e 523a 013e 966b 67be a03c 62be
000000a0: 97bb fabd d4d1 efbd 8020 a23d 4864 0cbe
000000b0: fb0e 753e 0bbd 35be b984 1dbe 53da a63d
000000c0: c794 a63d 2f97 03be d706 283e 0340 20be
000000d0: 4b53 34bd bb10 f3bd ba9e 493c fae1 bc3d
000000e0: f1a2 ddbd a51b 1cbe 60b5 ee3d 06b6 353e
000000f0: 44a6 a13b 1b17 0abe 008c 32be 6778 30bc
00000100: 4246 54be 08d6 1e3e 9295 03be 34ca 24be
00000110: cf24 50be 7e05 bcbd 4606 57be 92c1 c33d
00000120: d9d2 6ebe e490 d83d 4bc2 b5bc a46a 963c
00000130: d716 7d3e af56 02be c9ea 23be 9c3b f3bc
00000140: a97a d5bd 5986 933d 8f63 74be d8ee 14be
00000150: 787e 89bd 0ddf f4bd dee2 193c d07b 8abd
00000160: 6303 20be 3cc9 503e 3f11 20be 2e90 383c
00000170: 87f8 2cbe 53c7 823d 15ca 29bd 408e 7c3e
00000180: ae4e 2d3e a8fe 1cbe f307 d3bc 518e 45bd
00000190: 266c 5abe ff1c e9bd e9f6 153e 35c3 153e
000001a0: d907 4c3e 7eef 52bd 75ea 3a3d b7ca 193d
000001b0: 9b72 c8bd d9c3 fcbd d8e6 123c 868d c43b
000001c0: fde4 1ebe 75e1 48bc e424 0e3d 1814 82bd
000001d0: d927 d1bc 8af5 d83d 8e31 0dbd 079e 813d
000001e0: 804b 723e dba1 d6bd 5c35 d43d ba62 4bbd
000001f0: fa88 6b3d 49a3 1bbe 6e82 263e 3a6f 3cbe
00000200: be82 323d 80b6 263e f683 0dbe 4d61 b03d
00000210: ca98 173d c914 3b3d 2f80 b93d 317e 28be
00000220: fea8 383e ad0b f33d 6be1 753e e53f c1bc
00000230: 77db a9bd 4429 65bd 5614 283d ec00 f23d
00000240: c0e5 173e 4db9 16be d361 103c 4445 3abe
00000250: 5802 4cbe 5a62 56be fabd 083e 6784 3f3e
00000260: 6d50 083e a0c3 f03d d010 d2bc 00ea 78be
00000270: 97b5 84be 1618 17be 0dc7 9c3d 0665 cc3c
00000280: d026 29bd 94b5 c9bd 8ea3 7ebe 7c40 8fbc
00000290: b6b1 5ebe 8b57 9cbc 9885 8bbd 8181 35be
000002a0: f6d4 d83d bb43 04be af08 bb3d 6a25 b43d
000002b0: 761e 87bd 4578 39be ebce b7bd b7d3 4c3e
000002c0: fb98 51be a259 d8bd eb2e 133d e0f2 0d3d
000002d0: 2da8 40be 772d 243d 4a51 bdbd a7ef 4fbe
000002e0: 9f02 4c3c 4e10 5a3c 81d6 333e 80dc 4bbe
000002f0: 8c32 a1bd d50b 6ebe 9133 f83c a6cd 29be
00000300: 4670 9abd 6d91 64be c62f ae3d b81f c9bd
00000310: d26a 65be 5678 273e e3df 19bd 2e5a 093e
00000320: ee65 f03d 3458 3b3e 9d29 933e fdf2 5d3e
00000330: dab6 1d3d 60a3 9a3c b8a8 64bd 59f5 503e
00000340: 9167 38be 9c3a 88bc ce3c c3bc 160a a2bc
00000350: 9b7a 403e df23 dcbd e954 21be 044d a23d
00000360: 2ad6 103e 054b c4bd ea46 08bd 34cc 05be
00000370: 4520 60be e559 36be 44c3 79be 6559 993c
00000380: 2f34 923d 74d1 073d a437 473e 0173 33be
00000390: 0f4b 343b 1cbf d7bd 5712 18be 602e 1c3e
000003a0: 661f 563c e8ef 8c3c 7164 cb3c 8329 46be
000003b0: fdf9 76bd 429a 94be a7dc babd 9e9d c6bd
000003c0: 65c0 8b3d cd63 04be 11f3 09be 7e5e f53d
000003d0: 80a4 c4bd 0e19 d3bd 64b9 c13d 61c2 58be
000003e0: d286 32be e113 e53d 1de7 293d 6884 e83d
000003f0: 37b0 053e b058 093c 7213 1c3e 600a e93d
-0.08378481 -0.124623075 -0.0665533 -0.17524886 0.11172053 -0.110574216 -0.077611916 0.20612757
-0.099215284 0.18450232 0.13707593 0.002376635 -0.15444408 -0.18608028 0.2337888 0.1709816
-0.09436714 0.17779091 0.040862393 -0.03361299 0.15543894 -0.0883502 0.0075413254 -0.06590852
0.23352683 0.06567392 0.14085418 -0.13649014 0.032692287 0.18497284 0.04163582 -0.14465842
0.13659984 -0.21497115 -0.035787612 -0.04428948 0.16505049 0.12619904 -0.22599635 -0.22093439
-0.12242811 -0.117099434 0.07916355 -0.1371013 0.23931496 -0.17747895 -0.15382661 0.08147111
0.08133846 -0.1285064 0.16408859 -0.15649419 -0.044024747 -0.118684255 0.01230591 0.09222789
-0.10822094 -0.1524492 0.11655688 0.17745218 0.0049331505 -0.13485377 -0.17436218 -0.010770894
-0.20729926 0.15511334 -0.12850025 -0.1609276 -0.20326541 -0.09180735 -0.20998487 0.09558405
-0.2332262 0.10574511 -0.022187373 0.018361397 0.24715744 -0.1272838 -0.16007532 -0.02969151
-0.10423786 0.07203359 -0.23866104 -0.14544237 -0.06713575 -0.11956606 0.009392468 -0.067618966
-0.15626292 0.20389265 -0.15631579 0.011264844 -0.1689168 0.06385674 -0.041452486 0.24663639
0.16924545 -0.15331519 -0.025760626 -0.048231427 -0.21330318 -0.11382484 0.1464497 0.14625247
0.19924869 -0.05149793 0.045633752 0.03754684 -0.09787484 -0.123420425 0.00896617 0.005998316
-0.1551704 -0.012260784 0.03470315 -0.06351489 -0.025531696 0.10593708 -0.034471087 0.063289694
0.23661613 -0.1048009 0.1036174 -0.0496547 0.057503678 -0.15199007 0.16260692 -0.18401805
0.043581717 0.16280556 -0.1381987 0.08612309 0.037010945 0.04567412 0.09057652 -0.16454388
0.18033215 0.11867461 0.24011771 -0.023590038 -0.08293813 -0.055947557 0.04103502 0.11816582
0.14833736 -0.14719124 0.008812386 -0.18190485 -0.19922769 -0.20935956 0.1335372 0.18702851
0.1331193 0.117560625 -0.025642782 -0.24308014 -0.25919792 -0.14755282 0.076551534 0.024950515
-0.04129678 -0.098490864 -0.24867079 -0.017486803 -0.21747479 -0.019084712 -0.0681259 -0.17725183
0.10587494 -0.12916462 0.09132516 0.08796199 -0.06597607 -0.18112285 -0.08975013 0.20002638
-0.20468514 -0.10563971 0.035933416 0.03465545 -0.18814154 0.04008242 -0.0924402 -0.20306264
0.012451797 0.013309551 0.17562295 -0.19908333 -0.07870969 -0.23246701 0.030298026 -0.16582355
-0.07540946 -0.223211 0.08505206 -0.09820503 -0.2240403 0.16354498 -0.03756703 0.13413307
0.117381915 0.18295366 0.28742686 0.21674724 0.03850446 0.018876731 -0.055824965 0.20406093
-0.18008257 -0.01662951 -0.023832705 -0.0197802 0.1879677 -0.10749029 -0.15755047 0.07924846
0.14144197 -0.09584621 -0.033270754 -0.13066179 -0.2188731 -0.1780773 -0.24390894 0.018719384
0.071388595 0.033158734 0.19454819 -0.1752434 0.0027510559 -0.10534498 -0.14850746 0.15252066
0.013069009 0.01720424 0.024828168 -0.19351773 -0.060297 -0.2902394 -0.09124117 -0.09698032
0.06823806 -0.12928696 -0.13471629 0.119809136 -0.096016884 -0.10307513 0.094591886 -0.211679
-0.17434242 0.11185432 0.041480172 0.113533795 0.13055502 0.008382961 0.15241793 0.11378932

weight f4 [96]
00000000: b336 723f 6a6b 853f 89aa 8b3f 1aa2 7a3f
00000010: 4a2e 803f 34a9 6d3f 60fd 703f 26f5 783f
00000020: 7157 813f 88bf 7a3f 0f6d 823f 8135 673f
00000030: 531c 803f 676b 873f 7992 793f 5c98 6c3f
00000040: b1a6 853f 762c 7a3f 2b39 823f 5836 713f
00000050: 2c49 7a3f 4d6e 803f b2b0 723f 5abb 7a3f
00000060: 4638 813f 6cb5 733f 3abd 7f3f 9ac2 7c3f
00000070: f8a5 8d3f 6b81 743f 1a68 703f 1285 833f
00000080: f078 7e3f 15a2 803f a266 813f dd25 7f3f
00000090: 7467 803f 2c60 7c3f ea34 7f3f d97b 853f
000000a0: 1bdc 7c3f 3a73 833f 1fd7 8b3f 5911 7f3f
000000b0: 5f25 7d3f caa8 723f e8d0 763f b81e 7d3f
000000c0: a2ab 803f 533b 7f3f b3f0 783f 6cdf 7a3f
000000d0: 1273 7e3f 0d6d 7c3f 5be8 703f e9b5 843f
000000e0: 200d 7b3f a11d 783f c62b 813f 3a35 7d3f
000000f0: 541d 853f 08b7 793f 7cbd 853f 1ead 7d3f
00000100: 1004 7e3f 1669 813f 212f 803f add1 7f3f
00000110: d461 7a3f 94f2 813f 8c54 663f 269f 713f
00000120: ccad 7a3f 192b 733f e3b1 7e3f eefa 7d3f
00000130: 55c7 893f 56dc 7a3f d416 853f 28f4 7b3f
00000140: 58bb 843f 4722 893f 387b 7c3f 37f4 893f
00000150: ae91 7d3f 5e9c 883f ec79 7d3f aab0 7b3f
00000160: 4a26 783f 37fd 843f 2a4c 7b3f 2bc0 743f
00000170: c3a1 803f 8cf1 703f 6a9b 773f 6dc8 833f
0.94614714 1.0423405 1.0911418 0.979036 1.0014126 0.9283631 0.9413662 0.97249067
1.010481 0.97948503 1.0189532 0.90316015 1.0008644 1.0579652 0.97489125 0.9241998
1.0441495 0.9772409 1.0173696 0.94223547 0.977679 1.0033661 0.94800866 0.97942126
1.0095298 0.951987 0.9989811 0.9873444 1.1066275 0.95509976 0.93908846 1.0274985
0.99403286 1.0049464 1.0109446 0.9966715 1.0031571 0.98584247 0.99690115 1.042842
0.98773354 1.0269539 1.0925025 0.99635845 0.9888515 0.947888 0.96412516 0.98875
1.0052378 0.99699897 0.9724228 0.97997165 0.99394333 0.986039 0.94104546 1.0368015
0.980669 0.9692021 1.0091484 0.9890934 1.0399575 0.9754491 1.0448451 0.9909228
0.9922495 1.0110195 1.0014383 0.99929315 0.97805524 1.0152154 0.8997276 0.94383466
0.97921443 0.94987637 0.99490184 0.99211013 1.0763956 0.97992456 1.0397592 0.9841943
1.0369673 1.0713586 0.98625517 1.0777653 0.99050415 1.067272 0.99014163 0.9831644
0.96933424 1.0389775 0.9816309 0.95605725 1.0049366 0.9411857 0.9672152 1.029554

bias f4 [96]
00000000: 61a9 07bb e308 d53c 3751 5c3c 761d 213d
00000010: 6b77 e53c 2869 1ebd 1580 b93b 8633 8cbd
00000020: 376d 80bc 8947 3abc 3511 47bd a34b 75bd
00000030: e13f 8b3c 8ebb a93a 423e e5bb 915a a0bc
00000040: 920d 713c b81b f3bc 4ccf 37bb 3314 58bd
00000050: 20fd 82bd b5c2 aabc a1dc 6c3d 8072 e6bc
00000060: b326 6d3a 663e c33b 627c 74bc 96ff f2bb
00000070: 9f86 dc3c ec22 e4bc 1f99 343c e4ec a93b
00000080: c587 4a3c 1ba0 023b 6ac2 41bc 58dc 1a3c
00000090: 2823 51bc aac5 64bd e27f 26bc 7624 503d
000000a0: c5b2 24bd 82e0 9e3c 9104 0fbc ffe5 2b3c
000000b0: 2a7f 9dbc fe1c 873c d37c 223d 8a6a 6ebc
000000c0: 0365 163d 9826 2d3d 5edd 2d3d efee fcbc
000000d0: 6970 723c fa51 173c ce25 5cbd ea0c aabc
000000e0: d5ef c3bc d202 0d3c 39d0 22bd 5025 5bbc
000000f0: 4d37 e43c 52bc 13bd 5619 9b3c 7138 f5bb
00000100: 0ad3 72bd d224 a6bc 1d8a d8bc 6f86 983c
00000110: 0e00 27bd 99e5 97bc e709 543b a654 9e3b
00000120: aef5 2bbd 0dd6 5cbd 6b7c 943c cf64 9fbc
00000130: ce91 ab3b ded2 d7bc df53 683c 2328 ddbc
00000140: 62f5 f73c 796c 1ebd 6348 d83c b239 7aba
00000150: 88aa c73c 21b1 45bc 1806 8cbc 0f10 83bc
00000160: 4508 e83c ffe3 9ebc 6e94 513c 998d 44bd
00000170: 05ff 96bc eb08 2a3d 1c1a 433d bc32 063c
-0.0020700323 0.026005214 0.0134470975 0.039334737 0.028011044 -0.038674504 0.0056610205 -0.06845765
-0.015677078 -0.011369594 -0.048600394 -0.059886586 0.016998233 0.0012949572 -0.006995947 -0.019574435
0.014712708 -0.029676303 -0.0028047143 -0.05275364 -0.06395936 -0.020844797 0.057827596 -0.02813077
0.0009046599 0.005958366 -0.014922233 -0.007415722 0.026919661 -0.027848683 0.011022835 0.0051857103
0.012361472 0.0019931856 -0.011826137 0.009451948 -0.01276473 -0.05585257 -0.010162326 0.05081602
-0.04020955 0.019394163 -0.008729116 0.010491847 -0.019225676 0.016493317 0.039669823 -0.014551768
0.036717426 0.042273134 0.04244744 -0.030875651 0.0147973085 0.009235853 -0.05374699 -0.020758111
-0.023918072 0.008606629 -0.039749358 -0.013375595 0.0278584 -0.036068268 0.01893298 -0.007483535
-0.059283294 -0.02028123 -0.026433045 0.01861879 -0.040771537 -0.018542098 0.0032354535 0.004831868
-0.041982345 -0.053915072 0.018125733 -0.019457249 0.005235887 -0.026345666 0.014180153 -0.026996678
0.030268375 -0.038677666 0.026401704 -0.00095453404 0.024373308 -0.012066157 -0.01709275 -0.015998868
0.028324256 -0.019395826 0.012791736 -0.0479866 -0.01843215 0.04151241 0.04763232 0.008190807

running_mean f4 [96]
00000000: 30e6 d1bc da45 833e 76c5 90be 36b1 47be
00000010: 3c0c e9be 7a28 aabe 9da5 22bd 6172 353b
00000020: 5413 a73e 6b69 89be 6093 dbbe 1285 02bf
00000030: 4411 ae3e 8937 eebe 41bc 96be b256 2b3d
00000040: 545e 7c3c 7fd0 afbe 7b8b 933e 8c5c 73be
00000050: 44b1 bf3d e16c 833d f0d1 0c3c 16a9 a93e
00000060: 4123 a8be 81ae 02bf 1d54 4bbe b8aa e5be
00000070: 1442 49be 960a 523d 5800 cc3d 9465 22bd
00000080: 18cb 8bbe a54a 203d f2fb 063e e814 923e
00000090: f33a 9bbd 1fd1 d8b9 d385 afbd 4c24 40be
000000a0: d8a4 ba3d d48c c9bc 5b19 aabd 34b6 adbe
000000b0: 4c75 94be d8d0 243f 59dd ea3d ffcf 5b3e
000000c0: d98d 913b 738d 003e 31f1 103d 1c02 3abd
000000d0: 5f4c 233e 9e67 983e 98a3 50be 5bb8 1fbe
000000e0: 83d9 a3bd 206d 883e 7460 a53e 1e6f dcbd
000000f0: 3136 97bc d41f 87be 7a82 243d baaf db3e
00000100: 532d 623e 60e3 943e e91c 263f 8b50 0cbf
00000110: df17 1abe 47b8 a43d 0f38 16be 9404 44be
00000120: 060a f13e ec91 acbc e8dd 8a3e 7b27 1dbf
00000130: d0b3 173e 05f3 05be a236 b53e b3be 4abd
00000140: a6e6 58be 2849 a63c b1dd a73d 5297 293e
00000150: 69c0 593e 7b29 623e 4d24 073e cc6d 4cbe
00000160: 1580 ecbd eef6 92bd 62f4 a33e b3ae a7be
00000170: 9af5 563e 01d8 0c3d 9864 093e fff4 4cbe
-0.025622457 0.2563923 -0.2827565 -0.19501194 -0.45517147 -0.33234006 -0.039708722 0.0027686583
0.32631934 -0.2683824 -0.42885876 -0.509843 0.33997548 -0.46526745 -0.294405 0.041830726
0.015403349 -0.34338757 0.28817353 -0.23765773 0.093599826 0.064172514 0.008594975 0.33136815
-0.32839397 -0.5104752 -0.19856305 -0.4485681 -0.19654113 0.051279627 0.09961003 -0.039647654
-0.27303386 0.039133687 0.13182047 0.28531575 -0.07579603 -0.00041354538 -0.08570447 -0.18763846
0.09113473 -0.024603285 -0.083056174 -0.33928072 -0.2899574 0.6438117 0.11468 0.21466063
0.0044419584 0.12553959 0.035386268 -0.045412168 0.15947102 0.29766554 -0.20374906 -0.1559767
-0.080004714 0.26645756 0.3230015 -0.107633814 -0.018458458 -0.2639147 0.040163495 0.42907506
0.22087602 0.29079723 0.64887863 -0.548104 -0.15048169 0.080429606 -0.14669822 -0.19142371
0.4707796 -0.021065675 0.27122426 -0.6138837 0.14814687 -0.13080986 0.35393244 -0.04949827
-0.21181735 0.020298555 0.08196581 0.1656163 0.21264805 0.22086136 0.13197441 -0.19963759
-0.11547867 -0.07176004 0.32022387 -0.32750472 0.20992127 0.034385685 0.1341728 -0.20015334

running_var f4 [96]
00000000: 8b12 9e3d 76b0 d93d 7bcb 413f 6d44 393e
00000010: 07e1 753e f3f5 9e3e f17b 1f3e 9f50 0e3f
00000020: 4d4f d43e 61b1 653f b020 af3e d7cd 5e3f
00000030: ae0a ca3e 85a0 9e3e 115f e63d a5f6 b73d
00000040: 0537 373e 2639 003e b755 043f d7b1 f03d
00000050: 7913 5d3e e6dc c43e 8df5 b73e a5a2 ad3d
00000060: 63c9 9f3e bee6 483f 2f8c 013f 2e28 593f
00000070: b2b8 e73d a5a3 333f 9185 4e3e e4e8 0a3f
00000080: a558 883f 909f 3d3f 7632 0c3f 022e 843f
00000090: 6496 843e 8c61 f03d a7fd 103f 3772 e63d
000000a0: 97a5 273e e511 a83e 18ec a23e ec7e d13e
000000b0: 6b4b c33d c94f 833d 4392 b83e 8c36 993e
000000c0: 1a51 723d b26b 813d b916 df3e b598 663e
000000d0: 0f10 263f d071 f63d c653 8e3e 54a7 d93e
000000e0: 9f28 483f 8a47 ff3e 7355 073e 9cfc 543e
000000f0: 2107 a43e b326 3a3e b13a 743d 34bd 443e
00000100: 399d ae3e 9749 f23d 8eb7 023f 7e11 833f
00000110: 6591 673e 05c0 1a3f 80f2 d63e e8a9 ca3e
00000120: 47b4 953e e871 ea3e b0aa a83e 0a8b e53e
00000130: b50f f13d 9de4 c83e 03c2 153f 3a60 c93d
00000140: 2068 333e 7982 d43d 6218 ff3d 2f0f 3f3f
00000150: bfc1 523e eb32 c23d 45c7 823e 34d0 213f
00000160: a82e b03e e5f1 e13d 1576 103f 0b4a cb3e
00000170: 7cb5 283e 4783 033f e83c 8e3e 7d27 e53d
0.077183805 0.106293604 0.7570111 0.18092509 0.24011622 0.3104702 0.15574624 0.5559177
0.41466752 0.89723784 0.34204626 0.87032837 0.39461273 0.30981842 0.11248601 0.089825906
0.17892082 0.125218 0.5169329 0.1175267 0.2158946 0.38449782 0.35929528 0.084782876
0.31208333 0.78477085 0.5060453 0.84826934 0.11314525 0.70171577 0.20168139 0.5426161
1.0652052 0.740716 0.547645 1.032654 0.2589599 0.117373556 0.5663704 0.112522535
0.16371761 0.32826152 0.3182075 0.40917146 0.09535869 0.06411702 0.3604909 0.29924428
0.059159376 0.063193694 0.43572024 0.2251919 0.64868253 0.12033427 0.2779829 0.42510474
0.7818698 0.49859267 0.1321619 0.20799488 0.3203669 0.18178825 0.059626285 0.192128
0.34104326 0.118304424 0.5106133 1.0239713 0.22614057 0.6044925 0.41981888 0.39582753
0.29239103 0.4579003 0.32942724 0.4483264 0.11770574 0.39236918 0.58499163 0.09832807
0.1752019 0.10376448 0.124558225 0.74632543 0.20581721 0.09482368 0.25542656 0.6320832
0.34410596 0.11032466 0.5643018 0.39704928 0.16475481 0.5137219 0.27780843 0.111891724

weight f4 [96, 1, 3, 3]
00000000: b6bd 43bd 8ee1 cfbd 7017 05bd 6941 fcbb
00000010: 407f a7bd cb79 5e3c 90e6 57bc d63f 983d
00000020: d219 3bbd c9d9 b4bc a273 3a3c 22f8 203d
00000030: 3d08 42bd 452a 583a 35b5 483c 7a13 f9bc
00000040: 671e dfbc e33b 80bd bcf8 64bd 2d9d ec3d
00000050: 53b7 8d3d 8adb c03c 4096 cf3d 7971 913c
00000060: 3696 a5bb bd9f 3e3d b445 82bd effd 8b3d
00000070: 1733 533d 23df 6b3d 1d1e 13bd caec 66bb
00000080: fcad 973d 4ead c3bc 8e7d 50bc 3179 5ebd
00000090: b16c 9fbd 3be8 7bbd a8bd 53ba c9fd 533c
000000a0: 0fad e1bd 8ade 343d 4266 2ebd d200 c73b
000000b0: 6e19 1a3b 29d3 ad3c 09d2 9f3d 8bf0 863d
000000c0: 0375 e0ba e231 413d e2bb 80bd 163a 103c
000000d0: 22d3 b1bd 5a26 2dbd c313 ea3c 336d 9d3c
000000e0: 9050 d73c dbad 4e3a d10b 763d 97e7 5f3b
000000f0: 5ee9 aabc 2782 9cbd 8b7e 1dbd fe72 1ebd
00000100: ed8b 8cbd 67c4 a93d 674d 49bd e8d1 cbbc
00000110: 4c16 39bd 0e5c 213d 2f36 aebd a145 993d
00000120: 6c05 12bc b1ab 84bd a1cb 183d fb10 b43d
00000130: 57b5 f9bc b90d 84bd cbc5 803c 392f 903d
00000140: bee8 22bd d3d4 1abd aa3f 0fbc 2cc4 9ebb
00000150: 3b01 913d 6ca6 33bd d465 7abd 516f 52bd
00000160: eaf7 913d a587 953c 6340 253d 6c05 13bd
00000170: 1acf 453d 49f1 c43c 8fc3 2abd e777 993d
00000180: b8e1 eebc c4cc 943d 0c0d db3d 7ea4 a73d
00000190: 0cad 3cbd 82e8 e2bc 1074 1ebd 8bc2 81bc
000001a0: fb86 953d 12b9 83bd dfa2 243c c15d 9e3c
000001b0: 6d1e 9f3d 609b 65bd 022b 513d 740d 4e3d
000001c0: 3f47 55bd ac10 81bb fb96 72bd 8cb0 5ebd
000001d0: 8014 d03c 8c5f 683c fe93 8abd ebca 60bd
000001e0: 659e aa3d f54c 01bd 5d1e a13c 0254 8b3d
000001f0: 0380 64bd 630e 4a3a 65cc db3c 1869 acbd
00000200: 4230 9fbd 8558 2e3d 9f7a 1cbd 2b49 a0bd
00000210: f24e 89bd 8757 87bd 4b9b 0a3d 23b7 ce3c
00000220: 7cfc 613d 4fd1 2dbc c393 02b9 88b5 ae3d
00000230: c689 6d3d f903 523d 8ba9 b63b 54b5 38bd
00000240: 13bd 76bc 33d8 a7bd 98d9 37bd 81b1 24bd
00000250: df86 f2ba 3cbf 063d 3a9d 003d 6763 943d
00000260: efbb a539 82dd e33c 0222 703d d141 cf3d
00000270: f113 a03d 8bd9 173d 6d14 f33c 3e78 993c
00000280: 6c3b 8a3c a670 49bd 2061 4a3d 7060 b63d
00000290: c15b 90bd b801 a13a 3f6f 80bb 6b6a 27bd
000002a0: 6572 3c3d 52a7 623d 1e9e febc ff39 4c3a
000002b0: fd0c 4c3d d4bd 20bd 76a2 acbc 5ea7 0cbc
000002c0: cdab a3bd 9602 debb 5030 adbc 8de5 f0bd
000002d0: 8a37 d4bc b858 85bd f9f7 883d 1958 33bc
000002e0: 3c44 963d 5c10 9bba 0fe8 7cbc 6b87 4b3d
000002f0: dd57 e0bb ab31 75bd 52dd 3abc 8bf0 debd
00000300: 0361 b63b 9814 22bd 38b2 843d 5856 2bbc
00000310: 5b35 063d 041d 03bc 8c56 85bd 55d9 9b3d
00000320: 25ea c0bc a79b 87bd 3084 fe3c f433 f53c
00000330: 4cb0 94bd f62f 303d 27fa 913d f46f b93c
00000340: cc3b 9fbc fff7 5b3c 71aa 473d a759 083d
00000350: 560e 043c 0986 2b3c 7ea5 3c3d bcee f03c
00000360: 1aca f43c c812 803c 5e4a 02bd c98f 7fbd
00000370: ffe9 c5bd acde 6dbd 4563 853d acd6 30bc
00000380: 8c1b ebbd f426 6b3d 07bf cf3b 2f22 5cbd
00000390: c864 aebd 05ae 91bc 596a a83d ab23 16bd
000003a0: db1a 1e3d 0d12 70bd a9a0 793c 0f00 75bb
000003b0: 23b9 d0bc d1ae b33c 8320 7c3d f9bd 3e3d
000003c0: 76b3 4abc e92f 17bd 836e d73d d0a1 033c
000003d0: 7c4e 3c3b d2e1 22ba de35 37bd c484 bbba
000003e0: be83 b4bd dbb0 abbd e5e2 e23c f21b 703c
000003f0: 74a9 833d 5508 29bd fd85 bebc 0a6d b93d
-0.047788344 -0.10150443 -0.032493055 -0.007698227 -0.08178568 0.013578842 -0.013177529 0.07434051
-0.04567892 -0.022076504 0.011380108 0.039299138 -0.047371138 0.0008246045 0.012250234 -0.030404795
-0.027236177 -0.062614225 -0.055901274 0.115534164 0.06919732 0.023542184 0.1013608 0.017754303
-0.005053307 0.046539057 -0.06360951 0.06835543 0.051562395 0.057585847 -0.03591739 -0.0035236352
0.07406232 -0.023886349 -0.012725247 -0.054314796 -0.07784403 -0.06150077 -0.0008077272 0.012938925
-0.110193364 0.044157542 -0.04257799 0.006073096 0.0023513692 0.021218853 0.07803733 0.06588849
-0.0017124716 0.047166713 -0.06285836 0.008802911 -0.086828485 -0.042272903 0.028573876 0.01921711
0.026283532 0.0007884183 0.060069863 0.0034165138 -0.020863231 -0.07642012 -0.03845076 -0.038683884
-0.06862626 0.08289414 -0.049146082 -0.024880365 -0.04518728 0.03939443 -0.085064285 0.07483984
-0.0089124255 -0.0647806 0.03730357 0.08792301 -0.030481977 -0.0644793 0.015719315 0.07040257
-0.03977274 -0.03780062 -0.008743206 -0.004845163 0.07080313 -0.043859884 -0.061132267 -0.05137569
0.07127364 0.018253157 0.040344607 -0.035893843 0.04829321 0.024040835 -0.041690405 0.07493573
-0.029160365 0.072656184 0.10695848 0.08185671 -0.046063468 -0.027698759 -0.038684905 -0.015839836
0.07301136 -0.06431784 0.010048597 0.019331815 0.07769475 -0.05605638 0.051066406 0.0503058
-0.0520699 -0.003938755 -0.059226017 -0.054367587 0.0254004 0.014182936 -0.067665085 -0.054881018
0.083309926 -0.031567533 0.019667799 0.068031326 -0.055786144 0.0007707832 0.026830861 -0.084184825
-0.07772876 0.042564888 -0.038202878 -0.07826456 -0.06704511 -0.066084914 0.033839505 0.02523381
0.05517243 -0.010608985 -0.00012452812 0.08530718 0.05799272 0.05127332 0.0055744103 -0.045094803
-0.015059727 -0.081955336 -0.044885248 -0.040208343 -0.001850333 0.03289722 0.031399943 0.07245522
0.00031611274 0.027815584 0.058626182 0.10119975 0.078163035 0.0370727 0.029672826 0.018734094
0.016874038 -0.049179696 0.049409032 0.08905113 -0.07048751 0.0012283837 -0.0039195116 -0.040872972
0.046007533 0.05533535 -0.031081256 0.00077906245 0.049817074 -0.039243534 -0.021073561 -0.008584825
-0.07991753 -0.0067752106 -0.021141201 -0.11762533 -0.02590539 -0.065110624 0.06687922 -0.010946297
0.073372334 -0.0011830437 -0.015436186 0.04968969 -0.0068464116 -0.05986182 -0.011405306 -0.10885724
0.005565764 -0.03957042 0.06479305 -0.010457598 0.032765727 -0.008002523 -0.06510648 0.07609812
-0.023549149 -0.06621485 0.031068891 0.029932 -0.072601885 0.04301449 0.07127791 0.022636391
-0.019437693 0.013425826 0.04874653 0.033288624 0.008060059 0.010468968 0.046056263 0.029410712
0.029881526 0.015633956 -0.031809203 -0.062392984 -0.09663772 -0.058073685 0.06513075 -0.010793369
-0.114798635 0.057410195 0.006339911 -0.053743538 -0.08515316 -0.017783174 0.08223409 -0.03665511
0.03859983 -0.058610965 0.015236058 -0.0037384068 -0.025478905 0.021933945 0.061554443 0.04656789
-0.012371888 -0.036910925 0.10519125 0.008034185 0.0028733304 -0.00062134594 -0.044729106 -0.0014306535
-0.0881419 -0.08383342 0.027696082 0.0146551 0.06428805 -0.04126771 -0.02325725 0.09054001

weight f4 [96]
00000000: c8e9 7b3f a465 863f a808 7c3f 9cd7 803f
00000010: bdfa 803f 5eee 713f 5545 713f 3ec9 7c3f
00000020: 88a2 803f 212d 763f 2dfd 863f 6af1 713f
00000030: 24b2 7e3f d16c 853f 125d 813f cdcd 7b3f
00000040: 6352 813f f655 823f 325f 7e3f 30b8 833f
00000050: ffb5 813f 896b 853f 2867 823f f4c6 803f
00000060: d5fa 7f3f c92b 783f c72c 7f3f fdfd 783f
00000070: 025d 7c3f f5ed 7c3f 2173 703f 7257 813f
00000080: 44e4 803f 23de 7c3f 59cc 833f 6aaf 843f
00000090: f136 843f f073 7c3f 6366 7f3f acf1 813f
000000a0: 31fa 823f c50f 853f 60a3 873f b86b 7c3f
000000b0: bef0 813f 0a26 6b3f 947f 803f a9fb 7a3f
000000c0: f3dd 813f 82ea 833f 208a 7c3f 8088 813f
000000d0: ea80 7d3f 7eb4 7b3f 874c 823f cae4 853f
000000e0: 6867 7f3f 0ca0 823f 1167 7d3f 2322 7c3f
000000f0: 2051 773f f546 783f 8ea5 823f 66fe 7c3f
00000100: 1994 803f 0493 833f b801 843f 95b3 803f
00000110: 154b 813f 57f8 803f 7767 653f 011e 7b3f
00000120: efd7 7d3f 947d 823f 47a9 803f 5cec 803f
00000130: cdb7 813f bf01 803f dfd5 813f c0dd 7a3f
00000140: 4419 803f 68b2 8e3f 26c6 7d3f d39b 7c3f
00000150: 9c9c 883f 8d18 873f 469b 813f 7e32 7f3f
00000160: ebca 7a3f ec0c 853f 581f 7e3f 8a0c 803f
00000170: 169b 813f cf73 7f3f 94ef 773f 6bf9 7b3f
0.98403597 1.0499768 0.9845071 1.0065799 1.0076519 0.94504344 0.9424642 0.9874457
1.0049601 0.9616261 1.0546013 0.94508994 0.9949057 1.0423833 1.0106528 0.983609
1.0103267 1.0182483 0.99364007 1.0290585 1.0133666 1.0423442 1.0187731 1.0060716
0.99992114 0.9694181 0.996777 0.97262555 0.9857942 0.98800594 0.9392567 1.0104811
1.0069661 0.98776454 1.0296737 1.0366032 1.0329267 0.98614407 0.99765605 1.0151877
1.0232602 1.0395437 1.0596733 0.98601866 1.0151594 0.9185492 1.0038934 0.9804025
1.0145859 1.0305941 0.9864826 1.0119781 0.9902483 0.98322284 1.0179604 1.0460446
0.9976716 1.0205092 0.9898539 0.9848959 0.9660816 0.9698327 1.0206773 0.9882568
1.0045196 1.0279241 1.0313025 1.0054804 1.0101038 1.0075787 0.89611 0.9809266
0.99157614 1.0194573 1.0051659 1.0072131 1.0134217 1.0000533 1.0143393 0.97994614
1.000771 1.1148195 0.99130476 0.9867527 1.0672793 1.0554367 1.0125511 0.9968642
0.9796588 1.0394568 0.99266577 1.0003827 1.0125453 0.99786085 0.9684994 0.98427457
