trained_model/BiSegNet(ReagentV2)_step.pt (torch, 591169 bytes, 152 tensors)

weight f4 [8, 1, 3, 3]
0	0x3e79928d	0.24372311
1	0xbe4efcc8	-0.20213616
2	0x3e488ba8	0.19584525
3	0x3c9ddeb7	0.019271238
4	0x3e83d6ee	0.25749916
5	0x3e2ea5c2	0.17055419
6	0x3e4e5641	0.20150091
7	0xbe221058	-0.15826547
8	0xbdfc3a74	-0.123158365
9	0xbe0b6140	-0.13611317
10	0xbe7d2b4b	-0.24723546
11	0x3dbd05de	0.09229635
12	0xbd23484d	-0.039863873
13	0xbd8b0b2f	-0.067892425
14	0x3e02f68b	0.12789361
15	0x3ddb4d66	0.10708122
16	0x3e0ebcfc	0.1393928
17	0xbd843fd7	-0.06457489
18	0x3d58819c	0.05285798
19	0x3e50e9a8	0.20401633
20	0xbddb7e74	-0.107174784
21	0x3e364df5	0.17803176
22	0x3df44230	0.11926687
23	0x3e046329	0.12928452
24	0xbd69c0a3	-0.05706848
25	0x3bdf2d27	0.0068108025
26	0xbe9dae8c	-0.3079723
27	0xbd280e2d	-0.041029144
28	0x3e7b6cbe	0.245532
29	0xbe27a4b2	-0.1637142
30	0xbd6956e6	-0.05696764
31	0xbe786cfe	-0.24260327
32	0x3de7fa8e	0.113270864
33	0xbe16c98a	-0.14725319
34	0xbdf9e253	-0.12201371
35	0x3e7c2d44	0.24626642
36	0xbc867904	-0.016415127
37	0x3e1fe6bf	0.15615366
38	0x3e1270b1	0.14300801
39	0x3e582799	0.21108855
40	0x3dba47dd	0.09095738
41	0xbe68e7c6	-0.22744665
42	0x3e6b776b	0.22994773
43	0x3e073fee	0.13207981
44	0xbe0dba33	-0.1384056
45	0x3dcdb716	0.100446865
46	0xbe2b1cc9	-0.167102
47	0xbe3b4b9b	-0.1829056
48	0xbe39868c	-0.18117732
49	0x3d0d5538	0.0345051
50	0xbe1e1ad1	-0.15439917
51	0xbd808dee	-0.06277071
52	0x3e5fd491	0.21858431
53	0xbe224ea2	-0.15850309
54	0x3e150569	0.14552845
55	0xbe71606d	-0.2357194
56	0x3e89a4b7	0.2688348
57	0x3e95ea65	0.2928039
58	0x3b5613de	0.003266565
59	0xbe2dc959	-0.1697134
60	0x3dedab96	0.11604993
61	0xbe1da110	-0.15393472
62	0x3e54ec02	0.20793155
63	0xbe48508e	-0.19561979
64	0xbe20cef7	-0.15703951
65	0x3d051df9	0.032499287
66	0x3e7d86fa	0.2475852
67	0x3e00d636	0.12581715
68	0xbe1dd90e	-0.15414831
69	0xbe30716b	-0.17230766
70	0x3e32205a	0.17395154
71	0x3e3f0d90	0.18657517

weight f4 [8]
0	0x3f81d068	1.0141726
1	0x3f80255a	1.0011399
2	0x3f7c60d1	0.9858523
3	0x3f84a0c7	1.0361565
4	0x3f83f4db	1.0309099
5	0x3f828da4	1.0199475
6	0x3f7229d8	0.945951
7	0x3f65b9c5	0.89736587

bias f4 [8]
0	0x3cdc8802	0.026920322
1	0xbc1f165a	-0.009709919
2	0x3d511ee6	0.051054858
3	0x3b8927f8	0.004185673
4	0x3d06716d	0.032823015
5	0x3d1b91ac	0.03798072
6	0x3d134f8d	0.035964537
7	0xbc6f7dfd	-0.01461744

running_mean f4 [8]
0	0x42da59d1	109.17542
1	0xc17cf2ec	-15.809307
2	0x421cd013	39.203197
3	0xc1f3d54e	-30.479153
4	0x42d1ddb5	104.93302
5	0xc2c7bee5	-99.87284
6	0x42ab9c02	85.8047
7	0x4180981d	16.074274

running_var f4 [8]
0	0x44aadef3	1366.9672
1	0x428ad5d7	69.417656
2	0x4373d7e0	243.84326
3	0x42f4c759	122.38935
4	0x44a0bb70	1285.8574
5	0x448f1c18	1144.8779
6	0x444ce7a1	819.6192
7	0x4283f41a	65.97676

weight f4 [48, 8, 1, 1]
0	0xbe7ac98d	-0.24490948
1	0xbe3785f2	-0.1792219
2	0xbe48561a	-0.19564095
3	0xbe24b768	-0.16085589
4	0xbdeab624	-0.11460522
5	0x3dc1b916	0.094591305
6	0xbe89c11d	-0.26905146
7	0xbd856a28	-0.06514388
8	0x3e13da5d	0.14438768
9	0xbe47dc6d	-0.1951768
10	0x3e000a66	0.12503967
11	0x3e4f09f2	0.20218638
12	0xbe0d5db1	-0.13805272
13	0xbd4a81c4	-0.04944016
14	0xbe45eac7	-0.19327842
15	0xbe5901a1	-0.21192028
16	0x3d91ec82	0.071251884
17	0xbe75beef	-0.23998617
18	0x3eaef7d0	0.3417344
19	0x3d7d4a82	0.061838634
20	0xbe46fed4	-0.19433147
21	0x3db9b740	0.09068155
22	0xbe622770	-0.22085357
23	0xbe6a93f8	-0.22908008
24	0xbe919902	-0.28437048
25	0xbcf8cb67	-0.030370427
26	0x3eae0f13	0.33995876
27	0x3dcedb70	0.10100448
28	0xbe777fe7	-0.24169885
29	0x3e5d3a4c	0.2160427
30	0xbea08c58	-0.31357074
31	0x3d8a9702	0.06767084
32	0x3e44756b	0.19185416
33	0x3c0caa37	0.008585504
34	0xbe48b3ce	-0.1959984
35	0xbe6143d9	-0.21998538
36	0xbe946a0b	-0.28987154
37	0x3eaa427b	0.33253846
38	0x3e159228	0.14606535
39	0x3e5c0665	0.21486814
40	0xbdb5a29b	-0.08868905
41	0x3e29d92d	0.16586752
42	0xbc25b5b0	-0.010114118
43	0x3e972a8f	0.29524657
44	0x3e9b9872	0.30389744
45	0x3e2ccf29	0.168759
46	0x3e868cbe	0.26279253
47	0xbdb25a3f	-0.08708619
48	0xbe41b6a8	-0.18917334
49	0xbe524709	-0.2053491
50	0x3e98aff8	0.29821754
51	0xbe876b59	-0.26449087
52	0x3e23d717	0.16000019
53	0xbe9244e6	-0.2856819
54	0xbe869b24	-0.26290238
55	0xbda0e881	-0.078568466
56	0xbe725c8b	-0.23668115
57	0x3dea5d98	0.11443633
58	0xbe2c52ba	-0.16828433
59	0x3e8f9da8	0.2804997
60	0xbe1ceb1e	-0.15324065
61	0x3dba89f0	0.09108341
62	0xbd647d04	-0.055783287
63	0x3e671cbc	0.22569555
64	0xbe49038c	-0.1963026
65	0x3e8e765c	0.27824676
66	0x3e219336	0.15778813
67	0xbebd9a57	-0.37031814
68	0xbe78d730	-0.24300838
69	0xbdfc1a0c	-0.123096555
70	0xbe2b84b7	-0.16749845
71	0xbcbb42da	-0.022859026
72	0xbe199ba7	-0.15000783
73	0x3e2b4a25	0.16727503
74	0x3ea5a182	0.32349783
75	0x3e0cac37	0.1373757
76	0xbd65448f	-0.055973586
77	0x3da41b99	0.08013076
78	0xbe93ebe7	-0.28890917
79	0x3e5e0937	0.21683203
80	0xbe506e27	-0.2035452
81	0x3d41bfc9	0.04730204
82	0x3da01aca	0.078176096
83	0xbd7d9188	-0.061906368
84	0xbc50f391	-0.012753383
85	0xbe4e3883	-0.20138745
86	0xbe5445fd	-0.20729823
87	0x3d8b3fda	0.06799288
88	0x3e919a16	0.2843787
89	0xbdbea51b	-0.09308835
90	0x3e804476	0.25052232
91	0xbe08f293	-0.13373785
92	0xbd8e0583	-0.06934645
93	0x3bb9db88	0.005671922
94	0x3e1476b6	0.1449841
95	0x3e566f60	0.20940924
96	0x3e9aa584	0.30204403
97	0xbe853ee8	-0.26024556
98	0xbdcb004c	-0.09912166
99	0x3ddba46c	0.1072472
100	0x3ea3ffcc	0.32031095
101	0xbe5a2619	-0.21303596
102	0xbe7e76ad	-0.24849959
103	0xbe92216e	-0.2854113
104	0x3e83ec8f	0.25766417
105	0x3d701ef6	0.058623277
106	0xbe954075	-0.2915074
107	0xbd6653cf	-0.05623227
108	0xbe23b163	-0.15985636
109	0x3e9b0a11	0.30281118
110	0x3d9ba668	0.07600099
111	0x3e9ce55e	0.30643743
112	0x3d8dd746	0.06925826
113	0xbdc52fd7	-0.09628265
114	0xbe98e048	-0.29858613
115	0x3e9498f2	0.29022938
116	0xbe8e0006	-0.27734393
117	0x3cf401a7	0.029785944
118	0xbceed571	-0.029154511
119	0xbe997afe	-0.29976648
120	0xbe1199d9	-0.14218844
121	0x3e2a2ce1	0.16618682
122	0xbe932047	-0.28735563
123	0xbd6ba06d	-0.05752604
124	0x3d261d70	0.040555418
125	0xbe25513c	-0.1614427
126	0xbe810048	-0.25195527
127	0x3e9fbd79	0.31199244
128	0xbe1bacc4	-0.15202624
129	0xbe87ab81	-0.26498035
130	0x3d7037d4	0.05864699
131	0x3de620d7	0.112367325
132	0x3d7c0c08	0.06153491
133	0xbdaba818	-0.08381671
134	0xbe8e27e0	-0.27764797
135	0xbdd6803a	-0.10473676
136	0x3dded028	0.108795464
137	0xbe4bc1b8	-0.19898117
138	0xbd9357ff	-0.07194518
139	0xbdc2a979	-0.095049806
140	0xbe94e113	-0.29077968
141	0x3eaa1f02	0.33226782
142	0x3dc32eaf	0.095303886
143	0xbb9fe4c6	-0.004879567
144	0xbe3e70b9	-0.18597688
145	0x3de23e6d	0.11047063
146	0x3e2a28c5	0.16617115
147	0x3e55aa2e	0.208657
148	0x3e5411c2	0.20709899
149	0xbe5e3f50	-0.2170384
150	0x3df3804f	0.11889707
151	0xbe973fdb	-0.29540905
152	0xbe4cf55d	-0.20015474
153	0xbd78246f	-0.06058162
154	0xbe88550d	-0.2662739
155	0x3e712084	0.2354756
156	0x3e2ab239	0.16669549
157	0x3e0413aa	0.12898126
158	0x3ea2a197	0.31763908
159	0x3e2fceaa	0.1716868
160	0x3e1a5546	0.15071592
161	0xbe9a31be	-0.30116075
162	0xbe598d4b	-0.21245305
163	0x3ea71a69	0.32637337
164	0x3d8cbe2b	0.06872209
165	0xbe65dc11	-0.2244723
166	0x3d84a347	0.06476455
167	0xbdf7e3e3	-0.12104013
168	0xbdabcc02	-0.08388521
169	0x3dacec8a	0.08443554
170	0xbe1efc7a	-0.15526
171	0xbe5d912a	-0.21637407
172	0xbda2a6dc	-0.07941982
173	0xbe1c9d31	-0.15294339
174	0x3e855c98	0.26047206
175	0xbe2ccaad	-0.1687419
176	0xbdc6b461	-0.09702373
177	0xbe83903b	-0.25695977
178	0x3e556554	0.20839435
179	0x3e6eb65f	0.23311757
180	0x3c9a4e6c	0.018836223
181	0x3e10206c	0.14074868
182	0xbe046de0	-0.12932539
183	0xbd3c11fb	-0.045915585
184	0x3d34ca31	0.044138137
185	0x3df8afed	0.1214293
186	0xbc1a6cad	-0.009425324
187	0x3e82a513	0.25516567
188	0xbe88ea8c	-0.26741445
189	0x3d81a676	0.06330578
190	0x3e7d3ba3	0.24729781
191	0x3e4f1fd7	0.2022699
192	0x3ea3ec78	0.3201635
193	0x3e4d8121	0.2006879
194	0x3e3b8b17	0.18314777
195	0x3e588d0b	0.21147554
196	0x3e5b8d68	0.21440661
197	0xbe498f2b	-0.1968352
198	0x3d2d68af	0.042336162
199	0x3ce3595a	0.027752567
200	0xbe986a0b	-0.29768404
201	0x3dd9872b	0.10621484
202	0x3e9e6c8d	0.30942193
203	0xbe85a6e2	-0.26103884
204	0xbdaaf9dd	-0.08348439
205	0xbe3d146d	-0.18464823
206	0x3e8fc70a	0.28081542
207	0xbea40017	-0.3203132
208	0x3e0444e9	0.12916912
209	0x3e00f3f2	0.12593058
210	0xbe796c6b	-0.24357764
211	0xbe5f4fa8	-0.2180773
212	0xbc217cf2	-0.009856449
213	0x3e23dce2	0.16002229
214	0x3e0898e7	0.13339578
215	0xbe895935	-0.26825872
216	0x3e9d1a2e	0.30684036
217	0x3dbb99ce	0.09160195
218	0x3e95fc2f	0.29293963
219	0xbe674566	-0.22585067
220	0xbe9f421c	-0.31105125
221	0xbcc9c706	-0.024631035
222	0x3e317723	0.17330603
223	0xbd399dd0	-0.045316517
224	0x3e54da74	0.20786458
225	0xbe769a88	-0.24082386
226	0xbe31b093	-0.17352514
227	0xbc0e412d	-0.008682531
228	0xbe103424	-0.1408239
229	0x3eabdbb3	0.33566055
230	0xbd2f1bc5	-0.042751092
231	0xbe80e947	-0.25177976
232	0x3e84bca8	0.25925183
233	0xbead5019	-0.33850172
234	0xbdc0a10e	-0.09405719
235	0xbda73ce7	-0.08165913
236	0xbc26e56c	-0.010186534
237	0x3e92ccac	0.28671777
238	0xbe376599	-0.1790985
239	0xbdb885ed	-0.09009919
240	0xbe39e823	-0.1815496
241	0xbc3a7b8c	-0.011381995
242	0x3e061e57	0.13097511
243	0xbe5a44a7	-0.21315251
244	0x3e4bbaa9	0.19895424
245	0xbe9698a3	-0.29413328
246	0x3e03e0f2	0.12878779
247	0xbe9b3232	-0.30311733
248	0xbe6ef897	-0.23337017
249	0xbe25ee9f	-0.16204308
250	0x3d6aa383	0.057284843
251	0x3e1cf6d9	0.1532854
252	0xbc1d4954	-0.009600002
253	0xbe0e5093	-0.13897924
254	0xbe610f9a	-0.21978608
255	0xbe1d3839	-0.15353478

weight f4 [48]
0	0x3f7a0a9c	0.9767244
1	0x3f7c3b3f	0.985279
2	0x3f7df7e6	0.9920639
3	0x3f794356	0.9736837
4	0x3f861f1e	1.0478246
5	0x3f7f55d0	0.99740314
6	0x3f791c0d	0.9730843
7	0x3f80b89d	1.005634
8	0x3f7464c0	0.9546623
9	0x3f81db52	1.0145056
10	0x3f6f03f8	0.9336543
11	0x3f8022a1	1.0010568
12	0x3f7901ad	0.9726818
13	0x3f7e5e53	0.9936268
14	0x3f7de6f5	0.9918054
15	0x3f80c753	1.0060829
16	0x3f8126b2	1.0089934
17	0x3f7e5f7e	0.9936446
18	0x3f787cdc	0.9706552
19	0x3f78f501	0.97248846
20	0x3f83cfcf	1.0297793
21	0x3f78052a	0.9688288
22	0x3f7bd4a8	0.9837136
23	0x3f80228a	1.001054
24	0x3f7ce7dd	0.98791295
25	0x3f7f280f	0.996705
26	0x3f705428	0.9387841
27	0x3f7709df	0.9649944
28	0x3f72ab45	0.94792587
29	0x3f806911	1.0032064
30	0x3f766e9c	0.96262527
31	0x3f80ea66	1.0071533
32	0x3f78cddc	0.97189116
33	0x3f7dd5c5	0.9915431
34	0x3f690c4f	0.91034406
35	0x3f792bcc	0.97332454
36	0x3f771983	0.965233
37	0x3f7705b4	0.9649308
38	0x3f7e847b	0.994209
39	0x3f78e1db	0.9721963
40	0x3f78c4cb	0.9717528
41	0x3f7eeddb	0.9958169
42	0x3f81aeb3	1.0131439
43	0x3f802f34	1.0014405
44	0x3f859b0f	1.0437945
45	0x3f8071a0	1.0034676
46	0x3f80eb65	1.0071837
47	0x3f7e107d	0.9924391

bias f4 [48]
0	0xbc347319	-0.01101377
1	0x3c74256e	0.014901502
2	0xbc4c4e81	-0.012469889
3	0x3c773670	0.0150886625
4	0x3ca389b9	0.019963132
5	0xbc9573b8	-0.018243656
6	0xbd1cd061	-0.038284663
7	0x3b1b160d	0.0023664266
8	0x3c907407	0.017633451
9	0xbb710c8d	-0.0036781162
10	0xbd5e2985	-0.054238815
11	0x3c426ed0	0.01186724
12	0xbb629857	-0.0034575665
13	0x3c0ff034	0.008785296
14	0x3c8c5be1	0.017133655
15	0x3c676a08	0.014124401
16	0xbbcb7f42	-0.0062102387
17	0xbbd1351f	-0.0063845064
18	0x3b58548c	0.0033009378
19	0xbcf4b706	-0.029872429
20	0xbb2f6c3e	-0.0026767398
21	0x3d2d05e6	0.042241953
22	0xbcd0a4a8	-0.02546914
23	0xbc8d9d55	-0.017286936
24	0x3cce129f	0.025155364
25	0x388d5bb8	6.740488e-05
26	0xbd05795a	-0.032586433
27	0x3d09a7cd	0.033607293
28	0xbd394456	-0.045231186
29	0x3c6c8521	0.014436037
30	0x3cf88536	0.030336957
31	0xbb2aed48	-0.0026081372
32	0x3cab8723	0.020938462
33	0x3c211747	0.00983221
34	0x3b6f75f0	0.0036538802
35	0xbc64ff3e	-0.01397687
36	0x3d115244	0.035478845
37	0xbcca232d	-0.024674976
38	0x3ba0c3f0	0.00490617
39	0x3c52efad	0.012874526
40	0xbd5008c9	-0.05078963
41	0x3c4c7ddf	0.012481182
42	0x3c7851ff	0.015156268
43	0x3c42ee79	0.011897677
44	0x3d1f6406	0.03891375
45	0x3bd76a11	0.0065739234
46	0xbbb20c5d	-0.0054336027
47	0xbc94bef9	-0.01815747

running_mean f4 [48]
0	0xbebc9f50	-0.36840296
1	0xbd98dbd8	-0.07463807
2	0xbd8d8530	-0.06910169
3	0xbd82bc09	-0.06383521
4	0x3d13d8ef	0.036095556
5	0x3eaefec3	0.34178743
6	0xbe7ffc57	-0.24998604
7	0xbc559db8	-0.013038091
8	0xbe7acb01	-0.24491502
9	0x3dd9822e	0.10620533
10	0xbe368bce	-0.17826769
11	0x3e40d577	0.1883143
12	0xbd8efa49	-0.06981332
13	0x3e00b055	0.12567265
14	0xbe364167	-0.17798387
15	0xbe3502da	-0.17676869
16	0xbe46877d	-0.19387622
17	0xbd0cb996	-0.034356676
18	0x3d87ab68	0.0662449
19	0x3e141f6d	0.14465113
20	0xbd662b66	-0.05619373
21	0xbe210465	-0.15724333
22	0x3d2608ad	0.040535618
23	0x3e38749b	0.18013231
24	0x3ea8ada4	0.32944977
25	0xbdf39464	-0.11893538
26	0xbd138ded	-0.036024023
27	0x3db7d2ae	0.08975731
28	0xbd839740	-0.06425333
29	0xbd4aabd4	-0.049480274
30	0xbe0f5434	-0.13996965
31	0xbe5d909c	-0.21637195
32	0xbea0e7ba	-0.31426793
33	0x3c88f281	0.016717197
34	0x3d23d714	0.040000036
35	0xbda3f4e0	-0.080056906
36	0x3e8e0511	0.2773824
37	0x3d85a25e	0.0652511
38	0x3ce2c023	0.027679509
39	0xbe9db36c	-0.3080095
40	0x3ed1cfa2	0.40978724
41	0x3e980440	0.29690742
42	0x3e0e312b	0.13885944
43	0x3e9fbc6c	0.31198442
44	0x3e8bbddb	0.27293286
45	0x3e0c58ac	0.137057
46	0x3e84a938	0.25910354
47	0x3d327d97	0.043576803

running_var f4 [48]
0	0x3d12af5c	0.035811767
1	0x3d4e201a	0.050323583
2	0x3d7e4657	0.0620788
3	0x3dfe3545	0.12412504
4	0x3d41a91b	0.047280412
5	0x3e59a780	0.21255302
6	0x3ecab040	0.39587593
7	0x3e863a78	0.26216483
8	0x3d98d8c9	0.074632235
9	0x3e136ad1	0.14396216
10	0x3cfae86d	0.030628407
11	0x3da057aa	0.078292206
12	0x3e37d9f1	0.17954232
13	0x3dea03eb	0.114265285
14	0x3e0836f1	0.13302208
15	0x3d8d2abf	0.06892919
16	0x3d5e34a0	0.054249406
17	0x3cd9ee8d	0.026603008
18	0x3ccf8e5e	0.02533644
19	0x3da1553e	0.07877587
20	0x3db70801	0.089370735
21	0x3d912970	0.07087982
22	0x3d73ac55	0.05949052
23	0x3e18504f	0.14874385
24	0x3d08df8c	0.033416316
25	0x3e013f12	0.12621716
26	0x3c0809c0	0.008303106
27	0x3d59a10f	0.053132113
28	0x3d9c70cc	0.07638702
29	0x3d558620	0.052129865
30	0x3e832eda	0.25621682
31	0x3d197bff	0.037471768
32	0x3dfee83e	0.124466404
33	0x3e198118	0.14990652
34	0x3c981a8f	0.018567352
35	0x3d5829e3	0.05277432
36	0x3e5bdbbc	0.21470541
37	0x3d2642d5	0.04059108
38	0x3c4d6d43	0.012538257
39	0x3e312bf8	0.17301929
40	0x3e89ca71	0.26912263
41	0x3e13b6f9	0.14425267
42	0x3e44377c	0.1916179
43	0x3e928bc2	0.28622252
44	0x3d39dc0c	0.04537587
45	0x3d91eee2	0.071256414
46	0x3e1aae76	0.15105614
47	0x3cf00fd5	0.029304424

weight f4 [48, 1, 3, 3]
0	0x3dba924b	0.091099344
1	0xbc427757	-0.011869273
2	0x3deb478b	0.11488255
3	0x3d1a755b	0.037709575
4	0x3ddc08c2	0.10743858
5	0x3d660e3c	0.05616592
6	0xbcbf1518	-0.023325488
7	0xbd173524	-0.036915913
8	0xbdb395ef	-0.08768832
9	0xbdeb1d1b	-0.11480161
10	0xbda398d3	-0.07988133
11	0xbcae557f	-0.021281002
12	0x3d83347c	0.06406495
13	0x3dd6d7d9	0.104903884
14	0xbda2b799	-0.07945175
15	0x3bc850ce	0.0061131483
16	0xbcd21b4f	-0.025647787
17	0x3dad047c	0.08448121
18	0xbdbedd10	-0.09319508
19	0x3cb2bafd	0.021817679
20	0x3b1f7ce4	0.0024335915
21	0xbd8cc4f3	-0.068735026
22	0xbdd30d1f	-0.10305237
23	0x3d531275	0.051531274
24	0xbc9884db	-0.018618038
25	0x3df47cca	0.11937864
26	0x3cca9b53	0.024732267
27	0xbb78a224	-0.003793844
28	0xbdb9f490	-0.0907985
29	0xbdc884a4	-0.09790924
30	0xbde23cd1	-0.11046756
31	0xbd0331b7	-0.032029834
32	0xbd166803	-0.036720287
33	0x3d357f73	0.044311
34	0x3d9c23ac	0.07623991
35	0x3dabe73d	0.083937146
36	0x3d41b524	0.04729189
37	0x3d4962d1	0.049166504
38	0x3d0d3968	0.034478575
39	0xbca5fc69	-0.02026196
40	0xbd901179	-0.07034583
41	0xbcf7f8e5	-0.03027005
42	0x3d4898c0	0.0489738
43	0xbc901d03	-0.017591959
44	0xbdefac81	-0.117028244
45	0x3d299482	0.041401394
46	0xbda644b0	-0.0811857
47	0xba256ec4	-0.0006310756
48	0x3e12410c	0.14282626
49	0xbc7d4d95	-0.0154603915
50	0x3d18d6af	0.037314113
51	0x3da90a19	0.08253879
52	0xbd288e27	-0.041151192
53	0x3d193e4d	0.03741293
54	0xbc805e7d	-0.015670056
55	0xbd6dc884	-0.058052555
56	0xbd55efcb	-0.052230638
57	0x3db6d927	0.08928137
58	0xbdc58599	-0.09644622
59	0xbd02fe7e	-0.031980984
60	0xbd6d62eb	-0.057955664
61	0x3c29806a	0.010345558
62	0xbdad485d	-0.08461068
63	0x3ca227d3	0.01979438
64	0x3cedf6a0	0.029048264
65	0xbdeeab91	-0.116538174
66	0x3e0159e4	0.12631947
67	0xbd0897f0	-0.033348024
68	0x3d5705af	0.052495655
69	0x3d9e8d6c	0.07741818
70	0x3cb9dcc8	0.022688285
71	0x3d8e509a	0.06948967
72	0xbdd96ca8	-0.10616428
73	0x3d32240b	0.043491405
74	0x3da02303	0.07819178
75	0x3d3e76d4	0.046500042
76	0x3d8994d3	0.06717839
77	0x3dad4148	0.08459717
78	0x3df9dff8	0.12200922
79	0x3dbb783c	0.09153792
80	0xbd39aea5	-0.04533257
81	0xbdc6126a	-0.09671481
82	0xbd35bbc6	-0.044368528
83	0xbd4b5cbe	-0.049648993
84	0x3c5daf60	0.013530582
85	0xbd91989b	-0.07109185
86	0xbd88aa8d	-0.06673155
87	0x3e070201	0.13184358
88	0x3d486ef6	0.048933946
89	0x3d129e3a	0.035795428
90	0xbce2bfa7	-0.027679278
91	0x3d13ac49	0.036052976
92	0xb8078964	-3.2314463e-05
93	0x3dfc63ed	0.12323747
94	0xbbbc7a34	-0.0057518724
95	0x3dadeeb3	0.08492794
96	0xbb4d9373	-0.0031368404
97	0xbdbdd9f2	-0.092700854
98	0xbd1e00b5	-0.038574893
99	0xbd9ca29b	-0.07648202
100	0xbdc86178	-0.09784216
101	0xbd35ab17	-0.044352617
102	0x3dbd7397	0.09250563
103	0xbd19e1b8	-0.037568778
104	0xbd077edb	-0.033079963
105	0xbe01b7a8	-0.12667716
106	0xbddff990	-0.10936272
107	0xbd05fd7d	-0.03271245
108	0x3d93d11e	0.0721762
109	0xbd9b543d	-0.075844266
110	0xbd45fc4c	-0.048336312
111	0xbdc69c7f	-0.09697818
112	0xbddb9b68	-0.10723001
113	0x3d2bfe60	0.041990638
114	0x3d024aec	0.031809732
115	0x3db912cb	0.090367876
116	0xbc9b42d0	-0.018952757
117	0x3d7e8c57	0.062145557
118	0x3e186f8b	0.148863
119	0x3c5a6aec	0.013331156
120	0x3d227e14	0.03967102
121	0xbd69761c	-0.056997404
122	0xbba0567a	-0.0048931213
123	0x3bace57c	0.00527638
124	0x3d0e1a0c	0.03469281
125	0x3d4859da	0.048913814
126	0xbd2e5e32	-0.0425703
127	0xbd8cf499	-0.06882591
128	0x3d9a3fee	0.07531725
129	0xbdb76396	-0.089545414
130	0xbd7cc615	-0.061712343
131	0xbd8bc703	-0.06825068
132	0x3ca07aff	0.0195899
133	0xbdcd5809	-0.10026557
134	0x3d740d66	0.05958309
135	0x3daa04b6	0.0830168
136	0xbdc0442d	-0.093880035
137	0x3d6c00a1	0.057617787
138	0xbd0f2223	-0.034944665
139	0x3d3a90f7	0.045548405
140	0xbd60aa1e	-0.054849736
141	0xbd302700	-0.043005943
142	0x3c85bbf6	0.016324978
143	0x3d9bdad6	0.07610099
144	0xbd941b50	-0.07231772
145	0x3d73333d	0.059375037
146	0x3c0027e6	0.0078220125
147	0xbce3888a	-0.027775068
148	0x3d968e4d	0.073513605
149	0xbd4e721f	-0.050401803
150	0x3dca3a6b	0.098744236
151	0x3d897d48	0.067133486
152	0x3db65cca	0.08904417
153	0x3d30a0ab	0.043121975
154	0xbccebfd1	-0.02523795
155	0x3c81bebc	0.01583802
156	0x3d4c1b46	0.049830697
157	0xbd0f3986	-0.034966968
158	0x3de31c3d	0.110893704
159	0x3e061196	0.13092646
160	0xbdd4a5a4	-0.10383156
161	0xbd864236	-0.065555975
162	0xbdf1a211	-0.1179849
163	0x3b037f92	0.0020065052
164	0x3d9a107b	0.07522675
165	0x3c386ce4	0.01125643
166	0x3dbafaa2	0.09129836
167	0xbc859c89	-0.016309993
168	0x3db75f2f	0.08953702
169	0x3d718f9d	0.05897485
170	0x3c81d402	0.015848164
171	0xbd863df4	-0.06554785
172	0x3c3ecfc8	0.011646219
173	0xbcb499bf	-0.022045968
174	0x3d96d0e9	0.07364065
175	0x3d754b02	0.059885986
176	0xbd115e5e	-0.035490386
177	0x3d8bc493	0.06824603
178	0x3dcdad94	0.10042873
179	0xbc95a3ee	-0.018266644
180	0x3d20ff88	0.039306194
181	0xbd01d5e4	-0.031698123
182	0x3d8056f0	0.06266582
183	0x3cd4cfcb	0.02597799
184	0xbbd7c19d	-0.00658436
185	0xbdacb139	-0.0843224
186	0xbd105945	-0.035241384
187	0x3cb6b1ce	0.02230158
188	0x3cd02dae	0.025412407
189	0x3d237c88	0.039913684
190	0xbd8cadc0	-0.06869078
191	0xbd9d4586	-0.07679276
192	0x3d25901c	0.040420637
193	0xbd8b1bd7	-0.067924194
194	0xbdd58ce0	-0.104272604
195	0x3d1ce5cb	0.038305085
196	0x3cc22b35	0.023702243
197	0xbca06b97	-0.019582553
198	0x3ba0784f	0.0048971544
199	0x3dde2dde	0.10848592
200	0xbd80f767	-0.06297188
201	0xbd35e330	-0.044406116
202	0xbd827933	-0.06370773
203	0xbd8716cd	-0.06596146
204	0xbd90bdec	-0.07067475
205	0xbd7074f6	-0.058705293
206	0xbdde7ff6	-0.1086425
207	0xbd6b5a8e	-0.057459407
208	0x3d3ec778	0.046576947
209	0xbdb68c24	-0.089134485
210	0xbbc32ac7	-0.005956027
211	0x3db6087b	0.08888336
212	0x3d1bb3ee	0.03801339
213	0xbdf2ef10	-0.11862004
214	0xbad50f0e	-0.0016255097
215	0xbc3d50cb	-0.011554907
216	0xbd6e4c6c	-0.05817835
217	0xbd62fd56	-0.05541738
218	0x3c5d5526	0.0135090705
219	0x3d881112	0.06643881
220	0xbd95acc6	-0.073083445
221	0x3cd2a255	0.025712172
222	0x3b913c7e	0.00443226
223	0xbd223bd5	-0.03960784
224	0xbd05a584	-0.03262855
225	0xbe03d810	-0.1287539
226	0x3d0f3aed	0.034968305
227	0xbd08eab4	-0.033426955
228	0xbde200c1	-0.110353
229	0x3d5f07fb	0.05445097
230	0x3d95970c	0.073042005
231	0xbdb7be3d	-0.08971832
232	0xbdd299f3	-0.1028327
233	0x3d942af7	0.072347574
234	0xbdbe3f47	-0.09289413
235	0xbe0c1053	-0.13678102
236	0xbd6d7caa	-0.057980217
237	0x3ca3b18e	0.019982126
238	0xbca2f2db	-0.019891193
239	0x3d27c301	0.040957455
240	0x3d9ebdcd	0.077510454
241	0xbd93e1dc	-0.07220814
242	0x3dd899b2	0.1057619
243	0xbb4dc568	-0.003139818
244	0xbb1fc151	-0.00243767
245	0x3c4f158b	0.012639414
246	0xbc96fce3	-0.018431133
247	0x3d959332	0.07303466
248	0xbba9dea0	-0.0051840097
249	0xbc5e453c	-0.013566311
250	0x3d949c53	0.07256379
251	0x3da6da52	0.0814711
252	0x3cb7b6f9	0.022426115
253	0x3d98199a	0.07426758
254	0x3b98f46f	0.0046678106
255	0x3c5d7bb9	0.013518267

weight f4 [48]
0	0x3f7e5a08	0.99356127
1	0x3f7e327c	0.99295783
2	0x3f7e7b1f	0.9940662
3	0x3f812f1c	1.0092502
4	0x3f809c02	1.004761
5	0x3f8462b6	1.0342624
6	0x3f81d203	1.0142215
7	0x3f7e5ac4	0.9935725
8	0x3f7ae115	0.979997
9	0x3f82d1cd	1.0220276
10	0x3f863e14	1.0487695
11	0x3f7ffd72	0.999961
12	0x3f7568ca	0.9586302
13	0x3f817ab6	1.0115573
14	0x3f7ccc33	0.98749083
15	0x3f7a15a0	0.9768925
16	0x3f8120b0	1.00881
17	0x3f7d6568	0.9898286
18	0x3f7a0fc5	0.9768031
19	0x3f853a84	1.0408483
20	0x3f826d10	1.0189533
21	0x3f8262d9	1.0186416
22	0x3f81b67a	1.0133812
23	0x3f808eda	1.0043595
24	0x3f7cc5f4	0.9873955
25	0x3f7e2dae	0.9928845
26	0x3f75e8d5	0.960584
27	0x3f7b488b	0.98157567
28	0x3f81dfdc	1.0146441
29	0x3f812166	1.0088317
30	0x3f80153e	1.0006483
31	0x3f7cca1e	0.98745906
32	0x3f7f6c1f	0.99774355
33	0x3f81ed7c	1.01506
34	0x3f787da7	0.9706673
35	0x3f776b96	0.9664854
36	0x3f7f9b65	0.9984649
37	0x3f83da08	1.0300913
38	0x3f7eeeaa	0.9958292
39	0x3f761762	0.9612943
40	0x3f840dbb	1.031669
41	0x3f7c7f58	0.9863181
42	0x3f80bcb7	1.0057591
43	0x3f805fba	1.0029213
44	0x3f80855d	1.0040699
45	0x3f80f986	1.0076149
46	0x3f7aee09	0.9801946
47	0x3f7cf3e1	0.9880963

bias f4 [48]
0	0xbc8fc78e	-0.01755121
1	0xbc80b040	-0.015709043
2	0xbd922cef	-0.07137477
3	0xbc63a63a	-0.013894612
4	0x3c6d2018	0.014472984
5	0x3d70ad12	0.058758803
6	0x3caf1cab	0.021375975
7	0xbb3c2857	-0.0028710568
8	0xbb8a1908	-0.0042144097
9	0xbc93c1a5	-0.018036673
10	0xbd5979b4	-0.05309458
11	0x3c4926c6	0.012277311
12	0xbc91ecd9	-0.017813133
13	0x3cc92d19	0.024557637
14	0xbc488169	-0.012237885
15	0xbc681941	-0.014166177
16	0xbcb4d0ec	-0.022072278
17	0xbcb6df6c	-0.022323333
18	0xbca489a6	-0.020085167
19	0x3d2cc6b1	0.042181674
20	0x3cc7f3cd	0.024408245
21	0xbbdf69d4	-0.0068180356
22	0x3ca5e7d4	0.020252146
23	0xbc35f756	-0.011106333
24	0xbc81d43e	-0.015848275
25	0xbc8362f6	-0.0160384
26	0xbca51a08	-0.020154014
27	0x3aecf663	0.00180788
28	0xbb55c559	-0.003261885
29	0xbccf2bb8	-0.025289401
30	0xbc94fe2f	-0.01818761
31	0xbc357f62	-0.011077734
32	0xba29f105	-0.0006482753
33	0xbac491a7	-0.0014997021
34	0x3ae928b9	0.0017788626
35	0xbcb27dee	-0.021788564
36	0xbc6b04e9	-0.014344432
37	0xbb09b08b	-0.0021009769
38	0x3ba1fbee	0.0049433624
39	0xbca7717d	-0.020439858
40	0xbc9ad2da	-0.01889937
41	0xbb6fe08d	-0.0036602349
42	0x3b8e08ed	0.00433456
43	0x3c8eabbe	0.017415877
44	0x3c2b7b81	0.010466457
45	0x3c38821c	0.011261489
46	0xba985693	-0.0011622481
47	0xbb08c5a5	-0.0020869758

running_mean f4 [48]
0	0x3da15471	0.07877434
1	0xbb4a1260	-0.0030833706
2	0xbbaec906	-0.0053340225
3	0xbd3d521e	-0.04622089
4	0xbcd61aef	-0.02613589
5	0x3d567e0c	0.0523663
6	0xbda5af1b	-0.08090039
7	0x3d9c78a6	0.07640199
8	0x3dd3d72b	0.103437744
9	0xbcf51e7a	-0.029921759
10	0x3c9f6607	0.01945783
11	0xbe2760a1	-0.16345455
12	0xbcf2039f	-0.029542742
13	0x3d87fb46	0.066397235
14	0xbda9d0df	-0.08291792
15	0x3bdc5d03	0.006724955
16	0x3d6ac274	0.05731435
17	0x3ce19e6c	0.027541362
18	0x3d1124ba	0.035435416
19	0x3d5f7bad	0.054561306
20	0x3b620ef9	0.0034493788
21	0xbd8b2b2f	-0.06795346
22	0xbdc4c5ab	-0.09608015
23	0xbc5dcc78	-0.013537519
24	0xbd404a8b	-0.04694609
25	0xbd94ee3b	-0.07272001
26	0xbcc3aa13	-0.023884809
27	0x3d883ec5	0.06652597
28	0x3d36e5d2	0.044652767
29	0x3c0f6040	0.008750975
30	0xbc958fde	-0.018257078
31	0xbcc8cffe	-0.02451324
32	0xbd6b343f	-0.057422873
33	0xbdadcb48	-0.084860384
34	0xbc374406	-0.011185652
35	0xbc1d42f8	-0.009598486
36	0xbb9b947a	-0.0047479244
37	0x3caa0db6	0.020758491
38	0x3e0149e2	0.1262584
39	0x3d95fa07	0.073230796
40	0x3be81ccf	0.0070835124
41	0xbb0c729c	-0.0021430617
42	0x3dbe1ef6	0.09283249
43	0x3cc86411	0.024461778
44	0xbdd00e2b	-0.10158952
45	0xbdb4846f	-0.08814322
46	0xbdc022ba	-0.093816236
47	0xbcf47e82	-0.02984548

running_var f4 [48]
0	0x3c9adfac	0.018905483
1	0x3a5f0d68	0.00085087726
2	0x3ba27bf6	0.004958625
3	0x3c9836bc	0.018580787
4	0x3ca50193	0.020142352
5	0x3cd8f519	0.02648406
6	0x3a9eb558	0.0012108488
7	0x3d3192e5	0.04335298
8	0x3ce5d7c0	0.02805698
9	0x3cbd4271	0.02310297
10	0x3b37216a	0.00279435
11	0x3caba489	0.02095248
12	0x39ac252f	0.000328341
13	0x3d1f2ffb	0.038864117
14	0x3d2903b4	0.041263297
15	0x3b1d4750	0.0023998804
16	0x3bba8ac2	0.0056928108
17	0x3c21719c	0.009853747
18	0x3c078688	0.008271821
19	0x3cc86ae0	0.024465024
20	0x3903fa9c	0.00012586493
21	0x3a8412c9	0.0010076399
22	0x3d88372b	0.066511475
23	0x3c408d52	0.011752443
24	0x3c2313c9	0.009953448
25	0x3b0ed033	0.0021791577
26	0x3bedc2bc	0.00725588
27	0x3b25d240	0.002530232
28	0x3c778257	0.015106759
29	0x3acf47ef	0.0015814285
30	0x3963e32c	0.00021733035
31	0x3b4c0a6a	0.0031134137
32	0x3b272206	0.0025502457
33	0x3d616570	0.05502838
34	0x3c933a97	0.017972274
35	0x3adde7a4	0.0016929996
36	0x3ba1b587	0.00493497
37	0x3b833600	0.00400424
38	0x3c1dfe86	0.009643203
39	0x3b18c9b9	0.0023313595
40	0x3b37333f	0.002795413
41	0x3aff11c0	0.0019460246
42	0x3d8ee02d	0.06976352
43	0x3c82f4dc	0.015985899
44	0x3cf4a450	0.029863507
45	0x3c1d647a	0.009606475
46	0x3bee76f9	0.0072773662
47	0x3cd4491f	0.025913773

weight f4 [16, 48, 1, 1]
0	0x3ca3d277	0.019997818
1	0xbd54c117	-0.051941957
2	0xbda84033	-0.0821537
3	0x3d818e63	0.06325986
4	0x3d84a6c1	0.06477118
5	0xbe52b251	-0.20575835
6	0xbe2157ff	-0.15756224
7	0x3d8ce6a8	0.06879932
8	0xbea64cb1	-0.32480386
9	0x3e8d4e98	0.27599025
10	0x3e0d4fa5	0.13799913
11	0x3defd74c	0.117109865
12	0x3e30971a	0.1724514
13	0x3e43b4ed	0.19111986
14	0x3e67cf69	0.22637714
15	0x3dd392d3	0.10330739
16	0x3e7085aa	0.23488489
17	0xbe7087a6	-0.23489246
18	0x3cb801b4	0.02246175
19	0xbea05414	-0.31314147
20	0x3e16c447	0.14723311
21	0xbd2a0a93	-0.04151399
22	0xbe7faa94	-0.24967414
23	0xbdd91718	-0.10600108
24	0xbe32e267	-0.17469178
25	0x3e63b50c	0.22237033
26	0xbd2cfb7d	-0.042232025
27	0x3e0f997a	0.1402339
28	0xbe845991	-0.25849584
29	0x3e8c8617	0.27446052
30	0x3e5e4be6	0.2170864
31	0xbe33ef9c	-0.17571872
32	0xbd23ddde	-0.04000651
33	0xbdae639a	-0.08515091
34	0x3d627f80	0.055297375
35	0xbe2711bf	-0.16315363
36	0xbe7073cc	-0.23481673
37	0x3d755360	0.059893966
38	0x3db29149	0.08719117
39	0xbe260e8b	-0.16216485
40	0xbe150031	-0.14550854
41	0x3e1daea3	0.1539865
42	0xbdeca755	-0.115553536
43	0x3e61cca2	0.22050717
44	0x3dc6d112	0.09707846
45	0x3ddd4f42	0.10806133
46	0x3dba980f	0.09111034
47	0x3d948359	0.07251615
48	0x3de94ab3	0.11391201
49	0x3df753cd	0.120765306
50	0xbd2995c8	-0.04140261
51	0xbe9a7047	-0.30163786
52	0x3df93d58	0.121699035
53	0x3d3e190b	0.0464106
54	0xbd048217	-0.032350626
55	0xbe0caf1a	-0.13738671
56	0x3c5dcf4c	0.013538193
57	0x3d5d671c	0.05405341
58	0xbea2d5ad	-0.31803647
59	0xbdb58bce	-0.08864556
60	0xbe666238	-0.22498405
61	0x3e8aef9b	0.2713593
62	0x3dea6513	0.114450596
63	0x3e965f43	0.29369554
64	0xbbbdcf97	-0.005792569
65	0x3e77210d	0.24133702
66	0xbe849436	-0.25894326
67	0x3d70f6e8	0.05882922
68	0xbd8860bd	-0.06659076
69	0x3d60cbf3	0.054882
70	0xbdecacf9	-0.115564294
71	0x3c725c08	0.01479245
72	0x3df4ef96	0.1195976
73	0xbddffb86	-0.10936646
74	0x3e475173	0.19464664
75	0xbe1b456d	-0.15163203
76	0x3e99740a	0.29971343
77	0xbe0c3c44	-0.13694865
78	0xbdd30939	-0.103044935
79	0xbd919a91	-0.07109559
80	0x3de29a53	0.11064591
81	0x3e7d1c5f	0.24717854
82	0x3e7783ab	0.24171321
83	0xbd7567a6	-0.0599133
84	0x3c464a0a	0.012102613
85	0xbd6c227f	-0.057650086
86	0xbd934c61	-0.071923025
87	0x3e232c50	0.15934873
88	0x3e509894	0.20370704
89	0x3e50d6b5	0.20394404
90	0x3e876bc6	0.26449412
91	0x3e597f42	0.21239951
92	0x3e0d03a5	0.13770922
93	0x3e6265bc	0.22109121
94	0xbc80afb5	-0.015708784
95	0x3e615a1a	0.22007027
96	0x3dac55e4	0.0841482
97	0x3e6a423a	0.22876826
98	0xbcea231a	-0.02858119
99	0x3e3934d4	0.18086559
100	0x3d913414	0.07090011
101	0x3e2ff826	0.17184505
102	0x3e8701af	0.26368472
103	0x3e8d5226	0.27601737
104	0x3e66677d	0.22500415
105	0xbde51f85	-0.111876525
106	0xbe3dac81	-0.18522836
107	0xbe7c9d4e	-0.24669382
108	0xbe2f4052	-0.1711438
109	0xbd738653	-0.059454273
110	0xbe7990a2	-0.2437158
111	0xbe272a62	-0.16324762
112	0xbe831e2f	-0.25608966
113	0x3d15b7e0	0.03655231
114	0x3e087b27	0.13328229
115	0xbe50084b	-0.20315664
116	0xbbee3874	-0.0072699133
117	0x3d37f998	0.044915766
118	0xbe8ce383	-0.27517328
119	0x3e98c774	0.2983967
120	0x3e4b4a5b	0.19852583
121	0xbe06c521	-0.13161136
122	0xbcc6621d	-0.024216706
123	0xbe5b4ff1	-0.21417214
124	0x3e81270b	0.252251
125	0xbe963fca	-0.29345542
126	0xbe14314f	-0.14471935
127	0x3e79d2c6	0.2439681
128	0xbe593568	-0.21211779
129	0xbc8b5bc2	-0.017011527
130	0xbde64a54	-0.11244646
131	0xbd2dd612	-0.04244048
132	0xbe94be42	-0.29051405
133	0x3e591d86	0.21202669
134	0xbe9f04a7	-0.31058237
135	0xbbac3f0d	-0.0052565397
136	0x3db99e47	0.09063392
137	0x3a5fa91d	0.0008531975
138	0xbd45b10a	-0.04826454
139	0x3e4dd4b8	0.20100677
140	0x3d94da9a	0.072682574
141	0x3e8a9db3	0.2707344
142	0x3e0c148f	0.13679717
143	0x3e0c09a0	0.13675547
144	0x3e8f79b8	0.28022552
145	0xbdab5f9d	-0.08367846
146	0xbe90b43d	-0.2826251
147	0xbe726e64	-0.23674923
148	0x3e0a172d	0.13485403
149	0xbe9af813	-0.3026739
150	0xbe023f05	-0.12719353
151	0xbdaca1d8	-0.08429307
152	0x3e6296ea	0.22127882
153	0xbce49578	-0.027903304
154	0x3e746015	0.23864777
155	0x3e7023cd	0.23451157
156	0x3e169c86	0.14708146
157	0xbc90b28c	-0.017663263
158	0xbc0141fa	-0.007889265
159	0x3d6cfd76	0.057858907
160	0xbe8c24d6	-0.27371854
161	0x3e977e26	0.2958843
162	0x3e7b11c1	0.24518491
163	0xbe3d9a46	-0.18515882
164	0x3bd705a8	0.0065619536
165	0xbd8ed825	-0.0697482
166	0xbe931cea	-0.28732997
167	0xbd46647e	-0.04843568
168	0x3d8b179b	0.06791612
169	0x3d161dec	0.03664963
170	0x3e5b76cb	0.21432035
171	0x3e618083	0.2202168
172	0x3e8d4a71	0.27595857
173	0xbde7d480	-0.11319828
174	0x3d120d29	0.03565708
175	0xbe713060	-0.2355361
176	0xbe0be9e1	-0.13663436
177	0xbeb18bd3	-0.3467699
178	0xbe967d5a	-0.2939251
179	0x3e2c3e1c	0.16820568
180	0xbe36de7f	-0.17858313
181	0xbc951d75	-0.018202523
182	0xbe8bd9ea	-0.27314693
183	0x3dabb0d2	0.08383335
184	0xbe3f6b0d	-0.1869318
185	0xbe5709a2	-0.20999768
186	0x3d2a6582	0.04160071
187	0xbdd4cdc9	-0.10390813
188	0x3e99bb60	0.30025768
189	0x3e6d0c97	0.23149334
190	0xbd3c09fa	-0.045907952
191	0xbe8505b5	-0.25980917
192	0xbe479ab3	-0.19492607
193	0x3e829f87	0.25512335
194	0x3e48894e	0.19583628
195	0xbd1c00dc	-0.038086757
196	0xbe8b1bd5	-0.27169672
197	0xbe7bc705	-0.24587639
198	0x3cb6ffbf	0.022338746
199	0xbdc704d1	-0.097177155
200	0x3da3cbcb	0.07997855
201	0x3e966e04	0.2938081
202	0x3e8b0ff9	0.27160624
203	0x3e3f62d2	0.1869004
204	0xbe89c376	-0.26906937
205	0x3e813d6a	0.25242168
206	0x3cb7c721	0.02243382
207	0x3d2ab650	0.041677773
208	0xbdca98b0	-0.09892404
209	0xbdae4c23	-0.08510616
210	0xbdc1c8e8	-0.09462148
211	0x3e219be1	0.1578212
212	0x3e9e0c4d	0.3086876
213	0x3d886d4b	0.06661471
214	0x3c82b9b0	0.015957683
215	0xbe2fd3ec	-0.17170686
216	0xbb34ed89	-0.0027607402
217	0x3e3a8e29	0.18218292
218	0x3d8a1550	0.06742346
219	0xbe28d385	-0.16486938
220	0x3d7628de	0.060097568
221	0x3ddc1c43	0.10747578
222	0xbdf4c016	-0.119507
223	0x3e8fcfff	0.28088376
224	0xbd14e104	-0.036347404
225	0xbc058871	-0.008150206
226	0xbdc520da	-0.096254066
227	0xbe70c3d4	-0.23512203
228	0xbde81644	-0.11332372
229	0x3e3c91c4	0.1841498
230	0x3e80f484	0.2518655
231	0xbd2f8b2c	-0.042857334
232	0xbe82c56c	-0.25541246
233	0xbe5b1c0d	-0.2139742
234	0x3d6c8407	0.0577431
235	0xbd7fe1d3	-0.062471222
236	0x3e0a064c	0.13478965
237	0x3e8cea4b	0.275225
238	0xbe35bfdc	-0.1774897
239	0xbe0d7e3a	-0.13817683
240	0xbdea6d20	-0.11446595
241	0xbd9a5711	-0.07536138
242	0xbe8d5ec1	-0.27611354
243	0x3da17506	0.078836486
244	0x3e57ba54	0.21067172
245	0xbc552480	-0.013009191
246	0xbca3cd16	-0.019995254
247	0x3da290ef	0.079378
248	0x3e9bcf2d	0.304315
249	0xbd83aff5	-0.064300455
250	0x3dc2c986	0.09511094
251	0x3e9bac77	0.30405018
252	0xbe3034b8	-0.1720761
253	0x3c438bdb	0.0119352
254	0x3e97751f	0.29581544
255	0x3e92a32f	0.28640124

weight f4 [16]
0	0x3f7bdef1	0.98387057
1	0x3f82b837	1.0212468
2	0x3f80cc3d	1.0062329
3	0x3f7ec1ec	0.9951465
4	0x3f820cd1	1.0160161
5	0x3f7d4e28	0.9894738
6	0x3f788b13	0.9708721
7	0x3f7e7970	0.9940405
8	0x3f7898f7	0.97108406
9	0x3f7d116b	0.988547
10	0x3f79d265	0.9758666
11	0x3f7a0cb7	0.9767565
12	0x3f7d252a	0.9888483
13	0x3f804f36	1.0024173
14	0x3f7b5700	0.98179626
15	0x3f8074cd	1.0035645

bias f4 [16]
0	0xb9936fb7	-0.0002812126
1	0xba56b861	-0.0008190927
2	0xba8d2100	-0.0010767281
3	0xb9593091	-0.00020712825
4	0x38493c2f	4.7978185e-05
5	0xb89cb98e	-7.473222e-05
6	0xbafffe9c	-0.0019530836
7	0x3af65792	0.0018794409
8	0x3a8a84b1	0.001056811
9	0x3a451caf	0.0007519228
10	0x3aed2b8b	0.0018094642
11	0xb9a09230	-0.00030626496
12	0xb6256c8a	-2.4650094e-06
13	0xba1ea51e	-0.0006051826
14	0x39201800	0.0001526773
15	0xb8ea1520	-0.00011161924

running_mean f4 [16]
0	0x3de2842f	0.11060368
1	0x3eedf4cd	0.4647583
2	0xbd8c782f	-0.06858861
3	0xbdf9e92b	-0.122026764
4	0x3e41c986	0.18924531
5	0x3eb8363d	0.3597888
6	0xbe974007	-0.29541036
7	0xbdb09967	-0.08623009
8	0x3f0141fd	0.50491315
9	0x3ed64e9d	0.41856852
10	0x3f20fade	0.6288279
11	0x3ee7d626	0.4528057
12	0xbf09abd5	-0.5377782
13	0x3ec63a94	0.38716567
14	0x3e627ad7	0.22117172
15	0x3dca06a7	0.0986455

running_var f4 [16]
0	0x3f3501ce	0.7070588
1	0x3fa80084	1.3125157
2	0x3f6674d2	0.90022004
3	0x3f1dcec7	0.6164364
4	0x3e68234f	0.22669719
5	0x3f868f34	1.0512452
6	0x3f54c74c	0.831166
7	0x3f171f79	0.590324
8	0x3fc5c983	1.5452121
9	0x3f90a3df	1.130001
10	0x3ff559e9	1.9168063
11	0x3f305288	0.6887593
12	0x3ef01a0a	0.46894866
13	0x3f55e5e9	0.8355394
14	0x3f2b4e5f	0.6691646
15	0x3f3dc0e5	0.7412246

weight f4 [96, 16, 1, 1]
0	0x3dafccd9	0.085839935
1	0x3c5c6304	0.013451342
2	0xbe38ad3b	-0.18034832
3	0x3d9962e3	0.07489564
4	0xbe529830	-0.20565867
5	0xbe3f86d5	-0.18703778
6	0xbe28d1d2	-0.1648629
7	0xbe51a185	-0.20471771
8	0x3e1e891f	0.15481995
9	0x3d92f31e	0.07175277
10	0x3df9370d	0.12168703
11	0xbbc8df76	-0.0061301542
12	0xbb3bc5de	-0.0028651874
13	0x3da28fca	0.07937582
14	0x3dbaded2	0.09124531
15	0xbdf7c3b7	-0.120978765
16	0xbd12560d	-0.035726596
17	0xbe18ac15	-0.14909394
18	0x3d469c64	0.04848899
19	0x3b634d1d	0.0034683414
20	0xbd7afdee	-0.061277322
21	0x3e18fed3	0.14940958
22	0xbd91956a	-0.071085766
23	0xbe6daef0	-0.23211265
24	0xbb883d4a	-0.004157697
25	0x3e3b6dc4	0.18303591
26	0x3e2d7a45	0.16941173
27	0x3b9754a8	0.004618246
28	0xbdd84631	-0.10560263
29	0x3df0cf25	0.1175826
30	0x3e45f8b1	0.1933315
31	0x3e0652a8	0.13117468
32	0x3e15a164	0.14612347
33	0xbdcccc7c	-0.0999994
34	0x3e1ce865	0.15323026
35	0xbe437292	-0.19086674
36	0xbe30fb9f	-0.17283486
37	0x3e07445b	0.1320967
38	0x3e53aeaa	0.20672098
39	0xbe2697ca	-0.1626884
40	0x3e222014	0.1583255
41	0x3e5e53b7	0.21711622
42	0x3c0fa0fe	0.008766411
43	0xbe25ba5f	-0.16184376
44	0x3dd0a598	0.101878345
45	0xbe507a80	-0.2035923
46	0x3e57595b	0.2103018
47	0xbe4820c2	-0.19543746
48	0xbe17a5ac	-0.14809293
49	0xbcc471b5	-0.023980001
50	0xbe48cbb3	-0.19608955
51	0x3e2f0667	0.17092286
52	0x3d75c8da	0.060006
53	0xbe5566e5	-0.20840032
54	0xbe38f378	-0.18061626
55	0x3e6c31ec	0.23065919
56	0xbd497e9f	-0.04919302
57	0xbdd32995	-0.103106655
58	0xbd84be6e	-0.06481634
59	0xbdeeb161	-0.11654926
60	0x3e248aee	0.16068622
61	0xbbecc712	-0.0072258795
62	0x3dd1ff42	0.10253765
63	0xbdc1a6f8	-0.09455675
64	0xbdac94b6	-0.08426802
65	0x3c206dca	0.009791801
66	0x3e2ada24	0.16684777
67	0x3dec9fcd	0.11553917
68	0xbda725aa	-0.08161481
69	0x3e5c6558	0.21523035
70	0xbd8bd091	-0.0682689
71	0xbd35c627	-0.044378426
72	0xbe3a899b	-0.18216555
73	0x3dfced70	0.12349975
74	0xbcc1c5fc	-0.023653977
75	0xbccce4eb	-0.0250115
76	0x3dfbadd3	0.12289014
77	0x3e3ecd0c	0.18632907
78	0x3b982c1e	0.004643931
79	0xbdf54c3e	-0.11977433
80	0x3e5a4c1e	0.21318099
81	0x3d974449	0.07386071
82	0x3cfcb8c2	0.030849818
83	0x3e62cd06	0.22148523
84	0xbcc1c658	-0.023654148
85	0xbe4d3146	-0.20038328
86	0xbe4c164c	-0.1993038
87	0xbe1e327d	-0.15448947
88	0x3df4a776	0.11946003
89	0xbcb7db29	-0.02244337
90	0x3d366779	0.044532273
91	0xbe039fbe	-0.12853906
92	0x3de36a3c	0.11104247
93	0x3e819505	0.25309005
94	0x3e195c22	0.14976552
95	0xbe495cb4	-0.1966427
96	0xbe243c52	-0.16038635
97	0xbb30e731	-0.002699327
98	0xbcba532c	-0.022744738
99	0xbb978440	-0.0046239197
100	0x3de5ca3a	0.11220212
101	0x3de77cde	0.113031134
102	0xbde58c81	-0.112084396
103	0xbd0cb087	-0.034348037
104	0xbda111d9	-0.07864732
105	0x3e2f44a8	0.17116034
106	0x3e588deb	0.21147887
107	0xbe03c21f	-0.1286702
108	0xbe042b9d	-0.12907262
109	0x3e5dd408	0.21662915
110	0xbe28a9d1	-0.1647103
111	0x3e06446c	0.13112038
112	0xbe543e5d	-0.20726915
113	0x3e321492	0.1739066
114	0x3e53fa9b	0.20701067
115	0xbc03ac32	-0.00803666
116	0x3e7a2e9a	0.2443184
117	0xbe5d329f	-0.21601342
118	0x3d51db00	0.051234245
119	0xbe39bcce	-0.1813843
120	0xbe09d59a	-0.13460389
121	0xbc203a27	-0.00977949
122	0xbd8f2729	-0.06989891
123	0x3e5c557b	0.21516983
124	0xbe44b66d	-0.19210215
125	0x3de6c7bd	0.11268566
126	0xbd53c4df	-0.051701423
127	0x3e0fb980	0.14035606
128	0x3d76abb1	0.06022233
129	0xbe274403	-0.16334538
130	0x3e63b58e	0.22237226
131	0x3e2aeb2a	0.1669127
132	0x3d9af85d	0.07566903
133	0x3dc8c2e4	0.098027974
134	0x3d43aa25	0.047769684
135	0x3dca8287	0.09888177
136	0xbdbe683f	-0.09297227
137	0x3d99e134	0.07513657
138	0x3c966b61	0.01836175
139	0xbda26bdb	-0.07930728
140	0xbd6a716c	-0.057237074
141	0xbda09c3b	-0.078422986
142	0xbde8ab4c	-0.11360797
143	0x3cd72d7e	0.02626681
144	0xbd87596f	-0.06608855
145	0xbc41c84f	-0.011827542
146	0xbe2f14c4	-0.17097765
147	0x3e0211e2	0.12702134
148	0xbdac9226	-0.08426313
149	0xbe0cc971	-0.13748719
150	0xbd5098dd	-0.05092703
151	0xbd9ccef3	-0.0765666
152	0x3e5606a4	0.2090097
153	0x3d1f3087	0.03886464
154	0x3e0418be	0.12900063
155	0xbe256941	-0.16153432
156	0xbe2c989d	-0.16855092
157	0x3e3ba0c5	0.18323047
158	0xbe001208	-0.12506878
159	0x3debc4b4	0.115121275
160	0xbdb4baba	-0.08824678
161	0xbda9659f	-0.08271336
162	0x3e2fb728	0.17159712
163	0xbd6812ad	-0.056658436
164	0x3d712330	0.058871448
165	0xbe12c7a2	-0.14333966
166	0x3d51aaf2	0.051188417
167	0xbdf7668f	-0.120801084
168	0x3e4b2c5a	0.19841138
169	0xbe4d5cc7	-0.20054923
170	0x3e227efc	0.15868753
171	0x3c992709	0.018695371
172	0xbe2c32cb	-0.16816251
173	0x3d0ca41a	0.034336187
174	0xbe5af8cb	-0.2138397
175	0xbd9e7cc7	-0.07738643
176	0xbd92511d	-0.071443774
177	0xbe4028b5	-0.18765529
178	0xbe5dd162	-0.21661904
179	0x3d78f014	0.06077583
180	0xbdc2eae8	-0.09517461
181	0x3bc23a4f	0.005927361
182	0x3cddbae1	0.02706665
183	0xbe1f3010	-0.15545678
184	0x3d328d88	0.043592006
185	0xbdbff3b0	-0.093726516
186	0xbcc900f2	-0.024536584
187	0x3e11fdf7	0.14257036
188	0x3e6b77fc	0.22994989
189	0xbd15e366	-0.036593817
190	0x3d234113	0.03985698
191	0x3e14b96c	0.14523858
192	0xbdc44275	-0.09582988
193	0xbde72b6b	-0.11287578
194	0x3dcd3986	0.10020737
195	0xbddfb41e	-0.109230265
196	0xbe5ee2d2	-0.21766213
197	0xbe1eb570	-0.154989
198	0x3c2daf8b	0.010600935
199	0xbc723000	-0.014781952
200	0xbd712d3b	-0.058881026
201	0x3d6edbbe	0.05831503
202	0x3e000c9a	0.12504807
203	0xbb86641e	-0.0041012904
204	0xbe024ba9	-0.12724175
205	0xbdb4c6d6	-0.088269874
206	0x3e2856d6	0.16439375
207	0x3e38da26	0.18051967
208	0x3dbc070d	0.09181032
209	0x3ce3f378	0.027826056
210	0x3dca3d0c	0.09874925
211	0xbdcb03e1	-0.09912849
212	0x3ddb18b6	0.106980726
213	0xbe6efdab	-0.23338954
214	0xbd3f07d6	-0.046638332
215	0x3dd40093	0.10351672
216	0x3e2f4a9a	0.17118302
217	0x3d42a12c	0.047516987
218	0xbdfd5b50	-0.12370932
219	0xbe534a47	-0.20633803
220	0xbdec3d70	-0.11535156
221	0x3d161a78	0.036646336
222	0xbe0034d1	-0.12520148
223	0x3a284dff	0.0006420314
224	0x3c8e9912	0.017406974
225	0xbd820eea	-0.06350501
226	0xbd6d41db	-0.057924133
227	0x3de706df	0.112806074
228	0x3e0dfc49	0.1386577
229	0xbc43c9ba	-0.011949951
230	0xbe4b84ac	-0.19874829
231	0xbdff70d0	-0.12472689
232	0xbb78de99	-0.0037974475
233	0xbc23e9c3	-0.010004464
234	0x3e3e7a0d	0.18601246
235	0xbdf9b111	-0.12191976
236	0xbe0d61da	-0.13806859
237	0xbb1d6841	-0.002401844
238	0xbda5f4af	-0.0810331
239	0xbe46aeed	-0.19402666
240	0xbdc0cad0	-0.094136834
241	0x3d83fbdc	0.06444523
242	0x3e71d05e	0.23614642
243	0x3e40f853	0.18844728
244	0x3e7d0cef	0.24711965
245	0x3e5d5762	0.21615365
246	0x3e3207e1	0.17385818
247	0xbe2e5703	-0.1702538
248	0xbd27e699	-0.0409914
249	0x3cdd3224	0.027001448
250	0x3d9ed549	0.07755525
251	0xbd5d7d1f	-0.054074403
252	0xbd07a3dd	-0.033115257
253	0x3d623e63	0.055235278
254	0x3e46e8cf	0.19424747
255	0xbd9147ae	-0.0709375

weight f4 [96]
0	0x3f7a80e8	0.97852945
1	0x3f7feb3d	0.9996832
2	0x3f7ec6f2	0.99522316
3	0x3f6d1c5d	0.92621404
4	0x3f7d2209	0.9888006
5	0x3f806401	1.0030519
6	0x3f807e17	1.003848
7	0x3f7f3592	0.99691117
8	0x3f7aee83	0.9802019
9	0x3f7b586f	0.98181814
10	0x3f7ded15	0.99189883
11	0x3f7e7e95	0.994119
12	0x3f78c5a9	0.97176605
13	0x3f77c495	0.96784335
14	0x3f77cb26	0.96794355
15	0x3f7eff67	0.99608463
16	0x3f81377a	1.0095055
17	0x3f7912a5	0.97294074
18	0x3f801e86	1.0009315
19	0x3f7f7561	0.9978848
20	0x3f816ddf	1.0111655
21	0x3f7faf9c	0.99877334
22	0x3f8072d2	1.003504
23	0x3f804f59	1.0024215
24	0x3f80a5cb	1.0050596
25	0x3f7f8adc	0.9982126
26	0x3f85bbc4	1.0447927
27	0x3f7e8725	0.99424964
28	0x3f80ffe9	1.0078098
29	0x3f840f2b	1.0317129
30	0x3f804d76	1.0023639
31	0x3f81014c	1.0078521
32	0x3f6e41b8	0.9306903
33	0x3f821f04	1.0165715
34	0x3f80278d	1.001207
35	0x3f8aa8af	1.0832728
36	0x3f8173b0	1.011343
37	0x3f7f8a58	0.9982047
38	0x3f83431e	1.0254858
39	0x3f80a661	1.0050775
40	0x3f8208d0	1.0158939
41	0x3f6c5b65	0.92326957
42	0x3f81c3a5	1.0137831
43	0x3f7e6871	0.99378115
44	0x3f801c67	1.0008668
45	0x3f7b49ca	0.9815947
46	0x3f80bc4a	1.0057461
47	0x3f7c7b08	0.9862523
48	0x3f84d6e8	1.0378084
49	0x3f82d131	1.022009
50	0x3f7ef439	0.99591404
51	0x3f7c8250	0.9863634
52	0x3f8081b4	1.0039582
53	0x3f81218a	1.008836
54	0x3f823be1	1.0174524
55	0x3f847e6f	1.0351084
56	0x3f802d4f	1.0013827
57	0x3f747dcc	0.9550445
58	0x3f75df83	0.96044177
59	0x3f7d1583	0.9886095
60	0x3f7f8a9d	0.9982088
61	0x3f7992c7	0.9748959
62	0x3f7cc922	0.98744404
63	0x3f737a7f	0.9510879
64	0x3f805bf2	1.002806
65	0x3f7be3c0	0.98394394
66	0x3f7bc0da	0.98341143
67	0x3f7b5259	0.9817253
68	0x3f8005e9	1.0001804
69	0x3f7fbc25	0.9989646
70	0x3f7758b5	0.9661973
71	0x3f7e6f9b	0.99389046
72	0x3f881f5f	1.0634574
73	0x3f7e814b	0.99416035
74	0x3f78e8c1	0.97230154
75	0x3f83458b	1.0255598
76	0x3f7c7168	0.98610544
77	0x3f7d3102	0.98902905
78	0x3f7e622c	0.9936855
79	0x3f7e7726	0.99400556
80	0x3f7228f5	0.94593745
81	0x3f837105	1.0268866
82	0x3f7c6059	0.98584515
83	0x3f807c43	1.0037922
84	0x3f849c6f	1.036024
85	0x3f7bd42e	0.98370636
86	0x3f7eae7d	0.99485
87	0x3f821a3c	1.0164256
88	0x3f7f82a6	0.9980873
89	0x3f802e46	1.0014122
90	0x3f817559	1.0113937
91	0x3f7d3cd6	0.98920953
92	0x3f80c397	1.0059689
93	0x3f7c7848	0.98621035
94	0x3f809c0d	1.0047623
95	0x3f81a2df	1.0127829

bias f4 [96]
0	0x3d0232b0	0.03178662
1	0x3a9393f9	0.0011259309
2	0xbbdf6a06	-0.006818059
3	0x3d45582e	0.048179798
4	0x3c534b8a	0.012896428
5	0xbbcdb512	-0.006277689
6	0xbc7eb621	-0.015546353
7	0x3b75a471	0.0037482048
8	0xbd03fcbb	-0.032223444
9	0x3d159f91	0.036529128
10	0xbc870267	-0.016480638
11	0x3a7419b2	0.000931169
12	0xbd016203	-0.031587612
13	0xbd344383	-0.044009697
14	0xbca2e7d4	-0.019885935
15	0xbc69b882	-0.0142651815
16	0x3c693398	0.014233492
17	0x3bda8838	0.0066690706
18	0x3c27d928	0.010244645
19	0xbcad8fb5	-0.021186689
20	0xbb783da0	-0.0037878528
21	0xbbda9fe4	-0.0066718925
22	0xba555e61	-0.0008139369
23	0x3ccf4b35	0.025304416
24	0xbab511c4	-0.0013814499
25	0xbcd12684	-0.025531061
26	0x3be2e46e	0.0069242036
27	0xbd2b6a01	-0.04184914
28	0xbc1dc16c	-0.009628635
29	0x3c79cdb2	0.0152467955
30	0x3cadc4d7	0.021212025
31	0x3a9f2e99	0.0012144624
32	0xbbab8d64	-0.005235361
33	0x3b2d248c	0.0026419489
34	0x3ca05557	0.019571943
35	0xbc243176	-0.010021558
36	0xbc533873	-0.0128918765
37	0xbb89884b	-0.0041971556
38	0xb8ba4742	-8.882444e-05
39	0xbd396ffc	-0.045272812
40	0xbc0ed44f	-0.0087176105
41	0x3cfb1109	0.030647771
42	0xb94ade69	-0.00019347075
43	0x3be242e1	0.0069049452
44	0xbc6d729a	-0.014492655
45	0x3b2a5be1	0.0025994706
46	0xbbb431c4	-0.0054990966
47	0xbba40ac4	-0.005006166
48	0xbbad6655	-0.00529174
49	0xbb174e13	-0.0023087307
50	0x3807526e	3.2263277e-05
51	0xbccdfbb5	-0.025144437
52	0xbbd7d9aa	-0.006587227
53	0xbc7234f3	-0.014783132
54	0xba6bcaad	-0.00089947396
55	0xbc63a9b5	-0.013895442
56	0xbc7ce4b9	-0.015435391
57	0xbd1c39f5	-0.03814121
58	0x3d0c44f9	0.034245465
59	0x3c517ab4	0.012785602
60	0x3c7cd5ca	0.015431831
61	0x3d25f773	0.04051919
62	0x3caaa8b9	0.020832406
63	0xbd4922b1	-0.04910535
64	0xbc398b30	-0.011324689
65	0xbbd3a833	-0.00645926
66	0xbd311579	-0.04323337
67	0xbc947e35	-0.018126586
68	0xbcefdd65	-0.029280374
69	0x3cd335ba	0.025782455
70	0xbc02def8	-0.00798773
71	0x3bfceda7	0.00771876
72	0xbc359b24	-0.011084352
73	0xbc09ea2b	-0.008417646
74	0x3ce36904	0.027760036
75	0xbc758bf3	-0.01498698
76	0xbd19fbd2	-0.03759367
77	0x3bef32fd	0.0072997794
78	0xbbfc9b84	-0.0077089686
79	0xbcfb3b35	-0.03066788
80	0xbd55b7a0	-0.05217707
81	0x3b6a5e7a	0.0035761879
82	0x3cef0cd4	0.029180922
83	0x3baff4e8	0.0053697713
84	0xbc53fa8b	-0.012938152
85	0xbd66ea10	-0.056375563
86	0xbcdc78bc	-0.02691304
87	0xbbffdb1e	-0.007808103
88	0xbca6e14e	-0.020371106
89	0xbb49b3bc	-0.0030777296
90	0xbcc05a31	-0.023480507
91	0xbc920fd1	-0.017829807
92	0x3c0821a6	0.008308804
93	0xbd381eda	-0.044951297
94	0xb8cd2cd7	-9.783514e-05
95	0x3b9c9d67	0.004779506

running_mean f4 [96]
0	0x3a040705	0.00050364464
1	0x391d1060	0.00014978787
2	0xb97b00c7	-0.00023937515
3	0x3a61d002	0.00086140644
4	0xb9cd3c9e	-0.0003914581
5	0x380dcb9f	3.3806657e-05
6	0x3a088a3c	0.0005208587
7	0xba96ffb1	-0.0011520294
8	0xb7d22779	-2.5052332e-05
9	0x3a0d01a2	0.00053789665
10	0xb8cef0a7	-9.8676705e-05
11	0xb86de11a	-5.6714845e-05
12	0x39854434	0.00025418552
13	0x3945bca1	0.00018857654
14	0x3a22b760	0.00062071346
15	0xba5d95e6	-0.00084528176
16	0x39b7a941	0.00035030584
17	0xba9c4813	-0.0011923335
18	0x3a3da852	0.00072348595
19	0xb8fd8c3e	-0.00012090102
20	0xba4c5e9c	-0.00077960803
21	0xb9cc6676	-0.00038986251
22	0x3a25e840	0.00063288584
23	0xb9fedbd5	-0.00048610443
24	0xb90ad1b3	-0.00013238825
25	0xb92f510f	-0.00016719497
26	0x39dd1fb0	0.00042176014
27	0x3901e448	0.0001238744
28	0x374a063d	1.2041591e-05
29	0x3a5c2f4d	0.00083993824
30	0x3a67ff09	0.0008849954
31	0xba16ac9f	-0.00057477684
32	0xb9e1dcf7	-0.00043079976
33	0xb7f525ef	-2.922394e-05
34	0x399e0aef	0.00030144255
35	0x3a8bc50e	0.0010663585
36	0x3a2daff5	0.0006625646
37	0xba2b4bee	-0.0006534447
38	0x3a3bfa1f	0.0007170755
39	0xba33274b	-0.0006834163
40	0xb91e7f13	-0.00015115393
41	0x3a800815	0.0009768034
42	0xb741cfaa	-1.1552047e-05
43	0x3a486f8e	0.00076460175
44	0xb90871ed	-0.00013012411
45	0xb85cb015	-5.2616077e-05
46	0x3a9744de	0.001154091
47	0xb9ee1a7a	-0.00045414624
48	0x3a382a99	0.00070253905
49	0x3a0847ad	0.0005198669
50	0xb9d9a7b5	-0.00041514417
51	0xb88f8637	-6.843771e-05
52	0xb8953406	-7.114564e-05
53	0xba820df5	-0.0009922372
54	0xb9215dde	-0.00015389125
55	0x3a0b32ca	0.00053099974
56	0x3a044eb3	0.00050471275
57	0xb9e817e2	-0.00044268282
58	0xb97da77f	-0.00024190357
59	0xb90d8cb9	-0.00013499231
60	0x37c0f949	2.3004266e-05
61	0x3a2f4387	0.00066857826
62	0x387d2dd2	6.0362574e-05
63	0x3a37b6b1	0.0007008119
64	0x39016d80	0.0001234319
65	0x38491111	4.793803e-05
66	0xba55fd76	-0.0008163074
67	0xb91e6406	-0.00015105316
68	0x3a01fd40	0.00049586967
69	0x3a2bd0d7	0.0006554252
70	0xba1d1b2a	-0.00059931225
71	0xb9495b32	-0.00019202827
72	0xba1ef9dc	-0.00060644536
73	0x37f3925b	2.903601e-05
74	0x3a927523	0.0011173825
75	0x393b9edd	0.00017892891
76	0x39996f7e	0.00029265502
77	0xb98accc3	-0.0002647397
78	0xb86acfc0	-5.598343e-05
79	0x3a0c8e2d	0.0005361762
80	0xb82c8106	-4.1128158e-05
81	0x3a90ffcc	0.0011062562
82	0xba346993	-0.0006882187
83	0x378a7ff9	1.6510474e-05
84	0x3930f0c1	0.00016874356
85	0xb6a5b967	-4.938967e-06
86	0xba86efe4	-0.0010294882
87	0xb8af8b5a	-8.3706065e-05
88	0xba9887e0	-0.0011637174
89	0x38320696	4.244464e-05
90	0x399d0bc0	0.00029954128
91	0x39751366	0.00023372247
92	0xb98de033	-0.00027060657
93	0x39c479b4	0.0003747471
94	0x39c076f6	0.00036709727
95	0xb9d284ee	-0.00040153362
