trained_model/BiSegNet(ReagentV2)_no_train.pt (torch, 398265 bytes, 152 tensors)

weight f4 [8, 1, 3, 3]
0	0x3c72a6a8	0.014810242
1	0xbe3aaa7d	-0.18229099
2	0xbe225cb5	-0.15855677
3	0x3e6c7e67	0.23095094
4	0x3e0e9fdd	0.1392817
5	0xbe31f9d8	-0.17380464
6	0xbe83d725	-0.2575008
7	0xbea8907f	-0.32922742
8	0x3e8bcc2d	0.2730421
9	0x3dd95c02	0.10613252
10	0xbdde3800	-0.10850525
11	0xbe9d7eb8	-0.3076074
12	0xbcc14d97	-0.023596568
13	0x3d7be69d	0.061499227
14	0x3e0acc45	0.13554485
15	0x3e9139ee	0.2836451
16	0x3ea154cc	0.31510007
17	0xbb986a93	-0.0046513765
18	0x3e84a50f	0.2590718
19	0x3e90a2f2	0.28249317
20	0x3e7ce76b	0.24697654
21	0xbd77b6b9	-0.060476992
22	0x3dddd05c	0.10830757
23	0xbe33641f	-0.17518662
24	0xbe20128e	-0.15632078
25	0xbdb79af8	-0.08965105
26	0x3d216af6	0.039408647
27	0xbe52cc8f	-0.20585845
28	0xbe2dd297	-0.16974865
29	0x3e9f4123	0.31104383
30	0xbd0c08c4	-0.034188047
31	0x3df32832	0.11872901
32	0x3e0f7657	0.14009987
33	0x3e1862ee	0.14881489
34	0x3e97c28d	0.29640618
35	0x3e7c2b20	0.24625826
36	0x3e27d6a6	0.16390476
37	0x3ea65230	0.3248458
38	0xbe78e3e4	-0.24305683
39	0x3e7f7629	0.24947418
40	0x3de189c1	0.110126026
41	0x3c797147	0.015224761
42	0x3e4c33e0	0.19941664
43	0x3e7c8168	0.2465874
44	0x3e2c12e4	0.16804081
45	0x3cb23095	0.021751681
46	0x3e14c50d	0.14528294
47	0x3ea1d918	0.31610942
48	0xbe1d2f25	-0.15350015
49	0xbe25a2cc	-0.16175383
50	0x3e2fc78e	0.17165968
51	0x3dac3676	0.08408825
52	0x3e3fa324	0.18714577
53	0x3ecf0617	0.40434334
54	0xbe80cf00	-0.25157928
55	0x3de32d31	0.11092604
56	0xbe69af55	-0.2282079
57	0x3db7c9e2	0.08974053
58	0xbe8a3860	-0.26996136
59	0xbdb9e84d	-0.09077511
60	0x3e8875af	0.26652285
61	0xbc4bf726	-0.0124490615
62	0xbe2ef38b	-0.17085092
63	0xbe824f60	-0.25451183
64	0xbdbe25a1	-0.09284521
65	0xbe6de056	-0.23230109
66	0x3dcc2a5c	0.09969017
67	0x3d961d6c	0.073298305
68	0x3e32bbb7	0.1745442
69	0xbec26dbb	-0.37974343
70	0xbdd0d1dc	-0.101962775
71	0xbe962544	-0.29325306

weight f4 [8]
0	0x3f80454f	1.0021151
1	0x3f7bf09f	0.98414034
2	0x3f8f5162	1.1196711
3	0x3f8edc7c	1.1161036
4	0x3f758870	0.9591131
5	0x3f7337e3	0.9500715
6	0x3f8089dd	1.0042073
7	0x3f72e4f2	0.9488059

bias f4 [8]
0	0xbd1a3828	-0.03765121
1	0x3c91d49a	0.017801572
2	0x3e0f1671	0.13973404
3	0x3d24b309	0.040209804
4	0xbdd1443e	-0.10218094
5	0xbc098ede	-0.008395879
6	0xbc0a4630	-0.008439586
7	0x3cd92c57	0.0265104

running_mean f4 [8]
0	0xc28f820f	-71.75402
1	0x429656a9	75.16926
2	0x42934c79	73.64936
3	0x430a6def	138.42943
4	0x4348d76f	200.84154
5	0x4324eca1	164.92433
6	0xc2b4bc63	-90.36794
7	0xc3235a02	-163.3516

running_var f4 [8]
0	0x4423118c	652.2742
1	0x4442914c	778.27026
2	0x4454a21e	850.5331
3	0x4515e2c7	2398.1736
4	0x459dcedd	5049.858
5	0x45546cf3	3398.8093
6	0x44865cde	1074.9021
7	0x454ebb2a	3307.6978

weight f4 [24, 8, 1, 1]
0	0xbbfc13ce	-0.0076927906
1	0xbe9e611b	-0.3093346
2	0xbece06c8	-0.4023955
3	0x3e94fb05	0.29097763
4	0x3e04e9a4	0.12979752
5	0x3d6ef8b4	0.05834265
6	0xbed50810	-0.41607714
7	0x3e86e23a	0.26344472
8	0x3e3a9112	0.18219402
9	0xbe0c7a51	-0.13718535
10	0xbe3e976b	-0.18612449
11	0xbf05a228	-0.52200556
12	0xbe9df8d2	-0.30853897
13	0xbeacc07a	-0.33740598
14	0x3d6c8e91	0.05775315
15	0x3e09b030	0.13446116
16	0x3e05a183	0.13049893
17	0xbedf35bd	-0.43595687
18	0xbe461fe1	-0.19348098
19	0x3d85094c	0.06495914
20	0x3d5e2d22	0.05424226
21	0x3ea58db9	0.32334688
22	0xbd32cf34	-0.043654636
23	0x3e0ffb78	0.14060771
24	0xbe34a931	-0.17642666
25	0x3de3f2b5	0.11130277
26	0x3e3d3631	0.18477704
27	0xbdc3ee20	-0.09566903
28	0xbea4b8c0	-0.32172203
29	0x3e9f12b2	0.3106895
30	0x3bf09b55	0.007342736
31	0x3f21eff5	0.6325677
32	0x3e03521f	0.12824295
33	0xbe7aac7c	-0.2447986
34	0x3ea7c77c	0.32769382
35	0xbd9edee3	-0.07757356
36	0xbd3c314e	-0.045945458
37	0x3d92143d	0.071327664
38	0xbe8baec7	-0.27281782
39	0x3e9bc3f0	0.30422926
40	0x3dfad283	0.12247183
41	0x3d77b177	0.060471978
42	0x3e56e6d3	0.2098649
43	0xbe800704	-0.25005352
44	0xbdf77c11	-0.12084211
45	0xbdd376bc	-0.10325381
46	0xbe837ba4	-0.25680268
47	0x3ca8eb12	0.020619903
48	0xbdf384da	-0.11890574
49	0xbe32e329	-0.17469467
50	0xbe4b1c3e	-0.19834992
51	0xbeb63268	-0.35585332
52	0x3d85f0a0	0.06540036
53	0x3e5f39b3	0.21799354
54	0xbe38e7f0	-0.18057227
55	0xbe159740	-0.14608479
56	0x3dd945e5	0.106090344
57	0xbe742016	-0.23840365
58	0xbe6572c2	-0.22407058
59	0x3ea6488a	0.32477218
60	0x3b477cf3	0.0030439466
61	0xbece6a22	-0.40315348
62	0x3e97dec1	0.29662135
63	0x3f1c028d	0.6094139
64	0x3eddaf80	0.43297958
65	0xbe91cab6	-0.2847497
66	0x3e8adf91	0.27123693
67	0x3e2b8ac1	0.16752149
68	0x3d0e1f20	0.034697652
69	0x3eeb54ad	0.4596304
70	0x3da6c219	0.0814249
71	0xbceb6980	-0.02873683
72	0xbed01c72	-0.40646702
73	0xbd19424f	-0.037416752
74	0x3efa221d	0.4885415
75	0x3e7e50d5	0.24835522
76	0xbe3953e6	-0.18098411
77	0xbe7ad944	-0.24496943
78	0x3edd1f3f	0.431879
79	0xbeaae5d5	-0.33378473
80	0xbf1a0df9	-0.6017757
81	0xbed78eb6	-0.42101067
82	0xbe545751	-0.20736434
83	0x3dbb3151	0.09140266
84	0xbec6ff95	-0.3886687
85	0x3ec44fa2	0.38342005
86	0xbdd00a0e	-0.10158168
87	0xbe9d406f	-0.3071322
88	0xbe3072c1	-0.17231275
89	0xbd3e144a	-0.046406068
90	0x3d8318c7	0.0640121
91	0x3eab1da6	0.33421057
92	0x3e59ba32	0.21262434
93	0x3db736fe	0.08946036
94	0xbecd6b00	-0.40120697
95	0xbe183d70	-0.14867187
96	0xbe04363f	-0.12911318
97	0x3cc3a176	0.023880702
98	0xbe9021ae	-0.28150696
99	0x3e8f9f1f	0.28051087
100	0x3ef1d666	0.47233886
101	0xbc94c654	-0.018160976
102	0x3d902869	0.070389576
103	0xbe814e66	-0.25255126
104	0xbe20c920	-0.15701723
105	0x3ea9a202	0.33131415
106	0xbd109452	-0.0352977
107	0x3ed812ac	0.42201746
108	0x3c6552ed	0.013996822
109	0xbd89a7e3	-0.06721475
110	0xbed5bd9a	-0.41746217
111	0x3e2f6f79	0.17132367
112	0x3c8a9a88	0.01691939
113	0xbe3e47f0	-0.1858213
114	0xbd7aae28	-0.061201245
115	0xbe6d4486	-0.23170671
116	0x3df979bb	0.12181421
117	0x3db73238	0.08945125
118	0x3dc55338	0.09635013
119	0x3f13e48e	0.5777062
120	0x3e8e217f	0.2775993
121	0x3e5c2776	0.21499428
122	0xbd26d31c	-0.040728673
123	0x3d8023ab	0.06256803
124	0xbe731404	-0.23738104
125	0x3ea96bf2	0.33090168
126	0x3e5a6d3b	0.2133073
127	0xbea6591f	-0.3248987
128	0x3ecbb6d7	0.39787933
129	0xbeb65dda	-0.35618478
130	0xbeb497a2	-0.35271937
131	0x3e3758a6	0.1790491
132	0x3e2699e1	0.16269638
133	0xbe96c48f	-0.29446837
134	0xbe8e564b	-0.2780021
135	0xbe865dd3	-0.26243457
136	0x3e1fb3a1	0.15595867
137	0xbeeef2dc	-0.46669662
138	0x3e4d9e7a	0.20079985
139	0x3e9c1bf4	0.30490077
140	0xbeb332c0	-0.34999657
141	0x3e71d795	0.23617394
142	0x3da035c9	0.07822759
143	0xbe161ab3	-0.14658622
144	0xbe41b52f	-0.18916772
145	0xbee84630	-0.4536605
146	0xbeef619d	-0.4675416
147	0x3e299d76	0.16563973
148	0xbec29c67	-0.3800995
149	0xbdce002e	-0.10058628
150	0x3e99d319	0.30043867
151	0xbed29a62	-0.4113341
152	0xbe239e28	-0.159783
153	0x3eb0107a	0.3438757
154	0x3ede00ef	0.43360087
155	0xbefdb679	-0.49553278
156	0x3b70914f	0.0036707704
157	0xbee339d4	-0.44380057
158	0xbdbfcc97	-0.09365194
159	0x3e1c0fea	0.15240446
160	0x3df0ad3a	0.1175179
161	0x3d666a09	0.056253467
162	0xbef1ac50	-0.47201777
163	0x3f117cc0	0.5683098
164	0xbe6cb185	-0.23114593
165	0xbde37df3	-0.11108007
166	0x3da1f298	0.07907599
167	0x3e46b883	0.19406323
168	0xbea257f4	-0.31707728
169	0x39fdce25	0.0004840951
170	0xbed03b1b	-0.40670094
171	0x3e7a7284	0.24457747
172	0x3e12ea31	0.1434715
173	0x3e2e00b3	0.16992454
174	0x3ea76b32	0.3269897
175	0xbd0fe8e9	-0.03513423
176	0xbe569eb7	-0.20958982
177	0x3d46ce7d	0.048536766
178	0xbe535806	-0.20639047
179	0x3deb42ac	0.11487326
180	0xbeb49d7e	-0.35276407
181	0x3ee7314a	0.45154792
182	0xbe848fb7	-0.25890896
183	0x3dfa816e	0.12231718
184	0x3e5295a9	0.20564903
185	0x3e739328	0.23786604
186	0xbf120a40	-0.5704689
187	0x3ee48088	0.44629312
188	0xbd8903df	-0.066901915
189	0xbea16e55	-0.3152949
190	0xbd32d63a	-0.043661334
191	0xbcf933e5	-0.030420253

weight f4 [24]
0	0x3f7be671	0.983985
1	0x3fbc9a36	1.4734561
2	0x3fa5f96b	1.2966741
3	0x3f4c55aa	0.79818213
4	0x3f8ee13b	1.1162485
5	0x3f942275	1.1573015
6	0x3f8f2fb0	1.1186428
7	0x3fc55317	1.5415982
8	0x3f576513	0.841386
9	0x3f9d113a	1.2270882
10	0x3f916875	1.1360003
11	0x3f8d06da	1.1017716
12	0x3f86d6b3	1.0534271
13	0x3f734eb2	0.95041955
14	0x3f801d31	1.0008909
15	0x3f4ae78e	0.79259574
16	0x3f709275	0.93973476
17	0x3f5b2378	0.85600996
18	0x3fb07060	1.3784294
19	0x3f41a853	0.7564747
20	0x3fbe1e94	1.4853082
21	0x3f4315e6	0.7620529
22	0x3f694604	0.9112246
23	0x3f9a526a	1.2056401

bias f4 [24]
0	0x3d924951	0.0714289
1	0x3d4474f5	0.0479631
2	0xbd1755c8	-0.03694704
3	0xbe2fd669	-0.17171635
4	0xbcd5dc36	-0.026105981
5	0x3d0b7f55	0.03405698
6	0xbc876362	-0.016526882
7	0xbb9be626	-0.0047576604
8	0xbe25662f	-0.16152261
9	0xbd5241b2	-0.051332183
10	0xbd55819c	-0.05212556
11	0x3d95dc81	0.073174484
12	0x3d8e1887	0.06938272
13	0x3e03ff8b	0.1289045
14	0xbdb52644	-0.08845189
15	0xbe6088e2	-0.21927217
16	0x3df4d68a	0.119549826
17	0x3dc47e1f	0.09594368
18	0x3ced7ae0	0.028989255
19	0x3ceb7cfe	0.028746124
20	0xbc435f6b	-0.011924605
21	0x3e02949b	0.12752001
22	0x3cd97ebf	0.026549695
23	0xbcd1324c	-0.025536679

running_mean f4 [24]
0	0xbe3c26d8	-0.18374193
1	0xbecb1635	-0.3966538
2	0xbcc49fad	-0.02400192
3	0x3e82d12d	0.25550213
4	0x3dda128b	0.10648068
5	0xbd9ef6b1	-0.077618964
6	0xbeb5e4b9	-0.35526064
7	0x3e176d38	0.14787757
8	0x3ed27ae9	0.41109398
9	0x3dce95f0	0.10087192
10	0xbf013235	-0.50467235
11	0xbc2e1985	-0.0106262015
12	0xbc10e821	-0.008844406
13	0x3ddda946	0.10823302
14	0x3dc98bcf	0.098411195
15	0x3e360f59	0.17779292
16	0xbea06e88	-0.3133433
17	0x3da5784b	0.08079585
18	0xbf064619	-0.5245071
19	0xbd3d1689	-0.04616407
20	0x3d6576fb	0.05602167
21	0xbc8e159f	-0.017344294
22	0xbdc40b18	-0.095724285
23	0xbdb0f3f5	-0.08640281

running_var f4 [24]
0	0x3d218603	0.039434444
1	0x3ea27978	0.31733298
2	0x3d5e502d	0.05427568
3	0x3dfba1bc	0.12286708
4	0x3d2148d9	0.039376114
5	0x3ca94274	0.02066157
6	0x3dc23fd3	0.0948483
7	0x3f453254	0.7702992
8	0x3e023be3	0.12718157
9	0x3e074c37	0.13212667
10	0x3f1f57dc	0.6224344
11	0x3eef26c3	0.4670926
12	0x3dd85514	0.10563102
13	0x3e4d3f27	0.20043622
14	0x3eb734f4	0.35782588
15	0x3ce21817	0.027599378
16	0x3cfd944d	0.030954504
17	0x3d08e70b	0.033423465
18	0x3d9b3c70	0.07579887
19	0x3d363088	0.044479877
20	0x3e15237d	0.14564319
21	0x3d179860	0.03701055
22	0x3dd5edf6	0.10445778
23	0x3d835599	0.06412811

weight f4 [24, 1, 3, 3]
0	0xbe1f9545	-0.15584286
1	0x3e394cdc	0.18095726
2	0x3e362079	0.17785825
3	0xbe640579	-0.22267713
4	0x3d4d4851	0.050117794
5	0x3d3034a2	0.043018945
6	0xbe48effa	-0.19622794
7	0xbb689089	-0.003548654
8	0x3d9bdde9	0.076106854
9	0xbde3d9bc	-0.11125514
10	0x3dba6db3	0.09102955
11	0x3e52ac8f	0.20573638
12	0xbe5b69b4	-0.21427041
13	0x3e1875e0	0.14888716
14	0x3cbd9435	0.02314196
15	0xbdaee2f7	-0.08539384
16	0xbd800fa0	-0.0625298
17	0xbda309e0	-0.07960868
18	0x3ea8c93c	0.3296603
19	0xbdcd6fde	-0.100311026
20	0x3e2a8985	0.16654022
21	0x3e43d962	0.19125894
22	0xbd55f546	-0.052235864
23	0x3cd2e8ab	0.02574571
24	0x3d71ec40	0.059063196
25	0xbba74387	-0.0051044854
26	0xbd9f3c0b	-0.07775124
27	0xbce93145	-0.028465876
28	0xbe4b19b1	-0.19834019
29	0x3b84f9d2	0.004058101
30	0x3e2da263	0.16956477
31	0x3dd9d6fb	0.106367074
32	0x3db8c9c5	0.090228595
33	0x3e85f9aa	0.2616704
34	0xbded4224	-0.11584881
35	0x3da2a1d3	0.07941022
36	0x3e86fc0b	0.2636417
37	0xbe0dbf0d	-0.13842411
38	0xbe6d29e7	-0.23160516
39	0x3c411c90	0.011786595
40	0x3cc89852	0.024486694
41	0xbcfc28c1	-0.030781152
42	0x3e08deb6	0.13366207
43	0x3dbe19fe	0.09282301
44	0x3d361710	0.044455588
45	0x3e68a730	0.22720027
46	0xbca13524	-0.01967866
47	0xbe543c7e	-0.20726201
48	0xbe3db3fa	-0.18525687
49	0xbb57e9d0	-0.003294576
50	0xbc9619c3	-0.018322831
51	0xbe02759c	-0.12740177
52	0x3bc21223	0.005922572
53	0x3e6ca164	0.2310844
54	0xbe268c63	-0.16264491
55	0x3e3444e3	0.17604403
56	0xbd8f85c4	-0.07007936
57	0xbe315f72	-0.17321566
58	0x3dc86fc9	0.09786946
59	0x3d90b98c	0.0706664
60	0x3e12c2e3	0.14332156
61	0x3e421543	0.18953423
62	0x3e01beef	0.12670492
63	0xbddc3dc1	-0.10753966
64	0xbd0e7ccb	-0.03478698
65	0xbc88f726	-0.016719412
66	0xbe2bc9ae	-0.16776153
67	0x3d0f019c	0.034913644
68	0x3df6f4e9	0.12058432
69	0xbd8685ae	-0.06568466
70	0xbc86d011	-0.016456636
71	0x3e863b0c	0.26216924
72	0xbdbc43a3	-0.09192588
73	0x3e3c8ce7	0.18413125
74	0xbe244276	-0.16040978
75	0x3c99512c	0.018715464
76	0x3ebd10fd	0.36927024
77	0x3e084cf8	0.13310611
78	0x3d9d2452	0.07672943
79	0x3db27e6d	0.0871552
80	0xbd33f6f7	-0.043936696
81	0x3cdf486a	0.02725621
82	0xbe1aa7b3	-0.15103035
83	0xbe63d69c	-0.22249836
84	0x3d2cedfd	0.04221915
85	0xbe22b844	-0.15890604
86	0xbe35750d	-0.17720433
87	0x3d87d36c	0.066321224
88	0x3d59a8be	0.05313944
89	0xbea2292a	-0.3167203
90	0x3ec58d14	0.38584197
91	0x3d933280	0.071873665
92	0xbe5f7e78	-0.21825588
93	0xbdd71474	-0.10501948
94	0x3d379b36	0.044825755
95	0x3de019b6	0.10942404
96	0x3c226f9f	0.009914308
97	0xbd614ddc	-0.055005893
98	0x3e2f71f9	0.17133321
99	0xbe125928	-0.14291823
100	0xbdf1a345	-0.11798719
101	0x3d25d72b	0.040488403
102	0xbe37f046	-0.17962751
103	0x3c9b18ef	0.018932788
104	0x3e604344	0.2190066
105	0x3d1f9248	0.038957864
106	0xbe0241fa	-0.1272048
107	0x3e1a0375	0.15040381
108	0x3c9a1ee6	0.018813562
109	0xbdd5d049	-0.10440118
110	0xbdb024e2	-0.08600785
111	0x3de64cf8	0.112451494
112	0x3c736607	0.014855868
113	0xbe7f4cca	-0.24931636
114	0x3e53227d	0.20618625
115	0x3de1e00d	0.110290624
116	0xbe306eca	-0.17229763
117	0xbe03bb6b	-0.12864463
118	0x3d5d381b	0.054008584
119	0xbdb2915d	-0.08719132
120	0xbd881576	-0.06644718
121	0x3e617ab1	0.2201946
122	0xbe24b228	-0.16083586
123	0x3c5f77e0	0.01363942
124	0x3eb4931b	0.35268483
125	0xbcfae044	-0.030624516
126	0x3e88c7e7	0.26715013
127	0xbe224ec7	-0.15850364
128	0xbce57cf6	-0.028013688
129	0x3e420f25	0.1895109
130	0x3d8927df	0.06697058
131	0xbda79a39	-0.081837125
132	0xbdc7bbf5	-0.09752647
133	0xbdcf1c81	-0.101128586
134	0x3df8b0ef	0.121431224
135	0xbe0a5317	-0.13508259
136	0xbe82a1a2	-0.2551394
137	0xbca81cf9	-0.020521628
138	0x3e074133	0.13208465
139	0x3e28b8fc	0.16476816
140	0x3de079a1	0.10960699
141	0x3dff9b43	0.12480786
142	0xbca4c843	-0.020115023
143	0x3e79580c	0.24349993
144	0x3d83f1ef	0.064426295
145	0xbe31f16d	-0.17377253
146	0xbdcfce2b	-0.10146745
147	0x3e5cf101	0.2157631
148	0x3e0eab51	0.1393254
149	0xbe36377f	-0.17794608
150	0xbd407e7f	-0.046995636
151	0x3d39ba5a	0.045343734
152	0x3d623598	0.055226892
153	0xbcc41b4e	-0.023938801
154	0xbe262388	-0.16224492
155	0x3cb1edaf	0.021719782
156	0x3e741856	0.23837408
157	0xbe00e5f1	-0.12587716
158	0xbe10fe5d	-0.14159532
159	0x3cd9defc	0.026595585
160	0x3e661687	0.22469531
161	0x3e0fbaac	0.14036053
162	0x3d574d74	0.0525641
163	0xbe9a6dbf	-0.30161855
164	0xbd378739	-0.044806693
165	0xbe1c8c0a	-0.15287796
166	0xbe02f929	-0.1279036
167	0xbe344222	-0.17603353
168	0x3e5c165d	0.21492906
169	0xbe103f12	-0.1408656
170	0xbca40c9d	-0.020025546
171	0xbe2fbea5	-0.17162569
172	0xbdaac3f1	-0.08338154
173	0x3ceadbdf	0.028669296
174	0x3d9d8ab5	0.07692472
175	0xbda5d632	-0.08097495
176	0x3e9306d6	0.28716153
177	0xbdd8ee0e	-0.1059228
178	0xbda6d922	-0.081468835
179	0x3d2e1189	0.04249719
180	0x3e1f075f	0.15530156
181	0xbd9e5758	-0.07731503
182	0x3e22436a	0.15846029
183	0xbdf6ccdf	-0.12050795
184	0xbe7a63e2	-0.24452165
185	0x3dadce0a	0.084865645
186	0xbe327e44	-0.17430979
187	0xbe0a5662	-0.13509515
188	0x3e19a18d	0.15003033
189	0xbd693dbd	-0.056943644
190	0xbe6bff31	-0.23046567
191	0xbd8b862f	-0.06812703
192	0xbd489724	-0.048972264
193	0x3e088230	0.13330913
194	0x3dd056f7	0.10172837
195	0xbcc4343a	-0.023950685
196	0x3e17c37b	0.14820664
197	0x3e3642d1	0.17798926
198	0x3e353507	0.1769601
199	0xbd5a1786	-0.05324509
200	0xbdefee83	-0.117154144
201	0x3d244c61	0.040111903
202	0xbc24f355	-0.0100677805
203	0x3dd026a9	0.10163624
204	0xbdc67aad	-0.09691367
205	0xbe52c01e	-0.205811
206	0x3e7c41d6	0.2463449
207	0xbecafbcc	-0.3964523
208	0xbe0b31c7	-0.13593207
209	0xbe7ecab0	-0.24882007
210	0xbd903406	-0.07041173
211	0x3c940b89	0.018071907
212	0xbe3198f6	-0.17343506
213	0x3dd13c78	0.102166116
214	0xbaebf2fa	-0.001800149
215	0xbdc6fe56	-0.097164795

weight f4 [24]
0	0x3f674b6b	0.90349454
1	0x3f88c773	1.0685867
2	0x3f815969	1.0105411
3	0x3f71f9f6	0.94522035
4	0x3fa1fa00	1.2654419
5	0x3f90d9fd	1.1316525
6	0x3f80a810	1.0051289
7	0x3f8f98ca	1.1218503
8	0x3f8c1914	1.0945153
9	0x3f88168d	1.0631882
10	0x3f807e83	1.0038608
11	0x3f88d163	1.06889
12	0x3f8d8f3b	1.1059335
13	0x3f89730e	1.0738237
14	0x3f7ca02e	0.98681915
15	0x3f6a0d9d	0.9142702
16	0x3f849d4a	1.0360501
17	0x3f82bba4	1.0213513
18	0x3f859023	1.0434612
19	0x3f6b412b	0.91896313
20	0x3f8c8511	1.0978109
21	0x3f5e7954	0.8690388
22	0x3f40fceb	0.7538592
23	0x3fa1d599	1.264331

bias f4 [24]
0	0x3d199461	0.03749502
1	0x3ed4d66c	0.4156984
2	0xbde0f940	-0.10985041
3	0xbd3549b8	-0.044259757
4	0x3e17321a	0.14765206
5	0xbaee688f	-0.001818912
6	0xbd5ebed1	-0.054381195
7	0xbcc46f21	-0.023978772
8	0x3d3c06b9	0.04590485
9	0x3da105cc	0.07862434
10	0xbdc09e59	-0.094052024
11	0x3cf8788f	0.030330924
12	0x3ea6ad13	0.3255392
13	0x3d431c98	0.04763469
14	0x3d6f0c71	0.058361474
15	0xbe887776	-0.2665364
16	0xbd9196b4	-0.071088225
17	0xbd8b9be3	-0.068168424
18	0x3e27fe7e	0.16405675
19	0xbe6be44a	-0.23036304
20	0x3e9983e3	0.29983434
21	0xbd804c38	-0.062645376
22	0xbd495571	-0.04915375
23	0x3dd0b2b3	0.10190334

running_mean f4 [24]
0	0xbc52620e	-0.012840761
1	0xbd38b0e7	-0.045090582
2	0x3e33f88b	0.1757528
3	0x3dae3bd6	0.085075065
4	0x3d59c1fc	0.053163514
5	0xbcf4f7ca	-0.029903311
6	0x3e09e2f7	0.13465486
7	0x3cbe9652	0.023265038
8	0x3e0d26fb	0.13784401
9	0xbe9e75a0	-0.30949116
10	0x3e092d9a	0.13396302
11	0xbd2ddea0	-0.04244864
12	0xbd7339b5	-0.059381206
13	0x3d8efa52	0.069813386
14	0x3d325c7a	0.043545224
15	0x3da1b102	0.0789509
16	0x3c335c70	0.010947332
17	0x3d6718d1	0.05642015
18	0xbec7f179	-0.39051417
19	0xbc9062df	-0.01762527
20	0xbde310d5	-0.11087195
21	0x3d1cb9a9	0.038262997
22	0x3cc6e892	0.02428082
23	0xbebd6e60	-0.36998272

running_var f4 [24]
0	0x3ca3e7a0	0.020007908
1	0x3d503c38	0.05083868
2	0x3e8d7797	0.27630302
3	0x3d6f89cc	0.058481023
4	0x3d6b3ffe	0.057434075
5	0x3c712a71	0.0147195915
6	0x3c9e2698	0.019305512
7	0x3d9166a9	0.07099659
8	0x3e0f2cdc	0.13981956
9	0x3d38272d	0.044959236
10	0x3c4b72aa	0.012417475
11	0x3c1527a2	0.0091036875
12	0x3c20129a	0.00977006
13	0x3c2dc4b9	0.010605984
14	0x3cf7d755	0.030254046
15	0x3d9a07da	0.07521029
16	0x3c361a4e	0.01111467
17	0x3cdf113d	0.0272299
18	0x3e99e84b	0.30060038
19	0x3c5bcca3	0.013415488
20	0x3dfe7241	0.12424136
21	0x3cc598f9	0.024120795
22	0x3bcfe4e1	0.006344423
23	0x3f2a4d0c	0.66523814

weight f4 [16, 24, 1, 1]
0	0x3eaee347	0.34157774
1	0xbe85e331	-0.26149896
2	0x3e941ba9	0.28927353
3	0x3e0fcf9d	0.14044042
4	0x3eb1e330	0.34743643
5	0x3ecd6d98	0.40122676
6	0x3e306e0f	0.17229484
7	0x3d6c8090	0.057739794
8	0x3e680d8f	0.22661422
9	0xbdc6dcab	-0.09710058
10	0x3e254892	0.16140965
11	0x3e33379a	0.17501679
12	0xbe8a046e	-0.26956505
13	0xbeda9964	-0.42695153
14	0xbdd55ec1	-0.104184635
15	0xbe62ddaf	-0.22154878
16	0xbdd44558	-0.10364789
17	0x3edea9b0	0.43488836
18	0xbe4d2b2e	-0.20036003
19	0x3d019edd	0.031645644
20	0x3f237865	0.6385558
21	0x3cb0e793	0.021594798
22	0xbdfda362	-0.123846784
23	0x3c559901	0.013036967
24	0xbdfbb7a6	-0.122908875
25	0xbddcedb4	-0.10787526
26	0x3dd5dea5	0.10442857
27	0xbcc09ef7	-0.0235133
28	0x3ec02248	0.37526155
29	0x3ca2626e	0.019822326
30	0x3eb16098	0.34644008
31	0xbf119762	-0.56871617
32	0x3e03471f	0.128201
33	0xbe9142c7	-0.2837126
34	0xbd8dc7c6	-0.069228694
35	0x3ea83555	0.3285319
36	0x3de78cb0	0.11306131
37	0x3e830cc7	0.25595686
38	0xbe85b3cf	-0.26113746
39	0xbdc6a915	-0.097002186
40	0x3e93e0c8	0.28882432
41	0x3d59a87a	0.053139187
42	0xbe04b447	-0.12959395
43	0x3e81581b	0.25262532
44	0xbe5af095	-0.21380837
45	0x3e86a89d	0.26300517
46	0xbe524e88	-0.2053777
47	0xbe98c4ec	-0.2983774
48	0xbdacb03c	-0.084320515
49	0xbe164892	-0.14676121
50	0x3e963c49	0.2934287
51	0x3ed4ab26	0.41536826
52	0x3e0fd759	0.14046992
53	0x3cabfcad	0.020994509
54	0xbdc42d55	-0.09578959
55	0x3d39a1ef	0.045320448
56	0x3d12f10e	0.03587442
57	0x3de1cdd7	0.11025589
58	0x3d59cfbe	0.053176634
59	0x3e1a115a	0.15045682
60	0x3e0a63b4	0.13514596
61	0x3e9f77ff	0.31146237
62	0xbc90ca5a	-0.017674614
63	0x3e44cccc	0.19218749
64	0x3c2fc34f	0.010727718
65	0xbda02b0f	-0.07820713
66	0xbe9613ed	-0.29312077
67	0x3e6520af	0.22375749
68	0x3e89ddd6	0.2692706
69	0x3ed86560	0.42264843
70	0x3ee6ecc8	0.45102525
71	0xbe93941f	-0.28823945
72	0x3d817003	0.06320193
73	0xbde62d61	-0.11239124
74	0x3e295d9e	0.16539618
75	0xbe47489a	-0.19461289
76	0x3e749c36	0.23887715
77	0xbeb9b638	-0.36271834
78	0x3e4b4f07	0.19854365
79	0xbdc52b9d	-0.09627459
80	0xbe8980b1	-0.26855996
81	0x3ede03d3	0.43362293
82	0xbe6ad886	-0.2293416
83	0x3e307c16	0.17234835
84	0x3d59804a	0.05310086
85	0xbe857b25	-0.26070514
86	0x3db61709	0.08891112
87	0xbeb76cd0	-0.35825205
88	0x3ddeb9c1	0.108752735
89	0x3a9f659b	0.0012161018
90	0x3f0f40f8	0.5595851
91	0xbe8b6247	-0.27223417
92	0x3e2bc4fb	0.16774361
93	0x3e1a263f	0.15053652
94	0xbcfe8381	-0.031068565
95	0xbf326b81	-0.6969529
96	0x3e4431bc	0.19159597
97	0xbdca5b59	-0.098807044
98	0xbdbd6a5b	-0.09248801
99	0x3e84d603	0.25944528
100	0x3e733bcc	0.2375328
101	0xbf03bc5c	-0.5145929
102	0xbe38d849	-0.18051256
103	0xbd31fc1f	-0.043453332
104	0x3df6293c	0.120195836
105	0xbec098e9	-0.3761666
106	0x3e632311	0.22181346
107	0xbdef7e9e	-0.11694072
108	0x3e506e71	0.2035463
109	0xbe1078cf	-0.14108585
110	0xbeca879f	-0.39556596
111	0x3e9243b6	0.28567284
112	0xbe8c02df	-0.2734594
113	0x3d25d99a	0.040490724
114	0xbe4830bd	-0.19549842
115	0xbe84a9be	-0.25910753
116	0xbeac8b3c	-0.33699977
117	0xbec60900	-0.3867874
118	0x3c9a50e1	0.018837394
119	0x3ee4fc9a	0.4472397
120	0xbe9445ea	-0.2895959
121	0x3e18d3cc	0.14924544
122	0x3e3557b6	0.1770924
123	0xbd64d15d	-0.055863727
124	0x3df3dcb4	0.1190733
125	0xbea9dbc3	-0.33175477
126	0xbe85087d	-0.2598304
127	0xbebcd3b5	-0.3688027
128	0x3ead6cc8	0.33872056
129	0x3e2b8d8c	0.16753215
130	0xbe60e996	-0.21964106
131	0x3c6b9a2a	0.014380017
132	0xbee599f9	-0.44844034
133	0xbe84b330	-0.2591796
134	0x3dd02d7d	0.10164926
135	0xbe86f174	-0.2635609
136	0xbd53e49a	-0.051731683
137	0xbd568747	-0.052375104
138	0x3b8e1183	0.0043355837
139	0xbdd260a0	-0.10272336
140	0x3e074995	0.13211663
141	0xbe7e4c07	-0.2483369
142	0xbe2322ce	-0.15931246
143	0xbe7163de	-0.23573253
144	0xbca8e1f9	-0.020615565
145	0xbe4c5fcf	-0.19958423
146	0x3d4261fb	0.047456723
147	0xbe07017f	-0.13184164
148	0x3ee07903	0.43842325
149	0xbe89020d	-0.26759377
150	0xbeac4fb2	-0.33654553
151	0x3e159526	0.14607677
152	0x3da5c637	0.08094447
153	0xbe923700	-0.28557587
154	0xbd6d3a44	-0.057916895
155	0x3edccc9f	0.43124864
156	0xbe194330	-0.14967036
157	0x3e99483a	0.29937917
158	0xbe82029d	-0.2539262
159	0xbd342a94	-0.04398592
160	0x3dc3f8eb	0.09568962
161	0x3eae7b85	0.34078613
162	0x3d4db710	0.05022341
163	0x3d5d8ec4	0.05409123
164	0x3d3d63f5	0.046237905
165	0x3ef41e2d	0.47679272
166	0x3b55b02c	0.0032606227
167	0x3d4d4b0e	0.050120406
168	0xbda1714f	-0.0788294
169	0x3e441f8d	0.1915266
170	0xbe870a0f	-0.26374862
171	0x3eeda751	0.46416715
172	0x3e4b198d	0.19833966
173	0xbe822897	-0.25421593
174	0xbebf7b4d	-0.3739876
175	0xbe83022e	-0.255876
176	0x3e9613ae	0.2931189
177	0x3e835cbe	0.25656694
178	0x3ee35da1	0.4440737
179	0xbd99c4eb	-0.07508262
180	0xbe8db024	-0.27673447
181	0x3b791d8a	0.0038011991
182	0xbe9f0e8c	-0.31065786
183	0x3ec617e2	0.38690096
184	0xbea0519f	-0.31312272
185	0x3ddd9ba9	0.108207054
186	0xbe265ee4	-0.16247135
187	0x3e1662c9	0.14686121
188	0x3ebacb9c	0.36483467
189	0xbe4f2bf3	-0.20231609
190	0x3d076b4e	0.033061318
191	0xbecd72b0	-0.40126562
192	0x3e8fe9d5	0.28108087
193	0x3e814598	0.25248408
194	0x3e8e47b9	0.27789095
195	0x3e0a0892	0.13479832
196	0xbd7a8198	-0.061158746
197	0xbe8383df	-0.25686547
198	0x3e20d8e4	0.15707737
199	0x3eec1229	0.46107605
200	0x3ed83436	0.42227334
201	0x3e4e6c9f	0.20158623
202	0xbe2b6444	-0.16737467
203	0xbec09f41	-0.376215
204	0x3b512fb6	0.0031919307
205	0x3d583844	0.052788034
206	0xbdf8458d	-0.12122641
207	0xbea965ef	-0.33085582
208	0x3d1a83dd	0.03772341
209	0x3e099668	0.13436282
210	0xbec9de5f	-0.39427468
211	0x3c084b5e	0.00831875
212	0x3e3c9b6a	0.18418661
213	0xbd9838e0	-0.07432723
214	0xbc8eaa5d	-0.01741522
215	0xbe024258	-0.1272062
216	0xbeffe5d6	-0.49980038
217	0xbe2a6b31	-0.16642453
218	0x3d2334f9	0.03984544
219	0xbe5ce710	-0.21572518
220	0xbdf47fa1	-0.11938406
221	0xbeb65913	-0.35614833
222	0xbdef9372	-0.11698045
223	0xbcce6546	-0.025194775
224	0x3db0a3f0	0.086250186
225	0xbe27022e	-0.16309425
226	0x3eb6a92f	0.35675952
227	0xbe616492	-0.22011021
228	0x3ada75d6	0.0016667198
229	0xbe070d35	-0.13188632
230	0x3df36464	0.11884382
231	0x3e8bd152	0.27308136
232	0x3e356a07	0.17716227
233	0xbebce8c2	-0.3689633
234	0x3e8bcfcc	0.27306974
235	0x3e808767	0.25103304
236	0x3ee50c7c	0.44736087
237	0x3d592af6	0.053019486
238	0xbdb4b67f	-0.08823871
239	0x3e874190	0.26417208
240	0x3e2c5f22	0.16833165
241	0x3e2af8ca	0.16696468
242	0x3e6cdbe3	0.23130755
243	0xbe7d7fe2	-0.24755815
244	0x3e8731fa	0.26405317
245	0x3dc5fc76	0.09667294
246	0xbeac0489	-0.3359721
247	0xbe20244c	-0.15638846
248	0xbbbacd00	-0.0057007074
249	0x3e313b98	0.1730789
250	0x3ed19925	0.40937153
251	0x3e2f2710	0.17104745
252	0xbe664f3d	-0.22491165
253	0x3e6103e9	0.21974148
254	0x3edfb870	0.43695402
255	0xbecf7ef8	-0.40526557

weight f4 [16]
0	0x3f772ff7	0.96557564
1	0x3f630016	0.88672006
2	0x3f4d6361	0.80229765
3	0x3f73070c	0.9493263
4	0x3f5f041c	0.87115645
5	0x3f8510a4	1.0395703
6	0x3f5ab6d5	0.8543523
7	0x3f5488ec	0.83021426
8	0x3f829b6a	1.0203679
9	0x3f6cd9b1	0.9251967
10	0x3f6c2a11	0.9225169
11	0x3f86ce24	1.0531659
12	0x3f8c4eb1	1.0961515
13	0x3f7017d4	0.9378636
14	0x3f5a9237	0.85379356
15	0x3f88f1e2	1.0698817

bias f4 [16]
0	0xbc006c2e	-0.007838292
1	0x3b9f7f79	0.004867491
2	0x3b2bdb3d	0.0026223205
3	0x3bc41b71	0.0059847166
4	0x3b691282	0.003556401
5	0xbbe62799	-0.0070237634
6	0xbc21437a	-0.009842748
7	0xbbd71ef9	-0.0065649715
8	0xbcc997f5	-0.024608592
9	0x3c2de77f	0.010614275
10	0x3c0ead89	0.008708366
11	0x3aac6174	0.0013151602
12	0x3c173ded	0.009231073
13	0xbc1d5c9f	-0.009604602
14	0xbcc8d64c	-0.024516247
15	0x3b9925c7	0.004673693

running_mean f4 [16]
0	0x3ecba134	0.39771426
1	0xbcd59678	-0.026072726
2	0x3f165eb9	0.58738285
3	0xbcc3321a	-0.023827601
4	0xbef4746b	-0.4774507
5	0xbf227013	-0.6345226
6	0x3ddb50b2	0.10708751
7	0xbbacea24	-0.005276935
8	0x3e3a82df	0.18213986
9	0x3d80f7fd	0.062973
10	0x3ec36053	0.38159427
11	0xbef75877	-0.4830968
12	0x3eb52c19	0.35385206
13	0x3d457e18	0.048215955
14	0xbe6edbe4	-0.23326069
15	0x3f344bf7	0.70428413

running_var f4 [16]
0	0x3faaaa05	1.3333136
1	0x3f12abe2	0.5729352
2	0x3f78caad	0.9718426
3	0x3ed08624	0.4072734
4	0x3ed70a3a	0.4199999
5	0x3efc77f1	0.49310258
6	0x3f0e7e44	0.55661416
7	0x3ed25085	0.41077057
8	0x3f1b4a72	0.6066047
9	0x3f42e874	0.76135945
10	0x3f4a68d5	0.7906621
11	0x3ead9ad7	0.33907196
12	0x3f2fff34	0.68748784
13	0x3f01167c	0.50424933
14	0x3f03b184	0.5144274
15	0x3f836f75	1.0268389

weight f4 [48, 16, 1, 1]
0	0xbe8a18f9	-0.26972178
1	0x3e913987	0.28364202
2	0xbeb7e555	-0.35917154
3	0x3d9349f3	0.07191839
4	0x3e88e9e9	0.2674096
5	0xbe4fded0	-0.2029984
6	0x3dbbf593	0.09177699
7	0xbe09a838	-0.13443077
8	0xbe1e087a	-0.15432921
9	0x3eaeb3de	0.34121603
10	0xbdd0f7e7	-0.102035336
11	0x3ea0ab62	0.31380755
12	0xbccb6b16	-0.024831336
13	0xbd7cf276	-0.061754666
14	0x3e17de8b	0.14830987
15	0x3dae430a	0.085088804
16	0x3e15b0af	0.1461818
17	0xbe2391e3	-0.1597362
18	0xbd15a6d4	-0.036536053
19	0x3e0a9e8f	0.13537048
20	0xbe86399f	-0.26215836
21	0xbe31cb3c	-0.17362684
22	0x3ebb316e	0.3656115
23	0xbe11642d	-0.1419837
24	0x3d846f50	0.06466544
25	0xbe7f8700	-0.24953842
26	0x3dd34ae1	0.103170164
27	0xbea25ec6	-0.3171293
28	0x3e568023	0.20947318
29	0x3ec52643	0.38505754
30	0xbdebef9b	-0.115203105
31	0xbdaac5d5	-0.08338515
32	0x3dbef191	0.09323419
33	0xbe7e43ba	-0.24830523
34	0x3c02d06b	0.007984261
35	0x3e8048e9	0.25055626
36	0xbe3b9ab6	-0.18320736
37	0x3e985f02	0.29759985
38	0xbe3f126a	-0.18659368
39	0x3eb15150	0.3463235
40	0x3d6130c9	0.054978166
41	0xbe90f259	-0.28309897
42	0xbd496d22	-0.049176343
43	0xbe84efe4	-0.25964272
44	0x3ed0ce0d	0.40782204
45	0x3e5fc340	0.21851826
46	0x3e50358e	0.2033293
47	0xbe28a1c1	-0.16467954
48	0xbe77d345	-0.24201687
49	0xbcf94fcb	-0.030433556
50	0x3d854a21	0.065082796
51	0x3ddfac89	0.1092158
52	0xbda33dcb	-0.079707704
53	0xbe91d9fc	-0.2848662
54	0x3e5a4376	0.21314797
55	0x3dc82ed5	0.097745575
56	0xbeb3d6c0	-0.3512478
57	0x3e91b432	0.2845779
58	0x3e22e3d0	0.15907216
59	0x3deaa30c	0.1145688
60	0x3e0e213a	0.13879862
61	0x3e29ba30	0.16574931
62	0xbe8db007	-0.2767336
63	0xbe1f0f25	-0.15533121
64	0x3e4a2e6d	0.19744273
65	0xbdbad117	-0.09121912
66	0xbe348ea2	-0.17632535
67	0xbe65988a	-0.2242147
68	0x3e835bbc	0.25655925
69	0xbe4e54b5	-0.201495
70	0x3e5257dd	0.2054133
71	0x3e63da71	0.22251298
72	0xbe8c74b3	-0.27432784
73	0x3df4f032	0.11959876
74	0xbda0fa3d	-0.07860229
75	0x3e8bfa77	0.27339527
76	0xbe4dd6e5	-0.20101507
77	0xbe7cff18	-0.24706686
78	0xbd9f3310	-0.07773411
79	0x3e7f6cd8	0.24943864
80	0xbd84fc21	-0.06493402
81	0x3e46ffdb	0.19433539
82	0xbe61c580	-0.22047997
83	0xbd8b7b93	-0.06810679
84	0xbe9f9891	-0.31171086
85	0xbe63ba45	-0.22239025
86	0xbdee6175	-0.11639682
87	0xbdbc5e76	-0.091977045
88	0xbdbeddbe	-0.09319638
89	0xbd61d5ac	-0.055135414
90	0xbe0e32da	-0.13886586
91	0x3e210a90	0.15726686
92	0x3ef6caed	0.48201695
93	0x3d2f5551	0.042805973
94	0x3e697ae6	0.22800788
95	0x3d0638f8	0.032769173
96	0xbbb5a67d	-0.0055435286
97	0x3efb949b	0.49136814
98	0xbe293349	-0.1652347
99	0xbe744426	-0.23854122
100	0xbd9db422	-0.07700373
101	0xbe806ccb	-0.25083002
102	0xbe55d578	-0.20882213
103	0xbc1756b2	-0.009236978
104	0xbecd9e0f	-0.40159652
105	0xbe9fc2b3	-0.3120323
106	0x3dd1b1a3	0.1023896
107	0xbc39df8f	-0.011344804
108	0x3e9e2d9b	0.3089417
109	0x3e7479fb	0.23874657
110	0xbe4431e8	-0.19159663
111	0x3e0c4f0d	0.1370203
112	0xbdbd56f9	-0.09245104
113	0x3dc4fec4	0.09618905
114	0xbe92dc4c	-0.28683698
115	0x3cc85a01	0.02445698
116	0x3e674ff4	0.22589093
117	0x3dc550d9	0.09634561
118	0xbe6c66fb	-0.23086159
119	0xbea2690d	-0.31720772
120	0x3bdb82ac	0.006698927
121	0x3e4c370b	0.19942872
122	0x3dc2bbe1	0.09508491
123	0xbea0783c	-0.31341732
124	0x3e5ef874	0.21774465
125	0x3e3c716b	0.1840264
126	0xbde82836	-0.11335795
127	0xbdf9a7e3	-0.12190225
128	0x3e731457	0.23738228
129	0x3e9f3662	0.31096178
130	0xbe9695a7	-0.2941105
131	0xbe836142	-0.2566014
132	0xbcedb32c	-0.0290161
133	0xbeb8fed1	-0.3613191
134	0x3db50530	0.0883888
135	0xbb30d18b	-0.0026980366
136	0xbe141f50	-0.1446507
137	0xbe48ee1c	-0.19622082
138	0x3e6e8e03	0.2329636
139	0x3d00803d	0.031372298
140	0x3e204af8	0.15653598
141	0x3e1c81d2	0.15283898
142	0xbe0263de	-0.12733409
143	0xb9a119f1	-0.0003072764
144	0x3d7c4547	0.061589506
145	0xbc99f317	-0.018792672
146	0x3a213190	0.0006149048
147	0x3e30c9c5	0.17264469
148	0xbe8ab5ee	-0.27091926
149	0x3d50c676	0.050970517
150	0xbd10eaa4	-0.03538002
151	0xbe29537d	-0.16535755
152	0xbde1146f	-0.109902255
153	0xbe520056	-0.2050794
154	0x3d6f1f5b	0.058379512
155	0x3c0f19b8	0.008734159
156	0x3ea72d11	0.3265157
157	0x3ec07f62	0.37597185
158	0xbdc1da1f	-0.094654314
159	0x3ec7c1ef	0.39015147
160	0xbe1be344	-0.15223414
161	0x3ea80718	0.32817912
162	0x3e686b2c	0.22697133
163	0xbe32ebf9	-0.17472829
164	0x3d943af2	0.072378054
165	0xbd8b1302	-0.06790735
166	0xbca43c55	-0.0200483
167	0x3cb54e8a	0.022132177
168	0xbe521973	-0.2051752
169	0x3e82ba2b	0.2553266
170	0x3e5cc2ac	0.21558636
171	0xbeaa0b9a	-0.33211976
172	0xbe7eaec2	-0.24871352
173	0xbe6cce1b	-0.23125498
174	0x3e2a0fe9	0.16607632
175	0x3e9d1105	0.30677047
176	0x3e5bb0bf	0.21454142
177	0xbe9837d2	-0.29730088
178	0xbde317a5	-0.11088494
179	0xba490b88	-0.000766926
180	0x3e6a67a0	0.22891092
181	0x3e4bc1a5	0.19898088
182	0xbeef6927	-0.46759912
183	0x3c882698	0.016619965
184	0xbe845487	-0.2584574
185	0x3e91a3f9	0.28445414
186	0xbd931483	-0.07181647
187	0xbdc7c315	-0.09754006
188	0x3c1068be	0.008814035
189	0xbdd6546f	-0.10465323
190	0xbe36cd9a	-0.17851868
191	0x3d887256	0.06662433
192	0x3d539477	0.05165526
193	0xbdb45228	-0.088047326
194	0x3e28c9a8	0.16483176
195	0xbe950f68	-0.29113317
196	0xbe1db752	-0.15401962
197	0x3eae3a26	0.3402874
198	0x3e81a7b2	0.25323254
199	0xbd6c25f4	-0.057653382
200	0x3e6b2f2e	0.22967216
201	0x3e468443	0.19386391
202	0x3e391af5	0.1807669
203	0xbeb9836d	-0.36233082
204	0xbd71539a	-0.05891762
205	0x3e0e83c3	0.1391745
206	0x3e5e11cf	0.21686481
207	0xbe3b6f5c	-0.18304199
208	0x3d294025	0.04132094
209	0x3d270f66	0.04078617
210	0x3dd4b799	0.10386581
211	0xbe58c041	-0.21167089
212	0xbdc3549a	-0.09537621
213	0x3dbe7d31	0.09301222
214	0xbdeb9f5d	-0.115050055
215	0x3e8074cc	0.2508911
216	0xbeef7a7d	-0.4677314
217	0x3dd91c33	0.10601082
218	0xbea52889	-0.32257488
219	0xbeb64e90	-0.35606813
220	0xbe0dbdae	-0.13841888
221	0x3d2617d8	0.040550083
222	0x3df30cad	0.11867652
223	0x3ebd23a8	0.36941266
224	0x3e48bd37	0.1960343
225	0x3eaea83a	0.34112722
226	0x3e3769cc	0.17911452
227	0xbe6fb319	-0.23408164
228	0x3e5adf43	0.2137423
229	0x3e82905a	0.25500757
230	0x3cd35f83	0.02580238
231	0x3e06c627	0.13161527
232	0x3df342d2	0.11877979
233	0x3e8515be	0.2599315
234	0x3b6d2ed0	0.0036191233
235	0x3e869b93	0.2629057
236	0x3d978f67	0.07400399
237	0x3d59d5bc	0.05318235
238	0xbe942a07	-0.28938314
239	0xbd624659	-0.05524287
240	0xbda0efc4	-0.07858232
241	0xbdd7c795	-0.10536114
242	0xbe216d99	-0.15764464
243	0x3e0a9ef2	0.13537195
244	0x3db1522f	0.086582534
245	0xbe25b246	-0.16181287
246	0xbe8f6723	-0.28008375
247	0x3e1a67f7	0.15078722
248	0x3eacea00	0.33772278
249	0x3d0604ff	0.03271961
250	0xbeacbdee	-0.33738655
251	0xbea8f8ba	-0.33002263
252	0x3d8e3171	0.06943024
253	0xbe8a48fa	-0.27008802
254	0xbe2d0bb1	-0.16898991
255	0xbcd08dbf	-0.025458215

weight f4 [48]
0	0x3f6b37a6	0.9188179
1	0x3f91bd65	1.1385924
2	0x400970c6	2.1475081
3	0x3f76cf8d	0.9641045
4	0x3fc43e64	1.533154
5	0x3f7a8be6	0.9786972
6	0x3f83520c	1.0259414
7	0x3f68a20f	0.9087228
8	0x3fb092f3	1.3794845
9	0x3f1c8b23	0.61149806
10	0x3f5beddd	0.85909826
11	0x3f96bffd	1.177734
12	0x3f603f60	0.875967
13	0x3fabad39	1.3412238
14	0x3f52601e	0.82177913
15	0x3f578b94	0.84197354
16	0x3f454e0e	0.77072227
17	0x3f753348	0.95781374
18	0x3f8870ee	1.0659463
19	0x3f8a0342	1.0782244
20	0x3fd8a144	1.6924214
21	0x3f5d89a9	0.8653818
22	0x3f895858	1.0730085
23	0x3f267296	0.65018594
24	0x3f72498f	0.9464349
25	0x3f3378da	0.7010628
26	0x3f803e0d	1.0018936
27	0x3f9b61ae	1.2139184
28	0x3f6d76c2	0.92759335
29	0x3f174aad	0.5909832
30	0x3f92f898	1.1482115
31	0x3f99db69	1.2020084
32	0x3fb2eafa	1.3977959
33	0x3f5dc771	0.8663245
34	0x3f5b31ab	0.8562266
35	0x3f861ed0	1.0478153
36	0x3f88d4a8	1.0689898
37	0x3f5b3b65	0.85637504
38	0x3f80fd1c	1.0077243
39	0x3f872e8b	1.0561079
40	0x3f8703f2	1.0548079
41	0x3f89800a	1.07422
42	0x3f85cb9a	1.0452759
43	0x3f6cd962	0.925192
44	0x3f9ec795	1.2404658
45	0x3f3a1a53	0.7269642
46	0x3f7e4ff6	0.9934076
47	0x3f7e3c6d	0.9931095

bias f4 [48]
0	0xbdd81610	-0.10551083
1	0x3dd927a6	0.106032655
2	0xbc174901	-0.009233714
3	0x3db4de34	0.088314444
4	0x3d52fd47	0.051511075
5	0x3dcada40	0.09904909
6	0x3d92e200	0.07172012
7	0x3e026140	0.1273241
8	0x3e33aed1	0.17547156
9	0xbd0772ab	-0.03306834
10	0x3df70c4f	0.120628946
11	0x3d05c930	0.03266257
12	0x3e33d4e4	0.1756168
13	0x3c18ce94	0.009326596
14	0xbd99f782	-0.075179115
15	0x3d93a61c	0.07209417
16	0x3e0bbd4c	0.1364643
17	0xbdaae2b0	-0.083440185
18	0x3e0824ca	0.13295284
19	0x3e8d6f69	0.27624062
20	0x3cab7080	0.020927668
21	0x3e2213e4	0.158279
22	0x3d427b5a	0.04748092
23	0x3d63bb8d	0.055598784
24	0xbe160ab2	-0.14652517
25	0x3c25edf8	0.010127537
26	0x3e0f3e25	0.1398855
27	0xbe6aed6f	-0.22942136
28	0x3dedc7b4	0.11610356
29	0xbe5ce3d0	-0.21571279
30	0x3e1344c0	0.14381695
31	0x3ebc881a	0.36822587
32	0x3d0edb46	0.034877084
33	0xbe0c032d	-0.13673086
34	0xbe3ab688	-0.18233693
35	0xbe06cb3a	-0.13163462
36	0x3bb93b3e	0.005652814
37	0x37d99b99	2.5940872e-05
38	0x3d90af28	0.070646584
39	0x3db187ee	0.08668505
40	0x3e79d079	0.24395932
41	0x3e306094	0.17224342
42	0xbe2d324c	-0.16913718
43	0x3e07289d	0.13199086
44	0xbcf1e5fb	-0.029528609
45	0xbe6f3f5f	-0.23364018
46	0x3e3f92c8	0.18708336
47	0xbd997742	-0.0749345

running_mean f4 [48]
0	0x3c19f404	0.009396557
1	0xbbdb1fe6	-0.006687152
2	0xbc51e7f8	-0.012811653
3	0x3ca7ebcb	0.020498177
4	0x3bcf4ec1	0.006326527
5	0x3b013123	0.0019713126
6	0x3c8f77f1	0.017513247
7	0x3c2218e5	0.009893631
8	0x3bb68760	0.005570337
9	0x3ba90f19	0.0051592705
10	0x3c1d739c	0.009610083
11	0x3c741496	0.014897486
12	0xbc9146ba	-0.01773392
13	0x3b7dd74c	0.0038733063
14	0x3b8bb293	0.004263231
15	0xb9c1b710	-0.0003694822
16	0xbc371b52	-0.011175947
17	0x3b8ec898	0.0043574087
18	0x3be1247a	0.0068708034
19	0x3af8d44c	0.0018984168
20	0x3b9957c3	0.0046796515
21	0xbb725b2e	-0.0036980617
22	0x3a102dab	0.0005499969
23	0x3b2de206	0.0026532426
24	0xbcb4de07	-0.022078527
25	0xbb0f727c	-0.0021888306
26	0xbc667900	-0.014066935
27	0x3baed46b	0.005335381
28	0x3c68896d	0.014192921
29	0xbbe7a3ae	-0.0070690727
30	0x3babce9c	0.0052431356
31	0x3c0c982d	0.008581203
32	0x3c168729	0.009187498
33	0xbc053793	-0.008130926
34	0x3b58f49b	0.003310478
35	0x3bb3cfcc	0.005487418
36	0xba63409f	-0.0008668992
37	0xbc046708	-0.008081205
38	0x3c855acc	0.016278647
39	0xbc2eb943	-0.010664287
40	0xbb8dbd5e	-0.004325553
41	0x3c00a574	0.007851947
42	0xbc7a808c	-0.015289437
43	0xbc632ac1	-0.013865174
44	0xbaafae3b	-0.0013403365
45	0xbc2ebc9b	-0.010665084
46	0x3bb02864	0.0053759087
47	0x3c0cf854	0.008604128

running_var f4 [48]
0	0x3f573804	0.8406985
1	0x3f1b772a	0.60728705
2	0x3ee4a98f	0.44660613
3	0x3f2f6274	0.685096
4	0x3ef27d43	0.47361192
5	0x3f9b3466	1.2125366
6	0x3f59c5dc	0.85067534
7	0x3f3f2928	0.74672174
8	0x3effd5e5	0.49967876
9	0x3ef1022e	0.47071975
10	0x3f674025	0.9033225
11	0x3f259d0f	0.6469278
12	0x3f12f6e1	0.5740796
13	0x3f254d23	0.64570826
14	0x3e877887	0.26459143
15	0x3f80e334	1.0069337
16	0x3f06c303	0.52641314
17	0x3fb9a8cb	1.4504637
18	0x3f51a364	0.8188994
19	0x3fc25b8d	1.5184189
20	0x3f463e78	0.7743907
21	0x3f81d1df	1.0142173
22	0x3f39e36b	0.7261264
23	0x3ea50c6f	0.3223605
24	0x3f85958c	1.0436263
25	0x3f3b28fc	0.7310941
26	0x40192535	2.392896
27	0x3f7421f7	0.95364326
28	0x3ee95984	0.45576108
29	0x3ef2fb63	0.47457418
30	0x3f540d5f	0.828329
31	0x3f76d916	0.96424997
32	0x3f8678d4	1.0505624
33	0x3f924a8f	1.1429003
34	0x3fd70544	1.6798482
35	0x3fec7c29	1.8475391
36	0x3f0fdb51	0.56194025
37	0x3f23c0b0	0.6396589
38	0x3fbcd6e9	1.4753085
39	0x3f794281	0.973671
40	0x3f573442	0.84064114
41	0x3e970297	0.29494163
42	0x3fa72ef4	1.3061204
43	0x3f533775	0.82506496
44	0x3f28f1d2	0.6599399
45	0x3eddbadb	0.43306622
46	0x3f10c18c	0.5654533
47	0x3f366597	0.71248764

weight f4 [48, 1, 3, 3]
0	0x3d89c140	0.06726313
1	0xbce2254e	-0.027605679
2	0x3e3370ff	0.17523573
3	0xbdd83e02	-0.10558702
4	0x3cbd7e0b	0.023131391
5	0x3d98195e	0.074267134
6	0x3cfd8426	0.030946802
7	0x3ddd406f	0.10803305
8	0xbeb1b88b	-0.34711108
9	0x3e27da5e	0.16391894
10	0x3d8c0dc6	0.068385646
11	0x3df6306f	0.12020957
12	0x3e4b486d	0.19851847
13	0x3e9421d1	0.2893205
14	0x3e1ef28a	0.15522209
15	0xbd563991	-0.052300993
16	0xbcae2540	-0.021257997
17	0xbd49ce99	-0.049269293
18	0x3df0896f	0.117449634
19	0x3de3fffb	0.11132809
20	0xbe1bb0c9	-0.15204157
21	0xbe859eb0	-0.2609763
22	0xbe327b89	-0.17429937
23	0xbae34bdc	-0.0017341333
24	0xbe389c08	-0.18028271
25	0x3dbe7cfb	0.09301182
26	0x3d189858	0.03725466
27	0xbe35499b	-0.1770386
28	0x3c9bde83	0.019027
29	0x3dae88de	0.08522199
30	0xbca34dfc	-0.019934647
31	0x3e093e08	0.1340257
32	0xbd715ce6	-0.058926485
33	0x3e5a490e	0.2131693
34	0x3d497b18	0.049189657
35	0xbe1276a4	-0.1430307
36	0xbdced1d3	-0.100986145
37	0xbd67e325	-0.056613106
38	0xbe15673f	-0.14590167
39	0x3cc64a4f	0.024205355
40	0xbc0ead20	-0.008708268
41	0xbe016675	-0.1263674
42	0xbe0f7308	-0.14008725
43	0xbe259d96	-0.16173396
44	0xbe974ede	-0.29552358
45	0x3bf6e368	0.007534433
46	0xbe0be7fa	-0.13662711
47	0xbda94892	-0.08265795
48	0x3d57bef1	0.05267233
49	0xbd44a1fa	-0.048006035
50	0x3ea5e125	0.32398334
51	0x3d9802a9	0.074223824
52	0x3d859cd6	0.06524055
53	0x3dbb7dc3	0.091548465
54	0x3de07e60	0.10961604
55	0x3db513ef	0.08841693
56	0x3d9645b5	0.07337514
57	0x3d0cdd69	0.03439084
58	0xbd9c6303	-0.076360725
59	0x3e250f38	0.16119087
60	0x3e368ef1	0.17827965
61	0xbb8c5360	-0.0042824
62	0x3e58dc37	0.21177755
63	0xbd793697	-0.060843077
64	0xbd58f332	-0.052966304
65	0x3caadc68	0.020857051
66	0xbea2b68a	-0.3177989
67	0x3c184966	0.009294843
68	0x3e69d0ca	0.22833553
69	0xbd7518d4	-0.05983813
70	0x3ca26015	0.019821206
71	0xbb1836b5	-0.0023225967
72	0x3e1d3e80	0.15355873
73	0xbd02cd75	-0.03193422
74	0x3e492ccd	0.19645996
75	0xbe0441ff	-0.129158
76	0x3e354947	0.17703734
77	0xbe018b5e	-0.1265082
78	0xbe782c06	-0.24235544
79	0xbdcefaed	-0.10106454
80	0x3c31f7fc	0.010862347
81	0x3e26e288	0.16297352
82	0x3cd6aad7	0.02620451
83	0x3e05a24b	0.13050191
84	0xbe4e5fac	-0.20153683
85	0xbdea80a6	-0.11450319
86	0x3d75793f	0.059930082
87	0xbca67fa6	-0.02032454
88	0x3e2378a4	0.1596399
89	0xbe2409c2	-0.16019347
90	0x3c8a8cb9	0.016912805
91	0x3e1c1566	0.15242538
92	0x3d95bbc5	0.07311205
93	0x3e294263	0.16529231
94	0xbe36f7f1	-0.1786802
95	0xbdba598e	-0.090991125
96	0xbc99efaf	-0.018791048
97	0x3d2b0c25	0.04175963
98	0xbea7b30b	-0.32753786
99	0xbd930d66	-0.0718029
100	0x3cff5cff	0.031172274
101	0xbd15903a	-0.0365145
102	0xbccb8c97	-0.024847312
103	0x3e5625ce	0.20912859
104	0x3e318c4f	0.1733868
105	0xbbac2182	-0.005253018
106	0x3e571892	0.21005467
107	0x3e5e0e9b	0.21685259
108	0x3e1d8d9e	0.15386054
109	0x3d5db13c	0.054124102
110	0xbe3479eb	-0.17624633
111	0xbdd68d57	-0.10476177
112	0xbdf628df	-0.12019514
113	0x3e276598	0.16347349
114	0xbdaeacd4	-0.08529058
115	0x3dfe36c2	0.12412788
116	0xbe5a6442	-0.21327308
117	0x3e0eb126	0.13934764
118	0x3d821bac	0.06352934
119	0x3e0e1278	0.13874233
120	0x3d9bb150	0.07602179
121	0xbda66d4f	-0.08126318
122	0x3e22f003	0.1591187
123	0xbd9136d3	-0.07090535
124	0xbe6469de	-0.2230601
125	0xba9e4aa2	-0.0012076686
126	0x3c4fd4bd	0.012684998
127	0xbe087fa9	-0.13329948
128	0x3e6e7b2c	0.23289174
129	0xbe38e57b	-0.1805629
130	0x3d2fbd1a	0.04290495
131	0x3e269ab7	0.16269957
132	0xbde84802	-0.113418594
133	0xbd0925e7	-0.033483412
134	0xbaf3a509	-0.0018588613
135	0x3d4a9680	0.049459934
136	0x3d9ba14f	0.075991265
137	0x3e29717d	0.16547199
138	0x3d9fd958	0.07805127
139	0xbde4185e	-0.1113746
140	0xbd7af679	-0.06127021
141	0x3d5681d3	0.052369904
142	0x3dffd103	0.12491038
143	0x3e510265	0.2041107
144	0xbd924616	-0.07142274
145	0xbd7d1002	-0.061782844
146	0x3db62efd	0.08895681
147	0xbde92c2b	-0.113853775
148	0xbe274ed6	-0.16338667
149	0x3e117e90	0.14208436
150	0x3e168c09	0.14701857
151	0xbd93d363	-0.07218053
152	0x3e153690	0.14571595
153	0x3d0c2a3c	0.034219965
154	0x3d862cbb	0.065515004
155	0x3da91bb6	0.082572386
156	0x3d8a3dde	0.067500815
157	0xbe8e9e17	-0.27854988
158	0xbd75fdd8	-0.060056537
159	0x3e0e8d7d	0.13921161
160	0xbc233fbf	-0.009963929
161	0x3e2e55a9	0.17024864
162	0xbdd7168b	-0.105023466
163	0xbe0468dc	-0.12930626
164	0x3d6b6223	0.057466637
165	0x3dc0a73a	0.09406896
166	0x3e2160ee	0.15759632
167	0xbd086633	-0.03330059
168	0xbc8320b2	-0.016006801
169	0x3e24836b	0.16065757
170	0x3e915f89	0.283932
171	0x3d5bbcca	0.05364684
172	0x3dbba3d2	0.091621056
173	0xbe8a6252	-0.27028137
174	0xbacdbf24	-0.0015697223
175	0x3a591b2b	0.00082819414
176	0xbc2a9ba9	-0.010413089
177	0x3e11d66b	0.1424195
178	0xbe88baa2	-0.2670489
179	0x3e1e4093	0.1545432
180	0x3e00dd9b	0.12584536
181	0x3c8e1f69	0.017348962
182	0xbe8ec725	-0.2788631
183	0xbb972091	-0.0046120365
184	0x3d43482b	0.047676247
185	0xbd841921	-0.064501055
186	0xbdfbb59b	-0.12290498
187	0xbe0e9b52	-0.13926437
188	0x3e124edd	0.14287896
189	0xbe108377	-0.1411265
190	0x3cba49ac	0.022740208
191	0x3dfa512a	0.12222512
192	0x3d983dcb	0.07433661
193	0xbddbda51	-0.10735
194	0x3cb87fdc	0.022521906
195	0x3e497b43	0.19675927
196	0x3d1119a4	0.035424843
197	0xbe940430	-0.28909445
198	0x3e785f2e	0.24255058
199	0xbeaa0c21	-0.3321238
200	0x3db95425	0.090492524
201	0x3c5187c6	0.012788719
202	0xbd06eda8	-0.03294149
203	0xbdc3cd8a	-0.09560688
204	0x3c1c29c1	0.009531439
205	0x3db413ce	0.0879284
206	0xbda81c77	-0.08208554
207	0x3d694c3e	0.056957476
208	0x3df80ab8	0.121114194
209	0x3c9de071	0.019272061
210	0xbe167fd3	-0.14697199
211	0x3e3046cd	0.17214508
212	0x3e853ed1	0.26024488
213	0xbd88b105	-0.06674389
214	0x3e00bb18	0.1257137
215	0x3e18ff38	0.14941108
216	0xbe7ba81e	-0.2457585
217	0x3d1fe3a7	0.039035466
218	0x3dece408	0.11566931
219	0xbd4e625d	-0.050386775
220	0xbd9a4b19	-0.07533855
221	0x3df851a3	0.12124946
222	0xbe479d4e	-0.194936
223	0xbd526082	-0.05136157
224	0x3e398592	0.1811736
225	0xbe2fd42e	-0.17170784
226	0x3cfc116d	0.030770028
227	0x3da91216	0.08255403
228	0x3e012545	0.12611873
229	0x3ddabcf0	0.10680568
230	0x3e5be354	0.21473438
231	0x3d81c9b1	0.06337298
232	0xbddf329b	-0.10898324
233	0xbd5f73b0	-0.054553688
234	0xbe45eb5e	-0.19328067
235	0xbe3d8db3	-0.18511085
236	0xbd658b10	-0.056040823
237	0x3e063e29	0.1310965
238	0x3dbdfa9f	0.09276318
239	0x3e148000	0.14501953
240	0xbd4b1584	-0.049581066
241	0x3db3ee58	0.08785695
242	0x3e04ac10	0.12956262
243	0xbc453c54	-0.012038309
244	0xbd8c4245	-0.068485774
245	0x3df4e4e8	0.11957723
246	0xbe5d58c5	-0.21615894
247	0x3cb14abe	0.021642085
248	0x3e62c8d0	0.22146916
249	0xbd7058d8	-0.058678478
250	0x3c45b04d	0.012065959
251	0x3d3f4c1c	0.046703443
252	0x3d01c84e	0.031685166
253	0x3d9826b7	0.07429259
254	0x3e0a2b14	0.13492996
255	0x3da2a1f4	0.07941046

weight f4 [48]
0	0x3f7508e5	0.95716697
1	0x3f7e9408	0.9944463
2	0x3f940c7b	1.1566309
3	0x3f786e49	0.9704328
4	0x3f93df43	1.1552509
5	0x3f6a2253	0.91458625
6	0x3f64c8b2	0.89368737
7	0x3f895834	1.0730042
8	0x3f834d88	1.0258036
9	0x3f8efd6f	1.1171092
10	0x3f9820f6	1.1885059
11	0x3f888128	1.0664415
12	0x3f9e7e3a	1.2382271
13	0x3f94ac62	1.1615107
14	0x3f4d5624	0.80209565
15	0x3f7b3098	0.98121023
16	0x3f980215	1.1875635
17	0x3f82593e	1.0183485
18	0x3f86cdf7	1.0531605
19	0x3f81f9d0	1.0154362
20	0x3f8ed0f3	1.1157516
21	0x3f89643f	1.0733718
22	0x3f763aa2	0.96183217
23	0x3f602ce2	0.87568486
24	0x3f7171fa	0.9431454
25	0x3f5a5401	0.8528443
26	0x3f815d37	1.0106572
27	0x3fb36f83	1.4018406
28	0x3f79ba9b	0.9755036
29	0x3f842698	1.0324278
30	0x3f87d3c9	1.0611507
31	0x3f9fca5c	1.248363
32	0x3f8d1235	1.1021181
33	0x3f8c239e	1.094837
34	0x3f6bcd7f	0.9211044
35	0x3f74b02a	0.95581305
36	0x3f9ecfc2	1.2407153
37	0x3f8a6ef7	1.0815114
38	0x3f8b06c2	1.0861437
39	0x3f79371d	0.9734972
40	0x3f86f1ec	1.0542579
41	0x3f7a3533	0.97737426
42	0x3f79cb73	0.97576064
43	0x3f83d65e	1.0299795
44	0x3fa1673f	1.2609633
45	0x3fabc9f4	1.3421006
46	0x3f83ce23	1.0297283
47	0x3fa57547	1.2926415

bias f4 [48]
0	0xbde01112	-0.10940756
1	0xbe117bf3	-0.14207439
2	0x3e1bb630	0.15206218
3	0xbeadf68f	-0.33977172
4	0xbc7c60c7	-0.015403933
5	0xbdf3997f	-0.118945114
6	0xbea06c8a	-0.3133281
7	0xbe5bae9e	-0.2145333
8	0xbc74a0bc	-0.0149309
9	0xbd1ac638	-0.037786692
10	0xbab6425d	-0.0013905276
11	0x3c91e777	0.017810566
12	0xbd17aeba	-0.037031867
13	0xbcdaa295	-0.026688853
14	0xbd0f9ae0	-0.03505981
15	0x3e583469	0.21113743
16	0x3d4ed9cc	0.050500676
17	0xbd54d5e1	-0.051961783
18	0x3e192f6e	0.14959499
19	0xbd81def1	-0.06341351
20	0xbb6e23a1	-0.0036337154
21	0x3c081a37	0.008307031
22	0x3e34f1b7	0.17670332
23	0x3e9f077b	0.31060395
24	0x3cae11e5	0.021248767
25	0xbd9a6091	-0.0753795
26	0xbddb6d81	-0.107142456
27	0xbe1d18e7	-0.1534153
28	0xbcac9b86	-0.021070253
29	0xbdb4b597	-0.08823698
30	0xbdaa6dee	-0.08321749
31	0xbe1c4082	-0.15258983
32	0x3d9f375f	0.07774233
33	0x3db43a14	0.0880014
34	0xbdc6bf68	-0.097044766
35	0x3e2ffc84	0.17186171
36	0x3cd4587c	0.025921099
37	0xbb813bb9	-0.003943887
38	0x3d34b9b7	0.044122424
39	0xbe8e232e	-0.27761215
40	0xbde768b8	-0.112992704
41	0x3d94856f	0.07252013
42	0xbd34f3a5	-0.04417767
43	0x3c9177fb	0.017757406
44	0x3e7a2ba5	0.24430712
45	0x3e162e3a	0.14666072
46	0xbdeb009d	-0.11474726
47	0xbe3a6138	-0.18201149

running_mean f4 [48]
0	0x3aa559d9	0.0012615278
1	0x3e90e466	0.28299254
2	0xbe754bcd	-0.23954697
3	0x3d108baf	0.035289463
4	0xbeafbe5a	-0.34324914
5	0x3e00e958	0.12589014
6	0x3e8455c2	0.25846678
7	0xbdab0aa4	-0.08351639
8	0xbd811868	-0.06303483
9	0xba8e6a70	-0.0010865461
10	0xbd0932a5	-0.033495564
11	0x3e85b7a8	0.2611668
12	0xbda7cf1e	-0.08193801
13	0x3dded6ca	0.108808115
14	0xba5ef8ff	-0.0008505731
15	0x3e20402e	0.15649483
16	0x3b65ce12	0.0035065454
17	0x3d618708	0.055060416
18	0x3e4b9a88	0.19883168
19	0xbd583f85	-0.052794952
20	0xbe25294c	-0.16129035
21	0xbcbdce7e	-0.023169752
22	0xbd1a973d	-0.03774189
23	0x3e030ae7	0.12797128
24	0xbd0fe58a	-0.035131015
25	0x3d9588f6	0.07301514
26	0x3d4499be	0.047998182
27	0x3bfaee56	0.0076578064
28	0x3d5e7d04	0.054318443
29	0xbd309a15	-0.043115694
30	0x3e38e526	0.18056163
31	0xbaf9b19b	-0.0019050123
32	0x3df6072f	0.12013089
33	0xbdb1a3c2	-0.086738124
34	0x3d73eb37	0.05955049
35	0xbd3624ab	-0.044468563
36	0xbe62f58f	-0.22163986
37	0x3d0be4d3	0.03415377
38	0xbe92711b	-0.28601918
39	0xbd5c1719	-0.053732965
40	0x3b0a12de	0.0021068375
41	0xbdfe763e	-0.12424897
42	0x3d103d18	0.035214514
43	0x3e5c3bce	0.21507189
44	0xbe30b299	-0.1725563
45	0x3c79528b	0.015217434
46	0x3be9bcf5	0.007133121
47	0x3dac5b4e	0.084158525

running_var f4 [48]
0	0x3c0ee4d2	0.008721547
1	0x3ea35b52	0.3190561
2	0x3e3f03f2	0.18653849
3	0x3c005c94	0.007834572
4	0x3e19b371	0.15009858
5	0x3d23c239	0.039980147
6	0x3db60e7d	0.08889482
7	0x3c7b31ca	0.015331695
8	0x3dc53991	0.096301205
9	0x3c46416b	0.012100558
10	0x3d4e1b49	0.05031899
11	0x3d99935c	0.0749881
12	0x3c959317	0.018258614
13	0x3e06dcfc	0.13170236
14	0x3c8a253a	0.016863454
15	0x3d3dafd2	0.046310253
16	0x3d3797be	0.044822447
17	0x3bd4c402	0.0064930925
18	0x3e2455b6	0.16048321
19	0x3d0c3432	0.034229465
20	0x3da1a16d	0.07892118
21	0x3c11cb3d	0.008898553
22	0x3d06d0b2	0.03291387
23	0x3db19083	0.086701415
24	0x3c4c07d5	0.012453039
25	0x3cc112cc	0.023568533
26	0x3d266e2f	0.040632423
27	0x3d9ebed6	0.07751243
28	0x3d0a4504	0.033757225
29	0x3c875944	0.016522057
30	0x3d3c30d5	0.045945007
31	0x3cf69397	0.030099673
32	0x3e191c3c	0.14952177
33	0x3c1e5728	0.009664334
34	0x3d223735	0.03960343
35	0x3ccd584d	0.02506652
36	0x3e4d627b	0.20057099
37	0x3cf7de5a	0.030257393
38	0x3d0de7b5	0.0346448
39	0x3ca0ec8d	0.019644046
40	0x3c64147d	0.0139209
41	0x3d8c47d5	0.068496384
42	0x3d92f32c	0.071752876
43	0x3d8c7b69	0.06859476
44	0x3e713dde	0.23558757
45	0x3c424e74	0.011859525
46	0x3d3ede64	0.046598807
47	0x3d213143	0.03935362
