trained_model/BiSegNet(ReagentV2)_final.pt (torch, 396766 bytes, 152 tensors)

weight f4 [8, 1, 3, 3]
000000 b0 0b 7e 3c c8 9b 3b be e6 32 22 be 5e 40 6c 3e
       0.015505716 -0.18321145 -0.15839729 0.23071429
000010 91 d7 0d 3e a9 e7 31 be 95 15 84 be 4d 91 a8 be
       0.13851763 -0.17373528 -0.25797716 -0.32923356
000020 95 bf 8b 3e 1c af d9 3d 85 09 de bd 2a 45 9d be
       0.27294603 0.106291026 -0.108416595 -0.3071683
000030 17 60 bf bc 67 d2 7c 3d 0b f7 0a 3e 49 85 91 3e
       -0.023361249 0.061724093 0.13570802 0.28422
000040 c3 83 a1 3e 1a 17 94 bb a2 02 85 3e cb af 90 3e
       0.3154584 -0.0045193555 0.2597857 0.2825912
000050 49 00 7d 3e d7 48 76 bd b6 aa de 3d 0f be 32 be
       0.2470714 -0.06012806 0.10872404 -0.17455314
000060 1e a8 1f be 0c 61 b7 bd b2 cb 21 3d e7 00 53 be
       -0.15591475 -0.08954057 0.0395009 -0.20605813
000070 a8 e9 2d be 8e 2e 9f 3e ee 05 0d bd 90 86 f1 3d
       -0.16983664 0.31090206 -0.034429483 0.11793244
000080 9c 76 0f 3e e7 58 18 3e 75 c7 97 3e b4 73 7c 3e
       0.1401009 0.14877664 0.2964436 0.24653512
000090 f5 60 28 3e a6 5d a6 3e 65 7c 78 be d6 58 80 3e
       0.16443236 0.32493323 -0.24266203 0.25067776
0000a0 a4 34 e1 3d 59 df 7e 3c 5b 5f 4c 3e 8f 42 7c 3e
       0.109963685 0.01555618 0.1995825 0.24634765
0000b0 51 4d 2c 3e cd f6 ab 3c 93 5f 14 3e ea 6d a1 3e
       0.16826369 0.020991707 0.14489584 0.3152917
0000c0 54 3e 1e be c1 78 25 be 17 c7 2f 3e 8c 34 ac 3d
       -0.15453464 -0.16159345 0.1716579 0.0840846
0000d0 3a ab 3f 3e 03 29 cf 3e e9 e1 80 be df 07 e4 3d
       0.18717661 0.40460977 -0.25172356 0.11134314
0000e0 cb b5 69 be 75 b9 b7 3d 1e 0a 8a be 8c fc b9 bd
       -0.22823255 0.0897092 -0.26960844 -0.090813726
0000f0 dc 9a 88 3e bb 69 49 bc 3a 33 2e be ba 6e 82 be
       0.26680648 -0.0122932745 -0.17011729 -0.25475103
000100 fe ce be bd 19 f4 6d be e6 b5 cb 3d 9d 49 95 3d
       -0.093168244 -0.23237647 0.09946804 0.07289431
000110 db 8d 32 3e f8 67 c2 be a7 26 d2 bd 02 18 96 be
       0.17436926 -0.37969947 -0.102612786 -0.29315192

weight f4 [8]
000000 5f 45 80 3f 47 1f 7c 3f 78 55 8f 3f 78 d0 8e 3f
       1.002117 0.98485225 1.1197958 1.115737
000010 b2 6b 75 3f 6d 44 73 3f 5b 82 80 3f 13 f8 72 3f
       0.95867455 0.95026284 1.0039781 0.9490978

bias f4 [8]
000000 a3 b9 19 bd ec 4b 94 3c b5 aa 0f 3e 0a d9 23 3d
       -0.037530553 0.018102609 0.14029963 0.040001906
000010 19 e8 d1 bd 37 cd 09 bc b1 e3 02 bc 0f 74 da 3c
       -0.10249347 -0.008410743 -0.007988856 0.02666667

running_mean f4 [8]
000000 8a ce 9f c2 8a c3 a7 42 86 97 a3 42 62 80 19 43
       -79.9034 83.88191 81.795944 153.5015
000010 0b 81 5f 43 03 d5 36 43 d2 2a c8 c2 ec cf 35 c3
       223.50407 182.83208 -100.08363 -181.8122

running_var f4 [8]
000000 ac 17 36 44 b8 f4 59 44 4e 34 6c 44 43 fe 25 45
       728.3699 871.8237 944.81726 2655.8914
000010 91 fd af 45 b9 1a 6b 45 39 76 94 44 0b a2 66 45
       5631.696 3761.6702 1187.6945 3690.1277

weight f4 [24, 8, 1, 1]
000000 a9 d2 01 bc c8 db 9e be 76 10 ce be b4 db 94 3e
       -0.00792376 -0.31027055 -0.40246934 0.2907387
000010 09 2c 04 3e 17 68 6f 3d 80 0d d5 be ca ac 86 3e
       0.12907423 0.058448877 -0.41611862 0.26303703
000020 23 c5 3b 3e 5c 2d 0b be 1b 99 3d be 6b 94 05 bf
       0.1833692 -0.13591522 -0.18515436 -0.5217959
000030 7c 25 9d be 86 9d ac be 5e 7e 6f 3d 5e c4 0a 3e
       -0.3069266 -0.3371393 0.058470123 0.1355147
000040 cb 63 05 3e 26 4e df be df 52 46 be b9 6f 84 3d
       0.13026349 -0.4361431 -0.1936755 0.06466622
000050 1a d4 5c 3d bc 59 a5 3e 94 2e 2f bd 3e c3 10 3e
       0.053913213 0.32295024 -0.04276903 0.14136979
000060 bc 82 35 be cb d0 e2 3d 20 51 3c 3e 3e 1d c4 bd
       -0.17725652 0.1107498 0.18390322 -0.0957589
000070 ed 32 a5 be 51 d9 9e 3e c6 52 eb 3b 32 f6 21 3f
       -0.32265416 0.31025174 0.007181498 0.6326629
000080 8a 4a 03 3e 74 81 79 be 11 09 a8 3e 84 f5 9c bd
       0.12821403 -0.24365789 0.32819417 -0.07664016
000090 d4 1e 38 bd 5c 20 93 3d fc bd 8b be 8e b3 9b 3e
       -0.044951275 0.071839064 -0.27293384 0.30410427
0000a0 ab 9c fa 3d 7c 2a 79 3d 91 9c 56 3e 4e f7 7f be
       0.12236913 0.060831532 0.20958163 -0.24996683
0000b0 6c ac f7 bd 69 7e d3 bd 12 93 83 be a7 69 a9 3c
       -0.12093434 -0.10326845 -0.25698143 0.020680262
0000c0 a0 b0 f1 bd 1a 62 33 be 06 2a 4c be 48 f9 b5 be
       -0.11801267 -0.17517892 -0.19937906 -0.3554175
0000d0 ed 17 85 3d 4c 3b 5f 3e 87 ec 38 be c0 e1 14 be
       0.06498704 0.21799964 -0.18058978 -0.14539242
0000e0 13 b1 d8 3d 89 a8 74 be 66 7a 65 be 13 2b a6 3e
       0.10580649 -0.23892416 -0.22409973 0.32454738
0000f0 4e 87 41 3b 18 84 ce be 15 fa 97 3e 4a e3 1b 3f
       0.002953011 -0.40335155 0.29682985 0.6089369
000100 f6 89 dd 3e 37 02 92 be b3 b7 8a 3e 6f 64 2b 3e
       0.43269318 -0.28517315 0.27093276 0.16737531
000110 aa 8d 0d 3d 7f 46 eb 3e 3d 48 a8 3d 23 3e f0 bc
       0.03455893 0.45952222 0.08216903 -0.029326504
000120 33 47 d0 be 55 b5 16 bd a4 2b fa 3e 90 84 7e 3e
       -0.4067932 -0.036794025 0.4886142 0.24855256
000130 c1 34 39 be e0 c6 7a be bf ec dc 3e b4 0f ab be
       -0.1808653 -0.24489927 0.43149373 -0.33410418
000140 0c 42 1a bf fd 63 d7 be 51 d7 53 be f2 29 bb 3d
       -0.6025703 -0.42068473 -0.20687605 0.0913886
000150 50 d4 c6 be 20 69 c4 3e 58 c4 d0 bd 12 83 9d be
       -0.38833857 0.38361454 -0.101936996 -0.3076406
000160 f0 67 30 be d9 0b 3a bd f1 19 82 3d 4e 5a ab 3e
       -0.17227149 -0.045421455 0.06352604 0.33467335
000170 1f 36 5a 3e b7 ac b7 3d cb 34 cd be 2a e7 17 be
       0.21309708 0.089684896 -0.4007934 -0.14834276
000180 f3 c8 04 be 57 78 bf 3c c8 48 90 be bb 9c 8f 3e
       -0.12967281 0.023372812 -0.28180528 0.28049263
000190 6f 8f f1 3e 0d 03 96 bc f0 29 90 3d 6f 48 81 be
       0.47179744 -0.018312002 0.07039249 -0.25250575
0001a0 41 34 21 be c7 1d aa 3e d5 c3 13 bd 9e de d7 3e
       -0.1574259 0.33225843 -0.03607543 0.4216203
0001b0 f7 a9 65 3c a9 fe 8a bd 2c 87 d5 be d7 eb 2e 3e
       0.014017574 -0.06786854 -0.4170469 0.17082153
0001c0 df 81 8a 3c 18 b4 3d be 38 cc 7b bd 6c 65 6d be
       0.01690763 -0.18525732 -0.061474055 -0.2318322
0001d0 15 9e f8 3d 37 b3 b6 3d 51 65 c4 3d b5 17 14 3f
       0.12139527 0.08920901 0.09589637 0.57848674
0001e0 03 2b 8e 3e 8d 24 5c 3e 1d d7 23 bd cf 31 81 3d
       0.2776719 0.21498318 -0.04000007 0.06308328
0001f0 f0 f0 71 be ad ba a9 3e 36 08 5a 3e c4 66 a6 be
       -0.23627067 0.33150235 0.21292195 -0.3250028
000200 f4 8f cb 3e e6 89 b6 be 6b 9d b4 be 12 7e 36 3e
       0.39758265 -0.35652083 -0.3527635 0.1782153
000210 11 11 26 3e 07 07 97 be 7d 65 8e be 57 74 86 be
       0.16217448 -0.2949755 -0.27811804 -0.26260635
000220 79 9b 1f 3e 73 25 ef be e7 9c 4d 3e 93 ef 9b 3e
       0.15586652 -0.4670826 0.20079385 0.30456218
000230 0f 76 b3 be 3c 7a 71 3e 21 1b a0 3d ad 17 16 be
       -0.3505101 0.23581785 0.078176744 -0.14657469
000240 8e 97 41 be ca 7e e8 be ba 4c ef be ee fa 28 3e
       -0.1890547 -0.45409232 -0.46738225 0.16501972
000250 f1 df c2 be ae 29 cf bd 34 dc 99 3e 64 8b d2 be
       -0.3806148 -0.10115372 0.30050814 -0.41121972
000260 6e ef 22 be c3 5f b0 3e 28 2c de 3e ac 7a fd be
       -0.15911648 0.3444806 0.43393064 -0.49507654
000270 d9 99 78 3b a0 03 e3 be b7 65 bf bd 15 6b 1c 3e
       0.0037933497 -0.44338703 -0.093455724 0.15275224
000280 8a 83 f0 3d 93 7c 66 3d bc a5 f1 be 85 84 11 3f
       0.11743839 0.056271147 -0.47196758 0.56842834
000290 cd c1 6c be 38 68 e3 bd 32 fa a0 3d b4 e8 46 3e
       -0.23120804 -0.111038625 0.07860221 0.19424707
0002a0 58 3b a2 be b8 ab 1d 3a 89 39 d0 be dd 55 7a 3e
       -0.316859 0.0006014663 -0.40668896 0.24446817
0002b0 35 7d 13 3e 73 12 2e 3e f5 7e a7 3e f2 3e 10 bd
       0.14403231 0.16999225 0.32714048 -0.03521628
0002c0 3c 19 56 be e9 34 49 3d 1d 48 53 be 70 a6 eb 3d
       -0.20908064 0.049122725 -0.20632978 0.11506355
0002d0 4a 79 b4 be 1c 4f e7 3e e5 a8 84 be e3 e1 fa 3d
       -0.35248786 0.45177543 -0.25910106 0.12250116
0002e0 b2 06 53 3e 26 c5 72 3e 75 18 12 bf 61 3a e4 3e
       0.20608023 0.23708019 -0.5706857 0.4457579
0002f0 2e eb 8a bd b4 ae a1 be d7 47 30 bd dc 32 f4 bc
       -0.06783138 -0.315786 -0.04303726 -0.029809408

weight f4 [24]
000000 ce 40 7c 3f 1a c2 bc 3f e5 04 a6 3f 62 84 4c 3f
       0.98536384 1.4746735 1.2970244 0.798895
000010 13 f4 8e 3f 29 11 94 3f c4 42 8f 3f 16 56 c5 3f
       1.1168236 1.1567737 1.119225 1.5416896
000020 9f 70 57 3f 73 18 9d 3f ca 81 91 3f 4c 12 8d 3f
       0.8415622 1.2273086 1.1367733 1.1021209
000030 74 cb 86 3f 50 61 73 3f d4 26 80 3f ae cb 4a 3f
       1.0530839 0.9507036 1.0011849 0.7921704
000040 c6 b6 70 3f fa 7b 5b 3f 5a 7d b0 3f 09 1d 42 3f
       0.9402889 0.8573605 1.3788254 0.75825554
000050 d6 0a be 3f b2 fe 42 3f 76 83 69 3f 02 4b 9a 3f
       1.4847057 0.76169884 0.9121622 1.205414

bias f4 [24]
000000 a6 74 8f 3d 14 6b 3f 3d 50 cf 15 bd 69 19 2f be
       0.07004671 0.046732977 -0.03657466 -0.17099537
000010 86 c9 de bc fd 24 0b 3d 5d 81 82 bc 20 44 97 bb
       -0.027195703 0.03397082 -0.015930826 -0.0046162754
000020 f9 36 25 be 1f 4c 51 bd e0 58 52 bd e1 2b 95 3d
       -0.16134252 -0.051097985 -0.05135429 0.0728376
000030 a9 cd 8e 3d d4 b4 03 3e c1 85 b4 bd a5 f8 60 be
       0.0697282 0.12861949 -0.08814574 -0.2196985
000040 4e b6 f5 3d a0 b8 c1 3d 07 4b e9 3c be 6b dd 3c
       0.119976625 0.094590425 0.028478159 0.027028915
000050 d1 74 4d bc 01 50 03 3e b0 e0 d1 3c 85 fb d2 bc
       -0.012540058 0.12823488 0.025619835 -0.0257547

running_mean f4 [24]
000000 13 a4 3b be 04 b9 c4 be 07 55 cc bc 0f 51 80 3e
       -0.18324308 -0.38422406 -0.024942888 0.25061843
000010 1f b5 dc 3d 9d 81 97 bd b2 92 b2 be 41 0c 12 3e
       0.107767336 -0.07397769 -0.34877545 0.14262487
000020 54 52 ce 3e 47 00 d2 3d 4f 39 fc be d1 f6 2a bc
       0.40297186 0.10253959 -0.49262473 -0.010434822
000030 b1 3f 5f bc c1 4a d6 3d de 6c c1 3d 57 f0 33 3e
       -0.013626025 0.10463477 0.09444593 0.17572151
000040 f6 61 9e be a6 6c a7 3d 61 72 03 bf c0 d5 2a bd
       -0.30934113 0.0817502 -0.51346403 -0.041707754
000050 20 fd 58 3d 1d db a5 bc 5d 82 bd bd 3c 46 b2 bd
       0.052975774 -0.020246083 -0.092533804 -0.087048024

running_var f4 [24]
000000 cb 53 bb 3c 4f b1 a0 3e 84 ef 49 3d a3 01 f5 3d
       0.022867104 0.31385276 0.049300686 0.11963203
000010 24 16 ad 3c b1 66 36 3c 22 f6 cc 3d 70 ff 51 3f
       0.021128722 0.011132882 0.100078836 0.8203039
000020 6c dd ed 3d ae 7f f6 3d 92 66 27 3f 3d 56 fe 3e
       0.116144985 0.12036072 0.65390885 0.4967517
000030 c1 76 c2 3d 34 c3 4d 3e a9 a9 c2 3e f5 56 9c 3c
       0.09495307 0.20093995 0.38020065 0.019084433
000040 a8 d4 8a 3c 10 b0 ce 3b 61 07 63 3d ef c0 31 3c
       0.016947106 0.0063076094 0.05542696 0.010849222
000050 24 c1 ff 3d a8 e7 2c 3c 04 3f c3 3d 60 c0 0b 3d
       0.124880105 0.010553278 0.09533504 0.03411901

weight f4 [24, 1, 3, 3]
000000 6e 2c 1f be 1a e5 38 3e 60 47 36 3e 4d ce 63 be
       -0.15544292 0.18056145 0.17800665 -0.22246666
000010 80 5d 4c 3d 12 23 37 3d 9c 1c 49 be e2 ff 7a bb
       0.049893856 0.04471118 -0.1963982 -0.003829949
000020 8b 90 9d 3d 53 ac e3 bd b2 33 ba 3d 71 d9 52 3e
       0.07693585 -0.111168526 0.09091891 0.2059076
000030 d0 10 5b be 78 73 18 3e fc 81 bd 3c b6 eb ae bd
       -0.21393132 0.14887798 0.02313327 -0.08541052
000040 f3 90 80 bd 24 d4 a3 bd 75 9e a9 3e af d2 ca bd
       -0.06277647 -0.07999447 0.33128706 -0.09903466
000050 4f b2 2b 3e ee 2e 42 3e ca 99 57 bd 8d 72 d3 3c
       0.16767238 0.18963215 -0.0526369 0.025811458
000060 cf 7f 6e 3d b5 f0 a3 bb 9f 5d 9e bd 1e 73 e6 bc
       0.058227357 -0.0050030597 -0.077327006 -0.028131064
000070 bc 10 4b be 9c 36 7b 3b 83 53 2d 3e 4b db d8 3d
       -0.19830602 0.003833211 0.16926388 0.10588702
000080 ff e3 b7 3d 29 39 86 3e af 1f ed bd 4e a4 a2 3d
       0.08979034 0.26215485 -0.11578309 0.07941495
000090 9d f8 86 3e 22 ad 0d be c2 e3 6c be 62 aa 46 3c
       0.26361552 -0.13835576 -0.23133758 0.012125583
0000a0 db ec c4 3c c9 79 f8 bc 90 af 09 3e 89 26 be 3d
       0.024038723 -0.03033151 0.13445878 0.09284694
0000b0 0f 32 39 3d 4c 56 68 3e c3 d6 a1 bc f6 81 54 be
       0.045213755 0.2268917 -0.019755727 -0.20752701
0000c0 32 f8 3d be c8 c1 3d bb e2 e4 92 bc f4 f0 02 be
       -0.1855171 -0.0028954614 -0.017931405 -0.12787229
0000d0 88 95 c1 3b 4f 44 6c 3e ac 55 26 be ea 7e 34 3e
       0.005907718 0.23072933 -0.16243619 0.17626539
0000e0 0c 7d 8f bd 9d 1a 31 be 7a 11 c8 3d d2 3d 8f 3d
       -0.07006273 -0.17295308 0.097689584 0.06994213
0000f0 3e db 13 3e 8c 62 42 3e fb 17 01 3e 6f c4 db bd
       0.14439103 0.18982905 0.12606804 -0.10730826
000100 6f 73 0e bd 12 74 89 bc d0 be 2b be 16 5c 0e 3d
       -0.034778055 -0.01677898 -0.16772008 0.03475579
000110 55 98 f6 3d 40 b9 86 bd 45 b0 87 bc 04 52 86 3e
       0.12040774 -0.065783024 -0.016563544 0.26234448
000120 ee f1 bb bd be de 3c 3e 06 56 23 be ea 9e 97 3c
       -0.09177004 0.18444344 -0.15950784 0.018508393
000130 03 16 be 3e 0c e4 07 3e 6f bc 9c 3d 1f 03 b3 3d
       0.3712617 0.13270587 0.07653128 0.0874083
000140 c3 9f 32 bd 30 69 d7 3c a5 76 1c be 3d 8c 64 be
       -0.043609392 0.026295274 -0.15279634 -0.22319122
000150 80 6f 2f 3d 79 39 22 be 8f 6f 33 be 08 9b 86 3d
       0.042830944 -0.15842237 -0.17523025 0.065725386
000160 1d 53 53 3d cc 5b a2 be 24 06 c6 3e 7a 00 92 3d
       0.051592935 -0.3171066 0.3867656 0.07128997
000170 26 98 5e be db f6 d6 bd 20 97 36 3d 95 ac df 3d
       -0.21737728 -0.10496303 0.044577718 0.10921589
000180 11 c8 26 3c 65 37 60 bd b7 35 30 3e 7d 4c 12 be
       0.0101795355 -0.05474033 0.1720799 -0.1428699
000190 00 9a f1 bd 16 5b 26 3d 45 fc 37 be 8d 3a 9d 3c
       -0.11796951 0.04061421 -0.17967327 0.019192958
0001a0 1a 68 60 3e 60 d0 1f 3d fb 07 02 be 68 e2 19 3e
       0.21914712 0.03901708 -0.12698357 0.15027773
0001b0 2a 45 9c 3c a0 93 d5 bd 2e 5d b0 bd 50 15 e7 3d
       0.019075949 -0.10428548 -0.086115226 0.11283362
0001c0 87 b1 74 3c f5 07 7f be b8 47 53 3e 21 4a e2 3d
       0.014934904 -0.24905379 0.20632827 0.11049295
0001d0 81 eb 2f be 5c d3 03 be 7d f3 5b 3d f1 6b b3 bd
       -0.17179681 -0.12873596 0.053699005 -0.087608226
0001e0 6a b4 87 bd 4f 15 61 3e 03 b7 24 be 3b 3b 6f 3c
       -0.06626208 0.21980785 -0.16085438 0.014601524
0001f0 8f a3 b4 3e 29 44 fb bc dc da 88 3e 4d 4b 22 be
       0.35281035 -0.03067215 0.26729476 -0.15849037
000200 95 be e4 bc 45 ce 41 3e e8 94 88 3d 53 9e a7 bd
       -0.027922908 0.18926342 0.066690266 -0.08184495
000210 34 37 c8 bd 1d e5 cf bd 43 1b f8 3d 2e 84 0a be
       -0.09776154 -0.10151122 0.12114575 -0.13526985
000220 87 ca 82 be a8 5d a7 bc 98 9d 06 3e bf 03 28 3e
       -0.2554514 -0.020430401 0.13146055 0.16407679
000230 08 56 df 3d 0a 04 00 3e 50 1b a1 bc 63 04 7a 3e
       0.10905081 0.12501541 -0.019666344 0.24415736
000240 fc 71 84 3d 76 2b 32 be 14 94 d0 bd e3 95 5c 3e
       0.06467053 -0.17399392 -0.10184494 0.21541552
000250 50 3e 0e 3e cc 92 36 be bf 12 40 bd 0f 24 38 3d
       0.13890958 -0.17829436 -0.046892878 0.044956263
000260 f9 ac 61 3d 5c 5d c1 bc b2 a3 26 be df e7 b1 3c
       0.0550966 -0.023604088 -0.16273382 0.02171701
000270 aa 05 74 3e 00 d0 01 be ad 79 11 be 73 dd d5 3c
       0.23830286 -0.12677002 -0.14206572 0.026106572
000280 30 af 65 3e cb ad 0e 3e ac ab 55 3d cf 21 9a be
       0.2243011 0.13933484 0.052165672 -0.3010392
000290 1c 9b 38 bd db 80 1c be c8 7a 04 be b2 2d 35 be
       -0.0450698 -0.1528353 -0.12937462 -0.17693213
0002a0 c5 eb 5a 3e 7d a7 11 be a4 9d a8 bc 35 2e 2f be
       0.21379001 -0.14224048 -0.020582981 -0.1710747
0002b0 98 18 a9 bd 7a 06 e7 3c 08 54 9f 3d 6f bd a6 bd
       -0.08256644 0.02820133 0.077796996 -0.081416
0002c0 00 1b 93 3e 01 04 d8 bd ff e5 a6 bd 9c 37 31 3d
       0.28731537 -0.10547639 -0.08149337 0.043265924
0002d0 00 4f 1e 3e 8a f2 9f bd b4 f7 21 3e 82 3b f8 bd
       0.15459824 -0.078099325 0.15817147 -0.12120725
0002e0 ad b1 7a be 54 48 ad 3d 44 f6 32 be 06 fc 09 be
       -0.2448184 0.08461061 -0.17476755 -0.13475046
0002f0 4b 92 19 3e a7 03 6f bd f8 a4 6c be 3c 7e 8c bd
       0.14997213 -0.058353093 -0.23109806 -0.06860015
000300 1c ac 48 bd 9b e2 08 3e d4 e0 cf 3d 10 47 b9 bc
       -0.04899226 0.13367693 0.101503044 -0.022616893
000310 3b 59 17 3e 22 59 35 3e 5c 69 35 3e 8b 04 5d bd
       0.14780132 0.17709783 0.17715973 -0.05395941
000320 cf 00 f0 bd 27 49 24 3d 41 42 26 bc 04 33 d1 3d
       -0.11718904 0.040108826 -0.010147632 0.102148086
000330 9f b2 c6 bd ab 3f 52 be af 28 7c 3e 28 91 ca be
       -0.09702038 -0.205321 0.24624895 -0.3956387
000340 6e 3e 0a be d1 65 7f be 8c 7d 90 bd 38 11 92 3c
       -0.13500378 -0.24941184 -0.07055196 0.017830476
000350 37 ff 30 be e6 b0 d2 3d 33 78 c9 ba 13 c5 c7 bd
       -0.17284857 0.10287647 -0.0015370905 -0.09754386

weight f4 [24]
000000 f4 5c 67 3f 09 b8 88 3f f8 58 81 3f 98 ea 71 3f
       0.9037621 1.0681163 1.0105276 0.94498587
000010 8a 0f a2 3f 8a fd 90 3f 86 a3 80 3f 74 a1 8f 3f
       1.2660992 1.1327374 1.0049903 1.1221147
000020 9b 11 8c 3f 4e 17 88 3f f7 7e 80 3f 1f db 88 3f
       1.0942873 1.0632112 1.0038747 1.069187
000030 1d 9b 8d 3f ff 7f 89 3f b4 a1 7c 3f cd 24 6a 3f
       1.1062962 1.0742186 0.9868424 0.91462404
000040 6d 93 84 3f 13 c2 82 3f 50 90 85 3f be 60 6b 3f
       1.0357491 1.0215477 1.0434666 0.9194449
000050 65 74 8c 3f 18 22 5e 3f 02 11 41 3f 96 b4 a1 3f
       1.0973021 0.8677077 0.75416577 1.2633235

bias f4 [24]
000000 79 6b 1b 3d d1 3c d5 3e 63 63 e0 bd f1 76 33 bd
       0.03794429 0.41647962 -0.109564565 -0.043814603
000010 09 20 17 3e aa 97 f5 ba 15 48 5f bd c9 71 c7 bc
       0.14758314 -0.0018737216 -0.054512102 -0.02434625
000020 98 87 3b 3d bf 58 a1 3d 77 59 be bd d6 a5 fd 3c
       0.04578361 0.07878255 -0.09294408 0.030962866
000030 63 41 a6 3e 70 b7 43 3d 9d 45 6f 3d de 35 88 be
       0.3247176 0.04778236 0.058415998 -0.26603597
000040 90 8a 92 bd 04 a2 8d bd 94 aa 27 3e b4 a3 6b be
       -0.07155335 -0.06915668 0.16373664 -0.23011667
000050 da 24 99 3e 23 ed 7f bd b3 3d 48 bd e5 a7 cf 3d
       0.29910928 -0.06248201 -0.048886966 0.10139445

running_mean f4 [24]
000000 8f e6 57 bc e7 bf 39 bd 21 ac 2d 3e 09 34 b0 3d
       -0.013177528 -0.045349028 0.16960193 0.08603675
000010 ce 65 54 3d b1 b9 e7 bc fd 3c 06 3e 61 df ca 3c
       0.0518549 -0.028286787 0.13109203 0.024764718
000020 81 b3 0b 3e 21 94 9a be ab e2 05 3e f6 e1 2c bd
       0.13642694 -0.30191138 0.13074748 -0.04220768
000030 24 37 6a bd 3c fa 8d 3d f6 7c 2f 3d 5a de a1 3d
       -0.057181492 0.06932494 0.04284378 0.07903738
000040 8e 81 39 3c ac c8 5b 3d 7b 99 c8 be c1 f1 85 bc
       0.011322392 0.053658172 -0.39179596 -0.016350629
000050 37 f4 e2 bd c1 d6 14 3d b6 df c7 3c 2b 79 b8 be
       -0.110817365 0.036337618 0.024398666 -0.36029944

running_var f4 [24]
000000 2c fb 65 3c 73 c3 3e 3d f8 1d 97 3e 9b 16 79 3d
       0.014036935 0.046573114 0.29515052 0.060812574
000010 9f 7f 6a 3d b7 17 d0 3b f5 81 6e 3c ba e8 81 3d
       0.057250615 0.0063504833 0.014557351 0.06343217
000020 5d 15 1a 3e dc 78 22 3d 7d 02 80 3b 05 a3 77 3a
       0.15047212 0.03966604 0.0039065466 0.0009446594
000030 ba cb 07 3b 21 e2 2d 3b 69 42 d5 3c 47 cf a1 3d
       0.0020720796 0.0026532488 0.026032643 0.07900863
000040 c4 a9 c8 3b eb c0 cf 3c 68 86 a5 3e fd 2f 50 3c
       0.0061237533 0.025360545 0.32329106 0.012706754
000050 6e 60 01 3e 78 62 be 3c 8f d5 b3 39 51 de 3a 3f
       0.12634441 0.023240313 0.00034300654 0.7299548

weight f4 [16, 24, 1, 1]
000000 10 ff ae 3e 89 64 86 be af 57 94 3e f2 ed 0f 3e
       0.34178972 -0.26248577 0.28973147 0.14055613
000010 fc dd b1 3e e1 fc cc 3e 2d 8b 30 3e 5f 73 6b 3d
       0.34739673 0.4003668 0.17240591 0.057483073
000020 ce cd 67 3e 39 e1 c5 bd cb 90 24 3e 0b ba 33 3e
       0.22637102 -0.096620984 0.16070859 0.17551439
000030 72 0b 8a be 47 f5 da be 8f c9 d3 bd 11 91 62 be
       -0.26961857 -0.42765257 -0.103411786 -0.22125651
000040 51 26 d5 bd 38 78 de 3e 8c 09 4e be 4a f7 f7 3c
       -0.10407699 0.43451095 -0.2012083 0.030269284
000050 73 39 23 3f 4d b1 ae 3c 0f 33 00 be f1 ab 5a 3c
       0.63759536 0.021324778 -0.12519477 0.013346658
000060 4a ab f9 bd 16 70 dd bd 7b a0 d5 3d f4 28 c1 bc
       -0.12190874 -0.10812394 0.10431 -0.023579098
000070 08 07 c0 3e 2a 3a a0 3c c7 41 b1 3e 70 88 11 bf
       0.37505364 0.019558985 0.34620497 -0.5684881
000080 87 47 03 3e a7 4e 91 be 89 61 8d bd ee 4f a8 3e
       0.12820254 -0.2838032 -0.06903369 0.32873482
000090 cf 99 e7 3d a5 18 83 3e 73 b5 85 be 2b 22 c7 bd
       0.113086335 0.2560474 -0.26114997 -0.09723314
0000a0 9c ee 93 3e 85 92 61 3d e0 d7 04 be 42 8c 81 3e
       0.28892982 0.055071373 -0.12972975 0.2530232
0000b0 1c c0 5b be d9 00 86 3e 0b e1 52 be 0c b4 98 be
       -0.21460003 0.26172522 -0.2059366 -0.29824865
0000c0 5b 01 ac bd 77 c6 15 be ed f4 95 3e fe c1 d4 3e
       -0.08398696 -0.1462649 0.29288426 0.41554254
0000d0 d0 d9 0f 3e c8 1a af 3c 1b d5 c4 bd 14 9b 39 3d
       0.14047933 0.021375075 -0.09610959 0.04531391
0000e0 80 ea 11 3d 5b 7d e3 3d 4e 6c 5a 3d 18 6c 1a 3e
       0.035624027 0.11107894 0.053325944 0.15080297
0000f0 58 94 0b 3e e6 a6 9f 3e f3 4e 92 bc 25 8e 44 3e
       0.13630807 0.3118202 -0.017859912 0.19194849
000100 59 24 2f 3c 6f b2 9f bd 1e 52 96 be 58 73 64 3e
       0.010689818 -0.077977054 -0.29359525 0.22309625
000110 69 eb 89 3e fe 5b d8 3e 55 99 e6 3e bc d6 93 be
       0.26937416 0.42257684 0.45038858 -0.28874767
000120 cd ea 81 3d 97 52 e6 bd ac 2f 29 3e 5f f6 46 be
       0.06343613 -0.112462215 0.16522092 -0.1942992
000130 64 16 75 3e e2 d5 b9 be 67 06 4c 3e fe e1 c4 bd
       0.23934323 -0.36295992 0.19924317 -0.09613417
000140 e0 44 89 be c3 22 de 3e a6 47 6a be 0e df 2f 3e
       -0.2681036 0.43385896 -0.22878894 0.17174932
000150 75 e5 5b 3d 15 8e 85 be d0 4c b6 3d b4 a6 b7 be
       0.053685624 -0.26084962 0.089013696 -0.35869372
000160 ce a1 df 3d 5d d2 c0 3a 83 2b 0f 3f 32 99 8b be
       0.10919534 0.0014711131 0.5592577 -0.27265316
000170 c4 86 2b 3e a9 4d 1a 3e 97 41 02 bd 6b 24 32 bf
       0.16750628 0.15068687 -0.031800833 -0.6958682
000180 13 ee 43 3e f5 25 ca bd b7 09 be bd e3 cb 84 3e
       0.19133787 -0.09870521 -0.09279197 0.25936803
000190 46 ce 73 3e 3d c2 03 bf 8d 0c 39 be a5 a3 32 bd
       0.23809156 -0.5146826 -0.18071194 -0.043613095
0001a0 d9 22 f5 3d e7 94 c0 be 65 c2 62 3e 65 51 ef bd
       0.11969537 -0.37613603 0.22144468 -0.11685447
0001b0 d3 75 50 3e 2c 36 10 be 86 b2 ca be 49 06 92 3e
       0.20357446 -0.14083165 -0.39589328 0.2852042
0001c0 9b 29 8c be a5 38 26 3d a5 4d 48 be 82 69 84 be
       -0.27375492 0.040581364 -0.19560869 -0.25861746
0001d0 69 50 ac be 02 2a c6 be 23 19 a0 3c e2 fe e4 3e
       -0.33655098 -0.38703924 0.019543236 0.4472571
0001e0 a8 3e 94 be d3 ea 18 3e cc 2b 35 3e 8d 35 67 bd
       -0.28954053 0.14933328 0.17692488 -0.056447554
0001f0 2a 27 f4 3d 7e 00 aa be c5 d3 84 be f0 e7 bc be
       0.119215325 -0.332035 -0.25942817 -0.36895704
000200 d5 53 ad 3e c9 4a 2b 3e 6a 43 61 be ef 98 69 3c
       0.3385302 0.16727747 -0.21998373 0.014257654
000210 ae a1 e5 be ec d6 84 be 4d 2e cf 3d ea 07 87 be
       -0.44849914 -0.25945222 0.10116253 -0.26373225
000220 df f0 53 bd 54 31 59 bd 22 f0 85 3b e2 9c d2 bd
       -0.051743384 -0.05302556 0.004087464 -0.10283829
000230 19 27 07 3e 3f 30 7d be a1 ea 22 be e8 4a 71 be
       0.13198508 -0.24725436 -0.15909816 -0.2356373
000240 fa 87 a0 bc 55 1e 4b be 1c ae 40 3d 80 d4 06 be
       -0.019596089 -0.1983579 0.047041044 -0.13167
000250 7e 7e e0 3e b6 0a 89 be 93 a9 ac be 22 b3 16 3e
       0.43846506 -0.26765984 -0.33723125 0.14716771
000260 47 27 a7 3d 1b 5f 92 be d5 ef 6d bd 4c 8a dc 3e
       0.081617884 -0.28588185 -0.05809005 0.43074262
000270 0e b0 18 be f5 66 99 3e 57 22 82 be bf c2 35 bd
       -0.1491091 0.29961362 -0.25416824 -0.044375177
000280 c4 2b c4 3d b6 cc ae 3e bd f8 4f 3d cc 42 5f 3d
       0.0957866 0.34140557 0.050774325 0.05450706
000290 5a 61 3a 3d d9 9b f3 3e af 61 5d 3b 8d aa 4d 3d
       0.045502998 0.4757984 0.0033780148 0.050211478
0002a0 7d 3a a2 bd 6c cc 44 3e 39 ba 86 be 3a da ed 3e
       -0.07921312 0.19218606 -0.26313952 0.46455556
0002b0 33 bc 4b 3e f1 5c 82 be 6b 8b bf be af f1 82 be
       0.19896011 -0.25461534 -0.37411055 -0.25575015
0002c0 8e 5f 96 3e 21 51 83 3e da 36 e3 3e 29 96 98 bd
       0.29369777 0.25647834 0.44377786 -0.07450516
0002d0 be c3 8d be 4a 1a 3c 3b 0b 04 9f be 15 06 c6 3e
       -0.27688402 0.0028702193 -0.31057772 0.38676515
0002e0 fa 37 a0 be 77 d1 de 3d 9c f0 25 be 3b 59 15 3e
       -0.31292707 0.10879796 -0.16205066 0.1458482
0002f0 14 61 ba 3e 10 e9 4e be be c1 09 3d 12 2d cd be
       0.3640219 -0.20206094 0.033632033 -0.40073448
000300 3a 48 90 3e 0e 42 81 3e 26 34 8e 3e 17 81 09 3e
       0.28180104 0.25245708 0.2777416 0.1342815
000310 7b a3 7b bd 14 23 83 be de 58 21 3e 7e de eb 3e
       -0.061435204 -0.256127 0.15756556 0.46068186
000320 f5 12 d8 3e dc 07 4e 3e 03 3a 2b be 01 b9 c0 be
       0.42201963 0.20120186 -0.16721348 -0.37641147
000330 58 ab 4f 3b 7a 91 57 3d 2c 5c f8 bd 54 aa a9 be
       0.0031687822 0.05262897 -0.121269554 -0.33137763
000340 82 c9 1b 3d 29 07 09 3e ce 2f ca be 5a 6e fc 3b
       0.03803397 0.13381638 -0.39489597 0.0077035846
000350 0c 22 3d 3e 9c cb 97 bd de da 8c bc 89 bc 02 be
       0.18470019 -0.07411882 -0.017194208 -0.12767233
000360 0d a8 ff be ae 53 2a be e4 2e 23 3d 7b 68 5c be
       -0.499329 -0.16633484 0.03983964 -0.21524231
000370 80 2a f4 bd 3d 70 b6 be 01 0f f1 bd 0f 4f cb bc
       -0.11922169 -0.35632506 -0.1177044 -0.024817972
000380 73 5e b1 3d cf d7 26 be 85 b2 b6 3e ff b0 60 be
       0.08660593 -0.16293262 0.35683075 -0.21942519
000390 4b c5 fd 3a 7a b1 06 be d7 3c f3 3d 54 ec 8b 3e
       0.0019361166 -0.1315364 0.11876839 0.27328742
0003a0 21 2a 35 3e 97 f2 bc be 06 dc 8b 3e 5e e1 80 3e
       0.17691852 -0.3690383 0.27316302 0.25171942
0003b0 3c 3c e5 3e ea 8b 5a 3d d6 a0 b5 bd 34 cf 86 3e
       0.44772518 0.05335609 -0.08868568 0.26329958
0003c0 6b d7 2c 3e d7 f9 2a 3e 4e 00 6d 3e ed ff 7c be
       0.1687905 0.16696869 0.23144647 -0.24707003
0003d0 90 a0 87 3e 3f df c5 3d e1 c1 ab be dc 97 1f be
       0.26489687 0.096617214 -0.33546355 -0.15585274
0003e0 ca af b2 bb 68 e8 31 3e dc a1 d1 3e 9b e6 2e 3e
       -0.0054530846 0.17373812 0.409438 0.17080157
0003f0 d3 d8 65 be 47 ea 60 3e cc a2 df 3e a8 9a cf be
       -0.22445993 0.2196437 0.43678892 -0.4054768

weight f4 [16]
000000 58 11 77 3f 2c d7 62 3f 06 42 4d 3f d7 1a 73 3f
       0.9651084 0.88609576 0.8017887 0.9496283
000010 20 30 5f 3f 08 1e 85 3f 2f b3 5a 3f de 66 54 3f
       0.8718281 1.039979 0.8542966 0.8296946
000020 b5 99 82 3f 6b c2 6c 3f 39 f3 6b 3f a2 c1 86 3f
       1.0203158 0.9248416 0.92168003 1.0527842
000030 b8 65 8c 3f cd 2d 70 3f 59 b2 5a 3f 4b f7 88 3f
       1.0968542 0.93819886 0.85428387 1.0700468

bias f4 [16]
000000 f6 63 00 bc ea c8 9f 3b ba c6 2b 3b b0 2f c4 3b
       -0.007836333 0.0048762457 0.002621098 0.00598713
000010 05 0a 69 3b 1d 2d e6 bb c5 41 21 bc 3e f2 d6 bb
       0.003555895 -0.007024421 -0.009842341 -0.0065596392
000020 99 9b c9 bc 86 e2 2d 3c ac c1 0e 3c eb 7a ac 3a
       -0.024610328 0.010613089 0.008713167 0.0013159191
000030 9c 51 17 3c 11 7a 1d bc 84 d3 c8 bc 22 47 99 3b
       0.009235766 -0.009611622 -0.024514921 0.004677669

running_mean f4 [16]
000000 38 a6 b9 3e 35 fd ed bc cc b3 12 3f 2a 62 60 bc
       0.36259627 -0.029051403 0.573056 -0.013695279
000010 f1 d4 f0 be 33 63 1e bf f1 c9 ae 3d 74 3b a0 3b
       -0.4703746 -0.61870116 0.08534611 0.0048899
000020 60 de 26 3e e5 c0 97 3d d6 51 c1 3e d5 4e f6 be
       0.16295767 0.074098386 0.37757748 -0.4810702
000030 2c 1b bb 3e f0 64 20 3d 80 6e 7a be ec 47 2d 3f
       0.36544168 0.03915876 -0.24456215 0.6768787

running_var f4 [16]
000000 2c 29 af 3f 41 52 0c 3f 9a 29 84 3f 76 83 c0 3e
       1.368444 0.5481301 1.0325196 0.37600297
000010 ec b0 d1 3e 5e f4 f9 3e 4e a9 11 3f 26 6a b7 3e
       0.40955293 0.4881925 0.56898963 0.35823172
000020 d4 2d 19 3f 5e ad 46 3f 3c c7 53 3f ad ef 9a 3e
       0.59835553 0.7760829 0.8272588 0.30260983
000030 d8 e6 30 3f aa f8 f8 3e 46 7c fd 3e 57 90 8a 3f
       0.6910224 0.48627216 0.49508876 1.0825299

weight f4 [48, 16, 1, 1]
000000 1d 9f 89 be 26 f4 90 3e 14 67 b8 be cb cf 93 3d
       -0.26879206 0.2831127 -0.36016142 0.07217368
000010 ca 35 89 3e 2e 23 4f be 96 34 bb 3d 3f d9 08 be
       0.2679885 -0.20228264 0.09140889 -0.13364123
000020 e4 52 1c be 67 f9 ae 3e 4f f8 d0 bd 81 b8 a0 3e
       -0.15265995 0.34174654 -0.10203611 0.31390765
000030 b2 73 d0 bc a0 01 80 bd 2c fe 18 3e 15 9e ad 3d
       -0.025445793 -0.0625031 0.14940709 0.084774174
000040 5e 4d 16 3e 25 90 23 be cb 3f 11 bd f4 7b 0a 3e
       0.1467795 -0.15972956 -0.03546123 0.13523847
000050 0f a1 86 be c9 ae 32 be 4b 03 bb 3e 8f 64 12 be
       -0.26294753 -0.17449488 0.3652595 -0.14296173
000060 60 dd 85 3d b0 93 7f be be 65 d2 3d 51 a9 a2 be
       0.065363646 -0.24958682 0.10273312 -0.31769803
000070 24 80 55 3e 5e c3 c4 3e e1 89 eb bd 39 41 a8 bd
       0.20849663 0.38430303 -0.11500908 -0.08215565
000080 29 8d bd 3d 25 42 7e be 2b 14 ee 3b ed 4a 80 3e
       0.0925544 -0.2482992 0.007265588 0.25057164
000090 49 51 3a be b9 7c 98 3e 32 cd 40 be 37 76 b0 3e
       -0.1819507 0.29782656 -0.18828276 0.3446519
0000a0 9a 81 61 3d bf 4f 90 be 43 8f 4e bd ad a3 85 be
       0.05505524 -0.2818584 -0.050429594 -0.26101437
0000b0 17 e9 d0 3e 11 74 5f 3e 28 9d 50 3e a8 a4 28 be
       0.40802833 0.2182162 0.2037245 -0.16469061
0000c0 cb 96 77 be c2 5c f5 bc fe f6 85 3d 0f 7d de 3d
       -0.24178617 -0.029951457 0.06541251 0.10863697
0000d0 7a 95 a3 bd 99 a3 92 be 9d 66 5a 3e 49 3e c7 3d
       -0.07987495 -0.2864044 0.21328206 0.09728677
0000e0 fe 21 b3 be da 9a 91 3e 93 c7 22 3e d9 81 e9 3d
       -0.3498687 0.28438455 0.15896444 0.114017196
0000f0 3c 6f 0e 3e 71 b1 29 3e 50 fe 8d be 2f 00 1f be
       0.1390962 0.16571595 -0.27733088 -0.15527414
000100 76 0b 4a 3e 86 3f bc bd a7 f7 34 be 6c ff 64 be
       0.19730935 -0.09191804 -0.17672597 -0.2236306
000110 36 fd 83 3e 4e 96 4d be cd 1e 52 3e 8e 2d 64 3e
       0.25779122 -0.20076868 0.20519562 0.22283003
000120 56 81 8c be 57 30 f3 3d 38 f0 9e bd 76 8b 8c 3e
       -0.27442425 0.118744545 -0.07760662 0.2745015
000130 5e b8 4d be b5 23 7c be 16 96 9e bd 5f 20 7f 3e
       -0.20089862 -0.24622996 -0.0774347 0.24914692
000140 73 df 86 bd f1 72 46 3e ae c5 62 be c9 fa 8b bd
       -0.06585588 0.19379784 -0.22145721 -0.06834943
000150 fa b2 9f be 6f 89 63 be ec fe ed bd 3e 8c be bd
       -0.31191236 -0.22220396 -0.11620888 -0.09304093
000160 72 7c c1 bd 41 c7 61 bd ed 61 0e be 78 40 21 3e
       -0.09447564 -0.055121664 -0.13904543 0.15747249
000170 96 6c f6 3e 63 07 2d 3d 18 73 69 3e c5 f2 04 3d
       0.4812972 0.042243373 0.22797811 0.032458086
000180 c5 13 ab bb e3 27 fb 3e 1d 0b 2a be 19 bb 74 be
       -0.0052208626 0.4905387 -0.16605802 -0.23899497
000190 3e d0 9c bd a9 65 80 be 05 86 55 be 2b f1 2a bc
       -0.076569065 -0.2507756 -0.20851906 -0.0104334755
0001a0 c9 a7 cd be 44 18 a0 be 5c 71 d4 3d 7a 0b 37 bc
       -0.40167072 -0.31268513 0.10373184 -0.01117217
0001b0 bf cf 9d 3e fe 1d 75 3e 8e 87 43 be be 90 0c 3e
       0.3082256 0.23937222 -0.19094679 0.1372709
0001c0 c3 e8 bc bd ce ee c5 3d 25 b9 92 be 0b ce c7 3c
       -0.09224083 0.09664689 -0.2865688 0.024390241
0001d0 15 f2 67 3e 30 eb c4 3d be d7 6d be fe 33 a2 be
       0.2265094 0.09615171 -0.2322683 -0.31680292
0001e0 67 d6 c7 3b 92 bb 4c 3e a6 bd c1 3d 88 30 a0 be
       0.006098557 0.19993427 0.09460001 -0.31287026
0001f0 ec 40 5f 3e f9 0b 3d 3e a9 3d e8 bd 41 d6 f7 bd
       0.2180211 0.18461598 -0.11339886 -0.121014126
000200 7b cb 73 3e ea 06 9f 3e 23 19 97 be 58 7b 83 be
       0.2380809 0.31059963 -0.29511365 -0.2568004
000210 30 85 e7 bc e1 a7 b8 be c6 62 b5 3d 3e 85 31 bb
       -0.028261751 -0.3606558 0.0885673 -0.0027087475
000220 35 f2 13 be 7e e2 48 be e2 65 6e 3e 90 2b 08 3d
       -0.14447863 -0.1961765 0.23281053 0.03324467
000230 44 f7 20 3e 2b c5 1b 3e c9 e9 01 be e0 b5 07 ba
       0.15719324 0.15211932 -0.12686838 -0.0005176943
000240 e4 4c 7e 3d ca 68 94 bc 55 24 11 3a e9 46 31 3e
       0.062085047 -0.018116374 0.0005536725 0.17312206
000250 59 d1 8a be 00 97 50 3d 1b bb 12 bd 36 e8 28 be
       -0.27112845 0.050925255 -0.03582297 -0.16494831
000260 d0 5e e0 bd ab d0 51 be 0a 24 6e 3d ae ca 0f 3c
       -0.10955584 -0.20489757 0.05813984 0.00877635
000270 74 3b a7 3e 84 4f c0 3e fa 4c c0 bd a7 df c7 3e
       0.32662547 0.37560666 -0.09389682 0.3903782
000280 32 8e 1c be d6 40 a8 3e ca 34 69 3e 9e 99 32 be
       -0.15288618 0.32861966 0.22774044 -0.17441413
000290 60 9c 94 3d 73 d4 8b bd 0a b1 9d bc 94 1a bd 3c
       0.07256389 -0.06827631 -0.019249458 0.023083963
0002a0 e2 21 53 be bd c5 82 3e ae 6f 5c 3e 09 bb a9 be
       -0.20618394 0.25541487 0.21526977 -0.3315051
0002b0 18 96 7d be 62 61 6c be 8f da 29 3e 46 61 9d 3e
       -0.24764287 -0.23084024 0.1658728 0.30738276
0002c0 a5 ef 5b 3e 50 2d 98 be f6 77 e2 bd 6b 0a 2c ba
       0.21478136 -0.2972207 -0.11058037 -0.00065628317
0002d0 97 2a 6a 3e 0e e3 4b 3e b2 1e ef be 7c 16 8b 3c
       0.22867809 0.19910833 -0.46703106 0.016978495
0002e0 0e 7c 84 be 3c 29 92 3e c5 ea 91 bd 3e e3 c7 bd
       -0.25875896 0.28547084 -0.07124857 -0.0976014
0002f0 ca ff 0c 3c a1 48 d8 bd f8 d3 36 be 25 fa 88 3d
       0.008605907 -0.10560728 -0.17854297 0.06688336
000300 18 91 50 3d 9c 3e b5 bd 65 7b 28 3e 5c 6b 95 be
       0.050919622 -0.088498324 0.16453321 -0.2918347
000310 55 a1 1d be b1 22 ae 3e 71 63 81 3e 5c 2f 6d bd
       -0.15393575 0.34010842 0.2527118 -0.057906494
000320 bd 1e 6b 3e aa 10 47 3e 4f 5d 39 3e 36 8d b9 be
       0.22960944 0.1943995 0.18102 -0.36240548
000330 96 5c 72 bd f0 b8 0e 3e 37 c3 5c 3e cc af 3b be
       -0.059170328 0.13937736 0.21558844 -0.1832878
000340 12 21 29 3d e6 f1 23 3d 60 49 d6 3d 6f aa 58 be
       0.041291304 0.040025614 0.10463214 -0.21158765
000350 5b 73 c2 bd 01 ea be 3d 0f ff e9 bd de 09 81 3e
       -0.094946586 0.093219765 -0.11425602 0.2520284
000360 dd 35 ef be e3 30 d9 3d 69 f6 a4 be cb 46 b6 be
       -0.46720782 0.106050275 -0.32219246 -0.35600886
000370 ef ab 0e be 38 f8 25 3d 3d 50 f3 3d 90 39 bd 3e
       -0.13932775 0.040519923 0.118805386 0.3695798
000380 25 70 48 3e ca 8b ae 3e 7b c3 36 3e 6a cc 6f be
       0.1957403 0.34091026 0.17848007 -0.23417822
000390 39 f0 5a 3e 58 8b 82 3e be 6d cb 3c 41 b2 06 3e
       0.213807 0.25496936 0.024832603 0.13153936
0003a0 ae 10 f4 3d 26 05 85 3e 8f 57 67 3b 1b a5 86 3e
       0.11917244 0.2598049 0.0035299992 0.2629784
0003b0 9c 51 99 3d 39 47 5c 3d 3a 4f 94 be 86 04 64 bd
       0.07486269 0.05377886 -0.28966695 -0.055668376
0003c0 58 ba a0 bd ce 3f d7 bd 7d ba 20 be 88 f2 0a 3e
       -0.07848042 -0.10510217 -0.1569614 0.13569081
0003d0 4a d1 af 3d 07 01 27 be 1c ae 8e be 69 7f 19 3e
       0.085848406 -0.16308986 -0.2786721 0.1499001
0003e0 d8 af ac 3e 8d f4 08 3d 3e 2d ad be 75 fd a8 be
       0.33727908 0.033436347 -0.3382358 -0.33005872
0003f0 fc 2c 8e 3d 2d b2 8a be 2a 95 2e be b3 5b cc bc
       0.06942174 -0.27089062 -0.17049089 -0.02494607

weight f4 [48]
000000 56 fe 6a 3f 0b e9 91 3f 54 48 09 40 96 c7 76 3f
       0.91794336 1.1399244 2.1450396 0.96398294
000010 d4 1b c4 3f f7 57 7a 3f fb 55 83 3f 7d ac 68 3f
       1.5320992 0.97790474 1.0260614 0.90888196
000020 d0 7a b0 3f 2a d3 1c 3f 31 b4 5b 3f 7a bf 96 3f
       1.3787479 0.6125971 0.85821825 1.1777184
000030 77 3c 60 3f 6b b3 ab 3f 65 5e 52 3f ef 55 57 3f
       0.8759226 1.3414129 0.82175285 0.841155
000040 f0 54 45 3f ec 1b 75 3f f6 92 88 3f ae 0f 8a 3f
       0.7708273 0.9574573 1.0669849 1.0786035
000050 f8 cb d8 3f 6a 91 5d 3f 81 3f 89 3f ad 74 26 3f
       1.6937246 0.8655001 1.0722505 0.65021783
000060 8e fb 71 3f 4b ff 32 3f 0f 59 80 3f 53 77 9b 3f
       0.94524467 0.69920796 1.0027179 1.214579
000070 50 69 6d 3f 40 7f 17 3f 51 de 92 3f 4e eb 99 3f
       0.9273882 0.59178543 1.1474096 1.2024934
000080 3c b8 b2 3f e5 ae 5d 3f 08 75 5b 3f 96 36 86 3f
       1.3962474 0.8659499 0.8572545 1.0485408
000090 bf ca 88 3f c0 19 5b 3f c8 09 81 3f 3e 2a 87 3f
       1.0686873 0.85586166 1.008111 1.0559766
0000a0 63 2c 87 3f 2b 7a 89 3f ac de 85 3f 04 ce 6c 3f
       1.0560421 1.0740408 1.0458579 0.92501855
0000b0 cc 93 9e 3f 64 07 3a 3f 8d 2b 7e 3f 65 51 7e 3f
       1.2388854 0.7266753 0.99285203 0.9934295

bias f4 [48]
000000 c0 dc d9 bd 54 42 db 3d 94 16 18 bc 32 21 b5 3d
       -0.10637808 0.107060105 -0.009282727 0.08844222
000010 2e 24 55 3d 17 aa cc 3d 5c f2 91 3d ea 34 02 3e
       0.052036457 0.099933796 0.071263045 0.12715498
000020 58 2a 32 3e d4 be 04 bd 93 fb f8 3d 4d c6 05 3d
       0.17398965 -0.03240855 0.12157359 0.032659817
000030 d7 df 33 3e 28 dc 14 3c 9f 5f 99 bd b9 59 95 3d
       0.17565857 0.009085692 -0.074889414 0.07292504
000040 9d 9b 0b 3e 95 9b ab bd e1 2c 07 3e f4 79 8d 3e
       0.1363358 -0.08379284 0.13200714 0.27632105
000050 da 3f ab 3c 77 f5 21 3e 43 5b 49 3d e5 b9 61 3d
       0.02090447 0.15816294 0.0491593 0.055108923
000060 89 41 17 be 10 a3 1f 3c 35 5c 0e 3e bf 1d 6b be
       -0.14771093 0.009743467 0.13902362 -0.22960566
000070 31 31 ee 3d 49 3b 5c be 03 b2 13 3e 62 98 bc 3e
       0.11630476 -0.2150699 0.14423375 0.3683501
000080 3a ca 10 3d f8 63 0c be 47 41 39 be da 0b 06 be
       0.03534911 -0.1371001 -0.18091308 -0.13090459
000090 62 7c a8 3b 11 b7 8e ba 79 e1 8f 3d 1f 6f b2 3d
       0.0051417807 -0.0010888298 0.07025427 0.08712601
0000a0 37 4e 79 3e eb f1 2f 3e 1a bc 2c be 74 54 07 3e
       0.24346243 0.17182128 -0.1686863 0.1321581
0000b0 7a bb e6 bc b3 8a 6f be c5 a8 3e 3e da cb 98 bd
       -0.028165568 -0.23392753 0.18619068 -0.074607566

running_mean f4 [48]
000000 b2 a0 18 3c e2 99 db bb 0a 87 51 bc ac dc a7 3c
       0.0093156565 -0.006701694 -0.0127885435 0.020490967
000010 3b 4c cf 3b 9c ab 03 3b f6 31 8f 3c ef 91 22 3c
       0.006326226 0.00200913 0.017479878 0.009922489
000020 d3 2a b6 3b d3 79 a8 3b 72 32 1e 3c ee 63 74 3c
       0.0055593043 0.0051414757 0.009655582 0.014916403
000030 66 e9 90 bc 28 32 7b 3b 3d 11 8c 3b 13 00 a2 b9
       -0.017689418 0.0038329456 0.004274516 -0.00030899103
000040 34 5c 36 bc 8c bb 8e 3b 7d de e0 3b 1b 28 fe 3a
       -0.011130381 0.0043558534 0.00686246 0.0019390614
000050 74 6f 98 3b 33 44 73 bb eb 3a 25 3a 7c c1 2f 3b
       0.004651958 -0.0037119507 0.000630303 0.0026818207
000060 7d 3f b5 bc a4 30 11 bb 4f 0d 67 bc 97 a7 ae 3b
       -0.022125 -0.0022154236 -0.014102294 0.005330037
000070 7a df 68 3c 53 bf e9 bb 92 13 ad 3b 8c e6 0c 3c
       0.014213437 -0.0071334033 0.005281874 0.0085998885
000080 c4 97 16 3c 3d 13 06 bc 95 94 55 3b 91 b2 b3 3b
       0.009191457 -0.008183298 0.0032589782 0.0054839333
000090 07 27 7e ba 7c c8 04 bc 9e 20 85 3c 75 da 2d bc
       -0.00096951466 -0.00810444 0.016250905 -0.010611166
0000a0 96 00 8d bb 86 e7 00 3c b1 1b 7a bc 3d 6e 63 bc
       -0.0043030484 0.0078676995 -0.015265391 -0.013881263
0000b0 10 03 ac ba 56 49 2e bc 15 1d af 3b f9 cc 0d 3c
       -0.0013123471 -0.010637602 0.005344043 0.008654826

running_var f4 [48]
000000 22 d6 52 3f f4 4f 10 3f 5a 75 b5 3e 2b ab 32 3f
       0.8235799 0.56372 0.35441095 0.6979243
000010 df 62 cf 3e 1e dc a1 3f ae b2 53 3f 2c 40 40 3f
       0.4050512 1.26453 0.8269452 0.7509792
000020 bd a1 fa 3e 3e 85 e6 3e c7 24 68 3f 2b 9f 27 3f
       0.48951522 0.4502353 0.9068112 0.65477246
000030 f7 09 13 3f 92 12 27 3f 34 9f 77 3e fb a4 81 3f
       0.5743708 0.6526271 0.24181825 1.0128473
000040 34 8a f9 3e e3 e5 c1 3f b2 3c 49 3f fc 8f c7 3f
       0.48738253 1.5148281 0.7860824 1.5590816
000050 da 36 46 3f 99 36 81 3f 0c 33 38 3f 0d f3 9f 3e
       0.77427447 1.0094787 0.7195289 0.3124012
000060 9a 39 89 3f 42 9e 3f 3f 08 96 21 40 fc 46 5e 3f
       1.0720704 0.7485086 2.5247822 0.86827064
000070 ed df dd 3e cc a5 ed 3e 10 92 54 3f 4a 62 7c 3f
       0.43334904 0.46415555 0.83035374 0.9858748
000080 f9 06 8d 3f 91 08 96 3f 4a 5d e3 3f ef f5 f9 3f
       1.1017753 1.1721364 1.7762845 1.9528178
000090 19 df 0e 3f 63 bd 15 3f 72 3e c7 3f c7 b2 7e 3f
       0.5580917 0.58492106 1.5565932 0.9949154
0000a0 21 f9 52 3f 16 aa 97 3e 77 84 a4 3f cb 9c 5c 3f
       0.8241139 0.29621953 1.2852925 0.8617675
0000b0 f8 3b 2c 3f 3f 39 d9 3e b1 23 11 3f fb 62 39 3f
       0.67279005 0.42426488 0.56695086 0.7241666

weight f4 [48, 1, 3, 3]
000000 49 5d 88 3d de 65 da bc d1 39 33 3e 33 a6 da bd
       0.06658418 -0.026659902 0.17502524 -0.10676231
000010 ee 5a be 3c 32 f9 96 3d 50 5f fd 3c c5 fa dc 3d
       0.023236718 0.07371749 0.030929238 0.10790018
000020 db dd b1 be 9b cb 27 3e 86 5a 8b 3d 19 df f8 3d
       -0.34739575 0.16386263 0.06804375 0.121519275
000030 df ba 4a 3e 26 de 93 3e 0a e2 1f 3e a5 d6 53 bd
       0.19797848 0.28880423 0.15613571 -0.051718373
000040 93 da a9 bc ca 5c 47 bd 06 02 f2 3d a2 91 e3 3d
       -0.020734107 -0.048672475 0.11816792 0.11111762
000050 8c 38 1b be 93 a9 85 be 91 af 32 be ac 83 02 bb
       -0.1515829 -0.26105937 -0.17449786 -0.0019914908
000060 58 d9 37 be a1 24 c0 3d e5 e4 17 3d 5a 67 34 be
       -0.17954004 0.093819864 0.037083525 -0.1761755
000070 93 0c a0 3c 36 9f ae 3d 93 bd a3 bc 12 c0 08 3e
       0.019537246 0.08526461 -0.019987857 0.13354519
000080 bf 10 72 bd 70 dd 5a 3e 4f 80 4b 3d a5 b9 12 be
       -0.059098 0.21373534 0.04968291 -0.1432863
000090 b9 19 cf bd 87 89 6a bd e0 51 15 be 9c 4c c9 3c
       -0.10112328 -0.057260063 -0.14582014 0.024572663
0000a0 2c 52 f7 bb 44 7a 01 be 8b 0a 0f be 46 a6 25 be
       -0.0075476374 -0.12644297 -0.13968866 -0.1617671
0000b0 b8 3b 97 be 1c a0 0a 3c 90 fa 0b be 51 9a a9 bd
       -0.2953775 0.008461025 -0.13669801 -0.08281387
0000c0 88 52 58 3d 09 43 45 bd 82 8b a5 3e b7 17 9b 3d
       0.052813083 -0.048159633 0.32333 0.075728826
0000d0 cc fb 83 3d 10 06 bc 3d 8c 67 e1 3d e7 c9 b6 3d
       0.06444511 0.09180844 0.11006078 0.089252286
0000e0 2d 98 96 3d 6b b0 0b 3d f6 96 9d bd e6 9a 24 3e
       0.07353244 0.034103792 -0.07694809 0.16074714
0000f0 14 a7 36 3e f6 c9 35 bb 50 1b 58 3e 90 ee 7a bd
       0.17837173 -0.0027738786 0.21104169 -0.061262667
000100 2d d6 57 bd d5 5b a3 3c b9 45 a3 be b0 a7 0b 3c
       -0.05269449 0.01994125 -0.31889132 0.0085238665
000110 94 35 69 3e d1 a1 72 bd b7 b0 9d 3c 1b 2d 2f bb
       0.22774345 -0.05923635 0.019249303 -0.0026729766
000120 1f df 1c 3e 81 9f 02 bd 5a b5 49 3e 86 0b 04 be
       0.15319489 -0.031890396 0.19698086 -0.12895021
000130 64 57 35 3e 53 cd 01 be 74 c7 77 be 60 45 cf bd
       0.17709118 -0.12675981 -0.24197179 -0.10120654
000140 91 ed 2a 3c 5e ef 27 3e 99 3e d4 3c 6d a1 05 3e
       0.010432617 0.16399905 0.025908755 0.1304986
000150 6f e9 4d be af b8 e9 bd da 56 76 3d 75 cb a4 bc
       -0.20108579 -0.11412179 0.06014142 -0.020116547
000160 9c cb 23 3e 4a 78 23 be 40 af 89 3c 8d 60 1c 3e
       0.1599564 -0.15963855 0.016807199 0.15271206
000170 98 74 96 3d 25 6c 29 3e 13 3d 37 be af 0a ba bd
       0.07346457 0.1654516 -0.17894392 -0.09084069
000180 ae 10 a0 bc 5c 49 2b 3d 39 4c a7 be 1c 37 93 bd
       -0.019539203 0.041818008 -0.3267534 -0.07188246
000190 a6 38 ff 3c ee 0e 13 bd 2e 68 ca bc 33 ac 55 3e
       0.031154942 -0.03590291 -0.02470788 0.2086647
0001a0 16 29 32 3e 65 4c 9d bb 94 a8 56 3e 22 a1 5e 3e
       0.17398486 -0.0048003667 0.20962745 0.21741155
0001b0 e7 a4 1d 3e 90 f8 5d 3d 09 20 35 be 17 02 d5 bd
       0.15394937 0.054192126 -0.17688002 -0.10400789
0001c0 30 c4 f4 bd 37 20 27 3e d5 73 af bd ba 1f fe 3d
       -0.11951482 0.16320883 -0.08567015 0.12408395
0001d0 6b e2 5a be 86 69 0e 3e 6d 62 82 3d d9 ad 0e 3e
       -0.21375434 0.13907441 0.063664295 0.13933505
0001e0 73 78 9a 3d dd 33 a7 bd c5 ae 22 3e 18 3b 92 bd
       0.07542505 -0.08164189 0.15886982 -0.071401775
0001f0 8b 75 64 be 2e 80 e4 ba 18 ef 57 3c ce 79 07 be
       -0.22310464 -0.001743322 0.013179563 -0.13230059
000200 e0 da 6e 3e e0 6b 39 be bd 90 30 3d 0e 3c 26 3e
       0.23325682 -0.18107557 0.043106783 0.16233847
000210 45 7b e9 bd 28 14 08 bd b3 7e e2 ba 33 75 4d 3d
       -0.11400465 -0.033222347 -0.0017280191 0.050160598
000220 aa 59 9b 3d 71 e0 29 3e a6 49 a0 3d e9 cc e2 bd
       0.075854614 0.16589524 0.07826547 -0.1107424
000230 28 e6 77 bd 14 1b 58 3d d3 ec fe 3d 7b 40 51 3e
       -0.06052223 0.0527602 0.124475144 0.20434754
000240 ed d1 92 bd aa 95 7e bd be 7b b5 3d 62 d6 e6 bd
       -0.071689464 -0.06215445 0.088614926 -0.11271359
000250 3c 95 26 be b9 44 12 3e 67 a8 16 3e 9b 9e 92 bd
       -0.16267866 0.14284028 0.14712678 -0.07159158
000260 b1 34 16 3e 3c 2b 0d 3d d2 e2 84 3d 4f 81 a8 3d
       0.14668538 0.03446506 0.06488575 0.08227789
000270 08 a5 8a 3d bd 99 8e be c8 23 79 bd bd 70 0e 3e
       0.067697585 -0.27851668 -0.06082514 0.13910194
000280 28 af 08 bc 03 87 2e 3e e2 bd d7 bd 9c 90 04 be
       -0.008342542 0.1704369 -0.10534264 -0.12945789
000290 0d 5e 68 3d 7c 99 bf 3d 0f 69 21 3e 5c 10 08 bd
       0.05673032 0.09355447 0.15762733 -0.033218727
0002a0 f2 8a 8a bc 59 03 25 3e 76 52 91 3e dd 02 59 3d
       -0.016911957 0.16114558 0.28383225 0.052981246
0002b0 f8 dc bd 3d 44 e9 89 be ba fd f1 ba b0 4e 37 3a
       0.09270662 -0.2693578 -0.0018462457 0.00069926213
0002c0 23 cd 22 bc 79 33 11 3e fc 21 89 be 1f 79 1e 3e
       -0.009936604 0.14179792 -0.2678374 0.15475892
0002d0 f3 61 01 3e 0a 82 8c 3c b7 a4 8e be 29 d5 84 bb
       0.12635021 0.017151851 -0.27860042 -0.004053731
0002e0 09 b9 45 3d 30 2f 84 bd 63 c2 fc bd 06 4b 0e be
       0.048272166 -0.06454313 -0.12341764 -0.13895807
0002f0 76 09 12 3e e8 89 10 be 95 e4 b2 3c 13 9c fa 3d
       0.14261422 -0.14115107 0.021837512 0.122368
000300 0d 5d 97 3d 41 0f dd bd 69 9d b7 3c a3 6f 49 3e
       0.07390795 -0.10793925 0.022413926 0.19671492
000310 45 55 11 3d 11 f6 93 be a8 23 79 3e 71 75 a9 be
       0.03548171 -0.2889867 0.24330008 -0.33097413
000320 24 67 ba 3d 72 fa 5b 3c 39 4d 03 bd 1a cc c2 bd
       0.09101704 0.01342641 -0.032056067 -0.095115855
000330 dc 21 25 3c c5 3b b6 3d e8 b6 a7 bd e9 f1 6c 3d
       0.0100788735 0.08898119 -0.081891835 0.05784789
000340 db b2 f7 3d e6 41 99 3c ad eb 15 be b1 57 30 3e
       0.12094661 0.01870818 -0.14640684 0.17220952
000350 b2 4f 85 3e 02 e1 88 bd 57 12 01 3e 4e 99 18 3e
       0.26037365 -0.06683542 0.12604652 0.14902231
000360 63 3a 7b be cd eb 21 3d 25 95 ee 3d 60 aa 4d bd
       -0.24533992 0.039531518 0.11649541 -0.05021131
000370 92 b2 9b bd 1d 6f f9 3d ec ec 46 be 0b 08 4f bd
       -0.07602419 0.12179396 -0.19426316 -0.05054478
000380 c7 6c 39 3e 4f 2c 2f be 51 ca fe 3c 37 ce aa 3d
       0.18107902 -0.17106746 0.031102331 0.083401136
000390 95 4f 01 3e c8 9b d9 3d df f2 5b 3e f7 63 82 3d
       0.12628014 0.10625416 0.21479367 0.06366723
0003a0 2c 3b df bd b2 b9 5c bd 71 16 46 be 37 c6 3d be
       -0.10899958 -0.05388803 -0.19344498 -0.18532644
0003b0 f0 6d 67 bd 5e 9f 06 3e 7e a8 bd 3d 1f 2b 14 3e
       -0.05650133 0.13146731 0.09260653 0.14469574
0003c0 a6 6d 4a bd 92 90 b3 3d 91 05 04 3e 85 a7 48 bc
       -0.049420975 0.08767809 0.12892748 -0.012246971
0003d0 74 82 8c bd de 3d f4 3d 24 9b 5d be f1 31 b0 3c
       -0.068608195 0.11925863 -0.21641213 0.021508189
0003e0 1b 7a 62 3e 68 5f 70 bd e2 22 53 3c 13 7b 41 3d
       0.22116892 -0.058684736 0.012886735 0.047236513
0003f0 c3 0e 01 3d 9b c8 98 3d bf 16 0b 3e ee f0 a3 3d
       0.03150822 0.074601375 0.13582896 0.08004938

weight f4 [48]
000000 cb da 74 3f 05 b6 7e 3f 38 fe 93 3f 66 7d 78 3f
       0.9564635 0.9949649 1.1561956 0.9706634
000010 5d cb 93 3f ba 19 6a 3f c0 d8 64 3f 4f 4c 89 3f
       1.1546437 0.91445506 0.89393234 1.0726413
000020 4e 43 83 3f db f1 8e 3f 57 32 98 3f 33 89 88 3f
       1.0254915 1.1167558 1.1890363 1.066687
000030 6d 6b 9e 3f c7 bc 94 3f e1 79 4d 3f 0b 3a 7b 3f
       1.2376534 1.162011 0.802641 0.9813544
000040 75 fc 97 3f 00 54 82 3f af d6 86 3f f8 e3 81 3f
       1.1873919 1.0181885 1.0534266 1.0147696
000050 5d e3 8e 3f f7 74 89 3f e2 64 76 3f 18 01 60 3f
       1.1163136 1.073882 0.96247685 0.8750167
000060 5d 47 71 3f 49 4a 5a 3f 5a 74 81 3f d7 59 b3 3f
       0.94249517 0.852696 1.0113633 1.4011792
000070 69 cc 79 3f e8 11 84 3f 2e a0 87 3f 6e b9 9f 3f
       0.9757753 1.0317965 1.0595758 1.2478464
000080 73 15 8d 3f 7f 13 8c 3f df f6 6b 3f 1b d7 74 3f
       1.1022171 1.094345 0.9217357 0.95640725
000090 b3 ba 9e 3f bd 6b 8a 3f bf 1c 8b 3f 35 5d 79 3f
       1.2400726 1.0814129 1.0868148 0.9740785
0000a0 c2 1e 87 3f 3b f9 79 3f 2b e4 79 3f 13 de 83 3f
       1.0556262 0.9764592 0.9761378 1.0302147
0000b0 38 50 a1 3f fd c4 ab 3f 6b ac 83 3f cd 77 a5 3f
       1.2602606 1.3419491 1.0286993 1.2927185

bias f4 [48]
000000 1a 63 e3 bd a9 b1 10 be cf 21 1b 3e 60 d0 ad be
       -0.111028865 -0.14130272 0.15149616 -0.3394804
000010 5f 48 85 bc 3d 36 f5 bd f7 17 a0 be eb 44 5b be
       -0.01626986 -0.11973236 -0.31268284 -0.21413009
000020 6f ff 76 bc 4e 32 1e bd 23 d6 04 ba 3d 9b 94 3c
       -0.015075549 -0.038622193 -0.0005067309 0.01814043
000030 bb 90 14 bd 8a 2f d5 bc 67 5b 0c bd ce b1 58 3e
       -0.03627084 -0.026023645 -0.034266856 0.21161577
000040 a1 fe 4c 3d 53 35 56 bd 45 33 19 3e ad f0 83 bd
       0.05004752 -0.052296948 0.14960964 -0.0644239
000050 04 ce 50 bb a4 2a 0f 3c 5b e4 32 3e 45 56 9f 3e
       -0.0031861076 0.008738194 0.17469923 0.31120506
000060 51 69 aa 3c af 0c 9a bd 64 4a db bd 60 85 1d be
       0.020802172 -0.075219505 -0.10707548 -0.1538291
000070 c7 5e af bc b1 92 b3 bd 14 98 aa bd f8 a7 1b be
       -0.021407498 -0.087682135 -0.08329788 -0.15200794
000080 8c 1d a0 3d d6 fc b2 3d 52 d3 c3 bd c4 a2 2f 3e
       0.078181356 0.08739631 -0.095617905 0.17151934
000090 0a b4 cb 3c 45 19 7f bb 5b f0 35 3d f7 73 8d be
       0.024866123 -0.0038924974 0.044418674 -0.27627537
0000a0 62 64 e7 bd 9d 82 95 3d 3b 94 34 bd bb 96 95 3c
       -0.112984434 0.07300303 -0.044086676 0.01826035
0000b0 ec e9 79 3e a5 57 15 3e 75 c3 eb bd da 0c 3a be
       0.2440564 0.14584215 -0.1151189 -0.18168965
