trained_model/BiSegNet(ReagentV2)_no_train.pt (torch, 712707 bytes, 152 tensors)

weight f4 [16, 1, 3, 3]
00000000: 46b7 babd e05c 18bd 5c0b 3bbe caf3 ba3d
00000010: 15ef 36be aba7 dcbd a75d 113e 22cd a13d
00000020: e645 d33d af58 2fbe 35b2 2c3e b4a4 403d
00000030: 70ae 28be 5159 47be 18a1 f3bc a70d 24be
00000040: 3874 45be b08e 4fbc 5e9f 28be 0210 bc3d
00000050: d064 443d 0e96 853d e4ad 4cbd de17 b4bd
00000060: b8c9 39be 8a8d 27be 40ba b8bb 7236 07be
00000070: 9227 e93d 3b5d 013e bff5 aabd 0861 1fbe
00000080: b5a5 3a3e 5aed a83d 3650 ae3d 6a42 3bbe
00000090: 4e44 853d 04bc 7fbd 20f6 56bd 3a5c 25be
000000a0: e0fb 2abc b0ee 32be fb0f 31be 72e7 0abe
000000b0: 9198 2f3e 4ed9 e43d 932a 3bbe 521c b3bd
000000c0: 653a 1dbe 90c8 44be d828 a4bd a78f 1f3e
000000d0: a476 7ebd a4db c6bd 447c 72bd 50fd e8bd
000000e0: 7481 5f3d 43e2 233e 464f 943d 6196 033e
000000f0: d75a 24be 00b2 08be cd02 e2bd 2085 0dbd
00000100: 6cae 593d 564d 8b3d a7b4 b7bd f018 50bd
00000110: 23a7 0dbe a784 133e 0260 933d 89a9 10be
00000120: a374 083e a17a d8bd ba88 bd3d 5006 f0bc
00000130: 5627 80bd 7b0c ecbd b7ad 4a3e dbb4 0fbe
00000140: c189 1f3e 574c 163e 6e59 25be 6602 9b3d
00000150: bcf6 543d d6ef ba3d 1f65 1e3e 4181 4abe
00000160: c065 1dbe 029b 913d 280e 21be a7a1 003e
00000170: 4f53 26be d865 3c3d b5cb e0bd 204f 363d
00000180: 2814 5cbd 6f28 1f3e 1a0e d43d 80b3 b7ba
00000190: f1f3 e8bd a5e6 27be 68cc 353d 6edd b73d
000001a0: 117e 343e b263 823d 90a4 39bd e859 bfbc
000001b0: eac1 cb3d 32b7 a63d c854 4ebd 009e 643a
000001c0: 1089 cabd e68b 07be 8cf8 093d cf24 3ebe
000001d0: 367e 03be 60e5 04bd 0ba2 083e e71e 323e
000001e0: 74e1 04be 1d61 1e3e c7ca 12be ed73 42be
000001f0: 4f03 2a3e 748e 1bbe 627f 45be 52ec 3cbe
00000200: b68a a23d 1e13 cb3d 6964 253e fd9b 2c3e
00000210: da5b 44be 4806 163d 48ef c2bc e08f e4bc
00000220: 3699 1ebe c0c3 973c 5454 15be 3f4e f8bd
00000230: eef6 993d 8934 033e 00a2 22bd e66b bbbd
-0.09116988 -0.037197948 -0.18266052 0.0912853 -0.1786464 -0.107741676 0.14195882 0.07900454
0.103160664 -0.17123674 0.16864856 0.047032073 -0.16472793 -0.19467665 -0.029739901 -0.16020833
-0.19282615 -0.012668297 -0.16467044 0.09182741 0.047947705 0.06522761 -0.049970523 -0.08793615
-0.18143356 -0.16362587 -0.005637437 -0.13204363 0.113845006 0.12633221 -0.083476536 -0.15564358
0.18227275 0.08248396 0.08511393 -0.18287054 0.06507169 -0.062435165 -0.052480817 -0.16148463
-0.010436028 -0.17473865 -0.17291252 -0.13564852 0.17148043 0.1117426 -0.1827796 -0.08745636
-0.15354307 -0.19217134 -0.08015603 0.15582143 -0.062124863 -0.09709862 -0.05920054 -0.113764405
0.054566815 0.16004281 0.07241683 0.12850334 -0.16050278 -0.13349152 -0.110356905 -0.034550786
0.053144857 0.0680186 -0.089700036 -0.050805032 -0.13833289 0.14406072 0.071960464 -0.14127173
0.13325743 -0.105702646 0.09254594 -0.029299885 -0.06257503 -0.11525818 0.1979283 -0.14033835
0.15579893 0.14677559 -0.16147396 0.07568817 0.051993117 0.09127776 0.15468262 -0.19775869
-0.15370846 0.071096435 -0.15728056 0.12561665 -0.16242717 0.045995563 -0.10976354 0.044509053
-0.05373016 0.15542768 0.10354252 -0.0014015287 -0.11374653 -0.16396578 0.04438439 0.08977781
0.17626216 0.063666716 -0.045322955 -0.0233583 0.099490955 0.081404105 -0.050373822 0.00087210536
-0.09889424 -0.13236961 0.0336843 -0.18568729 -0.12841114 -0.03244531 0.13343064 0.17394601
-0.12976629 0.15466733 -0.14335166 -0.18989535 0.16602825 -0.1519106 -0.19286874 -0.18449524
0.07936613 0.09915756 0.16151585 0.1685638 -0.19175664 0.036627084 -0.023795739 -0.027900636
-0.15488133 0.018525958 -0.1458295 -0.12124299 0.07517801 0.1281301 -0.039705276 -0.09151439

weight f4 [16]
00000000: 0000 803f 0000 803f 0000 803f 0000 803f
00000010: 0000 803f 0000 803f 0000 803f 0000 803f
00000020: 0000 803f 0000 803f 0000 803f 0000 803f
00000030: 0000 803f 0000 803f 0000 803f 0000 803f
1.0 1.0 1.0 1.0 1.0 1.0 1.0 1.0
1.0 1.0 1.0 1.0 1.0 1.0 1.0 1.0

bias f4 [16]
00000000: 0000 0000 0000 0000 0000 0000 0000 0000
00000010: 0000 0000 0000 0000 0000 0000 0000 0000
00000020: 0000 0000 0000 0000 0000 0000 0000 0000
00000030: 0000 0000 0000 0000 0000 0000 0000 0000
0.0 0.0 0.0 0.0 0.0 0.0 0.0 0.0
0.0 0.0 0.0 0.0 0.0 0.0 0.0 0.0

running_mean f4 [16]
00000000: c3a8 12bc 9354 11bd ed71 b7bc 68b6 ea3a
00000010: 7a2a dabc 6725 f0bc ac82 04bc a7ef c0bb
00000020: 9308 cd3b 2205 7d3b fad5 93b9 6a57 b63a
00000030: a15a 9cbc 1f00 89ba d058 15bb 9d7b 92bc
-0.008951369 -0.035481047 -0.022393191 0.0017907145 -0.026631583 -0.02931471 -0.008087795 -0.005887944
0.0062571256 0.0038607796 -0.0002819745 0.001391155 -0.019086184 -0.0010452307 -0.0022788532 -0.017881209

running_var f4 [16]
00000000: e1af 663f a3cd 663f 27a3 663f 23bd 663f
00000010: 58b6 663f 79bc 663f 96a9 663f f094 663f
00000020: e6b1 663f 76bc 663f d7a8 663f 1497 663f
00000030: 5f9c 663f 69d2 663f a7ca 663f 7399 663f
0.9011212 0.90157527 0.900927 0.9013235 0.90121984 0.90131336 0.9010252 0.9007101
0.901152 0.9013132 0.9010138 0.90074277 0.90082353 0.9016481 0.9015297 0.90077895

weight f4 [16, 16, 1, 1]
00000000: e008 563d a33d 973e d8b3 1dbe 0e40 5b3e
00000010: 3c5f ec3d 80d1 8d3c a4da cbbd d64f 21be
00000020: 3be0 903e 130d 5fbe 085e 91be 2c23 c03d
00000030: 08fd 9dbd cd23 ab3e 9d69 a4be 80e2 f3bd
00000040: 1fa6 9c3e 1193 983e d63a 393e d19a a93e
00000050: b2c7 7abe f444 83be a0df a7bc a621 703e
00000060: ba7a 7a3e 464a 5f3e 024b 45be f958 d53e
00000070: a9f6 adbe 49d7 a93e c63a 2abe 77ea ba3e
00000080: 501f 42be ea1b 8cbe b591 ce3e a20e 593e
00000090: 2eb0 583e b0db f0bc d842 2d3d f44f 8a3d
000000a0: 317e aa3e 2eb0 8ebe d0b2 9a3c 604b 12bd
000000b0: 1e5b d6be ce27 3e3e 1681 27be 9177 afbe
000000c0: 60ac 823c 7ae5 2b3e ceb2 053e ece0 babd
000000d0: 1483 81be 7771 c63e 1d2a cd3e 5209 a1be
000000e0: 99c3 c53e 30fa 8ebd a6eb 023e a3b1 833e
000000f0: 5e5f 323e b96b d13e 6b47 73be da88 1e3e
00000100: e03a c6be 77fd 953e 1971 57be 4858 99bd
00000110: b256 11be 1e86 92be 9062 443d 24b4 8a3d
00000120: 08a3 11bd c03a 9cbe bc99 ad3d de15 023e
00000130: ca94 abbe d6f1 723e 7e71 c7be 28e6 f3bd
00000140: 9696 3e3e 7b16 a63e 78ce a0be b77a 8c3e
00000150: 9cea 9c3d c09f 63be 4e7e 71be 66a5 7d3e
00000160: 002c 4d3d 0ad9 bdbe 39c6 cfbe b6c1 063e
00000170: 4479 d5bd c1c9 8abe 195f 8c3e 66f3 2f3e
00000180: 74c2 b43d 5270 013e c6d7 123e 607a 8fbe
00000190: 4954 ba3e 401a 793c 2704 a3be f66f 0d3e
000001a0: ba6a ccbe 21b1 afbe be5f c6be c3f3 bd3e
000001b0: a05d a0bc f143 863e b5d0 8a3e e53a 883e
000001c0: b83f bdbe 1041 8abc 91a7 b6be d81b a3bd
000001d0: 00fe c9ba cb42 d6be 96c0 453e ce44 0d3e
000001e0: a89b 12bd 734e 943e a6a4 0dbe 4f14 893e
000001f0: 4058 b3bc 8c2b 943d 2a47 533e 4cc1 bebe
00000200: b542 bc3e 8866 a1bd 3111 a7be 10f9 f0bc
00000210: ba3b 19be 9fed d0be 81b9 833e 807e 00bd
00000220: 0069 bdbc d2b6 623e fc35 ac3d 8020 94be
00000230: ca8b 663e fdfc aabe c431 37be 135d af3e
00000240: ca56 4fbe 0298 c2be 4843 0ebd 8da4 b73e
00000250: 1ee5 723e c8a9 91be 4bb6 d5be 8153 973e
00000260: 2a1c a4be a765 d73e a92a a1be bdc3 983e
00000270: d2da 343e b9b0 dbbe 0067 bebb 30cd 7dbe
00000280: b4a3 ee3d 4988 a93e 7b6d d9be bc7f 9cbd
00000290: d0d8 40bd 7daa a5be 9b18 b43e 8e36 03be
000002a0: 5c29 bebe ab96 afbe fd15 b83e ec14 93be
000002b0: a53c a0be 034c 81be 13b4 a93e 49a9 97be
000002c0: 4aba 153e d731 a63e 1a95 0a3e f40e 83be
000002d0: c037 d4be b2a8 653e df17 b7be 30e8 fabd
000002e0: 68aa 3c3d 64d3 64be ff61 c13e ddfe 5ebe
000002f0: d19f da3e 2b28 873e a0bd 643c 2ad7 563e
00000300: 84c8 dd3d 5994 cc3e 3d87 9c3e 69bd 853e
00000310: cabb 59be 8631 0a3e ecb9 82bd be28 413e
00000320: 006a a33c c353 8a3e 6a79 7c3e 7c92 dcbe
00000330: 8062 b1bb dcf0 a9be d070 64be c66a 223e
00000340: 6a04 39be d110 a33e 13cf b43e 62b0 293e
00000350: 76c0 133e 20e6 d6bc e0a1 80be c6d8 513e
00000360: 0392 b53e b0e8 9f3c 803b 71bb bbf6 9b3e
00000370: 9be1 c03e 48f0 9abe dda7 953e 66cc 6cbe
00000380: a67f 55be a8fb 37be c073 3bbc 607d cfbe
00000390: da39 4c3e 9c10 97bd 4729 9d3e 0034 e839
000003a0: 4164 b63e ab93 983e 3a3a 3c3e 5ac4 263e
000003b0: 405c 2cbe 1252 69be e0dc 49bd 105b 3fbd
000003c0: 407d 8a3c a1d2 8f3e acf5 d1bd 0188 b53e
000003d0: 65e7 81be 1820 2abe 0406 fe3d c42b a2bd
000003e0: bae0 17be 48ee 25bd af03 d9be 3ec6 8ebe
000003f0: 88c2 d0bd 59e0 8c3e b1ea ad3e b2d7 2f3e
0.052254558 0.29539213 -0.15400636 0.21411154 0.11541602 0.017311811 -0.09953812 -0.15753111
0.28296074 -0.21782331 -0.28392053 0.093817085 -0.077142775 0.3342575 -0.32111827 -0.11908436
0.3059549 0.29799703 0.1808885 0.33125928 -0.2449024 -0.25638545 -0.020492375 0.23450336
0.24460879 0.21805677 -0.19266894 0.41669443 -0.3397725 0.33172062 -0.16623983 0.36507007
-0.18957257 -0.27365047 0.4034554 0.21196988 0.21160957 -0.02940163 0.042300075 0.06753531
0.332994 -0.2786879 0.018884093 -0.035716414 -0.41866392 0.18569872 -0.16357836 -0.3427091
0.015951335 0.16786757 0.1305649 -0.09124932 -0.25295317 0.38758442 0.40071192 -0.31452423
0.38625792 -0.06981313 0.12785205 0.25721464 0.17419192 0.40902498 -0.23757713 0.15481892
-0.38716793 0.2929494 -0.21039237 -0.074875414 -0.14193228 -0.28617948 0.04794556 0.0677264
-0.03555587 -0.30513573 0.08476588 0.12703654 -0.33511955 0.23725066 -0.38953775 -0.11909133
0.18612131 0.32439026 -0.31407523 0.27437374 0.07661936 -0.22228909 -0.23583338 0.24770126
0.05009079 -0.3707965 -0.4058092 0.13159832 -0.1042352 -0.2710705 0.27416304 0.17182693
0.088261515 0.12640503 0.14340124 -0.28023052 0.3639243 0.015204012 -0.31839105 0.13812241
-0.39925176 -0.34314826 -0.3874492 0.37100038 -0.019575894 0.2622371 0.27112356 0.26607433
-0.36962676 -0.016876727 -0.35674718 -0.07964295 -0.0015410781 -0.41847834 0.19311747 0.13795778
-0.035792977 0.28966102 -0.1383234 0.26773307 -0.021892667 0.072348684 0.20632616 -0.3725685
0.36769643 -0.078808844 -0.32630304 -0.029415637 -0.1496419 -0.4080629 0.25727466 -0.03137064
-0.023121357 0.22140053 0.08408734 -0.28931046 0.22514263 -0.3339614 -0.17890078 0.34250697
-0.20247951 -0.38006598 -0.034732133 0.3586773 0.23720214 -0.28449845 -0.4174064 0.29555896
-0.32052737 0.42069742 -0.3147786 0.29836836 0.17661598 -0.42908266 -0.0058106184 -0.24785304
0.11652318 0.3311179 -0.4246634 -0.07641551 -0.04708177 -0.32356635 0.35175022 -0.1281378
-0.3714093 -0.34294638 0.35954276 -0.287269 -0.31296268 -0.25253305 0.33145198 -0.29621342
0.14621845 0.324599 0.1353344 -0.25597346 -0.41448784 0.22427633 -0.357604 -0.122513175
0.04606095 -0.22346264 0.37770078 -0.2177691 0.42700055 0.26397833 0.013961226 0.20980516
0.10829261 0.3995693 0.3057193 0.2612107 -0.21263042 0.13495454 -0.06383118 0.18863198
0.019948006 0.2701703 0.24655691 -0.4308051 -0.0054133534 -0.33191574 -0.2230866 0.15861043
-0.1806809 0.31848767 0.35314235 0.16571191 0.14428887 -0.026232779 -0.251235 0.20492849
0.3546296 0.019520134 -0.0036809146 0.30461678 0.37672123 -0.30261445 0.29229632 -0.23124847
-0.20849475 -0.17967093 -0.011441171 -0.4052534 0.19943944 -0.07376215 0.30695555 0.0004428923
0.35623363 0.29800162 0.18381587 0.1628584 -0.16832066 -0.22785214 -0.04928291 -0.046717703
0.016905427 0.28090385 -0.10251936 0.35455325 -0.25371853 -0.16613805 0.12403491 -0.07918504
-0.1483182 -0.040510446 -0.42385623 -0.27885622 -0.10193354 0.27514914 0.33968118 0.17172125

weight f4 [16]
00000000: 0000 803f 0000 803f 0000 803f 0000 803f
00000010: 0000 803f 0000 803f 0000 803f 0000 803f
00000020: 0000 803f 0000 803f 0000 803f 0000 803f
00000030: 0000 803f 0000 803f 0000 803f 0000 803f
1.0 1.0 1.0 1.0 1.0 1.0 1.0 1.0
1.0 1.0 1.0 1.0 1.0 1.0 1.0 1.0

bias f4 [16]
00000000: 0000 0000 0000 0000 0000 0000 0000 0000
00000010: 0000 0000 0000 0000 0000 0000 0000 0000
00000020: 0000 0000 0000 0000 0000 0000 0000 0000
00000030: 0000 0000 0000 0000 0000 0000 0000 0000
0.0 0.0 0.0 0.0 0.0 0.0 0.0 0.0
0.0 0.0 0.0 0.0 0.0 0.0 0.0 0.0

running_mean f4 [16]
00000000: 8030 8eba a5b0 8c3d c207 2bbc 5892 873d
00000010: 2066 6bbd 3b66 f6bb b64f 453c 732f d4bc
00000020: bb30 67bc c873 0bbd 1db5 62bd 7170 be3c
00000030: cd30 083d 1747 7e3d 73c1 b63b 08c6 baba
-0.0010848194 0.0686963 -0.010438861 0.0661971 -0.05747044 -0.007519511 0.01204293 -0.025901532
-0.014110739 -0.034045964 -0.055348504 0.023246976 0.033249665 0.062079515 0.00557726 -0.0014249692

running_var f4 [16]
00000000: 7e3f 6b3f f91c 6d3f 4a2b 6b3f 5d50 6b3f
00000010: 08a5 6c3f c075 6c3f 5e3e 6c3f 62bc 733f
00000020: fbaf 6a3f 8fbf 6c3f e68c 743f a77d 713f
00000030: 8392 703f b600 6d3f 8021 703f 9d4d 6f3f
0.91893756 0.92622334 0.9186293 0.919195 0.9243932 0.9236717 0.92282665 0.95209324
0.91674775 0.92479795 0.95527494 0.94332355 0.9397356 0.9257921 0.93801117 0.93477803

weight f4 [16, 1, 3, 3]
00000000: 40a3 f0bb 507b dc3c 8b75 c9bd 186f e13c
00000010: d4b8 1fbd 40c6 1d3d 9027 5d3c 52ef e93d
00000020: f872 fd3c 30a6 8d3c 2069 4bbc fa4d 1ebe
00000030: 8258 af3d 28d1 87bd bec2 ee3d 55fd cfbd
00000040: 44f2 143d 7c9e b7bd 5fe8 2d3e 3ad3 e03d
00000050: 6faf 2a3e 88a2 71bd 6287 c13d 2320 e4bd
00000060: e97e 293e 3d50 03be 3eb7 2dbe c46d 493d
00000070: 714f 443e 623e a63d 54fb 673d 1666 ed3d
00000080: b4dd f3bd 84b2 84bd 8250 e13d 3cde 6bbd
00000090: 7317 9ebd d75d fdbd 1c30 1c3d 4095 34bd
000000a0: 8061 563c fe85 87bd 9784 483e 20da 4c3d
000000b0: c8f3 173d 1c70 cabd a917 0e3e dc2d 263d
000000c0: 1236 bf3d 27e2 0d3e 437b 27be 9abf ab3d
000000d0: f007 38bc 5910 3dbe 393c 44be 623b fd3d
000000e0: 4a37 b03d e67f 14be a481 45be 7702 363e
000000f0: caa3 f23d 74ff bfbd b9e8 2d3e 80f6 553b
00000100: b036 de3c fcda 543d 1245 a03d ff06 b8bd
00000110: 21c4 213e 5332 34be 6074 643c b3b7 3b3e
00000120: 7247 d53d 203f 08bc 5538 0abe ce6b ddbd
00000130: a1d5 1fbe 8232 ff3d 30ec b33c 8161 b2bd
00000140: b917 243e b01c 01bc cccf 2e3d fe2b e43d
00000150: 9457 0c3d 089a 79bd 89ed 0cbe b862 89bc
00000160: 70fd abbc 0aa6 a6bd 4096 1b3d 89e8 3d3e
00000170: a8a6 41bd 483b 15be 1e62 853d 2520 27be
00000180: 4015 cbbb cced 55bd 90b4 bfbd 76d0 de3d
00000190: d88d e4bc efdc 0fbe 38dc 8fbd 6ab2 dc3d
000001a0: ec25 293d e5bb f5bd 261f 21be dc07 42be
000001b0: d0d9 c1bc ec3b 80bd f6fc c2bd f2ae e43d
000001c0: ed28 3b3e 53c5 0c3e 443e 3f3d e6c9 903d
000001d0: f0eb 6b3c ab7f c5bd 7fc2 debd 7e3a d7bd
000001e0: 42ed df3d 206f a03b 7cb7 a3bd 7f69 323e
000001f0: 9a17 e5bd 2a71 ed3d f44f 133d 1ffc 193e
00000200: f85f 3abd abbb 2dbe 3ba8 0b3e 7d89 0f3e
00000210: 159a 1cbe 70f4 e7bc 3939 2d3e 8f7c 293e
00000220: 6286 11be 6803 303d 6b92 093e 3c9e 053d
00000230: 2080 ae3c a090 083c 1026 813c 77d6 f8bd
-0.0073436797 0.026914269 -0.09836873 0.027518794 -0.038994625 0.038519144 0.013498202 0.114226
0.03093861 0.017291158 -0.0124152005 -0.15459433 0.085618034 -0.0663169 0.11658238 -0.10155741
0.036363855 -0.08965775 0.16983174 0.10977788 0.16668485 -0.058992893 0.0944965 -0.11138942
0.16552319 -0.12823577 -0.16964433 0.049176946 0.1917093 0.08117367 0.05663617 0.11591737
-0.11907521 -0.06479362 0.11001684 -0.057584986 -0.07719316 -0.12371414 0.03813182 -0.04408765
0.013084769 -0.06617354 0.19581829 0.050012708 0.037097722 -0.098846644 0.13876213 0.04057108
0.09336485 0.13855802 -0.16355614 0.083861545 -0.011232361 -0.18463267 -0.19163598 0.12364842
0.086042956 -0.14501914 -0.19287735 0.17774378 0.118476465 -0.09374896 0.16983308 0.0032648146
0.027125686 0.051966652 0.07825674 -0.089857094 0.15797473 -0.17597322 0.013943762 0.18331794
0.10414018 -0.008315831 -0.13498051 -0.10811578 -0.15608837 0.124608055 0.021963209 -0.08710004
0.16024674 -0.007880375 0.04267864 0.11141203 0.03426321 -0.06093791 -0.13762487 -0.016770706
-0.020994872 -0.08137138 0.037985086 0.18545736 -0.047278076 -0.14573395 0.06512855 -0.16320856
-0.0061976016 -0.052228734 -0.093606114 0.108796045 -0.027899668 -0.14049123 -0.07024425 0.10776217
0.04129593 -0.11998729 -0.15734538 -0.1894831 -0.023663431 -0.06261429 -0.09520905 0.11166181
0.1827733 0.13747148 0.04669024 0.07069759 0.014399514 -0.09643491 -0.10876941 -0.105092034
0.10933925 0.0048960596 -0.07993981 0.17423056 -0.11186142 0.1159385 0.03596492 0.15037583
-0.04550168 -0.16966121 0.13638394 0.14017291 -0.15293153 -0.0283148 0.1691636 0.16551422
-0.14211419 0.042972 0.1343476 0.032621607 0.02130133 0.008335263 0.01576522 -0.12150281

weight f4 [16]
00000000: 0000 803f 0000 803f 0000 803f 0000 803f
00000010: 0000 803f 0000 803f 0000 803f 0000 803f
00000020: 0000 803f 0000 803f 0000 803f 0000 803f
00000030: 0000 803f 0000 803f 0000 803f 0000 803f
1.0 1.0 1.0 1.0 1.0 1.0 1.0 1.0
1.0 1.0 1.0 1.0 1.0 1.0 1.0 1.0

bias f4 [16]
00000000: 0000 0000 0000 0000 0000 0000 0000 0000
00000010: 0000 0000 0000 0000 0000 0000 0000 0000
00000020: 0000 0000 0000 0000 0000 0000 0000 0000
00000030: 0000 0000 0000 0000 0000 0000 0000 0000
0.0 0.0 0.0 0.0 0.0 0.0 0.0 0.0
0.0 0.0 0.0 0.0 0.0 0.0 0.0 0.0

running_mean f4 [16]
00000000: 6de9 893b f22a d4bb 9df1 193c b7ee 683c
00000010: 4e9f 803a 600c c83a 206b d83a fb0f 213c
00000020: 6dfc 58bb c973 b4bb 01c4 0dbc 5a14 8ebc
00000030: addb 7a3c da86 76bb 187d 173c b8ed ce3b
0.0042087347 -0.006474846 0.009395984 0.01421707 0.0009813101 0.0015262477 0.0016511418 0.00983047
-0.0033109442 -0.0055069667 -0.008652688 -0.017343689 0.015311164 -0.0037617 0.009246133 0.0063149594

running_var f4 [16]
00000000: 3d9c 663f e150 673f dda9 673f 799d 673f
00000010: d5f0 663f 3975 673f 4e0e 683f be41 673f
00000020: 5a36 673f 98c9 663f 0536 673f 5d7c 673f
00000030: 6a43 673f 979a 673f f3e9 673f 0f52 673f
0.9008215 0.90357786 0.90493566 0.9047466 0.9021123 0.9041324 0.9064683 0.9033469
0.9031731 0.9015136 0.903168 0.9042414 0.9033724 0.9047026 0.90591353 0.90359586

weight f4 [16, 16, 1, 1]
00000000: 064f 213e 96d4 8dbe b32a a13e 052c d43e
00000010: 5e0c 073e e6b2 573e 4065 75bc 1812 5c3d
00000020: 846b b4bd 1483 c43d 448b 26be a6ef 3f3e
00000030: 9d66 873e 4013 d33b b893 2a3d 4aa4 303e
00000040: 1e3b 013e 85bc 63be 4811 1fbe e61b cdbe
00000050: c971 d83e 76f4 443e d6e4 3a3e 8e23 98be
00000060: 667c c8be 89ce 79be 5986 953e 675f a9be
00000070: 0037 903b f227 023e 4e8e 563e 2029 5b3d
00000080: af56 a73e 20a9 c5be b095 3abd 9441 c93d
00000090: 9855 3f3d 7498 f3bd c67c 3fbe d37d 903e
000000a0: 8cfb cebd 607a 4abc 4c0a ac3d cd36 8d3e
000000b0: 47d2 b7be 605f 623d c741 71be 9dcb 52be
000000c0: 8237 233e df47 c03e 406f 733d 5870 433d
000000d0: 4c6f d2bd 1abc 573e dcdf a8be 8023 abbe
000000e0: 7263 71be 2090 16be 2c52 b73d 9334 943e
000000f0: f4a7 a9be b073 713d 1e64 4e3e e857 edbd
00000100: 0b59 dd3e f057 c7bc 2e2c 8fbe 3323 8ebe
00000110: e002 37bc 902b 1ebd fcf5 8fbd b4d3 b2be
00000120: 476e bd3e 0715 8b3e 9ddb d13e 043d b83d
00000130: 4a21 353e 28da 01be 2885 c6bd aa1f 753e
00000140: 473d bd3e 0020 c439 6e1c 7f3e 2785 a6be
00000150: e3f8 983e 7618 123e f3f3 b13e bc13 dabd
00000160: 4eff 4c3e 10da cfbd fde8 af3e 8e8a 593e
00000170: 5716 cabe d783 a43e 1480 16be 202d babe
00000180: c00c 77be 3cea c03d a617 023e 64e7 943d
00000190: 9f9a bb3e 8699 65be b288 cbbe bfaf d53e
000001a0: e00c 6fbc 159c b53e 2732 a23e 9c97 35be
000001b0: 5cbc dbbe dd89 3bbe 83fa b63e 448f aabe
000001c0: b5f8 ab3e 7aa3 493e 5ed3 303e f539 893e
000001d0: 2289 403e da64 273e a6f3 383e 2316 c43e
000001e0: a643 513e 32a3 aebe f409 51be 099d c73e
000001f0: 9f81 8e3e fa34 8ebe 1f26 d33e f174 95be
00000200: 5c71 b53d 91bc 813e afaa bd3e 2c64 b2bd
00000210: ef61 923e 5062 733d 93d7 a33e 5c52 813d
00000220: db38 c63e 4ff8 c83e 183d 243d f075 c9be
00000230: ee38 4f3e ac27 acbe b88e c9bd 4e69 9ebe
00000240: dc1c b73d 7e9f 8dbe e292 573e a0ad c9be
00000250: 9a4e 8cbe e220 19be ae44 d3be 8ccc 9d3d
00000260: ac98 b03d 6e4a 58be d414 fc3d d033 45bd
00000270: 5a13 8fbe 37a6 c2be 26a0 7ebe 929e 06be
00000280: b7c6 43be e02a 20bc c200 a6be 7e5d 9abe
00000290: 3284 1b3e f7b4 a93e 03ba 9b3e ed33 cb3e
000002a0: 7807 5cbe aba3 50be 798a db3e d6ad 673e
000002b0: 4818 d4be 720d 6a3e 7aac 633e 7f61 c6be
000002c0: 2408 a33d 953a 9cbe 487a c7be 83c7 923e
000002d0: 19f5 b03e 274b dc3e 96ae 4c3e ac7b 86bd
000002e0: 66f0 41be 20ee a0be 2920 cd3e 9c8c b4bd
000002f0: 0230 a9be 1551 ab3e f06e 323d 648e 3fbe
00000300: d869 14be 50e0 2b3d 6ba9 5abe b156 7dbe
00000310: b36d d3be 2ee1 b9be c06e 4c3c b94b d13e
00000320: c02f 3c3d d3ce 9a3e a4f4 87bd e035 7f3d
00000330: f297 c2be 85b6 993e 71bd 64be 532a b43e
00000340: bde7 bfbe 4403 90bd 4b75 d93e c48a e6bd
00000350: 5083 cdbe 16f9 cebe 4ff4 3cbe bc2e 88be
00000360: d60d 393e 03c9 9d3e f61e 223e adca b1be
00000370: 98f6 18be 79f4 ab3e 1610 6b3e 27bf dc3e
00000380: 001a e3ba a54b d43e d96a d23e 6674 433e
00000390: e7e5 933e 0607 023e 8c59 a6be 2a6c 0e3e
000003a0: 269c 113e 1ce6 c23d 7434 98bd 6502 863e
000003b0: a87e f4bd 3449 8cbd b6a5 123e 6088 dfbc
000003c0: 3052 54bd 6254 613e 3880 75be 75a6 b6be
000003d0: 7226 573e 2082 b1be f446 943d 00c4 8d3b
000003e0: 664f 51be 3261 653e ec1d a5be 69e2 acbe
000003f0: 1069 c5be 16d3 333e 1872 e8bd f307 b93e
0.15752801 -0.27701253 0.3147789 0.41439834 0.13188311 0.21064338 -0.014977753 0.053728193
-0.088095695 0.09595314 -0.16264063 0.18743762 0.26445475 0.0064415038 0.04164478 0.17250171
0.12620208 -0.22239883 -0.15533936 -0.40060347 0.4227431 0.1923388 0.18251356 -0.29714626
-0.39157408 -0.24395193 0.29204062 -0.330806 0.0044010878 0.1271055 0.20952722 0.053506017
0.32683322 -0.38605595 -0.04555291 0.09826961 0.046712488 -0.118943125 -0.18699941 0.28220996
-0.101065725 -0.012358278 0.084004015 0.27580872 -0.35902616 0.055266738 -0.23560248 -0.20585485
0.15939143 0.37554833 0.05943227 0.04771456 -0.102751344 0.21067849 -0.3298329 -0.33425522
-0.23573092 -0.14703417 0.0895122 0.2894636 -0.3313595 0.05894822 0.20155379 -0.115890324
0.43231997 -0.024333924 -0.27963394 -0.2776123 -0.011170119 -0.038615763 -0.0702934 -0.34927142
0.36998197 0.2716448 0.40987864 0.08996013 0.1768848 -0.12680876 -0.09693366 0.2393786
0.36960813 0.00037407875 0.24913189 -0.32523462 0.29877385 0.14267144 0.3475643 -0.10648295
0.20019266 -0.10149014 0.34357443 0.2124426 -0.3947017 0.32131836 -0.14697295 -0.36362553
-0.24125957 0.09419677 0.12704334 0.07270697 0.36641404 -0.22421846 -0.39752728 0.41735646
-0.014590472 0.35470644 0.31678888 -0.17733616 -0.42917144 -0.1831431 0.35738 -0.33312428
0.33588186 0.19691268 0.1726813 0.2680203 0.18802312 0.16347066 0.18061695 0.3829814
0.20435962 -0.34108883 -0.20413953 0.38986996 0.27833268 -0.27774793 0.41240022 -0.29190782
0.08859512 0.25339177 0.37044284 -0.087105125 0.28590342 0.05941993 0.32000408 0.06314537
0.38715252 0.39251944 0.040097326 -0.39347792 0.2023656 -0.33624017 -0.098416746 -0.30939716
0.08941051 -0.27660745 0.21052125 -0.39390278 -0.27403718 -0.1495395 -0.41263336 0.0770503
0.0862287 -0.21122143 0.1230866 -0.048145115 -0.27944452 -0.38017437 -0.2486578 -0.13146427
-0.19118772 -0.009775847 -0.32422453 -0.30149454 0.15187147 0.33145878 0.30415353 0.39688054
-0.21487224 -0.20374934 0.42879084 0.22624907 -0.41424775 0.22856691 0.22233763 -0.3874626
0.07960537 -0.30513445 -0.3896048 0.2866784 0.34561995 0.43026087 0.19988474 -0.06566557
-0.18939361 -0.31431675 0.400636 -0.088158816 -0.3304444 0.33460298 0.04356283 -0.18706661
-0.14493501 0.041961968 -0.2135369 -0.24740101 -0.4129463 -0.3630461 0.012477577 0.40878084
0.045943975 0.3023592 -0.06638458 0.06230724 -0.3800655 0.30022064 -0.22337891 0.3518854
-0.3748149 -0.07031873 0.424723 -0.11256936 -0.40139246 -0.40424412 -0.18452571 -0.26598155
0.18071684 0.30817422 0.15832123 -0.34724942 -0.14937818 0.33584955 0.22955355 0.43114588
-0.0017326474 0.41463962 0.41097143 0.19087371 0.2888634 0.12697992 -0.32490194 0.13908449
0.14219722 0.09516546 -0.0743188 0.26173702 -0.1193822 -0.068499 0.14321026 -0.027286708
-0.051836193 0.22004846 -0.23974693 -0.35673872 0.2101076 -0.3466959 0.07240096 0.0043263435
-0.20440444 0.22400358 -0.3224939 -0.33766487 -0.3855672 0.17560992 -0.11349887 0.36138877

weight f4 [16]
00000000: 0000 803f 0000 803f 0000 803f 0000 803f
00000010: 0000 803f 0000 803f 0000 803f 0000 803f
00000020: 0000 803f 0000 803f 0000 803f 0000 803f
00000030: 0000 803f 0000 803f 0000 803f 0000 803f
1.0 1.0 1.0 1.0 1.0 1.0 1.0 1.0
1.0 1.0 1.0 1.0 1.0 1.0 1.0 1.0

bias f4 [16]
00000000: 0000 0000 0000 0000 0000 0000 0000 0000
00000010: 0000 0000 0000 0000 0000 0000 0000 0000
00000020: 0000 0000 0000 0000 0000 0000 0000 0000
00000030: 0000 0000 0000 0000 0000 0000 0000 0000
0.0 0.0 0.0 0.0 0.0 0.0 0.0 0.0
0.0 0.0 0.0 0.0 0.0 0.0 0.0 0.0

running_mean f4 [16]
00000000: 9a3f 6f3d f13a 8abc a844 9dbc 4a0a 6fbb
00000010: 0a2b e63c bbaa 283d e2bf 6e3b ce4e a43d
00000020: 882c 463d f040 afbd 078f 1f3c 9477 173c
00000030: 2943 acbc 6a27 1abc d02a 7f3d c729 32bd
0.058410265 -0.016873809 -0.019197777 -0.0036474639 0.028096694 0.041178446 0.003643029 0.08022843
0.048382312 -0.08557308 0.00973869 0.009244818 -0.021028118 -0.009408811 0.06229669 -0.043496873

running_var f4 [16]
00000000: 27b8 6c3f 6ba1 703f 2701 6d3f a1f6 6b3f
00000010: bf61 713f 7fa9 713f d654 733f bd64 733f
00000020: c688 6f3f ade4 6e3f b915 743f a5b1 723f
00000030: 5d48 703f 580c 743f 9647 6d3f 53b1 6f3f
0.92468494 0.93996304 0.92579883 0.921732 0.94289774 0.94399256 0.95051324 0.9507559
0.93568075 0.9331768 0.95345646 0.94802314 0.9386042 0.95331335 0.92687356 0.9362995

weight f4 [96, 16, 1, 1]
00000000: 983a 103d 0c9a 443e b852 983d 222c 4e3e
00000010: 1f2b 36be 441e f13d 001a 573b 44b3 693e
00000020: 3699 573e a07d 7bbc 0437 27be 7084 9e3d
00000030: eaa6 5c3e 0015 6dbd 5294 16be 1c7a a7bd
00000040: 8753 48be 284c f3bc 507d 41be 9b4c 25be
00000050: 9fb1 69be f4d5 ed3d 8f25 f2bd 04f9 5fbe
00000060: 2079 543d c044 473b 882b 9c3d d27f d1bd
00000070: 9e36 0abe 04e3 df3d 3437 1cbe a836 11be
00000080: 3887 c53d d64a 66be c884 993d dcaf 05be
00000090: d6c8 343e 1042 ca3c c07c f23d 8e2d 443e
000000a0: 662f 213e f66b 393e f8e5 3a3e fe5e 413e
000000b0: 20e7 b43b 85f3 57be 1ec4 073e f861 4d3e
000000c0: ae84 1cbe 8713 3abe d80f 023d 2040 e43c
000000d0: d25c b5bd b081 913c 180a 733d 3870 0dbd
000000e0: 4cbc 20be d394 6cbe c4a4 52bd d265 603e
000000f0: 96f4 013e 90ca d43d 3445 bdbd 9810 133d
00000100: 461c 663e f0d2 7bbd 8411 b5bd c644 103e
00000110: 0ca4 c53d caf7 383e 4433 f43d aade a8bd
00000120: 4242 133e 828b 57be a02f 0c3e 5c22 41bd
00000130: ccc9 8f3d 10d0 5b3c 1804 bbbd 8e4c 5f3e
00000140: 8679 10be a44b 36be 7ea1 c8bd 8081 bf3d
00000150: 1d40 f5bd 18e9 a9bd f4e4 f93d 8e9b 043e
00000160: a395 debd 1b9b f9bd 6808 5f3d 2adb 683e
00000170: 1e62 03be e00e d23c e4b6 7cbd a86a 26be
00000180: 98cc 66be b827 2c3e 987e 44be 8a91 92bd
00000190: e2b2 8abd 188e 823c 201f 213d e6c1 c8bd
000001a0: 42b7 3c3e ad49 35be 8072 cc3a 6c66 0cbe
000001b0: ae9a 003e 6212 d0bd 208a 023d 6a32 0cbe
000001c0: 5041 b83c c8a4 d13d e0c9 123e a2c9 5a3e
000001d0: 0a3a 343e cc84 6a3e d4da 12bd e479 5cbe
000001e0: 9670 d5bd b89f 1fbe 2020 f63c 34b0 86bd
000001f0: 144a e43d 0016 3ebb 9890 c73d a002 ccbb
00000200: 0cee 20be 10c8 f13c 802e da3d 6248 a1bd
00000210: 2a9b 5cbe b8c2 7c3d 442f 8d3d 84bb 3c3e
00000220: 505f 913c 5cc0 b1bd 58e0 373e 28a1 b9bd
00000230: 1004 003c 34c1 f33d 300d d4bc 0bd4 2dbe
00000240: da15 1ebe 469a 5c3e 30f3 8b3d 2a90 5ebe
00000250: da28 143e fa7e 3a3e aaf4 013e d69b 24be
00000260: 922b 5a3e 2cca 3dbe b0d8 853d 44fe 3b3e
00000270: 2ca6 f43d 26bb 563e 82e5 273e 383f 0fbd
00000280: 7494 e23d a899 05be e5f7 55be e043 e23c
00000290: 0c3e 373e 6f5e 00be 1ed8 07be cef9 29be
000002a0: f062 b93d feb0 303e 699b 43be 5817 113e
000002b0: ac61 c93d 5ae8 1e3e 2a34 9fbd 88f5 d83d
000002c0: 3026 213c 10e1 3c3e 38fe 743d 74aa 9bbd
000002d0: 3816 4f3d 4e3e 333e a80f 7f3d d079 7bbc
000002e0: be49 82bd 5404 bcbd 183a 483e e8a0 213d
000002f0: 18fe 603e 84b8 08bd d466 11be e03c 303d
00000300: 9810 05be 4a87 373e d8b9 28bd e068 58bd
00000310: e601 98bd d0ef c43c 3ee3 603e e272 95bd
00000320: f6b8 34be 10d5 ea3c 2e0f 023e 56c1 223e
00000330: c03c 883d 3453 5abe 4c1f 38be 7e2d ecbd
00000340: 0a16 5a3e 7c25 4f3e 7ced 6abd 8c8f c3bd
00000350: af2b 39be dcab ec3d fcde 61be 0925 dabd
00000360: 9e9c 04be 28c7 503d e3ca e9bd 9888 1e3e
00000370: 5cab ecbd 2aad 033e e885 df3d 25ca 38be
00000380: 9091 6a3d c025 483d 9002 cabd 70a5 1b3c
00000390: 7fac 01be db6b 43be f96d 14be 4818 7abd
000003a0: da0e 233e 9c61 263e 9450 b4bd f0e6 1a3e
000003b0: ad3a 5cbe 8436 263e 6c07 20bd e07c 2dbc
000003c0: 48a4 48be 9405 a63d 8046 d6bc 201d 563d
000003d0: ce37 423e 38a7 efbd d872 8fbd 1849 373e
000003e0: 60d8 8abc 76f8 a9bd 78f4 a9bd c0ff 74bb
000003f0: 2aec b1bd c06b cf3c 940f 2a3e 7c0c 073e
0.03521213 0.19199389 0.07437652 0.20134023 -0.17789887 0.11773351 0.0032821894 0.2282229
0.21054539 -0.015349776 -0.1632958 0.07740104 0.21548048 -0.057881355 -0.14705017 -0.081775874
-0.19563113 -0.0296994 -0.18895459 -0.16142504 -0.22821663 0.11613074 -0.1182357 -0.21872336
0.051873326 0.0030405968 0.076254904 -0.10229458 -0.13497397 0.10931972 -0.15255433 -0.14181006
0.096449316 -0.22489485 0.07496029 -0.13055366 0.17654738 0.024689704 0.118402004 0.19158003
0.15740737 0.1810759 0.18251789 0.18883893 0.0055207163 -0.21088989 0.13258407 0.20056903
-0.15284988 -0.18171512 0.03175339 0.027862608 -0.08855595 0.017762035 0.059335798 -0.03453085
-0.1569683 -0.23103647 -0.051426664 0.21913841 0.12690958 0.10390198 -0.09241715 0.035904497
0.22471723 -0.061480463 -0.088412315 0.14088735 0.0965043 0.18063274 0.11923841 -0.08245595
0.14380744 -0.21049312 0.13690042 -0.04715191 0.070209116 0.013416305 -0.0913164 0.21806547
-0.14108858 -0.17802292 -0.09796427 0.09350872 -0.11975119 -0.08296412 0.122018725 0.12949964
-0.10868385 -0.12187787 0.054451376 0.22739854 -0.12830397 0.025641859 -0.061697856 -0.16251624
-0.22538984 0.16812027 -0.19188917 -0.071566656 -0.067724004 0.015936896 0.039336324 -0.09802608
0.18429282 -0.17703886 0.0015598089 -0.13710946 0.12559006 -0.10159756 0.031870008 -0.13691106
0.02249208 0.10236508 0.14334822 0.2136598 0.17600265 0.2290222 -0.035853222 -0.21530873
-0.10421865 -0.15588272 0.030044615 -0.06576577 0.11146942 -0.0029004812 0.09744376 -0.006225899
-0.15715808 0.029514343 0.106534004 -0.07875134 -0.21543565 0.061709136 0.06893781 0.18430907
0.017745644 -0.08679268 0.17956674 -0.09063941 0.007813469 0.11902085 -0.025885195 -0.16975419
-0.15438023 0.21543226 0.06833494 -0.21734682 0.14468709 0.182125 0.12690988 -0.16075072
0.21305683 -0.18534154 0.065354705 0.18358713 0.11945757 0.20969829 0.16396144 -0.0349724
0.110634714 -0.13046896 -0.20895346 0.027620256 0.17894763 -0.12536024 -0.13266036 -0.16599199
0.09052074 0.17255017 -0.19102253 0.14169061 0.098330826 0.15518323 -0.077736214 0.10593706
0.009835765 0.1844523 0.059812754 -0.07600871 0.0505583 0.17504236 0.06227079 -0.015348867
-0.063617215 -0.09180513 0.19553411 0.039460093 0.21971929 -0.033379093 -0.14199382 0.043026805
-0.12994611 0.17922702 -0.04119286 -0.05283439 -0.07422237 0.024040133 0.21961686 -0.07297303
-0.17648682 0.02866605 0.12701103 0.15894064 0.06652212 -0.21320802 -0.17980689 -0.115321144
0.2129747 0.20229143 -0.05735539 -0.09548864 -0.1808307 0.11556217 -0.22057718 -0.10651595
-0.1295037 0.05097118 -0.11415651 0.15481794 -0.11556122 0.12859026 0.109142125 -0.18045862
0.057267725 0.048864126 -0.0986377 0.009499893 -0.12663458 -0.19084112 -0.14495076 -0.061058313
0.15923634 0.16248173 -0.088044316 0.15127158 -0.21506758 0.16231734 -0.039069578 -0.010588855
-0.19593918 0.08106533 -0.026156664 0.05227387 0.189666 -0.11701816 -0.070043266 0.17898977
-0.016948879 -0.08299343 -0.08298582 -0.0037383884 -0.08687623 0.025319934 0.16607505 0.13188356

weight f4 [96]
00000000: 0000 803f 0000 803f 0000 803f 0000 803f
00000010: 0000 803f 0000 803f 0000 803f 0000 803f
00000020: 0000 803f 0000 803f 0000 803f 0000 803f
00000030: 0000 803f 0000 803f 0000 803f 0000 803f
00000040: 0000 803f 0000 803f 0000 803f 0000 803f
00000050: 0000 803f 0000 803f 0000 803f 0000 803f
00000060: 0000 803f 0000 803f 0000 803f 0000 803f
00000070: 0000 803f 0000 803f 0000 803f 0000 803f
00000080: 0000 803f 0000 803f 0000 803f 0000 803f
00000090: 0000 803f 0000 803f 0000 803f 0000 803f
000000a0: 0000 803f 0000 803f 0000 803f 0000 803f
000000b0: 0000 803f 0000 803f 0000 803f 0000 803f
000000c0: 0000 803f 0000 803f 0000 803f 0000 803f
000000d0: 0000 803f 0000 803f 0000 803f 0000 803f
000000e0: 0000 803f 0000 803f 0000 803f 0000 803f
000000f0: 0000 803f 0000 803f 0000 803f 0000 803f
00000100: 0000 803f 0000 803f 0000 803f 0000 803f
00000110: 0000 803f 0000 803f 0000 803f 0000 803f
00000120: 0000 803f 0000 803f 0000 803f 0000 803f
00000130: 0000 803f 0000 803f 0000 803f 0000 803f
00000140: 0000 803f 0000 803f 0000 803f 0000 803f
00000150: 0000 803f 0000 803f 0000 803f 0000 803f
00000160: 0000 803f 0000 803f 0000 803f 0000 803f
00000170: 0000 803f 0000 803f 0000 803f 0000 803f
1.0 1.0 1.0 1.0 1.0 1.0 1.0 1.0
1.0 1.0 1.0 1.0 1.0 1.0 1.0 1.0
1.0 1.0 1.0 1.0 1.0 1.0 1.0 1.0
1.0 1.0 1.0 1.0 1.0 1.0 1.0 1.0
1.0 1.0 1.0 1.0 1.0 1.0 1.0 1.0
1.0 1.0 1.0 1.0 1.0 1.0 1.0 1.0
1.0 1.0 1.0 1.0 1.0 1.0 1.0 1.0
1.0 1.0 1.0 1.0 1.0 1.0 1.0 1.0
1.0 1.0 1.0 1.0 1.0 1.0 1.0 1.0
1.0 1.0 1.0 1.0 1.0 1.0 1.0 1.0
1.0 1.0 1.0 1.0 1.0 1.0 1.0 1.0
1.0 1.0 1.0 1.0 1.0 1.0 1.0 1.0

bias f4 [96]
00000000: 0000 0000 0000 0000 0000 0000 0000 0000
00000010: 0000 0000 0000 0000 0000 0000 0000 0000
00000020: 0000 0000 0000 0000 0000 0000 0000 0000
00000030: 0000 0000 0000 0000 0000 0000 0000 0000
00000040: 0000 0000 0000 0000 0000 0000 0000 0000
00000050: 0000 0000 0000 0000 0000 0000 0000 0000
00000060: 0000 0000 0000 0000 0000 0000 0000 0000
00000070: 0000 0000 0000 0000 0000 0000 0000 0000
00000080: 0000 0000 0000 0000 0000 0000 0000 0000
00000090: 0000 0000 0000 0000 0000 0000 0000 0000
000000a0: 0000 0000 0000 0000 0000 0000 0000 0000
000000b0: 0000 0000 0000 0000 0000 0000 0000 0000
000000c0: 0000 0000 0000 0000 0000 0000 0000 0000
000000d0: 0000 0000 0000 0000 0000 0000 0000 0000
000000e0: 0000 0000 0000 0000 0000 0000 0000 0000
000000f0: 0000 0000 0000 0000 0000 0000 0000 0000
00000100: 0000 0000 0000 0000 0000 0000 0000 0000
00000110: 0000 0000 0000 0000 0000 0000 0000 0000
00000120: 0000 0000 0000 0000 0000 0000 0000 0000
00000130: 0000 0000 0000 0000 0000 0000 0000 0000
00000140: 0000 0000 0000 0000 0000 0000 0000 0000
00000150: 0000 0000 0000 0000 0000 0000 0000 0000
00000160: 0000 0000 0000 0000 0000 0000 0000 0000
00000170: 0000 0000 0000 0000 0000 0000 0000 0000
0.0 0.0 0.0 0.0 0.0 0.0 0.0 0.0
0.0 0.0 0.0 0.0 0.0 0.0 0.0 0.0
0.0 0.0 0.0 0.0 0.0 0.0 0.0 0.0
0.0 0.0 0.0 0.0 0.0 0.0 0.0 0.0
0.0 0.0 0.0 0.0 0.0 0.0 0.0 0.0
0.0 0.0 0.0 0.0 0.0 0.0 0.0 0.0
0.0 0.0 0.0 0.0 0.0 0.0 0.0 0.0
0.0 0.0 0.0 0.0 0.0 0.0 0.0 0.0
0.0 0.0 0.0 0.0 0.0 0.0 0.0 0.0
0.0 0.0 0.0 0.0 0.0 0.0 0.0 0.0
0.0 0.0 0.0 0.0 0.0 0.0 0.0 0.0
0.0 0.0 0.0 0.0 0.0 0.0 0.0 0.0

running_mean f4 [96]
00000000: f00b eb3c 320c 59bd 7352 403d db7d 71bc
00000010: 5a0e fb3c 0f5a b5bc 0d5e d3bc 479a b13c
00000020: 05cd 02bb 1be2 1a3d 5ec5 013b 6ac5 cb3c
00000030: 834a 25bc 91de 14bc 0b82 13bc 4ad3 bb3b
00000040: c377 f53c 2bb4 d5bc 2293 513c ebe0 a4bb
00000050: 9200 f63c 1d20 3ebd 6775 e2ba d7a5 593c
00000060: 6a69 533b 94f5 92bb fee0 c2bc 238b 143c
00000070: a579 a3bb ef25 ffbc d09d 9a3b 6fda 2b3d
00000080: 0871 f0bb 99c0 953b 5cab 1b3c ecbf 9cbc
00000090: ba44 f63b 5aa8 0cbc 2377 d8bc 2fa3 693c
000000a0: 03bf 85bc 7f37 153c c9cf b3bc d177 a0bc
000000b0: 5356 a7bc aadc 01bd c7b6 cf3c 9341 e4bb
000000c0: e3c4 31bd c799 d5bc 50cd 4dbb 1d60 333c
000000d0: 0f34 82bd ce10 9a3d 8c40 a03b fcbb aa38
000000e0: 9123 b6bc 4f32 27bc 0fa1 1cbc a782 833c
000000f0: 5300 c23c d877 9d3c 669c 273d ddf3 493b
00000100: a058 1fbc 4368 3f3c c7cc bebb 38df 7abc
00000110: c332 c6bb 1352 42bd 2c83 c83c d1e8 adbc
00000120: 9f39 673c 10bf 433d 75d0 78ba 8d2a 1ebd
00000130: d36f 35bc ff98 99bc 152a c3bc 89bb a239
00000140: 7718 083c be24 3e3c 0fc0 123c ef3c 87bc
00000150: 1b67 c03a 7aa9 c63b 277f dd3c 53d8 19bc
00000160: d307 eebc 639e 363c 4aaf 56bc d3c3 4ebc
00000170: a14f c53c 9eb5 a73c 7d66 563b d680 0b3c
0.028692216 -0.052990146 0.04695363 -0.014739479 0.030646492 -0.02213767 -0.025801683 0.02168001
-0.0019958627 0.037813287 0.0019801478 0.024874408 -0.010088566 -0.009086267 -0.009003173 0.0057319747
0.029964333 -0.026086887 0.012791427 -0.005031695 0.030029569 -0.046417344 -0.001727742 0.013284168
0.0032258877 -0.0044848416 -0.023788925 0.009066376 -0.0049888664 -0.031146018 0.0047185197 0.04195636
-0.007337693 0.0045700786 0.0095013045 -0.019134484 0.007515517 -0.00858506 -0.026423996 0.014260097
-0.016326433 0.00910747 -0.021949666 -0.019588383 -0.020426905 -0.031704582 0.02535571 -0.006965825
-0.043400656 -0.026074303 -0.0031402893 0.010948208 -0.06357586 0.075227365 0.004890507 8.1412465e-05
-0.022233756 -0.010204866 -0.009559884 0.01605351 0.023681795 0.019222185 0.040920638 0.003081552
-0.00972572 0.011682573 -0.005822751 -0.015312009 -0.0060485317 -0.047441553 0.02447661 -0.02122918
0.014112859 0.047789633 -0.0009491512 -0.0386148 -0.011074024 -0.018749712 -0.023823777 0.00031038772
0.008306614 0.01160544 0.008956923 -0.016508548 0.0014679165 0.0060626836 0.02703817 -0.009389955
-0.029056465 0.011146161 -0.013103316 -0.01261993 0.024085822 0.020472344 0.0032714896 0.008514604

running_var f4 [96]
00000000: a050 6e3f d21e 6f3f 26c2 743f 7d58 6e3f
00000010: b976 6d3f 6ba7 6e3f b021 6c3f fa54 6e3f
00000020: 27f4 6c3f 83b2 733f 235c 733f c682 703f
00000030: f15f 733f fa01 6e3f bdaf 6c3f 0b17 6b3f
00000040: f347 7f3f d582 6b3f d190 733f 1555 6b3f
00000050: 4fc4 6d3f d433 6f3f b8b6 6e3f 8adc 703f
00000060: 3ef5 6d3f 0bf8 6e3f 8db5 6f3f 1e7d 723f
00000070: 49ba 6e3f eba4 753f fa81 6f3f ec67 6f3f
00000080: 1ae8 6e3f fc45 6c3f 1549 6f3f 4adc 6c3f
00000090: d857 733f dff3 6f3f fb51 763f 3779 6f3f
000000a0: 2f32 713f 8c59 693f 8339 6f3f ef2b 6f3f
000000b0: abde 6a3f 0286 6d3f d4a6 733f 60b8 6f3f
000000c0: 6187 6a3f 2cf9 703f aa34 6e3f a052 703f
000000d0: abe1 6f3f ddbd 743f 657e 743f 5b38 733f
000000e0: 3523 703f 64b9 6d3f c461 6a3f 09ad 6d3f
000000f0: 177e 7a3f 3e8e 6e3f 7d63 6e3f 8dbd 6a3f
00000100: ccb2 6c3f 9edf 6d3f 5dc4 6e3f cb04 6d3f
00000110: f03d 6d3f 234b 6e3f 6764 6e3f 8939 713f
00000120: 5dc9 6d3f b100 6b3f eca7 733f 1cda 6e3f
00000130: d6c3 6f3f 29b8 713f befb 6a3f dd00 6a3f
00000140: c174 703f a267 6d3f e20d 6d3f eabf 713f
00000150: 23b5 6c3f 5ca9 6c3f a48a 6c3f b8db 6b3f
00000160: 4c1a 713f 3bf0 723f 2731 6b3f 2a60 763f
00000170: be3d 6c3f d2ca 6c3f 33d0 713f 1c23 703f
0.93091774 0.93406403 0.95608747 0.9310377 0.9275928 0.9322421 0.92238903 0.93098414
0.92560047 0.9519426 0.95062464 0.93949544 0.9506827 0.92971766 0.92455655 0.91832036
0.9971916 0.9199651 0.9514285 0.919267 0.9287767 0.9343846 0.93247557 0.94086516
0.92952335 0.93347234 0.936364 0.94722164 0.93253 0.9595477 0.93557703 0.9351795
0.9332291 0.9229429 0.9347089 0.92523634 0.95055914 0.9373149 0.9621884 0.93544334
0.942172 0.9115226 0.9344713 0.9342641 0.91746014 0.92782605 0.95176435 0.9364071
0.9161282 0.94130206 0.9304911 0.93876076 0.93703717 0.9560221 0.9550536 0.95007867
0.9380372 0.9286101 0.9155543 0.92842156 0.9784865 0.93185794 0.9312056 0.9169548
0.9246032 0.9291934 0.93268377 0.9258544 0.92672634 0.930834 0.9312195 0.94228417
0.9288538 0.9179793 0.95178103 0.9330156 0.93658197 0.9442163 0.9179038 0.9140757
0.9392815 0.92736256 0.9259931 0.9443346 0.9246389 0.9244592 0.9239905 0.9213214
0.9418075 0.9489781 0.91871876 0.96240485 0.9228171 0.9249698 0.9445831 0.9380357

weight f4 [96, 1, 3, 3]
00000000: ef55 3cbd e6e2 863d 3496 813d 80a0 6aba
00000010: 70f2 ad3b 505f 2f3c a8d1 533d 0065 cebc
00000020: 6891 e83c 6bb4 88bd 88ae 7b3d 2274 3dbd
00000030: 20ce 163d 56b9 a43d 7c9d a5bc 0067 583c
00000040: 60e5 23bb f0b6 b43c 8e8b 25bd 0018 d93a
00000050: 24e4 153d 88b1 3d3d 8af5 c2bc 787f 3a3d
00000060: 308f 703d 0001 2bbc 50cb ae3c 80de 5cba
00000070: 8dbd 24bd b00e 773d f6b6 b3bc 26d0 9b3d
00000080: cc87 403d 4c1f 32bd 7c8d 8cbc d468 64bd
00000090: f03c d13b e81e d43c 2543 9cbd 148a 7dbd
000000a0: 48c7 3c3d 043c 0b3d 745f cfbc 0016 683d
000000b0: 7c1d 5fbd d095 e7bc 0ca5 cd3c 68c3 333c
000000c0: c058 153d 5886 64bc 88a3 6c3d e4a5 8a3c
000000d0: b0f7 5b3d 2a1b 8abd 5029 c73b 7aac 07bd
000000e0: 3e60 a03d b58e 9dbd 964a 93bd d57c 9bbd
000000f0: ec58 9f3c 0cc7 b43c 4d7d 0fbd c49d f53c
00000100: 3233 17bd ac1b a93d 9896 35bc 501b 963b
00000110: 7422 ac3c a4f0 433d be33 29bd b654 9a3d
00000120: 22f1 a43d 7818 6d3d 5820 ed3c 9004 ec3c
00000130: c0ef 2abc 44a3 f4bc faa5 a23d 2061 05bb
00000140: 9630 2b3d ac56 693d e5e4 6bbd fc10 693d
00000150: 96d2 68bd d0fe 5ebd 4a6c 9f3d 6c37 713d
00000160: fc7c 333d 584f 813d b0dc 6d3d 6460 653d
00000170: ee69 133d 907d 403d b937 35bd f896 5cbc
00000180: b4f1 e53c a0de 19bc c07d 66bb a888 823d
00000190: 9b0e 3fbd 513b 01bd 54e9 1e3d d0d8 b13c
000001a0: f8a8 68bd 6290 013d 9418 84bd 50d3 493d
000001b0: 0689 24bd a29b 72bd 50da 89bb ac8a 9e3d
000001c0: 40c4 ca3a 4827 45bc 3993 61bd 00a8 733d
000001d0: 8049 7d3d 3229 a13d 19a5 a0bd 0c58 9f3d
000001e0: d067 b13b 18e7 db3c fcd0 353d a07d b93b
000001f0: d061 e83c 84c0 06bd d609 173d 681e ce3c
00000200: 3e9b a43d 7c40 31bd a09f fd3c e858 833d
00000210: 9cf5 993d 14cb a33d 80e1 3f3a 5c7b 7f3d
00000220: cc9e ea3c d887 03bc ba95 cdbc 2002 a53d
00000230: c06e 953b 10c3 863d 68aa b5bc a677 8abd
00000240: 80ea 163a dc0c 6c3d ee85 963d f0a0 ce3c
00000250: b42a d43c bf2e 52bd 64e1 babc 305b 353d
00000260: 60ee 883b b0e9 bbbb 8ec3 853d 7a1e 5ebd
00000270: 19cf 8ebd 487a 5fbd 7703 a1bd f09d 2a3c
00000280: 781b 6cbc 2458 703d 634f 06bd 00b1 653d
00000290: 01e0 5cbd 9889 37bc a050 19bb 8a71 93bd
000002a0: 10c4 c53b b095 e6bb a805 973d 3c5e 5f3d
000002b0: eaa5 9d3d 04d0 843d 20e0 943d 5046 793d
000002c0: a452 193d 8a7b 8c3d 5433 ac3c 00fd deba
000002d0: 96ca c5bc 2431 55bd fecd ccbc 041d cc3c
000002e0: 1635 febc 2099 d4bc 0406 86bd 7421 4e3d
000002f0: c0dc 723d 8c6f d73c e0ea a43c d4b9 9cbc
00000300: 14f6 bbbc 22d0 57bd 78a6 2cbc 1c8d 953c
00000310: aa52 8a3d 30a5 573d 6871 593c 6d79 95bd
00000320: 0ca7 0dbd d2a2 93bd 670e 84bd 980d 85bd
00000330: ac25 0f3d 2fe1 19bd 6c7a 903d 944a 9b3d
00000340: 80dd cb3a 115a 53bd 00f0 46bb a1b0 5dbd
00000350: bcf6 993d de88 24bd f37d 8fbd 2c1c 87bd
00000360: 4c25 d1bc c4b5 993c d056 103c aa1b 92bd
00000370: 00ff a8bd 682d f73c 1a15 6bbd 3dbc 22bd
00000380: 78a9 30bd 60d1 d53b 4afa a83d d0ec fb3c
00000390: 2ced 453d 0086 573a 18c0 b93c fa9f 9e3d
000003a0: a035 92bb 71fd 79bd d8ae 37bc dcc1 9fbd
000003b0: a42d c73c 1ccb c73c 0cfd 813d f44a b2bc
000003c0: 6089 883d f819 8cbc d8ac 8a3d 3c3e 97bc
000003d0: ac6c 8cbc 7a80 9d3d b082 843d b551 83bd
000003e0: a6ad 013d dc10 cabc 4ad9 a0bd fc8f 8cbc
000003f0: 0c89 5c3d 9a30 7fbd c361 8fbd 38af 51bc
-0.04598039 0.06586246 0.06327477 -0.0008950308 0.005308442 0.010703877 0.051713616 -0.025194645
0.028389648 -0.06675037 0.061445743 -0.04625333 0.03681767 0.080431625 -0.020216696 0.013208151
-0.0025008544 0.022059888 -0.040416293 0.0016562939 0.036594525 0.046311885 -0.023798723 0.04553172
0.058730304 -0.01043725 0.021337181 -0.0008425489 -0.040219832 0.06031674 -0.021937829 0.076080605
0.047004506 -0.04348688 -0.017157309 -0.055764034 0.006385438 0.025893643 -0.07629994 -0.06189926
0.046088487 0.033992782 -0.02531407 0.056661606 -0.054471478 -0.028269678 0.025103115 0.010971881
0.03646159 -0.013948046 0.057773143 0.016924806 0.05370301 -0.067434624 0.006077923 -0.03312347
0.07830857 -0.07693235 -0.071919605 -0.07592169 0.019451581 0.02206757 -0.035031606 0.029982455
-0.036914058 0.08257231 -0.011083268 0.0045808926 0.021012522 0.047836915 -0.04130911 0.075356886
0.08053805 0.057884663 0.028946087 0.02881077 -0.010433137 -0.029863007 0.07941814 -0.002035208
0.041794382 0.056967422 -0.057591338 0.056900963 -0.056841455 -0.054442227 0.077843264 0.058890745
0.043820366 0.06313962 0.058071792 0.05600013 0.035989694 0.046994746 -0.044242594 -0.013463728
0.028069355 -0.009391457 -0.0035170168 0.06373721 -0.04664479 -0.03155071 0.038796738 0.02170983
-0.056801766 0.031631835 -0.064500004 0.04927379 -0.04016974 -0.059230454 -0.004206933 0.07741293
0.0015469864 -0.012033291 -0.055072043 0.05948639 0.061837673 0.078691855 -0.0784399 0.077804655
0.0054139867 0.026843593 0.044388756 0.0056607276 0.028366953 -0.03289844 0.036874615 0.025160983
0.080374226 -0.043274388 0.030959904 0.06413442 0.075175494 0.079977185 0.0007319674 0.062373504
0.028640173 -0.008027993 -0.02509581 0.08057046 0.0045603216 0.06580174 -0.022175983 -0.067611024
0.0005756989 0.05762945 0.07349764 0.025223225 0.025899269 -0.05131411 -0.022812553 0.044276416
0.004178807 -0.005734645 0.0653144 -0.054228283 -0.069730945 -0.054559976 -0.07861989 0.010413632
-0.014410846 0.058677807 -0.032790553 0.056077003 -0.053924564 -0.0112022385 -0.0023394004 -0.0719939
0.0060353354 -0.007036887 0.07374126 0.05453323 0.07697661 0.06484988 0.07269311 0.06085807
0.037432328 0.06859501 0.021020569 -0.0017012656 -0.024144452 -0.052048817 -0.025000568 0.02491618
-0.031031173 -0.025951922 -0.06544116 0.050324872 0.059292555 0.026298307 0.020131528 -0.019131579
-0.022944488 -0.052688725 -0.010537736 0.018255763 0.06754048 0.05264777 0.013271667 -0.07298551
-0.034583136 -0.0720879 -0.064480595 -0.064967334 0.034948036 -0.037568267 0.070546 0.07582584
0.0015553683 -0.051599566 -0.0030355453 -0.054123525 0.07517764 -0.04016959 -0.07006445 -0.0659717
-0.02553048 0.01876343 0.00880976 -0.07134183 -0.082517624 0.030173019 -0.05739317 -0.0397303
-0.043130368 0.0065252036 0.08250864 0.03075257 0.048321888 0.00082215667 0.022674605 0.07745357
-0.004461959 -0.061032716 -0.01121112 -0.078006476 0.024313755 0.024388842 0.06347093 -0.021764256
0.06666827 -0.017102227 0.067712486 -0.018462293 -0.017141663 0.076905206 0.06470239 -0.06412069
0.031659745 -0.024666242 -0.078539446 -0.0171585 0.053841636 -0.06230221 -0.070010684 -0.012798123

weight f4 [96]
00000000: 0000 803f 0000 803f 0000 803f 0000 803f
00000010: 0000 803f 0000 803f 0000 803f 0000 803f
00000020: 0000 803f 0000 803f 0000 803f 0000 803f
00000030: 0000 803f 0000 803f 0000 803f 0000 803f
00000040: 0000 803f 0000 803f 0000 803f 0000 803f
00000050: 0000 803f 0000 803f 0000 803f 0000 803f
00000060: 0000 803f 0000 803f 0000 803f 0000 803f
00000070: 0000 803f 0000 803f 0000 803f 0000 803f
00000080: 0000 803f 0000 803f 0000 803f 0000 803f
00000090: 0000 803f 0000 803f 0000 803f 0000 803f
000000a0: 0000 803f 0000 803f 0000 803f 0000 803f
000000b0: 0000 803f 0000 803f 0000 803f 0000 803f
000000c0: 0000 803f 0000 803f 0000 803f 0000 803f
000000d0: 0000 803f 0000 803f 0000 803f 0000 803f
000000e0: 0000 803f 0000 803f 0000 803f 0000 803f
000000f0: 0000 803f 0000 803f 0000 803f 0000 803f
00000100: 0000 803f 0000 803f 0000 803f 0000 803f
00000110: 0000 803f 0000 803f 0000 803f 0000 803f
00000120: 0000 803f 0000 803f 0000 803f 0000 803f
00000130: 0000 803f 0000 803f 0000 803f 0000 803f
00000140: 0000 803f 0000 803f 0000 803f 0000 803f
00000150: 0000 803f 0000 803f 0000 803f 0000 803f
00000160: 0000 803f 0000 803f 0000 803f 0000 803f
00000170: 0000 803f 0000 803f 0000 803f 0000 803f
1.0 1.0 1.0 1.0 1.0 1.0 1.0 1.0
1.0 1.0 1.0 1.0 1.0 1.0 1.0 1.0
1.0 1.0 1.0 1.0 1.0 1.0 1.0 1.0
1.0 1.0 1.0 1.0 1.0 1.0 1.0 1.0
1.0 1.0 1.0 1.0 1.0 1.0 1.0 1.0
1.0 1.0 1.0 1.0 1.0 1.0 1.0 1.0
1.0 1.0 1.0 1.0 1.0 1.0 1.0 1.0
1.0 1.0 1.0 1.0 1.0 1.0 1.0 1.0
1.0 1.0 1.0 1.0 1.0 1.0 1.0 1.0
1.0 1.0 1.0 1.0 1.0 1.0 1.0 1.0
1.0 1.0 1.0 1.0 1.0 1.0 1.0 1.0
1.0 1.0 1.0 1.0 1.0 1.0 1.0 1.0

bias f4 [96]
00000000: 0000 0000 0000 0000 0000 0000 0000 0000
00000010: 0000 0000 0000 0000 0000 0000 0000 0000
00000020: 0000 0000 0000 0000 0000 0000 0000 0000
00000030: 0000 0000 0000 0000 0000 0000 0000 0000
00000040: 0000 0000 0000 0000 0000 0000 0000 0000
00000050: 0000 0000 0000 0000 0000 0000 0000 0000
00000060: 0000 0000 0000 0000 0000 0000 0000 0000
00000070: 0000 0000 0000 0000 0000 0000 0000 0000
00000080: 0000 0000 0000 0000 0000 0000 0000 0000
00000090: 0000 0000 0000 0000 0000 0000 0000 0000
000000a0: 0000 0000 0000 0000 0000 0000 0000 0000
000000b0: 0000 0000 0000 0000 0000 0000 0000 0000
000000c0: 0000 0000 0000 0000 0000 0000 0000 0000
000000d0: 0000 0000 0000 0000 0000 0000 0000 0000
000000e0: 0000 0000 0000 0000 0000 0000 0000 0000
000000f0: 0000 0000 0000 0000 0000 0000 0000 0000
00000100: 0000 0000 0000 0000 0000 0000 0000 0000
00000110: 0000 0000 0000 0000 0000 0000 0000 0000
00000120: 0000 0000 0000 0000 0000 0000 0000 0000
00000130: 0000 0000 0000 0000 0000 0000 0000 0000
00000140: 0000 0000 0000 0000 0000 0000 0000 0000
00000150: 0000 0000 0000 0000 0000 0000 0000 0000
00000160: 0000 0000 0000 0000 0000 0000 0000 0000
00000170: 0000 0000 0000 0000 0000 0000 0000 0000
0.0 0.0 0.0 0.0 0.0 0.0 0.0 0.0
0.0 0.0 0.0 0.0 0.0 0.0 0.0 0.0
0.0 0.0 0.0 0.0 0.0 0.0 0.0 0.0
0.0 0.0 0.0 0.0 0.0 0.0 0.0 0.0
0.0 0.0 0.0 0.0 0.0 0.0 0.0 0.0
0.0 0.0 0.0 0.0 0.0 0.0 0.0 0.0
0.0 0.0 0.0 0.0 0.0 0.0 0.0 0.0
0.0 0.0 0.0 0.0 0.0 0.0 0.0 0.0
0.0 0.0 0.0 0.0 0.0 0.0 0.0 0.0
0.0 0.0 0.0 0.0 0.0 0.0 0.0 0.0
0.0 0.0 0.0 0.0 0.0 0.0 0.0 0.0
0.0 0.0 0.0 0.0 0.0 0.0 0.0 0.0
