trained_model/BiSegNet(ReagentV1)_step.pt (torch, 586945 bytes, 141 tensors)

weight f4 [8, 1, 3, 3]
0	0x3ddd3a78	0.10802168
1	0x3e7d83be	0.24757287
2	0x3da84ea6	0.08218126
3	0xbdca75cb	-0.098857485
4	0xbe06f505	-0.13179405
5	0xbe13160b	-0.14363877
6	0xbe31b180	-0.17352867
7	0x3e70c20d	0.23511524
8	0xbe571eba	-0.21007815
9	0x3e00a799	0.12563933
10	0x3d8dba52	0.069203034
11	0xbdee111d	-0.11624358
12	0x3dfa1aa8	0.122121155
13	0xbc81d64c	-0.015849255
14	0x3e1e78b2	0.15475729
15	0xbe4aeb2f	-0.19816278
16	0xbe26eebf	-0.16302012
17	0xbe5125e0	-0.20424604
18	0xbe405870	-0.18783736
19	0x3e506978	0.20352733
20	0xbe90cd0a	-0.28281432
21	0x3e63272e	0.22182915
22	0x3e16d5e9	0.14730038
23	0xbe705aa9	-0.23472084
24	0xbe278c8e	-0.16362211
25	0xbe82144d	-0.25406113
26	0x3e5e3a5e	0.21701953
27	0xbe811085	-0.25207916
28	0x3db507aa	0.088393524
29	0x3d6d9f91	0.058013503
30	0xbdd5f16d	-0.10446439
31	0x3e809842	0.25116163
32	0xbd3fbdda	-0.046811916
33	0x3defa0a7	0.11700564
34	0xbe03327f	-0.12812231
35	0xbe24d0cc	-0.16095275
36	0xbe5f9fa0	-0.21838236
37	0xbd5b9e10	-0.053617537
38	0x3de8a2f5	0.113592066
39	0x3de7e0d9	0.11322183
40	0x3e197eca	0.14989772
41	0x3e94c4b8	0.29056334
42	0x3c4de75c	0.012567367
43	0x3da72b02	0.081625
44	0x3c5163e7	0.012780166
45	0xbde8b2ac	-0.11362204
46	0x3e11f520	0.14253664
47	0x3dfa3c77	0.12218564
48	0xbe90b9c2	-0.28266722
49	0x3c70bf71	0.014694081
50	0xbe57419c	-0.21021122
51	0xbe7c3fee	-0.24633762
52	0x3e328c44	0.1743632
53	0x3d7c5464	0.06160392
54	0xbe5dfd86	-0.21678743
55	0xbe2eb64b	-0.17061727
56	0xbe90dc5a	-0.28293115
57	0x3d3e8305	0.04651167
58	0xbe5f7aa4	-0.21824127
59	0xbd693552	-0.056935616
60	0xbd0b2204	-0.033967987
61	0x3e0df5e0	0.13863325
62	0x3e6714a1	0.22566463
63	0x3eaee05d	0.3415555
64	0xbbd9af0c	-0.0066431817
65	0x3d61e7e7	0.0551528
66	0x3daacb57	0.08339565
67	0x3e3566a0	0.1771493
68	0xbda0c3be	-0.07849835
69	0x3e2c77e6	0.16842613
70	0x3d7f1bcb	0.062282365
71	0x3cc51082	0.024055723

weight f4 [8]
0	0x3f7ca922	0.98695576
1	0x3f803fd3	1.0019478
2	0x3f7da3dd	0.9907816
3	0x3f801b6e	1.0008371
4	0x3f7fae1a	0.9987503
5	0x3f7f98b8	0.99842405
6	0x3f8182cd	1.0118042
7	0x3f801c9b	1.000873

bias f4 [8]
0	0xbc80f328	-0.015740946
1	0x3b8c506f	0.0042820494
2	0x39942f4f	0.00028264007
3	0x3a9bcd36	0.0011886719
4	0x3c46928d	0.012119901
5	0x3c45260a	0.012032995
6	0x3b08a626	0.0020850985
7	0xbd19aab7	-0.037516322

running_mean f4 [8]
0	0xc11d1a73	-9.818957
1	0xc1d61674	-26.760963
2	0xc21cd0cb	-39.2039
3	0xc1a84074	-21.031471
4	0x42729aed	60.651295
5	0xc21e22d2	-39.534004
6	0xc2887d7d	-68.245094
7	0x42c5eed2	98.966446

running_var f4 [8]
0	0x42858df1	66.77723
1	0x43a1411c	322.50867
2	0x442a041a	680.0641
3	0x4352b5b0	210.70972
4	0x44cd3b95	1641.8619
5	0x444d5a54	821.4114
6	0x4500c4ad	2060.2922
7	0x458628fe	4293.124

weight f4 [48, 8, 1, 1]
0	0x3e7188d2	0.23587349
1	0xbe4843ab	-0.19557063
2	0x3d154185	0.036439437
3	0xbdd01075	-0.10159389
4	0x3d3700e7	0.044678595
5	0xbe58b04e	-0.21161005
6	0xbe08c11e	-0.13354918
7	0xbe2c4d96	-0.16826472
8	0x3e2322fc	0.15931314
9	0xbe985a1f	-0.29756257
10	0xbe764231	-0.24048688
11	0x3e3e3278	0.1857394
12	0xbdeb8401	-0.11499787
13	0xbe400d81	-0.18755151
14	0x3e861d1b	0.2619408
15	0xbdf7554a	-0.120768145
16	0x3e446646	0.19179639
17	0x3e8bedb3	0.27329788
18	0x3caae052	0.020858917
19	0xbe291ccd	-0.16514893
20	0x3e27de13	0.16393308
21	0x3e7a4d3a	0.24443522
22	0x3d759568	0.059956938
23	0x3e001899	0.12509383
24	0x3b9b9c0a	0.004748826
25	0x3e940b24	0.2891475
26	0xbe9f0e8a	-0.3106578
27	0x3ceb6dcb	0.028738877
28	0xbb5462c6	-0.0032407506
29	0x3b553c2b	0.0032537084
30	0xbd965580	-0.073405266
31	0xbc75bbf3	-0.014998424
32	0xbe96f77e	-0.29485697
33	0xbd8cd1eb	-0.06875976
34	0x3de577c7	0.11204486
35	0x3dd4695e	0.1037166
36	0x3d66d7c5	0.056358118
37	0x3dd91e40	0.10601473
38	0xbe44dcff	-0.19224928
39	0x3d1209ee	0.035654
40	0xbe25890a	-0.16165558
41	0x3ab99737	0.0014159445
42	0xbd637051	-0.055527035
43	0x3e66e6da	0.22549
44	0x3e0235ae	0.1271579
45	0xbe89d624	-0.2692119
46	0x3e3ffee4	0.18749577
47	0xbe50c72e	-0.20388481
48	0x3e32232c	0.1739623
49	0xbd9d3bd6	-0.076774284
50	0x3e8f3390	0.27969027
51	0xbcd17e78	-0.025573
52	0x3e3d5ae7	0.18491708
53	0x3e14b6f7	0.1452292
54	0x3e3c3395	0.18379052
55	0x3e749e29	0.23888458
56	0x3ce40605	0.027834902
57	0xbe4d7f10	-0.20068002
58	0x3dc4dc90	0.096123815
59	0x3e5a6ea8	0.21331275
60	0xbe837e13	-0.25682124
61	0x3d7eb677	0.06218573
62	0xbe90dea7	-0.2829487
63	0x3d6402b4	0.05566664
64	0x3e84ad4d	0.25913468
65	0x3e37c35e	0.1794562
66	0x3e6236f0	0.2209127
67	0xbe1a90f7	-0.15094362
68	0xbe91a3ed	-0.28445378
69	0x3e5b371a	0.21407738
70	0x3d133db1	0.035947505
71	0xbba8b0cf	-0.0051480304
72	0x3d19e278	0.037569493
73	0xbc44f759	-0.012021863
74	0xbe5e3475	-0.21699698
75	0xbe3749b9	-0.17899217
76	0xbd8ab706	-0.0677319
77	0xbce5f150	-0.028069168
78	0x3c8a6f25	0.016898701
79	0xbe89de05	-0.269272
80	0xbc90de91	-0.017684253
81	0xbe16f08c	-0.14740199
82	0xbe3c5703	-0.18392567
83	0x3d6350cb	0.055496972
84	0xbe7aa62a	-0.24477449
85	0x3e55ac36	0.20866475
86	0xbca44810	-0.020053893
87	0xbe9795bb	-0.29606423
88	0x3e8b1f59	0.27172354
89	0x3c24ab82	0.010050656
90	0xbd80d584	-0.06290725
91	0x3e0b8d48	0.13628113
92	0xbe50494e	-0.20340464
93	0x3e23a25f	0.15979908
94	0xbe32f484	-0.17476088
95	0xbcc1f9a4	-0.023678608
96	0x3d0b1f7f	0.033965584
97	0x3e8e52c9	0.27797535
98	0x3e6c03ca	0.2304832
99	0xbe61b24d	-0.22040673
100	0xbd4d2bda	-0.05009065
101	0x3e72b2e4	0.23701054
102	0xbd3eb9d8	-0.046563953
103	0x3e4d5285	0.2005101
104	0xbe0630f1	-0.13104607
105	0x3e157b4f	0.1459782
106	0xbd8a25e4	-0.06745508
107	0xbe8f71ae	-0.28016418
108	0x3e38be0c	0.18041247
109	0x3d758766	0.05994358
110	0x3ea9027a	0.33009702
111	0x3d53578c	0.051597163
112	0xbd18a5a1	-0.03726733
113	0xbea44963	-0.3208724
114	0x3ea0c28b	0.31398425
115	0x3e887361	0.26650527
116	0x3e946a39	0.2898729
117	0x3e874030	0.2641616
118	0xbdd200b5	-0.10254041
119	0x3e572309	0.21009459
120	0x3e4850b7	0.1956204
121	0x3ea39109	0.3194659
122	0xbd8ceb24	-0.06880787
123	0x3dc71361	0.09720493
124	0xbe895728	-0.26824307
125	0x3e850bee	0.25985664
126	0x3e4a6084	0.1976338
127	0x3d10ca7b	0.03534935
128	0x3e7b9e09	0.24572004
129	0x3ea44d44	0.320902
130	0xbe41ba81	-0.18918802
131	0x3e8ba5d2	0.27274948
132	0xbe003b7c	-0.12522691
133	0xbdca565a	-0.098797515
134	0xbdde2a01	-0.10847855
135	0xbe969d78	-0.29417014
136	0x3e390fc4	0.1807242
137	0x3e4914aa	0.19636789
138	0x3e172642	0.14760688
139	0x3e2933d5	0.16523679
140	0x3e9be810	0.30450487
141	0x3dcbe76d	0.0995625
142	0x3b9b7b06	0.00474489
143	0x3eb71893	0.35760936
144	0xbde5f263	-0.11227872
145	0x3d02e9b0	0.031961143
146	0x3e78a5d8	0.24282014
147	0xbdb18700	-0.08668327
148	0x3e2cc781	0.1687298
149	0x3df2dc1c	0.11858389
150	0xbe84d8f9	-0.25946787
151	0x3eaf0d69	0.3418992
152	0xbe9df17c	-0.308483
153	0xbe7c95ae	-0.24666473
154	0xbe96de54	-0.29466498
155	0x3e843e66	0.25828856
156	0x3e889599	0.26676634
157	0x3c767860	0.015043348
158	0xbd36976c	-0.044578
159	0x3e900a42	0.28132826
160	0x3cf40307	0.0297866
161	0xbd5f0e2e	-0.054456882
162	0x3d46de49	0.04855183
163	0x3e5ae4c0	0.21376324
164	0x3e9ce7df	0.30645654
165	0xbe057422	-0.13032582
166	0x3dc954b6	0.098306105
167	0xbd3735e8	-0.044729143
168	0xbea12857	-0.3147609
169	0x3da9625e	0.08270715
170	0xbdb25d26	-0.08709173
171	0x3e9a17c3	0.30096254
172	0xbbd7d62a	-0.0065868096
173	0xbda6ddf7	-0.08147805
174	0xbe240d12	-0.16020611
175	0x3d061053	0.03273041
176	0x3d9cfbb2	0.076651946
177	0xbe10ee45	-0.14153393
178	0x3d2510d5	0.040299255
179	0x3ba86e30	0.0051400885
180	0x3d910d6e	0.0708264
181	0x3e358ed1	0.17730261
182	0x3e6b26b0	0.22963977
183	0xbd99e1d6	-0.07513778
184	0x3d964882	0.073380485
185	0x3e3c987b	0.18417542
186	0xbbdfa820	-0.006825462
187	0xbe01e621	-0.12685443
188	0xbe9b3c3c	-0.30319393
189	0xbda8f5a2	-0.08249976
190	0xbe9536df	-0.29143426
191	0x3e29724b	0.16547506
192	0xbe98f258	-0.29872394
193	0x3e112839	0.141755
194	0x3e39dbd1	0.1815026
195	0x3c6960b2	0.014244245
196	0x3e98fa4c	0.2987846
197	0x3e8ce167	0.27515718
198	0xbe50bf64	-0.2038551
199	0x3e09a01e	0.13439986
200	0xbdfbf827	-0.12303191
201	0xbe414194	-0.18872672
202	0x3e854fa6	0.2603733
203	0xbc90fb63	-0.017697996
204	0x3d507fd7	0.050903168
205	0xbe78150d	-0.2422678
206	0x3e9bca40	0.30427742
207	0xbddfec74	-0.10933772
208	0xbdf42d4e	-0.11922704
209	0x3e416fdc	0.18890327
210	0xbd1652c3	-0.03670002
211	0x3e17141d	0.14753766
212	0x3e57d724	0.21078163
213	0x3c239618	0.009984516
214	0x3e9f17e1	0.31072906
215	0x3e82873a	0.25493795
216	0xbe5c301f	-0.21502732
217	0x3eaa154b	0.3321937
218	0x3b8bcf0e	0.004266626
219	0x3e2ae987	0.16690646
220	0x3dc3546d	0.09537587
221	0xbb7eb213	-0.0038863465
222	0xbd330954	-0.043710068
223	0x3e663431	0.22480847
224	0xbe74c27f	-0.2390232
225	0x3e5fc9f8	0.21854389
226	0x3d791bc3	0.06081749
227	0x3e4ad574	0.19807988
228	0x3e40ce16	0.18828616
229	0x3db553bc	0.08853862
230	0x3ecf1ce4	0.4045173
231	0xbd4d44c5	-0.05011441
232	0xbe9c79e5	-0.30561748
233	0xbe1c0000	-0.15234375
234	0x3e365e2d	0.17809363
235	0x3e4e415b	0.20142119
236	0xbea890ad	-0.3292288
237	0x3e6fa195	0.23401482
238	0xbe57a82d	-0.21060248
239	0x3e975b42	0.29561812
240	0xbe124578	-0.14284313
241	0xbd246502	-0.04013539
242	0xbe950db6	-0.29112023
243	0x3e0a494e	0.13504526
244	0xbe897047	-0.26843473
245	0x3e226d03	0.15861897
246	0xbe4edb05	-0.20200737
247	0x3d98f147	0.07467895
248	0xbe3bfaf4	-0.1835745
249	0x3d379c18	0.044826597
250	0x3e16dc44	0.14732462
251	0xbd041254	-0.03224404
252	0x3e476334	0.19471437
253	0x3e802307	0.25026724
254	0xbe15a6ac	-0.14614362
255	0xbeaeae12	-0.3411718

weight f4 [48]
0	0x3f77516f	0.9660863
1	0x3f81d4ea	1.0143101
2	0x3f8644b3	1.0489715
3	0x3f77f947	0.9686474
4	0x3f869e97	1.0517148
5	0x3f7d9372	0.9905311
6	0x3f7abc3b	0.97943467
7	0x3f81577a	1.0104821
8	0x3f76ced9	0.96409374
9	0x3f780d9b	0.9689576
10	0x3f818920	1.0119972
11	0x3f80c9b2	1.0061553
12	0x3f729843	0.9476358
13	0x3f783619	0.96957546
14	0x3f78b14e	0.97145545
15	0x3f7f0db4	0.99630284
16	0x3f7abeca	0.9794737
17	0x3f6aebb7	0.9176592
18	0x3f7a442f	0.9776029
19	0x3f7e19d8	0.99258184
20	0x3f54a5e4	0.8306563
21	0x3f80773e	1.003639
22	0x3f891644	1.070992
23	0x3f779e58	0.9672599
24	0x3f7b9029	0.98266846
25	0x3f6ebb11	0.9325419
26	0x3f656d71	0.8962012
27	0x3f5d2026	0.8637718
28	0x3f61ab20	0.8815174
29	0x3f5f7a39	0.8729587
30	0x3f61b03a	0.88159525
31	0x3f751b0f	0.95744413
32	0x3f837539	1.0270149
33	0x3f862420	1.0479774
34	0x3f7f9805	0.9984134
35	0x3f7c4326	0.9853996
36	0x3f804c13	1.0023216
37	0x3f7f385d	0.9969538
38	0x3f6e37e3	0.93054026
39	0x3f83ddf6	1.0302112
40	0x3f7f5f89	0.9975515
41	0x3f7ca1af	0.9868421
42	0x3f679864	0.90466905
43	0x3f6f0a5d	0.9337519
44	0x3f84b8f6	1.0368946
45	0x3f772267	0.9653687
46	0x3f8603d6	1.0469921
47	0x3f64f83f	0.89441293

bias f4 [48]
0	0x3d20789d	0.039177526
1	0x3b4704c5	0.0030367833
2	0xbbdd5130	-0.006754063
3	0x3d3b2fda	0.04569993
4	0xbc3c87bd	-0.011506972
5	0x3dcfcaf4	0.10146132
6	0xbd33c957	-0.043893185
7	0xbdea23e4	-0.11432627
8	0x3d3c24bf	0.04593348
9	0x3d27162d	0.040792633
10	0x3bb8b570	0.0056368634
11	0x3cceb1d8	0.025231287
12	0x3d407bd3	0.046993088
13	0xbcada5be	-0.021197196
14	0x3b2bb9da	0.0026203305
15	0x3b0409c5	0.0020147425
16	0x3cc453fb	0.023965826
17	0xbe1f37ef	-0.1554868
18	0xbd8900c9	-0.06689603
19	0xbc88ca87	-0.016698135
20	0xbd99ec1a	-0.07515736
21	0x3cfe0ba9	0.03101142
22	0x3ba141e8	0.0049211867
23	0x3d218427	0.03943267
24	0xbd612f71	-0.054976884
25	0xbd068276	-0.03283926
26	0xbdc2f6c0	-0.0951972
27	0x3dbb32d5	0.09140555
28	0x3dc2078d	0.094740964
29	0xbdd6479b	-0.104628764
30	0x3dc92404	0.098213226
31	0x3d4095ae	0.047017746
32	0x3bc484a9	0.0059972596
33	0x3ba18fd0	0.004930474
34	0xbce87eba	-0.02838074
35	0xbcd6d9c9	-0.026226895
36	0xbc9e19a6	-0.01929934
37	0xbd00b567	-0.031423
38	0x3d3f5a11	0.046716753
39	0xbba94d83	-0.005166711
40	0x3bcaf275	0.006193454
41	0x3d2778e6	0.040886782
42	0x3de87ff1	0.11352528
43	0x3ce32bcc	0.027730845
44	0xbcba1dfa	-0.022719372
45	0x3d1f25c7	0.038854387
46	0xbbff0884	-0.0077829976
47	0x3d98e936	0.074663565

running_mean f4 [48]
0	0xbe7ed030	-0.24884105
1	0xbe341265	-0.17585142
2	0x3ed903ea	0.423858
3	0xbd0b3b7c	-0.033992276
4	0xbd54ddba	-0.051969267
5	0xbd54413e	-0.051820032
6	0x3f031189	0.5119863
7	0xbe150beb	-0.14555328
8	0x3e4fc944	0.2029162
9	0xbeae22c4	-0.340109
10	0xbe9c974a	-0.30584174
11	0x3d053bbc	0.03252767
12	0x3e9d4e24	0.3072368
13	0x3e18e145	0.14929684
14	0x3ed5a2df	0.41725823
15	0x3eb3d7d0	0.3512559
16	0x3a8e5103	0.0010857884
17	0x3f2e2298	0.68021536
18	0x3e58b0d5	0.21161206
19	0xbc9de08c	-0.019272111
20	0x3e6850aa	0.22687021
21	0xbdb916c6	-0.09037547
22	0x3e3a4ed6	0.18194136
23	0xbe484945	-0.195592
24	0x3e8c78f9	0.27436045
25	0xbc97f483	-0.01854921
26	0x3ef03864	0.46918023
27	0x3e8f1bbb	0.27950844
28	0x3edec96e	0.43513054
29	0xbd147f08	-0.03625396
30	0xbe8b2480	-0.27176285
31	0xbc78ba5f	-0.015181153
32	0x3b2d1f28	0.0026416276
33	0x3e0f4091	0.13989474
34	0x3c55cc2b	0.013049166
35	0x3d3c7e6c	0.046019003
36	0x3e5f6d8d	0.21819134
37	0x3e93ee2f	0.28892657
38	0xbe206945	-0.15665157
39	0xbea28156	-0.317393
40	0x3ec90f03	0.39269266
41	0xbe80b6d0	-0.25139475
42	0xbe710cfd	-0.23540111
43	0x3f0bd1d0	0.54617023
44	0xbe1b4777	-0.1516398
45	0xbef6be14	-0.48191893
46	0x3d1819be	0.037133925
47	0xbe97bfcd	-0.2963852

running_var f4 [48]
0	0x3d21bb26	0.03948512
1	0x3b82d5fa	0.003992793
2	0x3d81895d	0.06325028
3	0x3b20fbf6	0.0024564243
4	0x3cbe5e80	0.02323842
5	0x3c17eaf0	0.009272322
6	0x3d5f8285	0.054567832
7	0x3bcf46a8	0.0063255616
8	0x3e8b6b43	0.27230272
9	0x3c583d43	0.0131982
10	0x3d0e1a31	0.034692947
11	0x3dad00eb	0.08447441
12	0x3d5d1a86	0.053980373
13	0x3c304e9c	0.010760929
14	0x3d1d17af	0.038352665
15	0x3ed6ad00	0.41928864
16	0x3e29aebd	0.16570564
17	0x3d71e625	0.059057374
18	0x3d723e14	0.059141234
19	0x3e9c510f	0.30530593
20	0x3ba466b5	0.0050171264
21	0x3c9e5688	0.01932837
22	0x3d5de110	0.054169714
23	0x3c9ca146	0.01911987
24	0x3c84942d	0.016183937
25	0x3cc84642	0.024447564
26	0x3cd4d57e	0.025980707
27	0x3c0dec0b	0.008662234
28	0x3e296822	0.1654363
29	0x3b76c433	0.0037653565
30	0x3cc1af8f	0.023643283
31	0x3c91e1b9	0.017807828
32	0x3e31130b	0.1729242
33	0x3d871599	0.06595916
34	0x3d9878c3	0.074449085
35	0x3d023571	0.031789247
36	0x3d1c32be	0.03813433
37	0x3cdf8ad2	0.027287874
38	0x3d9687a1	0.07350088
39	0x3e10bbe7	0.14134179
40	0x3deb3d89	0.11486346
41	0x3d2ac262	0.041689284
42	0x3dc6434b	0.09680804
43	0x3d70b6de	0.058768146
44	0x3eb2623c	0.34840572
45	0x3e093f71	0.13403107
46	0x3e6902fe	0.22755048
47	0x3d15d574	0.036580518

weight f4 [48, 1, 3, 3]
0	0x3dbd98a6	0.09257631
1	0xbcf149c8	-0.029454127
2	0x3df24467	0.11829453
3	0x3d89532c	0.06705317
4	0xbc79ac7f	-0.01523888
5	0x3d37a76b	0.044837397
6	0xbe005c70	-0.12535262
7	0x3d5d2862	0.05399359
8	0xbb5b536a	-0.0033466467
9	0xbdb5a415	-0.08869187
10	0x3dd7081e	0.10499595
11	0xbd3c317f	-0.04594564
12	0xbe020fbc	-0.12701315
13	0x3d641d74	0.05569215
14	0x3da607cc	0.08106956
15	0xbc0d4ad2	-0.008623796
16	0x3da94ca2	0.0826657
17	0xbb791b1b	-0.003801054
18	0x3b4ef1bd	0.0031577193
19	0xbd5838c0	-0.052788496
20	0x3ca89304	0.020577915
21	0xbdbb64c6	-0.091500804
22	0xbdcdf7ad	-0.10057006
23	0xbe0c0779	-0.13674726
24	0x3d4ed442	0.050495394
25	0xbdda2a3e	-0.10652588
26	0x3d8e8d71	0.069605716
27	0xbcfc3fc9	-0.030792134
28	0xbd5c9209	-0.053850207
29	0xbda070a9	-0.07833988
30	0xbd4aca2c	-0.049509212
31	0x3cb1a1e3	0.021683639
32	0xbd9be251	-0.07611526
33	0xbc5b8e2c	-0.013400596
34	0xbc77476e	-0.015092714
35	0x3d4df92c	0.050286457
36	0xbc0e21ae	-0.008675022
37	0x3dadac32	0.08480109
38	0xbd06cdfb	-0.032911282
39	0x3dc8253f	0.09772729
40	0x3ddb8f3d	0.1072068
41	0xbdbf0f8e	-0.09329139
42	0x3d8e473f	0.06947183
43	0x3e0ed6e1	0.13949157
44	0xbd8f92f7	-0.07010453
45	0xbd938473	-0.07202997
46	0x3db6e29e	0.089299425
47	0x3dc7b398	0.09751052
48	0x3cb8a0c7	0.022537602
49	0xbdcf659d	-0.10126803
50	0xbdef20b6	-0.11676161
51	0x3d793199	0.060838316
52	0x3d71b889	0.059013877
53	0xbceb5cac	-0.028730713
54	0x3df31340	0.11868906
55	0x3d9ecb6c	0.077536434
56	0x3c3aed16	0.011409065
57	0x3c0bd43c	0.008534487
58	0x3de1e7fd	0.110305764
59	0xbdd50236	-0.10400812
60	0xbc8d6a77	-0.01726268
61	0x3dcc2c0b	0.09969338
62	0x3d060155	0.032716114
63	0x3dc1a709	0.094556876
64	0xbd535e3e	-0.05160355
65	0xbcec6c70	-0.0288603
66	0xbd370e8d	-0.04469161
67	0xbc985d13	-0.018599069
68	0x3dbdbd53	0.09264626
69	0x3d016c3b	0.031597357
70	0xbdd85bbc	-0.10564372
71	0x3e0676ef	0.13131307
72	0xbd9700ab	-0.07373174
73	0xbd98258a	-0.07429035
74	0x3bf48dd3	0.007463196
75	0xbde47aa7	-0.111562066
76	0xbb30a8c3	-0.0026956059
77	0x3bb73630	0.0055911765
78	0x3d8144b5	0.06311933
79	0xbddddcc3	-0.108331226
80	0xbd5117c2	-0.051048048
81	0xbc8303cd	-0.015993023
82	0x3d9fe043	0.078064464
83	0x3c4c1c1e	0.012457876
84	0xbbab9c6d	-0.0052371533
85	0xbcc18180	-0.02362132
86	0x3dd121ce	0.10211526
87	0xbe0c2047	-0.13684188
88	0xbd874d19	-0.06606502
89	0xbcbe6c60	-0.023245037
90	0xbcf43634	-0.029811002
91	0xbd3bc09e	-0.04583799
92	0xbdb8f7a7	-0.09031611
93	0x3db0f7c5	0.08641008
94	0xbda4037d	-0.08008478
95	0x3d17db70	0.037074506
96	0x3df5f9fc	0.12010571
97	0x3d8431c4	0.064548045
98	0xbce6e50e	-0.028185394
99	0x3c969204	0.018380173
100	0x3d934f26	0.07192831
101	0xbdc04d3a	-0.0938973
102	0x3dd57add	0.10423825
103	0xbc52014b	-0.012817691
104	0xbd938bfe	-0.07204436
105	0x3dc78941	0.09742976
106	0x3ccd1293	0.025033271
107	0xbdfa160c	-0.12211236
108	0xbd3052c8	-0.043047696
109	0x3d1d75a9	0.038442288
110	0x3c2cf3fb	0.010556216
111	0xbe2452e7	-0.1604725
112	0xbdacf772	-0.08445634
113	0xbdc77e61	-0.09740902
114	0x3dcea74b	0.10090502
115	0xbcac286a	-0.021015365
116	0xbd38f345	-0.045153875
117	0x3c78dce5	0.015189384
118	0xbd81345d	-0.06308816
119	0xbd345148	-0.04402283
120	0x3ca22cc4	0.019796737
121	0x3d8123a8	0.06305629
122	0x3e048ed0	0.12945104
123	0x3d717a9f	0.05895483
124	0xbcde46c6	-0.027133357
125	0x3d48f569	0.049062166
126	0x3e083bf8	0.13304126
127	0x3c7f658e	0.015588177
128	0xbcd45c49	-0.025922911
129	0x3d21845d	0.039432872
130	0xbd778649	-0.0604308
131	0xbc87f974	-0.01659844
132	0x3cf6427b	0.030060997
133	0xbd75ed57	-0.060040798
134	0xbd841472	-0.06449212
135	0xbde2c0a9	-0.11071903
136	0xbc70aa49	-0.014689037
137	0x3d361ecb	0.04446296
138	0x3d377cec	0.04479687
139	0xbdc03598	-0.09385222
140	0xbb5c5aa0	-0.0033623353
141	0x3ce5a02f	0.028030483
142	0xbd0689d4	-0.032846287
143	0x3cccf4dd	0.025019104
144	0xbdc284e4	-0.09498003
145	0xbda1d1d3	-0.07901349
146	0x3dc143a0	0.094367266
147	0xbdd462e5	-0.10370425
148	0xbd808211	-0.06274808
149	0x3da02621	0.078197725
150	0xb8a3ec69	-7.8164805e-05
151	0xbd52aec7	-0.051436212
152	0x3cd12b56	0.02553336
153	0x3d0e98e4	0.034813777
154	0x3d884f3b	0.06655737
155	0xbe1a2c1c	-0.15055889
156	0x3b869a88	0.004107777
157	0x3d4dd0bf	0.050247904
158	0xbbb8cfc4	-0.005640002
159	0x3cfda104	0.030960567
160	0x3d9dd037	0.077057295
161	0xbdee8a45	-0.116474666
162	0x3b45bf42	0.0030173813
163	0x3c416c3b	0.011805589
164	0x3df54725	0.1197646
165	0xbd6b1c7a	-0.057400204
166	0x3d624c26	0.055248402
167	0x3cd7c323	0.026338166
168	0xbdde3fa3	-0.108519815
169	0xbca251c5	-0.019814381
170	0xbcafbfc2	-0.021453742
171	0x3b611885	0.003434689
172	0xbd63c534	-0.05560799
173	0x3c93f2d9	0.018060135
174	0x3df218df	0.1182115
175	0x3e0ae2ef	0.13563131
176	0x3c6ecf07	0.014575726
177	0x3b9aa6d8	0.0047195964
178	0x3d021b1b	0.03176413
179	0xbd792f2f	-0.060836013
180	0x3cdd7833	0.027034855
181	0xbbda13b7	-0.006655182
182	0xbd10b3f4	-0.035327867
183	0x3db04778	0.086073816
184	0x3d885eb6	0.0665869
185	0xbde40792	-0.111342564
186	0x3c5a0a4d	0.01330812
187	0x3bcf4fd2	0.006326654
188	0xbcec9adb	-0.028882435
189	0x3d07ca0f	0.033151682
190	0xbb6f6def	-0.0036534031
191	0x3d59cfa6	0.053176545
192	0xbca2e6bd	-0.019885415
193	0xbd4e7c6f	-0.050411638
194	0x3dfdbd94	0.12389675
195	0x3cc4ff9d	0.024047667
196	0xbc45a886	-0.012064105
197	0x3ddc0cc8	0.10744625
198	0xbdbc1dab	-0.09185346
199	0x3d567142	0.052354105
200	0x3ded6ce6	0.11593036
201	0xbdc191ba	-0.09451623
202	0xbd9a28e1	-0.07527328
203	0x3c3e91a2	0.011631401
204	0x3d9f3c26	0.07775144
205	0xbb889128	-0.0041676946
206	0xbe022545	-0.1270953
207	0xbbf2bbc3	-0.007407637
208	0x3dd12091	0.1021129
209	0x3d58d7b9	0.052940104
210	0x3de4234c	0.11139545
211	0x3e13918d	0.14410992
212	0x3d4d88de	0.050179355
213	0xbd951c9d	-0.07280848
214	0x3d5b2953	0.053506207
215	0x3d22e87a	0.03977249
216	0x3dc3d476	0.09562008
217	0x3c05cf2d	0.00816707
218	0xbd838835	-0.06422464
219	0x3d9efc2e	0.07762943
220	0x3c827b2b	0.015927872
221	0xbdb87ea8	-0.09008533
222	0x3daa84ba	0.08326097
223	0x3a887a01	0.0010412337
224	0xbddd4d3b	-0.10805746
225	0x3d89d99e	0.0673096
226	0x3dafdc78	0.08586973
227	0x3dfd5aac	0.1237081
228	0x3d993ca7	0.07482272
229	0x3c1893b8	0.009312563
230	0xbd7f9e45	-0.062406797
231	0x3d83a1b2	0.06427325
232	0x3dc3d014	0.09561172
233	0x3ca10995	0.01965789
234	0xbdde7637	-0.108623914
235	0x3d68e6f1	0.056860868
236	0xbb436865	-0.0029816863
237	0xbdc3cf4b	-0.09561022
238	0xbc8466a1	-0.016162219
239	0x3dc75036	0.09732096
240	0x3c8abc4e	0.016935494
241	0x3de3005f	0.11084055
242	0x3da85b90	0.08220589
243	0xbde8ac51	-0.11360992
244	0x3db7b107	0.08969312
245	0x3d9ce577	0.076609544
246	0x3d08af91	0.03337056
247	0xbd9f5255	-0.077793755
248	0x3e08d8db	0.13363974
249	0xbd77a2ff	-0.06045818
250	0xbdb6510b	-0.089021765
251	0xbcb3907d	-0.021919483
252	0xbd648012	-0.0557862
253	0xbd08cb64	-0.033397093
254	0xbdaee0d6	-0.08538978
255	0x3cd0815a	0.025452305

weight f4 [48]
0	0x3f7b91de	0.9826945
1	0x3f7b6644	0.9820292
2	0x3f7f4de7	0.99728245
3	0x3f766c3e	0.96258914
4	0x3f7df482	0.99201214
5	0x3f7342d6	0.9502386
6	0x3f833f9b	1.0253786
7	0x3f7b2322	0.98100483
8	0x3f7de3cd	0.9917572
9	0x3f814129	1.009801
10	0x3f7b5608	0.9817815
11	0x3f7d0e8a	0.9885031
12	0x3f7fcdc1	0.9992333
13	0x3f719975	0.9437478
14	0x3f80b3fd	1.0054928
15	0x3f80d171	1.0063916
16	0x3f81d95c	1.0144458
17	0x3f826c28	1.0189257
18	0x3f83ab21	1.0286599
19	0x3f7f3a08	0.99697924
20	0x3f773378	0.9656291
21	0x3f7d2360	0.988821
22	0x3f7f0e37	0.99631065
23	0x3f7ebfb6	0.9951128
24	0x3f8fdc91	1.1239187
25	0x3f88d644	1.0690389
26	0x3f86ec98	1.0540953
27	0x3f5e4970	0.86830807
28	0x3f7f57fe	0.9974364
29	0x3f7333d9	0.9500099
30	0x3f8009b1	1.0002958
31	0x3f7b2542	0.98103726
32	0x3f7ff798	0.99987173
33	0x3f7fb78d	0.9988945
34	0x3f7c6aa9	0.9860025
35	0x3f81a012	1.0126975
36	0x3f83a6ae	1.0285242
37	0x3f7adfaa	0.97997534
38	0x3f808e63	1.0043453
39	0x3f7e280d	0.9927986
40	0x3f7dea6a	0.9918581
41	0x3f811012	1.0083029
42	0x3f820298	1.0157042
43	0x3f72889c	0.947397
44	0x3f81fe56	1.0155742
45	0x3f7dc3d8	0.9912696
46	0x3f82c49c	1.021625
47	0x3f71dc74	0.9447701

bias f4 [48]
0	0x3cabff9c	0.020995907
1	0xbbcc8488	-0.006241385
2	0x3c61eddf	0.013789623
3	0xbcbfd7c2	-0.023418311
4	0xba7fa19c	-0.00097515597
5	0xbdfd4366	-0.12366371
6	0xbc485e4b	-0.012229512
7	0xbdccd71e	-0.10001968
8	0xbcae6018	-0.021286055
9	0x3d0aed9d	0.033918012
10	0xbd3ac9be	-0.045602553
11	0x3c0ab2da	0.008465493
12	0x3c11ba19	0.008894467
13	0xbd55a7a9	-0.052161846
14	0x3d7c00fc	0.061524376
15	0xbb3c9516	-0.0028775386
16	0x3c25662e	0.010095162
17	0xbd65cc15	-0.05610283
18	0xbd38fd5e	-0.045163505
19	0xbccc7d5e	-0.024962123
20	0x3ca2080e	0.019779231
21	0x3c488284	0.012238149
22	0xbb8f0940	-0.0043651164
23	0x3d5b6c24	0.053569928
24	0x3df55a1c	0.119800776
25	0x3ce9d35a	0.028543163
26	0xbd370eda	-0.044691898
27	0xbcb521fb	-0.02211093
28	0xbc1bb3ae	-0.009503288
29	0x3d3b9b00	0.045802116
30	0xbc90fb25	-0.01769788
31	0xbd6a6267	-0.05722275
32	0xba2c6e8e	-0.0006577753
33	0xbc3439f7	-0.011000148
34	0xbc843544	-0.01613868
35	0x3c036ce4	0.008021567
36	0x3c31f3da	0.010861361
37	0x3a89d23b	0.0010514924
38	0x3c1de6e9	0.009637573
39	0xbb886fcb	-0.0041637174
40	0x3c16c39b	0.009201909
41	0x3c131258	0.008976541
42	0x3cb8ed0d	0.022573972
43	0xbca1c784	-0.019748457
44	0xbcdb883c	-0.02679836
45	0xbae722d1	-0.0017634277
46	0x3bd5ebf0	0.00652837
47	0xbd450c0b	-0.04810719

running_mean f4 [48]
0	0x3dc9cb2f	0.09853207
1	0x3d228887	0.039680984
2	0xbe2a8ef9	-0.16656102
3	0xbda19013	-0.07888808
4	0x3e1108c3	0.14163499
5	0xbbecd0cb	-0.0072270385
6	0x3e12967e	0.1431522
7	0xbc5e6616	-0.013574144
8	0xbe25fdc4	-0.16210085
9	0xbd0f4d91	-0.034986082
10	0x3b9daefb	0.004812119
11	0x3c2014c5	0.009770577
12	0xbe0c42a8	-0.13697302
13	0x3d6ac845	0.0573199
14	0xbc9529f1	-0.018208476
15	0xbd561096	-0.05226191
16	0xbdb35716	-0.08756845
17	0x3c3118f8	0.010809176
18	0x3b66d2af	0.0035220792
19	0x3dc5f200	0.096652985
20	0x3c08b1d7	0.008343182
21	0x3dfd0e26	0.12356214
22	0xbd83b95a	-0.064318374
23	0x3e42cf4b	0.19024388
24	0x3c01577a	0.007894391
25	0x3da7d2b7	0.081944875
26	0x3d47a522	0.048741467
27	0xbbb87017	-0.0056285965
28	0xbd0d9b57	-0.03457197
29	0x3d8143a9	0.06311733
30	0xbdb5c5fb	-0.088756524
31	0x3b6120f1	0.003435191
32	0x3e5760f7	0.21033083
33	0xbd95782b	-0.07298311
34	0x3c4d7e3e	0.0125423055
35	0x3d3aedcd	0.04563694
36	0xbe410338	-0.18848884
37	0x3cf77944	0.030209191
38	0xbd4b9316	-0.04970082
39	0xbda13084	-0.07870582
40	0xbd874f28	-0.06606895
41	0xbd818c0e	-0.063255414
42	0x3d2731bd	0.04081892
43	0xbd85bfcb	-0.06530722
44	0xbd4fb31e	-0.05070793
45	0x3dc870b8	0.097871244
46	0xbd3eda44	-0.046594873
47	0xbcf3053b	-0.02966558

running_var f4 [48]
0	0x3bea6858	0.007153552
1	0x3d19f388	0.037585765
2	0x3d5b520d	0.053545047
3	0x3c2bf4c2	0.0104953665
4	0x3c9bbbaa	0.019010384
5	0x3c2fac64	0.0107222535
6	0x3d33e041	0.043915037
7	0x3d00f7b0	0.031486213
8	0x3d225725	0.03963389
9	0x3bc8bd83	0.006126107
10	0x3b666597	0.0035155767
11	0x3bbd9349	0.00578538
12	0x3d03c81b	0.032173257
13	0x3bb0de91	0.0053976257
14	0x3c2d2a67	0.010569192
15	0x3b9b560a	0.0047404813
16	0x3c6ba53b	0.014382656
17	0x3c5393f6	0.012913695
18	0x3a449645	0.00074991985
19	0x3c046613	0.008080977
20	0x3ac741d0	0.0015202109
21	0x3c325b4b	0.010886024
22	0x3be764bb	0.0070615686
23	0x3d2750cd	0.040848542
24	0x3b157222	0.0022803624
25	0x3c506326	0.012718951
26	0x3bb97cf5	0.005660648
27	0x3aac1e79	0.001313164
28	0x3b151a1a	0.0022751153
29	0x3c9ecff9	0.019386278
30	0x3bd3ea7c	0.0064671617
31	0x3baad223	0.0052130385
32	0x3d0f80b1	0.03503484
33	0x3c1274fd	0.008939025
34	0x3a1a7de3	0.00058933924
35	0x3b020f5a	0.0019845576
36	0x3d1ef8b4	0.0388114
37	0x3c28ea87	0.010309822
38	0x3babbf9b	0.005241347
39	0x3b8f079c	0.004364921
40	0x3ca411f1	0.020028086
41	0x3b5c9d24	0.0033663
42	0x3b27ee98	0.002562439
43	0x3d095e65	0.033537287
44	0x3b2da745	0.0026497405
45	0x3bfa51a1	0.0076391255
46	0x3b5bb4eb	0.0033524584
47	0x3b3fff64	0.0029296512

weight f4 [16, 48, 1, 1]
0	0xbe8b5ca3	-0.27219114
1	0xbea4b62c	-0.32170236
2	0xbe8fc5d3	-0.28080615
3	0xbe3be395	-0.18348534
4	0x3ddf389d	0.1089947
5	0x3e8134c9	0.25235584
6	0xbe289523	-0.16463141
7	0xbd7188f6	-0.058968507
8	0x3e97edd2	0.2967363
9	0x3b7f6df0	0.003897544
10	0x3c593314	0.013256807
11	0x3c0a33d7	0.008435211
12	0x3e604bb5	0.2190388
13	0xbe0ae0a8	-0.13562262
14	0xbe489635	-0.1958855
15	0xbe5ee9df	-0.21768902
16	0xbe964f45	-0.29357353
17	0xbd012e1a	-0.031538107
18	0xbe0c6b74	-0.13712865
19	0x3e0a005c	0.134767
20	0xbe552299	-0.20813979
21	0x3e818008	0.25292993
22	0xbe922668	-0.28544927
23	0x3dadc3fd	0.084846474
24	0x3d537fd4	0.05163558
25	0xbe007711	-0.1254542
26	0x3e375507	0.17903529
27	0xbdc2adda	-0.09505816
28	0x3d8b1496	0.06791036
29	0x3d9b9054	0.07595888
30	0x3e75124b	0.2393276
31	0xbe0d1e88	-0.13781178
32	0xbe32471f	-0.17409943
33	0x3db1f2d1	0.08688892
34	0x3e4bb1d1	0.1989205
35	0xbda86dbb	-0.082240544
36	0xbe7e3a65	-0.24826963
37	0x3dc72007	0.097229056
38	0x3e801413	0.25015315
39	0x3bdb0947	0.0066844556
40	0xbdd5a84e	-0.10432492
41	0xbe22533d	-0.15852065
42	0xbe4baf92	-0.19891194
43	0xbd0d8329	-0.034548912
44	0xbe63f04e	-0.22259638
45	0x3dae8251	0.0852095
46	0x3e8bfb2d	0.2734007
47	0x3e6b7dbd	0.22997184
48	0xbe7aeb63	-0.24503855
49	0xbe298d6d	-0.16557856
50	0x3e82e7b3	0.25567397
51	0xbcbea924	-0.023274012
52	0x3e8d7148	0.2762549
53	0x3d00bd70	0.03143066
54	0xbe826a4f	-0.25471732
55	0x3e2c3425	0.16816767
56	0x3d70645d	0.058689464
57	0x3e539f39	0.20666207
58	0x3e87af1f	0.26500794
59	0xbe133928	-0.14377272
60	0xbe36651c	-0.17812008
61	0x3e8315f4	0.25602686
62	0xbe0ee4dd	-0.13954492
63	0x3e0d071b	0.13772242
64	0x3e6215af	0.22078584
65	0xbe1854e6	-0.14876136
66	0x3e4bff13	0.19921522
67	0xbe7f0239	-0.24903192
68	0xbe1e12ab	-0.15436809
69	0x3e47612d	0.19470663
70	0x3d9f7dd8	0.07787675
71	0xbdc481d2	-0.09595074
72	0xbea09757	-0.31365463
73	0xbe85d623	-0.26139936
74	0xbe439c5d	-0.19102617
75	0xbe0b58b7	-0.13608061
76	0x3e1684ba	0.14699069
77	0xbde505dc	-0.11182758
78	0x3a725024	0.0009243509
79	0x3e707d7c	0.23485368
80	0x3e2bb2ce	0.16767427
81	0xbe973eec	-0.29540193
82	0x3d96014f	0.07324468
83	0x3dce679c	0.10078356
84	0xbe615ba5	-0.22007616
85	0xbd713439	-0.058887694
86	0x3e90f1a5	0.2830936
87	0xbcb6dd6a	-0.022322375
88	0xbbf0137b	-0.007326541
89	0x3ea1b328	0.31581998
90	0xbe236d32	-0.15959623
91	0x3dd613a8	0.10452968
92	0xbe66249c	-0.22474903
93	0xbe8de41a	-0.2771309
94	0x3e82483d	0.25445738
95	0xbe4790c0	-0.19488811
96	0x3d2fa6fb	0.042883854
97	0x3e43454c	0.19069403
98	0xbdb665b9	-0.08906121
99	0x3e00344f	0.12519954
100	0x3e922d98	0.2855041
101	0x3cc5108f	0.024055747
102	0xbdb82b66	-0.089926526
103	0x3e23d65f	0.15999745
104	0xbe53345f	-0.20625447
105	0xbe0f412f	-0.1398971
106	0x3c999f9e	0.01875287
107	0xbe2bf84f	-0.16793941
108	0xbe93735f	-0.2879896
109	0x3c8e5748	0.017375603
110	0xbe43f350	-0.19135785
111	0x3e0ed994	0.13950187
112	0x3e99c4d8	0.30032992
113	0x3e9063ce	0.28201145
114	0xbd208b11	-0.039195124
115	0x3e136380	0.14393425
116	0xbe522833	-0.20523147
117	0xbe645a35	-0.22300036
118	0x3a9f9861	0.001217615
119	0xbe142e63	-0.1447082
120	0xbe42baf3	-0.19016628
121	0xbd247ea0	-0.04015982
122	0xbbc32867	-0.005955744
123	0x3d8a0218	0.067386806
124	0xbe003c17	-0.12522922
125	0xbd81fa0c	-0.06346521
126	0xbddf774c	-0.10911426
127	0x3e69478d	0.227812
128	0xbe2aee90	-0.16692567
129	0xbcf3ba2f	-0.029751865
130	0x3e2629d9	0.16226901
131	0xbd995b15	-0.07488076
132	0x3da02b4d	0.07820759
133	0x3e2372c7	0.15961753
134	0x3e55b578	0.20870006
135	0xbe56945d	-0.20955034
136	0x3e2835cd	0.16426773
137	0x3e29fa11	0.16599299
138	0x3ea636b9	0.32463625
139	0x3c855c1b	0.01627927
140	0xbdd5ed66	-0.10445671
141	0xbdcd6a5f	-0.10030054
142	0x3e8033b8	0.25039458
143	0xbe6bfbf8	-0.23045337
144	0x3e1906c8	0.14943993
145	0xbc2618e9	-0.010137775
146	0x3e89fe9c	0.26952064
147	0x3e31ae5f	0.17351674
148	0x3e79fa5d	0.24411912
149	0xbe41741e	-0.18891951
150	0xbdf7ec2c	-0.12105593
151	0xbdbd064b	-0.09229716
152	0xbe89a207	-0.2688143
153	0x3d9d7b43	0.07689526
154	0xbd5a8d34	-0.053357318
155	0xbda891fe	-0.08230971
156	0x3e136008	0.14392102
157	0x3df1a587	0.1179915
158	0x3df331cd	0.11874733
159	0xbdac5420	-0.08414483
160	0x3dea08b2	0.1142744
161	0x3ea20947	0.31647703
162	0xbdaa7077	-0.08322232
163	0x3e772490	0.24135041
164	0x3ddff96e	0.10936247
165	0x3e2383ff	0.15968321
166	0xbca724d3	-0.020403301
167	0x3d7a01b5	0.061036784
168	0xbeba2917	-0.36359474
169	0xbd80781d	-0.0627291
170	0x3e998477	0.29983875
171	0xbe01deaa	-0.12682596
172	0x3ca0888f	0.019596366
173	0xbe5573de	-0.20844981
174	0x3e278574	0.16359502
175	0xbe161954	-0.146581
176	0xbe042c7b	-0.12907593
177	0x3e927379	0.28603724
178	0xbd90bbfc	-0.07067105
179	0x3e266cf1	0.16252495
180	0x3e618e01	0.22026826
181	0x3e6948b3	0.22781639
182	0x3e2063c6	0.1566306
183	0xbe4fdc6e	-0.20298931
184	0x3e9ae42b	0.30252203
185	0x3e38dc30	0.18052745
186	0xbe11233c	-0.14173597
187	0x3d0e4a76	0.03473898
188	0xbe8efbc4	-0.27926457
189	0xbe9743e8	-0.29543996
190	0xbe329294	-0.17438728
191	0x3ded9400	0.116004944
192	0xbd764646	-0.06012561
193	0xbda43e37	-0.08019679
194	0x3e828aa1	0.2549639
195	0xbe2ee049	-0.17077745
196	0x3e1b549e	0.15168998
197	0xbe8f958c	-0.28043783
198	0x3e917762	0.28411394
199	0x3e7b6a84	0.24552351
200	0xbc3f2ddb	-0.011668648
201	0xbe89b99a	-0.26899415
202	0x3dc88ce6	0.09792499
203	0xbe45b05e	-0.1930556
204	0x3e620a24	0.22074181
205	0xbe45f9ea	-0.19333616
206	0xbe544514	-0.20729476
207	0x3d546a03	0.051858913
208	0x3e8a078f	0.26958892
209	0x3e0dde3d	0.13854308
210	0xbdfacafb	-0.12245747
211	0xbe5706a8	-0.20998633
212	0x3e1e4986	0.15457734
213	0x3e69bf90	0.22826982
214	0xbe496671	-0.19667985
215	0xbe300827	-0.1719061
216	0xbe6bdb2e	-0.23032829
217	0xbe27211e	-0.16321227
218	0xbd509705	-0.050925273
219	0x3e1352e2	0.14387086
220	0xbe6ad823	-0.22934012
221	0xbd7e6df8	-0.062116593
222	0x3e032bf9	0.12809743
223	0xbe09abf5	-0.13444503
224	0x3dbea933	0.09309616
225	0x3e4d2bf7	0.20036303
226	0xbe4acc89	-0.19804586
227	0xbd17b105	-0.037034053
228	0xbe510ef7	-0.20415865
229	0xbe2a0538	-0.16603553
230	0x3dcd1109	0.10013015
231	0xbe7c4d0b	-0.24638765
232	0x3e9708f1	0.2949901
233	0x3d91459a	0.070933536
234	0xbe8160da	-0.25269204
235	0x3da20ec4	0.079129726
236	0xbe6f70f9	-0.2338294
237	0xbe810f58	-0.2520702
238	0xbe69b4ec	-0.22822922
239	0xbd2b9d1d	-0.04189788
240	0x3e820e53	0.25401554
241	0x3e1b41e9	0.15161861
242	0xbe596f1f	-0.21233796
243	0x3e51a353	0.2047246
244	0xbe7d52cc	-0.24738616
245	0x3dc8842d	0.097908355
246	0x3e48733b	0.19575207
247	0xbb81ca90	-0.003960915
248	0xbe37927d	-0.17926975
249	0xbe7eaad4	-0.24869853
250	0xbe7a3a09	-0.24436201
251	0x3e9908a2	0.298894
252	0x3e139f63	0.1441627
253	0x3e42e530	0.1903274
254	0xbddee0ce	-0.10882722
255	0x3e173131	0.14764859

weight f4 [16]
0	0x3f78577c	0.9700849
1	0x3f80061e	1.0001867
2	0x3f81b1dd	1.0132405
3	0x3f7eb05e	0.99487865
4	0x3f7dbcdb	0.99116296
5	0x3f7aece9	0.98017746
6	0x3f72e9da	0.9488808
7	0x3f7d297f	0.98891443
8	0x3f7ab176	0.97927034
9	0x3f832bd9	1.0247756
10	0x3f7c007f	0.98438257
11	0x3f8043a1	1.0020639
12	0x3f7962a2	0.97416127
13	0x3f7a4480	0.9776077
14	0x3f8244ba	1.0177224
15	0x3f815422	1.01038

bias f4 [16]
0	0x3c273f0f	0.010207905
1	0xbc13c1fa	-0.009018416
2	0x3c40e735	0.011773874
3	0xbbc1d721	-0.005915538
4	0xbb28b2aa	-0.0025741258
5	0x3b8af4cb	0.0042406074
6	0x3c8f6cc2	0.017507914
7	0x3b79bc23	0.0038106523
8	0x3bb710b2	0.005586707
9	0x3c438ec3	0.0119358925
10	0xbbfca3de	-0.007709964
11	0xbb1bd91b	-0.0023780528
12	0x3c21742b	0.009854357
13	0x3abed79c	0.0014560106
14	0x36128955	2.1835633e-06
15	0x3c2342e3	0.0099646775

running_mean f4 [16]
0	0xbecc8899	-0.39947966
1	0xbd9da980	-0.07698345
2	0x3d44c0e7	0.04803553
3	0x3f17ec3b	0.59344834
4	0xbf070598	-0.5274291
5	0xbe43b8c4	-0.19113451
6	0xbd09caf3	-0.033640813
7	0xbea23b2f	-0.31685778
8	0x3ebb4c35	0.3658158
9	0xbf43a6c0	-0.76426315
10	0x3edef10a	0.43543273
11	0x3fad32cc	1.3531127
12	0x3ebaa4af	0.3645377
13	0x3e27c4b0	0.16383624
14	0xbe2d64bf	-0.16932963
15	0x3f02d274	0.51102376

running_var f4 [16]
0	0x3f1b426c	0.60648227
1	0x3f7a32fc	0.97734046
2	0x3e8d3514	0.27579558
3	0x3ee871da	0.45399362
4	0x3eb84877	0.35992786
5	0x401932c1	2.3937228
6	0x3ef02a43	0.46907243
7	0x3ee89fa6	0.45434302
8	0x3eae8b20	0.3409052
9	0x3f290ffd	0.6604002
10	0x3e88eaba	0.26741582
11	0x3f44ae8d	0.76828843
12	0x3e71d551	0.2361653
13	0x3eb69481	0.35660174
14	0x3ef0a425	0.47000232
15	0x3e80124e	0.25013965

weight f4 [96, 16, 1, 1]
0	0x3e1b9fcd	0.15197678
1	0xbd7e48a2	-0.062080987
2	0x3d603ef9	0.054747555
3	0xbd1aca1d	-0.037790406
4	0x3e34f754	0.17672473
5	0x3d45612e	0.04818838
6	0xbe193285	-0.14960678
7	0x3df17166	0.11789207
8	0x3e3ae833	0.1825264
9	0x3d18c728	0.037299305
10	0x3de22dbf	0.110438816
11	0xbd47e7fe	-0.04880523
12	0x3d365446	0.044513963
13	0x3d2d4d50	0.04231006
14	0x3d8887df	0.0666654
15	0xbe16531c	-0.14680141
16	0xbd31df39	-0.043425772
17	0x3db37d9b	0.08764192
18	0x3d645c1e	0.055751912
19	0x3e07abf7	0.13249193
20	0xbda0903e	-0.07840012
21	0xbd8d0b79	-0.06886954
22	0x3d99ef22	0.07516314
23	0xbe322d70	-0.17400146
24	0xbe478315	-0.19483598
25	0x3d6404d0	0.055668652
26	0x3ca8b812	0.020595584
27	0xbe06522e	-0.13117287
28	0x3c43ee05	0.011958604
29	0x3e38fcfc	0.18065256
30	0xbd875987	-0.06608873
31	0xbe00500a	-0.12530532
32	0xbde9ce16	-0.11416261
33	0xbdc93acc	-0.09825668
34	0xbe4e4936	-0.20145115
35	0xbd22c198	-0.039735407
36	0xbe659207	-0.22418986
37	0xbd86ec38	-0.06588024
38	0x3d85406f	0.0650643
39	0xbe205d83	-0.15660672
40	0xbd7b2eaf	-0.061323818
41	0x3e4a3cd7	0.19749771
42	0x3d7cad0f	0.06168848
43	0xbe4532f1	-0.19257714
44	0x3d27a930	0.040932834
45	0x3dc992ca	0.09842451
46	0xbe63361c	-0.2218861
47	0xbd06a99b	-0.032876592
48	0x3c8d10f1	0.017219992
49	0x3e07a44e	0.13246271
50	0xbdf11bb4	-0.11772862
51	0x3919bea0	0.0001466223
52	0xbcc02e1a	-0.023459483
53	0xbcf1851e	-0.02948242
54	0xbd968c46	-0.07350974
55	0xbe5ae489	-0.21376242
56	0x3e262d65	0.16228254
57	0xbcfba15a	-0.030716587
58	0xbe3a2bd9	-0.18180789
59	0x3e36b5d5	0.17842801
60	0x3e788f31	0.24273373
61	0xbe2406f1	-0.16018273
62	0xbe22b4c3	-0.15889268
63	0x3e0d9f97	0.1383041
64	0xbe11e740	-0.14248371
65	0xbe786dfb	-0.24260704
66	0xbdcd7264	-0.10031584
67	0x3dbc3314	0.0918943
68	0x3d06dbba	0.03292439
69	0x3e0b0881	0.13577463
70	0x3e57aecc	0.21062773
71	0xbe2d0543	-0.16896538
72	0x3e12d487	0.14338885
73	0x3c0ee840	0.008722365
74	0xbd3c6065	-0.045990366
75	0x3d848812	0.06471266
76	0xbd924bf8	-0.07143396
77	0x3ddb36f6	0.10703842
78	0xbdd6f207	-0.10495382
79	0xbd93f5f5	-0.07224647
80	0x3d920e28	0.07131606
81	0x3e0e6ff2	0.13909891
82	0x3d81f2f6	0.06345169
83	0x3dd20fd2	0.10256924
84	0xbda38b05	-0.079855
85	0xbbc9da00	-0.006160021
86	0xbe068235	-0.13135608
87	0x3e28d79e	0.16488501
88	0x3de2af2f	0.1106857
89	0x3c019277	0.007908455
90	0x3aa4eb12	0.0012582263
91	0xbe0b1ace	-0.13584444
92	0x3e1a91b1	0.1509464
93	0x3e41f8b8	0.18942535
94	0xbe65e12f	-0.22449182
95	0x3b6f4801	0.0036511424
96	0x3e2a740c	0.16645831
97	0x3e2fd4f3	0.17171077
98	0x3c8d8b93	0.017278468
99	0xbd4a2c37	-0.049358573
100	0x3c94379a	0.01809292
101	0x3dcc07ab	0.099624
102	0xbc7498b6	-0.014928987
103	0xbde1e536	-0.11030047
104	0xbe07dc19	-0.13267554
105	0x3e4d7767	0.2006508
106	0xbe568ea3	-0.20952849
107	0x3e283099	0.16424789
108	0xbe24e1f1	-0.16101815
109	0x3d92d244	0.07169011
110	0x3d70ec3d	0.058819044
111	0x3da8e51e	0.08246826
112	0xbb18190f	-0.0023208295
113	0x3d71f296	0.05906924
114	0x3e302e26	0.17205104
115	0xbe58421a	-0.21118966
116	0xbdceeb02	-0.10103418
117	0xbe6788d6	-0.22610793
118	0x3dca30e3	0.09872606
119	0xbd912b85	-0.07088379
120	0xbe03042a	-0.12794557
121	0x3e34a727	0.17641889
122	0x3dd619f2	0.104541674
123	0xbe1300fa	-0.14355841
124	0x3e4aa4e0	0.19789457
125	0xbe418eb8	-0.18902099
126	0xbd7296db	-0.0592259
127	0x3da7310b	0.08163651
128	0x3c9d751d	0.019220883
129	0xbe1b027a	-0.15137663
130	0xbe55a120	-0.20862246
131	0xbe092f8e	-0.13397047
132	0x3e65c627	0.2243887
133	0xbe412b31	-0.18864132
134	0xbcd8c24c	-0.026459835
135	0xbe3f0495	-0.18654092
136	0x3c183704	0.0092904605
137	0x3d249439	0.04018042
138	0xbddfb968	-0.10924035
139	0x3d8006fa	0.06251331
140	0xbe84247f	-0.25809094
141	0xbcef14b8	-0.029184684
142	0xbe0bbfba	-0.13647357
143	0x3de796b2	0.1130804
144	0x3e65b808	0.22433484
145	0xbcb625b3	-0.022234773
146	0x3d9f2bda	0.07772036
147	0xbce2bc80	-0.027677774
148	0x3e1a4c15	0.15068085
149	0xbe3c2eb6	-0.18377194
150	0xbdc94652	-0.09827866
151	0x3e275eaa	0.16344705
152	0xbe6b1060	-0.22955465
153	0x3d2f94dc	0.042866573
154	0xbe29d85d	-0.16586442
155	0x3b663d9e	0.0035131942
156	0xbda2734e	-0.07932149
157	0x3d931df2	0.07183446
158	0xbe77c86c	-0.24197549
159	0x3d4fe47f	0.05075502
160	0x3de48424	0.11158016
161	0xbe1fc355	-0.15601857
162	0x3e202df0	0.15642524
163	0x3e237af6	0.15964875
164	0xbb43367b	-0.0029787112
165	0xbd7b98e5	-0.06142511
166	0x3e42d64b	0.19027059
167	0x3d26607c	0.04061936
168	0xbdb537c9	-0.08848531
169	0x3e73e038	0.23816001
170	0x3c1667bf	0.009180008
171	0xbe5bfacd	-0.21482392
172	0x3e1e50ca	0.15460506
173	0x3dbca292	0.09210695
174	0x3dcb30f3	0.09921446
175	0x3d7d89eb	0.061899107
176	0xbd3bb2ba	-0.045824744
177	0x3e15574d	0.14584084
178	0xbe479558	-0.19490564
179	0x3e0934cf	0.13399051
180	0x3e144d07	0.14482509
181	0xbc9e411d	-0.019318158
182	0x3e5e995b	0.21738188
183	0xbd094c94	-0.033520296
184	0x3dc87d86	0.09789567
185	0x3e3dc5dc	0.18532509
186	0x3dd6f1b1	0.10495318
187	0x3d5cf1d8	0.053941578
188	0xbe7aa0d1	-0.24475409
189	0xbd56be13	-0.052427363
190	0x3daa27c0	0.08308363
191	0xbd0f81e6	-0.03503599
192	0xbd940152	-0.07226814
193	0x3d54041c	0.05176173
194	0x3ca12850	0.019672543
195	0x3dbc1496	0.09183614
196	0xbc5af993	-0.013365167
197	0x3c529b52	0.012854414
198	0x3da6f0df	0.08151411
199	0xbde82547	-0.11335235
200	0x3d791dd4	0.060819462
201	0xbc0e43d3	-0.008683163
202	0xbe2453af	-0.16047548
203	0xbb62065a	-0.003448865
204	0x3e4daaba	0.20084658
205	0x3e5baebd	0.21453376
206	0xbd73deca	-0.05953864
207	0xbd92dd12	-0.07171072
208	0x3df1b972	0.11802949
209	0xbe34446b	-0.17604224
210	0x3d890fd7	0.06692474
211	0x3e8a4d19	0.27011946
212	0x3e0726e7	0.13198434
213	0xbe7a4f0f	-0.24444221
214	0x3e86122a	0.26185733
215	0xbd85fa25	-0.06541852
216	0x3e30182b	0.1719672
217	0x3cefb32a	0.029260237
218	0x3dc0847d	0.0940027
219	0x3c4f3b5c	0.01264843
220	0xbe527c8e	-0.20555326
221	0x3dcb03da	0.09912844
222	0xbe35599b	-0.17709963
223	0x3df83e08	0.121212065
224	0x3dbd37ae	0.09239136
225	0x3e42277d	0.18960376
226	0xbe2e6562	-0.17030862
227	0xbde5650a	-0.11200912
228	0xbe54e449	-0.20790209
229	0xbe1884ca	-0.14894405
230	0xbdc45104	-0.09585765
231	0x3e441e11	0.19152094
232	0x3caa40ee	0.020782914
233	0x3e5010a9	0.20318855
234	0xbdc7711b	-0.0973837
235	0xbd99071e	-0.074720606
236	0xbce97ac1	-0.028500916
237	0xbdd07269	-0.10178072
238	0x3e6fb5b2	0.23409155
239	0xbe5c40e5	-0.2150913
240	0x3aff8dd9	0.001949723
241	0x3d8ef771	0.069807895
242	0xbe1b7501	-0.15181352
243	0xbc12cd5d	-0.008960095
244	0x3e325a54	0.1741727
245	0x3d332112	0.04373271
246	0xbde1f9ba	-0.1103396
247	0x3e182287	0.14856921
248	0xbe4e5dfd	-0.20153041
249	0xbe660f5f	-0.22466801
250	0x3dcbed9e	0.09957431
251	0xbdc72af1	-0.09724987
252	0xbddd1772	-0.107954875
253	0x3de88d9f	0.11355137
254	0x3e2de824	0.16983086
255	0x3d149c5d	0.036281932

weight f4 [96]
0	0x3f7c4ac4	0.98551583
1	0x3f82fac8	1.0232782
2	0x3f633685	0.88755065
3	0x3f87cb77	1.0608968
4	0x3f85bd53	1.0448402
5	0x3f90ca76	1.1311786
6	0x3f5dbd6f	0.8661718
7	0x3f781421	0.96905714
8	0x3f6be51c	0.9214647
9	0x3f614d11	0.8800822
10	0x3f81e02e	1.0146539
11	0x3f735a5f	0.9505977
12	0x3f87875b	1.0588182
13	0x3f83a406	1.0284431
14	0x3f70f95d	0.941305
15	0x3f940a3c	1.1565623
16	0x3f6b8f76	0.9201578
17	0x3f8ad06e	1.0844858
18	0x3f7dccb7	0.99140495
19	0x3f885b85	1.065293
20	0x3f7f0e96	0.9963163
21	0x3f6f48fb	0.93470734
22	0x3f83f8bc	1.0310283
23	0x3f8614ed	1.0475136
24	0x3f77604e	0.96631324
25	0x3f799ffd	0.9750975
26	0x3f846cfd	1.034576
27	0x3f872096	1.055682
28	0x3f764928	0.9620538
29	0x3f7761f6	0.9663385
30	0x3f7d3f23	0.98924464
31	0x3f8648e7	1.0490998
32	0x3f53f665	0.82797843
33	0x3f765935	0.9622987
34	0x3f75f73f	0.9608039
35	0x3f7378d9	0.95106274
36	0x3f88dcfd	1.069244
37	0x3f7e1b4a	0.9926039
38	0x3f77452f	0.9658994
39	0x3f79536e	0.9739293
40	0x3f69e30e	0.9136208
41	0x3f7d5f74	0.98973775
42	0x3f720b7b	0.9454877
43	0x3f83a5c1	1.0284959
44	0x3f809963	1.004681
45	0x3f82a9c9	1.0208064
46	0x3f76c2ee	0.9639119
47	0x3f8de185	1.1084448
48	0x3f7f12b1	0.99637896
49	0x3f7c8819	0.9864517
50	0x3f8aaf64	1.0834775
51	0x3f7264e6	0.9468521
52	0x3f85c27e	1.0449979
53	0x3f553969	0.83290726
54	0x3f762f04	0.9616549
55	0x3f811bfe	1.0086668
56	0x3f87fdf9	1.0624381
57	0x3f7aeda0	0.98018837
58	0x3f83e7bb	1.0305094
59	0x3f7f6d9b	0.9977662
60	0x3f5e2e27	0.8678917
61	0x3f826299	1.018634
62	0x3f640fb8	0.89086485
63	0x3f7d82c9	0.9902769
64	0x3f6d0212	0.92581284
65	0x3f757c08	0.9589238
66	0x3f6b7c40	0.91986465
67	0x3f807b1f	1.0037574
68	0x3f5a2387	0.8521046
69	0x3f72d55a	0.948568
70	0x3f71750c	0.94319224
71	0x3f7623ee	0.96148574
72	0x3f89e482	1.077286
73	0x3f78f0e6	0.9724258
74	0x3f7a97e9	0.97888047
75	0x3f6dc36c	0.92876315
76	0x3f7c0c76	0.98456514
77	0x3f6927b8	0.9107623
78	0x3f78ee29	0.97238404
79	0x3f800e7d	1.0004421
80	0x3f711bb5	0.941829
81	0x3f656838	0.8961215
82	0x3f8820bb	1.0634989
83	0x3f7e19ce	0.99258125
84	0x3f88e846	1.0695884
85	0x3f65eebe	0.89817417
86	0x3f98cf18	1.19382
87	0x3f8003a9	1.0001117
88	0x3f6b3559	0.9187828
89	0x3f833c26	1.0252731
90	0x3f6faaaf	0.9361982
91	0x3f8511d2	1.0396063
92	0x3f8357dd	1.0261189
93	0x3f773a85	0.9657367
94	0x3f7e3d73	0.99312514
95	0x3f72c2c8	0.9482846

bias f4 [96]
0	0x3cafed74	0.021475531
1	0x3bb0a1a3	0.0053903623
2	0xbdadce7d	-0.0848665
3	0x3c6baaac	0.014383953
4	0xbccad43a	-0.0247594
5	0xbd620de6	-0.055189036
6	0x3db73b0a	0.08946808
7	0x3d03ad74	0.03214784
8	0x3e218818	0.15774572
9	0xbdbec4b3	-0.09314861
10	0x3c2be0b7	0.010490588
11	0x3cd389bd	0.025822515
12	0xbd07dc19	-0.033168886
13	0xbd52efe9	-0.051498327
14	0x3d4e92ec	0.050433084
15	0xbb3b9e81	-0.0028628411
16	0x3d9911db	0.07474109
17	0x3c122f3b	0.008922393
18	0x3ce1c027	0.027557446
19	0x3d00454e	0.031316094
20	0xbc6b0b4e	-0.014345957
21	0xbd3767c2	-0.044776686
22	0x3c8ec712	0.017428908
23	0x3d59c1d3	0.05316336
24	0x3d137739	0.03600237
25	0xbce1d3cf	-0.027566819
26	0xbc8d7068	-0.017265514
27	0xbc9694c6	-0.018381488
28	0xbc757af6	-0.014982929
29	0x3d25207a	0.040314175
30	0x3d1fd13a	0.039017893
31	0x3d3ab040	0.04557824
32	0xbdec010a	-0.11523636
33	0x3ceddd1f	0.029036103
34	0x3d96d5e1	0.07365013
35	0x3d3fc6d5	0.04682048
36	0x3c77973d	0.015111742
37	0x3d0d1d6b	0.034451883
38	0xbd4fb3c6	-0.050708555
39	0x3cb7d201	0.022439005
40	0x3b07d66e	0.0020727175
41	0xbd44cf48	-0.04804924
42	0xbb8521c4	-0.004062863
43	0xbbff6a75	-0.007794673
44	0x3c35fecc	0.011108112
45	0x3b9bae35	0.0047509917
46	0xbd4f60a2	-0.050629266
47	0x3cf8fefb	0.030395022
48	0x3c9cf17b	0.019158116
49	0xbcd2203f	-0.025650142
50	0xbcb202bb	-0.021729818
51	0x3d37d53d	0.044881094
52	0xbcc9d976	-0.024639826
53	0x3dfae059	0.12249822
54	0x3d214332	0.039370723
55	0xbcb60fc7	-0.02222432
56	0x3cda947b	0.02668213
57	0x3c8ac706	0.016940605
58	0xbd868c61	-0.06569744
59	0xbcdca798	-0.026935384
60	0xbc3bbaa7	-0.011458076
61	0xbbe94520	-0.007118836
62	0xbe142d45	-0.14470394
63	0xbb026ba3	-0.0019900582
64	0xbd44b914	-0.048028067
65	0xbda81df6	-0.082088396
66	0xbc901a70	-0.017590731
67	0x3ce8396a	0.02834769
68	0xbd74d8d5	-0.0597771
69	0x3c0169bc	0.007898744
70	0x3d85adb9	0.065272756
71	0x3d0d9e82	0.034574993
72	0x3b4c62c1	0.0031186792
73	0x3d89e5dd	0.06733296
74	0x3c3e1d4b	0.011603664
75	0x3d7f0b02	0.062266357
76	0xbcdcc17d	-0.026947731
77	0xbdaab183	-0.08334639
78	0xbd0b6092	-0.034027644
79	0xbcb95998	-0.02262573
80	0xbd9bb7bc	-0.07603404
81	0x3d89314a	0.06698854
82	0x3c2253ae	0.009907646
83	0x3cb77465	0.022394368
84	0x3d781357	0.06056532
85	0x3d3ee003	0.046600353
86	0x3d1822cc	0.03714256
87	0xbd2128be	-0.039345495
88	0xbd57e810	-0.052711546
89	0x3c9180e9	0.017761664
90	0xbd797ee4	-0.060912028
91	0xbb2c4901	-0.002628863
92	0xbb864c90	-0.0040984824
93	0x3d25a1a5	0.04043736
94	0xbd0d4a99	-0.03449497
95	0x3d295f6f	0.04135078

running_mean f4 [96]
0	0x39aa1425	0.00032439936
1	0xbb06b73d	-0.0020555996
2	0x39fc6d66	0.00048146694
3	0x3a122b97	0.00055759534
4	0x3b0e5be8	0.002172226
5	0x3a8441c9	0.0010090406
6	0x3b378c19	0.0028007089
7	0x3bdca9b8	0.0067340992
8	0xbb3c2aae	-0.0028711963
9	0x3ae1b156	0.0017218988
10	0x3c3b3d31	0.011428163
11	0xbb309b29	-0.0026947951
12	0x3b21b8ef	0.002467688
13	0x3b98da77	0.004664715
14	0xbb0ccfdc	-0.0021486199
15	0xbc102461	-0.008797736
16	0xbb01153b	-0.0019696492
17	0x3a7f1d88	0.00097318785
18	0xbb8d9168	-0.0043203123
19	0xbb886e22	-0.0041635195
20	0xbbacbba8	-0.005271394
21	0x3c35ef59	0.011104428
22	0x3ba625d5	0.005070428
23	0xbc164b36	-0.009173205
24	0x3b29b314	0.0025894092
25	0xbb800419	-0.0039067385
26	0xbb8bc86e	-0.0042658364
27	0xbb2b7d89	-0.0026167354
28	0x3b89c2c8	0.004204128
29	0xbbb989fd	-0.0056622014
30	0x3a600465	0.0008545577
31	0xbb617386	-0.0034401133
32	0xbb899c97	-0.004199575
33	0xbc115a56	-0.008871635
34	0xbc05924a	-0.008152554
35	0x3c0b091a	0.008486057
36	0x3c00ba3a	0.0078569
37	0xbb1e5f3a	-0.0024165646
38	0xbb28a48b	-0.002573284
39	0x3bb8cfbe	0.005639999
40	0xbb8fc9a4	-0.004388051
41	0xbafab3a9	-0.0019127029
42	0xbbe0c6e2	-0.006859646
43	0xbc0ce407	-0.008599288
44	0x3b6c0f0b	0.0036019708
45	0xbaba3ce0	-0.0014208816
46	0x3a8039e8	0.0009782882
47	0x3b02c139	0.0019951595
48	0xb83aa5aa	-4.4500142e-05
49	0x3ad3afe8	0.0016150447
50	0x3baabea6	0.0052107153
51	0xb7edbb74	-2.8339891e-05
52	0xbbe78033	-0.007064843
53	0x3b9cec96	0.0047889454
54	0xbaf0f2a0	-0.0018382855
55	0xbbddab26	-0.0067647872
56	0xbad212b4	-0.0016027302
57	0x3c34982a	0.011022607
58	0x3a76274a	0.000939001
59	0x3b63929a	0.0034724833
60	0x3b0800ed	0.0020752505
61	0x3bbf2f22	0.005834476
62	0x3ba39320	0.004991904
63	0xbb81fced	-0.0039669187
64	0x3b874480	0.004128039
65	0xb9d8b019	-0.00041329933
66	0x3bb7d8da	0.0056105675
67	0xbb074c80	-0.0020644963
68	0x3b488a19	0.003059989
69	0x3b8a260b	0.004215961
70	0xbb2f8440	-0.0026781708
71	0x3a8c550d	0.00107065
72	0xbae30c86	-0.0017322458
73	0x3b74dcb5	0.0037362997
74	0xbb1090ae	-0.0022058892
75	0xbb207fde	-0.0024490277
76	0x3b163fae	0.002292614
77	0xb8c94b77	-9.598483e-05
78	0xbb45082f	-0.0030064692
79	0x3b11a959	0.0022226183
80	0xbac8eeee	-0.0015329996
81	0x3b7ddad6	0.0038735173
82	0xbc1ed4ac	-0.00969426
83	0x3b601862	0.003419422
84	0x3b200c60	0.0024421439
85	0xbaa6d176	-0.0012727219
86	0x3b177239	0.0023108853
87	0x3a9230ad	0.0011153423
88	0x3b9980d6	0.004684548
89	0x3bd777af	0.0065755467
90	0xba88a099	-0.0010423838
91	0x3b8521ba	0.0040628584
92	0xba7bdbc3	-0.0009607637
93	0xbbf19e71	-0.007373624
94	0x3a8fa185	0.0010958171
95	0x3c13f4b3	0.009030509
