trained_model/BiSegNet(ReagentV2)_step.pt (torch, 395925 bytes, 152 tensors)

weight f4 [8, 1, 3, 3]
0	0x3c852a77	0.0162556
1	0xbe39202d	-0.1807868
2	0xbe21a2e3	-0.15784793
3	0x3e6cc496	0.23121867
4	0x3e0ef7ca	0.13961712
5	0xbe3219d2	-0.17392662
6	0xbe83de5a	-0.25755578
7	0xbea8d1b2	-0.32972485
8	0x3e8bc92f	0.27301928
9	0x3dd963d0	0.10614741
10	0xbddd896d	-0.108172275
11	0xbe9d2f2e	-0.30700058
12	0xbcbf664f	-0.023364214
13	0x3d7d79bb	0.06188367
14	0x3e0b3b96	0.13596949
15	0x3e9180b4	0.28418505
16	0x3ea1d1c1	0.31605342
17	0xbb92def7	-0.004482146
18	0x3e84fa7a	0.25972348
19	0x3e90571d	0.28191462
20	0x3e7ea0cc	0.24866027
21	0xbd739a18	-0.059473127
22	0x3ddd0a37	0.10792964
23	0xbe332ad3	-0.17496805
24	0xbe1f50b6	-0.15558133
25	0xbdb77fb8	-0.08959907
26	0x3d212477	0.039341416
27	0xbe529dcc	-0.20568007
28	0xbe2f2305	-0.17103203
29	0x3e9e25d4	0.30888236
30	0xbd0db416	-0.03459557
31	0x3df31dcf	0.1187092
32	0x3e0e1346	0.1387454
33	0x3e18af60	0.1491065
34	0x3e986a03	0.2976838
35	0x3e7de2bd	0.24793525
36	0x3e291114	0.16510421
37	0x3ea711ee	0.32630867
38	0xbe7989b9	-0.24368943
39	0x3e7ceeb1	0.24700429
40	0x3ddcc3d4	0.10779539
41	0x3c66cc09	0.014086732
42	0x3e492283	0.19642071
43	0x3e7c2047	0.24621688
44	0x3e2bb4d9	0.16768207
45	0x3ca5936e	0.020211902
46	0x3e1227a1	0.1427293
47	0x3ea18ea3	0.31554136
48	0xbe1f1848	-0.15536606
49	0xbe2760de	-0.16345546
50	0x3e301042	0.17193702
51	0x3daa0a9d	0.083028056
52	0x3e3ea3a5	0.18617113
53	0x3ecf4f12	0.40490013
54	0xbe80d782	-0.2516442
55	0x3de24c4d	0.110497095
56	0xbe694988	-0.22781956
57	0x3db9736a	0.090552166
58	0xbe8a134a	-0.2696784
59	0xbdb601f3	-0.088870905
60	0x3e888ec2	0.26671416
61	0xbc4eb2b5	-0.012615849
62	0xbe2f83c7	-0.17140113
63	0xbe8249b0	-0.25446844
64	0xbdbe7226	-0.09299116
65	0xbe6e0298	-0.23243177
66	0x3dcba907	0.09944349
67	0x3d943bd3	0.07237973
68	0x3e326fd7	0.17425476
69	0xbec23414	-0.37930357
70	0xbdd159f6	-0.10222237
71	0xbe965427	-0.29361078

weight f4 [8]
0	0x3f805a88	1.0027628
1	0x3f7bbb10	0.9833231
2	0x3f8f328c	1.1187301
3	0x3f8ed96f	1.1160105
4	0x3f758a0c	0.9591377
5	0x3f7322d8	0.9497504
6	0x3f80915a	1.0044358
7	0x3f72e186	0.9487537

bias f4 [8]
0	0xbd13b038	-0.036056727
1	0x3c955e84	0.018233545
2	0x3e0f3a97	0.13987194
3	0x3d26f53c	0.040761217
4	0xbdd4313a	-0.10360952
5	0xbc1e5465	-0.009663676
6	0xbc0f52d2	-0.008747773
7	0x3cdf0acd	0.02722683

running_mean f4 [8]
0	0xc29e9c7b	-79.305626
1	0x42a7baa1	83.86451
2	0x42a41e67	82.05938
3	0x4319bb42	153.73148
4	0x435dbcd9	221.73769
5	0x4335a616	181.64877
6	0xc2c7da01	-99.92579
7	0xc3362ac5	-182.16707

running_var f4 [8]
0	0x4433c708	719.10986
1	0x445aed14	875.70435
2	0x446df9c3	951.9025
3	0x4527178e	2673.4722
4	0x45adc0cc	5560.0996
5	0x4568c063	3724.0242
6	0x44945f4f	1186.9784
7	0x45682069	3714.0256

weight f4 [24, 8, 1, 1]
0	0xbc060ca5	-0.008181726
1	0xbe9e2dc7	-0.308943
2	0xbecd8160	-0.40137768
3	0x3e94c279	0.2905462
4	0x3e05bb18	0.13059652
5	0x3d6d4be7	0.057933714
6	0xbed5b163	-0.41736898
7	0x3e86df6c	0.26342332
8	0x3e3a04d2	0.18165901
9	0xbe0d479e	-0.13796851
10	0xbe3d2817	-0.18472324
11	0xbf05c4c8	-0.5225339
12	0xbe9e58cf	-0.3092713
13	0xbeacb036	-0.33728188
14	0x3d6e1ca1	0.05813277
15	0x3e09b0ad	0.13446303
16	0x3e06b5fa	0.13155356
17	0xbedeb9dc	-0.43501174
18	0xbe4587f5	-0.19290145
19	0x3d867008	0.06564337
20	0x3d62b4b7	0.055348124
21	0x3ea6203a	0.32446462
22	0xbd2c3d8e	-0.04205089
23	0x3e106fec	0.14105195
24	0xbe345d73	-0.17613773
25	0x3de22c17	0.11043566
26	0x3e3edc36	0.18638691
27	0xbdc32d39	-0.0953011
28	0xbea44606	-0.32084674
29	0x3e9f7474	0.31143534
30	0x3bcc2355	0.006229798
31	0x3f21ee93	0.6325466
32	0x3e03febe	0.12890145
33	0xbe7a4e08	-0.24443829
34	0x3ea7bee6	0.3276283
35	0xbd9f707b	-0.07785126
36	0xbd3b08cf	-0.045662697
37	0x3d934c4d	0.071922876
38	0xbe8b78f5	-0.2724072
39	0x3e9bdda9	0.3044255
40	0x3df94c79	0.12172789
41	0x3d723696	0.05913409
42	0x3e56bed9	0.2097124
43	0xbe80412d	-0.25049725
44	0xbdf80477	-0.121102266
45	0xbdd4e66f	-0.10395514
46	0xbe83937c	-0.2569846
47	0x3ca62314	0.020280398
48	0xbdf30a83	-0.11867239
49	0xbe329799	-0.17440642
50	0xbe4a2446	-0.197404
51	0xbeb693da	-0.35659677
52	0x3d856fcc	0.06515464
53	0x3e5f9e6b	0.21837775
54	0xbe39191e	-0.18075988
55	0xbe1581e9	-0.14600338
56	0x3dd8fde5	0.105953015
57	0xbe74eb1d	-0.23917814
58	0xbe65ca3f	-0.22440432
59	0x3ea5cc90	0.3238263
60	0x3b074937	0.0020643005
61	0xbece87fc	-0.40338123
62	0x3e97a7e7	0.29620287
63	0x3f1c1852	0.6097461
64	0x3eddc808	0.43316674
65	0xbe91f7eb	-0.2850946
66	0x3e8b207e	0.27173227
67	0x3e2ba06e	0.16760418
68	0x3d0e89a8	0.034799248
69	0x3eeb49c9	0.4595473
70	0x3da41424	0.08011654
71	0xbce3fb92	-0.027829919
72	0xbed03a16	-0.40669316
73	0xbd16fa49	-0.036859784
74	0x3efa1e6f	0.48851344
75	0x3e7e515e	0.24835727
76	0xbe395ba1	-0.1810136
77	0xbe7ae52c	-0.24501485
78	0x3edcef61	0.43151382
79	0xbeab3b09	-0.33443478
80	0xbf19b6a3	-0.60044307
81	0xbed81041	-0.421999
82	0xbe538b35	-0.20658572
83	0x3dbb0ede	0.09133695
84	0xbec73e6f	-0.3891482
85	0x3ec44c65	0.38339534
86	0xbdd13f18	-0.10217112
87	0xbe9d17b6	-0.30682153
88	0xbe30263f	-0.1720209
89	0xbd3ff5f9	-0.046865437
90	0x3d827f8a	0.063719824
91	0x3eab41d8	0.33448672
92	0x3e598f45	0.21246059
93	0x3db6407c	0.08899018
94	0xbecd96c8	-0.401541
95	0xbe1782fc	-0.1479606
96	0xbe043b97	-0.12913357
97	0x3cc74c77	0.024328453
98	0xbe8f7de6	-0.2802574
99	0x3e8fcaf6	0.28084534
100	0x3ef215cc	0.47282255
101	0xbc8e0f66	-0.017341327
102	0x3d90a2dd	0.07062314
103	0xbe817bc6	-0.25289744
104	0xbe22301c	-0.15838665
105	0x3ea93040	0.33044624
106	0xbd118fb0	-0.03553742
107	0x3ed83f1e	0.42235655
108	0x3c57b370	0.01316534
109	0xbd88e512	-0.06684317
110	0xbed633b5	-0.41836324
111	0x3e2e0048	0.16992295
112	0x3c8b38db	0.016994884
113	0xbe3e3c74	-0.18577749
114	0xbd6ebfc9	-0.05828837
115	0xbe6c2975	-0.2306269
116	0x3dfda2b8	0.12384552
117	0x3dbb0c4d	0.091332056
118	0x3dc9d806	0.09855656
119	0x3f138421	0.5762349
120	0x3e8eabb9	0.2786539
121	0x3e5ad76c	0.2137124
122	0xbd2c35f9	-0.04204366
123	0x3d7bfd41	0.06152082
124	0xbe74c3ca	-0.23902813
125	0x3ea8e5e5	0.32987896
126	0x3e5b5e7f	0.21422766
127	0xbea5dd52	-0.32395416
128	0x3ecc2c0a	0.3987735
129	0xbeb64a17	-0.356034
130	0xbeb3fd83	-0.35154352
131	0x3e35ea5d	0.17765184
132	0x3e26903c	0.16265959
133	0xbe976e78	-0.29576468
134	0xbe8e0334	-0.2773682
135	0xbe864a19	-0.26228407
136	0x3e1f63cb	0.15565412
137	0xbeeedbd0	-0.4665208
138	0x3e4e428b	0.20142572
139	0x3e9c36d5	0.30510584
140	0xbeb3496d	-0.35016957
141	0x3e71e27e	0.23621556
142	0x3d9e4e7f	0.07729816
143	0xbe168cd9	-0.14702167
144	0xbe41dccc	-0.18931884
145	0xbee7bbf2	-0.45260578
146	0xbeef4eb9	-0.46739748
147	0x3e29edb1	0.16594578
148	0xbec26244	-0.37965596
149	0xbdcd2c88	-0.10018259
150	0x3e99f450	0.30069208
151	0xbed2a061	-0.41137984
152	0xbe23ff66	-0.16015396
153	0x3eb030c8	0.34412217
154	0x3ede3620	0.4340067
155	0xbefd3f0a	-0.49462157
156	0x3bbe70cf	0.0058117877
157	0xbee2ec85	-0.44321075
158	0xbdc0060e	-0.09376155
159	0x3e1c0f67	0.1524025
160	0x3df11d89	0.117732115
161	0x3d667ed0	0.05627328
162	0xbef17cd2	-0.47165543
163	0x3f1184f6	0.5684351
164	0xbe6bbd03	-0.23021321
165	0xbde35f03	-0.111021064
166	0x3da4f3eb	0.08054336
167	0x3e467184	0.1937924
168	0xbea27708	-0.3173144
169	0xba671d66	-0.00088163314
170	0xbed0bad0	-0.40767527
171	0x3e799fb9	0.24377336
172	0x3e1193d0	0.14216542
173	0x3e2cf4bd	0.16890235
174	0x3ea76514	0.32694304
175	0xbd0f0de5	-0.03492536
176	0xbe571a58	-0.21006143
177	0x3d481e0a	0.048856772
178	0xbe54be2d	-0.20775671
179	0x3dea11a6	0.114291474
180	0xbeb489a0	-0.3526125
181	0x3ee6d5cc	0.4508499
182	0xbe84ece6	-0.2596199
183	0x3df80a12	0.12111296
184	0x3e531306	0.20612726
185	0x3e735658	0.23763406
186	0xbf121a5f	-0.5707149
187	0x3ee41ee4	0.44554818
188	0xbd894a3d	-0.06703613
189	0xbea17f07	-0.31542227
190	0xbd31b171	-0.043382112
191	0xbcf88c63	-0.03034038

weight f4 [24]
0	0x3f7b7ee1	0.98240477
1	0x3fbc3248	1.4702845
2	0x3fa5d292	1.2954886
3	0x3f4c1cab	0.79731244
4	0x3f8f0594	1.1173577
5	0x3f941a64	1.1570554
6	0x3f8f439b	1.1192507
7	0x3fc55724	1.5417218
8	0x3f575b04	0.84123254
9	0x3f9d115a	1.227092
10	0x3f9114b3	1.1334442
11	0x3f8cfa04	1.1013799
12	0x3f86cdcc	1.0531554
13	0x3f735764	0.9505522
14	0x3f7fb7f8	0.9989009
15	0x3f4b096d	0.7931126
16	0x3f709656	0.93979394
17	0x3f5ae6d5	0.8550847
18	0x3fb05364	1.3775449
19	0x3f4125f2	0.75448525
20	0x3fbe2c63	1.4857296
21	0x3f42944a	0.7600752
22	0x3f692386	0.9106983
23	0x3f9a5765	1.2057921

bias f4 [24]
0	0x3d958366	0.07300453
1	0x3d514b7f	0.05109739
2	0xbd1c3cac	-0.0381438
3	0xbe30bc2d	-0.17259283
4	0xbcd078e4	-0.02544827
5	0x3d0c51be	0.034257643
6	0xbc82b297	-0.015954299
7	0xbb9c1975	-0.004763777
8	0xbe258f7e	-0.16168019
9	0xbd5248a3	-0.051338803
10	0xbd5ffb87	-0.054683235
11	0x3d96a56b	0.0735577
12	0x3d8eaf7a	0.06967063
13	0x3e03deec	0.12878007
14	0xbdb93b00	-0.090444565
15	0xbe600129	-0.21875443
16	0x3df25367	0.11832314
17	0x3dc6682c	0.09687838
18	0x3cf80452	0.030275498
19	0x3cfbaecf	0.030723004
20	0xbc3cebad	-0.011530799
21	0x3e02f947	0.12790404
22	0x3cde0952	0.027104054
23	0xbcd02439	-0.025407897

running_mean f4 [24]
0	0xbe3ab7b4	-0.1823414
1	0xbec61881	-0.3869057
2	0xbcb5b8f3	-0.022182917
3	0x3e8118e3	0.252143
4	0x3dd996d1	0.10624469
5	0xbd9ae961	-0.07564045
6	0xbeb2d666	-0.34929198
7	0x3e1375a2	0.14400342
8	0x3ece658d	0.40311852
9	0x3dd2a1c7	0.10284763
10	0xbefc5d3a	-0.49289876
11	0xbc3785e7	-0.011201358
12	0xbc34c501	-0.0110332975
13	0x3dd5fb0f	0.10448276
14	0x3dc86de2	0.097865835
15	0x3e31d84c	0.17367667
16	0xbe9d74a3	-0.3075305
17	0x3da97d42	0.08275844
18	0xbf02ef81	-0.51146704
19	0xbd2ce48c	-0.042210147
20	0x3d64f767	0.055900004
21	0xbcb2bcda	-0.021818567
22	0xbdc2f676	-0.09519665
23	0xbdb2a47b	-0.087227784

running_var f4 [24]
0	0x3cbca195	0.023026267
1	0x3e9fa4ad	0.31180325
2	0x3d4bbfcc	0.04974346
3	0x3df46a98	0.11934394
4	0x3cb0b5c9	0.021571057
5	0x3c39dfcd	0.011344862
6	0x3dcda60d	0.10041437
7	0x3f51ee4f	0.82004255
8	0x3dee7c06	0.11644749
9	0x3df6bdcb	0.12047919
10	0x3f266e4c	0.6501205
11	0x3efe2fe6	0.4964592
12	0x3dc2f699	0.09519691
13	0x3e4ffdb1	0.2031162
14	0x3ec22a27	0.37922785
15	0x3ca3587d	0.019939655
16	0x3c89d806	0.01682664
17	0x3bcd3359	0.0062622246
18	0x3d61c90c	0.055123374
19	0x3c37b5a9	0.011212745
20	0x3e00acae	0.12565872
21	0x3c2ec1cb	0.010666321
22	0x3dc5fc48	0.096672595
23	0x3d088424	0.033329144

weight f4 [24, 1, 3, 3]
0	0xbe1f606c	-0.15564126
1	0x3e3a0c0b	0.18168657
2	0x3e36654d	0.1781208
3	0xbe6313df	-0.22175549
4	0x3d508121	0.050904397
5	0x3d34770b	0.04405884
6	0xbe48611e	-0.19568297
7	0xbaf5b547	-0.0018746041
8	0x3d9cf2e3	0.076635145
9	0xbde39d1a	-0.11113949
10	0x3dba2a45	0.090900935
11	0x3e528fb3	0.2056263
12	0xbe5ba43d	-0.2144937
13	0x3e1800ab	0.14844005
14	0x3cba044f	0.022707133
15	0xbdaf91af	-0.08572709
16	0xbd81e964	-0.06343344
17	0xbda3b864	-0.07994154
18	0x3ea8870b	0.3291553
19	0xbdcdedb1	-0.10055102
20	0x3e293fbc	0.16528219
21	0x3e44a7bf	0.19204615
22	0xbd54a605	-0.05191614
23	0x3ccfc7ce	0.025363829
24	0x3d709cf8	0.058743447
25	0xbbbbbcc2	-0.005729289
26	0xbda1bea5	-0.07897691
27	0xbcebe9bb	-0.028797975
28	0xbe4b3a7a	-0.19846526
29	0x3b9066b7	0.004406776
30	0x3e2ced2c	0.16887349
31	0x3dd7f971	0.10545624
32	0x3db8705f	0.09005808
33	0x3e8638c3	0.2621518
34	0xbdebe78b	-0.11518773
35	0x3da30426	0.079597756
36	0x3e874939	0.26423052
37	0xbe0dff9f	-0.13867043
38	0xbe6cba74	-0.23118001
39	0x3c301735	0.0107477205
40	0x3cd4fbe5	0.025999019
41	0xbcfc8883	-0.030826813
42	0x3e07b973	0.13254337
43	0x3dbe3707	0.092878394
44	0x3d35d5c5	0.04439332
45	0x3e68b02f	0.22723459
46	0xbc9b0e4f	-0.018927721
47	0xbe555bf3	-0.20835857
48	0xbe3daab9	-0.18522157
49	0xbb2d5aeb	-0.0026451896
50	0xbc948075	-0.01812766
51	0xbe026cda	-0.12736836
52	0x3bbf3380	0.0058349967
53	0x3e6c1b75	0.23057349
54	0xbe27d5c1	-0.16390134
55	0x3e3349c4	0.17508608
56	0xbd8faac6	-0.07014994
57	0xbe323619	-0.17403449
58	0x3dc5d670	0.09660041
59	0x3d91af70	0.0711354
60	0x3e1239e6	0.14279899
61	0x3e413159	0.18866481
62	0x3e02c881	0.12771799
63	0xbdddc376	-0.10828297
64	0xbd1063bf	-0.035251375
65	0xbc8a0381	-0.016847374
66	0xbe2cc09a	-0.16870347
67	0x3d0cd2b5	0.034380633
68	0x3df58886	0.119889304
69	0xbd873d61	-0.06603504
70	0xbc8a068c	-0.016848825
71	0x3e85d998	0.26142573
72	0xbdbc413f	-0.09192132
73	0x3e3dc64a	0.18532673
74	0xbe23712b	-0.15961139
75	0x3c977797	0.018489642
76	0x3ebc10d8	0.367316
77	0x3e082f3f	0.13299273
78	0x3d9f0234	0.07764092
79	0x3db46b86	0.08809571
80	0xbd318dcf	-0.04334813
81	0x3cef5813	0.029216802
82	0xbe180834	-0.14846879
83	0xbe629ed5	-0.22130902
84	0x3d2576e2	0.04039658
85	0xbe23b42c	-0.15986699
86	0xbe37d38a	-0.1795179
87	0x3d885f96	0.066588566
88	0x3d581310	0.052752554
89	0xbea26a10	-0.31721544
90	0x3ec5a34c	0.38601148
91	0x3d94ea0c	0.072712034
92	0xbe5fdf18	-0.21862447
93	0xbdd6449a	-0.104623035
94	0x3d3d8b2d	0.046275306
95	0x3de0a0a3	0.10968139
96	0x3c285e82	0.010276439
97	0xbd606ddd	-0.054792274
98	0x3e2e2571	0.1700647
99	0xbe126bdb	-0.14298956
100	0xbdf18a22	-0.11793925
101	0x3d245fc9	0.04013041
102	0xbe382b3c	-0.17985243
103	0x3c9b77da	0.018978048
104	0x3e601051	0.21881224
105	0x3d1e0ecd	0.038588334
106	0xbe02c284	-0.12769514
107	0x3e19e18e	0.15027449
108	0x3ca34374	0.019929625
109	0xbdd4cfa4	-0.10391167
110	0xbdae8f65	-0.08523444
111	0x3de80182	0.113284126
112	0x3c8108de	0.015751299
113	0xbe7ee596	-0.24892268
114	0x3e539937	0.20663916
115	0x3de46015	0.11151139
116	0xbe2f2402	-0.1710358
117	0xbe03ed7d	-0.12883563
118	0x3d5dccea	0.0541505
119	0xbdb1a63e	-0.08674286
120	0xbd86d4b5	-0.065835394
121	0x3e618a69	0.22025456
122	0xbe24976a	-0.16073385
123	0x3c4c4bcc	0.012469243
124	0x3eb4c73f	0.35308263
125	0xbcf48ef0	-0.029853314
126	0x3e885334	0.2662598
127	0xbe22d79a	-0.15902558
128	0xbce72bb3	-0.02821908
129	0x3e41d0ab	0.18927257
130	0x3d8b1fc9	0.06793172
131	0xbda55b22	-0.08074023
132	0xbdca35bd	-0.09873531
133	0xbdcfc336	-0.101446554
134	0x3df97f35	0.12182466
135	0xbe0ad883	-0.13559155
136	0xbe828ccf	-0.25498053
137	0xbca642bc	-0.020295493
138	0x3e076bc9	0.1322471
139	0x3e294e2f	0.16533731
140	0x3de197b7	0.110152654
141	0x3dffd43e	0.12491654
142	0xbcacac8a	-0.021078367
143	0x3e78979a	0.24276581
144	0x3d834900	0.06410408
145	0xbe326566	-0.17421493
146	0xbdcfab32	-0.10140075
147	0x3e5c9122	0.21539739
148	0x3e0dea54	0.1385892
149	0xbe3725c8	-0.17885506
150	0xbd4390a6	-0.04774537
151	0x3d373a22	0.044733174
152	0x3d5f7245	0.054552335
153	0xbcda2eb8	-0.026633605
154	0xbe26effc	-0.16302484
155	0x3cb22831	0.02174768
156	0x3e7349b8	0.2375859
157	0xbe000c25	-0.12504633
158	0xbe107b8e	-0.14109632
159	0x3cd91f20	0.0265041
160	0x3e664c87	0.2249013
161	0x3e0fee63	0.14055781
162	0x3d5a1190	0.053239405
163	0xbe9a2467	-0.30105898
164	0xbd33ea79	-0.043924782
165	0xbe1c9524	-0.15291268
166	0xbe031f44	-0.12804896
167	0xbe36594b	-0.178075
168	0x3e5bacfc	0.21452707
169	0xbe103dc9	-0.14086069
170	0xbca7686a	-0.02043553
171	0xbe2fd925	-0.17172678
172	0xbda845b4	-0.0821642
173	0x3cf0d383	0.029397732
174	0x3d9f066c	0.07764897
175	0xbda49c69	-0.08037645
176	0x3e9369a8	0.28791547
177	0xbdd72ca3	-0.10506561
178	0xbda54803	-0.08070376
179	0x3d2d3399	0.042285535
180	0x3e1f7fea	0.15576139
181	0xbd9de05f	-0.07708811
182	0x3e2130d3	0.15741281
183	0xbdf7fb5f	-0.12108492
184	0xbe7aebb4	-0.24503976
185	0x3dad3670	0.08457649
186	0xbe3280de	-0.17431971
187	0xbe0b8fa6	-0.13629016
188	0x3e18be7c	0.14916414
189	0xbd68735d	-0.056750644
190	0xbe6d81a6	-0.23193988
191	0xbd8ac4ae	-0.06775795
192	0xbd462b1e	-0.048380964
193	0x3e07b6cd	0.13253327
194	0x3dd0eff5	0.10202018
195	0xbcd115fd	-0.02552318
196	0x3e16a5a9	0.14711632
197	0x3e36fdd0	0.1787026
198	0x3e35c3fd	0.17750545
199	0xbd55a8b5	-0.052162845
200	0xbdf21fe2	-0.118224874
201	0x3d234e67	0.039869692
202	0xbc306128	-0.010765351
203	0x3dcd81cb	0.10034522
204	0xbdc6706b	-0.09689411
205	0xbe523941	-0.20529653
206	0x3e7ca320	0.24671602
207	0xbecb8536	-0.3975007
208	0xbe0c16ed	-0.1368062
209	0xbe7eeee4	-0.24895817
210	0xbd91de55	-0.071224846
211	0x3c99068f	0.018679885
212	0xbe31829e	-0.17334983
213	0x3dced3f2	0.10099019
214	0xba96fd7c	-0.0011519636
215	0xbdc56166	-0.09637718

weight f4 [24]
0	0x3f66e079	0.9018627
1	0x3f88b9bf	1.0681685
2	0x3f815b3d	1.0105969
3	0x3f721a44	0.9457133
4	0x3fa20f60	1.2660942
5	0x3f90c322	1.130955
6	0x3f809bb6	1.0047519
7	0x3f8f9f0b	1.1220411
8	0x3f8bf7f7	1.0935048
9	0x3f8813b7	1.0631016
10	0x3f80cc88	1.0062418
11	0x3f88c985	1.0686499
12	0x3f8da26e	1.1065195
13	0x3f89785a	1.0739853
14	0x3f7c9769	0.98668534
15	0x3f69ddc2	0.91354
16	0x3f845a8a	1.034013
17	0x3f82de45	1.0224081
18	0x3f858fe5	1.0434538
19	0x3f6b1983	0.918358
20	0x3f8c8c6f	1.0980357
21	0x3f5ec4f8	0.870193
22	0x3f410258	0.753942
23	0x3fa1e128	1.2646837

bias f4 [24]
0	0x3d17a352	0.03702099
1	0x3ed53ec6	0.41649455
2	0xbde34a02	-0.110981
3	0xbd348338	-0.044070452
4	0x3e167613	0.14693479
5	0xba8c026b	-0.0010681873
6	0xbd5c6a24	-0.05381216
7	0xbcc83143	-0.024437552
8	0x3d3a40db	0.045472007
9	0x3d9f791f	0.07786774
10	0xbdbebdfe	-0.09313582
11	0x3cf3c75e	0.029758152
12	0x3ea6ec6e	0.32602257
13	0x3d4771b6	0.048692428
14	0x3d6e2389	0.058139358
15	0xbe88dc19	-0.2673042
16	0xbd94415c	-0.07239029
17	0xbd87f040	-0.06637621
18	0x3e28769a	0.16451493
19	0xbe6b5357	-0.2298101
20	0x3e9adb5f	0.30245492
21	0xbd7fe33c	-0.062472567
22	0xbd47d506	-0.04878714
23	0x3dd1ac6e	0.102379665

running_mean f4 [24]
0	0xbc427e8f	-0.011870994
1	0xbd3c3521	-0.045949105
2	0x3e2c0708	0.16799557
3	0x3daf4f62	0.08560063
4	0x3d544ac6	0.051829122
5	0xbceafbce	-0.028684523
6	0x3e049700	0.12948227
7	0x3cb5a9a3	0.022175616
8	0x3e0b6e13	0.13616209
9	0xbe99ec5e	-0.30063146
10	0x3e03fe18	0.12889898
11	0xbd2d8700	-0.042365074
12	0xbd6a6e40	-0.05723405
13	0x3d8f87b8	0.07008308
14	0x3d32605e	0.043548934
15	0x3da5df3b	0.080992185
16	0x3c3a63da	0.0113763455
17	0x3d61fed6	0.05517467
18	0xbec6a833	-0.388002
19	0xbc871710	-0.01649049
20	0xbde21c72	-0.11040582
21	0x3d15c0d2	0.03656084
22	0x3ccdfb44	0.025144227
23	0xbeb9ae31	-0.3626571

running_var f4 [24]
0	0x3c65099f	0.013979345
1	0x3d3dafa5	0.046310086
2	0x3e94e0fb	0.29077896
3	0x3d761600	0.060079575
4	0x3d68c835	0.056831557
5	0x3bd3e9d8	0.0064670853
6	0x3c68c2db	0.014206613
7	0x3d7f7635	0.06236859
8	0x3e18ea8d	0.14933224
9	0x3d21b926	0.039483212
10	0x3b7c0cca	0.0038459771
11	0x3a7a617e	0.00095512706
12	0x3b0a7845	0.0021128815
13	0x3b3019f4	0.0026870938
14	0x3cd6ccdf	0.026220737
15	0x3da626c3	0.08112862
16	0x3bcb0af2	0.006196373
17	0x3cd3fa2f	0.025876133
18	0x3ea1e4e6	0.31619948
19	0x3c46c30b	0.012131463
20	0x3e0058b3	0.12533836
21	0x3cbf17fe	0.02332687
22	0x39ba99d6	0.000355913
23	0x3f3b9aaf	0.73282903

weight f4 [16, 24, 1, 1]
0	0x3eae3c0f	0.34030196
1	0xbe854fc8	-0.2603743
2	0x3e944295	0.28957048
3	0x3e0f46d9	0.1399187
4	0x3eb2352e	0.34806198
5	0x3ecd576c	0.4010576
6	0x3e3160b0	0.1732204
7	0x3d6e01f6	0.05810734
8	0x3e68aae5	0.22721441
9	0xbdc4b2a4	-0.096043855
10	0x3e24fb3d	0.16111465
11	0x3e33c480	0.17555428
12	0xbe896063	-0.2683135
13	0xbedb9100	-0.42884064
14	0xbdd6499b	-0.10463258
15	0xbe6282d6	-0.22120222
16	0xbdd34b4c	-0.10317096
17	0x3edf0594	0.43558943
18	0xbe4cdef8	-0.20006931
19	0x3d093a9b	0.033503156
20	0x3f233779	0.6375652
21	0x3cad9feb	0.021194419
22	0xbdfe069c	-0.124036044
23	0x3c3c273f	0.011483966
24	0xbdfc2042	-0.1231084
25	0xbddb6c21	-0.10713983
26	0x3dd873ad	0.105689384
27	0xbcb7037f	-0.022340534
28	0x3ec0a281	0.3762398
29	0x3ca48fbb	0.020088067
30	0x3eb1479d	0.3462495
31	0xbf11ac6a	-0.5690371
32	0x3e04b9a4	0.12961441
33	0xbe912f68	-0.2835648
34	0xbd8f7f5c	-0.07006714
35	0x3ea8a324	0.32936966
36	0x3de8a1ca	0.11358984
37	0x3e830199	0.25587156
38	0xbe8580dc	-0.26074874
39	0xbdc2b319	-0.095068164
40	0x3e927e22	0.28611857
41	0x3d5a9caa	0.053372063
42	0xbe02fb2e	-0.1279113
43	0x3e80c24c	0.25148237
44	0xbe5b37b8	-0.21407974
45	0x3e86bb0d	0.26314583
46	0xbe52b338	-0.20576179
47	0xbe9918cb	-0.29901728
48	0xbdac2686	-0.08405785
49	0xbe17dcfd	-0.14830394
50	0x3e967b27	0.29390833
51	0x3ed4a20b	0.4152988
52	0x3e108ee7	0.14117013
53	0x3cb1f6d4	0.021724142
54	0xbdc062c2	-0.093938366
55	0x3d3829b1	0.044961635
56	0x3d14f3a4	0.036365166
57	0x3de20067	0.11035233
58	0x3d5e074b	0.054206174
59	0x3e1b1379	0.15144147
60	0x3e0ab474	0.135454
61	0x3e9efcce	0.3105225
62	0xbc8e8976	-0.01739953
63	0x3e4483bc	0.19190878
64	0x3c303d8c	0.010756861
65	0xbd9becde	-0.07613538
66	0xbe968adf	-0.29402825
67	0x3e66341b	0.22480814
68	0x3e89206b	0.26782545
69	0x3ed88980	0.42292404
70	0x3ee6c432	0.4507156
71	0xbe94105d	-0.28918734
72	0x3d85085f	0.06495737
73	0xbde64957	-0.11244457
74	0x3e2a5296	0.16633067
75	0xbe4741d8	-0.19458711
76	0x3e739cf8	0.23790348
77	0xbeb942e7	-0.36183855
78	0x3e4a90d3	0.19781809
79	0xbdc5bdfe	-0.09655379
80	0xbe88e836	-0.26739663
81	0x3eddeda0	0.43345356
82	0xbe6c022d	-0.23047705
83	0x3e30a7a4	0.1725145
84	0x3d51dd9f	0.051236745
85	0xbe8606d7	-0.26177093
86	0x3db8f5b0	0.09031236
87	0xbeb75c52	-0.35812622
88	0x3ddc1063	0.10745313
89	0x3b080d36	0.0020759827
90	0x3f0f991d	0.5609301
91	0xbe8b15d8	-0.27165103
92	0x3e2a8d06	0.16655359
93	0x3e1a89cb	0.15091626
94	0xbcfec960	-0.031101882
95	0xbf32cc01	-0.69842535
96	0x3e44b29c	0.19208759
97	0xbdc909be	-0.09816311
98	0xbdbea15a	-0.09308119
99	0x3e849a39	0.25898913
100	0x3e73ef4e	0.23821756
101	0xbf04036c	-0.5156772
102	0xbe381706	-0.17977533
103	0xbd30952f	-0.043111023
104	0x3df522d3	0.11969533
105	0xbec10c57	-0.37704727
106	0x3e644b7b	0.22294419
107	0xbdefc4b3	-0.11707439
108	0x3e50023a	0.2031335
109	0xbe105155	-0.14093526
110	0xbeca8dbf	-0.3956127
111	0x3e922be1	0.28549102
112	0xbe8b1724	-0.27166092
113	0x3d225a48	0.03963688
114	0xbe498de4	-0.19683033
115	0xbe845cfe	-0.25852197
116	0xbeac041b	-0.33596882
117	0xbec575e7	-0.38566515
118	0x3ca95164	0.020668693
119	0x3ee4adb3	0.44663772
120	0xbe942acd	-0.28938904
121	0x3e1971a2	0.14984754
122	0x3e34508f	0.17608856
123	0xbd68610e	-0.056733184
124	0x3df30be6	0.11867504
125	0xbea9a5be	-0.33134264
126	0xbe85da0d	-0.26142922
127	0xbebc783e	-0.36810488
128	0x3eacba92	0.33736092
129	0x3e2b4e9d	0.16729207
130	0xbe627f2e	-0.22118828
131	0x3c72f610	0.014829174
132	0xbee5e798	-0.44903255
133	0xbe84b3f6	-0.2591855
134	0x3dcf7490	0.101296544
135	0xbe8791d5	-0.2647845
136	0xbd55dd95	-0.05221327
137	0xbd54eda4	-0.051984444
138	0x3ba5f532	0.00506463
139	0xbdd058cf	-0.10173189
140	0x3e0953e5	0.1341091
141	0xbe7f7d6a	-0.24950185
142	0xbe22864a	-0.1587154
143	0xbe712009	-0.23547377
144	0xbca85896	-0.020550054
145	0xbe4e220e	-0.20130178
146	0x3d465b57	0.048426952
147	0xbe06ff44	-0.13183314
148	0x3ee07c8e	0.43845028
149	0xbe89440f	-0.26809737
150	0xbeabe212	-0.33570915
151	0x3e14e8ff	0.14542006
152	0x3da60e87	0.081082396
153	0xbe91de5e	-0.28489965
154	0xbd6d5375	-0.05794092
155	0x3edcf49f	0.4315538
156	0xbe18a326	-0.14905986
157	0x3e9939d0	0.2992692
158	0xbe8229c6	-0.25422496
159	0xbd34cb18	-0.044138998
160	0x3dc41d9e	0.095759615
161	0x3eae9619	0.3409889
162	0x3d4d8435	0.05017491
163	0x3d59e9e7	0.053201582
164	0x3d39ad5e	0.04533135
165	0x3ef46a24	0.4773723
166	0x3b15aef0	0.0022839867
167	0x3d4fab9f	0.05070078
168	0xbda19ac8	-0.0789085
169	0x3e443671	0.19161393
170	0xbe876ddd	-0.26451007
171	0x3eed7bc9	0.46383503
172	0x3e4a029d	0.1972756
173	0xbe81ab74	-0.2532612
174	0xbebefbe1	-0.37301543
175	0xbe832667	-0.25615236
176	0x3e95fe2a	0.29295474
177	0x3e83a190	0.257092
178	0x3ee3ca7b	0.44490418
179	0xbd9c09f5	-0.07619087
180	0xbe8dd403	-0.27700815
181	0x3b852ede	0.004064425
182	0xbe9f7022	-0.31140238
183	0x3ec5dcdf	0.38645074
184	0xbea0e1d2	-0.31422287
185	0x3dde7737	0.10862582
186	0xbe2725e9	-0.16323055
187	0x3e12f361	0.14350654
188	0x3ebaf0a4	0.3651172
189	0xbe4f5461	-0.20247032
190	0x3d07597e	0.03304433
191	0xbeccd22a	-0.40004092
192	0x3e8f590b	0.27997622
193	0x3e8197ef	0.2531123
194	0x3e8ecea9	0.27892044
195	0x3e0a5554	0.13509113
196	0xbd73c116	-0.059510313
197	0xbe837b92	-0.25680214
198	0x3e2087dc	0.15676826
199	0x3eec9994	0.4621092
200	0x3ed87cd2	0.4228273
201	0x3e4df786	0.20113954
202	0xbe2b57db	-0.16732733
203	0xbec08702	-0.37603003
204	0x3b2e6612	0.0026611132
205	0x3d52634b	0.051364224
206	0xbdf6b72d	-0.12046657
207	0xbea8fe82	-0.33006674
208	0x3d200a4d	0.039072324
209	0x3e0bc8b7	0.13650785
210	0xbec9222d	-0.39283887
211	0x3c1ef121	0.009701044
212	0x3e3c98f3	0.1841772
213	0xbd9a5a7f	-0.07536792
214	0xbc921287	-0.0178311
215	0xbe013df5	-0.12621291
216	0xbeffe8f5	-0.4998242
217	0xbe299d7f	-0.16563986
218	0x3d23b0d6	0.039963566
219	0xbe5da3f1	-0.2164457
220	0xbdf81bec	-0.12114701
221	0xbeb6749d	-0.35635844
222	0xbdef0e7b	-0.11672684
223	0xbcd271e9	-0.025689082
224	0x3dae8e8d	0.08523283
225	0xbe269f5b	-0.16271727
226	0x3eb7628d	0.35817376
227	0xbe61ac2f	-0.22038339
228	0x3ae47a85	0.0017431533
229	0xbe05e711	-0.13076426
230	0x3df34256	0.11877887
231	0x3e8b4cde	0.27207083
232	0x3e351e2b	0.1768729
233	0xbebcd3e7	-0.3688042
234	0x3e8b5534	0.27213442
235	0x3e805766	0.2506668
236	0x3ee5a5bb	0.44853005
237	0x3d59c563	0.05316676
238	0xbdb26608	-0.08710867
239	0x3e86f17b	0.2635611
240	0x3e2a58fc	0.16635507
241	0x3e2a940d	0.1665804
242	0x3e6b500f	0.22979759
243	0xbe7ebe44	-0.24877268
244	0x3e85e258	0.2614925
245	0x3dc7aa35	0.09749261
246	0xbeac19a3	-0.3361331
247	0xbe2036fe	-0.15645978
248	0xbbe29944	-0.0069152433
249	0x3e2faee0	0.17156553
250	0x3ed1d9ef	0.40986583
251	0x3e2f13ba	0.17097369
252	0xbe6774b8	-0.22603118
253	0x3e61820b	0.22022264
254	0x3edee676	0.43535203
255	0xbecf77a3	-0.40520963

weight f4 [16]
0	0x3f77110c	0.96510386
1	0x3f633f3f	0.8876838
2	0x3f4d567b	0.80210084
3	0x3f733f65	0.9501861
4	0x3f5f2b91	0.8717585
5	0x3f851bc7	1.0399102
6	0x3f5ade18	0.8549514
7	0x3f547f3a	0.8300663
8	0x3f828d4d	1.0199372
9	0x3f6cf654	0.92563367
10	0x3f6bf775	0.92174464
11	0x3f86ab37	1.0521001
12	0x3f8c80cb	1.0976804
13	0x3f701c62	0.9379331
14	0x3f5a41f2	0.85256875
15	0x3f890567	1.0704774

bias f4 [16]
0	0xbc004bc1	-0.007830561
1	0x3b9fe83a	0.0048799785
2	0x3b2b6b5d	0.0026156523
3	0x3bc40b93	0.005982825
4	0x3b6895f0	0.003548976
5	0xbbe5f438	-0.0070176385
6	0xbc214bf7	-0.009844772
7	0xbbd6b3b7	-0.0065521854
8	0xbcc9c2c9	-0.024629014
9	0x3c2e48b7	0.010637454
10	0x3c0e9e65	0.008704756
11	0x3aaf2183	0.0013361428
12	0x3c17545c	0.009236421
13	0xbc1dc585	-0.009629612
14	0xbcc90554	-0.024538673
15	0x3b995799	0.004679632

running_mean f4 [16]
0	0x3ebbeca8	0.36703992
1	0xbccd8671	-0.02508852
2	0x3f124f24	0.5715201
3	0xbc9aeb94	-0.01891116
4	0xbeefd8a8	-0.46844983
5	0xbf1db8f3	-0.61610335
6	0x3daa8cae	0.08327614
7	0x3c0c43e4	0.008561108
8	0x3e270bf0	0.16313148
9	0x3da0cf1c	0.07852003
10	0x3ec0c474	0.37649882
11	0xbefa2cae	-0.48862213
12	0x3ebdd357	0.37075302
13	0x3d184b06	0.037180923
14	0xbe7718c7	-0.24130546
15	0x3f2ce03a	0.6752964

running_var f4 [16]
0	0x3fae880d	1.3635269
1	0x3f0ce75a	0.55040514
2	0x3f8513cf	1.039667
3	0x3ebfa642	0.37431532
4	0x3ed2ef9a	0.41198426
5	0x3efc41f9	0.49269083
6	0x3f123809	0.5711675
7	0x3eb86a19	0.36018446
8	0x3f17c6e0	0.59287834
9	0x3f46882b	0.77551526
10	0x3f4f24ac	0.8091533
11	0x3ea0cd4a	0.31406623
12	0x3f317faa	0.69335425
13	0x3ef96874	0.48712504
14	0x3efa0cea	0.48837978
15	0x3f88f9ab	1.0701193

weight f4 [48, 16, 1, 1]
0	0xbe8a9784	-0.27068722
1	0x3e9139e5	0.28364483
2	0xbeb795d9	-0.35856512
3	0x3d91faf6	0.07127945
4	0x3e8936e7	0.267997
5	0xbe4fb04e	-0.20282099
6	0x3dbdcc6c	0.09267506
7	0xbe093a01	-0.13401033
8	0xbe1f13f4	-0.15534955
9	0x3eaeb4ec	0.34122407
10	0xbdd07e48	-0.10180336
11	0x3ea03ca5	0.31296268
12	0xbcc5af64	-0.024131484
13	0xbd7a9850	-0.061180413
14	0x3e181c97	0.14854656
15	0x3daf8cd2	0.08571781
16	0x3e154b23	0.14579444
17	0xbe23b8e1	-0.15988494
18	0xbd1c52e7	-0.038165
19	0x3e0af825	0.13571222
20	0xbe86f4d6	-0.2635867
21	0xbe30bbe0	-0.17259169
22	0x3ebacbdf	0.36483666
23	0xbe12673c	-0.14297193
24	0x3d853daa	0.06505902
25	0xbe7e6514	-0.24843246
26	0x3dd421a4	0.10357979
27	0xbea263a2	-0.3171664
28	0x3e56700f	0.20941184
29	0x3ec5113d	0.38489714
30	0xbded7c00	-0.11595917
31	0xbdacf23a	-0.084446386
32	0x3dbbf248	0.09177071
33	0xbe7faf60	-0.24969244
34	0x3bd3aec4	0.0064600427
35	0x3e7fea12	0.24991634
36	0xbe3bb078	-0.18329036
37	0x3e985236	0.29750222
38	0xbe3fe1ef	-0.1873853
39	0x3eafea20	0.3435831
40	0x3d5ffbfc	0.05468367
41	0xbe90e88d	-0.28302422
42	0xbd4dfbf8	-0.050289124
43	0xbe84a50b	-0.25907168
44	0x3ed114aa	0.40836078
45	0x3e6061a6	0.2191225
46	0x3e4fcdf0	0.20293403
47	0xbe2a2e6f	-0.16619276
48	0xbe789e2b	-0.24279086
49	0xbd0156fa	-0.031577088
50	0x3d85b0e6	0.06527881
51	0x3ddf2927	0.10896521
52	0xbda58802	-0.08082582
53	0xbe91fd2f	-0.28513476
54	0x3e5a0acd	0.21293183
55	0x3dc74da5	0.097316064
56	0xbeb3bf78	-0.35107017
57	0x3e91ed8d	0.2850155
58	0x3e220244	0.15821177
59	0x3de86f12	0.1134931
60	0x3e0ce8c5	0.1376067
61	0x3e29a75b	0.16567747
62	0xbe8ded7b	-0.27720246
63	0xbe1f4e46	-0.15557203
64	0x3e4872e8	0.19575083
65	0xbdba9eb1	-0.09112299
66	0xbe351686	-0.17684373
67	0xbe669f68	-0.22521746
68	0x3e82efbd	0.2557353
69	0xbe4e2cff	-0.20134352
70	0x3e516d92	0.20451954
71	0x3e651ac5	0.22373493
72	0xbe8cedac	-0.2752508
73	0x3dfad7e9	0.12248213
74	0xbda2a67e	-0.07941912
75	0x3e8b2106	0.27173632
76	0xbe4dc7b4	-0.20095712
77	0xbe7e8499	-0.2485527
78	0xbda22f1e	-0.07919143
79	0x3e7e6139	0.24841775
80	0xbd80be9b	-0.06286355
81	0x3e464ddb	0.19365637
82	0xbe5fc6f9	-0.21853246
83	0xbd899f43	-0.0671983
84	0xbe9fb268	-0.311908
85	0xbe6279a4	-0.22116715
86	0xbdee3ee1	-0.11633087
87	0xbdb975f7	-0.09055703
88	0xbdbc782f	-0.09202611
89	0xbd6920bf	-0.056915995
90	0xbe0d2fb9	-0.13787736
91	0x3e221175	0.15826972
92	0x3ef77365	0.48330227
93	0x3d347035	0.04405232
94	0x3e6950d6	0.22784743
95	0x3d0853ef	0.03328317
96	0xbbca4636	-0.0061729206
97	0x3efadcfa	0.48996717
98	0xbe2812a2	-0.16413358
99	0xbe7559bb	-0.2396001
100	0xbd9abb5b	-0.075552665
101	0xbe808807	-0.2510378
102	0xbe5659f1	-0.20932747
103	0xbbdd127e	-0.006746589
104	0xbecd19f2	-0.40058857
105	0xbe9f39dc	-0.3109883
106	0x3dcfff11	0.10156072
107	0xbc5efd86	-0.013610249
108	0x3e9e6384	0.309353
109	0x3e7642ac	0.24048871
110	0xbe45d952	-0.19321182
111	0x3e0b4e0f	0.13603996
112	0xbdc0efda	-0.09420748
113	0x3dc3c1d1	0.09558452
114	0xbe9292f1	-0.28627732
115	0x3cc85562	0.024454776
116	0x3e68468c	0.22683161
117	0x3dc6da9a	0.09709664
118	0xbe6b68ef	-0.22989248
119	0xbea18600	-0.31547546
120	0x3bf93017	0.0076046097
121	0x3e4e56de	0.20150325
122	0x3dc054bb	0.09391161
123	0xbea0d0c1	-0.31409267
124	0x3e5da166	0.216436
125	0x3e3bfdaf	0.18358491
126	0xbde89f4c	-0.113585085
127	0xbdfb6291	-0.122746594
128	0x3e7194bc	0.23591894
129	0x3e9fe26f	0.31227443
130	0xbe9666a1	-0.29375175
131	0xbe830d2b	-0.25595984
132	0xbcf86e47	-0.030326022
133	0xbeb9db60	-0.36300182
134	0x3db40955	0.087908424
135	0xbb8f46fa	-0.0043724747
136	0xbe1641ca	-0.14673534
137	0xbe477ff5	-0.19482405
138	0x3e6d6bd9	0.23185672
139	0x3ce4290d	0.027851606
140	0x3e20eaf4	0.15714628
141	0x3e1ac8ce	0.15115663
142	0xbe02e25d	-0.12781663
143	0xb773d621	-1.4533784e-05
144	0x3d7996d7	0.060934868
145	0xbca800dd	-0.020508224
146	0x3a941c7d	0.0011299994
147	0x3e3176b4	0.17330438
148	0xbe8af030	-0.27136374
149	0x3d5854fc	0.052815422
150	0xbd0fc554	-0.035100296
151	0xbe283b2c	-0.16428822
152	0xbde46be5	-0.11153392
153	0xbe50cb99	-0.20390166
154	0x3d6f53c8	0.05842951
155	0x3c105e6e	0.008811576
156	0x3ea6a476	0.3254735
157	0x3ec070a2	0.37585932
158	0xbdc22266	-0.09479217
159	0x3ec824bf	0.39090535
160	0xbe1b1faf	-0.15148805
161	0x3ea9be66	0.33153075
162	0x3e67f9c6	0.22653875
163	0xbe3202a6	-0.17383823
164	0x3d9503b6	0.072760984
165	0xbd8a5ca3	-0.0675595
166	0xbca0743f	-0.01958668
167	0x3cacd580	0.021097898
168	0xbe52b7df	-0.20577954
169	0x3e824f0e	0.2545094
170	0x3e5dbbcc	0.2165367
171	0xbea99d08	-0.33127618
172	0xbe7e3b78	-0.24827373
173	0xbe6cdbe4	-0.23130757
174	0x3e2af095	0.16693337
175	0x3e9cb8d3	0.3060976
176	0x3e5d4441	0.21608068
177	0xbe980a75	-0.29695478
178	0xbde1829d	-0.11011241
179	0xba0ece83	-0.0005447643
180	0x3e696b61	0.22794868
181	0x3e4bb533	0.19893341
182	0xbeefc9d6	-0.46833676
183	0x3c8b9dbf	0.017042993
184	0xbe8414a9	-0.25797012
185	0x3e911a2f	0.2834029
186	0xbd934541	-0.071909435
187	0xbdc81002	-0.09768678
188	0x3bfcaa33	0.007710719
189	0xbdd66776	-0.10468952
190	0xbe36a67c	-0.17836946
191	0x3d8a4f33	0.06753387
192	0x3d55e379	0.052218888
193	0xbdb3d956	-0.08781688
194	0x3e2872b4	0.16450006
195	0xbe95ac11	-0.2923284
196	0xbe1df4b9	-0.15425386
197	0x3eae1c7b	0.34006104
198	0x3e819711	0.25310567
199	0xbd6bb3ae	-0.057544403
200	0x3e698c74	0.22807485
201	0x3e46c4c0	0.19410992
202	0x3e391c72	0.18077257
203	0xbeb935f8	-0.36173987
204	0xbd6c412a	-0.057679333
205	0x3e0e4ed6	0.13897261
206	0x3e5e77a6	0.2172533
207	0xbe3c8c5f	-0.18412922
208	0x3d286039	0.04110739
209	0x3d24e340	0.040255785
210	0x3dd377af	0.10325562
211	0xbe59fa6d	-0.21286936
212	0xbdbfc32a	-0.093633965
213	0x3dbdbe7b	0.09264847
214	0xbdee0501	-0.11622048
215	0x3e80fb63	0.25191793
216	0xbeeff4e1	-0.46866515
217	0x3dd5218b	0.104067884
218	0xbea5832f	-0.32326648
219	0xbeb5f358	-0.3553722
220	0xbe0c8aa8	-0.13724768
221	0x3d28106a	0.04103128
222	0x3df1a100	0.117982864
223	0x3ebcc5d5	0.36869684
224	0x3e494395	0.19654687
225	0x3eaef8e6	0.3417427
226	0x3e3759ae	0.17905304
227	0xbe6f1e68	-0.23351443
228	0x3e5a5ac3	0.21323685
229	0x3e82eb42	0.25570112
230	0x3cce35d3	0.02517215
231	0x3e05f820	0.13082933
232	0x3df38f10	0.118925214
233	0x3e8542b0	0.2602744
234	0x3b6ad0fa	0.0035830126
235	0x3e8642e5	0.2622291
236	0x3d984c62	0.07436444
237	0x3d5c4bb5	0.053783137
238	0xbe942b25	-0.28939167
239	0xbd614d01	-0.055005077
240	0xbd9ee4c0	-0.07758474
241	0xbdd80c1d	-0.105491854
242	0xbe217b42	-0.15769675
243	0x3e0aa8ab	0.13540904
244	0x3db0ef36	0.08639376
245	0xbe238cff	-0.15971754
246	0xbe90084a	-0.28131324
247	0x3e1ba360	0.15199041
248	0x3ead4307	0.338402
249	0x3d046b86	0.032329105
250	0xbeabf7ce	-0.33587497
251	0xbea95b9e	-0.3307771
252	0x3d8bf253	0.06833329
253	0xbe8a40f9	-0.27002695
254	0xbe2bb7b9	-0.16769303
255	0xbcce0413	-0.025148427

weight f4 [48]
0	0x3f6b35c4	0.91878915
1	0x3f918ace	1.1370485
2	0x4009c54e	2.1526675
3	0x3f76b541	0.9637032
4	0x3fc48937	1.5354375
5	0x3f7b12b7	0.9807543
6	0x3f835022	1.025883
7	0x3f68e88c	0.9097984
8	0x3fb07db5	1.3788363
9	0x3f1c1e90	0.60984135
10	0x3f5c18da	0.8597542
11	0x3f96a5be	1.176933
12	0x3f60910a	0.8772131
13	0x3faba41d	1.3409458
14	0x3f52617b	0.82179993
15	0x3f577806	0.84167516
16	0x3f450b52	0.769704
17	0x3f74cf4a	0.956288
18	0x3f885eee	1.065397
19	0x3f8a2f7e	1.0795743
20	0x3fd838bf	1.6892318
21	0x3f5d7f77	0.8652262
22	0x3f8917c6	1.071038
23	0x3f260e72	0.6486579
24	0x3f72876f	0.94737905
25	0x3f34ba09	0.7059637
26	0x3f80732e	1.003515
27	0x3f9b5132	1.2134154
28	0x3f6d7b32	0.92766106
29	0x3f171e57	0.5903067
30	0x3f930fa7	1.1489152
31	0x3f99ca2d	1.2014824
32	0x3fb32eb4	1.3998628
33	0x3f5d7745	0.86510116
34	0x3f5a38ac	0.85242724
35	0x3f85d889	1.0456706
36	0x3f88a312	1.0674765
37	0x3f5b64d2	0.85700715
38	0x3f80ea36	1.0071476
39	0x3f8717d5	1.0554148
40	0x3f873cf9	1.0565482
41	0x3f896436	1.0733707
42	0x3f85a4c2	1.0440905
43	0x3f6cd40a	0.92511046
44	0x3f9ec9c8	1.2405329
45	0x3f3a1875	0.7269357
46	0x3f7e2a16	0.9928297
47	0x3f7e8a36	0.99429643

bias f4 [48]
0	0xbdd825f8	-0.10554117
1	0x3dd7cbc2	0.105369106
2	0xbbf9d6ee	-0.0076244986
3	0x3db596d9	0.088666625
4	0x3d541ee7	0.051787283
5	0x3dc6e260	0.09711146
6	0x3d919b33	0.0710968
7	0x3e0147ee	0.12625095
8	0x3e32df42	0.17467979
9	0xbd0e3443	-0.03471781
10	0x3df456f9	0.11930651
11	0x3d092f4d	0.033492375
12	0x3e328e5b	0.17437117
13	0x3c36b28a	0.0111509655
14	0xbd98c6cd	-0.07459793
15	0x3d942184	0.07232955
16	0x3e0ad439	0.13557519
17	0xbdadf34a	-0.08493669
18	0x3e092553	0.13393144
19	0x3e8d4135	0.27588812
20	0x3cad1907	0.021130098
21	0x3e223b0c	0.15842837
22	0x3d3dccba	0.04633782
23	0x3d64be03	0.05584527
24	0xbe1512ec	-0.14558
25	0x3c2da1e9	0.010597684
26	0x3e0db626	0.13839015
27	0xbe6baaed	-0.23014422
28	0x3deda42a	0.116035774
29	0xbe5d8ccb	-0.2163574
30	0x3e131ed0	0.14367223
31	0x3ebc2541	0.36747172
32	0x3d0f8ea7	0.035048153
33	0xbe0d4458	-0.13795602
34	0xbe3f46b6	-0.18679318
35	0xbe08fcc3	-0.13377671
36	0x3bcdbd54	0.006278673
37	0x39bea25b	0.00036360588
38	0x3d91e073	0.071228884
39	0x3db4b3da	0.088233665
40	0x3e786145	0.24255855
41	0x3e32bfa9	0.17455925
42	0xbe2ed2c2	-0.17072585
43	0x3e073fac	0.13207883
44	0xbcfa2125	-0.030533383
45	0xbe6f4846	-0.23367414
46	0x3e3ed56a	0.18636099
47	0xbd96e6b4	-0.07368222

running_mean f4 [48]
0	0x3c1aa860	0.009439558
1	0xbbdab3d9	-0.0066742715
2	0xbc51c813	-0.012804049
3	0x3ca7ff62	0.020507518
4	0x3bd35a0e	0.0064499443
5	0x3afcd0f3	0.0019288346
6	0x3c8f8452	0.01751915
7	0x3c216544	0.009850804
8	0x3bbb2e35	0.0057122954
9	0x3baa28a6	0.005192834
10	0x3c1dcf87	0.009631998
11	0x3c73867c	0.014863607
12	0xbc913f37	-0.017730338
13	0x3b801f29	0.0039099646
14	0x3b8c9afe	0.0042909374
15	0xb9e4e575	-0.00043658508
16	0xbc383d7b	-0.011245127
17	0x3b8e2e4a	0.004339014
18	0x3be26355	0.006908814
19	0x3af0f91a	0.0018384785
20	0x3b9be870	0.0047579333
21	0xbb733ef0	-0.003711637
22	0x3a04b8c0	0.000506293
23	0x3b2f662b	0.0026763778
24	0xbcb516a6	-0.022105526
25	0xbb0bf638	-0.0021356475
26	0xbc66bfd4	-0.014083821
27	0x3bae9ff4	0.0053291265
28	0x3c693210	0.014233127
29	0xbbe81c1d	-0.0070834295
30	0x3ba919fe	0.005160569
31	0x3c0c1c0d	0.00855161
32	0x3c178adb	0.009249414
33	0xbc0441e9	-0.008072355
34	0x3b5a454d	0.0033305467
35	0x3bb49585	0.005510988
36	0xba4840d7	-0.00076390564
37	0xbc05552b	-0.008137981
38	0x3c856315	0.016282598
39	0xbc2ec644	-0.010667387
40	0xbb907112	-0.0044080103
41	0x3c00e796	0.007867714
42	0xbc7b6dea	-0.01534603
43	0xbc62a21a	-0.013832593
44	0xbab2d812	-0.0013644716
45	0xbc2e28c5	-0.010629837
46	0x3bb49784	0.005511226
47	0x3c0ce775	0.0086001055

running_var f4 [48]
0	0x3f530d0e	0.82441795
1	0x3f0e84db	0.5567147
2	0x3eb7e660	0.3591795
3	0x3f343d90	0.70406437
4	0x3ecbaf2d	0.39782086
5	0x3f9ecf25	1.2406965
6	0x3f4f44a5	0.8096412
7	0x3f3e1aab	0.7425944
8	0x3ef85039	0.48498705
9	0x3ee0feed	0.43944493
10	0x3f6b7f3b	0.91991013
11	0x3f27a21e	0.65481746
12	0x3f128784	0.5723803
13	0x3f26c887	0.6514973
14	0x3e7758ee	0.24155018
15	0x3f801abc	1.0008159
16	0x3ef542e9	0.4790261
17	0x3fc2f93f	1.5232314
18	0x3f4b3dfc	0.79391456
19	0x3fc5c255	1.544993
20	0x3f4538e2	0.7703992
21	0x3f822760	1.0168266
22	0x3f35798a	0.7088858
23	0x3e9e841d	0.3096017
24	0x3f890371	1.0704175
25	0x3f3ee109	0.74562126
26	0x4020d459	2.5129607
27	0x3f5f899c	0.8731935
28	0x3edc8cc6	0.43076152
29	0x3ef16104	0.4714433
30	0x3f553f7a	0.8329998
31	0x3f7c3d08	0.98530626
32	0x3f8cf48c	1.101213
33	0x3f972803	1.1809086
34	0x3fe5060f	1.7892474
35	0x3ff81c16	1.9383571
36	0x3f0fba81	0.5614396
37	0x3f1546e6	0.5831131
38	0x3fc646cc	1.5490355
39	0x3f808736	1.0041263
40	0x3f52083c	0.82043815
41	0x3e9643be	0.29348558
42	0x3fa7540b	1.3072523
43	0x3f5af7b9	0.85534245
44	0x3f295eca	0.6616026
45	0x3ed65814	0.41864073
46	0x3f11cc09	0.5695196
47	0x3f3a32d1	0.7273379

weight f4 [48, 1, 3, 3]
0	0x3d8a9ff6	0.067687914
1	0xbcef9733	-0.029246902
2	0x3e33019c	0.17481083
3	0xbdd77b72	-0.10521592
4	0x3cb30dd5	0.021857182
5	0x3d94275b	0.07234069
6	0x3cf9413a	0.03042661
7	0x3ddc2630	0.10749471
8	0xbeb25121	-0.3482752
9	0x3e275801	0.16342165
10	0x3d8e5296	0.06949346
11	0x3df37cb8	0.118890226
12	0x3e4b6702	0.19863513
13	0x3e94b720	0.29045963
14	0x3e1f57da	0.15560856
15	0xbd53e264	-0.051729575
16	0xbca56749	-0.020190852
17	0xbd49f695	-0.049307425
18	0x3defffa4	0.117186815
19	0x3de60459	0.11231298
20	0xbe1bc722	-0.15212682
21	0xbe85adee	-0.2610926
22	0xbe31ea99	-0.17374648
23	0x39faabbc	0.00047811668
24	0xbe376e00	-0.17913055
25	0x3dc01e96	0.09380834
26	0x3d1f42ca	0.038882054
27	0xbe364fe0	-0.17803907
28	0x3ca1a35b	0.019731214
29	0x3daee9db	0.08540698
30	0xbcb13e37	-0.021636112
31	0x3e089aef	0.13340352
32	0xbd72dd7a	-0.059293248
33	0x3e58f16f	0.2118585
34	0x3d48c61f	0.049017068
35	0xbe134b7b	-0.14384262
36	0xbdcc9e96	-0.09991185
37	0xbd62590a	-0.055260696
38	0xbe171fd2	-0.14758232
39	0x3cbdc28a	0.023164053
40	0xbc183dfc	-0.009292122
41	0xbe00784e	-0.12545893
42	0xbe1084d8	-0.14113176
43	0xbe252fe9	-0.16131558
44	0xbe9791d3	-0.29603443
45	0x3bb433f7	0.0054993588
46	0xbe0c5671	-0.1370485
47	0xbda98b8f	-0.08278572
48	0x3d52eae5	0.051493544
49	0xbd44eae1	-0.04807556
50	0x3ea5af25	0.32360187
51	0x3d97a987	0.07405382
52	0x3d851a13	0.06499114
53	0x3dbd879b	0.0925438
54	0x3de0e7d2	0.10981716
55	0x3db478d3	0.08812108
56	0x3d962942	0.07332088
57	0x3d09eb87	0.033671882
58	0xbd9b1908	-0.07573134
59	0x3e25ae44	0.16179758
60	0x3e37300d	0.17889424
61	0xbba2cbb6	-0.004968132
62	0x3e5841f9	0.21118917
63	0xbd79b59d	-0.060964216
64	0xbd5cd6b7	-0.053915706
65	0x3ca74a24	0.020421095
66	0xbea33545	-0.3187658
67	0x3c0529ea	0.008127669
68	0x3e68e5a1	0.22743846
69	0xbd75424f	-0.05987769
70	0x3ca66497	0.020311637
71	0xbac7498f	-0.0015204417
72	0x3e1c3885	0.15255935
73	0xbd0945ac	-0.03351371
74	0x3e49da32	0.19712141
75	0xbe04085f	-0.12893818
76	0x3e345d82	0.17613795
77	0xbe0004f6	-0.12501892
78	0xbe7a2cfa	-0.2443122
79	0xbdcee6bf	-0.10102605
80	0x3c2ad66e	0.010427101
81	0x3e260a0a	0.16214767
82	0x3ce2a25a	0.027665306
83	0x3e06429a	0.13111344
84	0xbe4f89e2	-0.20267442
85	0xbde9999d	-0.114062525
86	0x3d70b9e2	0.05877102
87	0xbca4ecd4	-0.02013246
88	0x3e223105	0.15839012
89	0xbe25809e	-0.16162345
90	0x3c960531	0.018313022
91	0x3e1b5a74	0.15171224
92	0x3d93945a	0.0720603
93	0x3e2a0083	0.16601758
94	0xbe36c545	-0.1784869
95	0xbdb93dfb	-0.09045025
96	0xbc8dc756	-0.017306965
97	0x3d2ebbb5	0.04265948
98	0xbea80248	-0.3281424
99	0xbd91eb28	-0.071249306
100	0x3cfd3704	0.030910023
101	0xbd13bc83	-0.03606845
102	0xbcc3aab2	-0.023885105
103	0x3e55c962	0.20877603
104	0x3e315b70	0.17320037
105	0xbb8b8553	-0.004257837
106	0x3e584f99	0.21124114
107	0x3e5e0f6e	0.21685573
108	0x3e1d9a56	0.15390906
109	0x3d5efa4c	0.05443792
110	0xbe3453f1	-0.17610146
111	0xbdd4f12a	-0.10397561
112	0xbdf6d28c	-0.120518774
113	0x3e27dc64	0.16392666
114	0xbdac31b0	-0.08407915
115	0x3e000cc9	0.12504877
116	0xbe5a365e	-0.21309802
117	0x3e0ff41c	0.14057964
118	0x3d834499	0.06409568
119	0x3e0d8ba9	0.13822807
120	0x3d9bd6e0	0.076093435
121	0xbda4ecbe	-0.080529675
122	0x3e227956	0.15866598
123	0xbd91b946	-0.07115416
124	0xbe63ee82	-0.22258952
125	0xb95d11a3	-0.00021082773
126	0x3c339721	0.010961325
127	0xbe09531c	-0.1341061
128	0x3e6d1b2a	0.23154894
129	0xbe39c07c	-0.18139833
130	0x3d2d4d9d	0.042310346
131	0x3e2772b5	0.16352351
132	0xbde88213	-0.11352935
133	0xbd08b3bd	-0.033374537
134	0xbad2b922	-0.0016076902
135	0x3d45bf83	0.048278343
136	0x3d994a9a	0.07484932
137	0x3e2ae9fe	0.16690823
138	0x3da0553c	0.07828757
139	0xbde643d4	-0.11243406
140	0xbd77ff3e	-0.060546152
141	0x3d595b39	0.053065512
142	0x3e001963	0.12509684
143	0x3e4fc5fb	0.20290367
144	0xbd90f9a4	-0.07078865
145	0xbd7aa2f8	-0.061190575
146	0x3db7701d	0.08956931
147	0xbdea4b42	-0.114401355
148	0xbe280103	-0.16406636
149	0x3e109b30	0.141217
150	0x3e15f84f	0.14645503
151	0xbd952190	-0.07281792
152	0x3e154145	0.1457568
153	0x3d0ecbef	0.034862455
154	0x3d87d707	0.0663281
155	0x3da8023b	0.082035504
156	0x3d88391d	0.066515185
157	0xbe8e2f44	-0.27770436
158	0xbd7319bb	-0.05935071
159	0x3e102c44	0.14079386
160	0xbc38150c	-0.011235487
161	0x3e2f6ef6	0.17132172
162	0xbdd7a069	-0.10528643
163	0xbe052945	-0.13004024
164	0x3d689b0c	0.05678849
165	0x3dc41cbb	0.095757924
166	0x3e21c0b3	0.15796165
167	0xbd0c91b4	-0.03431864
168	0xbc64db52	-0.013968306
169	0x3e25bef9	0.16186132
170	0x3e9011dd	0.2813863
171	0x3d60c05c	0.05487095
172	0x3dbce470	0.092232585
173	0xbe8a426a	-0.27003795
174	0xbae4d6e1	-0.0017459058
175	0x3a7de13e	0.0009684748
176	0xbc343d32	-0.011000918
177	0x3e112ca6	0.14177188
178	0xbe89343f	-0.26797673
179	0x3e1da4e4	0.15394932
180	0x3e00bba1	0.12571575
181	0x3c97d514	0.01853422
182	0xbe8ee041	-0.27905467
183	0xbba3e95e	-0.005002185
184	0x3d42d79d	0.047568906
185	0xbd82feb6	-0.063962385
186	0xbdf82c1f	-0.121177904
187	0xbe0d5043	-0.13800149
188	0x3e139d16	0.14415392
189	0xbe10a4f4	-0.14125425
190	0x3cc3aea9	0.023886995
191	0x3df9f2f3	0.12204542
192	0x3d971ab6	0.073781416
193	0xbdda11bf	-0.10647916
194	0x3cb1ab95	0.021688262
195	0x3e49627f	0.1966648
196	0x3d12ddc8	0.03585604
197	0xbe944bb4	-0.28964007
198	0x3e7913e4	0.24323994
199	0xbea96c5e	-0.3309049
200	0x3dbada14	0.09123626
201	0x3c6a4fc5	0.014301245
202	0xbd0b89c9	-0.03406695
203	0xbdc3cedf	-0.09560942
204	0x3c0eca7c	0.008715268
205	0x3db33585	0.087504424
206	0xbdab77ab	-0.08372434
207	0x3d6432e6	0.055712603
208	0x3df940e5	0.12170581
209	0x3c9b3844	0.018947728
210	0xbe15a334	-0.14613038
211	0x3e310a10	0.17288995
212	0x3e85b3fe	0.26113886
213	0xbd86b785	-0.06577972
214	0x3e016a66	0.12638244
215	0x3e17f32c	0.14838856
216	0xbe7cb8c7	-0.24679862
217	0x3d17d0e1	0.037064437
218	0x3deae281	0.114689834
219	0xbd522f10	-0.051314414
220	0xbd9c1659	-0.0762145
221	0x3df5123d	0.11966369
222	0xbe48b3a6	-0.1959978
223	0xbd52a863	-0.051430117
224	0x3e394bc0	0.18095303
225	0xbe2e4648	-0.17018998
226	0x3cfd64f1	0.030931922
227	0x3da7fc57	0.08202427
228	0x3e02cebf	0.1277418
229	0x3ddcec67	0.10787278
230	0x3e5c2ac2	0.21500686
231	0x3d81a27e	0.06329821
232	0xbdde78e8	-0.10862905
233	0xbd595ca0	-0.05306685
234	0xbe45984f	-0.19296382
235	0xbe3e4da2	-0.18584302
236	0xbd658949	-0.05603913
237	0x3e05fea7	0.13085423
238	0x3dbf35a7	0.09336405
239	0x3e14c37f	0.14527701
240	0xbd4c7d90	-0.049924433
241	0x3db1b143	0.08676388
242	0x3e046b95	0.12931664
243	0xbc42a1b6	-0.011879375
244	0xbd8e12f8	-0.06937212
245	0x3df5ab9a	0.11995621
246	0xbe5c8987	-0.21536838
247	0x3cb47a2b	0.02203091
248	0x3e635caf	0.22203325
249	0xbd6f4988	-0.058419734
250	0x3c3a98dd	0.0113889845
251	0x3d3c7bef	0.04601663
252	0x3cf6bc13	0.030118978
253	0x3d96879c	0.07350084
254	0x3e097b98	0.13426054
255	0x3d9e22da	0.07721491

weight f4 [48]
0	0x3f751782	0.95738995
1	0x3f7e9770	0.99449825
2	0x3f9443fb	1.1583246
3	0x3f7808a5	0.9688819
4	0x3f94099c	1.1565433
5	0x3f6a2b88	0.91472673
6	0x3f64fb68	0.89446115
7	0x3f894339	1.072364
8	0x3f8339a5	1.0251967
9	0x3f8eecde	1.1166036
10	0x3f98245a	1.1886094
11	0x3f888f5d	1.0668751
12	0x3f9ea285	1.2393347
13	0x3f94b837	1.1618718
14	0x3f4d2c70	0.8014593
15	0x3f7b192d	0.9808529
16	0x3f97e2fc	1.1866145
17	0x3f824e8e	1.0180223
18	0x3f86c9da	1.053035
19	0x3f822429	1.0167285
20	0x3f8ec3ba	1.1153481
21	0x3f895775	1.0729815
22	0x3f76ad75	0.96358424
23	0x3f6040f0	0.87599087
24	0x3f717147	0.9431347
25	0x3f59fbb5	0.851497
26	0x3f817e3e	1.0116651
27	0x3fb372a3	1.4019359
28	0x3f79987b	0.9749829
29	0x3f840843	1.0315021
30	0x3f8802d7	1.0625867
31	0x3f9ff2be	1.2495954
32	0x3f8d3ddb	1.1034502
33	0x3f8c18b1	1.0945035
34	0x3f6c2f70	0.92259884
35	0x3f745ab0	0.9545088
36	0x3f9ece3d	1.2406689
37	0x3f8a4e32	1.0805113
38	0x3f8afea8	1.0858965
39	0x3f792c17	0.973329
40	0x3f86f046	1.0542076
41	0x3f7ab4e6	0.9793228
42	0x3f79a30f	0.9751443
43	0x3f83d16b	1.0298284
44	0x3fa1a109	1.2627269
45	0x3fabe27d	1.3428494
46	0x3f83eb57	1.0306195
47	0x3fa563f1	1.2921125

bias f4 [48]
0	0xbddc2fde	-0.107513174
1	0xbe128bfa	-0.1431121
2	0x3e1c77ff	0.1528015
3	0xbeadc46b	-0.33938918
4	0xbc6a9d34	-0.014319707
5	0xbdf4cad3	-0.11952748
6	0xbea040dc	-0.31299484
7	0xbe5ba7c4	-0.21450716
8	0xbc79646b	-0.015221695
9	0xbd1bd365	-0.0380434
10	0xbabd2233	-0.0014429748
11	0x3c94efaf	0.018180696
12	0xbd1fb6e7	-0.03899279
13	0xbcd5d0c2	-0.02610052
14	0xbd12c952	-0.035836525
15	0x3e57c115	0.21069749
16	0x3d48b508	0.04900077
17	0xbd5627a3	-0.052283894
18	0x3e18e6e0	0.14931822
19	0xbd8072ec	-0.062719196
20	0xbb70f90c	-0.0036769537
21	0x3c110a6d	0.008852583
22	0x3e37f9db	0.17966406
23	0x3e9e7543	0.3094884
24	0x3cb789c1	0.022404553
25	0xbd9c2dbe	-0.07625912
26	0xbdd77143	-0.1051965
27	0xbe1cf140	-0.15326405
28	0xbca63ccd	-0.020292664
29	0xbdb6c75d	-0.08924744
30	0xbda8ecc3	-0.08248284
31	0xbe1ca98b	-0.1529905
32	0x3da1aec1	0.0789466
33	0x3db40d81	0.08791638
34	0xbdc947b8	-0.098281324
35	0x3e2fe1e8	0.1717602
36	0x3cd4b836	0.025966745
37	0xbb822262	-0.003971384
38	0x3d35e25b	0.044405323
39	0xbe8e2aa5	-0.2776691
40	0xbde477c5	-0.11155657
41	0x3d942775	0.07234088
42	0xbd357aa5	-0.044306416
43	0x3c8d92a3	0.017281836
44	0x3e7a8003	0.24462895
45	0x3e16e7da	0.14736882
46	0xbdefd35b	-0.11710235
47	0xbe3b0d2d	-0.18266745

running_mean f4 [48]
0	0x392ce790	0.00016489462
1	0x3e896f38	0.26842666
2	0xbe65aba1	-0.22428752
3	0x3d0695f4	0.03285785
4	0xbea1c2c3	-0.31593904
5	0x3dfa87c6	0.12232928
6	0x3e809c28	0.25119138
7	0xbdabf648	-0.08396584
8	0xbd85f272	-0.065403834
9	0xbb0f8912	-0.0021901769
10	0xbced624c	-0.028977536
11	0x3e821f9a	0.25414735
12	0xbda2f45c	-0.07956764
13	0x3de2d48b	0.110756956
14	0xbadc252d	-0.0016795747
15	0x3e1a81c7	0.15088569
16	0x3b0d97dd	0.002160541
17	0x3d6284f1	0.055302564
18	0x3e48a9af	0.19595979
19	0xbd563853	-0.05229981
20	0xbe1e2491	-0.15443636
21	0xbcb7d671	-0.02244112
22	0xbd18197b	-0.037133675
23	0x3df93aaf	0.12169396
24	0xbd128955	-0.0357755
25	0x3d96d046	0.07363944
26	0x3d47e756	0.048804604
27	0x3b98ff2f	0.004669092
28	0x3d5f79fe	0.0545597
29	0xbd2c643b	-0.042087775
30	0x3e3574eb	0.17720382
31	0x3ae9ccb2	0.0017837493
32	0x3df7ee88	0.12106043
33	0xbdb18d0f	-0.08669483
34	0x3d748f02	0.059706695
35	0xbd2b6629	-0.041845474
36	0xbe5b0968	-0.21390307
37	0x3d0fa302	0.035067566
38	0xbe8e3d8f	-0.2778134
39	0xbd6111fa	-0.054948784
40	0x3abaca6a	0.0014250998
41	0xbdf24837	-0.1183018
42	0x3d054795	0.03253897
43	0x3e56a8a0	0.20962763
44	0xbe27d439	-0.1638955
45	0x3c70770b	0.01467682
46	0x3bbb11de	0.005708917
47	0x3da1b14c	0.07895145

running_var f4 [48]
0	0x3ba85d89	0.0051381034
1	0x3eb1c895	0.34723344
2	0x3e323aac	0.17405194
3	0x3b823641	0.0039737527
4	0x3e1adf48	0.15124238
5	0x3d20f0c5	0.039292116
6	0x3dbe847e	0.09302615
7	0x3c3f0a1d	0.011660126
8	0x3db5ff0e	0.088865384
9	0x3c3c3b08	0.0114886835
10	0x3d45cfec	0.048293993
11	0x3d9d0b9d	0.07668231
12	0x3c50895d	0.012728062
13	0x3e0a9846	0.1353465
14	0x3c754d98	0.014972113
15	0x3d461724	0.048361912
16	0x3d3fa11d	0.04678451
17	0x3b7b50f4	0.0038347812
18	0x3e2d31d3	0.16913538
19	0x3cced7a9	0.02524932
20	0x3d88b9fe	0.066761
21	0x3b95f11c	0.0045758616
22	0x3cd87356	0.026422184
23	0x3dbed9ac	0.09318861
24	0x3c1e7758	0.009672008
25	0x3ccb56c3	0.024821645
26	0x3d20526a	0.039141096
27	0x3da21a1e	0.07915138
28	0x3cf49263	0.029854959
29	0x3c88d4bf	0.016703008
30	0x3d2ce860	0.042213798
31	0x3cc86210	0.024460822
32	0x3e1ca522	0.15297368
33	0x3bf2b358	0.0074066333
34	0x3d1fad52	0.03898365
35	0x3cbe426d	0.023225034
36	0x3e588807	0.2114564
37	0x3cf74b61	0.03018731
38	0x3d002adc	0.031290874
39	0x3c753581	0.01496637
40	0x3c157f5e	0.009124605
41	0x3d85d40e	0.06534587
42	0x3d964bc8	0.07338673
43	0x3d893466	0.06699447
44	0x3e74589b	0.23861925
45	0x3c3a1ae8	0.011358954
46	0x3d3bf069	0.04588357
47	0x3d24001a	0.04003916
