trained_model/FIAT(MWNetV8_512_1).pt (torch, 146868 bytes, 147 tensors)

weight f4 [16, 1, 3, 3]
000000 70 ca a7 bc 9c e6 68 3d 52 f1 d4 3d 4c 70 35 bd
       -0.020482272 0.05686055 0.10397591 -0.044296548
000010 ab 91 9c bd 65 54 1e 3e eb d2 3f be 84 5b 3a bd
       -0.076449715 0.15461881 -0.18732803 -0.045497432
000020 03 d4 9e bd c7 d2 0c 3e 43 ce 1a 3e 19 43 2a be
       -0.07755282 0.1375228 0.15117745 -0.16627158
000030 40 d7 9f bb 16 da 9b 3d 1a e6 fc 3d ba 86 01 be
       -0.0048779547 0.07609956 0.12348576 -0.1264905
000040 ec 7e 91 bd 00 c9 b9 bc 58 05 41 bd c7 bc 42 be
       -0.071042866 -0.022678852 -0.047124237 -0.19017325
000050 78 2c a8 bd ea 74 28 be 81 b0 c8 bd 28 53 8f bd
       -0.08211607 -0.16450849 -0.097992904 -0.06998283
000060 02 e1 38 be 58 d1 3b bd 40 cc 45 bc 00 5c 29 ba
       -0.18054584 -0.045853943 -0.012072623 -0.00064605474
000070 2b 02 ca bd 8c 84 fe bd 29 86 0d be 46 74 bd 3d
       -0.09863695 -0.12427625 -0.1382071 0.09250693
000080 dd da 28 3e 9e 69 ee 3d 12 dc c1 3d c4 69 27 bd
       0.1648974 0.11641239 0.09465803 -0.04087235
000090 e7 c0 1a 3e 10 9c 2d 3d c0 55 e6 bc 94 3e 28 3d
       0.15112649 0.04238516 -0.02811706 0.041075304
0000a0 67 0e 04 3e 60 94 91 bc af b2 22 3e 96 ce cb bd
       0.12896119 -0.017770946 0.15888475 -0.099515125
0000b0 ef 0d a8 bd 28 62 25 3d 4a 9e 9e 3d 17 48 9d bd
       -0.082057826 0.040376812 0.07745035 -0.07679766
0000c0 b0 10 23 bd f8 31 88 3c 29 d3 fd bd a4 c0 27 be
       -0.039810836 0.01662539 -0.12393791 -0.1638208
0000d0 77 dd f2 bd b5 14 0c 3e f0 e8 2c bc 1a 3d 80 3d
       -0.11858647 0.13679774 -0.0105535835 0.06261654
0000e0 e7 23 45 3e 93 af 48 be c4 d8 4e bd 2a 92 a1 3d
       0.19251977 -0.19598226 -0.050499693 0.07889207
0000f0 e3 97 0e 3e c7 72 40 3e 08 46 04 3d d7 5b 1a 3e
       0.13925128 0.18793784 0.03229335 0.15074097
000100 7d 8a 31 3e e3 7e 12 3e 4e ae bf 3d 99 9b 15 be
       0.17337985 0.14306216 0.09359418 -0.14610137
000110 c5 dd 19 3e 13 ff 3b 3e 86 d7 d9 3d 21 95 38 3e
       0.15026005 0.18359022 0.10636811 0.18025638
000120 c5 dd 46 3e 06 88 83 3d 57 59 07 be 2c cc 86 bd
       0.19420536 0.06422429 -0.13217674 -0.065819114
000130 68 ce 55 bd 32 55 ae 3d 4e 3e b9 3d 74 25 7e 3d
       -0.052198797 0.085123435 0.09045087 0.062047437
000140 80 ed d9 ba aa 95 ff bd 0a 25 24 be ac 03 cd bd
       -0.0016626567 -0.12479718 -0.16029754 -0.10010466
000150 40 f2 9a bb c0 f1 c7 bd a4 c2 25 be c5 8c 46 be
       -0.0047285855 -0.09762907 -0.16187531 -0.19389637
000160 f9 6a 02 3e 7f f5 08 3e e4 96 12 bd c5 aa cc bd
       0.1273612 0.133749 -0.03578843 -0.09993509
000170 80 91 f7 3b a1 4c f5 bd 7a c9 dd 3d 92 75 db 3d
       0.0075551867 -0.119775064 0.10829444 0.10715784
000180 a0 43 42 3d 00 b6 6d 3b 28 52 55 bd 9f e1 03 3e
       0.047427773 0.003627181 -0.052080303 0.12879036
000190 00 9a e8 3c cb 68 3b be 4c b4 94 bd 8b f6 2e 3e
       0.028393745 -0.18301694 -0.072609514 0.17086236
0001a0 9b e8 46 be 7c 06 5b 3d 00 b4 9b b9 a5 e9 03 3e
       -0.1942467 0.05347298 -0.00029698014 0.12882097
0001b0 4a 43 2e be c6 4d c6 3d 73 f6 3c 3e 19 50 0c 3e
       -0.17017856 0.09682803 0.18453388 0.1370243
0001c0 da 7d f7 3d 2c 86 7f bd d0 c2 82 3c a1 d3 a3 bd
       0.12084551 -0.062383816 0.015962034 -0.079993494
0001d0 ee a5 e2 3d c4 9b 2e be 98 88 0d 3d 61 cb 2e be
       0.11066805 -0.17051607 0.034554094 -0.1706977
0001e0 6d b3 95 bd 59 6b 33 3e bc cb 2b bd 17 40 0a 3e
       -0.073096134 0.17521419 -0.041942343 0.13501011
0001f0 c8 6d d9 bc b6 c3 bb 3d a3 7d b6 bd 2c 48 2e 3d
       -0.026541606 0.09168188 -0.08910682 0.042549297
000200 e0 ee 7b bd 3d 71 fa bd b0 2e 1b bc 3c a5 3a 3d
       -0.061507106 -0.1222863 -0.00947158 0.045567736
000210 60 e0 e3 bb 93 1f 0f be 68 f6 14 be 97 21 49 be
       -0.006954238 -0.13976888 -0.14547122 -0.1964172
000220 82 3b 82 3d 80 8a 06 be c4 4e fd bd 98 d5 d6 bd
       0.063590065 -0.13138771 -0.12368539 -0.104899585
000230 5d b1 c6 bd 48 00 51 3d 23 90 01 3e f0 ef 20 3c
       -0.09701798 0.05102566 0.1265264 0.009822831

weight f4 [16]
000000 00 00 80 3f 00 00 80 3f 00 00 80 3f 00 00 80 3f
       1.0 1.0 1.0 1.0
000010 00 00 80 3f 00 00 80 3f 00 00 80 3f 00 00 80 3f
       1.0 1.0 1.0 1.0
000020 00 00 80 3f 00 00 80 3f 00 00 80 3f 00 00 80 3f
       1.0 1.0 1.0 1.0
000030 00 00 80 3f 00 00 80 3f 00 00 80 3f 00 00 80 3f
       1.0 1.0 1.0 1.0

bias f4 [16]
000000 00 00 00 00 00 00 00 00 00 00 00 00 00 00 00 00
       0.0 0.0 0.0 0.0
000010 00 00 00 00 00 00 00 00 00 00 00 00 00 00 00 00
       0.0 0.0 0.0 0.0
000020 00 00 00 00 00 00 00 00 00 00 00 00 00 00 00 00
       0.0 0.0 0.0 0.0
000030 00 00 00 00 00 00 00 00 00 00 00 00 00 00 00 00
       0.0 0.0 0.0 0.0

running_mean f4 [16]
000000 1a 9d dd bb 1f eb 9e 3b cd dc 35 bd b5 7f 5b 3b
       -0.0067631127 0.004849806 -0.044400025 0.0033492867
000010 48 e9 6f 3c cd 19 4e bc a4 43 b2 3c 2d 44 53 3d
       0.014643021 -0.012579394 0.02176077 0.05157869
000020 30 da 46 3c d7 6c ed bc 90 34 d5 ba a5 d5 41 3b
       0.012136981 -0.028982563 -0.0016266275 0.0029576805
000030 9f 9d 90 3c 9c cd 12 bb 17 b4 c6 bc 80 1d a4 bc
       0.017653285 -0.0022400385 -0.024255795 -0.020033598

running_var f4 [16]
000000 66 97 66 3f 34 a3 66 3f 4e aa 66 3f 81 9f 66 3f
       0.90074766 0.9009278 0.90103614 0.90087134
000010 29 96 66 3f f9 97 66 3f 60 b5 66 3f 9b d8 66 3f
       0.90072876 0.9007564 0.90120506 0.90174264
000020 16 95 66 3f 93 be 66 3f 02 84 66 3f 5c b4 66 3f
       0.9007124 0.90134543 0.9004518 0.90118957
000030 fb ab 66 3f d0 aa 66 3f ab 8d 66 3f a7 a5 66 3f
       0.9010617 0.9010439 0.9005992 0.90096515

weight f4 [16, 1, 3, 3]
000000 40 1b c8 bd 83 73 25 3e 99 c1 40 be 21 1c 4a be
       -0.097708225 0.16157345 -0.18823852 -0.19737293
000010 5b 15 0b 3e 94 f1 29 3d b9 01 3f 3e b2 19 a0 bd
       0.13582365 0.041490152 0.18653001 -0.07817401
000020 0c 54 67 3d 8c 17 5b bd ac 09 7c 3d 74 f7 24 bd
       0.056476638 -0.053489253 0.06153266 -0.040275052
000030 5c df 2b 3d 56 ac 8b 3d a5 a5 f5 bd 7a fe c4 3d
       0.04196106 0.0681998 -0.11994485 0.0961885
000040 d4 35 74 3d 14 a5 c4 bd fc 4f 6c bd 52 b7 8e bd
       0.059621647 -0.09601799 -0.057693467 -0.06968559
000050 ee a6 81 bd 8f e1 31 3e a4 91 aa bd ba aa 41 be
       -0.063306674 0.173712 -0.0832856 -0.18912783
000060 9a 4f b1 3d b1 b2 2b be 0c 28 43 bd 38 c2 ad bc
       0.08657761 -0.16767384 -0.047645614 -0.021210775
000070 c4 f0 82 bd 0a 8c 8b 3d c1 00 3b 3e 8f ad 3f 3e
       -0.06393579 0.0681382 0.18262006 0.18718551
000080 64 60 84 bd fc be 78 3d 81 d7 0e be 8c 19 3a bd
       -0.064636976 0.060729012 -0.13949396 -0.04543452
000090 00 8d 73 bc 80 80 c7 3a a6 72 91 bd 6d dc 01 be
       -0.01486516 0.0015220791 -0.071019456 -0.12681742
0000a0 32 be d5 3d 10 31 aa bc f0 0b 4a bc ea 95 d3 3d
       0.104366675 -0.020775348 -0.012331948 0.10331328
0000b0 ce 85 e4 3d c0 fa 53 bd a6 90 ec 3d 62 5b e9 3d
       0.11158334 -0.051752806 0.11551027 0.11394383
0000c0 cb fa eb bd ca 44 d2 3d 84 3c 6f 3d b5 17 40 be
       -0.11522444 0.10267027 0.05840732 -0.18759044
0000d0 7a 07 2e be f9 32 46 be f4 f9 5b bd 4e ab 82 3d
       -0.1699504 -0.19355382 -0.05370517 0.0638033
0000e0 bc d4 66 3d 70 ee 9a bc 50 f9 29 bd 96 b8 80 3d
       0.056355223 -0.018912524 -0.04149753 0.06285207
0000f0 87 67 02 3e 32 8c f3 3d 6e 98 b2 3d 6a ac 95 3d
       0.12734805 0.118919745 0.0872048 0.07308276
000100 7d e0 2f 3e 40 b3 90 bc 64 b6 98 bd aa 52 af 3d
       0.17175479 -0.017663598 -0.07456663 0.08560689
000110 9f f2 18 be 8c df 3c 3d 40 d0 cc bb 98 72 db bc
       -0.14936303 0.04611163 -0.0062504113 -0.026788041
000120 c3 8f 28 3e 9b 48 a0 bd fe 09 a0 3d d6 7f ce 3d
       0.1646109 -0.078263484 0.07814406 0.100829765
000130 0c ba 5b 3d df 0c 38 3e 44 b1 38 be ac b4 5e bd
       0.053644225 0.1797366 -0.18036371 -0.05437152
000140 7e 0a d4 3d a8 9b b9 bd 49 e8 25 be 56 01 f5 3d
       0.10353564 -0.09062892 -0.16201891 0.119631454
000150 1c a3 2a bd 3c 23 35 3d 09 7a 2b 3e 95 c1 07 3e
       -0.04165946 0.044223055 0.16745771 0.1325744
000160 2b 17 2d 3e 66 37 34 be 74 d2 db bd b4 1c 1d 3d
       0.16903369 -0.17599258 -0.107335 0.03835745
000170 d8 c9 93 bd 72 43 88 3d 48 ce d8 3c f2 11 87 3d
       -0.07216233 0.06653489 0.02646555 0.0659522
000180 a8 26 84 bd d0 9b 80 bd 00 79 52 3d 7f e8 33 3e
       -0.064526856 -0.06279719 0.051384926 0.17569159
000190 85 99 ad bd ab ee 13 3e b0 41 4a 3c 4b 19 f7 bd
       -0.08476547 0.14446513 0.012344763 -0.12065371
0001a0 c9 57 ed bd 4a da ac 3d ee a3 aa 3d 08 00 50 3d
       -0.11589009 0.08440073 0.08332048 0.05078128
0001b0 33 36 c6 bd ce 9f 05 be 30 ad 42 3d ca d8 aa 3d
       -0.096783064 -0.13049242 0.047528446 0.083421305
0001c0 8b 6a 31 3e 25 04 29 3e 3e d7 0c be 66 82 90 bd
       0.17325799 0.16505487 -0.13753983 -0.070561215
0001d0 02 12 d2 3d 61 d2 32 3e 86 fb b1 3d b6 c2 a3 3d
       0.10257341 0.17463066 0.086905524 0.079961225
0001e0 1c 59 7b bd 48 80 40 be 7f 8a 42 be 41 1e af bd
       -0.06136428 -0.18798935 -0.18998145 -0.08550692
0001f0 4c 6b 53 3d 47 3b 00 be 2c 3b 06 3d 5b 37 10 3e
       0.051616 -0.12522613 0.032771274 0.14083616
000200 e4 70 70 bd 05 22 c8 bd 20 a0 1a bc 5e a5 c3 3d
       -0.05870141 -0.09772114 -0.009437591 0.09553026
000210 90 c2 94 bd bc 28 fe bd 84 f0 34 3d f0 12 48 bc
       -0.07263672 -0.12410113 0.044174686 -0.012211546
000220 5f a5 04 3e 47 72 46 3e b0 fb 38 be 77 f5 14 3e
       0.12953709 0.19379531 -0.18064761 0.14546762
000230 c8 2d 30 3d 70 e0 a2 bd c6 d6 96 3d 80 32 66 bc
       0.04301241 -0.07952964 0.073651835 -0.014050126

weight f4 [32, 16, 1, 1]
000000 8f 9c 94 3e 08 1a d7 3d a0 a0 b2 bc dc 3b ac 3d
       0.29025695 0.10503012 -0.021805108 0.08409855
000010 cc f0 bc 3d e1 15 13 be 04 d8 05 3e c0 29 a8 bc
       0.09225616 -0.14363815 0.13070685 -0.02052772
000020 c9 95 b1 3e 6c a6 01 be f0 11 8f bd ca 10 77 3e
       0.3468459 -0.12661141 -0.06985843 0.24127498
000030 da aa 46 3e 3f 71 a3 be d7 58 a2 3e f9 0c 93 3e
       0.19401112 -0.31922337 0.31708404 0.28720835
000040 35 35 4f be 9d 61 26 be e8 28 44 3d 40 b3 10 3e
       -0.2023514 -0.16248174 0.047890574 0.14130878
000050 b3 68 65 be a7 6c 54 be a0 5e cc 3c 0c 66 8b 3d
       -0.22403221 -0.20744573 0.024947464 0.06806573
000060 aa 8b fb bd d8 35 7f 3d ee 79 24 3e e8 2d 56 bd
       -0.12282498 0.06230721 0.16062137 -0.052289873
000070 b5 c4 b1 3e 00 b4 d8 39 0c a6 9b 3d 10 e5 b3 be
       0.34720388 0.0004133284 0.0760003 -0.35135698
000080 03 77 89 3e 1f de 87 3e 50 e5 c7 bc d0 31 83 3c
       0.2684861 0.26536652 -0.024401337 0.016014963
000090 24 c3 b8 bd 62 a7 84 be 92 38 0c 3e d7 7a 8c 3e
       -0.09021595 -0.25908953 0.13693455 0.2743747
0000a0 c8 ec c4 3d 94 28 bc 3d b2 46 5b 3e d4 68 a8 bd
       0.09615475 0.09187427 0.21413687 -0.082231194
0000b0 b0 d2 04 be ca 3d 53 3e 32 7c 60 3e 9d ae 06 be
       -0.12970996 0.2062904 0.21922377 -0.13152547
0000c0 f4 64 f0 3d b4 30 cb 3d 01 06 9c be cc 70 88 3d
       0.11738005 0.09921399 -0.3047333 0.06662139
0000d0 46 6a 03 be 88 48 3e bd 28 d4 10 3e e9 e5 97 be
       -0.12833509 -0.04645589 0.14143431 -0.29667595
0000e0 08 33 27 bd a0 0e 32 3d 80 0a d2 bb 02 8b 3b 3e
       -0.04082015 0.04347098 -0.006409943 0.18314746
0000f0 91 a8 8c 3e 80 6b a9 bb e8 74 15 3e 08 4e 03 3d
       0.27472356 -0.0051702857 0.14595377 0.03205684
000100 64 00 ab 3d 8d b1 ab be 54 27 53 be 3e da 4a 3e
       0.08349684 -0.33533898 -0.20620471 0.19809815
000110 20 65 20 3d 60 40 f5 bc 80 7b 4e bd be 36 54 3e
       0.03915894 -0.029937923 -0.050410748 0.20724007
000120 be 3d 7c 3e 27 01 97 be 69 30 ad 3e 70 03 fa bd
       0.24632928 -0.29493067 0.33825997 -0.12207687
000130 a0 b0 a4 bd 50 00 cf 3d 7f 6a a8 3e 5d d4 9a 3e
       -0.08041501 0.101074815 0.3289375 0.30240145
000140 6a 4f 16 be ba 96 43 3e b0 65 f1 3c bb cb 80 3e
       -0.14678732 0.19100466 0.029467434 0.25155434
000150 90 12 65 3d 43 1b 85 3e b0 63 34 3d 65 ef af 3e
       0.055925906 0.25997362 0.044040382 0.3436233
000160 b9 b0 17 be 50 bc ab 3d 54 0e c5 3d de 4f 77 3e
       -0.14813508 0.08385527 0.096218735 0.2415156
000170 aa e4 5e be 26 f7 37 3e 3e 9e 1a 3e b8 4a f1 3d
       -0.21766916 0.17965373 0.15099427 0.117818296
000180 00 26 67 bb a0 f0 96 3d b5 62 8e 3e 7a 9c 7d 3e
       -0.0035270452 0.07370114 0.27809682 0.24766722
000190 30 76 95 bc 20 d4 29 bc e0 65 fe 3d d9 79 98 3e
       -0.018244833 -0.010365516 0.12421775 0.29780462
0001a0 38 e8 d2 bd 4c 10 8c be 4d a2 b1 be af 3d aa 3e
       -0.102981985 -0.27356184 -0.34694138 0.33250186
0001b0 20 23 97 3c 94 d2 b1 be 1a ad 68 3e f0 bc 81 3d
       0.018449366 -0.3473097 0.22722283 0.06334865
0001c0 50 3c 57 be 5e 6f 6d 3e 70 59 bc bc 52 03 6d 3e
       -0.21019101 0.23187014 -0.022991866 0.23145798
0001d0 40 4f ee bc 00 3b db ba 00 d2 30 3c 00 e2 bb 3c
       -0.029090524 -0.0016725957 0.010792255 0.022934914
0001e0 34 65 bd bd be 39 74 be f1 a2 03 be 98 be 27 be
       -0.092478186 -0.23850152 -0.12855126 -0.163813
0001f0 0a ec a0 be 1e a5 52 3e 1c 62 00 3e 00 66 92 ba
       -0.31430084 0.205708 0.12537426 -0.0011169314
000200 a8 71 fe bd 2c 62 a8 3d fd 23 21 be 21 c8 ae 3e
       -0.12424022 0.0822185 -0.15736385 0.3413706
000210 ae f1 12 3e 85 93 ae 3e 36 cb 7c 3e 80 45 32 3d
       0.14350006 0.34096923 0.24686894 0.04352331
000220 69 90 1f be 12 49 3b 3e f0 0c 0b 3e 50 01 1c be
       -0.15582432 0.18289593 0.13579154 -0.15234876
000230 60 4a 2f 3c f2 9a fd bd 34 90 f5 3d 44 41 90 bd
       0.010698885 -0.12383069 0.11990395 -0.070436984
000240 62 ae 0e be 7e da 68 be fe 73 74 3e 5a 60 26 3e
       -0.1393371 -0.22739598 0.23872373 0.16247693
000250 3f 64 45 be fb 2b 2b be c8 c9 5c bd 70 95 63 3d
       -0.19276522 -0.16715996 -0.05390337 0.055562437
000260 86 d8 e9 bd 00 32 58 3a 20 46 c9 bd 8c 2b b5 3d
       -0.11418252 0.00082471967 -0.098278284 0.088461965
000270 6a 30 40 3e 5d c1 85 be ee d0 36 3e 07 11 9e 3e
       0.18768468 -0.26124087 0.17853138 0.30872366
000280 e0 6d d6 3d 56 39 3b 3e 50 d1 c3 3d bd d0 ab 3e
       0.10470176 0.1828359 0.095614076 0.33557692
000290 52 97 1e be d0 0f 63 bd 53 0b ad 3e 60 d9 ef bd
       -0.15487412 -0.055435 0.33797702 -0.11711383
0002a0 ce d5 e0 bd b0 03 dc 3c 4a 4c 49 3e 9d 13 8b 3e
       -0.1097828 0.026857227 0.19658008 0.271634
0002b0 db 5d 59 be 66 28 24 3e ac 26 ad 3d 4d 8a 4d be
       -0.2122721 0.16031036 0.08454642 -0.20072289
0002c0 17 05 9b 3e 7e c4 34 3e f6 bc b1 be cc 40 ce bd
       0.3027732 0.17653081 -0.34714478 -0.10070953
0002d0 e1 ce 96 be a2 21 5c 3e fa 27 63 3e 8a 07 29 3e
       -0.2945471 0.21497205 0.22183219 0.16506782
0002e0 75 62 b0 3e e0 02 36 3d ec f0 4f be af ec b2 3e
       0.34450117 0.044436336 -0.20306748 0.349462
0002f0 52 05 05 3e 5a 36 29 3e b8 0e a5 3d 00 e7 eb 3d
       0.12990311 0.1652464 0.08059448 0.11518669
000300 fd 00 a3 3e b8 89 03 bd 00 58 23 3a 3c 76 78 be
       0.31836691 -0.03211376 0.00062310696 -0.24263853
000310 80 5c 5a bb 04 d5 9d be 78 2e e4 bd e8 05 60 3d
       -0.0033319294 -0.3082658 -0.11141676 0.054693133
000320 b8 86 50 3d 16 c7 34 3e 25 ec 2e be 74 42 12 be
       0.050909728 0.1765407 -0.1708227 -0.14283162
000330 d6 15 2e 3e ca d1 73 3e 79 32 9d 3e e8 5c 02 3e
       0.17000517 0.23810497 0.3070257 0.12730753
000340 ae cf 27 3e a1 d3 34 be 22 82 4b 3e 61 08 ae be
       0.16387817 -0.17658855 0.1987386 -0.33990768
000350 f7 cd 07 be 10 00 36 3d 16 58 09 3e e9 a0 9e be
       -0.13262163 0.044433653 0.13412508 -0.3098214
000360 4c 18 d7 3d 4c 2a 1d be 94 fd e1 3d e2 43 4b 3e
       0.10502681 -0.15348166 0.11034694 0.19850114
000370 c4 de ac 3d 37 75 84 3e 80 c0 a8 be 0d 54 9e 3e
       0.08440927 0.25870678 -0.32959366 0.309235
000380 a8 ac 95 bd f6 39 7c be bf 03 a9 3e d2 b0 4b 3e
       -0.07308322 -0.24631485 0.3301067 0.1989167
000390 a0 96 5d bc 8d ef b4 3e 2a 8f 3c 3e 86 18 6d 3e
       -0.013524681 0.35339013 0.18413988 0.23153886
0003a0 40 bf f0 3d 01 49 9d 3e 80 a8 46 bc 7a 04 74 be
       0.11755228 0.3071976 -0.0121251345 -0.23829833
0003b0 bc 5e 04 be 25 ce 11 be d4 92 06 be 60 90 71 bc
       -0.12926763 -0.14238794 -0.13141948 -0.014743894
0003c0 73 16 ae be ce b1 e1 bd 89 60 8e 3e 7e a3 5c 3e
       -0.34001502 -0.11020242 0.27808025 0.21546742
0003d0 f2 a2 23 3e 06 29 79 3e cc a7 bb bd d2 9f 2b 3e
       0.15980127 0.24332055 -0.09162864 0.16760185
0003e0 19 00 a5 3e 98 91 5b bd ae 6d 5c 3e 37 28 81 3e
       0.32226637 -0.053605646 0.21526214 0.25225994
0003f0 2a f0 6a 3e e3 ce 1f be b8 cf a9 be 7f 76 a5 be
       0.22943178 -0.15606265 -0.3316629 -0.32316968

weight f4 [16]
000000 00 00 80 3f 00 00 80 3f 00 00 80 3f 00 00 80 3f
       1.0 1.0 1.0 1.0
000010 00 00 80 3f 00 00 80 3f 00 00 80 3f 00 00 80 3f
       1.0 1.0 1.0 1.0
000020 00 00 80 3f 00 00 80 3f 00 00 80 3f 00 00 80 3f
       1.0 1.0 1.0 1.0
000030 00 00 80 3f 00 00 80 3f 00 00 80 3f 00 00 80 3f
       1.0 1.0 1.0 1.0

bias f4 [16]
000000 00 00 00 00 00 00 00 00 00 00 00 00 00 00 00 00
       0.0 0.0 0.0 0.0
000010 00 00 00 00 00 00 00 00 00 00 00 00 00 00 00 00
       0.0 0.0 0.0 0.0
000020 00 00 00 00 00 00 00 00 00 00 00 00 00 00 00 00
       0.0 0.0 0.0 0.0
000030 00 00 00 00 00 00 00 00 00 00 00 00 00 00 00 00
       0.0 0.0 0.0 0.0

running_mean f4 [16]
000000 2b 0d 02 3a c7 97 ca 39 72 6e 0a bc 8a c1 61 3b
       0.00049610686 0.00038641525 -0.008449184 0.0034447634
000010 b3 35 d1 3a 70 4c de bb be 5b 09 3c 46 3b 08 3b
       0.0015961438 -0.0067840144 0.008383689 0.0020787283
000020 8a ce fb 3b 23 3f 56 3b 8f a5 9a ba 7f 0a 9b 3b
       0.0076845335 0.003269144 -0.0011798608 0.004731476
000030 d2 6b 3a 3b 5f 97 ac bb 8d 17 87 ba a7 f5 c8 3b
       0.0028445614 -0.0052670683 -0.0010306701 0.0061327997

running_var f4 [16]
000000 b0 ce 67 3f 97 c2 66 3f 23 7d 67 3f f4 2a 67 3f
       0.90549755 0.9014067 0.9042532 0.90299916
000010 ee e7 66 3f 7b 58 67 3f bb cb 66 3f 89 ef 66 3f
       0.90197647 0.90369385 0.9015462 0.9020925
000020 c6 8c 67 3f a4 c3 67 3f e6 b6 66 3f 0c 41 67 3f
       0.9044918 0.905329 0.9012283 0.9033363
000030 17 3c 67 3f d5 ff 67 3f 83 f8 66 3f a9 56 67 3f
       0.90326065 0.90624744 0.9022295 0.9036661

weight f4 [32]
000000 00 00 80 3f 00 00 80 3f 00 00 80 3f 00 00 80 3f
       1.0 1.0 1.0 1.0
000010 00 00 80 3f 00 00 80 3f 00 00 80 3f 00 00 80 3f
       1.0 1.0 1.0 1.0
000020 00 00 80 3f 00 00 80 3f 00 00 80 3f 00 00 80 3f
       1.0 1.0 1.0 1.0
000030 00 00 80 3f 00 00 80 3f 00 00 80 3f 00 00 80 3f
       1.0 1.0 1.0 1.0
000040 00 00 80 3f 00 00 80 3f 00 00 80 3f 00 00 80 3f
       1.0 1.0 1.0 1.0
000050 00 00 80 3f 00 00 80 3f 00 00 80 3f 00 00 80 3f
       1.0 1.0 1.0 1.0
000060 00 00 80 3f 00 00 80 3f 00 00 80 3f 00 00 80 3f
       1.0 1.0 1.0 1.0
000070 00 00 80 3f 00 00 80 3f 00 00 80 3f 00 00 80 3f
       1.0 1.0 1.0 1.0

bias f4 [32]
000000 00 00 00 00 00 00 00 00 00 00 00 00 00 00 00 00
       0.0 0.0 0.0 0.0
000010 00 00 00 00 00 00 00 00 00 00 00 00 00 00 00 00
       0.0 0.0 0.0 0.0
000020 00 00 00 00 00 00 00 00 00 00 00 00 00 00 00 00
       0.0 0.0 0.0 0.0
000030 00 00 00 00 00 00 00 00 00 00 00 00 00 00 00 00
       0.0 0.0 0.0 0.0
000040 00 00 00 00 00 00 00 00 00 00 00 00 00 00 00 00
       0.0 0.0 0.0 0.0
000050 00 00 00 00 00 00 00 00 00 00 00 00 00 00 00 00
       0.0 0.0 0.0 0.0
000060 00 00 00 00 00 00 00 00 00 00 00 00 00 00 00 00
       0.0 0.0 0.0 0.0
000070 00 00 00 00 00 00 00 00 00 00 00 00 00 00 00 00
       0.0 0.0 0.0 0.0

running_mean f4 [32]
000000 23 52 e7 3c 97 70 03 bc 13 4d b1 3c 2f 58 c2 3b
       0.028237408 -0.008022449 0.021643197 0.0059309225
000010 2b a8 6e 3c 30 0b fe 3c eb 67 36 3c e0 3c fc bb
       0.014566462 0.031011194 0.011133174 -0.0076976866
000020 a7 62 91 3c fd 95 6b ba df 07 9f 3c 1d ff e3 3c
       0.017747236 -0.00089868886 0.019412933 0.027831608
000030 33 52 0d 3c a5 c2 63 3b ad 06 6e 3c 4a 5c 62 3c
       0.008625555 0.0034753468 0.014527959 0.013815949
000040 4d da 12 bc e7 8d 14 3c b3 4d 60 37 5d fb 54 3c
       -0.00896318 0.009067035 1.3369531e-05 0.012999383
000050 b5 d6 80 3c d2 aa 29 3b 7b f5 26 3c 43 67 2a bd
       0.01572738 0.002588917 0.010190363 -0.041602384
000060 aa 9d 8d bc 70 bf 91 bc 9a d8 f3 bb c5 b8 b5 bc
       -0.017287094 -0.01779148 -0.0074415924 -0.022182832
000070 ce 1d 01 bc 47 b2 43 bc ba ad d3 3c a0 b2 87 bc
       -0.007880641 -0.01194436 0.025839675 -0.016564667

running_var f4 [32]
000000 24 68 6c 3f 17 df 69 3f a0 2c 6a 3f dd d8 6a 3f
       0.92346406 0.91356033 0.9147434 0.9173716
000010 d5 1e 6d 3f c7 88 6a 3f c7 31 6b 3f 73 37 69 3f
       0.9262517 0.91614956 0.9187283 0.91100234
000020 a3 d3 6b 3f e2 6e 69 3f 04 a8 6b 3f 72 b9 6d 3f
       0.92119807 0.9118482 0.92053246 0.9286109
000030 be 2d 6a 3f 7e bd 6d 3f 2f ff 6b 3f 36 40 6d 3f
       0.9147605 0.9286727 0.92186254 0.92676103
000040 09 96 6d 3f 4a 5d 6c 3f 33 62 6f 3f 4b 60 6b 3f
       0.9280706 0.9232985 0.93509215 0.91943806
000050 b9 a4 6a 3f 6d 8d 6b 3f 84 06 6d 3f 9f 57 6b 3f
       0.91657597 0.92012674 0.9258807 0.91930574
000060 19 2b 6c 3f 5f 92 6b 3f 46 25 6c 3f 63 3a 6b 3f
       0.9225326 0.9202022 0.92244375 0.91885966
000070 f8 7f 6b 3f 72 d1 69 3f f6 d0 6b 3f b9 72 6a 3f
       0.9199214 0.91335213 0.92115724 0.915813

weight f4 [2, 32]
000000 ab fc fc bd f1 28 32 bd 54 0f f0 3d 46 cd 78 3e
       -0.1235288 -0.043496076 0.117216736 0.24297056
000010 5b d4 80 be fa 3a a9 be c5 19 ab bd 4a ac 5f bd
       -0.25162014 -0.33052808 -0.083545245 -0.054607667
000020 24 ce c0 3e ff f6 a7 be c7 ab df bd 1c 43 33 bd
       0.37657273 -0.3280563 -0.10921436 -0.043765172
000030 56 d6 81 3d 37 71 96 be a4 0d b4 3d 75 f7 ba 3e
       0.063397095 -0.2938325 0.08791664 0.3651692
000040 5a 76 7e 3e e0 7b a2 3e 92 40 be be 56 b2 2a be
       0.24849835 0.31735134 -0.37158638 -0.16669592
000050 db 9f 4f 3e 54 eb bb bd 81 7a 89 3e ae 93 3e be
       0.20275824 -0.09175745 0.26851276 -0.18611023
000060 f9 fd b8 be 76 1a ae be 52 87 b4 bd 54 f2 c4 bd
       -0.36131266 -0.34004563 -0.08814873 -0.09616533
000070 6e 8b bb 3e 72 6e 3c 3e f2 6f af 3e c5 5c 5c bd
       0.36629814 0.18401507 0.34265095 -0.05379941
000080 1e c6 69 bd a1 ef 8f be 9b 2e 05 be f2 8f 3a be
       -0.057073705 -0.2811251 -0.1300606 -0.18218973
000090 f9 b9 6f bc 8f 0f 06 be 15 e1 94 be 92 45 45 be
       -0.014631742 -0.13091873 -0.29077974 -0.1926482
0000a0 1f 52 6a 3e f6 76 94 be 3f 32 99 bd ad c1 c2 be
       0.22882889 -0.2899701 -0.07480287 -0.38038388
0000b0 f2 c7 88 3e 9a 3f d3 3e e5 e3 56 3e 3b 66 c1 be
       0.26715046 0.41259462 0.20985372 -0.37773308
0000c0 06 39 64 be 9f 59 81 bd 06 47 68 be c7 4e ab 3c
       -0.22287378 -0.06315922 -0.22683343 0.020911587
0000d0 14 2f 8d 3e 74 90 dc bd 26 43 b6 3e 5f 23 fe bd
       0.2757498 -0.1076974 0.35598105 -0.1240909
0000e0 e9 92 a2 be 72 c2 5d 3e e3 cf 03 be 56 b5 0a 3d
       -0.3175271 0.21656206 -0.12872271 0.03386434
0000f0 34 93 91 bd 57 91 e0 3b 11 ae bf 3e c6 f8 62 be
       -0.07108155 0.0068532634 0.3743749 -0.22165212

bias f4 [2]
000000 20 0e 25 bc d0 07 75 3d
       -0.010074168 0.059821904

weight f4 [32, 2]
000000 b2 1d a5 bd 86 af c6 bd 8b a5 94 be e9 a4 ca 3e
       -0.080623046 -0.09701447 -0.2903255 0.3957894
000010 32 cf 94 3e d4 73 94 be fb 88 ba be a9 72 75 3e
       0.29064327 -0.2899462 -0.36432633 0.2396952
000020 b2 b3 ca 3d 37 00 cc 3e e0 29 a3 3e aa d3 5a 3e
       0.098975554 0.39843914 0.31867886 0.21369806
000030 09 16 0b 3e 3a ce 07 be c1 72 cb be c4 35 d5 3e
       0.13582624 -0.13262263 -0.39735988 0.41642582
000040 43 91 24 be e6 e9 cb be f1 7b 92 3e 72 17 80 3c
       -0.16071038 -0.39826888 0.28610185 0.01563618
000050 c2 56 2a be f9 4e b8 be c9 80 82 3e e5 40 ba be
       -0.16634658 -0.3599775 0.2548888 -0.36377636
000060 a9 53 a0 be 90 70 ac be da f0 64 3e 7f 81 bb be
       -0.31313828 -0.33679628 0.22357503 -0.36622235
000070 c4 ef 83 bd 21 6f 98 be 1d 27 c9 3e ca ae 93 bd
       -0.06442216 -0.29772285 0.39287654 -0.07211073
000080 3b 42 9c be f6 b9 23 be 59 46 06 be 65 ce e0 bd
       -0.3051928 -0.15988907 -0.13112773 -0.10976867
000090 9e 1c 40 3e 82 43 45 be 4f ac ca 3e 17 a6 be be
       0.18760917 -0.19264033 0.39584586 -0.37236091
0000a0 0d 3c 93 3e f8 1b 9d 3e 24 0c b2 bd 82 0c ae be
       0.28756753 0.306854 -0.08693722 -0.33993918
0000b0 68 0a 71 bd d0 9a ec bc b8 44 98 3e 54 55 2b be
       -0.058847815 -0.028882414 0.29739928 -0.16731769
0000c0 f5 8a 51 be 81 d8 3c be 98 58 1c 3e 83 85 7d bd
       -0.20463164 -0.18441965 0.15268171 -0.061894905
0000d0 44 b8 a9 3e 48 4c c0 3e 13 40 fa 3c e1 c1 83 3e
       0.33148396 0.37558198 0.030548131 0.25733855
0000e0 00 9d db 3c dc 73 cb be 55 90 29 3c e3 59 75 bd
       0.026808262 -0.3973683 0.010349353 -0.059900176
0000f0 bf c5 b1 3e 13 01 2b 3e 0e e4 2c 3d 31 d4 cd 3d
       0.3472118 0.16699629 0.042209677 0.10050238

bias f4 [32]
000000 20 aa 9e 3c 6a 09 a6 be d9 70 26 3f c9 2d ce be
       0.019368231 -0.32429057 0.6501594 -0.40269306
000010 9e e3 ab be 3c 9e 71 be de b0 73 be 8a 81 b3 3e
       -0.33572096 -0.23595518 -0.23797938 0.35059768
000020 34 1f 17 bf 3b 8f 87 be 74 11 14 3e c5 5f 0b 3f
       -0.5903199 -0.26476464 0.14459783 0.5444301
000030 3a e4 df 3e 80 d6 cb 3c e2 8f e4 3e 1f a0 9d be
       0.4372881 0.024882555 0.44641024 -0.30786225
000040 80 0f 6d bd 5e 26 81 be 3b 48 dc be cb a4 88 be
       -0.05787611 -0.25224584 -0.43023857 -0.26688227
000050 50 dc 5a be 20 6a 5d 3d 5a 02 ee be 80 1d ba 3b
       -0.21373105 0.054056287 -0.4648617 0.005679786
000060 4c 41 53 3e 3d 58 33 bf 40 bd a3 bd 44 0b 79 be
       0.20630378 -0.70056516 -0.07995081 -0.24320704
000070 70 25 6e 3d df 27 1c bf 27 1c aa be 63 ca 13 3f
       0.058141172 -0.6099834 -0.33224604 0.5773069

weight f4 [32, 1, 3, 3]
000000 9c 7b 03 be da 9c e7 3d 43 0a 02 3e 39 bd 10 3e
       -0.12840122 0.11309214 0.12699227 0.14134683
000010 52 09 17 bd 5e 0e 81 bd 8e f4 b3 bd c4 12 44 3d
       -0.036874123 -0.063015684 -0.087868795 0.04786946
000020 70 9e 95 3d 40 c3 0a bc ec 7f 6e 3d 2a cd f8 3d
       0.0730561 -0.008469403 0.058227465 0.12148507
000030 aa 10 82 3d a4 8b 45 bd 78 16 c6 3d ed 0b 83 bd
       0.06350835 -0.048228875 0.09672254 -0.06398759
000040 e0 ea b8 3c da 6a fe 3d 55 26 d0 bd f4 30 13 bd
       0.022572935 0.12422724 -0.10163561 -0.035935357
000050 b8 f1 0d be 0c dc c3 3d 70 fe c0 3d 80 fc 59 bb
       -0.1386174 0.09563455 0.0942353 -0.0033262074
000060 64 ce a5 bd 0c 54 29 3d 76 0e b3 3d 8a 9c f2 3d
       -0.080960065 0.04133992 0.087429926 0.11846264
000070 3e e7 f1 bd 3c 19 10 3d b8 99 6e 3d 38 15 8e bc
       -0.11811684 0.035180315 0.058252066 -0.017344102
000080 b0 f2 2d bc 8d f4 02 3e 70 8d 8e 3d b2 1a 77 bd
       -0.010616943 0.12788601 0.06960571 -0.060328193
000090 89 d4 82 bd c0 92 b2 3c 1d cc 0e be 3c 3b d8 3d
       -0.06388194 0.021798491 -0.1394505 0.10558173
0000a0 e0 40 b0 3d 28 66 02 be 62 64 8b bd 62 15 fc 3d
       0.08606124 -0.12734282 -0.06806256 0.12308766
0000b0 6f 9d 0c be f1 1b 07 3e e5 4e f5 bd e6 ad d8 bd
       -0.13731931 0.13194253 -0.119779386 -0.105800435
0000c0 9a 29 c3 bd e0 78 4f bc 0e ba ce 3d dc 41 55 3d
       -0.09529419 -0.012663096 0.10094081 0.05206476
0000d0 3c 8e a8 3d da fe e5 3d 28 9e be 3c a4 90 22 3d
       0.08230254 0.1123025 0.023268774 0.03968872
0000e0 6c 9f b5 3d a0 7e ee 3b bf 70 b6 bd 2a 13 a7 bd
       0.08868298 0.0072782785 -0.08908223 -0.08157952
0000f0 8e f3 48 bd 20 6b ca bb 9e 75 b8 bd 15 6e 0f 3e
       -0.049060397 -0.006177321 -0.09006809 0.14006837
000100 d2 6e 8a bd fc 2f e0 bd 87 62 04 3e 9a 92 be 3d
       -0.067594185 -0.10946652 0.1292821 0.09305306
000110 32 94 aa 3d 6c 42 c0 3d 3f 76 02 3e f3 90 ad bd
       0.08329047 0.09387669 0.1274042 -0.084749125
000120 0a 1b a3 3d b2 b9 cf bd 5c 40 aa bd e0 a2 a0 3c
       0.07964142 -0.101428404 -0.08313057 0.019608915
000130 b8 96 e1 bc d6 e8 e8 3d ec 0b 03 be 50 d5 ef bd
       -0.027537689 0.11372535 -0.12797517 -0.11710608
000140 8c 6c e6 bd 57 49 0d 3e 86 0f 10 be 51 2b e8 bd
       -0.112511724 0.13797508 -0.14068422 -0.11336387
000150 fe e5 9f 3d f8 26 df 3c 84 34 4e 3d d8 a3 e0 bc
       0.078075394 0.027240261 0.05034305 -0.027421877
000160 d0 aa 85 bc 12 30 ba bd 94 89 8b bd f8 f6 1d bd
       -0.016316801 -0.090912 -0.0681335 -0.038565606
000170 02 ad e6 3d 68 5e bc bd bc c4 41 bd 38 e1 fb 3c
       0.11263467 -0.09197694 -0.04730676 0.030747041
000180 d0 f4 3e bd 5a df 04 be b8 ff 2e 3d 60 91 cc 3d
       -0.04662019 -0.12975827 0.04272434 0.099886656
000190 84 cc 52 3d 80 5c 65 3d 8a 11 d8 3d 04 7d 56 3d
       0.051464573 0.055996418 0.1055022 0.052365318
0001a0 88 e1 b6 bc 04 b8 d8 bc 0c 55 47 3d a1 88 8e bd
       -0.022324339 -0.026454933 0.04866509 -0.06959654
0001b0 82 60 0b bd 42 6e 22 bd 33 78 00 3e ea 2d 86 3d
       -0.034027584 -0.03965593 0.12545852 0.06551726
0001c0 aa 92 dd bd 70 1e ac 3c 0a f8 f8 3d 56 fa 7d bd
       -0.108189896 0.021010607 0.12156685 -0.062006317
0001d0 d4 11 e6 bd d8 41 e8 bd 3b fe d7 bd cc 90 60 bd
       -0.11233869 -0.11340684 -0.105465375 -0.05482559
0001e0 79 88 08 3e 6c 23 51 3d 64 8f 7d 3d 4c 91 39 3d
       0.1333331 0.05105917 0.061904326 0.04530458
0001f0 38 d7 dc 3d 5a bd e3 3d 4a e1 e1 bd c8 c1 8c 3d
       0.10783237 0.111201 -0.110292986 0.06872898
000200 0e b1 a4 bd 14 f2 bd bd 00 f0 c0 bd aa 55 94 3d
       -0.08041583 -0.09274688 -0.09420776 0.072429016
000210 7c a9 8f bc 61 a7 0f 3e d4 77 3c 3d b4 69 b7 bd
       -0.017536871 0.14028694 0.046012715 -0.08955708
000220 30 e5 86 3c b6 7e 99 3d c0 f0 b4 3c fa 07 f6 3d
       0.016466707 0.07494871 0.022087455 0.1201324
000230 ce 5c f0 bd 10 99 1f bc a6 fa 49 bd 56 47 37 bd
       -0.11736451 -0.009741083 -0.049311303 -0.044745766
000240 9c 43 e4 bd 60 95 97 3b c8 09 59 3d 82 08 f7 3d
       -0.11145708 0.004625961 0.052987844 0.120621696
000250 c0 c5 5f 3d 84 19 0c 3d f5 3d 0c be 72 56 ae 3d
       0.05463195 0.03420402 -0.1369551 0.08512582
000260 a3 03 0b be 39 10 99 bd b8 1e c8 bc b4 5f 2c bd
       -0.13575606 -0.07473797 -0.02442871 -0.042083457
000270 6b 91 fa bd 4a b3 90 3d 30 7f 06 3c 28 e5 cd bc
       -0.122347675 0.07065447 0.008209035 -0.025133684
000280 5e 11 fe 3d 38 73 62 3d fb 2c 04 3e bc 12 bf 3d
       0.12405656 0.055285662 0.12907784 0.09329745
000290 a0 eb af 3c 6a d9 0d be 18 01 da 3c dd 90 08 3e
       0.02147466 -0.13852468 0.02661185 0.13336511
0002a0 c2 6f d8 bd f8 c5 51 3d 3b 81 0f 3e 1c ae be 3d
       -0.10568191 0.05121419 0.14014141 0.093105525
0002b0 42 b2 cc bd 41 00 ee bd 00 6e 8c b9 00 5f a1 ba
       -0.099949375 -0.11621142 -0.00026784837 -0.0012311637
0002c0 d5 62 02 3e a0 cc 4c bc 28 5a 81 3c 00 54 34 3c
       0.12733014 -0.012499958 0.01579006 0.011006355
0002d0 80 44 34 3b 00 4d ab 3a d8 7b ba 3d c7 26 b9 bd
       0.002750665 0.0013069212 0.091056526 -0.09040599
0002e0 b2 43 d1 bd 30 13 83 3c 56 d3 b1 3d d8 a4 e2 3c
       -0.1021799 0.01600036 0.08682887 0.027666494
0002f0 10 17 77 3d fe 16 28 bd 3c 97 fb bc 6c 98 ba bd
       0.06032473 -0.041037552 -0.030711763 -0.091111034
000300 a8 7f 97 bc 50 ce 94 3d 3d 95 87 bd e0 8d b4 3d
       -0.018493488 0.072659135 -0.06620262 0.08816123
000310 b2 48 ec 3d 35 57 0b 3e b6 83 b0 3d de 18 8c 3d
       0.11537303 0.13607486 0.08618872 0.068406805
000320 6a c6 fb 3d 0f c9 07 be 18 2b 0b be d0 57 9f 3d
       0.12293704 -0.13260292 -0.13590658 0.07780421
000330 0e 2a e7 bd 78 20 bf 3c 62 35 95 3d 08 57 8a bd
       -0.11287318 0.023330912 0.072855726 -0.06754881
000340 60 bf a7 3c ba 90 d1 3d 06 df 91 3d ff e4 03 3e
       0.020476997 0.102326825 0.071226165 0.12880324
000350 70 ae 98 3d 3c b6 7f bd 3c fa 26 3d d2 b1 06 bd
       0.07455146 -0.06242965 0.040765986 -0.032884426
000360 6a 14 97 bd 00 f2 65 ba 4a 91 f9 3d 28 75 94 bc
       -0.073769405 -0.00087717175 0.12185915 -0.01812227
000370 24 ab 45 3d ec 61 83 3d 82 d0 fe 3d 98 13 0c be
       0.048258916 0.064151615 0.124421135 -0.1367935
000380 44 62 c0 3d e5 87 ed bd 80 4b e0 bb a1 98 86 bd
       0.09393743 -0.115981854 -0.006844938 -0.065720804
000390 f4 ac 45 bd 04 6a 8e bd ab 01 cd bd 8e 50 eb 3d
       -0.048260644 -0.069538146 -0.10010084 0.11489974
0003a0 da 57 b0 3d f7 69 00 be dd 10 09 be ac 5d 03 3d
       0.08610506 -0.12540422 -0.13385339 0.032071754
0003b0 b8 af 86 bd c8 93 e2 bd 1c ee 88 bd d1 c9 09 3e
       -0.065764844 -0.11063343 -0.06686041 0.13455893
0003c0 f8 b9 1f 3d 40 e1 6e bd 20 03 9b bc db 21 89 bd
       0.038995713 -0.058320284 -0.018922389 -0.066959105
0003d0 c0 5a e0 bb 02 d1 01 be 90 04 cc 3c 28 61 b8 bd
       -0.0068467557 -0.12677386 0.02490452 -0.09002906
0003e0 20 14 7f 3d 20 ac 05 bc bb 3c 04 3e 13 8c 09 3e
       0.062275052 -0.008158714 0.12913792 0.1343234
0003f0 50 d4 51 bd 9e 25 f1 3d c4 a6 c0 3d 56 d0 f3 3d
       -0.051227868 0.11774753 0.09406808 0.11904971

weight f4 [32, 32, 1, 1]
000000 be b3 81 be 5a 3c 64 3e a3 63 82 be d5 bb 0b be
       -0.25332445 0.22288647 -0.25466642 -0.13645871
000010 e8 66 97 3d 40 5c 0b 3d 80 aa 79 bc 4e 84 83 be
       0.07392675 0.034023523 -0.015238404 -0.25686878
000020 3b 86 90 3e 60 5c 73 be 38 32 d2 3d 60 86 52 be
       0.2822741 -0.23765707 0.10263485 -0.20559072
000030 58 41 58 3d ff 20 98 3e 78 d1 fb 3d 38 55 2b 3e
       0.05279669 0.29712674 0.12295812 0.16731727
000040 93 ef 8e be 0f 98 83 3e 90 63 44 bd 30 a4 a3 bd
       -0.27917156 0.2570195 -0.047946513 -0.07990301
000050 f6 ad 2a be 38 ce 27 3e 30 f2 39 bd c0 b7 7a 3d
       -0.16667923 0.1638726 -0.045396984 0.061210394
000060 f0 b6 ec 3c 24 f8 82 3d d0 62 b0 3c a0 c5 93 3c
       0.028895825 0.06394985 0.021531492 0.01803857
000070 4a 7d 68 3e 70 06 65 3d db bc 52 be 00 4b 73 3c
       0.22704044 0.055914342 -0.20579855 0.014849424
000080 56 61 55 be 64 cf d2 3d dc 3c 28 3e 66 25 0f 3e
       -0.20837912 0.10293463 0.16429466 0.1397911
000090 50 30 42 3d 40 d1 fe bb 28 47 3f 3e 70 2c 21 3d
       0.047409356 -0.0077764094 0.18679488 0.03934902
0000a0 50 ae 86 3c da 5f d3 bd 60 0a d0 3d c1 23 8a be
       0.01644054 -0.103210166 0.10158229 -0.26980403
0000b0 78 d3 13 3d 4c b8 17 3e d9 91 9c 3e 82 7e 92 be
       0.036090344 0.14816397 0.30580023 -0.28612143
0000c0 bc d8 c9 3d 08 63 0c bd 7b 6c 80 3e b0 74 e4 3c
       0.09855792 -0.03427413 0.25082764 0.027887672
0000d0 2b 94 82 3e c0 b4 83 bc 95 38 8e 3e a8 66 2d 3d
       0.25503668 -0.0160774 0.27777544 0.04233423
0000e0 ec cd f5 3d 80 eb f6 bd 56 38 5f 3e d9 e7 83 be
       0.12002167 -0.12056637 0.21798834 -0.25762823
0000f0 a0 49 96 be 44 32 99 bd f6 e3 3c be 08 df 37 be
       -0.29353046 -0.074802905 -0.18446335 -0.17956173
000100 78 0d 8c bd 5c 1b 69 be c6 3d 6c 3e c6 51 33 3e
       -0.068385065 -0.22764343 0.2307044 0.17511663
000110 54 c4 41 3e c0 08 9d 3c 28 7e 26 3e d2 60 bf bd
       0.1892255 0.019169211 0.16259062 -0.09344639
000120 26 e6 80 bd 34 dd 8d be ae 22 06 be 04 e7 ab bd
       -0.06293897 -0.27707827 -0.13099167 -0.08393672
000130 c4 81 74 bd 1c 33 3b 3e 50 6a 0f 3e 8f f7 55 be
       -0.059694067 0.18281215 0.14005399 -0.20895217
000140 a8 17 32 3d f2 fb 43 3e 40 7c f0 bd 2e 16 88 be
       0.04347959 0.19139078 -0.11742449 -0.26579422
000150 60 2a da bd 6a 2f 67 3e 7a 51 2b 3e 57 a1 82 3e
       -0.10652614 0.22576681 0.167303 0.25513718
000160 b8 df c9 bd 78 f3 95 be 6c 29 d2 3d fc 3e 1e 3e
       -0.09857124 -0.29287314 0.10261807 0.15453714
000170 17 7e 8d be 6c f0 d8 bd 9c 5d 8d be ea 97 7a 3e
       -0.2763526 -0.10592732 -0.2761048 0.24472013
000180 78 67 ff 3d a4 42 40 be c8 62 6d 3d de 7e 31 be
       0.12470907 -0.18775421 0.057955533 -0.17333552
000190 14 5e 9f 3d 72 d0 51 3e 14 88 40 3e 00 b3 4d bc
       0.07781616 0.20489672 0.1880191 -0.012554884
0001a0 9a ba 1b 3e 90 7e 9c bc ec 6c fb bd 6c 26 b6 3d
       0.15207902 -0.019103318 -0.122766346 0.08894047
0001b0 f1 31 8c 3e 09 9a 91 be d3 89 83 3e 4a af a5 bd
       0.27381852 -0.28437832 0.2569109 -0.08090074
0001c0 2c ec 08 be 10 0a 2c 3d 95 fb 86 3e 30 51 2b be
       -0.13371342 0.042001784 0.26363817 -0.1673019
0001d0 6a 1d 11 3e 44 18 ef 3d b7 d6 7a be 80 03 f8 bb
       0.14171377 0.1167455 -0.2449597 -0.0075687766
0001e0 1f 88 8c be 28 91 1d 3e dd 17 2f be a0 cd cc bd
       -0.27447602 0.15387404 -0.17098947 -0.10000157
0001f0 58 dc a6 bd 39 da 8f be f0 bf 20 bd 7e 39 39 be
       -0.08147496 -0.28096178 -0.039245546 -0.18088338
000200 5b e0 81 be 9a 1e 61 3e c3 0d 2f be da 78 06 be
       -0.25366482 0.2198433 -0.17095093 -0.13132039
000210 ae f0 40 be 00 99 30 bc 7e eb 0d be 2f 46 90 be
       -0.18841812 -0.010778666 -0.13859364 -0.28178546
000220 78 e1 4c be 43 2e 94 3e 10 20 d8 3d f0 4d 96 3c
       -0.20007885 0.28941545 0.105529904 0.01834771
000230 c8 fa 5a bd e2 92 78 be 80 0e d1 3c d1 2f 92 3e
       -0.05346182 -0.24274781 0.02551961 0.28552106
000240 48 86 55 be b1 62 20 be 42 76 2e 3e 08 a3 53 bd
       -0.20852005 -0.15662648 0.170373 -0.05166915
000250 93 81 5a be 40 6f d0 3d e8 e6 83 be f4 27 38 be
       -0.21338491 0.10177469 -0.25762105 -0.17983991
000260 42 d6 8b bd 8e fe 27 3e f8 e9 04 bd 20 c3 1c 3c
       -0.06827976 0.16405699 -0.032449692 0.009568006
000270 92 b6 9a be f6 19 6a 3e 10 34 40 bd 78 c2 d3 3d
       -0.30217415 0.22861466 -0.04692465 0.10339826
000280 f4 1a 10 be 19 2e 96 3e 40 e9 26 3d f0 39 d6 bc
       -0.14072782 0.29332045 0.04074979 -0.026150674
000290 a0 2c 3b bd 90 a7 ec 3c 9f 9a 92 3e 33 62 81 3e
       -0.045696855 0.028888494 0.28633592 0.25270233
0002a0 28 59 df 3d 9c c6 59 be 76 3a 43 be 44 4b c0 bd
       0.10905677 -0.2126717 -0.1906527 -0.09389356
0002b0 8e bf 7e 3e 9c 34 75 bd 14 08 10 3e 48 e3 73 3d
       0.2487776 -0.059864625 0.14065582 0.059542924
0002c0 a5 02 8f 3e 80 9b 42 bd 9d b1 37 be 52 be 4e be
       0.27931705 -0.047511578 -0.17938848 -0.20189789
0002d0 b4 49 90 be 26 82 ee bd 68 27 1b 3e 22 6b 48 3e
       -0.2818123 -0.116459176 0.15151751 0.19572118
0002e0 11 10 97 be e0 ce 1f 3d 44 52 9a be 2c b5 23 be
       -0.29504445 0.03901565 -0.3014089 -0.1598708
0002f0 60 6b 30 bd 95 94 0a be a9 0c 9b 3e 5a 6e 8c be
       -0.04307115 -0.13533242 0.30283096 -0.27427942
000300 8e fd 74 3e 84 76 fe 3d d9 12 8c be 31 1c 91 be
       0.23924848 0.12424949 -0.2735813 -0.2834182
000310 50 33 a1 bc 74 8a 48 be 97 29 84 3e dd 8e 90 be
       -0.019677788 -0.19584066 0.2581298 -0.28233996
000320 e2 71 4a 3e 5e 38 bd bd 87 22 67 be 45 18 8e be
       0.19770005 -0.09239267 -0.22571765 -0.2775289
000330 38 56 3a be a0 c5 5b bc e0 0d c5 bc 86 60 7e 3e
       -0.18196952 -0.013413817 -0.024054468 0.24841508
000340 00 d9 cd bd 4c f9 d0 bd 42 9a 6e 3e e8 39 c2 3d
       -0.10051155 -0.102037996 0.23301032 0.09483701
000350 18 bf 06 3e 74 6c c4 3d 44 58 45 be 22 e9 3e 3e
       0.13158834 0.09590998 -0.19271952 0.1864362
000360 b0 68 8b 3c a4 c4 43 be b8 ca 4a be 85 73 61 be
       0.017017692 -0.19117981 -0.19803894 -0.22016723
000370 1c 69 7b be 28 67 77 be 50 26 ef 3d de c0 74 be
       -0.24551815 -0.24160445 0.116772294 -0.23901698
000380 50 65 30 3e 12 c1 30 be 86 14 5f 3e 7f cf 8b 3e
       0.17226148 -0.1726115 0.21785173 0.27306744
000390 4e 34 30 3e 40 3f 08 3d 00 46 35 3b a0 99 bd bc
       0.17207453 0.033263445 0.0027660131 -0.023144543
0003a0 30 38 fa 3d b2 66 8b be 0b bf 79 be 7a 0d 60 3e
       0.12217748 -0.27226788 -0.24389283 0.21880141
0003b0 de 66 26 3e 0f 17 94 3e 20 b9 dc 3c 0c d2 bf 3d
       0.16250178 0.28923842 0.026943743 0.09366235
0003c0 af 5e 8a be 6e 9d 40 3e 84 b2 3f be c5 c3 8e be
       -0.27025363 0.18810055 -0.18720442 -0.27883735
0003d0 26 76 28 3e 30 24 1a 3e 5d ba 8f 3e 4c 70 60 be
       0.1645132 0.15052867 0.2807187 -0.21917838
0003e0 ef a8 96 3e f4 b4 41 be 60 49 62 3d 72 eb 85 bd
       0.2942576 -0.18916684 0.055245757 -0.06539048
0003f0 20 59 30 3c 48 af 15 bd 58 db 0e be 48 ee 5b bd
       0.010763437 -0.036544114 -0.1395086 -0.05369404

weight f4 [32]
000000 00 00 80 3f 00 00 80 3f 00 00 80 3f 00 00 80 3f
       1.0 1.0 1.0 1.0
000010 00 00 80 3f 00 00 80 3f 00 00 80 3f 00 00 80 3f
       1.0 1.0 1.0 1.0
000020 00 00 80 3f 00 00 80 3f 00 00 80 3f 00 00 80 3f
       1.0 1.0 1.0 1.0
000030 00 00 80 3f 00 00 80 3f 00 00 80 3f 00 00 80 3f
       1.0 1.0 1.0 1.0
000040 00 00 80 3f 00 00 80 3f 00 00 80 3f 00 00 80 3f
       1.0 1.0 1.0 1.0
000050 00 00 80 3f 00 00 80 3f 00 00 80 3f 00 00 80 3f
       1.0 1.0 1.0 1.0
000060 00 00 80 3f 00 00 80 3f 00 00 80 3f 00 00 80 3f
       1.0 1.0 1.0 1.0
000070 00 00 80 3f 00 00 80 3f 00 00 80 3f 00 00 80 3f
       1.0 1.0 1.0 1.0

bias f4 [32]
000000 00 00 00 00 00 00 00 00 00 00 00 00 00 00 00 00
       0.0 0.0 0.0 0.0
000010 00 00 00 00 00 00 00 00 00 00 00 00 00 00 00 00
       0.0 0.0 0.0 0.0
000020 00 00 00 00 00 00 00 00 00 00 00 00 00 00 00 00
       0.0 0.0 0.0 0.0
000030 00 00 00 00 00 00 00 00 00 00 00 00 00 00 00 00
       0.0 0.0 0.0 0.0
000040 00 00 00 00 00 00 00 00 00 00 00 00 00 00 00 00
       0.0 0.0 0.0 0.0
000050 00 00 00 00 00 00 00 00 00 00 00 00 00 00 00 00
       0.0 0.0 0.0 0.0
000060 00 00 00 00 00 00 00 00 00 00 00 00 00 00 00 00
       0.0 0.0 0.0 0.0
000070 00 00 00 00 00 00 00 00 00 00 00 00 00 00 00 00
       0.0 0.0 0.0 0.0

running_mean f4 [32]
000000 83 70 02 3b de ed 47 3b be 20 1d ba 2f b8 cc 3a
       0.0019903488 0.003050677 -0.00059939537 0.0015618856
000010 a0 1b da ba f1 6b a9 3a eb 3b b5 ba 47 7e 9b 3b
       -0.0016640313 0.0012925846 -0.0013827061 0.004745278
000020 fa 65 28 bb 62 7a 62 ba 26 39 24 bb a0 41 7d 3b
       -0.0025695548 -0.0008639452 -0.0025058477 0.0038643852
000030 93 fa e6 b9 ce 7f 20 3b e8 57 7b ba 0d 3a 38 ba
       -0.0004405571 0.002449024 -0.0009587989 -0.0007027693
000040 a8 80 86 b9 e0 3a 7c b9 79 9c 3b 3b d3 9b 5a 39
       -0.00025654328 -0.00024054525 0.00286272 0.00020848149
000050 b0 94 50 3a ca 5b e5 3a ae 46 0b 3a d7 4f 39 3b
       0.00079567265 0.0017498669 0.00053129613 0.0028276348
000060 8c 48 1a 3b 0d a2 10 bb 90 7c 1c bb f3 5d f0 39
       0.0023541776 -0.0022069246 -0.0023877956 0.00045846365
000070 53 4b 73 3a 6f eb 06 bb 36 2f 1f 3a 17 f7 dd 3b
       0.00092809385 -0.0020587107 0.00060724036 0.00677384

running_var f4 [32]
000000 b5 94 66 3f 93 78 66 3f 54 aa 66 3f cf 7a 66 3f
       0.9007066 0.9002773 0.9010365 0.9003114
000010 ec 90 66 3f 26 8a 66 3f 8e 73 66 3f af a4 66 3f
       0.90064883 0.9005455 0.9002007 0.9009504
000020 61 81 66 3f 91 85 66 3f 03 89 66 3f 4e 8d 66 3f
       0.90041167 0.90047556 0.90052813 0.90059364
000030 60 a4 66 3f 7e 9e 66 3f 3e 9b 66 3f ee 73 66 3f
       0.90094566 0.9008559 0.9008063 0.90020645
000040 5d 88 66 3f b4 79 66 3f 88 87 66 3f 3c 77 66 3f
       0.90051824 0.90029454 0.90050554 0.9002569
000050 bb 7d 66 3f 08 8e 66 3f ac 85 66 3f 6f 7b 66 3f
       0.900356 0.9006047 0.9004772 0.90032095
000060 b7 8a 66 3f 55 73 66 3f df 80 66 3f 91 77 66 3f
       0.9005541 0.9001973 0.9004039 0.90026194
000070 1f 9a 66 3f 0d 7a 66 3f 77 7c 66 3f c5 9a 66 3f
       0.9007892 0.90029985 0.9003367 0.9007991

weight f4 [32]
000000 00 00 80 3f 00 00 80 3f 00 00 80 3f 00 00 80 3f
       1.0 1.0 1.0 1.0
000010 00 00 80 3f 00 00 80 3f 00 00 80 3f 00 00 80 3f
       1.0 1.0 1.0 1.0
000020 00 00 80 3f 00 00 80 3f 00 00 80 3f 00 00 80 3f
       1.0 1.0 1.0 1.0
000030 00 00 80 3f 00 00 80 3f 00 00 80 3f 00 00 80 3f
       1.0 1.0 1.0 1.0
000040 00 00 80 3f 00 00 80 3f 00 00 80 3f 00 00 80 3f
       1.0 1.0 1.0 1.0
000050 00 00 80 3f 00 00 80 3f 00 00 80 3f 00 00 80 3f
       1.0 1.0 1.0 1.0
000060 00 00 80 3f 00 00 80 3f 00 00 80 3f 00 00 80 3f
       1.0 1.0 1.0 1.0
000070 00 00 80 3f 00 00 80 3f 00 00 80 3f 00 00 80 3f
       1.0 1.0 1.0 1.0

bias f4 [32]
000000 00 00 00 00 00 00 00 00 00 00 00 00 00 00 00 00
       0.0 0.0 0.0 0.0
000010 00 00 00 00 00 00 00 00 00 00 00 00 00 00 00 00
       0.0 0.0 0.0 0.0
000020 00 00 00 00 00 00 00 00 00 00 00 00 00 00 00 00
       0.0 0.0 0.0 0.0
000030 00 00 00 00 00 00 00 00 00 00 00 00 00 00 00 00
       0.0 0.0 0.0 0.0
000040 00 00 00 00 00 00 00 00 00 00 00 00 00 00 00 00
       0.0 0.0 0.0 0.0
000050 00 00 00 00 00 00 00 00 00 00 00 00 00 00 00 00
       0.0 0.0 0.0 0.0
000060 00 00 00 00 00 00 00 00 00 00 00 00 00 00 00 00
       0.0 0.0 0.0 0.0
000070 00 00 00 00 00 00 00 00 00 00 00 00 00 00 00 00
       0.0 0.0 0.0 0.0

running_mean f4 [32]
000000 23 03 e7 3a b1 bd 2f 3c 14 47 a1 bb 06 be 09 bc
       0.0017624836 0.010726378 -0.0049218033 -0.0084071215
000010 83 f9 f1 bc 9d cd f0 bb ac ba 08 bd 53 71 7d 3c
       -0.029537922 -0.0073487298 -0.03338115 0.015468913
000020 a9 90 0a 3c 0b d5 98 bb c7 86 88 3c 25 28 80 3b
       0.008457341 -0.0046640686 0.01666583 0.0039110356
000030 12 9c 87 3c 23 1e a9 3c 1d 24 f8 3b d5 cf aa bc
       0.016553912 0.020644253 0.0075726644 -0.020851055
000040 e3 64 78 3b 5c 71 c5 bb e0 78 49 bc ab 46 9a 3c
       0.003790193 -0.0060254764 -0.012296885 0.018832525
000050 67 30 b5 3b d5 6e 35 3d c0 65 f5 bc 27 2f b9 bc
       0.0055294516 0.04429515 -0.029955745 -0.022605492
000060 4d 27 67 3c ef 55 88 bc c3 06 26 3c 25 59 0b 3c
       0.014108491 -0.016642539 0.010133448 0.00850514
000070 cb 47 bf 3c 40 ee 57 3c 57 d3 0c bc 67 b6 8a 3c
       0.023349663 0.013179362 -0.008595309 0.01693268

running_var f4 [32]
000000 68 16 6e 3f 18 89 6e 3f da ec 6e 3f c3 95 6d 3f
       0.9300294 0.9317794 0.93330157 0.92806643
000010 a0 0c 6f 3f 4c 73 6f 3f 76 c4 70 3f 7b 59 70 3f
       0.9337864 0.93535304 0.94049776 0.93886536
000020 18 de 6c 3f 8c 62 71 3f a8 b3 71 3f 16 57 70 3f
       0.9252639 0.94290996 0.9441476 0.9388288
000030 db 57 71 3f b2 af 6e 3f c7 f2 70 3f 0b bc 6d 3f
       0.9427468 0.9323684 0.9412045 0.92865056
000040 19 5f 6e 3f 2b 07 72 3f a1 8d 6d 3f f8 3b 6e 3f
       0.9311386 0.9454219 0.92794234 0.93060255
000050 9c dc 6f 3f bd e2 6f 3f 93 38 6e 3f 34 31 6f 3f
       0.93696 0.9370535 0.93055075 0.93434453
000060 d7 34 6f 3f 3d 59 6c 3f ea f6 70 3f 1a ae 70 3f
       0.9344 0.92323667 0.9412676 0.9401566
000070 f4 ef 6e 3f 90 85 71 3f a1 48 6f 3f 74 45 6f 3f
       0.9333489 0.94344425 0.934702 0.9346535

weight f4 [2, 32]
000000 00 b5 31 be 64 df 8d 3d 80 e2 cd bd 91 bb e4 3d
       -0.17354202 0.06927374 -0.10052967 0.11168588
000010 50 6d a3 be 2e 98 cf 3e 1e 1c 3c be 5d 30 6e be
       -0.31919336 0.4054579 -0.18370101 -0.23260637
000020 ec a7 f7 3b ff e0 f5 3d 0b fb 03 3e 4a 3b 28 3e
       0.0075578596 0.12005805 0.12888734 0.16428867
000030 5a d9 a6 be ce 3b 46 3e 8d f2 92 be a7 4c 24 3d
       -0.325877 0.19358751 -0.28700677 0.040112164
000040 6a c8 5a 3e a2 ba b5 3e c2 56 47 bd 18 e5 09 be
       0.21365514 0.35493952 -0.048666723 -0.13466299
000050 c3 ba 6a 3e b7 6f 96 bd e7 32 28 be 41 77 9f 3e
       0.22922806 -0.07345527 -0.16425668 0.3114567
000060 33 bb ba 3e 61 f5 a4 3e e9 49 3c 3c c2 db 1e 3d
       0.36470947 0.3221846 0.011492231 0.038783796
000070 e3 ad bc 3e d5 39 ae 3e f5 f0 92 3e 6c ae ce bb
       0.36851415 0.34028497 0.2869946 -0.006307414
000080 c5 6b 2a be 10 0e ca 3e e4 f9 bf be 77 e7 b6 3e
       -0.16642673 0.39463854 -0.3749534 0.3572347
000090 d3 b3 75 3e 77 56 8f 3e dd b8 d4 3e 5d ad a4 be
       0.23994379 0.27995655 0.4154729 -0.32163516
0000a0 9b 4a 74 3e 7d 1c 09 bd f0 1e a2 3c 63 ca de bb
       0.23856585 -0.033474434 0.019790143 -0.0067990287
0000b0 a5 45 b0 3e 89 43 81 3e d9 4e e0 bd e6 f2 cc be
       0.34428135 0.25246838 -0.10952539 -0.40029067
0000c0 f6 d1 1f be 70 e9 d7 bd fa ac e8 3d d8 99 b5 be
       -0.15607437 -0.105425715 0.11361118 -0.35468936
0000d0 12 1a cc 3e 9d f3 63 be ef b2 0b 3e cb 63 ea bd
       0.3986364 -0.222609 0.13642476 -0.11444815
0000e0 71 b4 bb be b9 5b 65 3d 31 4e 99 be 6f 6d 82 be
       -0.36661103 0.055995677 -0.29942468 -0.25474116
0000f0 f9 4f 40 3e 50 7b a7 3e 33 d8 0b be f5 a6 99 3e
       0.18780507 0.32711267 -0.13656692 0.3001019

bias f4 [2]
000000 eb 68 03 3e c0 c5 d7 bb
       0.12832992 -0.006584853

weight f4 [32, 2]
000000 52 78 2f 3d d2 50 71 bd e8 61 d0 3e 3d 4a c9 3c
       0.042839356 -0.058914967 0.40699697 0.024571532
000010 9f 1f 5d 3e dc 39 fe 3d 81 a4 74 3e fe 21 d9 3d
       0.21594094 0.124133795 0.23890878 0.106021866
000020 62 a2 91 be 94 4c 99 be 42 97 91 3e 24 73 5c 3e
       -0.284442 -0.29941237 0.28435713 0.21528298
000030 3b 5b 32 be 01 3c a6 be 2b fe a3 3e 4c 2d bd bd
       -0.17417614 -0.32467654 0.32029852 -0.09237155
000040 c4 88 18 be 76 47 36 3e 68 ab 3d be ea e2 4a be
       -0.14895922 0.17800698 -0.18522418 -0.19813123
000050 94 81 a2 3d 92 2c 18 3e 84 84 92 3d ed 1e b3 be
       0.07934871 0.14860752 0.071541816 -0.34984532
000060 a5 6b 03 be 8b ff 9d bd f1 5c 1d 3e 3e c5 c3 be
       -0.12834032 -0.077147566 0.15367486 -0.3823642
000070 ac 71 09 3e 51 dd 55 3e 2c 8a c3 bd 6d d8 39 be
       0.13422269 0.20885207 -0.095478386 -0.18148966
000080 6a 7c 52 3e dc 04 af be 78 5f 8b 3d 28 e3 5c 3e
       0.20555273 -0.34183395 0.068053186 0.21571028
000090 97 d1 e9 3d 1d 8e cd be b2 98 a0 be 61 e9 bd be
       0.11416929 -0.40147486 -0.31366497 -0.37092116
0000a0 33 49 50 be cd 12 66 bd 8d bb a0 be 5c 2d 83 3e
       -0.20340423 -0.056170274 -0.3139309 0.25620544
0000b0 f6 cb 2b 3d 30 b1 0a 3d 92 7a ce be cd 79 ae bc
       0.04194256 0.033860385 -0.4032789 -0.021298314
0000c0 78 4d 35 be 12 6c 60 be 28 f0 56 bd 2f f0 bf 3e
       -0.17705333 -0.21916226 -0.052475125 0.37487933
0000d0 24 01 b9 3d b2 7d a7 be c1 8b 55 3e 38 c5 fc 3d
       0.09033421 -0.32713085 0.20854093 0.12342304
0000e0 17 85 72 be 4e 87 86 be e8 78 d8 bc eb 69 ef 3d
       -0.23683582 -0.26275104 -0.02642484 0.11690124
0000f0 a9 18 9d 3e aa 83 b6 3d 9e 39 10 be 45 10 59 bd
       0.30682877 0.08911832 -0.14084479 -0.05299403

bias f4 [32]
000000 ea 94 82 be 4a 53 ca 3e ec 0b 09 bf d4 44 50 be
       -0.25504237 0.3951667 -0.53533816 -0.20338756
000010 73 ba 32 bf 00 8e 1c bc ae 5d 8b 3e 80 12 35 3c
       -0.6981575 -0.00955534 0.2721991 0.011051774
000020 57 fd 01 bf 9c f8 1d bf 55 f3 0c bf 8b 8f 20 bf
       -0.5077719 -0.6170747 -0.55058795 -0.6271903
000030 2b b4 05 3f 6b ad a8 be a0 ad 2c 3e 17 a6 0b 3f
       0.5222804 -0.32944807 0.16863108 0.5455031
000040 21 c2 cd be b0 42 33 bd 30 d2 1a bd 20 de ba bd
       -0.4018717 -0.04376477 -0.037798107 -0.09124398
000050 ce fa e8 3e 22 85 99 3e 76 90 d8 3e 5f 20 cc be
       0.4550385 0.29984385 0.42297715 -0.39868447
000060 26 ef 31 bf 80 23 93 3e 30 51 bb 3d a0 1d 65 3e
       -0.69505537 0.28738022 0.09146345 0.22374582
000070 08 38 fe 3d 17 5b cd be e0 53 09 bf 77 1e 23 3f
       0.12413031 -0.4010856 -0.5364361 0.6371836
