trained_model/FIAT(Reagentv4).pt (torch, 422936 bytes, 155 tensors)

weight f4 [32, 1, 3, 3]
00000000: 0457 a13d 5cc2 563d 3751 0b3e 91bb 0b3e
00000010: 20c5 7dbd 00a3 963a 876f 113e 5af2 06bd
00000020: ba12 f83d 86b3 ec3d 509b dcbc 5804 ddbd
00000030: 30e6 183c 009c 333d a656 8a3d f62d f43d
00000040: d419 82bd d13b 92bd 6e0d e03d a2a8 94bd
00000050: 80c1 a73a 101c 13bc f6dc 1dbd 9ac8 c53d
00000060: 6a7b b83d 20db c1bd 3c8e 4a3d da81 90bd
00000070: 1b55 a5bd e8dd 083d 9cf0 8f3d 2051 e1bd
00000080: 18ce b6bd 2164 0d3e a883 843d 7d80 033e
00000090: 8e00 85bd dacb 5dbd e4ea 07bd 40d0 4f3d
000000a0: 581c 503d 9e28 d63d 5629 e53d 44f9 f5bc
000000b0: 9ca4 143d 9064 cfbc bc2d b0bd c217 42bd
000000c0: b7a6 c5bd 10ce ca3d 0459 4e3d 4283 8b3d
000000d0: 6dd4 85bd 0461 05be f0b3 4a3c cedc e13d
000000e0: 82f8 2bbd 001e 1cba e680 8a3d e2c5 49bd
000000f0: a9c6 febd 3023 09bc 6e65 1cbd 6b9c c4bd
00000100: d0b6 823c b45d ab3d c3cc c3bd 3061 ecbc
00000110: 5478 393d f286 c4bd 6c70 963d 7044 0d3c
00000120: 5ff0 023e 3ec4 2abd 1f1e 043e df85 113e
00000130: 8e27 01be d7d6 f6bd ae45 aebd c5b8 b2bd
00000140: 508b 1bbc da2c b13d 586a 253d f062 32bc
00000150: 965a 71bd b2c9 e13d e1f4 dbbd 068a f4bd
00000160: 0c6b a23d 008c 89bd 02b8 963d e064 f4bb
00000170: a8ba cdbc f6a0 ed3d 365a babd 72b3 10bd
00000180: 8cc0 3b3d 2a70 0cbe c2e7 a2bd a96d 023e
00000190: fe28 8b3d 3ca8 ac3d 60b1 62bc b8f3 ad3d
000001a0: 2030 eebd 20d0 c7bb c073 0cbe 0a17 983d
000001b0: 660b cc3d 8832 c73d 5510 0c3e 4f2e e6bd
000001c0: 298e 00be 1827 d03c 3e99 6dbd f4f1 763d
000001d0: 6862 233d 9b50 d8bd cc98 dfbd 562e 23bd
000001e0: 102b 31bc 6c50 aabd 5cd3 273d d7ee 96bd
000001f0: 18ea d93c 009c c139 cc3a d4bc 6650 e73d
00000200: 10b5 50bd f0d7 d13c 40c8 d93d 6e23 fe3d
00000210: 2667 31bd 5004 223c b69e e43d 0cd9 c63d
00000220: c39b dbbd 39bc 8ebd 9c79 c03d e0f5 d4bc
00000230: ec0e 95bc 28d4 2a3d 6689 ac3d 0002 ed3a
00000240: 2abf 82bd 864e ed3d 3282 63bd a8c8 62bd
00000250: 96ee edbd 040d dbbc f45a b2bd 88c8 913d
00000260: ba5e 03bd e69b ce3d 2099 03bd 5c95 303d
00000270: 8405 f1bd 5f7d 05be 7cf1 e2bc 6424 c4bc
00000280: 6011 4bbc 9303 c7bd 744c 28bd c66f e33d
00000290: 9c0a edbc b0fa dd3c 0822 b9bc d2a0 b13d
000002a0: 8017 c03d f5b9 e7bd 4026 e3bb 0f62 0c3e
000002b0: 2476 ab3d d2fb c5bd 29db e3bd a412 0e3d
000002c0: 4c3b 8a3d b06b 48bc 904c 97bc 80c0 c9bb
000002d0: f278 3dbd 768f e1bd 200d bf3c 7a16 f33d
000002e0: 2cc2 e2bd 9093 e9bd a060 36bc d2d6 8ebd
000002f0: 301f 653c 425b 2ebd 1ee6 8a3d c068 62bc
00000300: ac12 cebd 5068 60bc e2b0 a93d 8efe 0cbe
00000310: 79c8 05be 5e8d dd3d a593 f6bd eb1e 8dbd
00000320: c535 0abe f8d1 a5bc 88b8 883d 9fd0 083e
00000330: 9c2d 413d e651 f03d 6dd2 efbd 8867 91bd
00000340: c47b 20bd c046 eabb 8817 813d 5adc d2bd
00000350: 894c 0fbe 5204 9e3d 002d 263d 0c3b 7a3d
00000360: 60fe 533c 42d6 b8bd de58 e13d 7ea9 07bd
00000370: 08af a43c ba68 8bbd fce7 b4bd b9f1 92bd
00000380: dc85 213d 402a d5bb 9864 403d 5e57 babd
00000390: 90e3 73bc f4ec c4bd bc36 db3d 9b7b 013e
000003a0: 321d ddbd ee8c ebbd a0e2 ef3b 7a9f fc3d
000003b0: 3cc3 fabd 3476 063d c084 303c f8d8 ecbc
000003c0: dc4b b6bc 82e2 cebd e0c8 383c a795 023e
000003d0: ce9a 0fbe e0cb b53c f8dd a23d 8430 6f3d
000003e0: 10f5 7bbc c093 7fbd 72db fc3d b990 9abd
000003f0: 702e bf3d 1857 d13d 14f4 4f3d b207 99bd
0.07877925 0.05243145 0.136052 0.1364577 -0.06195557 0.001149267 0.142027 -0.03294597
0.12112947 0.11557679 -0.026929528 -0.10791844 0.009332225 0.043849945 0.06754808 0.11922829
-0.063525826 -0.07140315 0.109400615 -0.07258727 0.0012798756 -0.008978859 -0.038540803 0.09657402
0.09007914 -0.09465623 0.04945205 -0.07056017 -0.08072873 0.03341475 0.070283145 -0.110018015
-0.08926028 0.13807727 0.06470424 0.12841983 -0.064942464 -0.054149486 -0.033182994 0.050735712
0.05080828 0.10456966 0.11189525 -0.030026086 0.036289796 -0.025316507 -0.08602473 -0.04738594
-0.09650939 0.099025846 0.05037786 0.06812145 -0.065346576 -0.1302529 0.012372002 0.11028443
-0.041985042 -0.0005955398 0.06762867 -0.04926098 -0.12440235 -0.008370206 -0.03818267 -0.09600147
0.015956312 0.08367482 -0.095605396 -0.028854936 0.04528077 -0.09596051 0.073456615 0.008622274
0.12787007 -0.041691057 0.12902115 0.14211224 -0.12612745 -0.12052696 -0.08509384 -0.08726648
-0.009493664 0.08651133 0.04038462 -0.010887846 -0.05892428 0.110247985 -0.10740066 -0.119403884
0.07930574 -0.06716156 0.073593155 -0.0074583143 -0.025113419 0.116029665 -0.090992376 -0.035327382
0.045837924 -0.13714662 -0.079543605 0.12737145 0.06794928 0.08430526 -0.013836235 0.08493751
-0.11630273 -0.0060978085 -0.1371603 0.07426269 0.099631116 0.09726435 0.13678105 -0.112393014
-0.1255423 0.025409266 -0.05800747 0.06028934 0.03988877 -0.10562249 -0.109178156 -0.03983911
-0.01081349 -0.083161205 0.040973052 -0.07369774 0.026600882 0.00036928058 -0.025906943 0.11294632
-0.050953925 0.025615662 0.10633898 0.124091014 -0.04331126 0.0098887235 0.11163084 0.09709367
-0.107230686 -0.069694944 0.09398195 -0.025996149 -0.018195592 0.041706234 0.08424644 0.0018082261
-0.06384118 0.11587243 -0.055544086 -0.055367142 -0.11617772 -0.026739605 -0.08708754 0.071183264
-0.03207276 0.10088329 -0.032128453 0.04311119 -0.1176863 -0.13036107 -0.02770304 -0.023943134
-0.012394279 -0.097174786 -0.041088536 0.111053035 -0.028935723 0.027097076 -0.022599235 0.08673252
0.09379482 -0.11314765 -0.00693205 0.13709281 0.08372143 -0.096671715 -0.11125786 0.034685746
0.06749591 -0.012232706 -0.018469125 -0.006156981 -0.04625792 -0.11013691 0.023321688 0.118695214
-0.110721916 -0.114050984 -0.011131436 -0.069745675 0.013984486 -0.0425675 0.067821726 -0.01381892
-0.10062155 -0.013696745 0.08285691 -0.1376898 -0.13064755 0.10817979 -0.1203988 -0.06890663
-0.13497074 -0.020241722 0.066758215 0.13360833 0.047162637 0.11734371 -0.117100574 -0.07099825
-0.039180532 -0.0071495473 0.06303316 -0.10295935 -0.1399404 0.07715668 0.04057026 0.061091468
0.012939066 -0.090252414 0.11003278 -0.033120625 0.020102993 -0.068070844 -0.0883331 -0.07175011
0.0394343 -0.0065052807 0.046970934 -0.09098695 -0.014885798 -0.09615508 0.10703799 0.12644808
-0.10796584 -0.115014896 0.007320717 0.12335105 -0.12244269 0.03282757 0.010773838 -0.028912053
-0.02225297 -0.10101797 0.011278361 0.127524 -0.14023897 0.022191942 0.079524934 0.058395877
-0.015378252 -0.062396765 0.12346543 -0.07547135 0.09335029 0.1022169 0.05076988 -0.07472171

weight f4 [32]
00000000: 0000 803f 0000 803f 0000 803f 0000 803f
00000010: 0000 803f 0000 803f 0000 803f 0000 803f
00000020: 0000 803f 0000 803f 0000 803f 0000 803f
00000030: 0000 803f 0000 803f 0000 803f 0000 803f
00000040: 0000 803f 0000 803f 0000 803f 0000 803f
00000050: 0000 803f 0000 803f 0000 803f 0000 803f
00000060: 0000 803f 0000 803f 0000 803f 0000 803f
00000070: 0000 803f 0000 803f 0000 803f 0000 803f
1.0 1.0 1.0 1.0 1.0 1.0 1.0 1.0
1.0 1.0 1.0 1.0 1.0 1.0 1.0 1.0
1.0 1.0 1.0 1.0 1.0 1.0 1.0 1.0
1.0 1.0 1.0 1.0 1.0 1.0 1.0 1.0

bias f4 [32]
00000000: 0000 0000 0000 0000 0000 0000 0000 0000
00000010: 0000 0000 0000 0000 0000 0000 0000 0000
00000020: 0000 0000 0000 0000 0000 0000 0000 0000
00000030: 0000 0000 0000 0000 0000 0000 0000 0000
00000040: 0000 0000 0000 0000 0000 0000 0000 0000
00000050: 0000 0000 0000 0000 0000 0000 0000 0000
00000060: 0000 0000 0000 0000 0000 0000 0000 0000
00000070: 0000 0000 0000 0000 0000 0000 0000 0000
0.0 0.0 0.0 0.0 0.0 0.0 0.0 0.0
0.0 0.0 0.0 0.0 0.0 0.0 0.0 0.0
0.0 0.0 0.0 0.0 0.0 0.0 0.0 0.0
0.0 0.0 0.0 0.0 0.0 0.0 0.0 0.0

running_mean f4 [32]
00000000: c869 e83c c3b4 873b f8c5 d33b 0a2a 883b
00000010: 8a5a 0c3c 2f1c 3ebc caa3 69bb 20c9 8cbb
00000020: a009 74bb ff9d 18bb a083 eabb f042 053c
00000030: 2d4c 053c 08bc 8fbc e5d7 973c 7e13 9c3b
00000040: ed3f 4abc 229c 73bc c7c9 ab3b dd15 7e3b
00000050: 10e1 7abc bdf1 10bc 5e07 9abb 2758 c2bb
00000060: 53b5 09bc 300b f9bb 4113 92bb f6b2 bd3b
00000070: db10 303c ab35 95bc a374 25bc d21e 9b3c
0.028370753 0.0041414215 0.0064628087 0.004155402 0.008566508 -0.011603399 -0.0035650604 -0.004296437
-0.0037237182 -0.0023287532 -0.007156804 0.008133635 0.0081358375 -0.017545715 0.018535564 0.004763066
-0.012344343 -0.014868768 0.0052425596 0.0038770356 -0.015312448 -0.008846697 -0.0047005853 -0.0059309187
-0.0084050475 -0.0076002106 -0.0044578617 0.005789156 0.010746206 -0.018214067 -0.010098609 0.018935595

running_var f4 [32]
00000000: 3998 663f 5885 663f f080 663f 1191 663f
00000010: ee7b 663f 9685 663f 877b 663f 217f 663f
00000020: cd9d 663f 4188 663f 3186 663f d18e 663f
00000030: f18f 663f e37c 663f 1a86 663f 657f 663f
00000040: 1c83 663f 6484 663f 337f 663f 9f83 663f
00000050: bf86 663f be8e 663f ec97 663f d482 663f
00000060: b37c 663f e08d 663f 087e 663f 888d 663f
00000070: 787a 663f 6c95 663f 0a8c 663f 9381 663f
0.90076023 0.90047216 0.90040493 0.90065104 0.9003285 0.90047586 0.9003224 0.90037733
0.90084535 0.90051657 0.9004851 0.9006167 0.9006339 0.9003431 0.9004837 0.9003814
0.9004381 0.9004576 0.9003784 0.9004459 0.90049356 0.9006156 0.90075564 0.9004338
0.90034026 0.90060234 0.9003606 0.9005971 0.9003062 0.9007175 0.9005743 0.90041465

weight f4 [32, 16, 3, 3]
00000000: 422a 703d e07d c73b f098 c0bc 9018 fcbb
00000010: f455 b83c 341b d5bd c89d f0bc 7221 6c3d
00000020: 1256 e7bd 8065 853a 1a86 21bd 0266 1b3d
00000030: 8c3e fc3c 0cfd c3bd 1e97 3ebd 99c1 79bd
00000040: d874 e6bd 03a0 903d c23e 4cbd 700b bebb
00000050: a238 c9bd 1ee2 3c3d faad 163d a5fc 8c3d
00000060: ef4f c83d a671 273d 0bee cdbd d6d8 adbd
00000070: 8583 6bbd f66d 13bd 9f94 e63d bee0 3cbd
00000080: 3595 c6bd 3fbf e73d b75f c93d 55c4 70bd
00000090: eace 7c3d 0c2a b33c 8ec6 223d a0f3 e4bd
000000a0: c60b adbd 406f e13a 2cd5 55bd 5e99 0e3d
000000b0: 9646 6b3d a982 8fbd 8e05 733d 60c7 603b
000000c0: ba13 2b3d 56ea 663d 2770 babd b578 e4bd
000000d0: 5ba2 ec3d 90a2 22bc 3d1a b63d 8000 f13a
000000e0: f162 cf3d 4ef6 603d d32e eb3d 8fd8 bb3d
000000f0: 0167 8a3d 80c4 27bd 3a33 3dbd 2779 d9bd
00000100: 5ac5 d8bd 60e1 2fbc 8b8e b23d a0e7 de3b
00000110: b3e6 a43d bf98 ccbd 5050 d5bb 5e6f 6bbd
00000120: bcc0 86bd 1d37 833d 0097 b0bb 8cd9 b53c
00000130: 9167 a03d 2fc7 e3bd 0114 883d e88b 0ebc
00000140: 3076 11bd 95ef 9b3d 3da7 b43d d62b 90bd
00000150: d296 6c3d 780c 423c 9255 5a3d 8c13 c73c
00000160: 4627 093d 1c9b 93bc 3d47 953d 582a b8bd
00000170: 4c34 dfbc a14e 993d 4709 a83d b8ae 08bd
00000180: e1fb d23d 21e1 cbbd 1413 13bd 166e 4ebd
00000190: e0c5 12bd 578c 9c3d dc33 5fbd e045 68bd
000001a0: e689 dbbd 3798 e63d 74a4 ccbd b931 a93d
000001b0: 5ea1 573d a9f6 a03d 7624 373d 5cc9 acbc
000001c0: 49bf d03d 20db 97bd c290 323d 72ff adbd
000001d0: 3475 9cbd 043c a5bc 5d67 70bd 2cea cf3c
000001e0: e79e e43d 0a84 7a3d 203a 95bc ec7c cabd
000001f0: 0c1c e83c 855f bc3d 4e94 1b3d 0417 1cbd
00000200: 9ef0 543d c500 d63d 4ced c2bc 8c05 bbbd
00000210: db63 b73d bcc8 babc afcc e63d a634 4e3d
00000220: e028 56bd 7218 563d 06f8 0c3d 116c 9b3d
00000230: a27e edbd 582c e1bc a7a1 8f3d 62fe 5f3d
00000240: c1e2 ec3d 097a 8a3d a48c ff3c deaf 61bd
00000250: deab 3abd 648f e03c f4cb 3bbd cb3e f1bd
00000260: 983e 6cbd 39ae b5bd 858e d5bd 2479 e13c
00000270: dafc 99bd 7e20 623d e67e d2bd 7410 6bbd
00000280: f4db 9b3c ba51 9cbd 5360 a5bd 3eab e4bd
00000290: f00c a8bc 8041 d43a 4680 1e3d 6818 7abc
000002a0: 01f8 cb3d f4f8 c03c b200 30bd 8992 b9bd
000002b0: 5cb0 933c 71b6 943d e19b adbd d86f 613c
000002c0: 99fa dc3d b3dc a73d 6211 cdbd 9c86 cbbc
000002d0: f2b0 173d 4a35 423d 1429 993c 35f5 ac3d
000002e0: 092a 95bd 7068 adbd ccf4 b8bd b291 8dbd
000002f0: c4b7 d0bc e81d 073c 323f 3bbd 5b4a 993d
00000300: f700 f0bd 3648 51bd 6421 a9bc 003f b3bb
00000310: 7838 85bd fa43 163d ca47 153d 2c44 ab3c
00000320: 169c 5abd 6373 c1bd 2885 b9bd 332e ba3d
00000330: c621 4b3d e4ba b23c 3837 80bc 56a3 4f3d
00000340: 5da7 c43d 1ccc db3c c445 82bd de2d 223d
00000350: 4000 b1bb 1f15 ea3d ac7d 9cbc e0bd 13bd
00000360: 1ef6 8bbd cd82 cd3d e0d9 4abd 6d18 aebd
00000370: f479 4ebd b1c0 babd bb2d 94bd 2c77 1cbd
00000380: 47a0 d73d 3faf d43d 4087 3e3b 4aaa d8bd
00000390: e01e 95bc 9ce2 10bd c006 6b3b f2ca 3e3d
000003a0: d449 97bd 1e07 a2bd da47 37bd 4879 6c3c
000003b0: 15b8 efbd ca12 a9bd 1f91 cebd f261 adbd
000003c0: 0034 ccba 99d7 ce3d e13c c7bd 5eda 3c3d
000003d0: e80d f0bc c199 c7bd 04eb c9bc d66c d7bd
000003e0: 5fb1 eebd 5034 9fbc d99e efbd 0263 413d
000003f0: 51b5 803d 4b15 dd3d d019 a6bc ff38 943d
0.05863405 0.0060880035 -0.023510426 -0.0076933578 0.022501923 -0.10405579 -0.029372111 0.057649083
-0.112957135 0.0010177344 -0.03943453 0.03793908 0.030791543 -0.09569749 -0.046530835 -0.060975645
-0.11252755 0.0706177 -0.049864538 -0.0057997033 -0.09825255 0.04611408 0.03678701 0.068841256
0.09780871 0.040879868 -0.10055169 -0.08488624 -0.057498474 -0.03599354 0.11258816 -0.04611277
-0.09696428 0.11315774 0.09832709 -0.058780987 0.061720766 0.021870635 0.039740138 -0.1117928
-0.08449511 0.0017199293 -0.05220525 0.03481423 0.057440363 -0.07007343 0.05933147 0.0034298524
0.04176686 0.056375824 -0.091034226 -0.111558355 0.11554404 -0.009926453 0.08891723 0.001838699
0.101262935 0.054922394 0.114835404 0.09172165 0.06757928 -0.04095888 -0.04619143 -0.10618811
-0.10584517 -0.010734886 0.08718594 0.006802514 0.08051815 -0.099900715 -0.006509818 -0.057479255
-0.0657973 0.064069964 -0.0053890944 0.022198461 0.07832254 -0.11121976 0.066444404 -0.008700348
-0.035513103 0.07614056 0.08820961 -0.07039611 0.05776102 0.011843793 0.053304262 0.024301313
0.03348472 -0.018018298 0.07288978 -0.089924514 -0.027246617 0.074857004 0.082048945 -0.03336975
0.10301948 -0.09955049 -0.035906866 -0.050397955 -0.03583324 0.07643955 -0.054492816 -0.056707263
-0.107196614 0.112595014 -0.099923044 0.08261437 0.052644126 0.07859547 0.044712506 -0.02109211
0.10192735 -0.07414842 0.043595083 -0.08495988 -0.07639542 -0.02017022 -0.058692325 0.025380217
0.11163121 0.06116108 -0.018216193 -0.09887108 0.028333686 0.091979064 0.03798323 -0.038107887
0.051987283 0.104493655 -0.023794793 -0.09131917 0.08954593 -0.022800796 0.11269509 0.05034318
-0.052285075 0.052269407 0.03441622 0.075889714 -0.11596419 -0.027486965 0.070132546 0.054685958
0.115666874 0.067615576 0.031194992 -0.05509936 -0.04557406 0.027412124 -0.0458488 -0.11779555
-0.05767688 -0.08871121 -0.10427574 0.027523585 -0.07518931 0.05520677 -0.1027811 -0.057388738
0.01902578 -0.076327756 -0.08075013 -0.11165474 -0.020513982 0.0016193837 0.03869655 -0.015264608
0.09959412 0.02355621 -0.042969413 -0.090611525 0.01802843 0.072613604 -0.08476997 0.013759576
0.10789985 0.08196392 -0.10013081 -0.02484446 0.037033983 0.0474141 0.018696345 0.08445207
-0.07283408 -0.084671855 -0.09031066 -0.06912555 -0.025478251 0.008246876 -0.045714565 0.07484885
-0.11718934 -0.051094256 -0.020645805 -0.0054701567 -0.06504911 0.03668592 0.036445417 0.02090653
-0.05337151 -0.094458364 -0.09058601 0.09090843 0.049592756 0.021817632 -0.01565133 0.05069288
0.096022345 0.026830725 -0.06360963 0.039594524 -0.005401641 0.1142981 -0.019102894 -0.03606975
-0.068340525 0.10034714 -0.049524188 -0.085007526 -0.050409272 -0.09118784 -0.07235285 -0.03819959
0.10528617 0.10384988 0.0029072315 -0.10579355 -0.018203199 -0.03537236 0.0035862178 0.046580262
-0.073871285 -0.07911514 -0.044746257 0.014433213 -0.11705033 -0.08255537 -0.100862734 -0.08465947
-0.0015579462 0.10099716 -0.097284086 0.04610669 -0.029303506 -0.09746123 -0.024648197 -0.10518806
-0.116549246 -0.019434124 -0.1170022 0.04721356 0.06284583 0.10795077 -0.02027598 0.07237434

weight f4 [32]
00000000: 0000 803f 0000 803f 0000 803f 0000 803f
00000010: 0000 803f 0000 803f 0000 803f 0000 803f
00000020: 0000 803f 0000 803f 0000 803f 0000 803f
00000030: 0000 803f 0000 803f 0000 803f 0000 803f
00000040: 0000 803f 0000 803f 0000 803f 0000 803f
00000050: 0000 803f 0000 803f 0000 803f 0000 803f
00000060: 0000 803f 0000 803f 0000 803f 0000 803f
00000070: 0000 803f 0000 803f 0000 803f 0000 803f
1.0 1.0 1.0 1.0 1.0 1.0 1.0 1.0
1.0 1.0 1.0 1.0 1.0 1.0 1.0 1.0
1.0 1.0 1.0 1.0 1.0 1.0 1.0 1.0
1.0 1.0 1.0 1.0 1.0 1.0 1.0 1.0

bias f4 [32]
00000000: 0000 0000 0000 0000 0000 0000 0000 0000
00000010: 0000 0000 0000 0000 0000 0000 0000 0000
00000020: 0000 0000 0000 0000 0000 0000 0000 0000
00000030: 0000 0000 0000 0000 0000 0000 0000 0000
00000040: 0000 0000 0000 0000 0000 0000 0000 0000
00000050: 0000 0000 0000 0000 0000 0000 0000 0000
00000060: 0000 0000 0000 0000 0000 0000 0000 0000
00000070: 0000 0000 0000 0000 0000 0000 0000 0000
0.0 0.0 0.0 0.0 0.0 0.0 0.0 0.0
0.0 0.0 0.0 0.0 0.0 0.0 0.0 0.0
0.0 0.0 0.0 0.0 0.0 0.0 0.0 0.0
0.0 0.0 0.0 0.0 0.0 0.0 0.0 0.0

running_mean f4 [32]
00000000: cd6c 3c3c aab8 d5bc e389 963b ebb6 943c
00000010: b3f2 74bb 9716 92bc ecda 0dbb 9940 86bc
00000020: 8f66 c2bc af07 c73b 92ab efba a039 fe3b
00000030: 22ef 29bc a889 03bb 152c babb d745 ccbc
00000040: 12c8 d53a 75ae 17bc 4d81 28bb 75db eebb
00000050: 17f6 cabc 18c1 153a 6eff 88bb 5e15 86bb
00000060: d180 b9bc bda2 edbc 6ac4 52bd e51e c639
00000070: b8ae ec3c cb7a f43c 4297 d0ba 03fa 27bc
0.0115005495 -0.026089031 0.004594074 0.018153628 -0.0037376105 -0.017833037 -0.002164538 -0.016388224
-0.023730544 0.006073914 -0.0018285385 0.0077583343 -0.010371955 -0.0020071063 -0.0056815245 -0.024935646
0.0016310236 -0.009257902 -0.0025711835 -0.007289345 -0.024775548 0.0005712672 -0.00418084 -0.0040919026
-0.022644432 -0.029008264 -0.051456846 0.0003778852 0.028891906 0.029843709 -0.0015914219 -0.0102524785

running_var f4 [32]
00000000: 54a3 6d3f af73 6b3f 1582 6c3f d985 6b3f
00000010: cad6 6c3f cebc 6a3f 797d 6a3f 728f 693f
00000020: 1827 6a3f a7ce 6a3f f475 6b3f 8f83 6b3f
00000030: d532 6c3f 4134 6b3f f48c 6b3f 209b 693f
00000040: 2c0d 6d3f 547d 6b3f 618d 6b3f 62ee 6b3f
00000050: ed59 6b3f fdc6 693f 2a8c 6a3f 97a7 6b3f
00000060: bf8a 6c3f 4467 6a3f 4574 6a3f 83cf 6b3f
00000070: c729 6c3f 8693 6a3f 598a 6b3f 5a36 6a3f
0.92827344 0.91973394 0.9238599 0.9200111 0.9251524 0.91694343 0.91597706 0.91234505
0.914659 0.91721576 0.9197686 0.9199762 0.92265064 0.9187661 0.9201195 0.91252327
0.92598224 0.9198811 0.920126 0.9216062 0.9193409 0.9131926 0.91620123 0.92052597
0.9239921 0.9156382 0.91583663 0.9211351 0.9225125 0.9163135 0.92007977 0.91489184

weight f4 [16, 32, 3, 3]
00000000: 089d 2f3c e721 e93d b001 70bc 3ce9 dfbd
00000010: 8a63 42bd eb67 973d 3a38 1c3d cd98 cf3d
00000020: d16a b43d 3e9a 7b3d 87f9 e2bd 00fb a6b9
00000030: bcd3 cd3c 6582 cb3d ea95 3d3d 2ecf 49bd
00000040: 9fb4 813d 3eda 1b3d ea0c 9dbd 7ba4 863d
00000050: 7084 ee3b 4924 e9bd 79ba dd3d fb67 af3d
00000060: 8937 a83d de7f 183d c0bc 16bb f2a6 b8bd
00000070: cc13 973c 924c 2e3d 19e8 6fbd db4a c5bd
00000080: 0b6b 883d 0892 28bd f078 b9bd 4850 ebbc
00000090: 0100 923d 3468 d63c 6f03 ea3d cba4 a03d
000000a0: 8c79 cdbd 09cd e83d e7da 843d 56b8 0c3d
000000b0: d8fc a2bd 5f57 e73d dc5e 61bd 4c18 a3bd
000000c0: a317 70bd 94a1 36bd bc15 0fbd 1a04 80bd
000000d0: de44 0f3d 966e 5a3d fc9f 8ebd e675 623d
000000e0: 6084 6c3b 05c8 923d 56e2 663d fd4d d73d
000000f0: a0e7 51bb 68a7 79bd 2aae 15bd 845f 24bd
00000100: 91ea d63d d975 d13d 10a8 c2bb 8b97 9dbd
00000110: 0a96 1fbd ea4c 05bd fc87 41bd f069 bdbc
00000120: 565b 2f3d ca52 733d 0e56 113d c425 c1bc
00000130: 367a 27bd 812a 9f3d 762f 753d 3b57 c5bd
00000140: b50d 903d cd46 c03d 4a9e 7bbd 3cd8 bbbc
00000150: 5695 05bd 4f7d bf3d bf5b 80bd f5da 83bd
00000160: a3f3 883d f6ec 563d bb72 da3d 2247 063d
00000170: 587e 673c 702f ec3b e831 043c 71f8 853d
00000180: ca9f c2bd 687e a6bd 0018 4bbd 085e dbbc
00000190: e34a c93d e2d8 663d 4889 abbd c8c2 4d3c
000001a0: fb43 c93d 2991 ea3d 8258 533d 00d8 2cbd
000001b0: b242 98bd 8af6 edbd ec53 65bd 2f3e a23d
000001c0: 5637 113d b04f 05bc c8c6 04bd 0044 15bb
000001d0: 00ef 70bb bba3 873d 0690 6a3d 057d cc3d
000001e0: c7e2 b53d ca10 2dbd cdaf a2bd acde b7bd
000001f0: 383c 7e3c 9a7c 2abd b4c8 89bd 0094 563a
00000200: 7707 df3d fca5 e5bd 4cd5 8fbc f7e9 a93d
00000210: cca8 d1bc 0a2b 6c3d 96fc 2b3d 0b37 77bd
00000220: 7a69 3dbd 389e 3b3c e3de e63d e8d7 d2bc
00000230: dccf b53c eb86 e53d 8f18 d9bd d751 84bd
00000240: 9bbd bbbd 402a 90ba 8e03 413d 9c3b d33c
00000250: 52a2 d9bd 1146 a9bd ac15 d33c d96e 8fbd
00000260: d1ed c23d 0e78 bdbd 935f da3d 424b 5f3d
00000270: 9c9f 83bd f41b 87bd c80a 97bc 5e6c 0dbd
00000280: 2533 8dbd 060e 373d 3493 c7bc 9607 36bd
00000290: de66 7d3d 5b55 7cbd a633 753d 0cef b13c
000002a0: 5055 3dbd e8ae 073c 2804 eebd 385b 7b3c
000002b0: 347f a2bc a64a 543d a467 59bd 2c91 1dbd
000002c0: 3039 1cbc ddef 9b3d f4f6 b6bd 7e06 17bd
000002d0: a473 c5bd 1351 ee3d f8d2 4a3c a736 dd3d
000002e0: 74fe 8abd 0e47 45bd 5ab2 413d b06f 01bc
000002f0: b89f 553c 5e4a 4cbd bc4c 11bd d81b 343c
00000300: 1be4 e83d b0ee 8cbc 1443 ca3c e09d adbd
00000310: 701e eebd 6305 a93d af49 c63d cc7b 3abd
00000320: 36d3 b5bd 4d7b a03d b3ca d53d b40f ce3c
00000330: 5853 55bd 420f 8abd d4df c73c f645 b8bd
00000340: 917f 853d 9607 443d 2cc1 c13c 7433 9e3c
00000350: b85d 633c 8061 023a 81c4 9f3d e729 bfbd
00000360: a9e1 7cbd 5fe8 73bd 42c1 acbd 9ede 1c3d
00000370: 4041 03bc 397d be3d 1e0f 8dbd ba9d 27bd
00000380: ced7 4f3d bb8b d03d 2db7 ccbd fa91 94bd
00000390: 1080 d7bc cc43 c7bd c9a5 efbd 32e8 c2bd
000003a0: a931 92bd 6e8a 613d ea42 693d d839 53bd
000003b0: fcc7 f6bc 0db1 eb3d 2801 67bc 44dc 883c
000003c0: f80b 1b3c cda8 b73d d825 3bbd 5703 afbd
000003d0: 86ea a2bd 55b6 dbbd 208e 86bb 9ace 31bd
000003e0: 8ad8 613d e73d 96bd e910 d43d 95dd c9bd
000003f0: dec7 133d 26a9 233d d0f9 3bbd 5efb 6d3d
0.0107185915 0.113834195 -0.01464884 -0.10933158 -0.04745821 0.07392868 0.03813956 0.10136566
0.08809436 0.061426394 -0.1108275 -0.00031848997 0.025125377 0.0993698 0.046285547 -0.049269848
0.06333279 0.03804993 -0.07668479 0.06574341 0.0072789714 -0.11383874 0.108265825 0.085647546
0.082137175 0.03723132 -0.0023000687 -0.09016217 0.018442057 0.042553492 -0.058570955 -0.09633418
0.06661042 -0.04115489 -0.0905627 -0.028724805 0.07128907 0.026172735 0.11426436 0.07843932
-0.10032949 0.11367232 0.06487065 0.034355484 -0.07958382 0.112959616 -0.055022106 -0.07963619
-0.05861629 -0.044587687 -0.034932837 -0.06250782 0.034977786 0.05332812 -0.06964108 0.055288218
0.0036089644 0.07167057 0.056368195 0.10512922 -0.0032028928 -0.060950667 -0.03654305 -0.040130153
0.10493959 0.10227556 -0.005940445 -0.0769492 -0.038961448 -0.032544054 -0.047248825 -0.023121804
0.042811714 0.059405126 0.03548246 -0.023577578 -0.040888034 0.07771779 0.059859715 -0.096357785
0.070338644 0.09388504 -0.061430253 -0.022930257 -0.03261312 0.093500726 -0.06267499 -0.06438247
0.06687095 0.052472077 0.10666414 0.03278268 0.014129244 0.0072078034 0.008068539 0.06541527
-0.095031336 -0.08129579 -0.049583435 -0.026778236 0.09828737 0.05635918 -0.08375794 0.0125586465
0.09827419 0.11453468 0.05159808 -0.04219818 -0.07434596 -0.11619289 -0.055988237 0.07922017
0.035453163 -0.008136675 -0.032416135 -0.0022776127 -0.003676355 0.06623026 0.057266258 0.09984783
0.08881145 -0.04225234 -0.079436876 -0.08978018 0.015517287 -0.041622736 -0.06727734 0.0008185506
0.10890096 -0.112133 -0.017557763 0.082965784 -0.025593184 0.057658233 0.04198893 -0.060355227
-0.04624317 0.0114512965 0.11272981 -0.025737718 0.022193842 0.11207374 -0.10600387 -0.06460922
-0.09167024 -0.001099892 0.04712253 0.02578526 -0.10626663 -0.08265317 0.02576717 -0.070035644
0.09518016 -0.09251414 0.106627606 0.05451513 -0.064269274 -0.065971285 -0.018437758 -0.034527175
-0.06894521 0.04469111 -0.024362184 -0.04444083 0.06186568 -0.06160484 0.05986371 0.021720432
-0.04622394 0.008281447 -0.116218865 0.015341572 -0.019836046 0.051829003 -0.053077355 -0.038468525
-0.009535119 0.0761411 -0.08933821 -0.036871426 -0.09641197 0.116365574 0.0123794 0.1080144
-0.06786814 -0.048163466 0.04728923 -0.0079001635 0.013038568 -0.04987561 -0.03547357 0.010992967
0.11371633 -0.017203659 0.024690188 -0.08477378 -0.11626899 0.082529806 0.09682023 -0.04552822
-0.08878176 0.07836018 0.104390524 0.025153972 -0.052081436 -0.067411914 0.024398722 -0.08997719
0.06518472 0.047858797 0.023651682 0.019311644 0.013877325 0.0004973635 0.07801152 -0.09334164
-0.061738644 -0.05954778 -0.084352985 0.03829824 -0.008011162 0.09301228 -0.06887649 -0.040921904
0.050742917 0.101829015 -0.099958755 -0.07254405 -0.026306182 -0.09729728 -0.11701543 -0.09516944
-0.07138378 0.055063657 0.05694858 -0.051568836 -0.030124657 0.11508379 -0.014099397 0.016706593
0.009463303 0.08967743 -0.045690387 -0.08545559 -0.07954888 -0.107281365 -0.004106298 -0.04340992
0.05513815 -0.07336026 0.10354788 -0.098567165 0.03607928 0.039956234 -0.045892537 0.05810105

weight f4 [16]
00000000: 0000 803f 0000 803f 0000 803f 0000 803f
00000010: 0000 803f 0000 803f 0000 803f 0000 803f
00000020: 0000 803f 0000 803f 0000 803f 0000 803f
00000030: 0000 803f 0000 803f 0000 803f 0000 803f
1.0 1.0 1.0 1.0 1.0 1.0 1.0 1.0
1.0 1.0 1.0 1.0 1.0 1.0 1.0 1.0

bias f4 [16]
00000000: 0000 0000 0000 0000 0000 0000 0000 0000
00000010: 0000 0000 0000 0000 0000 0000 0000 0000
00000020: 0000 0000 0000 0000 0000 0000 0000 0000
00000030: 0000 0000 0000 0000 0000 0000 0000 0000
0.0 0.0 0.0 0.0 0.0 0.0 0.0 0.0
0.0 0.0 0.0 0.0 0.0 0.0 0.0 0.0

running_mean f4 [16]
00000000: 4378 bf3b 44e2 15bc 83b8 893c cbb8 2abc
00000010: 3cb8 bd3c 5368 7f3c 17b6 223d 1045 ceba
00000020: 68e3 1c3c 34e7 91bc 801f 55bd c0ca ddbc
00000030: cf9f 85bd 8bf9 073c 0913 1cbc 9264 14bd
0.0058431937 -0.009148184 0.016811615 -0.010420035 0.023159139 0.015588838 0.039724436 -0.0015737135
0.009575702 -0.017810442 -0.052031994 -0.027074218 -0.06524622 0.008299242 -0.009526023 -0.036228724

running_var f4 [16]
00000000: 171e 713f 54ad 713f e8c9 713f b513 703f
00000010: 4ffd 723f 67d5 713f 6a65 703f 5b74 6f3f
00000020: 7723 723f 4d74 703f 7558 703f 92d5 6f3f
00000030: 0f35 723f fe17 713f 2edc 703f b714 713f
0.9418654 0.944051 0.9444871 0.9378007 0.9491777 0.9446625 0.93904746 0.9353692
0.94585365 0.9392746 0.93884975 0.9368526 0.9461221 0.94177234 0.9408597 0.94172233

weight f4 [16, 16, 1, 1]
00000000: e48a 1fbe 52d4 793e 1345 ca3e e64a 57be
00000010: b2a4 aebe 3426 fdbd 9d0e 9fbe 8ca2 1abe
00000020: 043b c2bd ceeb 7f3e 2774 a23e 867e adbe
00000030: 726f 093e b56e 60be 73e0 ac3e 1604 463e
00000040: 5687 743e 0896 63bd c03e 9fbe 10ad a5bc
00000050: 0660 bbbe 1193 c23e da31 31be bea0 263e
00000060: fe57 5c3e 8406 84be d034 abbd d830 62bd
00000070: 4c74 b9bd 9c09 ddbd 2148 ddbe 7412 a6bd
00000080: 6c87 06be fa3f 2ebe 8721 59be a46e fc3d
00000090: 7759 d03e deaa 6fbe 7a70 563e e0b1 79bd
000000a0: ad92 c1be 8018 f8bb 685e 623d e764 d73e
000000b0: 1cb7 fe3d f45b ad3d 0042 88be 8e3c 103e
000000c0: 5e81 3a3e cf41 993e 4d18 993e 020b 0b3e
000000d0: ca72 7c3e 5cb2 e43d d95e c53e f6d6 5e3e
000000e0: 2a7f 53be 887c 213d febe cebe 08a4 76bd
000000f0: 45ad 913e be68 d6be d431 96bd 03f9 94be
00000100: 9716 b43e a980 c93e 6040 7dbc f2a7 353e
00000110: 2350 803e 7cf4 f73d eb33 54be 48fd 9cbe
00000120: ae72 543e 8833 bebe 72f7 bcbe 6b9f ac3e
00000130: a02d 62bc 2463 c73d f161 cbbe 02ca 073e
00000140: ce24 603e c92f c23e f8cc 6f3d c435 24be
00000150: 9a98 37be 3f60 d5be d447 9d3d f64e 733e
00000160: 9d00 6fbe e4f3 e63d c194 8cbe 2df2 b53e
00000170: baec dabe 7074 aebd b5c4 d5be 9c4a a4bd
00000180: a0ac 203d ae54 38be 70bd ce3c 28e2 88be
00000190: 8248 783e 3c90 9cbe a772 d8be 5cc0 afbe
000001a0: 6991 5cbe 5c3a e53d 3ced f53d 09c7 d73e
000001b0: 9e35 563e 04d3 e43d 52b8 253e 559c 7ebe
000001c0: fa7c 5e3e 6587 7dbe b85e c1bd 6fd1 89be
000001d0: 9f31 b63e 5a08 afbe fdb4 a73e 48c1 803d
000001e0: 817a d43e 3d5a cf3e 0e81 423e 942b cc3d
000001f0: 36a6 14be 7061 e9bc ca82 4e3e 931c b03e
00000200: be32 3b3e 0aa5 8bbe 1e52 afbe 4ee6 a6be
00000210: cb32 9d3e 28e9 103d b15a d9be b07f 5b3d
00000220: a99c c7be 7381 7cbe 6ec7 293e 0058 4dbd
00000230: 6c2e 8ebd 76f2 7ebe fa4c 673e e35c 7abe
00000240: bd2e 8e3e 2974 7cbe d5c3 c63e 5dd9 adbe
00000250: ea09 663e 8aa3 053e 3659 70be 9910 b43e
00000260: 8813 a7be 3cb2 c7be f0e6 23bd 2a4e 783e
00000270: 7d5a b63e 887f 3cbe fe36 6ebe a749 853e
00000280: f677 103e 1826 aebe ee5a 6a3e 78c1 8dbe
00000290: 942e 853d 36fc 7abe 82e1 3bbe 9449 ba3d
000002a0: fafa 723e ecb2 f53d a5be cc3e 2180 c13e
000002b0: 907d 5b3d 807c 2e3b 3cfc 9c3d 0038 3db9
000002c0: 5694 5d3e c2f0 83be 3c13 803d 20e3 76bd
000002d0: 5cbb 943d 66f8 97be 0068 61bb a41d 25be
000002e0: f0c9 053d c43c 97be c0e1 cc3c c19a b13e
000002f0: 2ac3 1dbe f81b 713d d47f cb3d 9cd2 a9be
00000300: 9ee9 56be b6d5 643e d268 6f3e d904 c13e
00000310: 07d4 64be d06a a1bc 7a31 abbe 742f 93be
00000320: 4e52 6fbe ece1 d8be f4a5 df3d a87d 94be
00000330: 71b8 cabe 49eb 7dbe c7c1 b63e c218 583e
00000340: e659 88be 1cb2 c0bd 8470 9ebe 50de 8bbe
00000350: e11b aebe 6ea3 6dbe 3ee3 613e 6f55 60be
00000360: 2171 ae3e 88ab 2bbd 3020 f9bd e269 123e
00000370: f718 64be 795c 913e e376 bd3e 0d3b 823e
00000380: c06b 23be faf7 15be 629c 753e 885f eebd
00000390: e58d cf3e f8ab 61bd 906a aa3c a2e9 0a3e
000003a0: c058 60bd 7600 8cbe 8840 56bd 3696 7e3e
000003b0: dc8f d73d c138 dc3e b34d d03e 363f 073e
000003c0: 243c a93d 709a f03c b598 d03e f29a dabe
000003d0: 0046 cd3b f0bf 7cbd 284b 57bd 4ea6 02be
000003e0: 9bed babe d6a2 87be a6b3 38be d03e d4bd
000003f0: ae76 cbbe c8d3 58bd 8a43 0abe cf07 ab3e
-0.15580326 0.243974 0.39505824 -0.21024665 -0.34110028 -0.12360802 -0.31065837 -0.15101069
-0.094839126 0.24992296 0.31729242 -0.33885592 0.1342142 -0.21917231 0.3376499 0.19337496
0.23879752 -0.055563003 -0.31102562 -0.020224124 -0.36596698 0.38002828 -0.17304173 0.16272256
0.21517941 -0.2578622 -0.083596826 -0.055222362 -0.09055385 -0.107928485 -0.43219092 -0.081089884
-0.13137597 -0.17016593 -0.21204196 0.123257905 0.40693256 -0.23405024 0.20941344 -0.06096065
-0.37807217 -0.00757128 0.055265814 0.4206917 0.12437269 0.08464804 -0.26612854 0.140856
0.18213412 0.2993302 0.29901353 0.13578418 0.24653164 0.11166832 0.38548926 0.21761689
-0.20653978 0.039425403 -0.4038009 -0.060215026 0.28452507 -0.41876787 -0.07333723 -0.2909623
0.35173485 0.39355972 -0.015457243 0.17739847 0.2506114 0.121071786 -0.2072293 -0.30661988
0.20746872 -0.3714869 -0.36907536 0.33715376 -0.013804823 0.097357064 -0.3972316 0.13260654
0.2188904 0.37927082 0.058545083 -0.16036135 -0.17929307 -0.41674992 0.07679716 0.2376059
-0.23340078 0.11276987 -0.2745724 0.35536328 -0.42758733 -0.085183024 -0.41751638 -0.08022043
0.039227128 -0.18001053 0.025236815 -0.26735044 0.2424641 -0.30578792 -0.42274973 -0.34326446
-0.21539845 0.11192772 0.120081395 0.4214404 0.20918891 0.111730605 0.16183594 -0.24864323
0.21727362 -0.2475868 -0.09441894 -0.26917598 0.35584733 -0.3418606 0.3275527 0.062868655
0.41499713 0.40498534 0.18994543 0.09969249 -0.1451653 -0.028488845 0.2016708 0.343968
0.18281075 -0.27274352 -0.34242338 -0.32597584 0.30702814 0.035378605 -0.42452005 0.05358857
-0.3898671 -0.24658756 0.16579983 -0.05013275 -0.06942448 -0.24897179 0.22587958 -0.24449496
0.27770033 -0.24653687 0.38821283 -0.33954898 0.2246472 0.13050666 -0.23471531 0.35168913
-0.3263209 -0.3900317 -0.04001516 0.24248567 0.35615912 -0.18408024 -0.23263165 0.26032755
0.14108261 -0.34013438 0.2288625 -0.27686667 0.06503025 -0.24510273 -0.18347743 0.09096065
0.23728552 0.11997017 0.399892 0.37793067 0.053586543 0.00266245 0.076652974 -0.00018045306
0.21638617 -0.2576962 0.06253669 -0.060275197 0.072622985 -0.296817 -0.0034394264 -0.16124588
0.032663286 -0.29538548 0.02500999 0.3468838 -0.1540648 0.058864564 0.09936491 -0.33168495
-0.20987555 0.22347149 0.2337983 0.3769901 -0.22346507 -0.019704252 -0.33436185 -0.2874714
-0.2337124 -0.42359865 0.10920325 -0.29002118 -0.39593843 -0.24796785 0.35694715 0.21103194
-0.26631087 -0.09408972 -0.30945218 -0.27318048 -0.34005645 -0.23206875 0.22059342 -0.2190759
0.34070686 -0.04191163 -0.121643424 0.14298204 -0.22275148 0.28390864 0.37004766 0.25435677
-0.15959072 -0.14645377 0.23985437 -0.11639315 0.40537944 -0.055095643 0.020802766 0.13565686
-0.05477214 -0.27344102 -0.052307636 0.24861988 0.10525486 0.4301205 0.4068428 0.13207707
0.08263424 0.029370517 0.40741506 -0.4269634 0.006264448 -0.061706483 -0.05256191 -0.12758753
-0.36509404 -0.2649142 -0.1803728 -0.10363543 -0.39738983 -0.052936345 -0.13502327 0.33404395

bias f4 [16]
00000000: c891 5a3e e829 be3d d090 00be 34bf d03d
00000010: 3cc5 8a3d 08ce 0abd c47f 1c3e d444 bfbd
00000020: da93 6abe 94e5 b8bd 482d 413d 406b 0abc
00000030: 8045 9ebc e4b7 b93d 4a1c 3fbe 307a 4d3e
0.21344674 0.09285337 -0.12555242 0.10192719 0.06775901 -0.033887893 0.15283114 -0.093393
-0.22907963 -0.090281636 0.047162324 -0.008448422 -0.01932025 0.090682775 -0.18663135 0.20066142

weight f4 [16, 16, 1, 1]
00000000: ef8e 73be 2a2f 1c3e 141b bfbd 4624 c3be
00000010: 1ae1 67be d60e 433e ed3f c63e b2de 093e
00000020: b6f9 13be 5cac d83d 5feb b33e 5652 babe
00000030: f0c1 ccbc 310b 8b3e bc8b 1dbe d9c3 a13e
00000040: f3ae d3be 8438 d53d afec b53e 0a45 0a3e
00000050: 1135 813e 739a 983e 2182 75be 001f e3ba
00000060: 2000 7fbd d0a3 8dbc 21c7 a4be 1a15 053e
00000070: 140f a8bd f826 fcbd 580e 073d a889 37be
00000080: e3d5 d4be 04f5 d3bd 2306 95be f00e 80be
00000090: 31f2 bd3e e229 00be a054 12bd 7ce6 0fbe
000000a0: ba75 0abe a6cb a4be 3b4e a43e 8014 1ebd
000000b0: b83c 303d e0ed 633d f09c a5be 7962 ab3e
000000c0: 1aa0 7f3e 653c a83e 527e 793e 40dc 9e3c
000000d0: 5cad 9c3d ea33 89be cf28 d0be 5059 3ebe
000000e0: 2d37 70be c0de 1bbc abab b1be 5ca4 8fbd
000000f0: fcb9 bf3d b5c7 d43e 9288 c8be 39a7 c63e
00000100: 20c0 c2bc 9466 49be d17e a63e d3b8 44be
00000110: bc8f c83d 76ea c2be 9f63 9f3e a77f 9c3e
00000120: c026 2f3d ed0c ab3e 34e6 b9bd c46f a6be
00000130: 803b 583b 61a4 d23e 54c2 b23d 18c1 60bd
00000140: ae69 473e 46ac 583e 478d b8be 15f8 a93e
00000150: 607a 433c a119 c2be 3144 db3e fa3d 2bbe
00000160: 85e0 bc3e 8b9c bb3e 4e1b 773e 805a a8bc
00000170: 2841 3dbd de80 bfbe e257 593e aeb1 573e
00000180: 3c8b f63d 3759 b23e f8ff 61bd 466b 68be
00000190: 1711 a03e 7b62 adbe 7515 68be a43c 9abd
000001a0: 508c 4dbe a254 7a3e 0694 2a3e c4fb abbe
000001b0: e721 a03e 572b d3be 302d 0dbd f01b 1dbe
000001c0: 7c5d fe3d dbf5 813e 5f50 ae3e 054a 953e
000001d0: 1250 143e 2237 0dbe 8389 ccbe b77f dc3e
000001e0: c63b 6c3e 1437 f3bd 4058 e8bd c48c ff3d
000001f0: 05bf a13e 2296 623e 24ad 923d 236f 863e
00000200: 358b 893e fea2 ccbe 9b0f 50be f95f 8dbe
00000210: 603e 86be 602e 503c edfa 893e 3d23 c0be
00000220: 1304 c83e 3cfe f5bd 9e6d 86be e0c3 29be
00000230: cfa6 55be 46cc 213e 101a 85be e4d2 e13d
00000240: e2db 113e 96e2 babe 08d7 dcbe c57e 993e
00000250: 0039 7cbe 1dfe 9a3e c699 653e a5cf 64be
00000260: 9e8a 663e 9c51 94be 9895 09be a4de e5bd
00000270: 2a4a 433e 00de b6ba 33a0 b83e 0f50 bc3e
00000280: 23a3 9e3e 5c8f 9fbe 401a febd 64ae 99be
00000290: fc87 c73d b45c e83d 10b1 ec3c 604f 123d
000002a0: ad0c 8e3e f9fa a83e a7fe c23e 4a28 6abe
000002b0: 42a4 2b3e eacd d1be 52fe 573e 5a73 363e
000002c0: c421 9b3d 11ae 51be 9ae0 503e 39e5 d03e
000002d0: 17ed b73e 5262 84be c841 d9bd 518f 9a3e
000002e0: 7e70 3e3e f4ad df3d 6e61 293e 005b efbc
000002f0: c510 97be 7329 c93e 7a8c 133e bf39 b63e
00000300: 0846 78bd 5248 10be 5b38 a03e 96f8 9dbe
00000310: 1830 48be a748 963e 59a0 59be 006e a8bc
00000320: bb11 8b3e 0afa 35be 28c2 0cbe 80fc 3fbc
00000330: 6fd8 853e 61eb ac3e 2491 f4bd f4c9 9abe
00000340: 08e1 86bd 365d 243e 06ac 603e c47f 33be
00000350: 05f7 a53e 5079 fcbc 1393 acbe 132d 9a3e
00000360: e921 973e 980c a0be d34f cb3e 139c abbe
00000370: b819 03bd 6ab8 773e 80af 5dbc 0426 8dbe
00000380: 8672 3c3e 2451 a8bd 90e2 633d 89a5 b33e
00000390: b6f2 d1be 1c7e e4bd 830a ddbe 541e a9be
000003a0: 006f e83c 4f65 8a3e 4579 d73e ad95 d83e
000003b0: 7f9d b03e 2710 963e df5e 71be 0ccc bcbe
000003c0: e0f0 c9bc 6019 323c 34fc cf3d 98ff 0dbe
000003d0: 4334 dc3e 9bbf c8be 2e58 1e3e 4d1c 9d3e
000003e0: fb72 863e 45ae a33e 8637 c7be 48f4 06bd
000003f0: 7be2 9dbe 41ee c63e 4913 a03e 29bf c23e
-0.23784994 0.15252367 -0.093313366 -0.38113612 -0.22644463 0.19048628 0.38720647 0.13463858
-0.14450726 0.1057975 0.3514051 -0.36390942 -0.02499482 0.27156976 -0.15385336 0.31594732
-0.41344413 0.1041117 0.35532138 0.13502899 0.252358 0.29805335 -0.23975421 -0.0017327964
-0.06225598 -0.017290026 -0.32183173 0.12996331 -0.08206001 -0.1231212 0.032972664 -0.17923605
-0.41569433 -0.103494674 -0.29106244 -0.25011396 0.3709884 -0.12515977 -0.035725236 -0.14052767
-0.13521472 -0.3218662 0.32090935 -0.03859377 0.043026656 0.055646777 -0.32346296 0.33473566
0.24963418 0.32858577 0.24364594 0.019392133 0.07650253 -0.2679742 -0.40656134 -0.18588758
-0.23458548 -0.009513557 -0.34701285 -0.07013771 0.093616456 0.41558614 -0.39166695 0.38799456
-0.023773253 -0.19668037 0.32518628 -0.1921113 0.0979304 -0.38069504 0.31130692 0.3056614
0.042761564 0.334083 -0.09077111 -0.32507145 0.003299445 0.41141036 0.087284714 -0.05487165
0.19473907 0.21159467 -0.36045286 0.33197084 0.011931032 -0.37910178 0.42825463 -0.16722861
0.36890045 0.3664287 0.2413151 -0.020550966 -0.046204716 -0.37403005 0.21224931 0.21063873
0.120382756 0.3483369 -0.05517575 -0.22697172 0.3126304 -0.33864197 -0.22664435 -0.075310975
-0.20073056 0.24446347 0.16658029 -0.3359052 0.31275865 -0.41244003 -0.034466922 -0.15342689
0.124201745 0.25382885 0.34045693 0.29158035 0.1448367 -0.13790563 -0.39948663 0.4306619
0.23069677 -0.1187574 -0.11344957 0.12478021 0.3159105 0.22127584 0.0716193 0.26256666
0.2686402 -0.39968103 -0.20318453 -0.27612284 -0.26219463 0.012706369 0.26949254 -0.37526885
0.39065608 -0.12011382 -0.26255506 -0.16578627 -0.20864414 0.1580058 -0.25996447 0.11026552
0.14244035 -0.36500996 -0.43132806 0.2997953 -0.24631119 0.30271998 0.22421941 -0.22344835
0.22513816 -0.28968513 -0.13435972 -0.11224106 0.1907126 -0.0013951659 0.36059722 0.3677983
0.30983838 -0.31164062 -0.124073505 -0.30015862 0.09742734 0.11345807 0.028893024 0.03572023
0.27744046 0.33003977 0.3808491 -0.22866932 0.16761878 -0.40977412 0.21093109 0.1781744
0.075748 -0.20476557 0.20398179 0.40799883 0.35923073 -0.25856262 -0.1060825 0.30187467
0.185976 0.10921851 0.16541073 -0.029218197 -0.29504982 0.39289436 0.14409056 0.35590932
-0.060613662 -0.14090088 0.31292996 -0.3085372 -0.19549596 0.29352304 -0.21252574 -0.020560265
0.27161965 -0.17771164 -0.1374594 -0.011717916 0.26141688 0.3377333 -0.11941746 -0.30232203
-0.0658589 0.16051182 0.21940622 -0.17529207 0.32415023 -0.030819565 -0.3370596 0.30112514
0.2951806 -0.31259608 0.3970934 -0.33517513 -0.03200695 0.24191442 -0.013530612 -0.27568066
0.18403062 -0.08218601 0.05563599 0.3508723 -0.41005486 -0.11156866 -0.43172082 -0.3303095
0.028373241 0.27030417 0.4208471 0.42301694 0.3449516 0.29309198 -0.23571347 -0.36874425
-0.024650991 0.010870308 0.10155526 -0.13867033 0.43008623 -0.39208683 0.15463325 0.30685654
0.26259598 0.31968895 -0.3890955 -0.03294781 -0.30836853 0.38853648 0.31264713 0.3803647

bias f4 [16]
00000000: 8076 b8bb e6c2 35be d826 493e 5693 70be
00000010: fc1f 5abe 2028 303e 1878 b53d e86d 6e3d
00000020: 9833 dc3d 087d e73d 7237 4f3e 349d c43d
00000030: 0032 7fbb 067d 41be 9c5b 483e 9091 893d
-0.0056293607 -0.17750129 0.19643724 -0.23493704 -0.21301264 0.17202806 0.08860797 0.058210284
0.10752028 0.11303145 0.20235994 0.096002966 -0.0038939714 -0.18895349 0.19566196 0.06717217

weight f4 [16, 16, 1, 1]
00000000: 1f7c cb3e 1c95 b4bd cc36 a83d 530c a9be
00000010: 5903 c33e 5b26 b83e 23ed d73e 73e8 d53e
00000020: 8043 debc b633 343e 9ccc efbd 1230 1e3e
00000030: 6215 443e 4c71 f7bd 4628 333e 20df 0bbd
00000040: 14bf edbd 9bf8 c43e c89b a5bd bfd3 db3e
00000050: 4cca 96be 1a54 91be e3b2 c33e 7c37 8fbe
00000060: a75b cb3e 9550 d33e 4405 48be fe4a 2e3e
00000070: 7e2b 21be 0a5e 1b3e 20ef cabc 6bb0 8e3e
00000080: 2952 51be 6a2f 1a3e e41e a73d 2af2 d6be
00000090: 089b dbbe 9159 79be 0a3c 3a3e d253 50be
000000a0: 036b af3e f06d bc3c 0032 0dbd 0157 d13e
000000b0: d478 9cbe b434 96be 582e 8abe 7a6b 073e
000000c0: 3ca4 bd3d 38e9 88be 6286 1cbe 6f75 853e
000000d0: e887 1abe 89fa bc3e bb93 aa3e 3657 d3be
000000e0: 4302 853e 9996 bd3e 6d79 3cbe 30af 32bd
000000f0: c686 413e 2cb3 9bbe 140a c43d 3ca9 7dbe
00000100: ec35 98bd 672e ad3e aa9d 3b3e 9ea8 dcbe
00000110: bdd9 a23e 82cd 89be d490 d4be 14fa f13d
00000120: d015 83be edc2 883e 2091 70bd e015 c33c
00000130: e010 9c3c 4939 a13e fc2b ac3d 3dfc d2be
00000140: 6d7b d0be b144 60be e07e 853c 4501 97be
00000150: 46bf 483e 2c53 d4be 0ea0 693e 1403 fc3d
00000160: ad2e 9fbe 4672 09be 82c6 73be 3dca cb3e
00000170: 9151 5ebe f526 823e 5436 dc3d 9214 b4be
00000180: dfb1 bb3e 79c2 a43e 7adf cebe 264b 2b3e
00000190: dcb9 f0bd 5c90 cc3d 586b 0bbe d2cc 85be
000001a0: a496 18be 5e29 24be 8b83 a2be 1dd9 b83e
000001b0: 9658 7d3e 60ee 193d 0416 a7bd 9310 a13e
000001c0: 1d2d d43e 9011 5cbe 124d 1fbe ad7e c13e
000001d0: 774e d53e 7c82 f93d 3141 a63e cc28 1bbe
000001e0: 6f58 9b3e 4e58 4b3e 0eb4 513e caa9 3cbe
000001f0: 9010 1cbd b979 babe a056 323d 88a3 0e3d
00000200: 90ad ed3c ee82 9fbe ae72 123e 340c a73d
00000210: 86bd 263e 361e 9ebe cf6c 8a3e f607 1dbe
00000220: a6a6 2abe fce6 d4bd e33f da3e 037d b9be
00000230: cce8 ea3d 8f5d 903e 4649 4abe f867 213d
00000240: dda1 873e a80f 59bd 30e6 66bd 2395 48be
00000250: 5a5d 2f3e 8d48 c43e f37c d43e bc17 acbd
00000260: 2c1a 9cbd bac2 743e 90b5 a1bd 8af5 72be
00000270: 8b1c 873e d17d 47be 8d6f b63e 16a7 433e
00000280: e2e9 6cbe 94d7 cd3d c5d4 913e c812 bdbe
00000290: e8ef 3a3d b2ca a7be c011 503d 1bb0 6abe
000002a0: 907b a9be a361 8e3e 788e 13be b07a f33c
000002b0: a317 813e b937 853e 5c8d 13be 376a cabe
000002c0: 353a 9e3e 9dc8 b0be 0080 66b7 e1aa d33e
000002d0: bc99 8f3d 9db9 40be ad28 833e b9a1 c63e
000002e0: 1ac8 403e a679 76be c701 ddbe 480a 3b3d
000002f0: 1028 6b3d 56ad 763e d7dd ccbe 6838 e4bd
00000300: 7c51 983d a4eb a0bd 6be4 a33e de7c 4fbe
00000310: 61a7 b13e 5064 efbc a0e9 29bc 403a b43c
00000320: 24a0 f23d 6034 afbe f4db cbbe 2482 d63d
00000330: 076e cdbe 7000 e4bd 9283 aabe fa03 403e
00000340: 3d29 9ebe 2789 9f3e 300a a2bd 23ea bd3e
00000350: abc6 cc3e ac72 ad3d 5520 c13e a0b6 243d
00000360: 68dd 5fbe 18c9 dcbd 60cf c0be b2e2 8ebe
00000370: d171 933e 20b8 f63c 46a5 b2be 749d d4bd
00000380: 8618 703e f099 dbbe c7a3 8c3e 603a b43c
00000390: ca2d 10be aab6 6a3e 75a2 bd3e aefd c8be
000003a0: 76de 31be 801d 22bc 9751 d03e 661a a0be
000003b0: 8707 813e e111 d23e 68e9 6abd 4dc0 cdbe
000003c0: c9a0 6cbe 4cf9 9ebd f2b4 90be 828a 6a3e
000003d0: 1e4e 1b3e 47d9 d93e 3812 71bd 3081 7bbd
000003e0: 5262 643e 60f2 173c 2c0e 8ebd 44e5 57be
000003f0: 80ce 9bbe 0a79 66be 7563 a43e 364a 7e3e
0.39743134 -0.08817503 0.08213577 -0.33017215 0.38088492 0.35966763 0.42173108 0.41778907
-0.027131796 0.17597851 -0.11708948 0.15448025 0.19148782 -0.120821565 0.17495832 -0.034148335
-0.11608711 0.3847092 -0.080863535 0.42934987 -0.29451215 -0.28384477 0.38222417 -0.2797202
0.39718363 0.41272417 -0.19533259 0.17020795 -0.15739247 0.15172592 -0.024772227 0.2786897
-0.20441498 0.1505715 0.08160189 -0.41981632 -0.42891717 -0.24350573 0.18186966 -0.20344475
0.3426133 0.023001641 -0.03447151 0.4088669 -0.30560935 -0.29337084 -0.26988482 0.13224593
0.09259841 -0.26740432 -0.15285638 0.26066157 -0.15090907 0.36909893 0.33315834 -0.41277474
0.25978288 0.3702896 -0.18405695 -0.043624103 0.18899068 -0.30410135 0.09572235 -0.24771589
-0.0743216 0.33824465 0.18321863 -0.43097395 0.31806746 -0.26914603 -0.41516745 0.11815277
-0.2560258 0.26711217 -0.058732152 0.023814142 0.019051015 0.31489018 0.08406827 -0.41208068
-0.40719166 -0.21901204 0.01629585 -0.29493156 0.19604215 -0.41469705 0.22814962 0.123052746
-0.31090298 -0.13422498 -0.23806193 0.39802733 -0.21710803 0.25420347 0.1075255 -0.35171944
0.36659142 0.3217962 -0.40404874 0.16727886 -0.117542 0.09988472 -0.13615167 -0.26132828
-0.14901215 -0.16031405 -0.31740984 0.36103144 0.24740824 0.037580848 -0.08158496 0.31457958
0.4144067 -0.21491075 -0.15556744 0.37791958 0.41661426 0.12183091 0.32471612 -0.15152282
0.30340907 0.19857904 0.20478842 -0.18424144 -0.038101733 -0.36420992 0.043539643 0.034823924
0.029013425 -0.3115458 0.1430156 0.081566244 0.16283235 -0.30882424 0.2703614 -0.15335068
-0.16665134 -0.10395619 0.42626867 -0.3622819 0.11470184 0.2819638 -0.19754514 0.039405793
0.2649068 -0.052993447 -0.056371868 -0.19588141 0.17125455 0.38336602 0.4150158 -0.084029645
-0.076221794 0.23902407 -0.078959584 -0.23726478 0.26388964 -0.19481589 0.35631981 0.19106707
-0.23136094 0.10050884 0.28482643 -0.3692839 0.04563895 -0.32771832 0.050798178 -0.22918741
-0.33102083 0.27808866 -0.14409816 0.029721588 0.25213346 0.26019076 -0.14409393 -0.3953416
0.30903783 -0.34528056 -1.3738871e-05 0.41341308 0.070117444 -0.18820806 0.2561697 0.3879526
0.18826333 -0.24069843 -0.43165419 0.0456641 0.057411253 0.2408956 -0.40013 -0.11143571
0.07437417 -0.07857445 0.32010207 -0.20262477 0.34698012 -0.029222637 -0.010370642 0.022000432
0.11846951 -0.34219646 -0.39816248 0.10474041 -0.40123007 -0.11132896 -0.33303505 0.18751517
-0.30890837 0.31159326 -0.07912099 0.37092695 0.39995322 0.084691375 0.3771998 0.040213227
-0.21861804 -0.10780543 -0.37658215 -0.2790733 0.28797773 0.030117095 -0.3489172 -0.10381594
0.23446855 -0.42890882 0.27468702 0.022000492 -0.14079967 0.22921243 0.37038007 -0.39256042
-0.17370018 -0.009894729 0.40687248 -0.3127014 0.25201055 0.41029266 -0.0573515 -0.40185776
-0.2310821 -0.07762393 -0.2826305 0.22904399 0.15166518 0.42548582 -0.058855265 -0.0614025
0.22303131 0.009274095 -0.06936297 -0.21083552 -0.30430984 -0.2250711 0.3210713 0.24832997

bias f4 [16]
00000000: 2c19 b2bd 7aaf 62be fe04 23be c007 70bd
00000010: 3218 0e3e 2edf 163e 68e9 19be f227 4cbe
00000020: 2051 72bd 7283 203e b080 dfbc d47d 3d3e
00000030: 049d 033e ec17 5bbe 4020 cb3d e0ce 803d
-0.086962074 -0.22137251 -0.15919873 -0.05860114 0.13876417 0.14733574 -0.15030444 -0.19937113
-0.059159398 0.15675142 -0.027283043 0.18505031 0.12852865 -0.21395844 0.099182606 0.06289458
