trained_model/FIAT(Reagentv5).pt (torch, 451434 bytes, 121 tensors)

weight f4 [32, 1, 3, 3]
-0.021281011 -0.056550875 -0.035841286 0.03951791 -0.06283525 -0.066338286 0.08607791 -0.104466036
-0.10818304 -0.052189812 0.053690895 -0.11852959 0.099776655 -0.05205489 0.049165606 0.088372216
0.018005967 -0.10499849 -0.00092069805 0.07202892 -0.09790525 0.058583647 -0.07706829 -0.09221208
0.024521247 0.13489874 0.13449503 -0.09205966 0.10304123 0.07170363 0.08229752 0.06677164
-0.09395184 -0.021318056 0.07993762 0.06885272 0.059206247 0.036854878 0.09406906 -0.029494427
-0.053999923 -0.12324652 0.037989005 0.04759389 -0.07877706 0.07002911 -0.014735997 0.040169537
0.08976279 -0.08439163 0.0360993 -0.091917485 0.056663364 -0.13782713 0.06530228 -0.11905579
0.0073810816 0.037280723 0.065339535 0.116355374 0.017153889 0.014944583 -0.049129784 -0.07711534
0.08011466 -0.12383258 -0.109740585 0.09206103 -0.11376216 -0.07104503 0.09919594 0.06483479
0.05890858 -0.033018507 -0.09175017 -0.08168948 0.04286182 -0.07876234 0.13850512 0.13075988
-0.05546446 -0.05396983 -0.10302745 -0.05988854 -0.025193006 0.087433934 -0.1346138 0.0890041
0.048795953 -0.015455082 -0.04268785 -0.06670583 -0.06945252 -0.10599888 0.08490397 -0.08370174
0.010283023 -0.13633423 0.030710146 -0.09971705 0.047606885 -0.08150151 -0.033343658 -0.10294905
-0.09119731 -0.037646905 0.08786902 -0.04985658 -0.08505084 0.056341097 0.12067853 -0.10415259
0.10984422 0.047759205 -0.050778657 0.13698702 0.11637832 0.06392032 0.05993475 -0.020028874
0.08210112 -0.0956096 -0.11485685 0.015188351 0.019014046 0.11171214 0.022888318 0.0051618665
-0.11200729 -0.12169534 0.034391478 -0.06941805 0.06839408 0.097398624 -0.018382035 -0.026984982
-0.11556162 0.038896993 0.09581731 0.08635801 -0.0010421723 -0.0763726 0.10269545 0.11870901
-0.03727816 0.087334365 -0.12993392 0.113052264 0.06544323 0.08784525 -0.05598084 -0.030689329
-0.11577131 0.12692465 -0.07192416 0.050830796 -0.06097094 0.05891271 -0.06361971 0.09173684
0.0045173466 -0.019528598 0.06729075 0.12793793 0.12648262 -0.12402119 -0.005999014 0.120433494
0.08272301 -0.070542656 0.061519682 -0.09008516 -0.08406559 -0.11336907 -0.005145848 -0.09176203
0.09888363 -0.087829575 -0.06708979 -0.13559371 0.099890366 0.10789569 -0.11944275 -0.116251715
0.0033811629 -0.04999452 -0.012632892 -0.050183617 0.037200183 0.05250354 -0.067383036 -0.054384135
0.03477384 -0.046525985 -0.0342315 0.14035799 0.13867284 0.068384275 -0.11955309 -0.04581587
0.1055648 0.04903999 -0.14013387 -0.061688654 -0.022197247 -0.020533852 -0.14063317 -0.035800964
0.059543744 0.13540618 -0.055111952 -0.12796625 -0.06882043 -0.13009873 -0.12611404 0.08330895
-0.044495337 0.03823939 0.010256872 -0.12225725 0.12430246 -0.06278572 0.059544608 -0.031239845
0.06402683 0.14101519 0.1364405 0.13133477 -0.049070805 -0.040588938 -0.07006281 0.063740924
-0.07726631 0.043995842 -0.10942437 -0.10918514 0.038084015 -0.07557376 -0.015437856 0.05677037
-0.0041833967 -0.0018488467 0.010216296 0.053154275 -0.102651015 0.014887631 0.054090783 0.039832756
-0.12865195 0.09923945 0.029116228 -0.078766875 -0.0016658455 -0.13436228 0.08834505 0.08286399
00000000: 8455 aebc e4a1 67bd 50ce 12bd 88dd 213d
00000010: c4af 80bd 5edc 87bd 9e49 b03d 4af2 d5bd
00000020: 128f ddbd fcc4 55bd fcea 5b3d a4bf f2bd
00000030: b457 cc3d 8237 55bd e061 493d 7efc b43d
00000040: 4081 933c 7309 d7bd 005b 71ba e683 933d
00000050: 8c82 c8bd 68f5 6f3d fbd5 9dbd b0d9 bcbd
00000060: c8e0 c83c e522 0a3e 11b9 093e c689 bcbd
00000070: 4807 d33d 5ad9 923d 9a8b a83d 92bf 883d
00000080: d369 c0bd 34a3 aebc 56b6 a33d a802 8d3d
00000090: 4082 723d 24f5 163d 48a7 c03d 4c9e f1bc
000000a0: 062f 5dbd ac68 fcbd 5c9a 1b3d d0f1 423d
000000b0: de55 a1bd 6c6b 8f3d 406f 71bc d088 243d
000000c0: 8ed5 b73d 85d5 acbd dcdc 133d 3c3f bcbd
000000d0: d817 683d 8e22 0dbe 34bd 853d 86d3 f3bd
000000e0: 00dd f13b acb3 183d bcd0 853d ba4b ee3d
000000f0: 5086 8c3c 20da 743c 503c 49bd a6ee 9dbd
00000100: 2813 a43d f09b fdbd acbf e0bd 7e8a bc3d
00000110: 23fc e8bd 0f80 91bd 3e27 cb3d 1ac8 843d
00000120: 204a 713d 6a3e 07bd 83e7 bbbd d04c a7bd
00000130: e08f 2f3d 264e a1bd 49d4 0d3e ebe5 053e
00000140: b42e 63bd 780f 5dbd 0e00 d3bd b04d 75bd
00000150: 9061 cebc 9010 b33d 33d8 09be c847 b63d
00000160: 44de 473d 5037 7dbc 74d9 2ebd 119d 88bd
00000170: 1f3d 8ebd f115 d9bd 22e2 ad3d d16b abbd
00000180: 207a 283c 339b 0bbe d893 fb3c 7438 ccbd
00000190: 70ff 423d 44ea a6bd 5c93 08bd f4d6 d2bd
000001a0: a8c5 babd a433 1abd acf4 b33d 6a36 4cbd
000001b0: 232f aebd ecc5 663d 4e26 f73d f44d d5bd
000001c0: 02f6 e03d 289f 433d 48fd 4fbd 5346 0c3e
000001d0: c257 ee3d a8e8 823d 247e 753d 9813 a4bc
000001e0: a224 a83d f7ce c3bd 113a ebbd 90d8 783c
000001f0: 58c3 9b3c 56c9 e43d 4880 bb3c e024 a93b
00000200: 1464 e5bd 683b f9bd 14de 0c3d 0d2b 8ebd
00000210: 3212 8c3d ee78 c73d ec95 96bc 9c0f ddbc
00000220: 92ab ecbd 7452 1f3d de3b c43d 78dc b03d
00000230: 8099 88ba 3d69 9cbd fe51 d23d b61d f33d
00000240: fcb0 18bd 5cdc b23d 660d 05be f287 e73d
00000250: 1a07 863d 36e8 b33d 2a4c 65bd 3068 fbbc
00000260: 8219 edbd 89f8 013e f94c 93bd f433 503d
00000270: aabc 79bd 744e 713d 0d4b 82bd 86e0 bb3d
00000280: 4006 943b 70fa 9fbc bccf 893d 2902 033e
00000290: a984 013e d2fe fdbd 6093 c4bb d6a5 f63d
000002a0: ae6a a93d ab78 90bd 10fc 7b3d 927e b8bd
000002b0: 942a acbd 0b2e e8bd 809e a8bb bbed bbbd
000002c0: 8083 ca3d fedf b3bd 5f66 89bd 14d9 0abe
000002d0: 5293 cc3d 6af8 dc3d 679e f4bd 6115 eebd
000002e0: 8096 5d3b 0ec7 4cbd 30fa 4ebc 568d 4dbd
000002f0: 385f 183d f40d 573d 1e00 8abd e6c1 5ebd
00000300: 046f 0e3d 0892 3ebd 5436 0cbd 01ba 0f3e
00000310: 4100 0e3e 0e0d 8c3d 40d8 f4bd 6ca9 3bbd
00000320: 5c32 d83d 28de 483d 417f 0fbe 3ead 7cbd
00000330: 00d7 b5bc 9c36 a8bc 2402 10be 08a4 12bd
00000340: 24e4 733d eba7 0a3e 12bd 61bd 9609 03be
00000350: baf1 8cbd 9a38 05be 0a24 01be e29d aa3d
00000360: be40 36bd e8a0 1c3d 700c 283c 0262 fabd
00000370: 4a92 fe3d cd95 80bd 0ce5 733d b4ea ffbc
00000380: 8020 833d 4966 103e 0fb7 0b3e 9f7c 063e
00000390: 78fe 48bd 9640 26bd 177d 8fbd 9a8a 823d
000003a0: cd3d 9ebd fc34 343d e219 e0bd 759c dfbd
000003b0: fcfd 1b3d 6ac6 9abd 10ef 7cbc 0c88 683d
000003c0: e014 89bb 0055 f2ba 4062 273c 4cb8 593d
000003d0: b23a d2bd 40eb 733c 4c8e 5d3d ac27 233d
000003e0: 56bd 03be 0e3e cb3d 2885 ee3c 8750 a1bd
000003f0: 8058 daba 4496 09be 40ee b43d 98b4 a93d

weight f4 [32]
1.0 1.0 1.0 1.0 1.0 1.0 1.0 1.0
1.0 1.0 1.0 1.0 1.0 1.0 1.0 1.0
1.0 1.0 1.0 1.0 1.0 1.0 1.0 1.0
1.0 1.0 1.0 1.0 1.0 1.0 1.0 1.0
00000000: 0000 803f 0000 803f 0000 803f 0000 803f
00000010: 0000 803f 0000 803f 0000 803f 0000 803f
00000020: 0000 803f 0000 803f 0000 803f 0000 803f
00000030: 0000 803f 0000 803f 0000 803f 0000 803f
00000040: 0000 803f 0000 803f 0000 803f 0000 803f
00000050: 0000 803f 0000 803f 0000 803f 0000 803f
00000060: 0000 803f 0000 803f 0000 803f 0000 803f
00000070: 0000 803f 0000 803f 0000 803f 0000 803f

bias f4 [32]
0.0 0.0 0.0 0.0 0.0 0.0 0.0 0.0
0.0 0.0 0.0 0.0 0.0 0.0 0.0 0.0
0.0 0.0 0.0 0.0 0.0 0.0 0.0 0.0
0.0 0.0 0.0 0.0 0.0 0.0 0.0 0.0
00000000: 0000 0000 0000 0000 0000 0000 0000 0000
00000010: 0000 0000 0000 0000 0000 0000 0000 0000
00000020: 0000 0000 0000 0000 0000 0000 0000 0000
00000030: 0000 0000 0000 0000 0000 0000 0000 0000
00000040: 0000 0000 0000 0000 0000 0000 0000 0000
00000050: 0000 0000 0000 0000 0000 0000 0000 0000
00000060: 0000 0000 0000 0000 0000 0000 0000 0000
00000070: 0000 0000 0000 0000 0000 0000 0000 0000

running_mean f4 [32]
-0.016519835 -0.0009771147 0.007763664 0.013257052 -0.0005860014 -0.0018541644 0.0077296416 -0.007799639
0.0014471876 -0.008309332 -0.018828189 -0.01791063 0.01749958 0.0059408834 -0.004643212 0.011155107
-0.00076372846 0.005714519 0.019185578 -0.028604632 -0.0050202073 0.011474422 -0.019719722 -0.01319488
0.001825847 0.013774134 -0.010378696 -0.0011019948 0.0014386594 0.00366188 -0.0086653745 0.00061945035
00000000: 9b54 87bc 8712 80ba 5566 fe3b 1b34 593c
00000010: e39d 19ba 6f07 f3ba ef48 fd3b 1d94 ffbb
00000020: 8faf bd3a dd23 08bc 933d 9abc 50b9 92bc
00000030: 475b 8f3c beab c23b 1626 98bb e9c3 363c
00000040: f334 48ba dc40 bb3b 132b 9d3c 4354 eabc
00000050: 8d80 a4bb 37ff 3b3c 418b a1bc 572f 58bc
00000060: 4251 ef3a e8ac 613c 680b 2abc cf70 90ba
00000070: 6691 bc3a 27fc 6f3b 37f9 0dbc 9c62 223a

running_var f4 [32]
0.90037847 0.9004501 0.9005827 0.9004626 0.9003545 0.9004445 0.9003435 0.90068936
0.90056 0.90045506 0.9004738 0.9004268 0.900725 0.9004266 0.9004029 0.9005198
0.90055954 0.9003695 0.9006897 0.9006442 0.90045995 0.9004935 0.9006134 0.90074337
0.900387 0.90064996 0.90029866 0.9004412 0.9004272 0.90040845 0.9003765 0.90034366
00000000: 347f 663f e683 663f 968c 663f b884 663f
00000010: a27d 663f 8883 663f e97c 663f 9493 663f
00000020: 1a8b 663f 3984 663f 7385 663f 5f82 663f
00000030: ea95 663f 5c82 663f ce80 663f 7788 663f
00000040: 128b 663f 9e7e 663f 9a93 663f 9e90 663f
00000050: 8b84 663f be86 663f 9a8e 663f 1e97 663f
00000060: c37f 663f ff90 663f f979 663f 5183 663f
00000070: 6682 663f 2b81 663f 137f 663f ec7c 663f

weight f4 [32, 1, 3, 3]
0.07422757 -0.09322974 0.040328965 -0.105340004 -0.008564174 -0.015186965 -0.05154649 0.083152235
-0.029618181 -0.033664383 -0.092171356 -0.09205029 -0.052323498 0.056636706 -0.005025968 -0.09756261
-0.07504213 0.021290824 -0.11965065 -0.02262351 0.07491481 -0.04196661 0.020972759 0.006186545
0.07775025 0.11610426 -0.13954203 0.019105151 -0.075048536 0.0026572347 0.07510322 0.050821215
-0.03114611 -0.011828899 -0.11238618 -8.5398555e-05 -0.076417856 0.12571953 0.1285152 -0.07633876
-0.03081856 -0.11747505 -0.042091757 0.12083046 0.061732024 -0.026671104 -0.12563422 0.035387486
0.060582116 0.029039368 -0.105451316 0.00096178055 0.035230234 0.114383504 -0.115435556 0.081854746
-0.009284854 0.045050547 0.08311525 -0.029192813 -0.069450974 -0.10993901 -0.10788622 0.063070804
0.12562497 0.10963546 0.037714005 0.10565472 -0.04961873 0.0670843 -0.122840464 -0.046833202
0.020518273 0.14061649 0.1245852 -0.0037172139 0.10557979 0.11148356 -0.057550944 0.015861496
-0.1416998 -0.03566716 -0.10651444 -0.09542757 0.06355637 0.009446591 0.13508831 -0.12510706
-0.065769434 0.0052671134 -0.047218964 0.067249045 0.1130739 0.1026649 -0.11716922 0.14177398
-0.13700886 0.11528246 0.090514794 0.08236341 0.118258044 0.015192106 -0.0861769 0.12410347
-0.03571494 0.021743491 -0.034410074 -0.13698028 0.031637013 -0.102918945 0.012750626 0.10682137
-0.1025878 -0.09669382 0.05728151 -0.0691761 0.10366511 0.041687056 0.024138227 0.12268479
0.08192025 0.11000709 -0.02257187 -0.10462285 0.10615371 -0.0084824115 -0.11318642 -0.0044799596
0.08140583 -0.07022618 0.09588635 -0.08185152 0.0853177 -0.0016447157 -0.08681876 0.052099034
0.035955787 0.10478899 0.11021896 -0.0030957162 0.044288322 0.086215094 -0.0043724477 -0.026966415
0.083902195 0.13065185 0.06799969 0.07126808 -0.033835463 0.004307568 0.012516126 -0.029087812
-0.08200869 -0.129084 -0.059473097 -0.011780173 -0.060844213 -0.07039848 0.049279302 0.04651496
0.026960716 -0.030950733 0.13331498 0.06348501 0.09461145 -0.0045523196 0.018029794 0.046827093
0.11308472 0.029586121 -0.13918671 -0.045955673 -0.13063915 -0.08192879 0.0070988387 -0.046439484
-0.10498014 -0.05289653 0.07894103 0.04002011 -0.018309176 0.05967185 -0.112495594 0.09215368
-0.049789503 -0.10925737 -0.08365455 0.11177333 0.06198764 -0.101738885 -0.009111419 0.11126299
0.04052387 -0.004556656 -0.0678082 0.10232049 0.058551162 0.13232292 -0.11570555 0.026036456
0.09581767 -0.023511037 -0.06345452 0.09837291 -0.121049605 -0.0071348995 0.04113707 0.094896436
-0.05524774 0.028254092 0.10101658 0.10872842 0.08048238 0.00023472309 0.1042863 0.006778568
-0.13907029 0.086150646 -0.026426233 0.027534783 -0.0061893165 -0.069632575 -0.13967697 0.089871526
-0.11969502 -0.025786676 0.11470558 -0.01170443 -0.0848522 -0.04296995 0.078504995 0.07019833
-0.0004967749 -0.095880136 -0.11412916 -0.0747041 0.017669484 0.10506466 0.093157485 0.07377344
0.033568755 -0.10646105 0.07585421 -0.1065197 -0.019872673 -0.13471545 0.035914183 0.0731442
0.030179203 -0.04640404 -0.07953622 -0.015712336 0.02249436 -0.076331615 -0.07118167 -0.08906312
00000000: a004 983d 3cef bebd fc2f 253d 80bc d7bd
00000010: c050 0cbc c0d2 78bc 6a22 53bd b84b aa3d
00000020: d4a1 f2bc aae3 09bd 56c4 bcbd dd84 bcbd
00000030: 2a51 56bd e4fb 673d e0b0 a4bb e8ce c7bd
00000040: b0af 99bd 186a ae3c 660b f5bd f054 b9bc
00000050: f06c 993d 2ee5 2bbd 10cf ab3c 80b8 ca3b
00000060: 863b 9f3d 12c8 ed3d 1be4 0ebe 6882 9c3c
00000070: 0cb3 99bd 0025 2e3b b8cf 993d e829 503d
00000080: 2026 ffbc 00ce 41bc ba2a e6bd 0018 b3b8
00000090: f780 9cbd 9fbc 003e 7d99 033e 7f57 9cbd
000000a0: 3477 fcbc c296 f0bd 6868 2cbd f675 f73d
000000b0: b8da 7c3d 5c7d dabc 42a6 00be 78f2 103d
000000c0: f424 783d f8e3 ed3c dcf6 d7bd 0020 7c3a
000000d0: 944d 103d e641 ea3d 7a69 ecbd 76a3 a73d
000000e0: 801f 18bc ec86 383d 5438 aa3d c425 efbc
000000f0: 503c 8ebd b427 e1bd 73f3 dcbd 442b 813d
00000100: d5a3 003e 8e88 e03d 007a 1a3d 8061 d83d
00000110: 023d 4bbd 7e63 893d c893 fbbd 2cd4 3fbd
00000120: f015 a83c c5fd 0f3e 8626 ff3d 809c 73bb
00000130: 383a d83d 7e51 e43d 8aba 6bbd f8ef 813c
00000140: c119 11be ba17 12bd 3e24 dabd 886f c3bd
00000150: d829 823d e0c5 1a3c 9754 0a3e 111c 00be
00000160: 20b2 86bd c097 ac3b ac68 41bd deb9 893d
00000170: 4a93 e73d fa41 d23d 6af6 efbd 332d 113e
00000180: 0d4c 0cbe 3619 ec3d d25f b93d 26ae a83d
00000190: 4631 f23d 50e8 783c 847d b0bd f629 fe3d
000001a0: d449 12bd 681f b23c 94f1 0cbd 8f44 0cbe
000001b0: d095 013d 2bc7 d2bd 00e8 503c 2ac5 da3d
000001c0: 8d19 d2bd 6907 c6bd 04a0 6a3d 33ac 8dbd
000001d0: 604e d43d 0cc0 2a3d 88bd c53c 2a42 fb3d
000001e0: cec5 a73d 664b e13d a4e8 b8bc 8144 d6bd
000001f0: 1e67 d93d d0f9 0abc 48ce e7bd a0cc 92bb
00000200: 1ab8 a63d bed2 8fbd 1060 c43d c5a1 a7bd
00000210: 0cbb ae3d 8093 d7ba 09ce b1bd cc65 553d
00000220: 6046 133d 9c9b d63d 7aba e13d 80e1 4abb
00000230: ac67 353d 8a91 b03d c046 8fbb ace8 dcbc
00000240: ead4 ab3d 99c9 053e 6c43 8b3d 00f5 913d
00000250: 0e97 0abd 8026 8d3b 7010 4d3c 9049 eebc
00000260: 2cf4 a7bd 992e 04be 109a 73bd a001 41bc
00000270: c837 79bd 142d 90bd 18d9 493d 7886 3e3d
00000280: b8dc dc3c 648c fdbc b983 083e 6e04 823d
00000290: a6c3 c13d a02b 95bb 38b3 933c c4cd 3f3d
000002a0: f698 e73d 985e f23c f686 0ebe 043c 3cbd
000002b0: 45c6 05be 48ca a7bd 609d e83b 5437 3ebd
000002c0: d4ff d6bd 08aa 58bd d6ab a13d 20ec 233d
000002d0: 20fd 95bc 786a 743d 1764 e6bd 12bb bc3d
000002e0: 14f0 4bbd 54c2 dfbd 1453 abbd 6ae9 e43d
000002f0: c0e6 7d3d 7a5c d0bd 1048 15bc dadd e33d
00000300: 5cfc 253d 0050 95bb 07df 8abd 688d d13d
00000310: 58d3 6f3d a97f 073e 08f7 ecbd 684a d53c
00000320: 0e3c c43d 389a c0bc 72f4 81bd bc77 c93d
00000330: dbe8 f7bd e0cb e9bb 587f 283d 1059 c23d
00000340: 744b 62bd 2075 e73c c8e1 ce3d 02ad de3d
00000350: f2d3 a43d 0020 7639 0e94 d53d c01e de3b
00000360: 7168 0ebe c06f b03d d47b d8bc a090 e13c
00000370: c0cf cabb 869b 8ebd 7b07 0fbe 900e b83d
00000380: aa22 f5bd 943e d3bc c2ea ea3d f0c3 3fbc
00000390: fdc6 adbd 4201 30bd 3ac7 a03d 24c4 8f3d
000003a0: 003a 02ba ce5c c4bd 8dbc e9bd 77fe 98bd
000003b0: 98bf 903c 242c d73d 5ac9 be3d 8816 973d
000003c0: 647f 093d 4008 dabd 7459 9b3d 0027 dabd
000003d0: 04cc a2bc d9f2 09be c01a 133d a0cc 953d
000003e0: 603a f73c 2a12 3ebd e3e3 a2bd 28b7 80bc
000003f0: 1846 b83c c053 9cbd b2c7 91bd ba66 b6bd

weight f4 [32, 32, 1, 1]
-0.011531532 -0.23889661 -0.26486567 0.05970475 -0.047762454 0.19485459 0.118095875 0.037889957
-0.2886173 0.021173328 -0.2083635 0.29923496 -0.10740776 -0.07925546 0.18096828 -0.18233803
0.21001956 -0.030871332 -0.07074945 -0.16444261 -0.0077362955 0.26174006 0.12239894 -0.10708471
-0.2119598 0.013415635 -0.14332715 0.24476948 -0.08823131 -0.06949252 0.11938307 -0.1111705
0.12532216 -0.2299781 -0.25765604 -0.20594528 -0.24445665 0.11147615 0.12403479 0.014303565
-0.23851377 0.21836177 0.26581427 -0.29214415 -0.009253621 -0.1462814 0.018470883 0.06357196
0.12883356 -0.09105405 -0.088213354 -0.2534265 0.15390411 0.13592061 0.062462687 0.07986486
0.11501095 -0.04837966 0.15635586 -0.2038041 -0.15111773 0.2270681 0.26076713 0.02677998
-0.1232976 0.24781677 -0.1531048 -0.2705114 0.0006419718 -0.27619082 -0.18502602 0.23807088
0.19838783 0.22721598 -0.21605246 0.23357144 0.15845296 -0.10399066 -0.11406347 -0.113744244
-0.27958342 -0.16953413 -0.034123152 0.16325065 -0.20114204 0.05117798 0.103698015 -0.14489603
-0.059265703 0.20917788 -0.01946327 -0.25399497 -0.03743252 -0.21881083 0.0837625 0.19905195
0.075621575 -0.0024428964 0.10786286 -0.11396259 0.2492458 -0.086668834 -0.18524735 -0.17591171
-0.135659 -0.17185749 -0.17083377 -0.15444508 0.053018212 0.11835116 -0.00815627 -0.1182179
0.18336752 0.023253351 0.1755566 -0.062589735 0.11845654 -0.16820323 -0.08053027 -0.017988533
-0.105687186 0.19440773 -0.29902762 -0.28777066 0.02629149 -0.06840712 0.13246804 -0.2645528
-0.21740337 0.011443198 -0.27584234 0.19044262 -0.23834541 0.24964872 -0.22904235 -0.27269575
-0.15843529 -0.29194388 0.25090948 0.26001957 -0.2857043 0.030082703 0.16213259 0.29306856
-0.18598846 0.04536411 0.06419662 0.12689072 0.29618528 0.1674104 0.22482023 -0.12779056
0.052001864 -0.06469762 -0.07187216 0.00417462 0.008982897 0.28783992 -0.30059305 -0.035876125
0.26081565 -0.07704806 0.1811971 0.24547473 -0.18088481 -0.07677534 -0.091385946 -0.15785797
-0.2768644 0.23595175 0.24759486 0.09508154 0.17836413 -0.02439934 0.24054632 0.21727243
-0.06627937 0.123286724 -0.16060343 -0.23632225 -0.1654536 -0.23285845 0.28176335 -0.23688343
0.17516956 -0.27218604 -0.26437375 0.27917686 -0.11070272 -0.2713033 0.103844464 -0.078513846
0.2586204 -0.16394803 0.06414324 0.24661574 -0.087050006 0.2500861 -0.0026016533 0.04222706
-0.1276659 -0.11479859 -0.24743836 -0.08325118 -0.021279454 -0.03516683 0.18548506 0.042694926
0.053047925 -0.18838604 -0.03269151 -0.30572024 -0.14094342 0.10738772 -0.055276394 -0.120137006
0.20558777 -0.21621 -0.10175669 0.30283567 0.25613335 0.19108376 -0.15761717 0.14553654
0.109024465 0.11932561 0.21650395 0.09974721 0.22742417 0.25686476 0.20206591 -0.15377888
0.19466862 0.15326837 0.105286 0.26193592 0.22903076 -0.09350833 -0.04536903 0.2291747
0.038453996 -0.025930762 -0.24873517 0.28020683 -0.021556973 0.004145831 -0.16629215 0.06659725
0.010164142 0.2236974 -0.25066367 -0.271396 0.110096306 0.10596806 -0.24032994 -0.17916948
00000000: c0ee 3cbc 50a1 74be 799c 87be f88c 743d
00000010: 90a2 43bd f687 473e 40dc f13d 8032 1b3d
00000020: a6c5 93be b073 ad3c 3e5d 55be 5335 993e
00000030: 9af8 dbbd b050 a2bd c04f 393e d2b6 3abe
00000040: 5e0f 573e e0e5 fcbc 16e5 90bd a563 28be
00000050: c080 fdbb cb02 863e 4cac fa3d 3a4f dbbd
00000060: fd0b 59be 40cd 5b3c 5ac4 12be daa4 7a3e
00000070: 9eb2 b4bd 1852 8ebd 1c7f f43d 5cad e3bd
00000080: 7454 003e 617f 6bbe 7eeb 83be 52e3 52be
00000090: d852 7abe 9c4d e43d f405 fe3d 8059 6a3c
000000a0: f43c 74be 3a9a 5f3e cf18 883e eb93 95be
000000b0: 809c 17bc cbca 15be 4050 973c 0432 823d
000000c0: f2ec 033e 8c7a babd 34a9 b4bd 1ec1 81be
000000d0: 0a99 1d3e c62e 0b3e e0d8 7f3d 3090 a33d
000000e0: dc8a eb3d c029 46bd c01b 203e 06b2 50be
000000f0: 9bbe 1abe 8a84 683e 4583 853e b061 db3c
00000100: 7483 fcbd aec3 7d3e 81c7 1cbe 7880 8abe
00000110: 004a 283a e268 8dbe 7677 3dbe dac8 733e
00000120: 2e26 4b3e 4eab 683e db3c 5dbe 5a2d 6f3e
00000130: 7e41 223e 0ef9 d4bd 1c9a e9bd bef2 e8bd
00000140: 8f25 8fbe 5b9a 2dbe b8c4 0bbd 2e2b 273e
00000150: 2ef8 4dbe 00a0 513d a05f d43d a05f 14be
00000160: 98c0 72bd ba32 563e 7071 9fbc a10b 82be
00000170: d852 19bd f20f 60be ac8b ab3d 46d4 4b3e
00000180: 7cdf 9a3d 0019 20bb 34e7 dc3d 3865 e9bd
00000190: 4a3a 7f3e 6e7f b1bd 7bb1 3dbe 3322 34be
000001a0: 31ea 0abe 69fb 2fbe 0cef 2ebe da26 1ebe
000001b0: a029 593d 1862 f23d e0a1 05bc 3a1c f2bd
000001c0: b2c4 3b3e d07d be3c 1cc5 333e 0c2f 80bd
000001d0: 5899 f23d 783d 2cbe 0eed a4bd b05c 93bc
000001e0: 8672 d8bd d212 473e 261a 99be ad56 93be
000001f0: 4061 d73c 0819 8cbd b4a5 073e 7773 87be
00000200: fd9e 5ebe 407c 3b3c 353b 8dbe 6403 433e
00000210: d210 74be eaa3 7f3e 148a 6abe c79e 8bbe
00000220: dc3c 22be ab79 95be 3577 803e 4921 853e
00000230: d647 92be 0070 f63c 1606 263e 150d 963e
00000240: c273 3ebe b8cf 393d 8479 833d a4ef 013e
00000250: 99a5 973e a26d 2b3e 4637 663e 87db 02be
00000260: e8ff 543d 3080 84bd b631 93bd 40cb 883b
00000270: 002d 133c c15f 933e 55e7 99be d8f2 12bd
00000280: a189 853e 60cb 9dbd bc8b 393e ba5d 7b3e
00000290: de39 39be 643c 9dbd 8e28 bbbd 85a5 21be
000002a0: 2cc1 8dbe 569d 713e 8289 7d3e 1cba c23d
000002b0: 16a5 363e 20e1 c7bc c651 763e aa7c 5e3e
000002c0: 7abd 87bd c07d fc3d 3a75 24be 76fe 71be
000002d0: ab6c 29be 7272 6ebe 4943 903e 9291 72be
000002e0: a65f 333e f85b 8bbe ff5b 87be 45f0 8e3e
000002f0: 1cb8 e2bd 44e8 8abe 68ac d43d decb a0bd
00000300: e569 843e fee1 27be 885d 833d d688 7c3e
00000310: 4647 b2bd 490b 803e 8080 2abb 48f6 2c3d
00000320: daba 02be 861b ebbd 7b60 7dbe 987f aabd
00000330: 4052 aebc 180b 10bd ccef 3d3e e0e0 2e3d
00000340: c848 593d 45e8 40be 88e7 05bd 5d87 9cbe
00000350: 7953 10be 18ee db3d 8069 62bd 640a f6bd
00000360: 9a85 523e 2766 5dbe d065 d0bd 470d 9b3e
00000370: e923 833e 76ab 433e 6566 21be 8807 153e
00000380: 3848 df3d fc60 f43d 36b3 5d3e 4448 cc3d
00000390: e2e1 683e c783 833e 5eea 4e3e 3678 1dbe
000003a0: 3657 473e 62f2 1c3e 30a0 d73d 771c 863e
000003b0: 0a87 6a3e 4c81 bfbd e0d4 39bd c6ac 6a3e
000003c0: f081 1d3d c06c d4bc 6fb4 7ebe 4577 8f3e
000003d0: 4098 b0bc c0d9 873b 7d48 2abe 2464 883d
000003e0: 8087 263c ee10 653e fd56 80be 6bf4 8abe
000003f0: 2c7a e13d c805 d93d 0d19 76be 3478 37be

weight f4 [32]
1.0 1.0 1.0 1.0 1.0 1.0 1.0 1.0
1.0 1.0 1.0 1.0 1.0 1.0 1.0 1.0
1.0 1.0 1.0 1.0 1.0 1.0 1.0 1.0
1.0 1.0 1.0 1.0 1.0 1.0 1.0 1.0
00000000: 0000 803f 0000 803f 0000 803f 0000 803f
00000010: 0000 803f 0000 803f 0000 803f 0000 803f
00000020: 0000 803f 0000 803f 0000 803f 0000 803f
00000030: 0000 803f 0000 803f 0000 803f 0000 803f
00000040: 0000 803f 0000 803f 0000 803f 0000 803f
00000050: 0000 803f 0000 803f 0000 803f 0000 803f
00000060: 0000 803f 0000 803f 0000 803f 0000 803f
00000070: 0000 803f 0000 803f 0000 803f 0000 803f

bias f4 [32]
0.0 0.0 0.0 0.0 0.0 0.0 0.0 0.0
0.0 0.0 0.0 0.0 0.0 0.0 0.0 0.0
0.0 0.0 0.0 0.0 0.0 0.0 0.0 0.0
0.0 0.0 0.0 0.0 0.0 0.0 0.0 0.0
00000000: 0000 0000 0000 0000 0000 0000 0000 0000
00000010: 0000 0000 0000 0000 0000 0000 0000 0000
00000020: 0000 0000 0000 0000 0000 0000 0000 0000
00000030: 0000 0000 0000 0000 0000 0000 0000 0000
00000040: 0000 0000 0000 0000 0000 0000 0000 0000
00000050: 0000 0000 0000 0000 0000 0000 0000 0000
00000060: 0000 0000 0000 0000 0000 0000 0000 0000
00000070: 0000 0000 0000 0000 0000 0000 0000 0000

running_mean f4 [32]
-0.0021826453 -0.007614368 -0.0005604188 -0.0017375089 0.0019987707 0.00038026398 -0.004775932 0.005950488
0.00660067 -0.0043389336 0.0064951144 0.0016351087 -0.001294171 0.007290277 -0.0019470154 0.0081723975
0.0046572923 -0.004942033 0.0073152417 -0.006841784 -0.0009414575 0.0054403087 -0.0015078617 0.009564786
-0.005953625 3.0114252e-05 0.0018885905 -0.0054346253 -0.005811185 -0.0015255532 0.006418954 0.0024104805
00000000: b60a 0fbb f381 f9bb 12e9 12ba 20bd e3ba
00000010: cffd 023b 2b5e c739 6c7f 9cbb 50fc c23b
00000020: 6f4a d83b 9d2d 8ebb f8d4 d43b 2551 d63a
00000030: 2ca1 a9ba 47e3 ee3b ff32 ffba 85e5 053c
00000040: 339c 983b c7f0 a1bb b2b4 ef3b 0b31 e0bb
00000050: 25cc 76ba 9e44 b23b 71a3 c5ba 9fb5 1c3c
00000060: a016 c3bb dd9d fc37 958a f73a f114 b2bb
00000070: c16b bebb 12f5 c7ba 1756 d23b 27f9 1d3b

running_var f4 [32]
0.9012692 0.90129393 0.90187925 0.9007393 0.9026295 0.9016319 0.901946 0.90246004
0.902418 0.9023463 0.90271014 0.9019979 0.9025352 0.9018801 0.9014789 0.9010133
0.9016827 0.9012172 0.90203285 0.9020285 0.90210384 0.90198505 0.9016472 0.90152806
0.90181476 0.90117556 0.90171075 0.90122145 0.90057456 0.9011231 0.90187746 0.9021539
00000000: 94b9 663f 33bb 663f 8fe1 663f da96 663f
00000010: ba12 673f 59d1 663f efe5 663f 9f07 673f
00000020: de04 673f 2b00 673f 0318 673f 56e9 663f
00000030: 8c0c 673f 9de1 663f 52c7 663f cfa8 663f
00000040: add4 663f 2cb6 663f a0eb 663f 57eb 663f
00000050: 47f0 663f 7ee8 663f 5ad2 663f 8bca 663f
00000060: 55dd 663f 71b3 663f 84d6 663f 73b6 663f
00000070: 0e8c 663f 01b0 663f 71e1 663f 8ff3 663f

weight f4 [32]
1.0 1.0 1.0 1.0 1.0 1.0 1.0 1.0
1.0 1.0 1.0 1.0 1.0 1.0 1.0 1.0
1.0 1.0 1.0 1.0 1.0 1.0 1.0 1.0
1.0 1.0 1.0 1.0 1.0 1.0 1.0 1.0
00000000: 0000 803f 0000 803f 0000 803f 0000 803f
00000010: 0000 803f 0000 803f 0000 803f 0000 803f
00000020: 0000 803f 0000 803f 0000 803f 0000 803f
00000030: 0000 803f 0000 803f 0000 803f 0000 803f
00000040: 0000 803f 0000 803f 0000 803f 0000 803f
00000050: 0000 803f 0000 803f 0000 803f 0000 803f
00000060: 0000 803f 0000 803f 0000 803f 0000 803f
00000070: 0000 803f 0000 803f 0000 803f 0000 803f

bias f4 [32]
0.0 0.0 0.0 0.0 0.0 0.0 0.0 0.0
0.0 0.0 0.0 0.0 0.0 0.0 0.0 0.0
0.0 0.0 0.0 0.0 0.0 0.0 0.0 0.0
0.0 0.0 0.0 0.0 0.0 0.0 0.0 0.0
00000000: 0000 0000 0000 0000 0000 0000 0000 0000
00000010: 0000 0000 0000 0000 0000 0000 0000 0000
00000020: 0000 0000 0000 0000 0000 0000 0000 0000
00000030: 0000 0000 0000 0000 0000 0000 0000 0000
00000040: 0000 0000 0000 0000 0000 0000 0000 0000
00000050: 0000 0000 0000 0000 0000 0000 0000 0000
00000060: 0000 0000 0000 0000 0000 0000 0000 0000
00000070: 0000 0000 0000 0000 0000 0000 0000 0000

running_mean f4 [32]
-0.011361732 -0.0032645445 -0.017483648 -0.024809783 -0.000679839 -0.0024603938 0.0031331133 0.031154081
0.009543405 0.0426857 0.026323328 0.0034861148 -0.01929604 -0.030358603 -0.024576908 0.008991036
0.016192233 -0.0066922368 -0.030481195 0.002604982 0.002117376 -0.01735839 -0.0010752423 -0.019967789
-0.008347517 -0.00081720686 0.010666396 -0.01972372 0.0252067 -0.006061836 0.00686584 -0.0061573763
00000000: 8f26 3abc f8f1 55bb de39 8fbc e33d cbbc
00000010: 3937 32ba 8f3e 21bb eb54 4d3b d836 ff3c
00000020: f15b 1c3c 33d7 2e3d 05a4 d73c 4d77 643b
00000030: bb12 9ebc 9bb2 f8bc 8355 c9bc 234f 133c
00000040: 93a5 843c 8d4a dbbb b3b3 f9bc 58b8 2a3b
00000050: adc3 0a3b 2f33 8ebc 25ef 8cba 7d93 a3bc
00000060: 06c4 08bc d339 56ba 1bc2 2e3c a493 a1bc
00000070: 487e ce3c 5ea2 c6bb d7fa e03b d1c3 c9bb

running_var f4 [32]
0.9284005 0.9336212 0.930272 0.9243866 0.93183464 0.9377257 0.9239573 0.92948484
0.92876464 0.9370359 0.94437563 0.932436 0.93415135 0.9354818 0.9313754 0.92580897
0.9382151 0.93000245 0.9380977 0.9227663 0.9260675 0.92124116 0.9394867 0.9196761
0.9327686 0.9303133 0.9335042 0.9253404 0.93025106 0.93184 0.91846365 0.9296162
00000000: a8ab 6d3f cd01 6f3f 4e26 6e3f 9aa4 6c3f
00000010: b78c 6e3f cb0e 703f 7788 6c3f b8f2 6d3f
00000020: 85c3 6d3f 96e1 6f3f 9ac2 713f 20b4 6e3f
00000030: 8b24 6f3f bc7b 6f3f 9e6e 6e3f d101 6d3f
00000040: dd2e 703f a414 6e3f 2c27 703f 6a3a 6c3f
00000050: c212 6d3f 76d6 6b3f 3382 703f e56f 6b3f
00000060: ecc9 6e3f 0329 6e3f 22fa 6e3f 1ce3 6c3f
00000070: ef24 6e3f 118d 6e3f 6f20 6b3f 54fb 6d3f

weight f4 [8, 32]
-0.15999784 0.06386723 -0.09268378 0.1029693 -0.29428175 0.37381375 -0.16936396 -0.21445249
0.0069680023 0.11068806 0.11882826 0.15146668 -0.30044377 0.17847887 -0.2646072 0.036981586
0.19698031 0.32723808 -0.044868503 -0.12415314 0.21133783 -0.06772241 -0.15143718 0.2871489
0.33624554 0.29703954 0.010595314 0.035756893 0.33975324 0.31372723 0.26459596 -0.0058151484
-0.15343787 0.36383876 -0.34568995 0.3293541 0.22121724 0.2581072 0.3830471 -0.29653296
0.21994685 -0.030861905 0.01824561 -0.006268395 0.31741172 0.23276435 -0.10097742 -0.36904976
-0.14389347 -0.097197704 0.10474433 -0.32700744 0.36752462 -0.20523536 0.12577742 -0.10551599
-0.3379987 0.051625464 -0.2760559 -0.23485973 0.17314772 0.301583 -0.12590848 0.2766803
-0.045868073 -0.17083767 0.31763697 0.31189787 0.20666912 0.2524969 -0.1472041 0.167399
0.1871184 -0.31934753 0.2023249 -0.29050353 -0.28524503 -0.28721833 -0.2923434 0.008224045
0.34086978 0.23582613 0.04259308 0.26060966 -0.3135033 -0.1526521 0.047135334 -0.3266072
0.17760336 0.33500978 -0.005004411 -0.2665232 0.3775087 -0.1616744 -0.10823399 -0.32953575
-0.2866991 0.21108949 -0.1973869 0.17862685 -0.004603567 0.07226256 0.16515863 0.22633412
-0.21987046 0.10824975 -0.27353317 -0.28578228 -0.013356923 0.16029157 0.10406984 -0.1574844
-0.046509575 -0.021856762 0.18493956 0.30858552 -0.3679041 -0.20202626 0.13173497 -0.09673079
0.0017586909 0.2980798 0.004887925 0.20894602 0.25203463 0.072346084 0.22802925 0.034130525
-0.28813896 0.276236 0.058184497 -0.1616736 0.23350874 -0.19744216 -0.058289394 -0.24155708
0.34787527 -0.16945289 -0.18807799 -0.30137748 -0.26262176 0.24869095 -0.24125671 0.2159606
-0.24732175 0.25245765 -0.23652914 0.13823184 0.2742012 -0.37218148 -0.33201697 0.21521743
0.31442723 -0.06083105 -0.22290772 -0.08389448 -0.32942936 0.012852867 -0.12582207 0.13600999
-0.006866222 -0.32224774 0.0074027814 0.05997255 -0.17356862 0.17561257 -0.23768942 0.16914943
-0.197265 -0.14429288 0.35437298 0.23990309 0.24312212 -0.060420025 0.058344334 -0.18724571
-0.0029882786 -0.06926563 -0.07139439 -0.36888143 0.28333813 0.1208985 -0.09082312 0.25352865
0.29217586 -0.17880663 0.29279977 0.15715615 0.18920037 -0.19492404 -0.25683072 -0.15422656
0.14490944 -0.14324076 0.12559326 -0.2222951 0.025803752 0.13887486 0.25295678 0.1173639
0.1519751 -0.17585744 0.20323014 -0.26891857 -0.36667645 0.21442395 -0.37864298 -0.3826044
0.3224428 0.12219014 -0.2270538 0.12494425 -0.115817055 -0.004841271 -0.19643065 -0.37754667
-0.013960497 -0.013247155 -0.27224222 0.29386052 -0.013163126 -0.15191716 -0.10638674 0.35459673
0.22883841 0.3368749 0.25288537 -0.19813132 0.052602828 0.08302284 0.27714568 -0.2614231
0.30957937 0.036673453 -0.20389381 -0.261819 -0.16712037 0.022091534 0.14590698 -0.084636725
-0.25034612 -0.020975916 0.0008622165 -0.3471448 -0.3240652 0.050305985 -0.018264677 -0.22511148
0.06321222 -0.006112411 0.36195993 -0.022349484 -0.37991413 -0.36046058 0.0545992 -0.2719914
00000000: 79d6 23be d3cc 823d fed0 bdbd 91e1 d23d
00000010: 19ac 96be 8464 bf3e bf6d 2dbe 6f99 5bbe
00000020: d753 e43b 6cb0 e23d 3b5c f33d 151a 1b3e
00000030: c4d3 99be 2ac3 363e 987a 87be 017a 173d
00000040: 35b5 493e c08b a73e 09c8 37bd 0044 febd
00000050: f268 583e 0cb2 8abd 5912 1bbe 2e05 933e
00000060: 6028 ac3e 9115 983e f897 2d3c d275 123d
00000070: 23f4 ad3e dba0 a03e 1f79 873e 008d bebb
00000080: d11e 1dbe 1349 ba3e 46fe b0be 1aa1 a83e
00000090: c686 623e a026 843e c01e c43e 2bd3 97be
000000a0: bf39 613e 1bd2 fcbc d177 953c 1c67 cdbb
000000b0: ca83 a23e c759 6e3e 40cd cebd 17f4 bcbe
000000c0: cf58 13be 970f c7bd 3284 d63d 856d a7be
000000d0: 302c bc3e 3829 52be cccb 003e c418 d8bd
000000e0: 2a0e adbe 3975 533d 3357 8dbe 127f 70be
000000f0: a34d 313e 1669 9a3e 27ee 00be 0aa9 8d3e
00000100: 29e0 3bbd 12f0 2ebe 50a1 a23e 14b1 9f3e
00000110: 12a1 533e 4647 813e acbc 16be a56a 2b3e
00000120: f79b 3f3e 8581 a3be 422e 4f3e e1bc 94be
00000130: a30b 92be 480e 93be 09ae 95be 25be 063c
00000140: 7c86 ae3e 687c 713e 1576 2e3d a16e 853e
00000150: 8183 a0be d550 1cbe fb10 413d 0f39 a7be
00000160: a8dd 353e 6786 ab3e 0bfc a3bb bb75 88be
00000170: d248 c13e f98d 25be c8a9 ddbd e9b8 a8be
00000180: 39ca 92be d827 583e cb1f 4abe f5e9 363e
00000190: 85d9 96bb 65fe 933d 581f 293e 22c4 673e
000001a0: b925 61be 0cb2 dd3d 8a0c 8cbe 0e52 92be
000001b0: ffd6 5abc 7923 243e 9122 d53d 9743 21be
000001c0: d380 3ebd f40c b3bc cc60 3d3e ecfe 9d3e
000001d0: ed5d bcbe f9df 4ebe 88e5 063e cb1a c6bd
000001e0: e083 e63a ea9d 983e e32a a03b f2f5 553e
000001f0: af0a 813e 2f2a 943d 8080 693e 73cc 0b3d
00000200: f386 93be ce6e 8d3e de52 6e3d c48d 25be
00000210: ea1c 6f3e 472e 4abe dcc0 6ebd bd5a 77be
00000220: b51c b23e 0f85 2dbe 8497 40be 264e 9abe
00000230: 5c76 86be d7a8 7e3e 000c 77be c724 5d3e
00000240: ea41 7dbe 2142 813e b234 72be a68c 0d3e
00000250: 1a64 8c3e 928e bebe 21fe a9be f561 5c3e
00000260: 9bfc a03e fb29 79bd ec41 64be ded0 abbd
00000270: f7aa a8be d594 523c 80d7 00be 3446 0b3e
00000280: 0bfe e0bb a8fd a4be 0893 f23b c7a5 753d
00000290: f9bb 31be c8d3 333e db64 73be 8235 2d3e
000002a0: d6ff 49be 83c1 13be 6070 b53e 28a9 753e
000002b0: 01f5 783e fd7a 77bd 78fa 6e3d 57bd 3fbe
000002c0: ffd6 43bb 23db 8dbd 3937 92bd 07de bcbe
000002d0: b211 913e a299 f73d 7901 babd 82ce 813e
000002e0: 1398 953e 1619 37be dae9 953e 8bed 203e
000002f0: bebd 413e 2b9a 47be 517f 83be 91ed 1dbe
00000300: 2463 143e b5ad 12be 859b 003e 54a1 63be
00000310: 6462 d33c 3635 0e3e 8d83 813e 7c5c f03d
00000320: 5c9f 1b3e f913 34be 901b 503e b2af 89be
00000330: 04bd bbbe f491 5b3e 7edd c1be b9e4 c3be
00000340: 3917 a53e d33e fa3d cb80 68be c5e2 ff3d
00000350: 7e31 edbd 86a3 9ebb 1e25 49be cc4d c1be
00000360: 92ba 64bc 980a 59bc 5563 8bbe e374 963e
00000370: 27aa 57bc 2c90 1bbe 4be1 d9bd b48d b53e
00000380: 9e54 6a3e de7a ac3e 317a 813e f0e2 4abe
00000390: 1076 573d e107 aa3d 0ae6 8d3e 40d9 85be
000003a0: 3081 9e3e e736 163d 8ac9 50be 240d 86be
000003b0: 9a21 2bbe 4ef9 b43c a468 153e 0556 adbd
000003c0: 5e2d 80be afd5 abbc 5f06 623a f7bc b1be
000003d0: e0eb a5be a60d 4e3d ce9f 95bc a083 66be
000003e0: 6975 813d 9f4a c8bb d052 b93e 4416 b7bc
000003f0: 1b84 c2be 4a8e b8be 69a3 5f3d 7542 8bbe

bias f4 [8]
-0.11768435 0.104677066 0.13263215 -0.13250497 -0.09456739 0.12073429 0.16119818 -0.068028934
00000000: 7e04 f1bd ee60 d63d b9d0 073e 62af 07be
00000010: 8cac c1bd 8a43 f73d 2311 253e c152 8bbd

weight f4 [32, 8]
0.039495934 -0.05431692 0.37523267 0.022653833 0.19908771 0.11444571 0.22026302 0.09774733
-0.2622426 -0.27604455 0.26216432 0.1984811 -0.16058247 -0.299337 0.29530066 -0.085162364
-0.13733362 0.16411433 -0.17076826 -0.18266797 0.0731559 0.13700937 0.0659583 -0.32254145
-0.11832393 -0.07112654 0.14168122 -0.3525224 0.123747215 0.19255209 -0.088026725 -0.1673252
0.18951026 -0.31515533 0.06274194 0.19887505 0.10525889 -0.37014154 -0.2891848 -0.3419724
-0.18752944 -0.051786434 -0.28943 0.23620975 0.03866913 0.031217733 -0.37180477 -0.019636076
-0.16323511 -0.20205761 -0.048379675 0.34562168 0.08328402 -0.30159974 0.19226524 0.11379042
-0.21835184 -0.2422445 -0.024362499 0.107777625 0.28288215 0.08216303 -0.12985249 -0.048858084
0.12849307 -0.3402799 -0.26533762 0.10988572 -0.27581307 -0.11171949 -0.22753641 -0.07280511
-0.27124146 -0.2119514 0.29764095 0.13075331 -0.05909367 -0.28686693 -0.18090236 -0.04935974
-0.21046528 0.029059352 0.050669245 0.06973381 0.3596129 -0.3037632 0.15292494 -0.1749494
-0.12217424 0.33227313 -0.38725936 -0.014335048 0.09592802 0.17239584 -0.38301983 0.1792066
-0.36856237 -0.24305762 0.11351373 -0.1738856 -0.3042148 -0.117830604 0.1026504 -0.35831758
0.33836374 -0.23940453 -0.2745306 -0.13258176 0.2992661 -0.019847717 -0.16646951 0.07460406
-0.3226175 -0.16267139 -0.098476626 0.2258293 0.11473667 0.21596056 0.015071638 -0.19748656
-0.081673145 0.023039857 -0.06451788 0.17855057 0.25791818 0.24871306 0.13802575 0.13551809
-0.21125764 -0.2971365 -0.098896444 0.018117951 -0.2243955 0.15005624 0.20605683 -0.021128576
-0.07396315 -0.059690617 0.016998386 -0.04690915 -0.16964614 0.24875814 0.0025080228 0.07118321
0.3309066 -0.018619768 -0.10375921 0.11558914 -0.36445183 0.14071305 0.12202984 -0.37236112
0.23665035 0.2607294 -0.17123614 0.19687074 0.30150396 0.30517775 0.24991307 -0.1538404
-0.2299084 -0.19149873 -0.06649474 -0.22406177 -0.37429532 0.06066957 -0.26137614 -0.36230448
0.029126067 0.3678499 -0.27477762 0.20497526 -0.025001256 -0.31179258 -0.37166664 0.2542503
-0.07632348 0.04363841 -0.2940398 -0.35971698 -0.30988032 -0.08000268 0.16236353 -0.24284875
-0.086395875 0.06946169 -0.2910958 -0.33438504 0.11577022 0.28370428 -0.0059622447 0.1812768
0.0736694 -0.28254673 -0.16529077 -0.26933447 0.008741884 0.2865114 0.19057783 0.35815668
0.34322923 0.1403032 0.25828448 0.12326063 -0.2874011 0.07199769 0.13380414 0.124329224
0.0520517 0.33472908 -0.36180425 -0.30824673 0.17110541 0.17566885 -0.25058493 -0.3237652
0.3735687 -0.35524276 -0.31642675 0.32232317 0.14190565 -0.20375068 0.38671365 0.26523712
0.3163861 0.090932846 0.14879157 0.21683289 0.32438543 0.027350618 -0.19654326 -0.32999736
-0.07009834 -0.10249478 -0.13763373 0.01933909 -0.20970738 -0.15634482 -0.06572334 0.055318106
-0.05817623 -0.20429426 0.26270807 0.1641839 0.045861054 0.3194524 -0.30499318 -0.00855492
0.1251094 -0.07939553 -0.23661155 0.3118222 -0.2712208 0.25665617 -0.23172633 -0.33907974
00000000: 7dc6 213d 6b7b 5ebd 7f1e c03e 8894 b93c
00000010: a6dd 4b3e 8362 ea3d a18c 613e c12f c83d
00000020: a944 86be b655 8dbe 673a 863e a13e 4b3e
00000030: bb6f 24be b342 99be a631 973e 9b69 aebd
00000040: 2fa1 0cbe 960d 283e e0dd 2ebe 500d 3bbe
00000050: c3d2 953d 2f4c 0c3e 2515 873d 2724 a5be
00000060: d153 f2bd cbaa 91bd e214 113e d17d b4be
00000070: 2e6f fd3d 602c 453e 5b47 b4bd 4c57 2bbe
00000080: fa0e 423e 0a5c a1be d97e 803d e7a5 4b3e
00000090: f991 d73d 3183 bdbe 0810 94be 0217 afbe
000000a0: b807 40be 031e 54bd 2b30 94be f8e0 713e
000000b0: 8663 1e3d 55bc ff3c 325d bebe d6db a0bc
000000c0: 1b27 27be 31e8 4ebe c429 46bd 53f5 b03e
000000d0: d090 aa3d 486b 9abe 2ee1 443e f40a e93d
000000e0: a097 5fbe f10e 78be dd93 c7bc 84ba dc3d
000000f0: eed5 903e 1745 a83d 0df8 04be 6a1f 48bd
00000100: b093 033e 2b39 aebe 55da 87be c40b e13d
00000110: 5f37 8dbe 30cd e4bd 4eff 68be d81a 95bd
00000120: 29e0 8abe ca09 59be 6564 983e 32e4 053e
00000130: 340c 72bd 39e0 92be 783e 39be 702d 4abd
00000140: 3684 57be e10d ee3c 8e8a 4f3d 9ad0 8e3d
00000150: 2f1f b83e da86 9bbe 5b98 1c3e ef25 33be
00000160: 7d36 fabd b41f aa3e dc46 c6be 8ddd 6abc
00000170: e975 c43d 8988 303e 2d1b c4be ef81 373e
00000180: 35b4 bcbe 19e4 78be e379 e83d 110f 32be
00000190: 0bc2 9bbe 2c51 f1bd 5f3a d23d 6775 b7be
000001a0: 033e ad3e 7626 75be 468f 8cbe 83c3 07be
000001b0: 6839 993e ae97 a2bc fc76 2abe 03ca 983d
000001c0: 1f2e a5be 5493 26be 1dae c9bd cc3f 673e
000001d0: 0ffb ea3d c424 5d3e 08ef 763c eb39 4abe
000001e0: 4044 a7bd 15be bc3c f321 84bd f6d5 363e
000001f0: da0d 843e a3ae 7e3e 9f56 0d3e 41c5 0a3e
00000200: ec53 58be 4622 98be 388a cabd 196c 943c
00000210: efc7 65be 58a8 193e 9000 533e d615 adbc
00000220: fe79 97bd 267e 74bd 3340 8b3c cf23 40bd
00000230: b8b7 2dbe 74ba 7e3e a45d 243b 81c8 913d
00000240: 976c a93e 7c88 98bc b57f d4bd 00ba ec3d
00000250: 6e99 babe 1517 103e c8ea f93d 1ea6 bebe
00000260: 7854 723e 537e 853e 8758 2fbe 7c98 493e
00000270: ba5e 9a3e 4240 9c3e 36e9 7f3e 5688 1dbe
00000280: 1c6d 6bbe 3e18 44be 652e 88bd 7370 65be
00000290: a3a3 bfbe a880 783d 18d3 85be f97f b9be
000002a0: ca99 ee3c d256 bc3e a7af 8cbe 09e5 513e
000002b0: 6fcf ccbc 47a3 9fbe 174b bebe 182d 823e
000002c0: 7c4f 9cbd 30be 323d 628c 96be d32c b8be
000002d0: a2a8 9ebe 72d8 a3bd a042 263e 58ad 78be
000002e0: 52f0 b0bd ee41 8e3d 820a 95be 8434 abbe
000002f0: f018 ed3d b041 913e ef5e c3bb a0a0 393e
00000300: fbdf 963d f7a9 90be fc41 29be 35e6 89be
00000310: 1e3a 0f3c 9fb1 923e d626 433e 5060 b73e
00000320: bebb af3e a4ab 0f3e dd3d 843e 1270 fc3d
00000330: 3d26 93be 8673 933d f403 093e 52a0 fe3d
00000340: 2a34 553d 9c61 ab3e 683e b9be 84d2 9dbe
00000350: 4236 2f3e 89e2 333e ab4c 80be 8dc4 a5be
00000360: 6644 bf3e 61e2 b5be b002 a2be 8b07 a53e
00000370: b74f 113e 05a4 50be 55ff c53e 29cd 873e
00000380: 5cfd a13e 003b ba3d d15c 183e 7109 5e3e
00000390: d915 a63e 670e e03c a342 49be 6af5 a8be
000003a0: b88f 8fbd c9e8 d1bd dbef 0cbe 036d 9e3c
000003b0: 88bd 56be db18 20be f599 86bd 3d95 623d
000003c0: 334a 6ebd 8432 51be ac81 863e d31f 283e
000003d0: cdd8 3b3d 448f a33e 1128 9cbe ef29 0cbc
000003e0: ae1c 003e 209a a2bd 4c4a 72be 29a7 9f3e
000003f0: 74dd 8abe 7068 833e ab49 6dbe dc9b adbe

bias f4 [32]
0.024463266 -0.12715265 0.14040565 0.19618419 0.29292312 0.15474084 0.122873396 0.3355243
0.31985274 -0.21318313 0.3449007 0.1761007 0.045389533 0.18483785 -0.2851233 0.21040657
-0.045993626 -0.14882566 -0.051137447 -0.2683738 0.28193113 0.12242076 -0.0997023 -0.030141324
0.15361574 0.011608899 0.075832576 -0.13141611 0.15693507 0.24719056 -0.0017439127 -0.05471176
00000000: 3067 c83c 4e34 02be 80c6 0f3e 82e4 483e
00000010: 05fa 953e 6274 1e3e 0ca5 fb3d d7c9 ab3e
00000020: bdc3 a33e ae4c 5abe d396 b03e be53 343e
00000030: 60ea 393d 2246 3d3e aefb 91be d274 573e
00000040: d063 3cbd c165 18be 8075 51bd 4a68 89be
00000050: 4759 903e bcb7 fa3d b830 ccbd f0ea f6bc
00000060: 724d 1d3e 4033 3e3c 1c4e 9b3d f291 06be
00000070: 96b3 203e 861f 7d3e 0094 e4ba 7019 60bd

weight f4 [32, 1, 3, 3]
0.07526463 -0.12407771 -0.1042703 0.048291758 -0.027122721 0.030332312 -0.11768767 0.019206554
-0.12968034 0.040274426 -0.07794379 0.095948935 0.09373158 -0.09719497 0.030633867 0.13203432
0.10523796 -0.0907668 0.033030927 -0.10473275 0.07949719 -0.041241594 0.0063379556 -0.14043973
0.03521703 -0.0875829 -0.07947951 0.10847078 0.09168479 0.09315924 0.11604284 -0.13092068
0.020914674 0.02754575 0.07192212 -0.09085356 -0.02630034 0.030794367 0.107494414 -0.13950652
-0.077301875 0.047850043 0.06074986 -0.009472609 -0.13335654 -0.0020169467 -0.040026404 -0.08455868
0.11466427 -0.100863576 -0.11716215 -0.07127254 -0.1374449 0.06717302 0.0365621 0.057168797
0.09124231 0.028157488 0.0856255 0.03893867 -0.11704983 -0.04772068 0.029436797 -0.05556667
0.14207749 0.13206731 0.13159929 0.09953743 -0.0053111464 0.08297978 0.038465872 0.028524622
-0.0050266087 -0.0063346922 0.027077258 -0.015135378 0.06723218 -0.12510711 -0.09802978 0.11270292
-0.07161331 -0.043312415 0.043273523 0.012170583 -0.109020665 -0.11861011 -0.062246405 0.103618875
0.13223718 -0.0037585646 -0.08340241 -0.10447068 -0.06965789 -0.002774626 -0.057110086 0.08362773
0.05971165 -0.08101666 -0.05678641 0.06368691 0.09092775 -0.09937826 0.12970318 -0.12504955
-0.08735906 0.013074577 -0.11634912 0.027622476 0.07142833 -0.01912012 0.09244172 -0.07581822
-0.0019386411 0.019721419 -0.0546064 -0.06329291 0.019074827 0.10385218 -0.10785857 0.05276151
0.061848328 -0.072917886 -0.0906837 0.08439121 0.13373505 0.0522943 0.071386784 0.037953183
0.10342798 0.070256695 -0.11577643 -0.13963565 0.07468532 -0.028358333 0.05374518 0.11854415
-0.056991227 -0.025487281 -0.07611626 -0.13914315 0.0651526 0.013381526 0.09607437 0.050863326
-0.11089953 -0.037321366 -0.103456736 0.11989157 -0.008839667 -0.019271038 -0.13993403 -0.09981613
0.067732394 0.05262816 0.13676633 0.13451104 0.01860167 0.066894144 0.020208865 0.10260922
0.004161462 -0.12714398 -0.031769738 -0.042192824 0.0567424 0.05572778 -0.13607049 -0.08160748
-0.009414449 -0.0319343 0.027789548 -0.019471414 0.1309223 -0.112090945 -0.045985155 -0.14178805
-0.018429324 0.055827335 0.12030272 0.09850007 -0.115447775 -0.115705945 0.014931887 0.023382276
-0.13083708 0.05814737 0.060634524 0.11786674 0.020171389 -0.10267834 -0.08704276 0.021055907
-0.034385078 -0.13470264 0.03408003 0.06874859 -0.017035902 0.04373978 0.0706175 -0.11426885
0.08117366 -0.13389558 0.09805401 -0.025883526 0.04576631 0.021001741 -0.10141091 -0.11780008
-0.012278438 -0.06268161 0.04054375 -0.08194841 0.007074386 -0.011378035 0.007986054 -0.011327952
-0.093630284 -0.057150967 0.096304074 0.12761493 -0.0060367435 -0.1366291 -0.09865029 0.029897705
0.114846155 0.123077944 -0.13896373 -0.04867769 -0.00924547 0.002566278 -0.11595315 -0.06384499
0.08007619 -0.11476677 0.083837524 0.011509463 -0.0075746328 0.050926104 0.07663205 0.036353454
0.0127827525 -0.0758433 0.14079688 0.014097512 0.02286899 0.13251348 -0.11050581 0.068002716
0.06950714 0.13462014 -0.14110042 -0.02497314 -0.073582605 0.013402522 0.10667701 0.091630474
00000000: 5824 9a3d 741c febd ab8b d5bd 94cd 453d
00000010: 7830 debc 787b f83c 3c06 f1bd 1057 9d3c
00000020: ecca 04be ccf6 243d fea0 9fbd e080 c43d
00000030: 58f6 bf3d 280e c7bd e0f3 fa3c 0134 073e
00000040: 0087 d73d f2e3 b9bd 704b 073d 207e d6bd
00000050: 6ccf a23d f2ec 28bd a0ae cf3b 6fcf 0fbe
00000060: bc3f 103d aa5e b3bd 27c6 a2bd ee25 de3d
00000070: 3cc5 bb3d 46ca be3d dea7 ed3d 1210 06be
00000080: 4055 ab3c a0a7 e13c e84b 933d 6e11 babd
00000090: d073 d7bc 7844 fc3c 0826 dc3d ccda 0ebe
000000a0: 7250 9ebd 68fe 433d d8d4 783d 0033 1bbc
000000b0: 9e8e 08be c02e 04bb baf2 23bd 1a2d adbd
000000c0: 1ad5 ea3d 9091 cebd b6f2 efbd 56f7 91bd
000000d0: 5bbe 0cbe 0292 893d 24c2 153d d429 6a3d
000000e0: 40dd ba3d 88aa e63c 6c5c af3d 287e 1f3d
000000f0: d2b7 efbd c276 43bd 7025 f13c e099 63bd
00000100: c37c 113e a73c 073e f7c1 063e 48da cb3d
00000110: 2009 aebb 4ef1 a93d 648e 1d3d 78ac e93c
00000120: 40b6 a4bb 4093 cfbb 20d1 dd3c 60fa 77bc
00000130: 06b1 893d 141c 00be d6c3 c8bd cad0 e63d
00000140: 00aa 92bd 5c68 31bd 943f 313d 2067 473c
00000150: 3a46 dfbd dbe9 f2bd 16f6 7ebd 2236 d43d
00000160: 2f69 073e 4052 76bb e2ce aabd b9f4 d5bd
00000170: cca8 8ebd 80d6 35bb 44ec 69bd 0445 ab3d
00000180: 3494 743d 10ec a5bd de98 68bd 486e 823d
00000190: 5438 ba3d d486 cbbd e9d0 043e fd0c 00be
000001a0: 4fe9 b2bd c036 563c 7348 eebd 8848 e23c
000001b0: 0449 923d cca1 9cbc 1652 bd3d 9546 9bbd
000001c0: 001a feba d08e a13c f6aa 5fbd b79f 81bd
000001d0: d042 9c3c 74b0 d43d f4e4 dcbd 741c 583d
000001e0: ac54 7d3d f955 95bd 60b8 b9bd 4cd5 ac3d
000001f0: d7f1 083e 8c32 563d 3c33 923d cc74 1b3d
00000200: 0cd2 d33d bee2 8f3d 311c edbd a6fc 0ebe
00000210: 9ef4 983d bc4f e8bc e823 5c3d 46c7 f23d
00000220: a26f 69bd b4ca d0bc d7e2 9bbd 8b7b 0ebe
00000230: ba6e 853d 303e 5b3c a4c2 c43d 1056 503d
00000240: 4b1f e3bd 4ade 18bd 20e1 d3bd b689 f53d
00000250: 40d4 10bc 4cde 9dbc de4a 0fbe 666c ccbd
00000260: 48b7 8a3d a090 573d 790c 0c3e 43bd 093e
00000270: 8862 983c ccff 883d 108d a53c c824 d23d
00000280: e05c 883b 0832 02be fc20 02bd 62d2 2cbd
00000290: b86a 683d d042 643d 1056 0bbe d321 a7bd
000002a0: 103f 1abc 8acd 02bd e8a6 e33c 8482 9fbc
000002b0: 7f10 063e f08f e5bd ee5a 3cbd e330 11be
000002c0: 18f9 96bc 34ab 643d 4661 f63d 68ba c93d
000002d0: e26f ecbd 3df7 ecbd e0a4 743c 308c bf3c
000002e0: 28fa 05be f02b 6e3d e85b 783d 1e64 f13d
000002f0: 783e a53c 0649 d2bd 7943 b2bd 707d ac3c
00000300: 5ed7 0cbd 7def 09be 8097 0b3d 10cc 8c3d
00000310: e08e 8bbc 7c28 333d e89f 903d c905 eabd
00000320: 603e a63d ec1b 09be 8ad0 c83d b009 d4bc
00000330: 7475 3b3d d80b ac3c 86b0 cfbd 2b41 f1bd
00000340: 802b 49bc 375f 80bd 3411 263d 91d4 a7bd
00000350: 40d0 e73b f06a 3abc f0d7 023c e098 39bc
00000360: 3cc1 bfbd 2217 6abd 123b c53d 7dad 023e
00000370: e0cf c5bb 80e8 0bbe 2a09 cabd 08ec f43c
00000380: 7634 eb3d 4a10 fc3d 824c 0ebe 4262 47bd
00000390: 507a 17bc 002f 283b d878 edbd 2ac1 82bd
000003a0: fcfe a33d d70a ebbd 02b3 ab3d 3092 3c3c
000003b0: a034 f8bb e497 503d 44f1 9c3d 5ce7 143d
000003c0: c06e 513c bb53 9bbd 0f2d 103e 40f9 663c
000003d0: c057 bb3c 9db1 073e df50 e2bd 0245 8b3d
000003e0: c259 8e3d ddd9 093e a17c 10be 7894 ccbc
000003f0: 7ab2 96bd 4096 5b3c 7a79 da3d c2a8 bb3d
