trained_model/FIAT(BongNet).pt (torch, 145296 bytes, 139 tensors)

weight f4 [3, 1, 3, 3]
-0.20445426 -0.34029487 -0.030257732 0.28920782 -0.08204642 -0.14990062 -0.03710881 -0.33189273
0.29897255 0.19061959 0.016977519 -0.2991171 0.08861062 -0.31954834 0.2314884 -0.22366501
-0.28726032 0.2660724 0.35705888 0.22594863 0.3873796 -0.12731665 -0.027138472 0.32340127
-0.020212948 0.37210703 0.04230815
00000000: 755c 51be 213b aebe 10df f7bc 0c13 943e
00000010: f407 a8bd 8c7f 19be 68ff 17bd d8ed a9be
00000020: ee12 993e c831 433e 7014 8b3c e025 99be
00000030: 7c79 b53d d79b a3be 4c0b 6d3e 7108 65be
00000040: c913 93be a43a 883e 6cd0 b63e 145f 673e
00000050: 9e56 c63e 4c5f 02be 8051 debc da94 a53e
00000060: a095 a5bc d084 be3e 504b 2d3d

weight f4 [3]
1.0 1.0 1.0
00000000: 0000 803f 0000 803f 0000 803f

bias f4 [3]
0.0 0.0 0.0
00000000: 0000 0000 0000 0000 0000 0000

running_mean f4 [3]
-0.028489813 -0.016351068 0.074725114
00000000: 7863 e9bc adf2 85bc 7b09 993d

running_var f4 [3]
0.90406716 0.90401506 0.9054283
00000000: f270 673f 886d 673f 26ca 673f

weight f4 [12, 2, 1, 1]
-0.5870513 -0.27704304 0.11472106 -0.15941754 -0.6341891 -0.38509184 0.61523736 -0.36317715
0.4486382 0.35972834 -0.2435008 -0.028338253 -0.07409185 -0.1637026 0.45769584 0.041979074
-0.52212876 0.22466767 -0.13626492 -0.35775727 0.47442603 0.5915991 0.06097436 -0.014911652
00000000: fe48 16bf 96d8 8dbe e0f2 ea3d 5a3e 23be
00000010: 385a 22bf c22a c5be 3280 1d3f 5bf2 b9be
00000020: e8b3 e53e 502e b83e 4658 79be a025 e8bc
00000030: 78bd 97bd a8a1 27be 1c57 ea3e 40f2 2b3d
00000040: 3baa 05bf 480f 663e 0889 0bbe f62b b7be
00000050: f8e7 f23e 0a73 173f 40c0 793d 0050 74bc

weight f4 [12]
1.0 1.0 1.0 1.0 1.0 1.0 1.0 1.0
1.0 1.0 1.0 1.0
00000000: 0000 803f 0000 803f 0000 803f 0000 803f
00000010: 0000 803f 0000 803f 0000 803f 0000 803f
00000020: 0000 803f 0000 803f 0000 803f 0000 803f

bias f4 [12]
0.0 0.0 0.0 0.0 0.0 0.0 0.0 0.0
0.0 0.0 0.0 0.0
00000000: 0000 0000 0000 0000 0000 0000 0000 0000
00000010: 0000 0000 0000 0000 0000 0000 0000 0000
00000020: 0000 0000 0000 0000 0000 0000 0000 0000

running_mean f4 [12]
-0.014382057 -0.0007438932 -0.016964983 0.0041954294 0.013454492 -0.0045245276 -0.0039578476 0.008316662
-0.004951053 -0.008222493 0.017742945 0.00076667947
00000000: b8a2 6bbc d401 43ba 26fa 8abc d079 893b
00000010: 3b70 5c3c 7d42 94bb d5b0 81bb 9c42 083c
00000020: 713c a2bb a3b7 06bc a759 913c fdfa 483a

running_var f4 [12]
0.91149235 0.9012163 0.9147561 0.916299 0.9087173 0.90174896 0.90085053 0.9061788
0.9102278 0.9038877 0.9149689 0.9001223
00000000: 9057 693f 1db6 663f 752d 6a3f 9292 6a3f
00000010: b2a1 683f 05d9 663f 249e 663f 55fb 673f
00000020: b004 693f 2f65 673f 673b 6a3f 6a6e 663f

weight f4 [12, 1, 3, 3]
0.13399039 -0.052390575 0.0073572993 -0.16733293 -0.19129187 0.06965567 -0.095079616 0.08811666
0.16337214 0.21314476 0.16313617 -0.021878406 0.11643787 0.19004945 0.029105827 0.19192155
0.03139077 0.044182763 0.119480595 0.099757686 -0.09377816 -0.16328216 0.12799592 -0.051510304
-0.14570475 0.1799701 0.21311812 -0.14573333 0.03545575 0.010365769 0.05551164 -0.013095483
-0.0512546 0.17358471 0.09191479 0.12599216 -0.18556309 -0.18480442 0.103787616 -0.13200136
0.06091492 0.11830376 0.0016839802 -0.030589193 0.025783911 0.035844788 -0.20546164 0.0016092807
0.11804639 0.035912707 -0.17816424 0.21487467 -0.024195984 -0.16423981 -0.21681242 -0.05054438
0.2179832 0.083350256 -0.13693711 -0.111348405 -0.024455786 0.15153794 0.105094 0.10513683
-0.06784426 -0.05185461 0.008780748 -0.13646746 0.025726035 0.17971961 0.020204961 -0.05309792
0.19166921 -0.12726 -0.205187 -0.10871037 -0.046069458 0.22574641 -0.106444545 0.06132306
0.19915996 -0.16256428 0.016466856 0.22257908 0.087038234 0.21454014 0.11008097 -0.03960696
0.19696511 -0.22164662 -0.15079275 -0.18140166 0.019983456 0.14798273 -0.09404969 0.007886872
0.16433828 0.0045978874 -0.20727849 0.032206163 -0.08866061 0.024610326 -0.116188444 0.15401997
0.19489889 0.20594285 -0.19861215 0.15974171
00000000: c734 093e 8097 56bd 8015 f13b 5359 2bbe
00000010: 04e2 43be a2a7 8e3d 1ab9 c2bd 8276 b43d
00000020: 074b 273e 9f42 5a3e 2b0d 273e 583a b3bc
00000030: fa76 ee3d 539c 423e 586f ee3c 1587 443e
00000040: 9c93 003d fcf8 343d 3eb2 f43d c24d cc3d
00000050: c40e c0bd 7033 27be 5d11 033e 78fc 52bd
00000060: a033 15be 154a 383e a33b 5a3e 1e3b 15be
00000070: 0c3a 113d 30d5 293c 2c60 633d 708e 56bc
00000080: 58f0 51bd 31c0 313e d23d bc3d 1704 013e
00000090: 4004 3ebe 5f3d 3dbe 9a8e d43d 5d2b 07be
000000a0: ec81 793d 3e49 f23d 00b9 dc3a 3096 fabc
000000b0: c838 d33c fcd1 123d 8964 52be 80ee d23a
000000c0: 4ec2 f13d 3419 133d b070 36be 1b08 5c3e
000000d0: a836 c6bc 7b2e 28be 1304 5ebe a007 4fbd
000000e0: fd36 5f3e 8ab3 aa3d 3e39 0cbe a20a e4bd
000000f0: 8057 c8bc c32c 1b3e 863b d73d fa51 d73d
00000100: eef1 8abd 8065 54bd 20dd 0f3c 20be 0bbe
00000110: 68bf d23c 6b08 383e e084 a53c 347d 59bd
00000120: ef44 443e 7250 02be 8a1c 52be 8ba3 debd
00000130: 54b3 3cbd 112a 673e 99ff d9bd e42d 7b3d
00000140: 97f0 4b3e 4077 26be 80e5 863c c5eb 633e
00000150: 1a41 b23d 69b0 5b3e 2272 e13d e83a 22bd
00000160: 39b1 493e 55f7 62be 6a69 1abe 5bc1 39be
00000170: 58b4 a33c c988 173e 209d c0bd f037 013c
00000180: 4b48 283e e0a9 963b d040 54be 9cea 033d
00000190: b293 b5bd 989b c93c 35f4 edbd 69b7 1d3e
000001a0: 9393 473e afe2 523e fc60 4bbe 5593 233e

weight f4 [12]
1.0 1.0 1.0 1.0 1.0 1.0 1.0 1.0
1.0 1.0 1.0 1.0
00000000: 0000 803f 0000 803f 0000 803f 0000 803f
00000010: 0000 803f 0000 803f 0000 803f 0000 803f
00000020: 0000 803f 0000 803f 0000 803f 0000 803f

bias f4 [12]
0.0 0.0 0.0 0.0 0.0 0.0 0.0 0.0
0.0 0.0 0.0 0.0
00000000: 0000 0000 0000 0000 0000 0000 0000 0000
00000010: 0000 0000 0000 0000 0000 0000 0000 0000
00000020: 0000 0000 0000 0000 0000 0000 0000 0000

running_mean f4 [12]
-0.0008894714 0.014777231 0.004403164 0.0043373858 -0.0034253113 -0.0026512402 -3.2442305e-05 0.00036333295
0.0013106421 0.006830404 -0.004783526 0.0057147834
00000000: 6a2b 69ba 331c 723c 6b48 903b a120 8e3b
00000010: 307b 60bb 6ec0 2dbb a912 08b8 b97d be39
00000020: dac9 ab3a 95d1 df3b 20bf 9cbb 1443 bb3b

running_var f4 [12]
0.9015839 0.9041281 0.9025479 0.90338194 0.90475523 0.901795 0.9025848 0.90364915
0.90389 0.90309936 0.9076382 0.91122544
00000000: 34ce 663f f074 673f 610d 673f 0a44 673f
00000010: 0a9e 673f 0adc 663f cc0f 673f 8d55 673f
00000020: 5665 673f 8531 673f fa5a 683f 1246 693f

weight f4 [2, 12, 1, 1]
-0.3215515 0.59351194 0.10429913 -0.031389117 -0.49029523 -0.5411533 -0.5212655 0.13640988
-0.6052344 -0.6385645 0.54460394 -0.19641244 0.5911362 0.30541933 0.5706333 0.50173914
0.06387812 0.023644388 0.28050214 0.5612724 0.45237064 0.21208858 0.17469448 0.51798105
00000000: 66a2 a4be 66f0 173f c89a d53d e091 00bd
00000010: fa07 fbbe 0689 0abf a871 05bf 08af 0b3e
00000020: a4f0 1abf f778 23bf 2a6b 0b3f 5820 49be
00000030: b454 173f ec5f 9c3e 0615 123f fa71 003f
00000040: 88d2 823d e0b1 c13c fa9d 8f3e 8caf 0f3f
00000050: 209d e73e c02d 593e 1ce3 323e 689a 043f

weight f4 [2]
1.0 1.0
00000000: 0000 803f 0000 803f

bias f4 [2]
0.0 0.0
00000000: 0000 0000 0000 0000

running_mean f4 [2]
-0.032895017 0.069883846
00000000: edbc 06bd 431f 8f3d

running_var f4 [2]
0.9775409 1.0337489
00000000: 1f40 7a3f e251 843f

weight f4 [12, 2, 1, 1]
0.09141928 0.14883542 0.20623189 0.27322763 0.6138197 0.18298477 0.3848555 0.34953368
-0.6429929 -0.017671227 0.4837327 0.2256357 -0.26662654 0.65404904 0.645597 0.6432439
0.39201105 -0.61189294 0.4070083 -0.2634819 0.30276132 -0.09579909 0.27635348 -0.3673061
00000000: 083a bb3d 5068 183e 742e 533e 7ee4 8b3e
00000010: 4a23 1d3f 5c60 3b3e c80b c53e 14f6 b23e
00000020: 2f9b 24bf 40c3 90bc d0ab f73e 0c0d 673e
00000030: 4683 88be c26f 273f d845 253f a2ab 243f
00000040: acb5 c83e 04a5 1cbf 6463 d03e 19e7 86be
00000050: 8803 9b3e 5032 c4bd 347e 8d3e 8c0f bcbe

weight f4 [12]
1.0 1.0 1.0 1.0 1.0 1.0 1.0 1.0
1.0 1.0 1.0 1.0
00000000: 0000 803f 0000 803f 0000 803f 0000 803f
00000010: 0000 803f 0000 803f 0000 803f 0000 803f
00000020: 0000 803f 0000 803f 0000 803f 0000 803f

bias f4 [12]
0.0 0.0 0.0 0.0 0.0 0.0 0.0 0.0
0.0 0.0 0.0 0.0
00000000: 0000 0000 0000 0000 0000 0000 0000 0000
00000010: 0000 0000 0000 0000 0000 0000 0000 0000
00000020: 0000 0000 0000 0000 0000 0000 0000 0000

running_mean f4 [12]
0.0039988 0.0079801325 0.013262098 0.012223205 -0.010996199 0.011806787 0.006448153 0.021451514
-0.0036595904 0.0023889465 0.0034447392 -0.0015137343
00000000: 5e08 833b 1abf 023c 4549 593c d643 483c
00000010: 6729 34bc 4171 413c 074b d33b 16bb af3c
00000020: bdd5 6fbb df8f 1c3b 22c1 613b 7f68 c6ba

running_var f4 [12]
0.9038218 0.9148429 0.95307416 0.9348062 0.95242697 0.9370173 0.95622784 1.0065937
0.95953536 0.92748106 0.91223717 0.92389256
00000000: de60 673f 2533 6a3f abfc 733f 764f 6f3f
00000010: 41d2 733f 5ee0 6f3f 59cb 743f 10d8 803f
00000020: 1ca4 753f 666f 6d3f 6088 693f 3984 6c3f

weight f4 [12, 1, 3, 3]
-0.20275483 0.030737028 0.15776323 0.08045651 0.06742452 -0.018471807 0.15342866 -0.047904804
0.21747531 -0.2178169 0.055343404 0.14940815 -0.18578199 -0.06974396 0.11480181 0.009932399
0.09946804 0.14092113 0.22408365 0.078905836 0.109395936 0.16534807 0.036905333 0.19010086
-0.14405233 -0.04271449 0.19103561 -0.049174547 0.0681497 -0.20825252 0.17938282 -0.182384
-0.024491563 -0.17312463 -0.18093881 -0.06811732 0.021410793 0.20396481 -0.16623014 0.09124167
0.20316343 -0.19471975 -0.045705095 0.025793537 0.18537919 -0.10322139 -0.17620078 -0.016143307
-0.1581165 -0.0120268315 0.20134144 0.14353575 0.18292893 -0.08574638 -0.086804956 -0.0017260909
-0.06193641 -0.14964823 -0.002722159 -0.16920462 0.05191247 0.12153475 -0.20319797 -0.17799695
0.01479958 -0.08823575 -0.021220207 0.04746838 0.12965144 -0.1828632 0.04121171 0.2110313
-0.00046022236 -0.13670099 -0.04838106 0.12972052 0.18167375 0.061566487 0.014327496 -0.08611925
-0.083379164 -0.10372569 -0.19113305 -0.083743125 0.05240096 0.032646313 0.006842032 -0.15559399
0.16396026 -0.1651968 0.15837626 0.010346144 0.14893393 -0.16277128 -0.22043061 0.035372123
-0.033780247 0.03469856 -0.19774778 -0.031728476 0.19041602 -0.16209361 0.056757286 0.013380572
0.048925027 0.08901243 -0.08528185 -0.0466875
00000000: f69e 4fbe 38cc fb3c af8c 213e 62c6 a43d
00000010: de15 8a3d 3052 97bc 671c 1d3e d437 44bd
00000020: d9b1 5e3e 650b 5fbe c4af 623d 73fe 183e
00000030: a23d 3ebe ecd5 8ebd 361d eb3d 80bb 223c
00000040: e6b5 cb3d a14d 103e 2f76 653e 6299 a13d
00000050: fa0a e03d 0151 293e 0c2a 173d cda9 423e
00000060: 7482 13be 64f5 2ebd d79e 433e 406b 49bd
00000070: 1292 8b3d 2640 55be 21b0 373e dfc2 3abe
00000080: 88a2 c8bc 9547 31be 0648 39be 1881 8bbd
00000090: b065 af3c 27dc 503e 3c38 2abe eadc ba3d
000000a0: 130a 503e 9d64 47be 4435 3bbd f84c d33c
000000b0: 0bd4 3d3e bc65 d3bd fa6d 34be f83e 84bc
000000c0: 4be9 21be 300c 45bc 732c 4e3e 09fb 123e
000000d0: b951 3b3e cc9b afbd ccc6 b1bd 003e e2ba
000000e0: 08b1 7dbd 633d 19be 4066 32bb fa43 2dbe
000000f0: 2ca2 543d 36e7 f83d 2113 50be d544 36be
00000100: f079 723c f2b4 b4bd 00d6 adbc 346e 423d
00000110: 59c3 043e 7e40 3bbe 9ccd 283d 9718 583e
00000120: 004a f1b9 58fb 0bbe 382b 46bd 75d5 043e
00000130: af08 3a3e 242d 7c3d e0bd 6a3c 4a5f b0bd
00000140: b2c2 aabd 226e d4bd 62b8 43be 8481 abbd
00000150: 64a2 563d 24b8 053d 2033 e03b 0854 1fbe
00000160: 33e5 273e 5a29 29be 632d 223e e082 293c
00000170: 2382 183e 84ad 26be 90b8 61be 5ce2 103d
00000180: 285d 0abd 1420 0e3d 657e 4abe b8f5 01bd
00000190: 6bfc 423e defb 25be 547a 683d 303a 5b3c
000001a0: 9c65 483d 264c b63d 40a8 aebd 643b 3fbd

weight f4 [12]
1.0 1.0 1.0 1.0 1.0 1.0 1.0 1.0
1.0 1.0 1.0 1.0
00000000: 0000 803f 0000 803f 0000 803f 0000 803f
00000010: 0000 803f 0000 803f 0000 803f 0000 803f
00000020: 0000 803f 0000 803f 0000 803f 0000 803f

bias f4 [12]
0.0 0.0 0.0 0.0 0.0 0.0 0.0 0.0
0.0 0.0 0.0 0.0
00000000: 0000 0000 0000 0000 0000 0000 0000 0000
00000010: 0000 0000 0000 0000 0000 0000 0000 0000
00000020: 0000 0000 0000 0000 0000 0000 0000 0000

running_mean f4 [12]
0.0068973154 0.0016924031 0.012844006 -0.010121263 0.0053570005 -0.00016806507 -0.008159191 -0.00022912682
0.0009273261 -0.006528392 -0.0040905075 0.001224172
00000000: e002 e23b a0d3 dd3a aa6f 523c a7d3 25bc
00000010: c789 af3b a03a 30b9 21ae 05bc c341 70b9
00000020: cd17 733a 1fec d5bb aa09 86bb 6574 a03a

running_var f4 [12]
0.9080824 0.90770936 0.9078519 0.91011095 0.90652514 0.9070515 0.9055264 0.90656835
0.9017954 0.90350205 0.9047064 0.90204597
00000000: 1778 683f a45f 683f fb68 683f 08fd 683f
00000010: 0812 683f 8734 683f 94d0 673f dd14 683f
00000020: 10dc 663f e94b 673f d79a 673f 7cec 663f

weight f4 [2, 12, 1, 1]
-0.53920704 -0.6108093 0.19486606 0.49032784 -0.16409436 -0.58504 -0.5947925 -0.29077658
0.6421155 0.07300079 -0.03167957 -0.36268604 -0.5138955 -0.5049374 -0.4269086 0.019281626
0.11373448 0.5851973 -0.48856747 -0.32074824 -0.42577788 -0.22340754 -0.42823187 0.28277552
00000000: 7909 0abf 005e 1cbf f88a 473e 400c fb3e
00000010: 5a08 28be 2ec5 15bf 5244 18bf abe0 94be
00000020: ae61 243f 7081 953d 70c2 01bd fcb1 b9be
00000030: a88e 03bf 9443 01bf c493 dabe 80f4 9d3c
00000040: a0ed e83d 7ecf 153f 8425 fabe 1d39 a4be
00000050: 8fff d9be f2c4 64be 3541 dbbe f4c7 903e

weight f4 [2]
1.0 1.0
00000000: 0000 803f 0000 803f

bias f4 [2]
0.0 0.0
00000000: 0000 0000 0000 0000

running_mean f4 [2]
-0.02768754 -0.036947343
00000000: fbd0 e2bc 1956 17bd

running_var f4 [2]
1.0164771 0.99669576
00000000: ec1b 823f 7427 7f3f

weight f4 [12, 2, 1, 1]
0.4445685 0.55263174 -0.09819591 0.14035207 -0.46026623 0.6312536 0.5717263 -0.37401888
0.60490155 0.039461493 0.49902356 0.5422456 -0.13992459 -0.25384215 -0.06774938 0.41308296
-0.30423504 -0.062550426 -0.4319004 -0.54234666 0.21515387 -0.62412775 -0.50559574 -0.22787413
00000000: 7c9e e33e 4679 0d3f f01a c9bd 74b8 0f3e
00000010: 04a8 ebbe d699 213f a85c 123f 677f bfbe
00000020: d4da 1a3f 60a2 213d 0480 ff3e 9cd0 0a3f
00000030: 6448 0fbe 99f7 81be 30c0 8abd 9c7f d33e
00000040: b2c4 9bbe 701a 80bd 0d22 ddbe 3bd7 0abf
00000050: 4c51 5c3e d6c6 1fbf b96e 01bf d657 69be

weight f4 [12]
1.0 1.0 1.0 1.0 1.0 1.0 1.0 1.0
1.0 1.0 1.0 1.0
00000000: 0000 803f 0000 803f 0000 803f 0000 803f
00000010: 0000 803f 0000 803f 0000 803f 0000 803f
00000020: 0000 803f 0000 803f 0000 803f 0000 803f

bias f4 [12]
0.0 0.0 0.0 0.0 0.0 0.0 0.0 0.0
0.0 0.0 0.0 0.0
00000000: 0000 0000 0000 0000 0000 0000 0000 0000
00000010: 0000 0000 0000 0000 0000 0000 0000 0000
00000020: 0000 0000 0000 0000 0000 0000 0000 0000

running_mean f4 [12]
0.015036586 0.00034986428 0.0012676552 0.0041625644 0.010492186 0.015786124 -0.005850505 0.004665603
-0.0058744475 -0.014684528 -0.0051958105 -0.011496164
00000000: 035c 763c fd6d b739 7327 a63a 1f66 883b
00000010: 6be7 2b3c e751 813c 98b5 bfbb eae1 983b
00000020: 707e c0bb 6097 70bc 9e41 aabb 685a 3cbc

running_var f4 [12]
1.0069927 0.9078801 1.0636799 1.0181289 0.9779668 1.0137799 0.91871226 0.9461546
0.9198986 1.0023572 1.017002 0.961978
00000000: 23e5 803f d56a 683f aa26 883f 0c52 823f
00000010: 085c 7a3f 8ac3 813f ba30 6b3f 3037 723f
00000020: 7a7e 6b3f 3e4d 803f 1f2d 823f 3144 763f

weight f4 [12, 1, 3, 3]
-0.16093802 -0.08503869 -0.1907488 0.04432194 0.079606816 0.16841777 0.0065030456 0.002095908
-0.10353445 -0.16677532 0.15211706 0.05397667 -0.08655137 0.22166996 0.024813429 -0.01390411
-0.011044145 -0.15421739 0.111346975 0.027653977 0.057643488 0.18570329 -0.018566996 0.043208674
-0.14861427 -0.1719382 0.18530075 0.09633894 0.024905428 0.105673745 -0.032366797 0.16185443
0.12589152 -0.06688692 0.21190314 -0.16798656 -0.029167145 0.139921 0.052661166 -0.15513647
0.17682411 0.22348954 0.039769307 -0.13930671 -0.05380012 0.012358829 -0.14890343 0.0016196519
-0.18149039 -0.04288608 0.12457515 0.1452737 0.013263881 0.18705817 0.020587504 0.12427299
0.1631578 -0.07745582 0.047183022 -0.11742873 -0.11672763 -0.15199271 -0.13112596 0.217795
-0.14239576 0.14865787 0.20158352 -0.15563548 -0.1514561 0.068718 -0.1207764 -0.14905107
-0.16408879 0.22601075 0.16952683 -0.11287852 0.20885666 0.05381508 0.051386014 0.024155065
0.07873227 0.034311518 -0.041515246 -0.18328887 0.11684595 0.22589286 0.11727284 0.026499286
0.07957335 -0.09298004 0.15001015 -0.14616185 -0.18365012 0.0040020198 0.06976895 0.16527154
0.110596195 0.19061457 -0.14775589 -0.22383055 -0.1694192 -0.13394052 -0.16085593 0.08102991
0.2137688 0.18570428 0.06977336 -0.03342715
00000000: f0cc 24be c428 aebd a753 43be ec8a 353d
00000010: e608 a33d b575 2c3e 8017 d53b 805b 093b
00000020: df09 d4bd 26c7 2abe 93c4 1b3e a416 5d3d
00000030: d841 b1bd 73fd 623e 8845 cb3c 10ce 63bc
00000040: 80f2 34bc 2aeb 1dbe e209 e43d 988a e23c
00000050: 941b 6c3d 0129 3e3e d019 98bc 94fb 303d
00000060: 572e 18be 9110 30be 7bbf 3d3e 5a4d c53d
00000070: 7806 cc3c 7a6b d83d 0c93 04bd 2bbd 253e
00000080: b5e9 003e 02fc 88bd 23fd 583e ab04 2cbe
00000090: f0ef eebc 7347 0f3e 3cb3 573d 18dc 1ebe
000000a0: 6111 353e 71da 643e 24e5 223d 6ba6 0ebe
000000b0: 845d 5cbd b07c 4a3c 247a 18be 804a d43a
000000c0: 9ed8 39be 50a9 2fbd 4221 ff3d a1c2 143e
000000d0: c050 593c 2d8c 3f3e 20a7 a83c d682 fe3d
000000e0: d712 273e 28a1 9ebd fc42 413d 797e f0bd
000000f0: e50e efbd faa3 1bbe e245 06be a705 5f3e
00000100: 32d0 11be c539 183e e96b 4e3e e85e 1fbe
00000110: 4f17 1bbe 06bc 8c3d 9e59 f7bd d8a0 18be
00000120: e406 28be 5d6f 673e 7198 2d3e da2c e7bd
00000130: 85de 553e 346d 5c3d 247a 523d d8e0 c53c
00000140: 623e a13d 3c8a 0c3d e40b 2abd 14b0 3bbe
00000150: ee4c ef3d 7550 673e be2c f03d 0815 d93c
00000160: 5af7 a23d 526c bebd 439c 193e 74ab 15be
00000170: c70e 3cbe 6023 833b 06e3 8e3d f13c 293e
00000180: 4280 e23d 7730 433e 524d 17be d633 65be
00000190: 3a7c 2dbe b427 09be 6bb7 24be 02f3 a53d
000001a0: 35e6 5a3e 4329 3e3e 56e5 8e3d e8ea 08bd

weight f4 [12]
1.0 1.0 1.0 1.0 1.0 1.0 1.0 1.0
1.0 1.0 1.0 1.0
00000000: 0000 803f 0000 803f 0000 803f 0000 803f
00000010: 0000 803f 0000 803f 0000 803f 0000 803f
00000020: 0000 803f 0000 803f 0000 803f 0000 803f

bias f4 [12]
0.0 0.0 0.0 0.0 0.0 0.0 0.0 0.0
0.0 0.0 0.0 0.0
00000000: 0000 0000 0000 0000 0000 0000 0000 0000
00000010: 0000 0000 0000 0000 0000 0000 0000 0000
00000020: 0000 0000 0000 0000 0000 0000 0000 0000

running_mean f4 [12]
-0.0027465778 0.0002469728 0.0040621716 0.00742675 0.004104607 0.001984083 -0.002447742 -0.0019754162
0.008548665 0.004102243 0.0030595565 -0.0031583998
00000000: eeff 33bb 217c 8139 f71b 853b 185c f33b
00000010: f07f 863b 6407 023b 4c6a 20bb fc75 01bb
00000020: b30f 0c3c 1c6c 863b d782 483b 28fd 4ebb

running_var f4 [12]
0.9027492 0.9043151 0.9045472 0.90415055 0.9038051 0.9035467 0.90427095 0.9077565
0.90626174 0.9052246 0.90498054 0.9079063
00000000: 921a 673f 3281 673f 6890 673f 6976 673f
00000010: c55f 673f d64e 673f 4d7e 673f bb62 683f
00000020: c500 683f cdbc 673f ceac 673f 8c6c 683f

weight f4 [3, 12, 1, 1]
0.1846214 -0.24996701 -0.044849455 -0.2860961 0.55570894 0.6224615 0.23873222 -0.51728976
-0.2822246 -0.20259109 -0.4836498 0.2571442 -0.50450337 0.52738386 0.5501042 -0.6138532
0.22286755 -0.26974687 -0.55964655 -0.033632934 0.0741685 0.35310066 -0.35766378 -0.59066284
-0.07536781 -0.5774261 0.46959084 0.20918953 -0.31586385 0.06991446 0.029387474 0.42683858
0.046869397 0.10478431 -0.37964982 -0.21368217
00000000: 640d 3d3e 5af7 7fbe 10b4 37bd 307b 92be
00000010: f142 0e3f a359 1f3f 3876 743e 1a6d 04bf
00000020: be7f 90be 0a74 4fbe f2a0 f7be 68a8 833e
00000030: 2227 01bf a102 073f a1d3 0c3f 7c25 1dbf
00000040: 6437 643e 431c 8abe ff44 0fbf b0c2 09bd
00000050: a8e5 973d 9cc9 b43e b51f b7be ae35 17bf
00000060: 705a 9abd 32d2 13bf 366e f03e c835 563e
00000070: e8b8 a1be 502f 8f3d 00be f03c 968a da3e
00000080: 20fa 3f3d 2899 d63d 7661 c2be 80cf 5abe

weight f4 [3]
1.0 1.0 1.0
00000000: 0000 803f 0000 803f 0000 803f

bias f4 [3]
0.0 0.0 0.0
00000000: 0000 0000 0000 0000 0000 0000

running_mean f4 [3]
-0.0039071357 -0.018403018 -0.0034241488
00000000: 6e07 80bb edc1 96bc af67 60bb

running_var f4 [3]
0.9721932 0.951609 0.94837284
00000000: a7e1 783f a69c 733f 90c8 723f

weight f4 [3, 1, 1, 1]
-0.4815452 1.1203786 0.89788735
00000000: 188d f6be 9168 8f3f f2db 653f

bias f4 [3]
0.8238294 0.04760182 -0.4683268
00000000: 7ce6 523f 20fa 423d 88c8 efbe

weight f4 [18, 3, 1, 1]
-0.41683888 -0.2857117 0.4517691 -0.14290342 0.13027632 -0.007888854 0.4021322 -0.37191975
-0.01235038 -0.11422467 0.17852789 0.1615544 -0.3618642 -0.15100569 0.51418704 0.25789827
-0.10374272 0.26856297 0.22496516 0.38927084 0.08231765 0.1384694 0.3393398 -0.46134037
-0.0035269856 0.20661467 0.19268596 0.5153244 0.25903004 -0.4451688 -0.16174951 -0.17200819
-0.1746724 0.032842577 0.08134389 0.31677556 -0.38942015 0.05390185 0.016694665 0.42794067
-0.4128804 -0.09843409 -0.0042518377 -0.19664344 -0.38589433 0.1765973 -0.5257291 -0.37097132
0.31444776 -0.058761805 0.50074536 0.34550476 -0.36884245 0.533719
00000000: e86b d5be ce48 92be 484e e73e 4655 12be
00000010: 2867 053e 4040 01bc 46e4 cd3e 446c bebe
00000020: 4059 4abc a0ee e9bd 04d0 363e 846e 253e
00000030: 4446 b9be 3ca1 1abe c3a1 033f 3e0b 843e
00000040: 1077 d4bd 1681 893e 445d 663e 824e c73e
00000050: 2896 a83d ecca 0d3e f2bd ad3e ce34 ecbe
00000060: 0025 67bb cc92 533e 784f 453e 4dec 033f
00000070: 969f 843e 2aed e3be aaa1 25be ea22 30be
00000080: 52dd 32be f085 063d a097 a63d 6830 a23e
00000090: 1462 c7be 30c8 5c3d 40c3 883c 0a1b db3e
000000a0: 0f65 d3be d097 c9bd 0053 8bbb e65c 49be
000000b0: f193 c5be ecd5 343e 2f96 06bf f4ef bdbe
000000c0: 4cff a03e 38b0 70bd d930 003f 00e6 b03e
000000d0: ebd8 bcbe cfa1 083f

weight f4 [18]
1.0 1.0 1.0 1.0 1.0 1.0 1.0 1.0
1.0 1.0 1.0 1.0 1.0 1.0 1.0 1.0
1.0 1.0
00000000: 0000 803f 0000 803f 0000 803f 0000 803f
00000010: 0000 803f 0000 803f 0000 803f 0000 803f
00000020: 0000 803f 0000 803f 0000 803f 0000 803f
00000030: 0000 803f 0000 803f 0000 803f 0000 803f
00000040: 0000 803f 0000 803f

bias f4 [18]
0.0 0.0 0.0 0.0 0.0 0.0 0.0 0.0
0.0 0.0 0.0 0.0 0.0 0.0 0.0 0.0
0.0 0.0
00000000: 0000 0000 0000 0000 0000 0000 0000 0000
00000010: 0000 0000 0000 0000 0000 0000 0000 0000
00000020: 0000 0000 0000 0000 0000 0000 0000 0000
00000030: 0000 0000 0000 0000 0000 0000 0000 0000
00000040: 0000 0000 0000 0000

running_mean f4 [18]
-3.78818e-10 3.1962769e-10 -1.2785107e-09 5.8006505e-10 -9.47045e-11 -2.1308513e-10 1.0417496e-09 8.760166e-10
5.6822697e-10 3.551419e-10 -4.0249412e-10 2.8411348e-10 4.4984638e-10 -1.3021869e-09 -4.735225e-10 -1.515272e-09
0.0 -9.47045e-10
00000000: e541 d0af 99b7 af2f 99b7 afb0 7372 1f30
00000010: e541 d0ae 224a 6aaf 4e2d 8f30 30cc 7030
00000020: 6b31 1c30 c73d c32f 0346 ddaf 6b31 9c2f
00000030: 404e f72f a1f8 b2b0 2f29 02b0 e541 d0b0
00000040: 0000 0000 2f29 82b0

running_var f4 [18]
0.9487786 0.90390867 0.93136406 0.9071966 0.9446033 0.91461134 0.9195321 0.9368958
0.90755403 0.95616055 0.9076856 0.9103629 0.9157488 0.9379863 0.917887 0.9440031
0.93380594 0.955035
00000000: 28e3 723f 8f66 673f e06d 6e3f 093e 683f
00000010: 86d1 713f f823 6a3f 7566 6b3f 67d8 6f3f
00000020: 7655 683f f0c6 743f 155e 683f 8b0d 693f
00000030: 836e 6a3f df1f 703f a4fa 6a3f 30aa 713f
00000040: e80d 6f3f 2c7d 743f

weight f4 [18, 1, 3, 3]
-0.14216495 -0.06719612 -0.10975957 -0.17092186 0.09509221 0.121297896 0.1736066 0.10684809
-0.14022027 -0.025925398 0.016562387 -0.09409346 -0.015610576 -0.028141454 0.06765041 -0.10094902
-0.14442927 0.044318467 -0.014147133 -0.09873987 0.07386032 -0.17944664 0.06425837 0.15071431
0.09504956 0.093851745 0.15309137 -0.077668555 -0.14186163 0.16340688 0.05491306 0.09987694
0.17642757 0.05025296 0.11722818 -0.09702388 0.049451455 0.092297494 0.05681689 -0.17060281
0.13028413 -0.014549896 -0.13416386 0.11145377 -0.16518553 0.023284286 -0.0003014356 -0.10026932
-0.017043337 0.16349632 -0.13767254 0.13695294 0.18726632 0.14908159 -0.0048680604 -0.060553253
0.11042628 -0.14033023 0.026588306 -0.16202794 -0.16924112 0.097875565 -0.10415728 -0.17466915
0.060748085 -0.028231323 0.08753374 0.18302104 0.16905442 0.1353018 -0.06994692 -0.028242841
0.027741164 -0.06620706 0.124052316 -0.12605797 -0.15443438 0.13701466 -0.17630091 0.17260373
-0.15592816 0.02428165 -0.16547638 0.16330293 -0.015459359 0.020824611 -0.17369518 0.16464442
0.012767822 -0.1606951 -0.026393354 -0.105570026 -0.11637347 0.033380806 0.14762217 -0.18369867
-0.107970916 0.02820076 0.03210233 -0.084891446 0.053791583 -0.08539858 0.009047419 0.0387841
0.051082477 -0.1808395 0.15721083 -0.008687973 0.030937687 0.17057356 0.05239217 0.090699494
0.014329553 0.13144392 0.15676928 -0.14711739 -0.02324523 0.062928766 -0.11169515 -0.1494276
0.07308835 0.047961578 0.006389603 0.00993745 -0.13798538 -0.022960126 0.023183376 -0.16754608
-0.16587135 -0.10147076 0.1725837 -0.15477933 -0.110198304 -0.12877226 -0.03877026 0.14404127
0.18028802 -0.11724559 -0.14549342 -0.088416606 0.18448636 -0.09726788 0.087617695 -0.018314615
0.14791295 -0.17113452 -0.01019226 0.0065499544 -0.103194386 0.13346684 0.18096924 -0.078600116
0.06917879 0.15467378 0.06905562 -0.16089563 -0.16255212 -0.10182292 -0.08371052 -0.072894365
0.027514115 0.12902415
00000000: b093 11be 1f9e 89bd a0c9 e0bd 2406 2fbe
00000010: b4bf c23d 086b f83d eec5 313e 2cd3 da3d
00000020: e795 0fbe 8061 d4bc d8ad 873c 12b4 c0bd
00000030: 80c3 7fbc e888 e6bc 4c8c 8a3d 5cbe cebd
00000040: 44e5 13be 4887 353d 60c9 67bc 2138 cabd
00000050: 1444 973d dcc0 37be e499 833d da54 1a3e
00000060: 58a9 c23d 5835 c03d fcc3 1c3e b110 9fbd
00000070: 2d44 11be 2254 273e 84ec 603d 488c cc3d
00000080: 6ea9 343e 0cd6 4d3d 5415 f03d 75b4 c6bd
00000090: 9c8d 4a3d 7806 bd3d d4b8 683d 81b2 2ebe
000000a0: 3469 053e b062 6ebc 4062 09be e041 e43d
000000b0: 6526 29be b0be be3c 000a 9eb9 005a cdbd
000000c0: 789e 8bbc 946b 273e 08fa 0cbe 643d 0c3e
000000d0: bec2 3f3e d8a8 183e 4084 9fbb b006 78bd
000000e0: 2c27 e23d bab2 0fbe b8cf d93c a7ea 25be
000000f0: 8b4d 2dbe fc72 c83d 6950 d5bd 78dc 32be
00000100: fcd2 783d 6045 e7bc e444 b33d de69 3b3e
00000110: 9a1c 2d3e 8e8c 0a3e 5540 8fbd 885d e7bc
00000120: 7041 e33c 9197 87bd 240f fe3d 5715 01be
00000130: 0c24 1ebe 924d 0c3e 3a88 34be 08bf 303e
00000140: a2ab 1fbe 50ea c63c a472 29be e238 273e
00000150: 4049 7dbc 6098 aa3c 26dd 31be 8c98 283e
00000160: 2030 513c 428d 24be e036 d8bc 1935 d8bd
00000170: 3755 eebd 50ba 083d 442a 173e 811b 3cbe
00000180: db1f ddbd 4805 e73c bc7d 033d 91db adbd
00000190: 9054 5c3d 73e5 aebd a03b 143c 14dc 1e3d
000001a0: dc3b 513d fd2d 39be e0fb 203e 0058 0ebc
000001b0: 0871 fd3c d6aa 2e3e 2c99 563d a8c0 b93d
000001c0: 80c6 6a3c 3c99 063e 2088 203e f1a5 16be
000001d0: c86c bebc cce0 803d 6dc0 e4bd 8c03 19be
000001e0: 58af 953d 5c73 443d e05f d13b b0d0 223c
000001f0: 0a4c 0dbe e016 bcbc 10eb bd3c 3391 2bbe
00000200: 2eda 29be e7cf cfbd c8b9 303e 797e 1ebe
00000210: a6af e1bd e0dc 03be 90cd 1ebd 8e7f 133e
00000220: 6c9d 383e 751e f0bd 3afc 14be c413 b5bd
00000230: fee9 3c3e 6234 c7bd e870 b33d 8808 96bc
00000240: 7e76 173e e33d 2fbe 70fd 26bc 00a1 d63b
00000250: 9457 d3bd 88ab 083e 0050 393e 19f9 a0bd
00000260: 9cad 8d3d ce62 1e3e 086d 8d3d d3c1 24be
00000270: 1074 26be 8988 d0bd 6c70 abbd a449 95bd
00000280: 4865 e13c e81e 043e

weight f4 [18]
1.0 1.0 1.0 1.0 1.0 1.0 1.0 1.0
1.0 1.0 1.0 1.0 1.0 1.0 1.0 1.0
1.0 1.0
00000000: 0000 803f 0000 803f 0000 803f 0000 803f
00000010: 0000 803f 0000 803f 0000 803f 0000 803f
00000020: 0000 803f 0000 803f 0000 803f 0000 803f
00000030: 0000 803f 0000 803f 0000 803f 0000 803f
00000040: 0000 803f 0000 803f

bias f4 [18]
0.0 0.0 0.0 0.0 0.0 0.0 0.0 0.0
0.0 0.0 0.0 0.0 0.0 0.0 0.0 0.0
0.0 0.0
00000000: 0000 0000 0000 0000 0000 0000 0000 0000
00000010: 0000 0000 0000 0000 0000 0000 0000 0000
00000020: 0000 0000 0000 0000 0000 0000 0000 0000
00000030: 0000 0000 0000 0000 0000 0000 0000 0000
00000040: 0000 0000 0000 0000

running_mean f4 [18]
-0.0021053792 -0.0042259796 0.005177096 0.005434083 -0.0006619098 0.0064877453 -0.0062063686 0.0054522594
-0.0034854456 -0.002088947 -0.004410102 -0.0007120766 0.007428666 -0.0033094722 -0.010117221 0.001960965
0.002808548 -0.003279039
00000000: 67fa 09bb 167a 8abb a1a4 a93b 6410 b23b
00000010: 0484 2dba 2797 d43b cb5e cbbb dea8 b23b
00000020: 136c 64bb b7e6 08bb 9e82 90bb a7aa 3aba
00000030: 2b6c f33b bbe3 58bb b3c2 25bc 8983 003b
00000040: 9e0f 383b 25e5 56bb

running_var f4 [18]
0.90543026 0.9014404 0.9045745 0.90502906 0.90757865 0.9040116 0.9027698 0.9029193
0.9068916 0.90334415 0.9037391 0.90376055 0.9039324 0.9021355 0.9040878 0.9045872
0.90591574 0.9028375
00000000: 47ca 673f ccc4 663f 3292 673f fcaf 673f
00000010: 1357 683f 4e6d 673f ec1b 673f b825 673f
00000020: 0c2a 683f 9041 673f 725b 673f da5c 673f
00000030: 1d68 673f 5af2 663f 4c72 673f 0793 673f
00000040: 18ea 673f 5c20 673f

weight f4 [3, 18, 1, 1]
0.056769133 0.17365849 -0.0953092 -0.5145167 -0.061463982 -0.23730427 -0.12253034 0.2982641
-0.36687773 -0.1589441 0.30497968 0.26270574 0.15792292 -0.26641688 -0.18509245 -0.5328382
0.070768654 -0.12909892 -0.515799 -0.30962276 0.12976587 0.09832114 -0.46275324 0.14954424
-0.13596424 0.18601161 -0.13234532 0.5181975 0.014922917 -0.3437151 0.04224485 -0.09791687
-0.16412708 -0.33171844 -0.48706844 0.3805918 0.13223588 0.11714786 -0.031007469 -0.29793906
-0.14432234 0.51300365 -0.49624723 -0.31950963 -0.22710258 -0.2557862 0.18889832 0.36645508
-0.23551527 -0.26741806 0.27938676 -0.14985004 -0.36931652 -0.3434734
00000000: c086 683d 88d3 313e 7831 c3bd 5eb7 03bf
00000010: a8c1 7bbd e4ff 72be 30f1 fabd 12b6 983e
00000020: 66d7 bbbe 3ec2 22be 4c26 9c3e 5e81 863e
00000030: 8cb6 213e cb67 88be e088 3dbe 1668 08bf
00000040: 28ef 903d 8232 04be 670b 04bf e086 9ebe
00000050: 58e1 043e 985c c93d feed ecbe 2022 193e
00000060: 363a 0bbe d479 3e3e 8885 07be 97a8 043f
00000070: 407f 743c 6dfb afbe f008 2d3d a488 c8bd
00000080: ee10 28be 00d7 a9be 0961 f9be eedc c23e
00000090: d868 073e 38eb ef3d 6003 febc 788b 98be
000000a0: 3cc9 13be 3554 033f 1e14 febe c496 a3be
000000b0: 948d 68be 69f6 82be 906e 413e 00a0 bb3e
000000c0: ea2a 71be 05eb 88be c80b 8f3e 4a72 19be
000000d0: 0e17 bdbe bfdb afbe

weight f4 [3]
1.0 1.0 1.0
00000000: 0000 803f 0000 803f 0000 803f

bias f4 [3]
0.0 0.0 0.0
00000000: 0000 0000 0000 0000 0000 0000

running_mean f4 [3]
-0.020713957 -0.023557289 -0.024460709
00000000: 51b0 a9bc 37fb c0bc d361 c8bc

running_var f4 [3]
0.9445499 0.93738484 0.96620226
00000000: 06ce 713f 74f8 6f3f 0859 773f

weight f4 [3, 3, 1, 1]
0.8649901 -0.8423592 -0.34570515 0.12764347 0.69354784 -0.35552132 0.92359006 0.015684128
0.28251195
00000000: fe6f 5d3f daa4 57bf 4400 b1be f8b4 023e
00000010: 5a8c 313f e406 b6be 6670 6c3f 007c 803c
00000020: 68a5 903e

bias f4 [3]
-0.30543745 0.36778378 0.42384052
00000000: 4c62 9cbe 284e bc3e a001 d93e

weight f4 [18, 3, 1, 1]
0.5021773 0.49288744 -0.14460278 -0.31887203 0.093871355 0.39520317 0.5289107 0.2557819
-0.16023266 0.085247636 0.44958287 -0.31670475 -0.24620101 0.21008855 0.38649368 -0.16159001
0.52900857 0.13483691 0.21224266 -0.47885346 -0.045959473 -0.12469247 -0.40772676 -0.40531844
-0.131334 0.1114884 -0.30649757 0.2948054 -0.2617232 -0.23691508 0.24996853 0.30307502
0.48630136 -0.34209436 0.13994992 -0.2519841 -0.3009703 0.47908574 -0.21311939 0.42580777
-0.42235544 -0.47078115 -0.41567853 0.22665286 -0.15943801 -0.38440028 -0.22968546 -0.101483285
0.3230222 -0.3850362 -0.35675484 0.21548349 0.0777756 0.25233847
00000000: b18e 003f be5b fc3e c012 14be 3243 a3be
00000010: a03f c03d 1258 ca3e b166 073f d8f5 823e
00000020: 0814 24be 5096 ae3d ba2f e63e 2027 a2be
00000030: 1e1c 7cbe 7421 573e 80e2 c53e da77 25be
00000040: 1b6d 073f b012 0a3e 2456 593e 482c f5be
00000050: 0040 3cbd c45e ffbd 90c1 d0be e685 cfbe
00000060: 6c7c 06be 0854 e43d 40ed 9cbe bcf0 963e
00000070: 9500 86be de99 72be c0f7 7f3e a62c 9b3e
00000080: 7efc f83e fe26 afbe 084f 0f3e 0f04 81be
00000090: c718 9abe ba4a f53e f83b 5abe 7a03 da3e
000000a0: f93e d8be 3a0a f1be d1d3 d4be b017 683e
000000b0: b843 23be 1dd0 c4be aa32 6bbe 78d6 cfbd
000000c0: 2a63 a53e 7723 c5be 92a8 b6be b4a7 5c3e
000000d0: d048 9f3d 8232 813e

weight f4 [18]
1.0 1.0 1.0 1.0 1.0 1.0 1.0 1.0
1.0 1.0 1.0 1.0 1.0 1.0 1.0 1.0
1.0 1.0
00000000: 0000 803f 0000 803f 0000 803f 0000 803f
00000010: 0000 803f 0000 803f 0000 803f 0000 803f
00000020: 0000 803f 0000 803f 0000 803f 0000 803f
00000030: 0000 803f 0000 803f 0000 803f 0000 803f
00000040: 0000 803f 0000 803f

bias f4 [18]
0.0 0.0 0.0 0.0 0.0 0.0 0.0 0.0
0.0 0.0 0.0 0.0 0.0 0.0 0.0 0.0
0.0 0.0
00000000: 0000 0000 0000 0000 0000 0000 0000 0000
00000010: 0000 0000 0000 0000 0000 0000 0000 0000
00000020: 0000 0000 0000 0000 0000 0000 0000 0000
00000030: 0000 0000 0000 0000 0000 0000 0000 0000
00000040: 0000 0000 0000 0000

running_mean f4 [18]
0.0025962566 -0.0005616016 0.0015263229 0.002931204 -9.0373005e-06 0.0021381336 -0.0021512352 -0.00079533085
0.0013651638 -0.00064141036 6.701911e-05 0.0013906377 0.0028622535 -0.0007890815 0.0015610656 -0.00073018146
-0.00090136466 -0.0003519982
00000000: f525 2a3b 7238 13ba e60e c83a 7119 403b
00000010: e99e 17b7 ee1f 0c3b bdfb 0cbb c07d 50ba
00000020: 4cef b23a 5224 28ba 9c8c 8c38 0f46 b63a
00000030: a594 3b3b 5dda 4eba ab9c cc3a a669 3fba
00000040: 8f49 6cba 668c b8b9

running_var f4 [18]
1.0015898 0.9407415 0.96200645 0.9758168 0.9397388 0.95632535 0.9478733 0.97656745
0.934426 0.9273947 0.9958488 0.94617164 0.97832936 0.98083067 0.94730145 0.94225407
0.9536297 0.92950636
00000000: 1834 803f 6fd4 703f 0e46 763f 21cf 793f
00000010: b992 703f bdd1 743f d3a7 723f 5300 7a3f
00000020: 8b36 6f3f bd69 6d3f f2ef 7e3f 4e38 723f
00000030: cb73 7a3f b817 7b3f 5982 723f 9037 713f
00000040: 1321 743f 21f4 6d3f

weight f4 [18, 1, 3, 3]
0.1534965 -0.0384949 0.062010705 0.075160176 0.05902952 0.019609451 -0.17413321 -0.071226165
-0.053714663 -0.14537717 0.1783095 -0.018753588 -0.13353288 -0.17500032 0.16093671 0.17307273
0.09404948 0.079316646 -0.02802232 -0.14522602 0.039705276 -0.1550588 -0.12969615 -0.10584265
-0.009710908 -0.089976415 0.13450062 -0.114361994 -0.057087094 0.061197534 0.10088 0.100434095
-0.07975093 -0.07906328 -0.18340601 -0.118247695 0.10770753 0.15862161 0.036440924 -0.02952072
0.0998435 0.09822348 0.080984354 0.050863177 -0.16055037 0.15389046 -0.036427826 -0.09276288
-0.10162046 0.1771428 -0.02237907 0.035143584 0.0962019 0.11925754 -0.09635099 0.14641887
-0.061318144 -0.11536258 -0.05356385 -0.15432027 0.03837289 -0.048655093 -0.13039188 -0.00474
-0.10128225 0.108535826 0.15308186 -0.15682699 0.021519661 0.00016461313 0.05099751 -0.028166637
-0.10576686 0.17070156 -0.010464355 0.045607984 0.13574493 0.18627068 0.063875645 0.04938495
-0.12491307 -0.046443075 0.16415215 0.17250443 0.073052734 0.06725153 0.16403088 -0.052771986
0.009081483 -0.09599965 -0.04957387 -0.03482692 0.021482259 -0.034342453 0.011223435 0.1447764
-0.052372247 -0.03529592 0.10886496 0.04794599 0.045850635 0.17086619 -0.010169387 -0.04489103
0.09754652 -0.17557281 -0.1518148 0.045765087 0.08034018 -0.0565013 0.129749 -0.11207737
0.1055693 -0.13978301 -0.027371228 -0.12262001 -0.05796513 0.014907733 -0.046366498 0.055004597
-0.16741917 -0.04022777 0.008567348 -0.014345378 -0.032599628 -0.15792441 0.013158098 -0.08197247
-0.038968906 -0.03380166 -0.11422609 0.047287256 0.07281992 -0.17246467 -0.08392087 0.14346024
0.045748115 0.13630292 -0.13208598 0.09074956 0.088570684 0.07172704 0.16147336 0.13289255
0.18524554 0.014050543 -0.04810451 -0.0025007576 -0.1314704 -0.005790651 0.17090753 -0.03016816
-0.012630463 0.09067589 -0.17394981 -0.026757509 0.03441775 0.059088632 0.017614484 0.013989553
-0.07061571 0.10937187
00000000: 302e 1d3e d4ac 1dbd f0fe 7d3d 94ed 993d
00000010: f0c8 713d 00a4 a03c fa4f 32be 06df 91bd
00000020: e803 5cbd c1dd 14be c496 363e 20a1 99bc
00000030: d8bc 08be 4933 33be 98cc 243e fa39 313e
00000040: 049d c03d c470 a23d 108f e5bc 21b6 14be
00000050: 00a2 223d bcc7 1ebe 11cf 04be 08c4 d8bd
00000060: 801a 1fbc 8e45 b8bd 88ba 093e 9f36 eabd
00000070: 28d4 69bd 44aa 7a3d 2c9a ce3d 64b0 cd3d
00000080: 7554 a3bd eeeb a1bd c9ce 3bbe d92b f2bd
00000090: c495 dc3d b46d 223e 1443 153d 70d5 f1bc
000000a0: c07a cc3d 6429 c93d 20db a53d e855 503d
000000b0: 5167 24be 7695 1d3e 5835 15bd 77fa bdbd
000000c0: 631e d0bd ec64 353e 5054 b7bc b8f2 0f3d
000000d0: 8005 c53d 4c3d f43d ab53 c5bd d4ee 153e
000000e0: bc28 7bbd 3743 ecbd c465 5bbd 2206 1ebe
000000f0: e42c 1d3d 904a 47bd 7385 05be 0052 9bbb
00000100: 116d cfbd 0848 de3d 7ec1 1c3e 4197 20be
00000110: 004a b03c 009c 2c39 c4e2 503d b8bd e6bc
00000120: 4c9c d8bd 64cc 2e3e b072 2bbc 70cf 3a3d
00000130: b800 0b3e bebd 3e3e 3cd1 823d e047 4a3d
00000140: 6cd2 ffbd 183b 3ebd 8017 283e 00a5 303e
00000150: ac9c 953d 2cbb 893d b6f7 273e 7027 58bd
00000160: 80ca 143c 779b c4bd f80d 4bbd aca6 0ebd
00000170: 90fb af3c acaa 0cbd 80e2 373c 4440 143e
00000180: 4884 56bd 7492 10bd 98f4 de3d 0463 443d
00000190: e0cd 3b3d 8cf7 2e3e 809d 26bc a8df 37bd
000001a0: 78c6 c73d 5cc9 33be 5775 1bbe 2c74 3b3d
000001b0: 6489 a43d e86d 67bd ecdc 043e d288 e5bd
000001c0: b834 d83d 4723 0fbe a039 e0bc 3320 fbbd
000001d0: d86c 6dbd 903f 743c ccea 3dbd 804c 613d
000001e0: ee6f 2bbe e0c5 24bd 105e 0c3c e008 6bbc
000001f0: 3087 05bd f0b6 21be 1095 573c 2fe1 a7bd
00000200: dc9d 1fbd 9c73 0abd 5eef e9bd 48b0 413d
00000210: 9c22 953d 949a 30be b5de abbd 3ee7 123e
00000220: 6062 3b3d fe92 0b3e 8c41 07be e8da b93d
00000230: 8c64 b53d a0e5 923d 4659 253e fc14 083e
00000240: 02b1 3d3e 4034 663c 3c09 45bd c0e3 23bb
00000250: 2da0 06be 80bf bdbb 6202 2f3e 3823 f7bc
00000260: 00f0 4ebc 48b4 b93d e61f 32be 9032 dbbc
00000270: a0f9 0c3d ec06 723d 404c 903c 7034 653c
00000280: f89e 90bd 5cfe df3d

weight f4 [18]
1.0 1.0 1.0 1.0 1.0 1.0 1.0 1.0
1.0 1.0 1.0 1.0 1.0 1.0 1.0 1.0
1.0 1.0
00000000: 0000 803f 0000 803f 0000 803f 0000 803f
00000010: 0000 803f 0000 803f 0000 803f 0000 803f
00000020: 0000 803f 0000 803f 0000 803f 0000 803f
00000030: 0000 803f 0000 803f 0000 803f 0000 803f
00000040: 0000 803f 0000 803f

bias f4 [18]
0.0 0.0 0.0 0.0 0.0 0.0 0.0 0.0
0.0 0.0 0.0 0.0 0.0 0.0 0.0 0.0
0.0 0.0
00000000: 0000 0000 0000 0000 0000 0000 0000 0000
00000010: 0000 0000 0000 0000 0000 0000 0000 0000
00000020: 0000 0000 0000 0000 0000 0000 0000 0000
00000030: 0000 0000 0000 0000 0000 0000 0000 0000
00000040: 0000 0000 0000 0000

running_mean f4 [18]
0.00043410092 0.0029676794 -0.007393899 -0.0052925902 0.0064529344 0.0048262016 -0.007539564 0.00067608146
0.0062825135 0.0068721636 0.0012149944 0.0005397858 -0.0029911723 -0.0058846283 -0.0059788525 0.011750745
0.0018528578 0.0009276384
00000000: 0a98 e339 667d 423b 8548 f2bb 776d adbb
00000010: 2373 d33b 1d25 9e3b 720e f7bb 0f3b 313a
00000020: 8bdd cd3b e32f e13b 7240 9f3a 6980 0d3a
00000030: 8b07 44bb d7d3 c0bb 40ea c3bb 3286 403c
00000040: 97db f23a c22c 733a

running_var f4 [18]
0.90124947 0.9055613 0.90178293 0.90293896 0.90305704 0.9030055 0.90302724 0.90271896
0.90538144 0.9033539 0.9009972 0.90551734 0.90366894 0.9020193 0.9034274 0.9069682
0.90261525 0.90109706
00000000: 49b8 663f ded2 673f 3fdb 663f 0227 673f
00000010: bf2e 673f 5e2b 673f cb2c 673f 9718 673f
00000020: 14c7 673f 3442 673f c1a7 663f fccf 673f
00000030: d956 673f bdea 663f 0547 673f 112f 683f
00000040: cb11 673f 4cae 663f

weight f4 [5, 18, 1, 1]
-0.4271107 -0.07534146 -0.14960042 0.0187155 -0.30935964 -0.1068095 0.43116522 0.39953983
-0.33751202 0.45458353 -0.018335521 0.4435472 0.39268398 0.49826616 0.11402702 -0.4491686
0.20612258 0.368392 0.28170538 -0.09316304 0.2393102 0.33866358 0.2750917 0.49184114
0.20902896 0.35683692 0.0062089562 0.07040167 -0.09260282 -0.34886038 0.33535093 0.22269666
-0.24018857 0.05073023 -0.35530463 -0.074891984 -0.47659123 -0.43538976 -0.18912333 -0.22325811
-0.2650562 -0.07097983 0.24851942 0.4486649 -0.2577459 -0.21232179 0.3224833 -0.23719993
0.23053634 -0.11556211 0.4005623 -0.10927656 -0.20335338 -0.30663526 -0.4284985 0.047693253
-0.026497304 -0.3405735 0.4493301 -0.028628469 -0.045187563 0.45686328 0.46400613 0.07498181
0.21391267 -0.17295566 0.26821744 -0.15781894 -0.4058571 -0.24700823 -0.21694666 -0.23126116
0.13708562 -0.33511317 -0.34908164 -0.2784007 0.49215156 0.1233989 -0.4459025 -0.2942479
0.43683916 -0.123806775 -0.41647863 -0.5056227 -0.028699636 0.09510118 -0.2607879 -0.2150181
0.04422933 0.16604102
00000000: 41ae dabe a04c 9abd da30 19be 4051 993c
00000010: 6364 9ebe f0be dabd b0c1 dc3e 7c90 cc3e
00000020: 60ce acbe 2cbf e83e 6034 96bc 9e18 e33e
00000030: e00d c93e be1c ff3e 0087 e93d 6df9 e5be
00000040: cc11 533e e09d bc3e b03b 903e 44cc bebd
00000050: bc0d 753e 5065 ad3e d2d8 8c3e 9ad2 fb3e
00000060: b00b 563e 54b3 b63e 8074 cb3b c02e 903d
00000070: 8ca6 bdbd d49d b2be 1eb3 ab3e 980a 643e
00000080: fef3 75be 80ca 4f3d 7dea b5be f860 99bd
00000090: c403 f4be 68eb debe 8ca9 41be c69d 64be
000000a0: 72b5 87be e05d 91bd e07b 7e3e 68b7 e53e
000000b0: 45f7 83be e26a 59be 881c a53e 8ae4 72be
000000c0: b811 6c3e d4ab ecbd 8016 cd3e 64cc dfbd
000000d0: de3b 50be 4cff 9cbe 2864 dbbe 005a 433d
000000e0: e010 d9bc a65f aebe 980e e63e 4086 eabc
000000f0: 9816 39bd fce9 e93e 3692 ed3e 1090 993d
00000100: ec0b 5b3e 4a1b 31be cc53 893e 4a9b 21be
00000110: 80cc cfbe baef 7cbe 4427 5ebe bacf 6cbe
00000120: 2c60 0c3e f493 abbe d4ba b2be 898a 8ebe
00000130: 4afb fb3e 90b8 fc3d 554d e4be a9a7 96be
00000140: 62a9 df3e 688e fdbd b03c d5be 7d70 01bf
00000150: 801b ebbc 68c4 c23d fe85 85be b42d 5cbe
00000160: d029 353d a806 2a3e

weight f4 [5]
1.0 1.0 1.0 1.0 1.0
00000000: 0000 803f 0000 803f 0000 803f 0000 803f
00000010: 0000 803f

bias f4 [5]
0.0 0.0 0.0 0.0 0.0
00000000: 0000 0000 0000 0000 0000 0000 0000 0000
00000010: 0000 0000

running_mean f4 [5]
0.022139495 0.026987955 -0.023179045 -0.0054322495 -0.027823305
00000000: e35d b53c d815 dd3c fbe1 bdbc 0301 b2bb
00000010: b3ed e3bc

running_var f4 [5]
0.97403777 0.95990944 0.9503212 0.9455413 0.95279896
00000000: 8a5a 793f a0bc 753f 4048 733f ff0e 723f
00000010: a2ea 733f

weight f4 [4, 3, 1, 1]
-0.64470625 0.89919174 -0.5606935 -0.5581169 -0.52763265 -0.0099684 -0.8714473 -0.61830544
0.21916986 0.53341365 0.45531988 0.29450214
00000000: 780b 25bf 6e31 663f 9c89 0fbf c0e0 0ebf
00000010: ef12 07bf 8052 23bc 2c17 5fbf 4449 1ebf
00000020: 106e 603e cc8d 083f b01f e93e fcc8 963e

bias f4 [4]
-0.3040175 -0.1524249 0.17015898 0.2914434
00000000: 2fa8 9bbe 4615 1cbe 283e 2e3e 1238 953e

weight f4 [30, 5, 1, 1]
-0.0026931465 0.12745884 -0.114364 0.38489333 0.31419364 -0.4072374 0.37415394 -0.045761615
0.22871837 -0.3438177 0.20534465 0.31703147 0.3042325 -0.3487436 -0.2444734 -0.37674108
-0.2515331 0.19457296 -0.3849346 -0.41345274 -0.19991079 0.008191735 0.29514 0.02010572
-0.16267866 0.06714049 0.06948659 0.20938525 0.16154554 -0.3618576 -0.13207614 0.055971265
0.031361163 0.39169315 0.16448197 0.2829171 0.187637 -0.13592428 -0.35284102 0.30994365
-0.35360208 -0.36041713 -0.13071921 -0.18240063 -0.24903002 0.2661362 0.20372686 -0.24261425
-0.03248316 0.05374545 -0.21085346 0.058603734 -0.11459941 0.38542244 0.04366505 -0.34778345
0.009242505 0.055267096 0.29526863 0.18380025 0.3830441 -0.06830615 0.012421697 0.038489133
-0.34753138 -0.054535955 0.18362883 0.3132991 -0.16754763 0.2477462 0.3363959 0.031867504
0.2978578 0.06906551 -0.26918507 0.22477147 0.15211806 0.37375435 0.0028065443 0.200465
0.298516 -0.32477617 -0.102986306 0.39022842 0.37111244 -0.039304823 0.16663715 0.38401648
-0.25210148 -0.118055284 -0.045560807 -0.2825257 -0.016035765 0.32204387 0.35025367 -0.16396368
-0.2026095 -0.2974509 0.019183755 0.2814524 0.15332612 -0.4107018 0.06914756 0.09679052
0.25967607 0.33611664 0.14939997 0.16882661 -0.30546904 -0.20654777 0.27271077 -0.16579682
0.21328971 -0.14808425 0.3111014 -0.39396992 -0.16311133 0.26322374 0.27428886 0.24825099
-0.0029604137 0.08688471 -0.27284315 -0.03085637 -0.0052699745 -0.15752631 -0.3771201 -0.28342307
0.33372584 0.1542624 -0.24154918 -0.36414185 -0.32816222 0.24150375 0.33452138 -0.17730024
0.017725259 -0.15277576 -0.103306234 -0.2970544 0.022959948 0.35945532 0.32901576 -0.021010816
0.38360128 -0.3343909 -0.18748355 0.03328684 0.1640378 -0.3335212
00000000: 807f 30bb 9284 023e ac37 eabd bd10 c53e
00000010: fddd a03e 6c81 d0be 1b91 bf3e 8870 3bbd
00000020: 2635 6a3e e008 b0be de45 523e f351 a23e
00000030: 5dc4 9b3e 858e b2be 3c57 7abe 35e4 c0be
00000040: f2c8 80be 223e 473e 2616 c5be 14b0 d3be
00000050: 6ab5 4cbe a036 063c 971c 973e c0b4 a43c
00000060: 3c95 26be f480 893d fc4e 8e3d 1669 563e
00000070: 326c 253e 6645 b9be f83e 07be 2042 653d
00000080: 9074 003d 018c c83e f66d 283e 83da 903e
00000090: ea23 403e bc2f 0bbe 94a7 b4be efb0 9e3e
000000a0: 550b b5be 9888 b8be 42db 05be 3bc7 3abe
000000b0: ba01 7fbe 0143 883e c69d 503e df6f 78be
000000c0: 100d 05bd 3024 5c3d f8e9 57be 780a 703d
000000d0: 18b3 eabd 1756 c53e 20da 323d ac10 b2be
000000e0: e06d 173c c05f 623d 732d 973e 2236 3c3e
000000f0: 5b1e c43e 18e4 8bbd 6084 4b3c c8a6 1d3d
00000100: a2ef b1be 1861 5fbd 3209 3c3e bd68 a03e
00000110: 9b91 2bbe 2eb1 7d3e 153c ac3e 8087 023d
00000120: d180 983e 3872 8d3d a0d2 89be 7e2a 663e
00000130: d6c4 1b3e bb5c bf3e 00ee 373b b246 4d3e
00000140: 17d7 983e 1049 a6be 7cea d2bd 05cc c73e
00000150: 7302 be3e 18fe 20bd eea2 2a3e cf9d c43e
00000160: 7213 81be f8c6 f1bd f89d 3abd 35a7 90be
00000170: 705d 83bc efe2 a43e 7354 b33e 18e6 27be
00000180: dd78 4fbe 7c4b 98be 4027 9d3c 871a 903e
00000190: 8601 1d3e 8247 d2be 3c9d 8d3d 1c3a c63d
000001a0: 43f4 843e 7b17 ac3e 4efc 183e e2e0 2c3e
000001b0: 7066 9cbe 4281 53be bfa0 8b3e a4c6 29be
000001c0: 9e68 5a3e 66a3 17be af48 9f3e 6db6 c9be
000001d0: a806 27be 43c5 863e 976f 8c3e 8235 7e3e
000001e0: 8003 42bb 9cf0 b13d 19b2 8bbe 80c6 fcbc
000001f0: c0af acbb 944e 21be e315 c1be d41c 91be
00000200: 1dde aa3e f6f6 1d3e ab58 77be cd70 babe
00000210: e104 a8be c24c 773e 6346 ab3e 328e 35be
00000220: 9034 913c 4071 1cbe 3892 d3bd 8417 98be
00000230: 8016 bc3c 870a b83e c174 a83e e01e acbc
00000240: 6367 c43e 4935 abbe b0fb 3fbe c857 083d
00000250: 86f9 273e 4ac3 aabe

weight f4 [30]
1.0 1.0 1.0 1.0 1.0 1.0 1.0 1.0
1.0 1.0 1.0 1.0 1.0 1.0 1.0 1.0
1.0 1.0 1.0 1.0 1.0 1.0 1.0 1.0
1.0 1.0 1.0 1.0 1.0 1.0
00000000: 0000 803f 0000 803f 0000 803f 0000 803f
00000010: 0000 803f 0000 803f 0000 803f 0000 803f
00000020: 0000 803f 0000 803f 0000 803f 0000 803f
00000030: 0000 803f 0000 803f 0000 803f 0000 803f
00000040: 0000 803f 0000 803f 0000 803f 0000 803f
00000050: 0000 803f 0000 803f 0000 803f 0000 803f
00000060: 0000 803f 0000 803f 0000 803f 0000 803f
00000070: 0000 803f 0000 803f

bias f4 [30]
0.0 0.0 0.0 0.0 0.0 0.0 0.0 0.0
0.0 0.0 0.0 0.0 0.0 0.0 0.0 0.0
0.0 0.0 0.0 0.0 0.0 0.0 0.0 0.0
0.0 0.0 0.0 0.0 0.0 0.0
00000000: 0000 0000 0000 0000 0000 0000 0000 0000
00000010: 0000 0000 0000 0000 0000 0000 0000 0000
00000020: 0000 0000 0000 0000 0000 0000 0000 0000
00000030: 0000 0000 0000 0000 0000 0000 0000 0000
00000040: 0000 0000 0000 0000 0000 0000 0000 0000
00000050: 0000 0000 0000 0000 0000 0000 0000 0000
00000060: 0000 0000 0000 0000 0000 0000 0000 0000
00000070: 0000 0000 0000 0000

running_mean f4 [30]
0.0 1.7660636e-09 7.064254e-10 0.0 1.2362444e-09 8.830318e-11 3.532127e-10 1.7660635e-10
-5.29819e-10 -3.9736428e-10 0.0 1.1479413e-09 -1.4790782e-09 1.5894571e-09 4.415159e-10 1.059638e-09
-1.9426698e-09 1.5894571e-09 -8.830318e-10 -9.934107e-10 -7.9472856e-10 8.830318e-11 -3.532127e-10 7.5057704e-10
-4.194401e-10 -1.7660636e-09 -1.1479413e-09 0.0 2.2958826e-09 8.830318e-11
00000000: 0000 0000 d7b9 f230 452e 4230 0000 0000
00000010: 7ce8 a930 452e c22e 452e c22f 452e 422f
00000020: b3a2 11b0 0d74 daaf 0000 0000 98c5 9d30
00000030: 7048 cbb0 0d74 da30 d7b9 f22f b3a2 9130
00000040: cf7f 05b1 0d74 da30 d7b9 72b0 8888 88b0
00000050: 0d74 5ab0 452e c22e 452e c2af 2a51 4e30
00000060: f296 e6af d7b9 f2b0 98c5 9db0 0000 0000
00000070: 98c5 1d31 452e c22e

running_var f4 [30]
0.93495446 0.9433789 0.9442088 0.947431 0.91073686 0.92683375 0.9259181 0.92189497
0.9327088 0.9134489 0.92676926 0.9324671 0.9396756 0.9137622 0.94528735 0.9215544
0.930291 0.9202934 0.9290043 0.9326852 0.92274785 0.9397412 0.9220856 0.94137067
0.9088534 0.9336695 0.9560346 0.91090083 0.92853665 0.9150428
00000000: 2d59 6f3f 4881 713f abb7 713f d78a 723f
00000010: 0d26 693f fa44 6d3f f808 6d3f 4f01 6c3f
00000020: 01c6 6e3f cad7 693f c040 6d3f 2ab6 6e3f
00000030: 958e 703f 52ec 693f 5afe 713f fdea 6b3f
00000040: 8d27 6e3f 5998 6b3f 3ad3 6d3f 75c4 6e3f
00000050: 3439 6c3f e192 703f cd0d 6c3f abfd 703f
00000060: 9eaa 683f f704 6f3f afbe 743f cc30 693f
00000070: 94b4 6d3f 3f40 6a3f
