trained_model/FIAT(BongNet).pt (torch, 279464 bytes, 143 tensors)

weight f4 [12, 1, 3, 3]
0	0xbe3172dd	-0.17328973
1	0x3e32b3cd	0.17451401
2	0x3e07de71	0.13268448
3	0x3e4c45d5	0.19948514
4	0x3ded2bce	0.11580621
5	0x3e62a5a1	0.22133495
6	0xbe654d74	-0.22392827
7	0x3cb534f0	0.02211997
8	0x3d77d104	0.060502067
9	0xbdfed222	-0.124424234
10	0xbe56ed20	-0.20988894
11	0x3cd9a288	0.026566759
12	0x3bd51040	0.0065021813
13	0xbc8e7820	-0.017391264
14	0xbe02ac5a	-0.1276106
15	0x3e021bef	0.12705968
16	0x3e112301	0.14173509
17	0x3e3768b9	0.17911042
18	0x3e608f83	0.21929745
19	0x3e5e51ed	0.2171094
20	0xbc296e00	-0.010341167
21	0x3e0a149d	0.13484426
22	0xbb953880	-0.0045538545
23	0xbdc22e22	-0.094814554
24	0xbd8ef732	-0.069807425
25	0xbc99f2d0	-0.01879254
26	0x3e4a0b69	0.19730915
27	0xbd753048	-0.059860498
28	0xbe5e56d6	-0.21712813
29	0x3d67554c	0.05647783
30	0x3de0db36	0.10979311
31	0xbe3f7ebe	-0.18700692
32	0xbca4c078	-0.020111308
33	0x3d00cdb4	0.031446174
34	0x3e22de87	0.159052
35	0x3e3db845	0.18527324
36	0xbcbb6b48	-0.022878304
37	0xbd942f00	-0.07235527
38	0x3d4af104	0.049546257
39	0x3d11af1c	0.035567388
40	0x3c2a7be0	0.010405511
41	0x3cef1028	0.029182509
42	0x3d968a56	0.07350604
43	0x3e64feeb	0.22362868
44	0xbca2b438	-0.019861326
45	0xbe292e00	-0.16521454
46	0xbccfa758	-0.02534835
47	0x3e17928f	0.14802001
48	0x39947800	0.00028318167
49	0xbd97ef9a	-0.07418747
50	0xbc2f9390	-0.010716334
51	0xbd4e72c8	-0.050402433
52	0x3e2f596f	0.1712396
53	0x3e590369	0.21192707
54	0x3de22602	0.11042406
55	0x3e3b647d	0.18300052
56	0x3e3be221	0.1834798
57	0x3dbf9d92	0.09356226
58	0x3e34f61d	0.1767201
59	0x3ceaf358	0.028680488
60	0x3bd631e0	0.0065367073
61	0x3d4affe4	0.049560443
62	0xbe025ad6	-0.12729964
63	0xbd9c97e6	-0.0764616
64	0xbe654c4b	-0.22392385
65	0xbd802e40	-0.062588215
66	0xbd172970	-0.036904752
67	0xbdbfa1be	-0.09357022
68	0xbe653741	-0.22384359
69	0x3e2af3e3	0.16694598
70	0xbd2c9688	-0.042135745
71	0xbe64579d	-0.22299047
72	0x3d63e1c4	0.05563523
73	0xbe45a5b8	-0.19301498
74	0xbdaf3ae8	-0.08556157
75	0x3e34ef1f	0.17669342
76	0xbcb6af78	-0.022300467
77	0xbe30705d	-0.17230363
78	0xbe33a12c	-0.17541951
79	0xbe4e7aa0	-0.20163965
80	0xbdc43bb4	-0.095817
81	0xbd73f134	-0.0595562
82	0xbd637384	-0.055530086
83	0x3dd8cf82	0.10586454
84	0x3c2c7b80	0.010527492
85	0xbdf05feb	-0.11737045
86	0x3e45e3b1	0.19325139
87	0x3e496c03	0.1967011
88	0x3e2caa5f	0.16861866
89	0x3e4775df	0.19478558
90	0x3e1a9025	0.1509405
91	0xbdeeed0e	-0.11666308
92	0xbd8c0aca	-0.06837995
93	0x3e078dd9	0.13237704
94	0x3ddb3566	0.10703544
95	0x3e21e5cd	0.15810318
96	0x3e247d09	0.16063322
97	0x3e17dafb	0.14829628
98	0x3e380049	0.17968859
99	0xbd537a18	-0.05163011
100	0x3d46090c	0.04834847
101	0x3dfdb9ba	0.1238894
102	0xbe5efaef	-0.21775411
103	0xbda8e080	-0.08245945
104	0xbda4ec6e	-0.08052908
105	0x3df11efe	0.117734894
106	0xbd01c5b8	-0.0316827
107	0x3d8fb6da	0.07017298

weight f4 [12]
0	0x3f800000	1.0
1	0x3f800000	1.0
2	0x3f800000	1.0
3	0x3f800000	1.0
4	0x3f800000	1.0
5	0x3f800000	1.0
6	0x3f800000	1.0
7	0x3f800000	1.0
8	0x3f800000	1.0
9	0x3f800000	1.0
10	0x3f800000	1.0
11	0x3f800000	1.0

bias f4 [12]
0	0x00000000	0.0
1	0x00000000	0.0
2	0x00000000	0.0
3	0x00000000	0.0
4	0x00000000	0.0
5	0x00000000	0.0
6	0x00000000	0.0
7	0x00000000	0.0
8	0x00000000	0.0
9	0x00000000	0.0
10	0x00000000	0.0
11	0x00000000	0.0

running_mean f4 [12]
0	0x3cd87430	0.02642259
1	0xb811c117	-3.4750523e-05
2	0x3ce34c77	0.027746422
3	0x3b26772b	0.002540062
4	0x3c75e702	0.01500869
5	0x3c2438b3	0.010023284
6	0x3d0e23ec	0.034702227
7	0xbd24a73e	-0.040198557
8	0xbd0f212b	-0.03494374
9	0x3cfe04a7	0.031008078
10	0x3d2b2053	0.041778874
11	0xbbaec96b	-0.0053340695

running_var f4 [12]
0	0x3f66e4e6	0.9019302
1	0x3f66c1f5	0.90139705
2	0x3f66ca9c	0.9015291
3	0x3f66c646	0.9014629
4	0x3f668cfd	0.9005888
5	0x3f66b069	0.9011293
6	0x3f66ba33	0.9012787
7	0x3f66d77e	0.90172565
8	0x3f66d767	0.9017243
9	0x3f66cf39	0.90159947
10	0x3f66d262	0.9016477
11	0x3f669df4	0.9008477

weight f4 [36, 6, 1, 1]
0	0x3def0ea8	0.11672717
1	0x3e89b43f	0.2689533
2	0x3e5fef8e	0.21868727
3	0x3eb644a7	0.35599253
4	0xbe925f70	-0.28588438
5	0x3ea24f9f	0.3170137
6	0xbe607816	-0.21920809
7	0x3de12ab4	0.10994473
8	0xbe0c2a8a	-0.13688102
9	0xbeb7d6c4	-0.3590604
10	0xbd211ae0	-0.03933227
11	0xbbf7e980	-0.007565677
12	0xbe240c4e	-0.16020319
13	0xbe1c9e78	-0.15294826
14	0xbe4bf464	-0.19917446
15	0xbe8fe137	-0.28101513
16	0x3d14b078	0.036301106
17	0x3e63bc4e	0.22239801
18	0x3ebf0807	0.37310812
19	0x3c550580	0.0130018
20	0x3ebbf5e1	0.36711028
21	0x3e6fe156	0.23425803
22	0x3e86518f	0.262341
23	0x3d86e258	0.065861404
24	0xbe60cdfb	-0.21953575
25	0x3d27f8b0	0.04100865
26	0xbcf31e40	-0.02967751
27	0xbec180a5	-0.3779346
28	0x3e9b9733	0.30388793
29	0xbe9eb125	-0.30994526
30	0xbe0424e5	-0.12904699
31	0xbdebf41c	-0.115211695
32	0x3d60ff78	0.054931134
33	0xbe94bcd9	-0.2905033
34	0x3dd7e0f8	0.10540956
35	0xbe47214f	-0.194463
36	0xbeb67bf3	-0.3564144
37	0xbd3f71a0	-0.04673922
38	0xbe33f78e	-0.17574903
39	0xbe1080e2	-0.14111665
40	0x3e2483b2	0.16065863
41	0x3c357400	0.01107502
42	0x3e823413	0.25430354
43	0xbe00e9da	-0.12589207
44	0xbe61e047	-0.22058211
45	0xbe8a278e	-0.26983303
46	0x3e931f63	0.28734884
47	0x3e344fa2	0.17608503
48	0xbd59da80	-0.053186893
49	0x3ca66660	0.020312488
50	0xbde92178	-0.11383337
51	0xbea7300a	-0.32653838
52	0xbe7ce543	-0.24696831
53	0x3c64cf00	0.013965368
54	0x3e7ec972	0.24881533
55	0xbe638717	-0.22219501
56	0xbe63599a	-0.22202149
57	0x3dcb814c	0.09936771
58	0x3e0ed046	0.13946638
59	0x3e4a7cb6	0.19774136
60	0x3c9268f0	0.017872304
61	0x3ea10099	0.31445768
62	0x3dd0c268	0.1019333
63	0xbd483da0	-0.048886895
64	0x3eb7ac25	0.35873523
65	0xbea57a4e	-0.32319874
66	0x3c758040	0.01498419
67	0xbeb4a165	-0.35279384
68	0x3e0d107a	0.13775817
69	0xbea0d6ce	-0.31413883
70	0x3e10cc4e	0.14140436
71	0xbe9dccb8	-0.3082025
72	0xbe0a97ab	-0.13534419
73	0xbe867ed2	-0.2626863
74	0xbeb501c2	-0.35352904
75	0x3e20a03a	0.15686122
76	0xbe38ecec	-0.18059129
77	0xbe2967f9	-0.16543569
78	0x3d93c3dc	0.072150916
79	0x3e18c4be	0.14918801
80	0x3e821c5d	0.25412264
81	0x3eb7bcbb	0.35886177
82	0xbe6c2887	-0.23062335
83	0x3e772e32	0.24138716
84	0xbe84d5ce	-0.2594437
85	0xbd26e640	-0.040746927
86	0x3eabd735	0.33562627
87	0x3d94f9b4	0.072741896
88	0x3d0f4090	0.03497368
89	0x3eb31e45	0.3498403
90	0xbe75078a	-0.23928657
91	0x3e8e3db7	0.2778146
92	0x3e90caa9	0.28279617
93	0x3e1b868e	0.15188047
94	0x3ea6113d	0.32435027
95	0xbe620732	-0.22073057
96	0xbca85ff0	-0.020553559
97	0x3e8367a1	0.25665
98	0x3e9b910f	0.30384108
99	0xbea03806	-0.31292742
100	0xbe850b82	-0.25985342
101	0x3e616fca	0.220153
102	0x3e0074e6	0.12544593
103	0xbe628233	-0.2211998
104	0xbdb040b0	-0.08606088
105	0x3e659526	0.22420177
106	0x3eb9053f	0.36136815
107	0xbe878b66	-0.2647354
108	0x3e93a2c5	0.2883512
109	0x3e22af52	0.15887192
110	0x3e96d8d1	0.29462293
111	0x3e340b66	0.17582473
112	0x3ea78749	0.32720402
113	0x3d06edc0	0.03294158
114	0x3dea88c0	0.11451864
115	0x3e55172a	0.20809618
116	0xbe8f6690	-0.28007936
117	0xbe6e5113	-0.23273115
118	0x3d2f9f20	0.042876363
119	0x3e36942e	0.17829964
120	0x3e94ecb5	0.29086843
121	0xbe88a0cf	-0.26685187
122	0x3ebcdcdf	0.3688726
123	0x3e584ffe	0.21124265
124	0xbe786314	-0.24256545
125	0xbe204c0a	-0.15654007
126	0x3da3d034	0.07998696
127	0x3d8169e4	0.06319025
128	0xbe0aaa18	-0.13541448
129	0x3e2a45ae	0.16628143
130	0x3ebe9ddb	0.3722981
131	0x3e4d2d3e	0.2003679
132	0xbe3744d9	-0.17897357
133	0x3e94a533	0.29032287
134	0xbe78ae11	-0.24285151
135	0x3df99bd0	0.12187922
136	0x3ebee027	0.3728039
137	0xbe048100	-0.12939835
138	0x3d5b9888	0.053612262
139	0x3e4d6452	0.200578
140	0x3e72562a	0.23665681
141	0x3d5c46b0	0.05377835
142	0xbe9c9525	-0.30582538
143	0x3e71803e	0.23584077
144	0x3eafda77	0.34346363
145	0xbd8cd490	-0.068764806
146	0x3e9f1e0b	0.31077608
147	0x3e29f176	0.16596016
148	0x3d094678	0.03351447
149	0xbe9d8fe7	-0.3077385
150	0x3db135f0	0.08652866
151	0xbe6707ea	-0.22561613
152	0xbe6d5290	-0.23176026
153	0x3e7690ca	0.2407867
154	0x3e3ad6c6	0.18245992
155	0x3da2b49c	0.07944605
156	0x3ea56edd	0.32311144
157	0xbd4075f8	-0.046987504
158	0xbe592a86	-0.21207628
159	0x3eaf4dfb	0.34239182
160	0x3eb30187	0.34962103
161	0xbe838207	-0.2568514
162	0x3c22f540	0.0099461675
163	0xbd8bbb00	-0.06822777
164	0x3d232cd0	0.03983766
165	0x3e23778a	0.1596357
166	0x3ebe4f95	0.3717009
167	0x3eb7ab5d	0.35872927
168	0x3e0a2a7a	0.13492766
169	0x3e40f06a	0.1884171
170	0x3d67b6c8	0.0565708
171	0xbc80a600	-0.015704155
172	0x3e7497c2	0.23886016
173	0xbe5fb20f	-0.21845268
174	0xbea865c1	-0.32890132
175	0xbd9bb108	-0.076021254
176	0xbe27acd9	-0.1637453
177	0xbe82051b	-0.2539452
178	0x3e02707a	0.12738219
179	0x3ce52b40	0.027974725
180	0xbe35b431	-0.17744519
181	0xbcb83310	-0.022485286
182	0xbc07d000	-0.008289337
183	0x3ebdea3b	0.37092766
184	0xbe230b65	-0.15922315
185	0x3da5eb94	0.081015736
186	0x3e97342b	0.29531989
187	0xbe2f4a11	-0.17118098
188	0xbd933be4	-0.071891576
189	0xbe93e3e6	-0.2888481
190	0xbe4134c0	-0.18867779
191	0x3cf419a0	0.029797375
192	0xbeaff7e7	-0.34368822
193	0x3eaf280f	0.3421025
194	0x3eab25f9	0.33427408
195	0x3eba3307	0.36367056
196	0x3e8348eb	0.2564157
197	0xbe1471b1	-0.14496495
198	0x3dcfa5f0	0.10139072
199	0x3ea824e9	0.3284066
200	0xbd776e20	-0.060407758
201	0x3d486230	0.048921764
202	0xbe8c785c	-0.27435577
203	0xbd553cc8	-0.05205992
204	0x3dce4968	0.10072595
205	0xbd12fca0	-0.035885453
206	0x3e69ffca	0.22851482
207	0x3e9ce6db	0.3064488
208	0xbe0e5cc3	-0.13902573
209	0x3ea728ef	0.32648417
210	0xbc243360	-0.010022014
211	0xbe905698	-0.28191066
212	0xbd889604	-0.06669238
213	0x3e4895ba	0.19588366
214	0xbe529d36	-0.20567784
215	0x3ea8a5a5	0.32938877

weight f4 [36]
0	0x3f800000	1.0
1	0x3f800000	1.0
2	0x3f800000	1.0
3	0x3f800000	1.0
4	0x3f800000	1.0
5	0x3f800000	1.0
6	0x3f800000	1.0
7	0x3f800000	1.0
8	0x3f800000	1.0
9	0x3f800000	1.0
10	0x3f800000	1.0
11	0x3f800000	1.0
12	0x3f800000	1.0
13	0x3f800000	1.0
14	0x3f800000	1.0
15	0x3f800000	1.0
16	0x3f800000	1.0
17	0x3f800000	1.0
18	0x3f800000	1.0
19	0x3f800000	1.0
20	0x3f800000	1.0
21	0x3f800000	1.0
22	0x3f800000	1.0
23	0x3f800000	1.0
24	0x3f800000	1.0
25	0x3f800000	1.0
26	0x3f800000	1.0
27	0x3f800000	1.0
28	0x3f800000	1.0
29	0x3f800000	1.0
30	0x3f800000	1.0
31	0x3f800000	1.0
32	0x3f800000	1.0
33	0x3f800000	1.0
34	0x3f800000	1.0
35	0x3f800000	1.0

bias f4 [36]
0	0x00000000	0.0
1	0x00000000	0.0
2	0x00000000	0.0
3	0x00000000	0.0
4	0x00000000	0.0
5	0x00000000	0.0
6	0x00000000	0.0
7	0x00000000	0.0
8	0x00000000	0.0
9	0x00000000	0.0
10	0x00000000	0.0
11	0x00000000	0.0
12	0x00000000	0.0
13	0x00000000	0.0
14	0x00000000	0.0
15	0x00000000	0.0
16	0x00000000	0.0
17	0x00000000	0.0
18	0x00000000	0.0
19	0x00000000	0.0
20	0x00000000	0.0
21	0x00000000	0.0
22	0x00000000	0.0
23	0x00000000	0.0
24	0x00000000	0.0
25	0x00000000	0.0
26	0x00000000	0.0
27	0x00000000	0.0
28	0x00000000	0.0
29	0x00000000	0.0
30	0x00000000	0.0
31	0x00000000	0.0
32	0x00000000	0.0
33	0x00000000	0.0
34	0x00000000	0.0
35	0x00000000	0.0

running_mean f4 [36]
0	0x3c87266f	0.016497819
1	0xbc319cab	-0.010840575
2	0xbc11a4bb	-0.008889372
3	0x3cb334b2	0.021875713
4	0xbc216a67	-0.009852028
5	0xbc1b0a8b	-0.009462963
6	0xbc156197	-0.0091175055
7	0x3adc5baa	0.0016811986
8	0xbc405ce2	-0.011740895
9	0x3b833c4c	0.0040049907
10	0x3be53cdf	0.006995782
11	0xbc39abdb	-0.011332477
12	0xbc803145	-0.015648494
13	0x3c665faf	0.014060899
14	0x3c067372	0.008206235
15	0x3c1d2b3c	0.009592827
16	0x3b4ce6a3	0.00312654
17	0x3b16b544	0.0022996226
18	0x3cae0e3c	0.021247022
19	0x3a0788fd	0.0005170254
20	0x3b5f3e82	0.0034064357
21	0x3c4b6637	0.012414507
22	0x3b7e9a83	0.003884942
23	0x3c017a73	0.007902729
24	0x3c01e9d6	0.007929286
25	0x3b0f41df	0.002185933
26	0x3c07cd4d	0.008288694
27	0x3c6d7883	0.014494064
28	0x3bd173cd	0.0063919784
29	0xbc35ca2e	-0.011095567
30	0x3ab898b9	0.0014083601
31	0xbbd79163	-0.0065786107
32	0x3c5c27cf	0.0134372255
33	0x3ac8ebcb	0.0015329061
34	0x3c56947f	0.013096928
35	0xba2987ce	-0.0006467075

running_var f4 [36]
0	0x3f6905c0	0.910244
1	0x3f67921e	0.9045733
2	0x3f6764d7	0.90388244
3	0x3f6831ed	0.9070118
4	0x3f68a69f	0.90879244
5	0x3f679675	0.90463954
6	0x3f675c10	0.9037485
7	0x3f684611	0.9073191
8	0x3f67fe46	0.90622365
9	0x3f695e33	0.9115936
10	0x3f692053	0.9106495
11	0x3f698ed7	0.9123358
12	0x3f685d94	0.9076779
13	0x3f6800b1	0.90626055
14	0x3f683538	0.90706205
15	0x3f6a0c64	0.91425157
16	0x3f6b7347	0.91972774
17	0x3f6a8192	0.9160396
18	0x3f680967	0.90639347
19	0x3f678d7e	0.90450275
20	0x3f6885b6	0.90829027
21	0x3f68c2a1	0.9092198
22	0x3f6909f9	0.9103084
23	0x3f68c49d	0.9092501
24	0x3f68eec9	0.9098936
25	0x3f69a7de	0.9127177
26	0x3f6b915b	0.9201867
27	0x3f689caa	0.9086405
28	0x3f6797d1	0.9046603
29	0x3f6729f0	0.90298367
30	0x3f67ae13	0.9049999
31	0x3f68a36c	0.9087436
32	0x3f6b63f3	0.91949385
33	0x3f67ac5a	0.9049736
34	0x3f67a7c6	0.90490377
35	0x3f68b2a4	0.90897584

weight f4 [36, 1, 3, 3]
0	0x3d122fe8	0.03569022
1	0xbde6f5da	-0.11277361
2	0xbd8dd99f	-0.069262736
3	0x3dcd1a98	0.10014838
4	0xbdc76044	-0.09735158
5	0xbd982297	-0.074284725
6	0xbde1b104	-0.11020091
7	0x3b1f3d00	0.0024297833
8	0x3dc3297e	0.095293984
9	0xbd1bd930	-0.038048923
10	0xbe083e03	-0.13304906
11	0xbd8e7120	-0.06955171
12	0xbd7d561c	-0.0618497
13	0xbdc24906	-0.09486584
14	0xbdb6a3ed	-0.08917985
15	0xbd58fb30	-0.052973926
16	0xbdd70e81	-0.10500813
17	0x3dd265cc	0.102733225
18	0xbb736fc0	-0.0037145466
19	0xbdf7a8f1	-0.1209277
20	0xbd8746b2	-0.06605281
21	0xbc5bc758	-0.0134142265
22	0x3c9f1a08	0.019421592
23	0x3d53ba18	0.051691145
24	0x3b0c7380	0.0021431148
25	0x3a8e8600	0.0010873675
26	0xbc42d2b0	-0.011891052
27	0x3da290e2	0.079377905
28	0x3d623068	0.055221945
29	0xbdac67af	-0.084182136
30	0x3d69d10c	0.05708413
31	0x3e01f8f4	0.12692624
32	0xbdb9f4e2	-0.09079911
33	0x3dffd778	0.12492269
34	0x3d82515e	0.06363176
35	0xbde296e0	-0.11063933
36	0x3d8b6e86	0.0680819
37	0xbd3d18ca	-0.04616622
38	0x3ca07a98	0.019589707
39	0x3d3b9e5c	0.04580532
40	0x3df54a84	0.11977103
41	0x3df96304	0.12177089
42	0xbdcf0481	-0.10108281
43	0xbc9d4a68	-0.019200519
44	0x3cbb3068	0.02285023
45	0xbd9dac37	-0.07698863
46	0xbdb6f96c	-0.08934292
47	0x3db0d2fe	0.086339936
48	0xbd77f080	-0.060532093
49	0x3e05dd0e	0.13072607
50	0xbd10737a	-0.035266377
51	0x3d998c0e	0.074974164
52	0x3d7697a0	0.060203195
53	0x3dd019cc	0.1016117
54	0xbc4d9f40	-0.012550175
55	0xbda4e159	-0.08050794
56	0x3df0bf18	0.11755198
57	0xbde4a378	-0.11163992
58	0x3db35434	0.08756295
59	0xbd338fd4	-0.043838337
60	0xbdea86e0	-0.114515066
61	0xbd8635a7	-0.06553202
62	0x3dcf4932	0.10121383
63	0xbcffd530	-0.031229585
64	0xbdbdb1bb	-0.09262415
65	0x3c3d3980	0.011549354
66	0x3d826e7a	0.06368728
67	0xbd2fdfea	-0.04293815
68	0xbddddf28	-0.10833579
69	0x3d474788	0.048652202
70	0x3ccc2750	0.02492109
71	0x3d92156a	0.07132991
72	0xbd04c846	-0.032417558
73	0x3cc89d10	0.024488956
74	0xbd9377c4	-0.07200578
75	0xbcf7f284	-0.030267008
76	0x3d9e10ec	0.07718071
77	0xbdbc16bc	-0.09184024
78	0x3e0483ae	0.12940857
79	0xbdca781c	-0.0988619
80	0xbd86e71b	-0.065870486
81	0xbd21f84e	-0.039543442
82	0x3d7fd69c	0.062460527
83	0xbda8bb49	-0.08238847
84	0x3dac3ee2	0.084104314
85	0xbdb58c9a	-0.08864708
86	0xbdac86b5	-0.08424131
87	0xbd1c166a	-0.038107313
88	0x3d3e1584	0.046407238
89	0x3dd5069c	0.10401651
90	0x3da8df04	0.08245662
91	0xbd3db618	-0.046316236
92	0xbc786f38	-0.015163235
93	0xbe04245e	-0.12904498
94	0x3dacccba	0.08437486
95	0xbd530b7e	-0.05152463
96	0xbcf650a0	-0.030067742
97	0xbda24906	-0.07924084
98	0xbd84a59e	-0.064769015
99	0x3d5c4d18	0.05378446
100	0xbd0ad4a6	-0.033894204
101	0x3dcb4dda	0.099269584
102	0xbc80663c	-0.01567375
103	0x3d19d5e8	0.037557513
104	0xbc562f70	-0.013072833
105	0xbdfd56fa	-0.12370105
106	0x3d0821d0	0.03323537
107	0x3df5c410	0.120002866
108	0x3d88f0da	0.06686564
109	0x3d8c7f6c	0.06860241
110	0x3cc6bb90	0.024259359
111	0x3cb65238	0.022256002
112	0x3b86d460	0.0041146725
113	0xbde72e8f	-0.11288177
114	0xbdc4b6be	-0.09605168
115	0xbca2c8c0	-0.019871116
116	0xbdd43d36	-0.103632376
117	0x3d0dbc54	0.03460343
118	0xbde9efe6	-0.1142271
119	0xbc4125e0	-0.011788815
120	0x3dc96a2a	0.09834702
121	0x3deb1e02	0.11480333
122	0xbdba229e	-0.09088634
123	0x3dbccb4e	0.09218465
124	0xbda166dc	-0.07880947
125	0x3de04232	0.10950126
126	0x3d86df48	0.06585556
127	0x3dcc0c38	0.09963268
128	0xbcdf62a8	-0.027268723
129	0x3d42b614	0.047536924
130	0x3e0071e8	0.12543452
131	0xbd1278ea	-0.035759844
132	0x3db29516	0.08719842
133	0x3db70cd8	0.089379966
134	0x3d0df238	0.034654826
135	0xbd90faa5	-0.07079057
136	0x3ac22c80	0.0014814287
137	0x3c965f88	0.0183561
138	0x3dc2f5da	0.09519549
139	0x3cab6e28	0.02092655
140	0x3da345d2	0.079723015
141	0xbe05efe5	-0.13079794
142	0xbd2e4e6a	-0.04255525
143	0x3dac6f68	0.084196866
144	0xbda8e496	-0.08246724
145	0x3c38a6c0	0.011270225
146	0xbd9b2780	-0.075758934
147	0xbe073bcf	-0.13206409
148	0x3c84ffc8	0.016235247
149	0x3ddcbfd6	0.10778777
150	0x3c902dc0	0.01759994
151	0xbde04a0e	-0.10951625
152	0xbe077481	-0.13228036
153	0x3de0db62	0.10979344
154	0x3c76d420	0.015065223
155	0xbd8cf608	-0.06882864
156	0x3d4a073c	0.049323305
157	0x3c9a2e20	0.018820822
158	0x3e052360	0.13001776
159	0xbdd87d44	-0.105707675
160	0x3d9ec3ac	0.07752165
161	0x3d9d7ddc	0.076900214
162	0xbd57d358	-0.052691787
163	0xbdbd8f26	-0.09255819
164	0x3d77d398	0.060504526
165	0xbdde006e	-0.10839926
166	0x3dc22f2e	0.09481655
167	0x3df30584	0.118662864
168	0xbda19fdb	-0.07891818
169	0xbdc22d4c	-0.09481296
170	0xbdde18c0	-0.108445644
171	0x3dbfe69a	0.09370156
172	0x3d78bc48	0.060726434
173	0xbd97e380	-0.07416439
174	0xbd8624ef	-0.06550013
175	0xbd07cdf4	-0.033155397
176	0x3b5c70c0	0.003363654
177	0xbdb4be8c	-0.088254064
178	0xbd2d4052	-0.04229767
179	0xbd39ab5a	-0.04532943
180	0x3d35eba4	0.044414178
181	0xbbba3e20	-0.0056836754
182	0x3de02234	0.10944024
183	0xbbb957e0	-0.0056562275
184	0xbc4d5b20	-0.012533933
185	0x3db45c84	0.088067085
186	0x3bff23e0	0.007786259
187	0xbc089d40	-0.008338273
188	0x3d910a00	0.070819855
189	0x3de9b52c	0.11411509
190	0x3ddbf7e0	0.10740638
191	0xbde85ce1	-0.1134584
192	0x3d5b520c	0.053545043
193	0x3dc4cab0	0.09608972
194	0xbd85e922	-0.06538607
195	0x3dc510ba	0.09622331
196	0xbdae6538	-0.085154
197	0xbb4bf9c0	-0.0031124204
198	0x3dc64584	0.09681228
199	0xbdae7cd8	-0.08519906
200	0x3ca5d828	0.020244673
201	0xbd09cbd0	-0.033641636
202	0x3deb2024	0.1148074
203	0xbcd18254	-0.02557484
204	0xba976900	-0.0011551678
205	0x3cd57748	0.026057854
206	0xbd969365	-0.07352332
207	0xbdd3ad30	-0.10335767
208	0xbd6cc9e8	-0.05780974
209	0x3dc33a90	0.09532654
210	0xbda88b12	-0.082296506
211	0xbcd8d43c	-0.026468389
212	0x3d0414a4	0.032246247
213	0xbd3e6d30	-0.046490848
214	0x3d0d1238	0.034441203
215	0x3dd3f69e	0.10349773
216	0x3cc27b88	0.023740545
217	0x3da635ca	0.08115728
218	0x3b0d3a40	0.0021549612
219	0x3d77613c	0.060395464
220	0x3db5d718	0.088789165
221	0xbb6e9a40	-0.0036407858
222	0x3d80b24c	0.062840074
223	0x3beca300	0.0072215796
224	0xbd8792df	-0.0661981
225	0xbd890cb5	-0.06691877
226	0x3bc27900	0.0059348345
227	0xbc4c07d8	-0.012453042
228	0xbd49f89e	-0.049309365
229	0xbdaf06db	-0.085462295
230	0x3c9671b0	0.018364757
231	0x3da7fd00	0.08202553
232	0xbd0397dc	-0.032127246
233	0xbda2b97e	-0.07945536
234	0x3dc69f66	0.096983716
235	0x3d1c57b0	0.038169563
236	0xbd4b3060	-0.04960668
237	0xbdfbfc55	-0.12303988
238	0xbd56cdee	-0.052442484
239	0xbd45c348	-0.048281938
240	0x3debfbb0	0.11522615
241	0xbcf4a1f8	-0.029862389
242	0x3d540bfc	0.05176924
243	0xbda44878	-0.08021635
244	0x3da5a4d6	0.080880806
245	0xbd034480	-0.03204775
246	0x3dc05726	0.09391622
247	0x3dddcb1a	0.10829754
248	0xbc93f008	-0.018058792
249	0x3d07af4c	0.03312616
250	0x3de7844c	0.113045305
251	0x3dff4cf0	0.124658465
252	0x3b52de80	0.0032176077
253	0x3d348a6c	0.044077322
254	0x3d66d610	0.05635649
255	0xbb9e2800	-0.0048265457

weight f4 [36]
0	0x3f800000	1.0
1	0x3f800000	1.0
2	0x3f800000	1.0
3	0x3f800000	1.0
4	0x3f800000	1.0
5	0x3f800000	1.0
6	0x3f800000	1.0
7	0x3f800000	1.0
8	0x3f800000	1.0
9	0x3f800000	1.0
10	0x3f800000	1.0
11	0x3f800000	1.0
12	0x3f800000	1.0
13	0x3f800000	1.0
14	0x3f800000	1.0
15	0x3f800000	1.0
16	0x3f800000	1.0
17	0x3f800000	1.0
18	0x3f800000	1.0
19	0x3f800000	1.0
20	0x3f800000	1.0
21	0x3f800000	1.0
22	0x3f800000	1.0
23	0x3f800000	1.0
24	0x3f800000	1.0
25	0x3f800000	1.0
26	0x3f800000	1.0
27	0x3f800000	1.0
28	0x3f800000	1.0
29	0x3f800000	1.0
30	0x3f800000	1.0
31	0x3f800000	1.0
32	0x3f800000	1.0
33	0x3f800000	1.0
34	0x3f800000	1.0
35	0x3f800000	1.0

bias f4 [36]
0	0x00000000	0.0
1	0x00000000	0.0
2	0x00000000	0.0
3	0x00000000	0.0
4	0x00000000	0.0
5	0x00000000	0.0
6	0x00000000	0.0
7	0x00000000	0.0
8	0x00000000	0.0
9	0x00000000	0.0
10	0x00000000	0.0
11	0x00000000	0.0
12	0x00000000	0.0
13	0x00000000	0.0
14	0x00000000	0.0
15	0x00000000	0.0
16	0x00000000	0.0
17	0x00000000	0.0
18	0x00000000	0.0
19	0x00000000	0.0
20	0x00000000	0.0
21	0x00000000	0.0
22	0x00000000	0.0
23	0x00000000	0.0
24	0x00000000	0.0
25	0x00000000	0.0
26	0x00000000	0.0
27	0x00000000	0.0
28	0x00000000	0.0
29	0x00000000	0.0
30	0x00000000	0.0
31	0x00000000	0.0
32	0x00000000	0.0
33	0x00000000	0.0
34	0x00000000	0.0
35	0x00000000	0.0

running_mean f4 [36]
0	0xbb6b910a	-0.0035944604
1	0xbc0d4d48	-0.008624382
2	0xbb1d5c88	-0.0024011452
3	0x3b5cc665	0.0033687588
4	0x3b80d427	0.0039315405
5	0x3b4cbf63	0.0031242005
6	0xbafe09cd	-0.0019381583
7	0xba5e049b	-0.0008469314
8	0xbb1a5981	-0.0023551884
9	0xba122c36	-0.0005576046
10	0xbb726a85	-0.003698976
11	0x3b1ec573	0.0024226576
12	0xbb18064a	-0.0023197108
13	0x3b24b073	0.0025129586
14	0x3bf840fa	0.007576105
15	0x3aab7473	0.0013080969
16	0xbbb2a427	-0.0054516974
17	0x3ba5c8d1	0.0050593396
18	0xbb77b958	-0.0037799682
19	0xbb452221	-0.0030080157
20	0x3b84e36e	0.004055432
21	0x3b58fb33	0.003310871
22	0x3a40d56a	0.000735602
23	0xba614847	-0.0008593839
24	0x3b7b05d7	0.0038303041
25	0xbb721928	-0.0036941264
26	0x37da36aa	2.601308e-05
27	0x3be46dc2	0.006971092
28	0x3bac71ae	0.005262575
29	0x3a9b1b27	0.0011833654
30	0x3c048cd8	0.00809022
31	0x3badeb15	0.005307565
32	0x3b9c3747	0.0047673318
33	0xbae0822d	-0.0017128639
34	0xbac9fded	-0.0015410759
35	0x3b401cc7	0.0029314028

running_var f4 [36]
0	0x3f67072e	0.9024533
1	0x3f66d786	0.9017261
2	0x3f669569	0.9007173
3	0x3f6745d5	0.9034093
4	0x3f66a1a5	0.900904
5	0x3f66c6cb	0.90147084
6	0x3f66b95f	0.90126604
7	0x3f66a951	0.90102106
8	0x3f668a75	0.9005502
9	0x3f66a1c1	0.90090567
10	0x3f66bf1f	0.9013538
11	0x3f66a14d	0.90089875
12	0x3f669902	0.9007722
13	0x3f6724a6	0.90290296
14	0x3f66dd2e	0.90181243
15	0x3f66cb19	0.9015365
16	0x3f66e547	0.901936
17	0x3f66fe0f	0.9023141
18	0x3f6736e1	0.90318114
19	0x3f66af23	0.9011099
20	0x3f6695a9	0.90072113
21	0x3f67255b	0.90291375
22	0x3f66ba0f	0.9012765
23	0x3f66bbaa	0.901301
24	0x3f669954	0.9007771
25	0x3f669d5f	0.9008388
26	0x3f66dfe7	0.901854
27	0x3f675539	0.90364414
28	0x3f669261	0.90067106
29	0x3f668d8e	0.90059745
30	0x3f66ead2	0.9020206
31	0x3f66b4ea	0.901198
32	0x3f66aeb7	0.90110344
33	0x3f668d98	0.90059805
34	0x3f67354e	0.9031571
35	0x3f66e9f5	0.9020074

weight f4 [6, 36, 1, 1]
0	0x3e796886	0.24356279
1	0xbe1320d8	-0.14367998
2	0xbe8b5852	-0.2721582
3	0x3d9cb564	0.07651785
4	0x3e4ccf2a	0.20000902
5	0x3ea02285	0.31276336
6	0x3ec0ba9f	0.3764238
7	0xbe52ddd4	-0.20592433
8	0xbe92ef9c	-0.28698432
9	0xbb98d3c0	-0.0046639144
10	0xbe578edc	-0.2105059
11	0x3e3b4076	0.18286309
12	0x3e7d2216	0.24720034
13	0x3ebadfd3	0.3649889
14	0x3d787fc8	0.060668737
15	0xbe109d29	-0.14122452
16	0xbe95bb17	-0.292443
17	0xbcab3b60	-0.020902336
18	0xbe8f3f50	-0.2797799
19	0xbe03b880	-0.1286335
20	0x3eaabcdd	0.33347216
21	0x3e921503	0.28531656
22	0xbc1744e0	-0.00923273
23	0xbe0b8c90	-0.13627839
24	0x3d1df308	0.03856185
25	0xbeb36b7d	-0.35042945
26	0x3e18416a	0.14868703
27	0xbe2379e7	-0.15964471
28	0x3e686c26	0.22697505
29	0xbe95ed40	-0.2928257
30	0x3d9a27dc	0.07527134
31	0xbe05ecb8	-0.13078582
32	0xbeb7eca7	-0.3592274
33	0xbe166b9f	-0.14689492
34	0x3e8df33f	0.27724645
35	0x3d44d858	0.048057884
36	0xbc85d2d0	-0.016335875
37	0x3e6f8a5e	0.23392627
38	0x3eae0b93	0.33993205
39	0x3df40898	0.11915702
40	0x3e019532	0.1265457
41	0x3e782656	0.24233374
42	0x3c16f7a0	0.009214312
43	0xbe942c6d	-0.28940144
44	0x3e9b537d	0.30337134
45	0x3e55e9de	0.20889995
46	0x3eb0fa39	0.34565905
47	0xbe4f4a33	-0.20243149
48	0x3c1171e0	0.008877248
49	0x3d9606d0	0.07325518
50	0xbe8fdbad	-0.28097287
51	0x3e7d262e	0.24721596
52	0x3dfeaec4	0.12435678
53	0xbe81247b	-0.25223145
54	0x3e7100d6	0.23535475
55	0x3e08f13a	0.1337327
56	0x3ebdf403	0.3710023
57	0xbdd7d53c	-0.10538718
58	0x3e6ca166	0.23108444
59	0x3dd890c0	0.10574484
60	0xbd0272b8	-0.031847686
61	0x3ea0ee8b	0.31431994
62	0xbe98325c	-0.2972592
63	0xbd83ed7c	-0.06441781
64	0xbe1baa79	-0.15201749
65	0xbce31840	-0.027721524
66	0xbe92a00c	-0.2863773
67	0x3e1bf2c6	0.1522933
68	0x3e958b85	0.29208007
69	0xbdc31e50	-0.09527266
70	0xbe7295fc	-0.23690027
71	0x3e8873df	0.26650903
72	0xbd0b1670	-0.033956945
73	0xbd1b0918	-0.03785047
74	0xbded6b24	-0.11592701
75	0xbe80b2ac	-0.25136316
76	0x3e2dc0be	0.16968057
77	0x3d933a20	0.07188821
78	0xbe7f92cf	-0.24958347
79	0x3eb6ef71	0.35729554
80	0xbc09a6a0	-0.008401543
81	0x3e817eab	0.25291952
82	0xbe995ed3	-0.29955158
83	0x3d943218	0.07236117
84	0x3e2a7dba	0.16649523
85	0x3dd065f8	0.10175699
86	0xbe5decaa	-0.21672311
87	0xbe4565be	-0.19277093
88	0x3e6c6ace	0.23087618
89	0x3e4f794e	0.20261118
90	0xbe8a6b5c	-0.27035034
91	0x3e201a7a	0.156351
92	0xbd3c6208	-0.045991927
93	0x3e676f32	0.22601011
94	0xbe91f89c	-0.28509986
95	0x3d1f5718	0.03890142
96	0xbe4d1d39	-0.20030679
97	0x3e0728ae	0.13199112
98	0x3e251eb6	0.16124997
99	0x3d8b8390	0.06812203
100	0x3e71c3b6	0.23609814
101	0x3e48d41a	0.1961216
102	0xbcec6ad0	-0.028859526
103	0x3e26ae5a	0.16277447
104	0x3dce42d0	0.10071337
105	0xbe1d7baa	-0.15379205
106	0xbe0a1e21	-0.13488056
107	0xbe6f08af	-0.23343156
108	0x3e3569d2	0.17716148
109	0xbe801cb2	-0.25021893
110	0xbdf21d68	-0.11822015
111	0x3e0f6a32	0.14005354
112	0x3d6264c0	0.055271864
113	0xbe81f6ce	-0.2538361
114	0x3dbd0b18	0.092306316
115	0x3bc453c0	0.005991429
116	0x3de62868	0.11238176
117	0xbe4e084b	-0.20120351
118	0xbdcd2acc	-0.100179285
119	0x3eb86f5b	0.36022457
120	0xbe50903e	-0.20367524
121	0x3e12bd7e	0.14330098
122	0xbe4515fb	-0.19246666
123	0xbe4c7118	-0.19965017
124	0x3e097926	0.1342512
125	0xbdb59738	-0.08866733
126	0xbe2d04e3	-0.16896395
127	0x3dbb3730	0.091413856
128	0x3eb866db	0.36015972
129	0x3e6ca1ce	0.23108599
130	0x3ea58c91	0.32333806
131	0x3dcf1970	0.10112274
132	0x3defaffc	0.11703488
133	0xbe97884c	-0.29596174
134	0xbe8c8883	-0.274479
135	0x3e52b02e	0.2057502
136	0x3e1a924a	0.15094867
137	0x3e805233	0.25062713
138	0xbdb2e950	-0.08735907
139	0x3eaeea11	0.34162953
140	0xbd472d18	-0.04862699
141	0x3eae795f	0.34076974
142	0x3b856580	0.0040709376
143	0x3d9af1ac	0.075656265
144	0xbe712964	-0.23550946
145	0xbdf60670	-0.120129466
146	0x3ea15779	0.3151205
147	0xbea60711	-0.32427266
148	0x3e50f0aa	0.20404306
149	0x3ec06a71	0.37581208
150	0xbe51cee7	-0.20489083
151	0xbe0744d8	-0.13209856
152	0xbe990bd0	-0.29891825
153	0x3e885859	0.26629904
154	0x3ea22eb5	0.3167626
155	0x3cc08fa0	0.023505986
156	0x3e90250b	0.28153262
157	0x3e643616	0.22286257
158	0xbe709b8c	-0.23496836
159	0xbe3da886	-0.18521318
160	0xbdc4e760	-0.09614444
161	0x3db06194	0.086123616
162	0x3dc17bdc	0.094474524
163	0xbeb6489f	-0.3560228
164	0xbea2ae1c	-0.3177346
165	0xbdf8fdf0	-0.1215781
166	0xbe0637b3	-0.13107185
167	0x3e8e916f	0.27845332
168	0x3e354daa	0.17705408
169	0x3e081fae	0.13293335
170	0x3e3983de	0.1811671
171	0xbe11cd84	-0.14238554
172	0x3d90574c	0.070479006
173	0x3eb19817	0.34686348
174	0xbe5baf69	-0.21453632
175	0xbe9a9a3a	-0.3019579
176	0x3da6c9a8	0.081439316
177	0xbe759984	-0.23984343
178	0xbe0ae171	-0.13562562
179	0xbdca36e4	-0.09873751
180	0xbe8f8b95	-0.2803618
181	0x3e03e4fa	0.12880316
182	0x3e1b4e22	0.15166524
183	0x3eb85ef7	0.36009952
184	0xbc2a1340	-0.010380566
185	0x3df8ecb0	0.121545196
186	0xbe72e23d	-0.23719116
187	0xbb2e4780	-0.002659291
188	0x3e914af5	0.283775
189	0xbdd938a4	-0.106065065
190	0x3e89cc67	0.2691376
191	0x3d37cbb8	0.044872016
192	0xbebd525f	-0.36976907
193	0x3d85bf78	0.065306604
194	0x3c86ccc0	0.016455054
195	0x3eb001ed	0.3437647
196	0xbd57a348	-0.05264595
197	0xbe51fae3	-0.20505862
198	0xbea85503	-0.3287736
199	0xbeb4d608	-0.35319543
200	0xbdc75adc	-0.09734127
201	0xbc9e9800	-0.019359589
202	0xbe8b7382	-0.27236563
203	0x3eb083fb	0.34475693
204	0xbd110a88	-0.035410434
205	0x3e04596a	0.12924734
206	0x3ea413bb	0.32046303
207	0xbe857abf	-0.2607021
208	0xbcf72970	-0.030171126
209	0x3e290652	0.16506317
210	0xbe4c0039	-0.1992196
211	0xbe0453b7	-0.1292256
212	0xbe45b471	-0.19307114
213	0xbe604b0d	-0.2190363
214	0x3e897f09	0.26854733
215	0x3e31ed1e	0.1737561

weight f4 [6]
0	0x3f800000	1.0
1	0x3f800000	1.0
2	0x3f800000	1.0
3	0x3f800000	1.0
4	0x3f800000	1.0
5	0x3f800000	1.0

bias f4 [6]
0	0x00000000	0.0
1	0x00000000	0.0
2	0x00000000	0.0
3	0x00000000	0.0
4	0x00000000	0.0
5	0x00000000	0.0

running_mean f4 [6]
0	0xba866917	-0.0010254708
1	0x3d102089	0.035187278
2	0x3bc008b4	0.0058604125
3	0x3cb0632b	0.021531662
4	0xbbe2e1a3	-0.0069238706
5	0xbb5c18db	-0.003358415

running_var f4 [6]
0	0x3f79d1a6	0.97585523
1	0x3f74b272	0.95584786
2	0x3f729da9	0.9477182
3	0x3f721f8c	0.94579387
4	0x3f764b4a	0.9620863
5	0x3f732de3	0.9499189

weight f4 [6, 6, 1, 1]
0	0xbdc8ba20	-0.098011255
1	0xbeef2df4	-0.46714747
2	0x3df97218	0.12179965
3	0xbf14984c	-0.58044887
4	0x3f33d933	0.70253295
5	0xbe63da24	-0.22251183
6	0xbe0af640	-0.135705
7	0x3d357d10	0.044308722
8	0x3eca62a2	0.39528376
9	0xbec38abd	-0.38191786
10	0x3f251f3d	0.6450079
11	0xbe65cb0a	-0.22440735
12	0x3f346307	0.70463604
13	0x3e8ae98a	0.271313
14	0xbefe8db6	-0.49717492
15	0xbef7a7a0	-0.48370075
16	0x3e989aae	0.2980551
17	0x3ec31602	0.38102728
18	0xbec5f4eb	-0.3866342
19	0xbede5a2f	-0.4342818
20	0xbee572be	-0.44814104
21	0xbdaa0e38	-0.08303493
22	0x3f25d0e3	0.6477186
23	0xbf1c3f20	-0.6103382
24	0x3e3f1ef4	0.18664151
25	0x3ea22742	0.31670576
26	0xbd8ba548	-0.06818634
27	0xbc51c800	-0.012804031
28	0x3e526e70	0.20549941
29	0xbf227a21	-0.63467604
30	0x3eb27246	0.3485281
31	0x3eca29fa	0.3948515
32	0x3f153559	0.5828453
33	0xbe694714	-0.2278102
34	0xbf1f07d1	-0.621213
35	0xbecabfbf	-0.39599416

bias f4 [6]
0	0xbe81223a	-0.25221425
1	0x3d28cc38	0.041210383
2	0x3e708edc	0.23491997
3	0x3ea29d24	0.31760514
4	0x3e235d40	0.15953541
5	0x3dc089b8	0.09401268

weight f4 [36, 6, 1, 1]
0	0xbd8f3ea0	-0.06994367
1	0xbe5aa3b2	-0.21351507
2	0x3e5e8722	0.21731237
3	0xbe1a8892	-0.1509116
4	0x3e1ae716	0.15127215
5	0x3da2c058	0.07946843
6	0xbeba274a	-0.363581
7	0x3e919ba5	0.2843906
8	0xbea42af2	-0.32064015
9	0xbe75d670	-0.24007583
10	0x3dce4624	0.10071972
11	0x3d7e9e28	0.06216255
12	0xbe14ef30	-0.14544368
13	0x3e1f06b2	0.15529898
14	0xbec1624a	-0.377703
15	0x3e0312e6	0.12800178
16	0xbceac1c0	-0.02865684
17	0xbe1eb4ff	-0.15498732
18	0x3e3bbd96	0.1833404
19	0xbe831156	-0.25599164
20	0xbe83ddf6	-0.2575528
21	0xbc8b2410	-0.01698497
22	0x3cc93ff0	0.02456662
23	0xbdfbc9c8	-0.12294346
24	0x3e4e8a0e	0.20169851
25	0x3e9338e1	0.28754333
26	0xbea972f7	-0.33095524
27	0xbe4bebe0	-0.19914198
28	0xbea7baf4	-0.3275982
29	0x3e8c5565	0.274089
30	0x3d352e90	0.04423386
31	0xbe9538f8	-0.29145026
32	0x3e4bd032	0.19903639
33	0xbd96f824	-0.07371548
34	0x3e882101	0.2658768
35	0x3e04cc06	0.12968454
36	0x3e98794f	0.2978005
37	0xbe6a90ba	-0.22906771
38	0xbe6acc45	-0.22929485
39	0xbe741f8d	-0.2384016
40	0x3e73aa56	0.23795447
41	0x3e0c799a	0.13718262
42	0x3e41c32a	0.18922105
43	0x3e815ce9	0.25266197
44	0xbebe4065	-0.37158504
45	0x3dbd2d1c	0.092371196
46	0xbe43a850	-0.19107175
47	0x3eb33a6f	0.3500552
48	0x3e9efdf7	0.31053135
49	0x3e7bc24e	0.2458584
50	0x3e12e436	0.14344868
51	0x3dec3f90	0.11535561
52	0xbe931f9a	-0.28735048
53	0x3e724ea6	0.23662814
54	0xbdba0958	-0.090838134
55	0xbd9ad750	-0.07560599
56	0xbe7ecf24	-0.24883705
57	0x3e0186c2	0.12649062
58	0x3de685f0	0.11256015
59	0x3eb7fcfb	0.35935196
60	0x3dc98754	0.09840265
61	0xbe87d3dd	-0.26528826
62	0x3c630300	0.013855696
63	0x3e63d976	0.22250924
64	0xbdbe1490	-0.09281266
65	0xbe071716	-0.131924
66	0xbe8c49fd	-0.274002
67	0xbe9931f2	-0.29920918
68	0xbe9e5005	-0.30920425
69	0xbd804914	-0.062639385
70	0xbdef1b54	-0.11675134
71	0x3db055a0	0.08610082
72	0x3d3d41d0	0.04620534
73	0xbeab3917	-0.33441994
74	0x3da01f50	0.078184724
75	0x3c051a20	0.0081239045
76	0x3cb5a010	0.02217105
77	0x3cec4470	0.028841227
78	0xbdd6e678	-0.10493177
79	0xbe80b502	-0.25138098
80	0x3db67418	0.08908862
81	0x3e98c9fb	0.298416
82	0xbe927b09	-0.28609493
83	0x3d23ac90	0.03995949
84	0x3e018bce	0.12650988
85	0x3ec16081	0.3776894
86	0xbeba4278	-0.36378837
87	0x3d075f68	0.03304997
88	0xbbe8fd00	-0.007110238
89	0xbe922b75	-0.2854878
90	0x3e68c4b6	0.2273129
91	0x3eb6405b	0.35595974
92	0xbd69fca0	-0.057125688
93	0xbe9a5992	-0.30146462
94	0x3ddb1860	0.106980085
95	0x3e18d9da	0.14926854
96	0x3e97fae5	0.29683605
97	0x3e7b4152	0.24536636
98	0x3e1a0076	0.15039238
99	0xbe1ec824	-0.15506035
100	0x3e459752	0.19296005
101	0x3eb9de2b	0.36302313
102	0xbce03ae0	-0.027371824
103	0x3d156ed0	0.036482632
104	0xbe8c5530	-0.27408743
105	0xbd24de70	-0.040251195
106	0x3e84eb8d	0.2596096
107	0x3ea25e8b	0.31712756
108	0x3e291b16	0.16514239
109	0x3e9abb6b	0.30221114
110	0xbe6d96c6	-0.23202047
111	0x3cf4b800	0.029872894
112	0xbe9baa9a	-0.30403596
113	0xbeb8b96a	-0.3607896
114	0x3d6ab860	0.05730474
115	0x3db2f37c	0.08737847
116	0x3e9f83d9	0.3115528
117	0x3e92720d	0.2860264
118	0xbe4afdd7	-0.19823395
119	0xbda31b64	-0.07964209
120	0x3e62f7e2	0.22164872
121	0xbdc4212c	-0.095766395
122	0xbd8d14ac	-0.068887085
123	0x3da485dc	0.08033344
124	0xbcd39010	-0.02582553
125	0x3d74de40	0.059782267
126	0x3ea91785	0.33025756
127	0x3d077a88	0.03307584
128	0x3e5d3d4e	0.21605417
129	0xbe94fa76	-0.29097337
130	0x3e9216db	0.28533062
131	0xbe97d275	-0.29652753
132	0x3e84320b	0.2581943
133	0xbe7ad432	-0.24495009
134	0xbe57db1d	-0.21079679
135	0xbe32696a	-0.17423025
136	0x3d689770	0.056785047
137	0x3dcc9ae0	0.099904776
138	0x3eaded8f	0.33970305
139	0xbea665aa	-0.3249944
140	0x3e2dbc2a	0.1696631
141	0x3ea1d2d3	0.3160616
142	0x3e5c82a6	0.21534213
143	0xbdc42e68	-0.09579164
144	0x3e34b5c2	0.1764746
145	0xbe0ef02b	-0.13958804
146	0xbe04def6	-0.12975678
147	0xbda269cc	-0.079303354
148	0x3e1c3b8a	0.15257087
149	0x3df6a528	0.1204322
150	0x3ebf65cf	0.3738236
151	0x3e427532	0.18990019
152	0x3e9f0591	0.31058934
153	0x3daf1ad8	0.08550042
154	0xbeb94adc	-0.36189926
155	0xbdfcc098	-0.12341422
156	0xbe180146	-0.14844236
157	0xbea0d421	-0.31411842
158	0xbe4ae864	-0.19815212
159	0x3df5fddc	0.120113105
160	0xbe3898a6	-0.18026981
161	0xbe4981f6	-0.19678482
162	0xbebf8c33	-0.3741165
163	0xbd9196b4	-0.071088225
164	0x3de76b90	0.11299813
165	0xbe9ce324	-0.30642045
166	0x3d905c24	0.070488244
167	0xbe812f92	-0.25231606
168	0xbd129778	-0.035788983
169	0xbe6ac70c	-0.22927493
170	0x3eb9dc39	0.3630083
171	0xbe8567f7	-0.2605588
172	0x3d0f8448	0.035038263
173	0xbdb568bc	-0.08857867
174	0x3e074a22	0.13211873
175	0xbe3ea8a7	-0.18619023
176	0x3d193268	0.037401587
177	0xbe4806f5	-0.19533904
178	0xbe3dbd19	-0.18529166
179	0x3eb0fabf	0.34566304
180	0x3dde1878	0.10844511
181	0xbeb4130b	-0.3517078
182	0xbe7404a5	-0.23829897
183	0xbe54215b	-0.20715849
184	0x3e69a236	0.22815785
185	0x3e1af06e	0.15130779
186	0xbd306478	-0.043064564
187	0x3dff8654	0.12476793
188	0xbdb9e5c4	-0.090770274
189	0x3ea48e03	0.32139596
190	0xbdd79518	-0.10526484
191	0x3d5ddb68	0.05416432
192	0xbe200538	-0.15626991
193	0x3e816445	0.25271812
194	0xbe0cb8d5	-0.13742383
195	0xbdbc6fa8	-0.09200984
196	0x3e82e645	0.25566307
197	0xbdf57f14	-0.11987129
198	0xbd0790f0	-0.033097208
199	0xbc8c4570	-0.017122954
200	0x3d50d970	0.050988615
201	0xbe5495c8	-0.20760262
202	0xbe2be587	-0.16786776
203	0x3eb6a555	0.35673013
204	0x3e121d56	0.14269003
205	0x3dcecb98	0.10097426
206	0x3bdec280	0.0067980886
207	0xbe990fa1	-0.29894736
208	0x3e7b1012	0.24517849
209	0x3d5e8b58	0.054332107
210	0xbde87bc4	-0.113517314
211	0x3deb9780	0.11503506
212	0xbe387978	-0.18015087
213	0x3d27fad0	0.041010678
214	0x3eb9e817	0.36309883
215	0xbeb86c14	-0.36019957

weight f4 [36]
0	0x3f800000	1.0
1	0x3f800000	1.0
2	0x3f800000	1.0
3	0x3f800000	1.0
4	0x3f800000	1.0
5	0x3f800000	1.0
6	0x3f800000	1.0
7	0x3f800000	1.0
8	0x3f800000	1.0
9	0x3f800000	1.0
10	0x3f800000	1.0
11	0x3f800000	1.0
12	0x3f800000	1.0
13	0x3f800000	1.0
14	0x3f800000	1.0
15	0x3f800000	1.0
16	0x3f800000	1.0
17	0x3f800000	1.0
18	0x3f800000	1.0
19	0x3f800000	1.0
20	0x3f800000	1.0
21	0x3f800000	1.0
22	0x3f800000	1.0
23	0x3f800000	1.0
24	0x3f800000	1.0
25	0x3f800000	1.0
26	0x3f800000	1.0
27	0x3f800000	1.0
28	0x3f800000	1.0
29	0x3f800000	1.0
30	0x3f800000	1.0
31	0x3f800000	1.0
32	0x3f800000	1.0
33	0x3f800000	1.0
34	0x3f800000	1.0
35	0x3f800000	1.0

bias f4 [36]
0	0x00000000	0.0
1	0x00000000	0.0
2	0x00000000	0.0
3	0x00000000	0.0
4	0x00000000	0.0
5	0x00000000	0.0
6	0x00000000	0.0
7	0x00000000	0.0
8	0x00000000	0.0
9	0x00000000	0.0
10	0x00000000	0.0
11	0x00000000	0.0
12	0x00000000	0.0
13	0x00000000	0.0
14	0x00000000	0.0
15	0x00000000	0.0
16	0x00000000	0.0
17	0x00000000	0.0
18	0x00000000	0.0
19	0x00000000	0.0
20	0x00000000	0.0
21	0x00000000	0.0
22	0x00000000	0.0
23	0x00000000	0.0
24	0x00000000	0.0
25	0x00000000	0.0
26	0x00000000	0.0
27	0x00000000	0.0
28	0x00000000	0.0
29	0x00000000	0.0
30	0x00000000	0.0
31	0x00000000	0.0
32	0x00000000	0.0
33	0x00000000	0.0
34	0x00000000	0.0
35	0x00000000	0.0

running_mean f4 [36]
0	0x396de710	0.00022688159
1	0xbc01e464	-0.007927988
2	0xbbe6d00d	-0.0070438446
3	0xbbf31030	-0.007417701
4	0xbaccc89e	-0.0015623753
5	0x3b95023d	0.004547386
6	0xb9d383d0	-0.00040343264
7	0x3baf701c	0.0053539407
8	0x3c50663b	0.012719686
9	0x3b47a775	0.0030464802
10	0xbb298957	-0.0025869214
11	0xbc84ec70	-0.016226023
12	0xbb24b037	-0.0025129446
13	0xbb6a2605	-0.0035728228
14	0xbb020718	-0.0019840654
15	0x3c0315ab	0.0080007715
16	0x3c95006b	0.018188676
17	0x3b93f39d	0.004515125
18	0xbbd9c980	-0.006646335
19	0x3bfd26f5	0.0077255913
20	0x3b3a7e17	0.0028456503
21	0x3b96d1b7	0.0046026367
22	0xbb6ac712	-0.0035824222
23	0x3c28c114	0.01029994
24	0x3adb3df3	0.0016726836
25	0x3c01552f	0.0078938445
26	0xbc7a183d	-0.015264568
27	0xbc5f8990	-0.013643637
28	0xbb6b9eb8	-0.0035952758
29	0xba6019c3	-0.00085487607
30	0xbba8bd37	-0.0051495093
31	0x3b8e6c02	0.0043463716
32	0x3840bb11	4.5950586e-05
33	0xb998d54b	-0.00029150615
34	0x3b88be3d	0.004173069
35	0xbb135233	-0.0022479414

running_var f4 [36]
0	0x3f6d022c	0.9258144
1	0x3f755def	0.95846456
2	0x3f6ef952	0.9334918
3	0x3f6dcb9f	0.92888826
4	0x3f7503a4	0.9570868
5	0x3f6ea4aa	0.9322001
6	0x3f713a04	0.9422915
7	0x3f761c5b	0.96137017
8	0x3f6e9bf1	0.932067
9	0x3f6deb26	0.92936933
10	0x3f6da279	0.9282604
11	0x3f6e6d46	0.9313549
12	0x3f6b01c9	0.917996
13	0x3f6e157a	0.9300152
14	0x3f734686	0.95029485
15	0x3f6ee5c3	0.9331934
16	0x3f7126bc	0.9419973
17	0x3f6dd953	0.92909735
18	0x3f741129	0.95338684
19	0x3f6d2c2e	0.9264554
20	0x3f69d8f4	0.9134667
21	0x3f74a2cc	0.9556091
22	0x3f6e874b	0.9317519
23	0x3f772798	0.9654479
24	0x3f6a26dd	0.9146555
25	0x3f70a9da	0.9400917
26	0x3f6e6388	0.9312062
27	0x3f734ab1	0.95035845
28	0x3f71df02	0.9448091
29	0x3f70545d	0.9387873
30	0x3f70d738	0.940784
31	0x3f6cabac	0.9244945
32	0x3f6d5439	0.9270664
33	0x3f6f0fd4	0.93383527
34	0x3f6cacd2	0.924512
35	0x3f70866d	0.9395512

weight f4 [36, 1, 3, 3]
0	0xbdd246f6	-0.10267441
1	0x3d716d6c	0.058942243
2	0x3c140f90	0.0090369135
3	0xbd911d20	-0.07085633
4	0xbd9155a5	-0.070964135
5	0xbde6ca3e	-0.112690434
6	0xbd32f310	-0.043688834
7	0xbc122f70	-0.008922443
8	0xbc40cfe8	-0.011768319
9	0xbde87d61	-0.11352039
10	0x3da98406	0.082771346
11	0xbdbd22d3	-0.09235158
12	0xbd9776de	-0.07395719
13	0x3da368d4	0.07978979
14	0xbd94f944	-0.07274106
15	0x3d5a5054	0.053299263
16	0x3dc98476	0.09839718
17	0xbd27a862	-0.040932067
18	0x3df44e50	0.119289994
19	0x3db86df6	0.090053484
20	0x3c5038f0	0.012708887
21	0x3dc7d39e	0.0975716
22	0x3da81a3e	0.0820813
23	0x3d7e6bec	0.06211464
24	0x3bac1dc0	0.00525257
25	0x3d857b3c	0.06517646
26	0x3d85b1b6	0.06528036
27	0xbceaa410	-0.028642684
28	0x3d6c6380	0.057712078
29	0x3d176e0c	0.036970183
30	0x3caca478	0.021074519
31	0x3de63e24	0.11242321
32	0x3bb257c0	0.0054425895
33	0x3de45eae	0.11150871
34	0xbd63ba24	-0.05559744
35	0x3c521bf0	0.012824044
36	0x3dc8b530	0.09800184
37	0x3cd907f8	0.026493058
38	0x3bf40cc0	0.007447809
39	0x3d104a30	0.035227
40	0x3cdd8930	0.027042955
41	0xbdcb2b0c	-0.0992032
42	0xbde24c18	-0.1104967
43	0x3df01d88	0.11724383
44	0x3d5447a0	0.05182612
45	0xbcc2afc8	-0.02376546
46	0xbdc4f124	-0.096163064
47	0x3dcc9d3c	0.099909276
48	0x3cbef4d0	0.023310095
49	0xbcb7cb88	-0.022435918
50	0x3d7bae50	0.061445534
51	0x3d3892dc	0.04506193
52	0xbe020cb4	-0.12700158
53	0x3c30db50	0.010794476
54	0x3e03220a	0.12805954
55	0xbc0eaed0	-0.008708671
56	0x3d6fca00	0.05854225
57	0x3d84fd2a	0.064936
58	0xbdd1e61f	-0.1024897
59	0x3b8b2f20	0.004247561
60	0x3deb2070	0.11480796
61	0x3d17f820	0.037101865
62	0x3bce74a0	0.006300524
63	0xbde73a40	-0.11290407
64	0xbdd0bdbf	-0.10192441
65	0x3de3bd90	0.111201406
66	0x3dbebb04	0.09313014
67	0xbd02a170	-0.03189224
68	0xbd63cfc0	-0.055618048
69	0x3d0d9f14	0.034575537
70	0xbe0313bb	-0.12800495
71	0xbb4ad4c0	-0.0030949563
72	0x3befa200	0.007313013
73	0x3dab501c	0.08364889
74	0x3cb5bdb8	0.022185192
75	0x3d26d0e4	0.040726557
76	0x3defb608	0.117046416
77	0xbc9d7144	-0.019219048
78	0xbcac2808	-0.021015182
79	0x3d06dfd4	0.032928303
80	0x3e07d462	0.13264611
81	0x3d2dffac	0.042480156
82	0x3d8df720	0.06931901
83	0xbc887890	-0.016659051
84	0xbe05fb05	-0.13084038
85	0x3ce50290	0.027955323
86	0x3cbaadf8	0.022788033
87	0xbd1fd0f8	-0.039017648
88	0x3cafae68	0.021445468
89	0xbd786bc2	-0.06064964
90	0x3cf386a0	0.02972728
91	0x3d4ee850	0.05051452
92	0xbd0ec510	-0.034855902
93	0xbd46ab1a	-0.04850302
94	0x3d310454	0.04321702
95	0x3dd544fa	0.10413547
96	0xbca67844	-0.020321019
97	0x3d27f4f4	0.04100509
98	0x3e07dfaa	0.13268915
99	0xbd9010d5	-0.070344605
100	0x3d07a2bc	0.03311418
101	0xbdc182c2	-0.09448768
102	0xbd7f612e	-0.062348537
103	0x3dd63c7a	0.10460754
104	0xbd626f2a	-0.055281796
105	0xbdd05dee	-0.10174166
106	0x3dcdc4fa	0.10047336
107	0xbe07dffa	-0.13269034
108	0xbd2dd216	-0.04243668
109	0xbda96d84	-0.082728416
110	0x3c859c20	0.016309798
111	0x3b9ab120	0.004720822
112	0xbac1cd00	-0.0014785826
113	0xbd7bf5b4	-0.061513618
114	0xbbeab220	-0.0071623474
115	0xbd8e5032	-0.0694889
116	0xbc165680	-0.009175897
117	0xbd3bf5ea	-0.04588882
118	0xbdcbddae	-0.099543914
119	0xbc379100	-0.011204004
120	0x3d8dccca	0.06923826
121	0x3dd4ec6a	0.10396655
122	0x3cdf8138	0.027283296
123	0xbdd2eade	-0.102987036
124	0x3d589c74	0.05288358
125	0x3dcf7320	0.1012938
126	0x3cf6dca8	0.030134514
127	0x3c1dda50	0.009634569
128	0x3de0b570	0.109721065
129	0x3dea71a0	0.114474535
130	0x3c252800	0.0100803375
131	0x3d8e2852	0.06941284
132	0xbd44f15c	-0.04808174
133	0xbd4afd1c	-0.04955779
134	0xbdb6b978	-0.08922094
135	0x3cde5b48	0.027143136
136	0x3da1cbf8	0.07900232
137	0x3d553780	0.052054882
138	0xbde95958	-0.11393994
139	0x3d28bfb4	0.041198447
140	0xbcbe2f00	-0.02321577
141	0x3b9c28e0	0.004765615
142	0xbca3c1d8	-0.019989893
143	0x3d680c5c	0.05665241
144	0xbd9691fa	-0.073520616
145	0xbd5a9fca	-0.053375043
146	0x3dece60e	0.11567317
147	0xbcc4019c	-0.023926549
148	0x3bfc8240	0.0077059567
149	0xbd90696a	-0.07051356
150	0x3d852ffa	0.065032914
151	0xbde9de46	-0.114193484
152	0xbc8593a4	-0.016305752
153	0xbce2f3dc	-0.027704172
154	0xbc676e50	-0.014125422
155	0x3cd13138	0.025536165
156	0x3df06220	0.11737466
157	0xbe056234	-0.13025743
158	0xbdf60f83	-0.120146774
159	0x3c6a1800	0.014287949
160	0xbc4cbec0	-0.01249665
161	0x3bb5f660	0.005553052
162	0xbe00aac3	-0.1256514
163	0xbd9ff258	-0.07809895
164	0xbd38cace	-0.045115285
165	0xbc3b6870	-0.011438474
166	0xbe0815ef	-0.13289617
167	0x3ddaa486	0.106759116
168	0xbd30f68c	-0.043203875
169	0x3db69acc	0.08916244
170	0x3ddc33ae	0.107520446
171	0x3da5c5a0	0.080943346
172	0x3cfe4720	0.031039774
173	0x3d1e73d0	0.038684666
174	0xbd8a4a84	-0.06752494
175	0xbda9fc7e	-0.08300112
176	0xbd415116	-0.04719647
177	0xbdb0e874	-0.08638087
178	0xbc9ace74	-0.018897273
179	0xbcd3e040	-0.025863767
180	0x3dab26b0	0.083569884
181	0x3dff61d8	0.12469834
182	0xbda94872	-0.08265771
183	0xbd847b9d	-0.0646889
184	0x3d763fb8	0.06011936
185	0x3d5ab268	0.053392798
186	0xbd6d2738	-0.05789873
187	0x3de63190	0.11239922
188	0xbcbbda84	-0.022931345
189	0x3b97c8e0	0.0046321005
190	0x3d6d60d4	0.05795367
191	0x3d1a2d14	0.037640646
192	0xbcece8e0	-0.028919637
193	0xbdbfbb5c	-0.09361908
194	0x3db5bd24	0.08873966
195	0xbc8a1b18	-0.016858622
196	0xbd001f8c	-0.031280085
197	0x3be6a3e0	0.0070385784
198	0x3d48c30c	0.049014136
199	0x3d166598	0.03671798
200	0x3d324bb8	0.043529242
201	0x3adc9b80	0.001683101
202	0xbc1ce378	-0.009575717
203	0x3db82cf8	0.08992952
204	0x3ced1028	0.028938368
205	0x3d8ff94e	0.07029973
206	0x3d5fd308	0.054644614
207	0x3db2a72a	0.0872329
208	0x3d869cd0	0.06572878
209	0xbdf3fa18	-0.11912936
210	0x3cc0dab8	0.023541793
211	0x3d2ecf30	0.04267806
212	0x3c5e2d30	0.013560578
213	0x3d47f698	0.048819155
214	0x3df15f60	0.117857695
215	0xbd270f74	-0.04078622
216	0xbc8d2de4	-0.017233796
217	0x3c9f6f68	0.019462302
218	0x3dcbe108	0.09955031
219	0xbd58fd8a	-0.05297617
220	0x3ace4b80	0.0015739053
221	0xbdcd89d0	-0.10036051
222	0x3db111a2	0.08645941
223	0xbd0b1128	-0.03395191
224	0x3d841ed6	0.06451194
225	0x3e080554	0.13283283
226	0x3d8d12b2	0.068883315
227	0xbd37bd84	-0.04485847
228	0xbdeba474	-0.11505976
229	0xbd090bd8	-0.03345856
230	0xbdbbbeee	-0.09167276
231	0x3d1bd864	0.038048163
232	0xbb88a940	-0.004170567
233	0x3de9cdae	0.114161834
234	0x3d24f43c	0.040271983
235	0x3ddefefc	0.10888478
236	0xbdda64cd	-0.106637575
237	0x3d09b590	0.033620417
238	0xbdb3da84	-0.08781913
239	0xbddff7e1	-0.10935951
240	0xbd8d03d0	-0.06885493
241	0x3d90b7f2	0.07066335
242	0xbd7ea2ca	-0.062166966
243	0x3d268adc	0.04065977
244	0x3de57cd2	0.11205448
245	0x3d037f90	0.032104075
246	0xbdb61564	-0.08890799
247	0x3ddae8a8	0.10688907
248	0xbda56828	-0.08076507
249	0xbdbdb52e	-0.09263073
250	0xbdf98e05	-0.12185291
251	0x3e01d48c	0.12678736
252	0x3d1a6f84	0.037704006
253	0x3ddf3e9e	0.10900615
254	0xbda26d7e	-0.0793104
255	0xbc405680	-0.011739373

weight f4 [36]
0	0x3f800000	1.0
1	0x3f800000	1.0
2	0x3f800000	1.0
3	0x3f800000	1.0
4	0x3f800000	1.0
5	0x3f800000	1.0
6	0x3f800000	1.0
7	0x3f800000	1.0
8	0x3f800000	1.0
9	0x3f800000	1.0
10	0x3f800000	1.0
11	0x3f800000	1.0
12	0x3f800000	1.0
13	0x3f800000	1.0
14	0x3f800000	1.0
15	0x3f800000	1.0
16	0x3f800000	1.0
17	0x3f800000	1.0
18	0x3f800000	1.0
19	0x3f800000	1.0
20	0x3f800000	1.0
21	0x3f800000	1.0
22	0x3f800000	1.0
23	0x3f800000	1.0
24	0x3f800000	1.0
25	0x3f800000	1.0
26	0x3f800000	1.0
27	0x3f800000	1.0
28	0x3f800000	1.0
29	0x3f800000	1.0
30	0x3f800000	1.0
31	0x3f800000	1.0
32	0x3f800000	1.0
33	0x3f800000	1.0
34	0x3f800000	1.0
35	0x3f800000	1.0

bias f4 [36]
0	0x00000000	0.0
1	0x00000000	0.0
2	0x00000000	0.0
3	0x00000000	0.0
4	0x00000000	0.0
5	0x00000000	0.0
6	0x00000000	0.0
7	0x00000000	0.0
8	0x00000000	0.0
9	0x00000000	0.0
10	0x00000000	0.0
11	0x00000000	0.0
12	0x00000000	0.0
13	0x00000000	0.0
14	0x00000000	0.0
15	0x00000000	0.0
16	0x00000000	0.0
17	0x00000000	0.0
18	0x00000000	0.0
19	0x00000000	0.0
20	0x00000000	0.0
21	0x00000000	0.0
22	0x00000000	0.0
23	0x00000000	0.0
24	0x00000000	0.0
25	0x00000000	0.0
26	0x00000000	0.0
27	0x00000000	0.0
28	0x00000000	0.0
29	0x00000000	0.0
30	0x00000000	0.0
31	0x00000000	0.0
32	0x00000000	0.0
33	0x00000000	0.0
34	0x00000000	0.0
35	0x00000000	0.0

running_mean f4 [36]
0	0xbbbac787	-0.005700055
1	0xbaba1ed8	-0.0014199866
2	0x3c1eddac	0.009696405
3	0x3b9562ca	0.0045588957
4	0x3b1a4180	0.0023537576
5	0xb9f73208	-0.00047148787
6	0x3ba237c4	0.0049504954
7	0xbb4e1bd5	-0.0031449695
8	0x3bcc7953	0.006240049
9	0xba77c1cb	-0.00094511796
10	0x3ba45ced	0.0050159604
11	0xbb9372ef	-0.004499785
12	0xbb8a7526	-0.004225391
13	0x3acbc289	0.0015545647
14	0x3b235057	0.0024919712
15	0x3ab7416f	0.0013981293
16	0xbb28e8a0	-0.002577342
17	0xbb1a57c5	-0.002355085
18	0xbae3c402	-0.001737714
19	0xbb478d09	-0.0030449054
20	0x3b5d4e98	0.003376877
21	0x39af89ff	0.00033481416
22	0x3bc5d975	0.006037886
23	0x3b8210f1	0.0039693047
24	0x3a9718f5	0.0011527824
25	0x3a29a40d	0.0006471284
26	0xbb428044	-0.0029678503
27	0x3a25da0f	0.0006326744
28	0xbb2e2c7d	-0.002657681
29	0xbb5bdb00	-0.0033547282
30	0x3b6ef8e0	0.003646426
31	0xbb48bbd4	-0.0030629532
32	0xb9d788cf	-0.00041109926
33	0x3b0cc89b	0.0021481875
34	0x3a13fe93	0.00056455395
35	0xbba373b7	-0.0049881595

running_var f4 [36]
0	0x3f66adb3	0.90108794
1	0x3f66bea0	0.9013462
2	0x3f66cbb8	0.901546
3	0x3f66a145	0.9008983
4	0x3f66c931	0.90150744
5	0x3f66b5d6	0.9012121
6	0x3f66b3fb	0.9011838
7	0x3f66ecfe	0.9020537
8	0x3f66e81f	0.9019794
9	0x3f669ecb	0.9008605
10	0x3f66da94	0.90177274
11	0x3f66c296	0.90140665
12	0x3f668915	0.9005292
13	0x3f66c9fd	0.9015196
14	0x3f66cf5b	0.9016015
15	0x3f669440	0.9006996
16	0x3f66b071	0.9011298
17	0x3f66beb5	0.90134746
18	0x3f671064	0.90259385
19	0x3f66c4b4	0.90143895
20	0x3f66ec16	0.9020399
21	0x3f668e8b	0.90061253
22	0x3f6690c5	0.9006465
23	0x3f66e7da	0.9019753
24	0x3f66a1cd	0.9009064
25	0x3f66d07c	0.9016187
26	0x3f66ddb9	0.9018207
27	0x3f66cd66	0.90157163
28	0x3f66c28a	0.90140593
29	0x3f66b33f	0.9011726
30	0x3f66b88e	0.9012536
31	0x3f66983b	0.90076035
32	0x3f66ba9e	0.90128505
33	0x3f669925	0.9007743
34	0x3f66b5b0	0.90120983
35	0x3f66cec4	0.9015925
