trained_model/FIAT(BongNet)_Trace.pt (torch, 208884 bytes, 139 tensors)

weight f4 [3, 1, 3, 3]
000000 2c ab b2 bd 1c a0 0b 3e 80 b3 fc 3d 78 81 8d be
       -0.08724055 0.13635296 0.123389244 -0.2763784
000010 70 33 ec bd 30 12 c9 3e 50 b3 49 3e e0 45 a2 bd
       -0.115332484 0.39271688 0.19697309 -0.07923484
000020 8c 0a 52 3e 94 f1 2f 3e 16 39 98 3e 94 c2 80 3d
       0.20511836 0.17181998 0.29731053 0.06287113
000030 88 97 d8 3d 98 b2 84 3e d1 67 b4 be 00 8a 30 bb
       0.10575777 0.25917506 -0.35235456 -0.0026937723
000040 84 97 21 3e c8 b2 16 3e 0c 84 c9 3e e8 95 4a 3e
       0.15780455 0.14716637 0.39358556 0.19783747
000050 ea 14 ae be 9c 01 fd bd c2 86 06 be 2c 9c 08 be
       -0.3400033 -0.123538226 -0.13137344 -0.13340825
000060 d0 7c cd 3c 50 79 7e 3d 78 bf 77 3e
       0.02508393 0.06212741 0.24194133

weight f4 [3]
000000 00 00 80 3f 00 00 80 3f 00 00 80 3f
       1.0 1.0 1.0

bias f4 [3]
000000 00 00 00 00 00 00 00 00 00 00 00 00
       0.0 0.0 0.0

running_mean f4 [3]
000000 49 b7 c7 3c ec 17 29 3d df 80 12 3c
       0.02437939 0.04128258 0.008941858

running_var f4 [3]
000000 0d 36 67 3f 5e 3c 67 3f 61 49 67 3f
       0.9031685 0.9032649 0.9034634

weight f4 [12, 2, 1, 1]
000000 86 31 f4 be 68 33 87 3d e0 7f a7 3c 9c 2c 06 3f
       -0.47694033 0.06601602 0.020446718 0.5241182
000010 cc 73 01 bf 68 e6 f6 bd 00 a3 aa bb 40 9e 76 be
       -0.50567317 -0.12055665 -0.0052074194 -0.24083805
000020 86 fb f1 be 40 7a 5d 3e 96 d5 24 bf f1 9f e8 be
       -0.4726221 0.21628666 -0.64388406 -0.45434526
000030 3c 2e c5 3e 10 64 93 bd 44 00 1d 3f cc a7 d8 3e
       0.38511837 -0.0719682 0.6132853 0.4231552
000040 31 4a e7 be e4 56 27 3f 50 63 fe be c6 7a 70 be
       -0.4517379 0.6536696 -0.49685144 -0.23484334
000050 f7 66 c4 be 2f ec 18 bf 1a 28 aa 3e 7c 0c d9 3e
       -0.38359806 -0.5973539 0.3323372 0.42392337

weight f4 [12]
000000 00 00 80 3f 00 00 80 3f 00 00 80 3f 00 00 80 3f
       1.0 1.0 1.0 1.0
000010 00 00 80 3f 00 00 80 3f 00 00 80 3f 00 00 80 3f
       1.0 1.0 1.0 1.0
000020 00 00 80 3f 00 00 80 3f 00 00 80 3f 00 00 80 3f
       1.0 1.0 1.0 1.0

bias f4 [12]
000000 00 00 00 00 00 00 00 00 00 00 00 00 00 00 00 00
       0.0 0.0 0.0 0.0
000010 00 00 00 00 00 00 00 00 00 00 00 00 00 00 00 00
       0.0 0.0 0.0 0.0
000020 00 00 00 00 00 00 00 00 00 00 00 00 00 00 00 00
       0.0 0.0 0.0 0.0

running_mean f4 [12]
000000 da 35 e0 bb c7 92 14 3c b7 d8 2a bc ce 41 86 bb
       -0.006842357 0.009068198 -0.010427645 -0.0040972
000010 86 db 8b bb 5f cf 95 bc 9a dc aa 3b 9f 61 8d 3c
       -0.0042681126 -0.018287359 0.005214286 0.017258463
000020 60 66 5c 3b e6 9e 47 bc 4b d0 85 bc 55 53 4e 3c
       0.0033630356 -0.01218388 -0.016334673 0.01259311

running_var f4 [12]
000000 58 f6 67 3f e1 9f 68 3f 0f c3 68 3f 1b dd 66 3f
       0.90610266 0.90868956 0.90922636 0.9018113
000010 66 e0 67 3f fe bb 6c 3f c4 65 67 3f b0 0c 6c 3f
       0.9057678 0.92474353 0.9038966 0.9220686
000020 72 aa 69 3f 6e 52 69 3f d3 91 6b 3f 5d 6a 69 3f
       0.91275704 0.911414 0.92019385 0.9117792

weight f4 [12, 1, 3, 3]
000000 d1 ea 56 3e f1 45 04 3e 23 96 2d be c4 60 00 bd
       0.20988013 0.12917306 -0.16951804 -0.031342283
000010 30 07 a4 3c 91 f7 e8 bd 00 9a 9a bc f8 59 0b bd
       0.020022959 -0.113753445 -0.018872261 -0.034021348
000020 12 7f a7 3d d9 f0 f9 bd 0a cc 32 be 0c 75 5b 3d
       0.081785336 -0.12204141 -0.17460647 0.05357842
000030 b8 1b 8c bc 9e 78 f4 bd 22 df b6 3d a0 25 5e be
       -0.017103061 -0.119370684 0.08929278 -0.2169404
000040 1a 19 9f 3d e1 93 3a 3e 92 55 eb 3d 5a 5e e8 3d
       0.077684596 0.18220474 0.114909306 0.11346121
000050 35 85 3d 3e ea 4c c0 bd 50 9e 2f be 5d 4a 4a 3e
       0.18507846 -0.0938967 -0.17150235 0.1975493
000060 ba f5 87 3d 52 49 f7 3d d5 68 5a 3e 04 d8 78 3d
       0.066386655 0.120745316 0.21329053 0.060752884
000070 8f 1f 11 3e f7 38 f0 bd f4 df 74 3d 36 85 e4 3d
       0.14172195 -0.11729615 0.05978389 0.111582205
000080 72 ac 8c 3d df 32 53 be 35 49 21 3e d8 18 90 bc
       0.06868829 -0.20624875 0.15750583 -0.017589971
000090 c2 16 26 be 8f f9 09 3e 0b 7e 4c be 68 99 e6 3c
       -0.16219619 0.13474105 -0.19969957 0.028149322
0000a0 00 0e bf b9 08 42 f8 bd 88 ca a8 bc b3 66 4a 3e
       -0.0003644079 -0.121219695 -0.020604387 0.19765739
0000b0 b8 6e 2a be a9 8a 29 3e cf d3 67 3e 71 8e 38 3e
       -0.16643798 0.16556801 0.22639392 0.18023087
0000c0 a0 d8 c0 bb aa ec 95 bd ed b3 08 3e fc b8 2d be
       -0.0058851987 -0.07320531 0.13349886 -0.16965097
0000d0 1c a9 03 3d 5a 95 48 be 53 83 51 be ca 54 f2 3d
       0.032143697 -0.19588223 -0.20460252 0.118325785
0000e0 2c f1 00 be 8f 3b 58 be 26 68 96 3d e8 cb 0b bd
       -0.12592 -0.2111647 0.073440835 -0.034130007
0000f0 ce b9 d8 3d 69 92 62 3e 29 48 51 3e 65 7f 27 3e
       0.105823144 0.22126164 0.20437683 0.16357191
000100 b0 2e ad bd 84 da 0b bd 8c 5e 09 3d 3e ec a3 bd
       -0.084561706 -0.03414394 0.033537433 -0.08004044
000110 3f 92 19 3e de 0d 1c be d3 2e 3f be 39 9e 29 3e
       0.14997195 -0.15239665 -0.18670206 0.16564263
000120 b1 40 5a be ff ac 55 3e 3a 08 41 be 18 7a f0 3c
       -0.2131374 0.20866774 -0.18850794 0.029355094
000130 38 da 4c be 69 29 4a 3e a0 1a 99 bc 58 3d ce 3c
       -0.20005119 0.19742359 -0.018689454 0.025175735
000140 e5 06 57 be 8d d2 4b 3e 50 e5 7c 3c f4 ee 46 be
       -0.20998724 0.19904537 0.015435532 -0.19427091
000150 f8 b1 02 bd e6 b0 02 be b0 10 10 be bc 4b 25 3d
       -0.031908005 -0.12762794 -0.14068866 0.04035543
000160 ed bf 36 3e 2a 69 63 be c8 a9 05 be 24 a5 0b 3d
       0.17846651 -0.22208086 -0.13053048 0.034093037
000170 0c f7 1e 3d 06 2f d2 bd e6 2e 85 3d 76 70 d3 bd
       0.03880982 -0.10262875 0.06503086 -0.103241846
000180 70 34 33 3c 4c 0d 40 3d 8c f3 7c 3d 0b df 5f be
       0.010937795 0.04688768 0.061755702 -0.21862428
000190 b9 9e 42 3e d0 15 2c bc ac 32 19 3d 99 29 53 3e
       0.1900586 -0.010503247 0.03740184 0.20621337
0001a0 e6 b7 81 3d 5a 90 e0 3d 30 ea 8d 3c c5 b8 22 3e
       0.06333904 0.10965033 0.017323583 0.15890796

weight f4 [12]
000000 00 00 80 3f 00 00 80 3f 00 00 80 3f 00 00 80 3f
       1.0 1.0 1.0 1.0
000010 00 00 80 3f 00 00 80 3f 00 00 80 3f 00 00 80 3f
       1.0 1.0 1.0 1.0
000020 00 00 80 3f 00 00 80 3f 00 00 80 3f 00 00 80 3f
       1.0 1.0 1.0 1.0

bias f4 [12]
000000 00 00 00 00 00 00 00 00 00 00 00 00 00 00 00 00
       0.0 0.0 0.0 0.0
000010 00 00 00 00 00 00 00 00 00 00 00 00 00 00 00 00
       0.0 0.0 0.0 0.0
000020 00 00 00 00 00 00 00 00 00 00 00 00 00 00 00 00
       0.0 0.0 0.0 0.0

running_mean f4 [12]
000000 f0 5d 86 3a 7f af 80 bb 3c 1a 2e 3c 7d ac 87 3b
       0.0010251384 -0.0039271708 0.010626372 0.0041404353
000010 4e 23 9a bb 64 1a 93 3b 7f df 2e 3b 05 33 f1 b9
       -0.0047039157 0.00448923 0.0026683507 -0.00046005115
000020 a0 ca c5 bb 17 03 8f bb 7b bd ae ba 55 7f 16 3c
       -0.0060361177 -0.004364382 -0.0013331616 0.009185632

running_var f4 [12]
000000 df bc 66 3f 5e 5b 68 3f 4c 0b 67 3f 81 d6 66 3f
       0.90131944 0.90764415 0.9025161 0.90171057
000010 84 2d 67 3f 99 1e 67 3f 46 9b 69 3f 55 46 68 3f
       0.90303826 0.90281063 0.91252553 0.9073232
000020 af 1d 6a 3f 31 12 67 3f f5 91 66 3f aa ae 68 3f
       0.91451544 0.9026213 0.9006646 0.90891516

weight f4 [2, 12, 1, 1]
000000 a6 42 0c 3f f8 9f 03 bf f8 60 a6 bd 28 35 61 3e
       0.547892 -0.5141597 -0.08123964 0.21992934
000010 a0 dd c7 be 1b b1 05 bf 84 c8 82 3e c0 a4 2b 3e
       -0.39036274 -0.52223366 0.25543606 0.16762066
000020 80 ef b6 3c 60 41 0e 3d ba e8 f6 be 88 56 a4 bd
       0.022331 0.034730315 -0.4822443 -0.08024317
000030 a0 ef a5 3d fc e6 15 bf 67 67 14 bf 02 92 b5 be
       0.081023455 -0.5855558 -0.5797028 -0.35462958
000040 d0 68 1a 3f df 7a 0a bf f2 2f c5 be 5b 6c e6 be
       0.6031618 -0.54093736 -0.38513142 -0.45004544
000050 f8 bf 0a be 68 df 00 3f 6a 4d 21 3f 30 cc d1 be
       -0.13549793 0.5034089 0.6300875 -0.40976095

weight f4 [2]
000000 00 00 80 3f 00 00 80 3f
       1.0 1.0

bias f4 [2]
000000 00 00 00 00 00 00 00 00
       0.0 0.0

running_mean f4 [2]
000000 55 3d 5e bc 92 ea d7 bc
       -0.013564427 -0.026356969

running_var f4 [2]
000000 8e de 6d 3f 9b a0 80 3f
       0.92917717 1.0049013

weight f4 [12, 2, 1, 1]
000000 20 36 9e be 04 0f 25 3f be 0c ae be 26 c8 9c 3e
       -0.3090067 0.6447604 -0.33994097 0.3062145
000010 70 16 83 bd 30 56 04 3f e3 1c 19 bf 30 e7 11 bd
       -0.06400764 0.5169401 -0.598097 -0.03562087
000020 c0 86 bb 3c 92 a7 b8 be dc d2 ee 3e 72 e9 21 3f
       0.022891402 -0.36065346 0.46645248 0.63246834
000030 5c a5 8c be 3c 93 77 3e b2 62 0a 3f 5c 22 77 3e
       -0.2746991 0.24177259 0.5405685 0.24134201
000040 c2 f3 0f bf 29 6f 11 bf 54 33 b6 be 59 ca 95 be
       -0.5623132 -0.5681024 -0.35586035 -0.29255942
000050 a7 6f 82 be f8 ee c4 3d bc df e6 3e 90 64 8e 3d
       -0.2547581 0.09615892 0.4509257 0.069527745

weight f4 [12]
000000 00 00 80 3f 00 00 80 3f 00 00 80 3f 00 00 80 3f
       1.0 1.0 1.0 1.0
000010 00 00 80 3f 00 00 80 3f 00 00 80 3f 00 00 80 3f
       1.0 1.0 1.0 1.0
000020 00 00 80 3f 00 00 80 3f 00 00 80 3f 00 00 80 3f
       1.0 1.0 1.0 1.0

bias f4 [12]
000000 00 00 00 00 00 00 00 00 00 00 00 00 00 00 00 00
       0.0 0.0 0.0 0.0
000010 00 00 00 00 00 00 00 00 00 00 00 00 00 00 00 00
       0.0 0.0 0.0 0.0
000020 00 00 00 00 00 00 00 00 00 00 00 00 00 00 00 00
       0.0 0.0 0.0 0.0

running_mean f4 [12]
000000 85 37 b7 3b 53 24 13 ba 2f 26 f7 3b 5a e3 2c bc
       0.0055913352 -0.0005613018 0.0075423936 -0.010552252
000010 d2 4d b8 bb df e7 95 3c 77 aa 0f ba 03 52 55 3c
       -0.0056245113 0.018299041 -0.00054804183 0.013020041
000020 8c 33 9a bc 27 e7 30 bc 1b 11 2d bb 09 fd 0d 3c
       -0.018823408 -0.0107972985 -0.00264079 0.008666285

running_var f4 [12]
000000 f3 68 75 3f 5c 06 6d 3f a4 1c 6e 3f f4 e9 72 3f
       0.95863265 0.9258783 0.9301245 0.94888234
000010 7c 1b 6a 3f d3 86 79 3f eb a5 6a 3f 57 51 72 3f
       0.9144819 0.9747135 0.9165942 0.94655365
000020 8e c8 7a 3f f8 4e 6d 3f a7 e8 68 3f 54 a4 6d 3f
       0.9796227 0.9269862 0.9098 0.9282887

weight f4 [12, 1, 3, 3]
000000 ee ac 96 3d 10 64 25 bd 18 36 5f be 60 51 d5 bc
       0.073572025 -0.04037863 -0.21797979 -0.02603978
000010 e6 e5 cd bd c0 a0 54 bd 21 65 01 3e 58 29 1f be
       -0.10053615 -0.051911116 0.12636234 -0.15543115
000020 94 e8 89 bd f7 4e 04 3e 12 f0 e3 3d c2 05 89 3d
       -0.06733814 0.12920748 0.11129774 0.06690551
000030 61 28 e7 bd a4 98 a0 bd e0 28 67 be 58 9c f5 3c
       -0.112869985 -0.07841614 -0.22574186 0.029981777
000040 c4 06 60 bd 80 c4 5f be a0 52 06 be 0c 2f 61 3d
       -0.054693952 -0.21852303 -0.13117456 0.054976508
000050 14 9e 2a 3d 41 c1 48 be b2 c0 81 3d 9c f0 6b bd
       0.04165466 -0.1960497 0.06335582 -0.05760251
000060 ce 64 a1 3d f4 a8 65 bd e1 ce 60 3e c0 2a cf 3b
       0.07880555 -0.05606933 0.21953918 0.006322235
000070 e8 1c 15 be a0 9d 92 3c 7c ea 29 bd d4 67 8e bd
       -0.14561808 0.017897427 -0.041483387 -0.069533974
000080 90 e8 0f be b1 4d 53 be 6d 1c 25 3e 5c 78 65 3d
       -0.1405356 -0.20635106 0.16124125 0.056022987
000090 a4 49 4b 3d e0 3a 57 bc 08 41 01 be 98 71 7a bd
       0.049630776 -0.0131365955 -0.12622464 -0.061143488
0000a0 0f 8e 5e 3e 17 49 57 be a8 9c 0a be e8 0b c5 bd
       0.21733879 -0.21023975 -0.13536322 -0.096214116
0000b0 19 ef dd bd fe e5 a3 3d 67 fa 1e 3e 88 58 cc bd
       -0.1083662 0.08002852 0.15525208 -0.099778235
0000c0 c2 06 e8 bd 3e 69 f2 3d 9e 04 82 bd 32 38 20 be
       -0.11329414 0.118364796 -0.06348537 -0.15646437
0000d0 11 02 15 be 35 95 48 3e c0 55 43 be d4 54 a0 bd
       -0.1455157 0.19588168 -0.1907568 -0.0782868
0000e0 58 cb ec 3c b9 d3 20 3e 48 e2 a4 bd ef 2b 56 3e
       0.028905556 0.15705766 -0.08050972 0.20915197
0000f0 80 c4 68 3b 0a 06 83 3d ad db 59 3e f3 d3 55 3e
       0.0035517514 0.06397636 0.21275206 0.20881633
000100 30 ee 7a bd d8 55 0a be 4c e5 22 3d 29 73 2b 3e
       -0.06126231 -0.1350931 0.039769456 0.16743149
000110 ad 74 65 3e 22 ee dd 3d cc 06 8b bd 4c ee 13 3d
       0.2240779 0.10836436 -0.06788406 0.03611593
000120 8f 0a 43 3e 26 65 09 be 09 9e d5 bd c2 48 b6 3d
       0.19046997 -0.13417491 -0.104305334 0.08900596
000130 e3 ab 27 3e 4a 34 8c bd 8d 7f 65 3e cc fb 69 3d
       0.16374163 -0.06845911 0.22411938 0.057124898
000140 3a 27 b8 3d 57 bd 4f be 00 82 9f bc 40 61 58 bd
       0.08991857 -0.20287071 -0.019471169 -0.05282712
000150 08 e2 30 be 8f d6 2f be b0 e7 63 bd 7c 77 41 3d
       -0.17273724 -0.17171691 -0.055640876 0.04723309
000160 8a f7 04 be 06 ca ff 3d d2 15 e3 bd 74 8f cd bd
       -0.12985054 0.12489705 -0.11088146 -0.10037127
000170 de e2 d8 3d 6f 7b 03 3e 7f f8 52 3e ea 68 14 be
       0.105901465 0.12840055 0.20602606 -0.14493147
000180 34 db 72 3d 94 a2 da bd ae 91 02 be 23 d7 4f 3e
       0.05929108 -0.106755406 -0.12750885 0.20296912
000190 f8 e9 b8 bd 1b ba 38 3e af 3a 37 be d5 3c 4c be
       -0.09029001 0.18039744 -0.1789348 -0.1994508
0001a0 26 55 34 be 02 a8 c4 3d 4a 56 8a bd 65 c3 26 be
       -0.17610607 0.096023574 -0.067547396 -0.16285475

weight f4 [12]
000000 00 00 80 3f 00 00 80 3f 00 00 80 3f 00 00 80 3f
       1.0 1.0 1.0 1.0
000010 00 00 80 3f 00 00 80 3f 00 00 80 3f 00 00 80 3f
       1.0 1.0 1.0 1.0
000020 00 00 80 3f 00 00 80 3f 00 00 80 3f 00 00 80 3f
       1.0 1.0 1.0 1.0

bias f4 [12]
000000 00 00 00 00 00 00 00 00 00 00 00 00 00 00 00 00
       0.0 0.0 0.0 0.0
000010 00 00 00 00 00 00 00 00 00 00 00 00 00 00 00 00
       0.0 0.0 0.0 0.0
000020 00 00 00 00 00 00 00 00 00 00 00 00 00 00 00 00
       0.0 0.0 0.0 0.0

running_mean f4 [12]
000000 78 6f f9 bb 3e 40 b9 bb 6b 61 e4 39 96 7c c0 bb
       -0.007612165 -0.00565341 0.0004356013 -0.005874227
000010 5a fd f7 bb c8 80 d8 b9 52 8e a9 3b a1 4e 0b 3c
       -0.0075680437 -0.0004129468 0.0051744366 0.008502633
000020 54 19 06 3c a7 ec 26 bc 7f f6 b5 ba 8f cc d8 bb
       0.00818475 -0.010188258 -0.0013882666 -0.006616182

running_var f4 [12]
000000 ef 54 67 3f 18 9e 67 3f b8 52 67 3f ce 3f 67 3f
       0.90363973 0.90475607 0.90360594 0.90331733
000010 dd f6 67 3f a6 65 67 3f ae f5 67 3f e6 90 67 3f
       0.9061106 0.9038948 0.9060925 0.9045547
000020 1c 16 68 3f a3 ea 67 3f 26 67 67 3f 16 0c 68 3f
       0.90658736 0.905924 0.9039177 0.9064344

weight f4 [2, 12, 1, 1]
000000 5a 07 90 be 58 8c fe bd ac 8e ca 3e c6 71 f1 be
       -0.2813061 -0.12429112 0.39561975 -0.47157115
000010 c4 b5 df be 82 1f 87 3e 30 15 c3 3d d4 3b 9e 3e
       -0.43693364 0.26391226 0.095255256 0.3090502
000020 0e 55 09 3f b4 c3 09 be 14 ec 5d 3e 96 7d 86 3e
       0.5364541 -0.13453561 0.21672088 0.2626769
000030 d0 40 53 3e 00 5b 8c 3d b6 cb 1b bf f6 e6 7e be
       0.20630193 0.068532944 -0.60857713 -0.24892792
000040 86 3b 40 be 64 11 02 bf 42 88 1f 3f c8 3a 86 bd
       -0.18772706 -0.50807786 0.6231729 -0.065541804
000050 1c f1 ee be 51 92 1c bf 2c fd 0f 3f d2 d8 1a 3f
       -0.46668327 -0.6116076 0.56245685 0.6048709

weight f4 [2]
000000 00 00 80 3f 00 00 80 3f
       1.0 1.0

bias f4 [2]
000000 00 00 00 00 00 00 00 00
       0.0 0.0

running_mean f4 [2]
000000 7b 5f 2a 3c 3a 18 1e bc
       0.010398741 -0.009649331

running_var f4 [2]
000000 9a db 71 3f 33 87 78 3f
       0.9447571 0.970813

weight f4 [12, 2, 1, 1]
000000 96 ed 8d 3e 28 92 c8 bd c5 ee 01 bf 9c 18 0e 3e
       0.27720326 -0.09793502 -0.5075496 0.13876575
000010 e2 ba 0a bf 92 13 e8 be b2 64 bd be 40 03 0b bd
       -0.5419141 -0.4532743 -0.36990887 -0.033938646
000020 a6 00 a1 be 68 ac f0 3e 42 a3 cc be 38 4d 4c be
       -0.31445807 0.47006536 -0.39968306 -0.19951332
000030 14 03 5b 3e 64 83 b4 3e 20 b7 b3 3e 87 b4 8e be
       0.21387893 0.35256493 0.3510065 -0.27872106
000040 87 79 8d be 91 17 24 bf 3b 97 d3 be f8 ba c0 3e
       -0.2763178 -0.6409846 -0.41326317 0.37642646
000050 ea ea 0d 3f ec 69 02 3e c0 4b d3 bd 98 a8 b2 3e
       0.55436575 0.12735718 -0.103171825 0.34894252

weight f4 [12]
000000 00 00 80 3f 00 00 80 3f 00 00 80 3f 00 00 80 3f
       1.0 1.0 1.0 1.0
000010 00 00 80 3f 00 00 80 3f 00 00 80 3f 00 00 80 3f
       1.0 1.0 1.0 1.0
000020 00 00 80 3f 00 00 80 3f 00 00 80 3f 00 00 80 3f
       1.0 1.0 1.0 1.0

bias f4 [12]
000000 00 00 00 00 00 00 00 00 00 00 00 00 00 00 00 00
       0.0 0.0 0.0 0.0
000010 00 00 00 00 00 00 00 00 00 00 00 00 00 00 00 00
       0.0 0.0 0.0 0.0
000020 00 00 00 00 00 00 00 00 00 00 00 00 00 00 00 00
       0.0 0.0 0.0 0.0

running_mean f4 [12]
000000 4f a1 c7 3a 57 7c 69 bb 0b 6c 7a bc 59 92 a9 bb
       0.0015230569 -0.003562709 -0.0152845485 -0.0051749167
000010 58 eb a7 3b 10 8a 0e bc 63 26 19 3c b5 4e 86 ba
       0.0051244907 -0.008699909 0.009347531 -0.0010246845
000020 6f df 7f bc 27 73 0b 3b 0a fd 16 3c 73 e3 b0 3b
       -0.015617236 0.0021278353 0.009215603 0.005398208

running_var f4 [12]
000000 5c c0 6a 3f a3 00 74 3f 02 ef 78 3f 31 4d 6c 3f
       0.9169977 0.9531347 0.97239697 0.92305285
000010 39 07 78 3f 43 fb 6d 3f c9 0f 6d 3f d1 55 71 3f
       0.9688602 0.9296152 0.9260221 0.9427157
000020 67 61 7a 3f f7 8b 77 3f 6c 8e 73 3f 9f 5c 6d 3f
       0.97804874 0.96697944 0.95139194 0.92719454

weight f4 [12, 1, 3, 3]
000000 52 31 f3 3d 92 82 c8 3d 8c dd 7b 3d 15 c1 46 be
       0.118746415 0.09790529 0.06149058 -0.19409592
000010 73 82 3e 3e 54 62 34 bd 34 ac e5 bd 6e 9a fb bd
       0.1860445 -0.044039086 -0.11214486 -0.122853145
000020 7f 4b 5b 3e 68 a2 dd bc 5c 06 2e 3d f6 2f ee 3d
       0.21415518 -0.02705498 0.042486534 0.116302416
000030 b3 a2 13 3e 77 8e ee bd 95 42 35 3e 7a d1 97 bd
       0.14417534 -0.11648267 0.1770118 -0.07413001
000040 52 d0 0e be 8c 9e 84 bd a9 0a 3f be 0c 04 3e 3d
       -0.13946655 -0.06475553 -0.1865641 0.04639058
000050 70 ee 70 bd 5b 6b 21 be e0 c5 bb bb 0f c4 fa bd
       -0.05882114 -0.15763609 -0.0057303756 -0.122444265
000060 d1 5c 06 3e 2f 82 3d 3e 15 25 42 be 88 1f d5 3c
       0.13121344 0.18506692 -0.18959458 0.026016012
000070 00 ac 50 39 d4 87 7c 3d e8 79 0b bd 47 ef 02 be
       0.00019900501 0.061652973 -0.034051806 -0.1278659
000080 2b 52 53 3e 40 45 4f bc b4 d7 61 3d d3 0b 28 3e
       0.20636813 -0.012650788 0.05513735 0.1641076
000090 47 98 66 3e 86 26 9e 3d a4 8b 74 3d 08 a3 1a be
       0.22519027 0.077221915 0.059703484 -0.15101254
0000a0 54 fa 65 bd 8b 36 4b 3e 87 8d 55 3e 42 df b4 3d
       -0.056146935 0.19845025 0.2085477 0.088316455
0000b0 42 82 a6 3d 1d 10 4b 3e a4 a8 82 bd 20 e1 33 3c
       0.081303135 0.19830365 -0.06379822 0.010978967
0000c0 c6 af ed bd 20 7b 75 bd ec 74 2c bd a8 c0 d4 3c
       -0.11605792 -0.059931874 -0.042103693 0.025970772
0000d0 c8 0e 2a bd 50 4e 5e 3c 0d 3a 33 3e 46 ab 81 bd
       -0.041518003 0.013568476 0.17502613 -0.06331496
0000e0 74 c7 2e bd 1f c5 06 3e 84 6b 6d 3d 54 0b 63 3d
       -0.042670682 0.13161133 0.057963863 0.055430725
0000f0 57 86 53 3e a0 6d 49 bc dc 4a 5e bd 3a 84 f1 3d
       0.20656715 -0.012294203 -0.05427061 0.11792798
000100 f2 59 59 be a3 f0 3b be dc 9e 62 3d 46 ea c6 3d
       -0.21225718 -0.18353514 0.05532728 0.09712653
000110 68 e4 8b bd 9d 9f 20 3e 2f bf 0a be ab b0 02 3e
       -0.068306744 0.15685888 -0.13549493 0.12762706
000120 90 0b 2d be 94 89 07 bd 52 cc 17 be 3a 84 8f bd
       -0.16898942 -0.03309019 -0.14824036 -0.07007642
000130 18 a4 93 3c 44 99 65 bd be 2f 88 3d ec 41 4f be
       0.018022582 -0.05605437 0.06649731 -0.20239991
000140 68 33 47 bd 30 b2 29 3c 50 12 8e bc 74 6d 21 bd
       -0.04863301 0.010357425 -0.017342716 -0.039411023
000150 e0 80 43 be 28 50 82 3c e2 f4 ca bd 94 f7 40 bd
       -0.1909213 0.015907362 -0.09909989 -0.04711111
000160 3c 61 27 bd 26 68 0d be 7c 28 6a 3d b2 4b b4 3d
       -0.040864214 -0.1380926 0.057167515 0.088035
000170 ec 80 55 be d8 c7 cf bd f1 98 31 3e 5c 89 62 3d
       -0.20849961 -0.10145539 0.17343499 0.055306777
000180 a9 bc 28 3e 3f 84 23 be 1a b0 e0 3d 0a 4b db 3d
       0.16478218 -0.15968417 0.10971089 0.10707672
000190 fe 96 b1 3d 99 e5 47 3e db 83 24 3e 65 53 65 3e
       0.086713776 0.19521178 0.16065924 0.22395094
0001a0 c8 26 8b 3c 7c 34 6e bd 00 22 46 bb 28 c1 22 be
       0.016986266 -0.05815552 -0.0030232668 -0.15893996

weight f4 [12]
000000 00 00 80 3f 00 00 80 3f 00 00 80 3f 00 00 80 3f
       1.0 1.0 1.0 1.0
000010 00 00 80 3f 00 00 80 3f 00 00 80 3f 00 00 80 3f
       1.0 1.0 1.0 1.0
000020 00 00 80 3f 00 00 80 3f 00 00 80 3f 00 00 80 3f
       1.0 1.0 1.0 1.0

bias f4 [12]
000000 00 00 00 00 00 00 00 00 00 00 00 00 00 00 00 00
       0.0 0.0 0.0 0.0
000010 00 00 00 00 00 00 00 00 00 00 00 00 00 00 00 00
       0.0 0.0 0.0 0.0
000020 00 00 00 00 00 00 00 00 00 00 00 00 00 00 00 00
       0.0 0.0 0.0 0.0

running_mean f4 [12]
000000 fb 80 57 3b 30 6d e5 39 60 68 b8 bb b1 8c 9c 3b
       0.0032883275 0.00043759635 -0.005627677 0.004777514
000010 f5 30 34 3c fd d9 a8 ba ed 3c f0 3b e4 2d 82 ba
       0.010998 -0.0012882348 0.0073314817 -0.0009931889
000020 d9 81 22 bc 3f 8e 08 bc b0 91 3e 3b a3 28 08 3c
       -0.009918653 -0.008334695 0.0029078536 0.00831047

running_var f4 [12]
000000 9c 74 68 3f e2 ed 66 3f 84 b1 67 3f 38 df 66 3f
       0.9080293 0.9020673 0.9050524 0.90184355
000010 4d 83 67 3f 89 db 66 3f e6 1a 67 3f 6f 57 68 3f
       0.90434724 0.90178734 0.9027542 0.90758413
000020 fe 61 67 3f 5e c8 66 3f be ee 67 3f 9e 98 67 3f
       0.903839 0.90149486 0.90598667 0.9046725

weight f4 [3, 12, 1, 1]
000000 60 2a a0 bc 91 b9 13 3f b0 9b d0 bd e0 ac 2e bd
       -0.019551456 0.57705027 -0.10185945 -0.042645335
000010 9c c0 9c 3e bf 5a 16 bf 20 06 b9 bd 50 fe ed 3d
       0.306157 -0.5873222 -0.090343714 0.11620772
000020 58 4b 4c 3e 50 9a 73 3d a0 78 41 3d f6 25 74 be
       0.19950616 0.059473336 0.047234178 -0.23842606
000030 86 12 bd 3e ce 64 07 bf c8 10 bf bd 60 b1 3d be
       0.36928195 -0.5288819 -0.09329373 -0.18524694
000040 80 d9 bd 3c 30 22 c4 be 24 6f 07 be d7 ad 08 3f
       0.023175001 -0.38307333 -0.1322599 0.5339026
000050 c2 4e fd 3e 6c fb d5 be 47 1a 10 3f c0 fe b9 bc
       0.4947415 -0.41793382 0.56290096 -0.022704482
000060 a7 9a 0c 3f 0a f6 f8 3e 35 f3 1d 3f 00 96 10 3e
       0.5492348 0.48625213 0.6169923 0.1411972
000070 d8 62 0e bf 70 ae 82 3e 5a 8f e9 3e ce 99 b2 3e
       -0.55619574 0.2552371 0.4561718 0.3488297
000080 c8 42 ec bd ea b8 97 3e 52 b6 d6 3e 60 68 ae 3e
       -0.11536175 0.29633266 0.41935974 0.34064007

weight f4 [3]
000000 00 00 80 3f 00 00 80 3f 00 00 80 3f
       1.0 1.0 1.0

bias f4 [3]
000000 00 00 00 00 00 00 00 00 00 00 00 00
       0.0 0.0 0.0

running_mean f4 [3]
000000 55 b7 82 3b 61 1e 41 3b 3a cb 56 3d
       0.00398914 0.002946757 0.052439906

running_var f4 [3]
000000 fb d5 6f 3f 62 7e 75 3f b9 41 7e 3f
       0.93685883 0.9589597 0.99319035

weight f4 [3, 1, 1, 1]
000000 5d f6 96 3f de 50 00 3f da 0c 5b 3f
       1.1793934 0.50123394 0.85566485

bias f4 [3]
000000 7c e6 52 3f 20 fa 42 3d 88 c8 ef be
       0.8238294 0.04760182 -0.4683268

weight f4 [18, 3, 1, 1]
000000 80 ec d4 3b 70 e4 96 3d e8 79 c6 bd bc ed ba be
       0.0064979196 0.0736779 -0.096912205 -0.36509502
000010 9e b0 b3 3e 50 a7 6e 3e 0c b3 80 be 00 76 59 3d
       0.35095686 0.23306012 -0.25136602 0.05309105
000020 b4 61 be be 38 84 a0 bd c8 5e ff be 1b 4b e9 be
       -0.37183917 -0.07837719 -0.49877 -0.45565113
000030 b2 ac 4a be 58 41 6f be 2d 06 8e be ac 21 98 bd
       -0.1979244 -0.2336477 -0.27739087 -0.074282974
000040 ce 29 85 3e 16 68 f0 3e 6a 1b 8a be 0a 89 63 be
       0.26008457 0.4695441 -0.2697404 -0.22220245
000050 8e cb ac 3e 30 32 7e be 10 0e 77 3e 5c af f7 bd
       0.3374905 -0.24823833 0.24126458 -0.12093994
000060 c6 a1 d6 3e 90 36 ea bd 9c ec 59 be a6 4d a4 be
       0.41920298 -0.11436188 -0.21281666 -0.3209049
000070 d2 99 e5 be 50 71 4c 3d e0 2a e3 bc 02 7d b6 be
       -0.44843918 0.04991275 -0.027730405 -0.35642248
000080 52 c3 f0 3e 20 70 f5 bc 98 b3 41 bd aa cc f4 3e
       0.47024018 -0.029960692 -0.047290415 0.47812396
000090 76 a0 f8 3e 80 b5 a0 3d 7c 3d 65 3e 36 59 39 be
       0.48559922 0.078471184 0.22386736 -0.18100438
0000a0 d2 b7 8f 3e 8e 20 29 be 10 78 d9 be 83 5a 84 be
       0.2806993 -0.16516325 -0.42474413 -0.25850305
0000b0 d8 7d 68 be ee d4 77 be 80 e8 12 3e 02 90 b3 be
       -0.22704256 -0.2420232 0.14346504 -0.35070807
0000c0 16 0c bb be aa 2c 95 be 9d da 03 3f a4 3d 04 3e
       -0.36532658 -0.29135638 0.5150545 0.12914139
0000d0 28 ed ee be 74 aa 9d be
       -0.4666531 -0.30794108

weight f4 [18]
000000 00 00 80 3f 00 00 80 3f 00 00 80 3f 00 00 80 3f
       1.0 1.0 1.0 1.0
000010 00 00 80 3f 00 00 80 3f 00 00 80 3f 00 00 80 3f
       1.0 1.0 1.0 1.0
000020 00 00 80 3f 00 00 80 3f 00 00 80 3f 00 00 80 3f
       1.0 1.0 1.0 1.0
000030 00 00 80 3f 00 00 80 3f 00 00 80 3f 00 00 80 3f
       1.0 1.0 1.0 1.0
000040 00 00 80 3f 00 00 80 3f
       1.0 1.0

bias f4 [18]
000000 00 00 00 00 00 00 00 00 00 00 00 00 00 00 00 00
       0.0 0.0 0.0 0.0
000010 00 00 00 00 00 00 00 00 00 00 00 00 00 00 00 00
       0.0 0.0 0.0 0.0
000020 00 00 00 00 00 00 00 00 00 00 00 00 00 00 00 00
       0.0 0.0 0.0 0.0
000030 00 00 00 00 00 00 00 00 00 00 00 00 00 00 00 00
       0.0 0.0 0.0 0.0
000040 00 00 00 00 00 00 00 00
       0.0 0.0

running_mean f4 [18]
000000 8a 35 a9 2f 6b 31 1c b0 4e 2d 8f 30 8a 35 a9 30
       3.0778963e-10 -5.6822697e-10 1.0417496e-09 1.2311585e-09
000010 2f 29 82 30 a8 39 b6 b0 4e 2d 8f b0 12 c8 e3 2f
       9.47045e-10 -1.325863e-09 -1.0417496e-09 4.1433218e-10
000020 6b 31 1c 30 12 c8 e3 af 2f 29 02 b1 c7 3d c3 b0
       5.6822697e-10 -4.1433218e-10 -1.89409e-09 -1.4205676e-09
000030 d6 bf 49 b0 6b 31 1c 30 7b b3 a2 2f 7b b3 a2 30
       -7.339599e-10 5.6822697e-10 2.9595157e-10 1.1838063e-09
000040 03 46 dd b0 a8 39 36 30
       -1.6099765e-09 6.629315e-10

running_var f4 [18]
000000 7d ab 66 3f 4f 70 6e 3f 7f 8e 6a 3f e4 72 76 3f
       0.9010542 0.9314012 0.9162368 0.9626906
000010 0f 34 6c 3f 61 ed 6f 3f 5a 8e 6c 3f fc 52 68 3f
       0.92266935 0.93721586 0.9240471 0.90751624
000020 41 a8 6c 3f 55 00 70 3f fb b4 6c 3f 49 0e 6c 3f
       0.92444235 0.93750507 0.92463654 0.922093
000030 bb 13 6e 3f 0c 46 68 3f 8b 08 70 3f 46 bb 69 3f
       0.92998856 0.90731883 0.93763036 0.9130138
000040 59 da 72 3f 04 a8 70 3f
       0.9486442 0.9400637

weight f4 [18, 1, 3, 3]
000000 e0 0d 24 3e 50 fb 39 bd 68 68 1c be c1 e2 3d be
       0.16020918 -0.045405686 -0.15274203 -0.18543531
000010 20 73 2c bc 40 dc 0e 3d 7d e0 c3 bd d6 7f a1 bd
       -0.010525495 0.034878016 -0.09564302 -0.07885711
000020 c8 e1 84 3c fc 6c 79 3d 3a 92 05 be be 4b 3a 3e
       0.016220942 0.06089495 -0.13044062 0.18192956
000030 a4 54 e8 bd 52 43 e7 bd a4 a1 da bd 40 2d 04 bb
       -0.11344269 -0.11292137 -0.10675362 -0.0020168573
000040 39 8c 34 be f8 19 00 be b8 a1 35 3d e0 06 dd 3d
       -0.17631616 -0.12509906 0.04434368 0.10792327
000050 f0 aa bc 3d c0 0f 74 3d 00 b3 9f ba 40 31 6c 3d
       0.09212291 0.059585333 -0.0012184083 0.057664156
000060 30 ed 53 bd 6c 4f 32 3e 9c 8e 11 3e 61 a9 3c be
       -0.05173987 0.1741311 0.14214557 -0.18423988
000070 c2 55 2d 3e b8 99 a9 bc e8 ea d3 3d f4 47 1f be
       0.16927245 -0.020703182 0.10347539 -0.15554792
000080 c4 42 be 3d 2a df 12 3e 3e f1 0c 3e 26 90 21 be
       0.09290078 0.14342943 0.13763902 -0.15777645
000090 ea 83 e2 bd 96 88 2e be 70 0e e9 bd c4 47 b4 3d
       -0.11060317 -0.17044291 -0.11379707 0.08802751
0000a0 52 54 32 be 80 8a 3f be e0 39 b9 bd 40 e1 72 3b
       -0.17414978 -0.18705177 -0.09044242 0.003706053
0000b0 e4 ba 08 3e d0 07 15 3c 99 ba 96 bd 98 d5 f8 3c
       0.13352543 0.009096101 -0.073598094 0.030375287
0000c0 c4 c3 00 3d 2c 01 c2 3d d4 ad 95 3d 70 a3 27 be
       0.031436697 0.0947288 0.07308546 -0.1637094
0000d0 a4 bf 74 bd 78 70 cf 3c c0 75 68 3c de 75 35 3e
       -0.059753075 0.025322184 0.01418823 0.17720744
0000e0 58 66 98 3d 4a 11 03 3e 98 da ad 3d 2c e1 7b bd
       0.074413955 0.12799564 0.08488959 -0.061494038
0000f0 19 76 23 be 92 96 0f 3e 5b d0 23 be 9b f8 26 be
       -0.1596302 0.14022282 -0.1599745 -0.16305773
000100 f0 3b 72 bd 8d 00 a9 bd b9 bc e6 bd 38 96 f6 3d
       -0.059139192 -0.08252058 -0.11266465 0.12040371
000110 08 c3 bc 3d ef ca e0 bd c0 c6 70 bc a8 30 c7 3c
       0.09216887 -0.109762065 -0.014695823 0.024315193
000120 6d 5d c3 bd 18 32 d9 3c d8 5c 54 bd 2e 8e 32 3e
       -0.09539304 0.026513144 -0.051846355 0.1743705
000130 90 d4 a1 3c 48 1e 21 be 80 04 89 3b 58 d4 cc 3c
       0.019754678 -0.15734208 0.0041814446 0.025003597
000140 26 ca 08 3e 88 4c aa 3d 1c 74 31 3e 90 27 fd bc
       0.13358364 0.083153784 0.17329448 -0.030902654
000150 e0 25 b8 3b c0 a5 8e 3c 62 00 21 be a8 1e ca bc
       0.0056197494 0.01741302 -0.15722802 -0.024672821
000160 e0 23 aa 3d 84 24 11 3e 7d 3d 9b bd 34 8c e5 3d
       0.08307624 0.14174086 -0.07580087 0.11208382
000170 be d7 1b 3e 90 36 6c 3c 38 fd 09 3e 08 f8 ff 3c
       0.15219018 0.014417306 0.13475502 0.0312462
000180 68 69 f9 bd b8 42 d0 3d ac f1 8c 3d 5e 26 2d 3e
       -0.12178308 0.101689756 0.06882033 0.16909167
000190 00 6d a6 3a 58 bd b9 3d 48 4b 0a 3e ac 75 16 be
       0.001269728 0.090693176 0.1350528 -0.14693326
0001a0 b8 d7 3e bd 28 c8 34 3e 0a ed 2b 3e a8 ab 91 bc
       -0.046592444 0.17654479 0.16789642 -0.017782047
0001b0 88 65 9a 3d 70 e7 31 3e 42 95 e9 bd 4c c4 5a bd
       0.07538897 0.17373443 -0.11405422 -0.05340986
0001c0 38 db a8 bc de e2 02 be a0 b9 ed bb a2 31 15 3e
       -0.020612344 -0.12781855 -0.0072547942 0.14569715
0001d0 3e 43 22 3e 66 eb 97 bd ff b9 bb bd f6 cc 09 be
       0.15845963 -0.074179456 -0.09166335 -0.13457093
0001e0 60 32 0e 3c 92 63 02 3e 38 10 8e 3d 3f 44 3e be
       0.0086790025 0.12733296 0.06936687 -0.18580721
0001f0 f0 22 00 3d 80 5c 33 3d e8 99 f0 3d a0 b6 1b 3e
       0.03128332 0.043789387 0.11748105 0.15206385
000200 f4 6c 8a 3d dc 6c 9c 3d e5 83 0d be 23 60 bf bd
       0.067590624 0.07637951 -0.13819845 -0.093445085
000210 b0 ad fc 3d 35 9e 99 bd 48 9f c5 3d df 34 89 bd
       0.12337816 -0.07500879 0.09649521 -0.066995375
000220 e2 1f 10 3e e2 83 36 be 39 21 97 bd 68 e3 f3 3d
       0.14074662 -0.17823747 -0.073793836 0.11908609
000230 00 24 fe 3d f0 03 e6 3d 80 8c af ba 44 01 21 3d
       0.1240921 0.1123122 -0.0013393313 0.039307848
000240 16 cd fc bd e0 b7 64 bc 80 40 1c bb 7b f4 91 bd
       -0.123438045 -0.013959855 -0.0023842156 -0.07126709
000250 8a b5 2e be 4b 4d 03 be 14 9b 1a 3e 4c ee 8e 3d
       -0.17061439 -0.12822454 0.1509822 0.06979045
000260 4d ce df bd 59 b2 28 be 40 07 18 be 88 c3 df 3d
       -0.109280206 -0.16474284 -0.14846516 0.109259665
000270 6e f9 1a 3e c3 46 a4 bd c0 62 03 3c ad 8d 8d bd
       0.15134212 -0.08021309 0.008019149 -0.06911788
000280 7c 6f 3f bd f0 9d 09 be
       -0.04673718 -0.13439155

weight f4 [18]
000000 00 00 80 3f 00 00 80 3f 00 00 80 3f 00 00 80 3f
       1.0 1.0 1.0 1.0
000010 00 00 80 3f 00 00 80 3f 00 00 80 3f 00 00 80 3f
       1.0 1.0 1.0 1.0
000020 00 00 80 3f 00 00 80 3f 00 00 80 3f 00 00 80 3f
       1.0 1.0 1.0 1.0
000030 00 00 80 3f 00 00 80 3f 00 00 80 3f 00 00 80 3f
       1.0 1.0 1.0 1.0
000040 00 00 80 3f 00 00 80 3f
       1.0 1.0

bias f4 [18]
000000 00 00 00 00 00 00 00 00 00 00 00 00 00 00 00 00
       0.0 0.0 0.0 0.0
000010 00 00 00 00 00 00 00 00 00 00 00 00 00 00 00 00
       0.0 0.0 0.0 0.0
000020 00 00 00 00 00 00 00 00 00 00 00 00 00 00 00 00
       0.0 0.0 0.0 0.0
000030 00 00 00 00 00 00 00 00 00 00 00 00 00 00 00 00
       0.0 0.0 0.0 0.0
000040 00 00 00 00 00 00 00 00
       0.0 0.0

running_mean f4 [18]
000000 87 0c a8 bb 30 44 08 bc 8a 32 14 3c bd 62 ef 3a
       -0.0051284465 -0.008317038 0.009045253 0.0018263679
000010 9f f2 14 bc 44 6d 21 ba 4b 86 55 3b 95 fb 90 bb
       -0.0090910485 -0.00061579444 0.0032581266 -0.004424522
000020 23 a0 91 3a 90 06 8e 3b 4a eb da 3b d3 47 10 3c
       0.0011110347 0.0043342784 0.0066808807 0.008806187
000030 52 80 6b 3b b7 d2 3c bb 88 75 96 3b a2 91 4c 3b
       0.003593464 -0.002881212 0.0045916475 0.0031214734
000040 ac d8 c5 bb f9 55 a9 bb
       -0.006037792 -0.0051677194

running_var f4 [18]
000000 f0 ed 66 3f 1b 37 68 3f 51 be 66 3f 91 4a 67 3f
       0.90206814 0.90709084 0.9013415 0.90348154
000010 f2 0d 67 3f 1c 0b 67 3f d4 d3 67 3f e2 c7 66 3f
       0.90255654 0.90251327 0.905576 0.90148747
000020 df f6 66 3f da 6a 67 3f ed 58 67 3f 78 f5 67 3f
       0.90220445 0.9039742 0.90370065 0.9060893
000030 d6 58 67 3f ef ee 66 3f 71 39 67 3f 98 e2 66 3f
       0.9036993 0.90208334 0.90322024 0.90189505
000040 a8 8d 67 3f 06 d5 66 3f
       0.90450525 0.901688

weight f4 [3, 18, 1, 1]
000000 00 d2 f2 3c 98 98 ed 3e d0 79 d9 3e 00 35 de bc
       0.029641151 0.46405482 0.42475748 -0.027124882
000010 66 8e fd 3e 5d 07 dd be 64 d9 77 be 90 04 30 3d
       0.49522704 -0.4316968 -0.24204022 0.0429731
000020 bc da 58 3e 32 74 dc be b4 ee 96 3e d2 65 b4 be
       0.2117719 -0.430574 0.2947899 -0.35233933
000030 1c a9 4e 3e ec 00 aa be 8e 3b ef 3e 68 e8 67 3e
       0.20181698 -0.33203828 0.46725124 0.2264725
000040 f0 45 9d bd 20 4e b0 be 9c 0e b0 be f5 4d f9 be
       -0.07679355 -0.34434605 -0.34386146 -0.4869229
000050 59 f0 e3 be 92 c1 06 bf 68 90 f6 be e2 4d 11 be
       -0.44519308 -0.52639115 -0.48157048 -0.14189866
000060 b8 70 31 be 05 ad 87 be 2b d3 8b be 4c d1 cf 3e
       -0.17328155 -0.2649919 -0.27309546 0.40589368
000070 1c 05 c7 3e 6f c7 00 bf 0c 09 b2 be 00 08 00 bf
       0.38871086 -0.5030431 -0.34772527 -0.5001221
000080 7a 96 9e 3e 7a cb 9d be 64 da 8c 3e a7 1d c8 be
       0.3097418 -0.30819303 0.2751037 -0.39085123
000090 b4 5b 65 be a8 f7 fc 3d f4 6a a7 3e 48 8f 2c bd
       -0.22398263 0.12351924 0.32698786 -0.04212883
0000a0 b8 d2 57 be 80 70 bd 3d 12 f4 99 be 52 93 3f be
       -0.21076477 0.09249973 -0.30069023 -0.18708542
0000b0 9e 69 ff 3e a6 86 f6 3e f4 62 b6 be 00 8e af bc
       0.49885267 0.48149604 -0.3562237 -0.021430016
0000c0 5d b5 01 3f 16 40 84 be e8 38 06 be 51 9f cb be
       0.50667363 -0.25830144 -0.13107646 -0.39769986
0000d0 84 87 a3 be 77 08 04 3f
       -0.31939328 0.51575416

weight f4 [3]
000000 00 00 80 3f 00 00 80 3f 00 00 80 3f
       1.0 1.0 1.0

bias f4 [3]
000000 00 00 00 00 00 00 00 00 00 00 00 00
       0.0 0.0 0.0

running_mean f4 [3]
000000 d7 4d 2b 3c 4b ae 7d bd 7b 6d 8d 3a
       0.01045557 -0.061933797 0.0010790074

running_var f4 [3]
000000 2a 3d 72 3f e5 50 7d 3f fd 7f 76 3f
       0.9462458 0.9895156 0.96289045

weight f4 [3, 3, 1, 1]
000000 82 ae 07 3f d6 aa 53 3f 60 41 17 3d f0 3d f7 3d
       0.5300065 0.8268255 0.03692758 0.120723605
000010 fc 1d 5f 3f 7c 5a 90 be 9c d7 32 3f 00 70 be bb
       0.8715513 -0.28194034 0.69860244 -0.0058116913
000020 a0 dd 97 bd
       -0.074153185

bias f4 [3]
000000 4c 62 9c be 28 4e bc 3e a0 01 d9 3e
       -0.30543745 0.36778378 0.42384052

weight f4 [18, 3, 1, 1]
000000 62 de 08 be 40 bf 79 3e 80 40 13 3e e8 c4 c5 3d
       -0.13366082 0.24389362 0.14380074 0.096566975
000010 c4 31 33 3e ce 85 05 bf 56 76 89 be 0c 92 08 be
       0.17499453 -0.52157295 -0.26848096 -0.13336962
000020 76 e8 0b be b1 53 06 bf f5 11 fe be 98 13 e0 3e
       -0.13662896 -0.5247145 -0.49623075 0.4376495
000030 80 b9 cb 3d 8d 98 04 bf 08 b5 e6 3e b0 87 b5 bd
       0.09947491 -0.51795274 0.4505999 -0.08863771
000040 38 60 6e bd 3c 7e 20 be 32 2a 98 3e 7e d5 e4 3e
       -0.05819723 -0.15673155 0.29719692 0.44694132
000050 b8 4e 2d be da 1f c9 be 60 0a bf be 20 5d 9e bc
       -0.1692456 -0.39282113 -0.37312603 -0.019331515
000060 fd 1a 07 3f 24 1e cd be f0 6b 4e 3d dc 19 02 3e
       0.52775556 -0.40062058 0.050395906 0.12705177
000070 96 a3 f3 3e e5 db e0 be b5 59 f8 be e7 cd f6 be
       0.47585744 -0.43917766 -0.4850594 -0.48203966
000080 b0 7e 38 be 70 95 36 be 96 16 f9 3e f6 04 95 be
       -0.18017077 -0.17830443 0.48650044 -0.29105347
000090 80 d8 66 bc 17 ba 04 bf e0 48 0d 3d a0 3d 00 bd
       -0.014089704 -0.5184645 0.034493327 -0.03130877
0000a0 94 9f ae bd 20 0e ad 3c ac b7 8d bd d7 9f 03 3f
       -0.08526531 0.0211249 -0.06919798 0.5141577
0000b0 0a 43 e0 be b8 ad f5 be 60 ba 96 be b8 56 a5 3d
       -0.43801147 -0.479841 -0.29439068 0.08073181
0000c0 3e b5 f4 3e 60 98 90 3d 15 b8 c3 be 14 b4 b3 3e
       0.47794527 0.07060313 -0.3822638 0.35098326
0000d0 a8 da 0d bd 58 3c 83 3d
       -0.034632355 0.06407994

weight f4 [18]
000000 00 00 80 3f 00 00 80 3f 00 00 80 3f 00 00 80 3f
       1.0 1.0 1.0 1.0
000010 00 00 80 3f 00 00 80 3f 00 00 80 3f 00 00 80 3f
       1.0 1.0 1.0 1.0
000020 00 00 80 3f 00 00 80 3f 00 00 80 3f 00 00 80 3f
       1.0 1.0 1.0 1.0
000030 00 00 80 3f 00 00 80 3f 00 00 80 3f 00 00 80 3f
       1.0 1.0 1.0 1.0
000040 00 00 80 3f 00 00 80 3f
       1.0 1.0

bias f4 [18]
000000 00 00 00 00 00 00 00 00 00 00 00 00 00 00 00 00
       0.0 0.0 0.0 0.0
000010 00 00 00 00 00 00 00 00 00 00 00 00 00 00 00 00
       0.0 0.0 0.0 0.0
000020 00 00 00 00 00 00 00 00 00 00 00 00 00 00 00 00
       0.0 0.0 0.0 0.0
000030 00 00 00 00 00 00 00 00 00 00 00 00 00 00 00 00
       0.0 0.0 0.0 0.0
000040 00 00 00 00 00 00 00 00
       0.0 0.0

running_mean f4 [18]
000000 d3 e7 86 b9 2f 41 22 3b 6d f6 df ba 0f 00 c2 bb
       -0.00025731194 0.002475809 -0.001708699 -0.005920417
000010 f4 9e 1c bb 03 62 b2 b9 bf 21 76 3b 6f e1 6a bb
       -0.0023898454 -0.0003402383 0.0037556735 -0.0035839935
000020 47 89 c6 3a b7 73 67 3b a4 ea 86 bb 33 b1 ba 3a
       0.0015147113 0.0035316774 -0.004117327 0.0014243483
000030 7b 05 05 bb 65 cd 0d ba f0 44 25 3b 90 df 84 bb
       -0.0020297456 -0.00054093293 0.0025218092 -0.004054971
000040 e8 7c 82 3b 13 54 e7 3a
       0.003982175 0.0017648957

running_var f4 [18]
000000 74 0d 6a 3f 24 83 77 3f d6 d8 6b 3f 39 83 84 3f
       0.9142678 0.9668448 0.9212774 1.0352546
000010 be f4 7b 3f 30 45 68 3f 3e b3 73 3f 73 55 73 3f
       0.9842032 0.9073057 0.95195377 0.9505226
000020 42 d8 79 3f 1a 70 7a 3f 6f 3a 7c 3f e9 e7 74 3f
       0.9759561 0.97827303 0.9852666 0.95666367
000030 b2 16 6f 3f 1d b9 66 3f 28 eb 7a 3f 4c 1e 76 3f
       0.93394005 0.9012621 0.9801507 0.9613998
000040 d3 bc 7a 3f 15 2b 6d 3f
       0.9794437 0.9264386

weight f4 [18, 1, 3, 3]
000000 34 fa 5d bd fc 57 95 3d 3c e9 21 3e 80 71 f8 3d
       -0.05419369 0.07292172 0.15811628 0.121310234
000010 3c 63 30 3d e8 3e 08 bd 80 be 8e ba e4 2c 1e bd
       0.043063387 -0.033263117 -0.0010890514 -0.03861703
000020 60 0a de bd d0 d5 17 3d bc 4b 5d 3d 30 91 1c bc
       -0.108418226 0.037069142 0.054027304 -0.0095561
000030 3c ae 91 3d 73 ef a0 bd 00 3b 34 3e 8c f1 28 3e
       0.07113311 -0.07858171 0.17600632 0.16498393
000040 b8 47 65 3d be d2 34 be 46 77 30 be c4 3d 18 be
       0.0559766 -0.17658517 -0.17232999 -0.14867312
000050 b8 ec d1 bc 1e a5 31 be c0 71 a9 bd b4 da 5e 3d
       -0.025625572 -0.17348143 -0.08273649 0.05440779
000060 cc 5e 0a 3e a0 86 c8 bb 05 e7 2a be 2c ea 8b 3d
       0.13512725 -0.006119564 -0.1668969 0.06831774
000070 84 3e 59 bd 4e 08 98 bd c4 53 2d 3e cc 76 33 3e
       -0.053038135 -0.07423459 0.16926485 0.17525786
000080 4a 79 17 3e 6e 4d 39 3e 6d 84 04 be 6c 43 08 3e
       0.14792362 0.18095943 -0.12941141 0.1330697
000090 68 ee d9 3c 98 35 1b 3e 22 16 1a be 28 93 a1 3c
       0.026602939 0.15157163 -0.15047505 0.01972349
0000a0 60 4d 73 3d c6 51 39 3e bc 5b 3c 3e ca d2 f1 bd
       0.059399962 0.180976 0.18394369 -0.11807783
0000b0 c0 dc c4 bb 10 e7 3b 3e 24 2f e9 3d 28 f4 12 3e
       -0.0060077608 0.18349862 0.113859445 0.1435095
0000c0 60 c5 f0 bc 60 7a 11 3c 70 ba f7 3d ec 81 dd 3d
       -0.02939099 0.008879274 0.12096107 0.10815796
0000d0 a4 0b 28 be 84 5c 28 bd 55 b9 01 be 3c e2 43 3d
       -0.1641069 -0.041103855 -0.12668355 0.047823176
0000e0 18 84 c9 bc 67 11 be bd 20 a1 b7 3d 29 03 2d be
       -0.02459912 -0.09280663 0.08966279 -0.16895737
0000f0 a8 c5 e8 bc f8 7a 3a bd ca 08 0d 3e 60 5f 2f 3e
       -0.028414562 -0.04552743 0.13772884 0.17126226
000100 54 03 11 3d 50 4e d3 3d 40 cc 0f bd f1 ac 1d be
       0.035403565 0.10317671 -0.035106897 -0.15398003
000110 20 20 32 3c 68 a9 36 3e a8 7f 25 3d 52 ce 2b be
       0.010871917 0.17838061 0.040404946 -0.16777924
000120 52 5f 02 3e 13 1d e1 bd 60 8c de 3b 30 54 d2 3c
       0.12731674 -0.109918736 0.0067916363 0.02567491
000130 e0 7d a5 3d 73 9a b9 bd a4 ef b2 bd 00 ec 3b b9
       0.080806494 -0.09062662 -0.08737114 -0.00017921627
000140 dc 23 f4 3d 42 7e 24 3e 52 ef 2a be b0 20 47 3c
       0.11920902 0.16063789 -0.16692856 0.012153789
000150 a7 26 19 be 7d 8c 10 be 7c 39 06 3e 46 d9 11 3e
       -0.14956151 -0.14116092 0.13107866 0.1424304
000160 50 89 72 bd f1 22 a7 bd 7c 07 d4 3d 3c a4 77 3d
       -0.059212983 -0.081609614 0.1035299 0.06045936
000170 28 7e e8 bc 20 8d c7 bc e0 d7 80 3d fc 7e c6 3d
       -0.028380468 -0.024359286 0.06291175 0.09692189
000180 66 9e 0a be b4 f3 9c 3d b2 05 3f 3e b0 de 24 3c
       -0.13536987 0.0766367 0.18654516 0.010062858
000190 18 20 4a 3d 40 90 e9 bb a8 5a 85 3d c4 8f 8b 3d
       0.049347013 -0.0071277916 0.06511432 0.068145305
0001a0 12 da 2b 3e 78 50 6c 3d 70 4b 14 3e 30 8c e8 3d
       0.16782406 0.05769393 0.14481902 0.11354864
0001b0 98 38 e1 3c 1c 77 fe 3d 58 97 fd 3d 2a 50 06 3e
       0.027492806 0.12425062 0.12382382 0.13116518
0001c0 26 1d 01 be b4 c9 07 3e 68 e2 2c 3e 54 39 69 bd
       -0.12608775 0.13260537 0.16883242 -0.056939438
0001d0 40 dc da 3c 44 ee 12 bd bd e0 38 be ec c0 e8 bd
       0.026716352 -0.03587176 -0.18054481 -0.11364922
0001e0 e2 5b 16 3e 20 05 0d bd ba 6b 10 3e e0 29 e6 bb
       0.14683488 -0.034428716 0.14103594 -0.007024035
0001f0 f8 e8 eb 3d 66 56 11 3e 24 2a a4 3d c2 a5 1f 3e
       0.11519045 0.14193115 0.0801585 0.15590575
000200 58 3c d5 bd 40 e8 ec bd d8 5f a8 3d 6d 49 0f be
       -0.104119 -0.11567736 0.08221406 -0.13992853
000210 a4 5e 0d 3e c5 96 89 bd fe 4b 0d be a3 8b f8 bd
       0.13805634 -0.0671821 -0.1379852 -0.121360086
000220 93 35 f5 bd bc e0 3d 3d d0 49 e8 3d 1e 3b 39 be
       -0.11973109 0.0463569 0.113422036 -0.18088958
000230 3c 80 ef 3d 30 91 07 3e 12 4e 04 3e 28 f5 4f 3d
       0.11694381 0.13238978 0.12920406 0.05077091
000240 c8 76 d5 3d b4 56 cd 3d 0e b0 14 be f0 2a 2e 3e
       0.10423046 0.10026303 -0.14520285 0.17008567
000250 04 74 03 3e 2c 48 32 bd 3a a6 29 be b4 d2 6f bd
       0.12837225 -0.04352586 -0.16567317 -0.05855055
000260 d0 d7 1f 3d 44 3f 36 3e 12 6c 19 be 04 6a 9a 3d
       0.039024174 0.17797571 -0.14982632 0.07539752
000270 80 71 da 3a 70 60 5d 3c 95 ae 1f be 0c ef 35 bd
       0.0016665906 0.013511762 -0.15593942 -0.044417426
000280 74 fd a3 bd e8 b4 10 be
       -0.08007327 -0.1413151

weight f4 [18]
000000 00 00 80 3f 00 00 80 3f 00 00 80 3f 00 00 80 3f
       1.0 1.0 1.0 1.0
000010 00 00 80 3f 00 00 80 3f 00 00 80 3f 00 00 80 3f
       1.0 1.0 1.0 1.0
000020 00 00 80 3f 00 00 80 3f 00 00 80 3f 00 00 80 3f
       1.0 1.0 1.0 1.0
000030 00 00 80 3f 00 00 80 3f 00 00 80 3f 00 00 80 3f
       1.0 1.0 1.0 1.0
000040 00 00 80 3f 00 00 80 3f
       1.0 1.0

bias f4 [18]
000000 00 00 00 00 00 00 00 00 00 00 00 00 00 00 00 00
       0.0 0.0 0.0 0.0
000010 00 00 00 00 00 00 00 00 00 00 00 00 00 00 00 00
       0.0 0.0 0.0 0.0
000020 00 00 00 00 00 00 00 00 00 00 00 00 00 00 00 00
       0.0 0.0 0.0 0.0
000030 00 00 00 00 00 00 00 00 00 00 00 00 00 00 00 00
       0.0 0.0 0.0 0.0
000040 00 00 00 00 00 00 00 00
       0.0 0.0

running_mean f4 [18]
000000 78 69 13 3b bf 75 8b 3b 30 31 15 bc a2 a2 29 3c
       0.0022493284 0.00425598 -0.0091059655 0.010353716
000010 e3 a8 bb 3b eb 86 e9 3b 2f 84 5c bb b9 de 28 3b
       0.00572692 0.007126679 -0.0033648123 0.0025767519
000020 1a f1 95 3a 4d ff 27 bb ce bf cb 3b bc 42 1b 3c
       0.0011439652 -0.002563435 0.0062179333 0.00947636
000030 21 b2 0f 3c cf 27 5f 3b 98 d7 b5 ba 33 38 50 3b
       0.008770497 0.0034050827 -0.0013873456 0.0031771779
000040 15 44 33 3b 7c 2b a5 bb
       0.0027353812 -0.005040584

running_var f4 [18]
000000 3f 10 67 3f ab fe 66 3f 3c 7f 67 3f 51 2a 68 3f
       0.90259165 0.9023234 0.9042852 0.9068957
000010 36 ad 67 3f 06 24 67 3f 3c d7 66 3f 09 a8 67 3f
       0.90498674 0.9028934 0.9017217 0.90490776
000020 a6 f7 66 3f 57 1d 67 3f e3 45 67 3f a8 d8 66 3f
       0.9022163 0.90279144 0.90341014 0.9017434
000030 49 61 67 3f 31 8c 67 3f 1d 08 67 3f 13 bf 67 3f
       0.9038282 0.9044829 0.90246755 0.9052593
000040 0a 2e 67 3f fe 64 67 3f
       0.90304625 0.90388477

weight f4 [5, 18, 1, 1]
000000 ee 5d 33 be b6 0a af 3e 90 3f ea 3e 10 76 38 3d
       -0.175163 0.3418786 0.4575162 0.04503447
000010 60 7a f0 be 2a 9a 4f be a0 91 92 3c 20 5a 27 3d
       -0.46968365 -0.20273653 0.017891705 0.040857434
000020 a2 6e a7 3e dc 8a 11 3e a4 23 63 3e dd 52 9b be
       0.32701594 0.14213127 0.22181565 -0.30336657
000030 20 60 d5 be f4 c6 9d 3e 4e bd d8 3e 44 a2 9e bd
       -0.416749 0.30815852 0.42331928 -0.077457935
000040 40 da de 3d 4c 02 cd 3e 60 12 92 3c 70 26 f1 3e
       0.10881472 0.40040815 0.017831028 0.47099638
000050 ec dc dc 3e 78 5a 8b 3d c2 7d b4 3e c2 27 e5 be
       0.431373 0.06804365 0.35252196 -0.44756895
000060 56 79 cb be ec dc 5d 3e f0 d2 c8 3d db 2e f1 be
       -0.3974101 0.21666306 0.09805858 -0.4710606
000070 0a 99 42 be 3f 1b d6 be 70 98 db 3e d8 7b 02 bf
       -0.19003692 -0.41817662 0.42889738 -0.5097022
000080 36 84 9b 3e 50 6e f1 3e 04 a7 49 be 00 26 e9 3b
       0.30374306 0.47154474 -0.19692618 0.0071151257
000090 bc e0 17 3e 22 08 c4 3e 9a 1c 69 be 5a 61 97 be
       0.14831823 0.38287455 -0.22764817 -0.2956646
0000a0 48 b0 aa 3d 70 d0 8e be 3c 18 26 be 86 d1 9a 3e
       0.08334404 -0.278934 -0.16220182 0.3023798
0000b0 38 f6 a3 be fc eb b9 bd f0 ac 7a 3e 12 a1 e6 be
       -0.32023787 -0.090782136 0.24480033 -0.45044762
0000c0 8f 20 c0 be 42 04 9b be 97 7e b7 be 52 b0 d5 3e
       -0.3752484 -0.30276686 -0.35838768 0.41736084
0000d0 98 e3 3b 3e e8 bc 74 3e dc b8 37 3e d0 63 b2 3d
       0.18348539 0.23900187 0.17941612 0.08710444
0000e0 10 09 c3 bd 1c 98 35 3e fe 72 af be c4 71 ff bd
       -0.09523213 0.17733806 -0.3426742 -0.12472871
0000f0 a6 75 87 be 78 fe 6a be a0 99 8b 3e da 00 ca 3e
       -0.26456946 -0.22948635 0.27265644 0.39453775
000100 68 42 ca 3d b6 fa 8d 3e 40 d2 f1 bd 40 eb 8d 3c
       0.09875947 0.2773034 -0.1180768 0.01732409
000110 14 27 e1 be 64 bc 02 bf 40 6c cb 3c 9f 20 b3 be
       -0.43975127 -0.5106871 0.024831891 -0.34985825
000120 88 86 86 be 00 db e0 3c 6c 78 c8 3e 74 c0 93 bd
       -0.26274514 0.027448177 0.39154375 -0.07214442
000130 c0 5a 33 3c a0 45 98 3c 6c aa c0 3e 98 d5 ba 3d
       0.010946929 0.018587887 0.37630022 0.09122771
000140 80 7b 98 3e 8f 3b cc be c0 12 b8 be 22 a6 d7 3e
       0.29781723 -0.3988919 -0.35951805 0.42118937
000150 0a 6c fd 3e 52 7d f6 3e 80 cd 0d be 88 99 4e 3e
       0.4949649 0.48142487 -0.13847923 0.20175755
000160 bc 8a 1e 3e 04 48 dc 3e
       0.1548261 0.43023694

weight f4 [5]
000000 00 00 80 3f 00 00 80 3f 00 00 80 3f 00 00 80 3f
       1.0 1.0 1.0 1.0
000010 00 00 80 3f
       1.0

bias f4 [5]
000000 00 00 00 00 00 00 00 00 00 00 00 00 00 00 00 00
       0.0 0.0 0.0 0.0
000010 00 00 00 00
       0.0

running_mean f4 [5]
000000 06 7d a2 3c dd 40 69 3b fd 04 6c bc 90 fa 80 bc
       0.019835006 0.003559164 -0.014405486 -0.015744478
000010 40 08 13 3d
       0.03589654

running_var f4 [5]
000000 d5 20 76 3f 95 0e 78 3f 58 55 6e 3f ac fd 73 3f
       0.9614385 0.9689725 0.93098974 0.9530895
000010 3b 3f 7e 3f
       0.9931523

weight f4 [5, 3, 1, 1]
000000 2e 38 40 bf db e2 20 bf 48 88 fa bd 54 36 6e 3e
       -0.75085723 -0.62846154 -0.12233025 0.23262912
000010 f2 1a e7 be 22 da 2a bf c8 8c f8 bd 90 48 70 bd
       -0.45137745 -0.66739094 -0.12136227 -0.05866295
000020 0c 58 b0 be 52 3f b3 3e a0 f9 2d bd 38 81 35 be
       -0.34442174 0.35009247 -0.04247439 -0.17725074
000030 7d b8 f6 be f6 d0 4c bf 5a 82 33 bf
       -0.48187628 -0.8000635 -0.70120776

bias f4 [5]
000000 12 38 95 3e 7a e7 73 be 04 24 ed 3e 50 cd db 3e
       0.2914434 -0.2381877 0.4631654 0.42930079
000010 d0 55 96 bd
       -0.07340586

weight f4 [30, 5, 1, 1]
000000 ba eb 4c 3e 2c e1 c1 3d 00 77 f0 bb 20 d9 a1 be
       0.20011798 0.09466776 -0.0073384047 -0.31610966
000010 6c 10 f2 bd c1 6d c2 be ad ca cc 3e 40 a0 2e bd
       -0.118195385 -0.3797436 0.3999838 -0.042633295
000020 9f 95 93 be 68 6f 68 3d e0 31 76 3c 44 8c e8 bd
       -0.2882509 0.05674687 0.01502654 -0.113548785
000030 52 bf 20 be 04 19 e2 bd 70 bf c1 3c ce e9 5b 3e
       -0.15697983 -0.110399276 0.023650855 0.21475908
000040 98 45 85 3d b8 49 0a bd 95 ee a5 3e 60 bc 44 3d
       0.065074146 -0.03376171 0.32408586 0.04803121
000050 f9 6c af 3e f7 e6 89 3e 40 66 27 3d e8 a2 6d 3d
       0.34262827 0.26934025 0.040868998 0.058016688
000060 f2 f5 66 be 09 f0 8b 3e 21 f8 9c 3e de 97 ac be
       -0.22554758 0.2733157 0.30658057 -0.33709615
000070 cf ad cb 3e 00 f7 e5 3a 65 bc af be 60 cc 5a bd
       0.39781043 0.0017544925 -0.3432342 -0.053417563
000080 ae 7d 3a 3e 90 72 91 be ba 1d 65 3e f7 23 7b be
       0.18212005 -0.28407717 0.22374621 -0.24525438
000090 c4 ee d3 3d 44 47 b4 3d e0 c4 0a 3d d4 93 c2 bd
       0.10348275 0.08802655 0.03387916 -0.09500852
0000a0 f1 95 d1 be 06 0c 0c 3e a0 9f f1 bc 52 6e 27 be
       -0.4093471 0.13676462 -0.02949506 -0.16350678
0000b0 90 33 95 bc 28 58 00 bd 94 83 f9 3d 7a 22 cf be
       -0.018213063 -0.031334072 0.121833 -0.4045599
0000c0 e8 c0 12 bd 10 c0 8d bc 92 aa 44 3e db 51 bc be
       -0.0358285 -0.017303497 0.19205692 -0.367812
0000d0 75 1a 96 3e 58 b9 89 be 14 d8 85 be 69 af 90 be
       0.2931706 -0.2689922 -0.26141417 -0.28258827
0000e0 24 42 c4 be 3e a4 3b 3e 67 f2 4e be 63 d3 b1 be
       -0.3833171 0.18324372 -0.20209657 -0.34731588
0000f0 a8 b8 8a be c2 83 89 be 16 ff cd be 68 82 35 bd
       -0.27094007 -0.26858336 -0.40233678 -0.04431382
000100 61 e7 84 3e 04 99 ae 3d 9b 36 b0 3e ca 33 15 be
       0.25957778 0.08525279 0.3441666 -0.14570537
000110 85 79 99 be 4b a7 9b 3e 30 bb a2 bc 55 64 aa be
       -0.29975525 0.30401072 -0.019864649 -0.33279672
000120 6f 30 c6 be fa c2 79 3e ac 69 b9 bd 4a a0 36 3e
       -0.38708827 0.24390784 -0.090533584 0.17834583
000130 88 82 84 3d 8a 15 04 3e 75 9b 70 be d2 6c 6f 3e
       0.06470209 0.12898842 -0.23496802 0.23381355
000140 5a d9 36 3e c3 8e 4e be a0 de 08 be 79 18 bf 3e
       0.1785635 -0.20171647 -0.13366175 0.3732336
000150 8c 3e a8 3d 1a 15 54 3e c0 07 7e 3c e1 97 d3 3e
       0.08215055 0.20711175 0.015504777 0.41326812
000160 b2 19 7f 3e 39 d0 89 3e de 6b 35 3e bd e0 9e 3e
       0.24912146 0.26916674 0.1771693 0.31030837
000170 61 bf 88 3e c0 99 00 bc 88 8f 57 bd 38 02 a1 bd
       0.2670851 -0.007849157 -0.052627116 -0.07861751
000180 f7 48 a2 3e fe 13 45 3e 12 08 50 be d0 af 03 bd
       0.31696293 0.19245908 -0.20315579 -0.03215009
000190 fe 6a 34 3e 91 d6 b0 3e 0b 83 b5 3e 32 33 5e 3e
       0.1761894 0.345387 0.3545154 0.21699217
0001a0 f6 31 c3 be 79 51 67 be 0b 17 43 be c4 a5 ca 3d
       -0.38124055 -0.22589673 -0.19051759 0.098948985
0001b0 48 b7 ae be 3b 87 d0 be 6d f9 ad 3e 6f fc c8 3e
       -0.34124207 -0.40728173 0.3397936 0.39255092
0001c0 4c 7a 8c bd 5d 78 9e 3e 46 0c 82 be 0c 77 93 be
       -0.06859264 0.30951205 -0.2539999 -0.28801763
0001d0 fe ea c5 be e0 ab 9d be ab b1 7b be 59 f8 94 3e
       -0.38655847 -0.30795193 -0.24579494 0.29095724
0001e0 40 91 97 be 1e a9 17 be d0 5b 9b bc 82 46 04 be
       -0.29603004 -0.14810607 -0.018964678 -0.12917522
0001f0 5d b6 cf 3e cc 04 94 be df 8a ab 3e d8 d2 3e 3d
       0.4056882 -0.2890991 0.33504388 0.046587795
000200 fa 41 36 3e d4 2b 8b bd 64 90 81 be 36 39 75 3e
       0.17798606 -0.06795469 -0.25305474 0.23947605
000210 a4 c5 d5 3d 00 e8 82 ba 44 e1 90 be 49 63 97 be
       0.104380876 -0.0009987354 -0.28296864 -0.29567936
000220 7f 7f ce be 3c ab ef 3d 4d 9b 87 3e 97 2a 93 3e
       -0.40331647 0.11702582 0.26485673 0.2874343
000230 d5 85 c2 be 8e 51 0b 3e c0 6f 66 bc a0 2e 29 3c
       -0.3799273 0.1360533 -0.014064729 0.010326058
000240 80 29 22 3c f9 8b cb 3e 6e b6 0c be e7 35 a7 3e
       0.00989759 0.39755228 -0.13741466 0.32658312
000250 1d 8d a5 3e fc 89 cf 3d
       0.32334223 0.1013374
