trained_model/FIAT(Reagentv3).pt (torch, 402418 bytes, 117 tensors)

weight f4 [16, 1, 3, 3]
00000000: 50d4 7bbd 9536 efbd 0fb2 39be f39e e8bd
00000010: 3e7f f13d e18e 383e efef 0d3e 1c8a c4bd
00000020: 5050 233d 7016 283c 31a6 023e 1e7b ee3d
00000030: 0407 a3bd e4a1 4d3d 24a3 563d 1db7 193e
00000040: a65f ce3d 84a3 53bd 7a54 bb3d 805d 27be
00000050: b5b0 2f3e ac88 7c3d b48f 17be 7d65 b2bd
00000060: 3bae 3b3e a20c dbbd d853 443d fb9c 333e
00000070: 12af 8f3d fb40 393e ca1c b33d 7417 00be
00000080: f91a 323e 32d9 9c3d d038 4ebd 52c7 8dbd
00000090: f428 08be 406c 09be d43f 49bd 82e7 e1bd
000000a0: 0067 bbbd 22f1 bd3d 8073 853c d560 dfbd
000000b0: 9176 b6bd a284 b23d 50fa 88bd 54f6 8ebd
000000c0: a271 e2bd 7295 cc3d 87c6 15be 2c37 25bd
000000d0: b381 323e 6ffa 033e afa1 3b3e 2c14 54bd
000000e0: 7d59 48be f460 5e3d 9a91 e13d a7b4 efbd
000000f0: 5076 aabd 00fe fa39 f006 9dbc e0fc 733c
00000100: 603d 98bb 9289 9b3d 262d 8fbd 75ad 133e
00000110: f8ea d1bd c46b 593d fd9a 3d3e a1d8 0cbe
00000120: 4097 a23b bd4f 153e 0801 943c 4e93 06be
00000130: f051 893c fcd5 91bd 229f 06be 9641 3ebe
00000140: 2966 29be 7a5f b33d 9474 2f3d 69b3 153e
00000150: 3c03 69bd b84c af3c cead bb3d be5a 823d
00000160: 0de3 e9bd dc15 3ebe 2444 38bd 049c 093d
00000170: 2c5e 40bd 26f9 c53d 820c 19be 3aff 17be
00000180: 843d 1fbd b060 16bd 4181 afbd 80f7 0c3c
00000190: 1193 433e e3d4 453e 60f2 603c 346a 723d
000001a0: 4b1d 323e 49c5 0d3e 30b4 76bd a656 0cbe
000001b0: 16c3 983d 4061 e53b 6640 ea3d 9ea7 82bd
000001c0: dafd 85bd 2160 3c3e f684 91bd 4248 9bbd
000001d0: d6bd a0bd 24f9 7b3d b542 dbbd 1108 cdbd
000001e0: 0076 bab9 2cde 58bd 57b1 073e 68e6 2abe
000001f0: 74b0 46be fca8 48be fb8a 48be 5730 203e
00000200: a9b5 173e e47c 3fbd 3332 eebd a8bf aebc
00000210: fc60 35be 9ce2 593d 8273 e13d f638 04be
00000220: 31bd 2b3e 4d62 2dbe 810f 17be 8071 b0bc
00000230: 000c ba39 a082 83bb 1922 26be fc15 84bd
-0.061481774 -0.116803326 -0.1813433 -0.11358442 0.11791848 0.18023254 0.13861059 -0.09596655
0.039871514 0.010259256 0.1275871 0.116445765 -0.079603225 0.05020322 0.052401677 0.15011258
0.10076837 -0.051669613 0.09146972 -0.16344261 0.17157252 0.061653778 -0.14800912 -0.087107636
0.18328182 -0.10695769 0.047931522 0.17540352 0.07015814 0.18091194 0.087457255 -0.12508947
0.17393102 0.07658614 -0.05034715 -0.06922783 -0.13296872 -0.134202 -0.049133137 -0.11030485
-0.09150505 0.09274508 0.016290426 -0.10907141 -0.089093335 0.08716704 -0.06688368 -0.06980577
-0.1105683 0.09989442 -0.14626513 -0.04033582 0.17432289 0.12888502 0.18323396 -0.05177705
-0.19565387 0.05429168 0.110140994 -0.117043786 -0.083233476 0.0004787296 -0.019168347 0.014891833
-0.0046459883 0.07594599 -0.06991033 0.14421637 -0.10249895 0.05308129 0.18516155 -0.13754512
0.004961878 0.14581199 0.018066898 -0.1314213 0.016762704 -0.071208924 -0.13146642 -0.18579707
-0.16542877 0.08758445 0.042835787 0.14619221 -0.05688785 0.021398887 0.0916401 0.06364964
-0.114202596 -0.18563026 -0.04498686 0.033596054 -0.04696481 0.09666662 -0.14946178 -0.14843455
-0.038877025 -0.036713302 -0.08569575 0.0086039305 0.1909907 0.19319491 0.013729662 0.059183314
0.17393987 0.1384479 -0.060230434 -0.13704929 0.07459085 0.0070001185 0.11438064 -0.06379627
-0.06542559 0.18396045 -0.071054384 -0.075821415 -0.07848708 0.061516896 -0.10706083 -0.10011304
-0.000355646 -0.052946255 0.13251244 -0.16689456 -0.19403249 -0.19595712 -0.19584267 0.1564344
0.14815392 -0.046749964 -0.116306685 -0.021331623 -0.17712778 0.053194627 0.110083595 -0.12912354
0.1677139 -0.1693203 -0.14752008 -0.021538496 0.00035485625 -0.0040133744 -0.16223945 -0.06449506

weight f4 [16]
00000000: 0000 803f 0000 803f 0000 803f 0000 803f
00000010: 0000 803f 0000 803f 0000 803f 0000 803f
00000020: 0000 803f 0000 803f 0000 803f 0000 803f
00000030: 0000 803f 0000 803f 0000 803f 0000 803f
1.0 1.0 1.0 1.0 1.0 1.0 1.0 1.0
1.0 1.0 1.0 1.0 1.0 1.0 1.0 1.0

bias f4 [16]
00000000: 0000 0000 0000 0000 0000 0000 0000 0000
00000010: 0000 0000 0000 0000 0000 0000 0000 0000
00000020: 0000 0000 0000 0000 0000 0000 0000 0000
00000030: 0000 0000 0000 0000 0000 0000 0000 0000
0.0 0.0 0.0 0.0 0.0 0.0 0.0 0.0
0.0 0.0 0.0 0.0 0.0 0.0 0.0 0.0

running_mean f4 [16]
00000000: 1442 94bb ea6a c23c 381d 1b3b 209a d23c
00000010: 472c f7bc f6ca 3d3b 5bca c4bb eee0 013c
00000020: 41c2 cbbc 180a 9b3b 0b7f acbc 526a ec3c
00000030: bbaf a43a 0bc6 febc 5255 8cbb d7c7 d7bc
-0.0045244787 0.023732621 0.0023668539 0.025708258 -0.03017248 0.0028960085 -0.006005568 0.007927163
-0.0248729 0.004731428 -0.021056673 0.028859291 0.0012564579 -0.031100294 -0.004282632 -0.026340408

running_var f4 [16]
00000000: bab2 663f 0e90 663f d3b6 663f 07b3 663f
00000010: 2797 663f 88a2 663f e9a2 663f 179c 663f
00000020: b7aa 663f 5d9a 663f 238c 663f 30b9 663f
00000030: e990 663f 75b7 663f afb9 663f 01ac 663f
0.90116465 0.9006356 0.9012272 0.90116924 0.9007439 0.90091753 0.9009233 0.90081924
0.9010424 0.9007929 0.9005758 0.90126324 0.90064865 0.90123683 0.9012708 0.9010621

weight f4 [16, 8, 3, 3]
00000000: 0c42 0dbd 3cfa 29be e78c 033e 4fab 1ebe
00000010: b3f0 01be 760a a8bd 6cc2 6abd 7719 13be
00000020: 46ae d9bd d4fc 5d3d 20c9 e93c 3057 643c
00000030: fa4c ad3d 568a f13d c298 cb3d 1017 44bc
00000040: 16d1 db3d c06e 23bb de7b b73d 9e4b 00be
00000050: 26b1 acbd 8287 ad3d 6cdc 29bd 46c5 8cbd
00000060: da0e ee3d d336 82bd 9042 603d c8ed 823c
00000070: 7bd8 e3bd 4011 4e3b c097 4ebd ca03 ca3d
00000080: c6ec 02be fbcf c4bd d411 213d 00fb 203a
00000090: 63e0 eebd 840e 343d 18ea 1abe ade3 0f3e
000000a0: d4b4 5e3d f2e9 15be a526 143e a05a b53c
000000b0: 47ad 19be e008 993d 5c31 223d 225b 8e3d
000000c0: 6f83 17be 704c 283d cd50 233e 7e3f dbbd
000000d0: b2bc ac3d 2c44 163d c642 91bd 0371 123e
000000e0: eb5c 83bd a017 03be 78c3 8d3d 24c0 3c3d
000000f0: 8896 a4bc 0e2a 11be 3865 8bbc 62e0 ca3d
00000100: d296 0fbe c061 ae3c d3f7 c4bd 164a 963d
00000110: 1dff 213e ede7 153e 302d 173c dee6 893d
00000120: e64a fd3d 7a32 f53d f3a9 b6bd b418 013d
00000130: c0fd 4c3c 659c 273e a0c5 a43b 6647 a23d
00000140: 3e6c aa3d 779d 203e ab61 e0bd 8684 fdbd
00000150: ea1b de3d 0812 21be 0284 d53d 7068 3bbc
00000160: 989a bdbc d33b 1ebe cce2 643d b009 f6bd
00000170: 003b 5e3b 700d 2cbc 550d 083e 40ab 41bc
00000180: 0036 d7bc 8ac6 f83d 3e2e b53d eca0 1abd
00000190: a737 143e 728d b93d 0eae e0bd b5d1 223e
000001a0: 7b54 a7bd a820 0fbe 6467 153d 40d6 12bc
000001b0: 85cc 103e f039 45bc 2a89 c93d 252d 0d3e
000001c0: 5e65 d3bd c505 0a3e 3294 f63d 737a 0b3e
000001d0: 0098 6abc f6cc a5bd 50c7 7c3c 0677 e33d
000001e0: 1045 71bd ac1b 743d 46a7 923d c2d5 c43d
000001f0: 000b 3f3b 6662 66bd 8091 d3bb ddf3 0a3e
00000200: 006e 83ba a07a 77bd 13d3 e4bd 966b d13d
00000210: e08b 76bd d07d b1bd 091e 163e a26f c43d
00000220: c675 babd eaf9 dc3d b129 213e bfd2 29be
00000230: 5bd3 eabd 0df4 033e e0db e6bb 36ff 61bd
00000240: b4c1 433d 4ed7 b1bd fbee bcbd e02d fc3b
00000250: 2cbd 1fbd 0e4d 873d 00d3 323d 1d9a 003e
00000260: a239 1bbe 9875 f7bd cc54 563d 7e5d b33d
00000270: 970d 0a3e aa46 e83d 60ce 4d3d b8e0 aebd
00000280: 70bc 8abd a6ca 6fbd 2a00 893d 4096 1e3d
00000290: 4ae3 843d fa7f b23d 20c3 e8bc c213 e43d
000002a0: 51a5 0e3e 788d f0bc 00a3 b2bc fc78 643d
000002b0: 31d7 0a3e 685a a7bc 44ef 283d 38bb 91bc
000002c0: 4332 e0bd a69e cf3d a532 153e 5b71 f2bd
000002d0: 7292 f83d ea37 f13d 4b30 b8bd 0078 1d3a
000002e0: 5897 8dbc b7e8 1a3e be29 fd3d 3356 15be
000002f0: 94b0 173d ebe4 aebd e0a6 6dbd f45d 5b3d
00000300: d85c b4bd 40c7 b3bc 5087 5f3d f065 343c
00000310: 8ec2 fb3d 4c58 593d 9c67 4e3d 3635 d93d
00000320: dca3 1c3d 4395 103e 3013 19bc c2ee bb3d
00000330: 0d2c 293e 1af4 aa3d a043 62bd 5e7b 8b3d
00000340: ad85 293e ed72 033e 4d89 0d3e a168 0d3e
00000350: 0e40 04be 2628 fe3d f18f 233e 80f9 f7bc
00000360: 5049 19bd d0e5 413d 8014 a0bc 60ab bc3b
00000370: 5e73 de3d d845 b3bd fa35 973d 73c0 d8bd
00000380: 5863 c2bd fcb3 3dbd 8021 89bb 2ddd 1c3e
00000390: 4259 af3d c0ac 753c f914 023e 70f6 1abe
000003a0: 9c0e 2abd ee7b 873d 1671 e03d 38ba 813d
000003b0: ecc9 623d c0b8 0f3b f068 1e3d 606a 33bd
000003c0: 743c 2b3d d6cd 5abd 06bf a9bd 8a6e 863d
000003d0: 50ea 703d 1993 123e 484c e0bc 421e c93d
000003e0: 162d d73d 0810 b33c a056 dabb ba26 0bbe
000003f0: 1216 c63d 0484 29bd 4fbe 12be cdde 073e
-0.034486815 -0.16599363 0.12846719 -0.15495037 -0.12689476 -0.0820512 -0.05731432 -0.14365183
-0.10628943 0.054196194 0.028538287 0.013936803 0.08461948 0.117939636 0.099412456 -0.011968389
0.10733239 -0.0024937838 0.08959173 -0.12528846 -0.08432226 0.08473112 -0.041469976 -0.068735644
0.116239265 -0.06358113 0.05475098 0.015982524 -0.11125275 0.0031443387 -0.05043769 0.09864004
-0.12785634 -0.096099816 0.039323643 0.00061409175 -0.11663892 0.043959156 -0.15128362 0.14051695
0.05437167 -0.14640024 0.14467867 0.02213794 -0.15007506 0.07472396 0.039597854 0.06950976
-0.14796232 0.04108852 0.15948792 -0.107054695 0.08434428 0.036686108 -0.07092814 0.14300923
-0.06414207 -0.12801981 0.06922048 0.046081677 -0.02009131 -0.14176199 -0.017016038 0.09906079
-0.14022377 0.021286845 -0.09617581 0.073383495 0.15819974 0.14639254 0.009227082 0.067334875
0.12367801 0.11972518 -0.08919134 0.0315177 0.012511671 0.16368254 0.0050284415 0.079237744
0.08321427 0.15685068 -0.10956129 -0.123787925 0.10845168 -0.15729535 0.10425569 -0.011438474
-0.023145005 -0.15452509 0.055880353 -0.120135665 0.0033909678 -0.010501251 0.13286336 -0.011820614
-0.026270866 0.12147243 0.088467106 -0.037751123 0.14474355 0.09060182 -0.10970698 0.1590031
-0.0817041 -0.13977301 0.036475554 -0.008962214 0.14140518 -0.012037739 0.09840615 0.13786753
-0.10322069 0.13478763 0.12039985 0.1362093 -0.014318466 -0.08095734 0.015428379 0.11106686
-0.058903754 0.059596702 0.07160811 0.096110836 0.0029150844 -0.056246184 -0.006456554 0.13569589
-0.0010027289 -0.06041968 -0.11173072 0.102255985 -0.06019199 -0.08666575 0.14659895 0.09591605
-0.09104495 0.10789855 0.1573856 -0.165843 -0.11466094 0.12886067 -0.007045254 -0.05517503
0.04779215 -0.08683644 -0.092252694 0.0076958984 -0.038998768 0.06606494 0.043658257 0.1255879
-0.15158704 -0.12082976 0.052326962 0.087580666 0.13481747 0.11341603 0.050245643 -0.085389555
-0.06774223 -0.05854287 0.066894844 0.03871751 0.064886644 0.08715816 -0.028413355 0.11136581
0.1393025 -0.029364333 -0.02180624 0.055779442 0.13558652 -0.020428851 0.041243806 -0.017789468
-0.10947087 0.10137682 0.145701 -0.11838027 0.12137307 0.11778243 -0.08993586 0.0006006956
-0.01728408 0.15127836 0.12361477 -0.14583664 0.037033632 -0.085397564 -0.058020473 0.053556398
-0.08806771 -0.021945596 0.054572403 0.011010632 0.12292968 0.053062722 0.05039178 0.10605852
0.038242206 0.14119439 -0.009342954 0.09176399 0.1652071 0.0834734 -0.055240273 0.0681064
0.165549 0.1283681 0.13821907 0.13809444 -0.1291506 0.124100015 0.15972878 -0.030270338
-0.037423432 0.047338307 -0.019541025 0.005757734 0.10861848 -0.08753556 0.07383342 -0.10583582
-0.094916046 -0.046314225 -0.0041849017 0.15318747 0.085619465 0.0149948 0.12703313 -0.15133071
-0.04151784 0.066154346 0.109590694 0.063343465 0.05536835 0.0021930188 0.038674295 -0.04380262
0.0418057 -0.053418957 -0.08288388 0.065640524 0.058817208 0.14313926 -0.027380124 0.09820224
0.10506646 0.02185823 -0.0066631585 -0.13588992 0.09672178 -0.041385666 -0.1433041 0.13268586

weight f4 [16]
00000000: 0000 803f 0000 803f 0000 803f 0000 803f
00000010: 0000 803f 0000 803f 0000 803f 0000 803f
00000020: 0000 803f 0000 803f 0000 803f 0000 803f
00000030: 0000 803f 0000 803f 0000 803f 0000 803f
1.0 1.0 1.0 1.0 1.0 1.0 1.0 1.0
1.0 1.0 1.0 1.0 1.0 1.0 1.0 1.0

bias f4 [16]
00000000: 0000 0000 0000 0000 0000 0000 0000 0000
00000010: 0000 0000 0000 0000 0000 0000 0000 0000
00000020: 0000 0000 0000 0000 0000 0000 0000 0000
00000030: 0000 0000 0000 0000 0000 0000 0000 0000
0.0 0.0 0.0 0.0 0.0 0.0 0.0 0.0
0.0 0.0 0.0 0.0 0.0 0.0 0.0 0.0

running_mean f4 [16]
00000000: e108 bebb 1525 fb3c 6434 493d 75b9 ec3c
00000010: f580 bcbc 2325 cbbb 2a6d 813b 0761 e93c
00000020: 8b5f 82ba c930 293a 9223 6abb b63d 033d
00000030: 6dc3 4b38 c408 1c3d c62e 023d 267f bd3b
-0.0057993983 0.03065733 0.04912223 0.028897027 -0.02301071 -0.0061994954 0.003949781 0.028488649
-0.0009946687 0.0006454108 -0.0035726768 0.032041274 4.8580976e-05 0.038094297 0.031782888 0.0057829795

running_var f4 [16]
00000000: 01d5 6a3f 1b4a 6b3f 2204 6b3f d4bb 6a3f
00000010: 7ce7 6b3f d5ce 6b3f 13a6 6a3f 0036 6a3f
00000020: f095 6a3f 9811 6c3f c0a4 6a3f 843f 6d3f
00000030: 2e9d 6a3f d30d 6b3f 3efa 6b3f f39d 6a3f
0.9173127 0.9190995 0.9180318 0.9169285 0.9215009 0.92112476 0.9165966 0.9148865
0.91635036 0.92214346 0.9165764 0.9267504 0.9164609 0.9181797 0.92178714 0.9164726

weight f4 [8, 16, 3, 3]
00000000: 500e 453d baf0 8a3d 3c69 103d b362 29be
00000010: cb44 f3bd 88d7 ddbd 38f7 15be a482 473d
00000020: e4ea 1a3d e0ab ef3c edc9 1c3e b000 163c
00000030: 683e a83c 9112 113e a0c3 6bbd dc18 1ebe
00000040: fe85 9ebd f464 2abd 9c7b 053d e44a 463d
00000050: 5aed b03d 3468 603d 2e04 84bd 5072 04bd
00000060: ed15 083e 4b08 1c3e de0d a6bd d093 1ebc
00000070: 6379 b2bd 369f b9bd 43ba 0b3e bcf9 07be
00000080: 0eaa fbbd 8ee4 d4bd 1522 2a3e 1061 36bd
00000090: 5098 a1bd 5c1b 06be 304d eabd 7e3c 18be
000000a0: 6594 263e 83d0 b6bd 0b0c 0abe 5248 da3d
000000b0: 08cf c2bd 00eb 803d 4a15 913d 0c40 4c3d
000000c0: 189d 85bc 7e3c e73d 6287 b23d 8205 ff3d
000000d0: 0b46 8dbd c07f 0cbc 308a 0ebc 084a aa3c
000000e0: 7963 0f3e d637 90bd d792 1fbe e88f a83d
000000f0: 94e4 213d 2827 99bd 90a2 393d 9099 1a3c
00000100: 766e f43d b63d 2ebd 8c55 24be 608f 66bd
00000110: 3600 43bd 0fe7 183e 1cf1 6dbd f6c5 d1bd
00000120: bf88 2a3e 702c 2bbd f60f cfbd 52f6 9a3d
00000130: 6035 89bb d6fb 5cbd 1c97 1cbd 80bd 523d
00000140: 3ca5 41bd 7359 f7bd 5a86 b83d b668 fb3d
00000150: 305d 74bd a800 e43c 8cad 7cbd d0cd 70bd
00000160: 77cc 1a3e 0a9f cc3d 2ec7 fa3d a3b4 173e
00000170: 3917 033e 24f8 233d c21f b83d 5c23 1fbe
00000180: 97e0 113e 7f2f 24be b045 153d 0d63 033e
00000190: 676a 07be 82c5 cf3d a663 3fbd e211 d53d
000001a0: 0c8e 5ebd 944a 5c3d 8ec2 e7bd 9858 9d3d
000001b0: c6e2 c7bd d867 8fbc 426e c23d 7038 4f3c
000001c0: 68df 96bd b044 89bd 07b7 1f3e 8017 043d
000001d0: d4da 10be 841d 15be 724f e43d 7c82 743d
000001e0: 66d8 47bd 240b 22bd e629 913d 3235 24be
000001f0: 4c7e 03be a262 02be 1e74 b43d e403 293d
00000200: a897 9f3c 4c1c 15bd 0510 0a3e 0035 183a
00000210: 2eab e7bd 5a1e f43d a971 173e d6d9 48bd
00000220: 3b81 09be a6f0 d13d eca6 58bd 6251 a13d
00000230: f2a9 05be fa05 1dbe a68e 41bd 65fd 283e
00000240: e049 d7bb 9871 d3bc 8b92 8abd 70d6 003c
00000250: e8c4 a4bc e072 8a3c e911 003e e054 68bd
00000260: f06a 6ebd f623 05be 7993 233e 14db 743d
00000270: 5a2c 1cbe 5848 aebd 02ce f93d c258 983d
00000280: 1086 a4bd 7cfb 58bd 76d0 22be df07 20be
00000290: 0de4 1c3e aeb3 07be 182a bcbc 3b6c 0a3e
000002a0: 9052 e6bd 8c8e 18bd c3ab e9bd 1706 033e
000002b0: 78fd c8bc 6629 47bd 102b 473c e453 083d
000002c0: 9ec6 07be 6814 acbc 68f1 f53c 44e3 7e3d
000002d0: 1678 13be 6b6d 9ebd 5a7a f03d 807a 313d
000002e0: c637 6bbd 7829 9a3d 74b2 343d 1b97 f6bd
000002f0: 10f5 9e3d 0ecd cbbd 5ac0 19be 3eca 8cbd
00000300: 5000 20be a6c2 17be 683c cebd fe80 27be
00000310: bb54 203e 1d2c 293e b673 9bbd e2df d23d
00000320: 086c c63c 7e15 c4bd 56b0 0ebe cb4b bbbd
00000330: 5062 4e3d 72db cf3d 90fe 4b3d 15cb 063e
00000340: 1671 7dbd e05c 39bd 9c58 383d f057 483c
00000350: 5d96 273e 0b35 b8bd 80a9 8eba bbec 073e
00000360: 04ac 20be ce43 09be 320a ab3d f4a8 1bbe
00000370: d636 f9bd 50b6 3f3d 72d6 dd3d f0b2 4cbd
00000380: 53bc fbbd b0ad 66bd 7317 073e 7640 18be
00000390: e804 02be 7089 603c b871 1cbe 820c d13d
000003a0: 530a 09be d038 473c db39 0fbe 90ba 38bc
000003b0: 5069 04bd ee01 b03d 7c80 4c3d 08d0 8c3c
000003c0: eba7 1ebe f4b3 18bd 60de bbbc 2e6d f6bd
000003d0: 8045 aaba b8bd c1bc eb7a b4bd a63b 03be
000003e0: 1ce8 0fbe 1788 263e bf07 063e 4cd8 19bd
000003f0: 204b 89bd f578 093e 986a fcbd eab8 26be
0.048109353 0.06784196 0.03525661 -0.16541557 -0.118783556 -0.10832125 -0.14645088 0.048708573
0.037821665 0.029256761 0.15311404 0.009155437 0.02053757 0.14167239 -0.05755961 -0.1543917
-0.07740401 -0.041600183 0.032588586 0.048411265 0.08639021 0.054786876 -0.0644611 -0.03233558
0.13289614 0.15237539 -0.08108114 -0.009678796 -0.08714559 -0.0906357 0.13645272 -0.1327886
-0.12288295 -0.10395156 0.16614564 -0.04452616 -0.078903794 -0.13096374 -0.114405036 -0.14866826
0.16267546 -0.08926489 -0.13481157 0.10658325 -0.09512144 0.06294823 0.07084139 0.049865767
-0.01631026 0.11290835 0.087172285 0.124522224 -0.06898125 -0.00857538 -0.008699939 0.020787254
0.1400279 -0.070419 -0.15583359 0.08230573 0.03952463 -0.074781716 0.045321047 0.009436026
0.11935131 -0.04253932 -0.16048259 -0.056289077 -0.047607623 0.14931892 -0.058091268 -0.10242836
0.16653727 -0.041790426 -0.10110466 0.07566513 -0.004187271 -0.053951107 -0.038230047 0.051450253
-0.04727672 -0.12077608 0.090100005 0.122758314 -0.059659183 0.027832344 -0.061688945 -0.058790028
0.1511706 0.09991272 0.12245022 0.14815001 0.12801827 0.040031567 0.08990432 -0.15540832
0.1424583 -0.16033743 0.036443412 0.12830754 -0.13224183 0.101450935 -0.04672589 0.104038015
-0.054334685 0.05378206 -0.11316405 0.076829135 -0.097600505 -0.017505571 0.09493686 0.012647733
-0.0736683 -0.06702554 0.15597163 0.032248974 -0.14145976 -0.1456204 0.111479655 0.059694752
-0.048790358 -0.039561406 0.070880696 -0.16035917 -0.12841147 -0.12732938 0.0881121 0.041263476
0.019481495 -0.03640394 0.13482673 0.00058062375 -0.11311947 0.119198516 0.14789452 -0.04903587
-0.13428204 0.10250978 -0.052893564 0.07876851 -0.1305311 -0.15334311 -0.04725518 0.16502912
-0.006570086 -0.025811002 -0.06766232 0.007863626 -0.020113423 0.01690048 0.12506832 -0.056721568
-0.058207452 -0.13002 0.15974225 0.05977924 -0.15251294 -0.08509892 0.12197496 0.07438804
-0.08033383 -0.05297421 -0.15899834 -0.15628003 0.1532137 -0.13252136 -0.02296929 0.13517849
-0.11246216 -0.03724532 -0.11409714 0.12795292 -0.024534926 -0.048623465 0.012156263 0.03328313
-0.1325936 -0.021005824 0.030022338 0.062228456 -0.14401278 -0.077357136 0.11742087 0.043329716
-0.057426237 0.07527441 0.0441155 -0.1204054 0.07761586 -0.099512205 -0.15014783 -0.06874512
-0.15625119 -0.14820346 -0.10070115 -0.163578 0.15657322 0.16520734 -0.075904295 0.102966085
0.024221435 -0.09574412 -0.13934454 -0.09145316 0.050386727 0.10149278 0.049803317 0.13163407
-0.061875425 -0.045254588 0.04500638 0.012227997 0.16365953 -0.08994492 -0.0010884255 0.132739
-0.15690619 -0.13404772 0.08351554 -0.15201169 -0.12168662 0.046804726 0.10831918 -0.049975336
-0.12291779 -0.056317985 0.13192539 -0.1486834 -0.12697184 0.013704643 -0.15277755 0.10207464
-0.13382845 0.012159541 -0.13986914 -0.011274949 -0.032326996 0.08594118 0.04992722 0.01718904
-0.15493743 -0.03728099 -0.022933185 -0.12032543 -0.0012990683 -0.023650035 -0.08812507 -0.12815723
-0.14053386 0.16262852 0.13088892 -0.037559792 -0.06703782 0.13425048 -0.12325019 -0.16281477

weight f4 [8]
00000000: 0000 803f 0000 803f 0000 803f 0000 803f
00000010: 0000 803f 0000 803f 0000 803f 0000 803f
1.0 1.0 1.0 1.0 1.0 1.0 1.0 1.0

bias f4 [8]
00000000: 0000 0000 0000 0000 0000 0000 0000 0000
00000010: 0000 0000 0000 0000 0000 0000 0000 0000
0.0 0.0 0.0 0.0 0.0 0.0 0.0 0.0

running_mean f4 [8]
00000000: 1f8e 48bb fd36 4fbd 55ac a0bb c192 42bc
00000010: e386 71bc d74e 093c 5ff0 d53c 8015 2d3d
-0.003060229 -0.05058955 -0.004903356 -0.011875809 -0.014741632 0.008380613 0.026115594 0.042256832

running_var f4 [8]
00000000: 001c 703f f2e6 723f becb 703f 4011 6e3f
00000010: 181e 713f baf7 723f 506d 733f 2374 723f
0.93792725 0.94883645 0.94060886 0.9299507 0.94186544 0.9490925 0.9508867 0.9470846

weight f4 [8, 8, 1, 1]
00000000: b0f8 713d 48f7 b53e b8f3 11bf 9a96 3abe
00000010: 94be 5bbe a489 54be 9d55 1a3f 0ac1 eebe
00000020: 70d2 dabe 54cc b8be a47f 14bf ddc0 083f
00000030: 604b d83c 3421 e0be 60da dbbc caaa cbbe
00000040: e085 c4bc 70fb babd c88f 26be fa69 e53e
00000050: c0f8 ebbc f0a4 82bd e883 dabd cb4f 9cbe
00000060: a6d6 47be ce71 63be 829b 07bf eae6 e6be
00000070: 16c0 02bf b515 06bf 887f efbd 30ba ecbe
00000080: 502e 103e d225 07bf e09d 8a3c 7450 6bbe
00000090: f0f0 ac3e 6a38 bd3e 49d1 0a3f 3830 913d
000000a0: 48a6 ba3e 40f3 05be 478b 0a3f d8c8 5c3e
000000b0: 90e2 473e 7701 063f f288 0bbf 6050 7cbd
000000c0: 8016 aebb ad4e 9fbe f87b f73d 00a4 623d
000000d0: 009a b8bd fdc3 103f 876d 12bf 227a 9f3e
000000e0: 9462 3dbe a5e5 11bf 806d e3be 101c 36bd
000000f0: b4c7 dfbe bb16 a2be 7008 ccbd 9c06 b43e
0.059075058 0.35540223 -0.5701251 -0.18221512 -0.21459419 -0.2075563 0.60286885 -0.46631652
-0.42738676 -0.3609339 -0.58007264 0.53419286 0.02640313 -0.43775332 -0.026837528 -0.3977874
-0.023989618 -0.09129989 -0.16265786 0.44807416 -0.028805137 -0.063791156 -0.1066969 -0.30529627
-0.19515476 -0.22211382 -0.5297166 -0.45098048 -0.5107435 -0.5237687 -0.116942465 -0.462358
0.14080167 -0.52792084 0.016920984 -0.22979909 0.3377757 0.36957103 0.54225594 0.07089275
0.36454988 -0.13081074 0.5411877 0.21560991 0.1952002 0.52345985 -0.54505837 -0.06160009
-0.005312741 -0.31114712 0.12084192 0.055332184 -0.09013748 0.56549054 -0.57198375 0.31147867
-0.18494636 -0.56991035 -0.4441948 -0.044460356 -0.4370705 -0.31657967 -0.09962547 0.35161293

bias f4 [8]
00000000: 45e1 0fbe 677a b23e 9d11 b43e 90f0 52be
00000010: 79a5 9abe a0ad 91bc 2488 9b3d 0d57 9b3e
-0.14050777 0.3485901 0.35169688 -0.2059958 -0.3020437 -0.017782986 0.07594326 0.30339852

weight f4 [8, 8, 1, 1]
00000000: 0784 88be 2c76 16bf d730 9ebe 351c c4be
00000010: 457b 153f 0651 bc3e 2048 673e b6a7 29be
00000020: 1772 eebe f268 b23e d7e4 0a3f 467f 1dbe
00000030: bbb2 ffbe fd29 133f 4707 053f c44f 813e
00000040: 90df 593d 388c 31be ae2f 36be f8af a63e
00000050: 36d6 ea3e e6ef f7be e4e3 b3be 04c3 17bf
00000060: 0d07 003f 3a70 26be 1e43 a23e b69f cebe
00000070: fe24 05bf 1eac 4cbe a7c7 0c3f 6886 cfbd
00000080: 307a babd 1458 243e bace b7be 0079 a2bb
00000090: 66b7 16bf aaac cd3e 410f 1b3f 9061 153e
000000a0: b815 74be b6d8 d53e 7950 00bf e807 99bd
000000b0: de2d f33e 3caa d5be 0d53 1abf 6463 9d3e
000000c0: 000f b8be b01e 583d 56e3 80be 4cea 633e
000000d0: 3240 a93e 947c a43e 5c8e c7be 603f d53c
000000e0: 109c b7be f0f5 f2bd 76ee a7be e78f e5be
000000f0: 87a7 16bf de0f 22be f8a1 b9bd 00be 4f3d
-0.2666323 -0.58774066 -0.30896637 -0.3830277 0.5839122 0.36780566 0.22586107 -0.16567883
-0.4657142 0.34845692 0.5425543 -0.15380582 -0.49941048 0.57485944 0.5196423 0.2525617
0.05319172 -0.17338645 -0.17791626 0.32556129 0.45866555 -0.48425215 -0.35134804 -0.59281945
0.5001076 -0.16253749 0.3169183 -0.40356225 -0.5200957 -0.19987532 0.54992145 -0.10133058
-0.09105337 0.16049224 -0.35899907 -0.004958272 -0.58873594 0.40170795 0.6057015 0.14587998
-0.2383641 0.417669 -0.5012279 -0.07472211 0.4749593 -0.4173144 -0.60282975 0.30739892
-0.35948944 0.05276364 -0.25173444 0.22257346 0.3305679 0.32126296 -0.389758 0.026031196
-0.35861254 -0.11863315 -0.3279912 -0.4483635 -0.58849376 -0.15826365 -0.09064096 0.050718307

bias f4 [8]
00000000: 385d afbd 010c b33e 4025 25be eec1 073e
00000010: 6ec6 0b3e dc56 10be 595b a63e 50db 9abe
-0.08562702 0.34970096 -0.16127491 0.13257572 0.13649914 -0.14095634 0.32491568 -0.30245447

weight f4 [8, 8, 1, 1]
00000000: 20ca 3e3d 5afe fa3e 86c3 d4be a804 c0be
00000010: 4e6d 42be 5c32 3dbe 1820 c03e 2019 81bc
00000020: ea4d 803e 80c6 a5bc 6d8a e0be a6dc c8be
00000030: 2064 69bd 6794 063f 46bd ff3e 3690 e7be
00000040: 925b d43e 0039 28bd eee5 c63e 6780 10bf
00000050: fa1b c2be e2a2 e0be 8d0a a1be d6ac 51be
00000060: 626b b43e 068d 843e d6d8 ef3e b3ed 0bbf
00000070: 1a35 a1be 389b 103e 5a97 1bbf d801 de3d
00000080: a557 02bf b46a c2be b81b d33d 5296 aebe
00000090: f665 72be b6f4 cdbe 38e2 d2be 0843 d9bd
000000a0: 68b8 9abd 659c 163f 48dd 08bf b890 04bf
000000b0: a8bc 00bf 224a ff3e d23c 8e3e c06b 363c
000000c0: 1264 bebe 44c0 48be 1082 9a3d 0e19 35be
000000d0: 5d57 88be 4a5e d43e a06e 7c3e 70cb 8dbd
000000e0: 8019 94bc aeda f93e 5aff abbe 018a 0c3f
000000f0: 3cf2 b83e b095 323e 0a39 34be ef7c 183f
0.04657948 0.4902218 -0.41555423 -0.37503552 -0.18987009 -0.18476242 0.37524486 -0.01575905
0.25059444 -0.020236254 -0.4385561 -0.3923084 -0.056980252 0.52570194 0.49949092 -0.45227212
0.41476113 -0.041069984 0.38847297 -0.56445926 -0.3791197 -0.4387427 -0.31453362 -0.20476088
0.35238177 0.25888842 0.4684512 -0.54659575 -0.31485826 0.14121711 -0.6077782 0.108401954
-0.50914985 -0.37972033 0.10308021 -0.3409906 -0.23671708 -0.40225762 -0.41188216 -0.10608488
-0.07554704 0.5883239 -0.5346265 -0.51783323 -0.50287867 0.49861246 0.27780777 0.011134088
-0.37185723 -0.19604594 0.07544339 -0.17685339 -0.26629153 0.41478187 0.24651575 -0.06923568
-0.018078566 0.48799652 -0.33593255 0.5489808 0.3612231 0.17439914 -0.17599884 0.59565634

bias f4 [8]
00000000: 047d 85be 5c50 b4be 86ab 81be 98e6 07be
00000010: aa9a e2bd 2e86 543e bc79 bebd d652 763e
-0.26071942 -0.3521756 -0.25326174 -0.13271558 -0.11064656 0.2075431 -0.09300563 0.24055037

weight f4 [8, 8, 1, 1]
00000000: 7445 873e bcef 04be 2853 123e 6a4b db3e
00000010: 5c83 eebd c286 88be a2f6 29be 885f 023e
00000020: 3c5c 603e 96b8 5ebe 3b3e 19bf 4c2e 053e
00000030: 799b 003f 3076 eebd acd1 c03e 80a7 e8bb
00000040: f85e e6be 09a9 08bf 8101 013f ae95 04be
00000050: dde7 013f ae1d bd3e 8eb2 bc3e f48b 9e3e
00000060: 2c49 133e 4762 abbe 9ea5 fb3e 9c2d 4f3e
00000070: 3e17 ec3e 24d8 07bf 181c b4bd 5f1c aabe
00000080: 2456 09be 1b65 bcbe 7bc3 a9be 005b f23b
00000090: 34de bd3e 28ef b8be 0299 fd3e 248a 12bf
000000a0: 0b2a 183f cb7a b1be 671b 1abf 0090 4fbb
000000b0: 76fe da3e 80dc 10bd 48c5 033e a428 3abe
000000c0: 4a31 13be 30d8 9dbd 92f7 a53e 6cf8 94be
000000d0: af50 023f e40f 9b3e 50a3 a53e 44a2 4c3e
000000e0: fc2c 62be 22b8 eb3e d43e 983e f2bd ed3e
000000f0: d00d 85be 80f8 41be ff4f 87be d80a 9e3d
0.26420176 -0.12982076 0.14289534 0.42830974 -0.116461486 -0.26665312 -0.16597989 0.12731755
0.21910185 -0.21750101 -0.5986058 0.13005942 0.5023723 -0.11643636 0.37659967 -0.0071000457
-0.4499433 -0.5338293 0.5039292 -0.12947723 0.5074442 0.36936706 0.36854976 0.3096615
0.14383382 -0.33473417 0.49149793 0.20232242 0.46111482 -0.5306418 -0.08794421 -0.3322477
-0.13411766 -0.36795887 -0.33156952 0.007396102 0.3708359 -0.36119962 0.49530798 -0.57242036
0.5943915 -0.34663996 -0.6019806 -0.0031671524 0.42772263 -0.035366535 0.12868226 -0.18179566
-0.14374271 -0.0770725 0.32415444 -0.2909578 0.50904363 0.3028556 0.3235116 0.19983774
-0.22087473 0.4603892 0.29735434 0.4643398 -0.259871 -0.18942451 -0.2642822 0.07716912

bias f4 [8]
00000000: 706e b2bd e643 703e 1858 b23d ba02 1d3e
00000010: 36d3 d9bd f470 d8bd a86c 98bd 3014 aebc
-0.087124705 0.23463401 0.08708209 0.15333071 -0.106359884 -0.10568419 -0.074425995 -0.02124986

weight f4 [27, 8, 3, 3]
00000000: 1625 b5bd 12e1 933d fc47 10bd 58c5 2fbd
00000010: e07c d63d b432 b6bd 283b 90bd 4015 e3bd
00000020: aa30 babd 6003 d03b 2d9d 033e 002c 823d
00000030: 208a f93b 801a b83c 9e7c fc3d 8078 41bb
00000040: febc ae3d 9089 a83c c0a4 fa3b 6e10 4bbd
00000050: 181b 723d 1b6c e3bd 36c8 58bd f821 ab3d
00000060: 0815 a8bc d256 90bd 4c29 09bd fea8 e93d
00000070: 1e7b ff3d b08b e13d 886e e23c 62eb 01bd
00000080: b027 4a3d 3bce 083e 208a 5d3c 0052 89b9
00000090: 9d67 c8bd 9c59 d2bc 8528 0abe a4e7 ac3d
000000a0: e8d4 69bc e600 ea3d c69a 68bd 8a1e 3abd
000000b0: 5871 9d3c c010 f93c 6c9f 09be 9c9d b33d
000000c0: ea0d 1bbd e857 03bd d2f6 0cbd d042 1ebc
000000d0: 229a b33d 64a9 983d 603e ef3c 9ec3 d63d
000000e0: 14b9 00bd 022b d53d baf4 c73d 301d 963d
000000f0: 4947 0abe 3f95 04be 6ae2 863d ba9a 03bd
00000100: f2ad ecbd 96b0 d7bd aee6 9c3d 359d a1bd
00000110: 108c 39bc 403b 823c 7e02 9cbd 3d41 b9bd
00000120: 80f6 473b 5475 3a3d 7c1e cb3d 0069 c1ba
00000130: ba15 d93d 3014 133d f443 cebd c3a1 043e
00000140: 09e7 0c3e 72e0 ca3d c429 99bc 0022 a73d
00000150: 262d fd3d 54a8 1ebd 902b 48bc 80e6 c53a
00000160: a08d 813c b0f8 273d 1712 0bbe 58a2 cebd
00000170: 98ba 563d a8d9 a83d aef5 f43d 645b 0cbe
00000180: c1e2 05be cae5 54bd 9430 bf3d 8226 bc3d
00000190: fad6 b33d 4483 973d 5833 103d a31c 013e
000001a0: e0a1 aa3c 749c 033d db73 90bd 7242 dc3d
000001b0: 9075 57bc 82c3 eb3d d493 3c3d 987d 29bd
000001c0: ba07 fd3d f253 67bd a08a 973c 4030 bebd
000001d0: 6844 09be 646e 423d e078 9c3c 42d6 f43d
000001e0: 1aaa c4bd 6202 e8bd b6f1 0abe 0ab2 92bd
000001f0: 71ae 083e 3835 42bd e468 1abd 98bc adbd
00000200: 089d 0abe 5c40 4c3d 4044 753b a2d6 80bd
00000210: c0f2 8f3d df1b 84bd 4a7f 94bd f234 70bd
00000220: d711 0d3e 1827 a23c 380c 3abd 48f4 813d
00000230: 2402 4a3d e0b9 18bd fe3c fc3d 00b5 f63a
00000240: 9006 34bd 98c1 72bd 4033 b4bd 566b ef3d
00000250: 00f9 003a cf7a 9bbd 28af 5e3d 64e9 833d
00000260: a6b5 b5bd fc84 d0bc 0ec4 3bbd 0f5d 013e
00000270: 9a60 c53d 347f 3abd 8689 1cbd 2ad3 e4bd
00000280: 43b3 0b3e 1e0c c13d bc1e 6fbd 9c9d 09bd
00000290: 6cf9 563d b8da a93d 5c5f cfbc eb34 fdbd
000002a0: e009 633c a4f2 55bd c4a8 2c3d e623 c33d
000002b0: 29c3 03be e0d0 b33b ceac dc3d 00da acbc
000002c0: 2ea3 dabd 18a7 8b3d f8f7 193d 5e76 f93d
000002d0: 9033 063d 3c19 af3d 22ac c63d 60ea 8abb
000002e0: 386a 903c 2667 b93d a0d6 223c 0ae7 973d
000002f0: 2948 0b3e 106e 843c 4e49 95bd 2c67 9cbd
00000300: aa0b 6abd fca1 2c3d 32cc a03d 8ac9 a33d
00000310: 10b4 c8bd 187a 78bc a739 013e aac1 6bbd
00000320: e48f f7bc f21d 71bd 78bd 03bd 42c1 cdbd
00000330: 08c0 043d dfeb 013e 2011 8a3b b837 e03c
00000340: e494 febc 563a 88bd d2ac a1bd b03f 9bbd
00000350: 0404 91bc 2647 c73d 81e5 83bd 08db 91bc
00000360: 8c48 c13d 603f de3b bebc e2bd d01f 863c
00000370: 39e2 033e c082 c2bd c682 35bd 38bd c23c
00000380: a01d 083d f80a a73c 80f6 353b 3ee6 b0bd
00000390: 4e30 b43d ce49 8cbd 02b5 6abd e849 debc
000003a0: 2c38 ae3d 4c40 84bd ea28 de3d 1d0f 0a3e
000003b0: 2004 f03b 0c76 5f3d aa26 1fbd 203e 24bc
000003c0: e0b7 423c 089e fe3c 37d1 92bd 311a 02be
000003d0: 00f4 fcbb e00d 2bbc 4103 b3bd c8cb 9c3c
000003e0: cef4 bebd 7a75 5cbd 3002 23bc f759 093e
000003f0: 2880 1a3d 4814 d63d 7854 cdbc d033 d93c
-0.08844964 0.07220663 -0.0352249 -0.04291281 0.10473037 -0.088963896 -0.07042533 -0.110880375
-0.09091313 0.0063480586 0.12852927 0.063560486 0.0076153427 0.022473574 0.12328456 -0.0029521286
0.08532141 0.020573407 0.0076490343 -0.049576215 0.05910787 -0.11104604 -0.05292531 0.083560884
-0.020517841 -0.0704781 -0.03348665 0.11409186 0.124746546 0.110129714 0.027640596 -0.03171862
0.049354255 0.1335992 0.013521701 -0.0002619177 -0.09785388 -0.025677495 -0.1349202 0.084426194
-0.014271952 0.114259526 -0.05678823 -0.04543928 0.019219086 0.030403495 -0.13439721 0.08770296
-0.037855066 -0.032066256 -0.034415074 -0.009659484 0.08769633 0.07454184 0.029204547 0.1048653
-0.031426504 0.10408594 0.09763475 0.07329786 -0.13503756 -0.12947558 0.06586154 -0.03212998
-0.11556615 -0.10531728 0.07661186 -0.07891313 -0.011324897 0.015897393 -0.07617663 -0.09045646
0.0030511916 0.04552205 0.09917924 -0.0014756024 0.10599847 0.035907924 -0.10071555 0.12952332
0.13760008 0.09906091 -0.018696673 0.08160782 0.12362127 -0.03873475 -0.012217417 0.0015098602
0.015814602 0.04100865 -0.1358112 -0.10089558 0.052424043 0.0824464 0.11960922 -0.13706738
-0.13074781 -0.051976956 0.093354374 0.09187032 0.08781238 0.07398084 0.035205215 0.1260858
0.020829141 0.032131627 -0.07053348 0.10754861 -0.013150588 0.115118995 0.046039417 -0.04137954
0.12354989 -0.05647654 0.018498719 -0.09286547 -0.13405001 0.047468558 0.019100606 0.11954929
-0.09602757 -0.113285795 -0.13568768 -0.071628645 0.13347794 -0.047414035 -0.037697688 -0.08483237
-0.13536465 0.049866065 0.0037424713 -0.06290938 0.07028723 -0.064506285 -0.07250841 -0.058644243
0.13776337 0.019794032 -0.04542181 0.06345421 0.049318448 -0.03728664 0.12316321 0.0018822253
-0.04395157 -0.059266657 -0.08798838 0.116903946 0.00049199164 -0.07591783 0.05436626 0.06441
-0.08872537 -0.025454037 -0.04584127 0.12633155 0.09637566 -0.045531467 -0.03821709 -0.11173089
0.13642602 0.09426139 -0.05837892 -0.033597574 0.05248396 0.082936704 -0.025314026 -0.12363609
0.013857335 -0.052233353 0.042153135 0.095283315 -0.12867416 0.0054875463 0.107751474 -0.021100044
-0.10675655 0.0681898 0.037589997 0.1218078 0.032764018 0.08549735 0.097008005 -0.0042393655
0.017628774 0.09052877 0.009938866 0.07417114 0.13601746 0.016165763 -0.072893724 -0.07636866
-0.05714003 0.042146668 0.07851447 0.07997425 -0.09799969 -0.015165828 0.12619649 -0.05755774
-0.03021998 -0.05886645 -0.032163113 -0.100466266 0.032409698 0.12687634 0.0042134672 0.027370319
-0.031076856 -0.06651752 -0.07894291 -0.07580507 -0.01770211 0.09730367 -0.06440259 -0.017804638
0.09437665 0.006782457 -0.11071156 0.016372591 0.12879266 -0.09497595 -0.04431417 0.023771867
0.033231378 0.020390972 0.0027765334 -0.08637665 0.08798276 -0.068500146 -0.05730153 -0.02713485
0.08506808 -0.06457576 0.108476475 0.13482328 0.0073247105 0.054555938 -0.038855232 -0.010024577
0.0118846595 0.031081215 -0.07168811 -0.12705304 -0.0077195168 -0.01044032 -0.08740855 0.01914014
-0.093240365 -0.053822972 -0.009949252 0.13413225 0.037719876 0.10453087 -0.025064692 0.026513964

weight f4 [27]
00000000: 0000 803f 0000 803f 0000 803f 0000 803f
00000010: 0000 803f 0000 803f 0000 803f 0000 803f
00000020: 0000 803f 0000 803f 0000 803f 0000 803f
00000030: 0000 803f 0000 803f 0000 803f 0000 803f
00000040: 0000 803f 0000 803f 0000 803f 0000 803f
00000050: 0000 803f 0000 803f 0000 803f 0000 803f
00000060: 0000 803f 0000 803f 0000 803f
1.0 1.0 1.0 1.0 1.0 1.0 1.0 1.0
1.0 1.0 1.0 1.0 1.0 1.0 1.0 1.0
1.0 1.0 1.0 1.0 1.0 1.0 1.0 1.0
1.0 1.0 1.0

bias f4 [27]
00000000: 0000 0000 0000 0000 0000 0000 0000 0000
00000010: 0000 0000 0000 0000 0000 0000 0000 0000
00000020: 0000 0000 0000 0000 0000 0000 0000 0000
00000030: 0000 0000 0000 0000 0000 0000 0000 0000
00000040: 0000 0000 0000 0000 0000 0000 0000 0000
00000050: 0000 0000 0000 0000 0000 0000 0000 0000
00000060: 0000 0000 0000 0000 0000 0000
0.0 0.0 0.0 0.0 0.0 0.0 0.0 0.0
0.0 0.0 0.0 0.0 0.0 0.0 0.0 0.0
0.0 0.0 0.0 0.0 0.0 0.0 0.0 0.0
0.0 0.0 0.0

running_mean f4 [27]
00000000: 9362 4939 df2a fb3c 28a5 573c 59f2 afbb
00000010: 7650 9e3c d996 93bc 0b76 4e3c c067 e0bb
00000020: 0ad3 e23c 37d9 b43c 48bf 5fbb 3e5f c23b
00000030: 5fff 983c 3c69 3b3b 7fa3 a53c 5f03 05bd
00000040: 750c a2bb 82b3 04bc 5dd0 2fbd f57b edbc
00000050: ef17 f33c b716 76bb fa61 e3bc 5527 7cbc
00000060: c873 45bb 5571 3f3d 99df a73c
0.00019205576 0.030660091 0.013161935 -0.0053694663 0.019325476 -0.018016266 0.012601386 -0.0068483055
0.027688522 0.022076232 -0.0034141112 0.005931764 0.018676458 0.002859666 0.020219563 -0.032473918
-0.0049453327 -0.008099439 -0.04292332 -0.028989771 0.029674498 -0.003755016 -0.02775668 -0.015390237
-0.0030128825 0.04673894 0.020492362

running_var f4 [27]
00000000: aff0 6b3f ef81 6d3f 948b 6c3f 4f4a 6c3f
00000010: 2c61 6d3f 2428 6d3f 722d 6d3f 8695 6c3f
00000020: 29d7 6d3f c1d1 6d3f 7f1f 6b3f b0e6 6c3f
00000030: 8847 6c3f 3a1b 6d3f b719 6e3f dec1 6d3f
00000040: 26b6 6c3f 1c3a 6b3f 8de7 6c3f 7a53 703f
00000050: 332d 6d3f 31ac 6d3f e55d 6e3f 3054 6c3f
00000060: ff53 703f 564b 6e3f 3bde 6b3f
0.9216413 0.9277639 0.9240048 0.92300886 0.927264 0.92639375 0.9264747 0.92415655
0.92906433 0.92898184 0.91844934 0.925395 0.9229665 0.9261967 0.9300799 0.9287394
0.92465436 0.9188554 0.9254082 0.93877375 0.92647094 0.9284087 0.9311202 0.9231596
0.9387817 0.93083704 0.9213597

weight f4 [14, 27, 3, 3]
00000000: 3c9f 833d 2a3d d9bd 5a2c d43d 588e a9bc
00000010: 7a5e 943d cc7d 7bbd ba76 abbd 9419 d0bc
00000020: 009b fbba 4682 56bd 80ef 283d fe33 aabd
00000030: 56de e53d eaf3 b53d 009b 56bb 6c0f c33d
00000040: 00b4 a23c 66ce 993d 0aa8 2cbd 257d f4bd
00000050: b259 9c3d 966d 983d 7ccd 643d e8b5 a2bc
00000060: 2856 8ebd 587c 973c da56 ee3d 44d5 8d3d
00000070: 1885 ecbc b279 20bd 32e6 d63d fe98 893d
00000080: dbf9 b1bd 0c75 91bd 744f 033d 5897 fd3c
00000090: 484a d13d 58dc ef3d 30d8 fc3d 50ef dabd
000000a0: b5b7 e9bd be6d 70bd e0e8 6d3c d088 f43c
000000b0: 3f2e c7bd 1c17 193d d256 c93d ccf9 7dbd
000000c0: 1801 b03d b6c9 b5bd 9a44 50bd 288d 31bc
000000d0: 002e 95ba ca0c b33d 807b 49bc 2086 34bb
000000e0: 0e41 1bbd 7885 743d 6666 ba3d 5c3b 6e3d
000000f0: b86f 013e 6436 d93d 0c5c 903d 5160 c8bd
00000100: de72 eabd c066 4b3b 5e29 e83d be1e 1ebd
00000110: cc57 bf3d d882 9ebd d08c 143c 185e 20bd
00000120: a085 06bd 138d a6bd d441 0c3d 9089 233c
00000130: c08c 2d3d 3419 6bbd 70bf 8b3d a0e5 5abd
00000140: 8cb5 81bd 9dc3 e9bd 007d 55bd acff 243d
00000150: 3826 a53c f087 573d b092 15bc 9c41 c5bc
00000160: 8078 5ebc 1003 8dbb 008a 1aba 16be b8bd
00000170: 5cf8 67bd dcdd 5fbd 3e1e 023e aecd a53d
00000180: e88f 1b3d 00a9 5cbb 3150 ddbd 704b 4d3c
00000190: 9446 503d 07a0 86bd bb4a a7bd 1229 833d
000001a0: 809d 61bd af6b debd fca6 83bd eae1 10bd
000001b0: 0166 c7bd 22d0 c53d 505e 0c3d 26d7 cfbd
000001c0: 1a98 9bbd 2fa6 f2bd d843 dcbd 88ce 873c
000001d0: 5868 26bd 205e 7c3d 6020 633c 08af bb3d
000001e0: 0677 f6bd 6cf3 b4bd 8062 b3ba 20ed ac3b
000001f0: 5a59 bb3d a65a 8e3d 92fc 18bd 56f7 de3d
00000200: 14f5 b9bd 3e31 c73d acfb fb3d 5a5f 8c3d
00000210: 404f f93b 60d3 4a3d fe97 e53d 80e4 b33b
00000220: ec93 21bd 60ec 363d 30cb 9b3c 207d 913c
00000230: 088f 433d d01c bf3c 50d8 193c ac14 00bd
00000240: 5a19 d83d 7ca4 013e 4faa 84bd 9a30 f03d
00000250: 2c0e 923d 44c7 cabd 28bc f73d b8ae 16bd
00000260: cc02 3f3d d884 4dbd bcdc a73d 74f5 5f3d
00000270: 3a69 da3d 8115 f8bd e4db 0cbd 27da cfbd
00000280: d80a f3bc 84e4 bd3d 305d 5a3d dee6 9f3d
00000290: 9842 bb3d e450 f03d 1609 20bd e83d 843c
000002a0: a08c 6dbb 48d5 803c a315 cabd 3838 563d
000002b0: 884b 1ebd d0d2 b5bb 2ad5 db3d 3ce5 e5bd
000002c0: 9600 c7bd 76ea dc3d 482b be3d 4207 f7bd
000002d0: 0a76 c03d f8b6 043d a059 103c 0272 7ebd
000002e0: f203 95bd 842c cf3d a4f1 333d ea44 d4bd
000002f0: 7ab9 843d 3205 853d 47c8 a7bd 90f4 a13d
00000300: 481d 213d 5559 8abd 6656 c33d 001d 693d
00000310: f215 6ebd 309b cd3d 58d9 433d 8620 97bd
00000320: e67f af3d 0e6b d63d 9440 2d3d f205 7fbd
00000330: c8dd fa3d 0cbc c1bc f0ea 063c 0ed7 0fbd
00000340: 04be 8bbd 7267 20bd c2bc 47bd aa31 3abd
00000350: 3452 c53d 7a2d d6bd 660f 4bbd c25c ee3d
00000360: 5433 5d3d 3623 afbd 32ed ab3d e097 f53d
00000370: f42d ff3d 30cd 8dbd dc3a 90bd 7ea3 9ebd
00000380: 96c7 c3bd d8c3 9c3d 9802 753d 5a1b 933d
00000390: b460 6ebd debd c9bd 6672 c43d eab9 29bd
000003a0: 00df bbbc 980e fb3d f826 9f3c 580b a0bc
000003b0: b8bb e33d 9aa1 a8bd 0cb1 a3bc 8632 ebbd
000003c0: 04db b3bd a45b 973d 2091 71bc b8d0 b93d
000003d0: 86c5 803d 66e8 89bd e8df ac3d 2008 693d
000003e0: 1c26 103d 763f 99bd 203b 773d f0a6 093c
000003f0: cc51 7f3d d366 8abd a4f3 df3d 5867 e53d
0.06426856 -0.10607369 0.10360022 -0.020697758 0.072445825 -0.061399266 -0.08372255 -0.025402822
-0.0019195974 -0.052370332 0.04124403 -0.08310698 0.11224048 0.088844135 -0.0032746196 0.09524426
0.019861221 0.075100705 -0.042152442 -0.11937932 0.076342955 0.07442777 0.055860028 -0.01986213
-0.06950027 0.018491909 0.11637659 0.06925443 -0.028872058 -0.039178558 0.10493125 0.06718634
-0.08690234 -0.07102403 0.032058194 0.030955955 0.10219246 0.11711949 0.12345922 -0.106901765
-0.114119925 -0.05869841 0.014520854 0.029850394 -0.097256176 0.037375554 0.09831013 -0.062005803
0.085939586 -0.08876364 -0.050846674 -0.010836877 -0.0011381507 0.08742674 -0.012297511 -0.0027545765
-0.037903838 0.0596976 0.09101562 0.05816208 0.12640274 0.10606077 0.070488065 -0.09783996
-0.114476904 0.0031036586 0.11336015 -0.038603537 0.09342918 -0.077398 0.009066775 -0.039152235
-0.03284228 -0.081323765 0.034242466 0.009981528 0.042370558 -0.057397082 0.06823623 -0.053441644
-0.063334554 -0.114142634 -0.052121162 0.04028289 0.020159826 0.052619874 -0.009129211 -0.024079137
-0.013578534 -0.0043033436 -0.00058951974 -0.09020631 -0.05663334 -0.05465494 0.12706849 0.08095871
0.037979037 -0.0033670068 -0.10806311 0.012530193 0.05084856 -0.065734915 -0.081685506 0.06404318
-0.055081844 -0.10860383 -0.06428334 -0.0353717 -0.097362526 0.09658839 0.03426963 -0.10148458
-0.075973704 -0.11848103 -0.10755128 0.016577974 -0.040626854 0.061613202 0.013862699 0.09164244
-0.12034421 -0.088354915 -0.0013685971 0.005277291 0.09147902 0.069508836 -0.037350245 0.10887019
-0.09079948 0.09726189 0.12303862 0.06854124 0.0076083243 0.04951799 0.11210631 0.005489886
-0.03944771 0.04465902 0.019017786 0.01775986 0.047743827 0.023329169 0.009389952 -0.031269714
0.105517104 0.12660402 -0.06477796 0.1172802 0.07131609 -0.09901288 0.12096435 -0.03678772
0.046633527 -0.050175518 0.081963986 0.05467744 0.106646016 -0.121134765 -0.03438939 -0.10149031
-0.029668257 0.092721015 0.053311527 0.07807706 0.09143561 0.11734179 -0.039071165 0.0161428
-0.003624715 0.0157267 -0.09867408 0.052299708 -0.03864625 -0.0055488124 0.10734017 -0.112253636
-0.09716909 0.107869074 0.09285599 -0.12061931 0.09397514 0.032401055 0.008810431 -0.062120445
-0.07276143 0.101159126 0.04393162 -0.10364707 0.06480689 0.064951316 -0.08192497 0.07907975
0.039334565 -0.0675532 0.095379636 0.056912422 -0.058126397 0.10039365 0.047814697 -0.0737925
0.085693166 0.10469638 0.042297915 -0.06226153 0.12249333 -0.023649238 0.008234724 -0.0351172
-0.06823352 -0.039161153 -0.048763998 -0.04545752 0.096348196 -0.10457893 -0.049575232 0.11638786
0.05400403 -0.08551638 0.08394851 0.119918585 0.12459937 -0.06923902 -0.070424765 -0.077460274
-0.09559552 0.07654542 0.059816927 0.07182951 -0.058197692 -0.098506674 0.09592132 -0.041437067
-0.022933483 0.12258643 0.019427761 -0.01953666 0.11119789 -0.08233948 -0.019981883 -0.11484246
-0.08782008 0.07390526 -0.014744073 0.09073013 0.062876746 -0.067337796 0.08441144 0.056892514
0.035192594 -0.07482807 0.06035912 0.008401617 0.062333867 -0.067578934 0.10935143 0.11201352

weight f4 [14]
00000000: 0000 803f 0000 803f 0000 803f 0000 803f
00000010: 0000 803f 0000 803f 0000 803f 0000 803f
00000020: 0000 803f 0000 803f 0000 803f 0000 803f
00000030: 0000 803f 0000 803f
1.0 1.0 1.0 1.0 1.0 1.0 1.0 1.0
1.0 1.0 1.0 1.0 1.0 1.0

bias f4 [14]
00000000: 0000 0000 0000 0000 0000 0000 0000 0000
00000010: 0000 0000 0000 0000 0000 0000 0000 0000
00000020: 0000 0000 0000 0000 0000 0000 0000 0000
00000030: 0000 0000 0000 0000
0.0 0.0 0.0 0.0 0.0 0.0 0.0 0.0
0.0 0.0 0.0 0.0 0.0 0.0

running_mean f4 [14]
00000000: 4da8 fb3c 17c3 4d3d 4705 973c a71e 473b
00000010: bf60 933c 47a3 c53b e7b2 17bb cd7b 063d
00000020: 3f7b 613c 4785 cdbb df1f e73c 7538 c5bc
00000030: 45b5 21bc 1752 833c
0.0307199 0.05023488 0.018435134 0.003038326 0.017990468 0.006031427 -0.0023147406 0.03283291
0.013762294 -0.0062719914 0.02821344 -0.024074772 -0.009869878 0.016030354

running_var f4 [14]
00000000: 121e 703f bc38 723f 3229 6f3f bc23 703f
00000010: b380 713f 0496 703f 84d0 6d3f 7bc0 6f3f
00000020: 444d 703f 0ac3 713f ef40 703f c076 703f
00000030: 3f1f 713f b409 713f
0.93795884 0.9461782 0.93422234 0.93804526 0.94337004 0.93978906 0.92896295 0.93653077
0.938679 0.9443823 0.9384908 0.939312 0.941883 0.9415543

weight f4 [14, 8, 1, 1]
00000000: 8cae 03bf e827 d23e 8843 bdbd a050 493d
00000010: 3b47 013f 78c1 f83d 0028 3f3e 1c4c a1bd
00000020: c03c 93be 243c 8ebd ee76 d9be f402 103e
00000030: 525f 1fbe fb64 e8be f86c b4be fa06 fa3e
00000040: e8f6 3bbe 5495 c1be 601f 183d 98b7 9bbe
00000050: 30a8 aebd a6ff ef3e bc2d b5bd 08a2 883d
00000060: 44c5 d73e f05a 72be 06c9 f3be 0a2f d03e
00000070: 6c7e 693e 02bc f3be 783c 8cbe 00e7 223c
00000080: c014 d9be 009f 06bb df9b 05bf e4ad e4be
00000090: 007b e73c 3c10 393e 9c89 723e c089 573c
000000a0: 76d8 e43e 80a1 77bc 48f6 d9be 7819 ff3d
000000b0: b65a ae3e cf13 82be ba47 d9be 40b8 b53c
000000c0: 7653 bc3e 993d adbe 1c0b 77be 0017 213b
000000d0: c057 963c 782a 983e 500c e83d d8c6 373e
000000e0: 24dc 103e bbb4 85be 7484 4bbe 0002 f4ba
000000f0: 0062 603d d45b 203e 94d2 d7bd af02 f8be
00000100: 6014 893e 06e2 a03e 80bb 853b 9845 cebe
00000110: cc2e 473e bab8 a23e a833 77bd 34c1 643e
00000120: 9c91 3f3e f439 7d3e 9259 f33e b075 ad3d
00000130: 44d4 743e 54ac 153e a6b6 f93e 0c44 c8be
00000140: e8bc 0bbe eddd bcbe 88af 58bd d885 763e
00000150: df32 003f 6ad0 1dbe fa08 cd3e c8a8 eb3e
00000160: cb08 a7be 8490 be3e f6af b43e 9e4d 803e
00000170: acc4 edbd 6243 f43e 45f5 01bf a000 5c3e
00000180: 3c8d dfbe 36c0 cd3e 704e b03e 8528 f0be
00000190: 4015 ea3e 98f7 39bd cc55 173e 58aa 45bd
000001a0: c093 c03e 980c 133e c0c0 013e 20f8 983c
000001b0: 040c e9be df0e 033f 7273 0abe 72ad 93be
-0.5143821 0.4104607 -0.09241396 0.049149156 0.50499314 0.12146276 0.18667603 -0.07875845
-0.28757286 -0.06945065 -0.4247355 0.14063627 -0.15563706 -0.45389542 -0.35239387 0.48833448
-0.18355906 -0.3780924 0.037139297 -0.30413508 -0.08528173 0.46874732 -0.08846614 0.0667153
0.4214269 -0.23667502 -0.47614306 0.40660888 0.22802132 -0.47604376 -0.27389884 0.00994277
-0.42398643 -0.0020541549 -0.52190965 -0.44663918 0.028256893 0.18072599 0.23685306 0.013155401
0.44696397 -0.015114188 -0.4257071 0.1245603 0.34053582 -0.25405738 -0.42437536 0.022182584
0.36782426 -0.33836058 -0.24125332 0.002458036 0.01835239 0.297199 0.113304734 0.17946947
0.14146477 -0.2611445 -0.19874746 -0.0018616319 0.05478096 0.1566003 -0.105382115 -0.48439547
0.26773357 0.31422442 0.0040811896 -0.4028747 0.19451445 0.3178156 -0.060351998 0.22339326
0.1870789 0.24729139 0.47529274 0.08469713 0.23909098 0.14616519 0.48772162 -0.39114416
-0.13646281 -0.36888066 -0.052901775 0.24074495 0.50077623 -0.15411535 0.4004591 0.46027207
-0.32623896 0.37219632 0.35290498 0.25059217 -0.11609778 0.4770766 -0.50764877 0.21484613
-0.4366244 0.40185708 0.34434843 -0.46905914 0.45719337 -0.04540214 0.14778823 -0.048258156
0.37612724 0.14360273 0.12671185 0.018673003 -0.4551698 0.51194566 -0.13520601 -0.28843266

bias f4 [14]
00000000: 3136 a03e 0f92 aa3e d1e4 8e3e 92d3 d8bd
00000010: 8afa a5be 8012 223d 05b8 0ebe 8079 c6bb
00000020: f423 c53d 80ef d13c 7125 a93e 48e0 80be
00000030: 17f8 77be 001f c3bb
0.31291345 0.3331456 0.27908948 -0.10587229 -0.3241771 0.039568424 -0.13937385 -0.0060569644
0.09625998 0.025626898 0.33036378 -0.25171113 -0.24215733 -0.005954623

weight f4 [13, 8, 1, 1]
00000000: f8c3 8bbd 785a 17be 0ee3 f53e 5851 ee3e
00000010: 2430 ac3e 06a6 2cbe da9a cfbe 6073 88bd
00000020: 681a b13d c02d 753c d471 d4bd 8c53 343e
00000030: 6054 af3e bc28 ac3e 8076 a23d 8aff b7be
00000040: 3859 af3e 2c42 ee3e 46bd 9c3e 7806 443e
00000050: 2063 f93c fc7d 6d3e 4891 f9be 48c3 a8be
00000060: 238e 08bf 00e3 32bc 923a 833e a47f 4ebe
00000070: b0e3 9e3e ecb6 9ebe 6eb5 ff3e 4ec2 863e
00000080: a05f c0bd 980e 05be 5083 5d3e b0de af3e
00000090: 0e67 9f3e 10bd 37be f6aa 883e 64bb f7bd
000000a0: bc7d df3e 30e3 283e 8cdf c93e 40f4 3e3c
000000b0: a8f9 513e f061 4abd 882a bb3d f6e5 fa3e
000000c0: 0fc1 073f 3c1c eb3e 8cba ea3e ea66 96be
000000d0: 3c27 263e 3cab 013e 78d1 0ebd c272 d43e
000000e0: 7347 febe c256 fdbe 44d9 e7be 9c56 2abe
000000f0: 442b 84bd b251 dc3e 5ed7 973e 00c2 07bf
00000100: d0fc 8a3d d4d6 9dbd cc0b afbd c42c 6f3e
00000110: e6a1 d23e 080d 1d3e 723a cdbe 7fea 003f
00000120: cb6c 03bf 9c69 bdbd f03d 6c3e c4fe ca3e
00000130: 8a6b 9dbe 68c4 a4be 2088 febd 00bb d83d
00000140: c0fb 413e cc91 a5bd a0d0 cfbc 1219 b93e
00000150: 88b2 96bd 04cc c73e 3821 2b3e 305f 5f3d
00000160: 906c 113e 9297 f83e b651 62be dc0d c7bd
00000170: 8074 c7bc aa3f ef3e 00db 373b ccfd 4d3e
00000180: fe3d 6abe 9ed9 babe f956 f4be c4e6 41be
00000190: 942c fcbe ee5b 913e a296 9fbe 4057 743e
-0.068244874 -0.14780605 0.4802479 0.46546435 0.33630478 -0.16860208 -0.4054783 -0.06662631
0.08647615 0.014964521 -0.103732735 0.17609996 0.3424406 0.33624828 0.07932758 -0.35937148
0.34247756 0.4653486 0.30613154 0.19143093 0.030442774 0.2319259 -0.48743653 -0.32961488
-0.53341883 -0.010918379 0.25630623 -0.20165879 0.31033087 -0.30998933 0.49943107 0.26320118
-0.09393239 -0.12993848 0.21632123 0.34349585 0.31133312 -0.17943215 0.26692933 -0.12096289
0.43650615 0.16492915 0.39428365 0.011654913 0.20505393 -0.049409807 0.091389716 0.4900357
0.5302896 0.4591998 0.4584545 -0.29375392 0.16225904 0.12662977 -0.034867734 0.41493803
-0.49663886 -0.49480253 -0.45282948 -0.16634601 -0.06453565 0.4303108 0.296565 -0.53030396
0.067865014 -0.07706991 -0.08547172 0.2335692 0.41139144 0.15337002 -0.40083653 0.5035781
-0.5133788 -0.09248659 0.23070502 0.39647496 -0.30746108 -0.32181096 -0.124283075 0.105825424
0.18943691 -0.08084449 -0.025368035 0.3615194 -0.07358271 0.3902284 0.1671189 0.054534137
0.1420157 0.4855314 -0.22101483 -0.0971944 -0.024347544 0.4672826 0.0028054118 0.20116347
-0.2287521 -0.36494154 -0.47722605 -0.18935686 -0.4925276 0.2839045 -0.3116961 0.23861408

bias f4 [13]
00000000: 64e2 803d 0079 90be 407d c83c 5f75 81be
00000010: 5c67 d93d 5818 c4bd 8c15 b3bd 68fb 59bd
00000020: 596b 873e f82c 7e3d d2bc 52be 668c 73be
00000030: 78cd 123e
0.062931806 -0.28217316 0.024473786 -0.2528486 0.10615417 -0.09574956 -0.08744344 -0.053218275
0.26449087 0.062054604 -0.20579842 -0.23784027 0.14336193
