trained_model/KShopNetV2.pt (torch, 113267 bytes, 58 tensors)

weight f4 [57]
000000 1b e9 ba 3f 69 ae 2d 40 c1 21 e9 3f 97 0f c0 3f
       1.4602388 2.7137702 1.8213426 1.5004758
000010 94 25 b2 3f f5 3a 93 3f 6a 1d a5 3f e0 23 1f 3f
       1.3917718 1.1502367 1.2899601 0.62164116
000020 17 c2 a4 bf 0f e3 11 3f a3 28 63 3f e1 e0 cd bf
       -1.2871732 0.5698709 0.8873388 -1.6084253
000030 5c e9 33 3f f3 60 42 3f c8 8e f7 3f 12 6a 5a 3f
       0.70277953 0.7592918 1.9340448 0.853181
000040 07 06 db 3f d1 83 0b 3f 3d 4d d1 3f 8d e2 74 3f
       1.7111214 0.5449801 1.6351696 0.9565819
000050 fc d9 ed 3f 39 eb 42 3f 17 8d 20 3f 51 bb 1a 3f
       1.8582149 0.7614017 0.62715286 0.6044207
000060 d9 e6 39 3f 5c b5 a0 3f 1f 25 80 3f 59 50 e1 3f
       0.7261787 1.2555346 1.0011328 1.7602645
000070 91 ef ec 3f 2f d5 23 bf 5c 3d 33 3f 65 47 56 3f
       1.851061 -0.6399717 0.700155 0.8370269
000080 70 62 84 3f 17 1e df 3e aa f6 0c bf 4c f1 2f 3f
       1.0342541 0.43577644 -0.5506388 0.68727565
000090 01 10 8f 3f d2 3e 23 3f 47 63 52 3f f2 72 82 3f
       1.1176759 0.6376773 0.82182735 1.0191329
0000a0 81 90 8c 3f f4 fc ec 3f 58 f8 5d 3f 2d 47 06 3f
       1.0981599 1.8514695 0.8670707 0.52452356
0000b0 73 8b ee 3f bc 95 61 3f 7d a9 24 3f 8b 19 ef 3f
       1.8636307 0.881191 0.6432112 1.867967
0000c0 43 3c f0 3f b9 38 e4 3f 7e 5a 39 3f af 15 6f 3f
       1.876839 1.782981 0.72403705 0.9339246
0000d0 10 42 11 bf d0 c2 e8 3f 8d f1 e4 3f f7 20 dd 3f
       -0.5674143 1.8184452 1.7886215 1.7275685
0000e0 33 f4 7d 3f
       0.99200743

bias f4 [57]
000000 52 8e f8 bf 01 09 0e 3f 0d 45 fa bf cc 94 a4 3e
       -1.9418433 0.5548249 -1.9552323 0.32144773
000010 b2 eb 85 c0 4c f3 9f 40 18 06 17 40 81 ff f2 3e
       -4.1850214 4.9984493 2.359747 0.4746056
000020 d8 2f 57 bf c6 72 32 bf d0 e6 3b 40 45 7c db be
       -0.8405738 -0.6970638 2.9359627 -0.42868248
000030 0d 98 43 3e fc 7f 8f 3f 37 de c4 bf 01 24 3a bf
       0.19100972 1.1210933 -1.5380315 -0.7271119
000040 8b 76 10 40 90 22 64 bc 29 57 8c 3f 83 77 2b 40
       2.2572353 -0.013924256 1.0964099 2.6791694
000050 96 2e c2 3e fd ae 3b bf 96 7a b0 3e 7d db 06 bf
       0.37926167 -0.73313886 0.34468526 -0.5267866
000060 37 ff 4b bd 34 26 c7 bf 33 e2 b7 bf dc 5d 42 40
       -0.04980394 -1.5558534 -1.4365906 3.0369787
000070 a9 06 09 c0 af 1f cd 3e bd 60 44 c0 f6 75 89 bf
       -2.1410315 0.40063235 -3.0684044 -1.0739124
000080 a3 1f 18 be 81 58 1c 3e 72 95 8e bf d5 39 a1 bf
       -0.14855818 0.15268137 -1.1139357 -1.2595774
000090 e6 5a 2e bf 5f ad 67 c0 74 54 34 3f 38 32 b8 bf
       -0.6810745 -3.6199567 0.70441365 -1.4390326
0000a0 6c db 78 bf e9 59 4b 40 31 d3 d0 3e fe 0a d5 be
       -0.9720981 3.1773627 0.40786126 -0.4160995
0000b0 17 e6 df bf 2d a3 8c bf d5 e2 63 3e 48 b1 4b 3d
       -1.7492093 -1.0987297 0.22254498 0.049729615
0000c0 f7 1f 33 c0 f5 1e 39 bf 9d df 34 40 2f 99 00 bf
       -2.798826 -0.7231286 2.8261483 -0.5023374
0000d0 fc d0 1c 3c 99 76 80 bf 1b 8b 8e 3f 96 e6 0d bd
       0.00957131 -1.0036193 1.1136202 -0.034643732
0000e0 17 59 a7 bf
       -1.3074063

running_mean f4 [57]
000000 64 ef 7a 41 dd 0c cb 40 e5 5d fb 44 83 8e 72 42
       15.683445 6.34532 2010.9342 60.63917
000010 1f 0a 56 40 1d 4c 16 45 33 7e 52 44 bb 5f dc 43
       3.3443677 2404.757 841.97186 440.7479
000020 23 fb 7b 44 21 00 bf 44 ba 77 00 41 88 56 93 3d
       1007.924 1528.004 8.02923 0.07194239
000030 58 0b b6 3c 58 0b b6 3c 58 0b b6 3c 58 0b b6 3c
       0.022222206 0.022222206 0.022222206 0.022222206
000040 58 0b b6 3c 58 0b b6 3c 58 0b b6 3c 58 0b b6 3c
       0.022222206 0.022222206 0.022222206 0.022222206
000050 58 0b b6 3c 58 0b b6 3c 58 0b b6 3c 58 0b b6 3c
       0.022222206 0.022222206 0.022222206 0.022222206
000060 58 0b b6 3c 58 0b b6 3c 58 0b b6 3c 58 0b b6 3c
       0.022222206 0.022222206 0.022222206 0.022222206
000070 58 0b b6 3c 58 0b b6 3c 58 0b b6 3c 58 0b b6 3c
       0.022222206 0.022222206 0.022222206 0.022222206
000080 58 0b b6 3c 58 0b b6 3c 58 0b b6 3c 58 0b b6 3c
       0.022222206 0.022222206 0.022222206 0.022222206
000090 58 0b b6 3c 58 0b b6 3c 58 0b b6 3c 58 0b b6 3c
       0.022222206 0.022222206 0.022222206 0.022222206
0000a0 58 0b b6 3c 58 0b b6 3c 58 0b b6 3c 58 0b b6 3c
       0.022222206 0.022222206 0.022222206 0.022222206
0000b0 58 0b b6 3c 58 0b b6 3c 58 0b b6 3c 58 0b b6 3c
       0.022222206 0.022222206 0.022222206 0.022222206
0000c0 58 0b b6 3c 58 0b b6 3c 58 0b b6 3c 58 0b b6 3c
       0.022222206 0.022222206 0.022222206 0.022222206
0000d0 58 0b b6 3c 58 0b b6 3c 58 0b b6 3c 58 0b b6 3c
       0.022222206 0.022222206 0.022222206 0.022222206
0000e0 58 0b b6 3c
       0.022222206

running_var f4 [57]
000000 73 36 9a 42 f5 a2 26 41 b6 2e 1f 3f ab 6d ad 43
       77.106346 10.414784 0.6218065 346.85678
000010 45 55 54 3e 5d 31 06 4c 3b b7 ba 4b 52 3e da 4b
       0.20735653 3.5177844e+07 2.4473206e+07 2.8605604e+07
000020 24 3d 5c 4b 09 3a 81 4b 46 f8 60 40 9b c2 88 3d
       1.4433572e+07 1.6938002e+07 3.5151534 0.06677743
000030 0c 07 b2 3c 0c 07 b2 3c 0c 07 b2 3c 0c 07 b2 3c
       0.021731876 0.021731876 0.021731876 0.021731876
000040 0c 07 b2 3c 0c 07 b2 3c 0c 07 b2 3c 0c 07 b2 3c
       0.021731876 0.021731876 0.021731876 0.021731876
000050 0c 07 b2 3c 0c 07 b2 3c 0c 07 b2 3c 0c 07 b2 3c
       0.021731876 0.021731876 0.021731876 0.021731876
000060 0c 07 b2 3c 0c 07 b2 3c 0c 07 b2 3c 0c 07 b2 3c
       0.021731876 0.021731876 0.021731876 0.021731876
000070 0c 07 b2 3c 0c 07 b2 3c 0c 07 b2 3c 0c 07 b2 3c
       0.021731876 0.021731876 0.021731876 0.021731876
000080 0c 07 b2 3c 0c 07 b2 3c 0c 07 b2 3c 0c 07 b2 3c
       0.021731876 0.021731876 0.021731876 0.021731876
000090 0c 07 b2 3c 0c 07 b2 3c 0c 07 b2 3c 0c 07 b2 3c
       0.021731876 0.021731876 0.021731876 0.021731876
0000a0 0c 07 b2 3c 0c 07 b2 3c 0c 07 b2 3c 0c 07 b2 3c
       0.021731876 0.021731876 0.021731876 0.021731876
0000b0 0c 07 b2 3c 0c 07 b2 3c 0c 07 b2 3c 0c 07 b2 3c
       0.021731876 0.021731876 0.021731876 0.021731876
0000c0 0c 07 b2 3c 0c 07 b2 3c 0c 07 b2 3c 0c 07 b2 3c
       0.021731876 0.021731876 0.021731876 0.021731876
0000d0 0c 07 b2 3c 0c 07 b2 3c 0c 07 b2 3c 0c 07 b2 3c
       0.021731876 0.021731876 0.021731876 0.021731876
0000e0 0c 07 b2 3c
       0.021731876

weight f4 [64, 57, 1, 1]
000000 17 b9 75 3f 03 32 26 c0 3b 96 2e 3f ee a0 02 40
       0.9598555 -2.5968025 0.68197984 2.0410724
000010 51 89 aa bf 50 47 b2 3d 40 0a 26 bf 8a 6e 8d 3f
       -1.3323156 0.08705008 -0.6485939 1.1049359
000020 b6 07 07 3f 6e 9f ae 3f 61 73 e5 3d 34 9d fc be
       0.5274614 1.3642404 0.112036474 -0.49338686
000030 a4 68 f6 bd 26 0a 65 be 30 35 a1 bf 4d a6 01 3f
       -0.12031677 -0.22367153 -1.2594357 0.5064438
000040 b1 0c 27 3f 8d 67 8f bf a2 fd b6 3e 19 51 dc be
       0.6525374 -1.1203476 0.3574038 -0.43030623
000050 6a b7 98 bf 45 3d bf bd 5d d9 0f bf 13 43 4f 3e
       -1.1930974 -0.09337858 -0.56191045 0.2024043
000060 c0 82 c1 3e d2 5e 81 3e e7 e6 23 3e b6 d1 7f bf
       0.37795067 0.25267655 0.16006051 -0.9992937
000070 32 84 09 3f 5d 92 66 bf ce ad 11 bf 05 6f 46 3e
       0.5371734 -0.9006708 -0.5690583 0.19378288
000080 a0 c3 e5 bf 5e 17 e9 3e ec 43 b2 be 3c cb 16 3f
       -1.7950325 0.4552564 -0.34817445 0.5890386
000090 53 7c 46 bf 0d 4c 00 40 de 09 09 3f f7 13 13 3f
       -0.77533454 2.0046418 0.5353068 0.5745234
0000a0 82 11 c8 be 7f 6d af bf 28 ea 7d 3f 69 dc 7a 3f
       -0.39075857 -1.370529 0.9918542 0.9799257
0000b0 6d e8 b1 bf 6b f9 b6 be e5 36 4b 3e e9 e1 c2 bf
       -1.3899056 -0.35737166 0.1984516 -1.5225192
0000c0 e9 d2 bf bf 9b 0e a7 bf 76 0e 09 bf 67 ab 62 3f
       -1.498624 -1.3051332 -0.5353769 0.8854279
0000d0 80 0e 9b bf 96 f7 b6 bf 8b 7b d4 bf 13 f6 a9 bf
       -1.21138 -1.4294307 -1.6600202 -1.3278221
0000e0 70 ff c2 bd f2 38 38 bf 5e b1 11 bf 99 1f 91 be
       -0.09521377 -0.7196189 -0.56911266 -0.2834442
0000f0 a4 07 8f 3e ee ee ad 3c d4 d5 ea 3f ad 9d 7c 3e
       0.27935517 0.021232095 1.8346505 0.24669524
000100 d9 66 73 3f bc 9d 08 be 08 8f 89 bf e5 4c a2 be
       0.9507881 -0.13341421 -1.0746775 -0.3169929
000110 5f 5e 89 be 3a 7f f8 3c b1 ba 27 3f b8 a3 fe bf
       -0.26829812 0.030334104 0.65519243 -1.9893713
000120 79 66 60 3f 5f 64 91 be 80 b2 c9 3e 1a bb 25 bf
       0.8765636 -0.2839689 0.39393997 -0.6473862
000130 f8 a7 37 bf c2 b8 cd bf d7 b2 90 bd 91 e3 9a be
       -0.71740675 -1.6072009 -0.07065361 -0.30251744
000140 57 a5 93 bf ff 9d 3d 3f a8 81 30 3f 2c b7 75 bf
       -1.1534833 0.7406921 0.6894784 -0.95982623
000150 8b 68 21 c0 4b cb 40 3f 06 84 b0 3e 38 56 83 3f
       -2.5220058 0.753102 0.34475726 1.0260687
000160 ec c0 65 3e 66 cb ca be fc b6 3b 3e 1c 59 0a c0
       0.22436875 -0.39608306 0.18331522 -2.1616888
000170 82 2a 21 bf 09 fd 1d bf 18 a6 0c bf 41 2c cd 3e
       -0.62955487 -0.61714226 -0.5494094 0.40072826
000180 e4 63 34 3f 26 67 87 bf 84 f7 d4 bf 30 ea 8a bd
       0.7046492 -1.0578353 -1.6638036 -0.06782949
000190 86 80 53 3f 86 9b a0 bf 5c 79 21 bf e3 f8 75 3e
       0.82617986 -1.2547462 -0.63075805 0.24020724
0001a0 50 c5 cc bf a1 26 dd bf 30 2e f2 bf 02 83 58 3f
       -1.5997715 -1.7277414 -1.8920345 0.845749
0001b0 f0 8c 1b bf 5b 9e af bd 44 27 bf bf f4 dd 8a bf
       -0.6076193 -0.08575126 -1.4933858 -1.0848985
0001c0 08 f9 e9 bf e9 4e 12 bf c1 28 d3 bf f8 a5 e2 bf
       -1.8279123 -0.5715166 -1.6496812 -1.77069
0001d0 20 7f 62 bf 9a fc 47 40 5c 72 b9 3e 67 e4 54 3d
       -0.8847523 3.1247926 0.36220062 0.051975634
0001e0 97 5c 85 be 8e d2 d7 3e 78 d5 6b be 13 5d b3 be
       -0.26047203 0.42152828 -0.2303065 -0.35031947
0001f0 32 5d a3 3e 24 fe 70 c0 62 43 fc 3e 86 b2 c7 3d
       0.3190704 -3.7655115 0.4927016 0.097508475
000200 e7 33 14 bf 0e 1e 11 3f 17 43 93 bf 3a 65 36 bf
       -0.57891697 0.56686485 -1.1504849 -0.7124821
000210 b7 7b 11 3f 15 c9 65 3f 95 0f a8 3e 28 ed 6c bf
       0.568294 0.8975995 0.32824388 -0.9254937
000220 8c 48 e4 be e9 41 36 bf c3 8c 71 3f 6f d0 ec 3e
       -0.445866 -0.7119432 0.9435541 0.46252772
000230 82 75 88 bf bb a4 05 3e f1 14 0a 3f 83 7a df 3f
       -1.066086 0.13051121 0.53938204 1.7459263
000240 f9 78 af bf 92 3f 82 3e 0f 3c 24 bf e8 58 1a c0
       -1.3708793 0.25439125 -0.6415414 -2.4116764
000250 23 7d be 3f f4 f5 30 3f cf d1 63 bf 83 7f b2 bf
       1.4881939 0.69125295 -0.8899202 -1.3945163
000260 00 11 35 3f 70 97 47 3f d7 24 86 bf b4 4b 13 bd
       0.70729065 0.7796545 -1.0479993 -0.035960868
000270 7b 47 2b 3f d9 80 f6 bf 20 11 94 bf 5d 0a db 3f
       0.66905946 -1.9258071 -1.1567726 1.7112538
000280 d7 c7 ee bf bc 23 ca be 11 78 4d bd 55 3a 24 bf
       -1.8654736 -0.39480388 -0.050163332 -0.6415151
000290 d9 5c 65 3e 52 1c 65 bf 24 e6 ee bf 3c 54 67 bf
       0.223987 -0.8949634 -1.8663983 -0.90362906
0002a0 9f 72 2e 3e 00 d4 1a bf 80 b0 b1 bf 21 de 6f bf
       0.17035912 -0.60479736 -1.3881989 -0.93698317
0002b0 7a e6 c7 3e b1 dd 88 bf cc 7e 16 3f e5 6c 5f bf
       0.39043027 -1.0692655 0.58787227 -0.87275535
0002c0 72 7a e9 3f 8b 95 5d bf bb 03 15 bf e3 2c ce 3e
       1.8240492 -0.8655631 -0.5820882 0.4026862
0002d0 cc 26 5f 3f 46 e8 56 bf e4 bc 59 bf 0a c5 b5 3d
       0.87168574 -0.8394817 -0.8505385 0.08875473
0002e0 5c 45 43 3f 7d d2 95 bf 87 7f 56 3f 42 1c f6 bf
       0.7627771 -1.1704861 0.8378834 -1.9227374
0002f0 b8 c4 0b 3f 74 ae 05 c0 31 cc b7 bf 0c f7 4c bf
       0.54597044 -2.0887728 -1.4359189 -0.80064464
000300 87 3b 09 3f d4 0b 8f be 6f b6 be bf b6 cf 81 3f
       0.53606457 -0.27938712 -1.4899424 1.0141513
000310 cd 32 8f 3f 2e 87 25 bf 1c e9 c1 bf 05 41 b4 bf
       1.1187378 -0.6465939 -1.5149264 -1.4082342
000320 a6 d8 f5 be ea ae cc be 1b 5d 1f 3f 5f 03 b6 bf
       -0.48016852 -0.399772 0.6225144 -1.4219779
000330 d8 04 1c 3b cf 30 8b be 35 19 09 c0 83 7b 76 bf
       0.0023806598 -0.27185676 -2.1421635 -0.96282214
000340 59 ca 93 bf 6b 0b 17 3f b6 cb 24 be 1a ca 82 be
       -1.1546127 0.590018 -0.16093335 -0.25544816
000350 53 c5 b8 bf 9a 86 62 bd 87 a5 60 bd 17 e6 c8 bf
       -1.4435219 -0.055304147 -0.05484536 -1.5695218
000360 e5 ea 89 bf d9 bc 0b 40 cc 61 b3 bf 50 2c ac bf
       -1.0774809 2.1834013 -1.401422 -1.3451023
000370 af f8 6f bf e7 57 ee 3f 98 d2 30 bf 1c 7a 8b bf
       -0.93738836 1.8620576 -0.6907134 -1.089664
000380 46 83 01 bf d1 8e ed bf fd b8 c4 bf 98 a0 ec 3b
       -0.5059093 -1.8559209 -1.5368954 0.0072212927
000390 08 67 95 bf b1 b7 fe 3e 00 c4 8d 3e 82 46 c3 3e
       -1.1672068 0.4974952 0.276886 0.3813973
0003a0 c3 9e cd bc a0 60 3e bf c3 bc 50 bd 75 b0 f1 3f
       -0.025100118 -0.7436619 -0.050961267 1.8881975
0003b0 36 a1 f6 bd 6b 15 d1 bf 64 bf 2a bf e9 bd 16 3e
       -0.12042467 -1.6334661 -0.6669829 0.14720882
0003c0 79 61 49 bf 7e dc 6a 3f d9 4b 97 bf f5 85 0b 3f
       -0.78664356 0.91742694 -1.1820022 0.5450128
0003d0 bc 00 bc be 82 4e 10 3e c4 1d bf bf d1 f2 14 3d
       -0.3671931 0.14092448 -1.4930959 0.03636438
0003e0 55 ce d4 bf 77 b6 61 3f 95 78 ac 3e 7e ee 4c bf
       -1.6625468 0.88169044 0.33685747 -0.8005141
0003f0 e2 22 72 3f 61 b1 15 3f a0 8a 0d c0 45 02 a1 bf
       0.94584477 0.58473784 -2.211586 -1.2578818

weight f4 [64]
000000 e0 a6 71 40 fa be f8 3f 24 e5 6c 40 f1 fb 10 40
       3.7758102 1.9433281 3.7014856 2.2653773
000010 4d d6 0a 40 f1 84 0b 40 eb a3 84 40 8d 8b 2d 40
       2.16933 2.179989 4.1450095 2.7116425
000020 72 54 26 40 05 da 30 40 49 9a 4e 40 b6 78 35 40
       2.5989041 2.7633069 3.2281668 2.8354926
000030 0b 5d 2e 40 d6 3f 28 40 f3 db 53 40 81 47 89 40
       2.724429 2.6288962 3.3102996 4.2899785
000040 bf e7 3c 40 a8 a3 04 40 be ed b3 40 da c7 70 40
       2.9516447 2.0724888 5.6227713 3.762198
000050 40 6d 19 40 bb 3b 39 40 e0 0e 8d 40 ac 0d 7b 40
       2.397293 2.8942707 4.408066 3.9227095
000060 fb b9 38 40 78 51 67 40 1e 95 27 40 21 88 86 40
       2.8863513 3.6143475 2.6184764 4.2041173
000070 4d 00 03 40 e7 2b 1c 40 32 70 22 40 2d b9 0b 40
       2.0468934 2.4401796 2.5380979 2.1831772
000080 63 bd 29 40 7e d8 66 40 bd c9 7b 40 a9 d1 93 40
       2.6521842 3.6069636 3.9341881 4.6193433
000090 ba a3 4e 40 1b b0 12 40 33 bd 84 40 73 5a 70 40
       3.228743 2.2919986 4.1480956 3.7555206
0000a0 1e 36 03 40 e7 03 f8 3f 11 8b 6a 40 23 04 b1 40
       2.050178 1.9376191 3.664738 5.531755
0000b0 4a d8 36 40 2f 74 3e 40 04 6f 16 40 fb ca 2a 40
       2.8569512 2.9758413 2.3505259 2.668639
0000c0 37 30 17 40 d7 5b 01 40 8d f0 73 40 77 41 30 40
       2.3623178 2.0212305 3.811557 2.7539957
0000d0 41 de 23 40 db 4d 78 40 35 d9 04 40 08 60 0d 40
       2.5604403 3.879752 2.0757573 2.2089863
0000e0 28 14 f9 3f e7 96 88 40 61 51 ff 3f 46 6e 13 40
       1.9459276 4.2684207 1.994671 2.3036056
0000f0 30 91 9e 40 00 a5 68 40 87 fa 4f 40 15 42 8c 40
       4.955223 3.6350708 3.249666 4.3830667

bias f4 [64]
000000 f8 c9 3c 3f ea 25 96 3f b2 5e c4 3f 98 a7 7c 3f
       0.7374568 1.173032 1.5341399 0.9869323
000010 74 57 97 3f 5e cb 88 3f 98 4b 9c 3f 48 e9 97 3f
       1.1823564 1.0687063 1.2210569 1.1868067
000020 7e 99 f0 3e f5 e8 86 3f 10 3d ac 3f 0b 9f 32 3f
       0.46992105 1.0539843 1.3456135 0.6977393
000030 97 ff 84 3f a9 e0 8f 3f 15 f1 c8 3f 52 ae b6 3f
       1.03905 1.1240436 1.5698572 1.4271948
000040 aa 59 b2 3f f4 34 79 3f e2 65 20 3e ee 03 08 bf
       1.3933613 0.97346425 0.15663865 -0.53130996
000050 4e 5d 8c 3f 4d dd 1d 3e 81 5c 87 3f c1 17 a2 3f
       1.0965974 0.15416451 1.0575105 1.2663499
000060 4d a9 47 3f 94 58 be 3f 36 eb 90 3f 47 e5 da 3f
       0.7799271 1.4870782 1.1321781 1.710122
000070 72 7f 90 3f 78 4e 8b 3f 1a 85 63 3f 28 6e 80 3f
       1.1288893 1.0883322 0.8887497 1.0033617
000080 83 a1 b8 3f 61 63 80 3f 79 53 00 40 ee dd b6 bf
       1.442429 1.0030328 2.0050948 -1.4286478
000090 c0 5d d9 3f f5 1a 73 3f c8 ab 26 40 b2 d0 a3 3f
       1.6981735 0.9496301 2.6042347 1.2798064
0000a0 13 87 9d 3f 5a 35 97 3f c4 e0 96 be c9 80 83 c0
       1.2306846 1.1813157 -0.29468358 -4.109471
0000b0 9b d7 85 3f 9c b0 84 3f 0b 91 62 3f b7 64 75 3f
       1.0456423 1.0366397 0.8850257 0.95856804
0000c0 b1 f0 95 3f b5 5f 6c 3f 30 45 8c 3f f4 44 76 3f
       1.1714078 0.9233354 1.0958614 0.96198964
0000d0 de 54 78 3f 14 d2 60 3f 38 96 a3 3f ef 25 6f 3f
       0.970045 0.87820554 1.2780218 0.9341726
0000e0 9d 59 3e 3f 23 de 66 3f 2c d0 84 3f c2 cb 90 3f
       0.7435549 0.90182704 1.0376029 1.1312182
0000f0 3e 9f a6 bf 53 67 2f 3f fd 32 ad 3e 81 80 9a bf
       -1.3017347 0.68517035 0.33827963 -1.2070466

running_mean f4 [64]
000000 66 5c f8 c0 83 30 2f 41 b0 d5 a9 41 4e 98 87 41
       -7.761279 10.949344 21.22934 16.949368
000010 d5 d9 9a 3e d3 d2 39 41 7b 55 e4 c1 74 64 7f c0
       0.30244318 11.613971 -28.541739 -3.9905062
000020 b7 93 3f c1 f1 c7 b7 c0 e4 33 e2 c0 1e e7 dc 3f
       -11.973563 -5.743157 -7.0688343 1.7258031
000030 e8 5f 52 40 02 f1 a0 c1 d5 80 d0 c0 81 53 01 c2
       3.2871037 -20.11768 -6.5157266 -32.331547
000040 08 b4 56 41 ea db db c0 b3 38 e4 c1 4d 4a f6 c1
       13.418953 -6.870595 -28.527685 -30.78628
000050 8a b0 a1 40 f9 06 7e 41 28 60 66 c1 a3 00 43 41
       5.0528 15.876702 -14.398476 12.187655
000060 cf b7 cb 3d ca c1 cb c0 2c 59 c5 c0 ed 05 48 c1
       0.09947168 -6.367406 -6.1671352 -12.501447
000070 7a 45 09 c0 dc 90 25 c0 8f 27 62 c0 14 af fd 40
       -2.1448655 -2.5869665 -3.5336645 7.927622
000080 ba b3 08 c1 04 97 3e c0 ae 60 3f be 61 1d ff 41
       -8.543879 -2.9779673 -0.18689224 31.889345
000090 68 92 9a 3f ad b6 79 c0 27 d0 31 42 51 fe 91 41
       1.207593 -3.9017746 44.453274 18.249178
0000a0 0f 8f b7 3e 0b f4 3d c0 d8 48 6b 41 6b c2 0f 41
       0.35851333 -2.9680202 14.705284 8.984965
0000b0 85 1d 04 41 be 09 17 41 b0 6e 49 c1 ad fa 10 40
       8.257207 9.439878 -12.589523 2.2653
0000c0 5f 07 7a 40 a1 c1 e7 c0 e6 a2 cf 41 4b 54 36 41
       3.9067 -7.2423863 25.95454 11.395579
0000d0 92 12 62 c0 04 26 13 c0 e6 ab 07 c1 f8 b4 4b c1
       -3.5323834 -2.2991953 -8.479467 -12.731682
0000e0 21 15 65 c0 9c 8c a2 c0 32 e6 2a c0 29 99 4c c1
       -3.5794146 -5.079664 -2.6703 -12.787393
0000f0 7e ed 23 c1 26 ff 4a c1 e8 b8 8f c0 a4 a5 7b c1
       -10.2454815 -12.687292 -4.4913216 -15.72794

running_var f4 [64]
000000 c7 ec d6 42 88 f6 e5 42 57 de af 42 39 9d cf 42
       107.462456 114.98151 87.93426 103.807076
000010 6c 67 96 42 3e 69 01 43 e5 ce 5a 43 e8 34 ef 42
       75.201996 129.4111 218.80818 119.60333
000020 c7 28 a5 42 0a 17 b9 42 65 b4 ab 42 2e 83 b4 42
       82.57964 92.545 85.85233 90.25621
000030 9f dd 8d 42 33 0f a9 42 6b 0b ca 42 f4 b1 1b 43
       70.93285 84.529686 101.0223 155.69513
000040 9a 57 0e 43 1e 4b ac 42 9c 9f 71 43 10 53 62 43
       142.3422 86.14671 241.62347 226.32446
000050 ea d1 b4 42 19 84 5f 43 be 02 1e 43 e8 d6 b8 42
       90.40999 223.516 158.01071 92.41974
000060 a4 98 a4 42 9f 31 b3 42 51 70 9d 42 a0 1f 7f 43
       82.29813 89.59692 78.71937 255.12354
000070 f7 68 92 42 b0 40 02 43 55 88 81 42 8b b2 11 43
       73.20501 130.25269 64.76627 145.69743
000080 a2 67 de 42 8c 8b d2 42 60 fd 17 43 54 ea 1b 43
       111.20241 105.27255 151.98975 155.91534
000090 4b 75 bd 42 28 43 a3 42 58 0f 20 43 d0 35 be 42
       94.72909 81.631165 160.05994 95.1051
0000a0 6b 26 99 42 b9 74 9a 42 65 ed c5 42 0a be 07 44
       76.575035 77.227974 98.96366 542.96936
0000b0 33 75 c5 42 ac d6 b0 42 7c e4 e6 42 0c bf 60 42
       98.728905 88.41928 115.44626 56.18657
0000c0 56 97 a6 42 91 3c 50 42 c3 b4 01 43 19 65 a9 42
       83.29558 52.059147 129.7061 84.69746
0000d0 58 20 b1 42 2d 24 ba 42 ed 0e b1 42 6e eb b7 42
       88.56317 93.070656 88.52915 91.95982
0000e0 45 c0 b9 42 f8 26 b6 42 87 9a 93 42 ce 2d c9 42
       92.87553 91.07611 73.80181 100.58946
0000f0 95 53 d4 43 5c a6 ed 42 01 c0 fa 42 16 e7 cf 42
       424.65298 118.82492 125.37501 103.95134

weight f4 [32, 64, 1, 1]
000000 93 8c 75 3f 77 dc 94 bf 84 b1 b1 be b5 35 13 c0
       0.95917624 -1.162978 -0.34705746 -2.300153
000010 59 41 26 bf d0 74 29 c0 49 01 e7 bf 5f 9c 0b c0
       -0.6494346 -2.6477547 -1.8047267 -2.1814191
000020 70 3c e5 3f 8a f5 24 bf 91 fd ee be e7 81 85 bf
       1.7909069 -0.6443716 -0.4667783 -1.0430268
000030 30 da 5e 3f 8f 13 06 c0 20 a0 f6 3f 3c a4 30 c0
       0.8705168 -2.0949438 1.9267616 -2.760024
000040 56 f6 e2 3f e9 6a 60 3e 34 11 3f be 2d d6 26 40
       1.7731426 0.21915783 -0.18658906 2.6068223
000050 d6 3d 16 c0 e9 30 a5 bd 2d e2 73 40 27 cd e1 3f
       -2.3475242 -0.080659695 3.8106797 1.7640733
000060 f4 8c 22 bf 9d cc df bf 13 ef d0 3d a4 e0 1e 40
       -0.6349633 -1.7484318 0.1020185 2.482461
000070 da 2e ec 3f 46 b8 4c 3f 5c c3 20 bf 72 26 e8 bf
       1.8451798 0.7996868 -0.62798095 -1.8136733
000080 16 9b 08 40 df 56 f3 bf 83 a6 43 40 36 e9 30 40
       2.1344657 -1.9010886 3.057038 2.764234
000090 92 ac a7 3f 6b 92 ca be 35 fe 4a c0 f4 86 3f bf
       1.3099539 -0.39564833 -3.1717656 -0.748153
0000a0 5c 0c 21 40 74 b1 6f 3f 48 f8 19 bf 49 26 c3 40
       2.5163794 0.93630147 -0.6014447 6.0984235
0000b0 f1 09 91 c0 71 d7 f4 be a8 c7 22 3f 66 f5 20 3f
       -4.5324636 -0.4782062 0.635859 0.6287445
0000c0 11 7c 5a 3f be 86 01 3e d4 3a 36 c0 51 44 9b bd
       0.8534556 0.12649056 -2.8473406 -0.0758139
0000d0 da 42 8e 3f 14 ed d5 3e 2f 64 52 3f 21 b2 2d 3e
       1.1114151 0.4178244 0.8218412 0.16962482
0000e0 bd 7e 94 bf e9 3a cb 3e 02 a9 86 3e 6a fa a3 3c
       -1.1601177 0.39693382 0.26300818 0.020016868
0000f0 87 21 a5 40 2d cd 39 bf 98 6b c2 bf 0b 94 82 bf
       5.1603427 -0.725787 -1.5189085 -1.0201429
000100 9d b5 8f be a5 eb 94 bb 22 14 4f bf 31 02 4b 3d
       -0.28068247 -0.0045446926 -0.80890095 0.049562637
000110 2a be 81 3d 2a 4f 89 3e 32 e3 ea bf 7c f8 e6 3c
       0.06335099 0.2681821 -1.8350585 0.028194658
000120 c1 ef 51 bf 75 49 ae be cc 70 b7 bf 0e 99 ae be
       -0.8200646 -0.34040418 -1.4331298 -0.34101146
000130 5b f5 04 be eb 97 0d 3f e7 ff 66 3e d9 e3 01 3f
       -0.1298422 0.55309933 0.22558556 0.5073829
000140 31 c2 ec be 00 bb 0f 3a f0 cc a5 bf 97 90 29 3f
       -0.46241906 0.0005482882 -1.2953167 0.6623625
000150 b3 58 fb 3e a8 69 7e bf 7b d1 8a be 11 d2 60 bf
       0.4909111 -0.9937997 -0.27112946 -0.87820536
000160 7f 29 20 3f 0d 8f 73 bf 9c 14 1c 3f d9 7a 6a be
       0.6256332 -0.95140153 0.6096895 -0.22898425
000170 73 ef dd 3d be fc 05 bf 63 17 08 3f aa 59 aa bc
       0.10836687 -0.5233878 0.53160685 -0.020794708
000180 1e ae b6 3e 96 70 16 c0 d2 94 91 bf 79 d4 02 bf
       0.35679716 -2.3506217 -1.1373541 -0.5110546
000190 8e 24 75 3e 59 e5 a4 3e 1e 7d 7f be e0 1a 1b 3f
       0.23939726 0.32206228 -0.24950072 0.60587883
0001a0 e6 4b 09 bf 83 11 9d 3e 59 74 85 3e c1 22 60 3f
       -0.53631437 0.30677423 0.2606533 0.8755303
0001b0 a8 78 1d 3f 6c 8b aa 3f 48 c3 1a be d9 9a 8c bf
       0.6151223 1.3323798 -0.15113556 -1.0984756
0001c0 53 48 72 3d 35 0b 83 be 46 14 11 bf cb 8e a2 3e
       0.059151005 -0.25594488 -0.5667156 0.31749567
0001d0 94 34 d4 bd 8e f8 9a bf 93 e2 5e be 8a ac 1d bf
       -0.10361591 -1.2107103 -0.21766119 -0.615914
0001e0 70 f2 eb be 4c a1 18 be 42 bb 54 3e e0 02 98 3e
       -0.46083403 -0.1490528 0.20774558 0.29689693
0001f0 d5 76 62 be 9d c7 58 3f 9b 0a 8c 3f 9f dc b2 3f
       -0.22115643 0.84679586 1.0940737 1.3973578
000200 0f a9 6b bf 5d cc 34 bf bd 79 f8 bf a3 ac 95 3f
       -0.9205484 -0.70624334 -1.9412152 1.169331
000210 9f 3d 0a bf e0 4f 5c bf 9c f6 72 bf b5 a4 28 3f
       -0.54000276 -0.8605938 -0.94907546 0.65876323
000220 2c 4c 16 3f 07 ba 31 3e a0 14 c2 3f d6 bc 4a 3f
       0.5870998 0.1735612 1.5162544 0.7919439
000230 4d 25 86 3f ff 2b ac bf 38 43 4a 3f a9 31 3a c0
       1.0480133 -1.3450927 0.7900882 -2.909281
000240 01 bb fb bf 92 bd ef 3e f9 3e 82 3f f6 6b 56 40
       -1.9666444 0.46824318 1.0175468 3.3503394
000250 5f 9e e5 bf f8 6c 95 bf 6f 2d ec 3f 8e 94 e9 3e
       -1.7938956 -1.167388 1.8451365 0.4562115
000260 a4 14 82 3e d1 5f de 3d ca c8 ef 3f 38 0f 3b 40
       0.25406373 0.10858119 1.8733151 2.9228039
000270 be d7 47 bf a7 98 34 40 65 42 d4 bd 0c af 15 bf
       -0.7806357 2.8218172 -0.10364226 -0.58470225
000280 f4 be 1e bf 3f d0 27 c0 7f c9 0f 41 bc e9 16 40
       -0.6201012 -2.6220853 8.986693 2.358016
000290 ec 5d a4 3f e0 b0 a1 bf d6 76 99 bf b6 72 08 3e
       1.2841163 -1.2632103 -1.1989391 0.13325009
0002a0 71 75 91 bf f0 c8 fe bf 95 b6 5f be ec 32 fb 40
       -1.1363965 -1.9905071 -0.21846993 7.849966
0002b0 c8 83 46 bf f9 a0 62 3f d5 a7 ec 3e 45 29 51 3f
       -0.7754483 0.88526875 0.46221796 0.817036
0002c0 2b 57 0d 3f 1a f9 89 be 95 73 6b bf 02 6c 37 3f
       0.5521113 -0.26947862 -0.9197324 0.7164918
0002d0 dc fd 05 40 3f e9 f3 bf 89 97 30 c0 b2 ef 2e c0
       2.0936193 -1.9055556 -2.759249 -2.7333798
0002e0 b2 99 a1 be f6 a1 b4 bf af 42 cc be 7e b7 f2 be
       -0.31562573 -1.4111927 -0.39894626 -0.47405618
0002f0 1e 3b 1f 40 33 20 47 c0 1e 2a bc 3f b9 8c ba 3e
       2.4879832 -3.1113403 1.4700353 0.36435488
000300 fc 41 a4 bf cd 38 37 bf 4d 4c d2 3f 83 58 9c 3f
       -1.2832637 -0.71571046 1.6429535 1.2214512
000310 47 be 92 be 0c 93 98 3e 39 4d d4 3e 56 2b 63 3f
       -0.28660795 0.29799688 0.41465166 0.88738
000320 bd 5d 8c be 7f 05 c3 3f 2f 4f fb 3f 7c 03 7c 3e
       -0.27415267 1.5236052 1.963354 0.24610704
000330 bc da 88 3f c4 a9 00 3f a8 44 05 3f 5e f6 0f 3f
       1.0691752 0.5025904 0.52057886 0.562353
000340 4c ab 02 3f e0 50 06 c0 70 e5 6b bf b0 00 de 3f
       0.5104263 -2.0986862 -0.9214697 1.734396
000350 73 fa 8e bf 57 0e 54 3f 92 5f ba bf 10 71 a4 3f
       -1.1170181 0.8283438 -1.4560416 1.2847004
000360 a5 87 5e bf 5d 3b 59 3f 5e 22 81 bd f5 f4 26 40
       -0.8692573 0.84856206 -0.06305383 2.608701
000370 42 e8 84 bf 62 a9 b7 bf 59 ad 1a be e6 14 2f bf
       -1.038338 -1.4348567 -0.1510519 -0.68391263
000380 10 05 b1 be 9f 54 a0 3f 16 de 71 40 68 83 8d bf
       -0.34574175 1.2525824 3.77918 -1.1055727
000390 21 39 d3 3f 42 77 07 bf 0f f2 7a bf 61 f1 29 40
       1.6501809 -0.5291635 -0.980256 2.6553576
0003a0 d7 30 93 3e eb 67 10 be 04 02 b9 3f f6 de 46 40
       0.287482 -0.14102142 1.445374 3.1073585
0003b0 48 e3 a8 bf 9e d7 e0 3e 22 72 bf bd 1a 44 e5 3e
       -1.3194361 0.43914503 -0.09347941 0.4477852
0003c0 70 e0 89 bf 37 42 d6 bf 6e cc 98 3f f4 94 fb be
       -1.0771618 -1.6738957 1.1937387 -0.4913708
0003d0 cd b5 f0 be 0c 41 d4 3f d6 af 29 bf a3 25 cb 3e
       -0.47013703 1.6582351 -0.6628393 0.39677152
0003e0 3f f5 81 be 99 b2 dd 3f 16 48 56 bf 51 41 e8 3e
       -0.2538242 1.7320129 -0.83703744 0.45362332
0003f0 41 cf 04 40 e4 ee 03 40 4e 98 b3 3f 3b 3a fc 3e
       2.0751498 2.0614557 1.4030855 0.49263176

weight f4 [32]
000000 ee 4f 5c 40 65 c2 a3 3e 61 ce 2a 40 79 63 b2 3f
       3.4423785 0.3198425 2.6688464 1.3936607
000010 ac f8 1c 40 10 59 41 40 9a 58 3b 40 42 04 4c 3d
       2.4526777 3.021061 2.9272828 0.049808748
000020 24 5b df be 57 a4 4c 40 3d 0a 5a 40 1a 7f 55 40
       -0.43624222 3.1975305 3.406875 3.3358827
000030 3c bc 46 40 22 8b 48 3f 8a 78 4a 40 02 95 83 40
       3.105239 0.783373 3.1636071 4.1119394
000040 35 4b 57 c0 b7 bb 6f 40 d8 de 60 40 40 ea 8d be
       -3.3639653 3.7458322 3.5136013 -0.2771778
000050 fe b2 65 40 ab cc a7 3f b3 b5 42 40 dd d0 74 3e
       3.5890498 1.3109335 3.04234 0.239078
000060 d7 4c 45 c0 cc 58 c9 3f 4d e9 53 40 46 65 b8 3d
       -3.082815 1.5730224 3.3111145 0.090036914
000070 f6 7a 21 40 93 11 40 40 df b8 65 3d cd 9c 58 40
       2.52313 3.0010726 0.05608451 3.3845704

bias f4 [32]
000000 86 07 00 c1 bb 07 39 be 91 58 1b c1 2d d4 cf bf
       -8.001837 -0.18069355 -9.709123 -1.6236626
000010 3b 83 27 c1 59 9f da c0 d4 ac dc c0 26 86 81 3e
       -10.469539 -6.8319516 -6.896097 0.2529766
000020 26 b5 97 3b d5 ec f2 c0 1c 0f b2 c0 cd ee d7 c0
       0.004629749 -7.59141 -5.5643444 -6.7479005
000030 89 70 e8 c0 5c 3f 72 bf 9d dd db c0 c9 a9 ce c0
       -7.263737 -0.9462793 -6.8708024 -6.4582257
000040 73 c5 9f c0 a5 0b 9a c0 99 ab 03 c1 bb a3 8d bd
       -4.9928527 -4.8139215 -8.229394 -0.06915995
000050 3e 9c b2 c0 a6 2a a5 bf b7 41 e7 c0 25 fb 82 be
       -5.5815725 -1.290364 -7.226772 -0.25582233
000060 58 0f 5d c0 fb db 48 bf 18 82 e7 c0 21 15 3c be
       -3.4540615 -0.78460664 -7.2346306 -0.18367435
000070 70 e2 17 c1 db e7 76 c0 af 12 ae be 72 36 6e c0
       -9.492783 -3.8579013 -0.3399863 -3.722073

running_mean f4 [32]
000000 b7 56 c1 3f 74 49 8b c1 ec b3 7d 41 ce a1 3a 42
       1.5104588 -17.410866 15.856426 46.658012
000010 db 17 2d be 87 ec 90 40 0f 57 db 40 9f f6 3e c2
       -0.16903631 4.528873 6.8543773 -47.74084
000020 85 af ac c1 fb a1 06 40 79 ce 42 41 b8 f8 36 42
       -21.585703 2.1036365 12.175408 45.74289
000030 22 28 26 40 61 45 8b c2 35 9e ea bd 5b 73 5b c1
       2.5961995 -69.635506 -0.11455957 -13.715663
000040 b5 b2 7e c1 b8 ad 46 c2 e4 c1 cd 3f 56 f8 76 c1
       -15.91863 -49.669647 1.6074796 -15.435629
000050 42 aa a3 c0 0a ca a4 c1 f7 a7 2a 40 09 e0 23 c2
       -5.1145334 -20.598652 2.6665018 -40.968784
000060 7b d8 54 41 25 e3 c1 c1 89 40 74 40 e2 66 2a c2
       13.302852 -24.23591 3.816439 -42.60047
000070 6e aa e9 c0 96 37 fb c1 06 61 51 c2 20 fb 88 c1
       -7.3020544 -31.402142 -52.34475 -17.12262

running_var f4 [32]
000000 27 e1 0e 45 94 36 2b 43 15 2a 3a 44 b5 21 ce 43
       2286.072 171.2132 744.65753 412.26334
000010 77 37 50 44 8e 23 c2 44 fa ed ce 44 e2 e3 86 44
       832.86664 1553.1111 1655.4368 1079.1213
000020 59 33 5d 44 40 65 f9 44 6e 08 c7 43 75 c8 07 44
       884.8023 1995.1641 398.06586 543.13214
000030 60 d2 1e 45 b9 52 8c 45 dd 95 11 45 76 16 3a 44
       2541.1484 4490.3403 2329.3665 744.35095
000040 49 03 ad 43 9c f0 de 44 9c 9e da 44 ed 2b a5 44
       346.02567 1783.519 1748.9565 1321.3727
000050 84 9c 09 44 9e 29 0f 44 7b a4 18 45 7d db 2a 44
       550.44556 572.65027 2442.28 683.4295
000060 b6 cf 2e 44 f7 69 66 44 af 12 06 45 ec 5f cf 43
       699.2455 921.6557 2145.1677 414.7494
000070 b5 c7 88 44 14 6d 85 44 0f 17 74 44 25 02 6c 44
       1094.2408 1067.4087 976.3603 944.0335

weight f4 [32, 32, 1, 1]
000000 a1 6a 0e c0 e4 06 3e 3e 88 bb 3a bf 92 ad 7f 3d
       -2.225258 0.18557316 -0.729424 0.06242139
000010 c3 36 33 bf 14 0b 98 3f 04 03 13 40 58 86 45 bd
       -0.70005435 1.1878381 2.297059 -0.048223823
000020 63 0a b0 be 9c cf 79 3f 2f 17 b2 bf a5 f0 41 bf
       -0.34382924 0.9758241 -1.3913325 -0.7575782
000030 36 50 8b 3e 9f bf b9 c0 c2 30 98 3f ed 78 0a 3f
       0.27209634 -5.8046412 1.188988 0.5409077
000040 c7 f1 6a 3f 50 9c 65 3f 39 7e 27 c0 01 48 2a 3e
       0.9177517 0.8969164 -2.617079 0.1662903
000050 7c 37 26 3e 05 88 30 c0 54 01 63 3f aa 4e c2 be
       0.16232103 -2.758302 0.886739 -0.3795064
000060 b1 db 83 3e bd 06 8b 3d bd a5 06 3f 1a 33 ac 3d
       0.2575355 0.067883946 0.52596647 0.08408184
000070 1e 20 17 bf f0 8b 11 3f 28 27 8c 3e 68 f4 98 3f
       -0.5903338 0.5685415 0.27373624 1.1949587
000080 2c 69 c1 c0 70 39 c1 be dd 84 74 bf be f0 79 be
       -6.0440884 -0.37739134 -0.95515233 -0.24408242
000090 ec f2 91 3d 22 be 2a 3f f4 b6 aa 3f 88 b0 99 3e
       0.07126412 0.6669637 1.3337083 0.30017495
0000a0 14 b3 3b bd 63 cb 31 3f 10 da 70 bf 8d 45 6d bf
       -0.04582508 0.6945097 -0.94082737 -0.9268425
0000b0 02 aa df 3e 79 9f 4f c0 0d f2 8c be c8 71 f5 3e
       0.43684393 -3.2441084 -0.2752842 0.4793837
0000c0 17 a7 a5 3f a2 06 84 3f a8 1e c1 c0 55 04 22 bf
       1.2941617 1.0314524 -6.034992 -0.6328786
0000d0 c9 57 63 be 9e 86 4d bf e2 2a e2 bc bd cc a6 3e
       -0.22201456 -0.80283535 -0.027608339 0.32578078
0000e0 af e4 ec be cc 66 06 bb b1 e3 6f 3d c8 9f ce 3e
       -0.46268222 -0.002050805 0.058566753 0.40356278
0000f0 37 79 da bd 00 91 01 3e 57 89 c0 3e 0b 6a 13 3f
       -0.10667651 0.1265297 0.37604782 0.57583684
000100 15 78 b7 c0 2c ef 82 3e a6 4a 1e bf 7e fe 80 bd
       -5.7334085 0.255731 -0.61832654 -0.062985405
000110 b4 c3 87 be a7 b1 32 3e 2c 4e a7 3f 68 a0 2c 3e
       -0.26516497 0.17450581 1.3070731 0.16858065
000120 bd cb 29 bf cf d9 ec 3f 66 9a 9a bf 86 45 34 3f
       -0.66326505 1.850397 -1.2078369 0.70418584
000130 c4 b2 0d 3f 18 d8 70 c0 c4 6d a1 be 25 a6 0e 3e
       0.553509 -3.7631893 -0.31529057 0.13930567
000140 74 e6 59 3f 51 1f 84 3f 4e b8 bf c0 e5 4b bc bd
       0.8511727 1.0322057 -5.991248 -0.09194163
000150 bd c6 17 be 25 ba e6 bf d8 46 81 3f 6b 63 22 3e
       -0.14821906 -1.8025557 1.0099745 0.15858237
000160 cb 7d 24 3f 14 87 4f 3c be 9e 0e 3f 8b 0f 19 3e
       0.64254445 0.0126664825 0.5571097 0.14947335
000170 ef b4 5c bf 11 51 82 3c 7d 74 14 bd 1a 68 61 3f
       -0.8621358 0.015907796 -0.036243904 0.8804947
000180 d0 bf f4 3e 6a d4 f5 be f1 3f bc c0 68 18 6c 3e
       0.4780259 -0.48013622 -5.8828053 0.23056185
000190 81 b0 fd c0 4e ef 43 3f eb 6d d8 3b ae d3 eb 3d
       -7.927796 0.76537025 0.0066049 0.11514984
0001a0 8a 5c 0f 3e c6 3d be be 35 4a a3 3b 80 17 93 be
       0.14000145 -0.37156504 0.0049832114 -0.28728867
0001b0 16 6b 1a 3f ba 2c 50 3d 2f e7 86 3f 4d 4d ed bf
       0.6031965 0.050823905 1.0539302 -1.8539215
0001c0 f1 c1 58 bf e2 cd 83 bf fc 7f 47 3f cf c3 7e 3e
       -0.8467093 -1.0297205 0.77929664 0.24879383
0001d0 1c 5d a9 bf 31 ff 0f 3f 2e 5a 34 3e 5c 8c db be
       -1.323154 0.56248766 0.17612526 -0.42880523
0001e0 8d eb a3 bf 83 9d 40 3f 53 db 6d 3f bf ef 66 be
       -1.2806259 0.75240344 0.9291279 -0.22552393
0001f0 1b 1c b1 c0 48 f1 0f c0 bf 2e 70 bf c0 7f a3 bf
       -5.534681 -2.2491016 -0.9382133 -1.2773361
000200 ef 41 17 40 a3 88 bf be 06 67 0b c0 09 ed ba 3e
       2.3633993 -0.37408933 -2.178163 0.36508968
000210 61 11 46 c0 e4 b3 02 40 d9 f0 ac 3f 71 bc da 3e
       -3.0948107 2.0422297 1.3511001 0.42721894
000220 14 c4 4b 3d ec 30 0b 3f 7a fd d4 3f ce 52 ca 3f
       0.04974754 0.54371524 1.6639855 1.580652
000230 9c 3f f8 3f bf 21 37 bd 82 df 02 40 3e 21 d0 bf
       1.9394412 -0.044709917 2.0448918 -1.6260145
000240 89 dd 99 bf f7 cd 95 bf 1f 96 6f 3f 5a c2 e6 be
       -1.2020732 -1.170348 0.9358844 -0.45070153
000250 02 53 b9 bf 56 06 48 bd b7 bb dc 3f 4b ed e1 3e
       -1.4478457 -0.048834167 1.7244786 0.44126353
000260 3a cc 7a bf 01 4d 10 bf dc 0b e3 3f ce c8 6f 3d
       -0.97967875 -0.563675 1.7737994 0.05854111
000270 f0 6e 45 c0 c1 4c 63 bf 22 40 82 be 1e 6e 79 bf
       -3.084896 -0.8878899 -0.25439554 -0.9743365
000280 59 7a d4 bf b0 af 86 3f fd ce 3b bf 8b 59 0d 3f
       -1.6599838 1.0522366 -0.73362714 0.55214757
000290 ba e7 87 bf 8b 47 4f 3f 3e 4b 04 40 0f 1a ca be
       -1.0617592 0.8096854 2.0670924 -0.39473006
0002a0 ab 58 ae be fc 29 cd 3e cc 9e 48 bf 26 1d c7 be
       -0.34052023 0.40071094 -0.78367305 -0.38889426
0002b0 0d f9 99 3f f6 18 99 c0 48 ab 07 40 c5 ee 1c 3f
       1.2029129 -4.784297 2.1198292 0.61301833
0002c0 bd 0c ad 3f 30 8e 78 3f 5b 6f 46 c0 19 c7 0a 3f
       1.3519512 0.9709196 -3.1005466 0.5421005
0002d0 7e 6a d4 bd b5 33 36 c0 50 1a cb 3f 83 e6 2c bf
       -0.10371874 -2.846906 1.5867405 -0.6753923
0002e0 41 32 93 3f b9 1c 1d 3d cb f5 54 3f d3 39 7c 3e
       1.1499711 0.03835747 0.8318755 0.24631433
0002f0 17 1e 44 bf 2b 77 48 3f 32 ad 31 3e 3c 0c b0 3f
       -0.76608413 0.78306836 0.17351225 1.3753734
000300 da 0a 84 3f 26 32 f6 be 70 8b 8a be 20 33 74 bf
       1.0315812 -0.48085135 -0.27059507 -0.9539051
000310 e6 d9 53 bf 67 0a b1 3e 15 7e 68 be 15 e8 7d 3e
       -0.8275436 0.3457825 -0.22704346 0.24795564
000320 03 67 64 3d b9 86 88 3f a7 28 b7 bf d1 8d 13 bf
       0.055762302 1.0666114 -1.4309281 -0.5763827
000330 f2 43 7b 3d 29 34 da 3e 19 39 06 3f 23 3c a8 3f
       0.061344095 0.4261792 0.52430874 1.3143352
000340 3a 86 2c 40 1d d4 ac 3e b9 a5 84 3f d2 86 08 be
       2.6956925 0.3375558 1.0363075 -0.1333268
000350 f0 2e ba 3f fb 51 5e 3f 59 29 8a 3f f6 4f c2 3e
       1.4545574 0.8684384 1.0793868 0.3795163
000360 8a 08 17 3f de 4e 5b be 59 4e 4c 3f d3 43 1d bf
       0.58997405 -0.21416804 0.7980705 -0.61431617
000370 27 b5 2d bf 36 5a d3 bf 28 7c ed be de 99 ba bf
       -0.6785454 -1.6511905 -0.46383786 -1.4578207
000380 29 84 83 40 b9 01 44 3f 6a 49 1e bf b2 5e 21 be
       4.109883 0.7656513 -0.6183077 -0.1575878
000390 15 8d 3b bf 42 7b f2 3f 82 48 e6 3f 79 e9 47 bf
       -0.7326215 1.8943865 1.7990878 -0.78090626
0003a0 38 38 2b bf 20 20 5d 40 30 35 ba 3f 00 4c 15 40
       -0.6688266 3.4550858 1.4547482 2.3327637
0003b0 79 bf 88 3f ce 85 ef bd 98 2d ae 3f 5e aa 64 bf
       1.0683433 -0.11695443 1.3607664 -0.8932246
0003c0 93 2c b4 bf 7b 60 6d 3e 4e 48 6a 40 16 6e 0e bf
       -1.4076103 0.23181336 3.6606631 -0.5563673
0003d0 af 3b 2a bf fb 49 3a be 8b ac ca 3f 12 5b cd 3e
       -0.6649732 -0.18192284 1.5833906 0.40108544
0003e0 7c d2 80 be d7 c4 11 bf 38 37 0b 40 88 17 a6 be
       -0.25160587 -0.5694098 2.1752453 -0.32439828
0003f0 0d 75 19 bf 63 15 b7 be 36 3e d7 be 47 bf dd bd
       -0.5994423 -0.35758504 -0.4203965 -0.10827499

weight f4 [32]
000000 41 e2 fc 3e b2 a2 a3 3e ac c1 13 3f bc 02 73 41
       0.49391368 0.31960064 0.57717395 15.188168
000010 e5 2c 16 41 52 0d 94 3e e9 ac 91 3d 12 29 ab 40
       9.385961 0.28916413 0.07113058 5.3487635
000020 ac 6c fd 40 6d 48 4f 40 ea 9f 0b 3f f8 8f ae 3e
       7.9195156 3.2387955 0.54540884 0.34094214
000030 5f 5d 75 41 25 48 3f 41 74 fd c2 40 b5 b4 41 41
       15.335296 11.955113 6.093439 12.106618
000040 69 be 67 41 fd ce e9 40 6b 4a 78 41 ff f3 92 40
       14.483987 7.306517 15.518168 4.5922847
000050 a8 79 74 41 3d a4 79 41 eb ed 26 3e 15 44 e8 40
       15.279701 15.602597 0.16301696 7.258311
000060 f6 fc 6b 41 aa c2 12 41 11 db a9 40 58 be 6c 3e
       14.749258 9.172525 5.3079915 0.23119485
000070 10 e8 bd 40 d3 80 e4 40 c7 dd 7b 41 73 b0 d7 40
       5.934578 7.1407256 15.741645 6.740289

bias f4 [32]
000000 1c 54 f9 3e af aa 0a 3e 12 9a f4 3e 86 bd d5 bf
       0.48696983 0.13541673 0.47773796 -1.6698463
000010 41 a6 92 be e1 1e 8d 3e d5 25 5b 3d a7 7e a9 3e
       -0.28642467 0.2756262 0.053502876 0.3310444
000020 98 71 6b be b0 5c 99 3e 64 bd fc 3e 16 a7 91 3e
       -0.22992551 0.29953527 0.49363244 0.2844779
000030 06 5a b5 bf 70 09 10 bf 3a 10 79 3e 37 0a 00 bf
       -1.4168098 -0.562644 0.24322596 -0.50015587
000040 38 d1 b3 bf ce 02 c1 3c 2e 28 a6 bf 42 d8 f9 3e
       -1.4048223 0.023560908 -1.2981012 0.48797804
000050 09 cb e5 bf 8a 51 8e bf e7 bd 6e 3d b7 c7 bc 3e
       -1.7952586 -1.1118634 0.058286574 0.3687112
000060 67 f5 be bf b2 61 6a 3c 50 ce af 3e 41 e6 3d 3e
       -1.4918641 0.014305519 0.3433709 0.18544866
000070 8d c3 b1 3d 93 67 cc 3e e6 6b aa bf f3 7e 80 3f
       0.086798765 0.3992277 -1.3314178 1.0038742

running_mean f4 [32]
000000 b6 4a 92 3f 3a 23 3f 3f 4c 29 53 3f b8 8f 13 3e
       1.142905 0.74663126 0.8248489 0.14410293
000010 d7 ea a7 be 4b 36 3c 3f ba 9f 04 be a7 59 0f bf
       -0.32796356 0.73520344 -0.12951556 -0.55996174
000020 ad 7e e6 be 4b 8e e0 be d9 81 98 3f 39 ca 53 3f
       -0.4501852 -0.4385856 1.1914626 0.8273044
000030 1b f9 81 3d 15 89 19 be 67 d9 02 bf e2 c3 86 be
       0.06346341 -0.14993699 -0.5111298 -0.26321322
000040 3f 19 9b 3d 73 5f 04 bf 78 ef 8a 3c dc cc 00 bf
       0.07573175 -0.51708144 0.01695989 -0.5031259
000050 fc 08 cf 3b 83 db 36 be f3 f7 27 3e c5 a7 02 bf
       0.0063182097 -0.17857175 0.16403179 -0.51037246
000060 00 25 45 3d e3 e2 15 bf 02 f7 12 bf 59 52 08 3f
       0.04813099 -0.58549327 -0.57408154 0.5325065
000070 b6 44 e2 be 28 84 02 bf 64 2d e2 bc a8 73 8c 3e
       -0.44193047 -0.50982904 -0.027609535 0.2743199

running_var f4 [32]
000000 c0 fa 76 40 ec ef 38 40 cb 1d 3d 40 c9 51 85 41
       3.8590546 2.8896437 2.9549434 16.664934
000010 e1 c0 f1 40 8f 09 82 40 ec 03 4c 40 6a 96 c6 40
       7.554795 4.063667 3.1877394 6.205861
000020 62 18 e2 40 23 a0 ca 40 91 0e 6b 40 2c 5b 75 40
       7.0654764 6.332048 3.672764 3.8336897
000030 71 a7 6c 41 41 2b 1a 41 9b 83 bb 40 0d bf 19 41
       14.790879 9.63556 5.859815 9.609143
000040 8c 3e 88 41 a7 99 c0 40 d0 9b 78 41 1b 4d c1 40
       17.03054 6.0187564 15.53804 6.0406623
000050 fd bc 8c 41 4e c9 68 41 b0 ea 0f 40 05 c0 ca 40
       17.59228 14.549147 2.2486992 6.33594
000060 fd 6f 6a 41 5d 85 d1 40 42 61 cf 40 07 86 43 40
       14.652341 6.5475297 6.4806223 3.0550554
000070 23 23 c5 40 78 a4 bf 40 ec fc 5f 41 a0 9c 18 41
       6.160539 5.9888268 13.9992485 9.538239

weight f4 [32, 64, 1, 1]
000000 a2 92 6c c0 73 d3 7b bf 6d c5 f8 3f 82 7e 61 bf
       -3.6964498 -0.9836952 1.943525 -0.8808366
000010 3d 78 f6 bf 4b a5 70 bf 75 1d 01 40 a7 c0 06 c0
       -1.9255444 -0.9400222 2.017423 -2.1055086
000020 0c 5f 1d c0 ed ea d1 bf ad 20 fa bf ca ce 78 c0
       -2.4589262 -1.6399819 -1.9541222 -3.8876214
000030 0f 47 2b 3e a3 5e ec bf d3 55 b8 bf 2b 29 2a 40
       0.16726325 -1.8466381 -1.4401191 2.6587627
000040 49 5a 54 bf 21 ce 0a c0 bb 06 23 40 54 d5 9e 3f
       -0.82950264 -2.168831 2.5472858 1.2408853
000050 b2 92 6a be a3 fb 31 3f a8 1d 89 bf 99 ea 52 bf
       -0.22907522 0.6952459 -1.0712175 -0.8238922
000060 41 e8 ba bf 2d 40 d7 bf 4a 43 b8 bf 04 83 be be
       -1.4602128 -1.681646 -1.4395535 -0.37209332
000070 be d2 f8 bf 73 c7 45 c0 67 14 40 c0 3e 87 98 bf
       -1.9439313 -3.0902984 -3.0012453 -1.1916273
000080 f4 81 d1 3e 78 6a ee bf 1c d8 4c bf a2 04 df be
       0.4091946 -1.8626242 -0.80017257 -0.43558222
000090 90 2c 0b 40 f0 6e 21 c0 d5 f8 2f 40 15 d9 88 3f
       2.1745949 -2.522396 2.7495625 1.0691248
0000a0 40 98 b5 bf e2 0c 9e bf a1 6f 15 bf 78 3e 19 3b
       -1.4187088 -1.2347682 -0.5837346 0.0023383182
0000b0 a2 ab b1 be 80 4d b5 3c 0f ac fe bf b8 3c eb bf
       -0.34701258 0.022131681 -1.9896258 -1.8377905
0000c0 7d 18 53 c0 75 7e 09 c0 60 1b 98 c0 fb 21 4a c0
       -3.2983696 -2.1483433 -4.7533417 -3.158324
0000d0 32 2e 20 c0 40 34 c6 bf 30 69 a7 bf d6 75 86 be
       -2.5028195 -1.5484695 -1.3078976 -0.26261777
0000e0 d9 a8 75 bf 3b f6 cb 3e 28 07 8f bf 08 f5 98 bf
       -0.95960766 0.39836296 -1.1174059 -1.1949778
0000f0 ac 12 2f 3f f5 59 84 bf ea a8 bb bd 3e fd d1 bf
       0.68387866 -1.0339953 -0.09163077 -1.6405408
000100 ee 32 5d c0 67 bd b5 bf d1 56 cb 3f 82 87 5a bf
       -3.4562335 -1.4198426 1.5885869 -0.8536302
000110 18 eb 03 c0 79 03 88 bf 4a 89 a1 3f fc 71 d9 bf
       -2.061224 -1.062606 1.2620022 -1.698791
000120 b1 74 4e c0 06 57 d5 bf 49 c8 d2 bf 89 cd 73 c0
       -3.2258723 -1.6667182 -1.6467372 -3.8094199
000130 88 3a 5e 3e 7e 32 00 c0 cb 14 ab bf b1 08 e5 3f
       0.21702015 -2.0030818 -1.336572 1.7893277
000140 02 90 12 bf 03 6c 0b c0 25 47 11 40 2d a0 90 3f
       -0.5725099 -2.1784675 2.2699673 1.1298882
000150 a8 45 ea be d5 d6 37 3f 73 32 7f bf bd f9 3f bf
       -0.45756269 0.7181218 -0.99686354 -0.74990445
000160 b7 ec c4 bf e0 ab b8 bf fb 74 c2 bf 71 eb 8c 3d
       -1.538474 -1.4427452 -1.519195 0.068808444
000170 b4 e1 07 c0 81 87 36 c0 a7 4b 3f c0 7f 9d db bf
       -2.1231508 -2.8520205 -2.9889925 -1.7157439
000180 52 55 0f be d4 e2 d4 bf 27 6c 3e bf ba a8 3b bf
       -0.13997391 -1.6631722 -0.7438378 -0.7330433
000190 e1 2b 06 40 45 58 06 c0 c3 40 17 40 3d 60 95 3f
       2.0964282 -2.0991375 2.3633277 1.1669995
0001a0 27 aa 04 c0 76 29 f9 bf 02 9a 41 bf fa 5a 2c 3e
       -2.0728853 -1.9465778 -0.7562562 0.1683158
0001b0 04 a6 bd be e0 db 1f 3e b8 31 f8 bf c5 63 c9 bf
       -0.37040722 0.1561122 -1.9390173 -1.5733572
0001c0 73 c4 37 c0 2c 12 cb bf 0a f3 95 c0 e8 5a 30 c0
       -2.8713653 -1.5864921 -4.685918 -2.7555485
0001d0 8a 8e 0c c0 9d 04 cc bf d5 7f ca bf dc f3 95 be
       -2.1962 -1.5938908 -1.5820261 -0.29287612
0001e0 6d d1 81 bf 95 51 57 3e f2 3f 67 bf 1f 05 a1 bf
       -1.0142037 0.21027215 -0.9033195 -1.2579688
0001f0 82 71 56 3f ff 02 25 bf cc bf 82 be de 16 a8 bf
       0.8376695 -0.64457697 -0.25536954 -1.3131979
000200 f7 74 80 c0 a6 6d ab bf 8f c5 ca 3f e6 f0 92 bf
       -4.014278 -1.3392837 1.584154 -1.1479766
000210 19 b1 e1 bf a5 f6 b8 bf 17 a5 ef 3f 14 c0 ea bf
       -1.7632171 -1.445027 1.8722256 -1.8339868
000220 78 1f 49 c0 cd 52 c8 bf d0 a5 f8 bf 98 ee 80 c0
       -3.1425457 -1.5650269 -1.9425602 -4.029125
000230 eb 59 4a 3e 23 b0 04 c0 ed b1 ab bf bf 91 e6 3f
       0.19760863 -2.0732505 -1.3413674 1.8013228
000240 3d 32 25 bf b5 76 16 c0 10 cc 07 40 d5 dc 90 3f
       -0.6452978 -2.3509953 2.12183 1.1317393
000250 20 58 19 bf 94 b5 26 3f a0 dd 86 bf 3b 29 84 bf
       -0.59900093 0.65120816 -1.0536385 -1.0325083
000260 2d f3 c2 bf 3c 9c da bf 6c 1d d8 bf f5 bf 10 be
       -1.5230461 -1.7078929 -1.6883979 -0.14135726
000270 7b 95 10 c0 c3 b0 38 c0 fb f3 4e c0 49 f8 df bf
       -2.2591236 -2.8857887 -3.2336414 -1.7497646
000280 da 80 7f be 23 2d 06 c0 be 12 31 bf c6 ae 16 bf
       -0.24951497 -2.096505 -0.69169223 -0.58860433
000290 c1 5e 14 40 c8 50 20 c0 0e 9c 19 40 3b ac 9c 3f
       2.3182833 -2.5049305 2.4001498 1.224006
0002a0 93 e7 0a c0 6c f6 0c c0 8f 72 0d bf 07 df 86 3d
       -2.1703842 -2.2025404 -0.5525293 0.06585508
0002b0 fb 33 01 bf dd ef d0 3c ea 17 0d c0 da a3 f2 bf
       -0.5046994 0.025505 -2.2045846 -1.8956254
0002c0 98 ba 52 c0 7b c7 ff bf 04 35 9e c0 27 9b 3e c0
       -3.2926388 -1.9982752 -4.9439716 -2.9782197
0002d0 53 b6 07 c0 5b b0 cd bf 0a d9 f0 bf 8e 96 37 bf
       -2.1205032 -1.6069444 -1.8816235 -0.71714103
0002e0 35 74 7a bf 6a b5 99 3e bb dc b4 bf fd b5 9f bf
       -0.9783357 0.3002122 -1.4129862 -1.2477413
0002f0 30 1a 59 3f b2 6a 11 bf c2 39 12 bf af 2c ae bf
       0.84805584 -0.5680343 -0.5711938 -1.3607386
000300 ec cb db 3e aa 32 32 3f 74 fe 1c 40 20 9a c3 3f
       0.42929018 0.6960856 2.4530306 1.528141
000310 88 81 03 3f f3 78 f7 3e 91 dc 99 c0 4a 2d 59 3f
       0.51369524 0.48334464 -4.8081746 0.8483473
000320 e8 be 2d 3f cb 2a 66 3f c3 52 dd 3f 6d df c9 3f
       0.67869425 0.89909047 1.7290882 1.5771309
000330 9f ce ac 3f e1 08 e5 3e 2f 49 24 3f df 17 b1 3f
       1.3500556 0.44733337 0.6417417 1.383541
000340 0e 0c 09 3f cd e8 17 3d 34 0b c1 c0 bf 88 c1 3f
       0.5353402 0.03708725 -6.0326176 1.5119857
000350 82 11 ad 3e 22 5f ba 3e 10 24 b2 be 3a 87 f9 3f
       0.3380242 0.36400706 -0.34793139 1.9494393
000360 06 58 53 3f bb 45 ec 3f e9 de 87 3f ea 27 e8 3f
       0.8255619 1.845878 1.0614902 1.8137181
000370 66 1b 8e 3e 28 7c bd 3e ac 18 68 3f 96 5f 29 3f
       0.27755278 0.37008786 0.90662646 0.6616148
000380 ef 71 27 3f 97 e5 d2 3f b9 52 ea 3f ed 42 d8 3f
       0.65408224 1.6476315 1.8306495 1.6895424
000390 bf a5 87 3f 3a 0a 34 3f dd ff a8 c0 bd 85 9a 3f
       1.0597457 0.70328104 -5.2812333 1.2072064
0003a0 ed 2f 46 bd e9 d7 c2 3e 12 59 09 40 00 fb 54 40
       -0.04838555 0.3805535 2.1460614 3.3278198
0003b0 33 61 51 3f 0d 56 d4 3f 5e 93 11 3f 18 87 aa 3f
       0.8178894 1.6588761 0.5686549 1.3322477
0003c0 30 8e 71 3f 56 87 54 3f a0 49 40 3f 42 22 ac 3f
       0.94357586 0.83019006 0.7511234 1.3447955
0003d0 e6 1d a0 3f a2 85 02 40 52 e2 49 3e 07 d5 2a 3f
       1.2509124 2.0394063 0.1971524 0.66731304
0003e0 08 96 51 3f e7 a8 ba 3f b3 23 e7 3e 6c c3 26 3f
       0.81869555 1.4582795 0.45144424 0.6514194
0003f0 3c cc 0f 40 1c 07 55 3f 1c 71 8d 3f 0b 18 10 40
       2.2468405 0.83213973 1.1050143 2.2514675

bias f4 [32]
000000 8d 47 46 40 26 7f 20 40 7f 60 2f 40 4c c6 59 bd
       3.098117 2.5077605 2.7402647 -0.053167626
000010 a1 5f 42 3f 84 13 46 40 8e cf da bf ea d3 82 3f
       0.7592717 3.0949411 -1.7094591 1.0220921
000020 50 9e 42 3f fa e4 86 3f cc e7 3e 40 2c f8 37 40
       0.76022816 1.0538628 2.9828978 2.8745222
000030 cc e0 f0 3e fb 41 4e 3f 60 0b 9c 3f 9c 37 41 3f
       0.47046506 0.8056943 1.2190971 0.7547548
000040 30 47 9e 3d 65 e2 87 3f 81 d1 20 3f 0c 29 b0 3f
       0.07728422 1.0615965 0.6281968 1.3762527
000050 28 03 0a 3e 7e 45 9f 3e 26 c5 1b 40 cc 18 9e 3f
       0.13477767 0.31107706 2.433908 1.2351317
000060 e9 e7 ef 3e ca b3 81 3f 93 60 8a 3f 69 5f 26 40
       0.4685662 1.0132992 1.0810722 2.5995734
000070 9d ec 87 3f 1a a6 b2 3f f1 8d e7 3e 8d d7 27 3f
       1.0619084 1.395694 0.4522548 0.6556328
