trained_model/NoTrainAnimalClassificationV1.pt (torch, 693764 bytes, 49 tensors)

bias f4 [3]
-0.27758247 -0.3002848 -0.19658276
00000000: 4a1f 8ebe eebe 99be fe4c 49be

bias f4 [32]
0.31602836 -0.21597701 -0.22742635 -0.18484041 0.025587678 -0.10955611 0.23328531 -0.3647682
-0.3181537 -0.09225398 0.4311818 0.3839537 -0.22680518 0.115605116 0.061026633 0.18330443
0.18220967 0.33156312 0.30004793 0.101973236 -0.40911826 0.23739904 0.39084393 0.11729336
-0.20472687 0.06953293 -0.4035685 -0.032370985 -0.2118313 -0.4927206 -0.5611761 0.47561574
00000000: 78ce a13e 1429 5dbe 74e2 68be ce46 3dbe
00000010: 409d d13c f45e e0bd 58e2 6e3e e6c2 babe
00000020: 0be5 a2be a8ef bcbd dcc3 dc3e 9495 c43e
00000030: 9e3f 68be 60c2 ec3d 10f7 793d 28b4 3b3e
00000040: 2c95 3a3e a4c2 a93e e29f 993e 58d7 d03d
00000050: f377 d1be bc18 733e b21c c83e 8037 f03d
00000060: eca3 51be 4867 8e3d 88a0 cebe 7097 04bd
00000070: 4eea 58be e045 fcbe 3da9 0fbf e883 f33e

bias f4 [32]
-0.29739428 0.15003172 0.15792683 -0.30776137 0.11964539 -0.29871723 0.27375022 -0.12802868
0.29387167 0.26551083 0.019438595 0.12808967 -0.24102688 -0.16132312 -0.23140952 0.24269953
-0.050777674 0.098187774 0.048053533 -0.33239627 0.0043094456 -0.13656664 0.030848473 0.2865545
-0.055003315 0.22626546 -0.19194278 0.105036646 0.23143378 -0.24109527 -0.13957796 0.2629744
00000000: 1044 98be eaa1 193e 92b7 213e e692 9dbe
00000010: a408 f53d 77f1 98be fd28 8c3e f319 03be
00000020: 5976 963e 09f1 873e b03d 9f3c f029 033e
00000030: c0cf 76be e331 25be 9ef6 6cbe 3a86 783e
00000040: 40fc 4fbd ac16 c93d c8d3 443d d82f aabe
00000050: 4036 8d3b 20d8 0bbe f0b5 fc3c 45b7 923e
00000060: 284b 61bd 22b2 673e a68c 44be 741d d73d
00000070: fafc 6c3e aee1 76be 86ed 0ebe 95a4 863e

bias f4 [64]
-0.0918266 0.147703 -0.10689193 0.1384046 -0.14211476 -0.080329046 -0.013750553 0.041365683
0.12963428 -0.16904755 0.0077512264 0.024972022 0.03842956 -0.14065832 -0.04571277 0.15996014
-0.16443692 0.0750124 0.09025939 -0.05489593 0.13301335 -0.16781971 0.010729581 0.011002183
-0.10150518 0.17341743 -0.119182184 -0.0247588 0.090032145 0.15202276 0.03036648 -0.14360031
0.00027893484 0.13688932 0.03344491 -0.07746125 -0.084711686 0.1078444 0.10504432 -0.16674049
0.07293095 0.017028406 0.14146553 0.016253114 -0.010663256 -0.14286304 0.059011653 0.15884079
0.1536266 0.027503952 -0.1020858 -0.041767046 0.07521285 0.15227817 -0.14588916 0.051256463
0.002330631 0.17504145 -0.08450554 0.13323446 -0.17253365 0.15995465 -0.008263558 0.09535836
00000000: 960f bcbd 753f 173e 28ea dabd efb9 0d3e
00000010: 8886 11be 8e83 a4bd 004a 61bc 106f 293d
00000020: d9be 043e cd1a 2dbe 00fe fd3b 2092 cc3c
00000030: 5068 1d3d bc08 10be 503d 3bbd 97cc 233e
00000040: 2762 28be 1aa0 993d ead9 b83d 8eda 60bd
00000050: a734 083e eed8 2bbe 20cb 2f3c 8042 343c
00000060: f3e1 cfbd 5794 313e ca15 f4bd f8d2 cabc
00000070: c662 b83d dbab 1b3e 20c3 f83c f60b 13be
00000080: 003e 9239 b72c 0c3e 88fd 083d 01a4 9ebd
00000090: 527d adbd 86dd dc3d 7a21 d73d 05be 2abe
000000a0: d25c 953d 287f 8b3c 57dc 103e 4025 853c
000000b0: f0b4 2ebc b04a 12be 34b6 713d 29a7 223e
000000c0: 4b50 1d3e f84f e13c 5c12 d1bd ec13 2bbd
000000d0: 3209 9a3d cfee 1b3e f863 15be 4cf2 513d
000000e0: 80bd 183b 113e 333e 3e11 adbd 9d6e 083e
000000f0: a9ac 30be 27cb 233e e063 07bc 3e4b c33d

bias f4 [64]
-0.18290877 0.30116704 -0.2947814 -0.16242826 0.029510945 -0.02553463 0.18348339 -0.024444908
0.3275201 -0.033941895 0.099549145 0.32359096 -0.31031913 -0.26201662 -0.026529998 -0.020898461
0.27329507 0.035654455 0.033714503 -0.03247106 0.089968175 0.18626156 -0.14602622 0.06856933
0.33323756 -0.1579108 -0.21436998 0.08358562 -0.30673727 -0.30626613 -0.10133481 0.13885334
-0.29144347 -0.031030387 0.2573357 0.28033844 -0.16588318 -0.042942375 0.25245157 -0.051870704
0.3307791 0.014303952 0.08400115 -0.14168331 0.16876677 -0.13392358 0.0066543818 0.15403137
0.0709202 0.0941838 0.20423302 -0.15184014 0.09668493 0.15691021 -0.11161499 0.20979854
0.17145863 0.31029633 0.2806864 -0.3120305 -0.31141075 0.17347834 -0.19615293 -0.30886793
00000000: 704c 3bbe 9132 9a3e 96ed 96be 9853 26be
00000010: f0c0 f13c 002e d1bc 12e3 3b3e b040 c8bc
00000020: b7b0 a73e a806 0bbd 6ce0 cb3d b7ad a53e
00000030: 26e2 9ebe 0b27 86be 7055 d9bc 4033 abbc
00000040: 55ed 8b3e 680a 123d 3818 0a3d 6000 05bd
00000050: 3c41 b83d 5abb 3e3e e687 15be 146e 8c3d
00000060: 1d9e aa3e 5eb3 21be ce83 5bbe f02e ab3d
00000070: ab0c 9dbe eace 9cbe a088 cfbd 922f 0e3e
00000080: 1438 95be 7033 febc 81c1 833e 8588 8f3e
00000090: 48dd 29be 58e4 2fbd 5541 813e 6076 54bd
000000a0: e15b a93e 205b 6a3c cc08 ac3d 6e15 11be
000000b0: 32d1 2c3e 4323 09be 000d da3b 66ba 1d3e
000000c0: 9c3e 913d 70e3 c03d 7622 513e fb7b 1bbe
000000d0: c002 c63d 12ad 203e 6696 e4bd 6ed5 563e
000000e0: da92 2f3e 29df 9e3e 21b6 8f3e 76c2 9fbe
000000f0: 3b71 9fbe 4ea4 313e 50dc 48be f023 9ebe

bias f4 [128]
-0.10487889 0.0096643865 -0.022436082 0.01774533 0.09738025 0.064369574 0.08335219 0.046763703
0.10485175 0.097890854 0.05115585 -0.060933143 -0.06418194 -0.11408378 -0.03984338 -0.11721003
-0.015378326 0.048141763 -0.026403785 -0.025844008 0.101826966 -0.07439236 0.033922613 0.018766582
-0.067575365 0.084374204 0.046821237 0.09396644 -0.09319796 0.07999417 -0.028608844 0.060756356
0.032761067 -0.011463866 0.06835489 -0.1085335 0.00512065 -0.067658395 -0.09479575 0.0042716265
0.026179478 0.044671223 0.0071477294 -0.12182428 0.01651299 -0.034927145 0.062152803 0.07958828
0.061050355 -0.09516135 -0.11130214 0.07047252 -0.043190256 -0.006467223 -0.121152535 0.015300661
-0.103913635 0.06610651 -0.0037549883 -0.0162303 -0.082601175 0.080477804 0.036671266 -0.05515401
0.082386136 -0.04223782 -0.08613461 0.056526512 0.0464368 -0.06465389 0.052439928 -0.1201254
0.05279903 0.03615494 0.06429486 0.11218521 -0.04257439 -0.12379022 -0.050913095 -0.004018262
-0.039975703 0.050112516 0.0724826 -0.049987912 -0.04852408 -0.08578873 -0.103394225 -0.02352406
0.04476951 -0.011342719 -0.022178099 -0.027224928 0.017959252 0.006230563 0.026865393 -0.12325749
0.109448746 -0.036122978 0.025091037 0.10954966 -0.10497874 0.03203751 0.0025558174 -0.08248514
-0.026070848 -0.0723141 0.11657548 -0.08310048 0.11606124 -0.11913346 -0.03975372 0.005410582
-0.123976305 0.03415434 0.09373373 0.09919271 -0.09371777 0.09284359 -0.06735417 0.06884475
0.094935626 0.045261547 -0.03829044 0.11904594 -0.007087603 0.022813424 -0.08770338 -0.10990165
00000000: beca d6bd 6057 1e3c e0cb b7bc a85e 913c
00000010: 4c6f c73d 32d4 833d 8eb4 aa3d 4c8b 3f3d
00000020: 84bc d63d 007b c83d cc88 513d 0895 79bd
00000030: d271 83bd c2a4 e9bd d032 23bd d00b f0bd
00000040: 60f5 7bbc 4c30 453d c04c d8bc d0b6 d3bc
00000050: a88a d03d 065b 98bd 70f2 0a3d 60bc 993c
00000060: f464 8abd 62cc ac3d a0c7 3f3d 7a71 c03d
00000070: 92de bebd fcd3 a33d 185d eabc a8db 783d
00000080: 7830 063d f0d2 3bbc a6fd 8b3d d046 debd
00000090: 20cb a73b 7c90 8abd 4624 c2bd 00f9 8b3b
000000a0: 5876 d63c 2cf9 363d 8037 ea3b 027f f9bd
000000b0: 4046 873c c40f 0fbd f093 7e3d 2eff a23d
000000c0: f00f 7a3d f4e3 c2bd 60f2 e3bd e653 903d
000000d0: 44e8 30bd 00eb d3bb d21e f8bd a0af 7a3c
000000e0: acd0 d4bd da62 873d 4016 76bb 68f5 84bc
000000f0: ce2a a9bd 8cd1 a43d 9c34 163d 2ce9 61bd
00000100: 10ba a83d 9001 2dbd 5867 b0bd 5888 673d
00000110: 8434 3e3d 4269 84bd 40cb 563d 4e04 f6bd
00000120: cc43 583d 3417 143d 06ad 833d 5cc1 e53d
00000130: 7c62 2ebd ba85 fdbd 408a 50bd a0ab 83bb
00000140: 90bd 23bd c842 4d3d c271 943d 20c0 4cbd
00000150: 30c1 46bd 00b2 afbd 5ac0 d3bd 88b5 c0bc
00000160: 3c60 373d d0d6 39bc d8ae b5bc d006 dfbc
00000170: 481f 933c c029 cc3b d014 dc3c 6c6e fcbd
00000180: aa26 e03d b0f5 13bd b88b cd3c 925b e03d
00000190: 18ff d6bd c439 033d 807f 273b f8ed a8bd
000001a0: 8892 d5bc 6a19 94bd 20bf ee3d 9630 aabd
000001b0: 84b1 ed3d 3efc f3bd ccd4 22bd 404b b13b
000001c0: 4ae7 fdbd 6ce5 0b3d 78f7 bf3d 8c25 cb3d
000001d0: 1aef bfbd c824 be3d fcf0 89bd 7afe 8c3d
000001e0: 9c6d c23d 2c64 393d 70d6 1cbd 5cce f33d
000001f0: 203f e8bb 38e3 ba3c d49d b3bd 1e14 e1bd

bias f4 [128]
0.2289165 -0.045817405 -0.30828783 0.037235588 -0.15523124 0.14837933 -0.19078803 -0.28968877
0.039186 -0.2542652 -0.26068974 -0.15743029 -0.0390625 0.02843985 0.008888572 0.2744191
-0.010561973 -0.22836182 -0.25802717 0.17716399 -0.20839712 0.21868184 0.04042837 0.17047837
-0.09420805 0.12552944 -0.22549471 -0.17982921 0.016792059 0.03969595 -0.09395878 0.2618461
0.09601891 0.3193014 -0.31849787 -0.24781117 0.17652252 -0.18689752 -0.12958448 -0.28293437
0.06725058 -0.22993982 0.27002922 0.2926902 -0.044440538 0.14116827 0.25660005 0.015978932
0.073963195 0.28855076 -0.27681732 0.08831227 0.13344815 -0.31400365 -0.121987626 -0.072318345
-0.019119859 -0.32081628 0.22307321 -0.08934514 -0.115507886 0.031956583 -0.027465373 -0.31490606
0.13587835 -0.06295052 -0.28741023 -0.10310905 0.15301844 0.17926314 -0.15788683 -0.20168023
-0.25323448 -0.11584453 0.026671201 -0.085887 -0.13006744 -0.32262123 0.047565848 0.20205334
-0.2735551 -0.064439684 -0.23321328 -0.046900123 0.014658362 -0.30869183 0.29107884 -0.14335582
-0.22849846 -0.14673528 -0.110219404 0.09362456 0.15267467 0.082613945 0.015490204 0.015942365
-0.000739187 -0.077289104 0.23667338 0.059996963 -0.077676415 0.27223846 0.29765567 -0.028571129
-0.13021931 0.003944427 -0.25680667 0.31823847 0.0502567 0.32988146 -0.29910776 0.24957547
-0.19374518 -0.22378683 -0.25976622 0.33300915 0.112407714 -0.1604155 -0.19714952 -0.32577989
0.120060414 0.0983344 0.20060411 0.25898156 0.11736032 -0.14362578 0.27168074 0.01002714
00000000: 1669 6a3e 08ab 3bbd e7d7 9dbe 5884 183d
00000010: f0f4 1ebe c0f0 173e f05d 43be 1652 94be
00000020: 8081 203d 0c2f 82be 2079 85be 6835 21be
00000030: 0000 20bd b0fa e83c 60a1 113c a980 8c3e
00000040: 200c 2dbc aed7 69be 231c 84be 7a6a 353e
00000050: 0e66 55be 22ee 5f3e 3898 253d e291 2e3e
00000060: 26f0 c0bd ca8a 003e 16e8 66be 2625 38be
00000070: 808f 893c 3898 223d 766d c0bd b110 863e
00000080: 90a5 c43d 797b a33e 2712 a3be 36c2 7dbe
00000090: 52c2 343e 1062 3fbe cbb1 04be c6dc 90be
000000a0: acba 893d 5875 6bbe 4541 8a3e 7ddb 953e
000000b0: 4807 36bd 6a8e 103e 1561 833e 40e6 823c
000000c0: 047a 973d edbc 933e 00bb 8dbe 10dd b43d
000000d0: a2a6 083e 16c5 a0be a6d4 f9bd a41b 94bd
000000e0: 40a1 9cbc 0842 a4be 4e6d 643e 96fa b6bd
000000f0: 668f ecbd e8e4 023d 10ff e0bc 5e3b a1be
00000100: b223 0b3e 34ec 80bd 6f27 93be d62a d3bd
00000110: deb0 1c3e c290 373e 16ad 21be 4385 4ebe
00000120: f3a7 81be e63f edbd 907d da3c 86e5 afbd
00000130: 6630 05be 9c2e a5be 68d4 423d 12e7 4e3e
00000140: 6a0f 8cbe f4f8 83bd 76cf 6ebe 581a 40bd
00000150: a029 703c db0c 9ebe 4908 953e decb 12be
00000160: 80fb 69be c641 16be b6ba e1bd 3cbe bf3d
00000170: c056 1c3e 8031 a93d a0ca 7d3c 9099 823c
00000180: 00c6 41ba c049 9ebd 825a 723e 60bf 753d
00000190: d014 9fbd d762 8b3e 5366 983e 000e eabc
000001a0: 3658 05be 4040 813b 2a7c 83be 27f0 a23e
000001b0: f8d9 4d3d 39e6 a83e a724 99be b690 7f3e
000001c0: 2365 46be 6028 65be 1400 85be 2d80 aa3e
000001d0: 0436 e63d f643 24be 90e1 49be 9fcc a6be
000001e0: 3ce2 f53d 8c63 c93d 2a6b 4d3e 3b99 843e
000001f0: 9c5a f03d a312 13be bd19 8b3e e048 243c

bias f4 [256]
0.059891902 -0.06275594 0.054021843 0.013572171 -0.066653214 -0.024677336 -0.041159075 0.03389696
-0.022756808 0.007860459 -0.06874367 -0.006205626 -0.06740452 0.04216761 0.086677276 -0.060250193
-0.008221731 0.011595018 -0.013746522 0.03257922 -0.07649713 -0.018924132 0.07865619 -0.025541179
0.06251357 -0.07193564 0.049681507 0.018283553 -0.0035950392 -0.07250848 0.08692763 -0.08734771
-0.045187004 0.019802563 -0.057648122 0.026679784 -0.05338679 0.028694578 0.06796912 -0.03417376
-0.015214995 -0.08500192 0.05911743 0.0061334744 0.084360935 0.039693885 0.054679744 -0.062234815
-0.0044958815 0.08191573 0.007937856 -0.05777611 0.035803378 0.0853652 -0.081826 -0.08307344
-0.067673445 0.0068767965 0.032759525 -0.037757665 0.04344768 0.008442655 -0.08372856 0.038541086
-0.0073398426 -0.08035627 -0.009793498 0.039412923 0.059585474 -0.035920516 -0.026791941 -0.011327125
0.04386089 -0.049433775 -0.032908745 0.009455562 -0.07981242 0.049340703 -0.031539507 -0.061977677
0.07336696 0.0015873536 -0.062129818 0.025395192 -0.0020790398 -0.07606897 0.054485135 -0.050404448
-0.011653259 -0.082200065 0.013903402 -0.029886581 -0.006100774 0.05543805 0.04846277 0.041251905
0.0021284968 -0.014333196 -0.04569635 0.020731747 -0.026004847 0.07030956 -0.024542913 0.0027170926
0.052229382 -0.055616125 -0.052776672 -0.08200291 -0.05037053 0.04126393 0.080295555 0.043528177
-0.0027947351 0.06497582 -0.06668351 -0.025470078 -0.042823326 0.011191323 -0.0537724 0.06028951
-0.057743553 0.061455004 0.0017533749 -0.0803293 -0.06657258 0.04548686 -0.058578283 -0.032917373
0.082560726 0.042030387 0.026904143 0.024671406 0.0675514 0.03493797 -0.06887119 0.026692368
-0.019938566 -0.036867883 -0.05701576 -0.050696526 -0.054100443 -0.07120832 -0.055461194 0.07363387
-0.06190253 0.068990104 -0.017748006 -0.078561716 0.022529028 0.06747634 -0.022070512 -0.061492335
-0.06390963 0.04492315 0.025563836 -0.08229666 -0.04285899 0.044986762 0.08127407 0.08733938
0.009322621 0.06760133 0.022163935 0.0013478696 -0.048046373 0.07420964 0.037957214 0.07429024
0.006793134 -0.010293081 -0.004149623 0.040293925 -0.02956441 0.012747556 0.02397599 0.050823785
-0.061684873 -0.033538144 -0.049682293 -0.034017827 0.07614834 -0.027194936 -0.0043668374 -0.061851796
0.034340918 0.08009071 0.06876979 0.062244453 0.062521465 -0.017363206 -0.027134668 -0.08764973
0.030283786 0.048829697 -0.022414833 0.030036762 0.033024922 -0.014551356 -0.035164673 0.08053889
0.04582738 -0.056504436 -0.08043481 -0.03044293 -0.040232603 0.03093952 0.06311523 -0.016165994
0.0026803166 -0.08528666 0.04336358 0.015871778 0.026130848 0.05718819 0.07270148 0.043239094
-0.026939519 0.078370444 0.082981326 -0.007983811 -0.045369733 0.05437372 0.031255744 -0.056460172
-0.084368244 0.0096113235 0.016152896 0.07425868 -0.02503945 -0.05518784 -0.01808907 0.011532038
-0.0018281266 -0.08160704 -0.07705077 0.07755368 -0.0005481541 -0.018292122 -0.08455307 0.08665151
-0.072476976 -0.06267566 0.021136887 0.07376524 -0.080225214 0.08243499 -0.041925322 0.027305476
0.04279282 -0.010359123 0.08002316 -0.050885964 0.052659802 -0.0028320327 0.06928498 0.0031155348
00000000: 3651 753d 3086 80bd 0246 5d3d d05d 5e3c
00000010: 7b81 88bd 2028 cabc 6b96 28bd 8ad7 0a3d
00000020: 7c6c babc 28c9 003c 7bc9 8cbd 9058 cbbb
00000030: 620b 8abd f2b7 2c3d db83 b13d e8c8 76bd
00000040: 70b4 06bc 08f9 3d3c 1839 61bc ca71 053d
00000050: 87aa 9cbd c806 9bbc 7f16 a13d bc3b d1bc
00000060: 1d07 803d fe52 93bd d67e 4b3d 64c7 953c
00000070: c09a 6bbb 537f 94bd 1d07 b23d 5be3 b2bd
00000080: 0216 39bd fc38 a23c 7020 6cbd 908f da3c
00000090: 1bac 5abd e410 eb3c 6533 8b3d c9f9 0bbd
000000a0: 5048 79bc 7d15 aebd 1e25 723d 50fb c83b
000000b0: 6dc5 ac3d 0e96 223d def7 5f3d efe9 7ebd
000000c0: 3052 93bb 6fc3 a73d c80d 023c a4a6 6cbd
000000d0: 90a6 123d f3d3 ae3d 6494 a7bd 6822 aabd
000000e0: 6098 8abd c056 e13b da2e 063d c8a7 1abd
000000f0: 32f6 313d 1053 0a3c e179 abbd 42dd 1d3d
00000100: 1083 f0bb d491 a4bd e874 20bc 726f 213d
00000110: e60f 743d 6421 13bd c67a dbbc 6895 39bc
00000120: 7aa7 333d 127b 4abd 52cb 06bd 80eb 1a3c
00000130: b274 a3bd 7a19 4a3d 922f 01bd 4edc 7dbd
00000140: 6b41 963d c00e d03a d67b 7ebd 9409 d03c
00000150: 8040 08bb 0cca 9bbd ce2b 5f3d e574 4ebd
00000160: 50ed 3ebc 8258 a8bd 18cb 633c b4d4 f4bc
00000170: 00e9 c7bb 0213 633d e680 463d c2f7 283d
00000180: 407e 0b3b c8d5 6abc 192c 3bbd a0d5 a93c
00000190: 1e08 d5bc 75fe 8f3d 380e c9bc 4011 323b
000001a0: 7aee 553d bccd 63bd 5a2c 58bd 24f1 a7bd
000001b0: 5451 4ebd 5e04 293d ff71 a43d 9a4a 323d
000001c0: e027 37bb 0b12 853d 5d91 88bd a0a6 d0bc
000001d0: 8367 2fbd d05b 373c 7340 5cbd 22f2 763d
000001e0: 8184 6cbd 3eb8 7b3d 80d1 e53a b083 a4bd
000001f0: 3457 88bd 6e50 3a3d c8ef 6fbd 5ed4 06bd
00000200: 9915 a93d 0e28 2c3d 1466 dc3c b01b ca3c
00000210: 6358 8a3d 1e1b 0f3d 570c 8dbd f4a9 da3c
00000220: 3456 a3bc c702 17bd 5c89 69bd 29a7 4fbd
00000230: 6d98 5dbd abd5 91bd 472b 63bd 5bcd 963d
00000240: 828d 7dbd af4a 8d3d 4464 91bc f7e4 a0bd
00000250: cc8e b83c 0931 8a3d 38cd b4bc 63df 7bbd
00000260: 0de3 82bd 5601 383d 406b d13c 278b a8bd
00000270: e98c 2fbd 0a44 383d 0573 a63d fdde b23d
00000280: e8bd 183c 9172 8a3d 2491 b53c 00ab b03a
00000290: 46cc 44bd 39fb 973d 0679 1b3d 7b25 983d
000002a0: f098 de3b 50a4 28bc 90f9 87bb 3e0b 253d
000002b0: 1031 f2bc 20db 503c 4c69 c43c 9a2c 503d
000002c0: 47a9 7cbd 4b5f 09bd a97f 4bbd 4756 0bbd
000002d0: a9f3 9b3d eac7 debc b017 8fbb 4f58 7dbd
000002e0: 10a9 0c3d 9906 a43d 2dd7 8c3d 0af4 7e3d
000002f0: 410b 803d 483d 8ebc 8649 debc b481 b3bd
00000300: b415 f83c a601 483d 509f b7bc a80f f63c
00000310: 2445 073d d068 6ebc d508 10bd 93f1 a43d
00000320: 7eb5 3b3d 3271 67bd 01bb a4bd 7463 f9bc
00000330: f1ca 24bd e074 fd3c 8f42 813d 8c6e 84bc
00000340: 40a8 2f3b c6aa aebd 029e 313d 8805 823c
00000350: 5c10 d63c 2a3e 6a3d 83e4 943d 7a1b 313d
00000360: 44b0 dcbc af80 a03d 1df2 a93d 88ce 02bc
00000370: 9dd5 39bd fab6 5e3d 0606 003d c842 67bd
00000380: 42c9 acbd d078 1d3c 1453 843c ef14 983d
00000390: 881f cdbc a50c 62bd 882f 94bc e0f0 3c3c
000003a0: c09d efba 9721 a7bd cbcc 9dbd 77d4 9e3d
000003b0: 00b2 0fba 5cd9 95bc 292a adbd 5976 b13d
000003c0: cf6e 94bd 195c 80bd 4427 ad3c 3b12 973d
000003d0: 1e4d a4bd add3 a83d e3b9 2bbd bcaf df3c
000003e0: 8647 2f3d 50b9 29bc 2fe3 a33d cd6d 50bd
000003f0: ceb1 573d a099 39bb 49e5 8d3d 002e 4c3b

bias f4 [32]
0.02306953 0.026260763 -0.09510586 0.23653308 0.1347698 -0.1976339 -0.0004284382 0.15479025
0.0067913234 0.01550594 -0.15298674 0.20327988 -0.21805212 -0.07709357 0.008692861 -0.28807563
-0.0014768541 0.21805033 -0.14845929 0.29191545 -0.21444058 -0.24176705 0.062017918 0.20030507
-0.25665018 0.32851556 -0.21266024 -0.06121835 0.3121545 0.13552871 0.2205207 0.13808405
00000000: 50fc bc3c d020 d73c dcc6 c2bd ba35 723e
00000010: 1801 0a3e 8b60 4abe 00a0 e0b9 5681 1e3e
00000020: c089 de3b a00c 7e3c 8ea8 1cbe 9a28 503e
00000030: 0e49 5fbe 3ce3 9dbd 806c 0e3c a67e 93be
00000040: 0093 c1ba 9648 5f3e b605 18be f175 953e
00000050: 5096 5bbe c891 77be 8006 7e3d c61c 4d3e
00000060: a767 83be 3133 a83e 9bc3 59be 18c0 7abd
00000070: b7d2 9f3e 0ac8 0a3e 2ed0 613e e865 0d3e

bias f4 [32]
-0.06657605 0.031848863 0.035257965 0.111218944 -0.14159875 -0.14192049 0.13975774 0.14972694
0.13261367 -0.16188903 0.09831177 -0.03417699 0.07639454 -0.05845367 -0.160435 0.0780523
-0.121925965 -0.08837985 0.10832815 -0.04397057 0.15680529 0.17211662 -0.12664646 0.08973549
-0.041141704 0.17125757 -0.05376547 -0.029978544 -0.03357978 0.05599086 0.06899221 -0.13614722
00000000: 0659 88bd f473 023d a86a 103d c2c6 e33d
00000010: 43ff 10be 9b53 11be a71c 0f3e 0552 193e
00000020: e1cb 073e 3dc6 25be ae57 c93d 2cfd 0bbd
00000030: be74 9c3d 1e6d 6fbd 1349 24be e2d9 9f3d
00000040: 52b4 f9bd 7f00 b5bd 26db dd3d 7c1a 34bd
00000050: 9191 203e 573f 303e 9caf 01be 3ec7 b73d
00000060: 3484 28bd 255e 2f3e 2e39 5cbd 9095 f5bc
00000070: f48a 09bd ac56 653d ca4b 8d3d 2d6a 0bbe

weight f4 [32]
1.0 1.0 1.0 1.0 1.0 1.0 1.0 1.0
1.0 1.0 1.0 1.0 1.0 1.0 1.0 1.0
1.0 1.0 1.0 1.0 1.0 1.0 1.0 1.0
1.0 1.0 1.0 1.0 1.0 1.0 1.0 1.0
00000000: 0000 803f 0000 803f 0000 803f 0000 803f
00000010: 0000 803f 0000 803f 0000 803f 0000 803f
00000020: 0000 803f 0000 803f 0000 803f 0000 803f
00000030: 0000 803f 0000 803f 0000 803f 0000 803f
00000040: 0000 803f 0000 803f 0000 803f 0000 803f
00000050: 0000 803f 0000 803f 0000 803f 0000 803f
00000060: 0000 803f 0000 803f 0000 803f 0000 803f
00000070: 0000 803f 0000 803f 0000 803f 0000 803f

bias f4 [32]
0.0 0.0 0.0 0.0 0.0 0.0 0.0 0.0
0.0 0.0 0.0 0.0 0.0 0.0 0.0 0.0
0.0 0.0 0.0 0.0 0.0 0.0 0.0 0.0
0.0 0.0 0.0 0.0 0.0 0.0 0.0 0.0
00000000: 0000 0000 0000 0000 0000 0000 0000 0000
00000010: 0000 0000 0000 0000 0000 0000 0000 0000
00000020: 0000 0000 0000 0000 0000 0000 0000 0000
00000030: 0000 0000 0000 0000 0000 0000 0000 0000
00000040: 0000 0000 0000 0000 0000 0000 0000 0000
00000050: 0000 0000 0000 0000 0000 0000 0000 0000
00000060: 0000 0000 0000 0000 0000 0000 0000 0000
00000070: 0000 0000 0000 0000 0000 0000 0000 0000

running_mean f4 [32]
-0.0025220276 0.0028627687 -0.0007090688 0.027142573 -0.008461046 -0.009643418 0.0065701045 0.01604168
0.032265436 -0.019359702 0.009159947 -0.010381579 0.0042853155 -0.02072069 -0.022098219 -0.028539313
-0.008945346 -0.031758554 0.012711323 -0.018386364 0.032153543 0.017421344 -0.011689764 0.013373938
-0.031205053 0.028775698 0.0027109806 0.021214038 0.0049992586 0.0007821279 0.0022201356 -0.024119532
00000000: 9a48 25bb 4a9d 3b3b cde0 39ba 1a5a de3c
00000010: 33a0 0abc 6dff 1dbc 084a d73b d769 833c
00000020: c328 043d 3d98 9ebc 9a13 163c 8017 2abc
00000030: d56b 8c3b 70be a9bc 5307 b5bc 47cb e9bc
00000040: 808f 12bc 4215 02bd 2743 503c 009f 96bc
00000050: 6fb3 033d 35b7 8e3c 6d86 3fbc 5d1e 5b3c
00000060: bda1 ffbc 03bb eb3c b5aa 313b 10c9 ad3c
00000070: d2d0 a33b b707 4d3a b27f 113b 5396 c5bc

running_var f4 [32]
0.9127029 0.9143329 0.91212934 0.9104835 0.9119628 0.9086211 0.9131178 0.9124908
0.92326045 0.9085974 0.9097385 0.9106833 0.9127918 0.91074383 0.91736037 0.92170095
0.913139 0.920404 0.90822214 0.9093784 0.909669 0.9077625 0.9068223 0.9040177
0.91264325 0.9138977 0.9096007 0.91151875 0.9104406 0.9116757 0.9086361 0.92179275
00000000: e6a6 693f b911 6a3f 4f81 693f 7215 693f
00000010: 6576 693f 649b 683f 17c2 693f ff98 693f
00000020: cc5a 6c3f d799 683f 9fe4 683f 8a22 693f
00000030: b9ac 693f 8226 693f 21d8 6a3f 98f4 6b3f
00000040: 7ac3 693f 999f 6b3f 3f81 683f 06cd 683f
00000050: 11e0 683f 2063 683f 8225 683f b46d 673f
00000060: fda2 693f 33f5 693f 97db 683f 4b59 693f
00000070: a312 693f 9463 693f 609c 683f 9cfa 6b3f

bias f4 [64]
-0.21198544 -0.15063886 0.31926563 0.29912695 0.106119245 0.015998244 0.04693255 -0.18518195
0.2010602 -0.29417357 -0.17358625 0.29457006 -0.1532238 0.19871667 0.028379172 -0.20253643
-0.29043728 0.3165579 -0.20987396 -0.32972747 -0.040022463 0.30063155 -0.24659054 -0.2769435
0.15026012 -0.2626327 -0.11152074 0.12592587 -0.23567025 0.20689884 0.21654496 0.1437949
0.25587973 0.08826348 -0.32628518 0.010690063 0.1811246 -0.24804401 -0.16594994 -0.0465993
0.2942094 -0.17063305 0.22435656 0.11308956 -0.32010946 -0.13307047 -0.2666237 -0.12488195
-0.21543638 0.15138686 0.1809862 -0.13621113 -0.07978466 -0.29411173 -0.054053396 -0.03498897
0.04471019 0.08205712 -0.04699537 0.30349788 -0.12626207 0.17614862 0.16271654 0.113672584
00000000: b612 59be 1341 1abe c976 a33e 2b27 993e
00000010: 0c55 d93d c00e 833c 583c 403d 56a0 3dbe
00000020: bae2 4d3e eb9d 96be 98c0 31be e3d1 963e
00000030: b3e6 1cbe 627c 4b3e 707b e83c b665 4fbe
00000040: 32b4 94be e113 a23e 33e9 56be 0ad2 a8be
00000050: 98ee 23bd 61ec 993e 3b82 7cbe 8acb 8dbe
00000060: cadd 193e cb77 86be fc64 e4bd b6f2 003e
00000070: 8b53 71be 4add 533e f6bd 5d3e f83e 133e
00000080: ab02 833e 7cc3 b43d da0e a7be 6025 2f3c
00000090: ba78 393e 40ff 7dbe c8ee 29be e8de 3ebd
000000a0: 9da2 963e 6eba 2ebe babd 653e 809b e73d
000000b0: 63e5 a3be a043 08be e782 88be 1cc2 ffbd
000000c0: 5b9b 5cbe 2805 1b3e 7254 393e ee7a 0bbe
000000d0: 2466 a3bd d095 96be 1867 5dbd 9850 0fbd
000000e0: 0822 373d 900d a83d 387e 40bd 1364 9b3e
000000f0: d84a 01be 4e60 343e 2a9f 263e 2ccd e83d

bias f4 [64]
0.095699236 0.09844227 0.10069287 0.018381953 -0.03628972 -0.049896806 0.059517846 -0.0031080842
-0.09407529 0.050886795 0.047774926 0.07962954 0.086018845 0.048740342 -0.0046902597 0.006388724
-0.029654846 0.123785615 -0.10649638 0.10609102 0.022038803 0.065360576 0.015653148 0.10276987
-0.006168261 0.11542158 -0.026728421 0.026716784 0.077192605 0.09239593 0.0030895174 0.07833317
0.077165455 -0.12025906 -0.06636539 0.12233622 -0.064064115 0.0762514 0.083042786 -0.024980962
-0.030420795 0.06518273 -0.03202106 -0.056377023 0.07882714 0.035090387 -0.039045498 -0.104449436
0.11621411 0.061728045 -0.056316584 -0.1109201 0.048957676 0.021037966 -0.08993198 0.06242174
-0.1021104 -0.07707617 0.099891245 0.027081117 -0.08558324 -0.050630495 -0.10255538 -0.063087285
00000000: f6fd c33d 1a9c c93d 1038 ce3d c095 963c
00000010: 88a4 14bd 9860 4cbd fcc8 733d 00b1 4bbb
00000020: 8caa c0bd ac6e 503d a4af 433d d014 a33d
00000030: a62a b03d f4a3 473d c0b0 99bb 8058 d13b
00000040: b8ee f2bc 5083 fd3d c61a dabd 4046 d93d
00000050: b88a b43c c4db 853d 083b 803c 0279 d23d
00000060: 201f cabb 2662 ec3d 90f5 dabc 28dd da3c
00000070: 2817 9e3d 143a bd3d 8079 4a3b 246d a03d
00000080: ec08 9e3d 624a f6bd 94ea 87bd 6a8b fa3d
00000090: 0c34 83bd b229 9c3d 5612 aa3d e0a4 ccbc
000000a0: 0835 f9bc 867e 853d 8428 03bd 98eb 66bd
000000b0: 2070 a13d f0ba 0f3d 2cee 1fbd 96e9 d5bd
000000c0: aa01 ee3d 8cd6 7c3d 38ac 66bd 142a e3bd
000000d0: d887 483d d057 ac3c 422e b8bd f0ad 7f3d
000000e0: 421f d1bd 1cda 9dbd c893 cc3d 38d9 dd3c
000000f0: 4446 afbd ec61 4fbd 8e08 d2bd e833 81bd

weight f4 [64]
1.0 1.0 1.0 1.0 1.0 1.0 1.0 1.0
1.0 1.0 1.0 1.0 1.0 1.0 1.0 1.0
1.0 1.0 1.0 1.0 1.0 1.0 1.0 1.0
1.0 1.0 1.0 1.0 1.0 1.0 1.0 1.0
1.0 1.0 1.0 1.0 1.0 1.0 1.0 1.0
1.0 1.0 1.0 1.0 1.0 1.0 1.0 1.0
1.0 1.0 1.0 1.0 1.0 1.0 1.0 1.0
1.0 1.0 1.0 1.0 1.0 1.0 1.0 1.0
00000000: 0000 803f 0000 803f 0000 803f 0000 803f
00000010: 0000 803f 0000 803f 0000 803f 0000 803f
00000020: 0000 803f 0000 803f 0000 803f 0000 803f
00000030: 0000 803f 0000 803f 0000 803f 0000 803f
00000040: 0000 803f 0000 803f 0000 803f 0000 803f
00000050: 0000 803f 0000 803f 0000 803f 0000 803f
00000060: 0000 803f 0000 803f 0000 803f 0000 803f
00000070: 0000 803f 0000 803f 0000 803f 0000 803f
00000080: 0000 803f 0000 803f 0000 803f 0000 803f
00000090: 0000 803f 0000 803f 0000 803f 0000 803f
000000a0: 0000 803f 0000 803f 0000 803f 0000 803f
000000b0: 0000 803f 0000 803f 0000 803f 0000 803f
000000c0: 0000 803f 0000 803f 0000 803f 0000 803f
000000d0: 0000 803f 0000 803f 0000 803f 0000 803f
000000e0: 0000 803f 0000 803f 0000 803f 0000 803f
000000f0: 0000 803f 0000 803f 0000 803f 0000 803f

bias f4 [64]
0.0 0.0 0.0 0.0 0.0 0.0 0.0 0.0
0.0 0.0 0.0 0.0 0.0 0.0 0.0 0.0
0.0 0.0 0.0 0.0 0.0 0.0 0.0 0.0
0.0 0.0 0.0 0.0 0.0 0.0 0.0 0.0
0.0 0.0 0.0 0.0 0.0 0.0 0.0 0.0
0.0 0.0 0.0 0.0 0.0 0.0 0.0 0.0
0.0 0.0 0.0 0.0 0.0 0.0 0.0 0.0
0.0 0.0 0.0 0.0 0.0 0.0 0.0 0.0
00000000: 0000 0000 0000 0000 0000 0000 0000 0000
00000010: 0000 0000 0000 0000 0000 0000 0000 0000
00000020: 0000 0000 0000 0000 0000 0000 0000 0000
00000030: 0000 0000 0000 0000 0000 0000 0000 0000
00000040: 0000 0000 0000 0000 0000 0000 0000 0000
00000050: 0000 0000 0000 0000 0000 0000 0000 0000
00000060: 0000 0000 0000 0000 0000 0000 0000 0000
00000070: 0000 0000 0000 0000 0000 0000 0000 0000
00000080: 0000 0000 0000 0000 0000 0000 0000 0000
00000090: 0000 0000 0000 0000 0000 0000 0000 0000
000000a0: 0000 0000 0000 0000 0000 0000 0000 0000
000000b0: 0000 0000 0000 0000 0000 0000 0000 0000
000000c0: 0000 0000 0000 0000 0000 0000 0000 0000
000000d0: 0000 0000 0000 0000 0000 0000 0000 0000
000000e0: 0000 0000 0000 0000 0000 0000 0000 0000
000000f0: 0000 0000 0000 0000 0000 0000 0000 0000

running_mean f4 [64]
-0.022881089 -0.005369559 0.022409452 -0.0086744595 -0.00028500753 -0.011867806 0.0010079338 0.013726341
0.006012979 0.01213252 0.015446638 0.0048457505 0.015451794 0.0093745515 0.00054247526 -0.006178976
0.002155979 0.0067584626 0.016279478 0.002430306 0.0017447995 -0.0028649317 0.0052325246 0.0022837599
0.015603134 -0.0061506624 -0.00430261 -0.0058135907 0.01531971 0.014829814 -0.011706458 0.0033437477
0.0074802595 -0.021519607 -0.014791424 0.0059756143 -0.0039776745 0.019705405 0.029780943 -0.0046272147
-0.0042938455 0.008927259 -0.02129773 -0.020718116 -0.0072698854 -0.016740985 0.0156216165 -0.014818432
0.007997594 0.029774183 -0.0145111745 -0.0046333442 0.0055691856 0.0018811834 -0.0033288647 0.004453138
-0.024726883 -0.020631986 0.011739525 -0.01801068 0.0077557373 0.0177065 -0.0008210693 0.010610877
00000000: 1f71 bbbc 20f3 afbb 0794 b73c 521f 0ebc
00000010: 106d 95b9 3071 42bc a51c 843a 72e4 603c
00000020: 8608 c53b 7ac7 463c e513 7d3c 1ac9 9e3b
00000030: 8529 7d3c b897 193c e634 0e3a 0279 cabb
00000040: 534b 0d3b 1876 dd3b 8a5c 853c c545 1f3b
00000050: c2b1 e43a 94c1 3bbb 9975 ab3b 22ab 153b
00000060: 4aa4 7f3c 7f8b c9bb e9fc 8cbb ef7f bebb
00000070: 85ff 7a3c c0f8 723c 72cc 3fbc c722 5b3b
00000080: f71c f53b e349 b0bc bb57 72bc 16cf c33b
00000090: 2757 82bb 3b6d a13c 2af7 f33c e49f 97bb
000000a0: 63b3 8cbb a343 123c 9478 aebc 0ab9 a9bc
000000b0: 3838 eebb 6424 89bc cff1 7f3c 02c9 72bc
000000c0: 5708 033c fde8 f33c 47c0 6dbc 4fd3 97bb
000000d0: b77d b63b 0a92 f63a 1529 5abb a1eb 913b
000000e0: 0890 cabc 6904 a9bc 2357 403c 228b 93bc
000000f0: d723 fe3b 390d 913c 073d 57ba 3ed9 2d3c

running_var f4 [64]
0.9096626 0.9090025 0.90853053 0.9126775 0.9074237 0.9121272 0.9112646 0.9099519
0.90948796 0.9137823 0.91256684 0.9073573 0.9075932 0.90722585 0.91027063 0.9101539
0.9072126 0.9101076 0.91033316 0.9137553 0.909184 0.9094819 0.9124182 0.91250545
0.91103005 0.9133782 0.9076994 0.9100971 0.90921986 0.9080681 0.90791076 0.91160023
0.9112359 0.9084109 0.90880895 0.9088961 0.91346204 0.9091841 0.91347986 0.9099414
0.9088731 0.9101722 0.91379154 0.9082377 0.9179314 0.91070294 0.9120571 0.9134095
0.91033506 0.9102554 0.9116343 0.91103417 0.9086263 0.90974224 0.91108394 0.9060353
0.9094416 0.9116774 0.90816456 0.9102134 0.9152529 0.9122343 0.9095984 0.9124346
00000000: a6df 683f 63b4 683f 7595 683f 3ca5 693f
00000010: eb4c 683f 2b81 693f a348 693f 9cf2 683f
00000020: 34d4 683f a3ed 693f fb9d 693f 9148 683f
00000030: 0758 683f f43f 683f 7f07 693f d9ff 683f
00000040: 163f 683f d0fc 683f 980b 693f deeb 693f
00000050: 48c0 683f ced3 683f 3d94 693f f599 693f
00000060: 4439 693f 27d3 693f fd5e 683f 20fc 683f
00000070: a2c2 683f 2777 683f d76c 683f a25e 693f
00000080: c246 693f 9e8d 683f b4a7 683f 6aad 683f
00000090: a6d8 693f 4ac0 683f d1d9 693f ebf1 683f
000000a0: e8ab 683f 0c01 693f 3eee 693f 4482 683f
000000b0: 8dfd 6a3f d423 693f 937c 693f 34d5 693f
000000c0: b80b 693f 7f06 693f de60 693f 8939 693f
000000d0: bc9b 683f dee4 683f cc3c 693f eef1 673f
000000e0: 2ad1 683f b163 693f 797d 683f bf03 693f
000000f0: 044e 6a3f 3088 693f 71db 683f 5095 693f

bias f4 [128]
-0.10165982 0.27390078 -0.30135453 0.26619503 -0.32094145 -0.06278002 0.107367724 0.2095342
0.19756046 -0.022596627 -0.30152708 0.31223825 -0.23572302 0.28488252 -0.02374065 -0.01623568
0.24079874 -0.20041709 0.22437021 0.19255057 -0.113548085 0.25999454 -0.113610834 0.22056523
0.2667794 -0.10279 0.26212576 0.0058191717 0.10366726 0.13948962 0.14795509 0.23916301
-0.09892917 -0.01755026 -0.27548 0.20204285 0.044793874 0.122254044 0.06897929 0.30951944
0.2785115 -0.12522535 -0.20326039 0.07628012 0.31673065 -0.1593183 -0.21289675 -0.21365818
-0.07475105 -0.27636558 -0.14493322 0.26792875 -0.20446984 -0.22449772 0.1827158 0.17050669
0.16000485 0.02104333 0.23257604 -0.14230506 -0.12885961 0.071406275 0.31330207 -0.1936578
0.01643011 0.22105184 0.099015504 -0.040211648 -0.30195293 0.20227697 0.11328974 -0.22908732
-0.10962817 0.05538842 -0.037331194 -0.07012883 0.120203644 -0.12528121 -0.066987514 -0.2352603
-0.093429565 0.03956926 -0.057068676 -0.280405 0.16629168 -0.09944558 0.13407981 0.273109
-0.0017745793 0.1640639 0.18978634 -0.16443877 -0.33148262 0.2743496 -0.21171975 0.07891023
-0.30523723 -0.31441864 0.21707317 -0.22615597 -0.04285565 -0.2350243 0.059311897 0.05411017
-0.21545827 -0.09975259 0.14612448 -0.3133263 0.17292944 0.18348226 -0.03156033 -0.23618977
-0.18852958 -0.24437305 0.17924628 0.32655618 0.29897627 -0.11060099 -0.09619789 0.31671062
0.12410402 -0.116090894 0.27647766 -0.038056493 0.32776514 -0.24753356 0.15565252 -0.15954034
00000000: 0633 d0bd b93c 8c3e 244b 9abe b74a 883e
00000010: 7052 a4be d092 80bd 9ce3 db3d 2290 563e
00000020: 4a4d 4a3e 901c b9bc c261 9abe b1dd 9f3e
00000030: 6061 71be 1fdc 913e c07b c2bc b000 85bc
00000040: f293 763e 233a 4dbe 4ec1 653e fa2b 453e
00000050: e68b e8bd 011e 853e ccac e8bd dadb 613e
00000060: 4f97 883e 9083 d2bd 5935 863e c0ae be3b
00000070: 804f d43d 5ed6 0e3e 8a81 173e 26e7 743e
00000080: 609b cabd 90c5 8fbc b70b 8dbe 52e4 4e3e
00000090: c879 373d 5460 fa3d 0445 8d3d 5579 9e3e
000000a0: 0f99 8e3e 133b 00be 7e23 50be c038 9c3d
000000b0: 852a a23e 5624 23be 9b01 5abe 36c9 5abe
000000c0: 1417 99bd ca7f 8dbe 6069 14be f52d 893e
000000d0: 8b60 51be bbe2 65be da19 3b3e 4e99 2e3e
000000e0: 50d8 233e 1063 ac3c 6a28 6e3e 6bb8 11be
000000f0: c6f3 03be 743d 923d 2169 a03e 3b4e 46be
00000100: 7098 863c 6a5b 623e a4c8 ca3d f8b4 24bd
00000110: 9399 9abe b221 4f3e 7404 e83d de95 6abe
00000120: bc84 e0bd f8de 623d 98e8 18bd b49f 8fbd
00000130: 542d f63d b849 00be c030 89bd 13e8 70be
00000140: 0058 bfbd 6013 223d d8c0 69bd 3f91 8fbe
00000150: 5e48 2a3e 20aa cbbd 384c 093e f1d4 8b3e
00000160: 0099 e8ba 5e00 283e 5a57 423e a362 28be
00000170: 17b8 a9be 8d77 8c3e 10cd 58be b09b a13d
00000180: 0e48 9cbe 7bfb a0be 6e48 5e3e 6e95 67be
00000190: 6889 2fbd 36aa 70be 08f1 723d a0a2 5d3d
000001a0: 18a1 5cbe 164b ccbd a8a1 153e 4e6c a0be
000001b0: 6a14 313e c6e2 3b3e 6845 01bd bbdb 71be
000001c0: e60d 41be ee3c 7abe 568c 373e 5f32 a73e
000001d0: 6b13 993e c682 e2bd 6603 c5bd e527 a23e
000001e0: 402a fe3d 10c1 edbd 7b8e 8d3e 20e1 1bbd
000001f0: d5d0 a73e 7079 7dbe 6063 1f3e 8b5e 23be

bias f4 [128]
-0.010356292 -0.04799898 0.014551327 -0.063134156 -0.030763365 -0.00014586002 0.048128925 0.028804965
-0.041489862 -0.084429555 0.051608406 0.08763977 -0.024604201 -0.037332773 0.054258697 0.05787968
0.05939377 0.014792994 -0.0105905235 0.014402293 0.019764625 0.08081346 -0.022533454 -0.07944591
0.033773325 0.07184241 -0.027919043 0.05253049 0.045544095 0.022995971 -0.037934385 0.04159505
-0.020970404 0.028456107 -0.035164338 0.06442457 -0.050318405 0.06933478 -0.0052521825 0.0635395
0.024040475 -0.009842724 -0.044470098 -0.0655182 0.037176333 -0.031176846 0.03489361 -0.012374923
0.08806715 0.06462412 -0.06363505 0.08641832 -0.023452975 -0.029775094 0.008562565 -0.0053294078
-0.085166514 0.07011192 -0.053629093 -0.061687402 0.028887242 0.0019446313 0.021676503 0.032629497
0.050856285 -0.0037039816 -0.046869867 0.08190546 -0.0012728274 0.042728312 -0.08221058 0.017105646
0.08564917 0.032456182 0.07869356 -0.08325134 0.005159773 -0.085433364 0.022168897 0.018666342
0.047233365 0.043386064 0.07968754 0.020805277 -0.058912717 0.06483931 0.071161725 -0.04899983
0.00084239244 -0.038320377 0.047313593 -0.038773518 -0.08402814 -0.0035973415 0.057158746 -0.032452345
0.013864577 -0.04390511 0.0472356 0.013447888 -0.03468184 -0.049962822 -0.08493531 0.08265301
0.007967494 -0.03764999 -0.03748509 -0.0317439 0.00533776 -0.02440779 -0.020187505 0.04814615
-0.085956484 0.070263065 0.05566924 0.070589654 0.029095247 -0.038684893 -0.02525302 -0.08097191
-0.068135366 -0.028702848 -0.06844192 0.009688631 0.01215025 0.036087573 0.071904816 -0.0712656
00000000: 70ad 29bc 949a 44bd b068 6e3c 7b4c 81bd
00000010: 7403 fcbc 00f2 18b9 d622 453d 64f8 eb3c
00000020: 46f1 29bd 67e9 acbd 5663 533d 7b7c b33d
00000030: c08e c9bc 40ea 18bd 5e3e 5e3d 3e13 6d3d
00000040: e246 733d 505e 723c e083 2dbc 98f7 6b3c
00000050: 6ce9 a13c 8781 a53d 1498 b8bc 8ab4 a2bd
00000060: e655 0a3d 1d22 933d 7ab6 e4bc 362a 573d
00000070: 728c 3a3d 0c62 bc3c 1661 1bbd 925f 2a3d
00000080: 20ca abbc c81c e93c 7b08 10bd 07f1 833d
00000090: ac1a 4ebd 65ff 8d3d 801a acbb ff20 823d
000000a0: 88f0 c43c 6043 21bc 4726 36bd 682e 86bd
000000b0: 3646 183d 9666 ffbc 9aec 0e3d 30c0 4abc
000000c0: 8d5c b43d a759 843d 1853 82bd 17fc b03d
000000d0: 7420 c0bc e6ea f3bc 004a 0c3c 50a2 aebb
000000e0: c86b aebd d796 8f3d 2eaa 5bbd eeab 7cbd
000000f0: f0a4 ec3c 00e3 fe3a ec92 b13c 82a6 053d
00000100: ae4e 503d 80be 72bb 9efa 3fbd 0dbe a73d
00000110: 00d5 a6ba e203 2f3d 055e a8bd 2421 8c3c
00000120: d568 af3d c6f0 043d 172a a13d ae7f aabd
00000130: 5013 a93b b0f7 aebd 8c9b b53c 28ea 983c
00000140: c677 413d 96b5 313d 3933 a33d d46f aa3c
00000150: 764e 71bd 79ca 843d 3dbd 913d 0cb4 48bd
00000160: 00d4 5c3a d4f5 1cbd e6cb 413d fbd0 1ebd
00000170: f216 acbd 60c1 6bbb 4a1f 6a3d c0ec 04bd
00000180: 4028 633c d8d5 33bd 1e7a 413d 8854 5c3c
00000190: 8c0e 0ebd d1a5 4cbd 90f2 adbd fb45 a93d
000001a0: 188a 023c e036 1abd f789 19bd e405 02bd
000001b0: 60e8 ae3b d8f2 c7bc 4460 a5bc e634 453d
000001c0: f409 b0bd 15e6 8f3d 6e05 643d 4f91 903d
000001d0: 2859 ee3c 0d74 1ebd 6cdf cebc 9ad4 a5bd
000001e0: 8e8a 8bbd 3c22 ebbc 472b 8cbd 10bd 1e3c
000001f0: d811 473c 90d0 133d d542 933d b3f3 91bd

weight f4 [128]
1.0 1.0 1.0 1.0 1.0 1.0 1.0 1.0
1.0 1.0 1.0 1.0 1.0 1.0 1.0 1.0
1.0 1.0 1.0 1.0 1.0 1.0 1.0 1.0
1.0 1.0 1.0 1.0 1.0 1.0 1.0 1.0
1.0 1.0 1.0 1.0 1.0 1.0 1.0 1.0
1.0 1.0 1.0 1.0 1.0 1.0 1.0 1.0
1.0 1.0 1.0 1.0 1.0 1.0 1.0 1.0
1.0 1.0 1.0 1.0 1.0 1.0 1.0 1.0
1.0 1.0 1.0 1.0 1.0 1.0 1.0 1.0
1.0 1.0 1.0 1.0 1.0 1.0 1.0 1.0
1.0 1.0 1.0 1.0 1.0 1.0 1.0 1.0
1.0 1.0 1.0 1.0 1.0 1.0 1.0 1.0
1.0 1.0 1.0 1.0 1.0 1.0 1.0 1.0
1.0 1.0 1.0 1.0 1.0 1.0 1.0 1.0
1.0 1.0 1.0 1.0 1.0 1.0 1.0 1.0
1.0 1.0 1.0 1.0 1.0 1.0 1.0 1.0
00000000: 0000 803f 0000 803f 0000 803f 0000 803f
00000010: 0000 803f 0000 803f 0000 803f 0000 803f
00000020: 0000 803f 0000 803f 0000 803f 0000 803f
00000030: 0000 803f 0000 803f 0000 803f 0000 803f
00000040: 0000 803f 0000 803f 0000 803f 0000 803f
00000050: 0000 803f 0000 803f 0000 803f 0000 803f
00000060: 0000 803f 0000 803f 0000 803f 0000 803f
00000070: 0000 803f 0000 803f 0000 803f 0000 803f
00000080: 0000 803f 0000 803f 0000 803f 0000 803f
00000090: 0000 803f 0000 803f 0000 803f 0000 803f
000000a0: 0000 803f 0000 803f 0000 803f 0000 803f
000000b0: 0000 803f 0000 803f 0000 803f 0000 803f
000000c0: 0000 803f 0000 803f 0000 803f 0000 803f
000000d0: 0000 803f 0000 803f 0000 803f 0000 803f
000000e0: 0000 803f 0000 803f 0000 803f 0000 803f
000000f0: 0000 803f 0000 803f 0000 803f 0000 803f
00000100: 0000 803f 0000 803f 0000 803f 0000 803f
00000110: 0000 803f 0000 803f 0000 803f 0000 803f
00000120: 0000 803f 0000 803f 0000 803f 0000 803f
00000130: 0000 803f 0000 803f 0000 803f 0000 803f
00000140: 0000 803f 0000 803f 0000 803f 0000 803f
00000150: 0000 803f 0000 803f 0000 803f 0000 803f
00000160: 0000 803f 0000 803f 0000 803f 0000 803f
00000170: 0000 803f 0000 803f 0000 803f 0000 803f
00000180: 0000 803f 0000 803f 0000 803f 0000 803f
00000190: 0000 803f 0000 803f 0000 803f 0000 803f
000001a0: 0000 803f 0000 803f 0000 803f 0000 803f
000001b0: 0000 803f 0000 803f 0000 803f 0000 803f
000001c0: 0000 803f 0000 803f 0000 803f 0000 803f
000001d0: 0000 803f 0000 803f 0000 803f 0000 803f
000001e0: 0000 803f 0000 803f 0000 803f 0000 803f
000001f0: 0000 803f 0000 803f 0000 803f 0000 803f

bias f4 [128]
0.0 0.0 0.0 0.0 0.0 0.0 0.0 0.0
0.0 0.0 0.0 0.0 0.0 0.0 0.0 0.0
0.0 0.0 0.0 0.0 0.0 0.0 0.0 0.0
0.0 0.0 0.0 0.0 0.0 0.0 0.0 0.0
0.0 0.0 0.0 0.0 0.0 0.0 0.0 0.0
0.0 0.0 0.0 0.0 0.0 0.0 0.0 0.0
0.0 0.0 0.0 0.0 0.0 0.0 0.0 0.0
0.0 0.0 0.0 0.0 0.0 0.0 0.0 0.0
0.0 0.0 0.0 0.0 0.0 0.0 0.0 0.0
0.0 0.0 0.0 0.0 0.0 0.0 0.0 0.0
0.0 0.0 0.0 0.0 0.0 0.0 0.0 0.0
0.0 0.0 0.0 0.0 0.0 0.0 0.0 0.0
0.0 0.0 0.0 0.0 0.0 0.0 0.0 0.0
0.0 0.0 0.0 0.0 0.0 0.0 0.0 0.0
0.0 0.0 0.0 0.0 0.0 0.0 0.0 0.0
0.0 0.0 0.0 0.0 0.0 0.0 0.0 0.0
00000000: 0000 0000 0000 0000 0000 0000 0000 0000
00000010: 0000 0000 0000 0000 0000 0000 0000 0000
00000020: 0000 0000 0000 0000 0000 0000 0000 0000
00000030: 0000 0000 0000 0000 0000 0000 0000 0000
00000040: 0000 0000 0000 0000 0000 0000 0000 0000
00000050: 0000 0000 0000 0000 0000 0000 0000 0000
00000060: 0000 0000 0000 0000 0000 0000 0000 0000
00000070: 0000 0000 0000 0000 0000 0000 0000 0000
00000080: 0000 0000 0000 0000 0000 0000 0000 0000
00000090: 0000 0000 0000 0000 0000 0000 0000 0000
000000a0: 0000 0000 0000 0000 0000 0000 0000 0000
000000b0: 0000 0000 0000 0000 0000 0000 0000 0000
000000c0: 0000 0000 0000 0000 0000 0000 0000 0000
000000d0: 0000 0000 0000 0000 0000 0000 0000 0000
000000e0: 0000 0000 0000 0000 0000 0000 0000 0000
000000f0: 0000 0000 0000 0000 0000 0000 0000 0000
00000100: 0000 0000 0000 0000 0000 0000 0000 0000
00000110: 0000 0000 0000 0000 0000 0000 0000 0000
00000120: 0000 0000 0000 0000 0000 0000 0000 0000
00000130: 0000 0000 0000 0000 0000 0000 0000 0000
00000140: 0000 0000 0000 0000 0000 0000 0000 0000
00000150: 0000 0000 0000 0000 0000 0000 0000 0000
00000160: 0000 0000 0000 0000 0000 0000 0000 0000
00000170: 0000 0000 0000 0000 0000 0000 0000 0000
00000180: 0000 0000 0000 0000 0000 0000 0000 0000
00000190: 0000 0000 0000 0000 0000 0000 0000 0000
000001a0: 0000 0000 0000 0000 0000 0000 0000 0000
000001b0: 0000 0000 0000 0000 0000 0000 0000 0000
000001c0: 0000 0000 0000 0000 0000 0000 0000 0000
000001d0: 0000 0000 0000 0000 0000 0000 0000 0000
000001e0: 0000 0000 0000 0000 0000 0000 0000 0000
000001f0: 0000 0000 0000 0000 0000 0000 0000 0000

running_mean f4 [128]
-0.0045051402 -0.008877955 0.02129082 -0.008885006 -0.007698995 -0.012955141 -0.0035600148 0.01205138
-0.017769104 0.0153404325 0.003979265 0.0077593527 0.0027047077 0.0015929003 0.015456724 0.0023470414
-0.017527439 0.02238895 0.0062729055 0.007493082 0.0065357834 0.009922213 0.0033435456 -0.015813692
-0.00970067 0.017212886 -0.0075880797 -0.0025670403 0.02208743 0.009863943 -0.012217483 0.0030923728
0.025264282 0.008730876 0.013198055 -0.02442451 -0.01981654 0.010383114 0.008222177 0.031981867
-0.0020715303 0.0036463786 -0.0011896122 -0.005820822 0.010584803 -0.00830096 0.022430385 -0.007967664
0.024004934 -0.0046832096 -0.01248206 0.004467579 0.0017704414 -0.0044536507 -0.0152919805 -0.0066874176
-0.009405221 0.010137531 -0.026739353 0.00043344774 -0.015111375 -0.0059243008 -0.0005656168 -0.0066990554
-0.0088079665 -0.004298228 -0.013494714 0.0050047524 0.01659955 0.0077179433 -0.003084203 -0.0070608156
0.044124674 0.016596366 0.01054737 -0.0032953632 -0.0035344027 -0.007484185 -0.013471112 -0.014946088
0.0048239105 0.028216405 0.02703552 -0.025541563 -0.010738042 0.00679519 0.0027288783 -0.008361984
0.020121267 -0.02057201 0.008745081 -0.00729288 0.014377887 0.004543387 0.008834227 -0.009900372
0.0018241782 -0.0034347884 -0.012525736 0.0077425027 0.012276213 0.008779219 0.0055949604 -0.008847041
0.0021026514 -0.021290211 -0.010722349 -0.0048328573 0.013722568 -0.029348398 0.012426543 -0.00085627515
-0.00021290018 0.0015186367 0.015183573 -0.0045059663 -0.013213711 -0.0025374063 -0.010697207 -0.0022190658
0.00058784324 0.005965065 -0.00046869816 -0.018717209 0.0019375617 0.015154824 0.018496394 0.0005322657
00000000: db9f 93bb d874 11bc 166a ae3c 6b92 11bc
00000010: da47 fcbb cd41 54bc 234f 69bb 2773 453c
00000020: 8390 91bc 7056 7b3c 7f64 823b 2b42 fe3b
00000030: 7741 313b ddc8 d03a 333e 7d3c d2d0 193b
00000040: b495 8fbc 0869 b73c f28c cd3b 8788 f53b
00000050: 202a d63b c790 223c 631f 5b3b b78b 81bc
00000060: 8fef 1ebc 0a02 8d3c 6da5 f8bb ca3b 28bb
00000070: b3f0 b43c 609c 213c d62b 48bc 68a9 4a3b
00000080: 0af7 ce3c f30b 0f3c a83c 583c e915 c8bc
00000090: 4c56 a2bc f01d 2a3c 4fb6 063c 6bff 023d
000000a0: 83c2 07bb 15f8 6e3b c3ec 9bba 98bc bebb
000000b0: e26b 2d3c c000 08bc edbf b73c ce8a 02bc
000000c0: ffa5 c43c 9c75 99bb 8e81 4cbc c564 923b
000000d0: 280e e83a eeef 91bb 378b 7abc 2022 dbbb
000000e0: 5b18 1abc e317 263c 7d0c dbbc 5f40 e339
000000f0: b395 77bc a320 c2bb e745 14ba c083 dbbb
00000100: 4a4f 10bc 26d8 8cbb ef18 5dbc e8fe a33b
00000110: c8fb 873c cde6 fc3b 5720 4abb 6a5e e7bb
00000120: 13bc 343d 1af5 873c e0ce 2c3c 05f7 57bb
00000130: 70a1 67bb e53d f5bb f0b5 5cbc 70e0 74bc
00000140: e511 9e3b 1726 e73c 9879 dd3c 8a3c d1bc
00000150: 9dee 2fbc 2faa de3b fbd6 323b b400 09bc
00000160: 5bd5 a43c a286 a8bc 8747 0f3c 1df9 eebb
00000170: 3b91 6b3c b1e0 943b 6fbd 103c 2b35 22bc
00000180: 4319 ef3a 301a 61bb bf38 4dbc d2b4 fd3b
00000190: 2b22 493c b7d6 0f3c ee55 b73b 2ef3 10bc
000001a0: a3cc 093b cf68 aebc cbac 2fbc f25c 9ebb
000001b0: 9fd4 603c 0d6c f0bc b398 4b3c a777 60ba
000001c0: f53d 5fb9 fe0c c73a 85c4 783c c9a6 93bb
000001d0: 527e 58bc 9d4a 26bb 5743 2fbc bf6d 11bb
000001e0: 7e19 1a3a 9876 c33b 9abb f5b9 d554 99bc
000001f0: c8f5 fd3a f04b 783c c085 973c bf87 0b3a

running_var f4 [128]
0.91075647 0.91131514 0.90880054 0.9099141 0.9103952 0.91456056 0.9082942 0.9110879
0.91092014 0.9097013 0.9081567 0.9090518 0.91210157 0.9076092 0.90846443 0.9114404
0.90938777 0.9127929 0.91026783 0.90987337 0.9091501 0.9094157 0.90947634 0.90980035
0.90933216 0.91025835 0.9089809 0.9099326 0.90895927 0.90806437 0.9076552 0.9082688
0.9117494 0.90959764 0.911463 0.90979606 0.9085533 0.9085006 0.9103612 0.91049504
0.91009134 0.9096922 0.9139336 0.9105854 0.9093676 0.9115376 0.91038406 0.9107392
0.90774286 0.9099965 0.911573 0.9105801 0.9099979 0.91034216 0.9094896 0.9094124
0.90761065 0.9081481 0.91133845 0.91000646 0.90837353 0.910289 0.9093425 0.91027904
0.91152006 0.909387 0.9114079 0.9078797 0.90910053 0.9093086 0.90822434 0.90827864
0.9096972 0.9106354 0.91301143 0.9088686 0.9115849 0.9109174 0.91009974 0.908493
0.9102404 0.90996724 0.91479313 0.9083479 0.9070139 0.9101261 0.9107175 0.9109954
0.91029185 0.91135466 0.9133256 0.9112772 0.9119483 0.90954655 0.911148 0.909864
0.90798926 0.909619 0.9085997 0.90907 0.90978664 0.9104049 0.9097933 0.90972406
0.9084196 0.9089746 0.90980923 0.9116159 0.91258246 0.91025853 0.9101694 0.9115448
0.9065553 0.9074501 0.91076446 0.9095754 0.91026 0.90857965 0.9130821 0.91098064
0.9090198 0.9092189 0.90789616 0.91008765 0.91195667 0.90908223 0.91144913 0.9101503
00000000: 5627 693f f34b 693f 27a7 683f 21f0 683f
00000010: a90f 693f a420 6a3f f885 683f 0e3d 693f
00000020: 1032 693f 2fe2 683f f57c 683f 9eb7 683f
00000030: 7d7f 693f 1459 683f 2091 683f 2854 693f
00000040: a3cd 683f ccac 693f 5007 693f 76ed 683f
00000050: 10be 683f 78cf 683f 71d3 683f ade8 683f
00000060: fec9 683f b106 693f f9b2 683f 58f1 683f
00000070: 8eb1 683f e876 683f 175c 683f 4e84 683f
00000080: 6968 693f 64db 683f a455 693f 65e8 683f
00000090: f396 683f 7f93 683f 6e0d 693f 3416 693f
000000a0: bffb 683f 97e1 683f 8df7 693f 201c 693f
000000b0: 51cc 683f 875a 693f ee0e 693f 3426 693f
000000c0: d661 683f 88f5 683f d95c 693f c71b 693f
000000d0: 9ff5 683f 2f0c 693f 4fd4 683f 40cf 683f
000000e0: 2c59 683f 657c 683f 7a4d 693f 2ff6 683f
000000f0: 2b8b 683f b308 693f acca 683f 0c08 693f
00000100: 6159 693f 96cd 683f 0752 693f ce6a 683f
00000110: d0ba 683f 73c8 683f 6481 683f f384 683f
00000120: eae1 683f 671f 693f 1ebb 693f 9dab 683f
00000130: a15d 693f e231 693f 4cfc 683f ff92 683f
00000140: 8405 693f 9df3 683f e22f 6a3f 7d89 683f
00000150: 1032 683f 06fe 683f c824 693f ff36 693f
00000160: e308 693f 8a4e 693f b5cf 693f 7649 693f
00000170: 7275 693f 0bd8 683f ff40 693f d9ec 683f
00000180: fc71 683f cadc 683f fd99 683f d0b8 683f
00000190: c7e7 683f 4c10 693f 37e8 683f ade3 683f
000001a0: 308e 683f 8fb2 683f 42e9 683f a95f 693f
000001b0: 019f 693f b406 693f dd00 693f 005b 693f
000001c0: 0214 683f a64e 683f dc27 693f efd9 683f
000001d0: cd06 693f ad98 683f c0bf 693f 0736 693f
000001e0: 86b5 683f 92c2 683f e26b 683f 81fb 683f
000001f0: fe75 693f 9db9 683f bb54 693f 9cff 683f
