trained_model/ParticleDetectorV1_no_train.pt (torch, 268105 bytes, 37 tensors)

weight f4 [8, 1, 3, 3]
0	0x3dad0248	0.08447701
1	0x3bd75fc0	0.0065726936
2	0x3ddd775c	0.108137816
3	0x3e08773c	0.13326734
4	0x3e60dea0	0.21959925
5	0x3e156f46	0.14593229
6	0xbda2003a	-0.079101995
7	0xbc24eec0	-0.010066688
8	0x3c2f0f60	0.010684818
9	0x3e81d6c2	0.2535916
10	0xbdf3d380	-0.11905575
11	0x3e36f43c	0.17866606
12	0xbe4a9aeb	-0.19785659
13	0x3b70e780	0.0036759079
14	0x3e82cf7a	0.25548917
15	0x3d382938	0.044961184
16	0xbd013828	-0.031547695
17	0x3c6062a0	0.013695389
18	0x3e40ff8a	0.1884748
19	0xbdf6cd4a	-0.120508745
20	0xbe2cb8fa	-0.16867438
21	0xbe6bfc6e	-0.23045513
22	0xbe80601a	-0.2507332
23	0xbe02370a	-0.12716308
24	0xbdccfe84	-0.100094825
25	0x3da17598	0.07883757
26	0x3dc3f83c	0.09568831
27	0x3e86b39e	0.26308912
28	0x3e216cea	0.15764204
29	0x3d3fdef8	0.0468435
30	0xbce19808	-0.027538314
31	0xbdc7a7ca	-0.097488
32	0x3de4f91c	0.11180326
33	0x3e66e57e	0.22548482
34	0xbe5fbee5	-0.21850164
35	0xbe4f4030	-0.2023933
36	0x3e10b320	0.14130831
37	0xbe09e137	-0.13464819
38	0xbcf75e98	-0.030196473
39	0x3d1a0690	0.037603915
40	0x3e21b064	0.15789944
41	0xbdd42a82	-0.1035967
42	0x3e0e528a	0.13898674
43	0x3ddd9220	0.10818887
44	0x3cff8520	0.031191409
45	0xbe53f423	-0.206986
46	0xbda171f4	-0.07883063
47	0xbe6be7e6	-0.23037681
48	0xbc6ded60	-0.014521927
49	0x3db44e54	0.088040024
50	0xbe8ae6b3	-0.27129135
51	0xbd6eb410	-0.05827719
52	0x3e3c1c12	0.18370083
53	0xbe84ea46	-0.25959986
54	0x3e893044	0.26794636
55	0xbe1eb883	-0.15500073
56	0x3e4e18c4	0.20126635
57	0x3d945fe8	0.07244855
58	0x3a534400	0.0008059144
59	0x3e845360	0.2584486
60	0x3d73b998	0.059503168
61	0x3da3c940	0.0799737
62	0x3e78e7d4	0.24307185
63	0xbe05b135	-0.1305588
64	0x3d68ae88	0.05680707
65	0x3e1abfbe	0.15112206
66	0x3dd398f0	0.10331905
67	0xbd8957f6	-0.0670623
68	0x3e50c54e	0.20387766
69	0x3e806d1e	0.2508325
70	0x3e0a77b0	0.1352222
71	0x3dfdca0c	0.12392053

weight f4 [8]
0	0x3f800000	1.0
1	0x3f800000	1.0
2	0x3f800000	1.0
3	0x3f800000	1.0
4	0x3f800000	1.0
5	0x3f800000	1.0
6	0x3f800000	1.0
7	0x3f800000	1.0

bias f4 [8]
0	0x00000000	0.0
1	0x00000000	0.0
2	0x00000000	0.0
3	0x00000000	0.0
4	0x00000000	0.0
5	0x00000000	0.0
6	0x00000000	0.0
7	0x00000000	0.0

running_mean f4 [8]
0	0x3cfd9262	0.03095359
1	0x3ca46feb	0.020072898
2	0xbd01e3bb	-0.03171132
3	0x3c514ce8	0.012774684
4	0x3c8da2ca	0.017289538
5	0xbd2d6a78	-0.042337865
6	0x3d52588d	0.05135398
7	0x3d2940dd	0.041321624

running_var f4 [8]
0	0x3f66a3ff	0.9009399
1	0x3f66de2a	0.90182745
2	0x3f66e6f2	0.90196145
3	0x3f66f6d7	0.902204
4	0x3f66a1f0	0.90090847
5	0x3f67054f	0.90242475
6	0x3f66ff51	0.9023333
7	0x3f66d1d8	0.90163946

weight f4 [16, 8, 3, 3]
0	0xbdfc8feb	-0.12332138
1	0xbd882c4e	-0.066490754
2	0x3d8c72b0	0.068578124
3	0x3dc9b496	0.09848897
4	0x3e22ab23	0.15885596
5	0x3e0ad511	0.13557841
6	0xbe267443	-0.16255288
7	0xbe1e12e0	-0.15436888
8	0x3db29252	0.08719315
9	0x3e1cafe7	0.15301476
10	0x3e01daf1	0.12681176
11	0x3e19e6cd	0.1502945
12	0xbbd84520	-0.006600037
13	0xbc4265c0	-0.011865079
14	0xbcaf69e8	-0.021412805
15	0xbcdcdd48	-0.026960984
16	0xbab0fc80	-0.0013502985
17	0xbc0d0bc0	-0.008608758
18	0xbda38993	-0.079852246
19	0x3cf17c80	0.029478312
20	0x3dbb579e	0.09147571
21	0x3da684a0	0.08130765
22	0x3d5c6da0	0.053815484
23	0xbc515b70	-0.012778148
24	0xbdb1d68b	-0.08683499
25	0xbc698e50	-0.014255121
26	0x3cb40fa0	0.021980107
27	0x3d8f5e22	0.07000376
28	0x3d8c730a	0.068578795
29	0x3df58112	0.11987509
30	0xbe1d81c0	-0.15381527
31	0xbdccee5b	-0.100064
32	0x3e11e72f	0.14248346
33	0x3d39f274	0.045397237
34	0x3d9abe1e	0.07555793
35	0x3e1b11d9	0.15143527
36	0x3d922680	0.071362495
37	0x3de310da	0.110871986
38	0x3d826672	0.06367196
39	0x3cbd8d58	0.023138687
40	0xbde0daab	-0.109792076
41	0x3c01c950	0.007921532
42	0xbda762be	-0.081731305
43	0xbda02f26	-0.07821493
44	0xbd479a8c	-0.04873137
45	0xbd4b3b4c	-0.049617097
46	0x3bd29da0	0.006427482
47	0xbe111e06	-0.1417161
48	0xbe2a85a7	-0.16652547
49	0xbc2dd970	-0.010610923
50	0xbdc17103	-0.094453834
51	0xbde9aee3	-0.1141031
52	0x3dd24e2a	0.10268815
53	0xbdde6838	-0.10859722
54	0x3dfe16f6	0.12406723
55	0x3d937838	0.07200664
56	0xbc5ed690	-0.01360096
57	0xbda0ce00	-0.078517914
58	0xbbce60e0	-0.0062981695
59	0xbdbd2443	-0.09235432
60	0xbd2f2ebc	-0.04276918
61	0xbd088fa4	-0.03334011
62	0x3c3a6d70	0.011378631
63	0xbe1bf4da	-0.15230122
64	0xbda850e0	-0.08218551
65	0xbc114390	-0.008866206
66	0xbdd39203	-0.10330584
67	0x3dd883f2	0.105720416
68	0x3e21a1d9	0.15784396
69	0xbd30cf46	-0.04316642
70	0x3dfb2c02	0.12264253
71	0xbd8207a3	-0.06349113
72	0xbe1649ca	-0.14676586
73	0x3de7e1ce	0.11322366
74	0xbe136dc0	-0.14397335
75	0x3d52454c	0.051335618
76	0xbda30823	-0.07960536
77	0x3e14f00f	0.145447
78	0x3d9c6668	0.0763672
79	0xbe2749ce	-0.16336748
80	0xbd1ed560	-0.03877771
81	0x3e1cd0e1	0.15314056
82	0xbdd248b0	-0.1026777
83	0x3ddee5ee	0.10883699
84	0xbdb7118b	-0.08938893
85	0xbbf86300	-0.007580161
86	0xbe20a646	-0.15688428
87	0x3e05da2f	0.13071512
88	0x3caeee00	0.021353722
89	0xbe132abe	-0.14371774
90	0xbde44578	-0.111460626
91	0x3ceaef20	0.028678477
92	0xbd210160	-0.039307952
93	0x3d931f62	0.0718372
94	0xbd30c71c	-0.043158635
95	0xbc284930	-0.0102713555
96	0x3deaf6fa	0.11472888
97	0xbc93eae0	-0.018056333
98	0xbded7f1e	-0.11596511
99	0xbe196f7c	-0.14983934
100	0xbcc74c58	-0.024328396
101	0x3d239a9c	0.03994237
102	0x3dd1310a	0.102144316
103	0x3d752270	0.059847295
104	0xbdb5c708	-0.08875853
105	0xbdbd7ea8	-0.092526734
106	0x3e0d8f7f	0.1382427
107	0xbdafccf8	-0.085840166
108	0x3d8b9060	0.06814647
109	0xbdcebaee	-0.10094248
110	0xbb88e560	-0.0041777343
111	0xbe27393e	-0.1633043
112	0x3b9c8100	0.00477612
113	0x3e28d515	0.16487534
114	0xbdde92ce	-0.108678445
115	0xbde3fec3	-0.11132576
116	0x3e05bffd	0.13061519
117	0xbde26da8	-0.110560715
118	0x3c112480	0.0088588
119	0x3d4610f4	0.04835601
120	0x3d827118	0.06369227
121	0xbcc482c8	-0.023988143
122	0x3e2785f1	0.16359688
123	0x3e00e819	0.12588538
124	0x3dc86b6e	0.097861156
125	0xbd76411c	-0.060120687
126	0x3d8b0ca2	0.06789519
127	0xbe18d0ee	-0.1492345
128	0xbd49fe5c	-0.04931484
129	0xbe0222a3	-0.12708525
130	0x3d5badd0	0.053632557
131	0x3d210c4c	0.039318368
132	0x3e0d32e3	0.13788943
133	0xbd6477cc	-0.05577831
134	0x3c6622d0	0.014046386
135	0xbe2a5fa6	-0.1663805
136	0xbd6215fc	-0.055196747
137	0x3b8d6c00	0.004315853
138	0xbe15758c	-0.14595622
139	0x3e17bd7d	0.14818378
140	0x3c1629f0	0.009165272
141	0x3df505fa	0.119640306
142	0xbdede210	-0.116153836
143	0x3db72002	0.08941652
144	0x3e04985f	0.1294875
145	0x3ded403a	0.11584516
146	0xbdad79ee	-0.08470522
147	0x3cb65c08	0.02226068
148	0xbdf18e9b	-0.11794778
149	0x3d55d6f0	0.052206933
150	0xbdf26f6b	-0.118376575
151	0xbc30dd30	-0.010794923
152	0x3d245500	0.040120125
153	0x3da422b8	0.080144346
154	0x3da67370	0.08127487
155	0x3c0413c0	0.008061349
156	0xbdac00ae	-0.08398567
157	0xbdfb0e78	-0.12258619
158	0xbd41cb5c	-0.04731308
159	0xbd0dd0bc	-0.034622893
160	0x3e08165f	0.13289784
161	0xbe23b347	-0.15986358
162	0x3e1536c9	0.1457168
163	0x3e0bb585	0.13643463
164	0xbcb07148	-0.021538392
165	0xbe26a99f	-0.16275643
166	0x3e0f35a9	0.13985313
167	0xbd470ae0	-0.048594356
168	0xbde60f93	-0.11233439
169	0x3e071b1d	0.13193937
170	0x3dca6de2	0.0988424
171	0x3dcb9222	0.09939982
172	0xbe12523b	-0.14289181
173	0x3d80afc2	0.06283523
174	0xbe28a077	-0.16467462
175	0x3dba9b32	0.091116324
176	0xbd89cd93	-0.06728663
177	0x3e212bcf	0.15739368
178	0xbe281156	-0.16412863
179	0x3da89d60	0.08233142
180	0xbd3b7e46	-0.04577472
181	0xbe26dbfe	-0.16294858
182	0xbe21256c	-0.15736932
183	0xbca49800	-0.02009201
184	0xbe027cdf	-0.12742947
185	0xbddcf79b	-0.107894145
186	0xbdea1000	-0.11428833
187	0xbc8d4fe8	-0.017250016
188	0xbdc73f78	-0.097289026
189	0x3c46b5f0	0.012128338
190	0xbdebee70	-0.11520088
191	0x3e170a87	0.1475011
192	0xbdd1b99e	-0.10240482
193	0xbdd2ce90	-0.10293305
194	0x3dc891a2	0.09793402
195	0x3dcbf912	0.09959616
196	0xbdd0b1b8	-0.10190147
197	0x3d30fba4	0.043208733
198	0x3dc03a2a	0.09386094
199	0x3c7b4dd0	0.015338376
200	0xbe26aa64	-0.16275936
201	0x3e09737d	0.13422962
202	0xbe250843	-0.16116433
203	0x3de55dfa	0.11199565
204	0x3d08c494	0.033390597
205	0xbd90cbe0	-0.07070136
206	0x3db0cd0e	0.08632861
207	0xbdb70593	-0.0893661
208	0xbd965620	-0.07340646
209	0x3dda9682	0.10673238
210	0xbe201b87	-0.15635501
211	0x3cd06960	0.025440872
212	0x3d932a28	0.07185775
213	0x3dae4d6e	0.08510862
214	0xbb8f7d20	-0.0043789297
215	0xbd7e2b4c	-0.06205301
216	0x3de659a2	0.11247565
217	0x3dde13be	0.10843609
218	0x3df8178a	0.12113865
219	0x3c3267f0	0.010889038
220	0x3d03085c	0.031990394
221	0x3d63a324	0.055575505
222	0x3e0d7545	0.13814266
223	0xbe074a33	-0.13211899
224	0x3bfe6280	0.007763207
225	0x3e20a63f	0.15688418
226	0xbe174f60	-0.14776373
227	0xbe29e626	-0.16591701
228	0x3de93e0e	0.11388789
229	0x3dc8547e	0.097817406
230	0x3db143ea	0.08655532
231	0x3e24fe31	0.16112591
232	0xbdc17ff6	-0.09448235
233	0x3d75967c	0.059957966
234	0x3ca6e798	0.020374104
235	0x3c119ec0	0.008887947
236	0xbdbde66b	-0.09272464
237	0xbdaa7996	-0.08323972
238	0xbd24db00	-0.040247917
239	0xbd8e880b	-0.06959542
240	0xbdf47df6	-0.11938088
241	0xbe2175a7	-0.15767537
242	0xbd83fdd8	-0.06444901
243	0xbe25ad9f	-0.16179512
244	0x3e00496b	0.12528007
245	0xbe0a2763	-0.13491587
246	0x3d017a94	0.03161104
247	0xbdcfdc9e	-0.10149501
248	0xbd76fcb6	-0.060299598
249	0x3c209350	0.009800747
250	0xbd399060	-0.045303702
251	0xbcaa00b8	-0.020752296
252	0x3d923610	0.07139218
253	0x3dc3a27a	0.09552474
254	0xbdbe6a4e	-0.0929762
255	0x3d7a3ce0	0.06109321

weight f4 [16]
0	0x3f800000	1.0
1	0x3f800000	1.0
2	0x3f800000	1.0
3	0x3f800000	1.0
4	0x3f800000	1.0
5	0x3f800000	1.0
6	0x3f800000	1.0
7	0x3f800000	1.0
8	0x3f800000	1.0
9	0x3f800000	1.0
10	0x3f800000	1.0
11	0x3f800000	1.0
12	0x3f800000	1.0
13	0x3f800000	1.0
14	0x3f800000	1.0
15	0x3f800000	1.0

bias f4 [16]
0	0x00000000	0.0
1	0x00000000	0.0
2	0x00000000	0.0
3	0x00000000	0.0
4	0x00000000	0.0
5	0x00000000	0.0
6	0x00000000	0.0
7	0x00000000	0.0
8	0x00000000	0.0
9	0x00000000	0.0
10	0x00000000	0.0
11	0x00000000	0.0
12	0x00000000	0.0
13	0x00000000	0.0
14	0x00000000	0.0
15	0x00000000	0.0

running_mean f4 [16]
0	0x3beae5ba	0.007168499
1	0xbc9dc359	-0.019258188
2	0xbcf4c393	-0.029878413
3	0xbc2b1e84	-0.010444287
4	0x3d944caf	0.07241189
5	0x3dcfacb7	0.101403646
6	0xbcf21057	-0.029548807
7	0x3d4b98d7	0.049706306
8	0xbcae9620	-0.02131182
9	0xbcf9dd42	-0.030501012
10	0x3d0c2124	0.034211293
11	0x3c4c0c62	0.012454124
12	0xbd2b4f5a	-0.041823722
13	0xbc23d18d	-0.009998691
14	0xbc774ad2	-0.015093522
15	0xbd1a5073	-0.03767438

running_var f4 [16]
0	0x3f6c6cc1	0.92353445
1	0x3f6bfb76	0.92180574
2	0x3f6bf43e	0.9216956
3	0x3f6ba76e	0.9205235
4	0x3f6c5893	0.92322654
5	0x3f6bca9f	0.9210605
6	0x3f6d4456	0.926824
7	0x3f6c6564	0.9234221
8	0x3f6d9d51	0.9281817
9	0x3f6c0299	0.92191464
10	0x3f6ce98f	0.9254388
11	0x3f69d26b	0.913367
12	0x3f6a774f	0.915883
13	0x3f6e1648	0.9300275
14	0x3f6bef70	0.9216223
15	0x3f6d38de	0.926649

weight f4 [32, 16, 3, 3]
0	0xbcdd1840	-0.026989102
1	0xbd390bc8	-0.04517725
2	0xba39ad80	-0.00070830435
3	0x3dbc6265	0.09198455
4	0xbded2286	-0.115788504
5	0x3d3c25de	0.04593455
6	0x3ca878fc	0.020565502
7	0xbddb7d43	-0.10717251
8	0xbd9694fe	-0.07352637
9	0x3dd394f9	0.10331149
10	0xbd1bea44	-0.03806521
11	0x3d7684ae	0.060185127
12	0x3de1be1d	0.11022589
13	0xbdcf8e7a	-0.10134597
14	0xbbb54d50	-0.005532898
15	0xbd7a5259	-0.06111369
16	0x3b90eea0	0.0044229776
17	0x3cabd93c	0.020977609
18	0xbc0cc3d0	-0.008591607
19	0x3c97bd64	0.018522926
20	0xbde9dd35	-0.11419145
21	0xbde698b5	-0.11259595
22	0x3c9f7694	0.019465722
23	0xbd1fae14	-0.038984373
24	0x3dd0f4a7	0.10202914
25	0xbd6b536c	-0.057452604
26	0x3d807f69	0.062743016
27	0x3daa5ca3	0.0831845
28	0xbdd30da4	-0.10305336
29	0xbdb6aee1	-0.08920074
30	0xbdc84f08	-0.09780699
31	0x3da52ecb	0.08065566
32	0xbd83f85a	-0.06443854
33	0x3cfeb85c	0.031093769
34	0x3dd8e245	0.105900325
35	0x3dc2ed71	0.095179446
36	0xbd8651fe	-0.065586075
37	0xbd61e520	-0.05515015
38	0x3d2e54aa	0.04256121
39	0xbc97f9c8	-0.018551722
40	0x3d3a32b2	0.045458503
41	0xbcfab6d8	-0.030604765
42	0xbdb7f96a	-0.08983119
43	0xbcc74c04	-0.02432824
44	0x3b854950	0.0040675774
45	0xbd9ad754	-0.07560602
46	0x3d0a300a	0.03373722
47	0x3c5337c8	0.012891717
48	0xbd732ee4	-0.05937089
49	0x3dd4e6eb	0.103956066
50	0xbdc625d6	-0.096751854
51	0x3c2da138	0.01059752
52	0x3d10c032	0.03533954
53	0xbd975e2e	-0.0739101
54	0x3bce4f40	0.0062960684
55	0xbdbc0641	-0.0918088
56	0xbcb15af8	-0.021649823
57	0xbd0da3b6	-0.034579955
58	0xbd8fd5b4	-0.070231825
59	0x3daab54d	0.08335362
60	0xbcf25850	-0.029583126
61	0xbdb1dbc1	-0.08684493
62	0x3cd958a4	0.026531525
63	0x3d931e37	0.071834974
64	0xbda2dcbe	-0.079522595
65	0x3ced4f8c	0.028968595
66	0xbcbea5b0	-0.023272365
67	0x3de67241	0.11252261
68	0x3d8e6413	0.069526814
69	0xbdcade8c	-0.09905729
70	0x3b933c30	0.004493259
71	0x3de99f33	0.11407318
72	0xbd24cc68	-0.040234
73	0x3da00aef	0.078145854
74	0x3dcb8be7	0.09938794
75	0xbdb520ba	-0.08844133
76	0x3d92d90b	0.07170304
77	0xbd43dada	-0.047816135
78	0x3dad2c4b	0.08455714
79	0xbdbf2983	-0.093340896
80	0x3d9bb419	0.0760271
81	0xbdaabb2d	-0.08336482
82	0x3d9749d7	0.07387131
83	0xbae948c0	-0.001779817
84	0xbdca994c	-0.0989252
85	0x3d450d4a	0.048108377
86	0x3d9c9ae1	0.07646728
87	0x3ca1779c	0.019710355
88	0xbd5f7fe2	-0.054565318
89	0xbdd32871	-0.10310448
90	0x3c6d4b68	0.01448331
91	0x3d4459c6	0.047937177
92	0xbd8f8ae9	-0.07008917
93	0xbdd09b41	-0.10185862
94	0x3c4f3528	0.012646951
95	0xbc9594c8	-0.018259421
96	0xbd09fae2	-0.033686526
97	0xbdcdd1fd	-0.10049818
98	0xbd25b8be	-0.040459387
99	0x3d9abeaf	0.07555901
100	0xbda00964	-0.07814291
101	0x3da544f7	0.080697946
102	0xbc01bc80	-0.007918477
103	0x3d8a7f5b	0.067625724
104	0x3dbd146f	0.09232413
105	0x3ceb44d4	0.028719343
106	0xbd66d8ff	-0.056359287
107	0xbdc092b0	-0.094029784
108	0x3ba68650	0.0050819293
109	0x3d58496e	0.052804403
110	0x3920cc00	0.00015334785
111	0x3d474aae	0.048655204
112	0x3ba512f0	0.005037658
113	0xbdeba93b	-0.115068875
114	0xbdd8805f	-0.1057136
115	0xbd304aae	-0.04303997
116	0xbc658878	-0.0140095875
117	0x3d920be5	0.07131175
118	0x3d49a766	0.04923191
119	0xbdd7c612	-0.10535826
120	0xbd897330	-0.067114234
121	0x3d742912	0.05960948
122	0x38bcdc00	9.005517e-05
123	0xbd039dfa	-0.03213308
124	0xbd2871f0	-0.041124284
125	0xbd74f68c	-0.059805438
126	0x3d9b771b	0.07591077
127	0x3d0dc23a	0.034609057
128	0xbdafabce	-0.08577691
129	0x3d359266	0.04432907
130	0xbdacc3e3	-0.084358
131	0x3d123c2a	0.03570191
132	0xbdc2a008	-0.0950318
133	0xbc37b570	-0.011212692
134	0x3d53f066	0.051742934
135	0xbdc72aec	-0.097249836
136	0xbd61b5a0	-0.05510485
137	0x3d8cdd8d	0.06878195
138	0xbd928c0b	-0.07155617
139	0xbdee0ad5	-0.1162316
140	0x3c9f27e4	0.019428201
141	0xbd55df22	-0.05221475
142	0x3b0378e0	0.002006106
143	0xbbe0f290	-0.006864853
144	0xbdc085a1	-0.09400488
145	0x3dcab65b	0.09898063
146	0xbdeec945	-0.11659483
147	0xbcdae410	-0.026720077
148	0x3d834347	0.064093165
149	0xbdc20c61	-0.09475017
150	0xbd9c53fc	-0.07633206
151	0xbd1fe600	-0.039037704
152	0xbdd687df	-0.10475134
153	0x3dbcedcb	0.09225043
154	0xbd088f76	-0.03333994
155	0x3d8eea81	0.06978322
156	0x3cf02cfc	0.029318325
157	0x3be405b0	0.006958686
158	0x3ca142e4	0.019685216
159	0xbd9dfc56	-0.07714145
160	0x3d36723e	0.044542544
161	0xbca0c620	-0.019625723
162	0x3dd10863	0.10206678
163	0xbc6f6458	-0.014611326
164	0x3dae98b1	0.08525217
165	0x3d394f6e	0.045241766
166	0xbc955cbc	-0.018232696
167	0xbdcbdc0e	-0.099540815
168	0xbdde7cd9	-0.108636566
169	0x3d8ea3d3	0.06964841
170	0xbdc702c6	-0.09717326
171	0xbc089340	-0.008335888
172	0x3d6eb836	0.058281146
173	0x3dde3299	0.108494945
174	0xbd481292	-0.048845835
175	0xbc49d5c8	-0.012319036
176	0x3dc4749d	0.09592555
177	0xbdadc5c6	-0.08484988
178	0xbd92dd66	-0.07171135
179	0xbc671660	-0.014104456
180	0xbd3b730a	-0.045764007
181	0xbdb2c8ce	-0.08729707
182	0xbc8324b8	-0.01600872
183	0xbc07d7f8	-0.008291237
184	0xbdb3e424	-0.08783749
185	0xbd562e5c	-0.052290305
186	0x3df115eb	0.11771759
187	0x3db43f65	0.08801154
188	0xbde1dc41	-0.11028338
189	0x3de3c42b	0.111214004
190	0x3d579d3e	0.052640192
191	0x3dca4e3d	0.09878204
192	0xbde76110	-0.1129781
193	0x3c0370d8	0.0080225095
194	0xbca8cc20	-0.020605147
195	0xbd29543a	-0.04134009
196	0xbc586418	-0.013207458
197	0xbd71b6ee	-0.059012346
198	0xbcf7a064	-0.030227847
199	0x3de04583	0.10950758
200	0x3dc28ee1	0.09499908
201	0xbdad58ae	-0.0846418
202	0x3d0fd3b6	0.035114013
203	0x3ccc43c4	0.024934657
204	0xbd830969	-0.06398279
205	0x3d46fabe	0.04857897
206	0xbc3a4e78	-0.0113712475
207	0x3da37889	0.07981975
208	0xbdceb613	-0.10093322
209	0x3dcb21b7	0.0991854
210	0xbd53a72a	-0.051673092
211	0x3d060f7e	0.03272962
212	0xbd90edaa	-0.07076581
213	0x3d453a3e	0.048151247
214	0x3dec4b45	0.11537794
215	0xbdcead4d	-0.10091648
216	0x3db1375d	0.08653138
217	0xbd202116	-0.039094053
218	0xbd3911b0	-0.045182884
219	0xbd909678	-0.0705995
220	0x3d823003	0.06356814
221	0x3dc0a0db	0.09405681
222	0xbd27d4f2	-0.040974565
223	0xbaec2f40	-0.0018019453
224	0xbd7476ee	-0.059683733
225	0x3d339fca	0.04385356
226	0x3cc4147c	0.023935549
227	0x3de2a1a3	0.11065986
228	0x3d731802	0.059349068
229	0x3d7b721a	0.061388113
230	0xbdb6f770	-0.08933914
231	0xbcd0c738	-0.02548562
232	0xbda1e930	-0.07905805
233	0xbdd9026d	-0.10596166
234	0x3db48251	0.088139184
235	0xbc882c0c	-0.016622566
236	0x3d566926	0.05234637
237	0x3db94ae5	0.09047488
238	0xbd2e6f88	-0.042586833
239	0xbc48fd80	-0.01226747
240	0x3dc71671	0.09721077
241	0xbb0afca0	-0.0021207705
242	0x3b840a30	0.0040295348
243	0xbd0f62f6	-0.035006486
244	0x3cb1d1a4	0.02170641
245	0x3c425f68	0.011863567
246	0x3dd2b2db	0.1028802
247	0x3dbec9e7	0.093158536
248	0xbde743ff	-0.11292266
249	0xbd2a98ac	-0.041649505
250	0xbd94637e	-0.07245539
251	0xbdd244cc	-0.10267028
252	0xbc523d50	-0.012832001
253	0x3d6837be	0.056693785
254	0x3c090e88	0.008365281
255	0x3da15d4f	0.07879125

weight f4 [32]
0	0x3f800000	1.0
1	0x3f800000	1.0
2	0x3f800000	1.0
3	0x3f800000	1.0
4	0x3f800000	1.0
5	0x3f800000	1.0
6	0x3f800000	1.0
7	0x3f800000	1.0
8	0x3f800000	1.0
9	0x3f800000	1.0
10	0x3f800000	1.0
11	0x3f800000	1.0
12	0x3f800000	1.0
13	0x3f800000	1.0
14	0x3f800000	1.0
15	0x3f800000	1.0
16	0x3f800000	1.0
17	0x3f800000	1.0
18	0x3f800000	1.0
19	0x3f800000	1.0
20	0x3f800000	1.0
21	0x3f800000	1.0
22	0x3f800000	1.0
23	0x3f800000	1.0
24	0x3f800000	1.0
25	0x3f800000	1.0
26	0x3f800000	1.0
27	0x3f800000	1.0
28	0x3f800000	1.0
29	0x3f800000	1.0
30	0x3f800000	1.0
31	0x3f800000	1.0

bias f4 [32]
0	0x00000000	0.0
1	0x00000000	0.0
2	0x00000000	0.0
3	0x00000000	0.0
4	0x00000000	0.0
5	0x00000000	0.0
6	0x00000000	0.0
7	0x00000000	0.0
8	0x00000000	0.0
9	0x00000000	0.0
10	0x00000000	0.0
11	0x00000000	0.0
12	0x00000000	0.0
13	0x00000000	0.0
14	0x00000000	0.0
15	0x00000000	0.0
16	0x00000000	0.0
17	0x00000000	0.0
18	0x00000000	0.0
19	0x00000000	0.0
20	0x00000000	0.0
21	0x00000000	0.0
22	0x00000000	0.0
23	0x00000000	0.0
24	0x00000000	0.0
25	0x00000000	0.0
26	0x00000000	0.0
27	0x00000000	0.0
28	0x00000000	0.0
29	0x00000000	0.0
30	0x00000000	0.0
31	0x00000000	0.0

running_mean f4 [32]
0	0xbd541fcb	-0.051788133
1	0x3cbb0f0e	0.022834327
2	0xbcf8d55f	-0.03037518
3	0x3d2e82a8	0.042605072
4	0x3c04e8ea	0.008112172
5	0xbc4b5579	-0.012410515
6	0x3d521622	0.05129064
7	0x3cb3045c	0.021852665
8	0xbcc90cb4	-0.02454219
9	0x3c33d67f	0.010976433
10	0x3bc5787d	0.006026326
11	0x3cfa98a3	0.030590361
12	0xbc8be93d	-0.01707899
13	0x3c817ad7	0.015805645
14	0x3b4221d3	0.0029622212
15	0x3d87fb97	0.06639784
16	0xbd654493	-0.0559736
17	0xbcafecdb	-0.021475246
18	0xba8adb24	-0.0010593873
19	0xbcdc799f	-0.026913462
20	0xbd0e6f3b	-0.034774046
21	0xbc139203	-0.00900698
22	0xbc7436f0	-0.014905676
23	0xbd6fbaeb	-0.05852787
24	0xbcf2c847	-0.029636515
25	0x3c5ae51f	0.013360291
26	0x3b51117f	0.0031901298
27	0x3cdd1668	0.026988223
28	0x3d0c0b16	0.03419026
29	0x3d351ee4	0.044218913
30	0xbd13d26b	-0.036089342
31	0x3d8dfd7e	0.069331154

running_var f4 [32]
0	0x3f6bb311	0.9207011
1	0x3f6c7884	0.9237139
2	0x3f6c83da	0.9238869
3	0x3f6c5553	0.92317694
4	0x3f6cef45	0.92552596
5	0x3f6ba9f6	0.92056215
6	0x3f6c0bf3	0.92205733
7	0x3f6ba624	0.92050385
8	0x3f6b8797	0.9200377
9	0x3f6ce917	0.92543167
10	0x3f6c4c52	0.92303956
11	0x3f6b5388	0.91924334
12	0x3f6af898	0.91785574
13	0x3f6b646d	0.9195011
14	0x3f6c9568	0.92415476
15	0x3f6bf878	0.9217601
16	0x3f6d44f5	0.92683345
17	0x3f6b91be	0.9201926
18	0x3f6bc1e8	0.9209275
19	0x3f6be22b	0.9214198
20	0x3f6c1d9d	0.92232686
21	0x3f6cfee6	0.92576444
22	0x3f6c0414	0.9219372
23	0x3f6c6ffe	0.92358387
24	0x3f6bb83e	0.92078006
25	0x3f6ce093	0.92530173
26	0x3f6c943a	0.92413676
27	0x3f6becc4	0.9215815
28	0x3f6bc805	0.9210208
29	0x3f6c4a44	0.9230082
30	0x3f6baff8	0.9206538
31	0x3f6c9af7	0.9242396

weight f4 [64, 32, 3, 3]
0	0x3d4c88da	0.0499352
1	0xbd311608	-0.0432339
2	0xbd095253	-0.033525776
3	0xbc881f40	-0.016616464
4	0xba79c400	-0.00095278025
5	0x3d99c94d	0.07509098
6	0xbda8989b	-0.08232232
7	0x3d4ef93a	0.05053065
8	0xbd2abf03	-0.04168607
9	0xbd16e3f0	-0.036838472
10	0x3d9870cd	0.0744339
11	0x3c8a0590	0.016848356
12	0xbc779ea0	-0.015113503
13	0xbd808f93	-0.062773846
14	0xbc36f838	-0.011167578
15	0x3d51634a	0.05112008
16	0x3d96b7d9	0.07359285
17	0x3cea824c	0.028626584
18	0xbda0d397	-0.078528576
19	0xbce1aa90	-0.02754715
20	0xbd4f90f6	-0.050675355
21	0xbd73de1e	-0.059538
22	0x3c92bb30	0.017911524
23	0x3ca91fd0	0.020645052
24	0xbd6e8640	-0.0582335
25	0x3d8fd3cb	0.07022818
26	0xbd436578	-0.04770419
27	0xbda7fb1e	-0.08202194
28	0xbc3f4018	-0.011672996
29	0x3d666f3e	0.056258433
30	0x3c610228	0.013733424
31	0xbc379e28	-0.011207141
32	0x3d9048b9	0.07045121
33	0xbc91cd94	-0.017798223
34	0xbd294006	-0.041320823
35	0x3d3b55da	0.04573617
36	0x3d49bc42	0.049251802
37	0x3d3d2a92	0.046183176
38	0xbd5c4e1e	-0.053785436
39	0xbbbfbcf0	-0.0058513805
40	0x3b3660a0	0.002782859
41	0xbbc66440	-0.006054431
42	0xbd7b5e7e	-0.06136941
43	0xbd3b1706	-0.045676254
44	0xbd32708e	-0.04356437
45	0x3d6eba82	0.058283336
46	0x3d53cb52	0.051707573
47	0xbca12bc4	-0.01967419
48	0xbd687376	-0.056750737
49	0x3c193218	0.009350322
50	0x3d9d8753	0.07691827
51	0x3d8a6f91	0.06759561
52	0x3c92b1ac	0.017906986
53	0x3cf4718c	0.0298393
54	0xbd8984d3	-0.06714787
55	0xbda76430	-0.08173406
56	0x3c6db6a8	0.014508881
57	0xbda340f4	-0.07971373
58	0xbd05138e	-0.032489352
59	0x3d62951a	0.055317976
60	0x3d7f993a	0.062401988
61	0x3d027b00	0.031855583
62	0xbd5d9d50	-0.054105103
63	0xbd849942	-0.06474544
64	0x3da2da3d	0.07951782
65	0x3d16dade	0.03682982
66	0xbd91171a	-0.070844844
67	0xbd104d4b	-0.035229962
68	0xbd25f18b	-0.040513556
69	0x3d22d18e	0.03975063
70	0xbd3ab9ee	-0.045587473
71	0x3af69d00	0.00188151
72	0xbd423568	-0.047414213
73	0xbc469cd8	-0.012122355
74	0xbc09daa0	-0.008413941
75	0x3bcba140	0.006214291
76	0xbd4971d6	-0.049180828
77	0xbda69c70	-0.08135307
78	0x3da04c21	0.078270204
79	0x3b855740	0.004069239
80	0xbda94b27	-0.08266287
81	0x3d6755da	0.05647836
82	0xbd66bcbe	-0.056332342
83	0x3cdbaca4	0.02681572
84	0xbda95712	-0.082685605
85	0x3ca4ddcc	0.020125292
86	0x3cd509d4	0.026005663
87	0x3d9b5eab	0.07586416
88	0xbcfa51e0	-0.03055662
89	0xbbfae400	-0.0076565742
90	0x3cfcbd94	0.030852117
91	0xbd70b156	-0.05876287
92	0xbd1e92de	-0.038714282
93	0xbd98cef6	-0.0746135
94	0x3d3d6032	0.046234317
95	0xbd0f17e0	-0.03493488
96	0xbd82a0db	-0.06378337
97	0x3d20b93e	0.03923916
98	0xbcec44d6	-0.028841417
99	0xbcf22eb0	-0.029563278
100	0xbd179603	-0.037008297
101	0xbd3cb98e	-0.046075396
102	0x3d92d631	0.0716976
103	0xbc14c108	-0.009079225
104	0xbd2da7a8	-0.042396218
105	0x3d6b94e6	0.057515047
106	0x3d9d96eb	0.07694801
107	0xbd32f42e	-0.0436899
108	0xbd40ea4b	-0.04709844
109	0xbcbb836c	-0.022889815
110	0x3d79a87e	0.060951702
111	0xbd94e30a	-0.07269867
112	0xbd843947	-0.06456237
113	0x3d37dc9a	0.044888116
114	0x3d30d262	0.043169387
115	0x3d8644f3	0.0655612
116	0x3d3d7f22	0.04626382
117	0xbd96fa67	-0.07371979
118	0x3ccc8ea0	0.024970353
119	0x3d5341a2	0.051576264
120	0xbc36f5b8	-0.011166982
121	0x3c88af24	0.016685076
122	0xbd698ed3	-0.057020973
123	0x3d4aa162	0.049470313
124	0x3bb45bb0	0.005504094
125	0xbd86b8da	-0.065782264
126	0xbd136900	-0.035988808
127	0xbd2ff788	-0.042960674
128	0x3cbc20f4	0.022964932
129	0xbc03eea8	-0.008052506
130	0x3d895b93	0.067069195
131	0x3d5ee696	0.054419123
132	0x3d3aaabe	0.04557299
133	0x3d775fda	0.060394146
134	0xbba535d0	-0.0050418153
135	0x3c8141b0	0.015778393
136	0xbd888820	-0.06666589
137	0xbcb3fe9c	-0.021971993
138	0x3bfd6f10	0.007734187
139	0xbc33b0e8	-0.010967471
140	0xbd5166f8	-0.05112359
141	0xbd5d511e	-0.054032438
142	0xbd70f3f8	-0.058826417
143	0xbd954194	-0.07287899
144	0x3da6137b	0.08109184
145	0x3cf22120	0.02955681
146	0xbc8eac90	-0.017416269
147	0xbd9dc21c	-0.07703039
148	0x3c9c8874	0.019108035
149	0xbd836e9e	-0.06417583
150	0xbd475b30	-0.048670948
151	0x3d4f508a	0.050613917
152	0xbd025600	-0.031820297
153	0xbc513c58	-0.012770735
154	0x3d6aa492	0.057285853
155	0xbc097038	-0.008388571
156	0x3d81a655	0.063305534
157	0xbd78b56b	-0.06071989
158	0xbd785353	-0.06062634
159	0x3d83b559	0.06431074
160	0x3d80dae1	0.06291748
161	0x3cbe7dec	0.023253404
162	0xbd77ad36	-0.06046792
163	0xbd17e623	-0.03708471
164	0xbd278ef6	-0.040907823
165	0xbc356968	-0.011072494
166	0x3a39cd80	0.0007087812
167	0xbd82e39c	-0.06391069
168	0x3d78d8ca	0.06075362
169	0xbd29d5cb	-0.041463654
170	0x3d73983a	0.059471346
171	0xbda8d27b	-0.08243271
172	0xbd1b36ee	-0.037894182
173	0xbd4a71f0	-0.049425066
174	0xbd98bb4c	-0.07457599
175	0x3c8a715c	0.016899757
176	0xbd37801b	-0.044799905
177	0xbc2ec7c0	-0.010667741
178	0x3cb4c324	0.022065707
179	0xbd944233	-0.07239189
180	0xbd9ca537	-0.076487
181	0x3c7b7da8	0.015349783
182	0xbc93fb90	-0.01806429
183	0x3d30aaca	0.043131627
184	0x3d91c841	0.071182735
185	0x3d74163e	0.059591524
186	0xbcbf8bd0	-0.023382097
187	0xbcac8ae6	-0.021062326
188	0x3d914083	0.07092383
189	0x3d9a4f89	0.075347014
190	0x3d51587a	0.05110977
191	0xbd17e20e	-0.037080817
192	0xbdaa6624	-0.08320263
193	0xbd8ede16	-0.06975953
194	0xbda515ab	-0.080607735
195	0x3d680aa6	0.05665078
196	0xbd3f9b26	-0.04677882
197	0x3d113faa	0.035461105
198	0xbc094748	-0.008378811
199	0xbd3cfafb	-0.04613779
200	0xbcfb1006	-0.030647289
201	0x3d9d296d	0.07673917
202	0x3d9d7069	0.07687456
203	0x3d0807e2	0.033210643
204	0x3d78bbaa	0.060725845
205	0x3d640bae	0.0556752
206	0xbd03aa06	-0.03214457
207	0xbcc96a1c	-0.02458673
208	0xbd500816	-0.05078896
209	0x3d9f2649	0.07770974
210	0xbd8b8e86	-0.068142936
211	0xbbb48270	-0.0055087134
212	0x3da9c785	0.082900085
213	0xbd7f2e1b	-0.06229983
214	0x3d29e8e2	0.04148186
215	0x3d3feed6	0.04685863
216	0x3c652d80	0.013987899
217	0xbce34820	-0.027744353
218	0xbd36a2a8	-0.044588715
219	0xbd89d543	-0.067301296
220	0x3d8b777f	0.068099014
221	0x3d289e0a	0.041166343
222	0xbd2e4c06	-0.04255297
223	0x3da5aad3	0.08089223
224	0xbc7f4440	-0.015580237
225	0xbd945bc8	-0.072440684
226	0x3d286012	0.041107245
227	0x3d4d903a	0.050186373
228	0xbd1f0c93	-0.03883035
229	0x3d4633aa	0.048389114
230	0x3ce80bec	0.028325997
231	0xbc437738	-0.011930279
232	0xbd117b90	-0.03551823
233	0x3bb64bc0	0.0055632293
234	0xbd9a681b	-0.07539388
235	0xbd8abb04	-0.06773952
236	0x3d92e2ad	0.07172141
237	0xbcabcf9c	-0.02097302
238	0xbce78ddc	-0.028265886
239	0xbc1d5838	-0.0096035525
240	0xbd403908	-0.04692939
241	0xbda09478	-0.07840818
242	0x3d7d58b6	0.06185218
243	0x3b0b2820	0.0021233633
244	0xbc41d018	-0.011829399
245	0xbcb0f3a0	-0.021600544
246	0xbcdaa216	-0.026688617
247	0xbd8e7d3f	-0.069574825
248	0xbd7a1b6e	-0.061061315
249	0xbd8f8502	-0.07007791
250	0xbd4a9610	-0.049459517
251	0xbd1ed9be	-0.038781874
252	0x3d84c20d	0.06482325
253	0x3d8a8ec5	0.067655124
254	0xbd38268b	-0.044958632
255	0xbc655318	-0.013996862

weight f4 [64]
0	0x3f800000	1.0
1	0x3f800000	1.0
2	0x3f800000	1.0
3	0x3f800000	1.0
4	0x3f800000	1.0
5	0x3f800000	1.0
6	0x3f800000	1.0
7	0x3f800000	1.0
8	0x3f800000	1.0
9	0x3f800000	1.0
10	0x3f800000	1.0
11	0x3f800000	1.0
12	0x3f800000	1.0
13	0x3f800000	1.0
14	0x3f800000	1.0
15	0x3f800000	1.0
16	0x3f800000	1.0
17	0x3f800000	1.0
18	0x3f800000	1.0
19	0x3f800000	1.0
20	0x3f800000	1.0
21	0x3f800000	1.0
22	0x3f800000	1.0
23	0x3f800000	1.0
24	0x3f800000	1.0
25	0x3f800000	1.0
26	0x3f800000	1.0
27	0x3f800000	1.0
28	0x3f800000	1.0
29	0x3f800000	1.0
30	0x3f800000	1.0
31	0x3f800000	1.0
32	0x3f800000	1.0
33	0x3f800000	1.0
34	0x3f800000	1.0
35	0x3f800000	1.0
36	0x3f800000	1.0
37	0x3f800000	1.0
38	0x3f800000	1.0
39	0x3f800000	1.0
40	0x3f800000	1.0
41	0x3f800000	1.0
42	0x3f800000	1.0
43	0x3f800000	1.0
44	0x3f800000	1.0
45	0x3f800000	1.0
46	0x3f800000	1.0
47	0x3f800000	1.0
48	0x3f800000	1.0
49	0x3f800000	1.0
50	0x3f800000	1.0
51	0x3f800000	1.0
52	0x3f800000	1.0
53	0x3f800000	1.0
54	0x3f800000	1.0
55	0x3f800000	1.0
56	0x3f800000	1.0
57	0x3f800000	1.0
58	0x3f800000	1.0
59	0x3f800000	1.0
60	0x3f800000	1.0
61	0x3f800000	1.0
62	0x3f800000	1.0
63	0x3f800000	1.0

bias f4 [64]
0	0x00000000	0.0
1	0x00000000	0.0
2	0x00000000	0.0
3	0x00000000	0.0
4	0x00000000	0.0
5	0x00000000	0.0
6	0x00000000	0.0
7	0x00000000	0.0
8	0x00000000	0.0
9	0x00000000	0.0
10	0x00000000	0.0
11	0x00000000	0.0
12	0x00000000	0.0
13	0x00000000	0.0
14	0x00000000	0.0
15	0x00000000	0.0
16	0x00000000	0.0
17	0x00000000	0.0
18	0x00000000	0.0
19	0x00000000	0.0
20	0x00000000	0.0
21	0x00000000	0.0
22	0x00000000	0.0
23	0x00000000	0.0
24	0x00000000	0.0
25	0x00000000	0.0
26	0x00000000	0.0
27	0x00000000	0.0
28	0x00000000	0.0
29	0x00000000	0.0
30	0x00000000	0.0
31	0x00000000	0.0
32	0x00000000	0.0
33	0x00000000	0.0
34	0x00000000	0.0
35	0x00000000	0.0
36	0x00000000	0.0
37	0x00000000	0.0
38	0x00000000	0.0
39	0x00000000	0.0
40	0x00000000	0.0
41	0x00000000	0.0
42	0x00000000	0.0
43	0x00000000	0.0
44	0x00000000	0.0
45	0x00000000	0.0
46	0x00000000	0.0
47	0x00000000	0.0
48	0x00000000	0.0
49	0x00000000	0.0
50	0x00000000	0.0
51	0x00000000	0.0
52	0x00000000	0.0
53	0x00000000	0.0
54	0x00000000	0.0
55	0x00000000	0.0
56	0x00000000	0.0
57	0x00000000	0.0
58	0x00000000	0.0
59	0x00000000	0.0
60	0x00000000	0.0
61	0x00000000	0.0
62	0x00000000	0.0
63	0x00000000	0.0

running_mean f4 [64]
0	0xbd1dd192	-0.03852994
1	0x3d05c873	0.032661866
2	0x3c2ee882	0.010675551
3	0xbba95493	-0.0051675527
4	0x3cbb1a42	0.02283967
5	0x3c2ae54b	0.010430644
6	0xbba75cc1	-0.0051074927
7	0xbc20f966	-0.009825086
8	0xbcf20105	-0.029541502
9	0xbc0b96cc	-0.0085198395
10	0xbd3cfd7d	-0.046140183
11	0x3d360e82	0.04444743
12	0x3bbd51f3	0.0057775914
13	0xbc56a6b7	-0.013101271
14	0xbc146b89	-0.0090588415
15	0xbc49a40f	-0.012307181
16	0x3ba41024	0.005006807
17	0x3dbee5df	0.09321188
18	0x3a7cf632	0.0009649723
19	0x3d09d3df	0.03364932
20	0xbd1bcb6d	-0.0380358
21	0xbd837fba	-0.06420846
22	0x3d1ea925	0.038735528
23	0x3b924f42	0.0044650147
24	0x3b4e8e1b	0.0031517807
25	0xbd57eedd	-0.052718032
26	0xbcdcc91d	-0.026951367
27	0x3b9fcd0f	0.00487674
28	0x3c24e4bf	0.010064303
29	0xbc378a92	-0.011202471
30	0xbc9b2bd0	-0.01894179
31	0x3c477583	0.012174013
32	0xbbfdb508	-0.007742528
33	0x3cc09d93	0.023512637
34	0xbcc1512f	-0.023598282
35	0x3aade387	0.0013266661
36	0xbd602d73	-0.054730844
37	0x3cd9e455	0.026598135
38	0xbd4b5ce8	-0.04964915
39	0x3cfe8dfa	0.03107356
40	0x3c2252ce	0.0099074375
41	0xbd3e87b5	-0.04651614
42	0x3cdf34f8	0.027246937
43	0xbbd05a07	-0.0063583883
44	0x3b77830d	0.0037767321
45	0x3d55ede0	0.05222881
46	0x3ced9235	0.029000381
47	0x3d907cab	0.070550285
48	0x3c8ff0e7	0.017570926
49	0xbd61ba3a	-0.05510924
50	0xbc92988c	-0.017895006
51	0x3d1439d5	0.036187965
52	0xbcc11c26	-0.023572993
53	0x3d1eeabe	0.038798086
54	0x3ba302c2	0.004974694
55	0x3cce5da2	0.025191132
56	0x3ca60337	0.020265205
57	0xbd4cac54	-0.049969032
58	0xbc84fdd3	-0.016234314
59	0x3cf4c2bf	0.029878018
60	0x3d82ee7e	0.06393145
61	0x3d77a55f	0.060460445
62	0xbc80b1c0	-0.015709758
63	0x3d76b1f2	0.060228296

running_var f4 [64]
0	0x3f6d6377	0.92729896
1	0x3f6c608a	0.92334807
2	0x3f6d068c	0.92588115
3	0x3f6b8236	0.9199556
4	0x3f6c81e9	0.9238573
5	0x3f6bdfe9	0.92138535
6	0x3f6c6f6b	0.9235751
7	0x3f6ca93a	0.9244572
8	0x3f6d2d82	0.92647564
9	0x3f6c02da	0.9219185
10	0x3f6cbc8b	0.92475194
11	0x3f6baa09	0.9205633
12	0x3f6c7d80	0.92379
13	0x3f6bc771	0.921012
14	0x3f6c18df	0.9222545
15	0x3f6bc45e	0.9209651
16	0x3f6d4936	0.92689836
17	0x3f6d1f08	0.92625475
18	0x3f6be012	0.9213878
19	0x3f6cb32b	0.9246089
20	0x3f6d0532	0.9258605
21	0x3f6bb0da	0.9206673
22	0x3f6cddcc	0.92525935
23	0x3f6bcaac	0.9210613
24	0x3f6c148d	0.9221886
25	0x3f6bb866	0.92078245
26	0x3f6aeacd	0.9176453
27	0x3f6c92b6	0.92411363
28	0x3f6c68bd	0.9234732
29	0x3f6b94da	0.92024004
30	0x3f6c32cd	0.92265016
31	0x3f6bc7b4	0.921016
32	0x3f6c09ca	0.92202437
33	0x3f6c53f1	0.92315584
34	0x3f6c2bc4	0.9225428
35	0x3f6cc751	0.9249163
36	0x3f6c43fe	0.9229125
37	0x3f6bb35e	0.9207057
38	0x3f6c0413	0.92193717
39	0x3f6be9c5	0.9215358
40	0x3f6c69c9	0.92348915
41	0x3f6c1f4a	0.92235243
42	0x3f6c2288	0.9224019
43	0x3f6bae20	0.9206257
44	0x3f6bef2f	0.9216184
45	0x3f6c19fa	0.9222714
46	0x3f6bcb66	0.92107236
47	0x3f6c74e7	0.9236588
48	0x3f6c87ef	0.9239492
49	0x3f6c3a4b	0.9227645
50	0x3f6b9608	0.92025805
51	0x3f6c8981	0.92397314
52	0x3f6c63b1	0.92339617
53	0x3f6c3770	0.9227209
54	0x3f6c227a	0.9224011
55	0x3f6c9c0a	0.92425597
56	0x3f6c1322	0.92216694
57	0x3f6c49bb	0.92300004
58	0x3f6c312a	0.9226252
59	0x3f6c6a08	0.9234929
60	0x3f6c5bb2	0.92327416
61	0x3f6c4b3a	0.92302287
62	0x3f6cf36f	0.9255895
63	0x3f6d04b7	0.9258532

weight f4 [64, 32, 3, 3]
0	0x3d38053b	0.044926863
1	0xbd083f66	-0.033263586
2	0xbd43be31	-0.047788803
3	0xbd1097a2	-0.03530086
4	0x3d5265a9	0.051366482
5	0x3c5b8f3c	0.013400849
6	0x3d374357	0.044741955
7	0xbd22254c	-0.03958635
8	0x3be8f488	0.0071092285
9	0x3cedef8a	0.029044885
10	0x3cbb89aa	0.022892792
11	0xbca96b7c	-0.020681135
12	0xbcd79e96	-0.026320737
13	0xbcae320e	-0.021264102
14	0x3d250061	0.040283564
15	0x3c890862	0.01672763
16	0xbd4e14fc	-0.05031298
17	0xbcd2a8d0	-0.025715262
18	0xbd0961bd	-0.033540476
19	0xbb9d05c8	-0.004791949
20	0x3d5f7505	0.054554958
21	0xbbc99330	-0.0061515793
22	0xbcda97e2	-0.026683751
23	0x3d27e07d	0.040985573
24	0xbb313d40	-0.0027044564
25	0x3ca3910e	0.019966628
26	0x3bf00dd8	0.007325869
27	0xbd4ef655	-0.05052789
28	0xbd214594	-0.039372995
29	0x3d672a53	0.056436848
30	0xbd3e3a42	-0.046442278
31	0xbcdefed2	-0.027221117
32	0x3c549a6c	0.01297627
33	0xbd56fa39	-0.052484725
34	0xbd70ea0a	-0.058816947
35	0xbd1cbb7a	-0.03826473
36	0x3c04fbfc	0.008116718
37	0xbaf7bb80	-0.0018900484
38	0x3d35f41f	0.044422265
39	0xbd3764ae	-0.04477375
40	0xbaf49840	-0.0018661097
41	0x3c9d68ea	0.019215066
42	0x3b9bd9c8	0.004756186
43	0x3d0e7ca7	0.034786846
44	0x3d5229a5	0.051309247
45	0x3cb50892	0.022098813
46	0x3d69ac31	0.05704898
47	0xbc8d2512	-0.01722959
48	0x3d5c1a3b	0.053735953
49	0x3d6f3b3b	0.058406096
50	0x3d511a1d	0.051050294
51	0xbd21ffca	-0.03955058
52	0xbd2ae4f0	-0.041722238
53	0x3b7942d0	0.0038034208
54	0x3d2d86f1	0.04236502
55	0x3cb131c6	0.02163018
56	0xbd589201	-0.052873615
57	0xbbf40d40	-0.0074478686
58	0xbac64d20	-0.0015129186
59	0x3d3c95ad	0.04604118
60	0x3cf2d272	0.029641364
61	0x3c53313c	0.012890156
62	0xbd0df6b6	-0.03465911
63	0x3caf096e	0.021366801
64	0xbd049aae	-0.032374077
65	0xbcb4f3a8	-0.02208884
66	0xbd2cd80a	-0.04219822
67	0xbbd23a98	-0.0064156763
68	0x3c82df36	0.015975576
69	0xbce0f5d8	-0.027460977
70	0xbcfb66ea	-0.030688722
71	0x3ccf0936	0.025272947
72	0x3ce0ea82	0.027455572
73	0xbcb4b71c	-0.02205997
74	0x3d1a325d	0.037645686
75	0x3caf173a	0.02137338
76	0xbd1b0364	-0.03784503
77	0xbd03fc71	-0.03222317
78	0x3d401547	0.04689529
79	0x3d0aba31	0.033868972
80	0x3cade3d6	0.021226805
81	0xbc99d78c	-0.018779539
82	0xbce4692e	-0.027882185
83	0x3d6d838d	0.057986785
84	0x3cb7be1a	0.022429515
85	0x3d6a59b5	0.057214458
86	0x3b8658a8	0.004099924
87	0x3c581104	0.013187651
88	0xbd1278ba	-0.035759665
89	0x3c53190c	0.01288439
90	0xbcdc4c34	-0.026891805
91	0x3bf54008	0.0074844398
92	0xbc8640ac	-0.01638826
93	0x3c749d6c	0.01493011
94	0xbd2cc0e4	-0.042176142
95	0x3c0778c4	0.008268539
96	0xbd3c1548	-0.045918733
97	0x3c3d0614	0.011537094
98	0x3d08394b	0.033257764
99	0x3d2eabc5	0.04264428
100	0xbcf464a2	-0.029833142
101	0x3cffcc02	0.031225208
102	0xbd272c1f	-0.04081356
103	0x3d6590e9	0.0560464
104	0x3d129209	0.0357838
105	0xbd400921	-0.046883706
106	0xbd4911a8	-0.049089104
107	0xbd635c95	-0.055508215
108	0xbd1e6fc0	-0.03868079
109	0x3d011bbd	0.031520594
110	0xbd36959a	-0.044576265
111	0xbd33a18e	-0.043855242
112	0x3cdcd106	0.026955139
113	0xbd445d7b	-0.047940712
114	0xbd0c9702	-0.0343237
115	0xbd6537ab	-0.055961292
116	0xbcb7cd32	-0.022436712
117	0xbc6d5618	-0.014485858
118	0x3d1e2107	0.038605716
119	0xbc84308e	-0.016136434
120	0xbc069fac	-0.00821678
121	0xbd667235	-0.05626126
122	0xbd23b5e2	-0.03996838
123	0xbcdb5baa	-0.026777107
124	0x3d2e0217	0.04248246
125	0xbc205904	-0.009786848
126	0x3d298085	0.04138233
127	0xbcc6b5a6	-0.024256539
128	0xbb82ebe0	-0.0039954036
129	0x3c34853c	0.011018094
130	0x3c145f64	0.009055946
131	0xbcdc2c2c	-0.026876532
132	0x3c4f80dc	0.012665
133	0xbd566c5a	-0.052349426
134	0xbd5f5fe9	-0.054534826
135	0xbd2cbd4e	-0.042172723
136	0x3d676ce7	0.05650034
137	0x3c4e8df4	0.012607086
138	0xbc2a4bc0	-0.010394037
139	0x3b84b3e8	0.004049767
140	0x3d1ffa13	0.03905685
141	0xbbd52fd8	-0.0065059476
142	0xbd263ee6	-0.04058733
143	0x3d5437e1	0.051811103
144	0x3cb76dbe	0.022391196
145	0xbd4057a0	-0.046958566
146	0xbd05cbc6	-0.032665037
147	0x3cc41eea	0.023940522
148	0xbd30104a	-0.042984284
149	0x3cceb5ae	0.025233116
150	0x3c9aff9e	0.018920716
151	0x3c7d7b34	0.015471268
152	0xbc7f093c	-0.0155661665
153	0x3d4c393b	0.049859267
154	0x3d66282b	0.05619065
155	0xbc450b14	-0.012026567
156	0xbd5b1c78	-0.053493947
157	0x3ce5ffb6	0.028076034
158	0xbcfab348	-0.030603066
159	0xbd67ce60	-0.0565933
160	0x3d4ae269	0.049532328
161	0xbd23c96c	-0.039987013
162	0xbbf2f400	-0.007414341
163	0x3d5a04f5	0.053227384
164	0xbd35c647	-0.044378545
165	0x3c672cc4	0.014109794
166	0xbd70113c	-0.058610186
167	0x3d60cb65	0.054881472
168	0xbd0411e0	-0.03224361
169	0x3d36cebf	0.044630762
170	0xbc951c40	-0.018201947
171	0xbb812298	-0.0039408915
172	0x3d0da29f	0.034578916
173	0x3ce73a02	0.028225902
174	0xbd4d2b3c	-0.05009006
175	0x3cd79652	0.026316795
176	0xbc55cf74	-0.013049949
177	0xbce9a657	-0.0285217
178	0x3d4a8b3b	0.049449187
179	0xbd3e3429	-0.046436463
180	0xbd310054	-0.043213204
181	0x3d125af1	0.03573126
182	0x3b7e2070	0.0038776658
183	0x3d6cc61b	0.057806116
184	0xbbd6de30	-0.0065572485
185	0x3cc57346	0.024102818
186	0x3d0c8beb	0.034313124
187	0xbc9a2c2e	-0.018819895
188	0x3d319c15	0.043361742
189	0x3c59ed84	0.013301257
190	0x3d705ced	0.05868237
191	0x3b77adf0	0.0037792884
192	0x3ca4e8b6	0.020130496
193	0xbca4cfae	-0.02011856
194	0x3c945852	0.01810852
195	0x3ca559f6	0.020184498
196	0xbcb22fae	-0.021751251
197	0x3ad3eee0	0.0016169213
198	0x3bd1b4c8	0.0063997246
199	0xbc895d9a	-0.016768266
200	0x3ce9fd6e	0.028563228
201	0xbab6fb00	-0.0013960302
202	0xbbc5d178	-0.0060369335
203	0xbc290ce8	-0.0103180185
204	0x3b114c80	0.0022170842
205	0xbd1a2cb4	-0.03764029
206	0xbccccb14	-0.024999179
207	0xbd696052	-0.056976624
208	0xbc81423e	-0.015778657
209	0x3d30653b	0.04306529
210	0x3d0fe901	0.03513432
211	0xbc34dcd8	-0.011038981
212	0x3c276e74	0.010219205
213	0x3cc36142	0.023850087
214	0xbca55000	-0.020179749
215	0xbb237330	-0.0024940483
216	0xbd0df079	-0.03465316
217	0x3d4a2569	0.049352083
218	0xbd25704d	-0.0403903
219	0xbd712b0a	-0.058878936
220	0x3c58c37c	0.013230201
221	0xbcd589c6	-0.026066672
222	0x3d06477f	0.032783028
223	0xbd529083	-0.05140735
224	0xbd5527fc	-0.052040085
225	0x3d3ae121	0.045624856
226	0x3ced206e	0.028946128
227	0xbcf18087	-0.029480232
228	0x3d1bb03d	0.03800987
229	0xbc9d1036	-0.019172769
230	0x3d3513c5	0.044208307
231	0xbcd28aec	-0.025701009
232	0xbd0d69a4	-0.034524575
233	0xbaaa6120	-0.0012998916
234	0x3d00013d	0.03125118
235	0xbd015772	-0.031577535
236	0x3d589ca5	0.052883763
237	0xbd6e92be	-0.058245413
238	0x3c169f2c	0.009193223
239	0xbd35c017	-0.044372644
240	0x3d16c859	0.03681216
241	0xbaca4f60	-0.0015435033
242	0x3b5e7bf0	0.0033948384
243	0x3ca19f2e	0.019729223
244	0x3d1f312f	0.038865265
245	0xbd02efeb	-0.031967085
246	0xbd70b264	-0.058763877
247	0xbc4c21e8	-0.012459256
248	0xbcbd0aee	-0.0230765
249	0xbd1aae58	-0.037763923
250	0xbd2d45d9	-0.04230294
251	0x3bf87378	0.0075821243
252	0x3cd1e54e	0.025622036
253	0xbcb3afba	-0.021934379
254	0x3cfa139e	0.030526932
255	0xbd39070d	-0.04517274

weight f4 [32]
0	0x3f800000	1.0
1	0x3f800000	1.0
2	0x3f800000	1.0
3	0x3f800000	1.0
4	0x3f800000	1.0
5	0x3f800000	1.0
6	0x3f800000	1.0
7	0x3f800000	1.0
8	0x3f800000	1.0
9	0x3f800000	1.0
10	0x3f800000	1.0
11	0x3f800000	1.0
12	0x3f800000	1.0
13	0x3f800000	1.0
14	0x3f800000	1.0
15	0x3f800000	1.0
16	0x3f800000	1.0
17	0x3f800000	1.0
18	0x3f800000	1.0
19	0x3f800000	1.0
20	0x3f800000	1.0
21	0x3f800000	1.0
22	0x3f800000	1.0
23	0x3f800000	1.0
24	0x3f800000	1.0
25	0x3f800000	1.0
26	0x3f800000	1.0
27	0x3f800000	1.0
28	0x3f800000	1.0
29	0x3f800000	1.0
30	0x3f800000	1.0
31	0x3f800000	1.0

bias f4 [32]
0	0x00000000	0.0
1	0x00000000	0.0
2	0x00000000	0.0
3	0x00000000	0.0
4	0x00000000	0.0
5	0x00000000	0.0
6	0x00000000	0.0
7	0x00000000	0.0
8	0x00000000	0.0
9	0x00000000	0.0
10	0x00000000	0.0
11	0x00000000	0.0
12	0x00000000	0.0
13	0x00000000	0.0
14	0x00000000	0.0
15	0x00000000	0.0
16	0x00000000	0.0
17	0x00000000	0.0
18	0x00000000	0.0
19	0x00000000	0.0
20	0x00000000	0.0
21	0x00000000	0.0
22	0x00000000	0.0
23	0x00000000	0.0
24	0x00000000	0.0
25	0x00000000	0.0
26	0x00000000	0.0
27	0x00000000	0.0
28	0x00000000	0.0
29	0x00000000	0.0
30	0x00000000	0.0
31	0x00000000	0.0

running_mean f4 [32]
0	0x3a24e7d3	0.0006290648
1	0xbc84df52	-0.016219769
2	0xbb9a3021	-0.0047054444
3	0x3ac67983	0.0015142414
4	0x3c388714	0.011262674
5	0xbabc1716	-0.0014350142
6	0x3bf5cf3d	0.0075015114
7	0xbc2f9980	-0.01071775
8	0xbc9a4301	-0.018830778
9	0xba46af52	-0.00075792253
10	0xbb9cec77	-0.004788931
11	0x3c488b05	0.012240176
12	0xbaf7cc25	-0.0018905444
13	0xbbf99daf	-0.0076176743
14	0xbb497810	-0.003074173
15	0xb9ddc6ca	-0.00042300514
16	0xbc382a1b	-0.0112405075
17	0xbc23a2a3	-0.009987506
18	0x3c2b15fe	0.010442255
19	0xbc1238cb	-0.008924673
20	0xbb3f94f2	-0.0029233065
21	0xbb0309d8	-0.001999488
22	0xbc027090	-0.007961407
23	0x395dd5e8	0.00021155889
24	0xbbe151d2	-0.006876209
25	0x3b78692a	0.003790448
26	0xbb71fc73	-0.0036924153
27	0xbc88eff9	-0.01671599
28	0x3ba6e3ff	0.005093097
29	0xbc5c1c6a	-0.013434509
30	0x3abbe294	0.0014334493
31	0x3cc667d7	0.024219437

running_var f4 [32]
0	0x3f680aba	0.9064137
1	0x3f68267c	0.9068372
2	0x3f681d5b	0.9066979
3	0x3f68264c	0.90683436
4	0x3f682f36	0.9069704
5	0x3f683449	0.9070478
6	0x3f67c1bb	0.90529984
7	0x3f6808b7	0.906383
8	0x3f6841c2	0.9072534
9	0x3f6825d8	0.90682745
10	0x3f67e790	0.9058771
11	0x3f684493	0.90729636
12	0x3f685153	0.9074909
13	0x3f680078	0.90625715
14	0x3f6802b9	0.90629154
15	0x3f684564	0.9073088
16	0x3f68b4ab	0.9090068
17	0x3f687095	0.90796787
18	0x3f682942	0.90687954
19	0x3f67e722	0.90587056
20	0x3f681696	0.90659463
21	0x3f685a58	0.90762854
22	0x3f684b0e	0.90739524
23	0x3f67c2b0	0.90531445
24	0x3f687725	0.908068
25	0x3f67fae4	0.90617204
26	0x3f67edf3	0.90597457
27	0x3f6876b9	0.90806156
28	0x3f687b27	0.90812916
29	0x3f685888	0.9076009
30	0x3f68ab11	0.90886027
31	0x3f686034	0.90771794

weight f4 [32, 16, 3, 3]
0	0xbd36e200	-0.044649124
1	0x3caa8924	0.020817347
2	0x3da24a6b	0.0792435
3	0x3d678b1a	0.056529142
4	0x3d796b06	0.06089308
5	0xbd6da85e	-0.058021896
6	0x3da3e621	0.08002878
7	0xbd496a3b	-0.049173575
8	0x3d170d96	0.03687819
9	0xbc584a00	-0.013201237
10	0xbd691e68	-0.056913763
11	0xbd8776f8	-0.06614488
12	0xbd969ca7	-0.07354098
13	0x3d46f652	0.048574753
14	0x3d5970c6	0.053086065
15	0x3d64dc8a	0.055874385
16	0x3ce49eec	0.027907811
17	0x3d81fcbd	0.06347034
18	0x3c8b3ab4	0.016995765
19	0xbcb7f560	-0.022455871
20	0x3d3c0cd2	0.045910664
21	0x3d857c65	0.06517867
22	0xbcb7f1cc	-0.022454165
23	0xbd8c0a4f	-0.06837904
24	0xbaa97b00	-0.0012930334
25	0x3b8cd340	0.004297644
26	0x3d7eccca	0.06220702
27	0x3ce6e58c	0.028185628
28	0xbd648bc8	-0.05579737
29	0xbd701680	-0.058615208
30	0x3c1beb60	0.009516567
31	0x3d8d881d	0.06910727
32	0xbc5ccb78	-0.013476245
33	0xbd10dc1b	-0.03536616
34	0xbc8d5d0c	-0.017256282
35	0x3d5a7a8a	0.05333952
36	0xbcb839ec	-0.022488557
37	0x3aceafc0	0.001576893
38	0x3d3462b2	0.044039436
39	0x3d96f2d7	0.07370537
40	0xbd4a5ff3	-0.04940791
41	0x3d68f1b2	0.056871124
42	0x3d389262	0.045061477
43	0x3c9e16b0	0.019297928
44	0xbbf27390	-0.00739903
45	0xbd95e4d7	-0.07319038
46	0xbd28c716	-0.04120549
47	0xbb8a9b50	-0.0042299405
48	0x3cad05cc	0.021120928
49	0x3d44e996	0.048074327
50	0x3d856511	0.065134175
51	0xbd426413	-0.04745872
52	0x3ca79910	0.020458728
53	0xbd591c10	-0.053005278
54	0xbc333958	-0.010938965
55	0xbb8024b0	-0.0039106235
56	0x3c9bf57c	0.019037955
57	0xbd240fbb	-0.040054064
58	0xbd4bd7b3	-0.049766254
59	0x3d776b46	0.06040504
60	0xbd1ebf96	-0.03875693
61	0x3c1b4188	0.009476073
62	0x3d02c7f0	0.031928957
63	0xbc8e20cc	-0.017349623
64	0x3c5f9540	0.013646424
65	0xbd9e9c26	-0.07744627
66	0x3c25fb08	0.010130651
67	0xbccb157c	-0.024790518
68	0xbc9f9754	-0.019481339
69	0xbcfda840	-0.030964017
70	0x3cf4c450	0.029878765
71	0xbd886a00	-0.06660843
72	0xbd6a72a3	-0.057238232
73	0x3da68661	0.081310995
74	0xbda96db6	-0.08272879
75	0x3da52509	0.080637045
76	0xbd9390a0	-0.072053194
77	0xbca5497c	-0.020176642
78	0x3d770d12	0.0603152
79	0x3d233c8e	0.03985267
80	0x3d5d9baa	0.05410353
81	0x3d412e16	0.04716309
82	0x3d834865	0.064102925
83	0x3d9e0085	0.07714943
84	0xbcf486d0	-0.02984944
85	0xbb70d3a0	-0.0036747232
86	0x3d8d0755	0.06886164
87	0xbadd7300	-0.0016895235
88	0x3cb54e20	0.02213198
89	0x3cc17ab0	0.023618072
90	0xbc8e5554	-0.017374672
91	0x3d0ea802	0.034828193
92	0x3d83a951	0.06428779
93	0x3cd5fa74	0.026120402
94	0x3b9773b0	0.0046219453
95	0xbd8c4aec	-0.06850228
96	0xbca34cbc	-0.01993405
97	0x3cbfa6c4	0.02339495
98	0xbd61e820	-0.055153012
99	0xbcf20ae6	-0.029546212
100	0x3c339ac8	0.010962196
101	0xbd8c02ce	-0.068364725
102	0x3cd0041c	0.025392585
103	0x3d48cec6	0.04902532
104	0x3cd7ac3c	0.026327245
105	0x3cef4c64	0.02921123
106	0x3d9f004b	0.07763728
107	0x3daa9199	0.08328552
108	0x3c3146d8	0.010820113
109	0xbd7c7f60	-0.06164491
110	0x3ca6756c	0.020319663
111	0x3d1b2e3e	0.037885897
112	0x3d1af196	0.03782805
113	0x3bd0a830	0.0063677058
114	0xbc9d993c	-0.019238107
115	0x3d1aafa2	0.037765153
116	0xbcac6da6	-0.021048378
117	0x3c5336e0	0.012891501
118	0x3d3d6c82	0.04624606
119	0x3d7e57b2	0.06209535
120	0xbcf6e420	-0.030138075
121	0xbd54e6b6	-0.051977836
122	0xbd131416	-0.035907827
123	0x3d2c38b2	0.042046256
124	0xbccdda10	-0.025128394
125	0x3d52097e	0.051278584
126	0x3d0c8588	0.034307033
127	0x3d1ee656	0.038793884
128	0xbd39062e	-0.04517191
129	0x3d23aef6	0.039961778
130	0xbd1dd74e	-0.03853541
131	0xbda4ce2f	-0.08047139
132	0x3cf421c0	0.02980125
133	0x3d1f9958	0.0389646
134	0xbc8e09e4	-0.0173387
135	0x3d9685c1	0.0734973
136	0x3bf528b0	0.007481657
137	0x3c798ce0	0.015231341
138	0x3d00261a	0.031286336
139	0xbda7892c	-0.0818046
140	0xbda0ff8b	-0.07861241
141	0x3d284328	0.04107967
142	0x3cd8ec90	0.02647999
143	0xbd175980	-0.03695059
144	0xbd6af858	-0.057365745
145	0x3d8706d7	0.065931015
146	0x3d0ae6b2	0.033911414
147	0x3da4a4a5	0.08039216
148	0xbd890070	-0.066895366
149	0xbd6921fb	-0.056917172
150	0x3ca32fc0	0.01992023
151	0x3d433d02	0.047665603
152	0x3d955129	0.07290871
153	0x3d6fd842	0.05855585
154	0xbd72db63	-0.059291255
155	0xbd7328f6	-0.059365235
156	0xbd7917de	-0.060813777
157	0x3c952a24	0.01820857
158	0xbd9f9807	-0.07792669
159	0xbd95b74b	-0.07310351
160	0xbcddf210	-0.027092963
161	0x3c6e9a28	0.014563121
162	0x3ca7196c	0.020397864
163	0x3d520d02	0.051281936
164	0x3c2072f8	0.009793036
165	0x3cd1fab4	0.02563224
166	0xbd218013	-0.03942878
167	0xbb876370	-0.004131727
168	0xbd48b356	-0.048999153
169	0xbd38a088	-0.04507497
170	0x3d2c16aa	0.0420138
171	0xbc86ff4c	-0.016479157
172	0xbd9d26ff	-0.076734535
173	0xbd42d616	-0.04756745
174	0x3da625f9	0.081127115
175	0x3d7046c6	0.058661245
176	0xbd9f0423	-0.07764461
177	0x3bac7650	0.0052631274
178	0xbd814e00	-0.063137054
179	0x3d7d12fa	0.061785676
180	0xbd436f48	-0.047713548
181	0x3d0c95c6	0.034322523
182	0x3c579640	0.013158381
183	0xbd5ab1e3	-0.053392302
184	0x3cada514	0.02119688
185	0x3d750292	0.059816904
186	0x3d398c9e	0.04530012
187	0xbd9c6382	-0.07636167
188	0x3d9099d9	0.07060594
189	0xbd535ce6	-0.051602267
190	0x3c9c2924	0.019062586
191	0x3d315f2a	0.043303646
192	0xbd8ffe0b	-0.07030877
193	0x3b769c00	0.0037629604
194	0x3da9bb85	0.0828772
195	0xbc358148	-0.011078186
196	0xbd1da3c6	-0.038486265
197	0x3d0be518	0.034154028
198	0x3cff1004	0.031135567
199	0xbda1712e	-0.078829154
200	0x3da46489	0.08026988
201	0x3ca3a9d4	0.019978441
202	0xbd836d66	-0.064173505
203	0xbd374a6e	-0.044748716
204	0x3d3018fe	0.042992584
205	0x3cd94510	0.02652219
206	0xbd7c5cc3	-0.061611902
207	0xbd61a770	-0.05509132
208	0x3d189766	0.03725376
209	0xbd8f953f	-0.07010888
210	0x3ca9f894	0.020748414
211	0x3d97ec05	0.07418064
212	0xbd6374eb	-0.055531424
213	0xbc232e20	-0.0099597275
214	0xbd25b500	-0.04045582
215	0x3d2cb4c2	0.04216457
216	0x3b7af8e0	0.0038295314
217	0x3c67c678	0.01414644
218	0xbd91f24a	-0.07126291
219	0x3d24662e	0.04013651
220	0x3c94e7dc	0.018176965
221	0x3d777532	0.0604145
222	0xbbb41bc0	-0.005496472
223	0x3d118f02	0.035536774
224	0x3da29ff9	0.079406686
225	0x3d884b99	0.06655044
226	0xbd99290c	-0.07478532
227	0xbcf938e0	-0.030422628
228	0xbd27fa9e	-0.04101049
229	0xbd9371ac	-0.071994156
230	0xbd14d22e	-0.036333255
231	0xbca1d0c4	-0.019752868
232	0xbd84efb2	-0.06491031
233	0x3b22da20	0.002484925
234	0xbca54c8c	-0.020178102
235	0x3d53a01a	0.051666357
236	0x3c3a5578	0.011372916
237	0xbd80baa2	-0.062855974
238	0x3d869461	0.0657127
239	0xbcec0ddc	-0.028815202
240	0xbc9ae5e0	-0.018908441
241	0xbc0294c8	-0.0079700425
242	0x3d6af6ae	0.05736416
243	0xbd14bee3	-0.036314856
244	0x3d932ebd	0.07186649
245	0xbd7b5f50	-0.061370194
246	0xbc61b480	-0.013775945
247	0xbd9995a8	-0.07499248
248	0xbda393ce	-0.07987176
249	0x3c82b13c	0.015953653
250	0xbd1fa31b	-0.03897391
251	0x3d3198be	0.043358557
252	0x3c1e9d78	0.009681098
253	0xbb0e4060	-0.002170585
254	0x3d890c85	0.06691841
255	0x3d84f245	0.06491522

weight f4 [16]
0	0x3f800000	1.0
1	0x3f800000	1.0
2	0x3f800000	1.0
3	0x3f800000	1.0
4	0x3f800000	1.0
5	0x3f800000	1.0
6	0x3f800000	1.0
7	0x3f800000	1.0
8	0x3f800000	1.0
9	0x3f800000	1.0
10	0x3f800000	1.0
11	0x3f800000	1.0
12	0x3f800000	1.0
13	0x3f800000	1.0
14	0x3f800000	1.0
15	0x3f800000	1.0

bias f4 [16]
0	0x00000000	0.0
1	0x00000000	0.0
2	0x00000000	0.0
3	0x00000000	0.0
4	0x00000000	0.0
5	0x00000000	0.0
6	0x00000000	0.0
7	0x00000000	0.0
8	0x00000000	0.0
9	0x00000000	0.0
10	0x00000000	0.0
11	0x00000000	0.0
12	0x00000000	0.0
13	0x00000000	0.0
14	0x00000000	0.0
15	0x00000000	0.0

running_mean f4 [16]
0	0x3bd5a56f	0.0065199654
1	0xbcb1593d	-0.021648997
2	0xbba3cd2c	-0.0049988236
3	0xbc5ecc4d	-0.013598514
4	0x3bdc7383	0.0067276373
5	0xbc8defd6	-0.017326277
6	0x3d0ec37f	0.03485441
7	0xbc992bd6	-0.01869766
8	0x3be8eb92	0.0071081603
9	0x3b73655f	0.003713928
10	0xbcd80358	-0.026368782
11	0x3c578dcd	0.013156367
12	0xbc438e87	-0.011935837
13	0xbbd8ba28	-0.0066139884
14	0x3b0dc717	0.002163356
15	0xbc9f2088	-0.019424692
