trained_model/ParticleDetectorV1_top.pt (torch, 268539 bytes, 37 tensors)

weight f4 [8, 1, 3, 3]
000000 3d c7 18 3d 53 1b bc 3d b0 e5 34 3e e2 f8 66 bd
       0.037299383 0.09184899 0.17665744 -0.056389697
000010 a8 db 0c 3e b4 9f 41 3e 0c 8d 80 be d6 05 9d bd
       0.13755667 0.18908578 -0.2510761 -0.07667129
000020 77 de 5c 3a b6 a4 60 3e d0 89 86 be ae 6b 2b 3e
       0.0008425484 0.21937832 -0.26277018 0.16740295
000030 eb 9a 34 be 8c 41 9e 3d ee 22 eb 3e 13 e1 9d bd
       -0.17637222 0.07727346 0.45925087 -0.07708945
000040 b0 50 5f bd 32 a3 0f 3e 10 37 9c 3e f9 ea b9 bd
       -0.05452031 0.14027098 0.3051076 -0.090780206
000050 f3 70 8b be 35 aa 1b bd 07 15 25 be a5 d4 3f be
       -0.2723461 -0.03800412 -0.16121303 -0.18733461
000060 a3 ac 40 3d 6c 60 0b 3e 48 7d 0b 3e a6 9d aa 3e
       0.04703964 0.13611001 0.1362201 0.333234
000070 70 08 7f 3e 75 03 36 3e 99 42 3e 3d 24 d4 bf bd
       0.24905562 0.17774756 0.04645023 -0.093666345
000080 8b 33 88 3d d2 a5 e5 3d 9a 3a 9e be 74 18 88 be
       0.06650456 0.11213268 -0.30904084 -0.26581156
000090 34 3a e7 bc 0f de 84 be ba 94 b8 bd ae d1 54 bd
       -0.028225996 -0.25950667 -0.09012742 -0.05195778
0000a0 bf 0a 86 3e 03 79 a0 bc ce 9c c7 3b 12 1f e4 3e
       0.26180074 -0.019588953 0.0060916906 0.44554955
0000b0 b6 99 2d 3e 0a ab f1 be bd 6f d5 be 9b eb 61 3e
       0.16953167 -0.47200805 -0.41686812 0.22062533
0000c0 db ac 9e be 98 b9 17 be 89 49 6a be ac 63 ff bc
       -0.30991253 -0.14816892 -0.22879614 -0.031175457
0000d0 8a 3c ef 3d bf 18 c0 bd c9 27 23 3d 6c 79 76 be
       0.11681469 -0.0937972 0.039832864 -0.24069756
0000e0 95 83 48 3e f6 66 0c 3c d2 47 c8 3e ab c3 33 3f
       0.19581445 0.00856947 0.39117295 0.7022044
0000f0 68 ab 3e bd 78 05 ef 3b b4 a4 05 3e c8 fb 0d bc
       -0.046550184 0.007294353 0.1305111 -0.008665986
000100 b7 16 9d 3e 25 d8 07 3e cb 5f 2e 3e 76 c9 fa 3e
       0.30681393 0.13266046 0.1702873 0.48981827
000110 78 44 23 3e 69 34 18 3e 39 42 e2 3d 26 b4 42 be
       0.15944088 0.14863743 0.11047787 -0.19014034

weight f4 [8]
000000 c5 1c 75 3f 5e 97 5e 3f ea fb 8d 3f ec b4 71 3f
       0.95747024 0.8694972 1.1092503 0.9441669
000010 ad 18 61 3f 06 fb 5f 3f c0 6a 44 3f 4e b1 57 3f
       0.8792828 0.87492406 0.7672539 0.8425492

bias f4 [8]
000000 02 d4 14 3e 91 a9 e3 3c 86 1e 81 3d ef b6 93 bb
       0.14534 0.027790817 0.0630465 -0.0045078914
000010 c2 ca 2a 3d 7c 9f 83 bd 1f f6 02 bd 84 f4 f4 3d
       0.04169727 -0.064269036 -0.031973 0.119607

running_mean f4 [8]
000000 31 7f 8a 41 37 ce 03 42 c8 17 08 c1 a5 93 b2 41
       17.312105 32.95138 -8.505806 22.322092
000010 22 ea ed 41 ae 42 bc c2 35 1a a7 42 0c a3 b6 42
       29.739323 -94.13023 83.551186 91.31845

running_var f4 [8]
000000 9f cb 20 43 53 28 0f 44 6c eb 1e 42 04 88 88 43
       160.7954 572.63007 39.729904 273.06262
000010 46 0b ec 43 93 ec 91 45 b4 9f 65 45 0e 37 89 45
       472.08807 4669.572 3673.9814 4390.882

weight f4 [16, 8, 3, 3]
000000 6f df b4 bd a8 2f f1 bb fc 60 df 3d e3 5b b4 3d
       -0.08831679 -0.0073604174 0.1090717 0.088065885
000010 e6 da 6a 3e 26 8d 2c 3e 04 f1 83 be 6a 64 38 be
       0.22935066 0.16850719 -0.25769818 -0.18007055
000020 ee 2a eb 3d 0b 52 2b 3e 71 5e 2c 3e 40 f1 4c 3e
       0.114827976 0.16730516 0.16832902 0.20013905
000030 ec a4 3b bd 7a b4 70 3b 4c d9 f7 3b 58 83 05 be
       -0.04581158 0.0036728666 0.0075637456 -0.13038385
000040 d6 6e a9 bd 57 01 81 bc 58 25 9d bd 7a a0 38 bc
       -0.082730934 -0.01574771 -0.076731384 -0.011268729
000050 3c 0e 1b 3d bc 3b d5 3d c4 e3 62 3e 36 52 ad 3d
       0.03785537 0.10411784 0.22157198 0.08462946
000060 b1 41 99 3c 15 91 b5 3d 90 9b 0a 3e 06 dc af 3d
       0.018708082 0.08865563 0.13535905 0.08586888
000070 0e 1f de 3d 08 a1 1d 3e 17 13 fe bd 13 fe 70 bd
       0.10845767 0.1539346 -0.12405985 -0.058836054
000080 7f 7b 40 3e 21 da e2 b9 6c d4 8b 3d 1c 02 1d 3e
       0.1879711 -0.00043268598 0.06827626 0.15332836
000090 b5 e5 d6 3c fd 85 fa 3d 5b 32 a9 3d 9f 95 ba bd
       0.02623258 0.122325875 0.08261558 -0.09110569
0000a0 79 51 28 be 8c 05 85 3c a7 79 37 be c5 dc 43 be
       -0.1643733 0.016237997 -0.179175 -0.19127186
0000b0 b3 a1 f3 bd 1a 5c 1c be f5 71 b7 bd 6c 9f 24 be
       -0.11896076 -0.15269509 -0.089572825 -0.1607644
0000c0 40 e4 9c be 7e ce 76 bd 8a 2a 0d bd 17 aa 0e be
       -0.3064289 -0.06025552 -0.034464397 -0.13932072
0000d0 bf fd af 3d c1 3f c7 bd da 96 f7 3d 4b d9 c3 3d
       0.0859332 -0.09728957 0.120893195 0.0956293
0000e0 4e be ff 3c a9 d7 0b be e7 ca 35 bc f9 55 84 bd
       0.031218674 -0.13656487 -0.011095739 -0.064617105
0000f0 2b b1 0b be 3c f4 da bd d4 e5 38 ba a0 c5 28 be
       -0.13641803 -0.10691115 -0.000705329 -0.16481638
000100 9d 86 97 bd cd 39 6a 3c d8 f3 40 be 4e 2f 82 3d
       -0.07398722 0.014296007 -0.18843019 0.06356679
000110 b7 57 30 3e 64 36 19 be ba 76 fb 3c 32 58 f9 bd
       0.1722096 -0.14962155 0.030696262 -0.12175025
000120 41 77 46 be d7 69 65 3e 00 a1 c9 bd 81 ed 96 3d
       -0.1938143 0.22403656 -0.098451614 0.07369519
000130 8d 80 41 3a 67 54 82 3e 1f a5 6b 3d ae c8 f3 bd
       0.0007381521 0.2545502 0.05753052 -0.11903511
000140 0d db 26 3e bf b2 cf 3d 96 02 03 be a6 85 08 3e
       0.16294499 0.10141515 -0.12793955 0.13332233
000150 6a 02 13 be c7 e1 8e bc 77 06 e5 bd d5 b0 c8 3d
       -0.1435639 -0.017441643 -0.11182874 0.09799353
000160 ce fd 38 ba 91 85 c3 bc 10 14 db bd 75 8b 7a bc
       -0.0007056863 -0.0238674 -0.10697186 -0.015292038
000170 25 c4 d6 bc e6 5f ad 3d f5 c5 d1 bd be 04 f8 bd
       -0.026216576 0.08465557 -0.102428354 -0.121102795
000180 5a 0d 40 3e 04 7b ae bd 37 fb 9c be 9d d9 78 be
       0.18755093 -0.08519557 -0.30660412 -0.24301763
000190 ca a9 6b bd eb ef bf 3c 8e ae 2d 3e b4 a8 a8 bc
       -0.05753497 0.023429831 0.16961119 -0.020588256
0001a0 52 fc 4c be da 07 2d be 34 12 3d 3c 24 74 12 be
       -0.20018128 -0.16897526 0.0115399845 -0.14302117
0001b0 4f bf a1 3c 24 cf f4 bd e0 7d c2 3c d4 8c 6a be
       0.019744543 -0.119535714 0.023741663 -0.22905284
0001c0 78 19 17 3d 11 e8 88 3e d5 cf 39 be 84 01 af bd
       0.036889523 0.26739553 -0.18145688 -0.08545211
0001d0 39 26 84 3e f2 f5 2b bd 90 41 68 3c 9b 9f 17 3d
       0.25810412 -0.0419826 0.014175788 0.037017446
0001e0 b2 8d 13 3e 75 73 07 3c f5 c8 09 3e 4e 58 9a 3e
       0.14409521 0.008267273 0.13455565 0.30145496
0001f0 59 e1 45 3e 53 aa 9a bd 0c c3 94 bc a7 74 4d be
       0.19324245 -0.07552018 -0.018159412 -0.2006403
000200 26 b7 a0 bd 1a 84 4e be c5 55 a5 3c 8a f9 56 3d
       -0.07847433 -0.2016758 0.0201825 0.052484073
000210 f6 75 92 3d e5 bf c4 bd df c8 ae 3d 86 02 52 be
       0.071514055 -0.096069135 0.08534407 -0.20508775
000220 b2 81 00 bd 87 25 2d 3c 51 ee 41 be 75 df 0b 3e
       -0.031373687 0.010568029 -0.18938567 0.13659461
000230 24 8b 37 3d 15 18 b1 3c df a3 1f be 5d 63 0d 3e
       0.04481043 0.021617929 -0.15589856 0.13807435
000240 83 53 d7 3d 57 59 a4 3d fc 2c 13 bd 76 6d 9a 3c
       0.105139755 0.08024853 -0.035931572 0.018851023
000250 26 4c 69 be ba a3 a8 bd 8f 73 ee bd 39 b3 8a 3d
       -0.22782955 -0.08234353 -0.11643135 0.06772465
000260 b9 ca 11 3d da a2 df 3d 5d 39 96 3d 14 67 c4 3c
       0.035593722 0.10919733 0.0733516 0.023974933
000270 e6 04 ba bd 8f 4f 73 bd f7 c6 9e bd b8 1d 55 bd
       -0.090829656 -0.059402045 -0.07752793 -0.052030295
000280 c7 c5 48 3e 0c 3e 4a be 28 3f e9 bd dd f8 bd 3e
       0.19606696 -0.19750232 -0.11388999 0.3710393
000290 dc 78 fa bd 7a e4 e5 bd 01 cc 3f 3e 38 a0 8a bd
       -0.12230083 -0.11225219 0.18730165 -0.067688406
0002a0 f2 4f 1c be b3 45 25 3e c4 56 09 3e e6 5f c2 3d
       -0.15264872 0.1613987 0.13412005 0.094909474
0002b0 28 60 52 be 2c 5e f6 bc 1e 69 88 be f8 5e 98 bd
       -0.20544493 -0.030074202 -0.26642698 -0.07439989
0002c0 9a 04 d3 bd 74 26 0d 3c 1c 41 12 be 91 b2 35 3e
       -0.10303612 0.008615125 -0.1428265 0.17743899
0002d0 dc ab a0 bb 39 b4 06 be 25 8d df bd da e5 90 bd
       -0.0049032997 -0.13154687 -0.10915593 -0.07075091
0002e0 a4 ec 16 be bf 2d 84 bc 99 54 0d be 79 18 1e be
       -0.14738709 -0.016135095 -0.13801803 -0.15439023
0002f0 f7 ca 82 be 99 99 68 be 2d ab 20 be b2 4f 85 3e
       -0.25545475 -0.22714843 -0.15690298 0.26037365
000300 86 18 ad be 6c 96 ec bd 65 42 62 3e 09 92 34 bd
       -0.33807772 -0.11552128 0.2209564 -0.044084582
000310 25 ca b9 bc 0f e2 5c 3e a3 47 a2 3d c4 ad 35 bd
       -0.022679398 0.2157061 0.0792382 -0.04435517
000320 b9 97 3b be 6e 28 74 3d f6 9b 28 be 9f 0b 00 3e
       -0.18319596 0.05960887 -0.16465744 0.12504433
000330 9a f7 20 bd 7c 5e c4 bd 54 97 18 3d 54 ab 52 3d
       -0.03929863 -0.09588334 0.037253693 0.051432922
000340 34 20 cb bc 34 e0 32 3e 74 a9 bb bd b9 cc cb 3d
       -0.02479563 0.17468339 -0.0916318 0.09951157
000350 81 35 13 3e f2 a4 14 3e 3e f9 6d 3d 66 41 28 bb
       0.14375879 0.14516047 0.058099024 -0.0025673746
000360 7c eb 90 3d 67 9b a5 3d 42 f3 db 3d c9 34 ac 3d
       0.07076165 0.08086281 0.10739757 0.084085055
000370 06 3a b7 3d ac a6 2f 3e 35 79 32 3e 4d dc 52 bd
       0.08946614 0.17153424 0.1742905 -0.051479626
000380 89 eb 54 3e 62 2b 08 3e e5 cd 08 be 4c 4f 16 be
       0.20792975 0.13297799 -0.13359793 -0.14678687
000390 23 a5 cb 3d c3 26 02 3e ed 6f 44 3e 37 11 fb 3d
       0.09943607 0.12710099 0.19183321 0.12259143
0003a0 95 fb 82 bd 7b 4a 23 3e 6b 2e cf bd 29 04 ac bd
       -0.06395642 0.15946381 -0.101162754 -0.08399231
0003b0 64 cd 51 be a0 41 49 be 65 6b 24 be 80 de 3e be
       -0.20488507 -0.1965394 -0.16056593 -0.18639565
0003c0 8f b1 61 be 61 18 8b be 5b 7a 36 be 11 20 83 be
       -0.2204039 -0.27167037 -0.17820112 -0.25610402
0003d0 87 8e c1 3d 10 01 50 be ec 48 ba 3d a9 19 98 bd
       0.09451013 -0.20312905 0.0909594 -0.07426769
0003e0 ff cd f2 bc 48 8e 84 bd d6 6d c7 bc d4 db 13 3e
       -0.029639242 -0.064724505 -0.024344366 0.14439327
0003f0 2c 88 ac 3d b7 73 e0 3d 7f 93 b5 bc 50 61 86 bd
       0.0842441 0.10959571 -0.022165058 -0.0656153

weight f4 [16]
000000 74 5f 81 3f 61 77 5c 3f 61 46 58 3f f4 b3 10 3f
       1.0107255 0.8611966 0.8448239 0.56524587
000010 cb 15 33 3f 95 56 45 3f 6f 96 73 3f fb 27 23 3f
       0.6995513 0.7708524 0.9515142 0.6373288
000020 46 f4 6f 3f 19 05 8d 3f 82 fc 76 3f da 72 7b 3f
       0.93732107 1.1017181 0.96479046 0.98222125
000030 3e 53 83 3f 14 3b 4e 3f 4a 8d 32 3f 7d 33 3a 3f
       1.0259778 0.80558896 0.6974684 0.72734815

bias f4 [16]
000000 5a 3f 3c 3e 1d b6 b1 be 09 05 37 be 15 ca cc be
       0.18383542 -0.34709254 -0.17873015 -0.39997926
000010 48 71 8a be 9d 91 6b be 75 5f 06 be 09 f8 d4 bd
       -0.27039552 -0.23004766 -0.13122351 -0.103988715
000020 c0 aa d1 bd f2 e0 bd bd ca 6f 53 be 16 7e 52 be
       -0.10237646 -0.092714205 -0.20648113 -0.2055591
000030 33 a8 d6 bd 33 28 d4 bd 22 02 87 be bf 0a cf bd
       -0.104813 -0.1035923 -0.26368815 -0.101094715

running_mean f4 [16]
000000 11 00 a4 bc 7d 1f a2 be e8 a2 fb be 21 3e 2d bf
       -0.020019563 -0.3166465 -0.49147725 -0.67672926
000010 d2 ac e1 3e 65 35 2e 3d f8 6a 8b 3d a8 d7 fa 3f
       0.44077164 0.04253139 0.06807512 1.9597063
000020 13 b4 09 3f 36 98 92 be e5 ce 38 be 04 a0 33 bc
       0.53790396 -0.28631753 -0.18047674 -0.010963444
000030 0f a1 18 bd d6 6e 81 bf ac f9 71 bf ee bb 7b bf
       -0.037262972 -1.011195 -0.94521594 -0.9833363

running_var f4 [16]
000000 69 ae 52 3d 92 d9 65 3e f1 c7 52 3f 81 5f 09 40
       0.05143586 0.22446278 0.82336336 2.146454
000010 1f 3f 8c 3f 3c df a4 3e 58 d1 0a 3d 39 c6 e6 3f
       1.0956763 0.32201564 0.033891052 1.8029243
000020 89 8a 4b 40 5b 04 96 3e 28 7c c4 3e 33 d4 3b 3e
       3.1803305 0.29300198 0.38375974 0.18342666
000030 f5 92 c0 3d 40 c6 81 3f 97 32 fc 3f 08 b4 db 3f
       0.0940303 1.0138626 1.9702939 1.7164316

weight f4 [32, 16, 3, 3]
000000 37 e8 fb bb 06 4a 49 bd 0f 6b a1 3c c8 8a 7e 3e
       -0.0076875943 -0.04914286 0.01970437 0.24857628
000010 ad b3 27 be 70 60 a9 3d 8f 62 58 3e a8 2b d4 be
       -0.16377135 0.08270347 0.21131347 -0.41439557
000020 c0 44 d7 bd 80 a5 8e 3e 58 ae eb bd 04 d8 5a 3e
       -0.1051116 0.2786064 -0.11507863 0.21371466
000030 a4 3c a0 3e 38 ad 21 3d 0c 64 3f bd ab 15 ee bd
       0.31296265 0.039471835 -0.04672627 -0.116252266
000040 00 bc 07 3d 80 89 57 bd b5 87 ee bd b5 82 6c 3e
       0.033138275 -0.052621365 -0.11646978 0.23096736
000050 f3 9b 0c be 99 d5 2b be a5 81 1e be d0 38 c9 bd
       -0.13731365 -0.167807 -0.15479143 -0.09825289
000060 94 8a 60 3e f9 c3 8d be 37 e6 00 bc a8 4c c3 3d
       0.21927863 -0.27688578 -0.0078673875 0.095361054
000070 20 31 95 bd 10 c9 9c bd a8 19 bc bd 77 15 3f 3d
       -0.072847605 -0.07655537 -0.09184581 0.04665133
000080 4f 17 b1 bd 00 83 0a bd 2a da 70 bb b5 04 53 3c
       -0.08647024 -0.033816338 -0.003675113 0.01287954
000090 b0 d9 4e bd 6e 5e 88 bd 09 54 de 3d 08 6d e6 bd
       -0.05050057 -0.06658636 0.10855872 -0.11251265
0000a0 ed 29 12 3d c0 86 32 be 93 28 15 be 20 53 a0 bd
       0.035684515 -0.17434216 -0.14566259 -0.07828355
0000b0 d0 ef b6 3d a6 ec e6 bd 28 a8 a0 bd c4 10 81 bd
       0.08932459 -0.11275606 -0.07844573 -0.06302026
0000c0 c5 cd 14 be 70 e8 58 bd fd 7e 14 be b3 8f aa bd
       -0.1453162 -0.052956045 -0.14501567 -0.0832819
0000d0 f4 ce 33 3d 1c af 01 be 5d 60 42 be 65 16 a2 bd
       0.043898538 -0.12664455 -0.18982072 -0.07914428
0000e0 02 39 14 bc 33 3c 06 3d 6f 09 37 be ee de 82 bd
       -0.009046795 0.032772254 -0.17874692 -0.06390177
0000f0 26 a5 82 3d 8b 0a 4a 3d df 40 91 3d 25 4c 86 3d
       0.06379156 0.04932646 0.07092451 0.06557492
000100 81 7b c6 bd c2 e5 c9 3d c0 c6 fa bd 4f cf 97 3d
       -0.09691525 0.09858276 -0.1224494 0.07412588
000110 ed 0c 86 3d 38 e6 92 be 54 4c 7c be 98 66 a4 3d
       0.06545434 -0.28691268 -0.24638492 0.08027381
000120 eb 8b 9e bd 85 85 7e 3d d8 19 9d 3e 47 7c 84 bd
       -0.07741531 0.062139053 0.3068378 -0.064690165
000130 00 93 8d bb 5d f3 8e be 3e ca 87 bc 9b 22 9c be
       -0.0043205023 -0.27920046 -0.016575929 -0.30495152
000140 8e 3d ef bd 0a ee 31 3e 38 0f d0 3d 0f 9d 23 bd
       -0.116816625 0.17375961 0.10159153 -0.039944705
000150 fc 0d 4f be 84 e9 88 3c 22 85 8c 3e d4 56 fd bd
       -0.20220178 0.016712911 0.27445322 -0.12370077
000160 8f 6c b7 3d ae fb 2c 3d f2 3e 5a 3d 95 86 3d 3e
       0.08956253 0.042232208 0.053282686 0.1850837
000170 2a 17 f8 bd 50 00 99 bd 52 ef 53 be 84 48 b3 3d
       -0.12113793 -0.07470763 -0.20696762 0.08754066
000180 e1 b9 d7 be 35 c2 99 be 01 24 24 be 16 14 41 3e
       -0.42134002 -0.3003098 -0.1602936 0.18855318
000190 20 bf 7d bd f5 ab bc 3d c5 fc 0d 3e 07 cb 3c 3c
       -0.06194985 0.09212486 0.13865955 0.011523015
0001a0 06 3c 79 bc 0d 0f f9 3d 91 0f 2b be 5d 01 34 be
       -0.015212065 0.12161074 -0.16705157 -0.17578645
0001b0 ee d5 15 be c9 67 31 3e e0 50 b6 3d c8 21 39 bb
       -0.14632389 0.17324747 0.089021444 -0.0028248895
0001c0 ad 4d bd bd 0b 01 f5 be 71 74 82 be 15 05 8e bc
       -0.09243331 -0.47852358 -0.25479463 -0.017336408
0001d0 dc 22 8f 3d 62 c8 97 bc cc c5 a1 bd fd ed b5 be
       0.06989071 -0.018528167 -0.07899055 -0.35533133
0001e0 5e 12 67 be 2b 86 c3 bc 5a 7d 49 3e 5b c7 49 be
       -0.225656 -0.023867687 0.19676724 -0.19704954
0001f0 c9 8e 09 3d c3 97 12 be 60 47 32 3e 52 6f 9c 3b
       0.033583436 -0.14315705 0.1741004 0.0047740126
000200 5d 19 e2 bd 6e d8 3e bd bb 6d ed bd cc d0 b2 3d
       -0.11039994 -0.046593122 -0.11593195 0.08731231
000210 52 cc 40 be 6a bd 19 bc 6a 0f 81 3d c8 34 33 be
       -0.18827942 -0.009383539 0.06301768 -0.17500603
000220 d2 e3 57 be 3f 1a ed 3d d0 39 9b bd 87 64 11 be
       -0.21083 0.11577272 -0.07579386 -0.14198504
000230 c7 c5 d3 3d c0 15 f2 3c 4e 94 9e 3d d6 58 86 3d
       0.103404574 0.029551387 0.077431306 0.06559913
000240 f3 28 45 bd c9 8c 07 3e cb 28 05 be b9 f2 03 3e
       -0.048134755 0.13237299 -0.13003843 0.1288556
000250 73 a0 7a 3e c0 50 e4 3b 5d 1b b6 bd b1 9e 98 be
       0.24475269 0.006967634 -0.08891938 -0.29808572
000260 85 4c 86 be 28 e0 93 3d bc 26 b6 bd bf 2d ea 3d
       -0.26230255 0.07220489 -0.08894107 0.114345066
000270 a2 ab 61 bd 87 29 d2 bc 79 94 74 3d 95 44 10 be
       -0.055095322 -0.025654567 0.059711907 -0.14088662
000280 61 9c d0 ba 0a d4 cc bc b5 1a cf 3d 56 6c 99 bc
       -0.0015915745 -0.025003452 0.10112516 -0.018728416
000290 cc c8 61 3d 4e 92 91 3d 95 14 b4 3d 32 0c 24 be
       0.055123135 0.071079835 0.08792988 -0.16020277
0002a0 c4 4e 8a bd 00 f2 fc 3d 4f ff 1e be dd f1 f6 bc
       -0.067533046 0.12350845 -0.1552708 -0.030144626
0002b0 d5 e3 50 3d f4 fe ea 3d 2b 47 4c bd fc f8 40 bd
       0.050998528 0.1147441 -0.04987256 -0.04711245
0002c0 b0 68 ad 3d 10 6c 3d bd 25 41 54 bd 27 fe fc bb
       0.08467233 -0.046245635 -0.05181994 -0.007720727
0002d0 0d 60 57 bd ee 22 aa bd c9 d8 21 3c ab 6d c7 ba
       -0.052581836 -0.083074436 0.009878346 -0.0015215179
0002e0 10 cf 2e be e4 82 d6 bd 20 a6 5e 3e b7 8c df 3d
       -0.17071176 -0.10474184 0.21743059 0.10915511
0002f0 b7 de 4c bd 02 79 ef 3d f9 20 17 3d d6 d9 d4 3d
       -0.050017085 0.11693002 0.03689668 0.103931114
000300 12 63 2e be 61 53 1b bd 77 01 78 3d e1 4f 72 3d
       -0.1702998 -0.037921313 0.060548272 0.05915821
000310 d8 54 57 3d 2f 23 50 bc 3c 90 1c be 66 32 c6 3d
       0.052571148 -0.012703701 -0.15289396 0.096775815
000320 48 27 2e 3d 88 3c 15 be b5 ee 0e 3e 83 db db 3d
       0.04251793 -0.14573872 0.13958247 0.10735228
000330 18 e8 0e be fa ee 2d 3e 90 f3 56 bd b9 13 a7 3d
       -0.13955724 0.16985694 -0.052478373 0.08158059
000340 ed 72 cd bd 69 71 e5 3d a6 b9 99 bd 10 b1 1a bd
       -0.10031686 0.11203272 -0.07506113 -0.037766516
000350 d7 36 0f be 82 93 43 3d 24 c7 07 3d c6 3e 24 be
       -0.13985763 0.047748096 0.0331489 -0.16039571
000360 f1 e9 58 3d dc ba 85 bd 9e df 13 bd 46 b7 bb bd
       0.05295748 -0.06529781 -0.03610193 -0.09165816
000370 84 27 c7 3d 71 2e d7 3d 60 4e 65 bd 8e e1 c0 3c
       0.09724334 0.10506905 -0.055982947 0.023545053
000380 24 71 b8 bd 7a c1 3c 3d 3b a8 21 3d 29 0d 28 3e
       -0.09005955 0.04608295 0.039467078 0.1641127
000390 11 2e 3a 3e 8b db 1f 3e 19 f9 86 be 3b 7d 68 3d
       0.18181635 0.15611093 -0.2636192 0.056760054
0003a0 ad 40 15 be f1 a8 4b be 43 f9 88 3d 0a 82 41 3d
       -0.14575453 -0.19888665 0.06688168 0.047243156
0003b0 a5 b6 05 bd b7 6b 1e 3e 94 1a 25 3d ca fd 24 be
       -0.032644887 0.15470777 0.04030855 -0.16112438
0003c0 d3 7a 28 3e 01 73 4d bd 23 ad 0d be 60 c2 bd bd
       0.16453104 -0.050158504 -0.13835578 -0.0926559
0003d0 b0 10 08 3d a9 14 91 3d df 5f e0 3d b8 21 ff 3d
       0.03321904 0.07084019 0.10955786 0.12457603
0003e0 e1 be 5f be dd ec 14 3d a7 d4 ae bc 90 2d 37 be
       -0.21850158 0.036358703 -0.021341635 -0.17888474
0003f0 19 c4 ef bc 1e f8 92 3d 57 83 6a 3a b4 fe 07 3d
       -0.029268311 0.07176231 0.0008945963 0.03320189

weight f4 [32]
000000 0f 87 45 3f 31 68 6d 3f 16 d2 47 3f 3f f7 6d 3f
       0.7715921 0.9273711 0.7805494 0.9295539
000010 d4 f5 44 3f da 6e 4b 3f c7 89 4d 3f 1d f7 6a 3f
       0.76937604 0.7946602 0.80288357 0.91783315
000020 bc 84 4c 3f 50 0e 53 3f 85 f9 50 3f a9 48 41 3f
       0.79890037 0.82443714 0.81630737 0.75501496
000030 72 86 3d 3f 75 e4 50 3f 34 89 70 3f 55 fc 62 3f
       0.7403327 0.815986 0.93959355 0.8866628
000040 d2 9b 68 3f 75 54 46 3f e5 4c 51 3f e6 36 83 3f
       0.9086276 0.7747262 0.81757957 1.0251129
000050 56 fb 40 3f 67 8c 75 3f 79 95 62 3f 03 29 7d 3f
       0.7538351 0.9591736 0.8850933 0.98890704
000060 02 6f 4c 3f 53 d8 4c 3f e4 94 55 3f 01 78 43 3f
       0.79856884 0.80017585 0.83430314 0.76354986
000070 5b fa 55 3f b0 11 5f 3f 6c 0d 4b 3f 26 cf 5a 3f
       0.8358514 0.87136364 0.79317355 0.85472333

bias f4 [32]
000000 65 c1 6b bd 39 20 87 be 4b f0 84 3d 1d c8 70 be
       -0.057557482 -0.2639177 0.06491145 -0.23513837
000010 50 39 99 be 49 9f 93 be fc 90 82 be 9d 2a 05 be
       -0.29926538 -0.28832462 -0.2550124 -0.13004537
000020 02 4c 80 be b5 5a 4f be 9c 7f 20 be 00 ba b5 be
       -0.2505799 -0.20249446 -0.15673679 -0.3549347
000030 68 9c 27 bc ee 36 6b be c8 73 db bd 4e 93 2d be
       -0.010230161 -0.22970173 -0.10715443 -0.16950724
000040 b5 76 6e be 0e 8e 22 be 1e 75 4e be c6 eb d7 bd
       -0.2328747 -0.15874502 -0.20161864 -0.10543017
000050 71 1e b6 be 70 29 1e be ff 5a 6f be 13 a6 50 be
       -0.355701 -0.15445495 -0.23374556 -0.20375852
000060 52 4a 84 bd 94 bc 9f be c2 64 5c be 35 6d a7 be
       -0.06459488 -0.3119856 -0.21522811 -0.32700506
000070 7e eb 4b be b4 21 48 bd cc ab 42 be 57 04 8b be
       -0.19914052 -0.048860267 -0.19010848 -0.2715175

running_mean f4 [32]
000000 a2 37 a9 bf 47 67 81 bd ee 9c 5c bf 9d e3 2f bd
       -1.3220103 -0.06318527 -0.86176956 -0.04294168
000010 c1 09 13 3e b4 c3 05 bf e4 68 bf 3e bf 1f c3 bd
       0.1435919 -0.52251744 0.37384713 -0.095275395
000020 e5 a5 24 bd c9 5c 04 bf a4 8b 37 3e 52 37 08 bf
       -0.04019727 -0.5170408 0.17924362 -0.5320941
000030 5c 9b 1e bf c2 79 13 bc 42 bc c9 3d c4 67 03 3f
       -0.6195581 -0.009001197 0.098503605 0.5133021
000040 b0 f6 a6 bf 9e 12 73 be ca 02 1b 3d 5b ed 2b bf
       -1.3044033 -0.2373757 0.037844457 -0.6715905
000050 40 b0 6d be 04 62 7a bf 0a a5 67 3d bd 3a ee bf
       -0.23211765 -0.9780581 0.056553878 -1.8611676
000060 95 42 67 bf c1 13 27 bf ed 38 74 bf fd b4 b2 3e
       -0.9033597 -0.6526452 -0.9539936 0.34903708
000070 74 62 ad bd 83 a2 72 bf 52 cd 8d bf af 8e bb 3f
       -0.08466044 -0.94779223 -1.1078284 1.4652919

running_var f4 [32]
000000 b8 f1 1c 3f de c8 61 3e 72 e1 7d 3f b0 ed 86 3e
       0.61306334 0.22049281 0.9917213 0.26353216
000010 92 24 d0 3e c3 98 92 3f dc 5e 8c 3f 5e a8 c6 3f
       0.406529 1.1452869 1.0966449 1.5520132
000020 39 49 a6 3e a7 e8 05 3f 69 25 e7 3e 44 de ab 3f
       0.3247774 0.52308124 0.4514573 1.3427205
000030 a7 58 18 3f ab 9a 0a 3f ae 8b aa 3f 39 87 56 3f
       0.5951027 0.54142255 1.3323877 0.83800083
000040 dd 7a e2 3f f9 9a 7f 3e 8e 6b 90 3e c1 37 87 3f
       1.7693745 0.24961461 0.28207058 1.056389
000050 2a e0 65 3f 2d dc 00 40 eb 24 fc 3d 40 54 19 40
       0.8979517 2.0134385 0.12311729 2.3957672
000060 c3 94 4f 3f 5c af 1a 3f f9 8a b0 3f c8 73 8b 3f
       0.8108637 0.6042383 1.3792411 1.0894709
000070 ae f6 79 3f 4b 35 97 3f 4c ff 69 3f 8d ab 8f 3f
       0.9764203 1.1813139 0.9140518 1.1224228

weight f4 [64, 32, 3, 3]
000000 8d 27 99 3e b4 ae 21 be 63 29 39 bc fd bd 66 3e
       0.29912987 -0.157893 -0.011301371 0.22533412
000010 ac 19 92 3e 93 b1 48 bd 3d d9 1b bd 5f 4a 05 be
       0.2853521 -0.048997473 -0.03804897 -0.13016652
000020 04 64 1e be dc d6 00 3d 40 f8 31 3e 69 a2 25 3e
       -0.1546784 0.031454906 0.17379856 0.16175236
000030 98 b2 bc be 29 5c c8 be c3 11 33 be d2 da a2 3d
       -0.36855006 -0.39132813 -0.17487244 0.07951893
000040 01 1d 09 3d 34 eb d6 3d 7c 02 9c be 22 11 9d 3d
       0.033474926 0.1049408 -0.30470645 0.076692834
000050 f4 38 76 3d ee 84 ab be 78 12 4f be a2 b9 38 be
       0.06011291 -0.33499855 -0.20221889 -0.18039563
000060 6b 6d 68 bd 7c a5 c8 3e 00 c1 92 be 9e 3b b8 bb
       -0.056744974 0.39188755 -0.28662872 -0.0056223413
000070 98 8f 9e bd 32 ae 05 bf 3d 65 f5 bd 83 93 5f be
       -0.07742232 -0.52218926 -0.119822 -0.21833615
000080 7a d5 35 3e e0 49 d3 bd 47 96 d2 bd 57 58 14 3e
       0.17757216 -0.10316825 -0.102825694 0.14486824
000090 2c ec be bd 83 a2 2f 3d 42 cb c5 3d 3f d8 9a bd
       -0.0932239 0.042879593 0.09657909 -0.07560777
0000a0 0e a2 ff bd d7 af bc 3d 46 95 55 be bb cd 96 be
       -0.12482081 0.09213226 -0.20857725 -0.29453835
0000b0 9e bd c8 bc 8c 41 2b 3e f2 87 64 3d ce 1c 65 be
       -0.024504479 0.16724223 0.05579371 -0.2237427
0000c0 6c b0 86 3d cf 0f 1c bd ba ad 08 3e f0 2f 16 3e
       0.065766186 -0.038101014 0.13347521 0.14666724
0000d0 3b 77 4f be d3 a1 14 3e a9 25 cc be 1f 03 4d be
       -0.20260327 0.14514856 -0.39872482 -0.20020722
0000e0 30 07 0c 3e 55 f2 93 bd e1 d0 db bd b5 c9 6f 3e
       0.13674617 -0.072239555 -0.107332 0.23416789
0000f0 e0 cd 82 bd dc df 82 3d a6 a1 76 bd 25 a4 21 3d
       -0.06386924 0.06390354 -0.060212754 0.03946318
000100 7b 33 6c bd 90 c1 c1 ba 8b 4b 2f be b0 38 3e bc
       -0.057666283 -0.0014782418 -0.17118661 -0.011610195
000110 2e 00 70 be 23 70 7e 3e 89 29 79 3c 3d 4e 47 bd
       -0.23437569 0.24847464 0.015207657 -0.0486586
000120 81 7d 4b bd cf e5 27 bd 67 7f 56 3e f2 a4 22 3d
       -0.049680237 -0.040990647 0.20947038 0.039708085
000130 6a e7 81 bd 42 e3 5c be 3d c4 3f 3e 89 b0 04 3e
       -0.06342967 -0.21571067 0.18727203 0.12957968
000140 c6 a9 46 be b2 06 e5 bb 42 62 6d bc 9a 5f f6 3d
       -0.19400701 -0.0069893235 -0.0144887585 0.12029953
000150 97 1f 93 be 4d ad b2 bc 69 c4 90 bd 4e 28 22 3e
       -0.2873504 -0.021811152 -0.07068712 0.15835688
000160 e9 9d a9 3d 9b 7e dc bd 6c 68 c2 3d e0 e2 13 3c
       0.08282072 -0.107663356 0.09492573 0.009026259
000170 d2 95 f2 bd 6e c1 09 3e c5 5b 6d bd 29 84 c0 3d
       -0.11844982 0.13452694 -0.057948846 0.094002075
000180 5e 86 95 bd b2 17 c4 3d 00 3e a8 3e c7 fc 82 be
       -0.07301019 0.09574832 0.32859802 -0.2558348
000190 3d b0 24 be 1a 7c 99 be 7f c1 0f 3e b8 47 1e 3e
       -0.16082855 -0.29977494 0.14038657 0.15457046
0001a0 9b cc 88 3d 16 5f 59 3d fc f0 2e bd cd 89 23 bd
       0.066796504 0.053069197 -0.04271029 -0.03992634
0001b0 39 9b 57 bd 6e 1b 22 3e 6c 7a 03 3e fe 63 3e 3e
       -0.052638266 0.15830776 0.12839669 0.18592831
0001c0 f0 16 ca bd 11 4d b0 bc 04 02 a4 bd fa 33 87 3e
       -0.09867656 -0.021521123 -0.08008197 0.26406842
0001d0 e8 c3 0a bc ac ee 04 be ce 8c 33 3e 7d c5 34 3a
       -0.008469559 -0.12981671 0.17534181 0.0006895883
0001e0 d8 92 08 be 62 64 08 be 2b a8 84 3c 56 5f 37 3e
       -0.13337266 -0.13319543 0.01619347 0.17907462
0001f0 03 a6 eb 3d a2 a1 38 be 54 9e 5c be e3 77 e4 3d
       0.115062736 -0.18030408 -0.21544772 0.11155679
000200 26 fb 08 3d 29 79 ac be dd 4b d8 3d 8e 8f 4c 3e
       0.03344264 -0.33686188 0.10561345 0.19976637
000210 0e 7c 68 3e 24 c4 a5 3d 7e f4 8a 3d 9a 82 df 3d
       0.22703573 0.080940515 0.067849144 0.10913582
000220 01 59 b1 be 47 ef f0 bb 79 08 ec 3c d1 f5 f2 bd
       -0.34638217 -0.007352743 0.028812634 -0.11863292
000230 93 15 b4 3d c5 70 53 3d 03 18 2b be ed 4c 71 bd
       0.087931775 0.051621217 -0.16708378 -0.058911253
000240 3a b2 d7 bd 37 27 0c 3e 2f e7 03 bb b6 69 c1 be
       -0.10532041 0.13686834 -0.002012681 -0.37775964
000250 dc d8 2d 3e 1d 8d 6a be fa 8f d0 be 60 30 0a bd
       0.16977257 -0.22905393 -0.40734845 -0.03373754
000260 7a a5 2c 3e 21 47 8b bd da c6 ef 3d 72 09 54 bd
       0.1686 -0.06800676 0.1170785 -0.05176682
000270 d7 d0 40 3e 93 c2 0b 3d e3 02 b4 3d e4 16 3d 3e
       0.18829666 0.034121107 0.08789613 0.18465763
000280 25 fc 18 3d da e9 2d 3e b7 d2 62 be d6 85 6a 3d
       0.03734984 0.16983739 -0.22150694 0.057256542
000290 b0 bd 6c 3e 7b ea a0 3d 83 f6 53 be 49 cc 0b 3d
       0.23119235 0.078572236 -0.20699506 0.03413037
0002a0 b6 89 b1 bd 1d a3 80 be 25 36 64 3c b6 95 b6 be
       -0.086688444 -0.25124446 0.013928925 -0.35661095
0002b0 f6 5a 36 be 11 e7 0e bd d4 97 3d 3e 1a 91 30 3e
       -0.17808136 -0.03488833 0.18514949 0.17242852
0002c0 ae fc 13 3e 28 23 47 be b1 f4 89 3e fb bc 89 be
       0.14451858 -0.19447005 0.26944497 -0.26901993
0002d0 fe 11 07 be 81 52 79 3d 7d d2 f9 3c 8d 2d 48 bd
       -0.13190457 0.060869697 0.030495876 -0.048871566
0002e0 70 2a 12 be c0 91 0c be 6e f3 e8 ba 58 29 08 be
       -0.14274001 -0.13727474 -0.0017772743 -0.13297021
0002f0 dd e4 e2 3d 7a 8e e7 3d a7 43 a0 3d 79 b5 8f be
       0.110788085 0.11306472 0.07825404 -0.2806814
000300 5f f0 e6 bc af 63 6e 3e 13 64 45 bd ff 1d 4c be
       -0.02819079 0.23280214 -0.04819114 -0.19933318
000310 12 54 f6 bd 9b 12 1a 3d 77 92 59 3e f9 db ce 3d
       -0.12027754 0.0376154 0.21247278 0.1010055
000320 20 4d 24 bd 0b b6 f0 3d 90 31 84 be 3d 84 af bc
       -0.040112615 0.11753472 -0.25819063 -0.02142536
000330 d5 d1 7c 3d 8f 5f 75 3e c5 e1 42 be 58 5c 14 be
       0.06172355 0.23962234 -0.19031437 -0.14488351
000340 2c 57 40 3e 88 bd 23 3e 82 d1 c3 be 72 a8 95 bd
       0.18783253 0.15990269 -0.3824578 -0.07307519
000350 7e 12 47 3e 4e ed c6 bd 81 2d 65 3e de 8c e0 bd
       0.19440648 -0.09713231 0.2238064 -0.10964368
000360 55 28 31 be e2 7b 70 bd a7 95 43 be 7e 3e 4b be
       -0.17300542 -0.058711894 -0.19100057 -0.19848058
000370 0d 0c 7a 3e 4d ba 1d 3e 19 90 aa 3c c4 b6 83 3e
       0.2441866 0.154031 0.020820664 0.25725377
000380 ec 52 2b 3d 7b ff b1 bd 49 71 3d 3e 99 5e 32 bd
       0.041827127 -0.08691307 0.18500246 -0.043547247
000390 1a 12 6e be 9f af d5 bd ec 6b 23 3e 90 ce 5c 3d
       -0.23249093 -0.10433888 0.15959138 0.05390793
0003a0 e5 78 90 be 46 3d ea 3e 54 64 5e be 7e b5 10 3d
       -0.28217235 0.45749873 -0.2171796 0.035329334
0003b0 e4 04 c2 3e 9a 21 b0 be d0 8e 81 3e 03 36 96 3d
       0.37894356 -0.34400636 0.2530427 0.07334521
0003c0 b7 ea 61 be bf 70 1d 3d 79 94 af 3d 7a 42 a3 be
       -0.22062193 0.0384376 0.08573241 -0.31886655
0003d0 9b 5f 75 bd bf 44 70 be 33 4c b8 bd 9d 75 bc 3c
       -0.05990563 -0.23463725 -0.08998909 0.023005301
0003e0 38 01 8f bd 05 f1 83 be 96 06 2a bd 4c 7b 49 3e
       -0.06982654 -0.2576982 -0.041510187 0.1967594
0003f0 e5 ef 97 3c 8d a6 3d 3e 48 87 02 be 26 1e e0 bc
       0.018547008 0.18520565 -0.12746918 -0.027358126

weight f4 [64]
000000 ae e5 7a 3f 33 46 7f 3f 3f 30 88 3f d5 48 5d 3f
       0.98006713 0.9971649 1.0639724 0.8643926
000010 ab 2c 81 3f 2b 8b 73 3f b3 4a 78 3f d1 34 7b 3f
       1.0091757 0.9513423 0.9698898 0.98127466
000020 4b 09 73 3f 93 64 8d 3f 92 ac 71 3f 4b 4b 81 3f
       0.94936055 1.1046318 0.94403946 1.0101103
000030 cc b4 7d 3f 6e ec 7a 3f 84 32 52 3f ed 55 66 3f
       0.99104 0.98017013 0.8210833 0.8997486
000040 c6 b7 74 3f 2d 59 69 3f cc b3 7a 3f e5 4a 7e 3f
       0.95592916 0.91151696 0.979306 0.9933303
000050 0b 4a 71 3f 7a ed 88 3f 81 0e 97 3f a7 27 5b 3f
       0.94253606 1.0697472 1.1801301 0.8560738
000060 8f c0 7f 3f ca 43 80 3f de 1b 65 3f 4f f5 93 3f
       0.99903196 1.0020688 0.89495647 1.1559237
000070 02 8d 73 3f 45 3c 7d 3f 56 5f 6d 3f 6b 67 86 3f
       0.95137036 0.9892009 0.92723596 1.0500311
000080 1f 75 79 3f 84 fe 7e 3f 80 92 6c 3f 8e c2 5d 3f
       0.9744434 0.9960711 0.9241104 0.8662499
000090 8e 54 80 3f 43 1b 89 3f b6 82 8a 3f 20 98 6d 3f
       1.0025804 1.0711445 1.082114 0.9281025
0000a0 33 32 69 3f 67 e7 89 3f 24 bf 71 3f a3 94 9b 3f
       0.9109222 1.0773743 0.9443228 1.2154735
0000b0 2d 43 79 3f b0 77 7e 3f 89 8c 8d 3f ce af 8d 3f
       0.9736813 0.9940138 1.1058513 1.1069276
0000c0 47 30 82 3f 59 40 81 3f 33 bc 62 3f 15 11 77 3f
       1.0170983 1.0097762 0.8856842 0.9651044
0000d0 e5 03 61 3f a5 d4 82 3f 1b 69 66 3f 24 a4 81 3f
       0.8789657 1.0221144 0.9000413 1.0128217
0000e0 69 18 87 3f c1 76 93 3f 3d f5 72 3f b9 36 70 3f
       1.0554324 1.1520616 0.94905454 0.938335
0000f0 13 47 7b 3f 6a 99 8c 3f 43 10 79 3f 47 93 8c 3f
       0.98155326 1.0984318 0.9729044 1.0982445

bias f4 [64]
000000 80 48 86 be a9 15 88 be d5 de 01 be a2 1b a1 be
       -0.26227188 -0.26579025 -0.1268266 -0.31466395
000010 87 3f 04 be d7 be 46 be 52 c5 22 be 73 e1 a8 be
       -0.12914859 -0.19408737 -0.15895584 -0.32984504
000020 ea 89 0a bf da 17 a6 bd ae eb b0 be 7b ea 09 be
       -0.5411669 -0.08110018 -0.3455481 -0.13468353
000030 cf 38 0c be 8e 05 b3 be 76 b3 56 be b2 ad 53 be
       -0.13693546 -0.34965175 -0.20966896 -0.20671728
000040 96 63 7a be 28 b3 85 be a9 a0 ab be 93 86 3c be
       -0.24452052 -0.26113248 -0.3352101 -0.18410711
000050 95 b7 bd be 0a e3 09 bd f3 4c bf 3c 7e 4e de be
       -0.37054124 -0.033663787 0.023352122 -0.4341926
000060 75 83 ae be d6 fe 66 be 5b c7 f2 be 19 9f 9a bb
       -0.3408467 -0.2255815 -0.4741772 -0.004718673
000070 99 e3 1a be 25 09 be be dd 52 f1 bd e1 21 a0 be
       -0.15125884 -0.37116352 -0.11783383 -0.31275848
000080 9c 29 53 be 03 df 29 be 3f ce 8d be af 57 d3 be
       -0.20621341 -0.16588978 -0.27696416 -0.41277835
000090 7e 6a 6c be 60 97 20 be 07 1d 51 be a8 05 d8 be
       -0.23087499 -0.15682745 -0.2042123 -0.42191815
0000a0 91 b5 d4 be 73 de 58 be 04 fa 74 be 01 d0 36 be
       -0.41544774 -0.21178608 -0.23923498 -0.17852785
0000b0 ed 69 7a bd a8 23 88 be 01 3f cd 3c 86 3a 02 bd
       -0.061136175 -0.26589704 0.025054457 -0.031794094
0000c0 94 9f 17 be 91 e5 32 be e8 0e 68 be c0 98 5e be
       -0.14806968 -0.17470385 -0.22661936 -0.21737957
0000d0 a4 5d 89 be 32 a5 d5 be cf 19 62 be 33 ca 0a bf
       -0.26829255 -0.41727597 -0.22080158 -0.5421478
0000e0 21 2c e4 bd 08 13 39 be cb 35 bf be ae 7b a6 be
       -0.111412294 -0.18073666 -0.37345728 -0.32516235
0000f0 1a 68 89 be d8 42 7a bd 8d a8 82 be fd 4d 35 be
       -0.26837236 -0.061098903 -0.2551922 -0.17705531

running_mean f4 [64]
000000 4a 94 94 bf 0a 00 b7 3f ce aa 39 bf 41 bf 1e 3d
       -1.1607754 1.4296887 -0.7252625 0.038756613
000010 3a ee 64 3f d2 f6 9e bf f6 d5 a6 bf a1 0d 2d bf
       0.89426005 -1.2419074 -1.3034046 -0.6759892
000020 50 c3 7c be 22 ae ba be e5 62 57 be 70 76 31 3f
       -0.24683881 -0.36460978 -0.21033819 0.69321346
000030 c7 cf 07 bf a3 a2 6d 3d d2 3a 63 bf be 04 e9 bf
       -0.5305142 0.05801643 -0.8876163 -1.8204572
000040 6f dd d8 bf aa 8b 45 3e 62 d3 d9 be 1a 55 b7 3f
       -1.6942576 0.19291559 -0.42544085 1.4322846
000050 77 2e 56 3d 3f ed f5 bf c3 c9 30 c0 3b a9 9c 3e
       0.052290406 -1.9213027 -2.7623146 0.30597863
000060 f1 dc 05 bf 6c c9 6f bf 03 21 de be 7a 17 0a c0
       -0.52290255 -0.9366672 -0.4338456 -2.157683
000070 4a d9 9a 3d b7 66 2c bf d4 1f 86 bf 88 aa 0d 3f
       0.07560976 -0.6734423 -1.0478463 0.55338335
000080 b6 fa 8f be 88 3c c6 be 14 bd dd be 5b 57 4c bf
       -0.28120965 -0.38718057 -0.43308318 -0.79820794
000090 87 6f 38 bf 91 40 f9 be c2 03 04 c0 8e 0f 81 3f
       -0.7204518 -0.48682073 -2.0627294 1.0082872
0000a0 42 f3 94 bd 41 1e 0c be 56 47 3a 3f 4b b7 01 c0
       -0.0727296 -0.13683416 0.727651 -2.0268123
0000b0 16 15 70 bf 04 55 bc bf 43 94 9e bf a8 f8 28 bf
       -0.93782175 -1.4713445 -1.2388996 -0.6600442
0000c0 65 0f aa bf 86 81 eb be 60 bb b2 bf 05 37 52 3f
       -1.3285948 -0.45997256 -1.3963432 0.82115203
0000d0 78 52 9a bf ab 60 b3 be d9 67 a4 bf 40 c3 b5 3e
       -1.2056417 -0.3503469 -1.2844192 0.35500526
0000e0 ce 57 ca bf 4f be 39 bf 89 31 a1 3e 88 18 06 bf
       -1.5808046 -0.7255601 0.31483105 -0.5238118
0000f0 de 95 33 bf 92 63 10 bf 82 73 9c bb be 49 4d bf
       -0.70150554 -0.5640193 -0.004774512 -0.80190647

running_var f4 [64]
000000 58 c2 62 3f 82 0c fb 3f 3d b3 c8 3f a4 70 65 3f
       0.88577795 1.9613192 1.5679699 0.89625
000010 04 61 f2 3f c8 35 a8 3f 8f 07 93 3f a1 bc dc 3e
       1.8935857 1.3141413 1.1486682 0.43112662
000020 c4 3a 07 3f 0d a4 18 40 e3 61 ef 3e a5 8f 91 3f
       0.52824044 2.3850129 0.4675437 1.1371962
000030 69 4e cf 3f f2 78 66 3f 30 9f 05 3f 4c bd ac 3f
       1.6195804 0.900283 0.52196026 1.3495269
000040 75 cd 62 3f 80 ec 5d 3f b6 57 8a 3f 58 ab b5 3f
       0.8859475 0.86688995 1.0808017 1.4192915
000050 e4 d5 40 3f 38 eb 11 40 c7 55 5c 40 a1 a4 5a 3f
       0.7532637 2.2799816 3.4427354 0.85407454
000060 28 06 54 3f 9d 6f 84 3f 95 44 0f 3f 11 56 08 40
       0.82821894 1.0346562 0.5596402 2.130253
000070 94 1d d1 3f 85 9c 48 3f 61 e6 16 3f dc bb 98 3f
       1.6337152 0.7836383 0.5894528 1.193233
000080 75 6c a9 3f 54 69 b6 3f 55 7e 9a 3f 25 f5 ac 3e
       1.3236223 1.4250894 1.2069803 0.3378078
000090 61 02 8a 3f 31 fd a7 3f 8b 08 92 3f 93 23 6e 3f
       1.0781976 1.3124143 1.1408857 0.9302303
0000a0 37 41 2c 3f 00 6f 80 3f 80 54 5b 3f 42 e8 b9 3f
       0.6728701 1.0033875 0.8567581 1.4524004
0000b0 46 f8 b8 3f 18 3e 35 3f e9 12 bc 3f 8e f1 cb 3f
       1.4450767 0.7079787 1.4693271 1.5933092
0000c0 4e 8f 05 40 f5 7f 80 3f 94 56 c9 3f 5c 6d 93 3f
       2.0868716 1.0039049 1.5729547 1.1517749
0000d0 20 47 57 3f d0 74 88 3f 70 d6 a5 3f 09 7d 74 3f
       0.84092903 1.0660648 1.2956066 0.9550329
0000e0 45 ea 89 3f 47 89 98 3f 73 be 1d 3f ec d3 31 3f
       1.0774618 1.1916894 0.6161873 0.6946399
0000f0 70 2c 38 3f 21 f5 d8 3f cd 09 a2 3f 78 4c 55 3f
       0.71942806 1.6949807 1.2659241 0.8331981

weight f4 [64, 32, 3, 3]
000000 8f 2f 63 3d d0 c0 2b bd 68 b2 b1 be 37 03 e8 3d
       0.055465277 -0.041931927 -0.34706426 0.11328738
000010 f3 fc c9 3c c9 2d 5c bd 76 80 80 3d e1 f0 2a be
       0.024656748 -0.0537546 0.06274502 -0.1669345
000020 0a 91 a5 3e 3e 73 c9 3c a8 59 2e 3e 3f 7d aa 3d
       0.3233722 0.024591085 0.17026389 0.0832467
000030 96 25 0f bd 5b 97 1f 3d 38 e1 9c 3d e9 a8 39 3d
       -0.034947954 0.038962703 0.076601446 0.0453271
000040 67 6a 1b be db 17 4a bd 42 f9 7f 3d 27 7e 1c be
       -0.15177308 -0.049339157 0.06249357 -0.15282498
000050 c5 96 32 3e 9a 30 5d 3d b7 a5 cd bd 62 c2 0a bd
       0.17440327 0.05400143 -0.10041373 -0.033876784
000060 c3 79 c2 bd 7b a2 2e 3e ee fe 90 3b 84 94 73 bc
       -0.094958805 0.17054169 0.0044249212 -0.014866952
000070 df e3 ef 3d c5 48 57 3e 87 6e a4 3d 71 90 01 be
       0.11713385 0.21023853 0.08028894 -0.12652756
000080 db 32 ab bb 2c 4e 11 be 80 79 92 bd 97 99 82 bd
       -0.0052245683 -0.14189976 -0.071520805 -0.06376951
000090 31 6e 61 3e 6d e6 57 be 95 11 c8 bc 49 d7 91 be
       0.22014691 -0.21083994 -0.024422446 -0.28484562
0000a0 c6 eb 50 3d d6 d5 29 bd b7 ee a2 3d 69 4f 1b 3e
       0.0510061 -0.041463695 0.079556875 0.15167011
0000b0 62 70 14 be c9 64 07 3e 55 30 8f 3e fa 7a 19 3c
       -0.14495996 0.1322204 0.27966562 0.009367699
0000c0 df e3 d7 be 23 4a 52 3d 08 7a 43 3e d4 41 8e bd
       -0.4216604 0.051340234 0.1908952 -0.069461495
0000d0 1e 36 48 be 42 d3 39 3e 2a 20 3c 3d a5 03 f3 bc
       -0.19551894 0.18146995 0.04592911 -0.029664824
0000e0 cf 78 c9 bd ee 4e 28 3c 05 37 c0 3d a9 fe a1 3e
       -0.098374955 0.010272725 0.09385494 0.31639603
0000f0 44 7b a9 3d 61 49 33 3e e9 5c fb bd 09 74 7b 3e
       0.08275464 0.1750846 -0.122735806 0.24555983
000100 e6 10 9c 3d b3 3c f4 bd 48 3c 20 be a9 a7 4b bd
       0.076204106 -0.1192564 -0.15647995 -0.04972044
000110 ea 53 a8 bd 6e 98 29 3e 36 77 bc 3d 50 e8 8e bc
       -0.0821913 0.16562054 0.09202425 -0.01744476
000120 36 1a 9a bd 74 08 d7 3c a1 d2 55 3e 75 25 07 3e
       -0.075245306 0.026249148 0.2088113 0.13197882
000130 d7 02 13 3d 70 ea f6 3c 6a 0f db 3b a4 11 19 be
       0.03589138 0.030141085 0.006685187 -0.14948136
000140 2d 8d 78 3c e7 d0 23 be bb 48 54 3e d7 7b 73 3e
       0.015170378 -0.15997659 0.2073087 0.2377771
000150 c1 c1 a1 bd ad b2 d1 bd 98 66 4b be bd 3b 28 bd
       -0.07898284 -0.10239158 -0.19863355 -0.041072596
000160 82 59 97 bd 39 b6 0c 3d df 22 1b be 33 bd 22 be
       -0.07390119 0.03435347 -0.15150021 -0.15892486
000170 18 7d 0c be c3 6a 10 be 20 b4 14 be 22 ce fd bc
       -0.13719594 -0.14103226 -0.14521837 -0.03098208
000180 c3 44 be 3d 28 56 66 3d bb 4b 50 3d 2a 80 f5 3d
       0.09290459 0.05623451 0.050853472 0.11987336
000190 aa fc c9 3d 7a a0 d9 3d bc 35 57 bc 22 0d b6 3e
       0.09862645 0.106263116 -0.01313537 0.35556895
0001a0 db 82 e6 3d 30 87 9b bd 14 34 c6 3d c2 47 f1 bd
       0.112554274 -0.07594144 0.09677902 -0.11781265
0001b0 0b 9a 16 bc 41 73 10 3e 2c e3 1c 3c 6a 6b 3b bd
       -0.009192 0.14106466 0.009575646 -0.045756735
0001c0 1e b1 c1 3d b7 13 b4 3d 7a e8 e8 bd 30 85 2c bd
       0.094576105 0.08792823 -0.113724664 -0.042119205
0001d0 fe 92 8a bd 15 67 0d 3e a5 e9 b5 bc e9 7e 8b bc
       -0.06766318 0.13808854 -0.022206137 -0.017028289
0001e0 43 9b 80 3d 07 04 17 be 8e a0 6f be 5e ac 1d be
       0.06279614 -0.1474763 -0.2340109 -0.15397784
0001f0 df 10 26 be 81 d2 d0 bd 21 47 d8 bd 60 3f da be
       -0.16217373 -0.101964004 -0.10560442 -0.42626476
000200 fd 66 4a be b8 2e 78 3e 7d f8 c4 3d 5d ec a6 3c
       -0.1976585 0.24236572 0.09617708 0.020376379
000210 38 e9 81 bd 12 fe 80 3d f3 a4 06 be 76 d7 17 be
       -0.06343311 0.0629846 -0.1314886 -0.14828286
000220 94 f7 05 3d f8 fc bc 3c e6 df c4 be 36 a2 06 3d
       0.032706812 0.023069844 -0.3845207 0.03286954
000230 96 e0 9d 3d 17 ef 62 3d 2c 50 ce 3d e5 9e 53 3e
       0.07708852 0.055403795 0.10073885 0.20666082
000240 7e bf 9f 3d 25 8a 31 3c 33 7c a2 bd bb 03 6c bd
       0.07800196 0.010836159 -0.07933845 -0.057620745
000250 e6 6a d9 3c c8 64 30 be 1a b0 1b 3d bb 78 af 3e
       0.026540231 -0.17225945 0.03800974 0.34271798
000260 bb c1 b4 3d 1c fc 53 3e aa 5e b6 3e f0 94 30 bd
       0.08826014 0.20701641 0.35619098 -0.043110788
000270 27 32 07 bb c9 71 e8 bd 89 dd ad 3c 32 01 1d be
       -0.0020629258 -0.11349828 0.0212238 -0.15332487
000280 3f f9 37 3e 01 fe 2b 3e d3 d8 d8 3c 48 32 81 3b
       0.17966174 0.16796114 0.026470577 0.0039427616
000290 f4 0e 5c be 75 e8 66 3e c0 c5 d6 3e e4 0c dc bd
       -0.21490079 0.22549613 0.41947746 -0.10744646
0002a0 60 f7 9e 3d 8c 8c f1 3e a5 cc 02 3c 67 a4 e7 bd
       0.07762027 0.4717754 0.007983361 -0.11310654
0002b0 d3 3e ae bd 68 4c 72 3e 74 99 02 3d 72 7d 23 3e
       -0.085080765 0.23661959 0.031884626 0.15965822
0002c0 59 29 82 3d b8 ef 76 bd fd b1 6a be 70 3c 28 3e
       0.06355543 -0.060287207 -0.2291946 0.16429305
0002d0 06 d7 51 bd ea ca ef bc 17 e0 9d be a0 9a 93 3e
       -0.051230453 -0.029271562 -0.3083503 0.28828907
0002e0 ce 7b 4c bc 26 d6 39 3e 50 83 12 3e 22 72 b1 bd
       -0.012480689 0.18148097 0.14307904 -0.08664347
0002f0 54 4a 1b 3e 44 2c 1f bd 4d c0 d5 3b 82 2d 2e 3b
       0.15165073 -0.038860574 0.006523168 0.0026577418
000300 11 fc 7e 3e 1c aa 84 3d 03 b3 0a 3e 8c 13 40 bc
       0.24900843 0.06477758 0.1354485 -0.01172341
000310 a4 d1 b1 3d 88 57 86 3d db 32 0b be 4b 3f 20 3d
       0.08682564 0.06559664 -0.13593619 0.03912286
000320 df 71 f2 bd 9c 70 cc 3d 19 73 63 bd bf 05 58 3d
       -0.118381254 0.09982416 -0.055529688 0.052739855
000330 ce ab 98 bd 06 eb 5b be 55 2b 15 bd bd dc 07 be
       -0.07454644 -0.21476373 -0.036418278 -0.13267799
000340 f1 cd 62 3e f2 3e 07 be 3a 9c 60 3e 92 08 33 3d
       0.22148873 -0.13207605 0.21934596 0.043709345
000350 ac 3c 68 3c 2e 50 01 be dd 6f 6d bd f8 77 bf 3d
       0.014174622 -0.12628242 -0.05796801 0.09349054
000360 50 ef c8 bc 42 23 8e 3d ec 06 85 bd c2 78 8a be
       -0.024528176 0.06940319 -0.06495461 -0.27045256
000370 64 9d 19 3d a5 1b 49 be 71 bb 43 3e ee fb 67 3d
       0.037503615 -0.19639452 0.19114472 0.056636743
000380 b3 e0 b5 3c 2d 1b 9d bd 09 2b 67 39 23 58 15 be
       0.022201871 -0.07671199 0.00022045909 -0.14584403
000390 01 81 5d 3d b8 fe 34 be 6c 07 32 bd 05 65 72 bd
       0.054078106 -0.17675292 -0.04346411 -0.05917837
0003a0 57 a7 15 be 06 bb ee bc 83 76 1d 3e f8 57 32 3d
       -0.14614616 -0.029141914 0.1537724 0.043540925
0003b0 48 ea 5a 3e 65 22 20 3d 3c d0 8b be c5 66 21 bc
       0.21378434 0.0390953 -0.27307308 -0.009851162
0003c0 6b 53 51 be ca 2d 8b 3d ff 14 06 be 72 06 21 3e
       -0.20441978 0.06795843 -0.13093947 0.15725115
0003d0 85 5a 79 bd 56 e7 9d bd 92 ba 9a be 66 98 76 bd
       -0.06087734 -0.077101395 -0.30220467 -0.060203932
0003e0 d7 43 21 3e 4f 4d bb bd 85 5f f4 3d 51 d9 05 be
       0.15748535 -0.09145605 0.119322814 -0.13071181
0003f0 70 22 1a ba 46 8a 48 3d 7c 5b 18 3e d2 80 b8 3d
       -0.00058797654 0.048959993 0.14878649 0.090089455

weight f4 [32]
000000 b7 d6 89 3f 12 7a 8f 3f b2 d5 b6 3f b2 ec 91 3f
       1.0768651 1.1209128 1.4283965 1.1400359
000010 aa 26 8e 3f 4d 0e 90 3f ea cf a2 3f a8 ff 98 3f
       1.1105549 1.1254364 1.27197 1.195302
000020 b6 ad 85 3f 73 66 a8 3f 5d dc b5 3f b5 f7 8c 3f
       1.0443637 1.3156265 1.4207875 1.1013094
000030 0d be 87 3f 13 7f 89 3f ad 52 a3 3f bf 3b be 3f
       1.0604874 1.0741905 1.2759606 1.4861983
000040 1b cc 8b 3f e9 6e 9f 3f 6e cb a3 3f 9b 5b b7 3f
       1.0921663 1.2455722 1.2796457 1.4324831
000050 26 90 83 3f 8a a4 9c 3f 17 bf 88 3f c9 09 86 3f
       1.0278366 1.2237713 1.0683316 1.0471736
000060 f2 b3 b5 3f 04 62 8c 3f 10 ed 88 3f b0 d0 bc 3f
       1.419554 1.0967412 1.0697346 1.4751186
000070 f3 f7 8a 3f 55 83 bd 3f 2e 31 83 3f 08 18 95 3f
       1.0856918 1.4805704 1.0249383 1.1647959

bias f4 [32]
000000 96 2a db be 17 7f 82 be 55 07 d5 3d 1d 21 82 be
       -0.42805928 -0.25487587 0.10401789 -0.25415888
000010 37 4e 70 be c3 e0 23 be d3 69 13 3d c8 24 45 be
       -0.23467337 -0.16003709 0.035989594 -0.19252312
000020 e8 62 9c be fb 5a 43 be 0d d1 8f 3e 42 e8 ec bd
       -0.3054421 -0.19077675 0.2808918 -0.11567737
000030 2e a8 89 be 0d db d3 be 7e 1e b0 be af b6 7b 3e
       -0.26886123 -0.4137806 -0.34398264 0.24581407
000040 4a 2d 1b be 56 db 9c be 36 25 52 bf 90 7e 88 bd
       -0.15153995 -0.3063609 -0.8208803 -0.06664765
000050 95 f8 99 be 92 9c f5 bc 61 37 95 be 4c b7 8a be
       -0.30072466 -0.029981885 -0.29143813 -0.2709297
000060 47 61 21 3e cd 76 9e be c3 da d5 be 9b d1 f9 3d
       0.15759765 -0.30950013 -0.41768464 0.12198182
000070 fb 0b 39 be 9b 1b e0 3d 86 94 91 be bb b6 8e be
       -0.18070976 0.10942765 -0.28433627 -0.27873787

running_mean f4 [32]
000000 33 4e bb bf 87 b1 23 3d a5 c9 35 bf 44 dd 83 bf
       -1.463324 0.039964225 -0.7101081 -1.03019
000010 65 1c 7d be 96 1f e6 be ff fa 4a be 4a e2 ab 3f
       -0.24717863 -0.44945973 -0.1982231 1.3428433
000020 41 e8 e2 be 46 f2 ac be 37 fe 6f 3e 2e c3 4f 3f
       -0.4431782 -0.3377859 0.23436819 0.81157196
000030 34 cb 77 be b3 89 07 bf 04 c4 45 bd a7 3a 6a bf
       -0.2419861 -0.5294449 -0.04828264 -0.91495746
000040 f1 c3 ad 3e 1c 9b a2 3e ce f1 0d bf 7f 94 04 bf
       0.33938554 0.31758964 -0.5544709 -0.5178909
000050 f5 47 42 bf f2 d6 32 3e 36 5c 7a bf 49 74 4d bf
       -0.7589105 0.17464808 -0.9779695 -0.8025556
000060 9a a0 63 bf 86 a8 40 3e fe 8c 09 bf ec 05 5b bf
       -0.88916934 0.18814287 -0.5373076 -0.8555591
000070 08 3c 3c bf e9 e0 74 bf f6 19 f9 be 57 79 d8 be
       -0.735291 -0.95655686 -0.4865262 -0.42280075

running_var f4 [32]
000000 e0 35 fa 3e ad 58 3f 3f a6 49 57 3f c7 bf 20 3f
       0.48869228 0.74744684 0.84096754 0.6279263
000010 51 83 09 3f c3 aa 1d 3f fa 04 58 3f a7 9d 61 3f
       0.53716 0.61588687 0.84382594 0.88131183
000020 a9 a1 53 3f be a6 fd 3e af 06 56 3f a1 a6 34 3f
       0.8266855 0.49541277 0.8360395 0.70566756
000030 09 7e ef 3e f3 61 c3 3e f5 f2 3e 3f 27 7e 8b 3f
       0.46775845 0.38160667 0.74589473 1.0897874
000040 0b 20 39 3f a8 32 1e 3f 9f c3 03 3f 2f 48 7e 3f
       0.7231452 0.61796045 0.5147037 0.99328893
000050 91 30 fe 3e b6 99 49 3f a5 f0 e4 3e f6 26 0a 3f
       0.49646428 0.7875017 0.44714847 0.539657
000060 08 63 52 3f 36 af 00 3f 3d 2b 3f 3f a9 0d 99 3f
       0.8218236 0.5026735 0.7467535 1.1957294
000070 6f 91 0e 3f aa df 29 3f 4a ae 36 3f 01 2b a0 3f
       0.55690664 0.6635691 0.71359694 1.2513124
