trained_model/SolSegV1_no_train.pt (torch, 215528 bytes, 97 tensors)

weight f4 [8, 1, 3, 3]
0	0xbe10bded	-0.14134951
1	0xbe85d556	-0.26139325
2	0x3e6a4550	0.22878003
3	0xbe3d1fee	-0.18469211
4	0xbd0c44e0	-0.03424537
5	0x3e7bbf40	0.24584675
6	0xbe51e528	-0.20497572
7	0x3d857808	0.06517035
8	0xbe8a9a5a	-0.27070886
9	0x3e81c900	0.25348663
10	0xbe188048	-0.14892685
11	0x3e53168a	0.20614067
12	0xbdac2d84	-0.08407119
13	0xbc951cd0	-0.018202215
14	0x3e238bda	0.15971318
15	0x3e057fae	0.13036987
16	0xbe6ce89c	-0.23135608
17	0x3df8f04c	0.12155208
18	0xbd76e310	-0.060275137
19	0xbe06e5d4	-0.1317361
20	0x3e69e0a4	0.228396
21	0xbe5ba0de	-0.21448085
22	0xbe4c622c	-0.19959325
23	0x3e28ff1a	0.16503564
24	0x3c92b850	0.017910153
25	0x3e88b392	0.266995
26	0xbcf81bb0	-0.03028664
27	0x3de3fef8	0.11132616
28	0x3e224a0a	0.15848556
29	0xbdb205ee	-0.08692537
30	0x3e4d1606	0.20027933
31	0x3d7ba430	0.06143588
32	0x3e8ac60e	0.2710423
33	0x3c8eff70	0.017455786
34	0x3dbe6ba8	0.092978776
35	0xbdbe4ec0	-0.09292364
36	0x3dab4b48	0.08363968
37	0x3dbeee70	0.09322822
38	0xbdcdc074	-0.10046473
39	0x3bf4b840	0.0074682534
40	0x3cf225e0	0.029559076
41	0xbd9e9dbc	-0.07744929
42	0x3e07181c	0.13192791
43	0xbbd349c0	-0.0064480007
44	0xbce46bb8	-0.027883396
45	0xbd4333e0	-0.047656894
46	0x3c27c6e0	0.010240287
47	0xbe320689	-0.17385305
48	0xbdec7994	-0.11546627
49	0xbe86bd67	-0.26316378
50	0xbd954152	-0.072878495
51	0x3e4baf14	0.19891006
52	0x3e262c52	0.16227844
53	0xbd50d7a0	-0.050986886
54	0x3d415550	0.0472005
55	0x3de19af4	0.11015883
56	0xbdbee2ee	-0.09320627
57	0xbc3cbc60	-0.0115195215
58	0xbe23e5be	-0.16005608
59	0x3e696b14	0.22794753
60	0xbe3f083a	-0.18655482
61	0xbe8b3d0d	-0.27195016
62	0x3d7a4c08	0.061107665
63	0xbdf6929a	-0.12039681
64	0x3e1b0d68	0.15141833
65	0xbe732392	-0.23744038
66	0xbe7621ae	-0.24036285
67	0x3e57ca2e	0.21073219
68	0x3e08e7b8	0.13369644
69	0xbe0b6e68	-0.13616335
70	0x3e33c604	0.17556006
71	0xbdb55c72	-0.08855523

weight f4 [8]
0	0x3f800000	1.0
1	0x3f800000	1.0
2	0x3f800000	1.0
3	0x3f800000	1.0
4	0x3f800000	1.0
5	0x3f800000	1.0
6	0x3f800000	1.0
7	0x3f800000	1.0

bias f4 [8]
0	0x00000000	0.0
1	0x00000000	0.0
2	0x00000000	0.0
3	0x00000000	0.0
4	0x00000000	0.0
5	0x00000000	0.0
6	0x00000000	0.0
7	0x00000000	0.0

running_mean f4 [8]
0	0xbce11dba	-0.027479995
1	0x3c9c9457	0.019113703
2	0x3b15980f	0.002282623
3	0x3d14dd43	0.036343824
4	0x3bd56f20	0.0065134913
5	0xbc904903	-0.01761294
6	0xbc6233ea	-0.013806323
7	0xbbe8bf5a	-0.007102889

running_var f4 [8]
0	0x3f672cca	0.9030272
1	0x3f66ef3e	0.90208805
2	0x3f66f2bc	0.90214133
3	0x3f66cc41	0.90155417
4	0x3f66832f	0.9004392
5	0x3f66ccbc	0.9015615
6	0x3f66db6e	0.90178573
7	0x3f66ff17	0.90232986

weight f4 [4, 8, 1, 1]
0	0x3f07ced3	0.53049964
1	0xbe9de830	-0.30841208
2	0xbed41e77	-0.41429493
3	0xbc7f91c0	-0.015598714
4	0x3ec001da	0.37501413
5	0xbec2032b	-0.37893042
6	0x3f22757d	0.6346052
7	0xbf32ee0e	-0.6989449
8	0x3de1eec8	0.11031872
9	0xbf085011	-0.5324717
10	0x3ee22c86	0.44174594
11	0xbc97bb80	-0.018522024
12	0x3d26dcf0	0.040738046
13	0x3e726ec4	0.23675066
14	0x3eeec9c6	0.46638316
15	0xbec467e0	-0.383605
16	0xbf3485cb	-0.7051665
17	0xbe19196c	-0.14951104
18	0xbe8dc833	-0.27691802
19	0xbee80583	-0.45316705
20	0xbf01f462	-0.50763524
21	0x3dba56a0	0.09098554
22	0x3e9d6bfa	0.30746442
23	0xbe86c3cb	-0.26321253
24	0x3ebb8eb6	0.36632317
25	0xbf0ac54a	-0.5420729
26	0x3f06c665	0.52646476
27	0x3ee1bd72	0.44089848
28	0xbf06dda2	-0.52681935
29	0xbe7939d2	-0.24338463
30	0x3f010b6f	0.5040807
31	0xbe1e98b4	-0.15487939

bias f4 [4]
0	0x3e3a61ca	0.18201366
1	0x3e2ad1a2	0.16681531
2	0xbe8a7d09	-0.2704852
3	0xbeb2b24a	-0.3490165

weight f4 [4]
0	0x3f800000	1.0
1	0x3f800000	1.0
2	0x3f800000	1.0
3	0x3f800000	1.0

bias f4 [4]
0	0x00000000	0.0
1	0x00000000	0.0
2	0x00000000	0.0
3	0x00000000	0.0

running_mean f4 [4]
0	0x3beac63f	0.007164746
1	0x3d003970	0.031304777
2	0xbdd8a793	-0.10578837
3	0xbca3b51a	-0.019983817

running_var f4 [4]
0	0x3f66667a	0.90000117
1	0x3f666668	0.9000001
2	0x3f666699	0.900003
3	0x3f6666a6	0.9000038

weight f4 [8, 4, 1, 1]
0	0xbf10a170	-0.56496334
1	0xbf236358	-0.6382346
2	0xbee0fad2	-0.4394136
3	0x3e5aa978	0.2135371
4	0xbeb33234	-0.3499924
5	0x3efc01b2	0.49220043
6	0x3e6809b4	0.22659951
7	0x3f142765	0.5787261
8	0xbe32332c	-0.17402333
9	0x3f254d03	0.64570636
10	0x3ec4bd4e	0.38425678
11	0xbeb0c045	-0.3452169
12	0x3f08975b	0.5335595
13	0xbf270fc4	-0.6525843
14	0xbf32bc88	-0.69818926
15	0x3e1651c8	0.14679635
16	0xbea15166	-0.31507415
17	0x3eb0019a	0.34376222
18	0xbc449080	-0.011997342
19	0xbee57a69	-0.44819954
20	0x3d406490	0.046970904
21	0xbcdc88a0	-0.026920617
22	0xbf0f6dc7	-0.5602688
23	0x3d92a8c0	0.07161093
24	0x3ea73cca	0.32663566
25	0x3eb3f542	0.35148054
26	0xbe4d23b0	-0.20033145
27	0x3f0588c1	0.52161795
28	0xbe678bb4	-0.22611886
29	0x3f0bb7ef	0.54577535
30	0xbc9a28c0	-0.01881826
31	0x3ebd5cc6	0.36984843

bias f4 [8]
0	0x3e1a18c4	0.1504851
1	0x3e9106ee	0.283256
2	0xbea5edf0	-0.32408094
3	0x3ea0f56a	0.31437236
4	0xbef2ac22	-0.47396952
5	0xbeeb4952	-0.45954376
6	0x3d9327d8	0.07185334
7	0xbe7ed570	-0.24886107

weight f4 [16, 4, 3, 3]
0	0x3ce4ee20	0.027945578
1	0xbdca8395	-0.098883785
2	0xbdcaf195	-0.09909359
3	0x3de36964	0.11104086
4	0x3d8aaaa0	0.067708254
5	0x3d1c3894	0.038139895
6	0x3c4388a0	0.011934429
7	0x3e25ba96	0.16184458
8	0xbe3343f7	-0.17506395
9	0x3de1c664	0.11024168
10	0xbd2b7ca4	-0.041866913
11	0x3dd91e20	0.10601449
12	0x3d255a8c	0.040369555
13	0x3d1cf15c	0.038316116
14	0xbd28bd64	-0.041196242
15	0xbe0dd352	-0.13850144
16	0xbdbd72cd	-0.09250412
17	0xbdd4abfd	-0.10384367
18	0x3e1f2568	0.15541613
19	0x3dd3fcc8	0.103509486
20	0x3deb2500	0.114816666
21	0x3e28a7fc	0.16470331
22	0x3d185bb0	0.037196815
23	0xbe2ce0e2	-0.16882661
24	0xbd70db18	-0.058802694
25	0xbe1c019b	-0.15234987
26	0xbe0eb8e2	-0.13937715
27	0xbe2cae57	-0.1686338
28	0xbe382222	-0.1798177
29	0xbe2e45be	-0.17018792
30	0x3e26c63c	0.16286558
31	0x3dc53d48	0.09630829
32	0x3defc668	0.11707765
33	0x3cb74c70	0.022375315
34	0xbd94133d	-0.07230232
35	0xbe0e0edf	-0.1387286
36	0x3e18ca80	0.14920998
37	0x3cf388f0	0.029728383
38	0x3d9213b0	0.07132661
39	0xbd10ac60	-0.03532064
40	0x3d37908c	0.044815585
41	0xbe3a8d00	-0.1821785
42	0x3c299be0	0.010352105
43	0xbcd06fc8	-0.025443926
44	0x3e1d7b66	0.15379104
45	0xbe3867a7	-0.1800829
46	0x3d8cacd8	0.06868905
47	0x3d128628	0.035772473
48	0xbe0feeb8	-0.14055908
49	0x3da67e48	0.08129555
50	0xba4b3900	-0.0007752329
51	0x3cd4ad20	0.025961459
52	0x3dfffd8c	0.12499532
53	0x3da92140	0.08258295
54	0x3c8ffa68	0.017575458
55	0xbe1aa3f8	-0.15101612
56	0x3bf34dc0	0.00742504
57	0xbde2d3bb	-0.11075541
58	0xbd725da6	-0.05917134
59	0x3d4d5d6c	0.050137922
60	0x3e0a7774	0.1352213
61	0xbe36d44d	-0.17854424
62	0xbe23dfdb	-0.16003363
63	0x3cdd4180	0.027008772
64	0x3e1298f8	0.14316165
65	0x3d9a83e4	0.075446874
66	0x3d5f6a08	0.05454448
67	0x3bd68e00	0.0065476894
68	0xbbbe37a0	-0.005804971
69	0x3dfd5f14	0.1237165
70	0xbd9b0990	-0.07570183
71	0xbca51730	-0.020152658
72	0x3e367130	0.17816615
73	0xbe2c0109	-0.1679727
74	0x3e284086	0.16430864
75	0x3e1624de	0.14662501
76	0xbdf17c7f	-0.11791324
77	0x3e38e814	0.18057281
78	0xbd5da368	-0.054110914
79	0xbe373e9b	-0.17894976
80	0x3d69b3ec	0.057056352
81	0xbc8ea788	-0.01741387
82	0xbdd19b8c	-0.10234746
83	0x3d84c962	0.06483723
84	0xbdb1ec6d	-0.08687673
85	0x3df8fcb4	0.12157574
86	0xbe3ac828	-0.18240416
87	0x3caacdc8	0.020850077
88	0x3e0595ac	0.13045377
89	0xbd28ae68	-0.04118195
90	0xbdf7d9e4	-0.12102106
91	0x3e0d8d7e	0.13823506
92	0xbe0e5faa	-0.1390368
93	0x3e1fde3a	0.15612116
94	0xbd709660	-0.05873716
95	0xbd383c74	-0.044979528
96	0xbe1cea85	-0.15323837
97	0x3d78837c	0.06067227
98	0xbe30564a	-0.17220417
99	0xbe20cfc8	-0.15704262
100	0xbe362236	-0.17786488
101	0xbdcdbc36	-0.10045664
102	0x3dc10a10	0.094257474
103	0x3d118328	0.03552547
104	0xbe15460e	-0.14577505
105	0x3e0cc6e8	0.13747752
106	0x3dab5a14	0.083667904
107	0x3da48184	0.08032516
108	0xbb0b6c40	-0.0021274239
109	0xbcb993b8	-0.022653446
110	0xbe09b2e9	-0.13447155
111	0x3d5a4a24	0.053293362
112	0x3e14d27c	0.14533418
113	0x3d017838	0.03160879
114	0x3a549300	0.0008109063
115	0xbd5afa84	-0.053461567
116	0x3e188646	0.14894971
117	0xbe117417	-0.14204441
118	0xbdd6664c	-0.1046873
119	0xbbe0f960	-0.0068656653
120	0xbd203828	-0.039116055
121	0xbe1516ea	-0.14559522
122	0xbdd4aa4c	-0.10384044
123	0xbde151fc	-0.110019654
124	0xbdc57f72	-0.09643449
125	0xbdd29a34	-0.10283318
126	0xbe279e0d	-0.16368885
127	0x3e33278c	0.17495555
128	0x3d1e3b64	0.038630858
129	0x3e2bea64	0.16788632
130	0xbd6733a0	-0.056445718
131	0x3e194292	0.14966801
132	0xbe260b38	-0.16215217
133	0xbe0c4a41	-0.137002
134	0x3c323b80	0.010878444
135	0x3dd288f0	0.10280025
136	0xbe32ea7d	-0.17472263
137	0xbd953faa	-0.072875336
138	0x3ce2d088	0.027687326
139	0x3d92b0b4	0.0716261
140	0xbded2398	-0.115790546
141	0xbafc4080	-0.0019245297
142	0xbe2fd537	-0.17171179
143	0x3d714554	0.058904007
144	0x3df25200	0.118320465
145	0x3d2ce98c	0.042214915
146	0x3e045f80	0.12927055
147	0x3d6bb76c	0.05754797
148	0xbdcce1fe	-0.10004042
149	0x3e3a3e22	0.18187764
150	0xbd345af0	-0.044032037
151	0xbe102006	-0.14074716
152	0x3dfea77c	0.12434289
153	0x3dbbc5b0	0.09168565
154	0x3debe9d0	0.115192056
155	0x3d05eef4	0.032698587
156	0x3e17e538	0.14833534
157	0x3d4d3664	0.0501007
158	0x3d41e6b8	0.04733917
159	0xbd745b18	-0.059657186
160	0x3e17c9bc	0.1482305
161	0xbd434e60	-0.047682166
162	0x3d81568e	0.06315337
163	0xbe0f0da3	-0.13970046
164	0xbc3bc750	-0.011461094
165	0x3db7c000	0.08972168
166	0xbd5364a0	-0.051609635
167	0xbde6de0c	-0.11272821
168	0x3d1600f0	0.036621988
169	0xbe0f7028	-0.14007628
170	0x3de5c474	0.11219111
171	0xbe1125e6	-0.14174613
172	0x3de560f4	0.11200133
173	0x3ccb1cd8	0.024794027
174	0xbe289bc7	-0.16465674
175	0x3cd2df88	0.025741354
176	0x3e127644	0.14302927
177	0x3e2105fc	0.15724939
178	0x3c6f6c10	0.014613166
179	0xbc090210	-0.008362308
180	0x3d061674	0.032736257
181	0x3d2d39f4	0.042291597
182	0x3dec57f8	0.11540216
183	0xbcb8c3d0	-0.022554308
184	0xbd8083c7	-0.062751345
185	0xbcb86e80	-0.022513628
186	0xbe2f525c	-0.17121261
187	0xbe38655c	-0.18007416
188	0xbe0dc6ba	-0.1384534
189	0xbdac1fa1	-0.0840447
190	0xbdd4522c	-0.103672355
191	0xbe2a44f0	-0.1662786
192	0xbe0c4d11	-0.13701274
193	0xbe0ca0e4	-0.1373325
194	0xbe384d73	-0.17998295
195	0x3db13468	0.08652574
196	0xbe18810e	-0.1489298
197	0xbe2ececc	-0.17071074
198	0xbda1295f	-0.07869219
199	0x3d7b8f54	0.061415985
200	0x3da5c030	0.080932975
201	0x3daa5534	0.083170325
202	0xbd58c774	-0.05292459
203	0x3d81130e	0.063024625
204	0xbd5d726c	-0.0540642
205	0xbd5a462c	-0.053289577
206	0xbd9d573b	-0.076826535
207	0xbdf69746	-0.12040572
208	0x3d4db8a0	0.0502249
209	0x3e24fb64	0.16111523
210	0xbcfae3e8	-0.030626252
211	0xbccebfd0	-0.025237948
212	0xbd9296e4	-0.07157686
213	0xbe388321	-0.18018772
214	0xbe2524b0	-0.16127276
215	0x3d0c17d8	0.034202427
216	0x3db319fc	0.087451905
217	0xbd90bca5	-0.07067231
218	0xbd223578	-0.039601773
219	0xbe1062b2	-0.1410015
220	0x3d030568	0.031987578
221	0x3ddad254	0.10684648
222	0x3db03618	0.086040676
223	0x3d3d4e30	0.046217144
224	0xbd8fc97a	-0.070208505
225	0x3cd0b3c8	0.025476351
226	0x3bdb4440	0.0066914856
227	0x3e209ba2	0.15684369
228	0xbb7052c0	-0.0036670417
229	0x3c00ce40	0.007861674
230	0xbe154d0a	-0.1458017
231	0x3dfcc64c	0.123425096
232	0xbd19f8ec	-0.037590906
233	0x3e39dc60	0.18150473
234	0xbdf5b276	-0.11996929
235	0x3d0abdc0	0.033872366
236	0xbddb0f0a	-0.10696228
237	0x3db8ab6c	0.09017071
238	0x3cb36c28	0.021902159
239	0x3db84d8c	0.08999166
240	0xbdbf252e	-0.09333263
241	0xbd5fbf3c	-0.054625735
242	0xbcb00a28	-0.021489218
243	0x3dbf212c	0.09332499
244	0x3e0d08ec	0.13772935
245	0xbd65d45c	-0.056110725
246	0x3e377d3a	0.17918864
247	0xbdd80d0f	-0.10549366
248	0xbe328383	-0.1743298
249	0xbd79faf2	-0.061030336
250	0x3c527cb0	0.012847111
251	0x3caf1700	0.021373272
252	0xbdfd14aa	-0.12357457
253	0xbca2d378	-0.019876227
254	0x3e13c296	0.14429697
255	0xbe10c067	-0.14135896

weight f4 [16]
0	0x3f800000	1.0
1	0x3f800000	1.0
2	0x3f800000	1.0
3	0x3f800000	1.0
4	0x3f800000	1.0
5	0x3f800000	1.0
6	0x3f800000	1.0
7	0x3f800000	1.0
8	0x3f800000	1.0
9	0x3f800000	1.0
10	0x3f800000	1.0
11	0x3f800000	1.0
12	0x3f800000	1.0
13	0x3f800000	1.0
14	0x3f800000	1.0
15	0x3f800000	1.0

bias f4 [16]
0	0x00000000	0.0
1	0x00000000	0.0
2	0x00000000	0.0
3	0x00000000	0.0
4	0x00000000	0.0
5	0x00000000	0.0
6	0x00000000	0.0
7	0x00000000	0.0
8	0x00000000	0.0
9	0x00000000	0.0
10	0x00000000	0.0
11	0x00000000	0.0
12	0x00000000	0.0
13	0x00000000	0.0
14	0x00000000	0.0
15	0x00000000	0.0

running_mean f4 [16]
0	0xbc0e4ecc	-0.008685779
1	0x3bb8a0de	0.0056344112
2	0xbc0ea888	-0.008707173
3	0xbcc6af25	-0.024253437
4	0x3ca2ce0f	0.019873647
5	0xbd2ba862	-0.04190863
6	0x3bde63d7	0.006786804
7	0x3b05cdda	0.0020416887
8	0xbbe67fea	-0.0070342915
9	0xbc0d969a	-0.008641863
10	0x3b4739a8	0.0030399356
11	0x3bce8f0d	0.006303674
12	0x3beff43d	0.0073228166
13	0x3ca25f4e	0.019820835
14	0xbb128fbe	-0.002236351
15	0xbbbecc47	-0.0058226916

running_var f4 [16]
0	0x3f67b8c9	0.90516335
1	0x3f6739e8	0.9032273
2	0x3f678f8f	0.9045343
3	0x3f67d683	0.90561694
4	0x3f678418	0.90435934
5	0x3f67fa6d	0.90616494
6	0x3f671095	0.9025968
7	0x3f672386	0.9028858
8	0x3f671888	0.90271807
9	0x3f671d52	0.90279114
10	0x3f674020	0.9033222
11	0x3f670bc0	0.90252304
12	0x3f66f3cc	0.90215755
13	0x3f67498b	0.9034659
14	0x3f672c49	0.9030195
15	0x3f674275	0.9033578

weight f4 [4, 16, 1, 1]
0	0xbece2fa4	-0.40270722
1	0xbf0618f7	-0.52381843
2	0x3dd26450	0.10273039
3	0x3e64e980	0.22354698
4	0x3e284608	0.16432965
5	0x3ee25808	0.44207788
6	0x3e13aac8	0.14420617
7	0x3d4f7400	0.050647736
8	0xbc655a00	-0.013998508
9	0x3f024124	0.50880647
10	0x3ea40cd2	0.3204103
11	0xbddff8dc	-0.10936138
12	0x3e77f144	0.2421313
13	0x3eadf84e	0.33978504
14	0xbeebc24a	-0.46046668
15	0x3ecc1bee	0.3986506
16	0xbed110b4	-0.40833056
17	0xbea4ff28	-0.3222592
18	0xbee64d20	-0.44980717
19	0xbf044fe8	-0.5168443
20	0x3e8748a8	0.2642262
21	0xbe439a46	-0.1910182
22	0xbd9d5758	-0.07682675
23	0xbc7f0240	-0.015564501
24	0x3f046314	0.5171368
25	0x3e84dd22	0.2594996
26	0x3d04a390	0.032382548
27	0xbef4160c	-0.4767307
28	0x3f0752c4	0.52860665
29	0xbe4f3648	-0.2023555
30	0x3e34f39c	0.17671055
31	0x3e2d9d80	0.16954613
32	0xbf03ad44	-0.5143626
33	0x3ef57320	0.47939396
34	0xbf09e615	-0.538667
35	0xbe01108a	-0.12603965
36	0xbf02e6ea	-0.51133597
37	0xbec5e1fd	-0.38648978
38	0x3ec692e0	0.38783932
39	0x3e7d3080	0.24725533
40	0x3d2bdad0	0.041956723
41	0x3ee0788a	0.43841964
42	0xbee1cf00	-0.4410324
43	0x3e776038	0.24157798
44	0xbedf4f8d	-0.4361538
45	0x3ecdc7b0	0.40191412
46	0x3e76d0fc	0.24103159
47	0x3e9be332	0.30446774
48	0x3ecd3daa	0.40086108
49	0x3ea3b790	0.31975985
50	0x3aceae00	0.0015768409
51	0x3f0b32a4	0.54374146
52	0xbea8d60e	-0.3297581
53	0xbe5e91da	-0.21735325
54	0x3f03ffa6	0.51561964
55	0xbf027730	-0.50963116
56	0x3edec452	0.43509156
57	0x3eb28d88	0.34873605
58	0xbea2f89a	-0.31830293
59	0xbe5744bc	-0.21022314
60	0x3dfe4640	0.12415743
61	0x3f0bf67c	0.5467298
62	0x3e5ce0bc	0.21570104
63	0x3eb83560	0.35978222

bias f4 [4]
0	0xbcdd3420	-0.027002394
1	0x3e52bb7c	0.20579332
2	0x3d5474a0	0.051869035
3	0x3e04c6fa	0.12966529

weight f4 [4]
0	0x3f800000	1.0
1	0x3f800000	1.0
2	0x3f800000	1.0
3	0x3f800000	1.0

bias f4 [4]
0	0x00000000	0.0
1	0x00000000	0.0
2	0x00000000	0.0
3	0x00000000	0.0

running_mean f4 [4]
0	0x3d5cc965	0.053903002
1	0xbbfd68a3	-0.007733421
2	0xbaf2be0d	-0.0018519774
3	0x3dcf5cfa	0.10125156

running_var f4 [4]
0	0x3f66742e	0.90021026
1	0x3f666f6f	0.90013784
2	0x3f6697bd	0.90075284
3	0x3f67160d	0.9026802

weight f4 [16, 4, 1, 1]
0	0xbe1af352	-0.15131882
1	0x3dadbbe0	0.084831
2	0xbf02c4f7	-0.51081795
3	0xbe71ab8a	-0.23600593
4	0xbdf91634	-0.12162438
5	0xbd6419e0	-0.05568874
6	0xbc9d1880	-0.019176722
7	0x3ca3bd20	0.019987643
8	0xbe9005d1	-0.28129438
9	0xbe869ff9	-0.26293924
10	0x3cecc600	0.028903008
11	0xbeb1caf1	-0.34725145
12	0x3e0acff4	0.1355589
13	0x3f08e532	0.53474724
14	0xbeb0ac3e	-0.3450641
15	0xbe975bea	-0.29562312
16	0xbdd06fc8	-0.101775706
17	0xbdfc5ab0	-0.12321985
18	0x3dd474d8	0.10373849
19	0xbed3ff1a	-0.41405565
20	0xbe8dc226	-0.27687186
21	0xbd0c9db0	-0.03433007
22	0x3eea4928	0.4575894
23	0x3d4f73d0	0.050647557
24	0xbdcf90ec	-0.101350635
25	0xbe8a1254	-0.26967108
26	0x3ecab7de	0.39593405
27	0xbdd0c224	-0.101932794
28	0xbef8697e	-0.48517984
29	0x3e8b2102	0.2717362
30	0x3edc2a28	0.43000913
31	0x3f0a3088	0.539803
32	0x3d04aed0	0.032393277
33	0xbf01f53d	-0.5076483
34	0xbdc258f8	-0.09489626
35	0xbeb51186	-0.35364932
36	0xbde67d78	-0.112544
37	0xbe888b10	-0.26668596
38	0xbd392e70	-0.045210302
39	0xbec96795	-0.3933684
40	0xbf006eb9	-0.5016895
41	0x3eab55c8	0.33463883
42	0xbf0b1f06	-0.54344213
43	0x3f0bb3a0	0.5457096
44	0x3e0d4c38	0.13798606
45	0x3c583100	0.013195276
46	0x3e25a13c	0.16174787
47	0xbecb72be	-0.3973598
48	0xbed3900a	-0.4132083
49	0x3eb7ffee	0.35937446
50	0xbeb10278	-0.34572196
51	0xbea4000e	-0.32031292
52	0x3cc7a060	0.024368465
53	0xbe642c56	-0.22282538
54	0xbebc0d6b	-0.36728987
55	0xbdcc22e4	-0.09967592
56	0x3f0067d4	0.5015843
57	0xbe4cd53c	-0.20003217
58	0xbeb40913	-0.35163173
59	0xbef6545c	-0.48111236
60	0x3db7c108	0.08972365
61	0x3ee89c8c	0.45431936
62	0x3ef808d8	0.48444247
63	0x3ecab5b6	0.3959176

bias f4 [16]
0	0x3ec4902c	0.38391244
1	0xbef121b6	-0.47096032
2	0x3e8243b6	0.25442284
3	0xbda00d20	-0.078150034
4	0xbea895bc	-0.32926738
5	0x3e80bf7a	0.25146085
6	0xbe1e1860	-0.15438986
7	0xbe6fa3d4	-0.23402339
8	0xbce96c60	-0.02849406
9	0x3e2d4344	0.16920191
10	0x3ecf3008	0.40466332
11	0x3e971c7a	0.29513913
12	0xbee1d5a4	-0.44108307
13	0x3d9d86f0	0.07691753
14	0xbeaababe	-0.33345598
15	0x3ed976ae	0.42473358

weight f4 [32, 8, 3, 3]
0	0xbc92f608	-0.017939582
1	0xbd54ea98	-0.05198154
2	0xbded50c9	-0.11587674
3	0xbe018239	-0.12647332
4	0x3d57a16c	0.05264418
5	0xbcbcadf0	-0.023032159
6	0x3cb1dbb0	0.0217112
7	0xbdb1c75c	-0.08680603
8	0xbdcafcf2	-0.09911527
9	0x3c9df8f8	0.019283757
10	0xbde7b412	-0.113136426
11	0xbdb1b3f3	-0.08676901
12	0x3e038ea3	0.1284738
13	0x3cadf008	0.02123262
14	0xbc9ad24c	-0.018899105
15	0xbcb2f04c	-0.021843098
16	0x3ccd1470	0.02503416
17	0xbd6080a6	-0.05481019
18	0x3d68e558	0.056859344
19	0xbc05f438	-0.008175902
20	0xbd901d16	-0.07036798
21	0xbd9aeeff	-0.07565116
22	0xbd8b7b1e	-0.06810592
23	0xbdc1c054	-0.09460512
24	0xbc3e00f0	-0.011596903
25	0xbddadcd0	-0.10686648
26	0x3d962884	0.073319465
27	0xbcf2e3b8	-0.0296496
28	0xbcad2284	-0.021134622
29	0x3dc42fb8	0.09579414
30	0xbd116fdc	-0.035507068
31	0xbd670e96	-0.056410395
32	0x3ca4e310	0.020127803
33	0x3d229e10	0.03970152
34	0xbdf902e2	-0.12158753
35	0xbd8513bb	-0.06497904
36	0xbddbd3b3	-0.10733738
37	0xbcb660a8	-0.022262886
38	0x3d59b7e4	0.053153887
39	0xbdc76c9e	-0.09737514
40	0xbd394c54	-0.045238808
41	0xbd24d168	-0.040238768
42	0x3dfdc322	0.12390734
43	0x3d95556c	0.072916836
44	0xbcb8eaac	-0.022572838
45	0x3bb95fa0	0.0056571513
46	0x39240800	0.00015643239
47	0x3c7acdb0	0.015307829
48	0x3d73c77c	0.059516415
49	0x3c6c2ec0	0.014415443
50	0x3bd06540	0.006359726
51	0x3dc67020	0.09689355
52	0x3d10c04c	0.03533964
53	0xbce9ac3c	-0.02852451
54	0x3cd24698	0.025668427
55	0xbd8ee556	-0.06977336
56	0xbd6a0dcc	-0.057142064
57	0x3d435384	0.04768707
58	0xbb438800	-0.00298357
59	0xbdfe1d9d	-0.12407992
60	0x3d8c4d48	0.06850678
61	0x3d4ed180	0.050492764
62	0xbc6428d8	-0.0139257535
63	0x3dd94014	0.10607925
64	0xbdb47ba8	-0.08812648
65	0xbda2d55b	-0.079508506
66	0x3d5e9328	0.054339558
67	0xbd871bad	-0.065970756
68	0xbde07c70	-0.109612346
69	0x3ddf85fa	0.10914226
70	0xbd6fe286	-0.05856564
71	0xbdbcfffc	-0.09228513
72	0xbd806555	-0.062693276
73	0x3d15799c	0.03649293
74	0x3a48e800	0.0007663965
75	0xbd8e1d24	-0.06939152
76	0xbc9aa9cc	-0.018879794
77	0x3d4fb808	0.050712615
78	0x3d947da6	0.07250528
79	0xbcac78a0	-0.021053612
80	0x3df4b37a	0.11948295
81	0x3c41cce0	0.011828631
82	0x3c31d5f0	0.010854229
83	0xbd4208ee	-0.047371797
84	0x3cae3960	0.021267593
85	0x3de06618	0.10956973
86	0xbd2643e4	-0.04059209
87	0x3da9d0a2	0.08291747
88	0xbdc879c2	-0.097888485
89	0x3d1c509c	0.038162813
90	0xbbe3f980	-0.006957233
91	0x3d356084	0.044281498
92	0xbdf1f088	-0.11813456
93	0xbde4c4c3	-0.11170342
94	0x3e04182d	0.12899847
95	0xbd805c01	-0.06267548
96	0x3c28c7d0	0.010301545
97	0xbd1f147c	-0.038837895
98	0xbc839ecc	-0.016066931
99	0xbe037dc7	-0.12840949
100	0xbd2b0618	-0.04175386
101	0x3c25a070	0.010109052
102	0x3c5120e0	0.012764186
103	0x3c8d5eb0	0.017257065
104	0x3d81e424	0.063423425
105	0xbccf10c8	-0.025276557
106	0x3d8a2664	0.06745604
107	0xbc3c6bc0	-0.011500299
108	0xbd79e848	-0.061012536
109	0xbdb06c8e	-0.08614455
110	0x3df796fa	0.12089343
111	0xbd64fa2a	-0.055902638
112	0xbda8c238	-0.08240169
113	0x3e015a97	0.12632214
114	0xbc93a004	-0.018020637
115	0xbd25f9b2	-0.04052133
116	0x3e030345	0.12794216
117	0x3d8af438	0.06784862
118	0x3d3fb3e8	0.04680243
119	0x3dd88d68	0.10573846
120	0x3de44a9a	0.111470416
121	0xbd544a6a	-0.05182878
122	0xbd595584	-0.05306007
123	0xbcfbe71c	-0.03074985
124	0xbcb9533c	-0.022622697
125	0x3d861922	0.065477625
126	0x3c19c490	0.009385243
127	0xbde68615	-0.11256043
128	0x3d560ec8	0.05226019
129	0x3dc909c6	0.09816317
130	0xbdd53edf	-0.10412382
131	0xbd558a8c	-0.05213408
132	0xbd4c7e32	-0.049925037
133	0xbd6a6c1a	-0.057232
134	0xbcd36734	-0.025806047
135	0xbdf40aed	-0.119161464
136	0x3dd6be86	0.10485558
137	0x3d9d8f00	0.07693291
138	0xbe02ab96	-0.12760767
139	0xbd9a73fb	-0.07541653
140	0x3db836c4	0.08994821
141	0x3d905830	0.070480704
142	0x3d1e9c2c	0.038723156
143	0x3cbdf140	0.023186326
144	0xbdb52d1d	-0.08846495
145	0xbc6ee688	-0.01458133
146	0x3c406fd0	0.011745408
147	0x3d3ca248	0.0460532
148	0x3dc4a61e	0.09601997
149	0xbd0adaa4	-0.03389992
150	0xbd2ec9a8	-0.042672783
151	0x3d72d080	0.059280872
152	0x3cfe4d88	0.03104283
153	0xbcbafe64	-0.022826381
154	0xbdc43cfa	-0.09581943
155	0xbd965935	-0.07341234
156	0x3d243c34	0.040096477
157	0x3dffd0a6	0.124909684
158	0xbcd81370	-0.026376456
159	0xbda914d7	-0.08255928
160	0xbd006168	-0.031342894
161	0x3df1d04a	0.11807306
162	0xba480400	-0.00076299906
163	0xbc37fef8	-0.011230223
164	0xbc10f078	-0.008846395
165	0xbd12e41a	-0.035862066
166	0x3dc60d88	0.0967055
167	0x3bbcb840	0.005759269
168	0x3d824b10	0.06361973
169	0xbd2c77f2	-0.042106576
170	0x3dc0669e	0.09394573
171	0x3d6757b4	0.056480125
172	0xbd3221c0	-0.043489218
173	0x3dfaf826	0.12254362
174	0xbda7ec84	-0.08199409
175	0xbda69a0f	-0.08134853
176	0x3dc56c92	0.09639849
177	0xbd848e29	-0.064724274
178	0xbd4e319a	-0.050340272
179	0xbd9c84ca	-0.07642515
180	0x3d1796c0	0.037009
181	0x3dd5938a	0.104285315
182	0xbd0d8020	-0.034546018
183	0xbc965bd8	-0.018354341
184	0xbddf35bd	-0.10898922
185	0xbddc26a7	-0.1074956
186	0xbd8b0bcc	-0.067893595
187	0x3e00aec3	0.12566666
188	0xbd9c8087	-0.07641702
189	0xbcf744c8	-0.030184165
190	0x3df0d366	0.11759071
191	0x3da0e9aa	0.07857068
192	0xbd5f9bf4	-0.054592088
193	0xbc708b78	-0.014681689
194	0x3d8cca5a	0.06874533
195	0xbca94f90	-0.020667821
196	0x3d9675c8	0.07346684
197	0xbd63dbaa	-0.05562941
198	0xbcdf4144	-0.0272528
199	0xbdef6c97	-0.11690634
200	0xbcc0b38c	-0.023523115
201	0x3de5ec8a	0.11226757
202	0x3dee2fb6	0.11630194
203	0xbd8324c1	-0.064034946
204	0x3cedac98	0.029012963
205	0x3d2c8048	0.042114526
206	0xbd522a5a	-0.05130992
207	0xbdf5bc07	-0.11998754
208	0x3dac690c	0.084184736
209	0xbc554a48	-0.013018198
210	0xbc083da0	-0.008315474
211	0xbdcf3bc7	-0.101188235
212	0xbce65b4c	-0.028119706
213	0x3de0878e	0.10963355
214	0x3d766e88	0.060164005
215	0xbd9d4842	-0.07679798
216	0xbc04f448	-0.008114882
217	0xbdc7d048	-0.09756523
218	0x3df61c4a	0.120171145
219	0x3df3da8a	0.119069174
220	0x3dfc22e2	0.12311341
221	0xbdfcb7e9	-0.123397656
222	0xbdb30ea1	-0.087430246
223	0x3c93e400	0.018053055
224	0x3d842b16	0.064535305
225	0x3d1948e8	0.037423044
226	0x3c0655f0	0.0081992
227	0xbdf4b0a4	-0.11947754
228	0xbc97aafc	-0.018514149
229	0xbdf6a368	-0.12042886
230	0xbdaaa114	-0.083315045
231	0xbd3e789a	-0.046501733
232	0xbd326ece	-0.043562703
233	0xbde88f42	-0.11355449
234	0x3d7ca288	0.06167844
235	0xbd287bfa	-0.04113386
236	0xbcdcb8f4	-0.026943661
237	0x3c1a8540	0.009431183
238	0xbd3ddc68	-0.046352774
239	0x3d975eba	0.073911145
240	0xbdbf90a4	-0.0935376
241	0x3deac490	0.114632726
242	0x3d7cc690	0.0617128
243	0x3cf90810	0.030399352
244	0x3cd2ea78	0.025746569
245	0xbdf0e64a	-0.11762674
246	0xbdd5533a	-0.10416265
247	0x3be83cc0	0.00708732
248	0x3df28f64	0.11843756
249	0xbcc8f484	-0.024530657
250	0x3dc2c0ac	0.095094055
251	0xbde8a81a	-0.11360188
252	0x3dcbe334	0.09955445
253	0xbd67e29a	-0.05661259
254	0x3df58ffa	0.11990352
255	0x3c4994f0	0.012303576

weight f4 [32]
0	0x3f800000	1.0
1	0x3f800000	1.0
2	0x3f800000	1.0
3	0x3f800000	1.0
4	0x3f800000	1.0
5	0x3f800000	1.0
6	0x3f800000	1.0
7	0x3f800000	1.0
8	0x3f800000	1.0
9	0x3f800000	1.0
10	0x3f800000	1.0
11	0x3f800000	1.0
12	0x3f800000	1.0
13	0x3f800000	1.0
14	0x3f800000	1.0
15	0x3f800000	1.0
16	0x3f800000	1.0
17	0x3f800000	1.0
18	0x3f800000	1.0
19	0x3f800000	1.0
20	0x3f800000	1.0
21	0x3f800000	1.0
22	0x3f800000	1.0
23	0x3f800000	1.0
24	0x3f800000	1.0
25	0x3f800000	1.0
26	0x3f800000	1.0
27	0x3f800000	1.0
28	0x3f800000	1.0
29	0x3f800000	1.0
30	0x3f800000	1.0
31	0x3f800000	1.0

bias f4 [32]
0	0x00000000	0.0
1	0x00000000	0.0
2	0x00000000	0.0
3	0x00000000	0.0
4	0x00000000	0.0
5	0x00000000	0.0
6	0x00000000	0.0
7	0x00000000	0.0
8	0x00000000	0.0
9	0x00000000	0.0
10	0x00000000	0.0
11	0x00000000	0.0
12	0x00000000	0.0
13	0x00000000	0.0
14	0x00000000	0.0
15	0x00000000	0.0
16	0x00000000	0.0
17	0x00000000	0.0
18	0x00000000	0.0
19	0x00000000	0.0
20	0x00000000	0.0
21	0x00000000	0.0
22	0x00000000	0.0
23	0x00000000	0.0
24	0x00000000	0.0
25	0x00000000	0.0
26	0x00000000	0.0
27	0x00000000	0.0
28	0x00000000	0.0
29	0x00000000	0.0
30	0x00000000	0.0
31	0x00000000	0.0

running_mean f4 [32]
0	0xbcb52f32	-0.022117231
1	0x3b619ac5	0.0034424525
2	0x3ae6def0	0.0017614048
3	0xbb7c15b8	-0.0038465094
4	0x3b4c35d1	0.0031160007
5	0xbb4a0f3b	-0.0030831832
6	0x38d6101f	0.00010207318
7	0xbc4afbe7	-0.01238916
8	0x3c6644f7	0.014054528
9	0xbb1440bb	-0.002262159
10	0xbbab3f4c	-0.0052260514
11	0xbbc02c2b	-0.00586464
12	0xbc14320b	-0.009045134
13	0x3bfea22b	0.007770797
14	0xbb854ea0	-0.0040682107
15	0xbc380bfd	-0.011233327
16	0xbc5ac94d	-0.013353658
17	0xbc135413	-0.008992213
18	0xbc24071c	-0.010011461
19	0x3bff4872	0.0077906186
20	0xbbdaa75f	-0.006672784
21	0xbc4e262a	-0.012582341
22	0x3b95458b	0.0045554093
23	0x3b0dc743	0.0021633662
24	0xba10191f	-0.00054969074
25	0x3afb4e87	0.0019173183
26	0xbb82a85f	-0.0039873566
27	0xbc9e7d55	-0.019346872
28	0xbd05b56f	-0.03264373
29	0xbaa2694b	-0.0012390999
30	0x3bfe815d	0.007766886
31	0xbcbccb16	-0.023046058

running_var f4 [32]
0	0x3f67094d	0.90248567
1	0x3f670dcd	0.90255433
2	0x3f6718a3	0.9027197
3	0x3f673068	0.9030824
4	0x3f6712f2	0.90263283
5	0x3f671733	0.90269774
6	0x3f676a9b	0.9039704
7	0x3f66e018	0.9018569
8	0x3f66fa1b	0.9022538
9	0x3f670032	0.90234673
10	0x3f66f048	0.9021039
11	0x3f67314e	0.9030961
12	0x3f671e57	0.9028067
13	0x3f674c1d	0.90350515
14	0x3f6716b8	0.9026904
15	0x3f66fc8c	0.90229106
16	0x3f674b9e	0.9034976
17	0x3f674d8d	0.9035271
18	0x3f675071	0.9035712
19	0x3f6738d8	0.9032111
20	0x3f66f871	0.9022284
21	0x3f6733fe	0.9031371
22	0x3f6725aa	0.90291846
23	0x3f673f06	0.9033054
24	0x3f673e4e	0.90329444
25	0x3f67104e	0.90259254
26	0x3f671f99	0.9028259
27	0x3f67479b	0.90343636
28	0x3f678e1e	0.9045123
29	0x3f671c9c	0.9027803
30	0x3f6715d4	0.9026768
31	0x3f67010c	0.9023597

weight f4 [8, 32, 1, 1]
0	0xbe9e5d69	-0.3093064
1	0x3da70c38	0.081566274
2	0xbe7f315d	-0.24921174
3	0xbe34b5d5	-0.17647488
4	0x3ea50990	0.32233858
5	0xbe6ededa	-0.23327199
6	0xbe8a3030	-0.2698989
7	0xbe5d201b	-0.21594279
8	0x3e7df1d4	0.24799281
9	0xbe203739	-0.15646066
10	0x3df187f0	0.11793506
11	0xbd940918	-0.07228297
12	0xbeab6f38	-0.3348329
13	0x3d9fe214	0.07806793
14	0x3ea86c70	0.3289523
15	0x3d994d3c	0.074854344
16	0xbeb48af3	-0.3526226
17	0xbea7d531	-0.3277984
18	0xbe59902d	-0.21246405
19	0xbe6a547f	-0.22883795
20	0x3e49f6c0	0.19723034
21	0xbe927bcb	-0.28610072
22	0x3e25d368	0.16193926
23	0x3dc94498	0.09827536
24	0xbebf014b	-0.37305674
25	0xbe531770	-0.2061441
26	0x3e8e937a	0.2784689
27	0xbec26628	-0.37968564
28	0x3e5871dc	0.21137184
29	0xbe2457e4	-0.16049153
30	0x3d69dae0	0.0570935
31	0xbe4fe1d2	-0.20300987
32	0xbe81ede6	-0.25376815
33	0x3e971336	0.29506844
34	0x3db767b0	0.08955324
35	0x3d0aab30	0.033854663
36	0x3eb80f0c	0.3594898
37	0xbdf7e9e8	-0.12105161
38	0xbe3fe2a6	-0.18738803
39	0x3e4b2000	0.19836426
40	0x3dad3b1c	0.0845854
41	0xbde5f754	-0.11228815
42	0xbe6e9284	-0.23298079
43	0x3d2a54d8	0.04158482
44	0xbea79080	-0.32727432
45	0xbddc2794	-0.107497364
46	0xbe90b9f2	-0.28266865
47	0x3eae4328	0.3403561
48	0xbbc5ef80	-0.0060405135
49	0xbe3746ee	-0.17898151
50	0xbea2401f	-0.31689546
51	0x3e3f01c4	0.18653017
52	0x3ea67e86	0.32518405
53	0xbddd77d0	-0.10813868
54	0xbe843d50	-0.25828028
55	0x3e9d5690	0.30730104
56	0xbe51b2fd	-0.20478435
57	0x3cd7c590	0.026339322
58	0xbebcd503	-0.36881265
59	0x3e87d878	0.2653234
60	0x3dcbb6c4	0.09946969
61	0x3e9bcac4	0.30428135
62	0x3e35a7c0	0.17739773
63	0x3e6774b4	0.22603112
64	0xbc84bf90	-0.016204625
65	0x3e974964	0.2954818
66	0x3e7b2cc4	0.24528795
67	0x3e09a7e8	0.13442957
68	0xbdec29bc	-0.11531398
69	0x3ea6704c	0.3250755
70	0xbe48f667	-0.19625245
71	0x3d982ccc	0.07430419
72	0x3cc501a0	0.024048626
73	0x3df91a60	0.12163234
74	0x3ca5b150	0.02022615
75	0xbe6b30cc	-0.22967833
76	0xbeb1961d	-0.3468484
77	0x3da75d30	0.08172071
78	0xbe33700e	-0.17523214
79	0xbb875e00	-0.0041310787
80	0x3e6dac24	0.23210198
81	0xbcd19da0	-0.025587857
82	0xbe8a23ce	-0.26980442
83	0x3d087108	0.03331092
84	0x3df77020	0.12081933
85	0x3ea90726	0.33013266
86	0x3e08ff90	0.1337874
87	0xbe7c9391	-0.24665667
88	0x3d858110	0.06518757
89	0xbe95d2fa	-0.29262525
90	0x3d85dd44	0.06536344
91	0x3dad5f04	0.084653884
92	0x3ebeb378	0.372463
93	0x3c57b5a0	0.013165861
94	0x3d925b68	0.071463406
95	0x3ea9e936	0.33185738
96	0x3d2b4b50	0.04181987
97	0x3e9753c2	0.2955609
98	0x3e37fa18	0.17966497
99	0xbe97361a	-0.29533464
100	0xbe188ac6	-0.14896688
101	0xbc80d260	-0.015725315
102	0xbdd3c290	-0.10339844
103	0xbddd4d98	-0.108058155
104	0x3e975876	0.29559678
105	0xbe5990fa	-0.2124671
106	0xbd0e8690	-0.034796298
107	0x3e1ae610	0.15126824
108	0xbd537128	-0.051621586
109	0xbe216f62	-0.15765145
110	0xbdf8e36c	-0.12152752
111	0xbdb0a578	-0.08625311
112	0x3e8e3a86	0.27779025
113	0xbe0b4ede	-0.13604304
114	0xbec04431	-0.37552026
115	0xbe735aaf	-0.23765062
116	0xbdba0ff0	-0.09085071
117	0xbe8600fb	-0.26172623
118	0x3ea2144a	0.31656104
119	0xbdd26438	-0.102730215
120	0xbe89dda0	-0.269269
121	0xbe39cec0	-0.18145275
122	0xbe752b8c	-0.23942393
123	0xbd04bf80	-0.03240919
124	0xbe0f40e8	-0.13989604
125	0x3e2dfe38	0.16991508
126	0x3c7987a0	0.015230089
127	0xbea7e25a	-0.3278988
128	0x3e1ed34c	0.15510291
129	0xbd91e674	-0.071240336
130	0x3d903874	0.070420176
131	0x3dcf3cec	0.10119042
132	0x3e83f2f2	0.2577129
133	0xbe2294f2	-0.1587713
134	0x3e08a048	0.13342392
135	0x3e751f48	0.23937714
136	0x3ea5c306	0.32375354
137	0xbde8536c	-0.113440365
138	0xbea2fda3	-0.31834134
139	0x3ea3e320	0.3200922
140	0xbeaf627e	-0.3425483
141	0xbe3fb618	-0.18721807
142	0xbe8d1852	-0.27557617
143	0x3e9586b2	0.29204327
144	0xbb91dc80	-0.0044513345
145	0x3eb27f9a	0.34862977
146	0xbe4b4214	-0.19849426
147	0x3e7cccdc	0.24687523
148	0xbebc5e37	-0.3679063
149	0x3da0497c	0.07826516
150	0xbd23b2f0	-0.03996557
151	0x3eba33b2	0.36367565
152	0xbea36859	-0.31915548
153	0xbe8c55e3	-0.27409276
154	0xbe5366e4	-0.20644718
155	0x3e414030	0.18872142
156	0x3e196118	0.14978445
157	0x3e53dfe8	0.20690882
158	0x3e5a95b4	0.2134617
159	0x3e89e752	0.26934296
160	0xbe03a6be	-0.12856576
161	0x3e513c6c	0.20433205
162	0x3e09ef2c	0.13470143
163	0xbdd5a4a0	-0.1043179
164	0x3e1cc2b4	0.15308648
165	0xbe2e6748	-0.17031586
166	0xbe79fd43	-0.24413018
167	0xbea034c5	-0.3129026
168	0xbe02633c	-0.12733167
169	0x3cbea090	0.023269922
170	0xbc702220	-0.0146565735
171	0x3d1b8598	0.0379692
172	0x3e518a9c	0.20463032
173	0xbec28bf7	-0.3799741
174	0x3ec4919c	0.3839234
175	0x3dc130b8	0.094331205
176	0x3e9b0922	0.30280405
177	0x3d792f70	0.060836256
178	0xbead55cd	-0.33854523
179	0x3d313648	0.043264657
180	0x3e0e9e18	0.13927495
181	0x3e7cab74	0.24674779
182	0x3e7bc570	0.24587035
183	0x3e35a498	0.17738569
184	0xbe7cc65d	-0.24685045
185	0xbcca0a40	-0.02466309
186	0x3e00d9dc	0.12583107
187	0xbe5dc4a6	-0.21657047
188	0xbe5636a9	-0.20919289
189	0xbd8e6cb4	-0.06954327
190	0xbead2928	-0.33820462
191	0x3c6032c0	0.013683975
192	0xbb990480	-0.004669726
193	0xbeaa2cac	-0.33237207
194	0xbb304a80	-0.0026899874
195	0x3e1675d0	0.1469338
196	0xbddca738	-0.10774082
197	0xbea3376a	-0.31878215
198	0xbd9778d8	-0.07396096
199	0x3e9dece8	0.30844808
200	0x3e6476e0	0.22310972
201	0x3eae256a	0.3401292
202	0x3e1377bc	0.14401144
203	0xbe92c114	-0.28662932
204	0xbeaa74e1	-0.33292297
205	0x3e885358	0.26626086
206	0xbe7a7541	-0.24458791
207	0x3eac6f26	0.3367855
208	0x3eb34bb0	0.35018682
209	0x3da699bc	0.08134791
210	0x3e37d238	0.17951286
211	0xbe6cdac0	-0.23130322
212	0x3dd591d0	0.10428202
213	0x3eb9fa98	0.36324
214	0xbe2dc4eb	-0.1696965
215	0x3e3ba518	0.18324697
216	0x3e80c22e	0.25148147
217	0x3973d800	0.00023254752
218	0xbe9a1faa	-0.30102283
219	0xbd876e14	-0.066127926
220	0x3de442a8	0.11145526
221	0xbe3ea478	-0.18617427
222	0x3e3fa678	0.18715847
223	0x3ec19218	0.37806773
224	0xbe9aa19b	-0.3020142
225	0x3e91d8da	0.28485757
226	0xbcadd790	-0.021220952
227	0xbe8c8af8	-0.27449775
228	0xbeb9fe31	-0.36326745
229	0xbebfc648	-0.37455964
230	0xbe1f6cc0	-0.15568829
231	0xbdc3972c	-0.09550318
232	0x3dfa2cb8	0.12215561
233	0xbec6439b	-0.38723454
234	0xbe9e14f6	-0.30875367
235	0xbe4a9c22	-0.19786122
236	0xbdb42398	-0.087958515
237	0x3def84d8	0.1169526
238	0x3cf1e020	0.029525816
239	0xbd748d00	-0.05970478
240	0xbcb40260	-0.021973789
241	0x3dc9635c	0.098334044
242	0xbea57f52	-0.323237
243	0xbe23f287	-0.16010486
244	0x3d5888c0	0.05286479
245	0xbe6311a5	-0.221747
246	0x3e72266c	0.2364747
247	0xbe2d64db	-0.16933005
248	0xbdea8304	-0.114507705
249	0xbe477a41	-0.1948023
250	0x3e891d72	0.26780277
251	0x3eb48e1e	0.35264677
252	0xbebcef39	-0.36901262
253	0xbea2f8fd	-0.31830588
254	0x3e987394	0.2977568
255	0x3e4e5168	0.20148242

bias f4 [8]
0	0x3df45632	0.11930503
1	0x3c56a310	0.013100401
2	0x3cefed98	0.029288098
3	0xbdd95302	-0.106115356
4	0xbd74a33c	-0.059725985
5	0xbd8e58ac	-0.069505066
6	0x3e259805	0.16171272
7	0x3e04b591	0.12959887

weight f4 [8]
0	0x3f800000	1.0
1	0x3f800000	1.0
2	0x3f800000	1.0
3	0x3f800000	1.0
4	0x3f800000	1.0
5	0x3f800000	1.0
6	0x3f800000	1.0
7	0x3f800000	1.0

bias f4 [8]
0	0x00000000	0.0
1	0x00000000	0.0
2	0x00000000	0.0
3	0x00000000	0.0
4	0x00000000	0.0
5	0x00000000	0.0
6	0x00000000	0.0
7	0x00000000	0.0

running_mean f4 [8]
0	0xbdb08f27	-0.08621054
1	0x3c5315dd	0.012883631
2	0x3d568760	0.052375197
3	0xbdb661b5	-0.08905355
4	0x3d16798d	0.036737014
5	0xbca714cd	-0.02039566
6	0x3d8aa8e5	0.06770495
7	0xbdadd978	-0.084887445

running_var f4 [8]
0	0x3f666936	0.9000429
1	0x3f666873	0.90003127
2	0x3f66847b	0.900459
3	0x3f667042	0.9001504
4	0x3f66a441	0.9009438
5	0x3f667c6b	0.90033597
6	0x3f666c89	0.9000936
7	0x3f666bf6	0.90008485

weight f4 [32, 8, 1, 1]
0	0xbe34e3a4	-0.17664963
1	0xbe1480c8	-0.14502251
2	0xbd44db40	-0.048060656
3	0xbe953aac	-0.29146326
4	0xbe8eef3f	-0.27916905
5	0x3e83413a	0.256357
6	0x3ebc03b4	0.36721575
7	0xbe755617	-0.23958622
8	0x3a5d6a00	0.0008446276
9	0xbe099730	-0.1343658
10	0xbe3461c7	-0.17615424
11	0xbdab8cf4	-0.08376494
12	0xbe87179d	-0.26385203
13	0x3e81e6bc	0.2537135
14	0xbea3efe0	-0.32018948
15	0xbbfb50c0	-0.0076695383
16	0x3dc09b5c	0.094046324
17	0xbbce6a40	-0.006299287
18	0xbe9816e6	-0.2970497
19	0xbe182123	-0.1485639
20	0xbe4786ea	-0.1948506
21	0xbe765932	-0.24057463
22	0x3eb339a4	0.35004914
23	0x3e98fd6c	0.29880846
24	0x3dabbf70	0.08386123
25	0x3c12e580	0.00896585
26	0x3e6bf978	0.23044384
27	0x3e92f2ee	0.28700966
28	0x3df403f8	0.119148195
29	0x3de7b248	0.11313301
30	0x3e9e5672	0.30925328
31	0xbd4c4920	-0.049874425
32	0xbdbe45b0	-0.092906356
33	0x3d4e5b28	0.050379902
34	0xbea739d1	-0.32661298
35	0x3ea086fa	0.3135298
36	0xbe8d5882	-0.2760659
37	0xbbe1fac0	-0.006896347
38	0x3dede5a8	0.11616069
39	0xbe281466	-0.16414031
40	0xbe9725eb	-0.29521117
41	0xbd118078	-0.035522908
42	0x3c177780	0.0092448
43	0xbe42eeef	-0.19036458
44	0xbe704db2	-0.23467138
45	0x3ebd0ace	0.36922306
46	0x3e3fb284	0.18720442
47	0xbd061eb0	-0.03274411
48	0x3e4b2544	0.19838434
49	0x3ea88776	0.32915848
50	0xbda4ebc0	-0.08052778
51	0xbd8bcbb4	-0.06825963
52	0x3e9b4f20	0.30333805
53	0xbeae2002	-0.34008795
54	0xbe8b30df	-0.27185723
55	0x3e9260de	0.2858953
56	0xbe57ec17	-0.21086155
57	0xbd337b78	-0.04381892
58	0x3e955e1a	0.29173356
59	0xbe89f099	-0.26941374
60	0x3d657c48	0.056026727
61	0x3e903270	0.2816348
62	0xbe8aa30f	-0.2707753
63	0x3e862d48	0.26206422
64	0x3e8edefc	0.279045
65	0x3e62df04	0.22155386
66	0x3e212580	0.15736961
67	0xbdd0c164	-0.10193136
68	0xbe826358	-0.25466418
69	0x3ea82258	0.32838702
70	0x3d4747d8	0.0486525
71	0xbe846c12	-0.258637
72	0xbd605ee0	-0.05477798
73	0x3e3a65e0	0.18202925
74	0xbd41ceb8	-0.047316283
75	0xbec07b8c	-0.3759426
76	0x3e45c770	0.1931436
77	0xbe851777	-0.25994465
78	0x3dfb9568	0.12284356
79	0x3df46870	0.11933982
80	0x3e19e9b8	0.15030563
81	0x3d8629f0	0.06550968
82	0xbe9fd1dd	-0.312148
83	0x3e8235ee	0.2543177
84	0xbebe5f2c	-0.37181985
85	0xbec5ca3b	-0.38630852
86	0x3ec20ebe	0.37901872
87	0x3ea2c5e6	0.3179161
88	0xbe91073e	-0.28325838
89	0xbe421eaa	-0.1895701
90	0x3e96a622	0.29423624
91	0xbd9556bc	-0.07291934
92	0xbea23c22	-0.31686503
93	0x3e0b86c4	0.13625628
94	0xbe2000ed	-0.15625353
95	0x3e093a38	0.13401115
96	0xbeb79e46	-0.3586294
97	0xbea537a4	-0.32269013
98	0xbe255aca	-0.16147915
99	0xbeb7d3fe	-0.35903925
100	0xbe8201c8	-0.25391984
101	0x3d212428	0.039341122
102	0xbe41c6e1	-0.18923523
103	0x3e89a416	0.26883
104	0x3dd3e1ac	0.10345778
105	0x3e844998	0.25837398
106	0xbec2eca7	-0.38071176
107	0x3d51c370	0.051211774
108	0x3e80887a	0.25104123
109	0x3e15251c	0.14564937
110	0xbe0a2b86	-0.13493165
111	0x3e477f54	0.19482166
112	0x3ce57820	0.028011382
113	0xbe289024	-0.16461235
114	0xbe912316	-0.2834708
115	0xbe8be374	-0.2732197
116	0xbe0c6376	-0.13709816
117	0xbec315f1	-0.38102677
118	0xbc539fe0	-0.012916535
119	0x3e0bc878	0.13650692
120	0x3e530138	0.20605934
121	0x3e933738	0.28753066
122	0xbda91c8c	-0.08257398
123	0x3e4759d0	0.19467854
124	0xbec570a5	-0.38562503
125	0x3d96ba14	0.0735971
126	0x3e88bd76	0.26707047
127	0x3e7ef62c	0.24898595
128	0xbe29fef3	-0.16601162
129	0x3ec4ee78	0.38463187
130	0x3e342db4	0.1759556
131	0xbe7e237d	-0.24818225
132	0x3d058580	0.03259802
133	0xbeb6dc68	-0.35715032
134	0xbe8adc68	-0.27121282
135	0xbdbcd260	-0.09219813
136	0xbeb73cbf	-0.35788533
137	0x3ebbece4	0.3670417
138	0x3e8ad17c	0.2711295
139	0xbdd31160	-0.103060484
140	0xbeb1ab4d	-0.34701005
141	0x3d3c88c8	0.046028882
142	0xbe3ac0cc	-0.18237609
143	0xbe8cfc06	-0.2753603
144	0xbe9d55d8	-0.30729556
145	0x3e28d668	0.1648804
146	0xbeb7ffcd	-0.35937348
147	0xbe9cda64	-0.3063537
148	0xbec1d5be	-0.37858385
149	0xbe5bac25	-0.21452387
150	0xbdf6a560	-0.120432615
151	0xbe163ff7	-0.14672838
152	0x3df4c130	0.1195091
153	0x3e5759e4	0.21030384
154	0x3d92544c	0.071449846
155	0x3cb867e0	0.022510469
156	0xbe5482c2	-0.20753005
157	0x3e25a6fc	0.1617698
158	0xbeb0f1f6	-0.34559602
159	0x3eb88cb2	0.36044842
160	0x3e55a7a8	0.20864737
161	0x3e7a3230	0.24433208
162	0x3da14338	0.07874149
163	0x3e887c58	0.26657367
164	0x3e5f10f8	0.21783817
165	0x3d6a39d0	0.05718404
166	0x3d4d4110	0.050110877
167	0xbd644c08	-0.05573657
168	0xbbd32740	-0.006443888
169	0xbc2bc9e0	-0.0104851425
170	0xbe8bce52	-0.27305847
171	0xbea8a909	-0.32941464
172	0x3e8a54b8	0.2701776
173	0x3e19112c	0.14947957
174	0xbea23da8	-0.31687665
175	0x3d743100	0.059617043
176	0xbcd594a0	-0.026071846
177	0xbe11da5b	-0.14243452
178	0x3e2e4174	0.17017156
179	0x3ea363b4	0.31912005
180	0x3d0431c8	0.032274038
181	0x3b93bbc0	0.0045084655
182	0xbd2e12c8	-0.04249838
183	0x3e62e190	0.22156358
184	0xbe1c6bb8	-0.15275466
185	0xbe0670a4	-0.13128906
186	0x3eb61a82	0.355671
187	0xbcf1fc70	-0.029539317
188	0x3ea7a7ae	0.32745117
189	0xbde5f168	-0.11227685
190	0x3dd35550	0.103190064
191	0xbe8bc990	-0.27302217
192	0xbcec4d30	-0.0288454
193	0x3e69f9b4	0.2284916
194	0x3eb29a70	0.3488345
195	0xbec5e7a7	-0.386533
196	0x3e5cddf4	0.21569043
197	0x3d0bc820	0.0341264
198	0xbe9ab8e3	-0.30219182
199	0xbea463e6	-0.32107466
200	0x3e5185d4	0.20461208
201	0x3ec3748e	0.38174862
202	0x3e5d7dbc	0.21629995
203	0xbebf3196	-0.3734252
204	0xbe4d7185	-0.20062836
205	0xbd4b8e50	-0.049696267
206	0x3dccf1b4	0.10007039
207	0x3e868098	0.26269984
208	0x3e1bdb6c	0.15220422
209	0x3e4846b0	0.19558215
210	0x3c4d35e0	0.012525052
211	0x3cf286d0	0.0296053
212	0x3ead148e	0.33804744
213	0xbd9baba0	-0.07601094
214	0xbe5d59e3	-0.2161632
215	0x3da95778	0.082686365
216	0x3e7c282c	0.246247
217	0x3dfa72a0	0.12228894
218	0x3ea0c628	0.3140118
219	0x3cefc3d0	0.029268175
220	0x3cb42800	0.02199173
221	0xbea3784e	-0.31927723
222	0xbe2297ca	-0.15878215
223	0xbe67b98b	-0.22629373
224	0xbdf350b4	-0.11880627
225	0x3e2002fc	0.15626138
226	0x3ec2a7c0	0.38018608
227	0xbe0b714a	-0.13617435
228	0x3d5f3a40	0.05449891
229	0x3e0f64fc	0.14003366
230	0xbdf6b358	-0.12045926
231	0x3eae4642	0.34037977
232	0x3ab9a000	0.0014162064
233	0x3e54ae40	0.20769596
234	0x3e5f0424	0.21778923
235	0xbe3a7fe7	-0.18212853
236	0xbda94bb4	-0.08266392
237	0x3e79fbc8	0.24412453
238	0xbdc35acc	-0.095388025
239	0xbec22e05	-0.37925735
240	0xbe954b57	-0.29159042
241	0xbd9d8ae8	-0.0769251
242	0xbe83ddb4	-0.25755084
243	0xbe2b7ef7	-0.16747652
244	0xbe605a40	-0.21909428
245	0x3e457d08	0.19285977
246	0xbc219d80	-0.009864211
247	0x3d761110	0.060074866
248	0xbcd13150	-0.02553621
249	0x3e76b558	0.24092615
250	0xbe921368	-0.2853043
251	0x3daacb60	0.08339572
252	0xbec56289	-0.3855174
253	0xbeabbca0	-0.33542347
254	0x3eb5e198	0.35523677
255	0xbe3512c2	-0.17682937

bias f4 [32]
0	0xbdc380a8	-0.095460236
1	0x3eadbb5b	0.33932003
2	0xbea80ea4	-0.3282367
3	0xbe586867	-0.21133576
4	0xbe19d1c2	-0.15021423
5	0xbe2d3f46	-0.16918668
6	0x3dffe2e8	0.12494451
7	0x3e78345e	0.24238726
8	0xbe1f8474	-0.1557787
9	0xbe352024	-0.17688042
10	0x3e3d3b6a	0.18479696
11	0xbdcafd94	-0.099116474
12	0xbe7a2484	-0.24427992
13	0xbe68a387	-0.2271863
14	0x3e9c9477	0.3058202
15	0xbe987bb9	-0.29781893
16	0xbdfa5138	-0.122225225
17	0x3d38d8f8	0.045128793
18	0x3e7b1756	0.2452062
19	0xbe00b664	-0.12569577
20	0x3ea7300b	0.3265384
21	0x3bb5b440	0.005545169
22	0x3dcc8f7c	0.09988305
23	0x3eaa10c1	0.33215907
24	0x3ea6eb5b	0.32601437
25	0xbdc3e1e8	-0.095645726
26	0xbe57f9d9	-0.21091403
27	0x3d7e5228	0.06209007
28	0x3e85d687	0.26140234
29	0x3eb31e6d	0.3498415
30	0x3e2d3e86	0.16918382
31	0xbdd90e1c	-0.10598394

weight f4 [32, 4, 3, 3]
0	0xbc036c80	-0.008021474
1	0xbda11f16	-0.07867257
2	0x3cbcf078	0.023063883
3	0x3dafa6c2	0.085767284
4	0x3c69f6f0	0.014280066
5	0x3dc8048e	0.09766494
6	0xbd8be4eb	-0.06830772
7	0xbd932540	-0.07184839
8	0xbd001cae	-0.03127735
9	0xbccc22c0	-0.024918914
10	0xbdeb9417	-0.11502855
11	0x3da4e466	0.08051376
12	0x3c4e8ed0	0.012607291
13	0xbd69ba40	-0.057062387
14	0xbdf3f1ad	-0.1191133
15	0x3d00cefc	0.031447396
16	0x3dbf7e28	0.09350234
17	0xbd91cede	-0.07119535
18	0xbdb523da	-0.08844729
19	0x3dc0d5b4	0.09415761
20	0x3dd98d38	0.106226385
21	0x3d90d02c	0.07070956
22	0x3ccfed90	0.025381833
23	0x3e0170b8	0.12640655
24	0xbd464968	-0.04840985
25	0xbe0b42dd	-0.13599725
26	0xbdd4c6df	-0.10389494
27	0xbc823ab8	-0.01589714
28	0xbe08293a	-0.13296977
29	0x3da01dd0	0.07818186
30	0xbe067dea	-0.1313397
31	0xbd878e0b	-0.066188894
32	0x3dcf8a5e	0.10133813
33	0x3bab0520	0.005219117
34	0xbdc2abdc	-0.09505436
35	0xbc1a63f0	-0.009423241
36	0xbd1ef808	-0.03881076
37	0x3dc3ddbe	0.09563778
38	0xbd7984c6	-0.06091764
39	0xbe05e2a8	-0.13074744
40	0x3e044498	0.12916791
41	0xbc9984bc	-0.01874005
42	0xbda56aba	-0.08076997
43	0x3da58bbc	0.08083293
44	0xbd6973a8	-0.056995064
45	0x3d77cd78	0.060498685
46	0x3e02a254	0.12757236
47	0x3c19df90	0.00939168
48	0xbde3feb3	-0.111325644
49	0x3d2ad8ac	0.04171054
50	0xbd06f6f0	-0.03295034
51	0xbdbfcedb	-0.093656264
52	0xbbd109c0	-0.006379336
53	0x3daf8094	0.08569446
54	0xbda5553c	-0.08072898
55	0x3d58d060	0.052933097
56	0x3d426650	0.047460854
57	0xbe08de05	-0.13365944
58	0x3cad3490	0.021143228
59	0x3dbf37c0	0.09336805
60	0xbdfa861e	-0.12232612
61	0xbd7792e2	-0.060442813
62	0x3de86358	0.11347073
63	0x3d385064	0.04499854
64	0x3d6e5828	0.05818954
65	0x3ddbea30	0.10738027
66	0x3e020b8e	0.1269972
67	0xbd8dd1f2	-0.069248095
68	0xbde95320	-0.11392808
69	0x3d974432	0.07386054
70	0xbd3d24a2	-0.046177514
71	0x3d30f860	0.04320562
72	0x3bebf5a0	0.0072009116
73	0xbc70cd80	-0.0146974325
74	0xbc9e2740	-0.019305825
75	0xbd1e6a62	-0.038675673
76	0x3c8a8c50	0.01691261
77	0xbd87984a	-0.06620844
78	0x3d453e9c	0.048155412
79	0xbc312c60	-0.0108138025
80	0xbdb82990	-0.089923024
81	0x3d695a48	0.056970865
82	0x3ddae356	0.10687892
83	0xbdd20521	-0.102548845
84	0x3df5a8cc	0.11995086
85	0x3d7931a8	0.06083837
86	0xbd727a34	-0.059198573
87	0x3df75cb8	0.120782316
88	0xbd54f0f4	-0.051987603
89	0xbd62dbb8	-0.05538532
90	0xbbced480	-0.006311953
91	0x3d9f14ce	0.0776764
92	0xbdedbb88	-0.11608034
93	0xbc8329d8	-0.016011164
94	0xbe0ab572	-0.13545778
95	0xbd87f0ad	-0.06637702
96	0x3df7cb30	0.12099302
97	0xbd62dbf0	-0.05538553
98	0xbc32cfc0	-0.010913789
99	0xbd9984bd	-0.07496021
100	0xbce42414	-0.027849235
101	0xba465400	-0.00075656176
102	0xbd87ce0d	-0.06631098
103	0xbdc59e48	-0.096493304
104	0x3e017b1e	0.12644622
105	0xbceabdc8	-0.028654948
106	0x3d95516e	0.07290922
107	0x3db8ace6	0.09017353
108	0xbdc0a08d	-0.09405623
109	0x3d686ecc	0.05674629
110	0xbd112dd6	-0.035444103
111	0xbdd2fcb0	-0.103021026
112	0xbdaee77a	-0.085402444
113	0xbc9263b4	-0.017869808
114	0xbb648c40	-0.0034873635
115	0x3c3f87b0	0.011690065
116	0xbd85e269	-0.06537325
117	0x3d883898	0.066514194
118	0x3dd993ce	0.10623895
119	0xbc9ce6e0	-0.019153059
120	0xbd8aeea9	-0.06783802
121	0x3d9374e8	0.072000325
122	0xbd24ebf8	-0.0402641
123	0x3c73d7b0	0.014882967
124	0xbd03787c	-0.032097325
125	0xbcd13490	-0.025537759
126	0x3d6f5e38	0.058439463
127	0xbc8c3ff0	-0.017120332
128	0xbd671eb6	-0.056425773
129	0x3d0250b0	0.03181523
130	0xbc635ed0	-0.0138775855
131	0xbe0360d7	-0.1282991
132	0xbd54627e	-0.051851742
133	0x3cf5c748	0.030002251
134	0x3de3d15c	0.111239165
135	0x3d05f7cc	0.03270702
136	0xbd4818de	-0.04885184
137	0xbc86fbb4	-0.016477443
138	0xbd94e604	-0.072704345
139	0x3d03f3e4	0.032215014
140	0xbd356814	-0.04428871
141	0xbd311c6e	-0.043240003
142	0xbe0a9dd3	-0.13536768
143	0x3d8ce130	0.068788886
144	0x3dbe5cee	0.09295069
145	0x3d1c2088	0.03811696
146	0x3c7e04a0	0.015504032
147	0x3d951444	0.07279256
148	0xbd793d62	-0.060849555
149	0xbdbf0234	-0.09326592
150	0x3dfb7010	0.122772336
151	0x3cb4b110	0.022057086
152	0x3c8aa7f8	0.016925797
153	0xbcdda9cc	-0.027058505
154	0x3d582700	0.05277157
155	0x3d6340e4	0.055481806
156	0xbc09d600	-0.008412838
157	0x3de6b7e4	0.11265543
158	0xbddf544d	-0.10904751
159	0xbd6fe3b4	-0.058566764
160	0xbdc5784c	-0.096420854
161	0x3d4112dc	0.047137126
162	0xbd55f3da	-0.052234508
163	0x3dc32772	0.09529008
164	0x3cfdc678	0.030978426
165	0x3d82c284	0.06384757
166	0xbde0ee0c	-0.10982904
167	0xbd92cf2b	-0.071684204
168	0x3e03fb52	0.1288884
169	0x3d90e58c	0.070750326
170	0xbc589458	-0.013218962
171	0xbd36d9f4	-0.04464145
172	0xbd89b685	-0.06724266
173	0x3dae02e2	0.084966436
174	0x3deb5518	0.1149084
175	0xbdd53ab0	-0.104115844
176	0xbb874040	-0.0041275322
177	0xbc76e8f0	-0.015070185
178	0x3cca5538	0.024698839
179	0xbc68e430	-0.01421456
180	0xbdb8d65a	-0.09025259
181	0xbdc48f90	-0.09597695
182	0xbdb58c0a	-0.08864601
183	0x3c8511f0	0.016243905
184	0xbe00d6a3	-0.12581877
185	0xbbb702a0	-0.0055850297
186	0x3df7d0a8	0.12100345
187	0x3d78220c	0.060579345
188	0x3d826a1c	0.06367895
189	0x3df2e64c	0.11860332
190	0xbd1ff9c4	-0.039056554
191	0xbdd1b1f4	-0.1023902
192	0x3d107fe8	0.03527823
193	0x3ca27ac8	0.019833937
194	0x3ddfbffa	0.109252885
195	0x3cdfb5d8	0.02730839
196	0x3d3d4330	0.046206653
197	0xbd0edb28	-0.034876972
198	0x3e0a493c	0.13504499
199	0x3dee6ab4	0.11641446
200	0x3ddf578a	0.109053686
201	0xbd21324c	-0.039354607
202	0xbe090a65	-0.13382871
203	0x3d09e60c	0.033666655
204	0xbca79b94	-0.020459928
205	0xbd12ed4c	-0.035870835
206	0xbc2937d0	-0.010328248
207	0xbd852d26	-0.06502752
208	0x3d13fdb8	0.036130637
209	0xbd536030	-0.051605403
210	0xbb052180	-0.0020314157
211	0xbda3c555	-0.079966225
212	0x3d1989e8	0.037485033
213	0x3c0fc750	0.008775547
214	0x3ce50e90	0.027961046
215	0x3e0a66a0	0.13515711
216	0x3de19982	0.110156074
217	0x3dd49bfa	0.10381313
218	0x3d86c0cc	0.06579742
219	0x3d4d97c0	0.05019355
220	0xbdbe6519	-0.092966266
221	0x3cdbb4e0	0.026819646
222	0x3ddf1304	0.10892299
223	0x3d1116b0	0.035422027
224	0xbda7f0f6	-0.082002565
225	0xbc7cb638	-0.015424304
226	0x3d9d25fa	0.07673259
227	0xbdba959b	-0.09110566
228	0x3cb5b008	0.022178665
229	0xbdbed5aa	-0.09318097
230	0x3a997b80	0.001170978
231	0xbe0a59b9	-0.13510789
232	0x3d7905cc	0.060796544
233	0xbc13eeb0	-0.0090290755
234	0xbdeea550	-0.116526246
235	0x3bc50c40	0.006013423
236	0x3e048b6e	0.12943813
237	0x3de11906	0.10991101
238	0x3df20288	0.11816889
239	0x3d4d56b8	0.05013153
240	0xbdb78ec0	-0.08962774
241	0xbdafe970	-0.085894465
242	0xbd543a02	-0.051813133
243	0x3dd6d4f8	0.10489839
244	0xbd8c18be	-0.06840657
245	0xbdeb28d2	-0.11482395
246	0xbd2ccbea	-0.042186655
247	0xbd80c8e4	-0.06288317
248	0x3e0a29d8	0.13492525
249	0xbdb26161	-0.0870998
250	0xbd93b854	-0.07212892
251	0xbcb02018	-0.021499678
252	0xbe006eb4	-0.1254223
253	0xbd53ffba	-0.05175755
254	0xbc91fe50	-0.017821461
255	0xbd91bc2e	-0.071159706

weight f4 [32]
0	0x3f800000	1.0
1	0x3f800000	1.0
2	0x3f800000	1.0
3	0x3f800000	1.0
4	0x3f800000	1.0
5	0x3f800000	1.0
6	0x3f800000	1.0
7	0x3f800000	1.0
8	0x3f800000	1.0
9	0x3f800000	1.0
10	0x3f800000	1.0
11	0x3f800000	1.0
12	0x3f800000	1.0
13	0x3f800000	1.0
14	0x3f800000	1.0
15	0x3f800000	1.0
16	0x3f800000	1.0
17	0x3f800000	1.0
18	0x3f800000	1.0
19	0x3f800000	1.0
20	0x3f800000	1.0
21	0x3f800000	1.0
22	0x3f800000	1.0
23	0x3f800000	1.0
24	0x3f800000	1.0
25	0x3f800000	1.0
26	0x3f800000	1.0
27	0x3f800000	1.0
28	0x3f800000	1.0
29	0x3f800000	1.0
30	0x3f800000	1.0
31	0x3f800000	1.0

bias f4 [32]
0	0x00000000	0.0
1	0x00000000	0.0
2	0x00000000	0.0
3	0x00000000	0.0
4	0x00000000	0.0
5	0x00000000	0.0
6	0x00000000	0.0
7	0x00000000	0.0
8	0x00000000	0.0
9	0x00000000	0.0
10	0x00000000	0.0
11	0x00000000	0.0
12	0x00000000	0.0
13	0x00000000	0.0
14	0x00000000	0.0
15	0x00000000	0.0
16	0x00000000	0.0
17	0x00000000	0.0
18	0x00000000	0.0
19	0x00000000	0.0
20	0x00000000	0.0
21	0x00000000	0.0
22	0x00000000	0.0
23	0x00000000	0.0
24	0x00000000	0.0
25	0x00000000	0.0
26	0x00000000	0.0
27	0x00000000	0.0
28	0x00000000	0.0
29	0x00000000	0.0
30	0x00000000	0.0
31	0x00000000	0.0
