trained_model/TRAIN_FIAT(BongNet).pt (torch, 167094 bytes, 139 tensors)

weight f4 [3, 1, 3, 3]
000000 6c a5 dc bd b7 82 ea 3d 2d eb d2 3d ca be 99 be
       -0.10773739 0.11450713 0.102987625 -0.30028373
000010 7c 9c 21 be f7 b2 b4 3e 9a d5 31 3e e9 7d f5 bd
       -0.1578235 0.3529279 0.17366639 -0.11986906
000020 bc e6 2c 3e 00 1a 3a 3e da 05 90 3e 4e 8e 66 3d
       0.16884893 0.1817398 0.28129464 0.056288056
000030 c3 ff e4 3d 51 cf 75 3e e8 37 b8 be 13 7b 8c 3c
       0.11181595 0.24004866 -0.35980153 0.01714853
000040 17 10 25 3e cc 9b 1a 3e 3b 7c d1 3e 8e 70 54 3e
       0.16119419 0.15098494 0.40915093 0.20746061
000050 1c 40 a9 be 0b c7 e7 bd 73 80 ff bd c7 e8 01 be
       -0.33056724 -0.11317261 -0.124756716 -0.12686454
000060 cc 30 e2 3c 6a 47 7d 3d a9 c2 78 3e
       0.027611159 0.061835684 0.24293007

weight f4 [3]
000000 41 98 80 3f 05 2e 78 3f 2a b1 7c 3f
       1.0046464 0.9694522 0.9870783

bias f4 [3]
000000 5f 1f f3 3b 0c a3 b3 3c 12 7c 4e 3c
       0.007419511 0.021928333 0.012602823

running_mean f4 [3]
000000 24 09 25 42 33 c2 15 43 86 37 2a 42
       41.258926 149.75859 42.554222

running_var f4 [3]
000000 3c 8f ec 43 22 e9 7a 45 8d 76 14 44
       473.11902 4014.5708 593.85236

weight f4 [12, 2, 1, 1]
000000 29 be fc be 11 2b 45 3d c0 05 db 3c f0 84 04 3f
       -0.4936383 0.048136774 0.02673614 0.51765347
000010 de df ff be 24 44 01 be 6f 07 4a bc 8e b0 6d be
       -0.49975485 -0.1262365 -0.012330874 -0.23211882
000020 03 51 ee be 18 c6 64 3e 10 08 23 bf f6 35 ec be
       -0.46546182 0.22341192 -0.6368418 -0.4613492
000030 a1 2d c7 3e 64 49 8b bd 7d 4c 21 3f 18 f1 cf 3e
       0.38902 -0.068011075 0.63007337 0.40613627
000040 9c 58 ee be 97 be 23 3f 76 93 fe be e3 1a 70 be
       -0.4655198 0.6396269 -0.4972188 -0.23447756
000050 9c a5 c0 be f3 ca 1a bf 99 7b a9 3e 0b b9 d9 3e
       -0.3762635 -0.60465926 0.3310211 0.4252399

weight f4 [12]
000000 65 21 83 3f 41 9e 7d 3f d2 61 83 3f 23 7d 7f 3f
       1.0244566 0.990696 1.0264227 0.9980032
000010 d9 3e 82 3f c7 13 82 3f 7c b3 7b 3f fb 25 80 3f
       1.017543 1.0162286 0.98320746 1.0011591
000020 86 95 7f 3f 94 a2 7d 3f f8 1d 83 3f ac fe 80 3f
       0.9983753 0.990762 1.0243521 1.007772

bias f4 [12]
000000 a7 3b c6 bc 79 57 86 3b 14 48 d6 bc d2 60 5c 3b
       -0.024198366 0.004099783 -0.026157416 0.0033627045
000010 d1 6c 9d bc cc 4e 6b bc f6 62 b9 3c 94 65 59 bb
       -0.019216927 -0.014362048 0.022630196 -0.0033172118
000020 97 c0 98 3c 4c f9 12 3c 50 94 c5 bc 8b 4f 9d 3a
       0.018646521 0.00897057 -0.024118572 0.0012001855

running_mean f4 [12]
000000 79 fd 98 bd 35 32 bb 3d 9d 0c d7 bd cc 26 28 bd
       -0.07470221 0.091404356 -0.10500453 -0.041052625
000010 df 62 26 bd 48 ae 3c be f5 9c 5c 3d 8d 06 32 3e
       -0.040621635 -0.18425858 0.053860623 0.17385311
000020 95 3d f3 3c c0 64 fb bd 85 93 28 be 38 f5 01 3e
       0.02969245 -0.12275076 -0.16462524 0.126912

running_var f4 [12]
000000 f6 2c 08 3d 4e d1 33 3d d2 cb 7a 3d 4d 16 11 3c
       0.033246003 0.04390078 0.061229534 0.008855415
000010 50 0e 53 3c 77 90 3a 3e 98 aa 91 3c da af 26 3e
       0.01288183 0.18219171 0.01778154 0.1627802
000020 fe d0 2d 3c 4a e5 a7 3d 38 37 12 3e 3f 77 ae 3d
       0.01060891 0.0819803 0.14278877 0.08518838

weight f4 [12, 1, 3, 3]
000000 34 e0 4b 3e ce e7 f7 3d 34 e6 3a be 0a ab d4 bc
       0.19909745 0.1210476 -0.18251878 -0.025960464
000010 12 90 bb 3c ce 43 ee bd 0f 89 45 bc 79 e3 c7 bc
       0.022895847 -0.116340265 -0.012056603 -0.02440046
000020 10 62 af 3d eb 1f 00 be c5 07 3e be a0 03 2e 3d
       0.08563626 -0.12512176 -0.18557651 0.042483926
000030 bc 88 b0 bc 1c 57 04 be fe c0 9f 3d 2f 7d 61 be
       -0.021549575 -0.12923855 0.07800482 -0.2202041
000040 d3 1a 8e 3d 9d 1d 37 3e 03 8a e9 3d f5 f1 fa 3d
       0.0693871 0.1788239 0.11403277 0.12253181
000050 4a fc 4f 3e 41 d7 bd bd 35 91 2a be 92 04 64 3e
       0.20311084 -0.09269572 -0.16656955 0.22267368
000060 90 82 5c 3d 17 73 db 3d f0 fe 45 3e fe 07 7b 3d
       0.05383545 0.10715311 0.19335532 0.06128692
000070 35 76 04 3e 7b d1 00 be 5a 70 6e 3d 29 af e2 3d
       0.12935717 -0.1257991 0.058212616 0.110685654
000080 b2 34 78 3d 1d 17 50 be d9 a6 2f 3e a1 4d 49 39
       0.06059713 -0.20321317 0.17153491 0.00019197773
000090 95 13 1a be c3 dd 0f 3e 25 6f 48 be 4f 74 01 3d
       -0.15046532 0.14049439 -0.19573648 0.03160506
0000a0 34 28 17 bb 76 71 02 be 7f b7 ba bc 2d 60 49 3e
       -0.0023064734 -0.12738594 -0.022792576 0.19665594
0000b0 0c 26 2c be ad 4e 17 3e e8 0f 5d 3e e7 88 34 3e
       -0.16811389 0.14776106 0.21588099 0.17630349
0000c0 ef 60 40 bc 35 30 a5 bd cf a1 0c 3e 86 5d 33 be
       -0.011741861 -0.080658354 0.137336 -0.17516145
0000d0 0b 30 a6 3c d8 81 54 be f1 47 49 be ca 53 04 3e
       0.02028658 -0.20752656 -0.1965635 0.12922588
0000e0 0c 78 ef bd a1 e2 57 be 28 92 9d 3d 0b 5a 0c bd
       -0.11692819 -0.21082546 0.07693893 -0.03426556
0000f0 46 60 db 3d 24 ef 66 3e d6 1f 53 3e 7f d1 3d 3e
       0.10711722 0.22552162 0.20617613 0.18536948
000100 84 60 a7 bd 2c cf 01 bd e7 81 59 3d 30 83 b1 bd
       -0.08172706 -0.031691715 0.0531024 -0.086676
000110 db 11 11 3e 1f 27 06 be b2 ec 47 be 96 7d 1f 3e
       0.14166968 -0.13100861 -0.19523886 0.15575251
000120 64 2c 5b be 51 19 4d 3e 94 ff 49 be 20 0a 19 3d
       -0.21403652 0.20029189 -0.19726402 0.03736317
000130 3a 2a 4e be f0 ca 4d 3e 4a e9 f1 bb e3 02 cc 3c
       -0.20133296 0.20096946 -0.0073825466 0.02490372
000140 98 d4 5c be 73 54 64 3e a9 d2 18 3d ad 5b 34 be
       -0.21565473 0.2229784 0.037310276 -0.17613097
000150 3a 78 2b bc bb 3a db bd c9 14 f6 bd 82 11 83 3d
       -0.010465676 -0.10704561 -0.12015683 0.06399824
000160 79 f0 49 3e b2 e9 47 be fa 4d 01 be 87 6e 1d 3d
       0.1972064 -0.19522741 -0.12627402 0.038435485
000170 8d 39 39 3d 7e c5 cc bd 22 f2 7e 3d d4 f5 ca bd
       0.0452209 -0.09998606 0.062242635 -0.09910169
000180 d2 93 e2 3c 8e bb 4f 3d 70 f4 89 3d dd a7 4a be
       0.027658377 0.050715975 0.06736076 -0.19790597
000190 8d a6 53 3e 19 30 c6 bc 04 2b 2b 3d 58 bc 68 3e
       0.20669003 -0.024192857 0.04178907 0.22728097
0001a0 d3 1a 32 3d 3b 41 ef 3d 16 c3 f4 3c 33 e2 0f 3e
       0.043482613 0.116823636 0.02987818 0.14051132

weight f4 [12]
000000 9a a0 81 3f f3 b1 7c 3f 83 a1 81 3f 83 40 82 3f
       1.0127137 0.9870903 1.0127414 1.0175937
000010 8b cd 7d 3f 49 a1 82 3f d1 fb 7a 3f 01 33 7d 3f
       0.9914176 1.020547 0.9804049 0.9890595
000020 9a f3 7f 3f fe 9a 82 3f 93 d8 7e 3f 97 64 81 3f
       0.9998108 1.020355 0.99549216 1.0108823

bias f4 [12]
000000 41 24 87 3b a3 2e 8e ba 67 41 a5 3a c4 f5 70 3c
       0.004124195 -0.0010847639 0.0012607992 0.014707033
000010 c9 fc 82 bc 7e a8 80 3c f8 4b d0 bc be f2 c3 3a
       -0.015989678 0.015705343 -0.02542685 0.0014949662
000020 0e 87 11 3c 3b 46 a2 3c f2 54 7d bc 2c db 50 3c
       0.008882297 0.01980888 -0.015462147 0.012747567

running_mean f4 [12]
000000 71 ca 11 3c e3 ff 52 bd 63 6d d4 3d 33 a3 32 3d
       0.008898363 -0.051513564 0.10372426 0.04361267
000010 f6 9b 35 bd 27 8f 12 3d 4f 36 11 3d 1d eb 86 39
       -0.04433819 0.035781052 0.035452183 0.00025733645
000020 09 3f 66 bd 88 01 80 bc 23 4d 0c bc 3c 6e d1 3d
       -0.05621246 -0.01562573 -0.008563313 0.10226104

running_var f4 [12]
000000 40 82 bc 3b ef fa 2b 3d 7b 54 01 3e dc 87 ac 3c
       0.0057528317 0.041987356 0.12629883 0.021060877
000010 83 44 e0 3c e2 e2 1a 3d 30 c2 f4 3c b2 71 02 3c
       0.027376419 0.03781403 0.029877752 0.007961677
000020 d5 4e a6 3d 34 0f 83 3c dd e9 74 3b 00 24 a0 3d
       0.08120505 0.01599846 0.0037370839 0.078193665

weight f4 [2, 12, 1, 1]
000000 88 0d 0e 3f 67 6d 03 bf 32 e5 ac bd e8 0e 6b 3e
       0.554894 -0.5133881 -0.08442153 0.22954905
000010 e3 94 c2 be 38 f4 09 bf f4 e1 6d 3e 21 cb 2d 3e
       -0.38004217 -0.53888273 0.23230726 0.16972019
000020 f0 50 02 3d 67 09 d3 3c 3a 95 f4 be cd 95 b9 bd
       0.03181547 0.02576132 -0.477701 -0.09061775
000030 22 dc d3 3d 66 38 0e bf 92 6e 16 bf 3c 31 bd be
       0.103447214 -0.5555481 -0.58762467 -0.36951625
000040 5b a4 1b 3f 7f bb 0e bf a6 2d bc be 7d 4c de be
       0.6079766 -0.55754846 -0.36753577 -0.4341773
000050 35 57 04 be 59 54 07 3f 01 06 21 3f 8e cd d3 be
       -0.12923892 0.5286308 0.62899786 -0.41367763

weight f4 [2]
000000 07 f0 7f 3f 3d 8f 83 3f
       0.9997563 1.0278088

bias f4 [2]
000000 71 23 97 ba 4f 36 9f ba
       -0.0011530948 -0.0012146923

running_mean f4 [2]
000000 f7 f6 07 be 59 24 84 be
       -0.13277803 -0.2580898

running_var f4 [2]
000000 d1 a0 27 3e b0 23 b5 3f
       0.1636994 1.4151516

weight f4 [12, 2, 1, 1]
000000 26 58 9b be 77 7a 26 3f 1b d1 b3 be d8 e7 96 3e
       -0.3034069 0.65030617 -0.35120472 0.29473758
000010 9a 20 75 bd c3 61 05 3f cc 1c 1d bf 42 e4 92 bc
       -0.059845544 0.521023 -0.61372066 -0.017931107
000020 14 94 2a 3d b5 04 ae be 0b f0 ee 3e 9d d8 21 3f
       0.041645125 -0.33987966 0.46667513 0.6322115
000030 30 57 8b be 63 2e 7a 3e ef 7b 0b 3f 42 b7 72 3e
       -0.27214956 0.24431758 0.5448598 0.2370272
000040 50 b4 0b bf e8 a2 15 bf 35 e4 bb be 60 dc 8f be
       -0.5457201 -0.584517 -0.36697546 -0.2809782
000050 ae 4e 7e be f8 ed d1 3d f0 f6 ea 3e 13 5d 7b 3d
       -0.24834701 0.10250467 0.45891523 0.06136806

weight f4 [12]
000000 61 74 82 3f 1c 4f 82 3f 23 df 77 3f ba d4 7f 3f
       1.0191766 1.0180392 0.96824855 0.9993397
000010 45 89 7d 3f 90 dd 78 3f a4 4b 7c 3f 28 64 80 3f
       0.9903758 0.9721308 0.9855292 1.0030565
000020 23 d0 7e 3f 63 0b 7d 3f e5 92 7e 3f b9 13 82 3f
       0.9953634 0.988455 0.99442893 1.0162269

bias f4 [12]
000000 ac 7b 96 bc 4a 52 a9 bc 50 99 e0 3c b2 80 fa bb
       -0.018369518 -0.020669121 0.027416855 -0.007644736
000010 5b a1 90 3c b5 1f db 3c 1e 18 77 bb da 7f 2c 3c
       0.017655065 0.026748518 -0.0037703584 0.010528529
000020 31 0e e1 bb a9 4c a2 3c f5 77 87 bb 6f d9 97 bc
       -0.006868147 0.019811945 -0.004134173 -0.018536298

running_mean f4 [12]
000000 87 1f 6d 3d 38 a6 19 bc 86 96 9d 3d db 62 d7 bd
       0.057891395 -0.009378009 0.07694726 -0.10516902
000010 5e f8 4b bd 83 7f 3b 3e 66 5b 97 bb 25 5d 05 3e
       -0.04979741 0.1831036 -0.00461905 0.13023813
000020 76 d5 40 be c9 14 dd bd 68 2e c7 bc 27 73 b1 3d
       -0.18831429 -0.1079498 -0.02431412 0.08664542

running_var f4 [12]
000000 79 28 31 3f 11 ac 60 3e ca 07 df 3e 28 4a ce 3e
       0.6920238 0.21940638 0.4356063 0.40290952
000010 2e ba 3d 3e cd 55 85 3f 1a 50 11 3e 07 cb f1 3e
       0.18528053 1.0416809 0.14190713 0.4722521
000020 84 71 85 3f 35 b6 a6 3e 71 84 8d 3d 2c 44 78 3e
       1.0425267 0.32560888 0.06910027 0.24244756

weight f4 [12, 1, 3, 3]
000000 d8 de a9 3d 05 16 2d bd f5 f8 6a be 0a 65 a7 bc
       0.08294457 -0.042257328 -0.22946532 -0.020433921
000010 80 a9 c0 bd 21 22 4e bd e2 eb ff 3d df 4d 16 be
       -0.094073296 -0.050325517 0.12496163 -0.14678143
000020 d4 fa 56 bd 17 35 13 3e c1 8d e2 3d 25 cb 82 3d
       -0.052485302 0.14375721 0.11062194 0.06386403
000030 2f 3b d8 bd 80 b7 9d bd 14 ff 62 be 33 31 e4 3c
       -0.105581634 -0.077010155 -0.22167617 0.027855491
000040 92 9e 6f bd 53 ee 4c be a5 4f 14 be 69 dc 56 3d
       -0.058500834 -0.20012788 -0.14483507 0.052456293
000050 fa 0b f1 3c 00 03 60 be ed b9 5c 3d 16 3d 9d bd
       0.029424656 -0.21876144 0.05388825 -0.07677667
000060 52 3a 6a 3d f2 b5 7f bd 7d 12 49 3e df cc b8 3c
       0.057184525 -0.062429376 0.19635959 0.022558628
000070 ee 4d 16 be ed 95 0c 3d d6 bc db bc f6 4d 95 bd
       -0.14678165 0.034322668 -0.026823442 -0.072902605
000080 3a a9 ee bd a9 87 41 be 2d 1d 29 3e 59 78 aa 3d
       -0.11653371 -0.18899406 0.16515036 0.08323736
000090 2a e1 89 3d e6 f9 3e bc d0 a8 ed bd fc e7 45 bd
       0.067324 -0.01165626 -0.11604464 -0.04831694
0000a0 38 e1 5a 3e c5 56 5b be 6f 6b 08 be 82 e9 cd bd
       0.21374977 -0.21419819 -0.13322233 -0.10054304
0000b0 95 20 fa bd 32 ed 8b 3d d2 56 0d 3e 7e 3e d1 bd
       -0.12213246 0.06832351 0.1380265 -0.102169976
0000c0 52 98 03 be 89 9a c6 3d 83 40 8d bd d4 7e 33 be
       -0.12851074 0.09697444 -0.0689707 -0.1752885
0000d0 fe a3 25 be 87 c1 42 3e 92 cf 36 be a9 09 a7 bd
       -0.1617584 0.19019137 -0.1785262 -0.081561394
0000e0 36 1f 35 3d 31 f4 24 3e 27 62 a5 bd 19 32 60 3e
       0.04421922 0.16108777 -0.08075362 0.2189411
0000f0 d3 15 ec 3b 1b 15 60 3d d6 d6 52 3e d9 65 49 3e
       0.00720475 0.054707628 0.20589766 0.19667758
000100 0c 5c a0 bd 9d f6 f1 bd fd 04 cd 3c c9 70 13 3e
       -0.078300565 -0.11814616 0.025026793 0.14398493
000110 ef 82 7b 3e 68 f9 d1 3d 58 64 ac bd 20 69 6c 3d
       0.24561666 0.102526486 -0.084175766 0.057717443
000120 8d e8 3b 3e db ee 14 be 48 e4 f5 bd 2f a9 c3 3d
       0.1835043 -0.14544241 -0.12006432 0.095537536
000130 58 b8 16 3e b0 80 b7 bd 24 3d 75 3e 0f 92 35 3d
       0.14718759 -0.08960092 0.23949105 0.044328745
000140 91 b3 77 3d a5 9e 4a be 2a 16 4a bc 6c a0 62 bd
       0.060473982 -0.1978708 -0.012334386 -0.05532877
000150 ec e9 13 be bb 3e 26 be 3a 95 3f bd 97 0a a5 3d
       -0.14444703 -0.16234867 -0.046773173 0.080586605
000160 f5 84 d3 bd 50 97 17 3e f4 67 df bd 0f 06 cd bd
       -0.10328094 0.14803815 -0.10908499 -0.10010921
000170 46 92 e2 3d f1 09 03 3e e8 a1 52 3e cc bc 16 be
       0.11063056 0.12796761 0.20569575 -0.14720458
000180 f5 33 86 3d 9f fa cb bd ec 0d 06 be 0f a2 5d 3e
       0.06552879 -0.099599116 -0.13091248 0.21643852
000190 43 a9 af bd 9d cf 3e 3e f6 cc 24 be 51 72 51 be
       -0.08577206 0.18633886 -0.16093811 -0.20453764
0001a0 36 f8 24 be fa 9d de 3d e8 a2 96 bd ed b1 16 be
       -0.1611031 0.108699754 -0.07355291 -0.14716311

weight f4 [12]
000000 3e ca 7e 3f d6 1e 80 3f b6 55 7b 3f 36 b6 81 3f
       0.9952735 1.000941 0.9817766 1.0133731
000010 7d 79 7f 3f fb 5c 82 3f 6d 21 80 3f e4 9d 80 3f
       0.9979475 1.0184625 1.0010201 1.0048184
000020 2b 0d 83 3f 9a 34 81 3f 2a 40 7e 3f b6 43 7b 3f
       1.0238394 1.0094178 0.99316657 0.98150194

bias f4 [12]
000000 cf eb ec 3b bc ca 1e bc 2b aa 69 bc 8c 6a 40 bc
       0.007230259 -0.00969189 -0.014261763 -0.011744153
000010 97 ab ec bc 9f d5 81 3c 84 64 d4 3b f0 39 8e 3c
       -0.028890414 0.015848933 0.006481709 0.017361611
000020 37 30 b2 3c bd 32 15 bd e4 f7 b6 3c 38 d8 a7 bc
       0.021751506 -0.03642534 0.022335 -0.020488843

running_mean f4 [12]
000000 44 bd 90 bd 78 84 45 bd a6 e9 8b bc 35 fe 15 bd
       -0.070673496 -0.048222035 -0.017079186 -0.036619384
000010 b3 d3 94 bd fe 8a c7 bc 9b 36 5b 3d 72 48 a4 3d
       -0.07266941 -0.024358269 0.053518873 0.0802163
000020 55 54 83 3d 19 22 ae bd 8e ce 3f bc 67 38 4f bd
       0.064125694 -0.08502597 -0.011706961 -0.0505909

running_var f4 [12]
000000 df da 17 3d 35 8b 90 3d 4d 35 34 3c e3 a3 d5 3c
       0.037073966 0.07057802 0.010999036 0.026079124
000010 46 5b 88 3d f1 d5 26 3c ff aa 7c 3d f5 c4 31 3d
       0.06658034 0.010182844 0.061686512 0.043400723
000020 0b 13 99 3d 36 f4 ac 3d 7e dd da 3c 1b 0f 82 3d
       0.07474335 0.08445017 0.026716944 0.063505374

weight f4 [2, 12, 1, 1]
000000 48 3b 94 be e8 a6 f8 bd 89 00 c1 3e 11 17 f5 be
       -0.28951478 -0.1214121 0.3769572 -0.4786916
000010 92 6c d9 be 5b db 89 3e bd 42 b0 3d 92 15 a2 3e
       -0.42465645 0.26925167 0.08606479 0.31657082
000020 c8 6e 0c 3f aa 28 0d be 02 0d 61 3e 95 5d 82 3e
       0.5485654 -0.13785043 0.21977618 0.25462022
000030 18 c6 3c 3e bf 4d 73 3d 95 03 1b bf 0b e7 77 be
       0.18434942 0.059400316 -0.6055234 -0.2420923
000040 0a 50 20 be 23 80 06 bf c8 4a 21 3f 09 9d 27 bd
       -0.15655532 -0.5253927 0.6300473 -0.040921245
000050 40 1f fd be 58 a5 15 bf 50 2c 10 3f 0b cd 14 3f
       -0.49437904 -0.5845542 0.56317616 0.5812537

weight f4 [2]
000000 11 f7 7b 3f a3 51 7b 3f
       0.9842387 0.9817144

bias f4 [2]
000000 d2 b3 c2 b9 5e ae dc b8
       -0.0003713654 -0.00010522896

running_mean f4 [2]
000000 1a 99 e0 3d c6 0a e7 bd
       0.10966702 -0.11281352

running_var f4 [2]
000000 6f 1f e9 3e 21 77 1f 3f
       0.45531794 0.6229115

weight f4 [12, 2, 1, 1]
000000 d3 46 88 3e 61 5f de bd 3c 9e fe be 4e 5d 18 3e
       0.26616535 -0.10858036 -0.49730098 0.14879343
000010 0e e0 0d bf b4 b3 e1 be 48 76 b0 be 35 cc 64 bd
       -0.55420005 -0.44082415 -0.3446524 -0.05585881
000020 c0 31 9e be fd 78 f3 3e fa 30 c4 be 43 99 5c be
       -0.3089733 0.47553244 -0.38318616 -0.2154284
000030 f2 7b 5d 3e 33 40 b3 3e f6 00 ad 3e fb 4b 95 be
       0.21629313 0.35009918 0.33789796 -0.2915953
000040 c6 66 8b be 84 18 25 bf cf ed de be 78 19 b5 3e
       -0.27226847 -0.6449053 -0.4354081 0.35370994
000050 fd 5c 0b 3f be 59 0c 3e a3 bf c9 bd 6e d4 b4 3e
       0.54438764 0.13706109 -0.09851005 0.3531832

weight f4 [12]
000000 66 86 80 3f 51 cd 7e 3f 2b 02 7f 3f d8 4e 80 3f
       1.0041015 0.9953204 0.99612683 1.0024061
000010 3f 55 7d 3f 8e c1 80 3f 72 83 81 3f 33 49 81 3f
       0.989582 1.0059068 1.0118239 1.0100464
000020 a7 1b 84 3f dc 82 76 3f 1b 2c 81 3f 74 e9 80 3f
       1.0320939 0.96293426 1.0091585 1.0071244

bias f4 [12]
000000 81 ba 33 3a d3 a8 bf 3c d9 8c 18 3b 31 48 60 bc
       0.00068560994 0.023395931 0.002327731 -0.013689087
000010 0b 9e 52 3c 70 d4 74 3b 52 08 27 bc 50 cb 10 3c
       0.012855063 0.0037358068 -0.010194855 0.008837536
000020 9d df da bc 3e 02 15 3d a9 94 b8 3c 8b 4c f3 3a
       -0.026717955 0.03637909 0.022531824 0.001856224

running_mean f4 [12]
000000 c8 8f 4d 3c 8d 59 1f bd 1e 25 5d be 1e af 93 bd
       0.012546487 -0.03890376 -0.2159619 -0.07211135
000010 36 e2 ad 3d 05 95 fd bd 61 44 0a 3e 7a ce e4 bc
       0.08490412 -0.12381939 0.13502647 -0.027930487
000020 8a 7b 69 be 18 ef f6 3c 60 de 02 3e 35 e7 ac 3d
       -0.22801033 0.030143306 0.12780142 0.08442537

running_var f4 [12]
000000 35 18 66 3e b4 ea 24 3f 79 91 38 3f e2 07 1d 3e
       0.22470172 0.6442063 0.72096974 0.15335038
000010 e0 9e b5 3f 67 1b 6c 3e 23 64 d0 3e f8 15 41 3f
       1.418911 0.23057328 0.40701398 0.75424147
000020 53 17 b7 3f 0a 38 95 3f 7c cb bb 3e 2f 39 1c 3f
       1.4303993 1.1657727 0.36678684 0.61024755

weight f4 [12, 1, 3, 3]
000000 6b bd cf 3d 1f 6c d1 3d b3 f2 61 3d 00 7f 52 be
       0.101435505 0.102257006 0.055163097 -0.20556259
000010 35 e5 3d 3e 81 6d 6d bd 22 5a 0a be b7 28 03 be
       0.18544467 -0.05796576 -0.13510945 -0.128085
000020 fe 53 4e 3e 6b bc 37 bd 7e 98 1d 3d a6 b8 e7 3d
       0.20149228 -0.044857424 0.038475506 0.11314516
000030 53 98 fb 3d d8 bd 06 be cd 8d 28 3e 26 a1 bc bd
       0.12284913 -0.13158357 0.16460343 -0.09210424
000040 6b cf 18 be 71 a1 a5 bd 97 ac 33 be 9d c8 04 3d
       -0.14922874 -0.08087433 -0.17546307 0.032417882
000050 1b 81 48 bd 4e 8d 26 be e5 3c 7e bc 2f 82 fb bd
       -0.04895125 -0.16264841 -0.015517448 -0.1228069
000060 b0 eb 19 3e 1b b4 45 3e b1 7b 28 be 97 ba ba 3b
       0.15031314 0.19306986 -0.16453435 0.005698513
000070 57 05 c9 bc 7f aa 3d 3d bb 5f 86 bd 00 19 1b be
       -0.024538679 0.046305176 -0.06561228 -0.15146255
000080 b0 b0 3c 3e 48 f0 21 bd 25 8d 20 3d 8a 4b 1f 3e
       0.18426776 -0.03953579 0.039197106 0.1555616
000090 fd 4d 70 3e e0 13 be 3d c5 c0 85 3d 8e 7b 0a be
       0.2346725 0.092811346 0.065309085 -0.13523695
0000a0 68 8a 5d bd 71 08 3f 3e 16 0d 59 3e 17 05 bb 3d
       -0.054087073 0.18655564 0.21196398 0.0913183
0000b0 0b ab 99 3d eb 97 5e 3e b7 1e 34 bd 38 95 e7 3c
       0.07503327 0.2173764 -0.043974604 0.028269395
0000c0 6e 20 e1 bd 69 78 f6 bc e8 f6 c7 bc 08 de 60 3c
       -0.109925136 -0.030086713 -0.024409726 0.013724811
0000d0 e3 c7 cf bc f4 71 e8 3c a9 3f 34 3e 39 f9 82 bd
       -0.025363868 0.02837465 0.1760241 -0.06395192
0000e0 cf 8f 47 bd 3a b9 07 3e a2 e5 63 3d 74 9b 66 3d
       -0.04872113 0.13254252 0.055638917 0.056300595
0000f0 75 dd 4f 3e 10 20 ec bb 34 d9 76 bd 13 33 b8 3d
       0.20299323 -0.0072059706 -0.060265735 0.08994117
000100 15 b1 73 be cc cf 5b be 5b 04 23 3d 0d 16 95 3d
       -0.2379802 -0.21465987 0.039799076 0.072795965
000110 52 39 c9 bd e2 69 fa 3d 57 dc 2b be 54 92 c3 3d
       -0.09825386 0.12227227 -0.16783272 0.09549394
000120 d8 bd 22 be db ab b0 bc be 11 0f be aa a3 90 bd
       -0.15892732 -0.021566322 -0.13971612 -0.070624664
000130 e4 71 4d 3c b7 f2 6b bd 09 e5 5c 3d 41 d9 5c be
       0.012539361 -0.057604518 0.053929362 -0.21567251
000140 93 39 86 bd 89 30 1f bc d9 61 05 bd 2b 67 2d bd
       -0.0655395 -0.0097161615 -0.032564018 -0.042334717
000150 0a 90 49 be 59 24 03 3a 67 c3 ce bd 63 1c 4b bd
       -0.19683853 0.00050026696 -0.10095864 -0.04958762
000160 91 00 42 bd 3e c8 fb bd 3b 24 11 3d 8b 14 bf 3d
       -0.04736382 -0.122940525 0.035434943 0.0933009
000170 66 d5 70 be 6d 21 d6 bd 05 12 36 3e 0f 8e 21 3d
       -0.23518905 -0.10455594 0.17780311 0.03944212
000180 9f 2e 1a 3e 46 a7 21 be 2a 0a c2 3d 67 29 cf 3d
       0.15056847 -0.15786466 0.09474595 0.10115319
000190 a1 85 8c 3d 3b 80 3f 3e c4 24 24 3e e2 c3 6f 3e
       0.06861425 0.1870126 0.1602965 0.23414567
0001a0 30 9a fa 3c 82 e8 8d bd b7 c5 02 bc fd f5 28 be
       0.0305911 -0.06929113 -0.007981709 -0.16500087

weight f4 [12]
000000 03 f5 7d 3f 57 65 7b 3f 6f 20 7a 3f 33 ad 7c 3f
       0.99201983 0.9820151 0.9770574 0.9870178
000010 3a 28 80 3f 49 0b 81 3f 0b ad 7d 3f ab 4f 7b 3f
       1.0012276 1.0081569 0.9909217 0.9816844
000020 02 54 81 3f c3 a6 84 3f e6 81 79 3f 8c 04 7b 3f
       1.0103762 1.0363392 0.97463834 0.98053813

bias f4 [12]
000000 ce 43 fa 3b 3e d9 d2 bc 9a dc c4 bc 91 5b 09 bc
       0.0076374775 -0.025738355 -0.024030972 -0.008383648
000010 c9 73 c9 3c 78 f5 13 3b 77 5d 70 bc 34 2a 4c 3c
       0.024591343 0.002257673 -0.014670721 0.012461234
000020 67 33 21 3d f5 97 02 3d e9 85 b0 bb cd ba d3 bc
       0.03935566 0.0318832 -0.005387057 -0.02584591

running_mean f4 [12]
000000 93 e1 c4 3c a2 f8 97 bc 0a 2b 62 bd e9 bb 86 3c
       0.024033343 -0.018551175 -0.055216826 0.016447024
000010 32 0e da 3d f2 a8 25 3c d3 82 87 3d f3 05 64 bd
       0.10647239 0.0101110805 0.066167496 -0.055669736
000020 d7 f8 c5 bd 9a b4 c8 bd 3f 2a 86 3c c4 54 6c 3d
       -0.09666603 -0.09800072 0.016377566 0.057698026

running_var f4 [12]
000000 e2 73 88 3d 96 5f 92 3c 09 29 07 3d 60 83 a9 3c
       0.06662728 0.017867845 0.03299812 0.020692527
000010 09 39 5f 3d d0 e2 37 3c 4b 0c 23 3d 06 ba 7d 3d
       0.054497752 0.01122351 0.039806645 0.061944984
000020 c3 c7 86 3d 29 db f8 3c 74 e7 76 3d 19 03 9e 3d
       0.0658107 0.030377941 0.060279325 0.077154346

weight f4 [3, 12, 1, 1]
000000 67 1e 94 bc c5 a8 0f 3f 15 70 9e bd e8 82 42 bd
       -0.018080903 0.56116897 -0.07736222 -0.047488123
000010 28 15 a6 3e 51 35 16 bf c9 df af bd a1 95 0e 3e
       0.32438016 -0.58675104 -0.085876055 0.13924266
000020 bb 6f 6d 3e 30 a2 16 3d 8d 47 82 3d 32 21 5d be
       0.23187153 0.036775768 0.063613035 -0.21594694
000030 a1 89 ae 3e 85 d6 04 bf 45 54 9d bd bc 78 2d be
       0.34089378 -0.5188983 -0.07682089 -0.16940588
000040 1a c7 0d 3d 30 13 c0 be fa 30 f2 bd 51 fe 04 3f
       0.034613706 -0.3751464 -0.11825748 0.51950556
000050 92 ac 06 3f 56 09 e9 be 14 1d 08 3f 6d 53 92 bc
       0.5260707 -0.45514935 0.5316937 -0.017862046
000060 71 94 11 3f 0d c3 f0 3e 52 21 18 3f 94 63 15 3e
       0.5686713 0.47023812 0.5942584 0.14588767
000070 ea 40 0d bf d4 c8 88 3e 9b a3 e4 3e 2a 42 b0 3e
       -0.55177176 0.2671572 0.4465607 0.3442548
000080 c5 03 05 be eb a0 a1 3e 37 b4 df 3e ab 9a a7 3e
       -0.12989719 0.31568083 0.4369218 0.3273519

weight f4 [3]
000000 bc ae 77 3f 00 37 82 3f 8d eb 80 3f
       0.96751 1.0173035 1.0071884

bias f4 [3]
000000 46 b9 87 b9 07 f4 f5 38 1c dd 6d b8
       -0.00025887246 0.00011727964 -5.6711127e-05

running_mean f4 [3]
000000 d1 5b 93 3d eb 2c 20 3d 4e 52 df 3e
       0.07195247 0.039105337 0.4361748

running_var f4 [3]
000000 95 65 bb 3e 12 10 1b 3f 15 8f 8f 3f
       0.36600938 0.60571396 1.121554

weight f4 [3, 1, 1, 1]
000000 46 c6 94 3f 95 12 f8 3e e4 ed 5c 3f
       1.1623008 0.48451677 0.8630049

bias f4 [3]
000000 f6 1a 57 3f c4 4c 82 3d b0 54 ee be
       0.84025514 0.06362298 -0.46548986

weight f4 [18, 3, 1, 1]
000000 e6 3f 60 3c 93 f7 be 3d 07 a0 9a bd c8 87 bc be
       0.01368711 0.09324565 -0.07550054 -0.36822343
000010 02 4e b3 3e c3 9a 68 3e a3 f2 88 be bb 52 37 3d
       0.35020453 0.22715287 -0.26747617 0.044756632
000020 5b 73 b5 be b8 8d 87 bd e3 39 02 bf 49 35 e7 be
       -0.35439572 -0.066188276 -0.5086958 -0.4515784
000030 cb d6 3a be 20 6c 7e be 8e b5 8e be e4 21 53 bd
       -0.18246 -0.24845934 -0.2787289 -0.051545992
000040 52 8d 8c 3e bd b5 ec 3e fe e8 7b be 97 e3 77 be
       0.2745157 0.46232405 -0.24600598 -0.24207912
000050 56 b6 af 3e 57 0b 60 be 9c 1d 87 3e 72 54 17 be
       0.343188 -0.21879326 0.26389778 -0.14778307
000060 ad 70 d8 3e 7e 49 c0 bd e9 df 5e be d6 f0 9c be
       0.42273465 -0.093890175 -0.21765102 -0.30652493
000070 58 6a ec be 78 17 6a 3d 69 04 03 bd f1 df bd be
       -0.46174884 0.057151288 -0.031986628 -0.37084916
000080 6c aa e8 3e d1 75 2a bd 1b 72 81 bd fb 24 eb 3e
       0.45442522 -0.041616265 -0.06320592 0.4592665
000090 88 ce ea 3e 6b 58 c9 3d 3d eb 7d 3e ee c4 22 be
       0.45860696 0.098313175 0.24796768 -0.15895435
0000a0 4f 6e 95 3e 6a 20 3b be 4d 9e e4 be ad 60 68 be
       0.2918572 -0.18274084 -0.44652024 -0.22693129
0000b0 da aa 6e be 91 14 72 be 4b d0 04 3e 39 64 bb be
       -0.23307362 -0.23640658 0.12970082 -0.365999
0000c0 c7 54 bd be 8d 38 90 be 98 6e 04 3f ec 97 00 3e
       -0.36978742 -0.28168145 0.5173125 0.12557954
0000d0 1f 16 ee be 5e 95 a1 be
       -0.46501252 -0.3155927

weight f4 [18]
000000 47 68 7c 3f ef 16 82 3f 05 c5 82 3f 27 7f 81 3f
       0.98596615 1.0163249 1.0216376 1.0116929
000010 c8 ce 7e 3f 96 3f 81 3f 1d 3e 7f 3f 29 54 7e 3f
       0.99534273 1.009753 0.9970415 0.9934717
000020 a9 de 7a 3f 6c b3 7e 3f a2 ed 7d 3f b4 0d 81 3f
       0.97996 0.99492526 0.99190724 1.0082307
000030 9e e5 80 3f 29 8b 7c 3f bf 39 80 3f 8b fc 7d 3f
       1.0070074 0.9864984 1.0017623 0.99213475
000040 94 da 81 3f 56 93 7e 3f
       1.014483 0.99443567

bias f4 [18]
000000 ff 0b 8b 3b e9 b2 18 bc a8 3c 81 bc 64 53 33 3c
       0.0042433734 -0.009319999 -0.015775993 0.010945175
000010 6c 6b 7d 3c 53 77 58 3c 00 0e e9 3c 52 67 97 3c
       0.015467506 0.013212043 0.028449059 0.018481884
000020 99 4a 61 bb db 6f e3 3b 32 d4 5f bc 70 fd a4 3c
       -0.003437674 0.0069408244 -0.013661431 0.02014038
000030 96 31 1c bc 4e ed 22 3c 2e cf 9f bc 2c 65 8e 3c
       -0.009533307 0.009944273 -0.01950797 0.017382227
000040 a5 cf 85 bb 30 11 61 3c
       -0.004083591 0.013737008

running_mean f4 [18]
000000 7c 74 73 37 7d 3a 1c 39 e6 f9 c1 38 61 7d 50 b8
       1.451105e-05 0.00014899108 9.2495044e-05 -4.9707833e-05
000010 2e 14 9b 37 fd 41 32 38 a5 cf 68 37 d7 d6 e2 38
       1.8486837e-05 4.2499963e-05 1.3876624e-05 0.00010816537
000020 63 8f ff b8 61 02 91 36 9a 6d 91 b8 7e 7d 87 b7
       -0.000121860554 4.3216137e-06 -6.934554e-05 -1.6151691e-05
000030 27 b6 f4 b8 95 77 cd 38 c5 d9 bf 38 2f fe ce 38
       -0.00011668755 9.7974356e-05 9.1481525e-05 9.870191e-05
000040 0f a4 0f 38 73 44 d0 b8
       3.424665e-05 -9.9309626e-05

running_var f4 [18]
000000 10 60 80 3c 31 ac 7d 3e a7 17 1a 3e 96 96 03 3f
       0.015670806 0.24772717 0.15048085 0.5140165
000010 c8 f1 47 3e 89 3f 9d 3e 2b 9d 9c 3e 0d 50 a3 3d
       0.19525826 0.30712536 0.3058866 0.07974253
000020 02 58 6c 3e 4d 9d d8 3e fc 16 b4 3e ea c2 67 3e
       0.23080447 0.4230751 0.35173786 0.22632948
000030 ec a8 86 3e 0f 13 c2 3d b6 df ac 3e 54 09 15 3e
       0.26300752 0.094762914 0.33764428 0.1455434
000040 10 68 1e 3f ff db a5 3e
       0.61877537 0.32394406

weight f4 [18, 1, 3, 3]
000000 da 65 02 3e 88 54 90 bd 6f f1 30 be 8b 1c 43 be
       0.12734166 -0.07047373 -0.172796 -0.19053857
000010 98 74 db bc 78 19 18 3c 34 03 fd bd 9a 57 d3 bd
       -0.026788995 0.009283416 -0.123541266 -0.10319443
000020 b4 e0 63 bc cb b7 a3 3d 6f 78 d7 bd 31 89 4b 3e
       -0.013908554 0.0799404 -0.10521018 0.19876553
000030 de 18 bb bd ec 72 c2 bd 8a c6 c3 bd 5a 6d 25 bc
       -0.091356024 -0.09494576 -0.09559353 -0.010096872
000040 b5 2c 30 be dd df f5 bd 8e 24 59 3d f7 7b ec 3d
       -0.17204554 -0.12005589 0.053013377 0.11547082
000050 e7 80 c9 3d 5d fe 62 3d fb 68 9d 3c 68 5d 47 3d
       0.09839039 0.05541836 0.019215098 0.048673064
000060 40 b8 89 bd 56 bd 2b 3e 52 bb 06 3e 1e 51 1b be
       -0.06724596 0.16771445 0.13157395 -0.15167663
000070 52 ff 43 3e 72 84 2c 3c 01 37 da 3d c7 cc 14 be
       0.19140366 0.010529624 0.106550224 -0.14531241
000080 e6 d6 f1 3d f2 58 16 3e 28 9e 23 3e 82 7b 0a be
       0.11808567 0.14682367 0.159783 -0.13523677
000090 72 9e c7 bd 44 dc 2a be f5 84 c7 bd cb d6 9b 3d
       -0.09747018 -0.16685587 -0.097421564 0.07609328
0000a0 5c cc 3d be fd 2a 52 be 90 fe a5 bd a2 e9 32 3b
       -0.18534988 -0.20524211 -0.081051946 0.00272999
0000b0 b0 0d 0c 3e b9 c6 90 3c c0 e8 8c bd 36 15 1f 3d
       0.13677096 0.017672883 -0.06880331 0.038838588
0000c0 e7 2a ff 3c 9a 18 da 3d f9 33 7c 3d 1e 0a 26 be
       0.031148387 0.106492236 0.061573002 -0.16214797
0000d0 ca 55 4e bd a8 c0 15 3d 26 f9 c6 3c 0b 9d 49 3e
       -0.050374784 0.036560684 0.024288725 0.19688813
0000e0 61 d6 98 3d 34 4d ec 3d 58 ba 5f 3d 1f eb 75 bd
       0.074627645 0.11538163 0.05462107 -0.060038682
0000f0 6e d8 20 be 7f 14 21 3e 42 5d 14 be a8 16 3b be
       -0.15707561 0.15730475 -0.144887 -0.18270361
000100 da 93 b6 bd 9f 9b cf bd 45 50 0e be 23 a4 b5 3d
       -0.08914919 -0.10137104 -0.13897808 0.08869197
000110 8c 80 7f 3d 68 88 05 be a1 9e 46 bd 2f a5 94 bb
       0.06237845 -0.13040316 -0.048491124 -0.004536293
000120 c0 28 dc bd 39 39 fa 3a e0 63 7e bd c9 34 33 3e
       -0.1074996 0.001909054 -0.062106967 0.17500605
000130 f8 a8 25 3c 32 6c 15 be fb 4c 96 3c ac 1b 9a 3c
       0.010111086 -0.14592054 0.018347254 0.018812023
000140 8e f6 08 3e dd 7a 84 3d 60 c6 29 3e ab ea 52 bd
       0.13375303 0.06468747 0.1657958 -0.051493328
000150 da 22 3c bb 43 3d e0 3b d0 21 35 be 2a 04 6e bc
       -0.0028707297 0.0068432405 -0.1768868 -0.01452736
000160 2c 03 c0 3d f5 1c 0d 3e 4a 8c b1 bd 0b 2d d6 3d
       0.09375605 0.13780577 -0.08669336 0.1045781
000170 8a 86 0e 3e 45 5d 0e 3c 0e 31 1c 3e a3 f3 62 3c
       0.1391851 0.008689229 0.15253088 0.013852033
000180 e1 8c 17 be e1 cf ac 3d 3c cb 43 3d 20 11 2e 3e
       -0.14799835 0.08438087 0.04780124 0.1699872
000190 6a a2 d1 3b 7b d3 cf 3d 02 1c 01 3e a5 91 0a be
       0.006397535 0.101477586 0.1260834 -0.13532121
0001a0 9a 7a 1d bd e7 ab 38 3e 35 34 32 3e a7 c6 4b 3a
       -0.038447 0.18034326 0.17402728 0.0007773437
0001b0 13 72 86 3d de c1 22 3e 36 61 f3 bd b3 f7 10 bd
       0.06564727 0.15894267 -0.11883776 -0.035392474
0001c0 e1 5d a1 bc 83 ad d7 bd fb 59 0f 3c eb 9c 1a 3e
       -0.019698085 -0.105311416 0.00874948 0.15098922
0001d0 ce 8a 37 3e 5b 69 c6 bd e2 a3 fc bd 34 34 20 be
       0.17924044 -0.09688064 -0.12335946 -0.15644914
0001e0 be e7 bc bc fc be c5 3d 3e 33 1a 3d c1 0b 5a be
       -0.023059722 0.09655568 0.037646525 -0.21293546
0001f0 7a 75 06 bb fd ee 81 3c 05 df e9 3d 79 93 1d 3e
       -0.0020516799 0.015861029 0.11419491 0.15388288
000200 df 74 6e 3d 70 da b0 3d 7c 35 15 be 4d 02 e3 bd
       0.058216926 0.08635414 -0.14571184 -0.11084423
000210 81 34 db 3d fb ac c8 bd b0 30 b3 3d 30 08 ae bd
       0.10703374 -0.097986184 0.08749521 -0.084976554
000220 8e 49 0e 3e 60 5d 3d be 50 2f a3 bd 08 23 de 3d
       0.13895246 -0.18492651 -0.079680085 0.108465254
000230 86 48 04 3e 87 44 d2 3d 50 44 2c bb 6b 6b 1b 3d
       0.1291829 0.10266977 -0.0026285835 0.03794424
000240 89 3d 0f be 70 1a fd bc e7 81 a7 bc 89 79 91 bd
       -0.13988318 -0.030896395 -0.020447684 -0.07103259
000250 ef 72 2c be f8 f4 fb bd 22 e1 16 3e cd 8f 49 3d
       -0.16840719 -0.123025835 0.14734319 0.049209405
000260 d9 99 f0 bd 52 a3 18 be 31 cf 0e be 3f 62 04 3e
       -0.11748094 -0.14906052 -0.13946225 0.12928103
000270 a4 75 21 3e f5 44 a1 bd fb 51 b5 3c 6e 46 74 bd
       0.15767533 -0.07874481 0.022133818 -0.05963748
000280 dd 08 e8 bc 8a f9 fa bd
       -0.028324539 -0.12254627

weight f4 [18]
000000 30 ef 84 3f 8e f1 7c 3f 95 b3 81 3f c6 af 81 3f
       1.0385494 0.98806083 1.0132929 1.0131767
000010 bf c2 7c 3f 34 f5 80 3f 8c 8e 77 3f fc dc 83 3f
       0.9873466 1.007483 0.96701884 1.0301814
000020 c5 5f 80 3f 39 53 7a 3f cc d3 7b 3f 2c 70 81 3f
       1.0029227 0.9778324 0.9837005 1.0112357
000030 39 08 7d 3f d8 9e 83 3f 35 d0 7d 3f 45 3b 7b 3f
       0.9884067 1.028285 0.99145824 0.98137313
000040 05 b7 81 3f 99 a1 7f 3f
       1.0133978 0.99855953

bias f4 [18]
000000 37 cf 0f 3d 98 c5 ea bc 7f 56 59 3c a3 f7 1a 3c
       0.035109725 -0.028658673 0.013265251 0.009458455
000010 cb ed bb bc 46 58 14 3c ec 23 90 bc 65 e6 d6 3c
       -0.022940537 0.009054249 -0.017595254 0.026232908
000020 d1 0d 41 bc f3 d0 cc bc 6e cc b5 bc 38 76 c9 3c
       -0.011783079 -0.025001979 -0.022192206 0.024592504
000030 cf ec 8c bc 10 c6 d8 3c 7e e6 b9 bc fa 7e c5 bb
       -0.017202763 0.026461631 -0.022692915 -0.0060270997
000040 e8 dc f2 3c ad 06 0f bc
       0.029646352 -0.008729619

running_mean f4 [18]
000000 4f ac a8 bd 10 1b 86 bd 39 00 b7 3d 41 68 20 3d
       -0.0823599 -0.065481305 0.08935589 0.039161924
000010 68 d7 b7 bd cf 65 8a 3a b7 76 b3 3c 02 a2 a2 bd
       -0.08976632 0.0010558906 0.021907194 -0.07941057
000020 ea 85 62 3a c3 d8 f1 3c b1 41 16 3d 12 c2 a1 3d
       0.00086411706 0.029522305 0.036683742 0.07898344
000030 7d 49 1b 3d be cd 8b bd f2 6a 02 3d b4 5c b1 3c
       0.03791188 -0.068263516 0.031840272 0.02165065
000040 e6 8c 71 bd b1 2b 0d bd
       -0.05897226 -0.034465495

running_var f4 [18]
000000 43 69 e6 3c 94 3c ab 3d 51 86 99 3c 64 49 ab 3c
       0.028126365 0.08361164 0.018740805 0.020909019
000010 03 22 33 3d 88 6b 01 3d 19 3d 5a 3d 42 12 b8 3c
       0.043733608 0.03159669 0.053280924 0.022469644
000020 ed 04 20 3c 64 12 35 3d 5a 78 10 3d 11 3c cb 3d
       0.009766799 0.04420699 0.035271026 0.09923566
000030 7b 16 05 3d f3 11 c4 3c f9 90 46 3d 21 0f 2c 3c
       0.032492142 0.02393434 0.0484781 0.010501654
000040 64 e0 8e 3d 8f 69 4d 3c
       0.06976393 0.012537374

weight f4 [3, 18, 1, 1]
000000 fe dc 4a bb 16 2e dd 3e e4 6f e8 3e ec 47 8b bd
       -0.0030954476 0.43199223 0.45397866 -0.068008274
000010 86 02 04 3f 7b 0f d6 be b9 03 58 be 9c 23 ab 3c
       0.5156635 -0.41808686 -0.2109517 0.020891003
000020 87 7d 56 3e d4 74 d9 be 9f bb 96 3e 09 5c af be
       0.20946322 -0.42471945 0.2944002 -0.34249905
000030 1d 12 55 3e 66 6a b7 be d5 95 ef 3e 26 1b 7c 3e
       0.20807691 -0.35823363 0.46794 0.24619731
000040 c2 c5 ab bd 70 47 a4 be a5 25 be be 76 75 fd be
       -0.08387329 -0.32085752 -0.37138095 -0.49503678
000050 cc 29 e1 be 60 49 07 bf bb ae ea be 4c 1a 25 be
       -0.439772 -0.52846336 -0.45836434 -0.16123313
000060 5e 84 41 be 28 20 93 be 35 32 8e be c2 af c3 3e
       -0.1889815 -0.2873547 -0.2777268 0.3822003
000070 94 2d bd 3e 5c 4d 05 bf eb 6e a8 be 2c 36 06 bf
       0.36948836 -0.52071166 -0.32897124 -0.5242641
000080 7c bc 96 3e ca ee 91 be 2d 9a 9c 3e 3a a2 bf be
       0.29440677 -0.28502494 0.30586377 -0.37428457
000090 dd b1 83 be 1d 6a ea 3d b6 24 aa 3e 1b da 83 bd
       -0.25721636 0.11446021 0.33231133 -0.06438085
0000a0 35 87 4d be 29 b6 eb 3d 01 43 8d be 93 80 54 be
       -0.20071109 0.11509354 -0.27590182 -0.20752172
0000b0 0c 37 fe 3e c5 3e fa 3e 0d 39 ad be 0b b4 c4 3a
       0.49651372 0.48876014 -0.3383259 0.001500727
0000c0 15 46 fe 3e 22 f1 87 be 76 ea 04 be 42 60 c6 be
       0.49662843 -0.26551157 -0.12980065 -0.38745314
0000d0 3d 24 a5 be 41 f6 09 3f
       -0.3225421 0.5389138

weight f4 [3]
000000 8e 0b 82 3f 84 20 80 3f c9 35 82 3f
       1.0159776 1.0009923 1.0172664

bias f4 [3]
000000 4f e2 e8 b7 93 41 91 38 cd 5d e0 b7
       -2.7761938e-05 6.926353e-05 -2.674656e-05

running_mean f4 [3]
000000 ff 15 82 3d 88 22 23 bf 21 5c c6 bc
       0.06351852 -0.63724566 -0.024213852

running_var f4 [3]
000000 45 84 0c 3f 8f c0 73 3f 52 0a 25 3f
       0.5488933 0.95215696 0.6446887

weight f4 [3, 3, 1, 1]
000000 82 ae 07 3f d6 aa 53 3f 60 41 17 3d f0 3d f7 3d
       0.5300065 0.8268255 0.03692758 0.120723605
000010 fc 1d 5f 3f 7c 5a 90 be 9c d7 32 3f 00 70 be bb
       0.8715513 -0.28194034 0.69860244 -0.0058116913
000020 a0 dd 97 bd
       -0.074153185

bias f4 [3]
000000 4c 62 9c be 28 4e bc 3e a0 01 d9 3e
       -0.30543745 0.36778378 0.42384052

weight f4 [18, 3, 1, 1]
000000 f4 76 11 be a1 ca 5f 3e 79 89 2b 3e f3 28 90 3d
       -0.14205533 0.2185464 0.1675166 0.070390604
000010 c0 74 10 3e 93 25 0e bf 05 7c 82 be 59 c4 29 be
       0.14107037 -0.55526084 -0.25485244 -0.16578807
000020 4e ea ff bd 02 ff 0b bf 5f 35 f4 be ff 8a df 3e
       -0.12495862 -0.54685986 -0.4769697 0.43660733
000030 f7 d6 c1 3d 51 ff 08 bf 1a 76 df 3e a8 e3 9e bd
       0.094648294 -0.5351458 0.43644792 -0.07758266
000040 1f 01 86 bd ae c5 23 be 1d 73 9a 3e 80 03 ea 3e
       -0.065431826 -0.15993378 0.3016595 0.45705795
000050 a6 ac 17 be 4a 3b ba be 6b 5e cd be 02 6d c7 bc
       -0.14811954 -0.3637336 -0.40111098 -0.024343971
000060 2e 58 0b 3f 35 99 c3 be 9f fd 7d 3d bb 3c 07 3e
       0.54431427 -0.38202825 0.06200945 0.1320676
000070 72 78 ec 3e 5e e3 e6 be be 3c e9 be 31 81 01 bf
       0.46185642 -0.45095342 -0.45554155 -0.50587755
000080 0f 98 4f be 7d 28 1a be 16 4d fc 3e 10 ad 9c be
       -0.2027285 -0.15054508 0.49277562 -0.30600786
000090 b1 46 8f bc ac 4c 00 bf cb 43 47 3d 74 93 08 bd
       -0.017489763 -0.5011699 0.048648637 -0.033343747
0000a0 a5 44 98 bd d8 87 07 3d af a6 7e bd ee 78 00 3f
       -0.07434968 0.033088535 -0.06217068 0.50184524
0000b0 fb d9 e6 be 37 98 ea be 90 af a1 be 65 41 97 3d
       -0.4508818 -0.45819256 -0.31579256 0.0738552
0000c0 4f ce fb 3e e3 a8 9e 3d 4e 7f bb be cf cf c0 3e
       0.49180838 0.07747056 -0.36620563 0.37658545
0000d0 3e 1e a9 3a 56 0b 2a 3d
       0.001290269 0.041514717

weight f4 [18]
000000 f8 01 83 3f 89 02 80 3f c6 97 81 3f 20 1a 7b 3f
       1.0234976 1.0000774 1.0124443 0.9808674
000010 c8 c2 81 3f 64 6a 80 3f 4a 74 7b 3f 3c a1 83 3f
       1.0137568 1.0032468 0.9822432 1.028358
000020 af 1c 80 3f e9 ee 7b 3f 4b f3 82 3f 6c 26 7a 3f
       1.0008754 0.9841142 1.0230497 0.9771488
000030 47 f6 7e 3f 42 e1 7a 3f f5 78 7f 3f 3d 99 83 3f
       0.9959454 0.97999966 0.9979394 1.028114
000040 5c 1d 80 3f df a7 79 3f
       1.000896 0.97521776

bias f4 [18]
000000 32 fe 8e bc c9 76 4a 3c b1 2f 84 bc aa 53 fd bc
       -0.017455194 0.012357422 -0.016136022 -0.030923683
000010 fa bf d5 3c 58 55 78 3b 04 57 5d 3c 7b 4c 2c 3d
       0.026092518 0.0037892666 0.013509516 0.042065125
000020 c9 18 55 3c 5f b6 51 3c cd 26 06 3d 0c f4 d2 3c
       0.0130063975 0.012799828 0.032751847 0.025751136
000030 01 5a ec bb fb 21 3b 3c 29 fd 9c 3b 72 81 22 3d
       -0.0072128777 0.011421676 0.004790921 0.03967423
000040 60 08 6f b9 8a 06 fc 3a
       -0.00022795936 0.0019228023

running_mean f4 [18]
000000 af fd 78 3b 5a 2d b6 bc 65 ee 64 bd 70 ca 99 bd
       0.0037993004 -0.022238422 -0.055891413 -0.07509315
000010 9d 83 7f 3c a1 62 db bc 28 90 72 3d 57 5e 9f bd
       0.015595344 -0.026780428 0.05921951 -0.07781666
000020 59 96 80 3d ca bc 4b 3c 15 c5 e1 bd 35 16 88 bc
       0.062786765 0.012435148 -0.110239185 -0.016612152
000030 c4 b8 df bc 1c 54 db bb 15 df 60 bc 81 23 a3 bd
       -0.027309783 -0.006693376 -0.013725062 -0.07965756
000040 68 7f 4b 3d 10 ec 6e 3d
       0.04968205 0.058330595

running_var f4 [18]
000000 39 50 2f 3e 41 80 21 3f ae f8 86 3e 3f 29 bc 3f
       0.17120446 0.63086325 0.26361603 1.4700087
000010 f1 3d 36 3f fe 6e ad 3d d0 81 2e 3f 95 f3 31 3f
       0.71188265 0.08468436 0.6816683 0.695123
000020 45 a1 19 3f 54 71 3f 3f 4f 66 9f 3f 11 95 fc 3e
       0.600117 0.747823 1.2453097 0.4933248
000030 9d ee e3 3e aa 62 76 3c 67 d9 30 3f fa 64 37 3f
       0.44517985 0.015038172 0.6908173 0.71638453
000040 41 84 3f 3f ee e4 8b 3e
       0.7481118 0.27323097

weight f4 [18, 1, 3, 3]
000000 b0 62 82 bd 8e b5 65 3d 3e 55 2a 3e 50 c0 f6 3d
       -0.063664794 0.056081347 0.1663408 0.120483994
000010 36 41 f4 3c 35 af b5 bc 5d 3e 14 bc 46 31 06 bd
       0.029816251 -0.022178272 -0.009048072 -0.032761835
000020 2a 19 ea bd e6 bd 24 3d 6b 86 4e 3d 84 b4 c5 bb
       -0.11430581 0.040220164 0.05042116 -0.006033482
000030 75 31 91 3d 3f 4e 68 bd c7 60 32 3e 81 45 2a 3e
       0.07089511 -0.056715246 0.1741973 0.16628076
000040 ae a3 76 3d e3 d8 40 be 81 9a 3f be b3 9f 2a be
       0.06021469 -0.18832736 -0.18711282 -0.16662483
000050 0f e0 70 bd f0 9a 26 be 42 3e b6 bd 8d 79 28 3d
       -0.05880743 -0.16270041 -0.088985935 0.041131545
000060 13 82 e4 3d 3f 41 d1 bc ad 72 3e be cc db 65 3d
       0.11157622 -0.025543807 -0.18598433 0.056117818
000070 98 3b 7b bd 61 7f b3 bd da 84 2b 3e 47 09 31 3e
       -0.06133613 -0.0876453 0.16749898 0.17288695
000080 3b 9a 0d 3e 48 6a 40 3e 7e 45 0f be 59 87 fe 3d
       0.13828366 0.18790543 -0.13991353 0.12428159
000090 2f d7 08 3d 04 68 1e 3e 6f 16 10 be 51 40 a0 3c
       0.03340834 0.15469366 -0.14071058 0.019561918
0000a0 a5 43 82 3d 7f 87 39 3e 4b e8 3e 3e 3a 7a e2 bd
       0.063605584 0.18118094 0.186433 -0.11058469
0000b0 86 97 34 3c 05 60 26 3e 91 92 d2 3d 32 53 0a 3e
       0.011022454 0.16247566 0.102818616 0.13508299
0000c0 31 43 ec bc 84 c6 3c bc 9a 94 11 3e 63 a9 bc 3d
       -0.028840633 -0.011521939 0.14216843 0.092119955
0000d0 1c a3 3e be c5 65 82 bd 14 ae f3 bd 74 0c 29 3d
       -0.18616909 -0.06367067 -0.11898437 0.04127164
0000e0 23 80 39 bd fe 1f a5 bd 36 83 b7 3d d4 08 21 be
       -0.045288216 -0.08062743 0.089605734 -0.15726024
0000f0 20 f0 85 bc 5b d0 bb bc 85 68 24 3e 4f 4e 46 3e
       -0.016349852 -0.0229265 0.16055496 0.1936581
000100 2c 62 82 3d 65 cc 07 3e b3 ed 62 bc 9e b4 fc bd
       0.06366381 0.13261564 -0.013850617 -0.123391375
000110 9f b8 f9 3c f5 66 40 3e c6 86 6e 3d b3 c0 07 be
       0.030483542 0.18789275 0.058234 -0.13257103
000120 64 fb f4 3d 3c 08 0e be a7 f1 79 bc 0e f8 ca 3c
       0.119620115 -0.13870329 -0.015255368 0.024776485
000130 ca 89 8a 3d 28 0e f8 bd d8 fc db bd 5a a3 71 bc
       0.067645624 -0.12112075 -0.107415855 -0.014748419
000140 9e 02 b8 3d 53 98 2f 3e 27 25 20 be f5 5e 96 3c
       0.08984874 0.17147951 -0.15639172 0.018355826
000150 ae 8c 1e be f1 21 13 be 7a d6 fc 3d cd b3 18 3e
       -0.15483353 -0.14368416 0.12345596 0.14912339
000160 d0 50 41 bd 8f 38 92 bd 13 2e f4 3d a0 3b b1 3d
       -0.04719621 -0.07139694 0.119228505 0.08653951
000170 f3 5f 33 3b a2 e8 a4 bb 3e 53 97 3d 8e 76 ca 3d
       0.0027370423 -0.005032615 0.07388924 0.09885894
000180 15 b0 de bd ca 78 91 3d b2 bd 34 3e c0 79 f6 3c
       -0.10873429 0.07103117 0.17650488 0.030087352
000190 a7 d4 64 3d b9 c2 d1 3a f4 59 88 3d 75 37 41 3d
       0.055866864 0.0016003466 0.06657782 0.04717203
0001a0 09 a4 1a 3e 98 4f af 3d e1 80 19 3e db 6a f4 3d
       0.15101637 0.08560103 0.1499057 0.119344436
0001b0 0b 42 19 ba b7 3b f0 3d b4 cb cf 3d d7 08 08 3e
       -0.0005846328 0.1173014 0.10146275 0.13284622
0001c0 00 f3 1a be ce 87 fb 3d 18 44 34 3e 20 7c a0 bd
       -0.1513176 0.12281762 0.176041 -0.07836175
0001d0 f6 4d 18 ba 90 69 8b bd 50 2d 5c be 1f f5 14 be
       -0.0005809957 -0.06807244 -0.2150166 -0.14546631
0001e0 34 40 ed 3d 19 d6 7b bd b6 95 ef 3d 05 e9 1f bd
       0.115845114 -0.061483476 0.11698477 -0.039040584
0001f0 de ed c0 3d b5 82 fb 3d 08 96 dc 3d 4f c8 3d 3e
       0.094203696 0.1228079 0.10770804 0.18533443
000200 64 eb 88 bd 34 bf d5 bd e5 8a b4 3d 0e 24 e0 bd
       -0.06685522 -0.1043686 0.088155545 -0.10944377
000210 87 82 07 3e 1d 30 36 bd b8 07 d8 bd f6 ab c6 bd
       0.13233386 -0.04447948 -0.10548347 -0.09700768
000220 2a 78 be bd 6c a6 59 3d 72 50 03 3e 28 e5 19 be
       -0.09300263 0.053137228 0.12823656 -0.15028822
000230 aa da fd 3d ef 58 1a 3e 0d 39 16 3e a1 3c 93 3d
       0.123952225 0.15072988 0.146702 0.071892984
000240 8b 70 cc 3d c7 96 b1 3d ed 4d 2f be c7 60 13 3e
       0.09982403 0.086713366 -0.1711957 0.14392386
000250 38 d6 05 3e 0d 75 82 bd b0 c3 3e be 8a 80 9e bd
       0.13069999 -0.06369982 -0.18629336 -0.07739361
000260 ee 55 b2 3c b4 94 2d 3e a2 d0 1d be 66 53 96 3d
       0.02176949 0.16951257 -0.15411618 0.07340126
000270 dc 85 1a bc d2 88 c9 3c fa 38 1a be 77 62 74 bd
       -0.009431329 0.024601374 -0.15060797 -0.059664216
000280 24 6f b0 bd 95 19 1e be
       -0.086149484 -0.15439446

weight f4 [18]
000000 b8 97 81 3f 5a 2c 77 3f a9 3b 83 3f 93 12 7a 3f
       1.0124426 0.9655205 1.0252582 0.9768459
000010 31 57 81 3f 95 25 82 3f 21 c5 82 3f 81 36 83 3f
       1.0104734 1.0167719 1.0216409 1.0251008
000020 6d 46 79 3f 8c f6 77 3f d5 48 84 3f e3 08 83 3f
       0.97373086 0.96860576 1.0334727 1.0237087
000030 a4 6e 77 3f 69 bf 7d 3f b5 40 79 3f b7 c0 83 3f
       0.966532 0.99120194 0.9736436 1.0293187
000040 8f 9f 7e 3f 77 87 82 3f
       0.9946222 1.019759

bias f4 [18]
000000 72 ee 24 bb 3e 4b 03 bd b8 29 2e 3d f8 6d 04 bd
       -0.0025166539 -0.03205418 0.042520255 -0.032331437
000010 df 1a e8 3c 8e d5 33 3c c2 90 7e bc 25 cb 2e 3d
       0.028333126 0.010976208 -0.015537443 0.042674202
000020 01 0f e1 bb 3a 80 ec bc 08 fa 2e 3d 68 42 23 3d
       -0.0068682437 -0.028869737 0.042718917 0.03985825
000030 97 58 17 bd 15 31 75 3b 5b ea b7 bc 40 3a 14 3d
       -0.03694972 0.0037413288 -0.022450617 0.036188364
000040 02 40 49 bc fa 63 f2 3b
       -0.012283327 0.007397172

running_mean f4 [18]
000000 43 0b a9 3b c2 37 41 3d 88 66 e5 bd 6e 75 aa 3d
       0.005158813 0.047172315 -0.11201197 0.08323179
000010 7f 74 8a 3d 80 49 90 3d b6 ee da bc d6 e6 8e 3d
       0.06760501 0.07045269 -0.026725154 0.06977622
000020 58 0a 56 bc c1 44 a7 bc fb 6f c2 3d ee 6c b5 3d
       -0.01306399 -0.020418527 0.09494015 0.08858667
000030 47 16 8c 3d aa ef 91 3a e6 55 88 3c 93 61 8d 3d
       0.068401866 0.0011134048 0.016642522 0.069033764
000040 01 a8 44 3c 24 a3 3e bd
       0.012002946 -0.0465423

running_var f4 [18]
000000 ec 60 c0 3c 35 6e 50 3c a2 29 d1 3d b2 bd b5 3d
       0.023483716 0.012721588 0.10213019 0.08874072
000010 dc bb 82 3d d7 07 2a 3d 5c 97 11 3c b3 b1 78 3d
       0.063834876 0.041511383 0.008886185 0.060716342
000020 90 57 e6 3c 30 56 51 3c 77 60 86 3d 6f 7b d0 3c
       0.028117925 0.012776896 0.06561368 0.025449483
000030 53 0f 51 3d db ee 67 3d 8d 53 69 3c 86 a6 84 3d
       0.051040005 0.056624275 0.014241111 0.06477074
000040 44 e8 a0 3c 11 98 15 3d
       0.019642003 0.036521975

weight f4 [5, 18, 1, 1]
000000 9b b3 26 be 98 7b a6 3e 5b 35 fa 3e 53 97 55 3d
       -0.16279452 0.3251617 0.48868832 0.052146267
000010 de 38 e7 be ce 33 6c be 2d 27 a9 bc b8 a6 dd 3c
       -0.45160574 -0.23066637 -0.020648563 0.027057037
000020 e5 90 a2 3e 9c a8 04 3e 1d 1a 5c 3e c9 3a 94 be
       0.3175117 0.12954944 0.21494336 -0.289511
000030 e8 67 dc be 7f 33 a6 3e 8d ee d1 3e b7 00 82 bd
       -0.43048024 0.32461163 0.41002312 -0.063477926
000040 e5 42 00 3e 2a 5e d0 3e ca 75 11 3c 28 bc e5 3e
       0.12525518 0.4069684 0.008878181 0.44870114
000050 c3 30 e6 3e ac e5 79 3d 05 de b5 3e b7 78 f5 be
       0.44959077 0.061010048 0.3552095 -0.4794366
000060 b2 03 d5 be b6 32 4b 3e 44 e0 ac 3d aa df f1 be
       -0.41604382 0.19843563 0.08441213 -0.47240955
000070 a0 f3 54 be 01 02 ce be 55 85 ce 3e f4 b7 02 bf
       -0.2079606 -0.40235904 0.403361 -0.5106194
000080 e7 d7 8e 3e 24 1d f7 3e e8 87 43 be 1b 5e b0 3b
       0.27899095 0.4826442 -0.19094813 0.005382312
000090 97 06 23 3e d8 a5 b6 3e 1b fb 8a be 2c 25 8b be
       0.15920483 0.35673404 -0.27144703 -0.27176797
0000a0 72 0c d7 3d c2 97 75 be 36 85 f9 bd 75 ae a9 3e
       0.10500421 -0.23983672 -0.12183611 0.33140913
0000b0 6e 83 99 be 64 8a af bd e1 81 8d 3e de 8e f9 be
       -0.29983085 -0.08571318 0.27638152 -0.48741812
0000c0 71 6e ad be 59 0b 8f be 60 3b b0 be 2f b2 e1 3e
       -0.33873323 -0.27938345 -0.344203 0.44081256
0000d0 16 79 2f 3e 81 60 85 3e dc 11 3a 3e 1c 47 85 3d
       0.17136034 0.2605019 0.18170875 0.06507704
0000e0 40 32 9b bd c1 4c 25 3e 7b 3f b4 be 0d 4b 1c be
       -0.07577944 0.1614256 -0.35204682 -0.15263005
0000f0 4e c8 8e be 1d 22 70 be 2c dd 81 3e 24 91 bc 3e
       -0.27887195 -0.23450513 0.25364053 0.36829484
000100 be 01 b2 3d 4a df 98 3e 80 b0 0c be 9d ec 4b b8
       0.086917385 0.29857856 -0.13739204 -4.8619335e-05
000110 45 db e3 be 21 76 05 bf b1 b7 55 3c 59 b4 b6 be
       -0.44503227 -0.52133375 0.013044284 -0.3568447
000120 e3 5a 8b be 9f 9b 3c 3d a4 40 bf 3e 5f 42 a6 bd
       -0.2721778 0.04604685 0.37354004 -0.08118128
000130 92 d6 bb 3b ad a4 ae 3c 77 ca d1 3e 61 20 d6 3d
       0.005732366 0.021318758 0.4097478 0.104553945
000140 29 80 96 3e e0 22 c3 be 82 fb ba be 98 6e dc 3e
       0.29394653 -0.38112545 -0.3652001 0.43053126
000150 db 90 fb 3e 87 2b f7 3e 7e 2d 04 be b2 16 47 3e
       0.49133953 0.48275396 -0.12907979 0.19442251
000160 59 dc 11 3e 81 45 d9 3e
       0.14244212 0.4243584

weight f4 [5]
000000 bc 9d 7a 3f fb 7f 7d 3f dd c4 7e 3f c0 73 82 3f
       0.97896934 0.9902341 0.9951914 1.0191574
000010 01 7a 79 3f
       0.9745179

bias f4 [5]
000000 2f 65 ef b8 c9 d6 93 b9 16 94 4c 39 de d8 da b8
       -0.00011415255 -0.00028198052 0.00019510122 -0.00010435445
000010 44 61 8f 36
       4.2730553e-06

running_mean f4 [5]
000000 10 06 32 3e 18 5a b6 ba 75 4e ac bd d9 69 50 be
       0.17385125 -0.0013912348 -0.08413402 -0.20352878
000010 b2 b6 b7 3e
       0.35881573

running_var f4 [5]
000000 e7 7e 3b 3f f9 df 23 3f 7b e6 db 3e 45 28 38 3f
       0.7324051 0.6401363 0.4294928 0.71936446
000010 58 c0 11 3f
       0.5693412

weight f4 [5, 3, 1, 1]
000000 ab fc 42 bf dc ee 1f bf 66 38 ca bd 05 13 7a 3e
       -0.7616679 -0.62473845 -0.098740384 0.24421318
000010 97 4a e9 be 0b af 31 bf a8 f8 dd bd 5d 2f 82 bd
       -0.4556472 -0.6940772 -0.10838443 -0.0635669
000020 fc cb c0 be fe e8 b8 3e 1d 3f 3e bd c5 cd 4e be
       -0.37655628 0.3611526 -0.04644691 -0.20195682
000030 92 4f fc be a7 ec 4b bf 64 87 2d bf
       -0.49279457 -0.7965798 -0.67784715

bias f4 [5]
000000 6e ea 8c 3e b8 8c 61 be 4f d3 f7 3e 40 69 e4 3e
       0.27522606 -0.22026336 0.48403403 0.4461155
000010 d4 8b b7 bd
       -0.08962217
