trained_model/TRAIN_FIAT(BongNet).pt (torch, 149158 bytes, 139 tensors)

weight f4 [3, 1, 3, 3]
-0.15234528 -0.280811 0.027983641 0.25604805 -0.11625934 -0.18427648 -0.071937 -0.36739448
0.26330733 0.17494354 0.011731482 -0.30414307 0.07448946 -0.31686807 0.23266113 -0.2376769
-0.2812601 0.2724205 0.3565752 0.22961916 0.38657108 -0.12706508 -0.021072587 0.3373621
-0.033131134 0.35948333 0.037143268
00000000: 6700 1cbe 76c6 8fbe f33d e53c bb18 833e
00000010: 6019 eebd f9b2 3cbe b553 93bd 211b bcbe
00000020: 38d0 863e 6624 333e 6735 403c a4b8 9bbe
00000030: ee8d 983d 883c a2be b83e 6e3e 9361 73be
00000040: 5301 90be b37a 8b3e 0691 b63e 4921 6b3e
00000050: a5ec c53e 591d 02be 6ba0 acbc baba ac3e
00000060: 83b4 07bd 330e b83e 8a23 183d

weight f4 [3]
0.9642212 0.99839836 0.9939235
00000000: 33d7 763f 0997 7f3f c571 7e3f

bias f4 [3]
-0.039421473 0.01471268 -0.0017930802
00000000: 6978 21bd 740d 713c ca05 ebba

running_mean f4 [3]
-111.831825 -66.54442 272.29324
00000000: e5a9 dfc2 be16 85c2 8925 8843

running_var f4 [3]
2314.7412 852.4957 13360.075
00000000: dcab 1045 ba1f 5544 4dc0 5046

weight f4 [12, 2, 1, 1]
-0.5872115 -0.27685955 0.10226882 -0.17080651 -0.6286158 -0.39063588 0.61658984 -0.36182755
0.45023406 0.3581227 -0.23314933 -0.037602026 -0.071101286 -0.16672838 0.46211845 0.03740157
-0.52448654 0.22231133 -0.14827107 -0.34532255 0.47741947 0.588608 0.06069996 -0.014051095
00000000: 7e53 16bf 89c0 8dbe 5172 d13d e7e7 2ebe
00000010: f7ec 20bf 6d01 c8be d5d8 1d3f 7641 b9be
00000020: 1485 e63e dc5b b73e b3be 6ebe 9504 1abd
00000030: 8d9d 91bd d8ba 2abe ca9a ec3e 6332 193d
00000040: c044 06bf 95a5 633e 5fd4 17be 1ece b0be
00000050: 5370 f43e 04af 163f 85a0 783d 9036 66bc

weight f4 [12]
0.9960522 0.9915124 0.9968585 1.0060065 0.99886495 1.0045289 1.0068727 1.015203
1.0087298 1.007568 1.0055013 1.010957
00000000: 47fd 7e3f c2d3 7d3f 1e32 7f3f d2c4 803f
00000010: 9db5 7f3f 6794 803f 34e1 803f 2cf2 813f
00000020: 0f1e 813f fdf7 803f 44b4 803f 0a67 813f

bias f4 [12]
0.0035211837 0.0025036868 -2.2253575e-05 0.0027664774 -0.005840412 -0.008447379 -0.010790243 0.018346226
-0.014622915 -0.0023847267 0.008990629 0.008472265
00000000: a9c3 663b e514 243b 30ad bab7 ca4d 353b
00000010: ed60 bfbb e066 0abc 8fc9 30bc d34a 963c
00000020: f394 6fbc 1349 1cbb 6e4d 133c 41cf 0a3c

running_mean f4 [12]
-0.14719857 -0.010239836 -0.17302124 0.04762794 0.13675866 -0.046596516 -0.039647777 0.08627134
-0.05452378 -0.082292795 0.1792348 0.008202773
00000000: 39bb 16be fcc4 27bc 7b2c 31be 8415 433d
00000010: 760a 0c3e fddb 3ebd b565 22bd 07af b03d
00000020: 5454 5fbd 2089 a8bd 5489 373e ec64 063c

running_var f4 [12]
0.08688467 0.01605873 0.0856957 0.26758927 0.037509624 0.018905923 0.0016446383 0.08055194
0.16810478 0.007035968 0.033527285 0.0018874526
00000000: 97f0 b13d 998d 833c 3a81 af3d 7601 893e
00000010: b1a3 193d 98e0 9a3c e790 d73a 6af8 a43d
00000020: a923 2c3e fa8d e63b e853 093d 6664 f73a

weight f4 [12, 1, 3, 3]
0.14827815 -0.044792194 0.010650917 -0.15264158 -0.19174744 0.061317604 -0.080800325 0.096595734
0.17013331 0.21060479 0.16590738 -0.028604986 0.113731176 0.19034748 0.023294091 0.193385
0.037023507 0.040187135 0.111677915 0.08849063 -0.11025214 -0.16048747 0.12969686 -0.053226285
-0.14549534 0.18081611 0.2143475 -0.1452277 0.048091114 0.011300988 0.068791404 -0.00480102
-0.04888808 0.16933988 0.0953138 0.11960733 -0.19700287 -0.1903279 0.090917274 -0.13999894
0.06270566 0.10840447 -0.010858279 -0.03791839 0.014604137 0.040464945 -0.20617655 0.014797348
0.12777652 0.05012207 -0.16002771 0.22563674 -0.017718956 -0.14914826 -0.19794461 -0.04295641
0.22535965 0.09331073 -0.13716953 -0.11361331 -0.013067301 0.15605995 0.10489243 0.107102305
-0.05921915 -0.052230306 0.019911865 -0.12706529 0.029266398 0.18682376 0.026580775 -0.053869434
0.183555 -0.13452782 -0.2122972 -0.10510016 -0.044064447 0.22275215 -0.09567041 0.07055137
0.2055367 -0.14872947 0.013672114 0.2432033 0.09537964 0.20071945 0.10384316 -0.03547786
0.19296165 -0.22027633 -0.15233059 -0.17298985 0.028327947 0.14754072 -0.0931188 0.012544868
0.1708259 0.009819016 -0.20108235 0.03597175 -0.074449316 0.031683188 -0.10404774 0.16900536
0.20783707 0.19812787 -0.20055543 0.15397792
00000000: 3ad6 173e 0578 37bd 2f81 2e3c 134e 1cbe
00000010: 7159 44be 2b28 7b3d a47a a5bd fcd3 c53d
00000020: 6d37 2e3e c8a8 573e a0e3 293e 0155 eabc
00000030: e4eb e83d 73ea 423e 40d3 be3c b806 463e
00000040: f6a5 173d 449b 243d 64b7 e43d 933a b53d
00000050: e0cb e1bd d456 24be 41cf 043e ce03 5abd
00000060: bbfc 14be dc27 393e e97d 5b3e 92b6 14be
00000070: 30fb 443d c727 393c 82e2 8c3d e051 9dbb
00000080: de3e 48bd 6f67 2d3e e233 c33d b0f4 f43d
00000090: 1fbb 49be 51e5 42be d632 ba3d e25b 0fbe
000000a0: d36b 803d 2a03 de3d ece6 31bc 5050 1bbd
000000b0: 3146 6f3c 92be 253d f21f 53be 9370 723c
000000c0: d9d7 023e cd4c 4d3d 4ede 23be 510d 673e
000000d0: 5827 91bc 52ba 18be feb1 4abe 10f3 2fbd
000000e0: aec4 663e b219 bf3d 2b76 0cbe 18ae e8bd
000000f0: 3c18 56bc 2ece 1f3e d8d1 d63d 7458 db3d
00000100: c88f 72bd 72ef 55bd 351e a33c 671d 02be
00000110: 16c0 ef3c ba4e 3f3e edbf d93c 32a6 5cbd
00000120: d8f5 3b3e a9c1 09be 7064 59be c13e d7bd
00000130: ec7c 34bd 2419 643e d9ee c3bd 3d7d 903d
00000140: 3678 523e 8a4c 18be 0101 603c 490a 793e
00000150: 6756 c33d 6689 4d3e b9ab d43d 3c51 11bd
00000160: bd97 453e 1e90 61be 8dfc 1bbe 4024 31be
00000170: 0310 e83c ea14 173e 12b5 bebd fd88 4d3c
00000180: fcec 2e3e f0df 203c 88e8 4dbe 1d57 133d
00000190: e278 98bd 3bc6 013d fb16 d5bd be0f 2d3e
000001a0: 3ed3 543e 08e2 4a3e 675e 4dbe 63ac 1d3e

weight f4 [12]
0.99405485 1.0022233 0.9987183 0.9980119 0.99752927 1.0017759 1.0126722 0.9932665
0.9973977 1.0020076 1.0024925 0.99974257
00000000: 617a 7e3f da48 803f 01ac 7f3f b57d 7f3f
00000010: 145e 7f3f 313a 803f 3e9f 813f b746 7e3f
00000020: 7555 7f3f c941 803f ad51 803f 21ef 7f3f

bias f4 [12]
-0.010730231 0.010792853 -0.0039282795 -0.0031814121 -0.0052380613 0.0037663826 0.011952879 0.00750879
-0.0019274557 -0.008757138 0.006001539 0.0024169441
00000000: dacd 2fbc 82d4 303c ccb8 80bb 3d7f 50bb
00000010: 0ba4 abbb 6ad5 763b 02d6 433c 4c0c f63b
00000020: aea2 fcba 197a 0fbc 8fa8 c43b 9865 1e3b

running_mean f4 [12]
0.0014108588 0.14723949 0.039876707 0.052292146 -0.039442223 -0.013152475 -5.5172997e-05 0.013601116
0.013286987 0.07797077 -0.034477916 0.072538234
00000000: 91ec b83a f3c5 163e c255 233d 4a30 563d
00000010: 2b8e 21bd 7a7d 57bc 8e69 67b8 37d7 5e3c
00000020: aab1 593c 24af 9f3d b738 0dbd ed8e 943d

running_var f4 [12]
0.0034247031 0.27852696 0.0076480084 0.047165524 0.06332329 0.0049647223 0.015765892 0.012400316
0.004686323 0.065150425 0.03668489 0.080623485
00000000: fc70 603b 169b 8e3e 259c fa3b a330 413d
00000010: a4af 813d 1caf a23b 7927 813c b22a 4b3c
00000020: ba8f 993b 966d 853d e542 163d ed1d a53d

weight f4 [2, 12, 1, 1]
-0.31199828 0.5966193 0.10892337 -0.024429498 -0.488281 -0.54732054 -0.53111607 0.1408459
-0.6019884 -0.62645954 0.54551077 -0.1968449 0.59325266 0.3112054 0.57037896 0.49742863
0.06448654 0.039329328 0.2981155 0.548901 0.45243707 0.23285757 0.18093643 0.5130089
00000000: 3dbe 9fbe 0bbc 183f 3713 df3d 5f20 c8bc
00000010: f8ff f9be 331d 0cbf 39f7 07bf e839 103e
00000020: e91b 1abf a75f 20bf 98a6 0b3f b691 49be
00000030: 68df 173f 5056 9f3e 5b04 123f f7ae fe3e
00000040: 8511 843d ca17 213d 98a2 983e c784 0c3f
00000050: d5a5 e73e 3772 6e3e 6647 393e 8d54 033f

weight f4 [2]
0.9951106 0.98320603
00000000: 91bf 7e3f 64b3 7b3f

bias f4 [2]
-0.00075553474 0.0011304962
00000000: 140f 46ba 282d 943a

running_mean f4 [2]
-0.30434522 0.67781997
00000000: 23d3 9bbe 9c85 2d3f

running_var f4 [2]
0.8076604 1.5753155
00000000: d5c2 4e3f f0a3 c93f

weight f4 [12, 2, 1, 1]
0.08862716 0.15158327 0.20284793 0.27657717 0.6171566 0.17962332 0.38786748 0.3465144
-0.64027596 -0.020350007 0.47448817 0.23477326 -0.24591939 0.6742448 0.6423995 0.6464118
0.3909526 -0.6129356 0.41525576 -0.2551611 0.31235355 -0.085832275 0.2746296 -0.3690305
00000000: 2882 b53d a538 1b3e 5eb7 4f3e 869b 8d3e
00000010: fafd 1d3f 2def 373e 9196 c63e 566a b13e
00000020: 20e9 23bf 0fb5 a6bc 1df0 f23e 6768 703e
00000030: 4bd2 7bbe 4f9b 2c3f 4b74 243f 3e7b 253f
00000040: f02a c83e 59e9 1cbf 679c d43e 7aa4 82be
00000050: ceec 9f3e d5c8 afbd 409c 8c3e 91f1 bcbe

weight f4 [12]
0.99370754 0.9977655 0.9801494 1.0132093 1.0045356 0.9966834 1.0062689 1.0013148
0.99930656 1.0060444 1.0186065 1.0062623
00000000: 9e63 7e3f 8f6d 7f3f 12eb 7a3f d8b0 813f
00000010: 9f94 803f a526 7f3f 6bcd 803f 152b 803f
00000020: 8ed2 7f3f 10c6 803f b361 823f 34cd 803f

bias f4 [12]
-0.0053072334 -0.003732217 0.01324863 -0.00070412445 -0.0004260647 0.008664448 -0.0098995585 0.0021357168
0.01067736 -0.014727092 -0.012681232 0.0027269125
00000000: 4de8 adbb 3698 74bb c810 593c fe94 38ba
00000010: 7061 dfb9 54f5 0d3c c231 22bc 62f7 0b3b
00000020: 18f0 2e3c e749 71bc f1c4 4fbc 00b6 323b

running_mean f4 [12]
0.040318124 0.0806678 0.13621615 0.124159366 -0.11392804 0.12067823 0.06871474 0.21759975
-0.03358191 0.029600475 0.03979983 -0.013476923
00000000: 9e24 253d 2935 a53d 3f7c 0b3e 4447 fe3d
00000010: 1b53 e9bd 2626 f73d 50ba 8c3d 78d2 5e3e
00000020: 2f8d 09bd b27c f23c 2605 233d 50ce 5cbc

running_var f4 [12]
0.038474347 0.16233051 0.746125 0.435747 0.69568497 0.5008202 0.25343412 1.2885752
0.29844904 0.24342605 0.14603253 0.1298879
00000000: 4797 1d3d f839 263e 0c02 3f3f 3b1a df3e
00000010: 6918 323f c135 003f 1ec2 813e 08f0 a43f
00000020: 50ce 983e ae44 793e 8d89 153e 5501 053e

weight f4 [12, 1, 3, 3]
-0.1924878 0.041328996 0.15593167 0.095659174 0.08889921 -0.022671117 0.16106346 -0.028774785
0.2016355 -0.22460254 0.04440265 0.1464278 -0.18991035 -0.07990283 0.11207368 0.0064945025
0.091582045 0.13501373 0.22775882 0.077735946 0.10879745 0.17062216 0.04728347 0.1912543
-0.13708322 -0.030419575 0.18683177 -0.04257232 0.07568191 -0.20935455 0.17770156 -0.16959147
-0.03230399 -0.18002352 -0.18411146 -0.07885515 0.039608948 0.20451891 -0.15182595 0.10435887
0.21739376 -0.17668825 -0.041679848 0.012753047 0.1884269 -0.11310956 -0.1854455 -0.029233763
-0.16947767 -0.028778609 0.19500105 0.14149344 0.16400805 -0.09548971 -0.0860783 0.017365322
-0.047436487 -0.1431287 0.017816575 -0.15579683 0.038023207 0.13293423 -0.20323703 -0.19147284
-0.00070158625 -0.099497445 -0.02276169 0.04286659 0.12351675 -0.18244274 0.039430894 0.20181161
0.013191538 -0.12218272 -0.03867633 0.13901125 0.18777749 0.07239717 0.018750751 -0.08273998
-0.06935702 -0.10495129 -0.20698749 -0.0916872 0.04826763 0.029673226 0.0077281855 -0.14086886
0.16645023 -0.15379706 0.16128218 0.0052836887 0.14593054 -0.1566931 -0.22761339 0.029119657
-0.022085497 0.038803108 -0.19759384 -0.04562546 0.18171424 -0.16905381 0.047767606 0.012129171
0.050149493 0.086033866 -0.086977765 -0.060574993
00000000: 861b 45be 9848 293d 8dac 1f3e f5e8 c33d
00000010: ca10 b63d c7b8 b9bc d2ed 243e 19b9 ebbc
00000020: 8979 4e3e 35fe 65be 8edf 353d 2bf1 153e
00000030: dc77 42be 18a4 a3bd e386 e53d d6cf d43b
00000040: 5e8f bb3d 0a41 0a3e 9c39 693e 0634 9f3d
00000050: 33d1 de3d 93b7 2e3e 50ac 413d 2bd8 433e
00000060: 8b5f 0cbe 7932 f9bc d450 3f3e 5060 2ebd
00000070: 1eff 9a3d 0a61 56be 66f7 353e 63a9 2dbe
00000080: 3051 04bd 1658 38be b787 3cbe cf7e a1bd
00000090: fe3c 223d 686d 513e 4378 1bbe 1aba d53d
000000a0: 789c 5e3e c4ed 34be 7db8 2abd 28f2 503c
000000b0: fbf2 403e fca5 e7bd 6de5 3dbe a57b efbc
000000c0: 8e8b 2dbe 1ec1 ebbc 5bae 473e a8e3 103e
000000d0: baf1 273e 1c90 c3bd d249 b0bd b841 8e3c
000000e0: c34c 42bd 5490 12be 11f4 913c 3489 1fbe
000000f0: 39be 1b3d e91f 083e 5e1d 50be 7511 44be
00000100: a8ea 37ba 51c5 cbbd b976 babc e194 2f3d
00000110: 5af6 fc3d 45d2 3abe 4a82 213d b4a7 4e3e
00000120: 5221 583c ef3a fabd 126b 1ebd f758 0e3e
00000130: be48 403e f844 943d 2d9b 993c 9473 a9bd
00000140: 0e0b 8ebd b4f0 d6bd 87f4 53be 80c6 bbbd
00000150: 47b4 453d 4415 f33c b83c fd3b ed3f 10be
00000160: ee71 2a3e fa7c 1dbe 2827 253e cb22 ad3b
00000170: d16e 153e 2874 20be 7c13 69be 598c ee3c
00000180: a5ec b4bc 02f0 1e3d 0a56 4abe c3e1 3abd
00000190: 4c13 3a3e 711c 2dbe f7a7 433d 6eb9 463c
000001a0: 8e69 4d3d 8632 b03d 6621 b2bd 7c1d 78bd

weight f4 [12]
1.0043956 0.9969402 0.9999816 0.9753955 1.0100901 1.0041354 1.0135276 0.9992045
0.99504286 0.99367625 0.9950878 1.0037698
00000000: 0990 803f 7937 7f3f cbfe 7f3f 85b3 793f
00000010: a24a 813f 8287 803f 46bb 813f decb 7f3f
00000020: 21bb 7e3f 9161 7e3f 13be 7e3f 877b 803f

bias f4 [12]
0.00346672 -0.0050669974 0.0115979025 -0.0004770977 0.011836402 0.004894066 0.00999567 -0.002407391
0.00912149 -0.0028712486 -0.007044431 -0.0037852544
00000000: e931 633b 0e09 a6bb 2105 3e3c f822 fab9
00000010: 78ed 413c 675e a03b e1c4 233c 52c5 1dbb
00000020: 4d72 153c 8f2b 3cbb f8d4 e6bb 0812 78bb

running_mean f4 [12]
0.07757787 0.007039061 0.13458534 -0.107244395 0.06058164 -0.01575137 -0.054005027 -0.012259356
0.01715444 -0.06488827 -0.04006355 0.0015834926
00000000: 25e1 9e3d eca7 e63b bdd0 093e f3a2 dbbd
00000010: 7424 783d 0409 81bc 6034 5dbd 77db 48bc
00000020: 7887 8c3c 24e4 84bd ad19 24bd 328d cf3a

running_var f4 [12]
0.118086554 0.054923855 0.25547603 0.18645996 0.04257279 0.03245287 0.09282578 0.038672857
0.009000452 0.041540187 0.030682303 0.006680892
00000000: 5dd7 f13d d6f7 603d c1cd 823e 5cef 3e3e
00000010: ce60 2e3d 4ded 043d 711b be3d 6e67 1e3d
00000020: a276 133c 0b26 2a3d 7459 fb3c 62eb da3b

weight f4 [2, 12, 1, 1]
-0.54781705 -0.6022557 0.19722474 0.46696568 -0.16387802 -0.6015359 -0.5797545 -0.28572878
0.6417691 0.047675006 -0.02928493 -0.3620126 -0.5093586 -0.5026035 -0.42354074 0.025007285
0.12901329 0.5784132 -0.51445144 -0.3196873 -0.42089045 -0.22045971 -0.42349935 0.28701136
00000000: bd3d 0cbf 6e2d 1abf 48f5 493e 2016 ef3e
00000010: a4cf 27be 42fe 19bf ca6a 14bf 0b4b 92be
00000020: fb4a 243f de46 433d f3e6 efbc b759 b9be
00000030: 5365 02bf 9faa 00bf 55da d8be 14dc cc3c
00000040: 0f1c 043e e312 143f 17b3 03bf 0eae a3be
00000050: f47e d7be 31c0 61be e8d4 d8be 27f3 923e

weight f4 [2]
1.0132341 1.0165898
00000000: a8b1 813f 9d1f 823f

bias f4 [2]
-0.0007256461 0.00041368548
00000000: 4939 3eba ede3 d839

running_mean f4 [2]
-0.2236951 -0.3304658
00000000: 5410 65be d032 a9be

running_var f4 [2]
1.0721974 1.0263224
00000000: c43d 893f 885e 833f

weight f4 [12, 2, 1, 1]
0.4299212 0.5669768 -0.11166788 0.12617217 -0.45841318 0.6330859 0.5941951 -0.35091674
0.6189253 0.023569357 0.5162099 0.5248141 -0.12847069 -0.26499844 -0.081999294 0.3982181
-0.30826056 -0.05842923 -0.41968444 -0.55443805 0.21952763 -0.61973184 -0.52040416 -0.21275853
00000000: a21e dc3e 6425 113f 21b2 e4bd 4733 013e
00000010: 22b5 eabe eb11 223f 2c1d 183f 5cab b3be
00000020: e371 1e3f 8614 c13c 5526 043f 385a 063f
00000030: d28d 03be e0ad 87be 3fef a7bd 3ee3 cb3e
00000040: 54d4 9dbe 7d53 6fbd e1e0 d6be a7ef 0dbf
00000050: dacb 603e bfa6 1ebf 3539 05bf 5fdd 59be

weight f4 [12]
1.019395 0.99991083 1.015904 1.0299326 0.99207926 1.0076417 0.9884659 1.0100224
1.0179623 0.9889239 1.0159317 1.0055789
00000000: 897b 823f 28fa 7f3f 2409 823f d5d4 833f
00000010: e8f8 7d3f 67fa 803f 1a0c 7d3f 6a48 813f
00000020: 974c 823f 1e2a 7d3f 0d0a 823f cfb6 803f

bias f4 [12]
-0.01083627 -0.0075618257 0.020445483 -0.0088110715 0.0068668122 0.02224418 0.008971695 0.016067948
-0.0021905138 -0.013024905 -0.014331674 0.019685367
00000000: 9c8a 31bc 31c9 f7bb 497d a73c 505c 10bc
00000010: ff02 e13b 6d39 b63c 04fe 123c eea0 833c
00000020: b98e 0fbb 6966 55bc 66cf 6abc 3543 a13c

running_mean f4 [12]
0.13985005 0.0013426812 0.021376166 0.03694989 0.092124864 0.14643183 -0.054958783 0.0431499
-0.05231664 -0.1366529 -0.053871006 -0.10404183
00000000: da34 0f3e e8fc af3a 121d af3c c558 173d
00000010: f6ab bc3d 3af2 153e 761c 61bd f3bd 303d
00000020: f949 56bd bdee 0bbe d8a7 5cbd e213 d5bd

running_var f4 [12]
0.5365858 0.049657892 0.98392516 1.005874 0.8302019 0.6585943 0.07656429 0.17231192
0.19991405 0.51207024 0.52152926 0.56503034
00000000: b05d 093f 1366 4b3d 85e2 7b3f 7bc0 803f
00000010: 1d88 543f a399 283f bdcd 9c3d 8972 303e
00000020: 45b6 4c3e 0917 033f f182 053f d4a5 103f

weight f4 [12, 1, 3, 3]
-0.1452436 -0.084485166 -0.17722385 0.048015177 0.08920451 0.17716794 0.012259708 0.0164125
-0.09571316 -0.17583846 0.16865622 0.045978617 -0.104151465 0.19954284 0.0123091675 -0.02069302
-0.0128773395 -0.15335082 0.099734105 0.04222818 0.062245045 0.20334439 -0.007977972 0.034616064
-0.13914452 -0.15699974 0.18513072 0.101926126 0.040951174 0.12483144 -0.030479899 0.1674765
0.11501651 -0.060530353 0.20845194 -0.15629084 -0.046365827 0.12413306 0.040824562 -0.16781285
0.16098678 0.22436324 0.03284581 -0.15257554 -0.077781476 0.007978774 -0.16196649 -0.0012551044
-0.19774161 -0.04676827 0.118624516 0.14611316 0.027476193 0.16983558 0.0180209 0.12191435
0.14130391 -0.08171956 0.04867323 -0.13473305 -0.124146834 -0.15712038 -0.15003555 0.2143053
-0.12454669 0.1763718 0.217356 -0.13217732 -0.12295141 0.082393415 -0.090990044 -0.14010015
-0.14030427 0.22337133 0.17624544 -0.12098428 0.20648725 0.046736978 0.06930892 0.03894174
0.09023004 0.04441278 -0.037372623 -0.18268184 0.11781135 0.21718106 0.117755786 0.035364676
0.090529144 -0.091097586 0.14572176 -0.13608001 -0.1716777 0.024034273 0.078699455 0.17487022
0.119310886 0.19355802 -0.14092232 -0.22799212 -0.17722626 -0.13594341 -0.15020362 0.08004028
0.21857561 0.18183465 0.06480805 -0.029932035
00000000: bdba 14be 8f06 adbd 2b7a 35be 90ab 443d
00000010: dbb0 b63d 836b 353e f1dc 483c 8273 863c
00000020: 4305 c4bd ff0e 34be 37b4 2c3e 1354 3c3d
00000030: 5d4d d5bd f554 4c3e 64ac 493c 6984 a9bc
00000040: 7afb 52bc ff07 1dbe 6541 cc3d 75f7 2c3d
00000050: a9f4 7e3d 8339 503e 0ab6 02bc 93c9 0d3d
00000060: e77b 0ebe 8ac4 20be e892 3d3e a5be d03d
00000070: 6bbc 273d a0a7 ff3d fbb0 f9bc f67e 2b3e
00000080: c78d eb3d adee 77bd 6d74 553e b50a 20be
00000090: 18ea 3dbd 7939 fe3d a837 273d 22d7 2bbe
000000a0: b8d9 243e 7abf 653e 5489 063d c33c 1cbe
000000b0: e54b 9fbd 67b9 023c 8bda 25be 5182 a4ba
000000c0: c77c 4abe 1690 3fbd 69f1 f23d b09e 153e
000000d0: c115 e13c 61e9 2d3e 91a0 933c 3bae f93d
000000e0: f9b1 103e 965c a7bd 955d 473d 76f7 09be
000000f0: b240 febd 2ae4 20be eba2 19be d972 5b3e
00000100: 5612 ffbd cf9a 343e 9292 5e3e 7e59 07be
00000110: f3cd fbbd e1bd a83d fd58 babd 6a76 0fbe
00000120: ecab 0fbe 74bb 643e af79 343e 9bc6 f7bd
00000130: 6571 533e 466f 3f3d d6f1 8d3d 6081 1f3d
00000140: 87ca b83d 2dea 353d 0914 19bd f310 3bbe
00000150: 1447 f13d b664 5e3e f229 f13d 8dda 103d
00000160: 5867 b93d 5f91 babd 1638 153e 8f58 0bbe
00000170: 47cc 2fbe 86e3 c43c 2e2d a13d 2e11 333e
00000180: 4459 f43d 1334 463e f14d 10be c476 69be
00000190: cd7a 35be c034 0bbe face 19be 29ec a33d
000001a0: 49d2 5f3e dd32 3a3e 15ba 843d 0734 f5bc

weight f4 [12]
0.9945617 0.9770088 1.0173627 1.031768 0.9710543 0.9868678 0.9909569 1.0196306
1.0299755 1.0005307 1.0154079 1.0087066
00000000: 989b 7e3f 401d 7a3f f138 823f f910 843f
00000010: 0497 783f 5ea3 7c3f 5aaf 7d3f 4183 823f
00000020: 3dd6 833f 6411 803f e3f8 813f 4c1d 813f

bias f4 [12]
-0.0061578183 -0.002104262 0.027954638 0.024571268 -0.012851876 0.020481357 -0.002895906 -0.0031359352
0.027991937 -0.006693999 0.012298233 0.025006423
00000000: 86c7 c9bb a8e7 09bb 2001 e53c af49 c93c
00000010: ad90 52bc 85c8 a73c 3ec9 3dbb 4384 4dbb
00000020: 594f e53c 5559 dbbb 877e 493c 45da cc3c

running_mean f4 [12]
-0.0146829095 0.00021990536 0.054740492 0.08045998 0.017735936 0.014725886 -0.022908077 0.011902632
0.085969605 0.03527795 0.04261683 -0.043164376
00000000: 9690 70bc 6596 6639 9137 603d 34c8 a43d
00000010: f44a 913c d844 713c b8a9 bbbc 4203 433c
00000020: d510 b03d 9d7f 103d fc8e 2e3d 21cd 30bd

running_var f4 [12]
0.022636995 0.039488114 0.041707475 0.0730452 0.035151344 0.028819568 0.061317388 0.082782395
0.09846439 0.07734202 0.060304172 0.08654505
00000000: 3871 b93c 4abe 213d 75d5 2a3d b998 953d
00000010: dbfa 0f3d 0417 ec3c f127 7b3d d189 a93d
00000020: b3a7 c93d 7e65 9e3d 8201 773d 883e b13d

weight f4 [3, 12, 1, 1]
0.16175935 -0.2663374 -0.057168495 -0.3144693 0.5296355 0.60084546 0.22575386 -0.52119356
-0.30994374 -0.21991344 -0.5095347 0.22953023 -0.5110519 0.51478016 0.5406012 -0.6297461
0.20758612 -0.2839894 -0.5546503 -0.037699334 0.07542481 0.3399544 -0.34714225 -0.61430705
-0.057831883 -0.5607365 0.49019438 0.20922168 -0.30690676 0.08611744 0.04196879 0.43176076
0.048638478 0.10976822 -0.37361887 -0.2196536
00000000: 3ea4 253e 605d 88be 8329 6abd 1f02 a1be
00000010: 3196 073f 02d1 193f 052c 673e f16c 05bf
00000020: f2b0 9ebe fd30 61be de70 02bf f909 6b3e
00000030: 4cd4 02bf a2c8 033f d764 0a3f 0a37 21bf
00000040: 7591 543e 0f67 91be 90fd 0dbf 9e6a 1abd
00000050: 5378 9a3d 810e ae3e a1bc b1be 3a43 1dbf
00000060: 20e1 6cbd 6d8c 0fbf c2fa fa3e 353e 563e
00000070: e222 9dbe 575e b03d 77e7 2b3d bf0f dd3e
00000080: 2439 473d 29ce e03d f94a bfbe e0ec 60be

weight f4 [3]
0.99155295 1.0247222 0.9874691
00000000: 6ad6 7d3f 192a 833f c6ca 7c3f

bias f4 [3]
-0.00037516438 -0.001195487 0.00017230237
00000000: b6b1 c4b9 e3b1 9cba 11ac 3439

running_mean f4 [3]
-0.07661172 -0.2135385 -0.001236237
00000000: 9be6 9cbd d6a9 5abe 3b09 a2ba

running_var f4 [3]
0.65328133 1.0049435 0.56644815
00000000: 723d 273f fda1 803f bf02 113f

weight f4 [3, 1, 1, 1]
-0.43467408 1.1134431 0.84062403
00000000: 9a8d debe 4e85 8e3f 2333 573f

bias f4 [3]
0.8783047 0.043562807 -0.53330266
00000000: 94d8 603f ea6e 323d 8686 08bf

weight f4 [18, 3, 1, 1]
-0.41122103 -0.2884237 0.45410374 -0.14649402 0.1262698 0.010415848 0.4043432 -0.36982253
-0.004409458 -0.12219381 0.18205737 0.15473108 -0.3746054 -0.16664794 0.49548292 0.25623983
-0.09148521 0.27464816 0.22413082 0.39437333 0.071177684 0.11816104 0.36247188 -0.4451639
0.0007080099 0.22440445 0.17420883 0.51043856 0.26888415 -0.44443366 -0.16235319 -0.17022865
-0.17611359 0.037662014 0.07881908 0.3161481 -0.3830484 0.06343171 -0.0016192112 0.4335209
-0.40552887 -0.10259641 0.015180643 -0.1887752 -0.39320537 0.17807974 -0.5282966 -0.3667695
0.32358262 -0.060232267 0.49218956 0.35096747 -0.38182953 0.5215132
00000000: 908b d2be 45ac 93be 4980 e83e 8702 16be
00000010: df4c 013e 3ca7 2a3c 1206 cf3e 6159 bdbe
00000020: 377d 90bb c040 fabd 3f6d 3a3e d371 1e3e
00000030: 47cc bfbe c2a5 2abe f0af fd3e de31 833e
00000040: 995c bbbd af9e 8c3e 8d82 653e 4deb c93e
00000050: 9bc5 913d 6afe f13d ea95 b93e 86ec e3be
00000060: bd99 393a 48ca 653e cd63 323e 1aac 023f
00000070: 2fab 893e cf8c e3be ea3f 26be 6b50 2ebe
00000080: 1f57 34be 7c43 1a3d e66b a13d 2ade a13e
00000090: eb1e c4be 7ce8 813d b63b d4ba 74f6 dd3e
000000a0: 7ba1 cfbe 111e d2bd 3bb8 783c 494e 41be
000000b0: 3752 c9be 895a 363e 723e 07bf 36c9 bbbe
000000c0: 9fac a53e 1cb6 76bd 4500 fc3e 02b2 b33e
000000d0: 297f c3be e481 053f

weight f4 [18]
1.0051453 1.0005734 0.98776555 1.0201182 0.9999609 1.0104531 0.97863245 0.9849799
0.98799837 1.0121368 1.0260267 1.0074282 0.9753457 0.9747078 0.96341467 1.0269517
1.0063555 0.99215287
00000000: 9aa8 803f ca12 803f 34de 7c3f 3c93 823f
00000010: 70fd 7f3f 8756 813f a887 7a3f a527 7c3f
00000020: 76ed 7c3f b38d 813f d854 833f 68f3 803f
00000030: 41b0 793f 7386 793f 58a2 763f 2773 833f
00000040: 42d0 803f bbfd 7d3f

bias f4 [18]
-0.012736377 0.0031986933 0.010897431 0.011920445 -0.0027936783 0.011839425 0.012346637 0.010704255
0.028686011 -0.0065972055 0.011947198 -0.0010862688 -0.016313246 0.028604213 0.02329193 0.017870562
0.010146987 0.0057303836
00000000: 3dac 50bc 2ba1 513b 238b 323c f84d 433c
00000010: 2516 37bb 26fa 413c 8d49 4a3c e660 2f3c
00000020: edfe ea3c 5f2d d8bb 2ebe 433c 2261 8eba
00000030: 5ba3 85bc 6253 ea3c b8ce be3c 4965 923c
00000040: 8c3f 263c f1c5 bb3b

running_mean f4 [18]
0.00058726803 -9.263285e-05 0.00028567502 -0.00014472146 0.00043326998 5.6525667e-05 -0.00055111333 -0.00055958045
-0.00024079213 -0.0006012861 0.00023879723 -5.5544402e-05 7.4187585e-05 0.0003003893 0.00015397937 0.0005034466
2.9723547e-05 0.00041143227
00000000: e4f2 193a e243 c2b8 a7c6 9539 5fc0 17b9
00000010: 8328 e339 f915 6d38 9778 10ba cfb0 12ba
00000020: 257d 7cb9 a19f 1dba a565 7a39 59f8 68b8
00000030: 2895 9b38 927d 9d39 8675 2139 bbf9 033a
00000040: d556 f937 81b5 d739

running_var f4 [18]
0.36503613 0.04497453 0.35584596 0.09602461 0.35994348 0.13629596 0.20050386 0.25430703
0.10195025 0.43783545 0.08981416 0.11582334 0.1566371 0.4516314 0.22698258 0.58955026
0.32121852 0.4695666
00000000: 04e6 ba3e 3637 383d 7131 b63e 8da8 c43d
00000010: 834a b83e 2b91 0b3e e250 4d3e 8834 823e
00000020: 4bcb d03d f82b e03e 7cf0 b73d ca34 ed3d
00000030: 7a65 203e 3b3c e73e 1f6e 683e c4ec 163f
00000040: c176 a43e 096b f03e

weight f4 [18, 1, 3, 3]
-0.14923944 -0.05291171 -0.10258977 -0.17040811 0.10214861 0.11794155 0.16498217 0.1239862
-0.14359936 -0.033638366 0.0021333597 -0.10752906 -0.024153555 -0.02767241 0.06376764 -0.10069493
-0.13569728 0.038204994 -0.02553573 -0.10300408 0.076137654 -0.1874942 0.06926963 0.151056
0.07943018 0.09676778 0.14298694 -0.05763932 -0.13698708 0.16545828 0.06466933 0.09268147
0.17211848 0.07124313 0.13029057 -0.086918995 0.060791716 0.10326298 0.056574207 -0.16219592
0.12452883 -0.01084085 -0.116200544 0.12711054 -0.15523179 0.033204008 0.001466804 -0.088996775
0.0017059986 0.16772206 -0.12987383 0.14487699 0.19967394 0.1301575 -0.020248383 -0.076733924
0.09896813 -0.14940953 0.01297751 -0.16876617 -0.16019756 0.10283138 -0.09367473 -0.16491613
0.059256006 -0.032132685 0.10083395 0.17820746 0.16168088 0.1475382 -0.076757066 -0.034428373
0.051341753 -0.04329202 0.11853709 -0.13262922 -0.16452615 0.1360855 -0.16492958 0.18475161
-0.14323057 0.021398531 -0.17169276 0.16685428 -0.01789662 -0.007965641 -0.17142701 0.16206723
-0.00094705523 -0.15686014 -0.045459885 -0.10574637 -0.13243581 0.015175118 0.13484919 -0.19718513
-0.118596174 0.008506539 0.007983403 -0.096283704 0.05464998 -0.090495475 0.0025527526 0.029057344
0.046618797 -0.18611819 0.149895 -0.012777364 0.013591266 0.16719505 0.057206072 0.086373225
0.044145014 0.13822745 0.15697171 -0.13645159 -0.035250045 0.053911045 -0.100357175 -0.13740557
0.08849792 0.066616215 0.023443135 0.0090167625 -0.13052987 -0.022636542 0.030009888 -0.16581795
-0.1415469 -0.08716388 0.19828202 -0.13460714 -0.0997014 -0.102842584 -0.03293377 0.1603216
0.18910646 -0.10196901 -0.118643016 -0.070233695 0.19397901 -0.09109548 0.0968968 -0.020140143
0.13528964 -0.17496005 -0.024134142 -0.0058064163 -0.11991234 0.12941806 0.17535912 -0.0921032
0.08658703 0.15406851 0.048881605 -0.16631462 -0.16386105 -0.11220222 -0.09163423 -0.080673374
0.027629936 0.12473818
00000000: 39d2 18be f3b9 58bd 961a d2bd 777f 2ebe
00000010: 4a33 d13d 578b f13d 16f1 283e 7aec fd3d
00000020: b60b 13be 62c8 09bd d6cf 0b3b 3238 dcbd
00000030: addd c5bc 40b1 e2bc 9c98 823d 2539 cebd
00000040: 3af4 0abe d77c 1c3d 4f30 d1bc cef3 d2bd
00000050: 0fee 9b3d 7bfe 3fbe 3cdd 8d3d 6dae 1a3e
00000060: 4aac a23d 302e c63d 2b6b 123e 3517 6cbd
00000070: 5746 0cbe e56d 293e 5b71 843d c8cf bd3d
00000080: d43f 303e ebe7 913d e46a 053e 9602 b2bd
00000090: bc00 793d 8b7b d33d 5bba 673d b016 26be
000000a0: f908 ff3d d29d 31bc 8dfa edbd 4429 023e
000000b0: 15f5 1ebe ed00 083d c641 c03a f143 b6bd
000000c0: d09b df3a 55bf 2b3e a5fd 04be a25a 143e
000000d0: 5377 4c3e 0248 053e f0df a5bc ad26 9dbd
000000e0: ceaf ca3d d0fe 18be 9f9f 543c 0ad1 2cbe
000000f0: d40a 24be 4299 d23d 89d8 bfbd c6df 28be
00000100: 6db6 723d 909d 03bd 0882 ce3d 047c 363e
00000110: ac8f 253e 4114 173e cf32 9dbd c404 0dbd
00000120: bb4b 523d f952 31bd 93c3 f23d f4cf 07be
00000130: 8b79 28be ff59 0b3e 4de3 28be 872f 3d3e
00000140: 09ab 12be f94b af3c 3ad0 2fbe d9db 2a3e
00000150: ef9b 92bc 5282 02bc 908a 2fbe f4f4 253e
00000160: cd43 78ba f29f 20be 2534 3abd 8e91 d8bd
00000170: 419d 07be 0fa1 783c e815 0a3e e6ea 49be
00000180: 8de2 f2bd 035f 0b3c d2cc 023c 6430 c5bd
00000190: a8d8 5f3d b155 b9bd 154c 273b ab09 ee3c
000001a0: 5af3 3e3d c495 3ebe 137e 193e 2658 51bc
000001b0: e7ad 5e3c 2e35 2b3e ea50 6a3d 72e4 b03d
000001c0: 67d1 343d 7f8b 0d3e 31bd 203e f7b9 0bbe
000001d0: 5a62 10bd d4d1 5c3d 1088 cdbd 0cb4 0cbe
000001e0: 663e b53d 156e 883d d10b c03c 0bbb 133c
000001f0: 9fa9 05be 4570 b9bc 4cd7 f53c 2ecc 29be
00000200: acf1 10be fa82 b2bd 710a 4b3e 74d6 09be
00000210: 3f30 ccbd 229f d2bd 90e5 06bd 582b 243e
00000220: 20a5 413e 21d5 d0bd 1cfb f2bd afd6 8fbd
00000230: 6fa2 463e 4490 babd d471 c63d f1fc a4bc
00000240: 5e89 0a3e ba28 33be f7b4 c5bc c043 bebb
00000250: 9a94 f5bd 2b86 043e 5791 333e 9aa0 bcbd
00000260: 8a54 b13d 23c4 1d3e 1438 483d 614e 2abe
00000270: 31cb 27be 47ca e5bd baaa bbbd 1538 a5bd
00000280: 2d58 e23c bb76 ff3d

weight f4 [18]
0.9965655 1.0031505 0.9917831 1.0110446 1.0110831 0.9991055 1.0288582 0.98960054
1.0165153 0.993928 1.0026133 0.9953818 0.98344237 1.0256922 0.99911803 1.0208403
0.9886453 0.998312
00000000: eb1e 7f3f 3c67 803f 7fe5 7d3f e969 813f
00000010: 2c6b 813f 61c5 7f3f a0b1 833f 7656 7d3f
00000020: 2c1d 823f 1172 7e3f a255 803f 57d1 7e3f
00000030: e1c2 7b3f e249 833f 33c6 7f3f e5aa 823f
00000040: dc17 7d3f 6091 7f3f

bias f4 [18]
-0.016510796 0.026355207 -0.008184105 0.0067819506 -0.0035642865 0.017569719 0.017972939 0.022137605
-0.00073548575 -0.0022739049 0.028662343 0.015169635 -0.028019963 -0.00189264 -0.028404644 -0.00090241106
-0.00010204165 0.008964493
00000000: a641 87bc e0e6 d73c a016 06bc 203b de3b
00000010: ce96 69bb 5fee 8f3c fc3b 933c ec59 b53c
00000020: 9dcd 40ba cb05 15bb 4acd ea3c 108a 783c
00000030: 1f8a e5bc 7612 f8ba dbb0 e8bc c88f 6cba
00000040: 32ff d5b8 cfdf 123c

running_mean f4 [18]
-0.016416145 -0.04426905 0.046291918 0.06079895 0.0042711315 0.064936735 -0.060880616 0.047123123
-0.021747787 -0.022604588 -0.069503084 -0.014090072 0.06367807 -0.022068586 -0.07599004 0.036426436
0.015709873 -0.034273352
00000000: 277b 86bc 7753 35bd 989c 3d3d 5208 793d
00000010: d9f4 8b3b 8dfd 843d f45d 79bd 2d04 413d
00000020: 6a28 b2bc 422d b9bc a257 8ebd 0cda 66bc
00000030: a669 823d 2ec9 b4bc aba0 9bbd e333 153d
00000040: feb1 803c 3762 0cbd

running_var f4 [18]
0.07279317 0.03183694 0.037489884 0.072118886 0.101901114 0.034671012 0.014965405 0.028332913
0.047682174 0.015054811 0.07282222 0.045412797 0.080749154 0.013537901 0.038345803 0.034571942
0.05109401 0.028536363
00000000: 9614 953d 7467 023d fe8e 193d 11b3 933d
00000010: 88b1 d03d 3103 0e3d 7531 753c 6d1a e83c
00000020: 624e 433d 74a8 763c d123 953d c502 3a3d
00000030: d05f a53d 13ce 5d3c 7d10 1d3d 4f9b 0d3d
00000040: f447 513d 17c5 e93c

weight f4 [3, 18, 1, 1]
0.05316036 0.19543909 -0.087764695 -0.5140755 -0.058280613 -0.23556688 -0.14594536 0.29059076
-0.36955163 -0.1845447 0.3221685 0.26524052 0.14148894 -0.27608445 -0.16530006 -0.5360524
0.05797566 -0.1145501 -0.5096234 -0.32040688 0.1254331 0.11372555 -0.4728384 0.14126295
-0.15350635 0.18519008 -0.134937 0.5055746 0.02313883 -0.34931946 0.050095595 -0.10225609
-0.14269547 -0.3442612 -0.48040265 0.37929913 0.122898355 0.120338105 -0.02605836 -0.30064076
-0.15531828 0.50952125 -0.5091842 -0.32073426 -0.22770068 -0.24329968 0.19223009 0.36261132
-0.23449478 -0.27637684 0.28603527 -0.15172188 -0.3563502 -0.35468805
00000000: adbe 593d 2f21 483e fabd b3bd 749a 03bf
00000010: a7b7 6ebd 7238 71be b372 15be 50c8 943e
00000020: df35 bdbe 49f9 3cbe 45f3 a43e 9bcd 873e
00000030: 7ae2 103e f15a 8dbe 6b44 29be bb3a 09bf
00000040: e377 6d3d 3e99 eabd ae76 02bf 5f0c a4be
00000050: 8971 003e f1e8 e83d e017 f2be 3ca7 103e
00000060: c530 1dbe 78a2 3d3e ed2c 0abe 566d 013f
00000070: a58d bd3c 00da b2be 0a31 4d3d a46b d1bd
00000080: c31e 12be 0143 b0be 56f7 f5be 7f33 c23e
00000090: 22b2 fb3d d373 f63d 5778 d5bc 96ed 99be
000000a0: c10b 1fbe fc6f 023f e559 02bf 4837 a4be
000000b0: 5e2a 69be 8d23 79be f7d7 443e 31a8 b93e
000000c0: 661f 70be 4481 8dbe 3773 923e fb5c 1bbe
000000d0: 8973 b6be ac99 b5be

weight f4 [3]
1.0316542 0.9941339 0.9770379
00000000: 3f0d 843f 8f7f 7e3f 281f 7a3f

bias f4 [3]
-0.0003919478 -0.00029647007 0.00024584113
00000000: 587e cdb9 8a6f 9bb9 3de4 8039

running_mean f4 [3]
-0.18719637 -0.19869387 -0.21873678
00000000: 68b0 3fbe 6876 4bbe 89fc 5fbe

running_var f4 [3]
0.5516926 0.48905587 0.8413987
00000000: ba3b 0d3f 8865 fa3e e865 573f

weight f4 [3, 3, 1, 1]
0.8649901 -0.8423592 -0.34570515 0.12764347 0.69354784 -0.35552132 0.92359006 0.015684128
0.28251195
00000000: fe6f 5d3f daa4 57bf 4400 b1be f8b4 023e
00000010: 5a8c 313f e406 b6be 6670 6c3f 007c 803c
00000020: 68a5 903e

bias f4 [3]
-0.30543745 0.36778378 0.42384052
00000000: 4c62 9cbe 284e bc3e a001 d93e

weight f4 [18, 3, 1, 1]
0.51500624 0.4872925 -0.12524295 -0.31588465 0.101325825 0.39516506 0.51393896 0.2884033
-0.13994657 0.11518273 0.45472214 -0.29704955 -0.23867726 0.22530839 0.38022354 -0.17593092
0.51702964 0.13439596 0.22157452 -0.47059408 -0.037376728 -0.1329239 -0.40951598 -0.40141386
-0.14290802 0.12587625 -0.28673354 0.28661996 -0.27890313 -0.22788636 0.24668694 0.29910108
0.49198353 -0.35983673 0.11930181 -0.2453619 -0.3070302 0.48255894 -0.20355813 0.45351145
-0.41585377 -0.44763082 -0.44855726 0.19015355 -0.15427886 -0.3600635 -0.24515915 -0.11183609
0.3355599 -0.3865395 -0.34896335 0.21359216 0.07896164 0.25350624
00000000: 73d7 033f 677e f93e b03f 00be a2bb a1be
00000010: ea83 cf3d 1353 ca3e 8191 033f 99a9 933e
00000020: 274e 0fbe ece4 eb3d 57d1 e83e e116 98be
00000030: d067 74be 3eb7 663e a9ac c23e 3c27 34be
00000040: 0e5c 043f 189f 093e 6ee4 623e b5f1 f0be
00000050: 5718 19bd 341d 08be 14ac d1be 1e86 cdbe
00000060: 7b56 12be b4e5 003e bdce 92be dabf 923e
00000070: 64cc 8ebe 0b5b 69be 809b 7c3e c723 993e
00000080: 44e5 fb3e 853c b8be 8254 f43d 2640 7bbe
00000090: 1033 9dbe f711 f73e 8b71 50be a732 e83e
000000a0: c9ea d4be de2f e5be 4ca9 e5be 9db7 423e
000000b0: 47fb 1dbe 3e5a b8be 000b 7bbe 520a e5bd
000000c0: 82ce ab3e 81e8 c5be 53ab b2be e7b7 5a3e
000000d0: a4b6 a13d 92cb 813e

weight f4 [18]
0.9741905 1.032264 0.97866493 0.95851463 1.0122374 1.0212272 0.9987135 1.0194387
1.0158315 1.0362266 1.0014635 1.027159 1.011676 0.97553504 1.0350902 0.9961472
1.0078217 0.9873281
00000000: 8c64 793f 3a21 843f c989 7a3f 3761 753f
00000010: ff90 813f 93b7 823f b0ab 7f3f f87c 823f
00000020: c406 823f 13a3 843f f52f 803f f279 833f
00000030: 997e 813f aabc 793f d67d 843f 8103 7f3f
00000040: 4d00 813f 89c1 7c3f

bias f4 [18]
0.019637877 0.02557176 0.0050303955 0.0033308454 0.014912921 0.015847791 0.00010791868 0.0377955
0.018734818 0.02236582 -0.0025210048 0.03331502 0.019404821 0.01931169 0.017959122 0.0075559593
0.023282204 0.021226818
00000000: 9ddf a03c de7b d13c 04d6 a43b 504a 5a3b
00000010: 5355 743c 3ad3 813c 6652 e238 74cf 1a3d
00000020: c379 993c 8638 b73c 7137 25bb 5575 083d
00000030: dcf6 9e3c 8d33 9e3c 021f 933c fb97 f73b
00000040: 52ba be3c dde3 ad3c

running_mean f4 [18]
0.07109268 -0.02105438 0.051384088 0.06745436 -0.005376285 0.04087096 -0.040612184 -0.02206577
0.026199255 -0.007883207 0.008282736 0.017443504 0.053845793 -0.0047465595 0.017111776 -0.028074725
-0.01062111 -0.0012353656
00000000: 0a99 913d 3c7a acbc 1f78 523d 8325 8a3d
00000010: 8c2b b0bb 4f68 273d f658 26bd 46c3 b4bc
00000020: d29f d63c 9128 01bc 50b4 073c aee5 8e3c
00000030: 688d 5c3d 0789 9bbb ff2d 8c3c f7fc e5bc
00000040: 2a04 2ebc feeb a1ba

running_var f4 [18]
1.2147478 0.3277165 0.783224 0.63124907 0.34774002 0.5503597 0.46118987 0.9456395
0.32010445 0.2652871 1.2036065 0.5653114 0.746168 0.7196153 0.6021536 0.6000627
0.50580096 0.38122213
00000000: db7c 9b3f 75ca a73e 5e81 483f 8a99 213f
00000010: fb0a b23e 60e4 0c3f 1421 ec3e 6e15 723f
00000020: bbe4 a33e b6d3 873e c70f 9a3f 3fb8 103f
00000030: de04 3f3f b538 383f bd26 1a3f b69d 193f
00000040: 2c7c 013f 8c2f c33e

weight f4 [18, 1, 3, 3]
0.1261711 -0.044898976 0.036954585 0.07997299 0.04114489 0.02806135 -0.20495842 -0.091927595
-0.07349915 -0.15900469 0.16018204 -0.010982262 -0.1285295 -0.18566974 0.17069726 0.15717901
0.102952905 0.089771986 -0.05569264 -0.13171566 0.028882543 -0.15274505 -0.14486356 -0.090209074
-0.027113426 -0.10401039 0.12729543 -0.13014482 -0.046394505 0.049952768 0.08938262 0.10797297
-0.086932585 -0.06711038 -0.18100858 -0.13048542 0.10487293 0.1599198 0.035726912 -0.018191393
0.1082369 0.09714509 0.081008695 0.036486566 -0.15916571 0.16975679 -0.033609606 -0.08654226
-0.11340077 0.15972333 -0.0331669 0.02290554 0.08355156 0.13210867 -0.07004419 0.17109683
-0.03738554 -0.08739123 -0.03081754 -0.13117693 0.05324145 -0.049763072 -0.13585712 0.010124006
-0.08012935 0.13203041 0.15382917 -0.1414112 0.038673665 -0.0030659647 0.054996602 -0.022375409
-0.118077055 0.1660845 -0.013830505 0.05053457 0.12033943 0.18820718 0.060492303 0.043880522
-0.14495802 -0.04427958 0.17039931 0.16413786 0.08030439 0.07177419 0.16945913 -0.042622715
0.02485244 -0.08122105 -0.0588928 -0.03424684 0.029084027 -0.04843879 0.016759815 0.14715843
-0.061162055 -0.025572965 0.09693386 0.059601653 0.05963204 0.18566088 0.008101387 -0.025162468
0.108466774 -0.15062118 -0.13043244 0.07086564 0.09278104 -0.02956907 0.15569524 -0.09248126
0.11459781 -0.11597965 -0.006498952 -0.09139721 -0.02832294 0.02452984 -0.027010277 0.064639084
-0.15101483 -0.021346567 0.021142853 -0.0049509658 -0.01652725 -0.17595787 -0.021175269 -0.100496
-0.057836443 -0.06180663 -0.11831015 0.028921144 0.04330433 -0.16851456 -0.103530936 0.14076588
0.04606284 0.11545449 -0.12591006 0.094426416 0.08605461 0.08545786 0.16679777 0.14698875
0.17285854 0.0044759926 -0.04989544 -0.01407385 -0.15549205 -0.029527064 0.16552684 -0.028867606
0.0018522375 0.08035706 -0.18536253 -0.03447207 0.018577231 0.041970726 0.018442791 -0.004611642
-0.087451346 0.11853119
00000000: ff32 013e fde7 37bd b15d 173d e1c8 a33d
00000010: 8b87 283d ebe0 e53c 9fe0 51be 8944 bcbd
00000020: b986 96bd 20d2 22be c306 243e f2ee 33bc
00000030: 3d9d 03be 3520 3ebe 43cb 2e3e 89f3 203e
00000040: f9d8 d23d 60da b73d f71d 64bd 78e0 06be
00000050: 159b ec3c 3369 1cbe 1d57 14be 89bf b8bd
00000060: fa1c debc 6603 d5bd bc59 023e af44 05be
00000070: 2a08 3ebd 469b 4c3d 3c0e b73d ef20 dd3d
00000080: b609 b2bd 2b71 89bd 505a 39be f89d 05be
00000090: 9ec7 d63d 04c2 233e 6256 123d 1e06 95bc
000000a0: 4fab dd3d 01f4 c63d e3e7 a53d f072 153d
000000b0: 56fc 22be b9d4 2d3e 3aaa 09bd 123d b1bd
000000c0: aa3e e8bd 838e 233e 04da 07bd 66a4 bb3c
000000d0: 151d ab3d 7f47 073e 5473 8fbd 0234 2f3e
000000e0: 9421 19bd 2cfa b2bd 1175 fcbc 3f53 06be
000000f0: b513 5a3d 5dd4 4bbd 211e 0bbe 29df 253c
00000100: db1a a4bd fb32 073e 6585 1d3e 19ce 10be
00000110: 4768 1e3d 5aee 48bb 1e44 613d a24c b7bc
00000120: 62d2 f1bd 0e12 2a3e 5899 62bc 56fd 4e3d
00000130: 8574 f63d 62b9 403e c7c6 773d 10bc 333d
00000140: e06f 14be 815e 35bd 287d 2e3e c113 283e
00000150: a176 a43d 59fe 923d b286 2d3e 2895 2ebd
00000160: 5897 cb3c 3957 a6bd 9439 71bd 6a46 0cbd
00000170: a041 ee3c c167 46bd e14b 893c b3b0 163e
00000180: 1085 7abd 657e d1bc 4285 c63d dd20 743d
00000190: ba40 743d e31d 3e3e aebb 043c 8521 cebc
000001a0: d423 de3d 703c 1abe 1590 05be 0122 913d
000001b0: fc03 be3d d63a f2bc 936e 1f3e d166 bdbd
000001c0: 42b2 ea3d bd86 edbd 29f5 d4bb 762e bbbd
000001d0: 8305 e8bc cef2 c83c a844 ddbc 7f61 843d
000001e0: a2a3 1abe ffde aebc c733 ad3c b63b a2bb
000001f0: 2864 87bc 4d2e 34be c277 adbc d9d0 cdbd
00000200: e8e5 6cbd f328 7dbd 984c f2bd 09ec ec3c
00000210: e25f 313d 158f 2cbe 0708 d4bd ee24 103e
00000220: 63ac 3c3d 6773 ec3d 91ee 00be a362 c13d
00000230: 663d b03d 8804 af3d 09cd 2a3e 3884 163e
00000240: d401 313e 59ab 923b 295f 4cbd 0196 66bc
00000250: 4f39 1fbe bee2 f1bc de7f 293e c27b ecbc
00000260: c7c6 f23a 3e92 a43d adcf 3dbe 9632 0dbd
00000270: 472f 983c 7fe9 2b3d 5615 973c 421d 97bb
00000280: b119 b3bd 7bc0 f23d

weight f4 [18]
1.0021911 0.9959105 1.0424032 0.9919023 0.9902305 1.0107354 0.9918897 1.0210072
0.9766012 1.0248619 0.99038976 1.0141683 1.0225017 1.0110188 1.0269798 0.9937992
0.979747 1.022975
00000000: cc47 803f fef3 7e3f 786d 853f 4fed 7d3f
00000010: bf7f 7d3f c75f 813f 7cec 7d3f 5db0 823f
00000020: 8902 7a3f ad2e 833f 2f8a 7d3f 44d0 813f
00000030: 56e1 823f 1069 813f 1374 833f a069 7e3f
00000040: b3d0 7a3f d8f0 823f

bias f4 [18]
-0.0051090885 -0.008003353 0.035862472 -0.03147632 -0.002903376 0.013475724 -0.021075299 0.032613374
-0.007761352 0.039349977 -0.016935242 -0.0039183404 0.014611443 -0.016826184 0.036357224 -0.004696635
0.01237558 -0.013122733
00000000: 246a a7bb 7f20 03bc 87e4 123d 50ed 00bd
00000010: 9146 3ebb 48c9 5c3c 1ba6 acbc 9a95 053d
00000020: f152 febb 712d 213d c7bb 8abc 6c65 80bb
00000030: d564 6f3c 11d7 89bc 50eb 143d 3be6 99bb
00000040: f2c2 4a3c bb00 57bc

running_mean f4 [18]
-0.0036399807 0.023648024 -0.07246245 -0.038098667 0.07459774 0.036830306 -0.051287986 0.026604308
0.04836032 0.07622031 0.010619989 0.031308472 0.005324349 -0.04787102 -0.086013064 0.12838331
0.011767508 -0.004247074
00000000: be8c 6ebb 80b9 c13c 3167 94bd 590d 1cbd
00000010: b3c6 983d 60db 163d 5a13 52bd 47f1 d93c
00000020: 7915 463d 6519 9c3d 76ff 2d3c 503d 003d
00000030: e077 ae3b 6714 44bd 9e27 b0bd ea76 033e
00000040: 82cc 403c 0a2b 8bbb

running_var f4 [18]
0.005568736 0.08706501 0.008973973 0.025122335 0.040479694 0.02553786 0.030734148 0.025126763
0.0841568 0.04849051 0.005268951 0.088304706 0.034867555 0.01838872 0.087907165 0.14870985
0.027798 0.0051681236
00000000: f279 b63b 244f b23d 9207 133c 5bcd cd3c
00000010: 09ce 253d c634 d13c 2ec6 fb3c a4d6 cd3c
00000020: 665a ac3d fc9d 463d 2aa7 ac3b 19d9 b43d
00000030: 48d1 0e3d f1a3 963c ac08 b43d 6547 183e
00000040: a2b8 e33c 5d59 a93b

weight f4 [5, 18, 1, 1]
-0.42597175 -0.04940061 -0.112691015 0.008905877 -0.29116824 -0.08320021 0.43063018 0.4226814
-0.31996003 0.46767256 -0.0093232505 0.46655044 0.40214127 0.4946864 0.08336636 -0.42715052
0.20366345 0.38793105 0.2798826 -0.08555197 0.28369758 0.31080806 0.29227027 0.5037123
0.20099688 0.37010214 0.030752156 0.09232271 -0.07771308 -0.32269648 0.33579767 0.20686463
-0.28385386 0.07276965 -0.3318169 -0.046840914 -0.49277514 -0.4071723 -0.22391818 -0.20209885
-0.24287252 -0.08233029 0.2631927 0.428729 -0.26086465 -0.23722164 0.3044583 -0.22555318
0.24720173 -0.09793755 0.44678417 -0.12517312 -0.21403022 -0.3097908 -0.414102 0.04452724
-0.0072036856 -0.35617957 0.45219535 -0.014517775 -0.038641293 0.459157 0.45078984 0.07754041
0.22025315 -0.16351986 0.2775857 -0.15264495 -0.43654987 -0.24672338 -0.21829021 -0.23323977
0.12404771 -0.3394696 -0.3796364 -0.2592373 0.48948428 0.11320538 -0.4152072 -0.31092566
0.41592154 -0.15212858 -0.4189736 -0.5136978 -0.039208487 0.118905276 -0.22612484 -0.2320947
0.025868589 0.15956488
00000000: f818 dabe 4b58 4abd 8cca e6bd f5e9 113c
00000010: 0114 95be df64 aabd 8f7b dc3e b269 d83e
00000020: cdd1 a3be c772 ef3e 8cc0 18bc b3df ee3e
00000030: 76e5 cd3e 8947 fd3e fbbb aa3d 79b3 dabe
00000040: 278d 503e e69e c63e c64c 8f3e df35 afbd
00000050: cf40 913e 3c22 9f3e 73a4 953e 4af3 003f
00000060: 20d2 4d3e 077e bd3e f2eb fb3c b013 bd3d
00000070: 0928 9fbd 7938 a5be aced ab3e 52d4 533e
00000080: 4b55 91be 4108 953d e8e3 a9be 42dc 3fbd
00000090: 064d fcbe e378 d0be cf4a 65be 00f3 4ebe
000000a0: 93b3 78be c89c a8bd 32c1 863e 5e82 db3e
000000b0: 0d90 85be 3bea 72be f5e1 9b3e 6af7 66be
000000c0: 7322 7d3e 7b93 c8bd e5c0 e43e 622d 00be
000000d0: bd2a 5bbe e69c 9ebe 2d05 d4be 3262 363d
000000e0: e50c ecbb 2b5d b6be 2686 e73e f6db 6dbc
000000f0: 5546 1ebd a016 eb3e edcd e63e 82cd 9e3d
00000100: 0b8a 613e c071 27be b61f 8e3e f54e 1cbe
00000110: 7783 dfbe 0ea5 7cbe 7887 5fbe 68d6 6ebe
00000120: ba0c fe3d f6ce adbe b45f c2be c0ba 84be
00000130: af9d fa3e 39d8 e73d 0a96 d4be a631 9fbe
00000140: abf3 d43e 98c7 1bbe b583 d6be b381 03bf
00000150: 1499 20bd 9c84 f33d 458d 67be 3caa 6dbe
00000160: 5dea d33c fa64 233e

weight f4 [5]
0.98348033 1.0089198 1.0306128 0.96547693 0.9673973
00000000: 5ec5 7b3f 4924 813f 1feb 833f 7f29 773f
00000010: 59a7 773f

bias f4 [5]
-0.0003110667 -0.00071753486 0.00015754282 0.00025338476 0.0004076137
00000000: aa16 a3b9 f318 3cba 1432 2539 bad8 8439
00000010: fcb4 d539

running_mean f4 [5]
0.2534234 0.28072658 -0.20052233 -0.04885282 -0.29549652
00000000: b6c0 813e 65bb 8f3e ba55 4dbe e519 48bd
00000010: 524b 97be

running_var f4 [5]
1.0267792 0.7660284 0.7202449 0.5390136 0.75026065
00000000: 806d 833f 701a 443f f861 383f ccfc 093f
00000010: 1511 403f

weight f4 [4, 3, 1, 1]
-0.6922016 0.8621885 -0.51046133 -0.61352515 -0.57211334 0.046766695 -0.92643845 -0.66239196
0.2755539 0.4863978 0.41864648 0.34411186
00000000: 2034 31bf 63b8 5c3f 98ad 02bf fc0f 1dbf
00000010: 0576 12bf 6f8e 3f3d 122b 6dbf 8592 29bf
00000020: 6715 8d3e 2209 f93e d558 d63e 6e2f b03e

bias f4 [4]
-0.34794086 -0.20421772 0.118780024 0.24795143
00000000: 4e25 b2be 731e 51be f142 f33d fbe6 7d3e

weight f4 [30, 5, 1, 1]
-0.010380002 0.13172626 -0.12274912 0.3920606 0.30060205 -0.43642777 0.36616468 -0.031279203
0.2238047 -0.31918162 0.19746214 0.31924656 0.300161 -0.3475783 -0.25221378 -0.38310614
-0.27917847 0.20739444 -0.39635 -0.37157953 -0.20913096 0.015254457 0.28289807 0.039896604
-0.16059989 0.070726484 0.056306157 0.21404897 0.14787178 -0.37061253 -0.12742297 0.045489814
0.04821548 0.39036593 0.16943902 0.28147382 0.19134237 -0.14978656 -0.35225245 0.30300564
-0.37525028 -0.35833776 -0.11979159 -0.17425616 -0.2289034 0.25871798 0.21788634 -0.23710808
-0.03515053 0.0686342 -0.20933841 0.08410634 -0.14091915 0.36360437 0.008398418 -0.33677945
0.013390045 0.070537 0.29065627 0.20058854 0.38526398 -0.07173463 0.0009678065 0.029327838
-0.3462091 -0.023432627 0.15328851 0.34080765 -0.1810767 0.23499262 0.3386575 0.022388455
0.3017704 0.071343586 -0.26053414 0.22909695 0.17335603 0.35407472 0.022501005 0.18967426
0.2960763 -0.33538672 -0.10546138 0.39279884 0.359267 -0.03925919 0.12995148 0.41178474
-0.2676415 -0.09320607 -0.04413726 -0.2960849 0.002396074 0.29997095 0.3592267 -0.16038615
-0.22280991 -0.27883813 0.0076282755 0.27775124 0.15390365 -0.4115798 0.09779287 0.07497246
0.25829473 0.34090862 0.14381768 0.20606402 -0.290713 -0.18751538 0.24395438 -0.14265709
0.22921206 -0.12577982 0.34429178 -0.3611573 -0.18611413 0.29605484 0.24419454 0.25805417
-0.0010444509 0.07845612 -0.28143188 -0.017857555 -0.02615645 -0.15709177 -0.38097322 -0.2830567
0.34348053 0.12903155 -0.22618003 -0.35964695 -0.36587283 0.2409534 0.29401597 -0.1660069
0.018055549 -0.15195692 -0.1061804 -0.30459672 0.030851832 0.33361095 0.35350478 -0.039556403
0.38848466 -0.34001994 -0.20060672 0.057779685 0.16043463 -0.31056112
00000000: e210 2abc 40e3 063e e463 fbbd 2bbc c83e
00000010: 83e8 993e 7673 dfbe f079 bb3e 9f1e 00bd
00000020: 0f2d 653e c66b a3be 8433 4a3e 4974 a33e
00000030: b4ae 993e c8f5 b1be 2a22 81be 7d26 c4be
00000040: 7bf0 8ebe 355f 543e 63ee cabe ac3f bebe
00000050: 6d26 56be d4ed 793c 04d8 903e 9f6a 233d
00000060: 4c74 24be 0cd9 903d 49a1 663d a72f 5b3e
00000070: b36b 173e edc0 bdbe 2b7b 02be 8753 3a3d
00000080: 987d 453d 0bde c73e 6c81 2d3e 561d 903e
00000090: 41ef 433e a661 19be 6f5a b4be 8e23 9b3e
000000a0: ce20 c0be 0c78 b7be 4b55 f5bd 3570 32be
000000b0: a765 6abe af76 843e 991d 5f3e 76cc 72be
000000c0: 01fa 0fbd 1690 8c3d cf5c 56be f23f ac3d
000000d0: 1c4d 10be 5a2a ba3e 8599 093c 5b6e acbe
000000e0: eb61 5b3c b475 903d e6d0 943e 1567 4d3e
000000f0: 5241 c53e 9be9 92bd 65b4 7d3a ef40 f03c
00000100: 5242 b1be c8f5 bfbc aaf7 1c3e 577e ae3e
00000110: 2c6c 39be e8a1 703e 8464 ad3e fe67 b73c
00000120: a681 9a3e 961c 923d bb64 85be 6498 6a3e
00000130: 3e84 313e 4849 b53e 0754 b83c f839 423e
00000140: 5097 973e cfb7 abbe 23fc d7bd ee1c c93e
00000150: d8f1 b73e 3fce 20bd 0012 053e 73d5 d23e
00000160: 4f08 89be d3e2 bebd 46c9 34bd 7198 97be
00000170: 7307 1d3b cb95 993e 90ec b73e 443c 24be
00000180: 4828 64be dfc3 8ebe 9df6 f93b 6935 8e3e
00000190: eb98 1d3e 96ba d2be a147 c83d 298b 993d
000001a0: 353f 843e 938b ae3e f144 133e 7202 533e
000001b0: 56d8 94be 0804 40be 2dcf 793e b314 12be
000001c0: 91b6 6a3e 6dcc 00be 0347 b03e 9ce9 b8be
000001d0: b494 3ebe 8094 973e 220e 7a3e ad1f 843e
000001e0: f5e5 88ba 9aad a03d d717 90be 024a 92bc
000001f0: 0d46 d6bc aadc 20be ec0e c3be cfec 90be
00000200: aedc af3e d920 043e bd9b 67be a523 b8be
00000210: af53 bbbe 7dbc 763e 4389 963e b6fd 29be
00000220: 3be9 933c 989a 1bbe 1c75 d9bd 1af4 9bbe
00000230: fbbc fc3c 0ecf aa3e 94fe b43e e505 22bd
00000240: 76e7 c63e 1817 aebe d96b 4dbe 64aa 6c3d
00000250: fa48 243e de01 9fbe

weight f4 [30]
0.9910766 0.9906562 1.0097852 0.98422265 1.0032258 1.0150734 1.0185933 1.0252209
1.0063082 0.9978995 1.0080308 1.0134877 1.0306249 0.99747646 0.9977818 1.0210264
1.0147268 0.99210316 0.9974693 1.0077137 1.01276 0.98092985 1.019883 0.973271
1.0123478 1.0035242 1.0251439 0.9964665 0.9760571 0.9847742
00000000: 32b7 7d3f a59b 7d3f a440 813f 04f6 7b3f
00000010: b469 803f eded 813f 4461 823f 703a 833f
00000020: b5ce 803f 5776 7f3f 2707 813f f7b9 813f
00000030: 84eb 833f 9e5a 7f3f a16e 7f3f feb0 823f
00000040: 91e2 813f 79fa 7d3f 265a 7f3f c3fc 803f
00000050: 1fa2 813f 381e 7b3f 878b 823f 4a28 793f
00000060: 9d94 813f 7b73 803f ea37 833f 6e18 7f3f
00000070: e1de 793f 291a 7c3f

bias f4 [30]
0.0014033021 -0.00860773 0.027453838 0.0013692083 -0.009156299 0.018982124 -0.012206467 0.010395125
0.015200328 0.0045107277 0.04271842 0.016860217 0.026958637 -0.030184967 -0.021650277 -0.0070614507
0.018075086 -0.028963258 0.010122087 0.0044958317 -0.044906944 0.011191758 -0.014646068 0.013697719
0.013568096 0.011338232 -0.020551464 -0.0340241 -0.013725893 0.00027935245
00000000: 01ef b73a 7007 0dbc dfe6 e03c 0277 b33a
00000010: 4d04 16bc 6680 9b3c a2fd 47bc 5050 2a3c
00000020: cc0a 793c bace 933b 83f9 2e3d 701e 8a3c
00000030: 5cd8 dc3c 7746 f7bc ec5b b1bc be63 e7bb
00000040: 3412 943c 5b44 edbc 1cd7 253c c551 933b
00000050: 58f0 37bd a35d 373c 10f6 6fbc 666c 603c
00000060: b84c 5e3c fec3 393c 8b5b a8bc db5c 0bbd
00000070: 91e2 60bc 0d76 9239

running_mean f4 [30]
0.00011218073 -0.00020525506 -0.00043617885 0.00010115834 4.4964905e-05 -0.00014164814 0.00018463895 -0.0002170886
0.00021842444 -0.00025768642 7.950235e-05 0.00026404552 -0.00020304888 1.4412667e-06 -0.00016174585 -5.6310804e-05
0.00037966893 -0.000121961435 0.00045165396 0.00028150016 0.0003892323 -0.0003288848 0.00017182736 0.00046373578
-0.00011708879 0.0004193998 0.00045351087 -0.00013722289 -4.4573626e-05 0.00017508057
00000000: 9242 eb38 bc39 57b9 efae e4b9 f824 d438
00000010: b398 3c38 6287 14b9 a49b 4139 47a2 63b9
00000020: dd08 6539 161a 87b9 80ba a638 976f 8a39
00000030: 85e9 54b9 8c71 c135 529a 29b9 442f 6cb8
00000040: 4d0e c739 8cc5 ffb8 f8cb ec39 5096 9339
00000050: e011 cc39 2c6e acb9 8e2c 3439 9021 f339
00000060: 918d f5b8 e3e2 db39 33c5 ed39 7de3 0fb9
00000070: 91f4 3ab8 d595 3739

running_var f4 [30]
0.29441223 0.43363416 0.29233098 0.51214427 0.07005586 0.24048847 0.18522486 0.13698071
0.3111997 0.16160548 0.24063553 0.24366447 0.39773506 0.1850418 0.41373342 0.19379191
0.21073607 0.19779591 0.22874439 0.25266874 0.2778802 0.30162793 0.2876684 0.39821702
0.11154677 0.2030041 0.3732823 0.11162281 0.24416214 0.09670058
00000000: 33bd 963e 4c05 de3e 68ac 953e e31b 033f
00000010: 7279 8f3d 9c42 763e 96ab 3d3e ac44 0c3e
00000020: 9155 9f3e e87b 253e 2969 763e 2e83 793e
00000030: eea3 cb3e 997b 3d3e ded4 d33e 6371 463e
00000040: 32cb 573e 038b 4a3e f83b 6a3e cc5d 813e
00000050: 5046 8e3e fa6e 9a3e 4649 933e 1ae3 cb3e
00000060: a272 e43d 4fe0 4f3e dc1e bf3e 809a e43d
00000070: a405 7a3e f40a c63d
