trained_model/UNetGhostV2(Reagent_UNetGhostV2)_top.pt (torch, 567230 bytes, 741 tensors)

weight f4 [8, 1, 3, 3]
00000000: 2726 e8be d57a a7bd a7fb 48be e53a 44be
00000010: 6695 7b3e 4112 b93e 4b00 203e 69f0 b73e
00000020: f5de 433f 3b35 b5bd c7a3 38bd 132c d63d
00000030: e8d3 09be de22 433e e108 5d3e 2e0a e53e
00000040: 7bdb cc3e 42d9 53bd 4d44 4fbe aea0 d03e
00000050: eff2 753f fc99 00bf 45d3 483d 5c69 0d3f
00000060: 40ad d8be 0431 58be 3f5a d53e 2e9f 91bd
00000070: 0332 2ebe 70ba 35bd fe90 543c 0bff 663e
00000080: 835b 4d3e d5ff 983e 88c5 8d3c 8e73 ee3e
00000090: 911b a83e ba77 fb3d 531a 4cbd 706e 26bd
000000a0: 90de a0be f662 6cbe 74da 603e 61bc 7a3e
000000b0: e31d eabe 1295 18bf 833a dfbd 47f6 68be
000000c0: 3ed7 dabe 4031 80bd 43d3 b33e 1815 59be
000000d0: 8798 72bd 6b83 d63e 1ed1 d93e fef2 f83d
000000e0: c04d 2abf 4327 9e3e ea34 253e 73cb c9be
000000f0: 65e8 eb3e f7fb 27be 92bb 49be 199c 1dbe
00000100: f9bb 853e d110 f23e efd5 6b3e 8308 2ebe
00000110: a8f9 d83d cedd 853d d2ed c9bd 9a6c 04be
-0.45341608 -0.08177725 -0.19627248 -0.19163091 0.2456871 0.3614674 0.15625112 0.35925606
0.7651208 -0.088480435 -0.045078065 0.10457625 -0.13459742 0.1905627 0.21585418 0.4473433
0.400112 -0.051720865 -0.20240898 0.4074759 0.9607381 -0.5023496 0.049029607 0.5523889
-0.4231968 -0.21112448 0.41670415 -0.07110439 -0.17011265 -0.044367254 0.012974022 0.22558229
0.2005444 0.29882684 0.017306104 0.46572536 0.32833531 0.122786954 -0.049829792 -0.040632665
-0.31419802 -0.23084626 0.21958333 0.24485923 -0.45725927 -0.59602463 -0.10899832 -0.22750197
-0.42742342 -0.06259394 0.35122117 -0.21199453 -0.059227493 0.4189714 0.42542356 0.12155722
-0.6652489 0.3088933 0.16133466 -0.39413032 0.4607574 -0.1640471 -0.19700459 -0.15391578
0.26119974 0.47278455 0.23030828 -0.16995434 0.10594493 0.065364465 -0.09859814 -0.12932053

weight f4 [8]
00000000: d558 663f 996a 483f a34e 823f 1ff5 7b3f
00000010: 4c25 693f 7e12 953f d4c8 b13f d1e7 713f
0.89979297 0.78287655 1.0180248 0.984209 0.91072536 1.1646268 1.3889413 0.9449435

bias f4 [8]
00000000: 8e7c d53e 8b28 a33d 36e7 f33e d8eb b03e
00000010: a558 1a3f 3256 fa3e 6ada e3bd ff32 253d
0.4169659 0.07966717 0.47637337 0.34554935 0.6029151 0.48893887 -0.111256436 0.040331837

running_mean f4 [8]
00000000: ae53 3e43 042e 4c43 b8e2 4d43 c3da 3743
00000010: 41c3 0cc2 f26c 34c3 9ef1 2341 de28 e542
190.32687 204.17975 205.88562 183.85454 -35.190678 -180.42557 10.246489 114.57982

running_var f4 [8]
00000000: 0b09 8c44 51fd 8444 6042 af44 67e8 5e44
00000010: 58f0 9542 52b0 8644 2b67 f642 8bc1 c543
1120.2826 1063.9161 1402.0742 891.6313 74.96942 1077.51 123.2015 395.51205

weight f4 [16, 8, 3, 3]
00000000: e937 00be b2e2 04bf 66bb e4be 37d9 293e
00000010: 2fea 81bc d366 1dbe 34db 533e d21f 843d
00000020: 6cd2 a23e 0115 083e ba12 a33d 0f7e 3fbc
00000030: 8474 073e 5071 62be 9a26 65be 1a45 803d
00000040: 527e 4dbc 2417 fcbc 6502 e33d 6a4e 93be
00000050: 2a8e fb3b 60e7 733e 501b 2ebe 53d0 bcbe
00000060: 8c96 40bd 20f9 a2be a479 98be 6fc7 9a3e
00000070: 29a1 c13c 8acb a1be 8fb7 3b3d 9ef2 36be
00000080: a837 63be 97a2 293d 11e7 55be 065a 49be
00000090: d9a4 343d cff3 913e f2d1 543e d6bc ebbd
000000a0: e58d 4fbd 7444 ed3d 9edc a6bd 3158 1bbd
000000b0: 38cf 0f3e dbd1 01be c171 963d 466c fd39
000000c0: da31 db3c e98c ab3e 4a0d f53e 127d b33d
000000d0: ade9 243e bfa3 f4bd 13c0 f13d 0cd3 483e
000000e0: 3c89 44bd c916 053f 8316 8c3c bb85 d3bd
000000f0: 0b50 aebc 5919 b2bd 476e 6d3c 683c 9f3e
00000100: a42a 1fbc b7c9 873d 2f0a 853e 550c 62bc
00000110: 6510 1fbd 7736 173e 6b80 a3bd 6402 f53d
00000120: b91e 96be f71c 94bd bbb3 c6bd c9cc 33bd
00000130: ca93 b03d ecb0 0e3e f6ba 1d3e 0ff7 4e3e
00000140: 1566 fc3e 7a77 5dbe eeb1 00be 25b3 01bc
00000150: 853d 32bd e516 e5bd 34e4 a2bd db35 9fba
00000160: 9c78 2bbd 344b 253d 6d15 863c f106 cabc
00000170: 3e5b 8e3b e9c4 d53d e9a8 403e b2d1 a3bd
00000180: 99a3 1cbd bd6e 783d 4528 eb3d 10c0 d1bb
00000190: 40ef 1abd a304 4bbc 9a02 013d 76dc 163d
000001a0: 38dd 34bc 0689 853d 953f bcbb fbf1 7bbd
000001b0: e853 5c3e 5527 1d3d 1ac7 933e c106 11be
000001c0: 13b8 2fbe fc24 a3bd c1aa 4cbe 5f0a 9abe
000001d0: 4c74 03be a12f a23e ce40 7c3e d01e 04bd
000001e0: dee2 8a3e c0f0 c83e 1921 bd3d d943 2d3e
000001f0: d15a 113e 310a 45be e002 b6bc ce40 9d3d
00000200: 702f 4e3d c1fb 8f3e b869 6d3e 31c6 b83e
00000210: 7f70 173e 3e9f 053e 435d b53d b71e cbbc
00000220: 638e d13d efa4 b3bd 1c0f df3b 5e6e 2a3e
00000230: 08fd 71bd 72a8 01be 1cf9 00be 9d94 fabd
00000240: b17b 323d 30a7 b4be 8464 a5be 5e95 c7bb
00000250: f755 56be 0050 86bc bebb 84bd 77d4 69bc
00000260: 392e 2fbd 2722 bd3d 9b17 823d f5e4 2dbd
00000270: 993a 87bd 2091 f6bd 2161 4cbe 1021 a2bd
00000280: 932b 3cbe fbd1 efbd e206 8ebd 1cda c53c
00000290: 4dd4 00be 680c 803d 6572 2fbe 1b2b 92be
000002a0: 24fb 91bc dd31 34be 9cb2 18be 6f69 22bc
000002b0: 93bc 93bd 452d 9cbd ac50 c6bd 29bb 0dbe
000002c0: c69e 71be 830c e13c 16c7 64be a990 32be
000002d0: 0a2c c83d 8149 b03e b703 503e 8fdc 80bc
000002e0: 819d 30bd ea16 a73c c061 6a3c 4ad7 f7bc
000002f0: b0dc 743d 6e25 9ab9 8134 3cbd 91eb 633e
00000300: 5d3b df3d be19 b93d 758c c73d 154a e03d
00000310: e2e1 b8bd 9926 bc3d 8caa ed3c f438 1d3e
00000320: 44e5 82bd 78cb 583e e653 823e 8aa2 603c
00000330: 8039 6e3e 5c97 833e 8530 613e a0fe 483e
00000340: dbca 34bb 5192 1ebd 7fc7 853c 38a9 3c3d
00000350: 5773 7abe 1644 563d 020c 8f3d bd13 dbbd
00000360: e7a8 e23c b720 a8be ade7 ebbe 7e0f 983e
00000370: f1c2 88bd 5340 bfbd db52 8a3e 3330 913e
00000380: 2740 9b3d d1b3 9d3d 52cf f73d aa0a c1bd
00000390: 73e6 163e 01c5 2bbd 0124 63be 9764 1e3d
000003a0: 620a d13d ddd2 b53d f2ab c73e e859 4fbe
000003b0: 72b3 e6be f357 903e 0c1c 5cbe 0422 58bf
000003c0: 6ebb 323e 2706 c6bc 8d03 23bf c70d 9e3e
000003d0: 233b 82be 77b6 ebbe 430e 6e3e 45b8 cc3d
000003e0: d6e2 aabe 3d89 a03d 28d4 8c3d 61b5 853e
000003f0: 844d 5b3d 0432 7d3e e697 173e 68d9 cabd
-0.12521328 -0.5190841 -0.44674224 0.16586767 -0.015858738 -0.15371256 0.20689088 0.06451382
0.31801164 0.13289262 0.07962556 -0.01168777 0.13228041 -0.22113538 -0.22378007 0.0626318
-0.012542324 -0.030772753 0.11084441 -0.28770763 0.0076768594 0.23818731 -0.17002606 -0.3687769
-0.047018573 -0.31830692 -0.29780304 0.3023028 0.023636417 -0.316006 0.045829352 -0.17865989
-0.221892 0.041414823 -0.20888926 -0.19663247 0.044102523 0.28506324 0.20783213 -0.11510627
-0.05067243 0.11585322 -0.08147548 -0.037925903 0.14043891 -0.1267771 0.073459156 0.0004833659
0.02675717 0.33505943 0.478617 0.0876409 0.16104765 -0.119452946 0.118042134 0.19611758
-0.04798244 0.5198789 0.017100578 -0.103282414 -0.021278402 -0.08696241 0.014491624 0.31100774
-0.009714756 0.06630271 0.25984332 -0.0137968855 -0.038833994 0.1476687 -0.07983478 0.119633466
-0.29320315 -0.07232087 -0.097022496 -0.04389647 0.086219385 0.13934678 0.15403351 0.20211433
0.49296632 -0.21627608 -0.12567875 -0.007916247 -0.0435157 -0.111860074 -0.079536825 -0.0012146787
-0.04186307 0.040354922 0.016367638 -0.024661513 0.004344373 0.10437948 0.18814434 -0.079989806
-0.038241956 0.060652483 0.1148229 -0.0064010695 -0.037825823 -0.012391242 0.03149662 0.03683134
-0.011039071 0.06520276 -0.0057448843 -0.061510067 0.21516383 0.038367588 0.2886284 -0.14162733
-0.17160062 -0.079660386 -0.19987012 -0.30086038 -0.12837332 0.31676963 0.24634096 -0.032255948
0.2712621 0.39246178 0.092348285 0.16920413 0.141948 -0.19242169 -0.022218168 0.07678376
0.05033821 0.2812176 0.2318486 0.36088708 0.14789008 0.13049027 0.08855679 -0.02479492
0.10232236 -0.08771693 0.006807221 0.16643664 -0.0590792 -0.12661913 -0.12595028 -0.12235377
0.043574993 -0.35283804 -0.3230325 -0.006090804 -0.2093123 -0.016395569 -0.064811215 -0.014271847
-0.04276869 0.0923503 0.06352159 -0.04245468 -0.066029735 -0.12039399 -0.19958927 -0.079164624
-0.18375997 -0.117099725 -0.069349065 0.024151854 -0.12580986 0.06252366 -0.17133482 -0.28548512
-0.017819948 -0.17597146 -0.14911884 -0.009912833 -0.07213702 -0.07625822 -0.09683356 -0.13840927
-0.23595724 0.027471786 -0.2234157 -0.17437996 0.09774025 0.3443108 0.20313917 -0.01573017
-0.043118957 0.020396668 0.014305532 -0.030254025 0.059780777 -0.00029401056 -0.04594851 0.2225783
0.108999945 0.09038113 0.09743587 0.1095163 -0.09027459 0.091870494 0.029011987 0.15353757
-0.06391385 0.21171367 0.25454634 0.013710627 0.23264122 0.25701416 0.21991165 0.19628382
-0.0027586732 -0.038713757 0.016330479 0.046059817 -0.24458061 0.052311026 0.06984712 -0.10697124
0.02766843 -0.3283746 -0.46075192 0.2969932 -0.06677807 -0.09338441 0.2701634 0.28357086
0.075805955 0.07700313 0.1210009 -0.09425862 0.14736347 -0.041935924 -0.22181703 0.03867015
0.102070585 0.088781096 0.3899837 -0.2024914 -0.4505878 0.281921 -0.21495074 -0.84426904
0.17454311 -0.024172856 -0.63677293 0.30869886 -0.25435743 -0.46037647 0.23247628 0.09996084
-0.33376187 0.07838676 0.06876403 0.26114944 0.05354072 0.2472611 0.14804038 -0.09904748

weight f4 [16]
00000000: ddcc 963f f882 9f3f af9c 423f dbd2 9a3f
00000010: 9771 853f fcaa a73f 3864 603f 4830 963f
00000020: 486b 993f 696b 853f aa33 7e3f f560 7e3f
00000030: 3f50 993f b694 8d3f 2c14 543f fbec 5f3f
1.1781269 1.2461843 0.7602033 1.2095598 1.042529 1.3099055 0.8765292 1.1733484
1.1985865 1.0423404 0.99297583 0.99366695 1.1977614 1.1061008 0.8284328 0.8747098

bias f4 [16]
00000000: c8ad 013f 20ff a23e a02c 333e 3a43 dc3e
00000010: e673 213e 1cce 9e3e 88cb 0a3d 4857 2e3e
00000020: fe74 5e3e 20fc 8d3e ae28 183d 657f 7b3e
00000030: 7364 003f 12e0 bdbd 4e1b 3f3e 74e9 053d
0.50655794 0.3183527 0.17497492 0.4302004 0.15766868 0.31016624 0.03388551 0.17025483
0.21724316 0.2773142 0.03714817 0.24560316 0.50153273 -0.09271254 0.1866276 0.03269334

running_mean f4 [16]
00000000: 50a2 3cbe 2087 063f 34dc 1bbf 5b44 43bf
00000010: eac3 423f d503 75bf 69e0 d5bf 763e 1d3f
00000020: fed1 0dc0 7244 a0bf 9271 c3be bd09 5dbf
00000030: d80a 193f 5e86 debf ac76 afbe 0c36 79bf
-0.18421292 0.52549934 -0.6088288 -0.7627618 0.7608019 -0.9570897 -1.670911 0.6142343
-2.215942 -1.2520888 -0.38172585 -0.86342984 0.5978217 -1.7384756 -0.34270227 -0.97348094

running_var f4 [16]
00000000: 4b77 1c40 4916 d93f c6d4 1540 f307 133f
00000010: 6819 4240 110c 7d3f 7a54 6940 5efa e43f
00000020: de31 2a40 cc5f 8240 7be9 ae3f 48d1 d83f
00000030: 7068 d13f 9eb5 7f40 c6ad 9d3f 6575 b33f
2.444781 1.6959926 2.3411117 0.57434005 3.0328007 0.98846537 3.645781 1.7888906
2.6592937 4.074194 1.3665003 1.6938868 1.6359997 3.99546 1.2318656 1.4020201

weight f4 [8, 16, 1, 1]
00000000: c35a dfbc d931 0dbf 61dd 6d3b 6e26 a53e
00000010: 7ffd 99be 27ef 34bd 790c a53e 5429 1cbd
00000020: 79d5 5c3e 154d c03d 813d 9ebc 5752 02be
00000030: 5fcb adbd fad1 dfbe abc1 f3be 610f 923e
00000040: 83c5 b2be 1dc0 5b3d 0944 b4bd ddee 60be
00000050: 4b54 b9be d0a3 38be 1d1b 8cbd aa68 393e
00000060: 491b 41be af2c 5bbe 4471 e2bd 1605 813d
00000070: 9c40 0fbf a4dd afbd 2ea3 393e a05d 78be
00000080: aa11 943e 3e0e f8bd 0962 003d 4ad5 bf3e
00000090: 1ddd 123e fd59 b33d 0d86 a2bd 7c96 0ebe
000000a0: 30dc 0cbe e40f 3abd f97c e53d 753d 6f3c
000000b0: 76d6 ee3e c10a d43e 34ce 7ebd 74a2 4dbe
000000c0: 3a05 953e 76b4 fb3d b54b 893d 4de1 8f3e
000000d0: dbb4 c93e 6213 91bd 1771 8e3d 6773 8b3d
000000e0: a41c b9bc 1566 49be ac29 c53e 2781 2e39
000000f0: ec58 c9bd 159f d9be 9445 01bf a407 b13e
00000100: afe0 c9be 8785 2dbe a95a 01be 8d67 0fbf
00000110: 5e49 a5be 772e 13bf 805b b33e 8a4e c13e
00000120: fe05 793d 6290 3fbd f1fc 863e 4bb6 0abe
00000130: 8e4b 22be 056c 03bf 0ba7 203e 9464 413e
00000140: 54e0 853e d0c8 2dbd 78dc 4cbe be74 fdbc
00000150: 7bee 3b3e 01a7 3a3e 7e8c 1f3f 1500 4f3e
00000160: 3857 3b3e 913e 203e 83e5 5c3e 8ed4 cc3e
00000170: 7744 0c3e eed3 883e cf41 b8bd 6c60 0f3e
00000180: 6b1d adbd 166b a4be b16e 133d c47f 333d
00000190: b83f a3be dd19 663e d0ec b4be 1a38 07bf
000001a0: 33a7 0ebd 15ee 4ebd 553a 443e 430d 1bbe
000001b0: 05b4 5a3d b38e 64be 93dd 6fbe a31e 153c
000001c0: 33b5 0fbe 84a5 f4bd 4ae2 a9be 5907 4abd
000001d0: 9e33 35be c41a 2bbe 16ef 28be 7cbd 993b
000001e0: a5b2 f5be 5d41 9fbe 841d 9d3d 0433 9ebe
000001f0: c765 d1bc 76ab f43c a563 19bd 82f0 cdbd
-0.027264958 -0.55154186 0.0036295282 0.32255882 -0.30076215 -0.044173386 0.32236078 -0.03812535
0.21565808 0.09389702 -0.019316437 -0.12726723 -0.084860556 -0.43714887 -0.47608694 0.28527358
-0.34916314 0.05365001 -0.08802039 -0.21966119 -0.36197123 -0.1803124 -0.06841109 0.18106332
-0.18858065 -0.21403764 -0.1105676 0.06299798 -0.5595796 -0.085871965 0.18128654 -0.24254465
0.28919727 -0.121120915 0.031343494 0.37467414 0.1434216 0.08757398 -0.079357244 -0.13924593
-0.1375587 -0.04542531 0.11205477 0.014602055 0.46647996 0.41414455 -0.06220837 -0.20081502
0.2910555 0.122902796 0.06703893 0.28101578 0.39395794 -0.07083775 0.06955164 0.068091206
-0.022596665 -0.19667847 0.38508356 0.00016642046 -0.098314136 -0.42504182 -0.5049679 0.34576142
-0.39429232 -0.16945468 -0.1263224 -0.5601738 -0.32282537 -0.57492775 0.35030746 0.37755233
0.06079673 -0.046768554 0.26364854 -0.13546102 -0.15849134 -0.513367 0.15688722 0.18886024
0.2614771 -0.042427838 -0.20005977 -0.030939456 0.18352692 0.1822777 0.6232375 0.20214875
0.1829499 0.15648867 0.21571927 0.40005916 0.13697992 0.2672419 -0.08996927 0.14001626
-0.08452877 -0.3211295 0.035994235 0.04382302 -0.3188455 0.22470804 -0.35336924 -0.5281998
-0.034827422 -0.05052002 0.19162877 -0.15141778 0.053394336 -0.2232006 -0.23424368 0.009101543
-0.14033966 -0.11945632 -0.33180457 -0.049323414 -0.17695472 -0.16709429 -0.16497454 0.0046917778
-0.47987857 -0.31104556 0.07671645 -0.30898297 -0.025561227 0.029866915 -0.037448544 -0.10055639

weight f4 [8]
00000000: 3520 e83f e6f5 b33f 72c8 943f 5998 e73f
00000010: 1843 5f3f 8497 4c3f a5ce a93f 88db c43f
1.8134829 1.4059417 1.1623671 1.8093368 0.8721175 0.79918694 1.3266188 1.5379496

bias f4 [8]
00000000: 1448 ee3d e625 7e3e 8d4a 70be d555 913a
00000010: fa9e 21bf 368c 12bf a4ec 733d 3dc9 383e
0.116348416 0.24819145 -0.23465939 0.0011088202 -0.63133204 -0.57245195 0.05955185 0.18045516

running_mean f4 [8]
00000000: b0ea 01be 6564 33bf f6e1 c73e c152 683e
00000010: cf83 21bf 8704 133f a08c 99be f301 23bf
-0.12687182 -0.70075065 0.39039582 0.22687818 -0.6309175 0.57428783 -0.299901 -0.6367485

running_var f4 [8]
00000000: f4d5 763f fda3 4540 1767 843f 248d 9d3f
00000010: 5b18 e33f 2cd8 e53f 07aa 143f 0ac3 0c40
0.96420217 3.088134 1.034396 1.2308698 1.7741808 1.7956595 0.5807194 2.1994042

weight f4 [8, 1, 3, 3]
00000000: 3ed8 8dbe 281c 893e 3dcb 42be 4ff4 87be
00000010: d640 21bc 3295 56be 6c9c 9d3d a464 403d
00000020: ad9d e4be b442 003d 5c80 b03e c22f 5d3f
00000030: d58d 2b3e df37 483e 9309 0dbe 7f4f 6c3e
00000040: 2615 babc 7138 95bb eff6 0b3f bc68 c83e
00000050: 084a 033e 3fe3 0a3d 4d15 753e 0b9b 223e
00000060: ab1f 273d d756 57be 3440 84bd dc47 9fbe
00000070: 38ff 2dbe 14f3 0e3e cab7 bfbe ea75 84bd
00000080: ab64 003f 7f8d efbc ec24 673e c242 bfbe
00000090: b2f8 673e 9689 34bd e2aa 7dbd 8721 063f
000000a0: f189 083f 3e8a 2f3e 56f8 ad3e 5aba e8bd
000000b0: 3e31 373f 9220 f63d cda8 d4bc 5151 e1be
000000c0: c8d0 bb3e 59ad eebd 5adc 47bd 2c1e d33e
000000d0: 6ae2 253e f889 0d3e 9c84 d53e efd1 d43e
000000e0: d24b 1e3e 2273 473d 0ee5 61be 4555 5a3e
000000f0: d339 523d 2358 febd 1b20 203e 4262 a83e
00000100: 5b5c b5bd 9064 2bbe 3da7 63be e26e 7dbe
00000110: 7921 bdbe 8bee fa3e a6f3 16be 328c 4d39
-0.27704042 0.26779294 -0.19022842 -0.2655358 -0.009842118 -0.20955351 0.07695851 0.04697098
-0.44651547 0.031313613 0.3447293 0.86401 0.16753323 0.19552563 -0.13773184 0.230772
-0.022715162 -0.0045538475 0.54673666 0.39142406 0.1282121 0.033908125 0.23933907 0.15879457
0.040801685 -0.2102922 -0.06457558 -0.31109512 -0.1699189 0.13959914 -0.37444907 -0.06467803
0.5015361 -0.029242275 0.22572678 -0.3735562 0.22653463 -0.044076525 -0.061930545 0.5239491
0.5333548 0.17142579 0.33978528 -0.11363669 0.7155951 0.12017931 -0.025959397 -0.44007352
0.36682725 -0.11654157 -0.048794128 0.41233957 0.16199651 0.13822162 0.41702735 0.41566417
0.1545861 0.048693784 -0.22060034 0.2132159 0.051324677 -0.124191545 0.15637247 0.32887465
-0.08855506 -0.1673758 -0.22231765 -0.2474933 -0.369396 0.4901012 -0.14741382 0.0001960255

weight f4 [8]
00000000: c502 983f 6919 953f 259c 903f ec34 943f
00000010: cf47 a03f 12a6 813f 9997 a03f a56e 8e3f
1.1875845 1.164838 1.1297652 1.157865 1.2521914 1.0128806 1.2546264 1.1127516

bias f4 [8]
00000000: 6de9 0cbd d8e3 4cbf b20e 0dbd 2984 303d
00000010: fd9e 763e 2ac1 cd3c 8ac4 59bd 15cb 48bc
-0.0344023 -0.8003516 -0.034437843 0.043094788 0.24084087 0.025116522 -0.05316595 -0.01225545

running_mean f4 [8]
00000000: 78e8 34be b031 043f bbbf 98be c9a3 4a3d
00000010: 49fd acbf 436b aebe 89d1 f63d dd43 45bd
-0.17666805 0.5163832 -0.2983378 0.049472604 -1.3514796 -0.3406621 0.120516844 -0.048160423

running_var f4 [8]
00000000: 52d9 e23f a1ef 6240 8237 ca3f b523 263f
00000010: 01a6 dd3f a6cb 793e 7f8b ca3f 915e 433f
1.7722571 3.5458758 1.579819 0.64898235 1.7316285 0.24394092 1.5823821 0.7631617

weight f4 [16]
00000000: 2b7c 993f 9c84 9e3f 0e01 3c3f f8f1 ad3f
00000010: 53c3 1e3f 412f 0c3f e4d0 9c3f ad06 993f
00000020: ae87 a43f b9c9 983f 6bf7 8f3f 200b 9e3f
00000030: d1db a43f 815f 953f cd1f b83f 874f c33f
1.1991018 1.2384219 0.7343911 1.3589468 0.6201679 0.54759604 1.2251248 1.1955162
1.2853906 1.1936561 1.1247381 1.2347145 1.2879583 1.166977 1.4384705 1.5258645

bias f4 [16]
00000000: d268 eabd 93a2 75be 35ec 50be 9e93 c13e
00000010: 6274 e23e af67 77bf 10cf 073e 17e3 d8be
00000020: 5de5 a0be 3688 2bbe d84a b33e e4b1 90bc
00000030: 6703 bbbe 80aa 093f fb90 93bd 415b e1bd
-0.11445774 -0.23987798 -0.20402606 0.37807935 0.44229418 -0.96642584 0.13262582 -0.42360756
-0.3142499 -0.16751179 0.3501804 -0.01766295 -0.36526033 0.5377579 -0.07205387 -0.110037334

running_mean f4 [16]
00000000: 1d95 ed3d 14ab 7d3e b823 70be 79fd 6f3a
00000010: bc99 21bf f09c 12bf e566 753d bff7 383e
00000020: d7e8 0cbd 9fe2 4cbf b40e 0dbd 1383 303d
00000030: 5da2 763e f2bd cd3c 2dbe 59bd 28c6 48bc
0.11600707 0.24772292 -0.23451126 0.0009154897 -0.63125205 -0.5727072 0.05991258 0.18063258
-0.03440174 -0.80033296 -0.03443785 0.043093752 0.24085374 0.025114987 -0.05315988 -0.012254275

running_var f4 [16]
00000000: dc8f 5240 4936 fd3f a2fc ac3f 8884 5140
00000010: 9bbf 423f 6c67 233f 0f2c e13f 4958 1740
00000020: 4d86 b43f 58b0 ad3f 3960 a33f 7d99 ab3f
00000030: ceb7 c83f a84f 833f 7078 c93f 087d 9e3f
3.2900305 1.9782192 1.3514597 3.273714 0.76073617 0.63829684 1.7591571 2.3647635
1.4103485 1.3569441 1.276374 1.3406216 1.5681093 1.0258684 1.573988 1.2381907

weight f4 [16, 1, 3, 3]
00000000: 7b44 bc3e dada 123e a799 ff3c 5ed3 113e
00000010: 2e89 013e 2d8f 303e 8f5f 02bf 19e0 0bbe
00000020: 8877 343f 17fb c0bd b896 b7be e9f7 b13e
00000030: d516 91be 109d e0be 9ae1 4cbd 4df5 70bd
00000040: 8e09 e53e 8dce 433e d54d 8c3d bde7 c2be
00000050: 4cec a7bd 8d8c 603e 568e 70ba 342c d23e
00000060: fc58 473e f05e 0dbe 735c 963e 73ed c8bd
00000070: ae7a 203e 3a22 8a3e d72f 0b3e f033 9f3e
00000080: c042 f43e 4879 1abd 0455 223e 527b 9b3e
00000090: e8e2 3e3b c35a afbe 25e9 bb3c 1726 173f
000000a0: e471 173f 4dc9 f4be 9ce3 b63e 409c b8be
000000b0: 0a14 66be 1758 513e 2d60 273d db5c 2ebe
000000c0: c60b 0dbf 1ca1 25bf 0ade 1dbe 87fd f63d
000000d0: ef5d 9f3e 6ea7 c53e cb75 54be 91d5 aebc
000000e0: 2aa4 2d3c 7bcc 063e a213 9d3e 0932 3b3d
000000f0: 3487 563d c542 a63e c434 ba3e 7f48 82be
00000100: e1d7 493e 6259 88be 09e9 9e3e 7b5a 373e
00000110: b2a9 7abe 8b42 c5bb 8e57 9d3e 902b ef3d
00000120: 4f39 1b3d 3dee f5bc 1622 79be 2af1 02bb
00000130: d085 8fbe d58f d33d 85c2 b83e 7849 833e
00000140: e22d 003f b7fe b0bc 9530 4b3d 7792 19bc
00000150: c1c2 30be 6949 0ebf 9836 9c3d b4b2 cd3e
00000160: 9c47 403d a994 64be 372e df3d a7f3 1b3e
00000170: 87ed b23e c6f5 853d 7c03 ddbd 69c1 6cbe
00000180: cb26 5d3e de90 03bf 5af1 dcbe 5d9c 843d
00000190: e4ec 97be 06d3 bebe 301a 57be e209 fdbe
000001a0: dfb9 89be 2783 8cbe 6561 dbbd f562 01be
000001b0: 8e71 213d 92c5 733e 3c19 1d3e 2acf 153d
000001c0: 42cf debe 92c9 503c d92a 19bf fbd3 ce3d
000001d0: cf1f f8be 82a2 78be db4d d93d 2be4 5ebc
000001e0: 6185 85be 2e8e f3bd c3c9 e0bc 28e9 b7be
000001f0: 332b e7be 41f2 0abe fa66 03bf 73df 34bb
00000200: 4cea 34bc e90a 44bd 0a06 883e d6f0 013f
00000210: 2ccf e4bd c91f f3be 153b 8b3e 76af 5e3e
00000220: cd22 1c3e 1e81 8e3e ca4b b4bd a96d 88be
00000230: 8f43 8cbe d203 99be 8ad7 a2be aa6c 81be
0.36770996 0.14341298 0.031201197 0.14240786 0.12649986 0.17242117 -0.5092706 -0.13659705
0.7049489 -0.094228916 -0.35857177 0.34759453 -0.28337732 -0.4386983 -0.050019838 -0.058827687
0.44733852 0.19121762 0.06850783 -0.38067427 -0.08199367 0.21928616 -0.0009176483 0.4104935
0.19467539 -0.13805747 0.29367408 -0.09810915 0.15671799 0.26979238 0.13592468 0.31094313
0.47707176 -0.03771332 0.15852743 0.30367523 0.0029126946 -0.34248933 0.02293832 0.59042495
0.5915816 -0.4780983 0.35720527 -0.3605671 -0.22468582 0.2044376 0.040863205 -0.17027609
-0.5509609 -0.6469896 -0.15416732 0.12060075 0.31126353 0.386043 -0.2074806 -0.02134207
0.010598222 0.1316394 0.3067904 0.045702014 0.052375033 0.32472816 0.36368382 -0.25445935
0.19711258 -0.26630694 0.31037167 0.1790561 -0.24478796 -0.0060198954 0.3073086 0.11678231
0.03789645 -0.030020827 -0.24329409 -0.001998017 -0.28031778 0.10330168 0.36085907 0.2564199
0.5007001 -0.021605833 0.04960688 -0.009373299 -0.17261793 -0.55580765 0.076276004 0.40175402
0.046943292 -0.22322334 0.10897487 0.15229665 0.34946844 0.06541018 -0.1079168 -0.23120655
0.2159683 -0.51392925 -0.43152887 0.064751364 -0.2967292 -0.37270373 -0.21006083 -0.49421602
-0.2689962 -0.2744381 -0.10711936 -0.12635405 0.039414935 0.23805836 0.15341657 0.03657452
-0.435175 0.012743371 -0.59831005 0.10099026 -0.48461768 -0.24280742 0.10610553 -0.013604204
-0.26078323 -0.11892353 -0.027439957 -0.35920072 -0.45150146 -0.13568975 -0.51329005 -0.0027599006
-0.011042189 -0.047861967 0.26567107 0.5075811 -0.111723274 -0.47485188 0.27193514 0.2174662
0.1524765 0.27832884 -0.08803518 -0.26646164 -0.27395293 -0.29885727 -0.31805068 -0.25278217

weight f4 [16]
00000000: ec1c 913f f299 9b3f be0a 3e3f 1d88 0c3f
00000010: 8ae4 863f 88b0 7f3f b849 973f 7a81 9d3f
00000020: b15b 333f a93d 7f3f a1a5 5f3f c8d6 703f
00000030: 0199 7f3f e167 b93f 882d 503f de0c 5b3f
1.1336951 1.2156355 0.7423514 0.5489519 1.0538495 0.9987874 1.1819372 1.2305138
0.70061785 0.9970346 0.87362105 0.9407773 0.9984284 1.4484826 0.81319475 0.8556651

bias f4 [16]
00000000: b911 073f a752 b53f 138d 31bc e0ba 01bd
00000010: 8175 5e3f 583d 98bc e07e 603e 2e35 53bd
00000020: 269e 99be 9635 bc3e 5a94 273e 702e c93d
00000030: 74a6 503f 6c47 2ebe d479 8e3e 335f a6bd
0.5276142 1.4165848 -0.010836857 -0.03167236 0.86898047 -0.018583938 0.21923399 -0.051564388
-0.3000347 0.36759633 0.16365185 0.098233104 0.8150399 -0.17019433 0.27827322 -0.081236266

running_mean f4 [16]
00000000: fb39 a13d d7ad 31bc c8db 17bd b1a8 143f
00000010: efee 453d a906 f43d 52f1 623e 101d 26bb
00000020: 5932 a5bc c3fa f0bc 65eb acbd ce84 a5be
00000030: c002 1d3d f0bb 1ebf 461c 9fbc 3c8c 1ebe
0.07872387 -0.010844669 -0.037074834 0.580699 0.048323568 0.11915333 0.22162369 -0.0025346912
-0.02016561 -0.029416448 -0.084433354 -0.32327884 0.0383327 -0.6200552 -0.019422662 -0.15483183

running_var f4 [16]
00000000: 61f3 e63d e763 dc3b 0532 7e3e b799 4240
00000010: bf10 503c b89c 633d 7af6 063d f736 cc3b
00000020: dbda f63e 5087 2a3c 2cab 8d3f db79 263f
00000030: 43a8 a23c 1761 e63f 9bdc c03b bd69 cb3f
0.112768896 0.0067257765 0.24823768 3.040632 0.012699305 0.05556938 0.032949902 0.0062321383
0.48213848 0.010408238 1.1067863 0.65029687 0.019855624 1.799838 0.005885673 1.5891644

weight f4 [4, 16, 1, 1]
00000000: ca9b 1fbe 7c05 7fbe 3bb0 2bbd 2b4e 153e
00000010: d179 143e 1611 24be 55b0 b8bb d0be 56bd
00000020: bba1 fa3d 92e9 093e a399 2fbe 48b6 f63d
00000030: fd3b 61be e156 3dbe 324d 9ebe 7b36 d63d
00000040: 6402 2cbf 6f9f dbbe 0b31 66be 9da8 5fbe
00000050: 6d17 8abe c1b0 4fbe ba63 21bf 02ac 82be
00000060: 73f1 10bf ae93 4bbe c5ff ecbe fc51 a1be
00000070: b571 04bf fc8e efbe f54b a2be 94dc 1dbf
00000080: a142 f7be 895d 1bbf bf54 3cbf 941b cfbe
00000090: b07d 12be 1108 7bbd 355a bbbe 6f96 343f
000000a0: 8f55 3b3f d4c8 2cbf b651 44be 6c48 b7bd
000000b0: f9ec 01bf 09ad b73e a926 72be d2b8 613c
000000c0: 14e2 6bbe a05c 163c e864 17bd cc1c c2bd
000000d0: 68ec 86bd a010 e1bd 9a0c 68be 3ae3 53be
000000e0: e0bf e0bd 68b4 3f3d 5295 633e b881 e5bd
000000f0: cecb 10be aa93 7bbe 4418 9c3d 90bf 0e3d
-0.15586773 -0.24904436 -0.041916113 0.145806 0.14499594 -0.16022143 -0.005636255 -0.052428067
0.12237879 0.13468006 -0.17148452 0.12046486 -0.2199554 -0.18490173 -0.3091827 0.1045961
-0.6719115 -0.42895076 -0.22479646 -0.21841665 -0.26970997 -0.2028227 -0.63042796 -0.25521857
-0.5661842 -0.19880554 -0.46288887 -0.31507862 -0.51736003 -0.46788776 -0.31698576 -0.616647
-0.4829302 -0.606896 -0.7356681 -0.40450728 -0.14305758 -0.06128699 -0.3659226 0.70542043
0.7317743 -0.6749394 -0.19171795 -0.0894936 -0.50752217 0.35874203 -0.2364756 0.013776975
-0.2303546 0.009177357 -0.036961466 -0.09478149 -0.0658806 -0.10989499 -0.22661057 -0.20692149
-0.10974097 0.04680291 0.2222493 -0.112063825 -0.14140245 -0.24568048 0.07621816 0.034850657

bias f4 [4]
00000000: 2202 9abc 7886 22bf e92d 57bd c0b8 1c3d
-0.018799845 -0.63486433 -0.052534018 0.03826213

weight f4 [16, 4, 1, 1]
00000000: 373b eb3e ac04 e7bd 07b1 d6be 101c 2d3d
00000010: d41c bd3e 5bbb 10bf 7af1 363f e81d f63e
00000020: 0761 62bb 8c6a a6be b76f cfbe 864e 95be
00000030: 14f6 643e 237a 24be 979b 7dbe 403d 873e
00000040: 2d58 aa3e 7cee 693d 800b 193f a8c0 47be
00000050: 7998 ef3d 940a 4e3e 287c e5be 8a46 f13e
00000060: 2342 dcbe 8d00 61bd 2a17 3cbd 467c e33e
00000070: 9bc1 c13e 45a1 1a3d 0810 4fbf 5667 a5be
00000080: 47f5 b53e d2bb a13c 87be adbe cea3 e73e
00000090: 0f60 f0be f60b d43e db62 483f 9afa 84be
000000a0: b48e 87be 8996 633e 4255 d83d 48ff d93e
000000b0: c9b4 db3e 63e0 e03e c6de 66bd de89 d23e
000000c0: d92f a2bd 6e13 2cbf 6186 ca3e 008a e2bd
000000d0: 6ae5 ee3d c80e c4be 82f8 19bf 08e0 d3be
000000e0: 4707 c1be f020 20be 893d e33e ac2a f5be
000000f0: facf b7be d3b4 8ebe 1939 c73e ee09 a03e
0.45943615 -0.11280188 -0.41931936 0.04226309 0.36936057 -0.5653588 0.71462214 0.48069692
-0.0034542696 -0.32503164 -0.4051492 -0.2916147 0.22359496 -0.16062216 -0.24766384 0.26413918
0.33270398 0.057112202 0.5978317 -0.19507086 0.11699004 0.20121223 -0.44821286 0.4712413
-0.43019208 -0.054932166 -0.04592053 0.4443075 0.37843022 0.037751455 -0.80883837 -0.32305402
0.35538694 0.01974288 -0.33934423 0.4524216 -0.46948287 0.41415375 0.7827584 -0.25972444
-0.2647606 0.22225393 0.10563137 0.42577577 0.42911366 0.43921193 -0.056364797 0.4112081
-0.079192825 -0.6721715 0.39555648 -0.11061478 0.11664851 -0.38292527 -0.6014482 -0.4138186
-0.37700865 -0.15637565 0.44382885 -0.4788412 -0.3590086 -0.27872333 0.3891075 0.31257576

bias f4 [16]
00000000: 464e 7a3e 5656 143d 117e 3fbf d115 07bf
00000010: 2c4b 36bd 4d41 c33d 6dfd b1be 2129 683e
00000020: 18c9 21bf 4fc8 d03e ce6c 9c3e e4ca 0f3f
00000030: 65a2 f03c c800 87be 094a 0ebf c4f7 08bd
0.24443921 0.03621515 -0.7480174 -0.52767664 -0.044505283 0.095339395 -0.3476366 0.2267194
-0.6319747 0.40777823 0.3055176 0.5616896 0.02937431 -0.26367784 -0.5558172 -0.033439413

weight f4 [8, 16, 1, 1]
00000000: aa68 bd3d 3035 dabe 29b3 2bbe 5d68 2bbe
00000010: 7d20 e73e 0b8b 1abe bd60 b43e 6eb6 0d3e
00000020: c185 bd3b 555f 093e c750 94be 906a 173e
00000030: 5efd a33e 0b39 273e e48a a73d 660b eebd
00000040: 96d3 d23e 87f8 3abf 4617 d6bd 73cb 4c3d
00000050: db87 ae3b 4e3d 423c 20ec 9f3e 80f0 22be
00000060: 2dcc abbd 490a a6bd 1159 c43e 6430 2c3e
00000070: e660 22bc 9cbc 6d3c d9b4 593d be46 923d
00000080: f5eb 65bd b708 a2be 9069 203d 591a 34be
00000090: 7e6c 763e 5a2d 233e eefe d6be bded 99be
000000a0: b02f a43d 2fb7 76bd f96b 9dbe aea0 073f
000000b0: 8cbb b33d 7ff8 1cbd f1a3 913e 0262 e6bd
000000c0: c55b 74be c9a3 9d3d def9 94be 1139 87bc
000000d0: 4c6a 733e 98d0 28bf e09c 9dbe 4cbe db3e
000000e0: 08b9 21be e69a f43c fc06 e8be f228 a5be
000000f0: 812b 833e 0f3e f53e 1729 99be 16d2 6fbe
00000100: 2890 5f3e b544 d7be 5094 cebc 2a91 1ebd
00000110: 7513 85be 4585 c0bc c0d5 8e3e e85c 5ebe
00000120: 8080 1e3d 8ee7 afbe c2ac 8ebe 2964 c8be
00000130: e72d e53e ff66 303c f2ba 8ebe 0509 65be
00000140: c455 8fbe 46f8 d33d c02b 2e3e 4217 59bb
00000150: 471b d03c 8980 63bd 6a21 c73d 9f15 2a3e
00000160: e85b 4dbd 2f5e 9fbe 6bc5 a7be 4b4f 79be
00000170: 6e11 8ebd 3203 bb3e 24a4 ec3c d727 a339
00000180: c098 f43e f41e 023f f229 103d 357b a53d
00000190: 5bfa 9dbe 739b 7dbe 5bc4 5fbd 6485 cebe
000001a0: 1f33 84be cdcc ccbe cb01 cfbd f437 393e
000001b0: cdea 643e df0b e33e 9ca2 49be e75c 21bf
000001c0: a893 47bd 6ea4 503e a308 bc39 568f e4bc
000001d0: a2a1 97bf 8e3b a9bc 96af 303e 96c2 013d
000001e0: 2ac5 53be 3305 63be a0d6 bfbc 8793 54be
000001f0: bda7 ae3c e5e0 0dbe 64a2 90bd 6380 8f3d
0.09248479 -0.42618704 -0.16767563 -0.1673903 0.45141974 -0.15092103 0.35230055 0.13839123
0.005783767 0.13415273 -0.28967878 0.14786744 0.3202924 0.16330354 0.08180788 -0.11623268
0.41177052 -0.7303547 -0.10453658 0.04999871 0.005326254 0.0118554365 0.31234837 -0.15912056
-0.08388553 -0.081074305 0.38349202 0.16815335 -0.009910798 0.0145103 0.053150985 0.07142399
-0.05613323 -0.31647274 0.039163172 -0.17588176 0.24064824 0.15935269 -0.4199137 -0.30064192
0.08016908 -0.06023329 -0.3074644 0.5297955 0.08776006 -0.03832292 0.2844539 -0.11249162
-0.23863132 0.07697255 -0.29096884 -0.016506704 0.23771018 -0.6594329 -0.3078375 0.42918622
-0.1579324 0.029859018 -0.4531783 -0.322578 0.25619128 0.4789891 -0.29914162 -0.23419985
0.21832335 -0.42044607 -0.025217205 -0.038712658 -0.25991407 -0.023501048 0.27897453 -0.21715128
0.038696766 -0.3435635 -0.2786618 -0.39138916 0.44761583 0.010766744 -0.27877003 -0.22366722
-0.2799512 0.10350089 0.17008877 -0.0033125435 0.025403632 -0.055542503 0.0972317 0.1660981
-0.050136477 -0.31126544 -0.32767805 -0.24346654 -0.06936918 0.36525875 0.028886862 0.00031119466
0.4777279 0.5082848 0.035196252 0.080801405 -0.3085507 -0.2476633 -0.05463062 -0.40336144
-0.25820252 -0.4 -0.10107764 0.1808775 0.22355194 0.44344994 -0.19690937 -0.6303238
-0.0487248 0.20375225 0.0003586459 -0.02790038 -1.1846201 -0.02065828 0.1725448 0.031679712
-0.20680681 -0.22169952 -0.02341777 -0.20759402 0.021320218 -0.13855322 -0.070622236 0.0700691

weight f4 [8]
00000000: 6732 963f 7ebf b83f 42ab 883f 4d67 973f
00000010: dd3f c43f 6c83 14be 0280 b83f e731 703f
1.1734132 1.4433439 1.0677264 1.18284 1.533199 -0.14503258 1.4414065 0.93826145

bias f4 [8]
00000000: 9f8e 2c3d ecba a73a 3a56 ebbd 1288 2d3e
00000010: 3879 b5bd ae73 953f 584f 9dbd c749 4b3e
0.0421282 0.0012796796 -0.11491056 0.16946438 -0.08861011 1.1675928 -0.07681149 0.19852363

running_mean f4 [8]
00000000: 0ef5 e63d 6b26 8dbe 3583 2bbe d662 783d
00000010: 15dd 97be 2bcc b4bd 4c09 823e 9aa2 b0be
0.11277209 -0.27568373 -0.1674927 0.060641132 -0.2966086 -0.088280044 0.25397718 -0.34499055

running_var f4 [8]
00000000: 6ed3 c53d bc6a c63d b9b6 643d 57c7 a43d
00000010: aef3 0b3e ccff 113e 887d 9d3e adc3 633e
0.09659468 0.09688327 0.05583832 0.080458336 0.13667175 0.14257735 0.30759835 0.22242613

weight f4 [8, 1, 3, 3]
00000000: d125 d53e 49a2 963e 06ae 55be 9c7d ab3d
00000010: dee0 88be 4676 b8be fe42 443d 302e 4c3e
00000020: eb0a f33d daa9 a13c 4fd0 c63e d6ac aebc
00000030: b0a9 15bf c91c 98bd 4439 7c3d 0cf4 c5be
00000040: 77eb c2be 3923 a6bc 541c 983e 1364 b3bc
00000050: 43ba 1b3e c391 ccbe a82a 1a3e f3d8 9ebe
00000060: c7f3 623e ee42 4cbd 36a9 10bf a80d 843e
00000070: 52f3 9d3e 6ee9 b43c 55dd 013e 12b5 ddbd
00000080: b43a f53e a996 ba3e 7dec 043e 6042 853d
00000090: 2b36 14bf 532a 0ebf eae8 c6be af93 f33c
000000a0: 1cfc 033e 1057 003e 713f fa3c 3b50 cabb
000000b0: 21b4 453e 4a5c 6dbe 70ed 3f3d 7881 7cbe
000000c0: 3be2 96be 88dc 4fbe 2c87 06bf 4867 e03e
000000d0: 1296 a6bd c40e 58bd 61fb 88be 5290 60be
000000e0: 86dd c53d ef01 033e dc3a 19be a1de 36be
000000f0: ddae 303f da9c b33e acda 2bbf fd91 0dbe
00000100: 0187 903e c2d0 983e 4ff9 20bf 67e7 2bbf
00000110: 3252 453e 1ebf d83d 9fbb 5dbe 4497 ad3d
0.41630414 0.2942069 -0.20867166 0.083735675 -0.2673406 -0.36027735 0.04791545 0.19939494
0.11867317 0.019734312 0.38830802 -0.021322649 -0.5846205 -0.07427365 0.06157805 -0.38662755
-0.3807027 -0.020280467 0.29709113 -0.021898305 0.15207772 -0.39954957 0.15055335 -0.31024894
0.22163306 -0.049868517 -0.56508195 0.2579167 0.308497 0.022083964 0.12682088 -0.10825552
0.4789635 0.3644307 0.12980838 0.06506801 -0.57895154 -0.5553333 -0.38849574 0.029733507
0.12889141 0.12533212 0.03054783 -0.006174115 0.19306995 -0.23179737 0.046857297 -0.24658763
-0.29469475 -0.2029897 -0.52550006 0.43828797 -0.081340924 -0.052748457 -0.26754287 -0.21930054
0.09661393 0.12793706 -0.1496386 -0.17858364 0.6901682 0.35080606 -0.6713054 -0.13825221
0.28228 0.2984677 -0.62880415 -0.67149967 0.19269636 0.10583328 -0.21653603 0.08476117

weight f4 [8]
00000000: 90a1 6f3f e04d 823f bd3e 563f 7b98 883f
00000010: eb60 8b3f 529e e73e f5a5 b53f e579 853f
0.936059 1.0180016 0.8368948 1.0671533 1.0888952 0.45237976 1.4191271 1.0427824

bias f4 [8]
00000000: 0c4f 16bd a13c f73b 9c48 c3bb 2795 ae3c
00000010: 239a 0dbd 2c80 ff3c 8444 8fbd c3f4 923c
-0.03669648 0.0075450693 -0.0059595834 0.021311356 -0.034570824 0.031189047 -0.0699549 0.017938977

running_mean f4 [8]
00000000: 004d b03c 0278 85bc abdd 9a3d ecab 9a3e
00000010: 7a40 583c 09b3 aabf a099 2c3d 27ef 07be
0.021521091 -0.016292576 0.07561811 0.3020929 0.013198966 -1.3335887 0.042138696 -0.13274823

running_var f4 [8]
00000000: dd8f 593f 3447 e63f 335e 383f ccc5 0e40
00000010: 66b5 3640 5de7 1f3d 04e4 413f e437 7c3f
0.8498514 1.799048 0.72018737 2.2308226 2.8548217 0.039039005 0.7573855 0.9852278

weight f4 [16]
00000000: 6977 903f 0830 8d3f 9e34 7b3f 45a4 913f
00000010: e96d 8c3f cc42 633f 2ac3 123f d1c5 c23f
00000020: 6cc2 633f 7a6c 7f3f 3d32 523f c78b 843f
00000030: 59d9 843f 6271 753e e796 ca3f daef 8e3f
1.1286441 1.1030283 0.9812716 1.1378256 1.0971042 0.887738 0.57329047 1.5216619
0.8896854 0.997749 0.8210791 1.0355157 1.0378829 0.23969033 1.5827302 1.1166947

bias f4 [16]
00000000: 87d1 103d c50d b8bb 6205 cd3c 41b8 10bd
00000010: e562 92bc 66f1 c93c 9cc8 413b acd0 133c
00000020: 6e11 893a 9a9e 333d 0556 91bc aab5 8dbb
00000030: ec32 4c3c e1ac 67bc 7926 8b3d 421a c93c
0.03535607 -0.005616876 0.02502698 -0.03533197 -0.017869422 0.02465124 0.0029569035 0.009021919
0.0010457465 0.043852426 -0.017741213 -0.0043246346 0.012463313 -0.014140339 0.067944475 0.024548654

running_mean f4 [16]
00000000: d966 2d3d 13bf 8d3a 1589 ebbd 79bc 2d3e
00000010: 9f50 b5bd cc73 953f d0fd 9dbd 604e 4b3e
00000020: c956 16bd 9c23 f73b e157 c3bb 8199 ae3c
00000030: f295 0dbd 6280 ff3c a242 8fbd 93f4 923c
0.04233441 0.0010814391 -0.11500756 0.16966428 -0.08853268 1.1675963 -0.077144265 0.19854116
-0.03670386 0.0075420868 -0.0059614037 0.02131343 -0.034566827 0.031189147 -0.06995131 0.017938888

running_var f4 [16]
00000000: 8b28 b03f b850 0540 84e1 913f 1701 b33f
00000010: ab72 1640 1b4b ac3c 34eb 0440 0959 613f
00000020: 3447 603f 1fa7 843f 8b46 333f ebc3 913f
00000030: 6bc3 973f 436f 513e 0ae5 0040 4d2f 8b3f
1.3762373 2.0830517 1.1396947 1.3984708 2.3507488 0.021031907 2.0768557 0.8802648
0.8760865 1.0363501 0.70029515 1.1387914 1.1856512 0.20452599 2.0139794 1.087381

weight f4 [8, 16, 1, 1]
00000000: 0a46 e5be 585d 853e 01f2 04bf 4cd0 a1be
00000010: 6f74 1cbe f9cc 24be e13c 173e d4ed d0bd
00000020: 8d89 433e 2d14 a23e 4298 213e 8d20 fcbe
00000030: 1f38 c7be c4be 6bbe cda1 81bd 8988 93bc
00000040: eafe 2f3e 7d9c c9ba 3b3e df3e e53c 7ebe
00000050: 50d3 94be 95db a83e d6d0 9fbe e963 4ebf
00000060: d2dd b2be 885f 033f b81d 00be 1ac2 4f3e
00000070: 0051 9d3e ecb7 b33e a353 2dbe 72e1 2b3e
00000080: 1a40 c8bd 23da 93be f699 26be ed19 423e
00000090: 9e8a d93d b989 b33e e62c 3d3e a12c bb3e
000000a0: af47 433e 3346 073d f9e9 103d 227a 763e
000000b0: aa4b 25be 50ff 83bd 6ab7 c43d ca80 42be
000000c0: e90f 2ebe a6a3 283e 07f6 08be edeb 3c3d
000000d0: 9c31 b83e ae5d acbd da6c 283e e0d2 ad3e
000000e0: 49ed 963d fa77 c9bd 2bf2 463e 75a4 8f3d
000000f0: 2939 25be 6f03 f63d 89f4 63bf 2a9a c3be
00000100: a8a2 f93e b3e0 173e edf6 8dbc c3c3 dc3e
00000110: 9feb 2e3e abb7 a03d 603f 8fbd 5e36 bebd
00000120: 12f6 4e3f 90cf 043f 0cbb 823e 798f 0b3f
00000130: 3602 babe 838f 8b3e e067 d1bd 1258 7f3b
00000140: c8fc a63e a180 e93e 35ce 35be 6acd 07bd
00000150: bbd4 883e f63a 253e 133b 18be b3a9 593d
00000160: 1d0a 59be 1f5f aebe 9889 8fbd 0c09 9c3d
00000170: 3db5 cc3e 9f97 02be d740 583e 2431 713c
00000180: 8bf7 b1be 8dd4 4cbe 9cce f13d eb3d 24be
00000190: 66ab b6bc 31ab 153d 0e68 acbc 5a18 cc3e
000001a0: 3dc1 033d 6d53 8a3e f6e4 a2be 98df 003c
000001b0: 95d8 d7bd 07d5 0e3e fb3a 6f3f 0d1b 18be
000001c0: c397 8b3e 77cc 243e 3820 66bd 41d9 d7be
000001d0: 13da 0f3e efae b43e 294f cf3e a31f 0abe
000001e0: 244f 8cbe 66e7 8fbe 3d99 af3b 0871 823c
000001f0: ff6a 8abe 8047 323c 2dd5 14be ed8c 003e
-0.44779998 0.26047778 -0.5193177 -0.3160423 -0.15278791 -0.16093816 0.14769317 -0.10201612
0.1909544 0.31656018 0.15780738 -0.49243584 -0.38910004 -0.2302199 -0.06329689 -0.018009441
0.17187086 -0.001538172 0.43602166 -0.24827917 -0.2906747 0.32980028 -0.31214017 -0.806212
-0.3493486 0.51317644 -0.12511337 0.20288888 0.3072586 0.3510126 -0.16926436 0.1678522
-0.097778514 -0.28877363 -0.16269669 0.18955202 0.10622142 0.35066012 0.18474159 0.36557487
0.19070314 0.03302593 0.035379384 0.24070027 -0.16142145 -0.06445181 0.09605296 -0.18994442
-0.16998257 0.16468677 -0.13375102 0.046123434 0.3597535 -0.084163055 0.16447774 0.33949947
0.07369477 -0.09837337 0.19428317 0.070137896 -0.16135086 0.12012374 -0.89045006 -0.38203555
0.4875691 0.1483181 -0.017329657 0.43118104 0.1708207 0.07847532 -0.0699451 -0.092877135
0.80844223 0.51879215 0.2553333 0.54515797 -0.36329812 0.27257928 -0.10224891 0.0038962406
0.32614732 0.4560595 -0.17754443 -0.033154882 0.267248 0.16135773 -0.14866285 0.053140353
-0.21195264 -0.34056947 -0.07008666 0.07618913 0.39982024 -0.12753151 0.21118484 0.014721189
-0.34759173 -0.20002957 0.11806986 -0.16039245 -0.022298526 0.036540214 -0.02104571 0.3986233
0.03216671 0.27016774 -0.31815308 0.007865809 -0.105393566 0.13948451 0.9344937 -0.14854069
0.27264223 0.16093622 -0.05618307 -0.4215794 0.14048032 0.35289714 0.40490082 -0.13488631
-0.2740413 -0.2810623 0.0053588436 0.015923038 -0.27034757 0.010881305 -0.14534445 0.12553759

weight f4 [8]
00000000: 3fec 743f fb6f c23e 8e02 7b3f 18c3 9b3f
00000010: 374a f93e 77c7 843f 16d9 9d3f 394f fb3e
0.9567298 0.3797606 0.98050773 1.2168913 0.48689434 1.0373372 1.2331874 0.4908388

bias f4 [8]
00000000: baa6 7dbd 7b20 5ebf 8064 48be a05d e4be
00000010: 8e0e adbe 41e2 343e b1bf a03d 7e62 163f
-0.06192658 -0.8676831 -0.19569588 -0.4460268 -0.33800167 0.17664434 0.07849062 0.5874404

running_mean f4 [8]
00000000: 4436 08bf 5ef7 413e 1223 483e 8b2f 72be
00000010: 2c66 6b3f fcaa b33e 8859 863d 0a08 fdbd
-0.532078 0.1894202 0.19544628 -0.23650949 0.91952777 0.35091388 0.065600455 -0.12355049

running_var f4 [8]
00000000: 4be3 5f40 b89f c140 441f c53f 34b4 5140
00000010: 3073 4940 b674 4b40 7b2a 9b40 4bac 713f
3.4982479 6.050747 1.5400167 3.2766237 3.1476555 3.1789985 4.8489356 0.94403523

weight f4 [8, 1, 3, 3]
00000000: 1d32 ca3e 85fa 1d3f 70d7 eb3e b4a4 933e
00000010: 53f7 713d 6e8a 853e 886d 343e 8d13 3abe
00000020: cde2 babd 83db 2b3f b945 82be 11e5 81be
00000030: 8654 72bd c4c6 8c3e e1a4 6a3e 517b 02be
00000040: d275 adbd fc43 53bd 8874 aabe de57 133e
00000050: ff65 453e 5ee7 963e 474c 9d3d 5a5e 1e3f
00000060: 0a9e 4c3e 3002 00be 98be 82be 2ac2 b93d
00000070: a274 1abe 7ae3 09bf 643c 043e 3a9e cdbd
00000080: becd c2be 3e6a d03e 3a5e 883e 0a71 213e
00000090: f265 9f3e 1242 56be d9d9 c7bd 7dfa 453e
000000a0: bb52 f9be b609 a6be 8c5e f33e b0fe fdbe
000000b0: 438b ba3c 5608 babe f029 c4bd 7af4 38bc
000000c0: 9ebc 983c d10b bfbe d839 bc3e 0161 283f
000000d0: 3be4 f13e df0f 92be f000 07bf 2818 afbe
000000e0: 30af dabe 0978 ff3e 1f75 033f ba5b e1be
000000f0: b04f 983e 18da 6b3e bef6 b6be 1df6 62be
00000100: 5a3c 3dbc 75d5 313e c381 383e bb18 a6be
00000110: 70b8 fbbe 1ba1 a2bc 09c8 a6be e743 f3bd
0.39491358 0.6171039 0.46062803 0.28836596 0.059073757 0.26082176 0.17619908 -0.1817152
-0.0912529 0.67131823 -0.2544382 -0.25370076 -0.05916264 0.27495396 0.22914459 -0.12742354
-0.08469738 -0.051578507 -0.3329203 0.14388987 0.1927719 0.29473394 0.076805644 0.6186272
0.19982162 -0.12500834 -0.25536036 0.09070237 -0.15083554 -0.53862727 0.12913662 -0.10039945
-0.38047594 0.40706056 0.2663439 0.15765777 0.31132466 -0.20923641 -0.09758348 0.19333835
-0.4869593 -0.32429284 0.4753307 -0.49608374 0.022771483 -0.36334485 -0.095783114 -0.0112887565
0.018644627 -0.37313703 0.3676288 0.65773016 0.4724444 -0.28527734 -0.52735806 -0.34198117
-0.42711782 0.49896267 0.5135059 -0.44015294 0.29748297 0.23032415 -0.35735124 -0.22164197
-0.011550033 0.17366584 0.1801825 -0.32440743 -0.49164152 -0.019852212 -0.3257449 -0.11878186

weight f4 [8]
00000000: f51f 8f3f 484a 843f 66ab 863f 467b 8e3f
00000010: 8291 873f 7344 b13f e5d8 ad3f 7ecc 853f
1.1181628 1.0335169 1.0521057 1.113137 1.059128 1.3849014 1.3581816 1.0453031

bias f4 [8]
00000000: ed6e 6bbc 87ec 8b34 e699 923d 2cfc 09bd
00000010: 8bfd 423d 401f 46bd cb86 983c b5e1 26bb
-0.0143697085 2.6062864e-07 0.0715826 -0.033687755 0.04760508 -0.048369646 0.018618962 -0.0025464122

running_mean f4 [8]
00000000: ec3b 02be 98c8 99be a98e 22be 04d6 a13d
00000010: 59d1 513e dba8 b53c 7d37 fbbd ac7b 2cbf
-0.12718171 -0.30035853 -0.15874733 0.07902148 0.20490016 0.022175243 -0.12266443 -0.6737621

running_var f4 [8]
00000000: 38ce 1140 e38f 583d 058a 3e3f 6782 c93f
00000010: 775a 843e 547e 3b3f 729f 1740 79d1 433e
2.2782116 0.052871596 0.7442935 1.5742921 0.2585027 0.73239636 2.3691068 0.19122876

weight f4 [16]
00000000: d646 9d3f 0b2d c43f 2b6f 3f3f 1b74 943f
00000010: 0827 e23f 8dfe b73f 6808 743f 25b6 933f
00000020: 1c2a a33f ce95 883f f908 7a3f 745f 8f3f
00000030: c97b 973f f675 e73f f55a e23f 4a5f 8e3f
1.2287242 1.5326246 0.74779004 1.1597933 1.7668161 1.4374558 0.95325327 1.1539961
1.2747226 1.0670717 0.9766994 1.1201005 1.1834651 1.8082874 1.7684008 1.112283

bias f4 [16]
00000000: 9d3c 243d 32d3 b7be bb87 0a3e f127 c53e
00000010: 6c2b 793e aace c33e dde3 753e 4c6f 673e
00000020: afdb 02bf 9c8e a4bd c1e1 e43e eeaf 2d3f
00000030: 25c9 2bbe df46 333f 4dfc af3d 6a2d 2c3e
0.040096868 -0.35903317 0.1352834 0.38507035 0.2433297 0.3824361 0.24012704 0.2260105
-0.5111646 -0.08035013 0.44703487 0.6784657 -0.1677595 0.70030016 0.085930444 0.16814199

running_mean f4 [16]
00000000: 562b 7fbd 4e0d 5ebf a571 48be 2176 e4be
00000010: c20e adbe 636e 343e 13de a03d 8f5f 163f
00000020: 426f 6bbc 9082 1436 c699 923d ebfe 09bd
00000030: 4b00 433d 261c 46bd 6e86 983c 2298 26bb
-0.062297188 -0.8673905 -0.19574602 -0.44621375 -0.33800322 0.17620234 0.07854857 0.5873956
-0.014369788 2.2129716e-06 0.07158236 -0.033690374 0.0476077 -0.04836669 0.018618789 -0.0025420268

running_var f4 [16]
00000000: d534 6a3f 99e9 133e 9714 763f 857b bd3f
00000010: 5bc1 723e e6df 893f 13a5 c23f 1abf 763e
00000020: 3f08 a03f d1b3 883f 72af 8d3f 9e9a 9e3f
00000030: 2795 8f3f cd7e f53f 401e ec3f a2d9 8b3f
0.91486865 0.14444579 0.9612517 1.480332 0.23706572 1.0771453 1.5206627 0.24096337
1.2502517 1.0679876 1.1069167 1.2390935 1.1217393 1.9179322 1.8446732 1.0925791

weight f4 [16, 1, 3, 3]
00000000: 53b6 63bb ed30 053e b79c f73e 0411 c83d
00000010: fce6 0e3e e01b 8bbd 13fb b2bc 0fb5 bf3e
00000020: 66a8 a43e 4b37 c33e 285f 4d3f 2f4f 1e3f
00000030: 00c7 843e dfdb 0b3f be86 6a3e da24 af3e
00000040: b8c9 053e f678 b5be 0e04 69bf 9d61 81be
00000050: 304e c7be 7be7 d5be 3588 babe da09 6c3d
00000060: 7c5d ee3e ea27 1b3e 8916 8cbe 67cb cd3e
00000070: 2c69 e93e 5e8a 8b3e 7e28 06be 9897 65bc
00000080: c12d 9d3e 52a5 26be 9583 a2be b578 0a3d
00000090: 2ceb 1c3e 9fd5 c53d 72e7 d23d 03ca d63e
000000a0: 8dd2 7d3f 3ba7 9f3e 27f5 abbd f61e c73e
000000b0: 8e05 133d 86cf 03bf bedc 3bbe dbaa f8bd
000000c0: 0862 573d 9f35 b73e dd83 ff3c 3c68 9fbd
000000d0: 484c b7be 68f3 0ebe 7cdb fb3e 80d7 383f
000000e0: bc10 273e c4be 8a3e 8a1c e63e da3d 233e
000000f0: 071b e33d 50c7 1dbc 2741 7cbc d5e8 e9be
00000100: 4a29 cfbd e036 37bf 8c4a 1f3d bd19 de3d
00000110: ab84 a7bd 5c67 15bd 061b f8bb ab53 ce3e
00000120: 6ff9 90bd 405e 9dbe 4603 5cbe 5577 293e
00000130: 2181 24be e113 65bd cff6 1b3f 2426 8c3e
00000140: ea19 2d3e ba22 0cbe d007 c73e 265f 493e
00000150: eb57 dd3d d9a3 c9bd d3fa babe c8b0 bbbe
00000160: 3234 07bf 5467 a4be 12f0 2a3e 07fa ac3e
00000170: c7c0 4b3e 9dc8 ef3e baa7 4dbd 1223 0fbf
00000180: 1eec 34bd 4b30 2e3c ba43 08bd 05ca 56be
00000190: 90ee 5abe 13b0 8bbe d62a 8f3e 14c6 703d
000001a0: a9ba a8bd 4fdc 633f 7862 da3e c209 cc3d
000001b0: 4939 52be c2dc 0c3f 81fa a23e 5c9f d93d
000001c0: be0b 113f cf93 d83d c755 50be 5396 dc3d
000001d0: ce26 de3e 802e 8f3e 817d f73e ea9c 963e
000001e0: 716c 893e 3233 0bbe 86d3 84bd 9464 fcbd
000001f0: 103e 0dbd 8d52 d6be faa3 063f 7d9b e63e
00000200: 3ee6 2ebd fe00 8dbe d264 b83e 50be 693e
00000210: 76f1 243e 8072 aebc 464c 52be 201e 9a3e
00000220: fecd 8bbe c139 85be f9d8 93be 4e3f 6d3e
00000230: 3e69 95be b0d5 30be e594 2ebe 0a3c 07be
-0.0034746125 0.13006945 0.4836175 0.097688705 0.13955301 -0.06792426 -0.021848237 0.37442824
0.32159728 0.38128123 0.8022332 0.61839575 0.25933075 0.5463237 0.22902963 0.34207803
0.13065231 -0.35443848 -0.9102181 -0.25269786 -0.3892684 -0.41778168 -0.36432043 0.057626583
0.46555698 0.15151945 -0.27360943 0.40194246 0.45588052 0.27254003 -0.13101384 -0.014013194
0.3069897 -0.16274002 -0.31741014 0.03380652 0.15324086 0.096598856 0.10298051 0.41950998
0.991494 0.31182274 -0.083963685 0.3889081 0.03589397 -0.5148853 -0.18345925 -0.12141963
0.052583724 0.35783097 0.031190807 -0.07783553 -0.35800385 -0.1396004 0.4919089 0.72203827
0.16314977 0.27098668 0.4494365 0.15941563 0.110891394 -0.009630039 -0.015396393 -0.4568545
-0.10115297 -0.7156811 0.038889453 0.10844753 -0.08179601 -0.036475524 -0.007571581 0.4029821
-0.07078826 -0.3073597 -0.21485624 0.16549428 -0.16064884 -0.05592716 0.60923475 0.2737285
0.16904417 -0.13685122 0.38873148 0.19665202 0.10807785 -0.098457046 -0.3651949 -0.3665831
-0.5281402 -0.32110083 0.16693142 0.33784506 0.19897757 0.46832743 -0.050208785 -0.5591289
-0.04417049 0.010631631 -0.033267714 -0.20975502 -0.21380067 -0.2728277 0.2796237 0.058782652
-0.082387276 0.8900804 0.4265325 0.09962799 -0.20529665 0.5502435 0.31831744 0.106260985
0.5665854 0.10575067 -0.20345221 0.107708596 0.4338898 0.27965164 0.4833794 0.2941659
0.26840547 -0.13593748 -0.064856574 -0.12323871 -0.034483016 -0.41859856 0.5259396 0.45040503
-0.042700045 -0.2753982 0.3601442 0.22826505 0.16107735 -0.021294832 -0.20536909 0.3010111
-0.27305597 -0.26020625 -0.28876474 0.2316868 -0.29181856 -0.17269015 -0.17048986 -0.13206497

weight f4 [16]
00000000: 5b50 0c3f 8b1c a23f f25b 953f d0ad 963f
00000010: e19b a03f 65c7 563f 3cef 8d3f 9d26 373f
00000020: cdaa 8d3f 291e 783f 9f2d 7a3f 83a7 663f
00000030: c272 8e3f 800c a03f c6e7 703f 25f2 8d3f
0.5481011 1.2664961 1.1668684 1.1771793 1.254757 0.83898 1.1088634 0.71543294
1.1067749 0.9692102 0.9772586 0.9009935 1.1128771 1.2503815 0.9410366 1.1089522

bias f4 [16]
00000000: 9ade 88be a86d 903e 5524 c8be 4f3b 68bc
00000010: 52a1 de3e a0fc 013f 74b6 b13e 307e a83e
00000020: 13fc 52bf 9456 95bc 172f 1ebf f93b e53e
00000030: 1db0 753e 7fff 643e 181b 1f3f 0417 463e
-0.26732332 0.2820866 -0.3909022 -0.0141742965 0.43482453 0.507761 0.34709513 0.32908773
-0.82415885 -0.01822976 -0.61790603 0.44772318 0.23992963 0.22363089 0.62150717 0.19344717

running_mean f4 [16]
00000000: 8ba4 413e 80d0 c73e ef8b 9dbe 8e53 993e
00000010: f8c9 8d3f 229b a9be ce40 233f 39d8 52be
00000020: 03ea 8f3d 79ae 27be 7301 303e e068 163f
00000030: e321 2a3e 54df 993e 7bc3 0f3f 9ce2 94be
0.18910424 0.3902626 -0.30770823 0.2994656 1.1077261 -0.3312617 0.6377076 -0.20590295
0.07027056 -0.1637515 0.17188053 0.58753777 0.1661449 0.30053198 0.56157655 -0.2907914

running_var f4 [16]
00000000: c4ec a13e 1d62 a440 4267 2f3e c28a c93e
00000010: 9f05 1e41 e3ab 813f 780d fd3e 4308 473f
00000020: 77d6 873f a27d 023f a203 8b3e e97f c23f
00000030: 2d63 133f cb16 593f aa74 7b3f 4e44 8b3e
0.3162595 5.1369767 0.17129233 0.39363676 9.876372 1.0130581 0.49424338 0.7774698
1.0612324 0.5097295 0.2715121 1.5195285 0.57573205 0.84800404 0.9822489 0.2720055

weight f4 [4, 16, 1, 1]
00000000: 8925 85be 8998 85bd 06aa 1b3e f71f 7c3b
00000010: 0306 4bbe da1a 88be 9d23 b0bd 0849 363e
00000020: 1950 393e 01bc 40be 43df 22be efe5 d8bd
00000030: cd80 5f3d 358d 053e ad7d 3cbd 01ed f03d
00000040: 97e3 b63b 3bdc a93c 4492 753e 726e 1a3e
00000050: 7342 6ebe 47f8 e4bc ad51 7ebd d638 8cbe
00000060: 2ee5 b3bd 674d ea3c d035 293e 7aed 90bd
00000070: 1b2d 92be affe 3cbe 11da 6ebe 6c72 983d
00000080: 6a71 b63d e4b3 4a3e d368 00be 52de cb3d
00000090: 2dee 003e 777b 553d 910b 75be 65fc 0b3e
000000a0: 5803 1fbe 4340 3e3d 7073 8a3d cebd 01bc
000000b0: 4470 dbbd e367 60be 3f29 df3c 027d 7cbd
000000c0: b401 30be 0eb0 0a3e 0a7b a0bc 3b78 84bd
000000d0: 5a80 2d3e 0045 89be f022 b4bd c447 33be
000000e0: ad93 7e3e 64e5 1abe 4538 64be 0dac 2fbe
000000f0: 14e0 babd 9c9b 17be 4948 58be f806 07bd
-0.260052 -0.065232344 0.15201578 0.00384712 -0.19826512 -0.26582986 -0.08600543 0.17801297
0.18096961 -0.18821718 -0.1590548 -0.10590731 0.054566193 0.13042147 -0.04601829 0.11763955
0.00558133 0.020734897 0.23981577 0.15081194 -0.23267536 -0.02795042 -0.06208961 -0.27387112
-0.08783947 0.028601361 0.16524434 -0.07076545 -0.28550038 -0.18456529 -0.23325373 0.07443699
0.08908351 0.19795185 -0.12539987 0.099545136 0.12590857 0.0521197 -0.23930193 0.136705
-0.1552862 0.046448004 0.06760299 -0.007918788 -0.10714772 -0.2191463 0.027241347 -0.061642654
-0.1718815 0.13543722 -0.01958992 -0.06468245 0.16943493 -0.26810455 -0.08795726 -0.17507845
0.24861021 -0.15126568 -0.2228709 -0.17155476 -0.09124771 -0.14805454 -0.21121325 -0.03296563

bias f4 [4]
00000000: 19fa ffbc e1cd 693b 92c3 b7bd f541 2ebe
-0.031247186 0.0035675692 -0.08972849 -0.17017348
