trained_model/UNetGhostV2(Reagent_UNetGhostV2)_no_train.pt (torch, 587644 bytes, 741 tensors)

weight f4 [8, 1, 3, 3]
-0.27872312 -0.00590837 -0.064471126 -0.07605338 0.2542149 0.2540659 0.14949825 0.0021831691
0.21657816 -0.15771024 -0.12583768 0.06319019 -0.2605471 0.08087134 0.15668836 0.3265498
0.27766493 -0.116927594 0.24766597 0.25830206 0.26903644 -0.1864293 -0.066942126 -0.17804639
0.2940803 0.27863595 0.26345065 -0.043964416 -0.2318041 -0.12308347 -0.08190623 0.077751875
0.023663282 0.33135214 -0.08150455 0.3027489 0.21878323 0.09728208 0.036267847 -0.08649437
-0.2869386 -0.07535568 0.15287045 0.2711493 -0.3293918 -0.3165843 -0.033616066 -0.190153
-0.07120028 0.008814573 0.33264223 -0.2331402 -0.12084019 0.26927134 0.19896588 0.23560253
-0.29189557 0.10174298 0.33302966 0.028627604 0.13008937 -0.26822805 -0.12304723 -0.21918786
0.15661988 0.2922658 0.13065562 -0.27920672 -0.099437684 0.05901161 -0.061751395 -0.15766868
00000000: ccb4 8ebe 009b c1bb 7009 84bd e0c1 9bbd
00000010: 7528 823e ed14 823e 1216 193e 8013 0f3b
00000020: aac6 5d3e cb7e 21be 98db 00be dc69 813d
00000030: 6e66 85be e09f a53d ea72 203e 8931 a73e
00000040: 192a 8e3e bc77 efbd 269c 7d3e 2b40 843e
00000050: 25bf 893e 53e7 3ebe f418 89bd cb51 36be
00000060: b191 963e 5fa9 8e3e 01e3 863e 0814 34bd
00000070: 0e5e 6dbe 3013 fcbd 74be a7bd 603c 9f3d
00000080: 80d9 c13c fda6 a93e dceb a6bd e701 9b3e
00000090: b608 603e d43b c73d 988d 143d f623 b1bd
000000a0: 9ee9 92be 1454 9abd 128a 1c3e 15d4 8a3e
000000b0: 0ba6 a8be 5617 a2be 00b1 09bd 78b7 42be
000000c0: 74d1 91bd 006b 103c 1550 aa3e 4ebc 6ebe
000000d0: 107b f7bd efdd 893e b6bd 4b3e ca41 713e
000000e0: 5673 95be a05e d03d dd82 aa3e 7084 ea3c
000000f0: 2636 053e 3055 89be 3000 fcbd c872 60be
00000100: f660 203e dda3 953e 96ca 053e 2ff4 8ebe
00000110: fca5 cbbd 28b6 713d 08ef 7cbd e673 21be

weight f4 [8]
1.0 1.0 1.0 1.0 1.0 1.0 1.0 1.0
00000000: 0000 803f 0000 803f 0000 803f 0000 803f
00000010: 0000 803f 0000 803f 0000 803f 0000 803f

bias f4 [8]
0.0 0.0 0.0 0.0 0.0 0.0 0.0 0.0
00000000: 0000 0000 0000 0000 0000 0000 0000 0000
00000010: 0000 0000 0000 0000 0000 0000 0000 0000

running_mean f4 [8]
0.02270933 0.012267512 0.058840077 0.008670069 -0.00026407075 -0.017478703 0.017089192 -0.008975792
00000000: eb08 ba3c adfd 483c 4b02 713d e80c 0e3c
00000010: fa72 8ab9 7f2f 8fbc a2fe 8b3c 330f 13bc

running_var f4 [8]
0.9023924 0.9028224 0.90422195 0.90243477 0.9029892 0.9033592 0.90341604 0.90245485
00000000: 3003 673f 5e1f 673f 177b 673f f705 673f
00000010: 4d2a 673f 8c42 673f 4646 673f 4807 673f

weight f4 [16, 8, 3, 3]
-0.07804152 -0.108041674 -0.036183663 0.11050706 -0.09552274 -0.058877334 -0.011777237 -0.055989154
0.057372086 -0.099201925 0.041963764 0.08843712 0.09224383 -0.10573894 0.036617033 0.11695457
0.092455484 0.090861715 -0.10428797 -0.09647789 0.073982276 0.11098703 0.117664345 0.07217889
0.091859125 0.09159797 0.052455626 0.05800604 0.00092338026 -0.07310176 -0.020317845 -0.012903877
0.060671218 0.055605106 -0.09016173 -0.116338834 -0.09974898 0.02729819 0.093625225 -0.025161892
-0.04633709 0.06695431 -0.09632796 -0.048238277 -0.035679333 0.03459806 0.040346764 -0.10752157
-0.07691124 0.07152823 0.11405144 0.0566122 0.09955568 -0.0622074 -0.07504478 0.11168087
0.07987652 0.0857461 -0.046510056 0.046234347 -0.11749452 -0.05474887 0.029799946 0.08747173
-0.050388187 0.043872245 0.112795405 -0.0831608 0.035469674 0.06676408 -0.076386616 0.07409828
-0.11171569 -0.108315505 0.016935997 -0.058657117 -0.09849543 -0.021188192 -0.044980146 -0.041431755
0.11628219 -0.045350485 -0.065533996 0.04645913 -0.024137132 -0.08263071 -0.01693479 0.019172125
-0.029222675 0.11424435 0.047091044 -0.05201468 0.009153761 0.061481096 -0.03700684 -0.11151883
0.03592179 -0.038316153 0.09226439 0.03018988 -0.026721694 0.09823785 0.05765871 0.08285976
0.04063519 0.0346914 0.03404761 -0.059549086 0.025157772 -0.094145946 -0.09917256 -0.0821034
0.091273926 0.100843675 -0.03620884 0.09095039 0.11053599 0.11600525 -0.09327154 -0.028941453
0.03638973 0.07509295 0.081152685 0.047827564 -0.107861474 0.02021607 -0.08760177 0.038984545
0.0057688206 0.073085256 -0.018601343 0.024325453 0.10353737 0.07325973 -0.117325544 -0.076043464
0.054950766 -0.087942705 -0.05477359 0.10456648 -0.098642014 0.0058555305 -0.07645121 -0.013458461
0.09472134 -0.0998095 -0.032207876 0.032112382 -0.07631303 0.08127829 -0.066987835 0.06687284
-0.09860448 0.084094696 0.07510056 0.012363799 -0.025070533 0.009854652 -0.113606706 -0.052196234
-0.09608345 -0.06309904 -0.10909307 0.10418903 0.02893699 -0.03921117 -0.085041285 -0.034544572
-0.001402013 -0.044963084 0.049432673 -0.06862166 -0.015814535 0.085701175 -0.05597204 0.006167531
-0.041383304 0.111108236 -0.07134405 -0.042678908 0.11067013 0.11186769 0.019485436 0.018462546
-0.028445795 -0.07195398 -0.03511917 -0.07577721 -0.045010954 0.072373964 -0.02559726 0.09183145
0.057528503 0.018295117 -0.092130624 0.10693856 -0.10817531 0.06359907 -0.016096555 0.051188685
-0.11501843 -0.0134726465 0.065747656 0.0061911047 0.07753501 -0.014745258 0.020706184 0.11131323
-0.021545775 -0.037254892 0.03856758 0.10753458 -0.09905405 0.073522486 0.09380726 -0.10795935
0.05030761 -0.013124518 -0.005790651 0.10407882 -0.11649389 0.069504894 0.08853219 0.101530276
-0.038419887 -0.076822355 0.04267826 0.111152805 0.11506126 -0.042813614 -0.07607963 0.03459858
-0.082433365 -0.07590254 0.029787697 -0.059004843 0.06816169 -0.016676806 -0.0013981089 -0.056417167
0.089132495 0.1041025 -0.059353665 0.113778435 -0.10227907 -0.05169397 0.09483195 0.104260914
-0.10011856 -0.06494973 -0.09231907 0.11777339 -0.036492243 0.081163116 0.059529968 -0.030818254
00000000: 3cd4 9fbd f444 ddbd 5235 14bd 8751 e23d
00000010: 6da1 c3bd 5c29 71bd 50f5 40bc e254 65bd
00000020: fefe 6a3d 612a cbbd 32e2 2b3d 851e b53d
00000030: 55ea bc3d a88d d8bd befb 153d e185 ef3d
00000040: 4d59 bd3d b515 ba3d ee94 d5bd 3396 c5bd
00000050: 0584 973d 2b4d e33d 01fa f03d 87d2 933d
00000060: a320 bc3d b797 bb3d b6db 563d be97 6d3d
00000070: 000f 723a 60b6 95bd 9c71 a6bc c86a 53bc
00000080: 6282 783d 2ec2 633d b7a6 b8bd 0e43 eebd
00000090: 3149 ccbd 74a0 df3c 95be bf3d 5020 cebc
000000a0: f6cb 3dbd 571f 893d 9847 c5bd 8095 45bd
000000b0: 7e24 12bd b2b6 0d3d a642 253d 4534 dcbd
000000c0: a483 9dbd 657d 923d cd93 e93d 32e2 673d
000000d0: d9e3 cb3d 30cd 7ebd 14b1 99bd f1b8 e43d
000000e0: 4d96 a33d a79b af3d 5481 3ebd 3a60 3d3d
000000f0: f8a0 f0bd 5a40 60bd 041f f43c 6124 b33d
00000100: d863 4ebd 62b3 333d 4701 e73d 3650 aabd
00000110: a648 113d 9bbb 883d 9670 9cbd d7c0 973d
00000120: 32cb e4bd 85d4 ddbd 5cbd 8a3c 7242 70bd
00000130: f9b7 c9bd dc92 adbc 1a3d 38bd 58b4 29bd
00000140: 5b25 ee3d 6ec1 39bd b036 86bd ee4b 3e3d
00000150: 3cbb c5bc 4a3a a9bd d4ba 8abc dc0e 9d3c
00000160: 6464 efbc f1f8 e93d 8ae2 403d 580d 55bd
00000170: a8f9 153c 9ad3 7b3d 7c94 17bd fc63 e4bd
00000180: ba22 133d 66f1 1cbd 1df5 bc3d c450 f73c
00000190: 74e7 dabc ed30 c93d 8a2b 6c3d 61b2 a93d
000001a0: 1671 263d 9218 0e3d 8275 0b3d bee9 73bd
000001b0: ac17 ce3c 97cf c0bd fc1a cbbd d425 a8bd
000001c0: d3ed ba3d 2187 ce3d b84f 14bd 3344 ba3d
000001d0: b160 e23d 2994 ed3d 2605 bfbd a016 edbc
000001e0: 660d 153d 55ca 993d 6133 a63d d6e6 433d
000001f0: 7ae6 dcbd 2c9c a53c 8f68 b3bd 42ae 1f3d
00000200: 6008 bd3b b9ad 953d d861 98bc 2c46 c73c
00000210: 670b d43d 3309 963d 6048 f0bd adbc 9bbd
00000220: 0e14 613d 4e1b b4bd 465a 60bd f326 d63d
00000230: d304 cabd c0df bf3b 7492 9cbd e080 5cbc
00000240: 43fd c13d ec68 ccbd 68ec 03bd 4688 033d
00000250: 024a 9cbd 3b75 a63d eb30 89bd a1f4 883d
00000260: 25f1 c9bd d739 ac3d 53ce 993d 8891 4a3c
00000270: b860 cdbc 6875 213c a2aa e8bd b8cb 55bd
00000280: 66c7 c4bd 123a 81bd 306c dfbd 0f61 d53d
00000290: 440d ed3c e49b 20bd 202a aebd 9c7e 0dbd
000002a0: c0c3 b7ba 362b 38bd ea79 4a3d 8389 8cbd
000002b0: 7c8d 81bc 1984 af3d f042 65bd 0019 ca3b
000002c0: 8a81 29bd b78c e33d d41c 92bd 14d0 2ebd
000002d0: 05a7 e23d e31a e53d ec9f 9f3c c43e 973c
000002e0: 2807 e9bc 9c5c 93bd 1ed9 0fbd 1531 9bbd
000002f0: 685d 38bd cd38 943d 58b1 d1bc 2112 bc3d
00000300: 02a3 6b3d a4df 953c fbae bcbd 9b02 db3d
00000310: 048b ddbd 3b40 823d ecdc 83bc 3aab 513d
00000320: c88e ebbd 60bc 5cbc b5a6 863d c0de ca3b
00000330: adca 9e3d 1896 71bc 04a0 a93c 31f8 e33d
00000340: c480 b0bc 9698 18bd 0af9 1d3d 173b dc3d
00000350: dadc cabd f592 963d 051e c03d cb19 ddbd
00000360: 5a0f 4e3d 3808 57bc 80bf bdbb 4727 d53d
00000370: 5994 eebd 9558 8e3d 5d50 b53d 1bef cf3d
00000380: 2c5e 1dbd 0a55 9dbd 66cf 2e3d 15a4 e33d
00000390: 3da5 eb3d 545d 2fbd a3cf 9bbd 3eb7 0d3d
000003a0: d3d2 a8bd ca72 9bbd 5405 f43c 10af 71bd
000003b0: 5b98 8b3d cc9d 88bc c040 b7ba b015 67bd
000003c0: 198b b63d b133 d53d d41c 73bd ab04 e93d
000003d0: b077 d1bd 0ebd 53bd 4137 c23d bf86 d53d
000003e0: f60a cdbd 5d04 85bd c811 bdbd 2d33 f13d
000003f0: e478 15bd d938 a63d b2d5 733d 9076 fcbc

weight f4 [16]
1.0 1.0 1.0 1.0 1.0 1.0 1.0 1.0
1.0 1.0 1.0 1.0 1.0 1.0 1.0 1.0
00000000: 0000 803f 0000 803f 0000 803f 0000 803f
00000010: 0000 803f 0000 803f 0000 803f 0000 803f
00000020: 0000 803f 0000 803f 0000 803f 0000 803f
00000030: 0000 803f 0000 803f 0000 803f 0000 803f

bias f4 [16]
0.0 0.0 0.0 0.0 0.0 0.0 0.0 0.0
0.0 0.0 0.0 0.0 0.0 0.0 0.0 0.0
00000000: 0000 0000 0000 0000 0000 0000 0000 0000
00000010: 0000 0000 0000 0000 0000 0000 0000 0000
00000020: 0000 0000 0000 0000 0000 0000 0000 0000
00000030: 0000 0000 0000 0000 0000 0000 0000 0000

running_mean f4 [16]
0.0104682315 -0.00049790734 -0.0019224571 0.0014515467 0.013065427 -0.009565982 0.009390186 0.008252448
-0.0014228396 -0.0064419135 0.0047190133 0.0059350394 -0.0024442803 0.00043602442 -0.0002595408 0.007838033
00000000: f282 2b3c ff85 02ba f5fa fbba d341 be3a
00000010: 5f10 563c a3ba 1cbc 4bd9 193c 4735 073c
00000020: 937e baba b016 d3bb f4a1 9a3b b87a c23b
00000030: 3830 20bb 359a e439 fa12 88b9 186b 003c

running_var f4 [16]
0.9089259 0.90954006 0.90799487 0.90990627 0.9070934 0.91180557 0.90894186 0.9101853
0.91204435 0.91587156 0.90937996 0.9114764 0.9078882 0.90602183 0.90891826 0.90742004
00000000: 5eaf 683f 9ed7 683f 5a72 683f 9eef 683f
00000010: 4637 683f 176c 693f 6ab0 683f e701 693f
00000020: bd7b 693f 8f76 6a3f 20cd 683f 8456 693f
00000030: 5c6b 683f 0cf1 673f deae 683f ae4c 683f

weight f4 [8, 16, 1, 1]
0.24272466 -0.07177308 0.017947823 0.19024846 -0.10394549 -0.21743408 0.12068626 -0.12445614
-0.033806324 -0.06015441 -0.08270508 0.016924202 0.19047758 -0.1834527 -0.24883226 0.22779563
-0.104896456 0.011067122 0.012811989 -0.1914224 -0.20510739 -0.05123025 0.20306745 0.09764293
0.06585297 -0.13576496 0.021498054 0.21200597 -0.11952552 -0.121004045 0.06662148 -0.036147118
0.15998355 -0.057127744 0.1399948 0.039212376 0.14521244 -0.0060393214 -0.21289858 -0.169148
-0.171821 -0.013795853 0.12491062 0.11014426 0.24561015 0.16084561 -0.076984316 -0.095266074
-0.035275996 0.19012514 -0.115065396 -0.13595954 0.18623433 -0.11175999 -0.21678174 -0.05129245
-0.0780763 -0.24003622 0.0987834 -0.24131304 -0.18269482 -0.10738936 -0.21767786 0.18413967
-0.14455134 -0.16336581 -0.18245646 0.07382786 -0.14129755 -0.2265817 0.24979877 -0.018341035
0.059022933 0.15939283 0.16886425 -0.037137657 0.017236412 0.14657518 -0.09283435 0.11155692
0.22388509 -0.20181924 -0.20873281 0.08146325 -0.02837634 -0.041743338 0.048916608 -0.017656624
0.051543474 -0.04484263 0.0797461 0.21257812 0.002182275 0.1133787 -0.22106963 0.033825636
-0.025320828 -0.17913973 0.10553777 0.1879375 -0.23214701 0.048747152 -0.014297605 -0.07699442
-0.03429696 0.076606214 0.13024226 -0.04080671 -0.015059531 -0.14833817 0.09669924 0.012993604
0.061863273 -0.11400923 -0.21063653 0.017043471 -0.2237021 -0.014208525 -0.042320877 0.09352088
-0.186317 -0.13843232 0.20222703 -0.16020241 0.019536644 0.0083298385 -0.1882033 0.09382367
00000000: d08c 783e c4fd 92bd 5007 933c 7ed0 423e
00000010: 60e1 d4bd 0aa7 5ebe 5c2a f73d dce2 febd
00000020: 8078 0abd 7864 76bd 4861 a9bd a0a4 8a3c
00000030: 8e0c 433e 06db 3bbe e2cd 7ebe 4243 693e
00000040: f4d3 d6bd e052 353c 60e9 513c 3c04 44be
00000050: ac07 52be d0d6 51bd eaf0 4f3e 04f9 c73d
00000060: ecdd 863d f805 0bbe b01c b03c 1818 593e
00000070: ccc9 f4bd f8d0 f7bd d870 883d 000f 14bd
00000080: bad2 233e c8fe 69bd cc5a 0f3e 289d 203d
00000090: 92b2 143e 80e5 c5bb 1602 5abe 2235 2dbe
000000a0: d8f1 2fbe 0008 62bc 24d1 ff3d 5093 e13d
000000b0: 3a81 7b3e b6b4 243e f4a9 9dbd dc1a c3bd
000000c0: 907d 10bd 2ab0 423e 68a7 ebbd fa38 0bbe
000000d0: 36b4 3e3e 6ce2 e4bd 08fc 5dbe 0818 52bd
000000e0: 78e6 9fbd 0ecc 75be f44e ca3d c41a 77be
000000f0: 5a14 3bbe f4ee dbbd f2e6 5ebe 1c8f 3c3e
00000100: 4405 14be 5e49 27be ded5 3abe 1033 973d
00000110: 4eb0 10be 0805 68be 40cb 7f3e f03f 96bc
00000120: 08c2 713d e037 233e c0ea 2c3e a81d 18bd
00000130: 6033 8d3c ce17 163e f01f bebd f477 e43d
00000140: 2242 653e b4a9 4ebe 0ebe 55be 34d6 a63d
00000150: 8075 e8bc 10fb 2abd c85c 483d a0a4 90bc
00000160: 401f 533d e8ac 37bd ec51 a33d 14ae 593e
00000170: 8004 0f3b 1833 e83d 1460 62be c08c 0a3d
00000180: a06d cfbc 6870 37be 3024 d83d b072 403e
00000190: f2b7 6dbe 18ab 473d 8040 6abc 40af 9dbd
000001a0: f87a 0cbd b8e3 9c3d 3a5e 053e f024 27bd
000001b0: 40bc 76bc f6e5 17be 400a c63d 20e3 543c
000001c0: 5864 7d3d ac7d e9bd 1ab1 57be c09e 8b3c
000001d0: 2a12 65be e0ca 68bc a858 2dbd e087 bf3d
000001e0: e2c9 3ebe 34c1 0dbe 9a14 4f3e 1a0c 24be
000001f0: 500b a03c e079 083c 5eb8 40be a026 c03d

weight f4 [8]
1.0 1.0 1.0 1.0 1.0 1.0 1.0 1.0
00000000: 0000 803f 0000 803f 0000 803f 0000 803f
00000010: 0000 803f 0000 803f 0000 803f 0000 803f

bias f4 [8]
0.0 0.0 0.0 0.0 0.0 0.0 0.0 0.0
00000000: 0000 0000 0000 0000 0000 0000 0000 0000
00000010: 0000 0000 0000 0000 0000 0000 0000 0000

running_mean f4 [8]
-0.0019854016 -0.0045506754 0.0053642844 -0.017854564 -0.00034057675 0.0013810229 -0.0017786764 -0.012987936
00000000: 831d 02bb d51d 95bb e1c6 af3b bc43 92bc
00000010: 708f b2b9 7003 b53a 7a22 e9ba 5acb 54bc

running_var f4 [8]
0.91026837 0.9083454 0.91136605 0.91348577 0.9094791 0.9095196 0.9051137 0.91134167
00000000: 5907 693f 5389 683f 494f 693f 34da 693f
00000010: 9fd3 683f 47d6 683f 88b5 673f b04d 693f

weight f4 [8, 1, 3, 3]
-0.103412196 0.25843742 -0.27165902 -0.15140025 -0.18021595 -0.13744327 -0.17338185 0.011459798
-0.32002115 0.1320444 0.19213763 0.23329142 0.0006759167 0.0896261 -0.28148568 0.16827515
-0.10086505 0.26896873 0.28180113 0.29810783 -0.031424254 -0.13552055 0.22767982 0.09853098
0.099956036 -0.2193129 -0.020000726 0.118920416 0.0059404075 0.041895658 -0.0034975111 0.010989219
0.21951029 -0.11058152 0.3058323 -0.30386525 0.22972843 -0.2350462 -0.020665884 0.23998746
0.30489627 -0.13070643 0.100899816 -0.25545472 0.30487117 0.04978943 0.025350332 -0.3045373
0.271009 0.0047266483 0.021796346 0.04117784 0.039277703 -0.08145222 0.23464647 0.29550943
-0.11630826 0.19738963 -0.11270051 0.068264395 -0.053501695 0.11660981 0.2389076 0.1191518
-0.2788961 0.015896171 -0.20951681 -0.20858225 -0.059155345 -0.10642736 -0.2571867 -0.09072372
00000000: c6c9 d3bd e951 843e e416 8bbe ab08 1bbe
00000010: 888a 38be eebd 0cbe 038b 31be e0c1 3b3c
00000020: d0d9 a3be a636 073e babf 443e f2e3 6e3e
00000030: 0030 313a e48d b73d e41e 90be 5250 2c3e
00000040: 5692 cebd 45b6 893e 3d48 903e 97a1 983e
00000050: b8b6 00bd e6c5 0abe e624 693e 9cca c93d
00000060: c0b5 cc3d 9093 60be 90d8 a3bc 8c8c f33d
00000070: c0a7 c23b c89a 2b3d 8036 65bb 200c 343c
00000080: 4ec7 603e 9078 e2bd 0d96 9c3e 3a94 9bbe
00000090: ee3d 6b3e f3af 70be 804b a9bc 46bf 753e
000000a0: 5d1b 9c3e e8d7 05be 90a4 ce3d f6ca 82be
000000b0: 1318 9c3e 00f0 4b3d 80ab cf3c 50ec 9bbe
000000c0: b1c1 8a3e 00e2 9a3b 408e b23c 18aa 283d
000000d0: a8e1 203d 6cd0 a6bd 2a47 703e 034d 973e
000000e0: 0633 eebd 8220 4a3e 86cf e6bd 34ce 8b3d
000000f0: 9824 5bbd 20d1 ee3d 32a4 743e dc05 f43d
00000100: 78cb 8ebe b038 823c 938b 56be 9696 55be
00000110: e04c 72bd 96f6 d9bd faad 83be 5ccd b9bd

weight f4 [8]
1.0 1.0 1.0 1.0 1.0 1.0 1.0 1.0
00000000: 0000 803f 0000 803f 0000 803f 0000 803f
00000010: 0000 803f 0000 803f 0000 803f 0000 803f

bias f4 [8]
0.0 0.0 0.0 0.0 0.0 0.0 0.0 0.0
00000000: 0000 0000 0000 0000 0000 0000 0000 0000
00000010: 0000 0000 0000 0000 0000 0000 0000 0000

running_mean f4 [8]
0.00036611818 0.00022526247 8.7416694e-05 4.0094765e-05 -0.00013361685 0.00030901082 3.407169e-05 0.0001855224
00000000: 8df3 bf39 6f34 6c39 7b53 b738 6d2b 2838
00000010: 801b 0cb9 bb02 a239 33e8 0e38 ca88 4239

running_var f4 [8]
0.93516904 0.93092746 0.93341446 0.9247483 0.94485617 0.9178598 0.9278405 0.92263746
00000000: 3d67 6f3f 4351 6e3f 40f4 6e3f 4ebc 6c3f
00000010: 18e2 713f dcf8 6a3f f486 6d3f f831 6c3f

weight f4 [16]
1.0 1.0 1.0 1.0 1.0 1.0 1.0 1.0
1.0 1.0 1.0 1.0 1.0 1.0 1.0 1.0
00000000: 0000 803f 0000 803f 0000 803f 0000 803f
00000010: 0000 803f 0000 803f 0000 803f 0000 803f
00000020: 0000 803f 0000 803f 0000 803f 0000 803f
00000030: 0000 803f 0000 803f 0000 803f 0000 803f

bias f4 [16]
0.0 0.0 0.0 0.0 0.0 0.0 0.0 0.0
0.0 0.0 0.0 0.0 0.0 0.0 0.0 0.0
00000000: 0000 0000 0000 0000 0000 0000 0000 0000
00000010: 0000 0000 0000 0000 0000 0000 0000 0000
00000020: 0000 0000 0000 0000 0000 0000 0000 0000
00000030: 0000 0000 0000 0000 0000 0000 0000 0000

running_mean f4 [16]
-6.6356737e-10 -1.3271347e-09 -1.3271347e-09 7.4505807e-10 3.7252904e-10 1.0244549e-09 1.3969839e-10 -8.3819035e-10
1.4435501e-09 -9.0803953e-10 8.3819035e-10 -9.313226e-10 1.3969839e-10 3.7252904e-10 5.820766e-10 1.1175871e-09
00000000: 6766 36b0 6766 b6b0 6766 b6b0 cdcc 4c30
00000010: cdcc cc2f cdcc 8c30 9a99 192f 6766 66b0
00000020: 6766 c630 9a99 79b0 6766 6630 0000 80b0
00000030: 9a99 192f cdcc cc2f 0000 2030 9a99 9930

running_var f4 [16]
0.99999326 0.99999106 0.9999942 0.9999956 0.9999925 0.99999255 0.9999835 0.9999942
1.0000002 0.99999976 1.0 0.999999 1.0000008 0.99999744 0.9999994 0.9999986
00000000: 8fff 7f3f 6aff 7f3f 9fff 7f3f b6ff 7f3f
00000010: 82ff 7f3f 83ff 7f3f ebfe 7f3f 9fff 7f3f
00000020: 0200 803f fcff 7f3f 0000 803f efff 7f3f
00000030: 0700 803f d5ff 7f3f f6ff 7f3f e9ff 7f3f

weight f4 [16, 1, 3, 3]
0.0570848 -0.20621733 -0.16077523 0.11670983 0.22657439 -0.067144275 -0.19750094 -0.16467115
0.3291045 -0.0954123 -0.26131815 0.26660863 -0.2167387 -0.27373612 -0.041583568 -0.1626445
0.32706782 0.0011861622 0.21113929 -0.21834259 0.007116288 0.123408824 -0.21367697 0.28173003
0.14245173 -0.18406014 0.26770476 -0.09940235 -0.04162097 0.21831354 0.13810739 0.10517284
0.31645265 -0.04037139 0.08528912 0.19020227 -0.067712575 -0.2703544 0.30094168 0.15198734
0.293359 -0.122003525 -0.0028814077 -0.31948513 -0.12537909 0.2214829 0.15063402 0.062115997
-0.32051325 -0.2957877 0.11875558 0.03523746 0.21775177 0.2602655 -0.30561972 -0.1183269
-0.022315174 0.10586044 0.0931848 -0.13586149 0.095002204 0.15841195 0.2859942 -0.31659085
0.22263327 -0.14150795 0.01955679 0.071561456 -0.16420007 -0.101650044 0.22730991 0.015195847
0.12922767 0.010333329 -0.13587892 -0.093303055 -0.28800416 0.13694164 0.30479684 0.15578422
0.3317094 -0.21924329 0.21021464 0.15751687 -0.13809869 -0.278344 0.09989324 0.10218951
0.19097552 -0.20254192 -0.03024587 0.11094168 0.19086072 -0.0349482 -0.08388078 -0.1509084
0.33234915 -0.24037239 -0.1483618 0.17747584 -0.24327461 -0.20671046 0.049577564 -0.3135602
0.049512148 0.0314925 -0.11115572 -0.15533745 -0.046568543 -0.05237925 0.13657132 0.3020483
-0.15705328 0.1886293 -0.11291401 0.06286535 -0.043848366 -0.025114983 0.16445613 -0.18702778
-0.17341869 -0.024988264 -0.32425642 0.035506964 -0.09700835 0.021704763 -0.17563793 0.2880297
-0.22681293 -0.04995072 0.3271542 0.3241407 -0.05336818 -0.3114087 0.2753413 0.15031981
-0.011040926 0.10786271 -0.060177535 -0.2101239 -0.174035 -0.25476277 -0.03559363 0.010698706
00000000: c0d1 693d a32a 53be 43a2 24be 9005 ef3d
00000010: 1e03 683e f082 89bd b03d 4abe 8e9f 28be
00000020: 6380 a83e 8667 c3bd 7ecb 85be ed80 883e
00000030: c0f0 5dbe 2427 8cbe 8853 2abd 488c 26be
00000040: 6f75 a73e 0079 9b3a e634 583e 3395 5fbe
00000050: c02f e93b c4bd fc3d 23ce 5abe eb3e 903e
00000060: dede 113e 437a 3cbe 9910 893e 7693 cbbd
00000070: c07a 2abd 968d 5f3e 066c 0d3e dc64 d73d
00000080: 1506 a23e 785c 25bd 10ac ae3d 62c4 423e
00000090: e4ac 8abd e46b 8abe 0715 9a3e 92a2 1b3e
000000a0: 2733 963e fcdc f9bd 00d6 3cbb 8e93 a3be
000000b0: 6063 00be 6acc 623e ce3f 1a3e 586d 7e3d
000000c0: 501a a4be 7c71 97be 2036 f33d 2855 103d
000000d0: 52fa 5e3e 8541 853e 307a 9cbe 6055 f2bd
000000e0: 50ce b6bc 5ccd d83d acd7 be3d 461f 0bbe
000000f0: 8490 c23d be36 223e d56d 923e 3218 a2be
00000100: faf9 633e 76e7 10be 9035 a03c d08e 923d
00000110: 1024 28be e62d d0bd eec3 683e 00f8 783c
00000120: 4254 043e 204d 293c d823 0bbe ac15 bfbd
00000130: 4875 93be 6e3a 0c3e 550e 9c3e e685 1f3e
00000140: d1d5 a93e 5081 60be 8242 573e 1a4c 213e
00000150: be69 0dbe 1b83 8ebe d494 cc3d bc48 d13d
00000160: 168f 433e 2667 4fbe 30c6 f7bc 6435 e33d
00000170: fe70 433e d825 0fbd b0c9 abbd bb87 1abe
00000180: ab29 aa3e 2e24 76be 28ec 17be 3abc 353e
00000190: fb1c 79be e8ab 53be d811 4b3d f68a a0be
000001a0: 40cd 4a3d 48fe 003d 9ca5 e3bd c810 1fbe
000001b0: a8be 3ebd a08b 56bd 5ad9 0b3e 13a6 9a3e
000001c0: 93d2 20be 0a28 413e 763f e7bd 8cbf 803d
000001d0: 589a 33bd f0bd cdbc 3067 283e 3684 3fbe
000001e0: ab94 31be 30b4 ccbc f004 a6be c06f 113d
000001f0: 50ac c6bd 30ce b13c 6eda 33be a178 933e
00000200: a641 68be 2099 4cbd c180 a73e c5f5 a53e
00000210: 9898 5abd f670 9fbe 89f9 8c3e 70ed 193e
00000220: 00e5 34bc 20e7 dc3d b87c 76bd b82a 57be
00000230: 3b36 32be 4470 82be a0ca 11bd a049 2f3c

weight f4 [16]
1.0 1.0 1.0 1.0 1.0 1.0 1.0 1.0
1.0 1.0 1.0 1.0 1.0 1.0 1.0 1.0
00000000: 0000 803f 0000 803f 0000 803f 0000 803f
00000010: 0000 803f 0000 803f 0000 803f 0000 803f
00000020: 0000 803f 0000 803f 0000 803f 0000 803f
00000030: 0000 803f 0000 803f 0000 803f 0000 803f

bias f4 [16]
0.0 0.0 0.0 0.0 0.0 0.0 0.0 0.0
0.0 0.0 0.0 0.0 0.0 0.0 0.0 0.0
00000000: 0000 0000 0000 0000 0000 0000 0000 0000
00000010: 0000 0000 0000 0000 0000 0000 0000 0000
00000020: 0000 0000 0000 0000 0000 0000 0000 0000
00000030: 0000 0000 0000 0000 0000 0000 0000 0000

running_mean f4 [16]
-0.001119438 -0.007280387 0.006603113 0.014182833 -0.002778144 0.0071135 0.0026285176 -0.0023156228
0.009075381 -0.0012866989 -0.0009609585 -0.011897757 0.0045815534 -0.009978633 0.006564276 -0.007845763
00000000: 1bba 92ba 5090 eebb ed5e d83b 1d5f 683c
00000010: 8611 36bb 5d18 e93b 3543 2c3b b4c1 17bb
00000020: e8b0 143c 73a6 a8ba d5e8 7bba cfee 42bc
00000030: db20 963b 6c7d 23bc 2319 d73b 848b 00bc

running_var f4 [16]
0.9088352 0.9151713 0.91092515 0.90636224 0.91236675 0.91271734 0.9076444 0.90635973
0.90994567 0.9093027 0.9094236 0.9078778 0.9077116 0.9061377 0.9128847 0.90634674
00000000: 6ca9 683f ab48 6a3f 6432 693f 5b07 683f
00000010: de90 693f d8a7 693f 625b 683f 3107 683f
00000020: 33f2 683f 10c8 683f fccf 683f ae6a 683f
00000030: ca5f 683f a4f8 673f d0b2 693f 5706 683f

weight f4 [4, 16, 1, 1]
-0.12492633 -0.2087543 0.0005180836 0.18750748 0.21056119 -0.1492979 0.046163768 0.01034227
0.19105995 0.18497717 -0.12807417 0.14083505 -0.18478218 -0.13847786 -0.24234298 0.14931902
-0.23604822 0.007237971 0.21098998 0.21690017 0.1664629 0.22205782 -0.19542474 0.18064073
-0.13130677 0.23728612 -0.026961982 0.11531025 -0.0811629 -0.032375127 0.11808729 -0.184282
0.059328526 -0.18127006 0.0014750957 0.21715891 0.10467017 -0.047352105 -0.1919367 0.13710812
0.20245144 -0.07951358 -0.033949345 -0.18024573 -0.11071569 0.11926395 0.12510112 -0.2273756
-0.2303546 0.009177357 -0.036961466 -0.09478149 -0.0658806 -0.10989499 -0.22661057 -0.20692149
-0.10974097 0.04680291 0.2222493 -0.112063825 -0.14140245 -0.24568048 0.07621816 0.034850657
00000000: 60d9 ffbd b0c3 55be 00d0 073a f601 403e
00000010: 5a9d 573e 8ce1 18be 3816 3d3d a072 293c
00000020: 38a5 433e a86a 3d3e e025 03be 1037 103e
00000030: 8a37 3dbe 24cd 0dbe c228 78be 16e7 183e
00000040: a0b6 71be 802c ed3b c20d 583e 141b 5e3e
00000050: 4075 2a3e 2063 633e 6c1d 48be e2f9 383e
00000060: 4875 06be 22fb 723e 60df dcbc c827 ec3d
00000070: bc38 a6bd c89b 04bd c0d7 f13d 6cb4 3cbe
00000080: 7802 733d dc9e 39be 0058 c13a e85e 5e3e
00000090: 505d d63d 48f4 41bd 0e8b 44be 1266 0c3e
000000a0: 6e4f 4f3e 04d8 a2bd 780e 0bbd 5692 38be
000000b0: e8be e2bd a840 f43d 821a 003e 26d5 68be
000000c0: 14e2 6bbe a05c 163c e864 17bd cc1c c2bd
000000d0: 68ec 86bd a010 e1bd 9a0c 68be 3ae3 53be
000000e0: e0bf e0bd 68b4 3f3d 5295 633e b881 e5bd
000000f0: cecb 10be aa93 7bbe 4418 9c3d 90bf 0e3d

bias f4 [4]
0.019960284 -0.19863242 0.05859995 0.03826213
00000000: c083 a33c 4c66 4bbe 8006 703d c0b8 1c3d

weight f4 [16, 4, 1, 1]
0.47728217 -0.42985475 -0.30417627 0.04226309 0.40368384 -0.14580637 0.08519989 0.48069692
0.04785812 -0.16759056 -0.2891422 -0.2916147 0.17257392 -0.252244 0.47049105 0.26413918
0.3951739 0.48220938 0.072773516 -0.19507086 0.1617502 0.22401941 -0.17060196 0.4712413
-0.4702456 -0.06528908 -0.1244058 0.4443075 0.39195937 0.4163866 -0.38715005 -0.32305402
0.39227462 -0.019862294 -0.24461424 0.4524216 -0.410891 0.3784758 0.45848656 -0.25972444
-0.32408744 -0.014538765 -0.05388218 0.42577577 0.45274544 0.41267627 -0.099550486 0.4112081
-0.08159202 -0.30706722 0.32043642 -0.11061478 0.14074463 -0.37117684 -0.18798423 -0.4138186
-0.34988785 -0.18491292 0.49049103 -0.4788412 -0.3670779 -0.25439954 0.28668475 0.31257576
00000000: 545e f43e ec15 dcbe febc 9bbe 101c 2d3d
00000010: a6af ce3e 444e 15be 487d ae3d e81d f63e
00000020: e006 443d dc9c 2bbe 720a 94be 864e 95be
00000030: 38b7 303e 2026 81be 34e4 f03e 403d 873e
00000040: 3c54 ca3e 26e4 f63e 480a 953d a8c0 47be
00000050: d8a1 253e 5865 653e 48b2 2ebe 8a46 f13e
00000060: 08c4 f0be 48b6 85bd 78c8 febd 467c e33e
00000070: e6ae c83e a030 d53e 8838 c6be 5667 a5be
00000080: 38d8 c83e 40b6 a2bc 287c 7abe cea3 e73e
00000090: 4e60 d2be 94c7 c13e c0be ea3e 9afa 84be
000000a0: caee a5be 0034 6ebc 90b3 5cbd 48ff d93e
000000b0: 40ce e73e 4e4a d33e 20e1 cbbd de89 d23e
000000c0: b819 a7bd ea37 9dbe 3e10 a43e 008a e2bd
000000d0: 5c1f 103e e40a bebe f07e 40be 08e0 d3be
000000e0: 8024 b3be d059 3dbe a421 fb3e ac2a f5be
000000f0: a2f1 bbbe a840 82be 58c8 923e ee09 a03e

bias f4 [16]
0.25076294 -0.3706854 -0.49142832 -0.12862533 -0.45833474 -0.06751436 -0.38831085 0.017454326
-0.25684917 0.40719867 0.326564 0.47238934 0.14818877 -0.42947638 -0.31227368 -0.10672712
00000000: 0064 803e 7aca bdbe 7e9c fbbe 5cb6 03be
00000010: daaa eabe f844 8abd aed0 c6be 60fc 8e3c
00000020: bc81 83be 587c d03e 6633 a73e 04dd f13e
00000030: ccbe 173e 54e4 dbbe 56e2 9fbe c093 dabd

weight f4 [8, 16, 1, 1]
0.018437833 0.04991913 0.069336504 -0.12639451 0.19687095 0.008851081 0.21643707 0.07293588
-0.18598026 0.10461143 -0.23673376 -0.03119719 0.033958495 0.13381639 -0.11927372 -0.12879223
0.1680409 -0.22625509 -0.10863587 -0.01520139 -0.06455484 -0.21044487 0.22134703 -0.11709687
-0.24749744 -0.09980759 0.13128516 0.23485577 -0.1841442 0.18754667 0.025405496 -0.08669728
-0.07534891 -0.025255144 0.053904444 -0.13208503 0.19777575 -0.11592361 -0.15105024 -0.06621903
0.034083396 -0.11302978 0.1362482 0.20022154 0.15336093 0.13055989 0.2386713 -0.14762229
-0.11752224 0.111350656 -0.17385992 0.01452291 0.18663356 -0.1717236 -0.21208227 0.2309159
-0.19490787 0.17441007 -0.10791075 -0.011609226 -0.016683847 0.04337567 0.12371439 -0.10994148
0.24498713 -0.11412084 -0.17912656 0.025158405 0.07071638 -0.011740357 0.22884986 0.049739808
0.1283226 -0.1419647 -0.18720806 -0.06976801 -0.0041007996 0.04279217 -0.023398757 -0.19724736
-0.100352794 -0.055498242 0.089437634 0.0063515604 0.095957816 -0.10558072 0.19862497 0.035868198
-0.0003516674 -0.070029736 -0.15206379 -0.16301504 -0.05492851 0.12903205 0.14583763 -0.03188309
0.042400032 -0.11759728 0.109248996 0.06485078 -0.08803153 -0.1904777 -0.15960911 -0.21778744
0.035307944 -0.14334413 0.07752445 0.081172675 0.16958484 0.19239196 -0.1730294 -0.2449776
0.022355676 0.055417657 -0.09803948 -0.22426629 -0.20394352 -0.03944418 0.12741312 0.05791536
0.0094510615 -0.11445445 -0.14978573 -0.028725684 0.13815424 -0.21916074 0.15648443 -0.07389337
00000000: f00a 973c 0078 4c3d 4c00 8e3d 906d 01be
00000010: 8a98 493e 2004 113c aea1 5d3e 685f 953d
00000020: 9c71 3ebe 843e d63d 566a 72be 4091 ffbc
00000030: 1018 0b3d 2a07 093e c845 f4bd 1ce2 03be
00000040: ea12 2c3e 6aaf 67be 7c7c debd 400f 79bc
00000050: 5435 84bd dc7e 57be cca8 623e 7cd0 efbd
00000060: f86f 7dbe ec67 ccbd 9e6f 063e 087e 703e
00000070: 4c90 3cbe 3c0c 403e 301f d03c 588e b1bd
00000080: 8850 9abd e0e3 cebc e8ca 5c3d 4c41 07be
00000090: ba85 4a3e 5c69 edbd eaac 1abe d89d 87bd
000000a0: 089b 0b3d 287c e7bd a684 0b3e e006 4d3e
000000b0: a60a 1d3e 7eb1 053e 4066 743e 4c2a 17be
000000c0: 80af f0bd d00b e43d 5608 32be 80f1 6d3c
000000d0: de1c 3f3e 50d8 2fbe 182c 59be 3875 6c3e
000000e0: ee95 47be 8e98 323e 5000 ddbd a034 3ebc
000000f0: 90ac 88bc b0aa 313d f85d fd3d 0029 e1bd
00000100: e8dd 7a3e 30b8 e9bd f46c 37be 0019 ce3c
00000110: c0d3 903d a05a 40bc 9e57 6a3e f8bb 4b3d
00000120: 0067 033e 325f 11be 78b3 3fbe 88e2 8ebd
00000130: 0060 86bb d846 2f3d c0ae bfbc 36fb 49be
00000140: c485 cdbd 2052 63bd 142b b73d c020 d03b
00000150: 8885 c43d b43a d8bd 5864 4b3e 88ea 123d
00000160: 0060 b8b9 c06b 8fbd 9cb6 1bbe 6aed 26be
00000170: b8fc 60bd fa20 043e 7656 153e d897 02bd
00000180: a8ab 2d3d d8d6 f0bd f0bd df3d 7cd0 843d
00000190: e049 b4bd 960c 43be 9270 23be ac03 5fbe
000001a0: 109f 103d cec8 12be 24c5 9e3d dc3d a63d
000001b0: a6a7 2d3e 6602 453e 9e2e 31be 68db 7abe
000001c0: 4023 b73c a0fd 623d ecc8 c8bd 10a6 65be
000001d0: 92d6 50be 3890 21bd 9678 023e a838 6d3d
000001e0: a0d8 1a3c 1867 eabd 6e61 19be 2052 ebbc
000001f0: 4e78 0d3e ac6b 60be 743d 203e 6855 97bd

weight f4 [8]
1.0 1.0 1.0 1.0 1.0 1.0 1.0 1.0
00000000: 0000 803f 0000 803f 0000 803f 0000 803f
00000010: 0000 803f 0000 803f 0000 803f 0000 803f

bias f4 [8]
0.0 0.0 0.0 0.0 0.0 0.0 0.0 0.0
00000000: 0000 0000 0000 0000 0000 0000 0000 0000
00000010: 0000 0000 0000 0000 0000 0000 0000 0000

running_mean f4 [8]
-0.00019853772 -0.0023770572 0.002447709 -0.0015651574 -0.00158243 -0.0019912673 -0.004095416 -0.0044637616
00000000: 902e 50b9 67c8 1bbb be69 203b f825 cdba
00000010: 8a69 cfba ec7f 02bb d732 86bb bf44 92bb

running_var f4 [8]
0.9020836 0.90304923 0.90245247 0.9023334 0.90207714 0.9011544 0.9022523 0.90205836
00000000: f3ee 663f 3c2e 673f 2007 673f 52ff 663f
00000010: 87ee 663f 0eb2 663f 02fa 663f 4ced 663f

weight f4 [8, 1, 3, 3]
0.15175319 -0.023791552 -0.29822516 0.174211 -0.010675341 -0.16770443 0.0006388128 0.13306686
0.23576996 -0.17528729 0.1807082 -0.039992124 -0.22190773 0.19738099 0.2500936 -0.24985377
-0.178318 0.22765878 0.3039582 -0.12827659 0.14093113 -0.3208345 0.05597639 -0.19495456
0.0432235 -0.16429827 -0.21076974 0.14338556 0.14461124 -0.10353057 0.046669245 -0.22861096
0.20215657 0.28214964 0.14874151 0.026151985 -0.33085272 -0.2868966 -0.23981588 0.00076678395
0.04244128 -0.09210853 -0.014008909 0.2256892 0.15040478 -0.079693675 0.28165373 0.18603781
-0.048805922 0.08883986 -0.12139201 0.20887068 -0.32441434 -0.22035353 -0.04729438 -0.103927776
-0.029324025 0.28133598 -0.051250935 0.01614806 0.2895241 0.022319466 -0.28210753 0.05894932
0.2004998 -0.3298678 -0.25094196 -0.18719113 -0.11320154 0.2064077 -0.24932456 -0.28504628
00000000: 3065 1b3e 80e6 c2bc f8b0 98be 5e64 323e
00000010: a0e7 2ebc b6ba 2bbe 0076 273a ae42 083e
00000020: ae6d 713e 837e 33be 920b 393e c8ce 23bd
00000030: c83b 63be 3e1e 4a3e 450c 803e abd9 7fbe
00000040: fe98 36be 621f 693e 69a0 9b3e f05a 03be
00000050: 4050 103e 6b44 a4be 8047 653d 2ba2 47be
00000060: 200b 313d ce3d 28be 06d4 57be aad3 123e
00000070: f814 143e d607 d4bd 4028 3f3d fe18 6abe
00000080: 2202 4f3e eb75 903e b24f 183e b03c d63c
00000090: 8765 a9be 1ce4 92be 4b92 75be 0002 493a
000000a0: e8d6 2d3d 66a3 bcbd a085 65bc 121b 673e
000000b0: b603 1a3e 7036 a3bd eb34 903e b280 3e3e
000000c0: b8e8 47bd acf1 b53d 609c f8bd 32e2 553e
000000d0: a319 a6be 5ba4 61be c0b7 41bd 16d8 d4bd
000000e0: f038 f0bc 450b 903e 80ec 51bd f048 843c
000000f0: 813c 943e 50d7 b63c 6670 90be d874 713d
00000100: d24f 4d3e 6fe4 a8be 777b 80be 08af 3fbe
00000110: 36d6 e7bd 8a5c 533e f04e 7fbe 96f1 91be

weight f4 [8]
1.0 1.0 1.0 1.0 1.0 1.0 1.0 1.0
00000000: 0000 803f 0000 803f 0000 803f 0000 803f
00000010: 0000 803f 0000 803f 0000 803f 0000 803f

bias f4 [8]
0.0 0.0 0.0 0.0 0.0 0.0 0.0 0.0
00000000: 0000 0000 0000 0000 0000 0000 0000 0000
00000010: 0000 0000 0000 0000 0000 0000 0000 0000

running_mean f4 [8]
0.00010789684 0.000874565 -0.00033616702 -0.00020326709 -0.000111025016 5.1380317e-05 -0.0007017726 0.0005729268
00000000: ad46 e238 1043 653a 933f b0b9 1824 55b9
00000010: 1ad6 e8b8 3281 5738 29f7 37ba 7730 163a

running_var f4 [8]
0.9264796 0.9331574 0.9379465 0.92476344 0.93665063 0.93560743 0.9263614 0.947051
00000000: c42d 6d3f 67e3 6e3f 431d 703f 4cbd 6c3f
00000010: 56c8 6f3f f883 6f3f 0526 6d3f ef71 723f

weight f4 [16]
1.0 1.0 1.0 1.0 1.0 1.0 1.0 1.0
1.0 1.0 1.0 1.0 1.0 1.0 1.0 1.0
00000000: 0000 803f 0000 803f 0000 803f 0000 803f
00000010: 0000 803f 0000 803f 0000 803f 0000 803f
00000020: 0000 803f 0000 803f 0000 803f 0000 803f
00000030: 0000 803f 0000 803f 0000 803f 0000 803f

bias f4 [16]
0.0 0.0 0.0 0.0 0.0 0.0 0.0 0.0
0.0 0.0 0.0 0.0 0.0 0.0 0.0 0.0
00000000: 0000 0000 0000 0000 0000 0000 0000 0000
00000010: 0000 0000 0000 0000 0000 0000 0000 0000
00000020: 0000 0000 0000 0000 0000 0000 0000 0000
00000030: 0000 0000 0000 0000 0000 0000 0000 0000

running_mean f4 [16]
-9.778888e-10 -1.0244549e-09 -1.6298145e-09 -6.9849193e-10 9.313226e-11 9.313226e-10 1.8626452e-10 7.916242e-10
7.2177503e-10 -9.778888e-10 -8.1490725e-10 6.519258e-10 -3.259629e-10 1.3329554e-09 8.3819035e-10 -4.656613e-10
00000000: 6766 86b0 cdcc 8cb0 0000 e0b0 0000 40b0
00000010: cdcc cc2e 0000 8030 cdcc 4c2f 9a99 5930
00000020: 6766 4630 6766 86b0 0000 60b0 3333 3330
00000030: 3333 b3af 3333 b730 6766 6630 0000 00b0

running_var f4 [16]
0.99995506 0.99997026 0.9999623 0.9999602 0.99995494 0.9999165 0.99995863 0.99995446
0.9999992 1.0 1.0000004 0.999999 1.0000004 1.0000002 0.9999992 1.000001
00000000: 0efd 7f3f 0dfe 7f3f 87fd 7f3f 64fd 7f3f
00000010: 0cfd 7f3f 87fa 7f3f 4afd 7f3f 04fd 7f3f
00000020: f3ff 7f3f 0000 803f 0300 803f efff 7f3f
00000030: 0300 803f 0200 803f f3ff 7f3f 0800 803f

weight f4 [8, 16, 1, 1]
-0.09785548 0.14231691 -0.22972426 -0.1297437 0.065246165 -0.23749593 -0.1665659 -0.071970135
-0.059407473 -0.09893307 0.16148466 -0.19166541 0.048339486 -0.18327051 -0.05199346 -0.16165543
-0.079550624 -0.2355485 0.18639183 -0.21807915 -0.12399596 -0.19574901 0.032575607 -0.11465266
-0.08861557 0.12437931 0.111564666 0.1740832 0.07683003 0.1579723 -0.057558358 0.12762493
-0.018755257 -0.1617823 -0.09333551 -0.008679599 0.11914539 0.1845738 0.13186252 0.06814882
0.21247372 0.04869792 -0.017641395 0.0053736567 -0.21790197 0.014496118 -0.04878694 0.12546802
-0.06777874 0.16732687 -0.019562602 0.15639362 0.19177037 -0.17658198 -0.072975636 -0.17550966
0.20106319 -0.12481302 0.08813375 0.19873351 -0.06268686 0.065562785 -0.20860812 -0.18733081
0.24270383 0.07371184 -0.10138813 -0.24892834 -0.03357804 -0.17874429 -0.1311042 -0.005164176
0.14096776 0.1257653 0.021165222 -0.13269627 -0.22456011 0.24955776 0.13529569 0.0816353
0.09002483 0.021266073 -0.16479966 0.18295711 -0.11193514 0.10454416 -0.21339628 -0.05291888
-0.16631785 0.081382096 0.03140092 0.010161817 0.22462466 -0.008227974 0.22660461 0.04890418
-0.05080214 -0.052951157 0.21517861 0.12657893 0.22321373 0.087952554 -0.16325724 0.20582473
-0.026112765 -0.21745035 -0.062502176 -0.05837196 0.15528002 0.19494873 0.23257634 0.021969795
0.19668299 -0.027860343 -0.18707624 -0.1988684 0.14917648 0.16791353 0.1392526 -0.10074979
-0.19356498 -0.20018995 -0.098943114 -0.020121694 -0.17026174 0.18262094 -0.12259629 -0.09372425
00000000: 7468 c8bd 86bb 113e d63c 6bbe 88db 04be
00000010: c89f 853d 2232 73be 4090 2abe 1465 93bd
00000020: 4055 73bd 6c9d cabd 3c5c 253e f043 44be
00000030: a0ff 453d 44ab 3bbe 18f7 54bd 0089 25be
00000040: 70eb a2bd a033 71be 80dd 3e3e 2450 5fbe
00000050: 98f1 fdbd 6e72 48be 006e 053d 04cf eabd
00000060: 147c b5bd 94ba fe3d 047c e43d de42 323e
00000070: 1059 9d3d 7ec3 213e 50c2 6bbd 1cb0 023e
00000080: a0a4 99bc 42aa 25be b026 bfbd e034 0ebc
00000090: 8002 f43d ea00 3d3e f806 073e 9c91 8b3d
000000a0: b692 593e 7877 473d b084 90bc 8015 b03b
000000b0: b221 5fbe 2081 6d3c d0d4 47bd b07a 003e
000000c0: 94cf 8abd bc57 2b3e c041 a0bc a625 203e
000000d0: 745f 443e e8d1 34be 4074 95bd ceb8 33be
000000e0: 82e3 4d3e f89d ffbd 787f b43d cc80 4b3e
000000f0: f861 80bd c845 863d 5e9d 55be a6d3 3fbe
00000100: 5a87 783e 3cf6 963d 94a4 cfbd 12e7 7ebe
00000110: 2089 09bd be08 37be 2e40 06be 4038 a9bb
00000120: da59 103e 9ec8 003e b062 ad3c 88e1 07be
00000130: 16f3 65be 128c 7f3e f48a 0a3e 6830 a73d
00000140: f05e b83d 3036 ae3c 3ec1 28be 1c59 3b3e
00000150: 403e e5bd 401b d63d 8e84 5abe 78c1 58bd
00000160: 3a4f 2abe a8ab a63d 409e 003d c07d 263c
00000170: 0204 663e a0ce 06bc 0a0b 683e c04f 483d
00000180: e815 50bd 50e3 58bd c857 5c3e e89d 013e
00000190: 2492 643e 7820 b43d e82c 27be b8c3 523e
000001a0: 70ea d5bc 4eab 5ebe 2401 80bd 7017 6fbd
000001b0: ba01 1f3e a4a0 473e 7e28 6e3e 00fa b33c
000001c0: 4467 493e 603b e4bc ea90 3fbe 28a4 4bbe
000001d0: b8c1 183e 86f1 2b3e 3c98 0e3e e855 cebd
000001e0: e635 46be 98fe 4cbe b0a2 cabd 40d6 a4bc
000001f0: 1859 2ebe fc00 3b3e c413 fbbd 80f2 bfbd

weight f4 [8]
1.0 1.0 1.0 1.0 1.0 1.0 1.0 1.0
00000000: 0000 803f 0000 803f 0000 803f 0000 803f
00000010: 0000 803f 0000 803f 0000 803f 0000 803f

bias f4 [8]
0.0 0.0 0.0 0.0 0.0 0.0 0.0 0.0
00000000: 0000 0000 0000 0000 0000 0000 0000 0000
00000010: 0000 0000 0000 0000 0000 0000 0000 0000

running_mean f4 [8]
-0.020986749 -0.0020265074 0.005695624 -0.00044729497 0.00023116416 0.0050621266 0.013817503 -0.009614642
00000000: 67ec abbc 27cf 04bb 5ba2 ba3b ea82 eab9
00000010: a864 7239 32e0 a53b cf62 623c bb86 1dbc

running_var f4 [8]
0.9383022 0.950207 0.9235429 0.9330684 0.93421745 0.94213593 0.95333374 0.9468884
00000000: 9334 703f c440 733f 4f6d 6c3f 92dd 6e3f
00000010: e028 6f3f d22f 713f ae0d 743f 4767 723f

weight f4 [8, 1, 3, 3]
0.016566664 0.32601973 0.086568 0.15579918 -0.021315962 0.2813699 0.271951 -0.06265667
0.1085836 0.27864626 -0.09505789 -0.10790698 0.030658126 0.21634486 0.031368136 0.18799147
-0.10235831 -0.21873431 -0.31174812 0.21204147 0.31521 -0.17180817 0.0049937665 0.23753348
0.013700753 0.29945812 -0.1297389 0.045925707 0.18625906 -0.21905124 -0.14381227 0.0039213896
-0.08573334 0.15532768 0.11805117 0.20172575 0.16391417 -0.022855848 0.26819333 0.044279605
-0.24081914 -0.18629646 0.30073515 -0.092644975 0.2881448 -0.13585472 0.11665836 0.263047
0.08408037 -0.26598018 0.2914144 0.12923563 0.22846249 0.1735523 -0.3154957 -0.28137812
-0.056241363 0.29621956 0.2587779 -0.052819252 0.2654272 0.24196586 -0.16866088 -0.14961171
-7.995963e-05 0.2871299 0.19421479 -0.0812048 -0.2946503 -0.07525471 -0.3207724 -0.1202846
00000000: d0b6 873c 0fec a63e 904a b13d d289 1f3e
00000010: d09e aebc b70f 903e 293d 8b3e 2452 80bd
00000020: 1461 de3d b9aa 8e3e b6ad c2bd 56fe dcbd
00000030: c026 fb3c 8289 5d3e e07b 003d d680 403e
00000040: 3ca1 d1bd e3fb 5fbe 739d 9fbe 6621 593e
00000050: 3563 a13e 7bee 2fbe c0a2 a33b fa3b 733e
00000060: 2079 603c 9352 993e 46da 04be 981c 3c3d
00000070: b2ba 3e3e f84e 60be 8643 13be 007f 803b
00000080: f694 afbd 380e 1f3e d0c4 f13d 3291 4e3e
00000090: 1ed9 273e 303c bbbc a350 893e 885e 353d
000000a0: 4b99 76be 80c4 3ebe f5f9 993e a6bc bdbd
000000b0: b787 933e 801d 0bbe 94ea ee3d 19ae 863e
000000c0: 5432 ac3d 8e2e 88be 4534 953e 5856 043e
000000d0: 12f2 693e b2b7 313e a788 a1be cb10 90be
000000e0: 585d 66bd 17aa 973e 897e 843e 0059 58bd
000000f0: 13e6 873e e6c5 773e 70b5 2cbe d033 19be
00000100: 00b0 a7b8 b102 933e 3ee0 463e b44e a6bd
00000110: 67dc 96be 241f 9abd 483c a4be c657 f6bd

weight f4 [8]
1.0 1.0 1.0 1.0 1.0 1.0 1.0 1.0
00000000: 0000 803f 0000 803f 0000 803f 0000 803f
00000010: 0000 803f 0000 803f 0000 803f 0000 803f

bias f4 [8]
0.0 0.0 0.0 0.0 0.0 0.0 0.0 0.0
00000000: 0000 0000 0000 0000 0000 0000 0000 0000
00000010: 0000 0000 0000 0000 0000 0000 0000 0000

running_mean f4 [8]
-7.3004517e-06 -3.2977692e-05 -0.00014159708 -0.00021371889 9.8837656e-05 -0.0013298667 0.00020104663 -1.0590069e-05
00000000: 67f6 f4b6 8751 0ab8 ad79 14b9 ba19 60b9
00000010: 1047 cf38 ec4e aeba 0bd0 5239 00ac 31b7

running_var f4 [8]
0.9323992 0.9223305 0.9449946 0.91730833 0.9341067 0.93753684 0.9474363 0.9358936
00000000: b7b1 6e3f da1d 6c3f 2beb 713f b8d4 6a3f
00000010: 9e21 6f3f 6a02 703f 2f8b 723f b996 6f3f

weight f4 [16]
1.0 1.0 1.0 1.0 1.0 1.0 1.0 1.0
1.0 1.0 1.0 1.0 1.0 1.0 1.0 1.0
00000000: 0000 803f 0000 803f 0000 803f 0000 803f
00000010: 0000 803f 0000 803f 0000 803f 0000 803f
00000020: 0000 803f 0000 803f 0000 803f 0000 803f
00000030: 0000 803f 0000 803f 0000 803f 0000 803f

bias f4 [16]
0.0 0.0 0.0 0.0 0.0 0.0 0.0 0.0
0.0 0.0 0.0 0.0 0.0 0.0 0.0 0.0
00000000: 0000 0000 0000 0000 0000 0000 0000 0000
00000010: 0000 0000 0000 0000 0000 0000 0000 0000
00000020: 0000 0000 0000 0000 0000 0000 0000 0000
00000030: 0000 0000 0000 0000 0000 0000 0000 0000

running_mean f4 [16]
5.5879357e-10 1.6996637e-09 6.9849193e-10 1.2340025e-09 1.3969839e-10 -9.313226e-10 5.3551047e-10 2.7939678e-10
4.656613e-11 -3.958121e-10 -3.5215636e-10 -4.889444e-10 9.778888e-10 2.0954759e-10 1.6298145e-10 -4.1909518e-10
00000000: 9a99 1930 9a99 e930 0000 4030 9a99 a930
00000010: 9a99 192f 0000 80b0 3333 1330 9a99 992f
00000020: cdcc 4c2e 9a99 d9af 9a99 c1af 6766 06b0
00000030: 6766 8630 6766 662f 3333 332f 6766 e6af

running_var f4 [16]
1.0000004 1.0000011 0.99999875 1.0 1.0000001 1.0000007 1.0000012 1.0000008
0.99999994 0.99999857 1.0000008 0.99999726 1.0000001 1.0000004 1.000001 1.0000002
00000000: 0300 803f 0900 803f ebff 7f3f 0000 803f
00000010: 0100 803f 0600 803f 0a00 803f 0700 803f
00000020: ffff 7f3f e8ff 7f3f 0700 803f d2ff 7f3f
00000030: 0100 803f 0300 803f 0800 803f 0200 803f

weight f4 [16, 1, 3, 3]
-0.31527448 -0.2111191 0.09336734 0.027698994 0.023064166 -0.119880676 0.13237572 0.18496421
0.27617058 0.14589107 0.11584616 0.31633535 0.30156007 -0.200991 0.32517555 0.16602933
0.04279366 0.17426684 -0.26881683 0.19837323 -0.043363214 -0.14031419 -0.048212856 -0.25302526
0.26580724 0.11541939 -0.09400022 -0.028417498 0.14483032 0.0109449625 0.07149565 -0.123900294
0.14795983 0.23305354 -0.0016441643 -0.051582724 0.07201779 -0.3204695 0.008201122 0.26628873
0.26578775 0.3239675 -0.22248618 0.17420503 -0.033860683 -0.28674585 -0.01388824 0.09135863
0.004294604 0.31135425 0.011802316 0.13822958 -0.14384648 0.08745578 0.15671232 0.3000324
0.033830494 0.1799734 0.30215207 0.20818987 -0.07234883 -0.08340201 -0.27408648 -0.3198222
0.059922963 -0.31845307 0.22747198 0.30205324 -0.15484433 -0.14575478 0.0035634935 0.07690644
0.16667035 -0.14858083 -0.0666213 0.22109655 -0.15522465 0.02678132 0.22859803 -0.0648832
-0.07535401 -0.038300395 0.22480735 0.117200255 0.17373887 0.23685732 -0.06241539 -0.25904202
-0.2849818 -0.067064494 -0.056158572 0.20419756 0.12442577 0.3031918 -0.0030037165 -0.17044151
-0.103154466 -0.22992198 0.29712167 -0.20794575 -0.08322933 -0.080510974 -0.070575565 0.03971827
0.2848703 0.19218186 0.32967153 0.28266975 -0.10597384 0.28632405 0.3215154 0.01473701
0.3054768 -0.07105312 -0.17813134 0.12384462 0.20238045 -0.0014150143 0.14174163 0.15221092
0.011134714 -0.2084248 0.24443558 0.22903779 0.14021683 -0.10749221 0.0054541826 0.25862685
-0.22107244 -0.22906892 0.012954593 0.18492094 0.19957808 0.14684948 0.08010885 0.26279786
-0.18594675 -0.22721276 -0.267246 0.2255809 -0.094441175 -0.2074984 -0.054675788 -0.19166407
00000000: a86b a1be 9b2f 58be 6037 bf3d 00e9 e23c
00000010: 10f1 bc3c 0084 f5bd 808d 073e 4267 3d3e
00000020: 3b66 8d3e 7864 153e c040 ed3d b5f6 a13e
00000030: 1566 9a3e 96d0 4dbe 697d a63e 9803 2a3e
00000040: 6848 2f3d 0273 323e 5ca2 89be 5a22 4b3e
00000050: a09d 31bd 86ae 0fbe d87a 45bd 878c 81be
00000060: e317 883e 0061 ec3d 3083 c0bd d0cb e8bc
00000070: 664e 143e 8052 333c 506c 923d 70bf fdbd
00000080: c882 173e 96a5 6e3e 0081 d7ba 6848 53bd
00000090: 107e 933d 9414 a4be 005e 063c ff56 883e
000000a0: 5515 883e 11df a53e 6bd3 63be ce62 323e
000000b0: 80b1 0abd 5ad0 92be 808b 63bc 3c1a bb3d
000000c0: c0b9 8c3b d369 9f3e 805e 413c 0e8c 0d3e
000000d0: 7e4c 13be 041c b33d 3279 203e d99d 993e
000000e0: d891 0a3d f24a 383e adb3 9a3e ba2f 553e
000000f0: a02b 94bd acce aabd 1055 8cbe bcbf a3be
00000100: c871 753d 480c a3be 6aee 683e b9a6 9a3e
00000110: 838f 1ebe be40 15be 8089 693b 2081 9d3d
00000120: a2ab 2a3e 9325 18be c070 88bd 2267 623e
00000130: 36f3 1ebe 8064 db3c 9a15 6a3e 7ce1 84bd
00000140: 3453 9abd e0e0 1cbd e633 663e b006 f03d
00000150: 9ae8 313e ba8a 723e 48a7 7fbd 28a1 84be
00000160: 22e9 91be 1c59 89bd 8806 66bd 2a19 513e
00000170: f0d2 fe3d f53b 9b3e 00da 44bb 3888 2ebe
00000180: a642 d3bd ab70 6bbe 5520 983e bbef 54be
00000190: 2474 aabd f0e2 a4bd ec89 90bd a0af 223d
000001a0: 85da 913e 52cb 443e b5ca a83e 17ba 903e
000001b0: d008 d9bd 1199 923e ab9d a43e 8073 713c
000001c0: 7567 9c3e 4c84 91bd 1068 36be 40a2 fd3d
000001d0: d23c 4f3e 0078 b9ba b824 113e 2edd 1b3e
000001e0: 606e 363c 506d 55be 524d 7a3e e288 6a3e
000001f0: 0095 0f3e e024 dcbd 00b9 b23b bd6a 843e
00000200: d060 62be 0b91 6abe 803f 543c ea5b 3d3e
00000210: 325e 4c3e b65f 163e 1c10 a43d 718d 863e
00000220: d368 3ebe 76aa 68be 78d4 88be aefe 663e
00000230: 606a c1bd 767a 54be b8f3 5fbd 9643 44be

weight f4 [16]
1.0 1.0 1.0 1.0 1.0 1.0 1.0 1.0
1.0 1.0 1.0 1.0 1.0 1.0 1.0 1.0
00000000: 0000 803f 0000 803f 0000 803f 0000 803f
00000010: 0000 803f 0000 803f 0000 803f 0000 803f
00000020: 0000 803f 0000 803f 0000 803f 0000 803f
00000030: 0000 803f 0000 803f 0000 803f 0000 803f

bias f4 [16]
0.0 0.0 0.0 0.0 0.0 0.0 0.0 0.0
0.0 0.0 0.0 0.0 0.0 0.0 0.0 0.0
00000000: 0000 0000 0000 0000 0000 0000 0000 0000
00000010: 0000 0000 0000 0000 0000 0000 0000 0000
00000020: 0000 0000 0000 0000 0000 0000 0000 0000
00000030: 0000 0000 0000 0000 0000 0000 0000 0000

running_mean f4 [16]
0.0013192692 0.024412125 -0.0042323223 0.007215038 0.0090223625 0.003479346 0.012562821 -0.004109803
0.002249347 0.00075986347 0.006018449 0.011670056 0.014027272 0.009899542 0.007321103 -0.012166537
00000000: 54eb ac3a f0fb c73c 4baf 8abb 206c ec3b
00000010: 88d2 133c bd05 643b 4ad4 4d3c 87ab 86bb
00000020: c869 133b 9331 473a 6936 c53b c333 3f3c
00000030: a5d2 653c b031 223c dde5 ef3b 2856 47bc

running_var f4 [16]
0.9109549 0.9168119 0.9093707 0.9041437 0.91423124 0.90543485 0.9100913 0.9119412
0.9043868 0.9085798 0.9071818 0.909555 0.9102994 0.9080597 0.9072659 0.91213167
00000000: 5734 693f 2fb4 6a3f 85cc 683f f675 673f
00000010: 0f0b 6a3f 94ca 673f befb 683f fa74 693f
00000020: e585 673f b098 683f 113d 683f 99d8 683f
00000030: 6209 693f 9a76 683f 9442 683f 7681 693f

weight f4 [4, 16, 1, 1]
-0.22728366 -0.04197043 0.20951742 0.029623866 -0.15819323 -0.22519106 -0.03542167 0.21439561
0.21923718 -0.14366251 -0.118840545 -0.06469253 0.109912276 0.16385734 -0.022899032 0.16488329
0.048602164 0.12105906 0.23095101 0.24608153 -0.1288468 0.030008495 -0.028693765 -0.23998797
-0.098002404 0.059289366 0.2499395 -0.014437437 -0.23153427 -0.094445735 -0.18569598 0.09388089
0.119360745 0.23903099 -0.06048715 0.11541432 0.18957883 0.097388 -0.22294909 0.18167534
-0.122672826 0.0891493 0.079942465 0.034497708 -0.06677118 -0.19295189 0.064952224 -0.029456377
-0.2435238 0.21392861 0.053388417 0.012929499 0.24780592 -0.19089887 -0.009699225 -0.09807381
0.17279485 -0.075736314 -0.20355526 -0.093398124 -0.013125718 -0.06999043 -0.13286203 0.043631762
00000000: 0cbd 68be 30e9 2bbd bc8b 563e c0ad f23c
00000010: 68fd 21be 7c98 66be 5016 11bd 868a 5b3e
00000020: b67f 603e 441c 13be ac62 f3bd 847d 84bd
00000030: b019 e13d 38ca 273e c096 bbbc 2ad7 283e
00000040: 1013 473d d0ed f73d 6c7e 6c3e ccfc 7b3e
00000050: 6af0 03be 60d4 f53c 300f ebbc 68bf 75be
00000060: 7cb5 c8bd 68d9 723d 24f0 7f3e 008b 6cbc
00000070: 5217 6dbe c46c c1bd 1627 3ebe a044 c03d
00000080: 6873 f43d 8ac4 743e 60c1 77bd 585e ec3d
00000090: f420 423e 5c73 c73d c44c 64be 1a09 3a3e
000000a0: e43b fbbd e893 b63d e0b8 a33d 784d 0d3d
000000b0: 54bf 88bd 2e95 45be ac05 853d 804e f1bc
000000c0: 4e5e 79be 1a10 5b3e d0ad 5a3d 40d6 533c
000000d0: d6c0 7d3e fe7a 43be 80e9 1ebc ecda c8bd
000000e0: 22f1 303e a41b 9bbd ca70 50be 8447 bfbd
000000f0: 400d 57bc 2457 8fbd fc0c 08be 38b7 323d

bias f4 [4]
0.016253114 0.042509288 -0.04959479 -0.091627896
00000000: 4025 853c 381e 2e3d e823 4bbd 68a7 bbbd

weight f4 [16, 4, 1, 1]
0.072289705 0.17030776 0.44424528 0.38245732 -0.022989452 0.11676961 -0.36630654 -0.2322036
-0.4817086 0.49525392 0.36297184 -0.018624783 0.48651105 0.097800255 0.08108187 0.33676916
-0.18211651 -0.09478921 -0.38141155 0.262572 -0.40481067 -0.44956082 0.36929214 0.45192295
-0.23821825 -0.21812332 0.47351605 0.23939383 -0.47399706 0.11195654 -0.43749672 -0.343894
-0.37490308 0.21233541 -0.17801112 0.31677037 -0.39317983 -0.1484958 -0.30772948 0.15871143
-0.4098217 0.050055683 -0.3890897 0.0047616363 -0.21497422 0.20894146 0.43296188 -0.0356825
0.40422505 -0.417318 0.3370222 0.4147852 0.34880424 0.23600596 -0.3775155 -0.4016161
0.48609418 0.21638447 -0.3215639 0.4710855 -0.3879894 -0.16857922 -0.18127054 0.25128084
00000000: a00c 943d 2865 2e3e 1e74 e33e 72d1 c33e
00000010: 6054 bcbc e824 ef3d 888c bbbe c8c6 6dbe
00000020: 82a2 f6be ec91 fd3e 72d7 b93e 0093 98bc
00000030: fa17 f93e 804b c83d 400e a63d 026d ac3e
00000040: c07c 3abe d820 c2bd 6048 c3be d66f 863e
00000050: 5843 cfbe d62c e6be dc13 bd3e 7262 e73e
00000060: 7cef 73be b85b 5fbe b270 f23e a823 753e
00000070: beaf f2be 7849 e53d 92ff dfbe e012 b0be
00000080: 4cf3 bfbe 746e 593e 8c48 36be ba2f a23e
00000090: de4e c9be 480f 18be b88e 9dbe 4085 223e
000000a0: 26d4 d1be 3007 4d3d c436 c7be 8007 9c3b
000000b0: 3422 5cbe c0f4 553e 2ead dd3e d027 12bd
000000c0: 96f6 ce3e b4aa d5be 2c8e ac3e ba5e d43e
000000d0: 7896 b23e 8cab 713e b649 c1be a0a0 cdbe
000000e0: 56e1 f83e e493 5d3e 06a4 a4be 1e32 f13e
000000f0: 8ca6 c6be 08a0 2cbe fc9e 39be e2a7 803e

bias f4 [16]
-0.4987982 0.09823465 -0.1324473 -0.42804855 -0.018891394 0.3156432 -0.10496682 -0.07256693
-0.11589754 -0.37572765 0.4678694 0.37839067 -0.1803422 0.27942508 -0.37854123 -0.14381671
00000000: 7a62 ffbe 402f c93d 44a0 07be 2e29 dbbe
00000010: 20c2 9abc fc9b a13e d8f8 d6bd f89d 94bd
00000020: b05b edbd 605f c0be 948c ef3e 6cbc c13e
00000030: a0ab 38be ce10 8f3e 28d0 c1be b044 13be
